results/Walker2d-v3/a2c/3/220626-172356/policy.pth (torch, 53732 bytes, 24 tensors)

actor.sigma_param f4 [6, 1]
0	0xbf08b355	-0.5339864
1	0xbf0761b6	-0.5288347
2	0xbf53ba29	-0.8270593
3	0xbf7d5847	-0.98962826
4	0xbf223b68	-0.63371897
5	0xbf1bd06c	-0.608649

actor.preprocess.model.model.0.weight f4 [64, 17]
0	0x3e4e85a2	0.20168164
1	0xbe43bf1e	-0.19115874
2	0xbe850541	-0.2598057
3	0x3e6fec12	0.23429897
4	0x3afaf2a2	0.0019145797
5	0x3da7b049	0.081879206
6	0x3e2adddd	0.16686197
7	0xbee18822	-0.44049174
8	0xbe6e210c	-0.23254794
9	0x3e16ecd1	0.14738776
10	0xbdeb17a2	-0.11479117
11	0x3e875529	0.2643216
12	0xbd913f44	-0.07092145
13	0x3bdb3a06	0.0066902665
14	0xbeb5704c	-0.35437238
15	0x3da52b81	0.08064938
16	0xbdf5a2f4	-0.119939715
17	0x3e4054a8	0.18782294
18	0x3e603c7a	0.2189807
19	0x3cccf7f3	0.025020575
20	0x3e85dffb	0.26147446
21	0xbbe97976	-0.007125075
22	0xbd8f7240	-0.07004213
23	0x3c76dcea	0.015067318
24	0x3e2fa1e9	0.17151608
25	0x3e4aee0b	0.19817369
26	0xbe157591	-0.1459563
27	0x3e2984c8	0.16554558
28	0xbcaac292	-0.020844731
29	0xbcd8bc46	-0.026456963
30	0xbd10ff73	-0.035399865
31	0x3e0bcd23	0.13652472
32	0x3c34a450	0.011025503
33	0xbd723c92	-0.059139796
34	0x3ef7920c	0.48353612
35	0x3e48f4ce	0.19624636
36	0x3bd685e0	0.006546721
37	0xbe276a10	-0.16349053
38	0xbd1e46eb	-0.03864185
39	0x3d065e05	0.032804508
40	0xbe82d2c2	-0.2555142
41	0x3e850d08	0.25986505
42	0xbd9dbfd9	-0.07702608
43	0x3c5763d9	0.013146364
44	0xbf039a3b	-0.5140721
45	0xbd06878c	-0.03284411
46	0x3e904c21	0.28183082
47	0xbc945fa9	-0.01811202
48	0x3e05c4c2	0.13063338
49	0x3cd20bce	0.025640395
50	0x3df85d74	0.121272
51	0x3e434aa8	0.19071448
52	0x3e4a10f1	0.19733025
53	0xbd3eeb9f	-0.046611425
54	0xbe0d4b24	-0.13798195
55	0xbe61990c	-0.22031039
56	0x3db9d9e6	0.09074764
57	0xbe1c5aef	-0.15269063
58	0x3d4ad151	0.049516026
59	0x3ed4ca64	0.41560662
60	0x3c8da764	0.017291732
61	0x3e00966d	0.12557383
62	0xbdf6e3f0	-0.120551944
63	0xbe9f68b1	-0.3113456
64	0x3cdad8dd	0.026714737
65	0x3dfa6fa0	0.12228322
66	0x3e434916	0.19070849
67	0xbdc19c1a	-0.09453602
68	0xbe008bea	-0.12553373
69	0xb83694e2	-4.353084e-05
70	0xbe305d41	-0.17223074
71	0x3e9fd785	0.31219116
72	0x3debc1d7	0.115115814
73	0xbe70fcfc	-0.23534006
74	0xbe24917b	-0.16071121
75	0xbd1ac09e	-0.03778135
76	0x3dfa9b38	0.12236637
77	0xbd3658a8	-0.044518143
78	0xbe004bc6	-0.12528905
79	0x3b93dbc7	0.0045122835
80	0xbb946592	-0.0045287097
81	0xbe6b33c4	-0.22968966
82	0x3c52ab28	0.01285819
83	0x3e4f55ea	0.20247617
84	0x3ec91e6a	0.39281017
85	0xbd28fe42	-0.041258104
86	0xbe14067d	-0.144556
87	0xbe2039f7	-0.15647112
88	0xbe510d99	-0.20415343
89	0x3e8c1f7c	0.2736777
90	0xbf15ce8a	-0.5851828
91	0xbe9664db	-0.29373822
92	0x3c896e06	0.016776096
93	0xbebb23ca	-0.36550742
94	0x3eafcba8	0.34335065
95	0xbcb4f497	-0.022089286
96	0x3d007688	0.03136304
97	0xbd58f069	-0.052963648
98	0xbe389250	-0.18024564
99	0xbdff610a	-0.124696806
100	0xbbb2f617	-0.005461465
101	0x3d1617ef	0.03664392
102	0xbe5e3c95	-0.21702798
103	0x3ea2fdd8	0.31834292
104	0xbe9fe12a	-0.31226474
105	0xbdbb97a8	-0.091597855
106	0xbdc5118c	-0.096224874
107	0x3d2b1c2c	0.041774914
108	0x3d9d5b2d	0.07683406
109	0xbcf0443c	-0.029329412
110	0x3f1a846d	0.60358316
111	0xbd2d2c3f	-0.042278524
112	0x3dfe7b1c	0.12425825
113	0xbdfed80e	-0.12443553
114	0xbdbce399	-0.09223098
115	0x3dbb06e5	0.091321744
116	0xbdf681d3	-0.12036481
117	0xbc4447ba	-0.011979992
118	0xbea3dbaa	-0.32003528
119	0x3d910976	0.07081883
120	0xbe8297bf	-0.25506398
121	0x3e1e0c9d	0.15434499
122	0x3ed62f7d	0.41833106
123	0xbc9e944a	-0.01935782
124	0x3ae612d9	0.0017553224
125	0x3e4fc545	0.20290096
126	0x3d189148	0.037247926
127	0x3de8ffbd	0.11376903
128	0xbde8979e	-0.11357044
129	0xbe2a6c69	-0.16642918
130	0xbac05858	-0.0014674766
131	0xbc433bc9	-0.011916109
132	0xbc8f8edf	-0.017524181
133	0x3d75ffa9	0.06005827
134	0xbc22838c	-0.0099190585
135	0xbd5c0f01	-0.053725246
136	0x3d736d98	0.05943069
137	0xbcb9cdf5	-0.022681216
138	0xbc7bf533	-0.015378284
139	0x3daf237f	0.08551692
140	0x3e84d253	0.25941715
141	0xbc250867	-0.010072804
142	0xbe20e8f5	-0.15713866
143	0xbdd8e00e	-0.1058961
144	0x3da33981	0.079699524
145	0xbe93486d	-0.28766194
146	0xbd2a71a8	-0.041612297
147	0x3df5eda1	0.12008215
148	0xbe2fedcd	-0.17180558
149	0xbe14a13b	-0.1451463
150	0xbe97baff	-0.29634854
151	0xbe1006a0	-0.14065027
152	0x3ddb472c	0.10706934
153	0xbef08680	-0.46977615
154	0x3d43c1b2	0.047792144
155	0xbe96115c	-0.2931012
156	0x3d951f79	0.072813936
157	0xbe3e4797	-0.18581997
158	0x3de28e81	0.11062337
159	0xbe9a3d53	-0.30124912
160	0x3e8044eb	0.2505258
161	0x3eb0930d	0.3448719
162	0xbe6477b5	-0.2231129
163	0xbd8a4a38	-0.06752437
164	0xbe0f0e6d	-0.13970347
165	0xbb89c0a6	-0.0042038737
166	0xbe5958cb	-0.21225278
167	0x3e630ae2	0.2217212
168	0xbc55c0a4	-0.013046417
169	0x3e6e8349	0.23292269
170	0xbe8681cf	-0.2627091
171	0xbd5e2a0b	-0.054239314
172	0x3e3bff1f	0.1835904
173	0xbda57833	-0.08079567
174	0x3e845963	0.25849447
175	0xbd8426ac	-0.064526886
176	0xbe852226	-0.26002616
177	0xbf01e3f7	-0.5073847
178	0xbe231aab	-0.15928142
179	0xbe1a04a1	-0.15040828
180	0xbc7ad6fe	-0.015310047
181	0x3dcf9069	0.10134966
182	0xbdb217d3	-0.0869595
183	0x3e3c724c	0.18402976
184	0x3de0b8a7	0.1097272
185	0x3e1595ca	0.14607921
186	0xbe55a18f	-0.20862411
187	0x3ccab083	0.02474237
188	0xbec0f965	-0.37690273
189	0xbd2bebe8	-0.041973025
190	0xbe2b4da1	-0.16728832
191	0x3e6abe8a	0.22924247
192	0xbb915020	-0.0044346005
193	0x3d838fd7	0.0642392
194	0x3cb2d692	0.02183083
195	0xbed6ba01	-0.41938785
196	0x3e342414	0.17591888
197	0x3e03d80a	0.12875381
198	0xbb836d6f	-0.0040108482
199	0x3e8ca010	0.27465868
200	0xbcd2b03f	-0.025718806
201	0x3e112131	0.14172818
202	0xbda4f85b	-0.080551825
203	0xbd3125bf	-0.043248888
204	0x3e609711	0.21932627
205	0xbe005a28	-0.12534392
206	0xbe6ca883	-0.23111157
207	0xbd9c9f62	-0.07647587
208	0x3d9d1af1	0.07671154
209	0x3eef8b47	0.46785948
210	0x3e2f23e3	0.17103533
211	0xbe55e6ee	-0.20888874
212	0xbc2f0526	-0.01068238
213	0xbca1aa37	-0.019734485
214	0xbecfcf47	-0.40587828
215	0x3e3f353c	0.18672651
216	0xbe88e2e6	-0.2673561
217	0x3d10240a	0.03519062
218	0xbe5e9c38	-0.2173928
219	0xbe66ee38	-0.2255181
220	0xbe2326ff	-0.15932845
221	0x3dfb21e2	0.12262322
222	0xbe9901c5	-0.29884163
223	0x3da816c6	0.08207469
224	0x3e3b8456	0.18312201
225	0xbe02bb14	-0.12766677
226	0xbd8aa50f	-0.06769764
227	0xbde9ff4a	-0.11425646
228	0xbea50326	-0.32228965
229	0xbedb1931	-0.42792657
230	0xbdad1729	-0.08451683
231	0x3d69e9c6	0.05710771
232	0xbd9c5fb1	-0.07635439
233	0x3e6d39f5	0.2316664
234	0xbd7f497a	-0.062325932
235	0xbc4e70a1	-0.012600095
236	0xbe7ba0b5	-0.24573024
237	0x3bf023d9	0.007328492
238	0xbe04c5d4	-0.1296609
239	0xbeeb9794	-0.46014082
240	0xbd95b622	-0.0731013
241	0xbe84847b	-0.25882325
242	0xbda809cd	-0.08204994
243	0xbdff4f8f	-0.124663465
244	0xbea5a972	-0.3235584
245	0x3e89d078	0.26916862
246	0xbe7b41d8	-0.24536836
247	0xbea0dafc	-0.31417072
248	0xbe44650b	-0.1917917
249	0xbe91443e	-0.28372377
250	0xbd4bbd86	-0.04974129
251	0x3e60246a	0.21888891
252	0xbddbdb42	-0.107351795
253	0xbd845fd7	-0.064635925
254	0x3e4eeb16	0.20206866
255	0xbebf9796	-0.37420338

actor.preprocess.model.model.0.bias f4 [64]
0	0x3ea121da	0.3147114
1	0xbea129f2	-0.31477314
2	0x3e89ca62	0.26912218
3	0xbe3c8759	-0.18411006
4	0xbdc18365	-0.0944889
5	0x3dc9c499	0.09851951
6	0xbcef8e3b	-0.029242625
7	0x3f02dd91	0.51119334
8	0x3ed6aae7	0.41927263
9	0xbde2185c	-0.110398024
10	0xbe94d787	-0.29070684
11	0xbe65c7f2	-0.22439554
12	0x3ec6e9e8	0.3885033
13	0x3e75f5ad	0.24019499
14	0xbeaa34c6	-0.33243388
15	0xbec9427a	-0.3930853
16	0xbe7b67bd	-0.24551292
17	0x3e717e60	0.23583364
18	0x3e9c4977	0.305248
19	0x3e93f517	0.28897926
20	0x3e909fe9	0.28247002
21	0x3eb8fc9c	0.36130226
22	0x3e9a2d18	0.3011253
23	0xbe368c2c	-0.17826909
24	0x3ea4931c	0.32143486
25	0xbe918d90	-0.28428316
26	0xbe338aaf	-0.17533372
27	0xbd7b4a65	-0.061350245
28	0xbf110959	-0.5665489
29	0x3ea5f8d2	0.32416397
30	0xbe5fe97f	-0.21866415
31	0xbe03eb25	-0.1288267
32	0x3e907d6c	0.2822069
33	0xbeae8218	-0.3408363
34	0xbebe8b8c	-0.3721584
35	0x3e0fec7e	0.14055058
36	0xbd89a67e	-0.06721209
37	0x3e03ccef	0.12871145
38	0x3c8b946d	0.017038548
39	0x3e3df20a	0.18549362
40	0x3ea6155b	0.32438168
41	0x3dfdae27	0.123867325
42	0xbed75211	-0.420548
43	0xbe3d3a16	-0.1847919
44	0xbd8dad5f	-0.069178335
45	0xbe5012fe	-0.20319745
46	0x3da2ebc3	0.07955124
47	0xbe2fd6b1	-0.17171742
48	0x3edd0226	0.43165702
49	0x3c5689b6	0.013094356
50	0x3e5ea56f	0.21742795
51	0xbda88eb3	-0.08230343
52	0x3e33917a	0.17535964
53	0x3de095e4	0.10966089
54	0x3eb66b6c	0.3562883
55	0xbe86e57f	-0.26346967
56	0xbefd4be8	-0.49471974
57	0x3e794e29	0.24346222
58	0x3ed8d2f3	0.4234844
59	0xbe3a2647	-0.18178664
60	0xbdba0485	-0.09082893
61	0x3df3ed9c	0.11910555
62	0xbe857081	-0.26062396
63	0xbddbd950	-0.107348084

actor.preprocess.model.model.2.weight f4 [64, 64]
0	0xbe21e00b	-0.15808122
1	0x3df25cdb	0.11834117
2	0xbe93f8ca	-0.28900748
3	0x3e0e6d3e	0.1390886
4	0x3d87c275	0.066288866
5	0xbea97f6f	-0.33105037
6	0xbe06df48	-0.13171113
7	0x3dd8c0db	0.10583659
8	0x3d0911ea	0.03346435
9	0xbe827f58	-0.2548778
10	0x3f0fcc52	0.56171143
11	0x3dcd0977	0.10011571
12	0xbe603e0e	-0.21898672
13	0x3e98c746	0.29839534
14	0x3d956103	0.07293894
15	0x3e9bbad7	0.30415985
16	0xbe96437b	-0.2934836
17	0xbe250458	-0.16114938
18	0xbe3adeed	-0.18249102
19	0xbe5b12a3	-0.21393828
20	0xbe35975d	-0.17733522
21	0xbe50244e	-0.20326349
22	0x3e6f63f3	0.23377971
23	0xbe9633db	-0.29336438
24	0xbe645401	-0.2229767
25	0xbd24d6a1	-0.04024375
26	0x3dface81	0.12246419
27	0xbea5fe70	-0.32420683
28	0xbbf8702a	-0.0075817304
29	0xbe901ed4	-0.2814852
30	0x3e39688a	0.18106285
31	0xbd73f0a5	-0.05955567
32	0xbd9325cb	-0.07184943
33	0x3d022178	0.0317702
34	0xbdb10850	-0.086441636
35	0x3eaf7346	0.34267634
36	0xbd9f9b8b	-0.07793339
37	0x3dd5c100	0.104372025
38	0x3c868c7e	0.016424414
39	0x3df614e8	0.12015706
40	0xbdfec993	-0.12440791
41	0x3ddb7f25	0.1071761
42	0xbe337f78	-0.17529094
43	0xbd7527ed	-0.05985253
44	0x3db73f78	0.089476526
45	0x3e39ba76	0.18137535
46	0x3dd9d327	0.10635977
47	0xbd205d75	-0.039151628
48	0xbe287220	-0.16449785
49	0xbd279d95	-0.040921766
50	0xbecdb6ad	-0.40178433
51	0x3d3a156a	0.04543058
52	0xbe8eda3f	-0.27900884
53	0x3be08699	0.006851983
54	0x3e383126	0.17987499
55	0x3e66d44c	0.22541922
56	0x3d817e91	0.06322969
57	0xbf1e0999	-0.61733395
58	0xbd2c0271	-0.041994516
59	0x3c3b5d63	0.011435839
60	0xbda457be	-0.08024548
61	0xbdd89c93	-0.10576739
62	0x3e2a8dbd	0.16655631
63	0x3e42ac6e	0.19011089
64	0xbbc695dc	-0.006060345
65	0xbde5f426	-0.11228208
66	0xbdeff1b9	-0.11716027
67	0xbe9b6361	-0.30349258
68	0xbd7b71ff	-0.061388012
69	0x3d17d994	0.037072733
70	0xbea1ec8f	-0.31625792
71	0xbeaeabb3	-0.3411537
72	0xbe95e581	-0.2927666
73	0x3e1710ec	0.14752549
74	0xbe2bb980	-0.16769981
75	0x3eea99cf	0.45820472
76	0xbe9655d0	-0.29362345
77	0xbe58c165	-0.21167524
78	0xbe930a5a	-0.28718835
79	0x3d916fa5	0.07101373
80	0x3d86bee0	0.06579375
81	0xbd1f0350	-0.03882152
82	0x3e41a1a3	0.18909316
83	0xbd83856b	-0.06421932
84	0xbd4fb8d1	-0.050713364
85	0xbe70950b	-0.23494355
86	0xbe14d82a	-0.14535585
87	0x3e2a24fb	0.1661567
88	0xbd9d3438	-0.076759756
89	0x3cad3cc7	0.021147145
90	0x3e9806f5	0.29692808
91	0x3de8ff3e	0.113768086
92	0xbd15e5af	-0.036595996
93	0xbda5a3a9	-0.08087856
94	0xbb13554a	-0.0022481256
95	0x3d8880fe	0.06665228
96	0xbd721b84	-0.059108272
97	0x3ed9cdc9	0.42539814
98	0xbcf999c8	-0.030468836
99	0xbd8d30d8	-0.06894082
100	0x3dbeb156	0.09311168
101	0x3d6e2cc4	0.05814816
102	0x3d78bf1d	0.060729135
103	0x3dbcce9e	0.092190966
104	0xbe49c7ba	-0.19705096
105	0xbe2bd13d	-0.16779037
106	0x3e9ca59c	0.305951
107	0xbe74d1ce	-0.23908159
108	0xbed060b6	-0.40698785
109	0x3e7f5123	0.24933295
110	0x3e8ab500	0.27091217
111	0x3dc4e4a9	0.09613926
112	0x3e6b910f	0.23004554
113	0x3d046ed8	0.03233227
114	0xbe418e2f	-0.18901895
115	0xbee3464d	-0.44389573
116	0xbd115ea0	-0.035490632
117	0xbe9f6bf1	-0.3113704
118	0xbe1a0a5a	-0.15043011
119	0x3ce68e3d	0.028143996
120	0xbde4529f	-0.11148571
121	0xbe045027	-0.129212
122	0xbe70a4dc	-0.23500389
123	0x3ceea302	0.029130463
124	0x3e713276	0.23554406
125	0xbe97774a	-0.29583198
126	0x3dbeecdf	0.09322523
127	0x3e07e587	0.13271151
128	0x3eaaabfd	0.33334342
129	0xbe5e18c6	-0.21689138
130	0x3d675033	0.05647297
131	0x3d2c3449	0.04204205
132	0x3eaf2645	0.34208885
133	0x3ec7b26c	0.39003313
134	0xbdf6e3b4	-0.1205515
135	0x3e7d8fea	0.2476193
136	0x3e19e426	0.15028438
137	0xbe6fb69e	-0.23409507
138	0x3de7a943	0.11311581
139	0x3dabff19	0.083982654
140	0x3eeb7822	0.45990092
141	0x3eb0d800	0.34539795
142	0xbd67ad67	-0.056561854
143	0xbe22ee8e	-0.15911314
144	0xbd97e95c	-0.07417557
145	0xbe2bfb65	-0.16795118
146	0x3dd4d9f9	0.103931375
147	0xbd9340a3	-0.07190063
148	0x3d6b85c7	0.057500627
149	0x3e16657e	0.14687154
150	0x3db428d8	0.08796853
151	0xbdd83fd6	-0.10559051
152	0xbe990b9d	-0.29891673
153	0x3a8d4139	0.0010776884
154	0xbe874d7e	-0.2642631
155	0x3e62892c	0.2212264
156	0x3e5d099f	0.21585701
157	0x3e54f928	0.2079817
158	0xbdd3ef86	-0.1034842
159	0xbe3167fa	-0.1732482
160	0xbd9adb73	-0.07561388
161	0xbe126d82	-0.14299586
162	0xbea492e2	-0.32143313
163	0xbdad8f39	-0.08474583
164	0xbe23585a	-0.15951672
165	0x3df40f3d	0.11916969
166	0xbea41bc4	-0.32052433
167	0xbe9c572a	-0.3053525
168	0x3d8a0d0f	0.06740772
169	0xbe8e8e1b	-0.27842793
170	0x3ce6a904	0.028156765
171	0xbee1433d	-0.4399661
172	0x3dc83e34	0.09777489
173	0xbe3e4538	-0.18581092
174	0x3d2683b5	0.04065295
175	0xbd801635	-0.06254236
176	0xbb12bedf	-0.00223916
177	0x3f153ead	0.5829876
178	0x3f04557b	0.5169293
179	0x3e97c98a	0.2964595
180	0x3e25af9a	0.16180268
181	0x3dd4e71d	0.10395644
182	0x3b8c9d35	0.0042912015
183	0x3e4e5b6e	0.20152065
184	0xbe7b8bf9	-0.24565114
185	0xbde1d1c7	-0.1102634
186	0x3e985f18	0.2976005
187	0xbba89f12	-0.005145916
188	0x3e1cf02a	0.1532599
189	0xbd026fdf	-0.03184497
190	0x3ed13a86	0.40864962
191	0xbddb6171	-0.10711945
192	0x3d8811f1	0.06644047
193	0x3e1c3bae	0.15257141
194	0xbe723643	-0.23653512
195	0xbe50e206	-0.20398721
196	0x3ea10a7c	0.3145331
197	0xbd5b4d9f	-0.053540822
198	0x3cc89fbf	0.024490235
199	0xbec9547e	-0.39322275
200	0x3bbc91bd	0.005754678
201	0x3c2cd9d1	0.010549978
202	0x3e2059cc	0.15659255
203	0x3e3bbec0	0.18334484
204	0xbe8a8323	-0.27053174
205	0xbdc02b07	-0.09383207
206	0x3da63d6d	0.08117185
207	0xbcda8d71	-0.026678773
208	0x3d36335a	0.044482566
209	0xbe3e866d	-0.18605967
210	0xbd0068c8	-0.031349927
211	0x3d333331	0.04374999
212	0x3cafd82b	0.021465382
213	0xbdfb3900	-0.12266731
214	0x3e6c52f4	0.23078519
215	0xbe3a1c9f	-0.1817498
216	0x3ec95585	0.3932306
217	0x3efc4298	0.49269557
218	0xbe477d74	-0.1948145
219	0x3e1f538a	0.15559211
220	0xbe3a52b3	-0.1819561
221	0xbdcac112	-0.099001065
222	0x3e1f498a	0.15555397
223	0x3e8cffc0	0.27538872
224	0xbda60e17	-0.08108156
225	0x3df615c6	0.12015872
226	0x3e2f8705	0.1714135
227	0xbdb4fbf4	-0.08837119
228	0xbe29e1b9	-0.16590013
229	0xbe37f488	-0.17964375
230	0x3e15a9be	0.14615533
231	0x3e720119	0.23633231
232	0x3d8dced6	0.069242164
233	0x3ea837f7	0.32855198
234	0x3ef4212d	0.4768156
235	0xbc820172	-0.01586983
236	0x3dd1206a	0.102112606
237	0x3ed68087	0.41894934
238	0xbda16638	-0.07880825
239	0x3ed33eb7	0.41258785
240	0xbdb44905	-0.0880299
241	0xbdbc274c	-0.09187183
242	0xbe8bbe59	-0.2729366
243	0x3caa441f	0.020784436
244	0x3e2bac33	0.16764908
245	0x3e330d59	0.1748556
246	0xbdb50aa5	-0.08839921
247	0xbd361faa	-0.04446379
248	0xbc17ab8c	-0.009257209
249	0xbd57f247	-0.052721288
250	0xbe1721c6	-0.14758977
251	0x3e6084ea	0.21925703
252	0xbe3c3f20	-0.18383455
253	0x3e13ccb0	0.14433551
254	0x3dee88fc	0.116472214
255	0x3d1734d9	0.036915634

actor.preprocess.model.model.2.bias f4 [64]
0	0xbe509c60	-0.20372152
1	0xbf00e407	-0.5034794
2	0x3e72da03	0.23715977
3	0xbebcd676	-0.3688237
4	0x3daab772	0.08335771
5	0xbdfce25f	-0.12347864
6	0x3d27191b	0.040795427
7	0xbda135e4	-0.07871607
8	0x3e4196da	0.18905202
9	0xbe2bbff6	-0.16772446
10	0x3e726e37	0.23674856
11	0xbf04c006	-0.51855505
12	0x3e560226	0.20899257
13	0x3d9c6ff4	0.07638541
14	0x3e56adcf	0.2096474
15	0xbe878a5a	-0.2647274
16	0xbe511e77	-0.20421778
17	0x3d4b832d	0.049685646
18	0xbef9801e	-0.48730558
19	0x3e872e4f	0.26402518
20	0x3e5dbdb3	0.21654396
21	0x3e9f5fe5	0.3112785
22	0x3d538d1d	0.051648248
23	0xbf0204a7	-0.5078835
24	0x3e9b6dbe	0.30357164
25	0x3d8f7b51	0.070059426
26	0xbe5eb25d	-0.21747728
27	0xbed6f2af	-0.41982028
28	0x3e07f8fe	0.13278577
29	0xbe361cf2	-0.1778448
30	0x3f01e1d4	0.5073521
31	0xbe5c06f4	-0.21487027
32	0xbe54a012	-0.20764187
33	0xbeffe901	-0.49982455
34	0xb8b9fa1d	-8.868075e-05
35	0xbc8c77dd	-0.017146999
36	0x3d9fb28e	0.077977285
37	0xbe28e374	-0.16493016
38	0x3defd924	0.11711338
39	0xbe4605cd	-0.1933815
40	0x3e2e8c24	0.17045647
41	0x3e8102f2	0.2519756
42	0x3e28170e	0.16415045
43	0xbf082b42	-0.53191006
44	0x3e511b94	0.20420676
45	0x3c328b9d	0.010897544
46	0xbec448b6	-0.38336724
47	0x3e0ad86b	0.1355912
48	0xbc8fb7be	-0.01754367
49	0xbef213c3	-0.47280702
50	0x3e913396	0.2835967
51	0x3e389cb7	0.18028532
52	0x3e989cac	0.2980703
53	0xbed898d5	-0.42304102
54	0xbf162ca7	-0.58661884
55	0xbd88d46f	-0.066811435
56	0xbe74de68	-0.23912966
57	0x3d24c2fb	0.04022501
58	0x3e8370ea	0.25672084
59	0x3ed04f46	0.4068548
60	0x3d0209fc	0.031747803
61	0xbcde9088	-0.027168527
62	0xbe26cdf7	-0.16289507
63	0x3ec31ef1	0.38109544

actor.mu.model.0.weight f4 [6, 64]
0	0xbdd96643	-0.10615208
1	0xbdf4e5a2	-0.119578615
2	0xbbca8880	-0.006180823
3	0xbd828208	-0.06372458
4	0xbc8d8b9c	-0.017278485
5	0x3ab77986	0.0013998009
6	0xbc372873	-0.011179077
7	0x3d286ca9	0.04111925
8	0x3d36f20a	0.04466442
9	0xbe0e1d76	-0.13878426
10	0x3d43c444	0.047794595
11	0xbe190a62	-0.14945367
12	0x3d574404	0.0525551
13	0x3d130913	0.035897326
14	0x3d8cd556	0.06876628
15	0xbddea87e	-0.10871981
16	0x3da6fa8c	0.08153257
17	0x3cd6c2f3	0.026216006
18	0xbe247fb1	-0.16064335
19	0x3cb152dd	0.021645958
20	0x3e01a294	0.12659675
21	0x3da95edc	0.08270046
22	0x3d07287c	0.032997593
23	0xbe292be8	-0.16520655
24	0x3e1bafc7	0.15203772
25	0x3d2ff4c4	0.042958036
26	0xbd655342	-0.055987604
27	0xbe0750df	-0.13214444
28	0xbdb14db2	-0.08657397
29	0xbdde86cc	-0.10865554
30	0x3de11642	0.109905735
31	0xbdd9f8f5	-0.10643188
32	0xbdcab365	-0.09897498
33	0xbe0b3125	-0.13592966
34	0x3c594874	0.013261903
35	0x3d1a4c80	0.037670612
36	0x3d95e6bd	0.073194005
37	0xbd9b7d64	-0.07592276
38	0x3dc6547a	0.096840814
39	0xbd44e5d2	-0.048070736
40	0x3d9f52d8	0.07779473
41	0x3e04468e	0.1291754
42	0xbd2933e3	-0.04130925
43	0xbe4a89f4	-0.19779187
44	0x3c01248c	0.007882249
45	0xbd52bd08	-0.051449805
46	0xbd9977ba	-0.07493539
47	0x3d9a9405	0.07547764
48	0x3d2d867b	0.04236458
49	0xbdeeef20	-0.11666703
50	0x3ce0569e	0.027385052
51	0x3e28c44c	0.16481131
52	0x3e060670	0.13088393
53	0xbe211715	-0.15731461
54	0xbe3f2dfa	-0.18669882
55	0xbe042706	-0.12905511
56	0xbdc40217	-0.09570711
57	0x3db340ec	0.08752617
58	0x3d9efb52	0.07762779
59	0x3dd8f818	0.10594195
60	0x3ce05873	0.027385926
61	0xbd9c88dd	-0.07643292
62	0xbe22ff2a	-0.1591765
63	0x3df9c3e8	0.12195569
64	0xbe140ace	-0.14457247
65	0xbe0c0c9f	-0.1367669
66	0x3d783e48	0.06060627
67	0xbe137301	-0.1439934
68	0x3d31acaf	0.043377575
69	0xbd998647	-0.074963145
70	0xbd5097b6	-0.050925933
71	0x3d4a2551	0.049351994
72	0x3d5a7870	0.053337514
73	0x3d22bd3f	0.03973126
74	0x3d26b21d	0.040697206
75	0xbdccecfd	-0.100061394
76	0x3d797097	0.06089839
77	0x3c0a8205	0.008453851
78	0x3e05c5ea	0.1306378
79	0xbe19dddc	-0.15026039
80	0xbcb73032	-0.022361849
81	0x3d91e8e3	0.07124498
82	0xbe09bd7f	-0.13451193
83	0x3d2634fa	0.040577866
84	0x3d9c33fa	0.07627101
85	0x3e2f42e4	0.1711536
86	0xbd45425c	-0.04815899
87	0xbdbfa7d5	-0.09358183
88	0x3e11a6fd	0.14223857
89	0x3d2c7757	0.042106
90	0x3d0c3600	0.034231186
91	0xbe07dac1	-0.13267042
92	0x3d45e741	0.048316244
93	0xbcf29cde	-0.029615816
94	0x3e5429ab	0.2071902
95	0xbbb2247f	-0.0054364796
96	0xbe0c13f5	-0.13679488
97	0xbe14626d	-0.14490671
98	0x3d6409e9	0.055673514
99	0x3d4b1653	0.049581837
100	0x3d02e464	0.03195609
101	0xbd4a4afd	-0.04938792
102	0x3d8804c9	0.06641538
103	0xbdc932ab	-0.09824117
104	0x3c91e427	0.017808987
105	0x3cbeabcf	0.023275284
106	0x3a5efe76	0.00085065456
107	0xbe1e5f9b	-0.15466158
108	0x3d3e85e6	0.046514414
109	0x3d743cfd	0.059628475
110	0xbe1979be	-0.14987847
111	0x3bd4d0fb	0.006494639
112	0xbded7f50	-0.115965486
113	0xbe2e70ca	-0.17035213
114	0x3e065345	0.13117702
115	0x3ca93042	0.020652894
116	0x3d9b2b27	0.0757659
117	0xbd941994	-0.07231441
118	0xbdde3467	-0.10849839
119	0xbdcc919d	-0.09988711
120	0xbe1fb40e	-0.15596029
121	0xbdd05030	-0.101715446
122	0xb8c8b109	-9.5697185e-05
123	0x3e0d5ab1	0.13804127
124	0x3d3a2534	0.045445636
125	0x3d00d2df	0.031451102
126	0xbcfb2640	-0.030657887
127	0x3ccfc984	0.025364645
128	0x3d050e8c	0.032484576
129	0xbd923ace	-0.07140122
130	0x3e5ca3cb	0.21546857
131	0xbd6c1bb9	-0.057643626
132	0xbe8240e0	-0.2544012
133	0x3d5cae64	0.05387725
134	0xbce8c658	-0.02841489
135	0xbe26b2b0	-0.16279101
136	0x3db0212f	0.08600079
137	0xbe0cb8b4	-0.13742334
138	0x3df13162	0.11776997
139	0xbd78724f	-0.06065589
140	0x3c6c3412	0.014416711
141	0x3db953f2	0.090492144
142	0x3d9aad14	0.07552543
143	0xbd1c9e4c	-0.0382369
144	0x3e490a99	0.19632949
145	0xbe3c0a81	-0.18363382
146	0xbd0eceff	-0.034865376
147	0x3cc84aab	0.024449667
148	0x3e5e564d	0.21712609
149	0x3d3b4151	0.045716587
150	0x3e68e783	0.22744565
151	0xbd645560	-0.055745482
152	0x3e1c44ec	0.15260667
153	0x3d88be3b	0.066769086
154	0xbdf86eba	-0.121304944
155	0xbc7ed24b	-0.015553067
156	0xbd20d0d0	-0.03926164
157	0xbd583b14	-0.052790716
158	0x3daaec15	0.0834581
159	0xbcc361d1	-0.023850353
160	0xbd4e6484	-0.050388828
161	0xbd0cd111	-0.03437907
162	0xbefe9ed3	-0.49730548
163	0x3cb4fd57	0.022093458
164	0xbe1756ce	-0.14779207
165	0x3da052d6	0.078283
166	0x3e55f308	0.2089349
167	0xbb9c718d	-0.0047742785
168	0x3b087156	0.0020819507
169	0x3db2f3fc	0.087379426
170	0x3ec0bf73	0.37646064
171	0xbcdc0a1b	-0.026860287
172	0x3ced1a2d	0.028943146
173	0xbdd2a12a	-0.10284646
174	0x3c915642	0.017741326
175	0xbe738d8e	-0.23784468
176	0x3e11acb8	0.14226043
177	0xbd5d9d77	-0.05410525
178	0xbd7da31c	-0.06192313
179	0x3e393c22	0.18089345
180	0x3d2ff933	0.042962264
181	0xbcb5a484	-0.022173174
182	0xbd78222d	-0.060579468
183	0xbe217e7a	-0.15770903
184	0x3cc55cc9	0.024092095
185	0x3d5294b9	0.051411364
186	0x3ec31bca	0.3810714
187	0x3c32d0a1	0.010913999
188	0xbe19efcd	-0.15032883
189	0xbe71d951	-0.23618056
190	0x3d0889a8	0.033334404
191	0x3da83521	0.082132585
192	0x3e5a1d34	0.21300203
193	0xbdeb8dca	-0.115016535
194	0x3d855e8a	0.065121725
195	0xbcbac425	-0.022798607
196	0xbe838092	-0.2568403
197	0xbe9510d3	-0.29114398
198	0x3e5bb9f6	0.21457657
199	0x3e995e8b	0.29954943
200	0xbea8b14c	-0.32947767
201	0xbdab038d	-0.08350287
202	0xbea0539f	-0.31313798
203	0xbe06fc7f	-0.13182257
204	0xbdae6a81	-0.08516408
205	0x3b98515e	0.0046483716
206	0xbe8660a2	-0.262456
207	0x3e00200e	0.12512228
208	0x3dc846db	0.097791396
209	0x3e500b43	0.20316796
210	0xbe0c08c0	-0.13675213
211	0x3df60199	0.120120235
212	0x3d8be045	0.068298854
213	0xbca29b9c	-0.019849591
214	0x3d8bca16	0.06825654
215	0xbe16b490	-0.14717317
216	0xbdc263ae	-0.09491669
217	0xbd4fbf71	-0.050719682
218	0x3dd3b296	0.10336797
219	0xbe059644	-0.13045603
220	0xbce51ac6	-0.027966868
221	0x3e9ad80c	0.30242956
222	0x3dce5b48	0.10076004
223	0x3dda453a	0.10657735
224	0x3e82a0b1	0.25513223
225	0xbdc98ae6	-0.09840946
226	0x3c3de3f4	0.011589993
227	0xbd40ac10	-0.04703909
228	0x3cbd1423	0.023080891
229	0x3ddfad8d	0.10921774
230	0x3dc7bc09	0.09752662
231	0x3e762a0c	0.24039477
232	0xbddf2e3a	-0.10897489
233	0x3b9848ea	0.004647364
234	0xbd8e849a	-0.069588855
235	0xbe1959fa	-0.1497573
236	0x3e0615c4	0.1309424
237	0x3b11cd25	0.002224752
238	0xbcff30ed	-0.03115126
239	0x3e262dac	0.1622836
240	0x3db344c2	0.08753349
241	0xbda8e81a	-0.08247395
242	0x3dbfadfe	0.09359358
243	0xbdefa165	-0.117007054
244	0x3d3f8f5b	0.046767574
245	0xbe0e229e	-0.13880393
246	0xbe0e04e8	-0.13869059
247	0xbd629c41	-0.055324797
248	0xbca8ad1e	-0.020590361
249	0x3de15cd4	0.11004034
250	0x3a5b7162	0.00083710824
251	0x3cf771f1	0.030205699
252	0x3e3c3959	0.18381251
253	0xbc905474	-0.017618395
254	0x3e1e5a72	0.1546419
255	0x3d536de2	0.051618464

actor.mu.model.0.bias f4 [6]
0	0x3e3b96a9	0.18319191
1	0x3e864cb8	0.26230407
2	0x3d249328	0.0401794
3	0x3e5445f7	0.20729814
4	0x3e31cb29	0.17362656
5	0x3cc6d159	0.024269747

critic.preprocess.model.model.0.weight f4 [64, 17]
0	0x3ea263fb	0.31716904
1	0xbe25bcf0	-0.16185355
2	0x3e2b7406	0.16743478
3	0xbdf1670e	-0.11787234
4	0xbc956cb3	-0.018240308
5	0xbd8c9f8f	-0.06866371
6	0xbdc31418	-0.09525317
7	0x3e2984b4	0.16554528
8	0xbe945c2a	-0.28976566
9	0xbeaf4dd2	-0.3423906
10	0xbd695d45	-0.056973714
11	0x3d8dae7a	0.069180444
12	0x3c8f23ec	0.017473184
13	0xbe219c99	-0.15782394
14	0x3d3e0306	0.046389602
15	0xbded3b03	-0.11583521
16	0x3e51a314	0.20472366
17	0xbe5da890	-0.21646333
18	0x3e8ffb83	0.28121576
19	0xbe8c7df9	-0.2743986
20	0xbe029c09	-0.12754835
21	0xbe818491	-0.25296453
22	0x3e22b27c	0.15888399
23	0x3e50e778	0.20400798
24	0x3ead3da0	0.3383608
25	0x3e518ddd	0.20464273
26	0xbe673881	-0.22580148
27	0xbb379550	-0.0028012581
28	0xbdcb4222	-0.09924723
29	0xbd8a1696	-0.06742589
30	0xbd95ec2b	-0.07320436
31	0x3cb6c7fe	0.02231216
32	0x3d01d67e	0.031698696
33	0xbc44f101	-0.01202035
34	0xbf0d1fe7	-0.55126804
35	0xbec9756c	-0.39347398
36	0xbc6f541c	-0.014607456
37	0xbdf61a04	-0.12016681
38	0x3e606d44	0.21916682
39	0xbd9ea72f	-0.077467315
40	0xbe5c4b7a	-0.21513167
41	0x3e60bfa4	0.21948105
42	0x3c8359f4	0.016034104
43	0xbf00b725	-0.50279456
44	0x3dde3121	0.10849214
45	0x3dbc19a2	0.091845766
46	0xbddb086b	-0.10694965
47	0x3ce7ecdd	0.028311187
48	0xbdb9a052	-0.09063782
49	0xbaea3d06	-0.001787097
50	0x3b9a36ac	0.0047062244
51	0x3e84b8c7	0.25922224
52	0xbea6c19e	-0.32569593
53	0xbc330d65	-0.0109284865
54	0x3c47de3e	0.012198983
55	0x3d58cd8c	0.0529304
56	0x3e8be3e3	0.273223
57	0xbdc733f5	-0.09726707
58	0x3d4c5669	0.049887095
59	0xbeb5ed1c	-0.35532463
60	0xbc7ed25c	-0.015553083
61	0x3efcccaa	0.49374896
62	0xbdad1340	-0.08450937
63	0x3e13d331	0.14436032
64	0x3d5b4992	0.05353696
65	0xbe81bb98	-0.25338435
66	0xbd75c54b	-0.060002606
67	0xbce4b34e	-0.02791753
68	0x3d808492	0.06275286
69	0x3d424b96	0.047435366
70	0xbe42e906	-0.19034204
71	0xbe2bebaa	-0.16789117
72	0x3eaf4ac5	0.34236732
73	0x3e19716c	0.14984673
74	0x3ea82697	0.32841942
75	0x3d250f72	0.040297933
76	0xbe0786dd	-0.1323504
77	0xbe7353f2	-0.23762491
78	0x3dd4eb0f	0.10396396
79	0xbe130b93	-0.14359884
80	0x3e3dca2e	0.18534157
81	0x3c25ac44	0.010111872
82	0x3e86cc23	0.2632762
83	0x3d9349ee	0.07191835
84	0xbcdc7149	-0.026909487
85	0xbe070ea4	-0.13189179
86	0x3e21801c	0.15771526
87	0x3e19fb37	0.15037237
88	0x3d8fe3fd	0.07025907
89	0x3d25635b	0.040377956
90	0x3e79ea91	0.24405886
91	0xbeaa1b6d	-0.3322405
92	0xbdf672e9	-0.12033636
93	0xbe2d2c2c	-0.16911381
94	0x3e2469a8	0.1605593
95	0x3bbc685f	0.0057497467
96	0xbc3d414f	-0.011551215
97	0x3e41d400	0.18928528
98	0xbd7328a7	-0.05936494
99	0xbdd51680	-0.10404682
100	0x3dc8a63d	0.097973324
101	0xbbc185e5	-0.005905854
102	0xbee59332	-0.44838864
103	0x3e4497e1	0.19198562
104	0x3c898669	0.016787725
105	0x3e380b02	0.17972949
106	0x3e60970f	0.21932624
107	0xbd9aae13	-0.07552733
108	0x3e8115f8	0.25212073
109	0xbdd75196	-0.10513608
110	0xbe3c37f4	-0.1838072
111	0x3c8ca7f1	0.017169924
112	0x3e45bd2a	0.19310442
113	0xbdffe26c	-0.124943584
114	0xbd99bf00	-0.075071335
115	0x3dcd6136	0.10028307
116	0xbd0cb5ed	-0.034353185
117	0xbdacacef	-0.08431422
118	0xbdac1d8c	-0.08404073
119	0xbe5e1523	-0.2168775
120	0xbe8f6ee9	-0.28014305
121	0x3dd63083	0.104584716
122	0x3db97a88	0.09056574
123	0xbd856180	-0.06512737
124	0xbe9578b7	-0.2919366
125	0x3d12abaf	0.03580826
126	0xbdb7e9ee	-0.089801654
127	0xbec4a67f	-0.38408276
128	0x3e9edb6d	0.31026784
129	0x3ee2722d	0.44227734
130	0x3c8678de	0.016415056
131	0x3d946688	0.07246119
132	0x3e110239	0.14161004
133	0x3d24da43	0.040247213
134	0x3dba2015	0.090881504
135	0x3d4fbfea	0.050720133
136	0x3d184eaf	0.037184414
137	0xbe8a9f7d	-0.27074805
138	0x3c41aa6f	0.01182042
139	0x3e41bae8	0.18918955
140	0x3ea673df	0.32510278
141	0x3dc4d1df	0.09610342
142	0x3d85680e	0.065139875
143	0xbda2d110	-0.07950032
144	0x3e6e9b64	0.23301464
145	0xbe718336	-0.23585209
146	0xbe821129	-0.25403717
147	0xbe11b870	-0.14230514
148	0x3d1a1b95	0.03762396
149	0x3e397217	0.18109928
150	0x3e170ea9	0.14751686
151	0x3c91744c	0.01775565
152	0x3cf5b9ea	0.029995877
153	0x3e0f215b	0.13977568
154	0x3e2d33dc	0.16914314
155	0x3c1d93d8	0.009617768
156	0xbe4a9a64	-0.19785458
157	0x3eb317d7	0.34979126
158	0x3bcfdcd3	0.006343463
159	0x3d91b2a2	0.0711415
160	0x3e06a43d	0.1314859
161	0x3ef9b0c1	0.48767665
162	0x3df10dc2	0.11770202
163	0xbd5f87de	-0.054572932
164	0xbc4be748	-0.0124452785
165	0xbd1b20a7	-0.037872937
166	0x3d98577d	0.07438562
167	0x3e01c65e	0.12673327
168	0x3d222593	0.039586615
169	0x3d50803a	0.050903536
170	0xbb95749b	-0.0045610196
171	0x3e903b1a	0.2817009
172	0x3d7f72b1	0.062365238
173	0x3d6404f5	0.05566879
174	0xba2a873f	-0.00065051386
175	0x3e1f9f70	0.15588164
176	0xbca7e6e0	-0.020495832
177	0xbe556158	-0.20837915
178	0x3f1bfaa4	0.6092932
179	0xbd112c81	-0.035442833
180	0x3d91e1db	0.07123157
181	0x3e06d887	0.13168536
182	0x3cca935b	0.024728468
183	0x3e32d5c6	0.1746436
184	0xbd8b5977	-0.068041734
185	0xbd19d2be	-0.037554495
186	0x3db19e0d	0.08672724
187	0x3ddfba5f	0.10924219
188	0xbe49a98d	-0.19693585
189	0x3dbe7a38	0.09300655
190	0x3d2ce870	0.042213857
191	0x3eab2f67	0.33434603
192	0x3e691d9e	0.22765204
193	0xbaa89c49	-0.001286396
194	0xbe73295e	-0.23746249
195	0x3de4222f	0.111393325
196	0xbe155a68	-0.14585268
197	0xbd56d60a	-0.052450217
198	0xbb8213d1	-0.0039696475
199	0x3db63591	0.08896936
200	0x3e4d557a	0.20052138
201	0xbc364af2	-0.011126267
202	0xbd4a32e1	-0.04936493
203	0xbd711322	-0.058856137
204	0x3ea81217	0.328263
205	0xbd5e58f9	-0.05428407
206	0xbe95654f	-0.29178855
207	0x3de01d83	0.10943129
208	0xbe3c043a	-0.18360987
209	0xbdc45110	-0.09585774
210	0xbdd0e485	-0.10199837
211	0xbe2a46b1	-0.16628529
212	0x3ce4fee8	0.02795358
213	0x3cf9bd39	0.030485736
214	0xbeb8967a	-0.36052305
215	0x3e9b727f	0.3036079
216	0xbdda67f4	-0.10664359
217	0x3dc77340	0.09738779
218	0xbd473103	-0.048630726
219	0xbdb0fdfc	-0.08642194
220	0xbd90ca14	-0.07069793
221	0x3db01895	0.08598439
222	0xbec4d105	-0.3844072
223	0x3df9c59d	0.12195895
224	0x3eb2c9e4	0.34919655
225	0x3de4cc2b	0.111717544
226	0xbdc168d5	-0.09443823
227	0x3e00e3f4	0.12586957
228	0xbea52390	-0.32253695
229	0xbd847a96	-0.06468694
230	0x3e01228d	0.12610836
231	0x3d3a2d71	0.045453493
232	0xbd51e644	-0.05124499
233	0xbd4896ee	-0.048972063
234	0x3d748c80	0.059704304
235	0xbda4beef	-0.0804423
236	0xbdbbb946	-0.091661975
237	0xbddbde18	-0.107357204
238	0x3e07669f	0.1322274
239	0x3dc588b8	0.09645218
240	0xbe245c49	-0.16050829
241	0x3cce2902	0.025166038
242	0xbbc213ff	-0.005922794
243	0x3d67a2b6	0.056551658
244	0xbd364d46	-0.044507287
245	0x3e0c5687	0.13704883
246	0xbef4b2fd	-0.47792807
247	0x3c79d2f0	0.015248045
248	0x3e3f859d	0.18703313
249	0x3e22f628	0.15914214
250	0x3d7c13c1	0.061542276
251	0x3d2d6e64	0.042341605
252	0x3e2721f5	0.16321547
253	0xbd9198f7	-0.07109254
254	0x3e1f4487	0.15553485
255	0xbbad4c4a	-0.0052886354

critic.preprocess.model.model.0.bias f4 [64]
0	0xbdfbf1ff	-0.123020165
1	0xbed9ac93	-0.42514476
2	0x3d9a2c33	0.075279616
3	0xbe997d84	-0.29978573
4	0xbe6486aa	-0.22316995
5	0xbe434e01	-0.19072725
6	0x3d1f5883	0.03890277
7	0xbee71d83	-0.45139703
8	0x3e3995d2	0.18123558
9	0x3d912f93	0.07089152
10	0x3f10b667	0.56528324
11	0xbd2dc711	-0.042426173
12	0x3d7ee347	0.062228467
13	0x3e8e79ec	0.27827394
14	0xbe1665cc	-0.1468727
15	0xbec5d798	-0.38641047
16	0x3ec66c43	0.38754472
17	0x3d879718	0.06620616
18	0x3dc18e65	0.09450988
19	0x3e14f532	0.1454666
20	0x3e07ac5e	0.13249347
21	0xbda900a8	-0.08252078
22	0xbeb241f3	-0.3481594
23	0x3d7862a6	0.060640953
24	0xbddbe89b	-0.10737725
25	0x3e986033	0.29760894
26	0xbdedc059	-0.11608953
27	0xbecd630f	-0.40114638
28	0xbe6c034f	-0.23048137
29	0x3dac2ba9	0.08406765
30	0xbe6a80d7	-0.22900711
31	0xbe80645f	-0.25076577
32	0x3e8d36b5	0.275808
33	0x3b0e712b	0.0021734934
34	0xbda21df9	-0.07915873
35	0x3e7f7f58	0.24950922
36	0xbf012be3	-0.5045759
37	0xbdedbbc8	-0.11608082
38	0xbda17a9d	-0.07884715
39	0x3ec545c2	0.38529783
40	0x3c0fb83e	0.008771954
41	0xbe59e298	-0.21277845
42	0xbe317f49	-0.17333712
43	0xbe6ec6b7	-0.23317991
44	0x3d9d659f	0.07685398
45	0x3f0e5df9	0.5561214
46	0xbf0c3a1b	-0.5477616
47	0xbed99b06	-0.42501086
48	0xbdb582f2	-0.088628665
49	0x3beccaa1	0.0072263037
50	0xbed5c26d	-0.41749898
51	0x3d031dd0	0.032010853
52	0x3e4b6ef0	0.19866538
53	0x3dc39675	0.09550182
54	0x3e79e90d	0.24405308
55	0x3e8ad3c5	0.27114692
56	0x3e0d107d	0.13775821
57	0xbdae8a78	-0.085225046
58	0xbe988c34	-0.29794466
59	0xbeb1c4b6	-0.3472039
60	0xbd1d89ca	-0.038461484
61	0xbec175e5	-0.3778526
62	0xbe64fc4d	-0.2236187
63	0x3899d8d9	7.3359995e-05

critic.preprocess.model.model.2.weight f4 [64, 64]
0	0x3d1e9b10	0.038722098
1	0x3daf4352	0.08557762
2	0xbdc8879d	-0.09791491
3	0x3d6037cb	0.05474071
4	0x3cd35e23	0.025801724
5	0xbe53d85f	-0.20688008
6	0xbe52f2c0	-0.20600414
7	0x3d8be03b	0.06829878
8	0xbe1aeadb	-0.15128653
9	0xbda623b4	-0.081122786
10	0x3e12d74d	0.14339943
11	0xbcc85031	-0.0244523
12	0xbd83bceb	-0.064325176
13	0xbdb84284	-0.08997062
14	0x3e670af3	0.2256277
15	0x3cd7a3e4	0.026323266
16	0xbca57513	-0.020197427
17	0x3e478da9	0.19487633
18	0x3e05a06c	0.13049477
19	0x3ce45376	0.027871829
20	0x3e7810cc	0.24225157
21	0x3e4af830	0.19821239
22	0xbc4fdd15	-0.012686987
23	0xbd287178	-0.041123837
24	0xbcf89bed	-0.030347789
25	0x3dc3f4ac	0.09568152
26	0xbe896d1f	-0.26841065
27	0x3d94f149	0.07272584
28	0xbf056814	-0.52111936
29	0xbe01fd97	-0.12694393
30	0x3e31d7a7	0.17367421
31	0xbd910bda	-0.07082339
32	0xbe80e606	-0.25175494
33	0xbe1d700b	-0.15374772
34	0xbdf36658	-0.11884755
35	0xbdac2bcd	-0.08406792
36	0x3e1d5146	0.15363035
37	0xbdd94373	-0.10608568
38	0xbb80dea3	-0.0039327904
39	0xbee1e3c1	-0.44119075
40	0xbe46ce41	-0.19414617
41	0xbe6a6e4b	-0.22893636
42	0x3cc07ab9	0.023496019
43	0x3dd420c9	0.10357816
44	0x3e139dea	0.14415708
45	0x3e23b2e7	0.15986215
46	0x3dc0b018	0.09408587
47	0xbd545721	-0.051840905
48	0x3c8e9565	0.017405221
49	0xbe7fe7c0	-0.2499075
50	0xbe84bffa	-0.25927716
51	0xbe1c10a8	-0.15240729
52	0xbe97b003	-0.29626474
53	0x3d0704d2	0.03296358
54	0x3d3da020	0.046295285
55	0x3e192d0f	0.14958595
56	0xbe0fe238	-0.1405114
57	0xbe712842	-0.23550513
58	0x3e163ba4	0.14671189
59	0x3e9e0752	0.3086496
60	0x3d57a744	0.05264975
61	0xbea3f72a	-0.3202451
62	0xbc6b088d	-0.0143453
63	0xbd82c4c0	-0.06385183
64	0xbdb71d15	-0.08941094
65	0xbdd24728	-0.10267478
66	0x3eba07cb	0.3633407
67	0x3e4abff3	0.19799785
68	0x3e815388	0.25259042
69	0xbdd78006	-0.105224654
70	0x3e9a771c	0.30168998
71	0xbc63e2b4	-0.013909031
72	0x3d19cffe	0.037551872
73	0x3e9ede11	0.31028798
74	0xbd9b6bfd	-0.075889565
75	0xbdc9a821	-0.09846521
76	0xbe83c7bc	-0.25738323
77	0x3daf5f30	0.085630774
78	0xbd0c9cb5	-0.034329135
79	0xbe868e24	-0.2628032
80	0xbc99b037	-0.018760784
81	0x3d2dd161	0.042436007
82	0x3b7dde09	0.003873708
83	0x3e7db8e3	0.2477756
84	0xbde25b69	-0.11052591
85	0x3ed16f1d	0.40905085
86	0xbe599ae0	-0.21250486
87	0x3e9daaec	0.30794466
88	0x3e3ba2d4	0.18323833
89	0xbe06a6fc	-0.13149637
90	0xbe27b5e3	-0.16377978
91	0xbe661feb	-0.22473113
92	0xbe17067b	-0.14748566
93	0xbd87a6fb	-0.06623646
94	0x3e5fca24	0.21854454
95	0xbd826c14	-0.063682705
96	0xbd286a72	-0.04111714
97	0x3e67df2c	0.22643727
98	0x3d7b6a0d	0.061380435
99	0x3e182cbc	0.14860815
100	0xbdf4c7e8	-0.119521916
101	0x3b007a4a	0.001960414
102	0xbe5220d6	-0.20520338
103	0x3d8f1068	0.06985551
104	0x3e2ab9cb	0.16672437
105	0x3ca4055b	0.020022085
106	0x3dc38bf0	0.09548175
107	0xbe3638ce	-0.17795107
108	0x3e64fa8c	0.22361201
109	0xbd1b9d88	-0.03799203
110	0x3e880c85	0.26572052
111	0xbd337fb1	-0.043822948
112	0xbd8971bf	-0.067111485
113	0x3e6d2de3	0.23162036
114	0xbd3342fe	-0.04376506
115	0xbdc5b997	-0.09654539
116	0xbc56fc93	-0.013121742
117	0xbd486c1c	-0.048931226
118	0x3e026bee	0.12736484
119	0x3c1789ea	0.00924919
120	0x3e211b5c	0.15733093
121	0xbcf315ae	-0.029673424
122	0xbe70fe0b	-0.2353441
123	0x3c1d2042	0.00959021
124	0x3d66494e	0.056222253
125	0xbe2c8f69	-0.16851582
126	0x3e7cd3d4	0.24690181
127	0xbdd150fe	-0.10220526
128	0x3e55094c	0.20804328
129	0x3dbf2bf6	0.09334557
130	0xbda427fc	-0.08015439
131	0x3e9782da	0.2959202
132	0x3dfdec28	0.12398559
133	0xbe5328b8	-0.20621002
134	0x3e102154	0.14075214
135	0xbdaefd39	-0.08544392
136	0x3c523dfb	0.01283216
137	0x3e170920	0.14749575
138	0xbe4584de	-0.19288966
139	0x3e211e10	0.15734124
140	0x3e5a102a	0.21295229
141	0xbe232d84	-0.15935332
142	0xbd038bc5	-0.032115716
143	0x3e009c60	0.12559652
144	0x3e802db6	0.25034875
145	0x3d6d0533	0.057866286
146	0xbcaa06c8	-0.020755187
147	0xbef16bc2	-0.47152525
148	0x3dfe7052	0.12423767
149	0x3e905968	0.28193212
150	0x3d0ac4d4	0.033879116
151	0x3d69ecdf	0.057110664
152	0x3d803eda	0.06261988
153	0xbd79a4c2	-0.06094814
154	0x3e12d63e	0.1433954
155	0xbe72e9ba	-0.23721972
156	0x3e92fc5d	0.28708163
157	0x3e59fa13	0.21286802
158	0x3b791df6	0.0038012243
159	0x3e5fbba9	0.2184893
160	0x3d3a630e	0.045504622
161	0xbde88188	-0.11352831
162	0xbe2236c7	-0.15841208
163	0xbc1afd31	-0.00945978
164	0x3e1eeed0	0.15520787
165	0x3db4085a	0.087906554
166	0x3ea007e4	0.3125602
167	0xbe69031e	-0.22755095
168	0x3e926394	0.28591597
169	0x3cdbfb6e	0.02685329
170	0xbd95c7f7	-0.07313531
171	0x3ea64378	0.3247335
172	0xbec4f8a4	-0.38470948
173	0x3dfbe912	0.12300314
174	0x3e400d0a	0.18754974
175	0xbd9b89b2	-0.07594623
176	0xbd6110da	-0.05494771
177	0xbdfd04b1	-0.123544104
178	0xbdb8dec5	-0.09026865
179	0xbe90f9f0	-0.28315687
180	0x3e43ff77	0.19140421
181	0xbe262908	-0.1622659
182	0xbe6966cf	-0.22793125
183	0xbe0c2216	-0.13684878
184	0xbd5a8037	-0.05334493
185	0x3d4941c3	0.04913498
186	0x3e747bdc	0.23875374
187	0x3eeef836	0.46673745
188	0xbd4367be	-0.047706358
189	0xbbb8e438	-0.00564244
190	0x3e855824	0.26043808
191	0x3e9ef68a	0.3104747
192	0x3c8a4a45	0.016881118
193	0x3d0ae1b4	0.033906654
194	0xbd814ad6	-0.06313102
195	0xbdc3ac00	-0.09554291
196	0xbe5b4b9f	-0.21415566
197	0xbe5074be	-0.20357034
198	0x3e25f474	0.16206533
199	0x3dc4652a	0.09589608
200	0xbcfb5c3d	-0.030683631
201	0x3cbb47bb	0.022861352
202	0xbc11ff66	-0.008910989
203	0xbdd17c6e	-0.10228811
204	0xbdfb6451	-0.12274993
205	0xbe4440a5	-0.19165285
206	0xbca4070f	-0.020022897
207	0xbe75b98a	-0.23996559
208	0x3e8bf49f	0.2733507
209	0xbe4daebf	-0.20086192
210	0x3c757007	0.014980323
211	0x3d496129	0.049164925
212	0xbcd7ecd0	-0.026358038
213	0xbe5ebb13	-0.2175105
214	0xbdba5f79	-0.09100241
215	0xbca39354	-0.019967712
216	0xbd1da1ca	-0.038484372
217	0xbafa1674	-0.0019080178
218	0x3df59c3f	0.11992692
219	0x3e16c0d3	0.14721994
220	0xbd3711b1	-0.044694606
221	0xbf11767d	-0.56821424
222	0x3c6c91fd	0.014439103
223	0x3e10c9ca	0.14139476
224	0x3db2b2cc	0.08725509
225	0xbdce2bc6	-0.10066943
226	0xbe4678db	-0.1938204
227	0x3dd028e5	0.1016405
228	0x3d236c32	0.039898105
229	0xbca2069c	-0.019778542
230	0x3e310730	0.17287898
231	0xbe306cba	-0.17228976
232	0xbd2b9e8c	-0.04189925
233	0x3e4c022a	0.199227
234	0x3cfa6032	0.030563448
235	0xbc6b46a4	-0.014360104
236	0x3e4b6b48	0.19865143
237	0xbde5de1d	-0.11224005
238	0x3e61abb6	0.22038159
239	0xbdcdba65	-0.100453176
240	0xbeded98a	-0.43525344
241	0x3ea1f576	0.31632584
242	0xbbb471a0	-0.005506709
243	0xbe504ee8	-0.203426
244	0xbe8dbc95	-0.2768294
245	0x3dc49fd2	0.09600796
246	0xbea5bfa2	-0.32372767
247	0x3dfe6a63	0.124226354
248	0x3c88ff26	0.016723227
249	0x3e3a8123	0.18213324
250	0x3c553990	0.013014212
251	0xbd957927	-0.072984986
252	0xbd4b2ed9	-0.049605224
253	0x3ea8d671	0.32976106
254	0xbddc95e5	-0.107707776
255	0x3e19e269	0.15027775

critic.preprocess.model.model.2.bias f4 [64]
0	0x3ddf95e9	0.10917265
1	0x3de6e9a7	0.112750344
2	0xbe187c47	-0.14891158
3	0x3da39242	0.07986881
4	0xbce9e718	-0.028552577
5	0x3e43dcf1	0.19127251
6	0xbc3a2569	-0.011361458
7	0xbdd86324	-0.105657846
8	0xbe123cee	-0.14281055
9	0x3bbe0891	0.005799361
10	0xbe8b9f65	-0.27270046
11	0x3d0ea12c	0.034821674
12	0xbe1c5ec7	-0.1527053
13	0xbd88944e	-0.06668912
14	0xbd1708c5	-0.036873598
15	0x3b9cf2ca	0.004789685
16	0x3dcf2fdf	0.101165526
17	0xbea97203	-0.33094797
18	0x3e39aa9a	0.18131486
19	0xbee536d6	-0.447684
20	0xbd6352fc	-0.055499062
21	0x3e00f80b	0.12594621
22	0xbe04ed82	-0.12981227
23	0xbdff972c	-0.124800056
24	0xbdc1756f	-0.09446227
25	0x3e25da56	0.1619657
26	0x3e40d9f7	0.18833147
27	0x3e16e714	0.14736587
28	0x3dabddab	0.08391889
29	0xbe3d8e43	-0.185113
30	0x3eeab321	0.4583979
31	0xbdef0ef0	-0.11672771
32	0xbd9c8dbf	-0.076442234
33	0x3df5c812	0.12001051
34	0x3ceea8e2	0.029133264
35	0xbe85dd9c	-0.26145637
36	0xbdcefc67	-0.10106736
37	0xbdd8cd09	-0.10585982
38	0x3d04cd05	0.032422084
39	0xbe95c363	-0.2925063
40	0xbdade9de	-0.08491872
41	0x3d6c238e	0.057651095
42	0x3cbf4f9c	0.02335339
43	0x3d0fb361	0.03508318
44	0x3c5f6790	0.013635531
45	0x3dcf9a5b	0.10136863
46	0x3e09d61c	0.13460582
47	0xbcda0633	-0.026614284
48	0xbda8e3b6	-0.082465574
49	0x3e5788d7	0.21048294
50	0xbe0466c9	-0.12929834
51	0x3deea45c	0.11652443
52	0xbd2124f4	-0.039341882
53	0x3cef9a40	0.029248357
54	0x3d8faa4a	0.07014902
55	0x3d068a0c	0.032846496
56	0xbd26b30f	-0.040698107
57	0x3dceb913	0.10093894
58	0xbebb5b5c	-0.3659314
59	0xbe31f018	-0.17376745
60	0xbc905c02	-0.017621998
61	0x3e08874b	0.1333286
62	0xbe08f25c	-0.13373703
63	0xbe0e9655	-0.13924535

critic.last.model.0.weight f4 [1, 64]
0	0x3d8edc00	0.069755554
1	0x3d09a801	0.033607487
2	0xbdda1337	-0.10648196
3	0x3e400205	0.1875077
4	0xbd56ef44	-0.052474275
5	0x3e336111	0.17517497
6	0x3cdcfd2d	0.026976192
7	0xbe74ba14	-0.23899108
8	0xbd9c3337	-0.07626956
9	0xbd0db3c1	-0.034595255
10	0xbe2643df	-0.16236828
11	0x3d629b78	0.055324048
12	0xbe04ab70	-0.12956023
13	0xbe158724	-0.14602333
14	0xbd856868	-0.065140545
15	0x3d9bb8c3	0.076036
16	0x3d3767ce	0.04477673
17	0xbe9f5874	-0.31122172
18	0x3d558bce	0.05213528
19	0xbe8372f5	-0.25673643
20	0xbd84c22c	-0.06482348
21	0x3d5d12ad	0.05397289
22	0xbd41f6a0	-0.04735434
23	0xbdf313ce	-0.11869012
24	0xbe19c8e3	-0.15018038
25	0x3daafdc5	0.08349184
26	0x3ea3fd34	0.32029116
27	0x3e185c58	0.14878976
28	0x3daf5651	0.085613854
29	0xbe297f55	-0.1655248
30	0x3ee3c3c2	0.4448529
31	0xbd48f361	-0.04906023
32	0xbdb6bd8e	-0.089228734
33	0x3d06bb51	0.032893483
34	0x3d1423d9	0.036167
35	0xbe3404b6	-0.17579922
36	0xbd82d838	-0.06388897
37	0x3c8c7258	0.017144367
38	0x3c81ea1b	0.0158587
39	0xbed37a84	-0.4130441
40	0xbd667737	-0.056266036
41	0x3dcafd51	0.099115975
42	0xbc49f54c	-0.01232655
43	0x3bfb4aa7	0.0076688114
44	0x3e2e6dc7	0.17034064
45	0x3e80a19b	0.25123295
46	0x3d2c80d7	0.04211506
47	0xbdbded19	-0.092737384
48	0xbdab377c	-0.08360192
49	0x3e02008b	0.1269552
50	0xbe762cfb	-0.24040596
51	0x3d6a3731	0.05718154
52	0xbd7dc2f0	-0.061953485
53	0x3cd81a0b	0.026379606
54	0x3e1a72ca	0.15082851
55	0x3bf55e8c	0.0074880775
56	0xbcb571a5	-0.022148916
57	0x3d447aa5	0.047968525
58	0xbf0f50bf	-0.55982584
59	0xbe195cb0	-0.14976764
60	0x3d5c6c56	0.053814255
61	0x3a25aaaa	0.00063196814
62	0xbdc3a1bb	-0.09552332
63	0xbd1ac88b	-0.03778891

_actor_critic.actor.sigma_param f4 [6, 1]
0	0xbf08b355	-0.5339864
1	0xbf0761b6	-0.5288347
2	0xbf53ba29	-0.8270593
3	0xbf7d5847	-0.98962826
4	0xbf223b68	-0.63371897
5	0xbf1bd06c	-0.608649

_actor_critic.actor.preprocess.model.model.0.weight f4 [64, 17]
0	0x3e4e85a2	0.20168164
1	0xbe43bf1e	-0.19115874
2	0xbe850541	-0.2598057
3	0x3e6fec12	0.23429897
4	0x3afaf2a2	0.0019145797
5	0x3da7b049	0.081879206
6	0x3e2adddd	0.16686197
7	0xbee18822	-0.44049174
8	0xbe6e210c	-0.23254794
9	0x3e16ecd1	0.14738776
10	0xbdeb17a2	-0.11479117
11	0x3e875529	0.2643216
12	0xbd913f44	-0.07092145
13	0x3bdb3a06	0.0066902665
14	0xbeb5704c	-0.35437238
15	0x3da52b81	0.08064938
16	0xbdf5a2f4	-0.119939715
17	0x3e4054a8	0.18782294
18	0x3e603c7a	0.2189807
19	0x3cccf7f3	0.025020575
20	0x3e85dffb	0.26147446
21	0xbbe97976	-0.007125075
22	0xbd8f7240	-0.07004213
23	0x3c76dcea	0.015067318
24	0x3e2fa1e9	0.17151608
25	0x3e4aee0b	0.19817369
26	0xbe157591	-0.1459563
27	0x3e2984c8	0.16554558
28	0xbcaac292	-0.020844731
29	0xbcd8bc46	-0.026456963
30	0xbd10ff73	-0.035399865
31	0x3e0bcd23	0.13652472
32	0x3c34a450	0.011025503
33	0xbd723c92	-0.059139796
34	0x3ef7920c	0.48353612
35	0x3e48f4ce	0.19624636
36	0x3bd685e0	0.006546721
37	0xbe276a10	-0.16349053
38	0xbd1e46eb	-0.03864185
39	0x3d065e05	0.032804508
40	0xbe82d2c2	-0.2555142
41	0x3e850d08	0.25986505
42	0xbd9dbfd9	-0.07702608
43	0x3c5763d9	0.013146364
44	0xbf039a3b	-0.5140721
45	0xbd06878c	-0.03284411
46	0x3e904c21	0.28183082
47	0xbc945fa9	-0.01811202
48	0x3e05c4c2	0.13063338
49	0x3cd20bce	0.025640395
50	0x3df85d74	0.121272
51	0x3e434aa8	0.19071448
52	0x3e4a10f1	0.19733025
53	0xbd3eeb9f	-0.046611425
54	0xbe0d4b24	-0.13798195
55	0xbe61990c	-0.22031039
56	0x3db9d9e6	0.09074764
57	0xbe1c5aef	-0.15269063
58	0x3d4ad151	0.049516026
59	0x3ed4ca64	0.41560662
60	0x3c8da764	0.017291732
61	0x3e00966d	0.12557383
62	0xbdf6e3f0	-0.120551944
63	0xbe9f68b1	-0.3113456
64	0x3cdad8dd	0.026714737
65	0x3dfa6fa0	0.12228322
66	0x3e434916	0.19070849
67	0xbdc19c1a	-0.09453602
68	0xbe008bea	-0.12553373
69	0xb83694e2	-4.353084e-05
70	0xbe305d41	-0.17223074
71	0x3e9fd785	0.31219116
72	0x3debc1d7	0.115115814
73	0xbe70fcfc	-0.23534006
74	0xbe24917b	-0.16071121
75	0xbd1ac09e	-0.03778135
76	0x3dfa9b38	0.12236637
77	0xbd3658a8	-0.044518143
78	0xbe004bc6	-0.12528905
79	0x3b93dbc7	0.0045122835
80	0xbb946592	-0.0045287097
81	0xbe6b33c4	-0.22968966
82	0x3c52ab28	0.01285819
83	0x3e4f55ea	0.20247617
84	0x3ec91e6a	0.39281017
85	0xbd28fe42	-0.041258104
86	0xbe14067d	-0.144556
87	0xbe2039f7	-0.15647112
88	0xbe510d99	-0.20415343
89	0x3e8c1f7c	0.2736777
90	0xbf15ce8a	-0.5851828
91	0xbe9664db	-0.29373822
92	0x3c896e06	0.016776096
93	0xbebb23ca	-0.36550742
94	0x3eafcba8	0.34335065
95	0xbcb4f497	-0.022089286
96	0x3d007688	0.03136304
97	0xbd58f069	-0.052963648
98	0xbe389250	-0.18024564
99	0xbdff610a	-0.124696806
100	0xbbb2f617	-0.005461465
101	0x3d1617ef	0.03664392
102	0xbe5e3c95	-0.21702798
103	0x3ea2fdd8	0.31834292
104	0xbe9fe12a	-0.31226474
105	0xbdbb97a8	-0.091597855
106	0xbdc5118c	-0.096224874
107	0x3d2b1c2c	0.041774914
108	0x3d9d5b2d	0.07683406
109	0xbcf0443c	-0.029329412
110	0x3f1a846d	0.60358316
111	0xbd2d2c3f	-0.042278524
112	0x3dfe7b1c	0.12425825
113	0xbdfed80e	-0.12443553
114	0xbdbce399	-0.09223098
115	0x3dbb06e5	0.091321744
116	0xbdf681d3	-0.12036481
117	0xbc4447ba	-0.011979992
118	0xbea3dbaa	-0.32003528
119	0x3d910976	0.07081883
120	0xbe8297bf	-0.25506398
121	0x3e1e0c9d	0.15434499
122	0x3ed62f7d	0.41833106
123	0xbc9e944a	-0.01935782
124	0x3ae612d9	0.0017553224
125	0x3e4fc545	0.20290096
126	0x3d189148	0.037247926
127	0x3de8ffbd	0.11376903
128	0xbde8979e	-0.11357044
129	0xbe2a6c69	-0.16642918
130	0xbac05858	-0.0014674766
131	0xbc433bc9	-0.011916109
132	0xbc8f8edf	-0.017524181
133	0x3d75ffa9	0.06005827
134	0xbc22838c	-0.0099190585
135	0xbd5c0f01	-0.053725246
136	0x3d736d98	0.05943069
137	0xbcb9cdf5	-0.022681216
138	0xbc7bf533	-0.015378284
139	0x3daf237f	0.08551692
140	0x3e84d253	0.25941715
141	0xbc250867	-0.010072804
142	0xbe20e8f5	-0.15713866
143	0xbdd8e00e	-0.1058961
144	0x3da33981	0.079699524
145	0xbe93486d	-0.28766194
146	0xbd2a71a8	-0.041612297
147	0x3df5eda1	0.12008215
148	0xbe2fedcd	-0.17180558
149	0xbe14a13b	-0.1451463
150	0xbe97baff	-0.29634854
151	0xbe1006a0	-0.14065027
152	0x3ddb472c	0.10706934
153	0xbef08680	-0.46977615
154	0x3d43c1b2	0.047792144
155	0xbe96115c	-0.2931012
156	0x3d951f79	0.072813936
157	0xbe3e4797	-0.18581997
158	0x3de28e81	0.11062337
159	0xbe9a3d53	-0.30124912
160	0x3e8044eb	0.2505258
161	0x3eb0930d	0.3448719
162	0xbe6477b5	-0.2231129
163	0xbd8a4a38	-0.06752437
164	0xbe0f0e6d	-0.13970347
165	0xbb89c0a6	-0.0042038737
166	0xbe5958cb	-0.21225278
167	0x3e630ae2	0.2217212
168	0xbc55c0a4	-0.013046417
169	0x3e6e8349	0.23292269
170	0xbe8681cf	-0.2627091
171	0xbd5e2a0b	-0.054239314
172	0x3e3bff1f	0.1835904
173	0xbda57833	-0.08079567
174	0x3e845963	0.25849447
175	0xbd8426ac	-0.064526886
176	0xbe852226	-0.26002616
177	0xbf01e3f7	-0.5073847
178	0xbe231aab	-0.15928142
179	0xbe1a04a1	-0.15040828
180	0xbc7ad6fe	-0.015310047
181	0x3dcf9069	0.10134966
182	0xbdb217d3	-0.0869595
183	0x3e3c724c	0.18402976
184	0x3de0b8a7	0.1097272
185	0x3e1595ca	0.14607921
186	0xbe55a18f	-0.20862411
187	0x3ccab083	0.02474237
188	0xbec0f965	-0.37690273
189	0xbd2bebe8	-0.041973025
190	0xbe2b4da1	-0.16728832
191	0x3e6abe8a	0.22924247
192	0xbb915020	-0.0044346005
193	0x3d838fd7	0.0642392
194	0x3cb2d692	0.02183083
195	0xbed6ba01	-0.41938785
196	0x3e342414	0.17591888
197	0x3e03d80a	0.12875381
198	0xbb836d6f	-0.0040108482
199	0x3e8ca010	0.27465868
200	0xbcd2b03f	-0.025718806
201	0x3e112131	0.14172818
202	0xbda4f85b	-0.080551825
203	0xbd3125bf	-0.043248888
204	0x3e609711	0.21932627
205	0xbe005a28	-0.12534392
206	0xbe6ca883	-0.23111157
207	0xbd9c9f62	-0.07647587
208	0x3d9d1af1	0.07671154
209	0x3eef8b47	0.46785948
210	0x3e2f23e3	0.17103533
211	0xbe55e6ee	-0.20888874
212	0xbc2f0526	-0.01068238
213	0xbca1aa37	-0.019734485
214	0xbecfcf47	-0.40587828
215	0x3e3f353c	0.18672651
216	0xbe88e2e6	-0.2673561
217	0x3d10240a	0.03519062
218	0xbe5e9c38	-0.2173928
219	0xbe66ee38	-0.2255181
220	0xbe2326ff	-0.15932845
221	0x3dfb21e2	0.12262322
222	0xbe9901c5	-0.29884163
223	0x3da816c6	0.08207469
224	0x3e3b8456	0.18312201
225	0xbe02bb14	-0.12766677
226	0xbd8aa50f	-0.06769764
227	0xbde9ff4a	-0.11425646
228	0xbea50326	-0.32228965
229	0xbedb1931	-0.42792657
230	0xbdad1729	-0.08451683
231	0x3d69e9c6	0.05710771
232	0xbd9c5fb1	-0.07635439
233	0x3e6d39f5	0.2316664
234	0xbd7f497a	-0.062325932
235	0xbc4e70a1	-0.012600095
236	0xbe7ba0b5	-0.24573024
237	0x3bf023d9	0.007328492
238	0xbe04c5d4	-0.1296609
239	0xbeeb9794	-0.46014082
240	0xbd95b622	-0.0731013
241	0xbe84847b	-0.25882325
242	0xbda809cd	-0.08204994
243	0xbdff4f8f	-0.124663465
244	0xbea5a972	-0.3235584
245	0x3e89d078	0.26916862
246	0xbe7b41d8	-0.24536836
247	0xbea0dafc	-0.31417072
248	0xbe44650b	-0.1917917
249	0xbe91443e	-0.28372377
250	0xbd4bbd86	-0.04974129
251	0x3e60246a	0.21888891
252	0xbddbdb42	-0.107351795
253	0xbd845fd7	-0.064635925
254	0x3e4eeb16	0.20206866
255	0xbebf9796	-0.37420338
