results/Walker2d-v3/ppo/1/220622-172433/policy.pth (torch, 53732 bytes, 24 tensors)

actor.sigma_param f4 [6, 1]
0	0xc0098840	-2.148941
1	0xc009ea4e	-2.1549258
2	0xc0282369	-2.6271613
3	0xc01e41a4	-2.4727564
4	0xc01edd94	-2.482274
5	0xc035d5bc	-2.8411703

actor.preprocess.model.model.0.weight f4 [64, 17]
0	0xbd974167	-0.073855214
1	0x3eef469e	0.46733564
2	0xbd4781e6	-0.048707865
3	0x3d7ac0b5	0.061218936
4	0x3e970152	0.29493195
5	0x3e1d925e	0.15387866
6	0x3d15beb9	0.03655884
7	0x3f326382	0.69683087
8	0x3d426804	0.04746248
9	0xbeea5dae	-0.45774597
10	0xbb99a560	-0.0046889037
11	0x3e736db9	0.23772325
12	0x3d340d54	0.043958023
13	0xbe25ad05	-0.16179283
14	0xbee937b9	-0.45550326
15	0xbe03bfef	-0.12866186
16	0xbe871432	-0.26382595
17	0xbdf6e225	-0.120548524
18	0xbeba4063	-0.36377248
19	0xbe1eaeba	-0.1549634
20	0x3ccbd591	0.02488211
21	0x3d3a1408	0.04542926
22	0xbeb9613e	-0.36207002
23	0xbe6ec13f	-0.23315905
24	0x3e039dec	0.12853211
25	0x3eca3b9d	0.39498606
26	0x3ee71630	0.45134115
27	0x3f33f0cd	0.7028931
28	0x3da84761	0.082167394
29	0xbdceb495	-0.10093037
30	0xbdad0f64	-0.08450201
31	0x3dae4c9d	0.085107066
32	0xbd3a9fc9	-0.04556254
33	0x3e0bb48e	0.13643095
34	0x3e089739	0.13338937
35	0xbf47f24f	-0.7810411
36	0x3df4c8a7	0.11952334
37	0xbe0b5981	-0.13608362
38	0x3ea4eb4b	0.32210764
39	0x3e73ea96	0.23819956
40	0xbe750daf	-0.23931001
41	0x3ed95d3a	0.4245394
42	0xbdcb2e75	-0.0992097
43	0xbf0a75ae	-0.54085815
44	0x3e9ed649	0.31022862
45	0xba2b3e96	-0.00065324584
46	0x3d670265	0.056398768
47	0x3d856126	0.0651267
48	0xbe3273a4	-0.17426926
49	0xbd8c08f5	-0.06837646
50	0xbc6d9eff	-0.01450324
51	0x3e6e68b5	0.2328213
52	0xbdd5e59a	-0.10444184
53	0xbd4e0f6c	-0.050307676
54	0xbe722770	-0.23647857
55	0xbe9d5d43	-0.30735216
56	0xbdf1fb4e	-0.11815511
57	0xbe58b263	-0.21161799
58	0xbe2c1b8d	-0.16807385
59	0xbe32efce	-0.1747429
60	0x3d461739	0.04836199
61	0xbe30c842	-0.17263892
62	0x3e8f92bd	0.2804164
63	0xbee2549f	-0.44205186
64	0xbe98ce0b	-0.29844698
65	0xbe9aa6aa	-0.3020528
66	0xbe25066c	-0.16115731
67	0xbe6a6009	-0.22888197
68	0xbee516b6	-0.4474389
69	0x3e7fcd32	0.2498062
70	0xbe767cf9	-0.24071111
71	0xbeae613e	-0.34058565
72	0xbed75010	-0.4205327
73	0xbf17789f	-0.5916843
74	0xbd1a9c18	-0.03774652
75	0xbe236a4a	-0.15958515
76	0x3ec04c5c	0.37558258
77	0xbe93cce2	-0.2886725
78	0xbd69cabd	-0.057078112
79	0x3e8165c9	0.25272968
80	0xbdfdb3dc	-0.12387821
81	0x3d2ff677	0.042959657
82	0x3d55eeda	0.05222974
83	0xbd730cb1	-0.059338275
84	0xbe33b141	-0.17548086
85	0x3cc62cf2	0.024191353
86	0x3f16cc03	0.5890505
87	0x3ee4fb53	0.44722995
88	0xbe110352	-0.14161423
89	0x3dc9e14c	0.09857425
90	0x3e36cf50	0.17852521
91	0xbd934e6b	-0.071926914
92	0xbe5bb463	-0.21455531
93	0xbad168a4	-0.001597662
94	0x3d8469c7	0.06465488
95	0x3d080ce5	0.033215422
96	0x3e8df5a3	0.27726468
97	0x3d81737a	0.063208535
98	0xbe063ab8	-0.13108337
99	0xbda35f09	-0.07977111
100	0x3edc2353	0.429957
101	0x3e9eeaed	0.3103861
102	0x3ed586e8	0.41704488
103	0xbeca6bcb	-0.39535365
104	0x3cfc5a45	0.030804763
105	0xbe77d8b8	-0.24203765
106	0x3e4faa14	0.20279723
107	0x3d1ec1f1	0.038759176
108	0x3e375655	0.17904027
109	0x3eb1bdae	0.34715027
110	0xbed514bc	-0.41617382
111	0x3ee6924d	0.45033494
112	0x3e168187	0.14697848
113	0x3ebef125	0.37293354
114	0x3e5e2002	0.21691898
115	0xbe961b8e	-0.29317898
116	0x3e06d190	0.13165879
117	0x3e81a317	0.2531974
118	0xbe08a63a	-0.1334466
119	0xbc49d2a9	-0.012318292
120	0x3eea15e2	0.4571982
121	0x3e50cc1e	0.20390365
122	0xbe1691a5	-0.14703996
123	0xbeacd211	-0.33754018
124	0x3e40a132	0.18811491
125	0x3d87ec03	0.066368125
126	0x3dea0401	0.11426545
127	0xbd8889e9	-0.06666929
128	0xbdf6cd17	-0.120508365
129	0x3e80e1f2	0.25172383
130	0x3e87afbd	0.26501265
131	0x3e0fb9a6	0.14035663
132	0x3e75d38d	0.24006481
133	0x3d0698aa	0.032860436
134	0x3e156f33	0.145932
135	0x3e54bdc1	0.2077551
136	0xbe3ba081	-0.18322946
137	0xbc2d59d8	-0.010580502
138	0x3eae727e	0.34071726
139	0xbd073103	-0.033005726
140	0xbf2d397a	-0.6766583
141	0xbbf50222	-0.007477061
142	0x3e4ad8bd	0.19809242
143	0xbf3df5fd	-0.74203473
144	0x3ce5d3b9	0.028055059
145	0xbee24edb	-0.44200787
146	0xbe98dc90	-0.29855776
147	0x3eb79336	0.358545
148	0xbd121e43	-0.03567339
149	0x3d9e5c4e	0.077324495
150	0x3d111ead	0.035429645
151	0xbe33a3ef	-0.17543004
152	0xbdb74348	-0.0894838
153	0xbf1b4b55	-0.6066182
154	0xbe31e7f8	-0.17373645
155	0x3d0ebb58	0.034846634
156	0xbe2b42eb	-0.16724746
157	0x3deb424f	0.11487257
158	0x3e61dd1b	0.22057001
159	0xbf072e3e	-0.52804935
160	0xbe52a80f	-0.20571922
161	0x3de8c907	0.11366468
162	0xbdd5ac84	-0.10433295
163	0x3cd6823d	0.02618515
164	0x3c98def1	0.018660994
165	0x3ad03386	0.0015884496
166	0x3d939e9e	0.07207988
167	0xbd3997df	-0.04531085
168	0x3e977de4	0.29588234
169	0xbe474288	-0.19458973
170	0xbdae291f	-0.08503937
171	0x3f114cbd	0.5675772
172	0x3dc449ac	0.09584364
173	0x3d9ece09	0.07754142
174	0xbd905343	-0.07047131
175	0x3de65b76	0.112479135
176	0x3c1ee06d	0.009697062
177	0xbdba274b	-0.09089526
178	0xbd511fc3	-0.05105568
179	0x3e89ade5	0.26890483
180	0x3ea4db32	0.32198483
181	0xbe25590d	-0.16147251
182	0xbdb749cf	-0.08949625
183	0xbf0e288b	-0.55530614
184	0x3e0d4a87	0.13797961
185	0x3d65d2eb	0.05610935
186	0xbdb93778	-0.09043783
187	0x3e498a1b	0.1968159
188	0x38b6eb1c	8.722229e-05
189	0x39e321af	0.0004332191
190	0xbcd13a4f	-0.025540499
191	0x3dbaf226	0.091282174
192	0xbe5387c8	-0.20657265
193	0xbe371354	-0.17878467
194	0x3d660764	0.056159392
195	0xbe93217b	-0.2873648
196	0xbd9bfafb	-0.0761623
197	0xbe35b833	-0.17746048
198	0xbcbe096d	-0.023197854
199	0xbeb4070f	-0.35161635
200	0x3efa0305	0.4883043
201	0x3da89b6a	0.08232768
202	0xbd6854fd	-0.056721676
203	0xbe89e416	-0.26931828
204	0xbe0697fe	-0.13143918
205	0xbea1fc84	-0.31637967
206	0x3ed0573d	0.40691558
207	0x3e88893d	0.26667204
208	0xbd904424	-0.07044247
209	0x3e6ed056	0.23321661
210	0x3de241f3	0.11047735
211	0xbe230083	-0.15918164
212	0xbed1e588	-0.4099543
213	0x3cd456c7	0.025920285
214	0x3e2d938e	0.16950819
215	0x3ed415ec	0.41422975
216	0x3d64ef3a	0.055892207
217	0x3e06b152	0.1315358
218	0xbe003a6f	-0.1252229
219	0xbd413004	-0.047164932
220	0x3e8af440	0.27139473
221	0xbe2e9af4	-0.17051297
222	0xbea29cfc	-0.31760395
223	0x3e14554a	0.1448566
224	0xbea00f2e	-0.3126158
225	0xbd578442	-0.052616365
226	0x3e1c006a	0.15234533
227	0xbe708c1f	-0.23490952
228	0xbd74877d	-0.059699524
229	0x3db77f44	0.08959821
230	0xbd484a07	-0.048898723
231	0x3ef28857	0.47369644
232	0xbe1e90d4	-0.15484935
233	0xbe308917	-0.17239796
234	0xbd3e6d5b	-0.04649101
235	0xbe43de73	-0.19127826
236	0xbd9282ea	-0.07153876
237	0xbe0ff518	-0.1405834
238	0xbe777f3e	-0.24169633
239	0xbed49bb6	-0.41525048
240	0x3e494683	0.19655804
241	0xbed87263	-0.4227477
242	0x3eab6cb6	0.33481377
243	0xbf053400	-0.5203247
244	0xbeb2ebe4	-0.34945595
245	0xbe6d71e1	-0.23187973
246	0x3e2d5f55	0.16930898
247	0xbe294d40	-0.16533375
248	0xbaf96f39	-0.0019030339
249	0x3cd5e81c	0.026111655
250	0xbe1842d4	-0.14869243
251	0xbe56629f	-0.20936058
252	0xbe0ee2b3	-0.13953666
253	0x3e0b826e	0.13623974
254	0x3e747751	0.2387364
255	0x3ec51307	0.3849108

actor.preprocess.model.model.0.bias f4 [64]
0	0x3b126cc5	0.0022342664
1	0xbd81bbae	-0.06334625
2	0x3df33515	0.11875359
3	0xbeb67ebe	-0.35643572
4	0xbd586edb	-0.052840095
5	0x3ec0eec6	0.3768217
6	0x3e13aae2	0.14420655
7	0xbe60fe78	-0.21972072
8	0x3ed5f678	0.41789603
9	0xbd95b642	-0.073101535
10	0x3e9fc08a	0.31201583
11	0x3e988ef2	0.2979656
12	0xbc3ba6e1	-0.011453361
13	0x3e2d4ace	0.16923067
14	0x3e129b3b	0.14317028
15	0xbe0c4775	-0.13699134
16	0x3e8656e6	0.26238173
17	0xbc96e596	-0.018420022
18	0xbd1ce566	-0.03830471
19	0xbe84612f	-0.25855395
20	0x3e0f17d6	0.13973936
21	0x3e605df0	0.21910834
22	0x3e521c58	0.20518625
23	0x3d3ef3d8	0.046619266
24	0xbe95ca85	-0.29256073
25	0x3d9ed5f2	0.077556506
26	0x3e0679da	0.1313242
27	0xbed56b68	-0.41683507
28	0x3deb1a06	0.11479573
29	0xbe93f733	-0.28899536
30	0xbd5ed4e6	-0.054402255
31	0xbde9c80b	-0.11415108
32	0xbde78c54	-0.11306062
33	0xbeaba482	-0.33523947
34	0xbd019fa7	-0.031646397
35	0xbda497ce	-0.08036767
36	0xbe2385a8	-0.15968955
37	0xbb8f4156	-0.0043718023
38	0xbcb26e19	-0.021781014
39	0xbf052260	-0.5200558
40	0xbe655f16	-0.22399554
41	0xbdcbf24e	-0.09958325
42	0xbe498691	-0.1968024
43	0x3e822f28	0.25426602
44	0x3d8e7ca3	0.06957366
45	0xbe9cb41f	-0.3060617
46	0x3eb76fd8	0.35827518
47	0x3e7b4fc3	0.24542145
48	0x3e7a7631	0.24459149
49	0xbdf0b769	-0.11753733
50	0xbdf41163	-0.11917379
51	0xbe0b85c7	-0.13625251
52	0xbd0d4580	-0.03449011
53	0x3cec882d	0.028873527
54	0x3e8ae70a	0.27129394
55	0xbe1a9235	-0.15094836
56	0xbc5067d8	-0.012720071
57	0xbe19485a	-0.14969006
58	0xbddbd803	-0.1073456
59	0x3e23ba5b	0.15989058
60	0x3dd21968	0.10258752
61	0xbd4c4648	-0.049871713
62	0x3ec10f6d	0.3770708
63	0xbd27b6a0	-0.04094565

actor.preprocess.model.model.2.weight f4 [64, 64]
0	0xbea11162	-0.31458575
1	0xbe128d6a	-0.14311758
2	0xbe7641b1	-0.24048497
3	0xbe9996ff	-0.29998013
4	0x3e62d9b5	0.22153361
5	0x3e28d547	0.16487609
6	0xbf027447	-0.50958675
7	0xbdaebbc9	-0.08531911
8	0x3ef91d99	0.48655394
9	0x3e1155ba	0.14192858
10	0x3e3546eb	0.17702834
11	0xbe1bedef	-0.15227483
12	0x3ec3b3c5	0.3822309
13	0x3e3d2af4	0.18473417
14	0xbde0d703	-0.1097851
15	0x3ddec40b	0.10877236
16	0xbe1bbc8a	-0.1520864
17	0x3e973e17	0.29539558
18	0xbd2da9d5	-0.042398293
19	0xbc9e2b8c	-0.019307874
20	0x3dcc710d	0.099825
21	0x3ceefd71	0.029173585
22	0x3cbf6ed3	0.023368275
23	0x3df25e5d	0.118344046
24	0x3e42ed13	0.19035749
25	0xbde34b0e	-0.110983
26	0x3dbb0bd6	0.09133117
27	0xbe09866c	-0.13430184
28	0x3b0edbfc	0.0021798601
29	0xbdcec9e7	-0.100971036
30	0x3d5f0505	0.054448146
31	0xbec0921f	-0.37611482
32	0x3f12b85f	0.5731258
33	0x3e5f98c9	0.21835627
34	0x3e62e288	0.22156727
35	0xbeb027af	-0.34405276
36	0x3da425ff	0.0801506
37	0x3ece7977	0.40327045
38	0x3e8724aa	0.2639516
39	0xbe44b2f5	-0.19208892
40	0xbe16b133	-0.14716034
41	0x3f0acdce	0.54220283
42	0x3e6854c8	0.22688591
43	0x3e81288a	0.2522624
44	0x3e9245f9	0.2856901
45	0xbdf218ea	-0.11821158
46	0xbe4e4e3c	-0.20147032
47	0xbe2853b8	-0.16438186
48	0xbf053230	-0.52029705
49	0xbe3b8151	-0.18311049
50	0xbe0786fb	-0.13235085
51	0xbd3d7527	-0.046254303
52	0xbda75c50	-0.08171904
53	0x3db53a2e	0.088489875
54	0x3db93a33	0.09044304
55	0x3dc73d63	0.097285055
56	0x3f2eb52b	0.6824519
57	0x3dfb9e47	0.122860484
58	0x3e3858bb	0.18002598
59	0xbe1e16d8	-0.15438402
60	0xbe317472	-0.17329577
61	0x3e8f3478	0.27969718
62	0x3e98f5f0	0.29875135
63	0x3e5a8473	0.21339588
64	0x3e67a7f0	0.22622657
65	0xbd32024a	-0.043459214
66	0xbebe16fe	-0.37126917
67	0xbcbac6f6	-0.02279995
68	0xbe8382bc	-0.2568568
69	0x3dae3170	0.08505523
70	0xbe9fc7ce	-0.31207126
71	0x3f096a73	0.53678054
72	0x3e6b2b6b	0.22965781
73	0xbd78509b	-0.060623746
74	0x3c897b5a	0.016782451
75	0xbceadee7	-0.028670741
76	0xbe29728b	-0.16547601
77	0xbde386cc	-0.11109695
78	0xbcd46824	-0.025928564
79	0x3de744c7	0.11292415
80	0x3db7e49d	0.089791514
81	0x3ea11731	0.31463006
82	0x3da6b07c	0.081391305
83	0x3eda3269	0.42616585
84	0xbf0131e9	-0.5046678
85	0xbcefea85	-0.029286632
86	0xbd3bf313	-0.04588611
87	0xbe17665b	-0.1478514
88	0x3da79fab	0.08184751
89	0x3e302715	0.17202409
90	0x3e626874	0.22110158
91	0xbda5cf9f	-0.08096241
92	0xbe688818	-0.22708166
93	0x3dcc1a0a	0.09965904
94	0xbecbd8fd	-0.39813986
95	0x3da21667	0.07914429
96	0xbc964629	-0.018344002
97	0xbcafc998	-0.021458432
98	0x3eb402f0	0.3515849
99	0xbddd7b4d	-0.108145334
100	0xbc0522f2	-0.008126007
101	0xbca384f8	-0.019960865
102	0xbe40b680	-0.18819618
103	0x3e52bb9b	0.20579378
104	0x3ecaabe4	0.39584267
105	0x3df86c85	0.121300735
106	0xbe644c9b	-0.22294848
107	0xbdadeec8	-0.084928095
108	0xbe9a4d66	-0.30137175
109	0x3eb83c3f	0.35983464
110	0xbebdc49a	-0.37064058
111	0x3eb20301	0.34767917
112	0xbda71caa	-0.08159764
113	0xbe793504	-0.2433663
114	0x3e5c3794	0.21505576
115	0x3ed887d7	0.42291138
116	0x3dd12b16	0.10213296
117	0x3ddb37c9	0.107039995
118	0xbe22e042	-0.1590586
119	0x3e503d22	0.2033582
120	0xbe5f5a39	-0.21811761
121	0xbe72a45b	-0.23695509
122	0xbd94a74e	-0.07258473
123	0xbe098cf5	-0.13432677
124	0xbf467b56	-0.77531946
125	0x3e9dfced	0.3085703
126	0xbe8037ba	-0.25042516
127	0x3e2041a3	0.15650038
128	0xbf16a060	-0.5883846
129	0x3eed3af1	0.4633403
130	0xbe874fe2	-0.26428133
131	0xbd7fce64	-0.06245269
132	0xbebb0e6d	-0.36534443
133	0xbc949723	-0.018138474
134	0x3e905d21	0.28196052
135	0x3b398249	0.0028306416
136	0x3df8c8aa	0.12147649
137	0x3e2c2eb4	0.16814691
138	0x3e0172a5	0.1264139
139	0xbeab55f7	-0.33464023
140	0x3e0ed612	0.13948849
141	0x3ea25fa6	0.317136
142	0x3ee34487	0.4438822
143	0x3e875536	0.26432198
144	0xbe462565	-0.19350202
145	0x3e1caa87	0.15299426
146	0xbe545826	-0.20736751
147	0x3e3f7bc4	0.18699557
148	0xbda4e801	-0.08052064
149	0x3afdc2b2	0.0019360392
150	0xbe7ebc7e	-0.24876592
151	0xbe214663	-0.15749507
152	0x3e2d2580	0.16908836
153	0xbd349d99	-0.04409561
154	0xbe71910e	-0.2359049
155	0xbe52dfc0	-0.20593166
156	0x3e9a92a8	0.30190015
157	0xbe5dae83	-0.21648602
158	0xbccfb433	-0.02535448
159	0xbdc0b15a	-0.09408827
160	0x3e74f224	0.23920494
161	0xbe523821	-0.20529224
162	0xbd409eb0	-0.047026336
163	0x3f1fd5d7	0.6243567
164	0x3e5b8c18	0.2144016
165	0xbd9aa664	-0.07551268
166	0xbe2569c9	-0.16153635
167	0x3df0ed9d	0.11764071
168	0xbd529ded	-0.05142014
169	0x3ee50cff	0.44736478
170	0x3db70148	0.08935791
171	0xbe5bee7b	-0.21477692
172	0xbd15fb54	-0.03661664
173	0x3e07b101	0.13251115
174	0x3df28e24	0.118435174
175	0xbe6e254b	-0.23256414
176	0xbee23ef6	-0.4418866
177	0xbe84e783	-0.2595788
178	0xbb4bb8ec	-0.0031085564
179	0xbe76c86a	-0.2409989
180	0x3e406d2c	0.18791646
181	0x3ef481fb	0.47755417
182	0x3e7824ea	0.24232832
183	0x3c0155bb	0.007893975
184	0x3cb7a1c2	0.022416
185	0xbec60f3c	-0.38683498
186	0xbe8f69db	-0.2801045
187	0xbe2f9234	-0.17145616
188	0x3db536a2	0.08848311
189	0x3e1a32b8	0.1505841
190	0x3edc1db9	0.42991427
191	0x3ef526d9	0.478812
192	0xbd82f443	-0.063942455
193	0x3c5a2d30	0.013316438
194	0x3dcfd4a0	0.10147977
195	0x3c9d20c6	0.019180667
196	0xbd514da5	-0.05109944
197	0x3e29b4c6	0.16572866
198	0x3e4bedbd	0.19914909
199	0x3c6ecbdf	0.014574974
200	0xbe0fcfc8	-0.14044106
201	0xbe9e66a3	-0.3093768
202	0xbe17a11d	-0.14807554
203	0x3ed5d88a	0.4176677
204	0x3e019e3a	0.12658015
205	0xbf1edb87	-0.6205372
206	0x3d3e383a	0.04644034
207	0x3dec50ca	0.11538847
208	0xbdce53b5	-0.100745596
209	0xbe2ed4fd	-0.17073436
210	0xbf2f98c5	-0.6859248
211	0x3eafadc3	0.34312257
212	0xbeceaf12	-0.40367943
213	0x3f5130a5	0.8171485
214	0x3e2fbdf8	0.17162311
215	0xbe0a4369	-0.13502277
216	0xbe9545de	-0.29154867
217	0xbec5365c	-0.38518035
218	0x3dae0ec4	0.0849891
219	0xbe81bbd3	-0.2533861
220	0xbe7aed3c	-0.2450456
221	0x3d46820a	0.04846386
222	0xbd9007d8	-0.07032746
223	0x3e2d780d	0.16940327
224	0xbc4d052c	-0.01251344
225	0x3e6b47b5	0.22976573
226	0x3eb468da	0.35236245
227	0x3dd76b9d	0.105185725
228	0xbd635d36	-0.055508815
229	0xbe5f152b	-0.21785419
230	0xbe352069	-0.17688145
231	0x3e4f63d7	0.2025293
232	0xbd3d90f0	-0.0462808
233	0xbd2036db	-0.039114814
234	0x3e10ae39	0.1412896
235	0x3ebe8e00	0.37217712
236	0x3d23e3cd	0.04001217
237	0x3dd9d265	0.10635833
238	0x3e799d3a	0.24376383
239	0xbe7045bc	-0.23464102
240	0x3d154abc	0.036448225
241	0x3db744b7	0.08948653
242	0x3e844c77	0.25839588
243	0x3e343c20	0.17601061
244	0x3de45199	0.11148376
245	0x3d84534b	0.064611994
246	0xbe34600b	-0.17614762
247	0x3d1d56ef	0.038412984
248	0xbdfa9a6c	-0.12236485
249	0xbea6c489	-0.3257182
250	0x3d064bb3	0.032787036
251	0xbe3dfdbf	-0.18553828
252	0xbea0cc27	-0.31405756
253	0xbe62f3ce	-0.22163317
254	0xbd001ff4	-0.031280473
255	0xbf6c488a	-0.92298186

actor.preprocess.model.model.2.bias f4 [64]
0	0x3bc06de3	0.0058724745
1	0xbe713e5f	-0.23558949
2	0xbc27b8fb	-0.010236974
3	0x3d31dbf6	0.04342266
4	0x3e82eae3	0.2556983
5	0xbdd9cb06	-0.10634427
6	0x3e3591f4	0.17731458
7	0x3e02cdee	0.12773868
8	0xbaf47ede	-0.0018653532
9	0x3e80c8c3	0.2515317
10	0x3da5f3be	0.08103131
11	0xbe2da942	-0.16959098
12	0x3e37ca8d	0.1794836
13	0x3d4034fa	0.046925522
14	0xbe8bea97	-0.27327415
15	0x3d84f186	0.064913794
16	0x3a6b1c16	0.00089687237
17	0xbe35f205	-0.17768104
18	0xbda2d259	-0.07950277
19	0x3b4f6d99	0.0031651019
20	0x3d670487	0.056400802
21	0xbcf908e1	-0.030399742
22	0x3e9c94d7	0.30582306
23	0x3b6d177d	0.003617733
24	0x3de453b9	0.11148781
25	0xbd7dd50b	-0.06197075
26	0x3e36c2d2	0.17847756
27	0x3df88fbd	0.12136791
28	0xbe21a7cf	-0.1578667
29	0x3bb28c52	0.0054488564
30	0x3e241bb1	0.16026188
31	0x3e07f167	0.13275681
32	0x3dc60e45	0.096706904
33	0xbe3172a3	-0.17328887
34	0x3eceb243	0.40370378
35	0xbe49d01f	-0.19708298
36	0xbe56c355	-0.20972951
37	0xbe0d6451	-0.13807799
38	0xbe0cb49b	-0.1374077
39	0xbd97c3a2	-0.07410361
40	0xbe716788	-0.2357465
41	0xbe24091b	-0.16019098
42	0xbe290c18	-0.1650852
43	0xbd1f8f21	-0.038954858
44	0x3e7dd7cc	0.24789351
45	0x3eb1241d	0.34597865
46	0x3ead23ac	0.33816278
47	0x3d88c9f7	0.06679147
48	0x3d8b0b06	0.06789212
49	0x3e5476a5	0.20748384
50	0x3e767e81	0.24071695
51	0xbdb17a9e	-0.086659655
52	0xbd7d0af3	-0.06177802
53	0xbe3f25d3	-0.18666773
54	0x3e4dfff4	0.2011717
55	0xbe22a2b2	-0.15882376
56	0xbd789aa9	-0.06069437
57	0xbe7b6ca9	-0.2455317
58	0xbd144930	-0.03620261
59	0xbe87e949	-0.2654517
60	0xbe12d3b1	-0.14338566
61	0x3e661e86	0.22472581
62	0x3d417f71	0.04724068
63	0x3e95a966	0.29230803

actor.mu.model.0.weight f4 [6, 64]
0	0x3d1bdc5d	0.03805195
1	0xbca13306	-0.01967765
2	0xbe096bcc	-0.13420027
3	0x3e0a6b1e	0.13517424
4	0x3dd7b979	0.10533423
5	0x3ca985e3	0.020693725
6	0xbe7caac4	-0.24674517
7	0x3dc2c20a	0.09509666
8	0xbd82da0f	-0.063892476
9	0x3ca00514	0.019533671
10	0xbd53257a	-0.051549412
11	0x3dc2b5d3	0.095073365
12	0x3e0385c1	0.12843992
13	0x3d13120a	0.035905875
14	0xbe315802	-0.17318729
15	0x3e7e38b7	0.24826322
16	0xbd953336	-0.07285158
17	0xbd70be33	-0.058775138
18	0x3e06ccfc	0.13164133
19	0x3aa34f2e	0.001245951
20	0x3e825be0	0.2546072
21	0x3d850b62	0.06496312
22	0x3d9ffb51	0.07811607
23	0xbd6e3fee	-0.058166437
24	0xbc44ba4a	-0.012007305
25	0xbded51d2	-0.115878716
26	0x3d70af6c	0.058761045
27	0x3d1ff0ac	0.039047882
28	0x3cd13521	0.02553803
29	0x3dcbfa92	0.09959902
30	0xbd9306b4	-0.07179013
31	0xbb7ca4eb	-0.0038550447
32	0xbc684d5d	-0.014178601
33	0xbe370964	-0.17874676
34	0x3e2cb331	0.16865231
35	0xbd91a703	-0.07111933
36	0xbbc48082	-0.0059967646
37	0xbda7ac47	-0.08187156
38	0x3c9eb64f	0.01937404
39	0xbe841ef4	-0.25804865
40	0xbe42b60d	-0.1901476
41	0xbd8fd154	-0.07022348
42	0xbda07d82	-0.07836439
43	0xbdc195cd	-0.094524
44	0x3e00d135	0.12579806
45	0x3dc07c5c	0.0939872
46	0xbe3cb889	-0.1842977
47	0xbe179266	-0.1480194
48	0x3e04b366	0.1295906
49	0x3bf13111	0.0073605855
50	0x3d0deb5c	0.034648284
51	0xbb58e902	-0.0033097868
52	0x3c821acd	0.01588192
53	0xbe0d88f1	-0.1382177
54	0x3e57372c	0.2101714
55	0x3d0175c9	0.03160647
56	0x3c1b1601	0.009465695
57	0xbd93cda1	-0.07216955
58	0x3e38f446	0.18061933
59	0x3e941009	0.28918484
60	0xbc1dfca1	-0.009642751
61	0x3e754a2d	0.23954077
62	0x3ace451d	0.001573715
63	0xbc916adf	-0.017751155
64	0x3c046914	0.008081693
65	0x3df46a7e	0.11934374
66	0xbd330d97	-0.043714132
67	0x3c8ba99b	0.017048648
68	0x3d52b9fc	0.0514469
69	0xbdaa4a95	-0.08315007
70	0xbc0dbd19	-0.008651041
71	0x3d11c14a	0.035584725
72	0x3e3e5ac5	0.18589313
73	0xbd101d5a	-0.03518424
74	0x3c93c476	0.018038016
75	0x3e237058	0.15960824
76	0x3e90fdff	0.28318784
77	0xbda42066	-0.08013992
78	0xbdeee782	-0.1166525
79	0xbcf50919	-0.029911565
80	0x3dba92ff	0.091100685
81	0xbe02e12b	-0.12781207
82	0x3da37b13	0.07982459
83	0xbc58fd33	-0.013243961
84	0xbd840f1e	-0.06448196
85	0x3e361090	0.17779756
86	0xbb064813	-0.0020489737
87	0xbd143673	-0.03618474
88	0xbe2de8fd	-0.16983409
89	0x3dc65190	0.096835256
90	0x3d29ebae	0.041484527
91	0xbd8d941c	-0.06913015
92	0xbea50473	-0.32229957
93	0x3db18e2f	0.086696975
94	0x3db36a81	0.087605484
95	0xbe7188ec	-0.23587388
96	0x3d95e36d	0.07318769
97	0x3e18f7d9	0.14938296
98	0x3de0775a	0.109602645
99	0xbd2ac67f	-0.041693207
100	0xbe8b1579	-0.2716482
101	0x3d8e4ff6	0.06948845
102	0x3dd728d8	0.10505837
103	0x3c49c72a	0.012315551
104	0x3e0f536f	0.13996671
105	0x3e120d8f	0.14262985
106	0xbe85fe8d	-0.2617077
107	0xbde5747c	-0.11203858
108	0x3d33b62b	0.0438749
109	0xbd438224	-0.047731534
110	0xbca57ee9	-0.020202117
111	0xbd5b7970	-0.05358261
112	0xbcbc930c	-0.023019336
113	0xbe0ff799	-0.14059295
114	0x3dad1081	0.084504135
115	0xbe16fc80	-0.14744759
116	0x3da54162	0.080691114
117	0xbe2ff53d	-0.17183395
118	0x3e39d6cc	0.18148345
119	0xbe5300a5	-0.20605715
120	0xbe04ac0a	-0.12956253
121	0xbd481cad	-0.048855472
122	0xbe58a9aa	-0.21158472
123	0xbdbd2329	-0.09235222
124	0xbdf40789	-0.119155
125	0x3eafdb69	0.34347084
126	0xbc90a24a	-0.01765551
127	0xbd16e6f0	-0.036841333
128	0xbd9a0c0f	-0.07521831
129	0x3d0ee20e	0.03488355
130	0xbe37e9db	-0.17960303
131	0xbd4fa4fc	-0.05069445
132	0x3d40a799	0.047034834
133	0x3dba89d8	0.09108323
134	0x3e009151	0.12555434
135	0xbdbfb147	-0.09359985
136	0x3cfd6434	0.03093157
137	0xbe13b316	-0.14423785
138	0xbde6d9a2	-0.11271979
139	0x3cff44bd	0.031160707
140	0x3cec6d29	0.028860645
141	0x3e235c49	0.15953173
142	0xbdabc407	-0.083869986
143	0xbe16ef2e	-0.14739677
144	0xbd55ab8d	-0.052165557
145	0x3e4f91ce	0.20270464
146	0x3ea44fe1	0.32092193
147	0xbe8e5bc5	-0.2780439
148	0xbcb014a2	-0.021494213
149	0x3dfb7f57	0.122801475
150	0xbdad0676	-0.08448498
151	0xbe066a2c	-0.13126439
152	0xbce73ade	-0.028226312
153	0xbd351a75	-0.044214685
154	0x3e067c26	0.13133296
155	0x3e0ed7c0	0.1394949
156	0x3d87c172	0.06628694
157	0xbdd5997f	-0.10429668
158	0x3cbe22b3	0.023209905
159	0xbc983507	-0.018579973
160	0xbcc04668	-0.023471072
161	0xbe0a6955	-0.13516743
162	0x3e64cd9e	0.22344062
163	0x3e8c520e	0.27406353
164	0xbe15f4f2	-0.1464422
165	0x3c42d05d	0.011890498
166	0xbc9e0e68	-0.019293979
167	0xbca93db2	-0.020659301
168	0xbd2692c0	-0.040667295
169	0xbda281bb	-0.079349004
170	0x3c39586a	0.011312583
171	0x3da62e52	0.08114304
172	0xbc4467ad	-0.011987609
173	0x3cc32ef8	0.023826107
174	0xbe2d4be6	-0.16923484
175	0x3d406c3f	0.04697823
176	0x3e1df830	0.15426707
177	0xbcf898f4	-0.030346371
178	0xbd21c3ce	-0.039493375
179	0xbd8256d4	-0.063642174
180	0x3e4ecaee	0.20194599
181	0xbda4a97a	-0.080401376
182	0xbe1d6f5b	-0.1537451
183	0xbbe06ced	-0.0068489225
184	0x3cf5d9f3	0.030011153
185	0xbdfe9fc7	-0.12432819
186	0xbe5e636c	-0.21717614
187	0x3d0aa98f	0.03385311
188	0xbcfd6879	-0.030933606
189	0x3e785204	0.24250036
190	0x3e2b027c	0.16700166
191	0x3c866d8d	0.01640966
192	0xbe0e218a	-0.13879982
193	0xbe60694a	-0.21915165
194	0xbdf861ff	-0.12128066
195	0x3d2e8f85	0.04261734
196	0xbe17e501	-0.14833452
197	0xbe98d8c6	-0.29852885
198	0x3e4f388a	0.20236412
199	0xbb0d4451	-0.0021555612
200	0x3e4f353b	0.2023515
201	0x3dadfa31	0.08494986
202	0xbe06ee34	-0.13176805
203	0xbd8f49e3	-0.06996515
204	0x3e39383d	0.1808786
205	0x3d43acdc	0.047772273
206	0x3c7e4cce	0.015521241
207	0xbe1598c8	-0.14609063
208	0xbd1a40dd	-0.037659515
209	0xbc9bdef8	-0.019027218
210	0x3d4310a8	0.047623307
211	0xbda658b8	-0.081223905
212	0x3d11ba8e	0.035578303
213	0x3ce14b57	0.027501745
214	0x3dee8214	0.11645904
215	0x3ca37f3a	0.019958127
216	0xbe0ddab4	-0.1385296
217	0xbe7fb154	-0.24969989
218	0xbd966661	-0.07343746
219	0x3d8281fb	0.06372448
220	0xbbe10423	-0.006866948
221	0xbe0caa1b	-0.13736765
222	0x3e49d182	0.19708827
223	0x3dba2aa2	0.09090163
224	0xbd00c1fc	-0.031434998
225	0x3d04b42f	0.0323984
226	0xbd190166	-0.03735485
227	0xbd80e287	-0.06293207
228	0x3d99319c	0.07480165
229	0x3c6b5808	0.01436425
230	0xbba7d0a8	-0.0051213093
231	0x3e130613	0.14357786
232	0x3ddf609b	0.10907098
233	0xbd8c880b	-0.06861886
234	0xbd948432	-0.07251777
235	0xbe317944	-0.17331415
236	0x3df51871	0.119675525
237	0x3e98ac4c	0.29818952
238	0x3df092dd	0.11746762
239	0xbd96e414	-0.07367721
240	0xbda2ec62	-0.07955243
241	0x3e261ec2	0.1622267
242	0x3e0d39cd	0.1379158
243	0xbc210474	-0.009827722
244	0x3e228293	0.15870123
245	0x3d846ee5	0.06466464
246	0x3de09f5a	0.10967894
247	0x399f0b5a	0.000303353
248	0x39391386	0.00017650248
249	0x3ded1f5f	0.11578249
250	0xbccd5db2	-0.025069091
251	0xbdf6e31b	-0.12055036
252	0x3e374a30	0.17899394
253	0x3da0a7bc	0.07844493
254	0xbe284b3b	-0.16434948
255	0x3e27ff15	0.164059

actor.mu.model.0.bias f4 [6]
0	0x3da66918	0.08125514
1	0x3e1eb16b	0.15497367
2	0xbad1f376	-0.0016017992
3	0x3e70d0df	0.23517178
4	0x3e4fff9e	0.20312354
5	0xbddd1d69	-0.10796625

critic.preprocess.model.model.0.weight f4 [64, 17]
0	0xbd8c1ceb	-0.06841453
1	0xbd8f60c8	-0.070008814
2	0x3d889cb4	0.06670514
3	0xbd3d1dce	-0.046171002
4	0x3ebfe600	0.37480164
5	0x3e2f3d24	0.17113167
6	0xbea7288f	-0.3264813
7	0x3e6452d7	0.22297226
8	0x3d1e1928	0.03859821
9	0xbc4bdba1	-0.0124425
10	0xbe8a8dcb	-0.27061304
11	0x3e67a396	0.22620997
12	0x3dd570d6	0.10421912
13	0x3e5310b2	0.20611838
14	0x3e02c2fd	0.12769695
15	0x3d5e9543	0.054341566
16	0xbdf28f00	-0.11843681
17	0x3ef76de0	0.48326015
18	0x3dcbd9db	0.09953662
19	0x3e64ab54	0.22330981
20	0x3db609f4	0.08888617
21	0x3e94bcb9	0.29050234
22	0x3e96b584	0.2943536
23	0x3efcab52	0.49349457
24	0x3e5d1817	0.21591221
25	0xbe663308	-0.22480404
26	0x3e712a0d	0.23551197
27	0xbe03a3f9	-0.1285552
28	0x3eb1ac4c	0.34701765
29	0x3e05d80f	0.13070701
30	0x3e710abd	0.23539253
31	0xbcbbe0a0	-0.022934258
32	0x3e0b1537	0.13582312
33	0x3d3232d5	0.04350551
34	0x3f3d84cf	0.74030775
35	0xbd61b132	-0.055100627
36	0x3f60aa1d	0.8775957
37	0x3e74fcc3	0.23924546
38	0x3e484f6d	0.19561549
39	0xbe8388e5	-0.2569038
40	0xbdac366d	-0.084088184
41	0x3de28001	0.11059571
42	0xbf2ba1ea	-0.67043936
43	0x3e9b77bf	0.30364797
44	0x3ea37516	0.31925267
45	0xbeb8cbbf	-0.36092946
46	0xbd6b8ed6	-0.057509266
47	0x3c862322	0.016374175
48	0x3d5d3ec3	0.054014932
49	0x3c829ed9	0.015944885
50	0x3d61c8c8	0.05512312
51	0x3f322d95	0.696008
52	0xbe0fe441	-0.14051916
53	0xbe85fcf6	-0.26169556
54	0x3cbc41ff	0.022980688
55	0xbe5fe109	-0.21863188
56	0x3e0957f0	0.13412452
57	0x3d659688	0.05605176
58	0xbd632d3d	-0.055463064
59	0xbe1ea696	-0.15493235
60	0x3f2e00cc	0.67969966
61	0xbdb0c9aa	-0.08632214
62	0x3cfc12b6	0.03077064
63	0x3e7ba932	0.24576262
64	0x3c9e921c	0.01935678
65	0x3e4a05f5	0.19728835
66	0x3e48887e	0.19583318
67	0xbe0bcaeb	-0.13651626
68	0x3e69943e	0.22810456
69	0xbe80ff73	-0.25194892
70	0x3f19c120	0.6006031
71	0x3ea5c46d	0.32376423
72	0x3efbf8cd	0.49213257
73	0xbd5fb516	-0.054616056
74	0x3dcfeb52	0.10152306
75	0x3ddb25f3	0.107005976
76	0xbee810bb	-0.45325264
77	0x3ecbb3e8	0.39785695
78	0x3ec29fae	0.3801245
79	0x3daf2b29	0.08553154
80	0x3be9a931	0.007130765
81	0xbda1bbaa	-0.07897122
82	0xbe989cc7	-0.29807112
83	0xbd8d570d	-0.06901369
84	0x3d9e74ff	0.07737159
85	0x3dc70112	0.09717001
86	0x3ef2a186	0.47388858
87	0xbe68bc51	-0.22728087
88	0x3e3d7ed4	0.18505412
89	0xbdfe6ffd	-0.12423704
90	0xbdc7d66e	-0.09757696
91	0x3e53fda7	0.2070223
92	0xbd99151b	-0.07474729
93	0x3ed2fc65	0.41208187
94	0xbc5c1c6f	-0.0134345135
95	0xbd1c051d	-0.038090814
96	0xbed370e8	-0.41297078
97	0xbe1cd376	-0.15315041
98	0x3dcf178a	0.101119116
99	0x3e220b82	0.15824702
100	0x3dae6a03	0.08516314
101	0xbd95d362	-0.07315709
102	0xbef585a9	-0.47953537
103	0xbe6396cd	-0.22225495
104	0x3d80fb43	0.06297924
105	0x3d8da12f	0.06915509
106	0xbd8fc7bc	-0.07020518
107	0xbc2c6c3d	-0.010523853
108	0x3d9e259a	0.07722016
109	0x3f19e3dd	0.60113317
110	0x3dff8940	0.1247735
111	0xbedae0aa	-0.4274953
112	0xbee8a08a	-0.45434982
113	0x3d2cd13a	0.04219172
114	0xbd1f6850	-0.03891784
115	0x3d5f06dd	0.054449905
116	0x3ebad71d	0.36492243
117	0x3da460c7	0.08026271
118	0x3e313aea	0.1730763
119	0xbefefbcd	-0.49801484
120	0x3ecc17c8	0.39861894
121	0x3c6664ac	0.014062088
122	0x3c28278a	0.010263333
123	0x3c8b6733	0.017016983
124	0xbeb5c89a	-0.3550461
125	0xbdbdd233	-0.09268608
126	0xbd76184b	-0.06008176
127	0xbd75b3a8	-0.059985787
128	0x3e8879ae	0.26655334
129	0x3ed1cb0b	0.40975222
130	0xbeffa0e0	-0.49927425
131	0xbe279f05	-0.16369255
132	0x3c8258c3	0.015911466
133	0xbe480fa0	-0.1953721
134	0x3d0eff96	0.034911714
135	0xbd1fb8aa	-0.03899447
136	0x3e6dbfb1	0.23217656
137	0x3ecaa38a	0.39577895
138	0xbf504c65	-0.8136657
139	0xbe2e5733	-0.17025451
140	0xbb13632a	-0.0022489526
141	0x3ede842a	0.43460208
142	0x3df76979	0.12080664
143	0x3f28c21d	0.65921193
144	0xbee96554	-0.4558512
145	0x3e94ae02	0.29039007
146	0xbdd7dca1	-0.105401285
147	0x3cd2377c	0.025661223
148	0x3dac4ca1	0.08413053
149	0x3dece01c	0.11566183
150	0x3e567796	0.20944056
151	0x3d0f6cd6	0.035015903
152	0x3dcf9e70	0.101376414
153	0x3f17a5dd	0.5923746
154	0xbcd69241	-0.026192786
155	0xbb6bce4a	-0.0035981112
156	0x3d073949	0.033013616
157	0xbab4491c	-0.0013754698
158	0x3f148d1c	0.58027816
159	0x3eb8e935	0.36115423
160	0x3eccf4f9	0.4003065
161	0xbed107fa	-0.40826398
162	0xbe776963	-0.24161296
163	0xbc67a3e0	-0.014138192
164	0x3eadfc66	0.33981627
165	0x3e04565b	0.12923567
166	0x3da3e197	0.08002012
167	0xbdbc3a1d	-0.09190772
168	0x3ce81298	0.028329179
169	0x3e3b38c8	0.18283379
170	0xbd07d0a8	-0.033157974
171	0xbf00678b	-0.50157994
172	0x3ee9d9a5	0.45673862
173	0x3d8f8891	0.0700847
174	0x3d6ea7ba	0.058265425
175	0x3e39d56d	0.18147822
176	0x3d4e8851	0.05042297
177	0xbe21b0b3	-0.15790062
178	0xbe9ada40	-0.30244637
179	0xbdd35ee0	-0.1032083
180	0xbd888776	-0.06666462
181	0xbe44e5ef	-0.19228338
182	0x3bea1df4	0.007144684
183	0x3e77e2e6	0.24207649
184	0x3daf6a3a	0.08565183
185	0x3d6d688d	0.057961036
186	0x3c3b2672	0.01142274
187	0x3d50ac77	0.050945725
188	0xbed8e843	-0.42364702
189	0x3d747c44	0.05968882
190	0x3d6152f3	0.055010747
191	0x3db3ee3d	0.08785675
192	0x3e87cd0c	0.26523626
193	0xbca8f0a6	-0.020622563
194	0x3c5fac49	0.013651916
195	0x3e7e5612	0.2483752
196	0x3e5abc2e	0.21360847
197	0xbe8b5638	-0.27214217
198	0x3df196d2	0.11796345
199	0x3ddfb864	0.109238416
200	0x3da26721	0.079298265
201	0x3e10b069	0.14129795
202	0x3cf2d5c7	0.029642953
203	0x3d6f429b	0.05841313
204	0xbd9bf6d9	-0.07615442
205	0xbe65cbbe	-0.22441003
206	0x3e9157cc	0.28387296
207	0xbd817a23	-0.06322124
208	0xbebfd3f4	-0.37466395
209	0xbf02c9de	-0.51089275
210	0xbed4e20a	-0.41578704
211	0xbeb674f1	-0.35636094
212	0xbd8b9b0b	-0.068166815
213	0xbf39ae57	-0.72531646
214	0xbe004d8f	-0.12529586
215	0x3edfe3f8	0.43728614
216	0x3db3651f	0.08759522
217	0xbe19e29d	-0.15027852
218	0xbead3129	-0.3382657
219	0xbe064dc0	-0.13115597
220	0xbd7c091c	-0.061532125
221	0x3c3ecf0f	0.011646046
222	0x3f0c083f	0.5470008
223	0xbea42276	-0.32057542
224	0xbc48dcf7	-0.012259713
225	0x3ec97b3a	0.39351827
226	0xbe548460	-0.20753622
227	0x3e385a88	0.18003285
228	0x3e5924b6	0.2120541
229	0x3d878aa0	0.066182375
230	0x3e20080f	0.15628074
231	0x3e1d415c	0.15356964
232	0xbec09c4c	-0.37619245
233	0xbdb8327c	-0.08994004
234	0x3d70a1e9	0.05874816
235	0x3d699abc	0.05703233
236	0x3e0c4eb7	0.13701902
237	0x3d9b54b3	0.075845145
238	0xbf4a74b3	-0.7908432
239	0xbdbfe334	-0.093695074
240	0xbec13cd4	-0.3774172
241	0x3d3b574b	0.045737546
242	0x3e33e513	0.17567854
243	0x3e79a59e	0.24379584
244	0xbd967993	-0.07347407
245	0xbecd599c	-0.4010743
246	0x3e8e0480	0.27737808
247	0xbdd27b25	-0.10277394
248	0x3e492c0b	0.19645707
249	0x3ef09892	0.46991402
250	0x3de235d9	0.11045427
251	0x3d489677	0.04897162
252	0xbf213558	-0.6297202
253	0xbe731a05	-0.23740394
254	0xbe330021	-0.17480518
255	0xbd97743f	-0.07395219

critic.preprocess.model.model.0.bias f4 [64]
0	0xbf635b4e	-0.88811195
1	0x3f2f0c44	0.6837809
2	0xbe4fbd85	-0.2028714
3	0x3fb6fd75	1.4296099
4	0x3d49f9a2	0.049310334
5	0x3f087449	0.5330244
6	0x3ebc1f8b	0.36742815
7	0x3f1fbb89	0.6239553
8	0x3e875a33	0.26436004
9	0x3f1a5c78	0.60297346
10	0x3eeaa5eb	0.4582971
11	0x3f01d50b	0.507157
12	0xbec4965b	-0.38395962
13	0xbf42ae51	-0.76047236
14	0x3edccf44	0.4312688
15	0xbf07122d	-0.5276211
16	0x3faef6d0	1.3669071
17	0x3f6d7760	0.92760277
18	0xbf484877	-0.7823557
19	0x3f88edbc	1.0697551
20	0xbf771c70	-0.9652777
21	0xbf820553	-1.0157875
22	0x3fa03d99	1.2518798
23	0xbec1d1b1	-0.37855294
24	0xbd1fb01b	-0.038986307
25	0xbec19546	-0.378092
26	0x3f46cc9d	0.77655965
27	0x3f1c365f	0.61020464
28	0x3f766a5c	0.9625604
29	0x3f311c1d	0.6918352
30	0xbf061d2e	-0.52388275
31	0x3f1e7ecc	0.61912227
32	0xbefaa8ad	-0.48956814
33	0x3ed8596c	0.42255723
34	0xbf23e03c	-0.6401403
35	0xbd8a7f5a	-0.06762572
36	0xbf9b2ecb	-1.2123655
37	0xbeab256d	-0.3342699
38	0xbf393713	-0.7234966
39	0x3f3bc83e	0.7335242
40	0xbfb2265d	-1.3917958
41	0x3e43c01e	0.19116256
42	0x3b8f0ae8	0.004365314
43	0x3e304f12	0.17217663
44	0x3e9d43f6	0.30715913
45	0xbf01eaf0	-0.5074911
46	0x3f1ae39b	0.6050355
47	0x3e92366b	0.28557143
48	0x3f056d33	0.5211975
49	0x3f2654f0	0.64973354
50	0x3eef1972	0.466991
51	0x3e741b69	0.23838581
52	0xbea966f4	-0.3308636
53	0xbeb7f0ed	-0.35926
54	0x3f12edef	0.5739431
55	0xbeab006d	-0.33398762
56	0xbf1a4b51	-0.60271174
57	0xbee489b8	-0.4463632
58	0xbe00be87	-0.1257268
59	0xbf1e97d8	-0.61950445
60	0x3f64d9bf	0.89394754
61	0x3f1f2bfc	0.6217649
62	0xbeceeae3	-0.4041358
63	0x3f73f5b6	0.952968

critic.preprocess.model.model.2.weight f4 [64, 64]
0	0xbe26fbc6	-0.16306981
1	0xbe9865c3	-0.29765138
2	0x3e95f0f4	0.29285395
3	0x3e4fb0fa	0.20282355
4	0x3e350c9e	0.17680594
5	0xbe602cd6	-0.21892104
6	0xbe1510bd	-0.14557166
7	0x3e22e2c4	0.15906817
8	0x3daf1f5a	0.08550902
9	0xbe57bb44	-0.2106753
10	0xbced0983	-0.0289352
11	0x3df1dd3c	0.11809775
12	0xbd6185db	-0.055059295
13	0x3d3b9375	0.045794923
14	0xbec6b0a4	-0.3880664
15	0x3de93321	0.11386705
16	0xbde0d2ab	-0.10977682
17	0xbdae811c	-0.085207194
18	0x3e525e17	0.20543705
19	0xbb362d72	-0.0027798084
20	0xbe6d992f	-0.23202966
21	0xbe1b6a20	-0.15177202
22	0x3ec037d1	0.37542585
23	0x3e026342	0.12733176
24	0x3d30e277	0.043184724
25	0x3e37e095	0.17956765
26	0xbe149c57	-0.14512764
27	0xbda046d7	-0.07826012
28	0xbbff0c30	-0.0077834353
29	0xbdd028c7	-0.10164028
30	0xbc58c39c	-0.013230231
31	0xbe834ba9	-0.25643662
32	0x3de814ee	0.11332117
33	0x3e6aa5cf	0.22914813
34	0xbe3a898c	-0.18216532
35	0x3e849b40	0.25899696
36	0xbd99bdfa	-0.07506938
37	0x3d410cb7	0.047131266
38	0xbcd70f92	-0.026252542
39	0x3d14cb7f	0.03632688
40	0x3cb77c3d	0.022398109
41	0xbe90cade	-0.28279775
42	0xbded4fcb	-0.11587485
43	0x3e12a026	0.14318904
44	0xbdb962b0	-0.09052026
45	0x3e739552	0.2378743
46	0x3e679438	0.22615135
47	0x3eaad546	0.3336584
48	0xbc39a158	-0.011329971
49	0x3df3083f	0.11866807
50	0x3e8338fa	0.25629407
51	0x3e21f04c	0.15814322
52	0x3e3e8578	0.18605602
53	0x3de5ec2d	0.112266876
54	0xbe8d7169	-0.27625588
55	0xbe04c085	-0.12964065
56	0xbd9d3f88	-0.07678133
57	0x3ed42e9a	0.41441804
58	0xbe814d36	-0.2525422
59	0xbc81e624	-0.01585681
60	0xbdfceeac	-0.123502105
61	0x3dfde222	0.12396647
62	0x3d9a62a7	0.07538348
63	0xbe11f2a6	-0.1425272
64	0x3d11cba1	0.035594586
65	0x3dc11965	0.09428672
66	0xbc80a3d9	-0.015703129
67	0x3e0795ad	0.1324069
68	0xbe2fe31f	-0.17176484
69	0x3e82edea	0.2557214
70	0x3d282433	0.041050147
71	0x3ef9220a	0.48658782
72	0x3ecad080	0.39612198
73	0xbe86a4cd	-0.26297608
74	0xbeb8f797	-0.36126396
75	0xbe80655f	-0.2507734
76	0x3e14a854	0.14517337
77	0x3ea028a9	0.3128102
78	0xbd94f8e8	-0.072740376
79	0x3c2f3583	0.0106939105
80	0x3ea8e68b	0.3298839
81	0x3e049513	0.12947492
82	0x3df44d57	0.11928814
83	0xbd060997	-0.03272399
84	0x3e02b5ce	0.12764665
85	0xbd964361	-0.0733707
86	0xbc22aafa	-0.009928459
87	0xbea4664b	-0.32109293
88	0xbec583f5	-0.38577238
89	0xbd908b0c	-0.07057771
90	0x3e27442f	0.16334604
91	0x3df3dd9c	0.11907503
92	0xbe61c275	-0.22046836
93	0xbd3bcb93	-0.04584844
94	0xbd0a548a	-0.03377203
95	0xbec60570	-0.38676023
96	0xbe4d3d2b	-0.20042865
97	0x3e019b08	0.12656796
98	0x3dc832de	0.09775327
99	0xbe811abd	-0.25215712
100	0x3de51472	0.1118554
101	0xbe670496	-0.22560343
102	0xbd82b19e	-0.06381534
103	0xbd5284e5	-0.05139627
104	0x3e3ad4f8	0.18245304
105	0x3d8d1f84	0.06890777
106	0x3e70482f	0.23465036
107	0xbcb6780c	-0.02227404
108	0xbcf6c7fe	-0.03012466
109	0xbdbae96d	-0.09126554
110	0xbe1419a8	-0.14462912
111	0xbe9e66d8	-0.3093784
112	0xbe15d675	-0.1463259
113	0x3ef9d19d	0.48792735
114	0x3e964d2d	0.29355755
115	0xbca20dd3	-0.019781983
116	0x3dc2fdd4	0.0952107
117	0xbe65c371	-0.22437836
118	0xbdcbfe13	-0.0996057
119	0x3e3f1bff	0.18663023
120	0x3da5724a	0.080784395
121	0xbd551bb0	-0.052028358
122	0xbd198448	-0.03747967
123	0xbe53d874	-0.20688039
124	0x3c2db5d5	0.010602434
125	0xbd6f8c49	-0.058483396
126	0x3e27a111	0.16370036
127	0x3e79d616	0.24398074
128	0x3da4cd9e	0.08047031
129	0xbcadb515	-0.02120451
130	0x3e32d85f	0.17465352
131	0x3cca647b	0.024706116
132	0x3cb367b0	0.021900028
133	0xbcb604c4	-0.02221907
134	0x3e1778b4	0.14792138
135	0xbe44a44e	-0.19203302
136	0xbe5402f9	-0.20704259
137	0xbe9dd606	-0.3082735
138	0x3e2cec26	0.16886958
139	0xbe04af90	-0.12957597
140	0x3d9b5c5c	0.075859755
141	0xbbac5ad7	-0.0052598524
142	0xbe37d4dd	-0.17952295
143	0x3e4c3b5d	0.1994452
144	0xbddf6574	-0.109080225
145	0xbdb8cede	-0.09023832
146	0x3e61c43c	0.22047514
147	0xbe074d04	-0.13212973
148	0x3d7a368b	0.061087172
149	0x3dacf9de	0.08446096
150	0xbd947c18	-0.072502315
151	0xbdb9f6c7	-0.09080272
152	0x3e0fc778	0.14040935
153	0xbe9820ec	-0.29712617
154	0x3f154eaa	0.58323157
155	0xb9308745	-0.0001683506
156	0xbe70f378	-0.23530376
157	0x3bbb5bbc	0.0057177227
158	0x3d96f99d	0.07371829
159	0xbe1b6d72	-0.15178469
160	0x3ee9890b	0.45612368
161	0x3e2471bb	0.1605901
162	0xbe89dd61	-0.2692671
163	0xbf0ffbb3	-0.5624344
164	0x3d5066fc	0.050879464
165	0x3e91ad98	0.28452754
166	0x3ed2e02c	0.41186655
167	0xbe864470	-0.2622409
168	0xbe0b03d8	-0.13575685
169	0xbebef903	-0.37299356
170	0xbe96a1d2	-0.29420334
171	0xbebb3bfa	-0.36569196
172	0x3c6c3e75	0.014419188
173	0x3e227fa2	0.15869
174	0x3eb35bb6	0.35030907
175	0x3e6c406c	0.2307145
176	0x3dd589f0	0.104267
177	0x3e2741b3	0.16333656
178	0x3e0284bb	0.12745945
179	0xbdc7165f	-0.09721064
180	0x3e7a19ba	0.24423876
181	0x3e08de56	0.13366064
182	0x3e25ff7e	0.16210744
183	0x3ddf11d5	0.10892073
184	0x3dfc7e2b	0.12328752
185	0xbe716a2b	-0.23575656
186	0xbda8e966	-0.08247642
187	0xbe423397	-0.18964992
188	0xbe184256	-0.14869055
189	0x3ec56bfb	0.38558945
190	0x3d9ccba4	0.07656029
191	0x3d6e15b1	0.058126155
192	0x3eb8383e	0.3598041
193	0xbebbeb4b	-0.36702952
194	0xbebde4db	-0.37088665
195	0xbe0282eb	-0.12745254
196	0xbe005433	-0.1253212
197	0x3d150646	0.036382936
198	0x3ae5ec37	0.0017541711
199	0xbe9e2ea4	-0.3089496
200	0xbea490dc	-0.3214177
201	0xbe8306aa	-0.25591022
202	0x3e54c983	0.20779996
203	0x3e213f16	0.15746722
204	0xbf080de2	-0.53146183
205	0xbe82595d	-0.25458804
206	0x3eb2a032	0.34887844
207	0xbf2a558d	-0.6653679
208	0x3dfbd014	0.12295547
209	0xbe196318	-0.14979208
210	0x3e5d4ebe	0.21612069
211	0xbe17286b	-0.14761512
212	0xbd2e57ca	-0.04256419
213	0x3e0ea37a	0.13929549
214	0xbe87ce92	-0.26524788
215	0xbdd732fa	-0.1050777
216	0x3eb75537	0.358072
217	0xbeb9d810	-0.36297655
218	0x3e176c80	0.14787483
219	0xbc1775d0	-0.009244397
220	0xbe3341a1	-0.17505504
221	0xbe9e2040	-0.3088398
222	0x3ccb14cd	0.024790192
223	0x3de2a742	0.11067058
224	0xbdada35b	-0.08478423
225	0x3ce65f47	0.028121604
226	0x3e759922	0.23984197
227	0x3e24cb2e	0.16093132
228	0xbdaa1e5d	-0.083065726
229	0x3ea475e0	0.3212118
230	0x3e27683c	0.16348356
231	0x3b9566a6	0.004559356
232	0xbcfdf8e6	-0.031002473
233	0x3dd207e0	0.10255408
234	0x3e5e81a3	0.2172914
235	0xbeb39e3c	-0.3508166
236	0x3d5c23f8	0.05374524
237	0xbe8d9db9	-0.27659395
238	0xbe8228a9	-0.25421646
239	0x3d944a48	0.072407305
240	0xbe0409a1	-0.12894298
241	0x3e213992	0.15744618
242	0xbdaec8d8	-0.08534402
243	0xbe911d61	-0.28342727
244	0xbc681333	-0.014164734
245	0xbe5e4bd2	-0.2170861
246	0xbe3186c3	-0.17336564
247	0xbdd85207	-0.105625205
248	0x3d95eb2c	0.07320246
249	0xbdbe002e	-0.09277378
250	0xbe84342c	-0.25821054
251	0x3eedf78e	0.46477932
252	0xbdd75a74	-0.105152994
253	0xbe605e98	-0.21911085
254	0xbe900aa1	-0.2813311
255	0x3e1a07b1	0.15041997

critic.preprocess.model.model.2.bias f4 [64]
0	0x3dceb1d9	0.100925155
1	0xbd0ef9dd	-0.034906257
2	0xbeb6fa71	-0.35737947
3	0x3daea4c6	0.08527522
4	0x3d9ee20e	0.0775796
5	0xbeaf98f9	-0.34296396
6	0xbd20d037	-0.03926107
7	0xbef8daba	-0.48604375
8	0x3d9dd82a	0.07707246
9	0xbeea9ca6	-0.45822638
10	0x3dcdeb95	0.10054699
11	0x3dd984af	0.106210105
12	0x3dfcd24a	0.12344797
13	0xbeb4eaa1	-0.35335258
14	0xbde0e4f6	-0.10981171
15	0xbe281e6f	-0.1641786
16	0xbb475a94	-0.003041898
17	0xbcbbf607	-0.022944463
18	0x3d8cad83	0.06869032
19	0xbe4dc9fe	-0.20096585
20	0xbead6c0d	-0.338715
21	0xbda999a8	-0.08281261
22	0x3d6774b6	0.05650779
23	0xbe88c8f7	-0.26715824
24	0xbd7a163b	-0.061056357
25	0xbed499e8	-0.4152367
26	0x3e0a4471	0.13502671
27	0x3eb5e0db	0.35523114
28	0xbec070bb	-0.37586007
29	0x3e0782ba	0.13233462
30	0x3d58881f	0.05286419
31	0xbe1433ac	-0.14472836
32	0xbe999a94	-0.30000746
33	0x3e214a1c	0.15750927
34	0xbe982d8c	-0.2972225
35	0xbe876e2f	-0.2645125
36	0xbe793ab1	-0.24338795
37	0x3eee9f29	0.46605805
38	0x3edc22d8	0.42995334
39	0xbd7596e5	-0.059958357
40	0x3e339bcd	0.17539902
41	0x3efeca78	0.49763846
42	0xbd9579a1	-0.072985895
43	0xbdf16f46	-0.11788802
44	0xbabfbd14	-0.0014628493
45	0x3f02418c	0.50881267
46	0xbee67efe	-0.45018762
47	0x3d6f00fc	0.05835055
48	0x3d1a21f5	0.03763004
49	0x3e73d952	0.2381337
50	0x3de16aba	0.110066846
51	0x3e402c8d	0.18766995
52	0x3e9565fa	0.29179364
53	0xbf0798c8	-0.529675
54	0xbe201d63	-0.1563621
55	0xbdac38e4	-0.084092885
56	0x3ea9bb85	0.3315088
57	0xbca763d5	-0.020433346
58	0xbd645c88	-0.055752307
59	0x3b86fa2b	0.004119178
60	0x3cabc6d0	0.020968825
61	0xbe4696d9	-0.19393481
62	0xbdbc276b	-0.09187206
63	0xbe60dcf2	-0.21959284

critic.last.model.0.weight f4 [1, 64]
0	0x3e314377	0.17310892
1	0xbdb7b13e	-0.08969353
2	0xbe86aa90	-0.26302004
3	0x3e2a1399	0.16609038
4	0x3e868742	0.2627507
5	0xbe111f8f	-0.14172195
6	0xbe71f351	-0.23627974
7	0xbec46bc8	-0.3836348
8	0x3de804d9	0.113290496
9	0xbe31b7f2	-0.17355326
10	0x3e6aad4a	0.22917667
11	0x3e60af4e	0.21941873
12	0x3e03a733	0.1285675
13	0xbe708f32	-0.23492125
14	0xbdeb2056	-0.11480777
15	0xbe3a8803	-0.18215947
16	0xbd2025cf	-0.039098557
17	0xbe6bc8a5	-0.23025759
18	0x3e141e7b	0.14464752
19	0xbe29652b	-0.16542499
20	0xbef698a4	-0.4816333
21	0xbe3a7da3	-0.18211989
22	0x3dcb3e46	0.09923987
23	0xbec5818f	-0.38575408
24	0xbd9da0fd	-0.07696722
25	0xbe826080	-0.2546425
26	0xbe792e12	-0.2433398
27	0x3e0532a0	0.13007593
28	0xbe87ec29	-0.26547363
29	0x3e82c0d9	0.25537756
30	0x3dce6144	0.10077146
31	0xbe6dcee6	-0.23223457
32	0xbe3b1708	-0.18270504
33	0x3d341785	0.043967742
34	0xbe6fd193	-0.2341979
35	0xbe77912b	-0.24176471
36	0xbe407dab	-0.18797939
37	0x3ed30695	0.4121596
38	0x3e406141	0.187871
39	0xbd99b8db	-0.075059615
40	0x3e2dcee2	0.16973451
41	0x3f0cc683	0.54990405
42	0x3e51b631	0.20479657
43	0xbe283dab	-0.16429774
44	0xbe31fd28	-0.17381728
45	0x3ec21d6b	0.3791307
46	0xbef5ec24	-0.48031723
47	0x3e030475	0.12794669
48	0xbe64ca4a	-0.22342792
49	0x3e34d1d9	0.17658176
50	0x3dc4bf76	0.09606831
51	0x3e00e943	0.12588982
52	0x3e1726c4	0.14760882
53	0xbef17f3f	-0.47167394
54	0xbdf1eb25	-0.118124284
55	0xbe5743bf	-0.21021937
56	0x3d8d982f	0.06913792
57	0x3e913be2	0.28366
58	0xbe085f21	-0.13317539
59	0x3e3e692f	0.18594812
60	0xbe9b91b5	-0.30384603
61	0xbe8727ff	-0.26397702
62	0x3e06e59c	0.13173527
63	0xbd9cf8ac	-0.07664618

_actor_critic.actor.sigma_param f4 [6, 1]
0	0xc0098840	-2.148941
1	0xc009ea4e	-2.1549258
2	0xc0282369	-2.6271613
3	0xc01e41a4	-2.4727564
4	0xc01edd94	-2.482274
5	0xc035d5bc	-2.8411703

_actor_critic.actor.preprocess.model.model.0.weight f4 [64, 17]
0	0xbd974167	-0.073855214
1	0x3eef469e	0.46733564
2	0xbd4781e6	-0.048707865
3	0x3d7ac0b5	0.061218936
4	0x3e970152	0.29493195
5	0x3e1d925e	0.15387866
6	0x3d15beb9	0.03655884
7	0x3f326382	0.69683087
8	0x3d426804	0.04746248
9	0xbeea5dae	-0.45774597
10	0xbb99a560	-0.0046889037
11	0x3e736db9	0.23772325
12	0x3d340d54	0.043958023
13	0xbe25ad05	-0.16179283
14	0xbee937b9	-0.45550326
15	0xbe03bfef	-0.12866186
16	0xbe871432	-0.26382595
17	0xbdf6e225	-0.120548524
18	0xbeba4063	-0.36377248
19	0xbe1eaeba	-0.1549634
20	0x3ccbd591	0.02488211
21	0x3d3a1408	0.04542926
22	0xbeb9613e	-0.36207002
23	0xbe6ec13f	-0.23315905
24	0x3e039dec	0.12853211
25	0x3eca3b9d	0.39498606
26	0x3ee71630	0.45134115
27	0x3f33f0cd	0.7028931
28	0x3da84761	0.082167394
29	0xbdceb495	-0.10093037
30	0xbdad0f64	-0.08450201
31	0x3dae4c9d	0.085107066
32	0xbd3a9fc9	-0.04556254
33	0x3e0bb48e	0.13643095
34	0x3e089739	0.13338937
35	0xbf47f24f	-0.7810411
36	0x3df4c8a7	0.11952334
37	0xbe0b5981	-0.13608362
38	0x3ea4eb4b	0.32210764
39	0x3e73ea96	0.23819956
40	0xbe750daf	-0.23931001
41	0x3ed95d3a	0.4245394
42	0xbdcb2e75	-0.0992097
43	0xbf0a75ae	-0.54085815
44	0x3e9ed649	0.31022862
45	0xba2b3e96	-0.00065324584
46	0x3d670265	0.056398768
47	0x3d856126	0.0651267
48	0xbe3273a4	-0.17426926
49	0xbd8c08f5	-0.06837646
50	0xbc6d9eff	-0.01450324
51	0x3e6e68b5	0.2328213
52	0xbdd5e59a	-0.10444184
53	0xbd4e0f6c	-0.050307676
54	0xbe722770	-0.23647857
55	0xbe9d5d43	-0.30735216
56	0xbdf1fb4e	-0.11815511
57	0xbe58b263	-0.21161799
58	0xbe2c1b8d	-0.16807385
59	0xbe32efce	-0.1747429
60	0x3d461739	0.04836199
61	0xbe30c842	-0.17263892
62	0x3e8f92bd	0.2804164
63	0xbee2549f	-0.44205186
64	0xbe98ce0b	-0.29844698
65	0xbe9aa6aa	-0.3020528
66	0xbe25066c	-0.16115731
67	0xbe6a6009	-0.22888197
68	0xbee516b6	-0.4474389
69	0x3e7fcd32	0.2498062
70	0xbe767cf9	-0.24071111
71	0xbeae613e	-0.34058565
72	0xbed75010	-0.4205327
73	0xbf17789f	-0.5916843
74	0xbd1a9c18	-0.03774652
75	0xbe236a4a	-0.15958515
76	0x3ec04c5c	0.37558258
77	0xbe93cce2	-0.2886725
78	0xbd69cabd	-0.057078112
79	0x3e8165c9	0.25272968
80	0xbdfdb3dc	-0.12387821
81	0x3d2ff677	0.042959657
82	0x3d55eeda	0.05222974
83	0xbd730cb1	-0.059338275
84	0xbe33b141	-0.17548086
85	0x3cc62cf2	0.024191353
86	0x3f16cc03	0.5890505
87	0x3ee4fb53	0.44722995
88	0xbe110352	-0.14161423
89	0x3dc9e14c	0.09857425
90	0x3e36cf50	0.17852521
91	0xbd934e6b	-0.071926914
92	0xbe5bb463	-0.21455531
93	0xbad168a4	-0.001597662
94	0x3d8469c7	0.06465488
95	0x3d080ce5	0.033215422
96	0x3e8df5a3	0.27726468
97	0x3d81737a	0.063208535
98	0xbe063ab8	-0.13108337
99	0xbda35f09	-0.07977111
100	0x3edc2353	0.429957
101	0x3e9eeaed	0.3103861
102	0x3ed586e8	0.41704488
103	0xbeca6bcb	-0.39535365
104	0x3cfc5a45	0.030804763
105	0xbe77d8b8	-0.24203765
106	0x3e4faa14	0.20279723
107	0x3d1ec1f1	0.038759176
108	0x3e375655	0.17904027
109	0x3eb1bdae	0.34715027
110	0xbed514bc	-0.41617382
111	0x3ee6924d	0.45033494
112	0x3e168187	0.14697848
113	0x3ebef125	0.37293354
114	0x3e5e2002	0.21691898
115	0xbe961b8e	-0.29317898
116	0x3e06d190	0.13165879
117	0x3e81a317	0.2531974
118	0xbe08a63a	-0.1334466
119	0xbc49d2a9	-0.012318292
120	0x3eea15e2	0.4571982
121	0x3e50cc1e	0.20390365
122	0xbe1691a5	-0.14703996
123	0xbeacd211	-0.33754018
124	0x3e40a132	0.18811491
125	0x3d87ec03	0.066368125
126	0x3dea0401	0.11426545
127	0xbd8889e9	-0.06666929
128	0xbdf6cd17	-0.120508365
129	0x3e80e1f2	0.25172383
130	0x3e87afbd	0.26501265
131	0x3e0fb9a6	0.14035663
132	0x3e75d38d	0.24006481
133	0x3d0698aa	0.032860436
134	0x3e156f33	0.145932
135	0x3e54bdc1	0.2077551
136	0xbe3ba081	-0.18322946
137	0xbc2d59d8	-0.010580502
138	0x3eae727e	0.34071726
139	0xbd073103	-0.033005726
140	0xbf2d397a	-0.6766583
141	0xbbf50222	-0.007477061
142	0x3e4ad8bd	0.19809242
143	0xbf3df5fd	-0.74203473
144	0x3ce5d3b9	0.028055059
145	0xbee24edb	-0.44200787
146	0xbe98dc90	-0.29855776
147	0x3eb79336	0.358545
148	0xbd121e43	-0.03567339
149	0x3d9e5c4e	0.077324495
150	0x3d111ead	0.035429645
151	0xbe33a3ef	-0.17543004
152	0xbdb74348	-0.0894838
153	0xbf1b4b55	-0.6066182
154	0xbe31e7f8	-0.17373645
155	0x3d0ebb58	0.034846634
156	0xbe2b42eb	-0.16724746
157	0x3deb424f	0.11487257
158	0x3e61dd1b	0.22057001
159	0xbf072e3e	-0.52804935
160	0xbe52a80f	-0.20571922
161	0x3de8c907	0.11366468
162	0xbdd5ac84	-0.10433295
163	0x3cd6823d	0.02618515
164	0x3c98def1	0.018660994
165	0x3ad03386	0.0015884496
166	0x3d939e9e	0.07207988
167	0xbd3997df	-0.04531085
168	0x3e977de4	0.29588234
169	0xbe474288	-0.19458973
170	0xbdae291f	-0.08503937
171	0x3f114cbd	0.5675772
172	0x3dc449ac	0.09584364
173	0x3d9ece09	0.07754142
174	0xbd905343	-0.07047131
175	0x3de65b76	0.112479135
176	0x3c1ee06d	0.009697062
177	0xbdba274b	-0.09089526
178	0xbd511fc3	-0.05105568
179	0x3e89ade5	0.26890483
180	0x3ea4db32	0.32198483
181	0xbe25590d	-0.16147251
182	0xbdb749cf	-0.08949625
183	0xbf0e288b	-0.55530614
184	0x3e0d4a87	0.13797961
185	0x3d65d2eb	0.05610935
186	0xbdb93778	-0.09043783
187	0x3e498a1b	0.1968159
188	0x38b6eb1c	8.722229e-05
189	0x39e321af	0.0004332191
190	0xbcd13a4f	-0.025540499
191	0x3dbaf226	0.091282174
192	0xbe5387c8	-0.20657265
193	0xbe371354	-0.17878467
194	0x3d660764	0.056159392
195	0xbe93217b	-0.2873648
196	0xbd9bfafb	-0.0761623
197	0xbe35b833	-0.17746048
198	0xbcbe096d	-0.023197854
199	0xbeb4070f	-0.35161635
200	0x3efa0305	0.4883043
201	0x3da89b6a	0.08232768
202	0xbd6854fd	-0.056721676
203	0xbe89e416	-0.26931828
204	0xbe0697fe	-0.13143918
205	0xbea1fc84	-0.31637967
206	0x3ed0573d	0.40691558
207	0x3e88893d	0.26667204
208	0xbd904424	-0.07044247
209	0x3e6ed056	0.23321661
210	0x3de241f3	0.11047735
211	0xbe230083	-0.15918164
212	0xbed1e588	-0.4099543
213	0x3cd456c7	0.025920285
214	0x3e2d938e	0.16950819
215	0x3ed415ec	0.41422975
216	0x3d64ef3a	0.055892207
217	0x3e06b152	0.1315358
218	0xbe003a6f	-0.1252229
219	0xbd413004	-0.047164932
220	0x3e8af440	0.27139473
221	0xbe2e9af4	-0.17051297
222	0xbea29cfc	-0.31760395
223	0x3e14554a	0.1448566
224	0xbea00f2e	-0.3126158
225	0xbd578442	-0.052616365
226	0x3e1c006a	0.15234533
227	0xbe708c1f	-0.23490952
228	0xbd74877d	-0.059699524
229	0x3db77f44	0.08959821
230	0xbd484a07	-0.048898723
231	0x3ef28857	0.47369644
232	0xbe1e90d4	-0.15484935
233	0xbe308917	-0.17239796
234	0xbd3e6d5b	-0.04649101
235	0xbe43de73	-0.19127826
236	0xbd9282ea	-0.07153876
237	0xbe0ff518	-0.1405834
238	0xbe777f3e	-0.24169633
239	0xbed49bb6	-0.41525048
240	0x3e494683	0.19655804
241	0xbed87263	-0.4227477
242	0x3eab6cb6	0.33481377
243	0xbf053400	-0.5203247
244	0xbeb2ebe4	-0.34945595
245	0xbe6d71e1	-0.23187973
246	0x3e2d5f55	0.16930898
247	0xbe294d40	-0.16533375
248	0xbaf96f39	-0.0019030339
249	0x3cd5e81c	0.026111655
250	0xbe1842d4	-0.14869243
251	0xbe56629f	-0.20936058
252	0xbe0ee2b3	-0.13953666
253	0x3e0b826e	0.13623974
254	0x3e747751	0.2387364
255	0x3ec51307	0.3849108
