results/Ant-v3/ppo/5/220623-152204/policy.pth (torch, 103908 bytes, 24 tensors)

actor.sigma_param f4 [8, 1]
000000 f7 c4 5d c0 ba f2 55 c0 ef c5 4b c0 f4 95 63 c0
       -3.4651468 -3.3429399 -3.183956 -3.5560274
000010 8f b0 5c c0 ff c9 39 c0 34 64 51 c0 dc 32 57 c0
       -3.4482763 -2.9029539 -3.271741 -3.3624792

actor.preprocess.model.model.0.weight f4 [64, 111]
000000 8b 58 81 3a d6 f4 5a 3e 53 45 98 3e 8a a7 3b 3f
       0.0009868307 0.2138246 0.2974039 0.7330252
000010 33 c0 ad 3d 78 8b 68 bd 41 48 bb be c3 2e 3a 3e
       0.08483925 -0.056773633 -0.36578563 0.181819
000020 04 0a f1 3d 95 96 76 39 d8 a4 21 be 5a c0 9e be
       0.117694885 0.00023516484 -0.15785539 -0.31006128
000030 89 a1 53 be f4 3c fd 3c 2a 91 b3 bc f3 ed 00 3e
       -0.2066709 0.030912854 -0.021919806 0.1259077
000040 ce 30 0a bd 8d b0 b9 bc 04 b5 41 bd 3e b8 bd 3d
       -0.03373795 -0.022667194 -0.04729177 0.09263657
000050 ca 57 24 be e4 07 08 be 7b 64 f2 3c f0 4b 2b 3e
       -0.16049114 -0.1328426 0.029588928 0.16728187
000060 99 13 bc bc 9e 0f 65 3e 2e 7b c1 be 1b 46 26 bd
       -0.022958564 0.22369239 -0.3778929 -0.0405942
000070 15 c0 5b 3d fb c7 95 bd b0 8d 7a 3e a7 09 3d 3d
       0.05364998 -0.07313534 0.24468112 0.046151783
000080 e5 a9 3b 3e 2c e0 bd 3d af aa 2f bc bd 3d ea bd
       0.18326528 0.09271273 -0.0107218465 -0.11437557
000090 c2 64 f3 bd db f8 b4 3d e8 6a 2a bc 72 f7 24 3e
       -0.118844524 0.08836528 -0.010401465 0.16110018
0000a0 9a 5b 5b 3d ae 65 23 3e 79 61 52 3c d1 e5 50 3c
       0.053554155 0.15956756 0.012840622 0.012750105
0000b0 01 b1 01 be a6 bd cf bd 00 d0 fa bd 72 f1 0b 3e
       -0.12665178 -0.101435944 -0.12246704 0.13666323
0000c0 54 fd 02 be 5b b3 83 bc 97 d8 a7 bd a3 f4 2b 3e
       -0.1279195 -0.016076734 -0.08195608 0.1679254
0000d0 38 48 36 be 4c 63 f0 bc 19 03 82 be 78 5c 52 bd
       -0.17800987 -0.029344223 -0.25392988 -0.051357716
0000e0 2c b0 89 bd 39 2a 2a bd 6f 7b 1b 3d 61 a0 0c bd
       -0.06723055 -0.041544173 0.037959512 -0.034332637
0000f0 d0 31 8e 3d e4 5b 31 3e 01 68 46 3e 3a 74 99 3d
       0.06943095 0.1732021 0.19375612 0.074928716
000100 cd 8a 0c 3e 36 72 09 be 0f 4e f9 3d a5 ee 4e be
       0.13724823 -0.13422474 0.121730916 -0.20208223
000110 5b c6 dd 3c fc e8 17 3c be 1c 6b 3e 9f 4f 1d be
       0.027072122 0.009271856 0.22960183 -0.15362404
000120 95 2d 5e bd 83 0d b7 bd 44 4a 6a bd 7b 2a 38 3e
       -0.05424269 -0.08938124 -0.05719973 0.17984955
000130 b4 8d b1 bd 0e 3e 52 be df 7c cd 3d 8b 8d 91 bd
       -0.08669606 -0.20531484 0.10033583 -0.07107075
000140 d3 0e 07 3e 0c b9 18 3e 40 64 24 3e 08 4d b5 bc
       0.13189249 0.1491434 0.16053867 -0.022131458
000150 8b 88 91 3d 25 30 ba bd 6a 3e 4a be 61 bb cb 3d
       0.07106122 -0.09091214 -0.19750372 0.09947849
000160 51 ae af be 82 d8 1f be 09 c4 51 3d 99 2c b0 3d
       -0.3431268 -0.15609935 0.051212344 0.08602256
000170 f2 51 47 be ba 07 db be ee 83 31 3d d1 e0 bd bd
       -0.19464853 -0.42779332 0.04333871 -0.09271396
000180 64 9c cb bd c7 d6 cd bd 2b a0 30 be 5d 56 31 3e
       -0.099419385 -0.10050731 -0.17248599 0.17318101
000190 26 25 35 3e 61 3b c5 3d 6d 33 16 3d 9f e9 97 3e
       0.17689952 0.09630466 0.036670137 0.29670426
0001a0 32 6c 55 bb 6d c2 37 be 20 db b9 3d e7 da 9d 3e
       -0.003256571 -0.17945261 0.09074998 0.30831072
0001b0 0c 49 87 bd cf 71 55 3d b5 a6 1b 3d a7 17 c3 3e
       -0.066057295 0.05211049 0.03800078 0.38103983
0001c0 ce 81 73 3b 0b a0 92 3d 4d c3 e7 bd d2 ed 58 be
       0.0037156227 0.07159432 -0.113165475 -0.21184471
0001d0 79 6a d5 bd 19 a5 8d 3b 6d da 92 3e ee 2a 06 be
       -0.10420699 0.0043226597 0.2868227 -0.13102314
0001e0 28 32 56 be c6 fd c3 bd c9 b2 a7 bd 0b bc 57 bd
       -0.2091757 -0.09569888 -0.081883974 -0.052669566
0001f0 0e 63 56 3d 32 3d 83 3d b4 d1 46 be 53 9f 8d 3c
       0.05234056 0.064081565 -0.19415933 0.017287886
000200 f7 33 a4 bd 4b 5b 4a be 29 b7 09 3f 14 9d cc be
       -0.08017724 -0.19761388 0.53795105 -0.3996359
000210 26 48 38 3d f6 e0 cb 3e c7 df 2b 3d fb 7e bb be
       0.04499068 0.3982007 0.041961458 -0.36620316
000220 a3 23 a4 3d e2 69 dc 3e 0b 70 2d 3d 09 6e aa 3d
       0.0801461 0.43049532 0.04234318 0.08321769
000230 89 93 20 3d 7f 44 c7 3c 4f 8e 99 3e 43 7f 27 3d
       0.0392032 0.024324654 0.29991385 0.04089285
000240 04 3f 0a be ba bc b7 3c 38 6d 28 3e a0 f3 44 3d
       -0.13500601 0.022428859 0.16447914 0.0480839
000250 d6 4a f5 3c ba 2a cb bc db 7e 99 3d de 5a 15 3d
       0.029942911 -0.024800647 0.07494899 0.03646361
000260 5d fb de 3d 39 31 3b 3e 20 c3 ee 3d 4e c1 07 be
       0.108877875 0.18280496 0.11658311 -0.13257334
000270 c1 ae f5 3c 82 f8 6f 3e a9 a5 03 be 37 4b 2f 3d
       0.029990556 0.23434642 -0.12856163 0.04279634
000280 1a 7b 90 3b e1 03 81 bd 14 7c 85 bd 53 d5 21 3e
       0.004409206 -0.06299568 -0.06517807 0.15804033
000290 86 75 01 be 92 51 36 bd 44 54 1f be 3d 50 82 bc
       -0.12642488 -0.044511385 -0.15559489 -0.015907401
0002a0 ee 09 9b 3d 89 33 2e be f8 bf 0e be bf b8 49 be
       0.07570253 -0.17011847 -0.13940418 -0.19699381
0002b0 d7 6e 41 bc 78 23 89 3d 85 10 82 bd 3a 89 8d 3b
       -0.011806211 0.06696218 -0.06350807 0.004319337
0002c0 80 d4 c4 be 88 88 87 bd 72 95 6c bd 03 7c 1e bd
       -0.38443375 -0.06617838 -0.05775971 -0.038692486
0002d0 ba 8e 3e be 23 58 9d bd f7 d2 4c 3e 3d 0d e7 3c
       -0.18609133 -0.07682826 0.20002352 0.028204555
0002e0 34 b4 f6 bc 83 60 43 be 43 fb 2c bd 9c be 32 3e
       -0.030115224 -0.19079785 -0.04223181 0.17455524
0002f0 28 d8 62 3d b0 e1 ba 3c 64 36 16 3e ab 61 37 be
       0.055381924 0.022812694 0.14669186 -0.17908351
000300 fd 6f d0 3d 02 e4 9f bd b4 22 09 3e 47 42 80 3c
       0.1017761 -0.07807161 0.13392144 0.015656604
000310 82 25 93 bd fa be 6f be 3b 13 a8 be fa d2 43 3e
       -0.071848884 -0.23412696 -0.32827172 0.1912345
000320 b2 9b ce bb 37 20 6b bd 67 02 b2 3d fd 6a 12 3d
       -0.0063051814 -0.05740377 0.086918645 0.035746563
000330 fd 57 84 be 31 c3 fd bc d6 39 19 be 5d 52 d3 bc
       -0.2584838 -0.030976864 -0.14963469 -0.02579611
000340 e8 9a af 3c be 47 b6 3c 2b bb 8f bd ea 37 81 bd
       0.02143617 0.022251006 -0.07018121 -0.06309493
000350 22 a3 3d 3e f7 24 af bc ae c6 00 be 21 fd 4e bc
       0.18519261 -0.02137993 -0.1257579 -0.012633593
000360 6f 59 61 3d 31 5f 8b 3d 1d 16 c6 bd f8 c5 04 bc
       0.05501693 0.06805266 -0.096721865 -0.00810384
000370 09 bb ba 3e b5 b1 56 bd 35 e7 56 be 12 46 18 3e
       0.36470821 -0.05241557 -0.20986636 0.1487048
000380 2d 9e 32 3e 60 7c 13 bf ba 57 92 be d5 1e 0a 3c
       0.17443152 -0.57611656 -0.28582555 0.0084302025
000390 dc 3c 27 be 19 5e a0 3d 17 b7 8a be dd 30 87 3e
       -0.1633181 0.07830448 -0.2709281 0.26404467
0003a0 59 0f 46 be fc b5 47 be b3 58 8d be 56 09 c7 3d
       -0.19341792 -0.19503015 -0.27606735 0.097185776
0003b0 e7 2d 25 be 16 7a c1 3d 98 d4 da 3d 3a f0 ae 3e
       -0.16130792 0.09447114 0.1068508 0.34167653
0003c0 2c d8 f3 bd 66 ae cf bc d4 84 82 be 07 2e 3d be
       -0.11906466 -0.025351714 -0.25491965 -0.1847459
0003d0 03 e2 cf bd 4f 98 94 3d 37 14 6f 3e 0b d4 38 be
       -0.1015053 0.07255613 0.23347555 -0.18049638
0003e0 ed a4 fd 3c 97 62 a3 3c 4f d7 3e be 9e e6 d5 bd
       0.030962432 0.019944472 -0.18636821 -0.10444377
0003f0 e5 e4 7f 3c ef b7 78 3d b0 c1 b7 bc 1e e2 96 3c
       0.015618538 0.060722288 -0.022431225 0.018418368

actor.preprocess.model.model.0.bias f4 [64]
000000 d3 89 25 bd 43 a8 52 bd 0f 3b 6c bd 82 43 4a bc
       -0.040414643 -0.051429998 -0.05767351 -0.012345197
000010 2c cd 44 3d fe a1 f3 3b d9 64 9f be 94 39 14 3c
       0.04804723 0.0074350825 -0.31131628 0.009046931
000020 af 5e 66 bd 74 0e a2 3e 35 55 03 3e 8d b4 e6 3c
       -0.05624264 0.31651652 0.12825473 0.028162265
000030 37 7e 02 be 5c 37 8f bd d8 e7 02 be 0a 3f a0 3c
       -0.1274346 -0.06992981 -0.12783754 0.01956131
000040 9a 38 41 3e ab 07 da bd 8d fe 4a bd c7 2d 87 b9
       0.18869248 -0.10645994 -0.049559165 -0.00025783313
000050 5b 20 43 3e b4 13 b9 3d d4 f6 84 bd a2 89 c5 3b
       0.19055311 0.09036961 -0.06492391 0.00602837
000060 a2 86 df bd ac 8d 9d 3c eb 8f 9e bd 55 41 05 be
       -0.10914351 0.019232593 -0.07742294 -0.13013203
000070 50 dc a5 3d 32 7a 85 3d d4 dc 8e bd 42 8b f0 3d
       0.08098662 0.065174475 -0.06975713 0.11745311
000080 16 a2 a2 bd ea 88 04 3d 7b 96 59 3c 4b f0 e8 bc
       -0.07941072 0.032357134 0.013280506 -0.028434893
000090 fa 43 32 3e 12 a3 64 bd ab 94 ef 3d 0b aa a7 bb
       0.17408744 -0.05581958 0.11698278 -0.0051167062
0000a0 4d a7 1b be 0f 9a 0b be ac 9f 12 3e 6e d9 82 3e
       -0.15200539 -0.13632987 0.14318722 0.2555651
0000b0 3b e1 4a bd e9 0e 09 3d cf 67 ed 3d 32 35 2e bd
       -0.049531203 0.033461485 0.115920655 -0.0425312
0000c0 65 b8 7f 3d cb db 54 3c f1 56 8d 3e f2 f0 00 3d
       0.06243171 0.012991856 0.27605394 0.031479783
0000d0 ac 1b 10 3e 8a 31 43 3e 26 6d 55 bd b7 90 23 3c
       0.14073056 0.19061866 -0.052106045 0.009983233
0000e0 6d 52 a5 bd 58 26 82 3e 08 30 a4 bd 75 a7 41 be
       -0.08072362 0.2541988 -0.08016974 -0.18911536
0000f0 38 76 eb bc c9 f2 8d 3d eb 08 53 bd 26 68 a2 3d
       -0.028742895 0.06931073 -0.051522177 0.07930021

actor.preprocess.model.model.2.weight f4 [64, 64]
000000 fd 41 b3 3e be 69 92 bd 1e 65 c5 3e f6 ad c7 be
       0.35011283 -0.07149075 0.3855371 -0.3899991
000010 2b f2 83 be 63 ad bd 3e a2 12 ba 3e fe 11 09 3e
       -0.25770697 0.37046346 0.3634234 0.1338577
000020 08 6c 9c bd d9 3f 06 bd a4 69 39 3e f5 2b d2 3c
       -0.07637793 -0.032775734 0.18106705 0.025655726
000030 9f a1 92 3e 6b 4e 8e 3e 8f dc e8 3d 38 22 f8 3d
       0.28638932 0.27794203 0.11370193 0.12115902
000040 ee cb c2 3e d9 98 ca be 46 02 a6 be aa 77 cb bd
       0.3804621 -0.39569739 -0.3242361 -0.099349335
000050 d0 31 86 3e 18 e8 7a bd 3b 2c 5c bd 2d 98 84 be
       0.2620988 -0.061256498 -0.05375312 -0.2589735
000060 80 1f 36 3e 85 c9 c0 3c fa 7f 28 3e 27 e7 19 bd
       0.17785454 0.023533592 0.16455069 -0.03757396
000070 c7 dc 88 bc bc 4b dc 3e 0f e9 38 be a5 5d 45 3e
       -0.016706837 0.4302653 -0.18057655 0.19274004
000080 6a 87 5d 3e d6 46 8c be 25 40 21 bc bb e0 77 3d
       0.21633688 -0.27397794 -0.009841953 0.060517054
000090 f7 5e 16 be 09 ab 9b 3d 36 90 77 be 7e 88 84 be
       -0.14684664 0.07600982 -0.24176106 -0.25885385
0000a0 3c 23 0b be 89 9e 15 3e f6 8f 34 bc a9 fa 05 3e
       -0.1358766 0.14611258 -0.011020651 0.130839
0000b0 49 18 0d be a4 56 53 bd 63 34 2c bd db a4 bf bd
       -0.13778795 -0.0515963 -0.042042147 -0.093576156
0000c0 c7 97 36 bd 3f b6 03 be 80 09 da be 03 5b 04 bd
       -0.04457834 -0.1286249 -0.42585373 -0.032313358
0000d0 41 f1 d5 3c 17 be 99 be 29 34 d9 bb 7a 32 62 3e
       0.026116015 -0.3002784 -0.0066285324 0.22089568
0000e0 20 6b 95 3e db 96 7e 3d 6c fa 48 3e c1 ad c9 3e
       0.29183292 0.062155586 0.19626778 0.39390376
0000f0 a6 ad 3c be ff 09 eb be 9c b3 f2 be 74 26 88 be
       -0.18425617 -0.45906064 -0.47402656 -0.26591837
000100 1f 7c 03 be 6b 10 6c be 7c e0 80 3d 90 a6 17 3f
       -0.12840317 -0.23053138 0.06292817 0.5923853
000110 4e c6 c0 bd 58 8a e8 bc 27 64 4e be b1 b5 16 3d
       -0.094128236 -0.02838628 -0.20155393 0.03679437
000120 9d 2e 02 bc 2b e3 9c 3d 1b 05 cb be 4c 15 ff bd
       -0.007945684 0.07660516 -0.39652333 -0.12455234
000130 23 55 3c 3e be ee 43 be 45 83 d5 3d 1b f6 f2 3d
       0.18391852 -0.19134042 0.10425428 0.11863347
000140 b9 f7 4c be 95 88 f7 bd 25 2c 8f be 94 bf a8 3d
       -0.20016374 -0.12086598 -0.27963367 0.08239666
000150 51 50 7e 3c 65 7b ae 3e b7 e4 2a 3c b4 86 1b be
       0.015522079 0.34078518 0.010430506 -0.15188104
000160 aa 81 b1 be a1 89 a0 bd 2b 95 70 3d 04 f4 fb bd
       -0.34669238 -0.07838751 0.058736008 -0.12302402
000170 97 06 59 3d 4b 01 6a be 90 89 61 bc f2 da be be
       0.0529848 -0.22852056 -0.013765708 -0.37276417
000180 bb 4c 60 be 96 d0 2c 3e 3b 5c e5 be 9e de ec be
       -0.2190427 0.16876444 -0.4479693 -0.46263593
000190 89 5e 0e 3e 7b a2 6a bd d8 2a 06 3f d0 5d 96 3d
       0.1390325 -0.05728386 0.52409124 0.07342112
0001a0 1b c1 f3 bc e8 28 45 3e 7b 53 a6 be cc 53 55 3d
       -0.029755166 0.19253886 -0.32485566 0.052081868
0001b0 87 24 11 be c8 0f 91 be 6b 6a 33 3d 2b 9c 7e 3e
       -0.1417409 -0.28332353 0.04380266 0.24864261
0001c0 cd ba 2d 3e 59 ff 90 3b 5b ed eb 3e 04 5e 79 be
       0.1696579 0.004424971 0.46079525 -0.2435227
0001d0 45 83 4d 3d e5 f6 46 be d1 3b b8 be bb 5a 13 be
       0.050174017 -0.1943012 -0.35983136 -0.1439008
0001e0 7e ce c8 3d dd 3a 98 be e5 d0 57 bd a7 d1 4b 3d
       0.0980501 -0.2973241 -0.05268945 0.049760487
0001f0 11 45 43 be ff c1 b1 3e fe 50 63 be 8e 99 28 3e
       -0.19069315 0.3471832 -0.22198865 0.16464826
000200 a7 82 14 3e ad ab e3 3b a4 d1 ec bd ee 2b fa 3d
       0.14502965 0.0069479556 -0.11563423 0.1221541
000210 54 84 77 bd da 14 b2 3e 27 7f b1 bc 63 a6 5f 3c
       -0.060428932 0.34781533 -0.021667076 0.0136505095
000220 1f 61 9f be 78 c0 85 be a2 ba 3b be 21 16 19 3e
       -0.31128785 -0.26123405 -0.18332914 0.14949848
000230 96 00 1d 3f 67 bc 21 3e e3 c8 c3 be b3 fe 31 3e
       0.6132902 0.15794526 -0.38239202 0.17382316
000240 18 e0 41 3e c3 b9 4f be b2 06 2e be 92 0d 02 3f
       0.18933141 -0.20285706 -0.16994742 0.50801957
000250 3e 7b ec be f9 f4 ba bd cf 3e 75 3e 2d 9e b8 3d
       -0.46187776 -0.09128756 0.23949741 0.09014545
000260 ce bc 0b 3d 25 3c a3 be 78 31 12 be 80 b5 9c 3e
       0.034115605 -0.31881824 -0.14276683 0.30607224
000270 cd 09 b6 be 8d d8 b5 bd 40 e2 dc 3d 97 dc df 3d
       -0.35554352 -0.088791944 0.10785341 0.10930746
000280 21 f8 be be 23 ca 8d bd 10 58 49 3e 18 ac 8e 3e
       -0.37298682 -0.0692332 0.196625 0.27865672
000290 b2 5a 14 bd 1d b7 23 be fe 5e 53 be 6e 67 10 be
       -0.036219306 -0.15987821 -0.20641705 -0.14101955
0002a0 86 b9 5b 3e 21 3b 57 be ec 45 29 3e 7c b0 e6 bd
       0.2145749 -0.2101865 0.1653058 -0.112641305
0002b0 7e 43 01 3e 25 de eb bb df 7b 16 3d a6 79 3e 3e
       0.12623402 -0.0071981126 0.036739226 0.18601093
0002c0 47 9e 27 be e8 be a4 3e 81 d2 d0 3d e7 50 b1 be
       -0.16368972 0.321769 0.101964004 -0.34632036
0002d0 bd 7e 27 3d 0f 9b 3a 3d e2 46 cb bd 51 1f c9 3e
       0.04089235 0.04555803 -0.09925629 0.39281705
0002e0 8f cf b3 3e 69 74 ba 3e d6 42 82 3e c3 08 6f be
       0.35119292 0.3641694 0.25441617 -0.23343186
0002f0 a6 c8 91 3e a4 a8 83 3d af bc 07 3e c4 57 39 be
       0.28473395 0.0642865 0.13255571 -0.18099886
000300 40 f2 29 bd 8a 5c 0d 3f 94 d6 d4 3c fe e0 7c 3e
       -0.041490793 0.5521933 0.025981225 0.24695203
000310 bf 34 08 be a7 da aa 3c 71 49 5e bd fe ca 01 3e
       -0.13301371 0.020856215 -0.054269258 0.12675092
000320 ad f1 18 bd 2f 4c 1e bd cf 5a 3c bc ca e5 db 3d
       -0.037339855 -0.038646873 -0.01149626 0.10737188
000330 e5 f3 a4 bd 55 48 82 3e 9e 83 f1 3d 39 f9 69 be
       -0.08054332 0.2544581 0.11792682 -0.22848977
000340 0c 4f ab 3d 98 58 0a bd 70 7c a1 be 9d b7 a4 bc
       0.08364686 -0.033775896 -0.3154025 -0.020107085
000350 c3 1d 44 be 65 01 c6 bd 4f bb 1c 3e 0b 20 c6 be
       -0.19151978 -0.09668235 0.15305828 -0.38696322
000360 21 03 9e 3d 4e 58 c3 3e 26 ec 36 be 53 a0 2e be
       0.077154405 0.3815331 -0.17863521 -0.17053346
000370 60 93 03 3e 6a 4c 6c 3e 50 19 c7 be ee 6b 49 be
       0.12849188 0.23076025 -0.388865 -0.19670078
000380 39 b8 6f be 84 bc 1b 3e 21 64 67 be 08 17 bb be
       -0.23410119 0.15208632 -0.2259679 -0.3654101
000390 e4 df c7 3e e8 a2 04 be cb 1a 95 3d 62 19 60 3e
       0.39038002 -0.12952769 0.07280501 0.21884683
0003a0 c8 2f d3 3e e9 99 9a be 5d a2 f8 3d 86 1d d3 bd
       0.41247392 -0.3019555 0.12140343 -0.103083655
0003b0 51 9b 67 bc b3 10 dc be f5 d3 52 3e 23 d6 1c bf
       -0.014136151 -0.4298149 0.20588668 -0.61264247
0003c0 ae b2 1d be ac ad 64 3e 5f 2f 64 be 18 49 35 3e
       -0.15400192 0.22331876 -0.22283696 0.17703664
0003d0 d7 81 e0 bb 0f dd 01 bf 5a 19 6d 3d 22 06 ce 3e
       -0.0068514156 -0.50727934 0.057885505 0.40239054
0003e0 c5 9e 53 3d ab 1c 02 bc 12 04 4c 3e 1a 08 eb bd
       0.051665086 -0.007941405 0.19923428 -0.114761546
0003f0 b5 6f d2 bd e9 0e a9 3e d3 4f 84 be 9b be 50 bd
       -0.10275213 0.33019188 -0.2584215 -0.050963026

actor.preprocess.model.model.2.bias f4 [64]
000000 68 d4 04 3d 44 97 6c bc 07 b5 14 bd b4 08 29 3d
       0.03242913 -0.014440361 -0.036305454 0.041268066
000010 18 78 ba bd d6 a1 e3 3c 7e d3 88 bd 7c f2 f9 3d
       -0.09104937 0.02778713 -0.06680964 0.12204453
000020 46 90 46 bd bb 3e 05 be 09 70 41 be 19 4f f8 39
       -0.048477434 -0.13012211 -0.18890394 0.00047361178
000030 db 19 56 3c 9a 7e fe bb 4b 3f 1f 3e 55 35 8d 3a
       0.013067688 -0.007766557 0.15551488 0.001077334
000040 db 56 11 be c2 58 e8 bd 93 88 99 3e fc 6b 21 be
       -0.14193289 -0.11345054 0.2998701 -0.15763849
000050 ac 67 7e 3d e5 1d 08 bd 91 f1 a2 3b e8 ad 8f bd
       0.062110588 -0.033231635 0.0049726446 -0.07015592
000060 13 f4 1a 3e 14 e1 47 bc b3 c2 7a be 0d 5a 56 3e
       0.1513217 -0.012199659 -0.24488334 0.20932789
000070 2a f1 6d bd 47 52 7c 3d 0e 67 07 3e 85 21 f0 3d
       -0.05809132 0.061601903 0.13222906 0.11725143
000080 c9 b3 7c 3e cb bb 95 bd 64 a1 82 bc 28 bd f2 3b
       0.24677958 -0.07311209 -0.015946098 0.007407803
000090 98 6d d2 bd 5f a3 88 3d 1c fc e2 bc c6 96 04 3e
       -0.102748096 0.066717856 -0.027708106 0.1294814
0000a0 07 ca 0f bc 74 12 51 3d 7e 17 bb 3d fd c4 77 bd
       -0.008776194 0.05104299 0.0913534 -0.060490597
0000b0 f8 34 e4 bd 50 c5 61 3d 42 53 c6 3c 74 c8 aa bb
       -0.111429155 0.055119812 0.024209622 -0.005211884
0000c0 d7 af 99 3b 18 31 32 be e2 bb 70 bc 8b 6e 91 3d
       0.004690151 -0.1740154 -0.014693232 0.071011625
0000d0 9d 18 e5 bc 94 40 e6 3d 80 85 f9 3d 39 e1 f1 3d
       -0.027965838 0.11242786 0.12183666 0.11810536
0000e0 aa 21 32 bd 8f 8e 2c 3e 29 1d 58 3d 16 81 f4 3c
       -0.043489136 0.16851257 0.052762184 0.02984671
0000f0 e3 c8 d3 bd ae 70 19 be 72 0b cc bc ff 51 24 be
       -0.103410505 -0.1498439 -0.024907801 -0.16046904

actor.mu.model.0.weight f4 [8, 64]
000000 69 5f d1 bb a3 fe ca 3c 57 31 b9 ba 0c 70 23 3d
       -0.0063895476 0.024779623 -0.0014129084 0.039901778
000010 46 2a 03 ba cc d3 a1 3d da 40 a3 3d 56 68 d3 bd
       -0.00050035527 0.07901725 0.07971354 -0.10322635
000020 57 16 b5 3d 8b 10 9c 3d 0a 0d e4 bd 24 0e 8e 3d
       0.088421516 0.07620343 -0.111352995 0.06936291
000030 52 08 09 bc 0f 68 92 3c ba 13 c4 bd 9e 45 91 bd
       -0.0083638 0.017871885 -0.09574075 -0.070933565
000040 b7 dc 27 3d 2e 34 d4 3d 48 c3 60 3d 35 c5 21 3c
       0.040981974 0.10361515 0.054873735 0.009873678
000050 a2 b2 09 3d eb 97 89 bd fb 07 82 3c cb bf 11 3e
       0.033617623 -0.06718429 0.015872946 0.1423332
000060 a4 6c 5a 3d 5a 54 5c 3c f1 da 1f bd 32 04 ab ba
       0.053326264 0.013447845 -0.03902716 -0.0013047515
000070 9a d5 b8 3d 14 fb e1 3d 55 82 40 3d dd 48 84 bd
       0.09025116 0.110342175 0.046999294 -0.0645921
000080 95 a3 57 3d 10 8d 7f 3c 24 ee 59 3d de 20 48 bd
       0.05264624 0.015597597 0.053205624 -0.04885947
000090 53 fe 7b 3d 0d 6c ad bc 12 ad d7 bd 46 50 f7 bc
       0.06152184 -0.021169687 -0.105310574 -0.030189645
0000a0 f1 41 c8 b9 cb 18 8f 3c 65 2a 9b 3c 68 37 29 3d
       -0.00038196103 0.017467877 0.018941114 0.041312605
0000b0 bf 3c 9a bc 0c be 17 3d 78 ba d3 bb 93 0a 8e bd
       -0.018827794 0.037046477 -0.006461438 -0.069356106
0000c0 7c 6f ac bb 05 bf dd 3d 7b 93 c1 bc 00 31 0d bc
       -0.0052623134 0.1082745 -0.023629894 -0.00861764
0000d0 1b 1c 15 3d 7b 10 89 bc 32 fa 96 3d 5c 23 97 bd
       0.036403757 -0.016731491 0.0737194 -0.07379791
0000e0 2f 24 28 3c 4e b4 25 3d 98 9b c0 3d 5d 9a 07 bd
       0.010262533 0.040455155 0.09404677 -0.033106197
0000f0 2c 7e a5 3d 07 89 c7 bb f7 2e 10 3e ac 65 96 3d
       0.08080706 -0.006089333 0.14080416 0.07343611
000100 10 3f fa bc cf 0a 27 3d 1d 60 c7 3d ac bc d7 3d
       -0.030547649 0.040781792 0.09735129 0.10534033
000110 27 49 2c bd ea c3 b6 3d 68 0a 63 bd e0 4e 8e bd
       -0.04206195 0.089240864 -0.055429846 -0.06948638
000120 94 ad 1a be f6 e3 b9 bd 12 58 23 3e 71 f8 ce ba
       -0.15105277 -0.09076683 0.15951565 -0.0015790594
000130 8b eb 5b bd f9 95 a5 bc 18 3e c5 3c de 18 76 3d
       -0.05369143 -0.020213114 0.02407746 0.06008231
000140 e7 b2 03 3d b8 d0 55 bc 2b 7a 4e bd 58 b0 76 bd
       0.032153036 -0.013050251 -0.050409477 -0.06022677
000150 af fb 00 be 39 92 b9 bc 8d 17 a1 3d 7e bd 74 3d
       -0.1259601 -0.022652732 0.0786582 0.059751026
000160 7a ad 06 3d e7 9d 59 3d 05 ce 09 3d 04 13 2e bd
       0.032880284 0.053129103 0.03364374 -0.042498603
000170 7b ff 6b bd 63 5d b9 bc 66 80 2b bd 53 6f 8a bd
       -0.057616692 -0.022627538 -0.041870497 -0.06759515
000180 4a e9 9a 3d 54 a4 17 bd 75 d1 ed bc c5 5e 1c bc
       0.075640276 -0.03702195 -0.029030541 -0.009544079
000190 57 fa cc bd ea b9 59 3d ef 1a a3 3d 29 86 2b 3d
       -0.10008686 0.053155817 0.079641216 0.041875992
0001a0 53 c7 c6 3d 8b d8 e5 3c e9 52 3f 3d b8 7a 40 3b
       0.09705987 0.028057357 0.04670993 0.002937002
0001b0 98 ea 8c 3d 91 d0 69 bc c4 37 b4 3d 11 11 ec 3d
       0.06880683 -0.0142709175 0.08799699 0.11526693
0001c0 9c fb d9 bd 8d 6e c2 3d 90 27 2e 3d de eb f9 bc
       -0.10643694 0.09493742 0.0425182 -0.030507978
0001d0 9f fe 49 3d b4 c5 ba 3c 3c 45 b7 bd 76 36 1e 3e
       0.04931509 0.02279935 -0.08948752 0.15450463
0001e0 1e c1 43 3d df 48 e4 3c 63 3b 83 bd 08 01 87 3c
       0.047791593 0.027866779 -0.064078115 0.016479984
0001f0 31 30 31 bd 38 92 e2 3c d2 a3 e0 bc a4 78 c3 bd
       -0.04325885 0.027657613 -0.027421866 -0.09544495
000200 5c 91 2a 3e 65 fe 04 be cd f7 de bd 9b b7 ba bd
       0.16657013 -0.12987669 -0.10887108 -0.09117051
000210 f6 79 dc bc ed 7a a2 3d 3b 18 f0 3d ee 79 f5 bc
       -0.026913624 0.079336025 0.117233716 -0.029965367
000220 78 a6 01 3d 4f e7 e8 bd aa 26 13 bd 94 8c 0f bb
       0.031652898 -0.113722436 -0.035925545 -0.002190386
000230 b6 20 29 be 3b 03 9a bd 90 f0 16 3c c8 1a c8 3d
       -0.16516384 -0.075201474 0.009212628 0.09770733
000240 43 99 57 3d 1c 75 58 3b c5 d4 ad bd 8f ea 23 bc
       0.052636396 0.0033028787 -0.08487848 -0.010004654
000250 7d 26 e7 bd a3 35 d7 3c 15 c2 52 3c c9 d9 8d 3d
       -0.11286638 0.026270693 0.012863656 0.06926305
000260 5c 8b a0 bd 5b 78 f9 3d 81 11 8a 3d 9b fb b8 3c
       -0.07839081 0.12181159 0.0674162 0.022580912
000270 3a bf 06 bd 92 21 e7 3c 70 b2 0e 3e ed 20 e7 3c
       -0.03289721 0.02821425 0.13935256 0.028213942
000280 cb 19 92 bc 0c 95 63 3e 29 1e 3a 3d f8 18 c8 3d
       -0.017834565 0.22224826 0.04543892 0.097703874
000290 c1 60 70 3d 5a 68 54 bd 3b 60 d8 3d 7f ab 00 bd
       0.05868602 -0.05185733 0.105652295 -0.03141355
0002a0 90 38 8e 3b de 4f 85 3d f4 c8 97 bc 24 76 8f bd
       0.004340239 0.06509374 -0.01852844 -0.070049554
0002b0 e6 c6 af 3c 6a 3b b2 3c a5 03 da bd af f2 54 bd
       0.021457147 0.021756846 -0.106452264 -0.051989254
0002c0 1f 08 b8 bb ed 0e 9d bd 08 ea 90 bb e1 e5 a5 3d
       -0.0056162025 -0.076688625 -0.00442243 0.081004865
0002d0 a2 2a b2 bd 3d 6a 34 bd 93 4e 81 bd a7 84 41 3d
       -0.08699538 -0.04404663 -0.06313815 0.047245648
0002e0 37 82 81 bd 01 a2 cb bd 18 09 bb bd 2a 55 3f 3d
       -0.06323665 -0.09943009 -0.09132594 0.04671208
0002f0 cc f7 f6 3d e5 54 a7 3c 6e 2e 75 bd fc 9b 1c bd
       0.12058982 0.020426223 -0.059858732 -0.038234696
000300 a2 44 29 3e a8 d5 c0 bc ae 88 a4 3c a1 7d 45 3d
       0.16530088 -0.02353938 0.020084705 0.048215512
000310 90 16 73 bc 52 b6 8a 3d 54 20 99 3d eb 26 fe 3d
       -0.014836922 0.06773056 0.07476869 0.12409767
000320 74 55 39 3d ee 1a b0 bd 3f 7d 0b bc 6e f9 9b bd
       0.04524751 -0.085988864 -0.008513748 -0.07615934
000330 f4 1b 95 3d bd b9 8c bc b3 d9 18 3d 17 69 bc 3c
       0.07280722 -0.01717841 0.03731699 0.02299933
000340 6b db 5a bd 73 58 34 3d 38 0a 1d 3c bc 9e fb 3c
       -0.05343191 0.044029664 0.009584956 0.030715339
000350 61 db c8 3d 3c 06 06 3c 41 f9 13 bd 74 fb 97 bc
       0.09807468 0.008180197 -0.03612638 -0.01855252
000360 49 aa 86 bc 49 1b 8a 3d e4 00 65 bd d8 db f9 3c
       -0.01643862 0.067434855 -0.055909052 0.030500337
000370 4b 7c 4c bd 95 cf 8b bd 1c 97 05 3c 4e 9f ef bc
       -0.049923223 -0.068267025 0.008153703 -0.029250767
000380 d5 41 30 bd 60 47 b2 3d a6 f9 dc bc ea 02 d9 bd
       -0.043031532 0.0870502 -0.02697451 -0.10596259
000390 92 0e 8c 3d 5b 39 35 3e 79 40 26 be 3d 64 86 3d
       0.068387166 0.1769766 -0.16235532 0.06562088
0003a0 69 58 f5 bb dc 5a 8a 3c 2c 1b 7f 3a bb cf 2e 3e
       -0.007487346 0.016889028 0.0009731527 0.1707143
0003b0 25 77 b0 3b a3 58 5b bc c1 13 61 3d 52 7b f5 bb
       0.005385297 -0.013387832 0.05495048 -0.0074915076
0003c0 24 76 ae bd bf 56 0e bd 94 2a 16 3e d5 5d 05 bd
       -0.08518627 -0.034750696 0.1466468 -0.03256019
0003d0 8c b1 a6 bd 6e 33 ac bc c0 8c 4b bd e8 0d da bd
       -0.08139333 -0.021020617 -0.049694777 -0.10647184
0003e0 63 71 2e 3c d6 3e 12 be ae 30 01 be d0 bc 63 3c
       0.010647151 -0.14281783 -0.12616226 0.013899997
0003f0 1c e0 05 bd 2b 3a 1e bd 0a 5e d5 3c d8 39 64 b9
       -0.03268443 -0.038629692 0.026045818 -0.00021765323

actor.mu.model.0.bias f4 [8]
000000 c2 73 68 bd 41 20 20 3d 7c c2 ab bd ab 65 8b bc
       -0.05675102 0.03909326 -0.08386704 -0.017016253
000010 04 4c 22 3a ed 1d 15 3e d6 cc d1 3d 56 d6 f4 3d
       0.0006191137 0.14562197 0.102441475 0.11954944

critic.preprocess.model.model.0.weight f4 [64, 111]
000000 f9 58 81 be c3 67 ba be dd 5c 7a 3f d9 4d a4 be
       -0.25263193 -0.3640729 0.9779795 -0.32090643
000010 c6 84 85 bb 83 8c c6 3c a4 37 1f 3e 6b 3f 26 be
       -0.0040746657 0.024236923 0.15548569 -0.1623513
000020 3e 4e ad 3d 0b 09 1e be 83 42 28 be a5 26 b2 3e
       0.08462189 -0.15433137 -0.16431622 0.34795108
000030 f8 50 b1 3d 7d 76 c9 ba f2 ed 3a bd ce 99 66 3e
       0.08658022 -0.0015370395 -0.04563708 0.2251961
000040 a4 83 aa 3e a7 97 31 be 79 95 8f be a2 62 81 bd
       0.3330356 -0.17343007 -0.28043726 -0.06317641
000050 52 f4 fa 3c a1 37 60 be 48 66 99 3b f9 2e b5 bd
       0.03063408 -0.2189622 0.0046813823 -0.0884685
000060 11 67 8b 3c ad ed b6 bc 1e 83 ab 3d 7e 44 ac bd
       0.01701692 -0.02233013 0.08374618 -0.08411501
000070 32 86 13 bd 28 b9 11 3e 8c d9 87 bd a0 11 40 3c
       -0.03601665 0.14230788 -0.06633291 0.011722952
000080 98 96 55 be 09 53 76 bd 92 d6 8a 3d f3 46 0c bc
       -0.20858228 -0.060137782 0.06779207 -0.0085618375
000090 de 4b ff 3c 1b 19 86 3c af 9f 23 3d e5 56 81 3e
       0.031164106 0.016369393 0.039947208 0.25261608
0000a0 b3 4c 72 bd 94 33 dc 3d 7e ec 96 bd 1f 7f fa bd
       -0.059155177 0.10752025 -0.07369326 -0.12231278
0000b0 d3 3d 43 be db 45 67 be 8f 10 1a 3b 17 09 10 be
       -0.19066553 -0.22585241 0.0023508405 -0.14065968
0000c0 c5 4c 16 3e aa 9b 01 3e 93 18 88 3c 21 bc b6 3b
       0.14677723 0.12657037 0.01661328 0.005576626
0000d0 f5 3b 13 3d 0c de 71 bc b4 3a 7f 3b c5 93 16 3c
       0.03594585 -0.014762413 0.0038944902 0.009190504
0000e0 8a 77 30 be ed 22 e6 bb aa f4 4a 3d b7 55 1d 3d
       -0.172331 -0.0070232064 0.049549736 0.038411822
0000f0 ea bb 17 3d 48 f8 c5 bd de cd d8 3d 58 b9 9b be
       0.037044443 -0.096664965 0.10586141 -0.30414844
000100 50 ec f3 bd 68 ba fa 3d 64 bc d6 3d 31 d3 8b bd
       -0.119103074 0.122425854 0.104851514 -0.06827391
000110 63 66 cc 3d 8c 74 05 be 10 b1 fd bc 0a 7f 8d be
       0.09980466 -0.1303274 -0.030968219 -0.27635986
000120 56 d2 20 be 87 32 14 3e 55 7c 08 3e 92 ca b5 bd
       -0.15705237 0.144724 0.13328679 -0.08876528
000130 8e b3 06 3e 78 d9 0a be ef 73 42 3e 93 ea a8 3d
       0.13154432 -0.1355952 0.18989538 0.082478665
000140 97 87 cd 3b 44 4f e9 bd 38 04 15 be 76 25 38 be
       0.006272267 -0.11392072 -0.1455239 -0.1798304
000150 ef a1 8b 3e 3d 67 2c bd a0 70 7b bd f6 0a 50 be
       0.27271983 -0.042090643 -0.061386704 -0.20316681
000160 e3 f8 2d be 6e de a7 bd 68 58 5e 3e f7 0e e0 3d
       -0.16989474 -0.08196722 0.21713412 0.10940354
000170 5d 2f f1 3d 75 9f d6 bd ba f8 8d bc 65 05 97 bc
       0.11776612 -0.10479633 -0.017330516 -0.01843519
000180 c7 53 5f 3d 4a 5f 1f 3d 49 46 31 bd 34 bd 00 bb
       0.054523256 0.038909234 -0.04327992 -0.0019644024
000190 f8 11 c1 be 00 97 9c 3d 61 e8 67 be 6e 4c fe 3d
       -0.37709022 0.076459885 -0.2264724 0.124169216
0001a0 36 4f ef 3d 0f ea 18 3e a6 bd 4a 3e 3d 7c 84 3e
       0.1168503 0.14933036 0.19798908 0.25876036
0001b0 12 3f 01 be 2a 9d 87 3d 4f f7 a2 bd 2c c9 d5 bd
       -0.12621716 0.066217735 -0.079573266 -0.10438761
0001c0 0b 93 49 bc 89 e7 c6 3e f7 2a 50 3f 6c 77 b1 3e
       -0.012303124 0.38848522 0.8131556 0.34661424
0001d0 38 8d 57 3d 30 cf ec 3d 0c 84 58 bc e0 d4 c8 3d
       0.05262491 0.115629554 -0.013215076 0.09806228
0001e0 7b 14 8f bd 28 55 e7 3d 68 1f 7b 3e 5a ac 44 be
       -0.06986328 0.11295539 0.245237 -0.19206372
0001f0 6e 6e ce 3d 47 81 3e be d4 dd be bc c1 55 d3 3e
       0.100796565 -0.18604003 -0.023299135 0.41276363
000200 bd b7 89 3e a8 f4 c2 bd df 83 68 3d 32 84 24 3d
       0.26897994 -0.09519321 0.056766387 0.040165134
000210 eb 1a 0a be 9b d0 60 bc 98 5e a2 bc 62 21 30 bc
       -0.13486831 -0.01372161 -0.019820496 -0.010750147
000220 d6 58 92 bc 6a f9 a1 3e 7b 58 2e bd 3a 09 0c bd
       -0.017864626 0.316356 -0.04256485 -0.034188487
000230 ab 2c 68 3e e8 bb b2 3c fe 33 a5 3d 38 29 91 3a
       0.2267329 0.021818116 0.08066557 0.0011074906
000240 7d c9 67 3d 76 7a 2f be b0 1b 82 bd a6 b4 b1 3c
       0.05658864 -0.17136559 -0.06352937 0.021692585
000250 bf bc 81 be 3e 0b 0b 3e d3 ef dd 3d 77 99 b7 3d
       -0.25339314 0.13578507 0.108367585 0.08964818
000260 da af 3c be d0 b7 35 3e dc 02 0d 3e c5 bf dd 3c
       -0.18426457 0.177459 0.13770622 0.027068982
000270 f0 1d 90 be 51 42 72 be b4 7e 5d bc 60 31 af 3b
       -0.2814784 -0.2365811 -0.013518978 0.005346462
000280 df d4 2b 3d 05 81 9d bd 07 1e 19 3e f2 3e 19 bd
       0.041951057 -0.07690624 0.14952861 -0.037413545
000290 c6 cc ca bc 98 f7 62 bd 9f 8c 9e 3d 88 a8 65 bc
       -0.024755847 -0.055411905 0.07741665 -0.014017232
0002a0 dd 7f 81 bd 9f 0a 9e be 36 52 62 be c4 5f f7 3c
       -0.06323216 -0.30867478 -0.22101673 0.030197032
0002b0 b1 88 19 3e 6a f1 5c 3e dd c7 c8 3d 97 fd d8 bd
       0.1499355 0.21576467 0.09803746 -0.105952434
0002c0 47 21 36 3e 71 a5 48 be 8b 6d 12 3e 08 61 3b bd
       0.17786132 -0.19594361 0.142996 -0.045746833
0002d0 11 cc 63 bd c2 86 40 be f8 e6 ee 3b 81 94 02 3d
       -0.055614535 -0.18801406 0.007290717 0.031879906
0002e0 2b 1d 1b 3e 3f 62 c3 bd 83 60 e3 3d 1a 16 a3 bd
       0.15147845 -0.09540223 0.111023925 -0.079632
0002f0 7b 22 c5 3d 39 51 95 be ed 74 17 bd 28 23 5d 3e
       0.09625717 -0.2916353 -0.036976743 0.21595442
000300 a4 89 72 3d dc be 8b bd a5 c5 42 3c 95 31 bb bc
       0.059213296 -0.06823513 0.011887942 -0.022850791
000310 83 fa 6c 3e 3b c9 bf 3d df 46 db bd f8 0d 9a 3c
       0.23142438 0.093645535 -0.10706877 0.018805489
000320 49 27 aa bc 59 7d 9e 3d ea 35 d9 bb 19 de 8e 3d
       -0.020770686 0.07738752 -0.0066287415 0.069759555
000330 ed e5 48 3e 77 55 5e 3e 66 f8 60 3d 91 dd 9a bc
       0.1961896 0.2171229 0.05492439 -0.01890448
000340 c7 4e 61 3e f8 4b 26 be 6e f9 88 bd 47 11 89 3d
       0.22002707 -0.16239917 -0.066882 0.066927485
000350 f8 cd 23 3d a8 30 88 3d 65 b5 d7 3a bf df 61 3d
       0.03999135 0.066499054 0.0016457258 0.05514502
000360 e6 c2 e9 3b 30 86 89 3e e7 71 f0 bd 47 4f d4 bb
       0.0071338294 0.2686019 -0.11740475 -0.006479177
000370 32 64 56 3e 67 94 24 be 35 70 0d 3e 76 7e 35 3d
       0.20936659 -0.16072236 0.13812335 0.044310056
000380 a5 f6 00 3f 7b 61 40 3f 3a 38 0c 3e 47 2d a1 bd
       0.5037635 0.75148743 0.13693324 -0.07869964
000390 ed c8 fc bd 72 d7 17 3e e9 dc 80 bd e5 e8 0c 3e
       -0.12343011 0.1482828 -0.06292135 0.13760717
0003a0 14 4a da 3d d4 be 65 bd 5c 70 fd 3d 94 99 8d bc
       0.106586605 -0.05609019 0.123749465 -0.017285146
0003b0 6f 63 85 bc 15 8d 0c 3e 98 05 1e be d3 45 f6 3d
       -0.016282765 0.13725694 -0.15431821 0.12025037
0003c0 7a 94 18 3d bc 3d f6 3c 39 05 48 bd 32 88 3e 3e
       0.037250973 0.030058734 -0.048833106 0.18606642
0003d0 94 8c 98 bd 98 0b a3 3d eb 80 ec 3d 20 8e 12 3d
       -0.07448688 0.07961196 0.11548027 0.035780072
0003e0 05 2f e2 bd ba 19 07 3d eb cb 65 bc 44 f3 4a 3e
       -0.110441245 0.03298352 -0.014025669 0.19819361
0003f0 9d 59 24 be bf 1e 85 3e 8c bb 24 be fc 6e d5 3c
       -0.1604981 0.2600002 -0.16087168 0.026053898

critic.preprocess.model.model.0.bias f4 [64]
000000 7d c7 92 bf d9 18 e2 3e a0 d2 08 3f 3a 04 77 3f
       -1.1467129 0.44159582 0.5344639 0.96490824
000010 89 63 b9 be ce ea 84 3f ff 54 41 bf 9e 23 32 3f
       -0.36208752 1.0384157 -0.7552032 0.695856
000020 98 be 65 bf 14 39 c1 3d 04 0c bc bd f9 09 72 3f
       -0.8974395 0.09434715 -0.09181979 0.9454647
000030 30 94 d4 3e a0 9b 06 bf 4b 69 37 3e 96 da 8c bf
       0.41519308 -0.52581215 0.1791126 -1.1004207
000040 d8 ba b1 3f ae 5a 31 bf d0 9c cb 3e 62 d7 5d 3f
       1.3885145 -0.6927899 0.39768076 0.86656773
000050 57 ce 1c 3d 38 a7 7a bf 26 02 bb bd 16 57 9b be
       0.03828272 -0.97911406 -0.09131269 -0.3033988
000060 a8 53 cf 3e b5 d2 bf be e3 c2 05 3f 21 0a 30 bf
       0.40493512 -0.37465444 0.522505 -0.68765455
000070 d1 bf c9 3e 46 bf 73 bf 05 18 92 3f 08 0d bd be
       0.39404157 -0.95213735 1.141358 -0.36924005
000080 8a c7 89 3e 6c e9 28 3f 08 6c bc 3e 01 ec 2d be
       0.2691005 0.65981174 0.3680117 -0.1698456
000090 cf a2 41 bf ad 72 a3 bf ae 8d 69 bf 35 41 02 3f
       -0.7563905 -1.2769371 -0.9123181 0.5088075
0000a0 ff 44 c3 be 55 0a ba be 95 38 cc be 66 02 9e 3f
       -0.38138577 -0.36336008 -0.3988692 1.2344482
0000b0 a1 46 d3 be de e9 69 bf 7e dd 3a 3f f1 9b 31 3e
       -0.41264823 -0.9137248 0.7299422 0.17344643
0000c0 f0 27 8c bf 69 37 77 be 28 1b 2d be 92 8b 1e bf
       -1.0949688 -0.24142231 -0.1690489 -0.6193172
0000d0 e0 37 49 3f 8e 83 95 be 3b 85 20 3f a0 d9 a3 be
       0.78600883 -0.2920193 0.62703294 -0.32001972
0000e0 8a da 60 be 59 5c a1 3f ea d3 1d bf 80 4c 89 3f
       -0.21958366 1.2606307 -0.6165148 1.0726471
0000f0 35 d4 21 3e 57 4b 0f bf 94 b1 b9 be 63 6a 1f 3f
       0.15803607 -0.55974334 -0.36268294 0.6227171

critic.preprocess.model.model.2.weight f4 [64, 64]
000000 06 54 87 3d a2 74 bd 3c 95 53 5b 3d d3 a0 d3 bd
       0.06607823 0.023126904 0.053546507 -0.10333409
000010 5d 97 9b bd b1 ed 98 3e 71 f0 a6 3e 7a 2f 8b 3e
       -0.0759723 0.29868844 0.32605317 0.2718466
000020 73 7a 20 be fd 0e cb be d1 78 50 bc 2b 1e b9 3e
       -0.1567171 -0.39659873 -0.012724117 0.3615583
000030 a8 9f 39 be d9 7b 37 3e bc d3 5b 3e eb fb b8 be
       -0.1812731 0.17918338 0.21467489 -0.36129698
000040 a4 04 d6 3d 9a 0d 36 bb 4f 7c a1 be a8 64 12 3d
       0.10450104 -0.0027779103 -0.31540152 0.035740525
000050 d2 6f f4 3d b6 26 d3 3e 1d 02 12 bf 5c 61 36 bd
       0.119353905 0.41240472 -0.57034475 -0.044526443
000060 6d 12 58 bd 45 fb b5 3e 12 61 12 3d 00 34 ac 3e
       -0.052751947 0.35543266 0.035737105 0.33633423
000070 b4 d7 3d be b7 e1 ac bd 33 0d f2 3e 71 3e e0 3d
       -0.18539315 -0.08441489 0.47275695 0.1094941
000080 97 46 29 be bb c2 a7 be 60 a4 b2 3d 11 55 ac 3e
       -0.16530834 -0.32765755 0.08722758 0.3365865
000090 cc 90 b5 3e 29 62 98 be 3e 8d 94 3b d8 7e 80 bd
       0.35462034 -0.2976239 0.004533439 -0.062741935
0000a0 94 1b 10 bf bc 05 d3 be 3f f0 cf 3e bd 55 57 be
       -0.5629208 -0.41215312 0.4061298 -0.210288
0000b0 7d c3 4f 3d e3 79 7b 3d e8 b5 d3 3e e2 21 d4 be
       0.05072354 0.061395537 0.4134972 -0.414321
0000c0 8e d6 25 3e 75 6f 91 be fb de bc be d0 fd 88 bd
       0.16195127 -0.28405347 -0.3688887 -0.06689036
0000d0 7c 39 c4 bd e4 02 21 3f 99 ab 6f 3d f1 92 b2 3e
       -0.09581277 0.62895036 0.058513258 0.34877732
0000e0 3e 0e 0d bf 50 6a 12 3e 28 93 65 3e 5d 89 d8 be
       -0.55099857 0.14298368 0.22419417 -0.422923
0000f0 1a 4f 8c 3d 93 8a 70 3d fc b7 c9 bc 0c e2 8d bd
       0.06851025 0.058725905 -0.024623863 -0.06927881
000100 7c 40 d5 3d de d9 ca bd da 1c f2 be 61 d1 f1 3d
       0.1041269 -0.09904836 -0.47287637 0.11807514
000110 39 62 4b 3e 27 65 30 3c 2d 7d fe 3d 76 cf c3 bc
       0.19861688 0.010766304 0.12426219 -0.023902636
000120 9f d0 41 3e ea 9a d9 3d ae 4b 23 3e 0e 24 33 3f
       0.18927239 0.10625251 0.15946838 0.6997689
000130 26 d8 99 3e d7 25 88 be 12 4d 45 be 4c b0 d5 3d
       0.3004772 -0.2659137 -0.19267681 0.104340166
000140 9e 4e f4 3d 40 0c 63 be 9c f7 27 3e 0d 08 68 3e
       0.119290575 -0.22172642 0.16403049 0.22659321
000150 17 7b a3 bd d8 46 45 3d a2 de 01 3f f3 18 3f 3e
       -0.07982462 0.048163265 0.50730336 0.18661861
000160 db a4 80 bd 04 ec 3b 3e 52 21 cb bd 87 1a 06 3e
       -0.06281444 0.18351752 -0.09918465 0.13096057
000170 c6 ed 91 be c2 6d 2d 3e af 06 b5 3c d8 f5 77 3e
       -0.2850172 0.169364 0.022097914 0.24214876
000180 b8 6e 0e 3e 01 d7 2d 3c 01 49 a2 3e e0 d3 81 be
       0.13909423 0.010610343 0.31696323 -0.2535696
000190 96 09 0d be c0 61 e7 be 68 25 9f 3e c1 f1 d2 bd
       -0.13773188 -0.45191765 0.31083226 -0.10300017
0001a0 9d a0 a3 3d c7 3f 3c bc b8 49 23 bd a8 5b d2 3e
       0.07989619 -0.011489815 -0.039865226 0.41085553
0001b0 3c 89 cb be 17 da f1 b9 d8 98 f0 bd 7a 73 40 be
       -0.3975314 -0.00046129592 -0.11747903 -0.18794051
0001c0 c1 20 23 be 33 d8 db bd 7f b3 f5 be c7 52 22 3e
       -0.15930463 -0.10734596 -0.47988507 0.1585189
0001d0 25 ad 10 3e df 64 c2 be f3 3b f6 bc 21 5e 12 3c
       0.1412855 -0.37967584 -0.030057883 0.008933575
0001e0 fa d6 0c be a0 dc 66 be 32 ec d2 3e 24 33 52 be
       -0.13753882 -0.225451 0.41195828 -0.20527321
0001f0 49 6c 36 be 2b 34 1f be 5c fb 05 bf 70 36 ff 3e
       -0.17814745 -0.15547244 -0.5233667 0.4984622
000200 a5 d8 e7 3e 7c c4 c2 be dc ac c5 bd 50 80 30 3e
       0.45282474 -0.3804053 -0.09652111 0.17236447
000210 42 e1 96 be 4a 37 b1 3d 44 7d ae bd c1 67 ed bd
       -0.29468733 0.08653124 -0.08519986 -0.11592055
000220 7a ec 0c bf 62 73 d8 3d cc 74 15 3e 98 ff 49 be
       -0.55048335 0.105688825 0.14595336 -0.19726408
000230 43 2c f5 3e f1 da 61 3e 37 f6 1f 3d 7c 99 45 bf
       0.47885332 0.22056176 0.03905317 -0.77187324
000240 22 44 a3 3e 72 6c b7 3d a4 31 5c 3d da c6 63 3e
       0.3188792 0.08956231 0.05375828 0.22243825
000250 e9 9c 05 3f a0 a3 84 be 5f fe e9 bc bb 0b de 3d
       0.5219255 -0.25906086 -0.028563676 0.10842081
000260 94 3a d8 3e 8e 23 32 bb b4 20 50 be 35 21 8e be
       0.42232192 -0.0027181837 -0.20324975 -0.2775971
000270 b8 1f 74 bd 71 28 93 be 99 2b 25 3e 9e 96 83 bd
       -0.05960056 -0.28741792 0.16129912 -0.06425212
000280 69 2b 29 3f da 55 85 be a8 3d b2 be 94 cb 3c be
       0.66081864 -0.26042062 -0.34812665 -0.18437034
000290 9e 74 88 be bb 7d 34 be 7a 16 68 3e 9e a3 e3 bd
       -0.26651472 -0.17626087 0.22664824 -0.11115192
0002a0 1f 3c 6f 3e 25 2c a5 3d b8 00 a8 be 7f c2 43 3e
       0.23362778 0.080650605 -0.32813048 0.19117163
0002b0 73 e2 e0 be f9 12 0c bd 4b f2 a5 3d 6e c3 bd 3d
       -0.43922767 -0.03419778 0.08102854 0.09265791
0002c0 ea 63 ea bd 95 fb bc bd e3 3a b2 bc 85 2a 2f 3e
       -0.11444838 -0.09227673 -0.021756595 0.17106064
0002d0 27 d4 94 3e 8b e0 3a 3e 86 2f 1c 3f d0 a1 c5 3d
       0.2906811 0.18249719 0.61010015 0.09650004
0002e0 d7 cc 61 be 35 aa 29 3f 29 90 ac be 5f fe 42 be
       -0.22050796 0.6627534 -0.33703735 -0.19042347
0002f0 df c8 a1 3e 53 f5 2e 3d 3a e7 b4 3d aa b3 7b 3d
       0.31598565 0.04271443 0.088331655 0.061450638
000300 88 22 f9 bd 01 92 81 be be 3b ab 3e ff 6b 88 3e
       -0.121647894 -0.25306705 0.33444017 0.26644894
000310 7f cd 5e be ac 1e 74 3e af 1a c2 be 33 f0 95 3e
       -0.21758078 0.23839825 -0.37910983 0.2928482
000320 35 8f 70 be de 5d cf be b8 06 82 3e 1d 9b 93 3e
       -0.23492129 -0.40501302 0.2539575 0.2882928
000330 0e 5d 0a 3d 16 5d 24 bd a8 6f 1b be a3 ef 83 be
       0.03378015 -0.040127836 -0.15179312 -0.25768766
000340 8c 8b 84 3e cf a6 78 be dc b2 9e be 71 c5 9d 3e
       0.25887716 -0.24282382 -0.30995834 0.30814698
000350 ce 36 24 be 96 95 0c bf 37 b7 6a be c7 05 f2 3c
       -0.16036531 -0.5491575 -0.22921453 0.02954377
000360 59 e0 13 3e 07 13 7d bd fc a8 01 be 27 72 7c be
       0.1444105 -0.061785724 -0.12662119 -0.2465292
000370 96 ae 15 bf 3c b3 a4 bc 4c 5e d4 3e db 7a 14 be
       -0.5846952 -0.020104997 0.41478193 -0.1449999
000380 f7 08 c4 be 40 33 2e 3e 76 c1 a7 bd ff ba fd 3c
       -0.3828809 0.17011738 -0.081911966 0.030972956
000390 37 3e 7c bc 09 4a e1 ba bb 84 4e 3e f3 a2 0a bd
       -0.015395693 -0.0017188202 0.2016782 -0.033846807
0003a0 e2 f3 6d 3e 3d 46 6f be 9c 06 47 3e 22 1d ce 3d
       0.23237565 -0.23366638 0.19436115 0.100641504
0003b0 f7 65 98 be 71 da 6d bc 1b 40 e4 3d 21 1b c6 3d
       -0.29765293 -0.0145174125 0.1114504 0.09673143
0003c0 87 2e ff bd b2 bd 85 3d 9d 22 e0 bc 4b 1f 14 3d
       -0.12460046 0.06530322 -0.027360255 0.036162656
0003d0 fb 6c d5 3e cd 53 5d 3e 0e 10 06 be 02 a9 7b 3d
       0.41684708 0.21613999 -0.13092062 0.061440475
0003e0 cd 8a b6 bc 39 cc 89 3e dd 41 66 3d 93 87 e0 3d
       -0.022282982 0.26913622 0.056215156 0.10963359
0003f0 1a 53 1f 3e 6c d8 50 be 0e 6d 35 be 8b 8b 38 3e
       0.15559044 -0.20395058 -0.17717382 0.18021981

critic.preprocess.model.model.2.bias f4 [64]
000000 ed ae a3 3e 8c f7 a2 3e c5 d0 4d 3e 60 61 68 3d
       0.31969395 0.31829488 0.2009917 0.05673349
000010 49 9e f0 3e 54 e3 a6 3e f5 1b 38 be 9d e0 e5 3e
       0.46995762 0.32595313 -0.17979415 0.4489793
000020 29 68 0c be 93 4f be be 60 d2 aa 3e 98 ca 5e 3d
       -0.13711609 -0.37170085 0.33363628 0.054392427
000030 b2 be 41 3e d2 46 d1 bc 94 24 a1 bc 01 aa 5e bd
       0.189204 -0.025546465 -0.019670762 -0.054361347
000040 e0 58 80 be 2a 81 53 3d b7 65 b9 bd c4 af df be
       -0.25067806 0.051636852 -0.09052604 -0.43688786
000050 40 9b 34 be c3 e7 3d 3e 3a a3 82 be cb b8 5d 3d
       -0.17637348 0.18545441 -0.25515157 0.05413131
000060 22 80 9a 3e d8 aa 3f bc 32 4a 9e be 6e 4b 49 3e
       0.30175883 -0.011698447 -0.30915982 0.1965768
000070 9f 39 19 3d 46 48 ac be 6b 3f 95 3d d9 69 68 be
       0.037408467 -0.3364889 0.07287487 -0.22696628
000080 1d 04 d2 bd a8 bb bd be 2a 3b 94 be c7 35 03 be
       -0.10254691 -0.37057233 -0.2895139 -0.12813483
000090 70 17 cb 3d 1e 6f cf be 3d 2f c8 3e 8e b6 54 3e
       0.0991658 -0.40514463 0.3909854 0.20772764
0000a0 12 ce 52 be 0a 28 9d be 78 5f 16 3e d0 c1 44 be
       -0.20586422 -0.3069461 0.14684856 -0.19214559
0000b0 a9 b0 13 3e 3d 0a d4 bd fa 23 92 3e 5b d5 d2 3d
       0.14422859 -0.10353515 0.28543073 0.102946006
0000c0 06 f3 52 be 24 65 31 3e 38 e6 9f 3e 8a 08 18 3e
       -0.20600519 0.17323738 0.3123033 0.14847007
0000d0 95 28 fd bd 22 22 87 3d 5f 05 2a 3e 68 93 9e bd
       -0.12361256 0.06598307 0.16603611 -0.07742959
0000e0 03 eb c4 bd 67 66 65 be f7 b7 59 bb c2 74 65 be
       -0.096151374 -0.22402345 -0.0033221224 -0.22407821
0000f0 4e 62 87 3d cb 31 13 3e 83 e5 a5 be 39 38 75 3c
       0.06610547 0.14374463 -0.32401666 0.014967018

critic.last.model.0.weight f4 [1, 64]
000000 b1 f5 2f 3e 9d 30 ec 3d 22 5e 81 3e 63 9d ed bd
       0.17183568 0.1153271 0.2526713 -0.11602285
000010 74 14 c1 3e d5 a0 fc 3d 0d 5d 4b be af f2 78 3e
       0.37710917 0.12335364 -0.19859715 0.24311326
000020 c1 06 c9 3d 18 5f 0e be 5e de 69 3e 22 4a fd 3d
       0.09815741 -0.13903463 0.22838733 0.12367655
000030 35 dc 9f 3d bf e7 6f 3e fd d0 f2 bd a6 b7 cf be
       0.07805673 0.23428248 -0.118562676 -0.405698
000040 75 b8 a2 3e 29 7f 26 3e 95 58 8b be ff 30 f5 bd
       0.31781355 0.16259445 -0.2721602 -0.11972236
000050 5a 80 54 3e 1d e3 23 3e 62 bc 22 be a9 85 ae be
       0.20752087 0.16004606 -0.15892175 -0.3408635
000060 bf 1e 2c 3e 4b 7f 3b 3e d9 35 1c be ef 4d 85 3e
       0.16808604 0.18310277 -0.15254916 0.2603602
000070 40 e2 29 be fd fa 34 3e 6c 81 1f 3e 3d 0e 3a be
       -0.16590214 0.1767387 0.15576714 -0.18169494
000080 db c8 13 be ba 7d 45 be c8 28 94 be ca 9a 94 be
       -0.14432089 -0.19286242 -0.28937364 -0.29024345
000090 70 19 82 3e 6e 41 b3 be 3f 9c 06 3e c9 ec 77 3e
       0.25410032 -0.35010856 0.1314554 0.2421142
0000a0 4f 68 b6 bd 44 25 16 be cf 00 94 be c0 55 09 be
       -0.08906614 -0.14662653 -0.28906867 -0.13411617
0000b0 b6 af 0b 3e bc fc 10 be d9 47 68 3e cd 3e 33 3e
       0.13641247 -0.1415891 0.22683658 0.17504425
0000c0 0d 65 c1 bd c5 b7 76 3d 80 db 38 3d db 5c f6 3d
       -0.09443102 0.06023385 0.045131207 0.120294295
0000d0 e7 fc 9f be 21 06 09 3e d2 ad 70 3e b0 9e 86 3e
       -0.31247637 0.13381244 0.23503807 0.26292944
0000e0 a8 77 cb bd 63 6e 2a be a3 51 37 3e 0c 29 8e bd
       -0.09934932 -0.16643672 0.17902236 -0.06941423
0000f0 da ae 55 3e 3a ea 16 3e 72 69 24 be 38 cc 21 be
       0.20867482 0.14737788 -0.16055849 -0.1580056

_actor_critic.actor.sigma_param f4 [8, 1]
000000 f7 c4 5d c0 ba f2 55 c0 ef c5 4b c0 f4 95 63 c0
       -3.4651468 -3.3429399 -3.183956 -3.5560274
000010 8f b0 5c c0 ff c9 39 c0 34 64 51 c0 dc 32 57 c0
       -3.4482763 -2.9029539 -3.271741 -3.3624792
