results/Swimmer-v3/trpo/2/220709-071605/policy.pth (torch, 47844 bytes, 24 tensors)

actor.sigma_param f4 [2, 1]
000000 b4 8e a9 bf a4 9a e6 bf
       -1.3246675 -1.8015943

actor.preprocess.model.model.0.weight f4 [64, 8]
000000 59 62 f5 bd 14 f8 45 be c3 7f 54 3e 14 ee 0b bd
       -0.11981649 -0.19332916 0.20751862 -0.034162596
000010 40 e2 7f 3c 51 d9 82 bd 4d f8 42 be e7 67 45 be
       0.015617907 -0.06389106 -0.19040032 -0.19277917
000020 ae 79 cf 3d 5f c7 49 bd cd 24 a5 3e 90 36 67 3c
       0.101306304 -0.0492624 0.3225464 0.01411213
000030 84 73 77 3e f1 bc 5b 3d 3c fc 66 3d 30 f0 ca bc
       0.2416516 0.053646985 0.056392893 -0.024772733
000040 a5 d0 ab 3e e0 e4 26 bc ae 98 f9 be 7d af 24 3e
       0.3355762 -0.010186404 -0.48749298 0.16082568
000050 d9 96 f1 3d a4 a3 db 3a a1 1f c6 bd f7 bd 16 3f
       0.1179635 0.0016757143 -0.096740015 0.58883613
000060 5b b6 ad 3e 85 00 10 bf 7c ca 32 be cf 2b 20 3d
       0.3392819 -0.5625079 -0.17460054 0.03910428
000070 7b 30 77 3d b8 ba e2 3d cb c6 d0 bd 91 b3 90 3d
       0.06034897 0.1107077 -0.10194167 0.070654996
000080 25 5a 58 be 02 1f 8c be 78 76 8d bd 97 ea b0 3e
       -0.21128137 -0.27367407 -0.06907362 0.34553978
000090 88 b7 af be 39 a0 c7 bd 5f 3b 9f 3e 77 38 0f bd
       -0.3431971 -0.09747357 0.31099984 -0.03496596
0000a0 b8 da 56 3e 55 53 ef 3c 5d 89 69 3d 75 15 1a 3e
       0.20981872 0.02921454 0.057015765 0.15047248
0000b0 8b 30 37 be 7e 41 3a be 53 f5 b5 3d f5 1f d2 bb
       -0.17889611 -0.18189046 0.088846825 -0.006412501
0000c0 d9 a4 c0 bc 0e 4d 06 3e 30 b1 de 3d 4c 0d 50 3e
       -0.023516105 0.13115332 0.108736396 0.20317572
0000d0 86 a2 d2 bd b7 e9 6c be 0a 66 8d 3e 49 b3 37 3e
       -0.10284905 -0.2313603 0.27616912 0.17939486
0000e0 d4 b8 16 be c2 f9 b7 3e 3d 15 88 3d 85 12 72 be
       -0.14718944 0.35932738 0.06644676 -0.23639877
0000f0 db a4 02 3e 55 d1 b8 3d bf 53 ab 3e 10 b8 27 be
       0.127582 0.09024302 0.3346233 -0.16378808
000100 0b 80 ec 3d 8b 41 6d 3e 9c e5 10 3e ec 80 95 3e
       0.1154786 0.23169534 0.14150089 0.29199922
000110 04 42 68 be da e0 8c 3d 2e a5 38 be 97 e6 d0 be
       -0.22681433 0.068788245 -0.18031761 -0.40800926
000120 67 8c 13 be 2b f3 59 be cd a6 1b 3e d7 a3 fb bc
       -0.14409028 -0.21284167 0.15200348 -0.030717773
000130 ef fd 9a 3e 75 e1 c3 3c 5d 94 9b bd 43 cb 19 bf
       0.3027186 0.023911217 -0.075966574 -0.6007578
000140 3d 2a 39 3f c8 aa 80 3e 36 25 d1 bd 54 7b 71 bd
       0.72330076 0.25130296 -0.102121755 -0.058955505
000150 4d 86 16 3e b7 13 aa 3d 07 f1 78 bd 89 15 f4 3e
       0.14699669 0.083045416 -0.060776737 0.4767268
000160 12 8c f8 ba a7 1f c3 be 2e 91 a8 be 53 a1 f8 bd
       -0.0018962643 -0.38110086 -0.32923263 -0.12140145
000170 2e ab 0d 3e 4d e3 17 3e d6 fa f8 bb 48 e3 91 bd
       0.13834831 0.14832802 -0.0075982613 -0.071234286
000180 c2 90 34 bc 11 f5 a6 be 6d 4b ab be e6 45 09 be
       -0.011020841 -0.32608846 -0.33455983 -0.1340557
000190 ec 5b f5 bd 30 dd 72 3e db e9 9f 3e 70 f9 20 be
       -0.11980423 0.23717189 0.31233105 -0.15720153
0001a0 b0 e3 09 3e 2d 7c 92 3e a8 07 ba bd 0c 50 e6 be
       0.13465762 0.28610364 -0.090834916 -0.44982946
0001b0 69 41 d9 3d fa 4a 05 be 50 9a 91 be 06 c2 8d be
       0.10608179 -0.13016883 -0.28438044 -0.2768709
0001c0 ce 95 35 bd 54 a7 85 3e 90 5a 46 3e a9 7d b5 bd
       -0.044332318 0.26104224 0.19370484 -0.088618584
0001d0 6e 4f 4f be 10 c7 70 3e de 9b b1 3e 80 60 29 bd
       -0.20245144 0.23513436 0.3468923 -0.041351795
0001e0 45 88 a4 bd da 49 8d be 09 46 92 be d4 94 81 bc
       -0.08033804 -0.27595407 -0.28569058 -0.015818037
0001f0 bb 5d 12 3e b8 81 4c 3e 44 58 0d 3d 9d 3a 03 3f
       0.14293568 0.19971359 0.034508005 0.5126131
000200 fd eb ba bd 72 83 d0 be 97 62 08 3d 06 ab b1 3e
       -0.091270424 -0.40725285 0.033297148 0.34700793
000210 85 2b 2d 3e f2 8f 92 be 7a 5c e7 3d 96 13 9e 3e
       0.16911133 -0.28625447 0.112969354 0.30874318
000220 52 f1 f5 3d 58 13 19 bf 2c 97 f4 bd 31 1e 0a 3e
       0.12008919 -0.5979514 -0.11942896 0.1348808
000230 3e f9 60 3c 6d 29 35 be ea cb 8e be 09 a3 01 3d
       0.013731299 -0.17691584 -0.2788995 0.031649623
000240 89 5c 62 bd 10 5e bf 3e f3 79 b2 be 76 49 50 3d
       -0.05526403 0.37376451 -0.34858665 0.050851308
000250 c7 b1 d8 3d ec 28 fc 3c 07 61 c8 3d bb 7b 62 be
       0.10580783 0.030781232 0.097841315 -0.22117512
000260 08 2a eb be 00 47 b6 bd ca 56 8a 3e 9d 21 98 3e
       -0.45930505 -0.08900261 0.2701934 0.29713145
000270 41 f7 2a 3e cf c7 ab be 9a ba b5 3d 20 67 bb be
       0.16695882 -0.3355088 0.08873482 -0.36602116
000280 f4 20 18 3c 4a 59 40 be 3b f7 5b be b9 9b f2 3d
       0.0092852 -0.18784061 -0.2148103 0.11846108
000290 4a aa a6 3e 02 99 25 3e 15 f8 1d 3e ae f3 cf bd
       0.32551795 0.16171649 0.15426667 -0.101539
0002a0 05 fc 46 3e c9 d4 66 bd 6a f4 3c 3e c4 06 ea bd
       0.19432075 -0.05635527 0.18452612 -0.11427072
0002b0 cc ea 45 3e a5 09 2b 3e 2d a5 a2 3d 26 bf 07 bf
       0.19327849 0.16702898 0.07941661 -0.53026044
0002c0 fd dc a2 3e 4f af cf 3e b3 59 52 3e 59 ed 5e be
       0.31809226 0.40563437 0.2054203 -0.21770228
0002d0 1a ca 4b 3e cf 55 2a 3e 7c bc 68 3e 82 86 0a 3c
       0.19901314 0.16634296 0.22728151 0.008454921
0002e0 cf 7e 2a bf 86 7e 05 3f 96 86 04 be 80 dd e5 3c
       -0.66599745 0.52146184 -0.12941965 0.028059721
0002f0 97 95 8b be 6b e6 1e 3e 09 15 3a be 07 40 d0 bd
       -0.27262565 0.15517585 -0.18172087 -0.10168462
000300 76 6d ad bd b6 b7 07 be d9 71 3a 3d 91 dd 52 3e
       -0.08468144 -0.13253674 0.04551873 0.20592333
000310 03 4d 7f 3d 85 80 35 3e 6f ef 2c 3e 94 ca 49 3e
       0.062329303 0.17724808 0.16888212 0.19706184
000320 10 8d f7 3d 88 00 a4 bd de c2 a8 be 6b aa 91 3e
       0.120874524 -0.08007914 -0.32961172 0.2845033
000330 70 56 c8 bd 6d 49 02 3d 0a d5 0a be 6a e1 c9 3e
       -0.09782112 0.031808306 -0.1355783 0.3942979
000340 dd 0d 9c be c2 0c 82 3d 2a cb 48 be a6 e8 57 3e
       -0.30479327 0.063500896 -0.19608751 0.21084842
000350 5c e3 79 be 1b 08 50 be 80 ec d0 3d 68 29 4c 3e
       -0.24403137 -0.20315592 0.10201359 0.1993767
000360 95 dd bc be 09 0c 04 be d9 50 c7 3d 5e 48 cc be
       -0.36887804 -0.12895216 0.09732217 -0.39898962
000370 f6 b0 ca bd a5 0f 29 bc 8b 47 e7 bc 70 08 a7 be
       -0.09897034 -0.010318671 -0.028232357 -0.32623625
000380 34 d7 6b 3b 13 02 6e 3e c9 72 b7 be f7 cd aa 3d
       0.0035986425 0.23242979 -0.35829762 0.08340066
000390 1d 67 a0 3e 72 4f 62 bd b9 e5 2d be 3a ed 5a 3e
       0.3132867 -0.055251546 -0.16982163 0.21379557
0003a0 6a 8e 70 3e 56 e7 60 3c 0f 35 9b 3e 25 9f 0d bb
       0.23491827 0.01372703 0.30313918 -0.002160975
0003b0 36 32 8d bd 62 f7 9f 3b 4f e6 86 3e b5 16 2a 3f
       -0.068943426 0.0048817853 0.26347587 0.664409
0003c0 3e 8f a4 3b 72 da eb 3d e9 bd 4f 3c cb df cd be
       0.0050219586 0.115162745 0.012679555 -0.40209803
0003d0 f4 36 75 bd 41 34 9f 3d ca f6 b5 bd 13 eb 8c be
       -0.05986686 0.077736385 -0.08884962 -0.27523097
0003e0 eb 4f 8c 3d af e0 95 bd 1e 87 71 bd 76 04 0f 3f
       0.06851181 -0.073182456 -0.05896675 0.5586618
0003f0 07 e9 f6 3d 73 f2 e1 3c 0a 91 d3 bc ea 36 86 3e
       0.12056165 0.02758143 -0.025825996 0.2621377

actor.preprocess.model.model.0.bias f4 [64]
000000 1f 0b d7 3c df 30 03 3e d9 9d 66 3c 97 c0 4a bc
       0.02625042 0.12811612 0.01407572 -0.012375019
000010 93 04 5b 3d 0a 2d 56 3d 1a 17 0c 3d fe 1c 55 bd
       0.05347116 0.052289046 0.03420172 -0.052029602
000020 41 bd 39 3b ad 2c e8 bd 8c bb 77 bc 9b ef 1d 3c
       0.0028341564 -0.11336646 -0.015120398 0.009639646
000030 03 4f 54 bd a0 1a 60 be d4 ff ad bd 9a 8b 13 bd
       -0.051833164 -0.21885157 -0.08496061 -0.036021806
000040 c3 0b 55 3e e7 82 bb 3d e0 d7 7b bd 66 c3 79 3d
       0.20805268 0.09155827 -0.06148517 0.060977362
000050 b9 10 01 3d 24 33 d1 bc c7 75 18 be b0 41 d7 bd
       0.03151009 -0.025537081 -0.14888678 -0.10510576
000060 4f b8 56 3d 0a 4b 79 3d 25 07 2c bd 32 16 c6 3d
       0.052421864 0.06086258 -0.041999 0.09672202
000070 1e 8c 51 3d f7 96 c6 3d 81 57 fa bc dc b8 5b 3d
       0.051159017 0.09696763 -0.030559303 0.053643093
000080 91 3d 04 be 32 81 23 bc 1d 9f eb bd 72 c7 de 3c
       -0.1291411 -0.009979533 -0.11504958 0.027194712
000090 7b bf 4c 3c ce 4c 95 3d 96 ee dd bd 62 15 61 3d
       0.012496824 0.0729004 -0.10836522 0.054952033
0000a0 df 01 a8 3d 48 3c f2 bd fd 39 c4 3c 0c 7a fe 3d
       0.08203482 -0.11827904 0.023953432 0.12425622
0000b0 75 5c a1 bc 32 5e 09 3e 67 5f 14 be c1 09 2c 3e
       -0.019697407 0.13414839 -0.14489518 0.16800596
0000c0 8a 53 dd bc fe c9 57 3d d2 35 1e bc 2b 4d ac 3d
       -0.027017374 0.05268287 -0.009656386 0.08413156
0000d0 b1 3c 1c 3e 66 42 bc 3d e6 49 25 3d 79 b7 e1 bd
       0.15257527 0.09192352 0.04035368 -0.11021323
0000e0 0e ff fa bb 63 a9 d3 bc 2f ac 28 bd dd a9 b1 bc
       -0.0076597994 -0.025837606 -0.041179832 -0.021687442
0000f0 92 e3 a4 bd d0 a8 82 3d e0 b8 53 bd a1 cf fc 3d
       -0.08051218 0.06379855 -0.051689982 0.123442896

actor.preprocess.model.model.2.weight f4 [64, 64]
000000 8e 9a be 3e af a9 37 3e 32 07 84 be d5 84 e3 bd
       0.3722729 0.17935823 -0.2578674 -0.1110932
000010 30 09 bb 3e b1 6e 21 3e ec b2 89 3e 8f c7 93 3e
       0.36530447 0.15764882 0.2689432 0.2886319
000020 bd c5 61 3e 52 26 17 be d2 b5 99 be bf bc 12 3e
       0.22048087 -0.14760712 -0.3002153 0.14329813
000030 ad ae 66 3d 4f 7d 7c bd 70 9e ab 3c eb 65 f4 3c
       0.056318928 -0.06164294 0.020949572 0.029833755
000040 5e 97 29 be e0 e4 79 3d 85 57 98 3e 17 fe 88 3d
       -0.16561648 0.061009288 0.29754272 0.06689089
000050 e3 b8 2f be 82 f2 45 3d 20 0b 07 be 8a 51 8b bc
       -0.17160372 0.048326977 -0.13187838 -0.017006654
000060 d9 23 dc bd f7 ea 4b 3e f6 22 16 be 79 b7 a8 3c
       -0.10749025 0.1991385 -0.14661774 0.0205953
000070 f6 4c 2c 3e 2b f1 85 bc 30 aa 69 be 98 34 80 be
       0.16826233 -0.01635035 -0.22818828 -0.25040126
000080 44 58 1c 3e 83 98 fd bd e5 8d 52 bc ae 45 d6 bd
       0.15268046 -0.12382605 -0.012851213 -0.10462509
000090 9f 24 97 3d 0a 68 4c 3e 77 e5 94 3e ad 93 ad bd
       0.07380032 0.19961563 0.29081318 -0.084754325
0000a0 fb 88 af 3d 9f 50 b1 be cd ce 41 3e da 27 2a be
       0.08571049 -0.34631822 0.18926544 -0.16616765
0000b0 92 85 6d 3e 06 10 03 be 42 8e bc 3d 35 3c cb 3d
       0.23195484 -0.12799081 0.09206821 0.09923593
0000c0 20 10 48 3e 99 31 53 3e 49 5d 71 be 62 40 7d 3d
       0.19537401 0.20624389 -0.23570742 0.06182898
0000d0 58 eb 06 3e f2 00 d1 bc cd fe c8 bd e6 41 4d be
       0.13175714 -0.025513146 -0.098142244 -0.2004467
0000e0 78 37 34 be 40 03 33 bd 82 b4 85 3d 64 13 c7 3b
       -0.17599285 -0.04370427 0.0652857 0.0060753096
0000f0 bb c2 81 bd fd c7 bd 3e a2 91 51 3e 87 73 ac 3c
       -0.0633597 0.3706664 0.20465711 0.021051181
000100 ce 97 ec 3d e3 ff 36 bd de bd 60 3e f6 7b 8f bd
       0.11552392 -0.044677626 0.21947429 -0.070060655
000110 95 3d f5 bd ac 2e c2 be 77 0b 28 3e 74 77 5f bc
       -0.119746365 -0.37926233 0.16410623 -0.01363932
000120 46 ab d0 bd 36 07 0e 3e 85 9f 11 be 02 1e 09 bd
       -0.10188918 0.13869938 -0.14221008 -0.033475883
000130 a9 b8 86 3c fb ed 76 3d 24 ff ae bd 28 2f e0 3b
       0.016445475 0.06028555 -0.08544758 0.006841559
000140 4f 04 d2 3a 80 fd 9d 3d f9 6e b0 3e bc e2 a9 3e
       0.0016023013 0.07714367 0.34459665 0.33180797
000150 5d 98 79 3d 4f 96 44 3d 5c cd 42 3e 92 a4 d5 3d
       0.06093632 0.047994908 0.19023651 0.1043178
000160 f0 f6 77 3e 5e e9 88 3e 4d f2 5a 3e 99 13 dd bc
       0.24215293 0.26740545 0.21381493 -0.026986884
000170 01 0b 85 3e db ed a3 bd 01 22 04 3d 86 bf 29 3d
       0.25984958 -0.08004352 0.03225899 0.041442417
000180 79 0c be bd 1e 1a 4d 3e f9 7e f5 3e 87 74 93 3d
       -0.09279723 0.20029494 0.47948435 0.0719996
000190 6c 03 4e 3e 4f 1c fb bc 34 e1 2c be f9 21 f4 3c
       0.20118493 -0.030653147 -0.16882783 0.029801356
0001a0 a8 64 21 3e 58 b1 a0 be ee af a1 3e 5e 42 94 be
       0.15761054 -0.31385303 0.31579536 -0.28956884
0001b0 3f c5 93 be d0 2a ca 3e 11 cb 05 bd df 14 04 be
       -0.28861424 0.39485788 -0.032664362 -0.12898587
0001c0 c2 3c 1a 3e 7d d5 84 bc e0 a0 97 be 29 59 13 3e
       0.1506224 -0.01621508 -0.29614925 0.1438948
0001d0 aa 36 d4 3d 0a 5e f7 3d 81 08 09 3e 59 1e 87 3e
       0.10361989 0.120784834 0.1338215 0.2639034
0001e0 26 f8 80 bd e6 28 87 3e 3f 14 c7 bd b7 18 f4 3d
       -0.062973306 0.2639839 -0.097206585 0.119187765
0001f0 95 9e a4 bd f8 65 4c be 12 d9 7e be 12 12 a9 bd
       -0.080380596 -0.19960773 -0.24887493 -0.082554
000200 03 c1 25 3e e6 39 ae bd 50 b9 65 3e 70 78 de 3d
       0.1618691 -0.08507137 0.22433972 0.108628154
000210 36 b8 ac 3b 20 6f 2c 3e 0b 5d 35 3d fc 71 4e 3b
       0.005270983 0.16839266 0.044278186 0.0031501045
000220 b3 38 8b 3d a0 4c 64 be 1c 97 84 3e 74 51 69 3e
       0.06797924 -0.22294855 0.25896537 0.22784978
000230 93 dc f2 3d ef c0 38 3e 7e 5e 38 3e be 3b 63 3d
       0.118584774 0.18042348 0.18004796 0.055476896
000240 af 36 ae 3d 5a bb 83 bd 9c a0 79 3e 18 fa 4b be
       0.08506524 -0.06432219 0.24377674 -0.19919622
000250 b9 ee 64 3c 2f 48 d1 be 3c 29 81 3e a6 50 45 bc
       0.013972932 -0.40875384 0.25226772 -0.012043154
000260 23 f4 5a be 70 25 d0 bd 23 a8 99 3e 8e 80 32 be
       -0.21382193 -0.10163391 0.3001109 -0.17431852
000270 ca eb dc bd 83 0f c8 be c8 d8 12 3d 58 85 ef 3d
       -0.10787161 -0.39074335 0.03585127 0.11695355
000280 1b b2 4d bc be c7 fa bd 0c e5 92 bb 3d d3 9f 3e
       -0.012554671 -0.12245129 -0.004482871 0.3121585
000290 8b 41 46 3e 64 cc 33 be ff 6c a0 be c5 05 c3 3e
       0.1936094 -0.17558438 -0.31333157 0.3809034
0002a0 d6 1e 3a 3e a3 b6 3a 3e a5 0b 88 3d 7e d9 f2 bc
       0.18175825 0.18233733 0.06642846 -0.029644724
0002b0 e3 1a 80 3e 4d 98 e2 3d 5f a3 5d be d0 67 31 3c
       0.25020513 0.11064205 -0.21644352 0.0108279735
0002c0 93 78 72 be 9f ce d8 3d 5d 01 94 be 9e 3b 97 3e
       -0.23678808 0.10586285 -0.2890729 0.29537672
0002d0 0e 2d b8 3d e3 93 74 be a4 8b c4 be 13 9b d3 3d
       0.089929685 -0.2388454 -0.38387787 0.103323124
0002e0 59 cd ed bd 93 cc 00 3c 5e ea 66 bd 20 19 0a 3e
       -0.116114326 0.007861274 -0.056375854 0.13486147
0002f0 ca 45 e3 3d 6f c5 44 bb 53 f9 3f 3e 3c fc 66 bc
       0.110972956 -0.0030024906 0.18747453 -0.014098223
000300 cb ec 43 be a4 f2 ac bd 0b 5e 0c 3f 88 07 68 be
       -0.19133298 -0.084447175 0.54831 -0.22659123
000310 25 c1 0c be ab 2d 86 3e 14 47 b9 3e 69 4f 82 be
       -0.13745554 0.26206717 0.3618704 -0.2545121
000320 ad a2 da 3d f5 6f 95 be 90 a5 d8 3e c7 ac 53 be
       0.10675559 -0.2918698 0.42313814 -0.20671378
000330 04 15 85 bc 91 cd 16 be d1 65 70 bd 35 0c d0 3d
       -0.016245373 -0.14726855 -0.05869085 0.10158578
000340 70 32 f9 bb 81 05 0f be 62 9a 5c be 06 dc 8c be
       -0.0076048896 -0.13966943 -0.21543267 -0.27511615
000350 8b c5 e7 bd 82 3a 3d be 3e bd 93 3e 7a 38 31 be
       -0.11316975 -0.1847935 0.28855318 -0.173067
000360 d3 91 80 3d 43 e5 ad 3e 2a 8e a2 bc 4c 1b d3 be
       0.06277814 0.33963975 -0.01984318 -0.41231763
000370 3a b0 ff 3d c8 e5 09 3f 1f 54 c8 bb 7c 5b c4 3e
       0.124847844 0.53866243 -0.0061135436 0.38351047
000380 3e c3 5f be 69 a0 88 be 8c 64 23 3e bb e2 a5 3e
       -0.21851823 -0.26684883 0.15956324 0.32399544
000390 a0 86 b3 3d 28 cd eb 3e 3d b4 6d be 00 0b d9 3e
       0.08765912 0.4605496 -0.23213287 0.42391205
0003a0 cc 77 2c be d1 df 34 be 3c 92 61 3d cf 70 9a be
       -0.16842574 -0.17663504 0.0550711 -0.3016419
0003b0 1f e0 3b be 85 5a 32 bf d3 c3 81 bd 0d d7 23 3e
       -0.18347214 -0.6966937 -0.06336179 0.16000004
0003c0 04 1a a4 be 56 18 94 3e 9e b4 0d be 7b 28 ac 3e
       -0.32051098 0.28924817 -0.13838431 0.33624634
0003d0 26 24 80 3e c6 46 01 be c1 ea e5 bd fa 4f da be
       0.2502758 -0.12624654 -0.112264164 -0.42639142
0003e0 1d 91 0a be 44 02 12 be d6 5d 50 be 63 98 5c bd
       -0.13531919 -0.14258677 -0.20348296 -0.053856265
0003f0 12 f8 58 3c e6 b1 8c be d5 4d cb be 70 6e 69 bd
       0.013242738 -0.27479476 -0.3970782 -0.056990087

actor.preprocess.model.model.2.bias f4 [64]
000000 0a bc fa bc 16 93 b5 bc f8 26 86 3c c4 f8 14 3d
       -0.030607242 -0.022164863 0.016376004 0.036370054
000010 b5 54 92 3c 00 34 40 3c 74 44 0e bb dd b1 cc bd
       0.017862657 0.011731148 -0.0021708282 -0.09994862
000020 4d fb e2 bc ff 3a e2 3c ac d2 fd ba cf ba 66 3d
       -0.02770772 0.027616022 -0.0019365153 0.0563305
000030 1c ba 64 3a 2b fd c0 bc b0 b3 70 bd 3a 9a 0c bd
       0.0008725242 -0.02355822 -0.058765113 -0.03432677
000040 79 77 0b 3d 04 cb 3f 3c bb dc 3b bd 7d ea c2 3c
       0.034049485 0.011706118 -0.0458648 0.023793453
000050 20 25 cd bc 3d 69 50 3c c7 d2 59 3d 64 4b a8 3d
       -0.025042117 0.012720403 0.05317953 0.082175046
000060 c6 9e 54 3b a7 27 65 bd 03 e9 ba 3c 64 d3 bd bd
       0.003244327 -0.05594602 0.022816187 -0.09268835
000070 3f a8 b9 bc a8 62 8f 3d 66 46 13 3b 67 db 5e bd
       -0.022663234 0.07001239 0.002247238 -0.054408457
000080 64 76 98 3b 55 a8 a2 bc 60 fd 8e 39 63 50 e0 bb
       0.004652785 -0.019855658 0.0002727313 -0.0068455203
000090 32 f3 39 3d d2 90 00 3e d5 a9 60 bd 3e cb 8f bb
       0.045397945 0.12555245 -0.054849464 -0.004388242
0000a0 c1 eb 2b bd d8 7e 8b 39 a3 bb 08 bd d5 b5 c6 bc
       -0.04197288 0.00026606652 -0.03338207 -0.024256626
0000b0 c6 b7 a5 3d 4d 74 46 bc 46 d7 cd 3c 9c e2 28 bd
       0.080916926 -0.012112689 0.025127064 -0.041231737
0000c0 ed fe 82 3b 65 c7 8c bb d3 90 bb bd d0 d3 57 3d
       0.0039976747 -0.0042962306 -0.091584824 0.052692235
0000d0 a5 7e 56 3a ec 89 9a bc 39 22 f5 3c 30 c3 a8 3c
       0.00081823237 -0.018864594 0.029923545 0.020600885
0000e0 d0 ea b9 3d eb e2 50 be db 60 04 bd 96 9f 9b 3d
       0.0907799 -0.20399062 -0.03231893 0.07598798
0000f0 3c b6 30 bc 90 4d f0 bc 9b 56 20 bd 34 f8 1d 3d
       -0.010785636 -0.02933386 -0.039145093 0.038566783

actor.mu.model.0.weight f4 [2, 64]
000000 43 3e f5 3b e2 00 de 3e 8e 74 ae bd ce f9 7a be
       0.007484229 0.4336005 -0.08518325 -0.24509355
000010 b2 4f f2 bd 06 ed 50 be c2 6b f4 3d a9 8e 05 bf
       -0.11831607 -0.20402917 0.11934616 -0.5217081
000020 bf 8f 61 3e 7a e7 31 3b 5c 0e 5f 3e 58 5c 7e bd
       0.22027491 0.0027146027 0.21782821 -0.062099785
000030 b1 05 9e bd d9 72 b1 bd 29 76 5e bd 93 7d 92 3e
       -0.07715929 -0.086644836 -0.054311905 0.2861143
000040 72 56 1a be f3 52 e0 bc 04 5e 84 be e5 b6 f5 bd
       -0.15072039 -0.027383303 -0.25852978 -0.11997775
000050 39 c2 72 3e 73 35 87 3e 12 e2 1f be 1d 54 78 3e
       0.23706903 0.26407966 -0.15613583 0.24250837
000060 28 1e c2 bd 0d ed db bd 32 61 9a 3e 82 2c 29 bc
       -0.09478408 -0.10738573 0.3015228 -0.010325553
000070 be a1 1c be 95 f6 f2 3e 64 fb 0c bd 73 33 c8 3d
       -0.15296075 0.47453752 -0.034419432 0.09775438
000080 f3 85 00 3e 4c f9 08 be b9 0b 97 3e 1c a2 21 bc
       0.12551098 -0.13376349 0.2950113 -0.00986531
000090 e6 28 00 be c2 00 68 3e 85 e7 fb 3e 25 82 29 be
       -0.12515602 0.22656539 0.49200073 -0.16553552
0000a0 9f 86 42 3d df a8 3d 3e c2 1d 32 3e c5 ed 17 bd
       0.047491666 0.1852145 0.17394164 -0.03709199
0000b0 d3 30 87 3e 14 4d 67 3e e6 19 6f bc 16 0d 2d 3d
       0.26404437 0.22587997 -0.014593577 0.042248808
0000c0 78 da 0a 3e 5a 73 d6 be 27 a0 9e 3e 09 c4 3a bd
       0.13559902 -0.4188488 0.30981562 -0.04559711
0000d0 a7 a0 f6 3d 44 f2 0f be 2b 76 39 3e cf b7 a2 be
       0.12042361 -0.14057261 0.18111484 -0.3178086
0000e0 8c 17 fa be 01 59 1c 3e 73 55 73 3c f5 19 de 3d
       -0.4884609 0.15268327 0.014851916 0.10844795
0000f0 9e 4e c4 3d 49 61 4f 3e a4 24 fc bb aa bf 84 3e
       0.095853075 0.20251955 -0.0076947976 0.25927478
000100 e8 b3 53 be e2 af 9d 3e 98 da c4 3e 0e fd 9a 3f
       -0.20674098 0.3079825 0.38448024 1.2108476
000110 e9 d5 60 3e 41 4e 97 bd 0d 1a 12 bd be 60 2b be
       0.219566 -0.073879726 -0.035669375 -0.16736123
000120 76 97 8b 3e a1 2b 1e 3c 39 ed d3 3d 12 c2 96 3d
       0.27263993 0.009653957 0.10347981 0.07361235
000130 3a f2 2d 3d 12 d9 8e 3e f8 55 a4 be 94 30 e5 bd
       0.042467333 0.27899987 -0.3209684 -0.11190906
000140 6a df a4 be ad ab 34 be 8d d1 4c 3d 32 bd bc be
       -0.322017 -0.17643614 0.05000453 -0.36863095
000150 6c 68 e1 3d 2c b9 56 3e 95 f7 84 3e 09 a5 e2 3e
       0.11006245 0.20969075 0.2597014 0.44266537
000160 4a 72 3d be 9e 26 fd bd f6 89 65 3e 16 8c ae 3e
       -0.18500629 -0.12360881 0.22415909 0.34091252
000170 ed 63 09 be 68 25 b9 3e a8 98 1e be 12 e6 df bc
       -0.13417025 0.3616135 -0.15487921 -0.027331386
000180 a1 d6 24 bd 81 72 b4 bd 76 94 88 3e 77 00 02 3f
       -0.04024375 -0.088109024 0.26675767 0.5078196
000190 38 f2 f6 bd 85 cb fc be ab ae 03 3e 6c 29 5c bc
       -0.12057918 -0.49374023 0.128596 -0.01343761
0001a0 d8 f0 b4 be f1 e3 75 3e c5 38 9f be d4 53 b5 bd
       -0.3534 0.24012734 -0.31098 -0.088538796
0001b0 a3 bb 02 3f ff e2 60 3e 06 ce d1 3c 35 7a 19 3d
       0.5106756 0.21961592 0.025610935 0.03747006
0001c0 9b 48 a4 3c 8b 6a 30 be 5d dc 2d 3e aa 24 7e be
       0.020054152 -0.17228143 0.16978593 -0.24818674
0001d0 e8 88 97 bd 84 1e c0 3d 40 b3 17 3d 89 ef a0 3d
       -0.0739916 0.093808204 0.03703618 0.07858188
0001e0 92 7e 26 3f 2d 9c 92 3e d2 12 62 bd 69 e1 da 3e
       0.6503688 0.28634778 -0.05519373 0.427501
0001f0 53 43 13 bc 55 89 98 3d 2b 31 83 3e 17 a9 73 3e
       -0.008988219 0.07448069 0.2562345 0.23794971

actor.mu.model.0.bias f4 [2]
000000 14 a0 1a be 48 d5 41 3e
       -0.15100127 0.18929017

critic.preprocess.model.model.0.weight f4 [64, 8]
000000 fd c1 c6 be 19 de 10 3f cf 41 f7 3d 3e c9 37 3e
       -0.38819876 0.56588894 0.12073099 0.17947862
000010 28 ff 80 3c 74 04 3e bd 86 80 20 3e 0f 66 20 be
       0.015746668 -0.046390966 0.15674028 -0.15663932
000020 4e f9 27 bf 83 bf 5c be 45 88 46 3c ea ff 0f bf
       -0.65614784 -0.21557431 0.01211745 -0.5624987
000030 a7 a2 92 bd 73 2c 71 bd 49 39 64 be 79 63 db bd
       -0.0715993 -0.05888028 -0.22287478 -0.10712332
000040 0e f7 0b bf 96 88 76 3e 1e a9 a1 3b 12 28 f7 be
       -0.5467385 0.24075541 0.0049334904 -0.4827276
000050 b6 87 30 bc a5 5e eb bd 8a a6 5b 3d 8a 75 81 bd
       -0.0107745435 -0.114926614 0.05362562 -0.06321247
000060 65 7b b4 be 71 65 ae bd e2 94 bb bd 5b e3 e8 3e
       -0.35250393 -0.08515442 -0.091592565 0.45485958
000070 a4 9f a5 3f a4 06 f3 b9 05 94 03 3f 18 e3 51 3e
       1.2939343 -0.0004635352 0.51397735 0.20496786
000080 f2 10 0f 3f 49 21 5d be 10 05 22 be e4 e5 02 3d
       0.5588523 -0.21594729 -0.15822244 0.031957522
000090 bc 41 23 bd f1 61 b4 bd b8 01 95 bd 2e b7 16 3c
       -0.03985761 -0.08807743 -0.072757185 0.009198947
0000a0 ee f3 e1 3e f0 a5 d1 bd 29 6d 43 3d ba d2 02 3e
       0.44131416 -0.10236728 0.047711525 0.12775698
0000b0 22 70 f4 be 03 90 f9 bd b0 f3 e3 be 88 92 cc be
       -0.477418 -0.12185671 -0.44521856 -0.39955544
0000c0 47 85 2d 3f 4a 84 04 be 28 35 c0 bc f2 01 d6 3d
       0.6778149 -0.1294109 -0.023462847 0.1044959
0000d0 0a 1b 38 3e 20 ea 4f 3c fc 26 50 be 2a f4 40 bb
       0.17979065 0.012690097 -0.20327371 -0.0029442408
0000e0 34 0e 2f bf 18 ac 92 bd 82 27 64 be 46 7b 1b be
       -0.6838105 -0.071617305 -0.22280696 -0.15183744
0000f0 48 8a a9 be b5 60 95 3e 66 5c 2b 3d 9b db 77 3e
       -0.33113313 0.29175344 0.041836165 0.24204867
000100 42 b9 5d bf 6c e1 03 bc 12 a5 16 3f b3 84 e6 bd
       -0.86610806 -0.00804935 0.5884563 -0.11255779
000110 16 43 29 3b ab 6a 06 bd 76 53 c9 bd 82 01 d6 3d
       0.002582734 -0.03281657 -0.09830372 0.10449506
000120 7a cc 1a bf 8c b1 08 be 3a 94 a6 3e 28 97 b1 bc
       -0.60468256 -0.13348979 0.32534963 -0.021678522
000130 48 d1 81 be 9d 71 30 3d af c6 a6 3e db a2 da 3d
       -0.2535498 0.0430771 0.3257346 0.106755935
000140 de 90 66 3e 0e 50 20 3d 04 ff 73 be 8e 49 ed 3d
       0.225162 0.039138846 -0.2382775 0.11586295
000150 59 13 16 be 28 bb 9d 3e 11 a5 74 be f6 af 7e 3d
       -0.14655818 0.3080685 -0.23891093 0.06217953
000160 91 6f 49 3f 85 f1 a9 be 9d b1 1b bd 3d 3e b8 bd
       0.7868586 -0.33192077 -0.038011182 -0.08996246
000170 f3 41 15 bd 5e a9 e3 3d 06 fe ad 3d af df 64 3c
       -0.036439847 0.111162886 0.08495717 0.013969346
000180 e4 d8 f5 be 7d 22 bd 3e a5 a8 8e be 4a 62 94 bd
       -0.48017037 0.36940375 -0.2786304 -0.0724531
000190 07 e0 bb 3e a6 ed f3 bd b1 d1 85 3e 15 77 ec 3d
       0.36694357 -0.11910562 0.26136544 0.115461506
0001a0 e8 29 8a 3d b6 2a 00 be 58 4e b9 be e5 f8 08 bf
       0.06746274 -0.12516293 -0.36192584 -0.5350478
0001b0 b5 e3 d8 3e 7b 6f df be 9b 64 dc bc 6e 52 07 be
       0.42361227 -0.4363974 -0.026903441 -0.13215038
0001c0 ac a8 09 3f f5 d3 2b be 97 70 e7 be 2d 09 0c be
       0.53773 -0.16780074 -0.45203087 -0.13675375
0001d0 b8 06 2d 3e 53 2d 0c 3e e8 19 9d bd 4b 15 0c 3d
       0.16897094 0.13689165 -0.07670957 0.034199994
0001e0 ac 97 02 bf b3 c7 91 3e bd 50 04 bf 88 82 38 3e
       -0.5101268 0.2847267 -0.51685697 0.18018544
0001f0 1c 06 9f 3e 7e de 2d be 0e 6b 84 bd 9e 18 bb 3c
       0.3105935 -0.16979405 -0.064657316 0.022838887
000200 cd 51 16 bf 63 b5 63 be 8d 64 f0 3c fc 35 fc be
       -0.5871857 -0.22237162 0.029344821 -0.49259937
000210 5c 89 a6 3d a9 91 db bd e6 e8 19 3f cf b3 9d be
       0.08131668 -0.10721142 0.60121 -0.30801246
000220 0c ae 39 be 71 dc de bd 9a 5b 1e 3f 66 dc 1b bd
       -0.181328 -0.108818896 0.6185852 -0.038051985
000230 f2 99 9c 3e 57 c2 5c 3e d8 2f 7a bd 58 42 bc bd
       0.305862 0.2155851 -0.061080784 -0.091923416
000240 a2 d8 74 3e 3b b5 0e be 1d 92 66 3e 6b 5a 88 3e
       0.23910764 -0.13936321 0.22516675 0.26631483
000250 65 fc 1c 3e 9c 9a a8 3d 3a ba 7d 3e dd 68 ee bd
       0.15330656 0.082326144 0.24778071 -0.11641095
000260 a4 bf 5c be 6a 62 2c 3e 31 fe ea bd d5 8c f4 bd
       -0.2155748 0.16834417 -0.114742644 -0.11940924
000270 b2 be ed 3e 62 d9 25 bf 20 7b 94 3e 7f c3 88 3d
       0.4643455 -0.64784825 0.29000187 0.06677913
000280 17 a8 0d 3f ef 87 27 be 3d 9a 62 3d 59 b9 31 bc
       0.5533461 -0.16360448 0.055322874 -0.010847413
000290 09 63 a3 3e ee 43 56 3e a1 7a 84 bd 03 c3 c6 3d
       0.31911495 0.2092435 -0.06468702 0.09705164
0002a0 35 c4 19 bf d5 fa ff 3d 79 4a a6 3e 6e ce 89 bc
       -0.60065013 0.12499014 0.32478693 -0.016822066
0002b0 b7 72 2f be 01 cb 75 bd 22 67 45 3e 12 f6 be 3d
       -0.17133604 -0.060008053 0.19277623 0.09324278
0002c0 6e d5 19 bf e0 94 98 3c f8 55 e4 3d 32 ac 9b bd
       -0.6009129 0.018625677 0.1114921 -0.07601203
0002d0 a6 e9 4c be d1 a8 51 be d5 30 9b bd 58 c9 37 be
       -0.20011005 -0.20474555 -0.07577673 -0.179479
0002e0 5b 69 08 3f 9e 74 5a 3d 71 82 cc 3d ba 48 a8 3b
       0.5328576 0.05333387 0.09985817 0.005135623
0002f0 98 01 61 be 66 39 14 be f8 f7 14 3e 7d f6 72 3d
       -0.21973264 -0.14475021 0.14547718 0.0593171
000300 03 5a d2 3e a4 63 27 be 2b 45 27 bf b3 2c bb bd
       0.41084298 -0.16346604 -0.65339917 -0.09139385
000310 d5 65 2c 3e 1d 1c 67 3e 99 55 47 bc 65 0e d9 bd
       0.16835721 0.22569318 -0.012166404 -0.10598449
000320 79 3f 2a 3f 53 41 08 bd 94 88 39 3e f1 e6 fc 3c
       0.665031 -0.033265423 0.18118507 0.03087184
000330 2b d6 0a bf a8 a4 b6 3d e7 31 ba bd 94 9c 33 be
       -0.54233044 0.089181244 -0.09091549 -0.17540199
000340 97 9e a9 be dd ba 87 3d 03 ec 01 be a6 91 fc 3d
       -0.33128807 0.06627438 -0.12687688 0.12332468
000350 03 34 41 3e 75 ec e5 bc a6 d6 b2 bd aa 1e 86 3e
       0.18867497 -0.028066853 -0.08732347 0.2619527
000360 d6 08 1c 3f 59 ed fe be f7 db 9d bd f6 52 4f be
       0.6095098 -0.49790457 -0.077079706 -0.20246491
000370 3e 6a 7c 3e d8 3e 95 bd c2 c0 ab be f2 86 1f 3d
       0.24649903 -0.07287377 -0.335455 0.038947053
000380 19 92 6f 3b d1 bc 4e 3d 23 11 09 bd 1e 54 84 bc
       0.0036555587 0.050473038 -0.03346361 -0.016153391
000390 04 9e a5 be 41 5e 0b be d7 fe 3a 3e 88 db 0a 3e
       -0.3234712 -0.13610174 0.18261276 0.13560307
0003a0 c7 32 2a 3f c8 9a 87 3c 0c 2c d1 3d 01 ca 63 be
       0.6648373 0.016553298 0.102134794 -0.22245027
0003b0 f7 d9 a5 3e a0 f6 00 bd d6 f0 3f 3d 9a ff 96 3d
       0.32392856 -0.0314852 0.04686054 0.07372971
0003c0 bf 43 dd 3e 6c f6 29 be 74 73 b7 be 91 ea 1d be
       0.4321575 -0.16597909 -0.3583027 -0.15421511
0003d0 a1 c3 3e be e3 e8 09 be 5b 4c 93 bd 16 1f 99 bd
       -0.18629314 -0.13467745 -0.07192298 -0.07476632
0003e0 1a cd 0e bf a0 7c 71 3e 56 ad 58 be 5a 89 70 3e
       -0.5578171 0.23582697 -0.21159872 0.23489895
0003f0 96 1b 43 3e 01 35 c9 3c f7 95 99 3e a2 fe f7 3d
       0.19053492 0.024561407 0.29997227 0.12109114

critic.preprocess.model.model.0.bias f4 [64]
000000 e0 35 cc 3e e7 85 fa 3e 75 40 12 3f a9 8b 6b 3e
       0.39884853 0.48930284 0.57129604 0.23002495
000010 f2 1b 2e 3f 3f 99 b2 3d 5e 99 ee 3e f6 e0 f1 bd
       0.6801139 0.087206356 0.46601385 -0.11810486
000020 3f 33 99 bc 4e 0b 88 be 3d e4 81 bc f9 5d 22 3f
       -0.018701194 -0.26571125 -0.015855903 0.6342464
000030 9b f8 00 3e d0 c3 88 be a8 45 ff be 15 35 e3 3d
       0.12594835 -0.26711893 -0.4985783 0.11094109
000040 27 a9 be bc 05 60 00 3f 9c 62 86 be c9 11 45 3d
       -0.023274017 0.50146514 -0.26247108 0.048112664
000050 33 c5 bf be 19 4c 25 bf f3 c1 65 be 6b 0b 1d bf
       -0.3745514 -0.6456924 -0.22437267 -0.6134555
000060 9d 28 80 be 56 f8 24 bd 74 b0 64 be fc 56 bd be
       -0.25030985 -0.040275894 -0.22332937 -0.36980426
000070 ee e0 14 3f 38 5f 73 3d 15 84 15 3f 71 b1 71 be
       0.58155715 0.05941698 0.58404666 -0.23602845
000080 fd 04 0b bf a4 3e da bd 64 a8 91 be bf ad 91 ba
       -0.54304487 -0.10656479 -0.28448784 -0.0011114402
000090 71 21 1b be 16 8d aa be e2 60 22 bf b3 cd a3 3e
       -0.15149476 -0.33310765 -0.6342908 0.31992874
0000a0 e5 f3 ea bd 11 f2 58 3e 12 c5 b4 3d a0 09 d3 3d
       -0.114723004 0.21186091 0.08826651 0.1030457
0000b0 f2 7c a3 be c5 4e bb be 9a 80 20 3f df a6 a8 be
       -0.31931263 -0.36583534 0.6269623 -0.32939813
0000c0 16 38 ed 3e 54 ac c4 be d0 ea 03 be e8 d0 89 be
       0.46331853 -0.38412726 -0.12882543 -0.26917195
0000d0 30 b7 1f 3f 13 fb 81 bc 13 20 15 3e b3 7d 21 3f
       0.62388897 -0.015866792 0.14563017 0.63082427
0000e0 99 af ae 3e bd ff bc 3e a4 5e 33 bf ea e5 84 3e
       0.34118345 0.36913863 -0.70066285 0.2595666
0000f0 4e d9 93 be d5 d6 b4 3e ae a3 9b 3e d5 19 e8 be
       -0.28876728 0.35320154 0.30398315 -0.45332208

critic.preprocess.model.model.2.weight f4 [64, 64]
000000 4d f0 f4 3e a6 94 e8 3d f7 07 71 3e b8 25 cc 3d
       0.47839585 0.113564774 0.23538195 0.09968132
000010 87 80 66 3e ee 4d 7e 3d f7 33 02 3e bd 2b 1f bd
       0.22509967 0.06208604 0.12715136 -0.03886007
000020 5d 02 a8 3e de b4 32 bd b7 e4 f2 bd e1 cc 90 bc
       0.32814303 -0.04362952 -0.1186003 -0.017675819
000030 0d bc 88 3e 59 58 e0 3c 44 29 9e 3a 16 4b c7 3d
       0.2670597 0.027385877 0.0012066741 0.097311184
000040 e5 22 e9 3d fd 90 b2 3e 2c 3b 1e be 40 a4 48 bc
       0.11383609 0.34876242 -0.1545226 -0.0122461915
000050 66 d4 69 be 33 34 89 be d1 73 b5 3c aa 02 89 be
       -0.2283493 -0.26797637 0.022149952 -0.26759845
000060 00 15 13 be ab 1a c1 3d 29 7c 87 3e 8e 16 31 bf
       -0.1436348 0.09428915 0.26461914 -0.6917504
000070 3b c1 ae 3d bb 24 44 be 5c c1 18 bb 14 77 22 be
       0.085329495 -0.19154637 -0.002330861 -0.15865737
000080 f7 30 ef be 0d ed f4 be 0d 55 b4 3d a7 33 b3 bc
       -0.46717045 -0.47837105 0.08805285 -0.021875216
000090 c3 a2 97 bd 7d d1 9d be 2d 7c f5 be 4d f6 f8 3d
       -0.07404091 -0.3082389 -0.479463 0.12156353
0000a0 c6 94 79 be 07 20 d2 be bd bd dd 3c cf 59 44 3e
       -0.24373159 -0.4104006 0.027068013 0.19174884
0000b0 09 37 e1 3c bc 34 6b bd df 93 77 bb c5 71 f2 3e
       0.027492063 -0.05742334 -0.0037777347 0.47352424
0000c0 22 62 a1 3e c9 68 68 be 62 09 ba be 8d 57 3f be
       0.31520182 -0.22696222 -0.36335284 -0.18685742
0000d0 eb a0 9a be 6e 32 9f 3e 2e 4e dc 3d 34 ad 9d bc
       -0.30200896 0.31093162 0.10757099 -0.019247629
0000e0 ca fa 83 3e 13 dc b7 bc 22 60 a5 be b1 b9 6f 3e
       0.25777274 -0.022443807 -0.32299906 0.2341068
0000f0 f0 4a a0 3e 95 9e 3e 3e 06 1e f5 3d 17 ae 85 be
       0.31307173 0.18615182 0.11968617 -0.26109383
000100 2f 55 e0 3d 6d 31 fa 3d 64 5f 33 3e d8 d9 b8 3e
       0.109537475 0.122164585 0.17516857 0.36103702
000110 c5 5c de 3e 5f c5 24 be 9d b9 d7 3d 04 47 ec 3d
       0.43430153 -0.16090916 0.1053345 0.11536983
000120 41 e5 ef bd 08 6f 61 3d 76 ec c4 3d d8 30 b3 3d
       -0.117136486 0.05503753 0.09615414 0.087495506
000130 22 0d 9e 3d da 6c 63 3c 3b b1 03 bf 72 c4 2c 3e
       0.07717349 0.013880933 -0.5144231 0.16871813
000140 7f 2c c0 3d b1 e0 b3 3e f9 e2 b4 bd 9c e4 ef 3d
       0.09383487 0.35132363 -0.08832354 0.11713526
000150 15 68 9f be 46 b9 23 3d 91 bb 9d 3e 2f db e3 be
       -0.31134096 0.039971612 0.30807164 -0.4450316
000160 8f e4 a6 bd cc da 00 bd 52 6f a1 bd e9 85 6d bf
       -0.08149063 -0.03145866 -0.07882561 -0.92782456
000170 fe 26 af 3e b5 d2 81 be 20 51 81 bd 7f 6e c4 3e
       0.34209436 -0.2535607 -0.063143015 0.38365552
000180 53 72 07 be ee 84 c4 be b3 7f 7f ba 0e 62 50 3e
       -0.13227205 -0.38382667 -0.00097465067 0.20349905
000190 03 aa 78 be 94 e3 3d bd 8b 94 21 bf cf 02 68 bd
       -0.24283604 -0.046359614 -0.63117284 -0.056643303
0001a0 c0 ec 3c 3c fe ff 83 be 26 9e 85 be 0b e0 8b 3d
       0.011531055 -0.25781244 -0.2609722 0.06829842
0001b0 11 1b f0 3d ca 5f 8f be a8 ca 78 be 94 b7 29 be
       0.117239125 -0.2800277 -0.24296057 -0.16573936
0001c0 e9 39 4b 3e d9 d0 19 3e e0 ff 1b be 21 5d d9 be
       0.1984631 0.15021075 -0.15234327 -0.42453864
0001d0 1d ae 53 3e 43 ff fa bc aa ec 60 3d 33 7d d1 3e
       0.20671888 -0.030639296 0.0549132 0.40915832
0001e0 67 2f 5d 3e 8c 2c 46 bd 88 be a9 bd de 37 ce bc
       0.21600114 -0.048382327 -0.08288294 -0.025173124
0001f0 ab 82 7e 3e 40 13 b3 3e 92 0d da 3d cc 0a 04 bf
       0.24854533 0.34975624 0.106471196 -0.51578975
000200 9f f6 8b be ad 93 ff 3d 28 04 32 3a c6 d9 af 3e
       -0.27336594 0.12479339 0.00067907805 0.34345835
000210 bc 5d df be eb 3a bd be 15 08 fc be a7 6b cf 3e
       -0.436262 -0.36959013 -0.49224916 0.4051182
000220 61 ad 34 3e 15 a3 a6 3e 7a 04 81 bd 2b 89 ef bd
       0.17644264 0.32546297 -0.06299682 -0.116960846
000230 0a 5b 71 3e a1 3c a8 bc 87 ac 69 3d 1d da 50 be
       0.23569885 -0.020536723 0.0570493 -0.20395704
000240 d2 c8 8b 3e 8d 92 73 3e d2 07 59 3e 47 06 e7 3e
       0.2730165 0.23786373 0.2119439 0.45121977
000250 87 77 80 be dd 48 47 3d 28 d1 44 3e 4a 24 4f 3e
       -0.25091192 0.048653472 0.19220412 0.20228687
000260 61 ca c0 bd 3e 5f 43 be 93 71 9f bd 6e 66 21 be
       -0.09413601 -0.19079301 -0.077853344 -0.1576173
000270 03 27 c6 be 10 2d da 3e 22 09 32 bd 4e 9f 16 bd
       -0.3870164 0.42612505 -0.04346574 -0.03677302
000280 c3 3c 04 3f a7 9b e8 be 7f 67 b9 3e 54 b1 66 3e
       0.51655215 -0.45431253 0.36211774 0.22528583
000290 44 59 0b 3d b7 5e fa 3c 31 cc 6d 3d a3 97 1a be
       0.034020677 0.030562742 0.05805606 -0.15096907
0002a0 38 00 5a 3e a2 b3 02 3e 80 9b 77 3e 47 5a a4 3e
       0.21289146 0.12763837 0.24180412 0.32100126
0002b0 fc 7d 69 3e c5 e4 59 3e a9 50 8b 3e e6 3f 16 3e
       0.22801965 0.21278675 0.27209976 0.14672813
0002c0 40 6d f0 3e 92 2e 09 be 78 c3 6d 3e a7 bc f4 3d
       0.4695835 -0.13396671 0.23219097 0.11950045
0002d0 e2 3e b4 3e 41 1d ae bd 3f b0 c1 3e 5f 86 94 bd
       0.35204226 -0.085016735 0.37829778 -0.07252192
0002e0 eb af 7a be b0 58 f6 be b8 b5 0f 3c 91 68 bb bd
       -0.2448117 -0.48114538 0.0087713525 -0.09150804
0002f0 d0 3e 81 3e 7e 10 ab be 3b 31 2b be e4 ac 9e be
       0.25243235 -0.3341102 -0.16717999 -0.3099128
000300 4d 0a 3d be db c5 82 be b3 69 c2 bd 66 65 90 bb
       -0.1846096 -0.25541577 -0.09492817 -0.004406619
000310 87 db 0b 3f 25 3f f7 bc 7c b0 2e 3f fc 93 ba be
       0.5463185 -0.030181477 0.68238044 -0.36441028
000320 fd 18 9c be 5e 99 06 bf 33 63 03 3f 1b 94 e9 3e
       -0.30487815 -0.5257777 0.5132324 0.45620808
000330 fc ec 6f be 40 93 5f be 3d 17 a8 3e 23 83 9f be
       -0.23430246 -0.21833515 0.3283023 -0.31154737
000340 c1 0f b5 bd 90 1d 0f be ea b8 54 bd 95 0d 99 be
       -0.088408954 -0.13976121 -0.05193416 -0.29893175
000350 d8 5e 72 3e 3f 27 a2 be 2f 26 f6 3d b8 a2 4a be
       0.23668993 -0.31670567 0.12019002 -0.19788635
000360 90 67 e1 3d 70 b2 46 3e 7d c9 27 bb 65 1c 7f 3e
       0.11006081 0.19404006 -0.0025602274 0.24913175
000370 b1 40 19 3c 23 e1 60 3e dd 9d 32 be df 9d db 3d
       0.009353803 0.21960883 -0.17443033 0.10723471
000380 ab 26 0e be c3 02 ee 3d 63 eb 57 be ce f4 26 be
       -0.13881938 0.116216205 -0.21085887 -0.16304323
000390 80 10 eb 3e 1c bb 1e 3e e8 e6 51 3d 00 bc f1 bd
       0.45911026 0.15501064 0.0512456 -0.11803436
0003a0 86 8d 28 3e 12 5a 09 3a 4f fc 3f be 05 1a a8 bd
       0.16460237 0.0005239557 -0.18748592 -0.08208088
0003b0 5a 60 29 be 69 91 a9 be 5e 00 3f 3e e9 44 64 be
       -0.16540661 -0.33118752 0.18652484 -0.22291912
0003c0 5d 9c 29 3f ce 84 5c 3e b9 9f 36 be 57 9f 4a 3e
       0.66254216 0.21535036 -0.17834367 0.19787346
0003d0 d5 f0 8b be 0e 0d d9 3c 3a 9b b2 bd f6 3e c0 3d
       -0.27332178 0.026495483 -0.08721013 0.09387009
0003e0 70 98 19 3e 6c ef 3a 36 93 ca df be 89 8c 1f 3e
       0.14999557 2.7855522e-06 -0.4370924 0.15580954
0003f0 f4 bd 8e be c4 d1 b6 3d 26 5c 24 be 96 32 48 3d
       -0.27879298 0.08926728 -0.16050777 0.048876368

critic.preprocess.model.model.2.bias f4 [64]
000000 60 17 e9 3e ea 21 fa 3e fe 59 c6 be eb 04 b7 3e
       0.45525646 0.48854 -0.38740534 0.3574594
000010 a0 bc 9a be 35 9d d0 bd e6 c7 de be cb f1 a0 be
       -0.30222034 -0.10186235 -0.43511885 -0.31434473
000020 47 e8 3a bf 87 11 07 bf 4c 02 80 be 0d f9 4f 3d
       -0.7301068 -0.5276112 -0.25001752 0.050774623
000030 3c e9 fd 3e 82 b4 8b be 02 f8 2e bd 78 30 c4 3d
       0.49592006 -0.27286154 -0.042716987 0.09579557
000040 8f d6 d6 be 8a b4 f7 3e 07 cb f3 3e b5 24 f9 be
       -0.4196057 0.48379928 0.47615835 -0.48660818
000050 d7 b7 d6 3e 1c e3 c6 3e 3c 5d 9a be 05 75 a6 3e
       0.41937134 0.38845146 -0.30149257 0.32511154
000060 08 8a f0 3e 99 5d 11 3f 1a ca 35 3d 5d 16 ba 3e
       0.4698031 0.56783444 0.044382192 0.36345187
000070 32 6a d3 3e 79 28 38 3d 80 3f 43 3d 0c 2f ce be
       0.41291958 0.044960473 0.04766798 -0.4027027
000080 8f f0 a4 3e c4 3e f5 3d 9f c5 77 3d ca 08 c0 3c
       0.32214782 0.11974862 0.0604912 0.023441691
000090 ae 54 09 bf 33 c2 21 be 1b f9 ca be f2 e5 9c 3e
       -0.53644836 -0.15796737 -0.39643177 0.30644184
0000a0 1f 9c 36 3e dc 59 c5 3d 1d 85 a2 3d 5b c6 b6 3e
       0.17832993 0.0963628 0.079355456 0.35698208
0000b0 4b 00 f3 3e 65 d6 3a bd c8 69 dd be aa 10 b7 be
       0.4746116 -0.04561462 -0.43244767 -0.357549
0000c0 3f 08 0e bf 6b 1c 95 3d 1f cf ad 3d e0 f1 cb bd
       -0.5548133 0.07280811 0.08486771 -0.09958243
0000d0 b5 b3 92 be 9d 8b a7 3d 9b a2 f7 be 83 cc 2a 3e
       -0.2865273 0.08180926 -0.48366246 0.16679578
0000e0 e1 35 ac 3e 00 3c b4 3e 5e a2 cc bd 96 0b ce 3e
       0.33634856 0.35202026 -0.099919066 0.40243214
0000f0 fe ad 0b 3f c8 e8 9b be 8a 2f 23 3f 69 1c 93 3d
       0.54562366 -0.30451035 0.63744414 0.07183153

critic.last.model.0.weight f4 [1, 64]
000000 1a 0a 76 3e 66 74 b3 3e ce 93 1a be a5 23 93 3e
       0.24027291 0.35049742 -0.15095446 0.28738132
000010 f4 7b a0 be 05 6e 70 3e 45 7b f4 bd 8f 62 9f be
       -0.3134457 0.23479469 -0.11937574 -0.31129882
000020 f7 10 44 be 3b 07 8f be b6 e5 1c be dd a1 27 be
       -0.19147097 -0.27935204 -0.15322003 -0.1637034
000030 af 68 2b 3e 20 45 61 be f0 ef e3 3e 34 1e 18 3e
       0.16739152 -0.21999025 0.44518995 0.14855272
000040 b0 2d 71 bf 6f b1 77 3e 78 99 49 3e 7a 64 9b be
       -0.9421034 0.2418878 0.1968745 -0.30350095
000050 48 69 64 3e 57 f2 8c 3e ea 07 03 be 10 0b 9d 3e
       0.22305787 0.2752864 -0.12795988 0.30672503
000060 a5 2c 91 3e d3 9c 26 3e e3 9c 96 3e b1 7b 30 3e
       0.28354374 0.16270761 0.2941657 0.17234685
000070 7e b5 89 3e 3d 7b 6c 3e 89 40 9c 3e 9d 6d d1 be
       0.2689628 0.23093887 0.30517986 -0.4090394
000080 55 48 d6 3d de 7d 1a be 91 87 58 bd 33 b4 dc 3e
       0.10463015 -0.15087077 -0.05286366 0.4310623
000090 61 74 14 be d5 df 9f be e2 3b 73 be 39 6e c7 3d
       -0.1449752 -0.31225458 -0.23753312 0.0973782
0000a0 6d 20 6b 3e a8 84 13 bb 47 c9 48 3c 41 96 1c 3e
       0.22961588 -0.002250949 0.0122550195 0.15291692
0000b0 54 41 d3 3e e1 97 9d be be f1 00 bf b5 69 62 be
       0.4126078 -0.30779937 -0.5036887 -0.22110637
0000c0 02 2a bd be 75 58 be bd 2b 62 31 3e 11 f4 62 be
       -0.36946112 -0.092942156 0.17322604 -0.22163416
0000d0 a6 5d 00 bd 2d 38 57 3e 6e 66 01 bf 04 d6 21 3d
       -0.03133931 0.21017523 -0.5054692 0.03951074
0000e0 63 c0 87 3e 11 f0 00 3e ec 99 87 be db da 88 3e
       0.26513967 0.12591578 -0.2648462 0.26729473
0000f0 cc cc a5 3e 32 da d5 be f5 35 90 3e dc 43 68 be
       0.3238281 -0.41768032 0.28166166 -0.22682136

_actor_critic.actor.sigma_param f4 [2, 1]
000000 b4 8e a9 bf a4 9a e6 bf
       -1.3246675 -1.8015943

_actor_critic.actor.preprocess.model.model.0.weight f4 [64, 8]
000000 59 62 f5 bd 14 f8 45 be c3 7f 54 3e 14 ee 0b bd
       -0.11981649 -0.19332916 0.20751862 -0.034162596
000010 40 e2 7f 3c 51 d9 82 bd 4d f8 42 be e7 67 45 be
       0.015617907 -0.06389106 -0.19040032 -0.19277917
000020 ae 79 cf 3d 5f c7 49 bd cd 24 a5 3e 90 36 67 3c
       0.101306304 -0.0492624 0.3225464 0.01411213
000030 84 73 77 3e f1 bc 5b 3d 3c fc 66 3d 30 f0 ca bc
       0.2416516 0.053646985 0.056392893 -0.024772733
000040 a5 d0 ab 3e e0 e4 26 bc ae 98 f9 be 7d af 24 3e
       0.3355762 -0.010186404 -0.48749298 0.16082568
000050 d9 96 f1 3d a4 a3 db 3a a1 1f c6 bd f7 bd 16 3f
       0.1179635 0.0016757143 -0.096740015 0.58883613
000060 5b b6 ad 3e 85 00 10 bf 7c ca 32 be cf 2b 20 3d
       0.3392819 -0.5625079 -0.17460054 0.03910428
000070 7b 30 77 3d b8 ba e2 3d cb c6 d0 bd 91 b3 90 3d
       0.06034897 0.1107077 -0.10194167 0.070654996
000080 25 5a 58 be 02 1f 8c be 78 76 8d bd 97 ea b0 3e
       -0.21128137 -0.27367407 -0.06907362 0.34553978
000090 88 b7 af be 39 a0 c7 bd 5f 3b 9f 3e 77 38 0f bd
       -0.3431971 -0.09747357 0.31099984 -0.03496596
0000a0 b8 da 56 3e 55 53 ef 3c 5d 89 69 3d 75 15 1a 3e
       0.20981872 0.02921454 0.057015765 0.15047248
0000b0 8b 30 37 be 7e 41 3a be 53 f5 b5 3d f5 1f d2 bb
       -0.17889611 -0.18189046 0.088846825 -0.006412501
0000c0 d9 a4 c0 bc 0e 4d 06 3e 30 b1 de 3d 4c 0d 50 3e
       -0.023516105 0.13115332 0.108736396 0.20317572
0000d0 86 a2 d2 bd b7 e9 6c be 0a 66 8d 3e 49 b3 37 3e
       -0.10284905 -0.2313603 0.27616912 0.17939486
0000e0 d4 b8 16 be c2 f9 b7 3e 3d 15 88 3d 85 12 72 be
       -0.14718944 0.35932738 0.06644676 -0.23639877
0000f0 db a4 02 3e 55 d1 b8 3d bf 53 ab 3e 10 b8 27 be
       0.127582 0.09024302 0.3346233 -0.16378808
000100 0b 80 ec 3d 8b 41 6d 3e 9c e5 10 3e ec 80 95 3e
       0.1154786 0.23169534 0.14150089 0.29199922
000110 04 42 68 be da e0 8c 3d 2e a5 38 be 97 e6 d0 be
       -0.22681433 0.068788245 -0.18031761 -0.40800926
000120 67 8c 13 be 2b f3 59 be cd a6 1b 3e d7 a3 fb bc
       -0.14409028 -0.21284167 0.15200348 -0.030717773
000130 ef fd 9a 3e 75 e1 c3 3c 5d 94 9b bd 43 cb 19 bf
       0.3027186 0.023911217 -0.075966574 -0.6007578
000140 3d 2a 39 3f c8 aa 80 3e 36 25 d1 bd 54 7b 71 bd
       0.72330076 0.25130296 -0.102121755 -0.058955505
000150 4d 86 16 3e b7 13 aa 3d 07 f1 78 bd 89 15 f4 3e
       0.14699669 0.083045416 -0.060776737 0.4767268
000160 12 8c f8 ba a7 1f c3 be 2e 91 a8 be 53 a1 f8 bd
       -0.0018962643 -0.38110086 -0.32923263 -0.12140145
000170 2e ab 0d 3e 4d e3 17 3e d6 fa f8 bb 48 e3 91 bd
       0.13834831 0.14832802 -0.0075982613 -0.071234286
000180 c2 90 34 bc 11 f5 a6 be 6d 4b ab be e6 45 09 be
       -0.011020841 -0.32608846 -0.33455983 -0.1340557
000190 ec 5b f5 bd 30 dd 72 3e db e9 9f 3e 70 f9 20 be
       -0.11980423 0.23717189 0.31233105 -0.15720153
0001a0 b0 e3 09 3e 2d 7c 92 3e a8 07 ba bd 0c 50 e6 be
       0.13465762 0.28610364 -0.090834916 -0.44982946
0001b0 69 41 d9 3d fa 4a 05 be 50 9a 91 be 06 c2 8d be
       0.10608179 -0.13016883 -0.28438044 -0.2768709
0001c0 ce 95 35 bd 54 a7 85 3e 90 5a 46 3e a9 7d b5 bd
       -0.044332318 0.26104224 0.19370484 -0.088618584
0001d0 6e 4f 4f be 10 c7 70 3e de 9b b1 3e 80 60 29 bd
       -0.20245144 0.23513436 0.3468923 -0.041351795
0001e0 45 88 a4 bd da 49 8d be 09 46 92 be d4 94 81 bc
       -0.08033804 -0.27595407 -0.28569058 -0.015818037
0001f0 bb 5d 12 3e b8 81 4c 3e 44 58 0d 3d 9d 3a 03 3f
       0.14293568 0.19971359 0.034508005 0.5126131
000200 fd eb ba bd 72 83 d0 be 97 62 08 3d 06 ab b1 3e
       -0.091270424 -0.40725285 0.033297148 0.34700793
000210 85 2b 2d 3e f2 8f 92 be 7a 5c e7 3d 96 13 9e 3e
       0.16911133 -0.28625447 0.112969354 0.30874318
000220 52 f1 f5 3d 58 13 19 bf 2c 97 f4 bd 31 1e 0a 3e
       0.12008919 -0.5979514 -0.11942896 0.1348808
000230 3e f9 60 3c 6d 29 35 be ea cb 8e be 09 a3 01 3d
       0.013731299 -0.17691584 -0.2788995 0.031649623
000240 89 5c 62 bd 10 5e bf 3e f3 79 b2 be 76 49 50 3d
       -0.05526403 0.37376451 -0.34858665 0.050851308
000250 c7 b1 d8 3d ec 28 fc 3c 07 61 c8 3d bb 7b 62 be
       0.10580783 0.030781232 0.097841315 -0.22117512
000260 08 2a eb be 00 47 b6 bd ca 56 8a 3e 9d 21 98 3e
       -0.45930505 -0.08900261 0.2701934 0.29713145
000270 41 f7 2a 3e cf c7 ab be 9a ba b5 3d 20 67 bb be
       0.16695882 -0.3355088 0.08873482 -0.36602116
000280 f4 20 18 3c 4a 59 40 be 3b f7 5b be b9 9b f2 3d
       0.0092852 -0.18784061 -0.2148103 0.11846108
000290 4a aa a6 3e 02 99 25 3e 15 f8 1d 3e ae f3 cf bd
       0.32551795 0.16171649 0.15426667 -0.101539
0002a0 05 fc 46 3e c9 d4 66 bd 6a f4 3c 3e c4 06 ea bd
       0.19432075 -0.05635527 0.18452612 -0.11427072
0002b0 cc ea 45 3e a5 09 2b 3e 2d a5 a2 3d 26 bf 07 bf
       0.19327849 0.16702898 0.07941661 -0.53026044
0002c0 fd dc a2 3e 4f af cf 3e b3 59 52 3e 59 ed 5e be
       0.31809226 0.40563437 0.2054203 -0.21770228
0002d0 1a ca 4b 3e cf 55 2a 3e 7c bc 68 3e 82 86 0a 3c
       0.19901314 0.16634296 0.22728151 0.008454921
0002e0 cf 7e 2a bf 86 7e 05 3f 96 86 04 be 80 dd e5 3c
       -0.66599745 0.52146184 -0.12941965 0.028059721
0002f0 97 95 8b be 6b e6 1e 3e 09 15 3a be 07 40 d0 bd
       -0.27262565 0.15517585 -0.18172087 -0.10168462
000300 76 6d ad bd b6 b7 07 be d9 71 3a 3d 91 dd 52 3e
       -0.08468144 -0.13253674 0.04551873 0.20592333
000310 03 4d 7f 3d 85 80 35 3e 6f ef 2c 3e 94 ca 49 3e
       0.062329303 0.17724808 0.16888212 0.19706184
000320 10 8d f7 3d 88 00 a4 bd de c2 a8 be 6b aa 91 3e
       0.120874524 -0.08007914 -0.32961172 0.2845033
000330 70 56 c8 bd 6d 49 02 3d 0a d5 0a be 6a e1 c9 3e
       -0.09782112 0.031808306 -0.1355783 0.3942979
000340 dd 0d 9c be c2 0c 82 3d 2a cb 48 be a6 e8 57 3e
       -0.30479327 0.063500896 -0.19608751 0.21084842
000350 5c e3 79 be 1b 08 50 be 80 ec d0 3d 68 29 4c 3e
       -0.24403137 -0.20315592 0.10201359 0.1993767
000360 95 dd bc be 09 0c 04 be d9 50 c7 3d 5e 48 cc be
       -0.36887804 -0.12895216 0.09732217 -0.39898962
000370 f6 b0 ca bd a5 0f 29 bc 8b 47 e7 bc 70 08 a7 be
       -0.09897034 -0.010318671 -0.028232357 -0.32623625
000380 34 d7 6b 3b 13 02 6e 3e c9 72 b7 be f7 cd aa 3d
       0.0035986425 0.23242979 -0.35829762 0.08340066
000390 1d 67 a0 3e 72 4f 62 bd b9 e5 2d be 3a ed 5a 3e
       0.3132867 -0.055251546 -0.16982163 0.21379557
0003a0 6a 8e 70 3e 56 e7 60 3c 0f 35 9b 3e 25 9f 0d bb
       0.23491827 0.01372703 0.30313918 -0.002160975
0003b0 36 32 8d bd 62 f7 9f 3b 4f e6 86 3e b5 16 2a 3f
       -0.068943426 0.0048817853 0.26347587 0.664409
0003c0 3e 8f a4 3b 72 da eb 3d e9 bd 4f 3c cb df cd be
       0.0050219586 0.115162745 0.012679555 -0.40209803
0003d0 f4 36 75 bd 41 34 9f 3d ca f6 b5 bd 13 eb 8c be
       -0.05986686 0.077736385 -0.08884962 -0.27523097
0003e0 eb 4f 8c 3d af e0 95 bd 1e 87 71 bd 76 04 0f 3f
       0.06851181 -0.073182456 -0.05896675 0.5586618
0003f0 07 e9 f6 3d 73 f2 e1 3c 0a 91 d3 bc ea 36 86 3e
       0.12056165 0.02758143 -0.025825996 0.2621377

_actor_critic.actor.preprocess.model.model.0.bias f4 [64]
000000 1f 0b d7 3c df 30 03 3e d9 9d 66 3c 97 c0 4a bc
       0.02625042 0.12811612 0.01407572 -0.012375019
000010 93 04 5b 3d 0a 2d 56 3d 1a 17 0c 3d fe 1c 55 bd
       0.05347116 0.052289046 0.03420172 -0.052029602
000020 41 bd 39 3b ad 2c e8 bd 8c bb 77 bc 9b ef 1d 3c
       0.0028341564 -0.11336646 -0.015120398 0.009639646
000030 03 4f 54 bd a0 1a 60 be d4 ff ad bd 9a 8b 13 bd
       -0.051833164 -0.21885157 -0.08496061 -0.036021806
000040 c3 0b 55 3e e7 82 bb 3d e0 d7 7b bd 66 c3 79 3d
       0.20805268 0.09155827 -0.06148517 0.060977362
000050 b9 10 01 3d 24 33 d1 bc c7 75 18 be b0 41 d7 bd
       0.03151009 -0.025537081 -0.14888678 -0.10510576
000060 4f b8 56 3d 0a 4b 79 3d 25 07 2c bd 32 16 c6 3d
       0.052421864 0.06086258 -0.041999 0.09672202
000070 1e 8c 51 3d f7 96 c6 3d 81 57 fa bc dc b8 5b 3d
       0.051159017 0.09696763 -0.030559303 0.053643093
000080 91 3d 04 be 32 81 23 bc 1d 9f eb bd 72 c7 de 3c
       -0.1291411 -0.009979533 -0.11504958 0.027194712
000090 7b bf 4c 3c ce 4c 95 3d 96 ee dd bd 62 15 61 3d
       0.012496824 0.0729004 -0.10836522 0.054952033
0000a0 df 01 a8 3d 48 3c f2 bd fd 39 c4 3c 0c 7a fe 3d
       0.08203482 -0.11827904 0.023953432 0.12425622
0000b0 75 5c a1 bc 32 5e 09 3e 67 5f 14 be c1 09 2c 3e
       -0.019697407 0.13414839 -0.14489518 0.16800596
0000c0 8a 53 dd bc fe c9 57 3d d2 35 1e bc 2b 4d ac 3d
       -0.027017374 0.05268287 -0.009656386 0.08413156
0000d0 b1 3c 1c 3e 66 42 bc 3d e6 49 25 3d 79 b7 e1 bd
       0.15257527 0.09192352 0.04035368 -0.11021323
0000e0 0e ff fa bb 63 a9 d3 bc 2f ac 28 bd dd a9 b1 bc
       -0.0076597994 -0.025837606 -0.041179832 -0.021687442
0000f0 92 e3 a4 bd d0 a8 82 3d e0 b8 53 bd a1 cf fc 3d
       -0.08051218 0.06379855 -0.051689982 0.123442896
