results/Ant-v3/ppo/0/220623-152203/policy.pth (torch, 103908 bytes, 24 tensors)

actor.sigma_param f4 [8, 1]
-3.5838618 -3.5816123 -3.4754212 -3.1947713 -3.4512093 -3.3579476 -3.0179145 -2.9936426
00000000: fe5d 65c0 2339 65c0 4d6d 5ec0 2277 4cc0
00000010: 9de0 5cc0 9de8 56c0 8325 41c0 d797 3fc0

actor.preprocess.model.model.0.weight f4 [64, 111]
-0.088098325 -0.00835893 -0.64879596 -0.14190905 -0.058159117 -0.109075114 -0.0009235574 0.18777168
-0.25559732 0.07734788 -0.29527676 0.090512976 0.23333964 0.1439941 0.10733284 0.11264558
-0.08245338 0.20151971 0.3193872 0.10868549 -0.028993761 -0.1702725 -0.36055344 -0.072928555
0.058815673 0.0068974067 0.43922275 0.0992895 -0.011252793 -0.120871976 0.19498295 -0.041564867
-0.086116865 -0.04738841 -0.13116863 -0.11634724 -0.10692449 -0.0072737825 0.07845777 0.21870995
0.002038493 0.06542534 0.23602019 0.10284288 -0.026067283 0.14800386 -0.21108021 -0.10904937
-0.026510645 0.055202566 0.056557223 -0.01198079 0.12951107 -0.16056952 0.016117511 0.0702003
-0.07939043 -0.046641972 -0.078950204 0.13063133 0.04095363 0.017472768 0.06827931 -0.1562413
-0.0048283613 -0.14052795 0.13799965 -0.170269 -0.14528769 0.016744945 0.0989123 -0.05953391
-0.09727372 -0.07801999 0.09958836 -0.22400461 0.054933716 -0.006291501 0.05193284 -0.07279605
-0.044828173 0.11034449 -0.45182985 0.050442304 -0.003986135 0.20857799 -0.00039998195 0.02741499
0.032358225 -0.033607073 0.14023016 0.24214257 0.019411873 0.07573443 0.16889513 -0.13796407
-0.012371564 -0.2162055 -0.13098855 -0.065314785 0.009552851 -0.0055407225 0.084303804 0.12769486
-0.23311508 0.06474542 0.10597189 -0.12208702 0.0950943 -0.051307485 -0.27583176 -0.10533631
0.4066926 0.03077253 0.15194084 -0.54836684 0.04443575 -0.31179538 0.23377503 0.06491663
0.4750761 0.008561931 0.09235714 -0.051837284 -0.08540647 -0.28631568 -0.0313026 0.13917539
-0.043980807 -0.06761739 -0.015333763 0.14704867 -0.23629741 -0.06359743 -0.24921848 -0.2298234
-0.16521226 -0.049119297 -0.027102944 -0.05032059 0.047444057 -0.0188097 0.049494054 -0.1393063
-0.05585909 0.07873362 0.0065257116 0.22413173 -0.057221033 -0.031330675 -0.023612281 0.0214882
0.009055242 -0.19653215 -0.004233151 -0.034226373 0.14903307 0.18076235 0.106559284 -0.11782388
0.057094853 -0.06781268 -0.13953523 0.13352934 0.051087044 -0.06608992 -0.22229916 0.14651784
-0.081411004 0.03848691 -0.038241405 0.022792296 -0.3193185 0.07663006 -0.17519397 0.21850494
0.014047319 -0.064700544 0.06476314 0.020408608 -0.19537519 0.267348 -0.15607053 0.038526684
-0.09740659 0.09388496 -0.117032304 -0.012898658 0.027111527 0.030649021 -0.10472844 -0.06417377
-0.018546136 -0.18901016 -0.12340155 -0.05783235 0.053649455 0.032585233 -0.19058914 -0.07068235
-0.058532216 -0.21230716 -0.15756948 -0.03520505 -0.098185234 -0.3097002 -0.063841 0.008070593
0.037113704 0.17324354 -0.0024624018 0.055644616 -0.17682791 0.22788152 0.075924225 -0.18862322
-0.24272677 0.13527535 -0.032602623 -0.08004117 0.041980624 -0.06761691 0.42603698 -0.09961223
0.18708628 -0.28706512 -0.4838513 0.039874263 0.102462724 0.026391456 0.047911353 0.061363306
-0.009155197 -0.27627543 0.31387684 0.091611706 0.17059 0.04175106 -0.2628799 0.10143392
-0.32195044 0.22880612 0.13885984 0.010944896 -0.19948436 -0.19608565 -0.14360683 -0.16848153
0.34957772 -0.056258094 0.17144187 -0.23689067 -0.11956122 0.16669095 0.42336592 -0.11298214
00000000: e56c b4bd e5f3 08bc 7e17 26bf 9b50 11be
00000010: 4138 6ebd c662 dfbd e31a 72ba 3847 403e
00000020: a7dd 82be 9168 9e3d 842e 97be de5e b93d
00000030: 96f0 6e3e 3073 133e 52d1 db3d bab2 e63d
00000040: 51dd a8bd 2f5b 4e3e b886 a33e 8096 de3d
00000050: 5384 edbc ea5b 2ebe 769a b8be 915b 95bd
00000060: b4e8 703d a403 e23b cee1 e03e 4b58 cb3d
00000070: a25d 38bc ba8b f7bd 9ca9 473e ec3f 2abd
00000080: 0a5e b0bd 591a 42bd 1251 06be 7647 eebd
00000090: 3afb dabd e958 eebb 78ae a03d 80f5 5f3e
000000a0: 3d98 053b b8fd 853d 47af 713e 4a9f d23d
000000b0: 0e8b d5bc 538e 173e 6925 58be 4755 dfbd
000000c0: da2c d9bc 161c 623d 8ca8 673d 134b 44bc
000000d0: 8d9e 043e 566c 24be df08 843c 2dc5 8f3d
000000e0: 7397 a2bd a70b 3fbd a5b0 a1bd 38c4 053e
000000f0: febe 273d 0d23 8f3c 06d6 8b3d b8fd 1fbe
00000100: 3b37 9ebb 8fe6 0fbe c84f 0d3e ff5a 2ebe
00000110: 4cc6 14be b22c 893c 8892 ca3d d4d9 73bd
00000120: 7237 c7bd f2c8 9fbd fbf4 cb3d 7761 65be
00000130: 2d02 613d f028 cebb 88b7 543d 1816 95bd
00000140: bf9d 37bd 4bfc e13d 3e56 e7be 979c 4e3d
00000150: 209e 82bb 7895 553e abb4 d1b9 6795 e03c
00000160: 0f8a 043d 92a7 09bd 7f98 0f3e 39f4 773e
00000170: a605 9f3c a71a 9b3d d8f2 2c3e 7446 0dbe
00000180: 1ab2 4abc f964 5dbe dd21 06be c2c3 85bd
00000190: 9083 1c3c f38e b5bb 79a7 ac3d 71c2 023e
000001a0: b8b5 6ebe 3f99 843d ca07 d93d c208 fabd
000001b0: cdc0 c23d cc27 52bd d239 8dbe 90ba d7bd
000001c0: 033a d03e ac16 fc3c 6196 1b3e c561 0cbf
000001d0: 4302 363d a5a3 9fbe b962 6f3e 03f3 843d
000001e0: 2d3d f33e 5747 0c3c bd25 bd3d 5553 54bd
000001f0: 96e9 aebd f897 92be 2837 00bd fe83 0e3e
00000200: 3825 34bd fc7a 8abd 773a 7bbc ed93 163e
00000210: f3f7 71be 5f3f 82bd 2133 7fbe d356 6bbe
00000220: 672d 29be 5131 49bd fe06 debc f71c 4ebd
00000230: b354 423d cd16 9abc 47ba 4a3d 50a6 0ebe
00000240: 80cc 64bd 183f a13d a3d5 d53b ca82 653e
00000250: 9a60 6abd 9854 00bd 8b6e c1bc 0608 b03c
00000260: 705c 143c b93f 49be 3fb6 8abb f430 0cbd
00000270: 209c 183e c419 393e c13b da3d a54d f1bd
00000280: 4bdc 693d 60e1 8abd 53e2 0ebe eabb 083e
00000290: a640 513d 275a 87bd 64a2 63be c608 163e
000002a0: d0ba a6bd 73a4 1d3d 05a3 1cbd e9b6 ba3c
000002b0: b77d a3be 39f0 9c3d 0c66 33be c2bf 5f3e
000002c0: ba26 663c b881 84bd 8aa2 843d f42f a73c
000002d0: 6f10 48be d6e1 883e f4d0 1fbe 28ce 1d3d
000002e0: 1b7d c7bd c246 c03d a2ae efbd e554 53bc
000002f0: fe18 de3c a813 fb3c dd7b d6bd 8a6d 83bd
00000300: 11ee 97bc e18b 41be f4b9 fcbd 9de1 6cbd
00000310: 88bf 5b3d 1878 053d cd29 43be e8c1 90bd
00000320: 7abf 6fbd 0c67 59be e559 21be 2c33 10bd
00000330: 5715 c9bd 0691 9ebe 12bf 82bd 853a 043c
00000340: 8a04 183d c166 313e 3f60 21bb 9ceb 633d
00000350: 6012 35be c659 693e 297e 9b3d 7226 41be
00000360: 5e8d 78be 9f85 0a3e 548a 05bd a0ec a3bd
00000370: e0f3 2b3d bc7a 8abd 8521 da3e 7f01 ccbd
00000380: 8c93 3f3e 33fa 92be 5cbb f7be 3253 233d
00000390: fad7 d13d e532 d83c b23e 443d 1758 7b3d
000003a0: aeff 15bc f973 8dbe 77b4 a03e eb9e bb3d
000003b0: 25af 2e3e 2903 2b3d 3298 86be 96bc cf3d
000003c0: b0d6 a4be 274c 6a3e 4631 0e3e 3952 333c
000003d0: a145 4cbe adca 48be ab0d 13be 6c86 2cbe
000003e0: dafb b23e e36e 66bd 758e 2f3e 7893 72be
000003f0: 83dc f4bd 08b1 2a3e 6bc3 d83e 2e63 e7bd

actor.preprocess.model.model.0.bias f4 [64]
0.15823607 -0.00856613 0.1752119 -0.057047587 -0.15195747 -0.046703234 -0.015324501 -0.102188975
0.04264416 -0.04049063 0.12080733 0.13734846 0.013270281 -0.06947982 0.07274793 -0.061292622
-0.19263554 -0.06479107 -0.06069076 0.058292113 -0.054207955 0.011545323 -0.008655887 -0.045532778
0.061358012 -0.093743846 0.06474718 0.037786722 0.17834008 -0.0836118 -0.09012641 0.22102569
0.102897726 0.029368019 -0.26552755 -0.05251317 -0.061634637 0.18776171 -0.028084932 0.10512696
0.15458949 -0.020482596 -0.08838061 -0.05858303 0.12838952 0.26527888 -0.08610645 -0.05049277
-0.085393116 0.30493695 0.16174449 -0.059572138 0.017228287 -0.07685691 0.27150342 0.00070152414
0.067665555 0.102165416 -0.025674665 0.2174884 0.05147184 0.003486865 -0.1178679 0.078310244
00000000: a308 223e f458 0cbc c06a 333e bbaa 69bd
00000010: bd9a 1bbe e44b 3fbd 9e13 7bbc 7448 d1bd
00000020: a5ab 2e3d 81d9 25bd d569 f73d 13a5 0c3e
00000030: 986b 593c 704b 8ebd defc 943d f90d 7bbd
00000040: 4042 45be 2eb1 84bd e096 78bd b6c3 6e3d
00000050: 2909 5ebd 9828 3d3c 6cd1 0dbc 9480 3abd
00000060: 8a52 7b3d c6fc bfbd 2b9a 843d 40c6 1a3d
00000070: c89e 363e aa3c abbd 3294 b8bd 8f54 623e
00000080: 0bbc d23d 3395 f03c 3af3 87be 0d18 57bd
00000090: 9a74 7cbd 9b44 403e 5f12 e6bc ce4c d73d
000000a0: b54c 1e3e 1ecb a7bc e500 b5bd c2f4 6fbd
000000b0: 8b78 033e a2d2 873e 9458 b0bd 82d1 4ebd
000000c0: 96e2 aebd b220 9c3e 59a0 253e ea01 74bd
000000d0: 5622 8d3c 2867 9dbd 7f02 8b3e 7de6 373a
000000e0: 3d94 8a3d 1a3c d13d ad53 d2bc 47b5 5e3e
000000f0: 23d4 523d e383 643b ba64 f1bd 1f61 a03d

actor.preprocess.model.model.2.weight f4 [64, 64]
-0.109629355 -0.0613049 0.066187106 -0.17832178 0.23371975 0.37803343 0.19213146 -0.17922883
0.060364455 0.37565887 -0.3170798 0.06378621 0.034073412 0.24858707 -0.19629624 0.057799306
-0.022736246 0.47629476 -0.14659657 0.3100464 -0.14593531 0.014671228 -0.036447313 0.053024143
-0.13792445 -0.58154 0.36369163 -0.030273331 0.41409427 0.21929605 0.40306506 -0.026594782
-0.13671628 -0.28510895 0.588648 0.088171005 0.4100996 0.1616547 -0.047314692 0.40684876
-0.23407383 0.1400116 -0.10959824 -0.043218397 -0.035564505 -0.113472804 -0.036605548 0.29018366
-0.17497297 0.18893938 0.09559217 0.34332317 -0.39302266 0.3402695 0.050416358 0.029689852
0.40554908 0.2420157 0.028078733 0.23812209 0.12699345 0.17805968 -0.29731855 -0.16725047
0.3974338 -0.31697068 -0.031162044 -0.30428943 0.021249156 -0.30365893 -0.2637078 0.40148386
-0.05173949 0.35504586 -0.12345825 0.13752395 0.37648416 -0.6508283 0.21363404 0.0123911165
0.12972812 -0.07483427 0.093372054 0.276712 -0.14978927 -0.053612273 -0.08941211 -0.21758318
-0.0511252 0.08744237 -0.19144462 -0.16512865 -0.27137506 0.020207852 0.16552828 -0.1397001
0.1943438 0.10502392 -0.31401315 0.24948479 0.166025 -0.32909128 -0.010626188 -0.2957399
-0.13726726 -0.10120792 -0.003485151 0.16884589 -0.2084283 0.09746417 -0.05795748 -0.058732312
0.03268813 -0.19624197 0.28830945 0.06597153 -0.20060392 0.009427939 -0.49921167 0.16825698
-0.14458111 -0.2071017 0.11318835 0.15645453 0.17532796 0.29842633 -0.019741382 0.68690354
0.078759395 0.28046006 -0.25289762 0.10581474 -0.12213167 0.26130557 -0.056739524 -0.126866
0.44490004 0.19908446 -0.022715427 0.18889731 -0.21829623 0.36615196 0.8015293 0.40897885
0.021607004 -0.20874415 -0.13080592 -0.2305472 -0.2422524 0.48744935 0.13216038 -0.026664263
-0.2828321 -0.063339666 -0.037057813 -0.044147853 0.20532058 0.12737314 0.13541767 -0.13671786
0.08658425 0.14815436 0.03968447 0.46948943 0.29802665 0.12545404 0.17731464 -0.12487627
0.13551521 0.101659186 -0.09150891 -0.02325751 0.02670192 0.152651 0.06617628 0.123884626
0.013695507 -0.120784275 -0.28539845 -0.02154206 -0.13035738 0.826993 0.19795184 0.056774884
-0.5836191 -0.2175087 -0.1595109 0.36705524 -0.080214 0.055018827 0.18910332 -0.07240005
0.17843528 0.030514685 0.13952762 -0.26837912 -0.14524812 0.02029027 0.239683 0.48276538
0.16349821 0.5670539 -0.097645395 0.44231793 0.018236153 -0.21436578 -0.22990547 0.028887087
0.016157165 0.295194 -0.080936775 0.09278474 -0.103289805 -0.17394817 -0.37159437 -0.17505078
0.19893825 0.3200248 -0.37078214 0.005050874 -0.38906398 -0.15593205 -0.08281968 0.09468868
0.2054438 -0.038214143 0.1322584 0.43222764 0.07259086 -0.022475282 -0.22712441 -0.23173739
0.23935176 0.16178633 0.029225105 0.0030886722 -0.0194146 0.088928245 0.25698245 -0.09532644
-0.23932375 0.30450976 -0.19095802 -0.22189093 -0.18927248 -0.09538452 0.31643116 0.32184654
-0.20183958 0.010873106 0.008054158 -0.33454654 0.011162736 0.5683324 -0.041542273 -0.12616114
00000000: 5b85 e0bd d91a 7bbd 1b8d 873d fc99 36be
00000010: 3b54 6f3e 998d c13e 1cbe 443e c387 37be
00000020: b840 773d 5c56 c03e 4958 a2be 58a2 823d
00000030: 9090 0b3d 9c8d 7e3e e201 49be f7be 6c3d
00000040: 5d41 babc e8dc f33e 691d 16be 67be 9e3e
00000050: 1170 15be 975f 703c c749 15bd d82f 593d
00000060: 113c 0dbe cedf 14bf ca35 ba3e c7ff f7bc
00000070: 2a04 d43e 258f 603e 8b5e ce3e 4ddd d9bc
00000080: 5aff 0bbe cdf9 91be a3b1 163f 0093 b43d
00000090: 93f8 d13e cf88 253e 0dcd 41bd 7b4e d03e
000000a0: 0db1 6fbe 335f 0f3e 0b75 e0bd c605 31bd
000000b0: 16ac 11bd 6e64 e8bd b3ef 15bd f492 943e
000000c0: 1d2c 33be 5379 413e d4c5 c33d 0ec8 af3e
000000d0: 443a c9be ce37 ae3e 6281 4e3d 2238 f33c
000000e0: 21a4 cf3e f7d2 773e 5f05 e63c 47d6 733e
000000f0: 920a 023e 4755 363e 233a 98be b543 2bbe
00000100: 717c cb3e fb49 a2be 8b47 ffbc d3cb 9bbe
00000110: b612 ae3c 2f79 9bbe b504 87be 4b8f cd3e
00000120: caec 53bd 92c8 b53e aed7 fcbd 14d3 0c3e
00000130: 88c2 c03e af9c 26bf e2c2 5a3e 1c04 4b3c
00000140: 73d7 043e b642 99bd d939 bf3d 32ad 8d3e
00000150: 5c62 19be 8b98 5bbd b21d b7bd 20ce 5ebe
00000160: a868 51bd fc14 b33d 0f0a 44be 7c17 29be
00000170: acf1 8abe f08a a53c 3f80 293e 8b0d 0fbe
00000180: 1002 473e c816 d73d 55c6 a0be f178 7f3e
00000190: 7502 2a3e a77e a8be 7619 2ebc 386b 97be
000001a0: ca8f 0cbe 1946 cfbd 2267 64bb f0e5 2c3e
000001b0: 3a6e 55be 4b9b c73d d364 6dbd 4b91 70bd
000001c0: fde3 053d a8f3 48be 4c9d 933e 151c 873d
000001d0: 1d6b 4dbe a477 1a3c ac98 ffbe 8f4b 2c3e
000001e0: 120d 14be 7812 54be 4bcf e73d 9e35 203e
000001f0: 2c89 333e 56cb 983e aeb8 a1bc e9d8 2f3f
00000200: 9b4c a13d 7698 8f3e cc7b 81be 66b5 d83d
00000210: 2b20 fabd d8c9 853e b467 68bd 29e9 01be
00000220: f0c9 e33e ccdc 4b3e b415 babc 4c6e 413e
00000230: 0c89 5fbe 4578 bb3e 0631 4d3f ad65 d13e
00000240: 2c01 b13c 07c1 55be fdf1 05be 9114 6cbe
00000250: 0311 78be f692 f93e 0d55 073e 036f dabc
00000260: 5ecf 90be 3ab8 81bd efc9 17bd 61d4 34bd
00000270: 8f3f 523e 1b6e 023e eeaa 0a3e c4ff 0bbe
00000280: 1553 b13d c7b5 173e 2f8c 223d eb60 f03e
00000290: f396 983e 0677 003e f891 353e 21bf ffbd
000002a0: 80c4 0a3e b132 d03d 0669 bbbd 8986 bebc
000002b0: fcbd da3c 8b50 1c3e 6e87 873d 39b7 fd3d
000002c0: 1f63 603c bf5d f7bd bf1f 92be f978 b0bc
000002d0: 687c 05be d0b5 533f e3b3 4a3e c88c 683d
000002e0: 1068 15bf 9aba 5ebe d356 23be aaee bb3e
000002f0: 3d47 a4bd 6c5b 613d 4da4 413e 7a46 94bd
00000300: bdb7 363e eff9 f93c 54e0 0e3e fd68 89be
00000310: ecbb 14be c837 a63c 766f 753e 062d f73e
00000320: 136c 273e 722a 113f 4ffa c7bd 7f77 e23e
00000330: fc63 953c b482 5bbe 576c 6bbe 9da4 ec3c
00000340: 085c 843c ab23 973e 2ec2 a5bd ed05 be3d
00000350: 9b89 d3bd 781f 32be 9e41 bebe 8340 33be
00000360: 78b6 4b3e 4ada a33e 28d7 bdbe cd81 a53b
00000370: 6533 c7be a7ac 1fbe 5d9d a9bd 23ec c13d
00000380: dc5f 523e 6f86 1cbd bf6e 073e f14c dd3e
00000390: 84aa 943d 151e b8bc 4d93 68be 914c 6dbe
000003a0: a118 753e 51ab 253e 7d69 ef3c 526b 4a3b
000003b0: 5e0b 9fbc 0320 b63d 3493 833e 823a c3bd
000003c0: 4911 75be b4e8 9b3e 808a 43be 6037 63be
000003d0: a5d0 41be f658 c3bd 4403 a23e 12c9 a43e
000003e0: 09af 4ebe 1d25 323c 96f5 033c af49 abbe
000003f0: e9e3 363c 3b7e 113f 3b28 2abd 6330 01be

actor.preprocess.model.model.2.bias f4 [64]
0.04809393 -0.038683243 -0.10816232 0.025582379 0.006324559 -0.042126488 -0.17828679 -0.23628888
0.057075225 0.1629362 -0.00016362098 -0.06519256 0.09614036 -0.049036246 0.051908877 0.12702918
0.14369926 0.07609668 -0.07956401 -0.21336587 -0.12044653 0.23179124 -0.011591921 0.14265262
0.026683316 0.10942603 0.014841543 -0.050650794 0.22046597 0.14262839 0.03319238 -0.046044204
-0.08162392 0.024073023 -0.073328674 0.11601641 0.13429157 0.033541553 -0.017714964 0.08781322
0.091863334 -0.020829635 -0.093069635 0.047689795 0.00051532104 0.05023703 0.07004614 0.13500617
0.18135352 -0.2688644 -0.15725589 -0.12430242 0.018532095 -0.106770605 0.24355268 -0.10505586
-0.042145804 -0.11375633 -0.0024288602 -0.082540214 -0.09481293 0.020006424 0.29159206 0.12667619
00000000: 24fe 443d 5272 1ebd 3584 ddbd 2392 d13c
00000010: 3f3e cf3b d38c 2cbd d090 36be b6f5 71be
00000020: b6c7 693d bfd8 263e ac91 2bb9 ad83 85bd
00000030: 3de5 c43d 3bda 48bd 679e 543d f013 023e
00000040: e625 133e 93d8 9b3d 75f2 a2bd 957c 5abe
00000050: acac f6bd af5a 6d3e 0aec 3dbc 8713 123e
00000060: f896 da3c c11a e03d f129 733c 3577 4fbd
00000070: d5c1 613e 2d0d 123e bcf4 073d d998 3cbd
00000080: 712a a7bd ca34 c53c 582d 96bd 039a ed3d
00000090: bb83 093e de62 093d f91e 91bc 6bd7 b33d
000000a0: d822 bc3d e9a2 aabc 4b9b bebd 6056 433d
000000b0: 9c16 073a 58c5 4d3d 5a74 8f3d 0f3f 0a3e
000000c0: bdb4 393e 98a8 89be b007 21be 4492 febd
000000d0: 9fd0 973c 8caa dabd e065 793e 8727 d7bd
000000e0: 14a1 2cbd 14f9 e8bd 832d 1fbb d80a a9bd
000000f0: 482d c2bd 83e4 a33c 8e4b 953e 67b7 013e

actor.mu.model.0.weight f4 [8, 64]
0.09616845 -0.008731766 0.08894983 -0.0021615531 -0.10467001 -0.004415913 -0.0038565435 -0.12953593
0.040873397 -0.049215633 -0.10709622 0.02800292 -0.0037380047 0.061815277 -0.061562125 0.014466592
0.0151077295 -0.017253343 0.101341456 -0.055862565 -0.029678391 0.055830073 -0.017522005 -0.055413786
-0.0016592166 0.028998526 -0.07846057 0.089864634 -0.076707356 -0.039410226 0.074988686 -0.14322916
0.09135727 0.21570161 0.10747613 0.024651881 0.00036711866 0.16161427 0.03404589 -0.14427604
0.029481031 0.03505011 -0.011790909 0.014627985 0.07495567 0.058821213 0.07914212 -0.042458087
-0.051745743 0.05197129 0.0609899 -0.00719521 -0.09199709 0.2577955 -0.14005363 -0.028397333
0.053500045 -0.08801447 -0.10345809 0.047353175 -0.022805976 -0.09988986 0.085730255 0.1409673
0.008573588 -0.057564516 0.07946286 0.00034331175 0.07614849 0.0054619415 0.035208415 0.048191022
0.024140147 -0.052068837 0.036992714 0.013800906 0.0794253 0.052842587 -0.029945409 -0.030717818
0.0038932865 -0.030909438 -0.07968263 0.006994296 0.009410736 -0.05576571 -0.067005135 -0.010843647
-0.055279277 0.05605559 0.012784001 -0.0137605155 0.120514564 -0.043236155 0.08397727 0.04555589
-0.054720033 0.028759554 0.03550011 -0.037376117 -0.1544947 0.004632231 -0.07691619 0.13167325
0.0080105765 0.0040937774 0.045850947 0.046832655 -0.017446147 0.019778034 0.002576306 -0.053792976
-0.0010259743 -0.018566415 0.0051767444 0.0024324693 -0.046584085 -0.0015473085 0.0014042618 -0.0039619664
-0.05147276 -0.0025360156 0.022253186 -0.016913282 0.05474299 -0.0899535 0.048636027 -0.23411481
-0.034328964 -0.071573585 -0.07467307 0.04350446 -0.0092714755 0.016437696 -0.10877558 0.07282837
-0.015825205 -0.008376028 0.015540317 -0.020169796 0.09913863 0.14492309 -0.079203956 0.015999684
-0.012360869 -0.08092098 0.120198056 0.030656159 -0.119360626 0.07493934 0.033516437 0.04737966
0.020228604 0.03335379 -0.039652925 -0.023462549 -0.10518682 -0.0044010314 -0.06280001 -0.001521766
0.026691321 -0.03541412 -0.042509984 -0.017589277 -0.026829116 0.02878642 0.022166058 -0.019312067
-0.075100735 -0.022498403 -0.021840176 -0.055819035 -0.08864598 -0.07512515 0.07714824 -0.029978042
-0.061459653 -0.022036534 0.060519163 0.032685798 0.024688868 -0.11776742 0.038634963 0.025613908
0.029236507 -0.08459736 0.019920152 -0.012821195 -0.12111605 0.07958496 -0.1712546 -0.06060448
-0.056494683 0.0089155985 0.09439008 0.07131839 -0.0009973443 -0.06844568 -0.040070508 -0.03906089
-0.01143302 -0.06893872 -0.10800873 -0.011041919 0.035349093 -0.033315536 -0.06281919 0.03473572
-0.00017165056 -0.03459871 0.016929727 -0.03072985 0.024237266 -0.024019767 0.031039925 0.11932445
0.015329479 0.028663345 -0.05340627 0.03253303 -0.13932055 0.08857354 0.050531667 -0.0013457822
0.00497622 0.016963318 -0.007409075 0.010270347 0.051895674 -0.061887052 0.05442269 0.0373386
-0.08030853 0.06524733 -0.010625058 -0.09526384 -0.007247053 -0.0072256126 -0.07592615 -0.048809253
0.07091794 0.007957448 -0.0007480848 0.12533312 -0.05587461 -0.010884131 -0.0066139074 0.08953116
-0.05303542 0.0094138235 -0.039535075 -0.1066431 0.044555694 0.013951238 0.032019082 0.006440548
00000000: f7f3 c43d ae0f 0fbc 542b b63d d8a8 0dbb
00000010: 3b5d d6bd 5db3 90bb 10be 7cbb 11a5 04be
00000020: dd6a 273d 5596 49bd 4355 dbbd 6166 e53c
00000030: 50f9 74bb 0432 7d3d 9128 7cbd 4905 6d3c
00000040: 6986 773c e256 8dbc 1c8c cf3d 25d0 64bd
00000050: 1920 f3bc 13ae 643d 4f8a 8fbc 91f9 62bd
00000060: 127a d9ba 518e ed3c efaf a0bd f30a b83d
00000070: bf18 9dbd 9e6c 21bd ab93 993d aaaa 12be
00000080: 8519 bb3d e2e0 5c3e 721c dc3d bef2 c93c
00000090: d579 c039 367e 253e b473 0b3d 19bd 13be
000000a0: 3482 f13c b490 0f3d a82e 41bc 37aa 6f3c
000000b0: 5c82 993d 83ee 703d 4415 a23d 88e8 2dbd
000000c0: 58f3 53bd d9df 543d 8cd0 793d ccc5 ebbb
000000d0: f868 bcbd c6fd 833e 386a 0fbe 86a1 e8bc
000000e0: dd22 5b3d ee40 b4bd d6e1 d3bd 67f5 413d
000000f0: 99d3 babc 0e93 ccbd 5893 af3d bb59 103e
00000100: 3c78 0c3c c5c8 6bbd 6dbd a23d 86fe b339
00000110: bdf3 9b3d 16fa b23b b336 103d f363 453d
00000120: 8fc1 c53c 2246 55bd ac85 173d 321d 623c
00000130: bba9 a23d 7871 583d 1350 f5bc efa3 fbbc
00000140: 8226 7f3b ca35 fdbc a630 a3bd 6830 e53b
00000150: 7d2f 1a3c 966a 64bd fd39 89bd 8da9 31bc
00000160: 866c 62bd 8c9a 653d fd73 513c c973 61bc
00000170: 57d0 f63d 6518 31bd 46fc ab3d d098 3a3d
00000180: 1d22 60bd 2899 eb3c 9068 113d b317 19bd
00000190: dc33 1ebe f8c9 973b 3c86 9dbd 5ad5 063e
000001a0: cb3e 033c 1825 863b 34ce 3b3d 99d3 3f3d
000001b0: 39eb 8ebc 8b05 a23c 3ed7 283b 0656 5cbd
000001c0: fc79 86ba 9818 98bc aea1 a93b 106a 1f3b
000001d0: f4ce 3ebd 0fcf caba 350f b83a 62d3 81bb
000001e0: 1ad5 52bd 4833 26bb 504c b63c b98d 8abc
000001f0: 2f3a 603d 8a39 b8bd 9236 473d cbbb 6fbe
00000200: 879c 0cbd 2c95 92bd 32ee 98bd bc31 323d
00000210: 63e7 17bc 59a8 863c bbc5 debd 0a27 953d
00000220: dca3 81bc 9c3b 09bc d09c 7e3c 213b a5bc
00000230: 3209 cb3d b866 143e af35 a2bd c511 833c
00000240: 3e85 4abc e6b9 a5bd 662a f63d a022 fb3c
00000250: 5873 f4bd cc79 993d 8848 093d 2d11 423d
00000260: 75b6 a53c fc9d 083d 1b6b 22bd 8834 c0bc
00000270: 306c d7bd 8736 90bb 4b9d 80bd fe75 c7ba
00000280: c2a7 da3c 650e 11bd f31e 2ebd 6317 90bc
00000290: bcc8 dbbc 80d1 eb3c 9895 b53c 5734 9ebc
000002a0: 6ace 99bd 924e b8bc 2bea b2bc 80a2 64bd
000002b0: 068c b5bd 37db 99bd e5ff 9d3d 8394 f5bc
000002c0: 1ebd 7bbd f685 b4bc f1e2 773d 8be1 053d
000002d0: 4f40 ca3c 0c30 f1bd b23f 1e3d 42d4 d13c
000002e0: 6681 ef3c 6141 adbd 962f a33c fd0f 52bc
000002f0: b10b f8bd 71fd a23d 5e5d 2fbe 673c 78bd
00000300: f866 67bd bb12 123c 964f c13d 600f 923d
00000310: 52b9 82ba 402d 8cbd f920 24bd 50fe 1fbd
00000320: 9051 3bbc be2f 8dbd ae33 ddbd 2ae9 34bc
00000330: 36ca 103d df75 08bd 59a7 80bd 0b47 0e3d
00000340: 19fd 33b9 60b7 0dbd 36b0 8a3c 2bbd fbbc
00000350: 3b8d c63c 1ac5 c4bc 7147 fe3c 6160 f43d
00000360: 7f28 7b3c 64cf ea3c 88c0 5abd 5b41 053d
00000370: 0caa 0ebe 0b66 b53d 4bfa 4e3d f564 b0ba
00000380: 8f0f a33b a8f6 8a3c d3c7 f2bb f544 283c
00000390: 8f90 543d 477d 7dbd 54ea 5e3d 5cf0 183d
000003a0: cc78 a4bd 64a0 853d b914 2ebc b019 c3bd
000003b0: b078 edbb d5c4 ecbb 2b7f 9bbd 36ec 47bd
000003c0: 6d3d 913d f55f 023c 1f1b 44ba 5357 003e
000003d0: c6dc 64bd 5b53 32bc 7ab9 d8bb 1d5c b73d
000003e0: ab3b 59bd 703c 1a3c 88ef 21bd b367 dabd
000003f0: 0880 363d bc93 643c 7126 033d 3c0b d33b

actor.mu.model.0.bias f4 [8]
0.0011249824 -0.08751676 0.09558997 -0.013957512 0.036031213 0.115716994 -0.012441368 0.16922447
00000000: 2574 933a fd3b b3bd adc4 c33d 0cae 64bc
00000010: 7795 133d 08fd ec3d e1d6 4bbc 2e49 2d3e

critic.preprocess.model.model.0.weight f4 [64, 111]
0.025991512 -0.9518869 -0.88183814 1.363655 0.14346871 -0.26434788 0.13096176 0.041791268
-0.06402533 0.1164348 -0.021560105 -0.044650637 -0.13291046 0.019545287 0.09910325 0.06749789
-0.14165045 0.0090539 0.040906046 0.038237832 0.042683218 0.067610495 -0.0007209647 -0.014754952
0.0016286202 -0.16565588 -0.056325644 0.11559609 0.13299704 0.06289177 -0.057138477 0.1881832
0.058530107 0.058521695 0.25588942 -0.15160714 0.016534347 -0.27256438 -0.069080256 -0.031575255
-0.019761708 0.09753586 -0.09905475 -0.16280754 -0.16918589 0.014066893 -0.17715327 -0.15923727
0.12162454 0.15155576 0.09142981 0.103518106 0.22587189 -0.46563724 0.04280535 0.012599218
-0.06632316 -0.1887264 -0.04054124 0.4008499 0.020910783 0.10785585 -0.11051161 0.14379178
0.22867495 0.10326165 -0.042265985 -0.1706269 0.021754997 0.010674534 -0.1482764 -0.03652427
0.024626125 -0.10100746 -0.0397402 0.026624769 0.115396075 0.16166915 0.053889744 0.28066105
0.11881197 0.18221931 0.14818002 0.07078905 0.0682316 0.117270045 0.026679872 0.097671956
0.04011961 0.11373606 -0.07528017 0.05897157 -0.021370118 0.08259058 0.1342301 0.14360322
-0.165849 0.14458698 -0.035123903 -0.085925095 0.027198358 -0.18881552 0.18070537 0.13236167
-0.095424995 0.175119 0.036079094 0.061158717 0.044692993 0.20429076 0.067770295 0.06884607
0.47960228 0.057974048 -0.3989702 0.12670305 -0.062552206 0.014196265 0.08455127 0.009113668
-0.122684546 -0.22763126 0.15952522 -0.012435214 0.1305143 -0.15485641 0.21907718 0.0009985152
-0.15679553 0.3355077 0.050094422 -0.12798713 0.18992715 0.06237411 0.13305439 -0.004617629
0.3070344 -0.06969501 0.21534322 -0.014550039 -0.18403713 0.19107701 0.0008037732 0.1942871
0.32843733 -0.21861741 -0.08071645 -0.21962251 0.18534115 -0.02705078 -0.09587306 0.105111554
-0.30889386 0.27562824 0.16539 -0.120307885 0.23461245 -0.08690109 0.10506874 -0.063324414
-0.09683006 0.2008786 -0.09647073 0.0690217 -0.15452413 -0.04567221 -0.011461479 0.08505691
-0.096383594 0.044496085 0.052354425 -0.0703979 0.05662243 -0.025045661 0.1219629 -0.07321211
0.0060651456 -0.18459798 0.005993659 0.0062518315 -0.023146715 0.016551593 -0.029356599 0.11016273
-0.08520955 -0.2767439 0.03779924 0.03181252 0.2298373 -0.14299902 -0.13454789 -0.19491081
-0.076715864 -0.09247291 -0.07730281 0.06830206 0.033608124 -0.023279559 0.16188996 0.0005988888
0.024599735 -0.18632744 -0.066385284 -0.23424251 0.17808384 0.016653571 0.043141335 0.07833951
0.23302491 0.01670319 -0.2881481 -0.031137872 -0.09277147 0.078212366 0.094638206 0.04267296
-0.17622837 -0.14724879 -0.0941508 -0.057008937 0.23252635 -0.016421521 0.11624591 -0.16878276
0.09588761 -0.3493127 -0.2580918 -0.13224705 0.12999251 -0.0583758 0.028295316 -0.13018459
-0.00015118228 -0.0918927 0.0038119336 -0.45124993 0.066265166 -0.2853864 0.06209675 -0.18195996
0.124397166 -0.13371031 -0.09762669 0.17363048 -0.016807325 0.122310326 0.033306573 0.12774478
-0.016434323 -0.22798793 -0.08250919 -0.20762108 -0.11923197 0.06081043 -0.199086 0.037694335
00000000: 27ec d43c dcae 73bf 25c0 61bf 3f8c ae3f
00000010: 76e9 123e 9b58 87be d71a 063e 522d 2b3d
00000020: b61f 83bd 5e75 ee3d d19e b0bc 96e3 36bd
00000030: ae19 08be 701d a03c a5f6 ca3d 553c 8a3d
00000040: d10c 11be cf56 143c 198d 273d 469f 1c3d
00000050: 99d4 2e3d 5f77 8a3d 1fff 3cba c1be 71bc
00000060: 6d77 d53a b2a1 29be b8b5 66bd a5bd ec3d
00000070: 6030 083e 66cd 803d 090a 6abd 19b3 403e
00000080: 44bd 6f3d 72b4 6f3d f003 833e e73e 1bbe
00000090: 0a73 873c 8f8d 8bbe f379 8dbd 0e55 01bd
000000a0: 4ee3 a1bc e2c0 c73d 37dd cabd 05b7 26be
000000b0: 113f 2dbe d378 663c ab67 35be 180f 23be
000000c0: 4916 f93d 6f31 1b3e 8d3f bb3d 4d01 d43d
000000d0: f64a 673e 0168 eebe aa54 2f3d f36c 4e3c
000000e0: 70d4 87bd 7e41 41be 920e 26bd 333c cd3e
000000f0: 174d ab3c 87e3 dc3d e953 e2bd 273e 133e
00000100: c429 6a3e d87a d33d 191f 2dbd d1b8 2ebe
00000110: 8937 b23c 3ee4 2e3c c5d5 17be 799a 15bd
00000120: babc c93c 00dd cebd 9fc6 22bd 301c da3c
00000130: c754 ec3d 998c 253e 7ebb 5c3d ceb2 8f3e
00000140: b153 f33d b397 3a3e 81bc 173e d9f9 903d
00000150: 02bd 8b3d 472b f03d bf8f da3c 3c08 c83d
00000160: 7654 243d 74ee e83d 7d2c 9abd 2c8c 713d
00000170: 6310 afbc 4025 a93d 9e73 093e b90c 133e
00000180: 52d4 29be 9c0e 143e 15de 0fbd 7ff9 afbd
00000190: 17cf de3c db58 41be d40a 393e d189 073e
000001a0: 2e6e c3bd 6552 333e acc7 133d 9081 7a3d
000001b0: 0010 373d 9931 513e 27cb 8a3d 2bff 8c3d
000001c0: 6e8e f53e 3276 6d3d d245 ccbe 72be 013e
000001d0: 5f1b 80bd 7397 683c 3729 ad3d 7f51 153c
000001e0: 0942 fbbd 2b18 69be 945a 233e 11bd 4bbc
000001f0: 8aa5 053e ae92 1ebe c555 603e 9ce0 823a
00000200: 028f 20be aac7 ab3e cf2f 4d3d 0f0f 03be
00000210: 437c 423e ff7b 7f3d 693f 083e 7b4f 97bb
00000220: 9d33 9d3e 42bc 8ebd ef82 5c3e 4963 6ebc
00000230: 3b74 3cbe b1a9 433e 4eb4 523a 33f3 463e
00000240: f028 a83e 3edd 5fbe ab4e a5bd b9e4 60be
00000250: 12ca 3d3e 9999 ddbc 1859 c4bd ba44 d73d
00000260: 5627 9ebe 251f 8d3e ff5b 293e fb63 f6bd
00000270: 3f3e 703e 33f9 b1bd 482e d73d 3bb0 81bd
00000280: d74e c6bd 1fb3 4d3e 7292 c5bd 405b 8d3d
00000290: 933b 1ebe c912 3bbd edc8 3bbc 5132 ae3d
000002a0: c364 c5bd 8741 363d 9871 563d c62c 90bd
000002b0: ecec 673d 8f2c cdbc afc7 f93d 3bf0 95bd
000002c0: 21be c63b 4107 3dbe 7566 c43b 2adc cc3b
000002d0: 2e9e bdbc 3597 873c 407d f0bc ff9c e13d
000002e0: 5882 aebd 60b1 8dbe 60d3 1a3d d84d 023d
000002f0: 785a 6b3e 566e 12be ecc6 09be b396 47be
00000300: 351d 9dbd 7062 bdbd f050 9ebd f3e1 8b3d
00000310: aca8 093d c6b4 bebc 7bc6 253e bffe 1c3a
00000320: 6285 c93c 9fcc 3ebe 02f5 87bd 45dd 6fbe
00000330: 9c5b 363e 126d 883c f8b4 303d 7770 a03d
00000340: 159e 6e3e 21d5 883c 2688 93be da14 ffbc
00000350: f8fe bdbd ce2d a03d add1 c13d d7c9 2e3d
00000360: 3675 34be 63c8 16be 22d2 c0bd 3482 69bd
00000370: 631b 6e3e 6d86 86bc 5612 ee3d 63d5 2cbe
00000380: b960 c43d 1dd9 b2be 9c24 84be c56b 07be
00000390: c21c 053e 761b 6fbd 94cb e73c 1c4f 05be
000003a0: af86 1eb9 3d32 bcbd a2d1 793b 3b0a e7be
000003b0: 08b6 873d 2b1e 92be 2959 7e3d b653 3abe
000003c0: f1c3 fe3d 5beb 08be 81f0 c7bd 30cc 313e
000003d0: 84af 89bc d67d fa3d 796c 083d 87cf 023e
000003e0: 46a1 86bc ab75 69be 94fa a8bd 9f9a 54be
000003f0: e42f f4bd 5c14 793d 33dd 4bbe 6065 1a3d

critic.preprocess.model.model.0.bias f4 [64]
-0.37122786 -0.26349273 -0.7594081 0.835577 0.11770164 -0.3264256 0.8974886 1.1617649
0.30813855 -0.7748847 -0.46547857 0.28647512 0.6216807 0.74782217 0.47241673 0.3281718
0.6873043 0.21982838 -0.41258094 -0.103979595 0.609869 -0.7908363 0.18986458 0.3219224
-0.85066324 -0.45743632 -1.1143519 0.870505 0.4883746 -0.61342424 0.20239559 0.18749481
-0.2909606 -0.56785786 -0.3431914 -0.5668545 -0.941312 -1.0214266 0.59243476 -0.68943924
-0.012752532 -0.8140756 0.33823156 1.0782175 0.9656166 -1.0835159 1.0566998 0.7351599
-0.1565097 0.8972117 -0.25943837 -0.9962912 0.3403781 0.5341002 0.34795004 0.6985485
-0.321587 0.5936783 0.23085259 0.15396075 -0.44141427 -0.6970687 0.5850103 0.52848023
00000000: 9411 bebe 85e8 86be 9268 42bf 60e8 553f
00000010: 8f0d f13d 4221 a7be d0c1 653f b6b4 943f
00000020: 56c4 9d3e d85e 46bf 3553 eebe deac 923e
00000030: 7726 1f3f 4671 3f3f 9be0 f13e 2206 a83e
00000040: 2df3 2f3f b11a 613e cf3d d3be 41f3 d4bd
00000050: 6020 1c3f 3f74 4abf dc6b 423e 03d3 a43e
00000060: 11c5 59bf 1835 eabe 15a3 8ebf 6ad9 5e3f
00000070: 3c0c fa3e 5f09 1dbf ca40 4f3e a4fe 3f3e
00000080: caf8 94be 225f 11bf c8b6 afbe 601d 11bf
00000090: d3f9 70bf 1bbe 82bf cea9 173f 177f 30bf
000000a0: ffef 50bc 4267 50bf b02c ad3e 0803 8a3f
000000b0: a632 773f a6b0 8abf f041 873f 7033 3c3f
000000c0: 1444 20be aaaf 653f 1bd5 84be f10c 7fbf
000000d0: 0a46 ae3e caba 083f 8226 b23e 13d4 323f
000000e0: 0da7 a4be 4dfb 173f 9f64 6c3e e3a7 1d3e
000000f0: 0d01 e2be 1873 32bf 3cc3 153f 7b4a 073f

critic.preprocess.model.model.2.weight f4 [64, 64]
-0.052045893 0.13480057 0.13423984 -0.32880354 0.21391375 -0.2889202 0.16023809 0.13553211
0.27597153 0.5803453 -0.4281576 0.20258214 -0.30975908 0.23351333 0.22426382 0.08551934
0.21432349 0.6032523 -0.11876277 0.071728274 0.56824416 -0.47396386 -0.16685405 0.15867059
-0.09838475 -0.02461151 -0.28311405 0.04399326 0.06041148 0.3457478 0.058763966 -0.15883255
0.29178473 0.48568776 -0.004404899 -0.20399725 -0.35567027 -0.37334165 0.3480828 0.2012037
-0.39448762 0.14939499 0.42619836 0.062245958 -0.31943634 0.050593983 -0.0541962 0.32345185
0.3070244 0.18888967 -0.012838551 -0.26562214 0.08682404 0.0950578 -0.05292041 -0.15264493
0.14395434 0.34063974 -0.12045476 -0.38000497 -0.15601683 -0.15593441 0.019196969 0.20270616
-0.09565678 -0.23086254 -0.14083977 0.07814349 0.23955071 -0.20081037 0.14863728 -0.03912914
0.1658945 -0.30518344 -0.24038915 0.073482834 0.07347295 0.593595 -0.43870673 -0.23367354
0.077481404 0.17751662 -0.4700762 0.39232296 -0.19766043 -0.49186 -0.11040902 0.1622354
0.3485446 -0.50148094 -0.4438696 0.25845566 -0.03448614 0.23016001 0.22200476 0.25524366
0.2481032 -0.33547047 0.25124207 -0.34524804 -0.09892461 -0.17519702 0.115307614 -0.2197675
-0.40956685 -0.108404785 -0.14201944 -0.04863547 0.254207 0.4494891 0.42066488 -0.04411353
0.12986584 0.15384114 -0.39348018 -0.15128379 0.30934837 -0.5378569 -0.15200049 0.0807484
-0.11613816 -0.16860405 0.22014739 -0.33920342 0.052238498 0.45409176 -0.06677146 0.05661401
-0.23030432 0.4799784 0.17560424 -0.4381815 0.19381002 0.18355171 -0.18948348 -0.05773516
0.5772876 -0.1529698 0.0026448814 0.5672385 0.73710364 0.44324163 -0.58744186 0.21347904
0.38726443 0.31829834 -0.038745377 0.47768587 -0.018940765 -0.19990417 -0.7323421 -0.25173053
0.070606716 -0.30336338 0.06215516 -0.30910006 0.25552973 0.13492657 -0.32648864 0.25664255
0.15608308 -0.02667561 -0.019367935 -0.37089786 -0.38673005 0.6535597 0.16709897 -0.6048759
-0.43261555 0.013378525 0.29488117 -0.07779024 -0.07780885 -0.21460783 0.24710293 0.07964208
0.11312739 0.17887203 0.35179973 -0.2703436 0.9130682 -0.5810633 -0.2477884 0.089296125
-0.5897086 0.19599731 -0.33209944 0.10548547 -0.28351006 0.13460949 0.021787882 0.32068554
0.27679712 -0.030416902 -0.10157804 0.2882015 -0.24250525 -0.27766457 0.8439885 0.872043
0.06598182 0.073991805 -0.20711756 0.3543883 0.23620845 -0.13352288 0.34763077 -0.064682834
0.042810783 0.13247126 -0.25549823 0.002638551 0.5293638 -0.3246563 -0.15695158 0.0104307635
-0.79731935 0.0518461 -0.18146452 0.09047611 0.13643664 -0.48110735 0.32628775 -0.068943374
-0.08936058 -0.33788234 -0.083793506 -0.35456136 -0.45642415 -0.7636625 0.23265427 0.4002775
-0.12055165 -0.55528814 -0.42969483 -0.10251709 0.17449611 -0.6638144 0.7002246 0.22745873
-0.2265617 0.18619323 -0.059964243 -0.8189377 -0.33373404 -0.038438912 0.22286093 0.24058689
0.11467354 0.3665472 0.108785875 -0.03081548 -0.25938526 -0.49935687 -0.12380542 0.25027683
00000000: 132e 55bd 2909 0a3e 2b76 093e f058 a8be
00000010: 350c 5b3e 59ed 93be 7415 243e eec8 0a3e
00000020: 244c 8d3e 8291 143f 7937 dbbe b171 4f3e
00000030: be98 9ebe 1e1e 6f3e 6aa5 653e c424 af3d
00000040: 9e77 5b3e be6e 1a3f e539 f3bd 46e6 923d
00000050: 7378 113f 64ab f2be cadb 2abe 8b7a 223e
00000060: f27d c9bd 149e c9bc 53f4 90be 4732 343d
00000070: 0772 773d db05 b13e 7cb2 703d 00a5 22be
00000080: cf64 953e 11ac f83e f956 90bb a8e4 50be
00000090: 6a1a b6be a326 bfbe e937 b23e 5808 4e3e
000000a0: 48fa c9be 00fb 183e ac36 da3e 9ef5 7e3d
000000b0: 298d a3be a33b 4f3d d6fc 5dbd 7b9b a53e
000000c0: 4d32 9d3e 4b6c 413e c958 52bc a0ff 87be
000000d0: cdd0 b13d aaad c23d 12c3 58bd f44e 1cbe
000000e0: c468 133e 5568 ae3e fcb0 f6bd 0390 c2be
000000f0: e0c2 1fbe 45ad 1fbe f642 9d3c 3492 4f3e
00000100: b4e7 c3bd 3b67 6cbe 4d38 10be b209 a03d
00000110: c84c 753e 3ca1 4dbe 5f34 183e e145 20bd
00000120: 3fe0 293e 0141 9cbe 9328 76be 2b7e 963d
00000130: fc78 963d d8f5 173f 2b9e e0be 1e48 6fbe
00000140: 92ae 9e3d ebc6 353e d4ad f0be 8ede c83e
00000150: 7f67 4abe 13d5 fbbe 201e e2bd 0921 263e
00000160: 7074 b23e 0e61 00bf e042 e3be 4d54 843e
00000170: 5741 0dbd 11af 6b3e 3755 633e 4caf 823e
00000180: c40e 7e3e c9c2 abbe cda2 803e 5ac4 b0be
00000190: fc98 cabd d966 33be 6626 ec3d bb0a 61be
000001a0: bfb2 d1be 5403 debd 8b6d 11be fd35 47bd
000001b0: 6b27 823e 6f23 e63e 6361 d73e 64b0 34bd
000001c0: 8dfb 043e 8888 1d3e 3c76 c9be 23ea 1abe
000001d0: e962 9e3e fdb0 09bf 04a6 1bbe 6b5f a53d
000001e0: d8d9 edbd 8aa6 2cbe 516e 613e 12ac adbe
000001f0: 09f8 553d b77e e83e 7abf 88bd 18e4 673d
00000200: e5d4 6bbe bbbf f53e 99d1 333e 5359 e0be
00000210: 2276 463e fbf4 3b3e f507 42be b47b 6cbd
00000220: 1fc9 133f 1ea4 1cbe bf55 2d3b 8b36 113f
00000230: d3b2 3c3f 91f0 e23e 9762 16bf 409a 5a3e
00000240: 8647 c63e 00f8 a23e 79b3 1ebd 3e93 f43e
00000250: aa29 9bbc aeb3 4cbe c67a 3bbf d3e2 80be
00000260: 419a 903d 7252 9bbe 6996 7e3d 5d42 9ebe
00000270: cbd4 823e 312a 0a3e 8529 a7be a766 833e
00000280: 3ed4 1f3e cf86 dabc 81a9 9ebc 53e6 bdbe
00000290: 7b01 c6be b04f 273f fe1b 2b3e 26d9 1abf
000002a0: c97f ddbe 9a31 5b3c aafa 963e 7d50 9fbd
000002b0: 3f5a 9fbd 28c2 5bbe 8d08 7d3e 631b a33d
000002c0: 55af e73d 3b2a 373e 181f b43e 7a6a 8abe
000002d0: d6be 693f 90c0 14bf 3ebc 7dbe e3e0 b63d
000002e0: 25f7 16bf 85b3 483e f008 aabe c408 d83d
000002f0: 3b28 91be 12d7 093e 807c b23c e530 a43e
00000300: 5ab8 8d3e de2c f9bc 2608 d0bd 268f 933e
00000310: 4c53 78be 0d2a 8ebe a10f 583f 363e 5f3f
00000320: 7a21 873d 0489 973d a016 54be 6272 b53e
00000330: a1e0 713e 39ba 08be a9fc b13e 6f78 84bd
00000340: 5c5a 2f3d 8ca6 073e aad0 82be 8aeb 2c3b
00000350: 6384 073f 5a39 a6be eab7 20be cbe5 2a3c
00000360: 1f1d 4cbf 935c 543d d6d1 39be 8a4b b93d
00000370: 0cb6 0b3e b453 f6be 300f a73e 2f32 8dbd
00000380: ae02 b7bd eafe acbe ee9b abbd 1189 b5be
00000390: 6db0 e9be 637f 43bf ec3c 6e3e 2cf1 cc3e
000003a0: c9e3 f6bd 5d27 0ebf f600 dcbe 7bf4 d1bd
000003b0: 1caf 323e beef 29bf eb41 333f f1ea 683e
000003c0: caff 67be 70a9 3e3e 119d 75bd e7a5 51bf
000003d0: 30df aabe 1f72 1dbd a835 643e 695c 763e
000003e0: f6d9 ea3d 13ac bb3e 21cb de3d bf70 fcbc
000003f0: 25ce 84be b4ab ffbe b28d fdbd 4924 803e

critic.preprocess.model.model.2.bias f4 [64]
0.10502137 0.12807035 -0.08562356 0.3671227 -0.03670038 0.17443797 0.011630329 -0.21329136
-0.30671006 0.11917149 -0.142547 -0.27948853 0.0767223 0.28241977 0.19290388 0.11585122
0.092544176 -0.09603703 0.09728677 -0.42270374 0.24917032 -0.052787155 0.33644506 0.48200917
0.26637402 0.0050709117 -0.32128477 -0.454284 0.16114724 0.0035768456 0.4216847 -0.20456457
0.19608252 -0.31656814 0.08957561 0.21048146 -0.06634668 -0.41926202 0.15468241 0.19955616
0.022811968 0.0044773566 -0.4917383 -0.13209876 -0.1322674 0.08543936 0.183404 0.33266893
-0.23912778 -0.034148715 0.027123826 -0.122467734 0.10388683 -0.087002136 -6.229085e-05 0.144196
0.111814335 0.13780159 0.06941246 0.015943803 -0.1263604 -0.22565037 0.17465357 -0.12754203
00000000: 7215 d73d e024 033e 685b afbd 82f7 bb3e
00000010: 2353 16bd de9f 323e 238d 3e3c 0d69 5abe
00000020: 1a09 9dbe 2f10 f43d d7f7 11be 1f19 8fbe
00000030: 9520 9d3d 5399 903e 9888 453e 6843 ed3d
00000040: cd87 bd3d 10af c4bd 493e c73d a06c d8be
00000050: 8126 7f3e 5837 58bd 8742 ac3e e8c9 f63e
00000060: 2d62 883e e429 a63b 707f a4be ea97 e8be
00000070: c803 253e 8369 6a3b 0fe7 d73e 6079 51be
00000080: dbc9 483e 3815 a2be 6b73 b73d 7488 573e
00000090: c5e0 87bd 83a9 d6be 1165 1e3e 7358 4c3e
000000a0: 2ae0 ba3c cab6 923b 1fc5 fbbe e644 07be
000000b0: 1b71 07be d5fa ae3d 42ce 3b3e 9553 aa3e
000000c0: eadd 74be 86df 0bbd c932 de3c 5dd0 fabd
000000d0: 9ec2 d43d 2d2e b2bd 25a2 82b8 1ea8 133e
000000e0: eafe e43d dc1b 0d3e 1f28 8e3d 949c 823c
000000f0: 9f64 01be e410 67be 63d8 323e 619a 02be

critic.last.model.0.weight f4 [1, 64]
0.07147677 0.08392118 0.14968921 0.32734784 -0.19879475 0.21165696 0.07291236 -0.12829797
-0.1448847 0.056667425 -0.023737194 -0.07459509 -0.06708243 0.21604262 0.11921585 0.26773718
0.07761343 -0.30826536 0.012212006 -0.4052667 0.1404829 -0.09213378 0.2595566 0.2573545
0.5375154 -0.089880265 -0.14732775 -0.22846976 0.2174385 0.051954493 0.19062279 -0.25718087
0.25849846 -0.114210695 0.39468098 0.065046854 -0.036899645 -0.2162844 0.08798828 0.06598003
0.028085278 -0.12469374 -0.3817018 -0.21845989 -0.15837212 0.057395436 0.06637727 0.13618201
0.0074327514 0.31565496 0.20032854 -0.16869372 0.0456885 0.18480587 -0.1954255 0.064812385
0.2909429 0.17933688 0.13866812 0.15840863 -0.007185383 -0.19705519 0.20944431 -0.30343965
00000000: 6a62 923d dede ab3d 2148 193e 239a a73e
00000010: da90 4bbe 9abc 583e 1353 953d 8b60 03be
00000020: a85c 14be 1a1c 683d 8174 c2bc 4fc5 98bd
00000030: 8362 89bd 473a 5d3e 7127 f43d d914 893e
00000040: caf3 9e3d f5d4 9dbe de14 483c 1e7f cfbe
00000050: c0da 0f3e a3b0 bcbd 9ae4 843e f8c3 833e
00000060: 9c9a 093f 2513 b8bd 16dd 16be faf3 69be
00000070: 33a8 5e3e 3cce 543d 9f32 433e 36ad 83be
00000080: e959 843e 4ce7 e9bd a013 ca3e 4937 853d
00000090: 1524 17bd a879 5dbe 3333 b43d 8a20 873d
000000a0: 1913 e63c 6e5f ffbd 6b6e c3be f3b3 5fbe
000000b0: 4d2c 22be 7a17 6b3d cef0 873d 4c73 0b3e
000000c0: 708e f33b 879d a13e ed22 4d3e 0cbe 2cbe
000000d0: dd23 3b3d c03d 3d3e 9f1d 48be 5bbc 843d
000000e0: 78f6 943e 16a4 373e 04ff 0d3e df35 223e
000000f0: 5c73 ebbb d6c8 49be 9278 563e 715c 9bbe

_actor_critic.actor.sigma_param f4 [8, 1]
-3.5838618 -3.5816123 -3.4754212 -3.1947713 -3.4512093 -3.3579476 -3.0179145 -2.9936426
00000000: fe5d 65c0 2339 65c0 4d6d 5ec0 2277 4cc0
00000010: 9de0 5cc0 9de8 56c0 8325 41c0 d797 3fc0

_actor_critic.actor.preprocess.model.model.0.weight f4 [64, 111]
-0.088098325 -0.00835893 -0.64879596 -0.14190905 -0.058159117 -0.109075114 -0.0009235574 0.18777168
-0.25559732 0.07734788 -0.29527676 0.090512976 0.23333964 0.1439941 0.10733284 0.11264558
-0.08245338 0.20151971 0.3193872 0.10868549 -0.028993761 -0.1702725 -0.36055344 -0.072928555
0.058815673 0.0068974067 0.43922275 0.0992895 -0.011252793 -0.120871976 0.19498295 -0.041564867
-0.086116865 -0.04738841 -0.13116863 -0.11634724 -0.10692449 -0.0072737825 0.07845777 0.21870995
0.002038493 0.06542534 0.23602019 0.10284288 -0.026067283 0.14800386 -0.21108021 -0.10904937
-0.026510645 0.055202566 0.056557223 -0.01198079 0.12951107 -0.16056952 0.016117511 0.0702003
-0.07939043 -0.046641972 -0.078950204 0.13063133 0.04095363 0.017472768 0.06827931 -0.1562413
-0.0048283613 -0.14052795 0.13799965 -0.170269 -0.14528769 0.016744945 0.0989123 -0.05953391
-0.09727372 -0.07801999 0.09958836 -0.22400461 0.054933716 -0.006291501 0.05193284 -0.07279605
-0.044828173 0.11034449 -0.45182985 0.050442304 -0.003986135 0.20857799 -0.00039998195 0.02741499
0.032358225 -0.033607073 0.14023016 0.24214257 0.019411873 0.07573443 0.16889513 -0.13796407
-0.012371564 -0.2162055 -0.13098855 -0.065314785 0.009552851 -0.0055407225 0.084303804 0.12769486
-0.23311508 0.06474542 0.10597189 -0.12208702 0.0950943 -0.051307485 -0.27583176 -0.10533631
0.4066926 0.03077253 0.15194084 -0.54836684 0.04443575 -0.31179538 0.23377503 0.06491663
0.4750761 0.008561931 0.09235714 -0.051837284 -0.08540647 -0.28631568 -0.0313026 0.13917539
-0.043980807 -0.06761739 -0.015333763 0.14704867 -0.23629741 -0.06359743 -0.24921848 -0.2298234
-0.16521226 -0.049119297 -0.027102944 -0.05032059 0.047444057 -0.0188097 0.049494054 -0.1393063
-0.05585909 0.07873362 0.0065257116 0.22413173 -0.057221033 -0.031330675 -0.023612281 0.0214882
0.009055242 -0.19653215 -0.004233151 -0.034226373 0.14903307 0.18076235 0.106559284 -0.11782388
0.057094853 -0.06781268 -0.13953523 0.13352934 0.051087044 -0.06608992 -0.22229916 0.14651784
-0.081411004 0.03848691 -0.038241405 0.022792296 -0.3193185 0.07663006 -0.17519397 0.21850494
0.014047319 -0.064700544 0.06476314 0.020408608 -0.19537519 0.267348 -0.15607053 0.038526684
-0.09740659 0.09388496 -0.117032304 -0.012898658 0.027111527 0.030649021 -0.10472844 -0.06417377
-0.018546136 -0.18901016 -0.12340155 -0.05783235 0.053649455 0.032585233 -0.19058914 -0.07068235
-0.058532216 -0.21230716 -0.15756948 -0.03520505 -0.098185234 -0.3097002 -0.063841 0.008070593
0.037113704 0.17324354 -0.0024624018 0.055644616 -0.17682791 0.22788152 0.075924225 -0.18862322
-0.24272677 0.13527535 -0.032602623 -0.08004117 0.041980624 -0.06761691 0.42603698 -0.09961223
0.18708628 -0.28706512 -0.4838513 0.039874263 0.102462724 0.026391456 0.047911353 0.061363306
-0.009155197 -0.27627543 0.31387684 0.091611706 0.17059 0.04175106 -0.2628799 0.10143392
-0.32195044 0.22880612 0.13885984 0.010944896 -0.19948436 -0.19608565 -0.14360683 -0.16848153
0.34957772 -0.056258094 0.17144187 -0.23689067 -0.11956122 0.16669095 0.42336592 -0.11298214
00000000: e56c b4bd e5f3 08bc 7e17 26bf 9b50 11be
00000010: 4138 6ebd c662 dfbd e31a 72ba 3847 403e
00000020: a7dd 82be 9168 9e3d 842e 97be de5e b93d
00000030: 96f0 6e3e 3073 133e 52d1 db3d bab2 e63d
00000040: 51dd a8bd 2f5b 4e3e b886 a33e 8096 de3d
00000050: 5384 edbc ea5b 2ebe 769a b8be 915b 95bd
00000060: b4e8 703d a403 e23b cee1 e03e 4b58 cb3d
00000070: a25d 38bc ba8b f7bd 9ca9 473e ec3f 2abd
00000080: 0a5e b0bd 591a 42bd 1251 06be 7647 eebd
00000090: 3afb dabd e958 eebb 78ae a03d 80f5 5f3e
000000a0: 3d98 053b b8fd 853d 47af 713e 4a9f d23d
000000b0: 0e8b d5bc 538e 173e 6925 58be 4755 dfbd
000000c0: da2c d9bc 161c 623d 8ca8 673d 134b 44bc
000000d0: 8d9e 043e 566c 24be df08 843c 2dc5 8f3d
000000e0: 7397 a2bd a70b 3fbd a5b0 a1bd 38c4 053e
000000f0: febe 273d 0d23 8f3c 06d6 8b3d b8fd 1fbe
00000100: 3b37 9ebb 8fe6 0fbe c84f 0d3e ff5a 2ebe
00000110: 4cc6 14be b22c 893c 8892 ca3d d4d9 73bd
00000120: 7237 c7bd f2c8 9fbd fbf4 cb3d 7761 65be
00000130: 2d02 613d f028 cebb 88b7 543d 1816 95bd
00000140: bf9d 37bd 4bfc e13d 3e56 e7be 979c 4e3d
00000150: 209e 82bb 7895 553e abb4 d1b9 6795 e03c
00000160: 0f8a 043d 92a7 09bd 7f98 0f3e 39f4 773e
00000170: a605 9f3c a71a 9b3d d8f2 2c3e 7446 0dbe
00000180: 1ab2 4abc f964 5dbe dd21 06be c2c3 85bd
00000190: 9083 1c3c f38e b5bb 79a7 ac3d 71c2 023e
000001a0: b8b5 6ebe 3f99 843d ca07 d93d c208 fabd
000001b0: cdc0 c23d cc27 52bd d239 8dbe 90ba d7bd
000001c0: 033a d03e ac16 fc3c 6196 1b3e c561 0cbf
000001d0: 4302 363d a5a3 9fbe b962 6f3e 03f3 843d
000001e0: 2d3d f33e 5747 0c3c bd25 bd3d 5553 54bd
000001f0: 96e9 aebd f897 92be 2837 00bd fe83 0e3e
00000200: 3825 34bd fc7a 8abd 773a 7bbc ed93 163e
00000210: f3f7 71be 5f3f 82bd 2133 7fbe d356 6bbe
00000220: 672d 29be 5131 49bd fe06 debc f71c 4ebd
00000230: b354 423d cd16 9abc 47ba 4a3d 50a6 0ebe
00000240: 80cc 64bd 183f a13d a3d5 d53b ca82 653e
00000250: 9a60 6abd 9854 00bd 8b6e c1bc 0608 b03c
00000260: 705c 143c b93f 49be 3fb6 8abb f430 0cbd
00000270: 209c 183e c419 393e c13b da3d a54d f1bd
00000280: 4bdc 693d 60e1 8abd 53e2 0ebe eabb 083e
00000290: a640 513d 275a 87bd 64a2 63be c608 163e
000002a0: d0ba a6bd 73a4 1d3d 05a3 1cbd e9b6 ba3c
000002b0: b77d a3be 39f0 9c3d 0c66 33be c2bf 5f3e
000002c0: ba26 663c b881 84bd 8aa2 843d f42f a73c
000002d0: 6f10 48be d6e1 883e f4d0 1fbe 28ce 1d3d
000002e0: 1b7d c7bd c246 c03d a2ae efbd e554 53bc
000002f0: fe18 de3c a813 fb3c dd7b d6bd 8a6d 83bd
00000300: 11ee 97bc e18b 41be f4b9 fcbd 9de1 6cbd
00000310: 88bf 5b3d 1878 053d cd29 43be e8c1 90bd
00000320: 7abf 6fbd 0c67 59be e559 21be 2c33 10bd
00000330: 5715 c9bd 0691 9ebe 12bf 82bd 853a 043c
00000340: 8a04 183d c166 313e 3f60 21bb 9ceb 633d
00000350: 6012 35be c659 693e 297e 9b3d 7226 41be
00000360: 5e8d 78be 9f85 0a3e 548a 05bd a0ec a3bd
00000370: e0f3 2b3d bc7a 8abd 8521 da3e 7f01 ccbd
00000380: 8c93 3f3e 33fa 92be 5cbb f7be 3253 233d
00000390: fad7 d13d e532 d83c b23e 443d 1758 7b3d
000003a0: aeff 15bc f973 8dbe 77b4 a03e eb9e bb3d
000003b0: 25af 2e3e 2903 2b3d 3298 86be 96bc cf3d
000003c0: b0d6 a4be 274c 6a3e 4631 0e3e 3952 333c
000003d0: a145 4cbe adca 48be ab0d 13be 6c86 2cbe
000003e0: dafb b23e e36e 66bd 758e 2f3e 7893 72be
000003f0: 83dc f4bd 08b1 2a3e 6bc3 d83e 2e63 e7bd

_actor_critic.actor.preprocess.model.model.0.bias f4 [64]
0.15823607 -0.00856613 0.1752119 -0.057047587 -0.15195747 -0.046703234 -0.015324501 -0.102188975
0.04264416 -0.04049063 0.12080733 0.13734846 0.013270281 -0.06947982 0.07274793 -0.061292622
-0.19263554 -0.06479107 -0.06069076 0.058292113 -0.054207955 0.011545323 -0.008655887 -0.045532778
0.061358012 -0.093743846 0.06474718 0.037786722 0.17834008 -0.0836118 -0.09012641 0.22102569
0.102897726 0.029368019 -0.26552755 -0.05251317 -0.061634637 0.18776171 -0.028084932 0.10512696
0.15458949 -0.020482596 -0.08838061 -0.05858303 0.12838952 0.26527888 -0.08610645 -0.05049277
-0.085393116 0.30493695 0.16174449 -0.059572138 0.017228287 -0.07685691 0.27150342 0.00070152414
0.067665555 0.102165416 -0.025674665 0.2174884 0.05147184 0.003486865 -0.1178679 0.078310244
00000000: a308 223e f458 0cbc c06a 333e bbaa 69bd
00000010: bd9a 1bbe e44b 3fbd 9e13 7bbc 7448 d1bd
00000020: a5ab 2e3d 81d9 25bd d569 f73d 13a5 0c3e
00000030: 986b 593c 704b 8ebd defc 943d f90d 7bbd
00000040: 4042 45be 2eb1 84bd e096 78bd b6c3 6e3d
00000050: 2909 5ebd 9828 3d3c 6cd1 0dbc 9480 3abd
00000060: 8a52 7b3d c6fc bfbd 2b9a 843d 40c6 1a3d
00000070: c89e 363e aa3c abbd 3294 b8bd 8f54 623e
00000080: 0bbc d23d 3395 f03c 3af3 87be 0d18 57bd
00000090: 9a74 7cbd 9b44 403e 5f12 e6bc ce4c d73d
000000a0: b54c 1e3e 1ecb a7bc e500 b5bd c2f4 6fbd
000000b0: 8b78 033e a2d2 873e 9458 b0bd 82d1 4ebd
000000c0: 96e2 aebd b220 9c3e 59a0 253e ea01 74bd
000000d0: 5622 8d3c 2867 9dbd 7f02 8b3e 7de6 373a
000000e0: 3d94 8a3d 1a3c d13d ad53 d2bc 47b5 5e3e
000000f0: 23d4 523d e383 643b ba64 f1bd 1f61 a03d
