results/Swimmer-v3/trpo/5/220709-071606/policy.pth (torch, 47844 bytes, 24 tensors)

actor.sigma_param f4 [2, 1]
000000 a8 ee ca bf 7c 0a 34 bf
       -1.5854082 -0.703285

actor.preprocess.model.model.0.weight f4 [64, 8]
000000 20 4c 66 3e a8 e7 cd 3e 21 78 3e 3d ec e1 12 3f
       0.22489977 0.40215802 0.046501283 0.5737598
000010 5d b8 27 3e 74 db 22 bd 10 3b 4e be 74 ce 3a be
       0.16378923 -0.039760068 -0.20139718 -0.18242818
000020 d8 fd c6 3e f5 c1 51 3e 1b 06 d7 bd f2 3f 7b be
       0.38865542 0.20484145 -0.104992114 -0.24536112
000030 af d7 f3 bc f6 dc 42 3d 48 5c cf bd e6 c5 0e be
       -0.029765932 0.047574006 -0.10125023 -0.1394268
000040 33 46 c5 3d 2a e2 42 be de 92 cb bb cc 7d dd 3d
       0.0963253 -0.19031587 -0.0062125763 0.108150095
000050 3b e4 a9 bd 8c a6 2a be 70 35 67 3d 07 03 b2 3c
       -0.08295485 -0.16665095 0.056447446 0.02172996
000060 c8 a8 5f 3d a8 71 d1 3e fe 63 56 bd c5 3f fc bd
       0.05460432 0.40907025 -0.052341454 -0.123168506
000070 87 f4 f0 3c 1e c1 68 be 55 48 c4 3e 3c 58 a4 3e
       0.029413475 -0.22729918 0.38336435 0.32098567
000080 d9 05 b5 3e d7 56 02 3d 34 1e 0d be 14 cd c0 bd
       0.35356024 0.0318211 -0.13781053 -0.094141155
000090 42 1c 89 be 99 18 a1 3e 4d 78 94 be ec 15 c2 3e
       -0.26779372 0.3146408 -0.28998032 0.3790735
0000a0 45 a4 f6 3d b7 ba ef 3e b3 e2 c6 3c 7c 4f f4 3d
       0.12043051 0.4682214 0.02427802 0.11929223
0000b0 18 19 41 bd f2 f0 dc bd 13 6f 3a 3d 90 bf b6 bd
       -0.047143072 -0.10788144 0.045516085 -0.089232564
0000c0 68 1f 4e be fb 8b ed 3b a6 b6 21 be ef 5b 4e 3d
       -0.20129168 0.007249353 -0.15792331 0.050380643
0000d0 0a fb 71 be 30 da 1e 3c 38 a2 c2 be 6b 43 83 3d
       -0.2363092 0.009695575 -0.38014388 0.06409343
0000e0 55 f8 61 be 2a f7 91 bd bd c7 88 3d 99 34 f0 3b
       -0.22067387 -0.07127221 0.06678722 0.007330489
0000f0 dd c2 45 3d 6b 22 c1 3e 65 13 b2 3d 58 4c 4d 3e
       0.04828154 0.3772157 0.086951055 0.20048654
000100 74 d7 08 3e dc 02 56 be f8 78 4e 3e 52 aa 4f be
       0.13363439 -0.20899528 0.20163333 -0.20279816
000110 ee aa 6f bc 6a 85 23 be b0 b8 d4 3e 4a 8d f5 bd
       -0.014628155 -0.15968862 0.41547155 -0.119898394
000120 a7 8d 11 be 3c b7 8b be 9e 07 db bd 55 f2 e6 3e
       -0.14214192 -0.27288234 -0.10694812 0.4510676
000130 e9 44 6a bc 47 6f d5 be f4 f2 c7 3e cf c9 75 be
       -0.014298656 -0.4168646 0.39052546 -0.24002765
000140 8a fa b5 3d 63 2a 9c 3e dc 3b 8d 3e 4b 75 15 3e
       0.08885677 0.30501089 0.27584732 0.14595525
000150 ba 2e 8d 3d e5 b3 0c bd cf d3 2d be f6 29 34 bd
       0.06893678 -0.03435125 -0.1697533 -0.04398533
000160 41 b1 bf be 93 ee f6 be 30 aa ac bd ca 34 25 be
       -0.37439921 -0.48228893 -0.08430898 -0.16133419
000170 55 d1 d4 bd 72 67 4b bf d6 c9 9c 3e cd a9 d1 bd
       -0.103914894 -0.7945472 0.3062274 -0.10237465
000180 b7 53 2b be 15 15 f4 bd c4 15 8e be f0 c2 a2 3b
       -0.16731153 -0.119180836 -0.2775098 0.004967086
000190 b2 d3 94 3e 64 6d 36 3e e3 62 bc bd 16 2c d5 3e
       0.2906776 0.17815167 -0.09198549 0.41635197
0001a0 13 94 e0 bd 73 1d be be 02 ee 3d 3e 2c ad 52 3e
       -0.10965743 -0.37131843 0.18547824 0.20573872
0001b0 95 c6 ba bd 6e 95 90 3e c1 5f 40 be 3e 01 d6 3e
       -0.09119908 0.28239006 -0.18786527 0.41797823
0001c0 e3 99 42 3e 03 24 77 be 7a 8c 56 bc 0a 1a 83 bd
       0.19004016 -0.24134831 -0.013095016 -0.06401451
0001d0 c6 d2 7a be bd 71 55 be 34 24 81 3e 79 e5 04 3e
       -0.24494466 -0.20844169 0.25222933 0.12978162
0001e0 60 9f d6 be 6e 9d 20 3e 0d b1 c8 3d 95 44 89 be
       -0.41918468 0.15685055 0.09799395 -0.26810136
0001f0 85 30 3b 3e 7e b8 84 3b 13 14 50 be f5 de a3 3c
       0.18280227 0.0040503135 -0.20320158 0.020003775
000200 f3 bb c4 be b4 5b 1b bf 8e b7 15 3f 34 3a af 3d
       -0.38424644 -0.606868 0.5848321 0.08556023
000210 e5 36 29 3d b7 43 29 3f 88 11 80 bd 53 aa 3b be
       0.041312117 0.6611895 -0.06253344 -0.18326692
000220 47 99 96 3e 95 f1 10 3f aa c9 7e bd 7e dd 5c be
       0.29413816 0.56618625 -0.06220404 -0.21568868
000230 cc 5a 7c 3d 33 9b b9 3d 50 a2 d2 3e 84 d0 99 3e
       0.06161003 0.09062805 0.4113946 0.30041897
000240 10 51 8d be 85 33 18 3e 41 d5 98 3e b8 4c ea 3d
       -0.27600908 0.14863403 0.298502 0.11440414
000250 a2 23 22 3e 54 d5 4b bd 67 9b 68 3e 73 b4 d3 3c
       0.15833905 -0.049763992 0.22715531 0.02584288
000260 d4 ab 80 3e ad 8e f6 3e f0 df 97 3e 49 60 06 bf
       0.25131094 0.48155728 0.29663038 -0.5249067
000270 16 d4 ea bd 21 25 14 3f 85 8c dc be 0e 59 79 3e
       -0.114662334 0.57869154 -0.43075958 0.24350378
000280 9d c2 80 3d e2 9f a4 be 62 3c 3a be f1 2a 0c 3e
       0.062871195 -0.3215323 -0.18187097 0.13688256
000290 d1 ba 70 be 6a 69 47 3e 68 cb c7 be 2e 04 0d be
       -0.23508765 0.19473806 -0.39022374 -0.13771126
0002a0 60 b8 8e 3a d4 13 bb be 13 3b 46 be 7f 2b 5d be
       0.0010888688 -0.36538565 -0.19358473 -0.21598624
0002b0 3e 74 45 bd ea dd de bc e9 e7 0d be eb 06 f9 bb
       -0.04820656 -0.027205426 -0.13857998 -0.0075997016
0002c0 62 c2 1e bf 61 6b dd bd d8 04 83 be 54 f3 53 bd
       -0.62015355 -0.108114965 -0.25589633 -0.051745728
0002d0 33 09 8f bd 3a b0 5e 3e 23 8f 8d bb bd 22 a1 3e
       -0.069841765 0.21746913 -0.0043200417 0.31471816
0002e0 6b ac 38 be f9 d6 a4 be 91 0c eb 3c 1f b3 a4 3e
       -0.18034522 -0.3219526 0.028692516 0.3216791
0002f0 8d fd 41 3e a7 49 be 3d 57 9a e8 3d 9a ea 8d be
       0.18944378 0.09291392 0.11357563 -0.2771805
000300 fd 0e 89 be 78 2f bf bd 90 1b b9 3e 35 88 79 3e
       -0.26769248 -0.09335226 0.3615384 0.24368365
000310 a5 b1 1a bd 10 cb 0e bf b6 ce 5e be 05 29 9d 3e
       -0.03776707 -0.557786 -0.21758541 0.30695358
000320 22 21 f0 3c e2 c2 d2 be 1f 3f 23 3e 32 8f 05 3e
       0.029312674 -0.4116431 0.15942048 0.13042906
000330 1f 16 c0 be 1c ef d7 bd 13 58 7b bd 98 27 3e be
       -0.37516877 -0.10543653 -0.06136329 -0.18569791
000340 55 d4 18 3e 05 0e 2b 3d c4 4b a5 ba b3 f4 80 be
       0.14924748 0.041761417 -0.0012611081 -0.2518669
000350 c8 9b ab 3e 74 a1 2b be 52 f5 1d be 95 50 b3 3b
       0.3351729 -0.16760808 -0.15425614 0.0054722526
000360 c4 00 9a 3e af 61 5f 3e 06 8f 42 be 9f 90 6a be
       0.3007871 0.21814607 -0.18999872 -0.22906731
000370 d8 19 08 3f 09 94 17 be fe fe 34 be da dd bc 3e
       0.53164434 -0.14802565 -0.17675397 0.3688801
000380 a1 e8 97 3e bc 91 3e bf 42 e1 99 be 15 27 c9 bd
       0.2966967 -0.74441123 -0.3005467 -0.098219074
000390 32 78 8f 3e 3a aa 1f 3e 3c fa cb bd 75 6c 91 bd
       0.2802139 0.1559228 -0.09959838 -0.07100765
0003a0 a8 85 f5 be 5e f6 9f be 7b 0d 32 be 31 2a b7 3c
       -0.47953534 -0.3124265 -0.17387955 0.022358986
0003b0 bd 1b e4 bd cb ca 5c 3e 3e 4d c8 bd 2d 55 a2 3e
       -0.11138103 0.21561734 -0.09780358 0.3170561
0003c0 5d a9 2e be b7 b9 08 3e 04 14 d9 bb 7d 58 ef 3d
       -0.17056794 0.13352095 -0.0066247005 0.116868
0003d0 9b b4 a8 bd 0b 72 ce 3e 82 b9 a5 bc b9 98 04 be
       -0.08237573 0.40321383 -0.020230059 -0.12948884
0003e0 86 df 17 3e c2 d7 66 3c d2 89 83 be ad 2b 7a be
       0.14831361 0.014089527 -0.25691086 -0.24430723
0003f0 2f 02 29 bd 05 ba b8 3c 27 53 c7 bd 43 f1 86 bd
       -0.041261848 0.022549639 -0.09732657 -0.06588986

actor.preprocess.model.model.0.bias f4 [64]
000000 78 84 24 bd 06 80 17 bd a7 39 82 be 8a c8 ad bc
       -0.040165395 -0.036987327 -0.2543461 -0.021213789
000010 94 42 48 be e6 40 d6 3c 12 e3 55 bd ba c9 0e 3e
       -0.19556648 0.026153993 -0.052218504 0.1394414
000020 40 fe 18 3d 8e c0 5c bd db 12 3b bb 33 d5 01 3e
       0.037351847 -0.053894572 -0.0028545174 0.12678985
000030 be 47 e1 bb c6 39 e1 3d b1 f7 96 3d 1e e3 e3 3d
       -0.0068750074 0.109973475 0.07371462 0.111273035
000040 95 c6 ca 3e b2 4f 39 bd 47 a0 9d bc a8 1d d5 3c
       0.3960463 -0.04524202 -0.019241465 0.026015118
000050 82 56 56 3d 05 13 ff bd 3a d4 30 3e d0 56 6c 3d
       0.052328594 -0.124547996 0.17268458 0.05769998
000060 d5 5b 13 be f1 5d 67 3c fb d7 ee bd 89 47 b1 bd
       -0.143905 0.0141215185 -0.11662289 -0.086562224
000070 f9 51 33 be d4 e9 76 3e 13 4a 4b bc 88 ea 74 bd
       -0.17511739 0.24112636 -0.012407797 -0.05979398
000080 48 b7 e6 b9 2a 56 3f 3d ee 4f e6 bb 28 cd 93 3d
       -0.00044005574 0.04671303 -0.0070285713 0.07216865
000090 37 03 08 bd 90 7e 86 bd c8 35 14 3c ff 47 4b 3e
       -0.03320619 -0.06567109 0.009046026 0.19851683
0000a0 5a 09 5c bd da ff b6 bd 46 23 a6 3e dd d2 98 bb
       -0.053719856 -0.089355186 0.32448786 -0.0046638087
0000b0 75 15 f8 3c 1d 58 70 bd 94 69 19 3d 44 cc 24 3d
       0.030283669 -0.05867778 0.037454203 0.040233865
0000c0 02 73 c1 bc ac 23 3c 3e 19 b7 37 3e b8 30 c1 bd
       -0.02361441 0.18372983 0.1794094 -0.094331205
0000d0 95 d2 d0 3d 11 bc 40 3e 26 d9 0f bd 09 d5 09 3d
       0.10196415 0.18821742 -0.0351192 0.03365043
0000e0 10 0e 80 bd cd 8d 7c bd 1f 31 d2 3d 09 ac c2 3d
       -0.06252682 -0.06165867 0.10263275 0.09505469
0000f0 12 f8 70 bd b9 17 da 3c 86 57 df bd cf e5 c3 3c
       -0.05883033 0.02662264 -0.10905366 0.023913292

actor.preprocess.model.model.2.weight f4 [64, 64]
000000 cb 7c 63 3e 7f 67 fb bd 38 29 60 3e d5 0e 7b be
       0.22215573 -0.122756 0.21890724 -0.24517377
000010 f8 4e 15 be 3a 3b 3e 3e b1 69 17 3e de 62 56 3e
       -0.14580905 0.1857728 0.14786412 0.20936152
000020 ac 9a fe bd 1f 7f 9d 3d 53 81 78 3d d9 38 5e 3e
       -0.12431845 0.07690262 0.06067021 0.21701373
000030 8f fa af 3d 1c 18 27 3e 62 99 db 3d 16 2d 30 3e
       0.08592712 0.16317791 0.10722615 0.17204699
000040 54 8f 85 3e f6 e3 a0 be b0 d1 44 be c8 62 23 be
       0.26085913 -0.3142392 -0.19220614 -0.15955651
000050 0f 09 2b 3e 2d af d2 bd 9b 5b 03 bc a3 ad 3f be
       0.16702674 -0.102873184 -0.008017446 -0.18718581
000060 f8 cd 68 3e ee 24 d9 bc 8f 6f 7f 3e 52 46 c9 bd
       0.22734821 -0.026506867 0.249449 -0.09827866
000070 ef f7 f7 bd c2 f1 77 3e 69 ab c0 bd a0 38 64 3e
       -0.121078365 0.24213317 -0.09407694 0.22287226
000080 35 e4 86 3e 05 1f 2b be c5 52 73 bd 6f f9 9a bd
       0.26345983 -0.16711052 -0.059405107 -0.07567107
000090 d5 89 19 be cf fa c0 3d 05 52 70 3c a9 c5 b0 bd
       -0.14993985 0.09422838 0.0146679925 -0.08631451
0000a0 f8 5b 54 be d6 60 2f 3e 6b ac 24 be 77 31 98 3d
       -0.20738208 0.17126784 -0.16081397 0.0743131
0000b0 ee 96 f7 bd 19 3a 3d 3d 2c 05 0f bd 4f a3 0f 3e
       -0.120893344 0.046197984 -0.03491704 0.14027141
0000c0 06 14 00 be 97 6f 0e be 15 be b4 be bd 50 d6 bd
       -0.12507638 -0.13909756 -0.3530127 -0.10464618
0000d0 3d 16 c1 3d f6 19 51 be 49 53 1c be c8 1e b6 3e
       0.0942807 -0.2042006 -0.15266146 0.3557036
0000e0 43 3a 10 3e 76 e2 8f 3d 6e d2 d8 3d a0 23 da 3e
       0.14084725 0.07025616 0.10587011 0.42605305
0000f0 01 3d 84 be 9e f6 95 be e8 e3 aa be cc 0c 86 bd
       -0.25827792 -0.29289716 -0.33377004 -0.065454096
000100 53 b0 55 bd c2 6c 04 be 0e 24 0f 3e 41 54 e3 3e
       -0.05217011 -0.12932113 0.13978598 0.44400218
000110 ad 67 a8 bd 36 56 43 3c 2a a2 ae bd cc 6a 16 3e
       -0.082228996 0.01192241 -0.08527024 0.14689177
000120 e6 72 62 bc b3 8c b7 bd f7 7e 57 be 1c 92 ad bd
       -0.013821339 -0.08962383 -0.21044527 -0.08475134
000130 72 e9 20 3e 82 e1 a0 be 16 bf 42 3e bc bd db 3c
       0.15714052 -0.3142205 0.19018206 0.02682387
000140 49 bb cf bd ad 04 56 be bf b7 86 be 2a 63 0d 3e
       -0.10143144 -0.20900221 -0.26312062 0.1380736
000150 36 04 31 3e 28 09 f0 3d 6d 93 95 3d 24 3d 3d be
       0.17286763 0.117204964 0.0730351 -0.18480355
000160 c5 ad 88 be ed bb f2 bc 8d 83 45 3e 26 cd 8a be
       -0.26695076 -0.029630626 0.19288464 -0.2710964
000170 0c f0 0a 3e b4 ea a3 bd 6a 43 12 bb 7e f0 73 be
       0.13568133 -0.080037504 -0.0022318014 -0.23822209
000180 9b db 44 bd 23 8b d3 3d 0e 34 9e be 66 8b c0 be
       -0.048060995 0.103292726 -0.3089909 -0.37606353
000190 49 46 f6 bc 46 85 5c bd 61 5a 81 3e d5 8e 10 bd
       -0.030062811 -0.053838037 0.25264266 -0.035292465
0001a0 40 95 c8 3c f3 e9 d6 3d a6 d2 29 be 60 5c d0 3d
       0.02448523 0.10493841 -0.16584262 0.10173869
0001b0 82 89 23 be d2 a5 1a be 4a 8f 83 3c 0b e0 6f bc
       -0.15970424 -0.15102318 0.016059536 -0.014640818
0001c0 cf ce d7 3d 6c 87 57 be 93 a1 b2 3e ec 8f 5f be
       0.105374925 -0.21047753 0.34888896 -0.21832246
0001d0 3f d2 32 3c 19 f0 34 bd 21 88 5a be cc 3b 63 bd
       0.010914384 -0.044174287 -0.21340992 -0.05547695
0001e0 5d 8d 53 3e 48 af 59 be 46 df 0d bd d6 5c a0 bd
       0.20659395 -0.2125827 -0.03463676 -0.07830207
0001f0 21 97 16 be 0a 31 a1 3e 75 f5 93 be 6c 0d 3c 3e
       -0.14706089 0.31482726 -0.28898206 0.18364495
000200 40 4e 89 3e 28 79 f2 bd 4c 04 e9 bd 79 12 33 3e
       0.26817513 -0.11839515 -0.11377773 0.17487516
000210 7e 79 4a 3c 31 e9 13 3e d4 3e 89 3b a8 f8 27 3e
       0.012358068 0.14444424 0.004188398 0.16403449
000220 63 25 c6 be c7 c8 c0 bd 28 43 a3 bd ab 8e 60 3e
       -0.387004 -0.09413295 -0.079717934 0.21929424
000230 62 28 c3 3e aa e3 24 bd 1a 07 c4 be aa 13 4e 3e
       0.38116747 -0.04025618 -0.38286668 0.20124689
000240 1b 81 e5 3d b1 f7 25 be 50 e1 63 be b1 ff cb 3e
       0.112062655 -0.16207768 -0.22253919 0.39843515
000250 58 7f fa bd 3b 7d 80 bd 49 55 a3 3e 10 56 ff bc
       -0.1223132 -0.06273886 0.31901005 -0.031168967
000260 f5 d7 15 3e 58 3d 6e be 65 b8 91 be 61 c8 8c 3d
       0.14633162 -0.23265588 -0.28460994 0.06874157
000270 b5 f4 dd be 51 f9 6d bd cf 85 4f 3e c4 70 8b 3c
       -0.4335076 -0.058099095 0.20265888 0.017021544
000280 bb 90 3c be fa 00 32 be 6f 72 94 3d 72 47 2e 3e
       -0.18414585 -0.17383185 0.07248389 0.17019442
000290 c1 3a 27 bd 6f 89 ad bc 2e d8 a8 bd ea 9a 91 bc
       -0.040827516 -0.021183698 -0.08244358 -0.017774064
0002a0 84 ea 25 be 84 1f 8d bc 38 d4 ac bc 5e 7d 1a be
       -0.16202742 -0.017226942 -0.021097288 -0.15086886
0002b0 8a 2f 56 3d fe 26 04 3e c2 d2 c1 3d 50 67 c0 3d
       0.05229143 0.129055 0.09464027 0.09394705
0002c0 49 2c f4 bd e9 35 57 3e 35 61 39 3e 00 16 20 be
       -0.11922509 0.21016659 0.18103488 -0.15633392
0002d0 1d 37 7a 3e da f0 31 bc dc 3a a5 be f2 f8 bf 3e
       0.24435087 -0.010860646 -0.3227147 0.37494618
0002e0 45 81 18 3e 57 97 76 3e 28 09 4e 3e 54 e3 dc bd
       0.14893062 0.24081169 0.2012068 -0.10785547
0002f0 02 c2 42 3e b8 68 7b 3e dd b9 88 3e e4 4a 86 bd
       0.1901932 0.24551666 0.26704302 -0.06557253
000300 31 da fc bc d2 85 9c 3e f3 6a ac 3d 30 92 c8 3d
       -0.03086576 0.30570847 0.084188364 0.09793508
000310 14 94 ec bd d9 6b d0 3d 5d 7f 6a bd 3b f8 16 bd
       -0.11551681 0.1017682 -0.05725037 -0.036857825
000320 c4 d7 eb 3d 89 32 bf 3d b4 07 a6 bd 5d 07 21 3e
       0.115157634 0.09335811 -0.08106938 0.15725465
000330 9d 1d 49 bd 32 b9 76 3e 26 03 32 3e 79 ea 54 be
       -0.049100507 0.24094084 0.17384014 -0.20792569
000340 96 13 2e 3e 63 30 9f bb fd 90 79 be df f9 27 be
       0.16999659 -0.004858063 -0.24371715 -0.16403912
000350 f1 5e d0 bd f6 b2 3f bd a5 ef b7 3e b2 c8 36 be
       -0.10174359 -0.04680153 0.35925022 -0.17849997
000360 72 51 39 3e f3 4f d5 3e d7 86 fe bd f6 22 ae bc
       0.18097475 0.4166256 -0.124280624 -0.021256905
000370 2e 2a 75 3e b2 a9 5e 3e da f9 b0 bd 9a 68 57 bd
       0.23941872 0.21744421 -0.086414054 -0.05258999
000380 57 13 50 be e8 06 3c 3e 07 8e 7a be 7c fe 4c be
       -0.20319878 0.1836201 -0.24468242 -0.20018953
000390 c1 f8 4a 3d f6 f2 06 3e 20 d9 3a bd 64 0d 95 3e
       0.049553636 0.1317862 -0.045617223 0.2911178
0003a0 2d f2 96 3e 44 33 bf be db b3 85 3d f6 ae d5 bd
       0.2948164 -0.373438 0.06528445 -0.10433762
0003b0 a8 46 09 bd 8b 7b 7a be fd f5 a9 3d 9e 9b da be
       -0.03351465 -0.2446119 0.08298872 -0.42696851
0003c0 16 e0 41 3c fd 6d cf 3d 2f 38 8e be 28 94 c3 3d
       0.011833211 0.101284005 -0.2777724 0.09549743
0003d0 5b 23 1a bd 84 52 a3 be 71 a3 44 3d 00 1c 9d 3e
       -0.037631374 -0.31898892 0.048007432 0.30685425
0003e0 a5 5c 9b bd d6 44 9b 3d d9 e2 e0 3d 3a 96 27 bd
       -0.0758603 0.07581489 0.10980768 -0.04091475
0003f0 16 c0 2f 3e 35 c1 df 3e 95 2a f1 bd b3 df a9 bc
       0.17163119 0.43702093 -0.117757 -0.02073655

actor.preprocess.model.model.2.bias f4 [64]
000000 9b ee 51 3c 0d 32 4e bd 3e 80 dc 3b 45 19 5d bd
       0.012813236 -0.0503407 0.006729155 -0.053979177
000010 06 78 87 bc 01 22 9e bb bc 59 bf bc fa 15 cf 3b
       -0.016536724 -0.004825831 -0.023358218 0.0063197585
000020 33 4d 62 3d bb a6 8f 3e 0a c4 36 bd c9 1e c3 3b
       0.055249404 0.28056893 -0.04462055 0.0059545976
000030 b0 d2 ff bb 74 37 16 3d 3d b4 84 3c 34 d6 ca 3b
       -0.0078070983 0.036673978 0.016199226 0.006190086
000040 01 c0 17 3d 10 8f 80 bd 0f 34 fc bd 12 c1 8c bd
       0.037048344 -0.06277287 -0.12314617 -0.06872763
000050 cf d3 94 3c a8 33 dd 3d 0f 9a 48 3d 80 99 ae 38
       0.018167404 0.10800868 0.048975047 8.325558e-05
000060 c7 23 f1 b9 7f 68 8e 3d d0 42 d4 3c e1 a0 bd 3b
       -0.00045993758 0.06953525 0.025910765 0.0057870005
000070 bb 83 ca bd 5d e0 02 3d de 11 e1 3d 2d 96 b9 bc
       -0.09888407 0.03195225 0.10989736 -0.022654617
000080 39 69 24 3c 7b 4c f8 3b 90 e6 f9 bb 83 eb 8c bc
       0.010034853 0.0075774766 -0.007626362 -0.017202144
000090 e9 77 0f bd 65 dd ea 3d bd 7c 3c 3d 5f d6 c4 3d
       -0.035026465 0.11468009 0.046017397 0.096112005
0000a0 c5 92 80 bc 08 9e bd bc a0 05 28 bc 37 c8 8b 3c
       -0.015694985 -0.023146644 -0.010255247 0.017063243
0000b0 0a df 95 3d 14 f9 3c bb d0 f7 d8 3d 04 42 8a 3c
       0.07317932 -0.0028834986 0.105941415 0.016877182
0000c0 7e 27 55 3d 89 10 39 3d b1 db 45 3d 67 21 12 bb
       0.052039616 0.045181785 0.048305217 -0.0022297741
0000d0 28 9d 11 be d9 98 83 3b 43 b8 82 3b 70 59 78 3d
       -0.14220107 0.0040160236 0.003989251 0.06063217
0000e0 a0 ff ba bc bc f6 86 3e 89 40 ec bc 93 af e6 bc
       -0.02282697 0.26360118 -0.028839367 -0.028159892
0000f0 fd 99 3f bd bc 05 81 bd fe 31 99 bc c5 7d 80 bc
       -0.046777714 -0.06299922 -0.018700596 -0.015684972

actor.mu.model.0.weight f4 [2, 64]
000000 1a 9c 93 3e b7 be cd bd 1a f6 17 3f 35 6f 61 3e
       0.28830034 -0.100461416 0.59359896 0.22015078
000010 24 93 4a be e7 5d 11 3e 3c a6 26 3c 33 a1 41 3e
       -0.19782692 0.14195977 0.010171469 0.18909149
000020 19 b6 64 3d 45 4f 3c bf 7e 17 99 3e 16 0e 26 bd
       0.055837724 -0.73558456 0.29900736 -0.040540777
000030 a8 7c ee b9 d8 19 74 3e f2 06 14 be 49 44 90 bd
       -0.00045487774 0.23837984 -0.14455774 -0.07044274
000040 6b 33 ef 3d 65 0d 23 bf 24 7a 9d 3e e5 b2 af 3c
       0.11679729 -0.63692313 0.30757248 0.021447608
000050 00 01 89 3e 16 0e 49 3e 5d a3 12 be ea ee 25 bf
       0.26758575 0.1963428 -0.1432013 -0.6481768
000060 60 81 61 3e c4 9b f9 be 9d 63 ef bd 50 c8 3f 3e
       0.22022009 -0.48751652 -0.116889216 0.18728757
000070 c1 ab e5 3e 32 a9 34 be 53 21 2a 3e 70 60 2b 3d
       0.448576 -0.17642668 0.16614275 0.041840017
000080 dc bd 8f bd cd 39 67 bd ba 89 54 3e a4 f1 8a bf
       -0.07018635 -0.056451607 0.20755664 -1.0854993
000090 dd 8d 5d 3e 98 05 0f 3f c5 70 76 bd f3 1f a9 3e
       0.21636148 0.5586791 -0.06016614 0.33032188
0000a0 16 54 83 3d ae 02 5b bd 60 1d 6d 3a 0f be 29 3e
       0.064125225 -0.053469352 0.000904521 0.16576408
0000b0 15 bc 1d 3e bf ad 19 be e9 bf 12 bf 87 21 b5 3d
       0.15403779 -0.15007685 -0.5732408 0.088442855
0000c0 c1 a7 24 bd da b5 93 3e cc 63 bc bc d3 83 95 3e
       -0.040199045 0.2884968 -0.022996806 0.29202136
0000d0 d3 3c 03 bf b3 08 ea 3d 8b 85 8e bd b6 19 16 bf
       -0.51264685 0.114274405 -0.06959065 -0.5863298
0000e0 97 a2 98 3e f0 ae a6 be 17 dd d3 3d 55 2a ad 3d
       0.29811546 -0.32555342 0.10344904 0.0845534
0000f0 25 d4 3e 3e 77 49 6b 3e e9 ce 31 3d e7 fb a9 3d
       0.18635614 0.22977243 0.043410216 0.083
000100 50 0d 5f bd fe c3 21 be e0 c7 2d 3e 8f 1d fc be
       -0.054456055 -0.15797421 0.16970778 -0.492413
000110 c2 d0 61 bd d6 e8 cf 3d 13 5d 73 3e 67 71 0b bf
       -0.055130728 0.10151832 0.23765974 -0.54469913
000120 7a 16 ea 3d e6 74 99 3f 2a 02 e5 be af 85 7b be
       0.11430068 1.19888 -0.44728214 -0.24562715
000130 da 10 0e 3e 09 30 ba 3e 3b a3 6f bd a6 13 a0 bd
       0.13873616 0.36364773 -0.058505278 -0.07816248
000140 fb 46 eb 3d 6d b6 fd 3e 95 98 19 bf 66 c7 1a 3f
       0.11488148 0.49553242 -0.59998447 0.6046051
000150 9c a9 c4 bd 4c 3a 0f bf 90 3b bc 3c 12 0d d9 3d
       -0.09602663 -0.5594833 0.02297762 0.10598196
000160 63 76 4b 3e 61 d9 9a bc 48 a8 a7 bd 62 b0 38 bd
       0.1986938 -0.018902482 -0.08186394 -0.045090087
000170 07 b9 0e 3e 17 79 7b 3e 10 b6 14 3f 67 5e 75 3d
       0.1393777 0.24557911 0.58090305 0.059904482
000180 1d 84 84 be 2d 4e 79 bd f7 2f 8a be e5 77 0a 3e
       -0.25882044 -0.06086557 -0.2698972 0.13522299
000190 4a 80 49 be a8 02 59 be 9a 99 0d 3f 6f 11 9a bc
       -0.19677845 -0.2119242 0.553125 -0.018807141
0001a0 1b 1a 1b be 96 f1 6b be 86 5c 09 be 05 4c a2 3d
       -0.15146677 -0.23041376 -0.13414201 0.07924656
0001b0 4d c2 10 bf 74 17 e2 be 99 1e 34 3f 46 6c b7 bd
       -0.5654648 -0.44158518 0.7035919 -0.089561984
0001c0 6e ca 81 3e 29 1b 51 be 96 9e 77 3e 0a b3 d9 3b
       0.25349754 -0.20420517 0.2418159 0.0066436576
0001d0 aa 02 8e be d8 ce af 3d 4b 6a d5 3a 64 0c 24 be
       -0.27736408 0.08584374 0.0016282288 -0.16020352
0001e0 75 92 8d 3d 63 ff 2e bf 6e af 9a be 6f 3d 96 be
       0.069127 -0.6835844 -0.30211967 -0.29343745
0001f0 6d f5 9b bd 35 aa 86 3e 91 80 27 3e 8e f2 b0 bd
       -0.07615171 0.26301733 0.16357638 -0.08640014

actor.mu.model.0.bias f4 [2]
000000 38 07 a1 be 13 e6 e7 3d
       -0.3145082 0.1132318

critic.preprocess.model.model.0.weight f4 [64, 8]
000000 94 90 57 3f 35 14 41 bf 84 f8 9f be 1f 55 47 bd
       0.84204984 -0.7542146 -0.3124429 -0.048665162
000010 63 98 0a bd 3f 97 dc 3d c1 bd e5 bc 3c 24 60 bd
       -0.033836734 0.107710354 -0.028044583 -0.054722056
000020 61 d9 51 3f 7b 77 93 be 24 ff d3 be 65 44 18 bd
       0.8197232 -0.28802094 -0.41405594 -0.0371746
000030 5d af 6a 3e dc b6 27 3e 79 02 64 3c a7 67 06 3e
       0.22918458 0.16378349 0.013916605 0.13125478
000040 31 80 e0 be 91 a0 97 3e 28 94 6f 3e bf ac ea bd
       -0.43847802 0.2961469 0.23396361 -0.1145873
000050 06 4a ed be 78 c1 1b bd 29 0b b5 3d 0d cf 71 3e
       -0.46345538 -0.038026303 0.08840019 0.2361414
000060 3f 2f 8a be 3c cd 0e bf 07 8d 7a be 84 90 cf bd
       -0.2698917 -0.5578191 -0.2446786 -0.10134986
000070 7d 1b 03 3d e6 42 14 3e 0f 21 db bd a0 7c b1 bc
       0.032008637 0.14478645 -0.10699665 -0.021665871
000080 ee 91 58 bf a4 54 2a 3f 2c 0e 4c 3d f3 c2 bb 3d
       -0.8459767 0.665354 0.049818203 0.09168043
000090 e2 f1 34 3d 60 b2 57 3d af 00 bb 3d a9 d4 89 3e
       0.04417599 0.052660346 0.0913099 0.2692006
0000a0 f0 a5 9d be ea bb 33 3f 7f 82 85 be 8a bd 02 be
       -0.30790663 0.7020861 -0.26076123 -0.12767616
0000b0 11 73 7a be e4 65 00 be 94 ea 92 3d 6f b4 db bd
       -0.24457957 -0.12538868 0.071736485 -0.10727774
0000c0 ba eb ee 3d 3d 83 06 3f 61 ad d8 bd 9f 32 b3 3d
       0.11666055 0.52544004 -0.105799444 0.087498896
0000d0 c7 84 55 bd 8a a6 43 3d 05 a1 89 3d c5 1a 8b 3c
       -0.05212858 0.047766246 0.06720165 0.016980538
0000e0 43 8e 11 bf e4 92 57 3d 53 e0 bf 3e 86 39 9f bb
       -0.568577 0.05263032 0.37475833 -0.0048591522
0000f0 e5 f0 4f bd ad 24 2d be 21 f2 9e 3c a0 d1 4b be
       -0.050766844 -0.16908522 0.019402565 -0.19904184
000100 ee 98 f4 be 0d 48 f7 3e aa 70 28 3e e2 51 be bd
       -0.47772926 0.48297158 0.16449228 -0.09292962
000110 e5 36 01 be 0f c8 21 be 93 6d d6 bd 39 49 2b be
       -0.12618597 -0.15798973 -0.104701184 -0.16727151
000120 17 58 14 bf 55 1d 39 3f 45 2c ce 3e 14 a9 1d be
       -0.57946914 0.7231038 0.4026815 -0.1539653
000130 50 99 2d be 34 14 1c bd a7 38 53 3e 89 24 3e bb
       -0.16953015 -0.038105205 0.2062708 -0.0029013476
000140 a9 2d 89 3e 9d f0 01 bf 2f c7 ec be 15 cd f9 bc
       0.26792648 -0.5075777 -0.46245715 -0.030493299
000150 82 b2 15 3e 37 ba e5 3c be 5f 9a be 3a 03 a6 be
       0.14618877 0.028042896 -0.3015117 -0.32424337
000160 56 89 3d bf 6c 50 b8 3c dc ef fc 3e 8e fe 7a 3e
       -0.74037683 0.022499286 0.49401748 0.24511167
000170 65 0a 1e 3e c2 5d 59 3d ae e9 1a be 34 db 0a 3e
       0.15433653 0.05306793 -0.15128204 0.13560182
000180 9f bf b2 3e bb 34 9c bc 66 91 2b bd 72 23 90 3b
       0.3491182 -0.019068113 -0.04188671 0.0043987567
000190 3b fe 4a 3e 2a cd c5 bd 2d 6c 6e 3d b5 45 82 bd
       0.19823544 -0.096582726 0.058208633 -0.06360952
0001a0 e7 62 07 3e 54 38 7f 3d 89 54 b4 3e 7e 01 ac 3d
       0.13221322 0.062309578 0.35220745 0.08398722
0001b0 cd 9d dc bb 02 bb 2d 3d e4 59 34 3e 26 0d b1 3d
       -0.0067326785 0.042414673 0.17612416 0.08645086
0001c0 16 1f 94 be 33 b3 87 3e 8a a3 52 3e 52 d7 c9 3e
       -0.28929967 0.26503906 0.20570198 0.3942209
0001d0 c4 f1 19 3e a6 49 30 3d 62 e9 b3 3d cb f9 c9 bd
       0.15033633 0.043038987 0.087847486 -0.09862097
0001e0 97 39 b1 be 78 b9 4d 3f 6d c2 d7 3e 1c 2f 0f bc
       -0.3461425 0.8036113 0.42140523 -0.008739259
0001f0 54 dc 88 bd 11 2b 02 bd 9e ed bb bd e7 59 0f 3d
       -0.06682649 -0.031779353 -0.09176181 0.034997847
000200 0f 35 e7 bd 71 75 15 3f 2d ab c6 be 47 cc 5e be
       -0.11289417 0.58382326 -0.38802472 -0.21757613
000210 e0 00 e9 bc 09 5b e0 3e 14 ff 52 3e 1a 4d 15 bf
       -0.0284428 0.43819454 0.20605117 -0.5832077
000220 84 96 ad 3e 3c c6 9d be 47 5d 4c be c2 8a e5 3d
       0.33903897 -0.30815303 -0.19957457 0.112081066
000230 5e bf 65 3e 09 c0 4f 3e e8 ed e1 bd c5 14 61 bc
       0.22436282 0.202881 -0.11031705 -0.013737862
000240 e1 21 30 3f 63 2a 71 bf cb 4b 0f be d1 07 50 bc
       0.68801695 -0.942053 -0.13993756 -0.012697176
000250 f1 fb 49 be 50 b7 d7 3c aa 28 95 3e 21 3b 16 3e
       -0.19725014 0.026332527 0.29132587 0.14670993
000260 a4 7a 19 bf ab ae c4 3e 74 77 6b 3e 8d 17 29 be
       -0.5995276 0.3841451 0.22994787 -0.1651289
000270 e2 64 a3 be 07 97 7f be aa d4 8f 3d 97 af 73 3a
       -0.31912905 -0.24959956 0.07022984 0.0009295879
000280 7a d8 89 3e 90 5d bb be 69 be af 3d cd 80 a4 3c
       0.2692297 -0.3659482 0.0858124 0.020080948
000290 73 59 26 be ba f1 80 bc f7 42 0b 3d 3d 93 80 3c
       -0.1624506 -0.015740264 0.03399941 0.015695209
0002a0 5d a5 37 3f 23 9b b9 bf 79 89 e6 bd 81 29 3e 3e
       0.717367 -1.4500469 -0.112566896 0.1857052
0002b0 00 50 02 3e a4 63 19 3e 6b 46 07 bd 7c 4f ef bd
       0.1272583 0.14979416 -0.03302614 -0.11685082
0002c0 9e 79 22 3f b5 14 2a bf 02 5d e2 bd a0 6e f8 3c
       0.63466823 -0.66437846 -0.11052896 0.030326188
0002d0 c4 47 05 bd 8b ca 15 be eb 10 c6 bd d0 65 b6 bd
       -0.032539144 -0.14628045 -0.096711956 -0.08906138
0002e0 92 ff 32 3f 6e ee 28 bf 99 fd 3e 3e df bd b3 bd
       0.6992122 -0.65988815 0.18651427 -0.087764494
0002f0 c0 2f 5d 3e 23 d9 78 be 14 d8 99 be 1e 52 e8 3d
       0.21600246 -0.24301581 -0.30047667 0.113437876
000300 eb 67 3d 3f 50 51 13 bf 24 cc 94 be 13 66 c4 3b
       0.7398669 -0.5754595 -0.29061997 0.0059936135
000310 06 44 98 3e 4e 52 0b 3e 8b 6b 7b be d2 e0 c8 bd
       0.29739398 0.13605615 -0.24552743 -0.09808506
000320 f1 b3 86 3d 12 b0 47 3e ec 86 01 3e 11 ab 85 bc
       0.0657729 0.19500759 0.12649125 -0.016316922
000330 d2 ce bf 3d ae de af 3e 7a 8f 08 3e 49 24 2a 3e
       0.0936562 0.3434958 0.13335982 0.16615404
000340 43 f8 8a 3f cb d7 3b bf 0e e9 0a be e4 c0 f3 3d
       1.0857013 -0.7337615 -0.13565466 0.11902025
000350 86 76 0b 3e cb b3 5c bd 6d 6b aa 3c 3f 93 96 3d
       0.13619432 -0.0538824 0.020803178 0.07352304
000360 bb 2a 10 be 7e 96 92 3f d9 66 5d be e4 38 84 bd
       -0.140788 1.1452177 -0.21621265 -0.064561635
000370 50 e1 09 3d 3b cc 27 bd 74 a9 15 be 35 3b 5c be
       0.03366214 -0.040966254 -0.14615422 -0.2150696
000380 73 60 02 3f 59 10 8c 3e 91 36 e7 bc dd 86 02 3e
       0.5092842 0.27356222 -0.028224261 0.12746759
000390 49 39 34 3e 9d e1 be bd c0 83 85 be 45 7d 80 bd
       0.17599978 -0.09320376 -0.2607708 -0.06273893
0003a0 ed 34 c9 be 0a d6 4b bd c5 67 58 3e 87 58 96 be
       -0.39298192 -0.04976467 0.21133335 -0.29364416
0003b0 bb 7d 92 bd f3 3e 9b bd 7e 31 b2 3d 66 07 a1 3d
       -0.071528874 -0.07580366 0.08700846 0.07862739
0003c0 87 37 85 bc a4 07 61 be 31 ca 83 be f3 76 c8 3c
       -0.016261829 -0.21975571 -0.25740197 0.024470782
0003d0 f7 fa 15 be c6 b4 bf be 4c 15 f6 bd 3f c2 c2 bd
       -0.14646517 -0.37442607 -0.12015781 -0.09509706
0003e0 45 a5 87 3f 79 16 56 bf fa 59 df bd d4 5f bf 3b
       1.0597311 -0.8362804 -0.109058335 0.005840281
0003f0 d9 f6 af bd de 42 6f bd ef af d2 bc 68 ce c7 3c
       -0.08592004 -0.05841338 -0.025718657 0.024390414

critic.preprocess.model.model.0.bias f4 [64]
000000 6b 5b 2c 3e 27 24 64 be b0 31 09 3e 4a 3a a7 be
       0.16831748 -0.22279416 0.1339786 -0.3266166
000010 a7 af 87 3e eb 05 04 3f 5f 6b 95 3d 46 ff 85 3d
       0.265012 0.5157153 0.0729587 0.0654283
000020 05 66 89 3e 6d a4 3d 3f 20 fc 07 bf e9 dc 8b be
       0.26835647 0.7407902 -0.5311909 -0.2731698
000030 9d 47 17 bf d1 fe d0 3e 83 c8 67 3e a4 d8 a8 3e
       -0.5909365 0.4081941 0.22635083 0.32977784
000040 b4 27 32 3e cf 71 1b bf 01 70 97 bd 2e 0b 1c 3f
       0.17397958 -0.60720533 -0.0739441 0.6095456
000050 c9 69 d4 3e 37 45 d4 3d 88 03 0c bf c1 18 8f 3d
       0.41486958 0.10364764 -0.5469289 0.06987143
000060 9c 5b f6 be f1 0c e9 3e 42 5d 7f be 37 f5 2d 3f
       -0.48116767 0.45517686 -0.24937919 0.67952293
000070 52 aa 37 be 3e 9d af be a6 6d bb be fc 53 fe be
       -0.17936066 -0.34299654 -0.36607093 -0.4967345
000080 f8 f8 6d be 51 ea 13 3f e5 22 24 be ad 4f 25 bd
       -0.23239505 0.57779413 -0.16028936 -0.040359188
000090 d6 94 8b be 34 16 1d 3f b4 bf 17 bf 94 68 ab 3e
       -0.2726199 0.61362004 -0.5927689 0.33478224
0000a0 1f c2 23 3e 17 05 32 bd 66 03 73 be 09 92 0e 3d
       0.1599202 -0.043461885 -0.23731765 0.03480724
0000b0 43 b2 c2 39 86 89 ea 3e ff 7f 5b be 4a ed ac be
       0.0003713538 0.45808047 -0.21435545 -0.33774787
0000c0 c9 12 12 3e fc 1a e1 3e e8 61 bf 3e c8 ec 2a 3e
       0.14264978 0.439659 0.37379384 0.16691887
0000d0 10 42 0d 3e 20 3f 1d 3d 4e 67 1b bf 60 e5 c2 bd
       0.13794732 0.03839028 -0.60704505 -0.09516406
0000e0 63 30 36 3f 11 dd 92 3e a8 d1 8f be 64 ae fe 3e
       0.7116758 0.28684285 -0.28089643 0.49742424
0000f0 45 11 48 3e 87 20 98 3e c5 a2 cb 3e cd aa 29 3e
       0.19537838 0.29712316 0.3977262 0.16569062

critic.preprocess.model.model.2.weight f4 [64, 64]
000000 59 17 29 3c 19 e6 51 3e b1 49 ee be 75 ec b5 bd
       0.010320508 0.20497932 -0.46540597 -0.08882991
000010 0a a7 6f be 29 b3 3a 3e ef e3 ad bc b9 7b 53 3d
       -0.23403564 0.18232407 -0.021226851 0.051631663
000020 96 f9 46 be e3 27 24 be 4a 59 e1 bd 6d 4e 5b 3e
       -0.19431147 -0.1603084 -0.11003359 0.21416636
000030 44 65 08 3e 50 38 91 be e9 0f 16 3e 46 f9 b3 be
       0.1331988 -0.28363276 0.14654507 -0.35151118
000040 1b 5e 66 3a f1 5e ff 3d 7b d6 5a be 1e 39 47 be
       0.00087878265 0.124692805 -0.2137088 -0.19455382
000050 d1 5b a8 be c5 48 ef 3e a3 34 25 be 86 d1 08 be
       -0.3288255 0.46735206 -0.1613336 -0.13361177
000060 28 1c e0 3e 22 b2 c2 3d de 6a 8e 3e 90 7d 7c 3e
       0.43771482 0.095066324 0.27815908 0.24657273
000070 13 01 a0 3e d4 1d 98 be 70 a1 fe 3e 48 6f 53 be
       0.3125082 -0.29710257 0.49732542 -0.20647919
000080 9d 7e 9c be dc e5 46 bd 40 82 0d 3d 4a 95 a3 be
       -0.30565348 -0.048559055 0.034548044 -0.31949836
000090 d5 5d d8 3d 4a 05 d0 3c 6e d0 9d 3d 54 05 f8 bd
       0.10564772 0.025393147 0.077057704 -0.12110391
0000a0 81 42 1e bf b3 ee 6c 3e 63 5b dc 3e 0d 22 c9 be
       -0.61820227 0.23137932 0.43038473 -0.3928379
0000b0 0c ba 85 3d b5 ea 93 3e 6e 6e 00 3f 23 68 a8 be
       0.06529626 0.28890005 0.501685 -0.3289195
0000c0 76 58 29 3d e6 a6 1b be c6 11 f8 3c 59 ae 58 3e
       0.04134413 -0.15200385 0.030281913 0.21160258
0000d0 14 1b a2 be ad 72 6d 3e 62 6c 99 bd 4a 41 9a be
       -0.31661284 0.23188277 -0.074913755 -0.30127937
0000e0 8b 9f 83 be f7 b4 9d 3c d3 db 92 bb 19 81 53 be
       -0.2570766 0.01925133 -0.0044817715 -0.20654716
0000f0 01 4c 22 be 8c e5 35 3d e9 ba 97 b6 74 9f b7 bd
       -0.15849306 0.044408366 -4.52191e-06 -0.0896596
000100 00 26 43 bd 12 00 0e 3b de f7 cb bb e8 b0 a6 3b
       -0.04764366 0.0021667522 -0.0062246164 0.005087007
000110 93 21 b4 3c 5b 46 84 bd 1a 30 da 3d c6 e5 e0 be
       0.021988666 -0.06458732 0.10653706 -0.43925303
000120 72 cb 00 3e 02 5b 80 be 2c d4 eb bc 0b 64 ea 3e
       0.12577608 -0.25069433 -0.028787695 0.45779452
000130 d7 25 f5 bd dc a5 26 be 05 c9 d6 be ca 0f 8b 3e
       -0.11970108 -0.16274208 -0.4195024 0.27160484
000140 27 ea 9c be aa 87 33 bd 4f 21 7d 3e 89 00 33 3e
       -0.30647394 -0.04383055 0.24719737 0.17480673
000150 73 4e 7c 3e b7 5f 54 be b7 33 da 3e 82 84 32 3e
       0.24639301 -0.20739637 0.4261758 0.1743336
000160 30 7b 98 bd ef 1d de 3d 65 0f 8e 3b 57 30 4e 3d
       -0.07445371 0.10845553 0.0043353313 0.05033907
000170 f6 e9 f9 be 78 06 18 3e 25 ab 9a 3e a5 2d 80 3e
       -0.4881131 0.14846218 0.30208698 0.25034824
000180 d8 8e 28 3e b9 d7 01 bf fe b7 81 3e a2 6f 69 be
       0.1646074 -0.5071979 0.25335687 -0.22796491
000190 8d 2f 04 bf e4 95 f0 be 68 86 ef 3e 98 84 c3 bd
       -0.51635057 -0.46989357 0.4678223 -0.095467746
0001a0 03 bf a1 bc 60 36 95 3d 5e 88 a6 3e c6 61 45 3f
       -0.019744402 0.07285762 0.32525915 0.77102315
0001b0 9a 24 c3 bd db 71 7f bd ed 12 ad bd 81 f0 90 3e
       -0.095284656 -0.06236444 -0.084508754 0.2830849
0001c0 1a eb 9d bd 2e de 4d be d7 a6 8b 3d a1 b0 ff 3e
       -0.07710858 -0.20104286 0.068189315 0.49939445
0001d0 c0 d3 e8 bb 87 5b a1 bd 32 80 a0 bd c0 1d c0 bd
       -0.0071053207 -0.078787856 -0.07836951 -0.09380674
0001e0 62 d3 92 bd 2e c2 c4 3d ab 19 b5 3e 81 dd 05 bf
       -0.07169224 0.09607349 0.35371146 -0.52291113
0001f0 c7 d4 6c bd c2 d7 98 be ac 15 15 bf 68 a5 8d 3e
       -0.057820108 -0.2985211 -0.58236194 0.27665257
000200 8f 04 79 3e e2 56 04 3e 12 63 93 be 56 7b 6d 3d
       0.24318145 0.12923768 -0.28786522 0.05797895
000210 45 db a0 be 00 fc d4 be 79 0c ac be da bf c6 bd
       -0.3141729 -0.4159851 -0.33603266 -0.097045615
000220 03 44 a4 be 09 fa 93 bd d8 92 45 3e 13 94 7c be
       -0.3208314 -0.07225425 0.19294298 -0.24665861
000230 cc 2e fc 3e 0f e1 40 3d 11 fd 24 bd 37 01 96 be
       0.49254453 0.047089633 -0.040280405 -0.29297802
000240 b8 dd fd 3c c7 af db 3e bf 3d be 3e b7 d5 d5 be
       0.030989513 0.42907545 0.37156484 -0.41764614
000250 6c 3c 00 3e 1d 27 33 be c9 c1 a1 3e 67 1e cf bd
       0.12523049 -0.1749539 0.3159316 -0.10113221
000260 db c3 04 3f 02 c4 43 3d 58 b6 23 3e 47 7c 26 bf
       0.5186135 0.04779435 0.15987527 -0.6503338
000270 68 01 22 3e 36 0c a7 bd 84 ef 98 3e b8 6d 0d 3f
       0.15820849 -0.08156626 0.29870236 0.5524554
000280 9d 0b 1f 3e 24 03 6b be fb f4 39 3e f3 27 ad 3d
       0.15531774 -0.22950417 0.18159859 0.08454885
000290 69 26 88 bd 3b 24 fc be 64 e6 3d 3e eb f8 5a be
       -0.06647951 -0.49246392 0.18544918 -0.21384017
0002a0 c4 c5 9b bb 3b a7 55 3e 6f 96 64 3d 99 21 bd 3c
       -0.0047538 0.20864575 0.055807527 0.02308731
0002b0 3a 0d 92 be 8e 01 a0 be 60 a4 d9 bd 4e dd 8d 3d
       -0.28525716 -0.31251186 -0.10627055 0.06926976
0002c0 a1 ab a7 3e 19 04 a4 be 08 02 70 3e 57 46 d3 3d
       0.3274813 -0.32034376 0.23438275 0.10316151
0002d0 bd 53 4c 3e c6 51 a3 3c 4d b1 34 3e 8e 5c 91 3e
       0.19953819 0.019936454 0.1764576 0.28390926
0002e0 f3 f2 99 be a7 ac 90 3e 13 00 41 3e 66 46 ce be
       -0.30068168 0.28256723 0.18847685 -0.40288085
0002f0 7a ae 29 bd ae 79 be 3a c1 98 8d be 25 e4 24 bd
       -0.04142616 0.0014532113 -0.27655604 -0.040256638
000300 d3 7a 25 3e 55 b8 62 3c 84 81 a4 3e 89 03 10 3f
       0.16160135 0.0138378935 0.32130063 0.56255394
000310 f9 d8 34 be 60 78 09 3e 15 ec b0 be 20 0d 8a 3e
       -0.17660893 0.13424826 -0.34555116 0.2696314
000320 b4 ab 0d 3e af 7f 89 be f0 96 b1 3e 64 02 85 3d
       0.13835031 -0.26855227 0.3468547 0.064945966
000330 ae 7d ab be 0a 79 b8 3d ff d0 43 be fa fe 38 bd
       -0.33494323 0.09007461 -0.19122694 -0.04516504
000340 e7 3c 42 3e 7d 39 ac be a6 34 7a bd c2 9c 3c 3e
       0.18968545 -0.3363761 -0.061085366 0.18419173
000350 6a 74 b7 3e 16 48 87 bd d6 7b 17 be d7 65 bc bd
       0.35831004 -0.06605546 -0.14793333 -0.09199112
000360 a4 5c a0 3e b8 cf 48 be 1b e1 e5 be b0 d6 d1 bd
       0.3132068 -0.19610488 -0.44898304 -0.102460265
000370 3b 78 b7 bf 34 4c a3 3e a6 24 7f 3c 3c 47 59 be
       -1.4333566 0.31894076 0.0155727025 -0.2121858
000380 ec 7c 9c bd d2 54 dc 3e 4b 46 c6 3e a7 97 0a 3e
       -0.076410145 0.43033463 0.38725504 0.13534413
000390 51 70 6f 3e 8f b0 5d bc 4d de 44 bd 38 19 92 be
       0.23382689 -0.013530864 -0.048063565 -0.28534865
0003a0 89 0f cf 3e d4 73 7c bc 4f 60 d7 be e6 c4 ac bd
       0.4044154 -0.015408475 -0.42065665 -0.08435993
0003b0 1a a7 03 be ed 63 ac 3d 9d e9 04 bf 86 28 ec 3d
       -0.12856713 0.08417497 -0.51918966 0.11531167
0003c0 6d a1 69 be 2a a3 c2 3e 14 b2 5b be b4 19 8b be
       -0.22815485 0.3801511 -0.2145465 -0.27168047
0003d0 8c ec 06 3f 70 8e 0f 3e fc 7f cb be a7 24 5b be
       0.5270469 0.1401918 -0.39746082 -0.214007
0003e0 79 47 dc 3d 55 fb 84 bc 0b 19 67 3c 42 de c4 be
       0.1075582 -0.016233126 0.014105092 -0.3845082
0003f0 59 b6 8f 3e 64 8d d3 bd ad f7 a6 bc 67 81 57 3e
       0.28068808 -0.103297025 -0.020381773 0.21045457

critic.preprocess.model.model.2.bias f4 [64]
000000 8a 3d a3 3c a2 e2 84 3c 6f f7 03 be 22 e6 06 3e
       0.019926805 0.016221348 -0.12887357 0.13173726
000010 01 2f ae bd ae d6 35 3d 82 62 c6 3d 99 7e 00 bf
       -0.08505059 0.044394188 0.096867576 -0.5019317
000020 b0 e2 04 3e fd 20 21 bd 42 7a b8 bc 08 fd 90 3e
       0.129771 -0.0393381 -0.022519235 0.28318048
000030 51 30 a3 3d 96 b0 d2 3d 88 41 c5 bd 8d ee 76 be
       0.079682 0.10287587 -0.0963164 -0.24114437
000040 fc 81 39 3e 52 8c e1 3e 6b 69 c4 be ea 31 0c 3f
       0.18115991 0.44052368 -0.38361678 0.5476366
000050 e9 71 0a bd a3 c6 53 3d 50 08 03 bf 84 7b 98 3d
       -0.03380004 0.051703107 -0.5118456 0.07445434
000060 e0 39 22 3e 3f a8 ae 3d 89 27 b2 be 22 2b 04 3e
       0.1584239 0.08528184 -0.34795788 0.12907079
000070 1b 78 25 be dd 18 91 3e da f0 87 3e 6c e7 b6 be
       -0.16159098 0.28339282 0.26550943 -0.35723436
000080 77 3e a5 3d 91 3c c7 be da 62 8c be 1c 14 90 bd
       0.08068555 -0.38913396 -0.27419168 -0.070350856
000090 de 6a 8c 3e 35 3f 6d be 37 38 2a be 10 ef b5 bd
       0.27425283 -0.23168643 -0.16623007 -0.08883488
0000a0 af 8b 23 3e c6 41 89 be 15 ca 1f be dd cb b4 be
       0.15971254 -0.26807994 -0.15604432 -0.35311785
0000b0 58 98 97 bb 0e 8d 7b 3d 2e 2d 82 3e 2a 03 51 3e
       -0.004626315 0.061413817 0.25425094 0.20411363
0000c0 9d 01 bb be 50 9a a0 bd e0 57 af 3d 7e e4 e3 ba
       -0.36524668 -0.07841933 0.08561683 -0.0017386822
0000d0 34 cc c7 3d 56 73 c1 3e a1 c9 14 3e 72 bc 11 3e
       0.097557455 0.37783307 0.1453004 0.14232042
0000e0 fd 81 80 bd ce 21 38 3e 2b ca 13 3e bb 6e 84 be
       -0.06274793 0.17981645 0.1443259 -0.2586573
0000f0 ed 05 3c 3e 19 70 e5 3e c1 01 9c 3c e8 61 9e be
       0.18361636 0.44812086 0.019043805 -0.30934072

critic.last.model.0.weight f4 [1, 64]
000000 6e 6d e3 3d 4c 39 cb 3d 0c f1 b3 3e de 7f 37 be
       0.111048564 0.09923038 0.35144842 -0.17919871
000010 f8 2b aa 3e 62 d6 88 be 9e bf 0b bf 2f 06 00 be
       0.3323667 -0.2672606 -0.5458926 -0.12502359
000020 1b 9f 59 3d 48 89 8d be 91 7d 45 3d 7a 1f 84 3e
       0.05313025 -0.276438 0.048215453 0.25805265
000030 2a 79 53 3e 18 c8 82 3e f3 ac a8 bd 35 e9 f3 be
       0.20651689 0.25543284 -0.082361124 -0.4763886
000040 e8 ff c2 3e ca 70 b5 3e 2c a6 e9 be 55 cd a3 3e
       0.38085866 0.35437614 -0.45634592 0.31992593
000050 d2 a9 50 3e e4 f6 8f 3e 15 5a 1d bf 6a 10 da be
       0.20377281 0.2811805 -0.6146558 -0.42590648
000060 d0 18 e0 3d f5 63 be 3d 8c 2b 8c be a0 87 d8 3d
       0.109422326 0.09296409 -0.27376974 0.105727434
000070 54 1a 3f be 5c 92 68 3d 07 ab 17 be 8e d7 39 be
       -0.18662387 0.056780204 -0.14811336 -0.18148634
000080 fc ff 9a be 67 c7 b7 be 18 57 a9 be b0 4f 4b be
       -0.30273426 -0.3589432 -0.3307426 -0.19854617
000090 5e 66 aa 3e 32 20 7f be 1d 84 97 3d 42 33 8a 3e
       0.33281225 -0.24914625 0.073982455 0.26992232
0000a0 78 de 40 be 81 01 64 be 23 84 bd bd 25 f3 8e be
       -0.18834865 -0.22266199 -0.09253719 -0.2791988
0000b0 4b 30 18 be 4c 59 f9 bd 84 db b8 3e 00 df 80 3e
       -0.14862172 -0.12175235 0.36104977 0.25170135
0000c0 cc f0 8e be 18 cc 7c 3d b6 6b 36 3e d5 eb 94 be
       -0.27918088 0.061718076 0.17814526 -0.29086176
0000d0 e1 b9 09 be 0f 8c 99 3e fa 74 82 3e da eb 98 bc
       -0.13449813 0.2998967 0.2547987 -0.01866715
0000e0 8a 7c 26 be 89 9a 52 be 61 31 45 3e e7 00 01 be
       -0.16258445 -0.20566763 0.19257118 -0.12598
0000f0 0a 57 a3 3e 51 67 67 3e fb ef b1 be b3 7a 70 be
       0.31902343 0.22598006 -0.34753403 -0.23484306

_actor_critic.actor.sigma_param f4 [2, 1]
000000 a8 ee ca bf 7c 0a 34 bf
       -1.5854082 -0.703285

_actor_critic.actor.preprocess.model.model.0.weight f4 [64, 8]
000000 20 4c 66 3e a8 e7 cd 3e 21 78 3e 3d ec e1 12 3f
       0.22489977 0.40215802 0.046501283 0.5737598
000010 5d b8 27 3e 74 db 22 bd 10 3b 4e be 74 ce 3a be
       0.16378923 -0.039760068 -0.20139718 -0.18242818
000020 d8 fd c6 3e f5 c1 51 3e 1b 06 d7 bd f2 3f 7b be
       0.38865542 0.20484145 -0.104992114 -0.24536112
000030 af d7 f3 bc f6 dc 42 3d 48 5c cf bd e6 c5 0e be
       -0.029765932 0.047574006 -0.10125023 -0.1394268
000040 33 46 c5 3d 2a e2 42 be de 92 cb bb cc 7d dd 3d
       0.0963253 -0.19031587 -0.0062125763 0.108150095
000050 3b e4 a9 bd 8c a6 2a be 70 35 67 3d 07 03 b2 3c
       -0.08295485 -0.16665095 0.056447446 0.02172996
000060 c8 a8 5f 3d a8 71 d1 3e fe 63 56 bd c5 3f fc bd
       0.05460432 0.40907025 -0.052341454 -0.123168506
000070 87 f4 f0 3c 1e c1 68 be 55 48 c4 3e 3c 58 a4 3e
       0.029413475 -0.22729918 0.38336435 0.32098567
000080 d9 05 b5 3e d7 56 02 3d 34 1e 0d be 14 cd c0 bd
       0.35356024 0.0318211 -0.13781053 -0.094141155
000090 42 1c 89 be 99 18 a1 3e 4d 78 94 be ec 15 c2 3e
       -0.26779372 0.3146408 -0.28998032 0.3790735
0000a0 45 a4 f6 3d b7 ba ef 3e b3 e2 c6 3c 7c 4f f4 3d
       0.12043051 0.4682214 0.02427802 0.11929223
0000b0 18 19 41 bd f2 f0 dc bd 13 6f 3a 3d 90 bf b6 bd
       -0.047143072 -0.10788144 0.045516085 -0.089232564
0000c0 68 1f 4e be fb 8b ed 3b a6 b6 21 be ef 5b 4e 3d
       -0.20129168 0.007249353 -0.15792331 0.050380643
0000d0 0a fb 71 be 30 da 1e 3c 38 a2 c2 be 6b 43 83 3d
       -0.2363092 0.009695575 -0.38014388 0.06409343
0000e0 55 f8 61 be 2a f7 91 bd bd c7 88 3d 99 34 f0 3b
       -0.22067387 -0.07127221 0.06678722 0.007330489
0000f0 dd c2 45 3d 6b 22 c1 3e 65 13 b2 3d 58 4c 4d 3e
       0.04828154 0.3772157 0.086951055 0.20048654
000100 74 d7 08 3e dc 02 56 be f8 78 4e 3e 52 aa 4f be
       0.13363439 -0.20899528 0.20163333 -0.20279816
000110 ee aa 6f bc 6a 85 23 be b0 b8 d4 3e 4a 8d f5 bd
       -0.014628155 -0.15968862 0.41547155 -0.119898394
000120 a7 8d 11 be 3c b7 8b be 9e 07 db bd 55 f2 e6 3e
       -0.14214192 -0.27288234 -0.10694812 0.4510676
000130 e9 44 6a bc 47 6f d5 be f4 f2 c7 3e cf c9 75 be
       -0.014298656 -0.4168646 0.39052546 -0.24002765
000140 8a fa b5 3d 63 2a 9c 3e dc 3b 8d 3e 4b 75 15 3e
       0.08885677 0.30501089 0.27584732 0.14595525
000150 ba 2e 8d 3d e5 b3 0c bd cf d3 2d be f6 29 34 bd
       0.06893678 -0.03435125 -0.1697533 -0.04398533
000160 41 b1 bf be 93 ee f6 be 30 aa ac bd ca 34 25 be
       -0.37439921 -0.48228893 -0.08430898 -0.16133419
000170 55 d1 d4 bd 72 67 4b bf d6 c9 9c 3e cd a9 d1 bd
       -0.103914894 -0.7945472 0.3062274 -0.10237465
000180 b7 53 2b be 15 15 f4 bd c4 15 8e be f0 c2 a2 3b
       -0.16731153 -0.119180836 -0.2775098 0.004967086
000190 b2 d3 94 3e 64 6d 36 3e e3 62 bc bd 16 2c d5 3e
       0.2906776 0.17815167 -0.09198549 0.41635197
0001a0 13 94 e0 bd 73 1d be be 02 ee 3d 3e 2c ad 52 3e
       -0.10965743 -0.37131843 0.18547824 0.20573872
0001b0 95 c6 ba bd 6e 95 90 3e c1 5f 40 be 3e 01 d6 3e
       -0.09119908 0.28239006 -0.18786527 0.41797823
0001c0 e3 99 42 3e 03 24 77 be 7a 8c 56 bc 0a 1a 83 bd
       0.19004016 -0.24134831 -0.013095016 -0.06401451
0001d0 c6 d2 7a be bd 71 55 be 34 24 81 3e 79 e5 04 3e
       -0.24494466 -0.20844169 0.25222933 0.12978162
0001e0 60 9f d6 be 6e 9d 20 3e 0d b1 c8 3d 95 44 89 be
       -0.41918468 0.15685055 0.09799395 -0.26810136
0001f0 85 30 3b 3e 7e b8 84 3b 13 14 50 be f5 de a3 3c
       0.18280227 0.0040503135 -0.20320158 0.020003775
000200 f3 bb c4 be b4 5b 1b bf 8e b7 15 3f 34 3a af 3d
       -0.38424644 -0.606868 0.5848321 0.08556023
000210 e5 36 29 3d b7 43 29 3f 88 11 80 bd 53 aa 3b be
       0.041312117 0.6611895 -0.06253344 -0.18326692
000220 47 99 96 3e 95 f1 10 3f aa c9 7e bd 7e dd 5c be
       0.29413816 0.56618625 -0.06220404 -0.21568868
000230 cc 5a 7c 3d 33 9b b9 3d 50 a2 d2 3e 84 d0 99 3e
       0.06161003 0.09062805 0.4113946 0.30041897
000240 10 51 8d be 85 33 18 3e 41 d5 98 3e b8 4c ea 3d
       -0.27600908 0.14863403 0.298502 0.11440414
000250 a2 23 22 3e 54 d5 4b bd 67 9b 68 3e 73 b4 d3 3c
       0.15833905 -0.049763992 0.22715531 0.02584288
000260 d4 ab 80 3e ad 8e f6 3e f0 df 97 3e 49 60 06 bf
       0.25131094 0.48155728 0.29663038 -0.5249067
000270 16 d4 ea bd 21 25 14 3f 85 8c dc be 0e 59 79 3e
       -0.114662334 0.57869154 -0.43075958 0.24350378
000280 9d c2 80 3d e2 9f a4 be 62 3c 3a be f1 2a 0c 3e
       0.062871195 -0.3215323 -0.18187097 0.13688256
000290 d1 ba 70 be 6a 69 47 3e 68 cb c7 be 2e 04 0d be
       -0.23508765 0.19473806 -0.39022374 -0.13771126
0002a0 60 b8 8e 3a d4 13 bb be 13 3b 46 be 7f 2b 5d be
       0.0010888688 -0.36538565 -0.19358473 -0.21598624
0002b0 3e 74 45 bd ea dd de bc e9 e7 0d be eb 06 f9 bb
       -0.04820656 -0.027205426 -0.13857998 -0.0075997016
0002c0 62 c2 1e bf 61 6b dd bd d8 04 83 be 54 f3 53 bd
       -0.62015355 -0.108114965 -0.25589633 -0.051745728
0002d0 33 09 8f bd 3a b0 5e 3e 23 8f 8d bb bd 22 a1 3e
       -0.069841765 0.21746913 -0.0043200417 0.31471816
0002e0 6b ac 38 be f9 d6 a4 be 91 0c eb 3c 1f b3 a4 3e
       -0.18034522 -0.3219526 0.028692516 0.3216791
0002f0 8d fd 41 3e a7 49 be 3d 57 9a e8 3d 9a ea 8d be
       0.18944378 0.09291392 0.11357563 -0.2771805
000300 fd 0e 89 be 78 2f bf bd 90 1b b9 3e 35 88 79 3e
       -0.26769248 -0.09335226 0.3615384 0.24368365
000310 a5 b1 1a bd 10 cb 0e bf b6 ce 5e be 05 29 9d 3e
       -0.03776707 -0.557786 -0.21758541 0.30695358
000320 22 21 f0 3c e2 c2 d2 be 1f 3f 23 3e 32 8f 05 3e
       0.029312674 -0.4116431 0.15942048 0.13042906
000330 1f 16 c0 be 1c ef d7 bd 13 58 7b bd 98 27 3e be
       -0.37516877 -0.10543653 -0.06136329 -0.18569791
000340 55 d4 18 3e 05 0e 2b 3d c4 4b a5 ba b3 f4 80 be
       0.14924748 0.041761417 -0.0012611081 -0.2518669
000350 c8 9b ab 3e 74 a1 2b be 52 f5 1d be 95 50 b3 3b
       0.3351729 -0.16760808 -0.15425614 0.0054722526
000360 c4 00 9a 3e af 61 5f 3e 06 8f 42 be 9f 90 6a be
       0.3007871 0.21814607 -0.18999872 -0.22906731
000370 d8 19 08 3f 09 94 17 be fe fe 34 be da dd bc 3e
       0.53164434 -0.14802565 -0.17675397 0.3688801
000380 a1 e8 97 3e bc 91 3e bf 42 e1 99 be 15 27 c9 bd
       0.2966967 -0.74441123 -0.3005467 -0.098219074
000390 32 78 8f 3e 3a aa 1f 3e 3c fa cb bd 75 6c 91 bd
       0.2802139 0.1559228 -0.09959838 -0.07100765
0003a0 a8 85 f5 be 5e f6 9f be 7b 0d 32 be 31 2a b7 3c
       -0.47953534 -0.3124265 -0.17387955 0.022358986
0003b0 bd 1b e4 bd cb ca 5c 3e 3e 4d c8 bd 2d 55 a2 3e
       -0.11138103 0.21561734 -0.09780358 0.3170561
0003c0 5d a9 2e be b7 b9 08 3e 04 14 d9 bb 7d 58 ef 3d
       -0.17056794 0.13352095 -0.0066247005 0.116868
0003d0 9b b4 a8 bd 0b 72 ce 3e 82 b9 a5 bc b9 98 04 be
       -0.08237573 0.40321383 -0.020230059 -0.12948884
0003e0 86 df 17 3e c2 d7 66 3c d2 89 83 be ad 2b 7a be
       0.14831361 0.014089527 -0.25691086 -0.24430723
0003f0 2f 02 29 bd 05 ba b8 3c 27 53 c7 bd 43 f1 86 bd
       -0.041261848 0.022549639 -0.09732657 -0.06588986

_actor_critic.actor.preprocess.model.model.0.bias f4 [64]
000000 78 84 24 bd 06 80 17 bd a7 39 82 be 8a c8 ad bc
       -0.040165395 -0.036987327 -0.2543461 -0.021213789
000010 94 42 48 be e6 40 d6 3c 12 e3 55 bd ba c9 0e 3e
       -0.19556648 0.026153993 -0.052218504 0.1394414
000020 40 fe 18 3d 8e c0 5c bd db 12 3b bb 33 d5 01 3e
       0.037351847 -0.053894572 -0.0028545174 0.12678985
000030 be 47 e1 bb c6 39 e1 3d b1 f7 96 3d 1e e3 e3 3d
       -0.0068750074 0.109973475 0.07371462 0.111273035
000040 95 c6 ca 3e b2 4f 39 bd 47 a0 9d bc a8 1d d5 3c
       0.3960463 -0.04524202 -0.019241465 0.026015118
000050 82 56 56 3d 05 13 ff bd 3a d4 30 3e d0 56 6c 3d
       0.052328594 -0.124547996 0.17268458 0.05769998
000060 d5 5b 13 be f1 5d 67 3c fb d7 ee bd 89 47 b1 bd
       -0.143905 0.0141215185 -0.11662289 -0.086562224
000070 f9 51 33 be d4 e9 76 3e 13 4a 4b bc 88 ea 74 bd
       -0.17511739 0.24112636 -0.012407797 -0.05979398
000080 48 b7 e6 b9 2a 56 3f 3d ee 4f e6 bb 28 cd 93 3d
       -0.00044005574 0.04671303 -0.0070285713 0.07216865
000090 37 03 08 bd 90 7e 86 bd c8 35 14 3c ff 47 4b 3e
       -0.03320619 -0.06567109 0.009046026 0.19851683
0000a0 5a 09 5c bd da ff b6 bd 46 23 a6 3e dd d2 98 bb
       -0.053719856 -0.089355186 0.32448786 -0.0046638087
0000b0 75 15 f8 3c 1d 58 70 bd 94 69 19 3d 44 cc 24 3d
       0.030283669 -0.05867778 0.037454203 0.040233865
0000c0 02 73 c1 bc ac 23 3c 3e 19 b7 37 3e b8 30 c1 bd
       -0.02361441 0.18372983 0.1794094 -0.094331205
0000d0 95 d2 d0 3d 11 bc 40 3e 26 d9 0f bd 09 d5 09 3d
       0.10196415 0.18821742 -0.0351192 0.03365043
0000e0 10 0e 80 bd cd 8d 7c bd 1f 31 d2 3d 09 ac c2 3d
       -0.06252682 -0.06165867 0.10263275 0.09505469
0000f0 12 f8 70 bd b9 17 da 3c 86 57 df bd cf e5 c3 3c
       -0.05883033 0.02662264 -0.10905366 0.023913292
