results/Swimmer-v3/trpo/8/220709-071606/policy.pth (torch, 47844 bytes, 24 tensors)

actor.sigma_param f4 [2, 1]
00000000: 75ba 7bbf 535e 33c0
-0.98331386 -2.802632

actor.preprocess.model.model.0.weight f4 [64, 8]
00000000: 13fc e5bd cacf c7bd 2fca 9a3d 94e7 ec3d
00000010: 52ef 853e 2be4 ecbd ed89 243e c2cc 08be
00000020: f76b 64bf 4c96 98be 5f4b 4e3e 7502 aa3d
00000030: 94b0 923e 1055 6f3e bb9d ad3d 8743 93bf
00000040: ae2f 1b3e 7fa9 6cbd a62b cabd 7d85 df3d
00000050: 14b2 073c 01e8 103d 8f71 eebd 0bd3 d6be
00000060: 8e0c ccbd fdda 33be cec1 4c3d 8dc7 ca3e
00000070: 3560 d13e 48e2 003f 476b 213d a9a1 5abe
00000080: a440 023f 8148 d03e bb58 993d 05c3 2c3e
00000090: 3f15 93be 195a a0bd 3c77 5e3e 5912 053f
000000a0: 8afd 3d3e 9a35 b438 8bc4 9c3d 61f9 bcbd
000000b0: 0f57 f83c 981c f2ba 8bab cdbd 4fbd 073f
000000c0: a115 543c f106 833e 911f 6abe b6bb fb3a
000000d0: bbcb 47bd c711 e03e 367b e93e 0fc9 5b3e
000000e0: 2f10 5f3c 8e17 613e ffb0 07be 0bfd 11bd
000000f0: f23e 9f3e 0412 a03e b2cc 22be ba4f 833e
00000100: 1b30 4abe 1655 853e f53e 863e 18fe c83b
00000110: 30f8 fabd ecbe d4be df80 863e d00c efbd
00000120: 0e45 df3b 7f0c 443d dc55 913e 651f 11be
00000130: 018b d43d ea18 883e 8aea 13be a3a6 573b
00000140: a266 f83d 14f1 2b3e 89f2 ea3c cd9f 913d
00000150: 09be 87be 12ac 273e d671 8b3e 5f4a 3fbe
00000160: cd6d 873e 2c08 253b 2570 87be cf9a 89be
00000170: 8b0f 85be 11f1 a2be de2e bf3e af68 35be
00000180: ce58 6ebe 2eab 8cbd 381a 333e b60e b73d
00000190: 8cb2 a23e 94c9 733e 3c5e 77bd 9fd1 01be
000001a0: 365d 283e 9b63 f2bd d7cc efbe 51af 80be
000001b0: 5016 7b3d 9fec 973d 56b4 01be 265c 66be
000001c0: ecce e7bd 8c2a 633f b668 c6be 7f33 533e
000001d0: 3ebb 633e 1e2f 703e 98ef 04bf 4acf bf3e
000001e0: f1b0 e4be 1263 adbe 83b7 bf3c 5908 22bf
000001f0: 60e2 4fbe 6b00 493e 5803 bdbd 86c9 2c3e
00000200: 777d 523d 3316 1f3e 4d29 a93c bb05 04be
00000210: a2fb aebe 8685 47bd d0e7 383e 7199 d0be
00000220: 211e 19be 350c 75bd 2559 48bb 6069 28ba
00000230: c9ce 323e 26f0 703e a2b5 de3d aca1 40be
00000240: 62ac 843c 51c5 873e c90e 9cbd 451d 64be
00000250: e6f7 b1be d011 3bbe bf3f d9bb ce78 ae3d
00000260: 5323 94bc 75ef a9be 9b37 983d 2a1a a5bd
00000270: 3cfc 94be 726b 5a3e faff d8be e413 1e3f
00000280: a139 b6be d9a5 9abe aabb 903d 99ca 8bbe
00000290: 69b7 983e 74ab 213e a406 d7bd 4739 a0be
000002a0: 39b0 29be c450 933d f4af a83d 36fa edbd
000002b0: 70cd b2be 0924 3c3c 7642 0a3e b4eb bebd
000002c0: 0cf3 52be 84a3 8c3d dc74 6d3d a254 893d
000002d0: d0c6 603e a18e 2a3d e3cc 12be 99e3 2f3d
000002e0: 417d 62be bcfd bc3c 1e6f 603e 3b72 5a3e
000002f0: 33b5 143e cd28 d8bd 8231 01be 18fd 27be
00000300: 782f 1e3e cfed 6e3e f44c d4bd 04c2 d2bd
00000310: 1f9c c03e 53bc b03d c193 a2bd 2bfe 74be
00000320: de81 40be 03a2 79bd 84be 453d 7730 3bbe
00000330: 1858 1cbd e1b8 00be 31c1 03be 2766 403f
00000340: b8b7 d23e 94e4 e1be c53b f83c 128e 963c
00000350: 9182 8dbd df24 f6be c39e 90bd 5bc0 3abd
00000360: e3dc 17bd 3386 1cbe 6ebe ec3c 3ad1 37be
00000370: ba27 b8bd 5619 c7be 91d9 aabe 54ca 0b3f
00000380: 6e1b b8be 5da3 27be 86a7 06bf 6201 62be
00000390: 6fd3 af3d 023b 38be 0530 56bd 84e0 b33e
000003a0: e54d e83c aef7 21bd 5032 90be 7d40 253e
000003b0: 9e42 453e d805 523e 2e46 ba3c c2f5 02bf
000003c0: 8cdf 28be c391 4b3e e863 823e deab 1abe
000003d0: e6bd e6bd e295 02be 3ff2 c93d 128d 59be
000003e0: f31b 0dbd ace2 42bb 0464 8b3e 8ae9 773b
000003f0: 77cd 33bd 8927 173e 4ba5 163e 3377 24bf
-0.1122972 -0.097564295 0.07558095 0.115676075 0.2615915 -0.11566957 0.1606824 -0.13359359
-0.8922724 -0.29802167 0.2014594 0.0830125 0.28650343 0.23372293 0.0847735 -1.1504983
0.15154907 -0.05777883 -0.098716065 0.10914133 0.008282203 0.035377506 -0.11642753 -0.41957888
-0.09963332 -0.17564006 0.049989514 0.3960537 0.40893713 0.5034528 0.03940895 -0.21350731
0.50879884 0.40680316 0.07487627 0.16871269 -0.28727147 -0.07829685 0.21725172 0.5198112
0.18553749 8.593053e-05 0.07654675 -0.09227253 0.03031495 -0.0018471656 -0.10042485 0.53023237
0.01294461 0.25591233 -0.22863604 0.0019205722 -0.048778277 0.43763563 0.45601815 0.21463417
0.013614698 0.21981642 -0.13251112 -0.03564171 0.3110271 0.31263745 -0.15898398 0.25646764
-0.19744913 0.26041478 0.26219907 0.006133806 -0.12254369 -0.41551912 0.26270196 -0.11672366
0.006813652 0.04786348 0.28385818 -0.14172132 0.103780754 0.26581508 -0.14444938 0.003290572
0.12128951 0.16791183 0.028680103 0.07110558 -0.26512173 0.16374233 0.27235287 -0.18680714
0.2645096 0.0025181873 -0.26452747 -0.26875922 -0.2598842 -0.31824544 0.37340444 -0.17715715
-0.23276064 -0.068685874 0.1749047 0.08938353 0.31776845 0.23807365 -0.060392603 -0.1267762
0.16441807 -0.118354045 -0.46835968 -0.25133756 0.061300576 0.07418179 -0.12666449 -0.2249609
-0.11318764 0.88736796 -0.38751763 0.20625113 0.22239396 0.23455474 -0.5192809 0.37462837
-0.44666246 -0.33864647 0.023402935 -0.6329399 -0.20301199 0.19629066 -0.092291534 0.1687375
0.051389184 0.15535812 0.020649577 -0.12892811 -0.34176356 -0.048711322 0.1805718 -0.40742067
-0.149529 -0.059826095 -0.0030570712 -0.00064243935 0.17461695 0.2352911 0.108744875 -0.18811673
0.01619548 0.26517728 -0.076200075 -0.2227679 -0.34759444 -0.18268514 -0.0066299136 0.085191354
-0.01808325 -0.33190504 0.07432481 -0.08061631 -0.2909869 0.2133005 -0.42382795 0.617491
-0.35590842 -0.30204657 0.07067044 -0.27303007 0.2982743 0.1578806 -0.104993135 -0.312937
-0.1657113 0.07193139 0.082366854 -0.116199896 -0.3492236 0.011483201 0.13501915 -0.093223006
-0.20600528 0.06867126 0.057972774 0.067055956 0.21950841 0.041639928 -0.1433597 0.042941663
-0.22118093 0.023070209 0.21917388 0.21332638 0.14522247 -0.10554657 -0.12616542 -0.16405141
0.15447795 0.23332904 -0.1036624 -0.10290912 0.3761911 0.0862967 -0.07938338 -0.23925082
-0.1879954 -0.060945522 0.048277393 -0.18280207 -0.03816995 -0.12570526 -0.12866665 0.7515587
0.4115579 -0.44119704 0.030301938 0.018378291 -0.06909669 -0.48075005 -0.070615314 -0.0455936
-0.03707589 -0.15285568 0.028899398 -0.17950907 -0.08991952 -0.38886517 -0.33369115 0.54605603
-0.35958427 -0.16370912 -0.5259937 -0.2207084 0.0858525 -0.1799126 -0.05229189 0.3513223
0.028357456 -0.039542846 -0.28163385 0.16137882 0.19263694 0.20510042 0.022738542 -0.51156247
-0.16491526 0.19879822 0.25466847 -0.15104625 -0.11266689 -0.12752488 0.09860658 -0.2124522
-0.034450483 -0.0029737158 0.27224743 0.003782841 -0.04389712 0.14761175 0.14711492 -0.64244384

actor.preprocess.model.model.0.bias f4 [64]
00000000: 0a91 d73c fb31 01bd 5c3a b53d 13a7 983e
00000010: 62e9 213a 8ff2 fe3d 46bd e33b 807e 933d
00000020: c405 e1bd c675 2e3b 1baa f9bc 9809 abbc
00000030: eb99 a83d b579 52bd d55b 3cbe cf42 443d
00000040: 7e07 ce3b 8709 d4bd 5bcb 28bd 9219 e33d
00000050: 772d 2bbd 3163 c4bd b3df cdbc e6cb 143e
00000060: 06e6 04bd 7e04 00bc a93b 113e d059 0f3e
00000070: 6dad a8bd aa1c f1bd 3085 63bc 8a19 5a3d
00000080: 9f5a 503d 4264 b4bc 5a1f 8c3c a324 f33c
00000090: 5e0e f8bd 7c0f 953d c5c8 d33d 2c19 a3bd
000000a0: 005d 5637 01be d43d bb9d ad3d e6d0 8bbe
000000b0: 5f26 643e b931 2f3e 1dd3 9d3d b491 393e
000000c0: 26a0 953d 0735 febd 3430 943d 53c4 313e
000000d0: b969 28bd 16ec abbc e4db b7bd 4e44 923c
000000e0: d951 b33c 4d31 b8bd c37b 3bbd d322 9dbc
000000f0: 391d 91bd 8c54 f43b 5680 b0bc 5b4f b0bc
0.026314277 -0.031541806 0.08849022 0.29814968 0.00061764393 0.12448608 0.0069500534 0.07201862
-0.10987428 0.0026620491 -0.03047662 -0.020878598 0.082324825 -0.0513856 -0.18394406 0.047915276
0.006287514 -0.1035338 -0.04120956 0.110888615 -0.041791406 -0.09589232 -0.025131082 0.14530906
-0.03244593 -0.007813571 0.14182915 0.13999104 -0.08236203 -0.11773045 -0.013886735 0.053247012
0.050867673 -0.022020463 0.017104793 0.029680556 -0.12112115 0.07278344 0.10341028 -0.079637855
1.2777047e-05 0.10387803 0.0847735 -0.27307814 0.22280262 0.17108811 0.07706282 0.18121988
0.073059365 -0.12412458 0.072357565 0.17360048 -0.04111645 -0.020986598 -0.08977488 0.017854836
0.021889614 -0.089937784 -0.045772325 -0.019181645 -0.07085652 0.007456368 -0.02154557 -0.021522215

actor.preprocess.model.model.2.weight f4 [64, 64]
00000000: 4f89 093e 9bb7 81be cb2f 193d c8b6 333c
00000010: e57f 37be 8c36 a33c 9753 3cbe d617 8f3d
00000020: e60d 563e 5be2 183e 143e 8cbe 48b8 1dbd
00000030: ca10 e43d 6d32 91bc 4f93 4f3c 1102 2f3e
00000040: 128f b3be f8f8 823d 30c3 4e3e 8411 923e
00000050: c88d 893e 10dc 1f3e b497 8d3d be37 1cbe
00000060: e99b 77be 953f 963d a060 f0bd 22f1 913e
00000070: c84c 9e3e 4785 38be 6c5c c33d 2884 50bd
00000080: 0d8c 68bd 60db f1bd 797a 873e 4350 ce3e
00000090: e47e 5c3e 7735 b6be 0d93 04be c5cc cfbd
000000a0: 545c 3bbe 1c17 443c 455f 733d b2fb c7bc
000000b0: 9553 f7bc db1d 243e f42a 73be 2035 c73d
000000c0: 2305 27be fb2c 8c3c c24a eebd 3f97 96bc
000000d0: 8f1d 0cbe 146d c8be 2ff7 633c 725c 0ebe
000000e0: 38b6 3e3d 3af9 4e3e 9720 8bbe 3b7b 593c
000000f0: 8b7a cf3d d013 173e d5a9 db3e 0bcb 57be
00000100: e96e 40be ea0d 26be 5577 77be 68c1 9ebe
00000110: a730 5dbc 4075 0cbd 2171 7ebd b535 70be
00000120: 2186 d03d 6d47 0e3d d79d 8e3d 5575 963d
00000130: b976 59be 8f78 573d 707f aa3e ae40 29be
00000140: d671 0d3e 858d 8f3e f67a 213e 200c 3fbe
00000150: 9295 44be 4536 a3be 13b6 433e a12c 0c3d
00000160: d22e 7cbd b1ce 25bc 7d3f fa3e b9eb 2e3e
00000170: 88d6 be3e 1c82 713d e832 c53e 08f4 fd3d
00000180: d946 223d f082 21bd f97b 2c3e 2c34 113e
00000190: b737 1fbe 5778 513e d76c 41be 09a0 c3bd
000001a0: 860b abbd 3d1e a23c 86db 09be 5332 81bd
000001b0: 997a 94be 1af6 ec3d a2e9 48bc 2afd 0bb9
000001c0: fec0 863e f00a 9fbd d9d7 eabb b23a a4bd
000001d0: dd78 533d 8a99 163d e079 1cbe d2ce 823e
000001e0: f684 f93c e47f 96be e563 1cbe fde9 463e
000001f0: 8e29 99b9 865b f33c 4d90 d33d 4738 183d
00000200: eab2 20be 6205 20bd 7562 c83e f204 0fbd
00000210: 1c0e 48bd 5727 5b3a c391 933e 2759 0d3e
00000220: cb66 2cbe 21d4 23bd 5c93 6fbd cec7 82be
00000230: a3cf 833e 8cf7 e93c d260 8e3e 9845 8d3e
00000240: 5f61 8cbe 1cbe b2bc b0b6 0e3c 8352 13bd
00000250: b572 1c3d 871f acbe 82d6 8b3e 86d1 42bd
00000260: 23ca 1b3d 5d5c 8b3c 63e3 30bd a66b b03d
00000270: ca25 84be 09af 85bd 197e 423e 6db5 99be
00000280: 75ba 1f3d 9966 613d 83dd 9fbe 1458 44be
00000290: 0a21 81bd fa6c 703e 7f28 66be ed0d 903e
000002a0: 5955 e4be 0244 253e b75e 80bd abcf f7bd
000002b0: 60d0 bb3d fea2 4c3e cde3 003d d291 57be
000002c0: 0679 583e ea7f b1bd ae27 d43e 3cf1 34bd
000002d0: c605 fdbd f66c b53b d05c 54be a830 4d3d
000002e0: d5af 87b9 5c74 683e 04cf 37be 16fc 99bc
000002f0: 5ba3 363e 625e cd3d 5d13 b13d 4882 3bbc
00000300: f295 c23c 20b0 db3e 87f5 b2bc 55e0 2e3e
00000310: 86a6 adbe 50fb 41bc 95b1 d2bd 857f ff3c
00000320: 30a5 b53d 313c e4bd cd59 22be 3d17 d8bd
00000330: 096e 6c3e 440d 8f3e cdf7 d53c c8b3 d23d
00000340: b119 11bd 429e 0a3e 49a9 873c 6be4 c0bc
00000350: 23f7 103f 1735 d7bd 951a da3e 2ac7 a23e
00000360: c376 6fbd 8fc0 123e c670 94bd 2c09 30be
00000370: 7b90 e5bd 939b 773d 46fd f33d 16ea 083f
00000380: 4b07 593d 71fd 213d 6701 7c3e f031 38be
00000390: 1cce 2d3e 2f19 acbe 5c3a bfbd 104c 903d
000003a0: da4d f6bd b241 24be 2768 7abe 3581 bc3e
000003b0: 55f9 acbd 9ef3 483c 2852 123e fec4 abbc
000003c0: 771e 6fbe 7b66 9bbb 9480 a73e 3828 34bd
000003d0: 761e c23e 5f31 413e 9971 403e 1ec8 4bba
000003e0: dd79 3d3c daba d8bd b674 733e 42bd 7abe
000003f0: 32a2 e0ba d27d 9f3d a9ef 793d 24fb 13be
0.13431285 -0.25335392 0.037399095 0.010968871 -0.17919882 0.01992347 -0.18391262 0.06986968
0.2090374 0.14930098 -0.27391112 -0.038505822 0.11136015 -0.01772424 0.012669398 0.17090632
-0.3507009 0.06395143 0.20191646 0.28528988 0.26865983 0.15611291 0.06913701 -0.15255639
-0.24180569 0.07336346 -0.1173718 0.28504282 0.30917954 -0.18019591 0.095391124 -0.050907284
-0.056774188 -0.118094206 0.26460627 0.4029561 0.2153278 -0.35587665 -0.1294672 -0.101464786
-0.18296939 0.0119684 0.059417028 -0.02441201 -0.030191222 0.16027014 -0.23746854 0.0972693
-0.16310553 0.017111292 -0.11635353 -0.018382667 -0.1368315 -0.3914572 0.013913914 -0.13902453
0.046560496 0.2021226 -0.27173302 0.013274009 0.10130795 0.14753652 0.4290301 -0.21073548
-0.18792309 -0.16216245 -0.24166615 -0.31006932 -0.013500369 -0.034291506 -0.062119607 -0.23457988
0.10181833 0.034736086 0.06963699 0.07346598 -0.21236695 0.052605208 0.33300352 -0.1652858
0.13812956 0.28037658 0.15769562 -0.18656969 -0.19197682 -0.31877342 0.19112425 0.03422225
-0.06156809 -0.01012008 0.48876563 0.17082109 0.3727305 0.058961973 0.385154 0.12400061
0.039618347 -0.039431512 0.16844167 0.14180058 -0.15548597 0.20456062 -0.18889175 -0.09552009
-0.08351807 0.01978981 -0.13462648 -0.06308427 -0.28999785 0.11570378 -0.012262734 -0.00013350384
0.26319116 -0.07765758 -0.0071668443 -0.08019008 0.051628936 0.03676752 -0.15280867 0.25548416
0.030458909 -0.29394448 -0.15272482 0.19425197 -0.00029213395 0.029706728 0.103302576 0.037163045
-0.1569325 -0.039067633 0.39137617 -0.034916826 -0.04884158 0.0008360049 0.28822145 0.1380354
-0.16836087 -0.039997224 -0.058490142 -0.25543064 0.25744352 0.028560422 0.27808243 0.27592158
-0.27418038 -0.021819167 0.008710548 -0.03596736 0.03819533 -0.33617803 0.27312094 -0.0475631
0.03803457 0.017011816 -0.043185603 0.08614282 -0.2581008 -0.06527526 0.18993415 -0.3002123
0.03899618 0.055029485 -0.31223688 -0.19174224 -0.0630513 0.23479071 -0.22476386 0.28135625
-0.44596365 0.16139224 -0.062680654 -0.121001564 0.09170604 0.19984052 0.031467248 -0.2105172
0.21139917 -0.08666976 0.41436523 -0.04417537 -0.12354617 0.005536671 -0.2073853 0.05009523
-0.00025880212 0.22700638 -0.17950064 -0.018796962 0.17835753 0.10027768 0.086462714 -0.011444636
0.02375314 0.4290781 -0.021845592 0.17077763 -0.3391611 -0.011839703 -0.10287777 0.031188736
0.08869398 -0.11144293 -0.15854569 -0.10551307 0.2308885 0.27939808 0.026119137 0.10288197
-0.03542489 0.13536933 0.016560214 -0.023546418 0.566271 -0.10508173 0.42598405 0.31792575
-0.05846287 0.14331268 -0.07248072 -0.17190999 -0.11209198 0.0604511 0.119135424 0.53482187
0.05298547 0.03954834 0.2460991 -0.179878 0.16973156 -0.33612964 -0.09337303 0.07045758
-0.12026568 -0.16040686 -0.24453793 0.36817327 -0.08445994 0.012265114 0.14289153 -0.020967957
-0.23351465 -0.0047424412 0.32715285 -0.043983668 0.37913865 0.1886649 0.18793334 -0.0007773655
0.011564699 -0.10582514 0.2377499 -0.24486259 -0.0017138182 0.0778767 0.061019573 -0.14451271

actor.preprocess.model.model.2.bias f4 [64]
00000000: a906 e53a 77de 84bd 26bc 3b3d 3083 c83c
00000010: ce69 953c 1d16 3b3d 1fbf 3fbd 1b68 a4bd
00000020: ac39 b03d 3571 0f3e 7d59 d63d 363a df3b
00000030: 2771 053d 36be c7bc aef3 903c 91e3 f13c
00000040: e7d5 5f3c 0500 ca3d 36ae 0a3b 35b7 8abc
00000050: bb89 503e e7f6 4ebd 114c 333c de50 c9ba
00000060: 4220 aebb b50f c9bb 6cc4 a33c d23f ddba
00000070: e3a4 01be 78af c13c b217 72bd 494b 163c
00000080: d997 b03c b4b8 b63b 693c 0e3c 1b7f 923d
00000090: 7299 bb3d 1395 16bb e3f5 0fbc f86e 2e3d
000000a0: 5e9f 203e d45b 063b 4d39 8d3b 86a7 28b9
000000b0: c391 d63b e3b5 d73b 680a e2bb bd27 46bc
000000c0: 577d dfbb e0e7 2e3d b2b4 dd3c d3f1 ab3c
000000d0: b440 48be c6b0 8cbd a62f 0a3d c483 113e
000000e0: 8068 f5b9 19fd 73bd a449 f33c cd4a 27bd
000000f0: 725e c3bd 2bfe 633c 24b8 babd 9b3d a13d
0.0017473298 -0.06487744 0.04583373 0.024476618 0.018238928 0.045675386 -0.046813127 -0.08027669
0.0860475 0.14008029 0.10466287 0.006812359 0.032578614 -0.024382692 0.01769432 0.029527457
0.013661838 0.09863285 0.0021160967 -0.016933063 0.2036504 -0.050528433 0.010943429 -0.0015359183
-0.005313904 -0.0061359056 0.019991122 -0.0016879982 -0.12660556 0.02364324 -0.05910463 0.009173223
0.021556782 0.0055762175 0.008681395 0.0715315 0.09160127 -0.0022977039 -0.008786651 0.042586297
0.15685794 0.0020501511 0.0043098093 -0.00016084136 0.006548138 0.006582962 -0.006898213 -0.012094435
-0.0068203616 0.042701602 0.027063701 0.020989334 -0.19555932 -0.06869654 0.033736847 0.14210421
-0.000468079 -0.059567545 0.0296982 -0.04084282 -0.095394984 0.013915579 -0.09117153 0.078730784

actor.mu.model.0.weight f4 [2, 64]
00000000: 2fc7 9a3e 196b 9ebd 4aad 7e3e 5380 e2bd
00000010: 76d1 0a3e d12f 773e 15f8 473e 3101 a13c
00000020: fad4 c13e d736 a23d b8c8 13be ce6e 83be
00000030: d68d a03d af6f f93d 4225 a5bd f8a4 bcba
00000040: 67d4 c33c 1979 223e 0ea2 8ebd cb4a 99bd
00000050: 240f b3be a59b d5be bb40 a6b9 96b5 08be
00000060: 7fd8 9e3d afe2 66be a54e bc3c 626e 41be
00000070: 7e71 8b3e 94e4 fe3d 92d9 153d 4678 763d
00000080: 7e5c 633e 08df 773e 910a 2e3e 4c5f 2c3e
00000090: d66e fd3d ff33 e73d d5c4 ca3d 401d 11bd
000000a0: ba66 7b3e c0dd b13d 565f 07be cdff 96bd
000000b0: c92a 643e 690b 7a3d 5d23 7cbe e965 31bd
000000c0: 0b7c e03d cf21 93be 034e e0bd b6cf fa3e
000000d0: 235d 1a3f 3bd9 87bc 11f7 91bd e7c4 033e
000000e0: e5ec 23be 020a ccbe 2869 c5be c0df 413d
000000f0: c32f fdbe 96ef 2c3d 0664 8cbe 101d 81be
00000100: 4e70 e4be 490c 283e 1b60 b13e 444d 1bbf
00000110: 7636 63bd 4725 c2bd 0ef0 dd3e 311e 98bb
00000120: 186b 4a3e 0622 f0be 5fdc 91be 76bd 54be
00000130: ec3c c8bc 0d05 bcbc 207c b0be ee63 023e
00000140: e6e4 1c3f eba2 f0be 6eb1 9b3e 7121 0c3f
00000150: e729 073f f50a 013f e954 25be fc1e 21bd
00000160: 1e1f 18be 20b1 b6be c216 a6be cc53 fbbd
00000170: 6e31 edbe 3694 8fbd f18a 863e 6230 6ebd
00000180: 5139 94bc 0313 563e 89a4 6b3e 9a38 b53e
00000190: b0a6 e73e 6ccf ca3e 43e0 c73e 7322 98be
000001a0: 55da b2be e50a 5ebe 01da 903d d513 c13c
000001b0: 268d 08be ef01 953e d0f9 ab3e 2e57 753d
000001c0: a8cd 4f3e 9fb4 a1be b8e0 58bc 3b21 c7ba
000001d0: 9687 eebd a57d c83e 6a6e d53e f346 d8be
000001e0: 7a90 b3bc 21db 7fbe ecf4 c6be 7703 06be
000001f0: 7d8f 8dbe 3db6 67be b2ed 8b3e 545f b63e
0.3023009 -0.07735271 0.24870792 -0.11059632 0.13556466 0.24139334 0.1952823 0.019653888
0.378578 0.07920616 -0.14432037 -0.25670475 0.07839553 0.12179505 -0.08063747 -0.0014392426
0.023904992 0.15866508 -0.06964503 -0.07484969 -0.3497249 -0.4172031 -0.00031710215 -0.1335052
0.07756137 -0.2254741 0.02298672 -0.18889764 0.27235025 0.124459416 0.036584444 0.060173295
0.22203252 0.24206173 0.16996218 0.16833228 0.12374656 0.11289214 0.09900824 -0.035428286
0.24550906 0.086848736 -0.13219962 -0.07373009 0.22281946 0.061046038 -0.24622865 -0.04331008
0.10961159 -0.2873673 -0.109523796 0.48986596 0.60298365 -0.016583076 -0.07127202 0.12868081
-0.16008337 -0.39851385 -0.3855679 0.047332525 -0.49450502 0.042220674 -0.27420062 -0.25217485
-0.44616932 0.16410936 0.34643635 -0.60664773 -0.05547186 -0.09479766 0.4334721 -0.004642271
0.19767416 -0.46900958 -0.28488442 -0.20775399 -0.024443112 -0.022951627 -0.344697 0.12733433
0.6128677 -0.46999297 0.30408806 0.5473853 0.5279831 0.50407344 -0.16145672 -0.03933619
-0.1485562 -0.3568201 -0.32439238 -0.12271842 -0.46326774 -0.07010691 0.2627788 -0.05815161
-0.018093737 0.2090569 0.23011984 0.35394746 0.4524436 0.39611375 0.39038286 -0.29713783
-0.349322 -0.21683843 0.07072831 0.023569027 -0.13335094 0.29103038 0.3358903 0.059897594
0.20293295 -0.31583115 -0.013237171 -0.0015192399 -0.11646955 0.3915836 0.41685802 -0.4224163
-0.021919478 -0.24985935 -0.38858736 -0.13087259 -0.27648535 -0.22628112 0.27329785 0.35619605

actor.mu.model.0.bias f4 [2]
00000000: 6f65 8f3d 204e 79bd
0.07001769 -0.06086552

critic.preprocess.model.model.0.weight f4 [64, 8]
00000000: 6d49 dcbe a39d 9bbe a5ec f23e 8619 6b3e
00000010: b58d 153c 19fd 7cbd 1c3d a0bd 4214 5c3e
00000020: a7d7 0dbd 26e4 fdbd 11d5 f9be 2824 753c
00000030: 7a57 10bd 75e0 23be afbb 21be 93e0 d3bd
00000040: d5ff debe 8f71 d63e b01c 9d3e dfd8 d13c
00000050: bcf7 fbbd 1242 a0bd fab1 673d 8f63 a9bc
00000060: 5a32 0b3e 4b43 b0bc 35be e4be 2437 843e
00000070: f399 cb3d 7c30 7bbe 2b24 47bc d22d fc3e
00000080: 6b2b d0bd 1cc9 aebe c054 013e bb5e 5f3e
00000090: e6dc 963d 2ae3 e63e 4979 e7be 1ee5 4f3f
000000a0: 251f 033e 66a5 63be ea75 96be 1d5f 7f3d
000000b0: 26e1 733e 1837 bd3c aa31 8fbe 1f35 edbd
000000c0: d1fb 143d 169e e73c 67e8 a23e 845e 01be
000000d0: 1419 5fbd dd2b d83d 3efb 933d c07b 913d
000000e0: d517 62be e434 153e f1f8 b1be 9b5f 003f
000000f0: b837 23be 2c80 10bd f394 403f b9fc 353e
00000100: 8910 cbbe 46d0 813e 93bb d2be ad87 aabc
00000110: 8adc 5a3d a113 b23d ba09 883e f3d0 9f3b
00000120: bd06 243f 484e 043e 210d 58bd 9771 8bbd
00000130: c323 013e e5a1 833e 8faf c73d 06ef 8e3e
00000140: b17b bd3e 5d8f 993e b91c 7b3e c9ff 4fbd
00000150: 3558 a3bd 6206 42be 8434 0abe cb58 dcbd
00000160: f41f 55bf 296c 9dbe bf7c 3d3e 705b 003e
00000170: e4cc bcbd e5ae 3fbe 9de1 763d a25b c2bd
00000180: 428d e13e e047 033e 12e1 1fbc 7326 2ebe
00000190: dd59 d1be 53eb 233d d55b b93d 6a6b 75be
000001a0: 0737 993e 2756 c53c 9736 223f 47fe 883e
000001b0: 6760 053e 17c9 d7bc 3e11 603d 905f 0dbe
000001c0: 353e 52bf 72e7 60bd 8124 de3d 577c 26bd
000001d0: b144 043f e385 febe c8ee 11bd a7bd 6b3d
000001e0: e41b febe 0630 023f dccd e23e 5f47 ab3d
000001f0: 8fb8 bfbc 856d 4dbe 1252 c7bd 5e9f ad3d
00000200: 945c a4be 0b89 043f 7b19 c6be 77e1 643d
00000210: 0a3c c83d b7af 6039 85d2 9cbd 33ea bfbc
00000220: 0e54 c4be 4d5a da3d 0e61 263e 35c2 b4bc
00000230: 90d7 84bd d78c 03be 7c31 32bd c9d3 9cbd
00000240: a27b fbbe 3d70 34be c5a0 a6be f16b 1cbd
00000250: c291 a2bd e4e8 d6bd 1a3a 01be d6bf fcbd
00000260: 2428 ab3e b54e 66be a00b 8e3d 0ec5 be3e
00000270: 2f2b 66be 9271 5e3e 8c75 34bf 3802 953d
00000280: 936e aabd e0d8 50be 7bff fc3e 28cd 39be
00000290: 3b5f 02bf ab73 2fbe 0e1e 6cbe 7918 f93e
000002a0: de39 813e cf8d 43bf 94ba 2fbc d206 6d3d
000002b0: 3e45 8bbe 9aa5 c9bd eac0 943d c9e4 09be
000002c0: ded6 f0be 5f67 e4bc 3f5f 6dbd 85ea 08bd
000002d0: 8b64 17bf c785 133e 84c4 d53e 12ad 8b3e
000002e0: d689 8cbe 3fb1 adbe 4487 cd3d d4b8 c63e
000002f0: 00f5 39bd 1e5b 223e 6fde bebe 1e70 96be
00000300: 4a2b f3be 791d 01bc f8f3 033f e543 77bd
00000310: 9fc9 09bd 7821 453e e559 dcbb dd3a 353e
00000320: fd29 70bd 7122 e1bc 8656 9dbe 4e5a 5f3c
00000330: 27d7 61be ae08 c2be b643 c8bd a096 8dbc
00000340: d143 3e3c 81c9 053f 45fe b23e 5597 55bd
00000350: 908a 043d 31ae 4abd 48dd c8bd 12de 0cbd
00000360: 2912 62be 38e8 1a3f 1ce7 b9bd 6ce6 17be
00000370: 76f9 d23d 5a57 2f3d e9d3 fc3d 40d4 e3bc
00000380: 3116 2f3d 9dfa e23e c032 89be da47 bf3d
00000390: a28d 833d f64a 99bd 78e0 f13d aa3c c03e
000003a0: 4bcb 2abf d903 dc3e bb4a a5bd 7b24 41be
000003b0: d6e8 51be f1fb 143e fb4e b83e 329e adbd
000003c0: 67ba b4bd 8673 b9bd 9589 f1bc b108 14bf
000003d0: 2a3f 77be 8f7e 8cbe 5f88 863d 141d 15be
000003e0: 0ed2 023f f61d 4f3e fa4d 83be 9130 86be
000003f0: cd1b 073e 1e4b 56bd 2487 babd bcf8 943d
-0.4302477 -0.30393705 0.4744617 0.22958955 0.009128024 -0.06176481 -0.07824156 0.21492103
-0.03462949 -0.123970315 -0.4879537 0.014962234 -0.035239674 -0.16003592 -0.15794252 -0.103455685
-0.4355456 0.41883513 0.3068595 0.025616108 -0.12303111 -0.07825102 0.056566216 -0.020677356
0.13593426 -0.021516463 -0.44676366 0.2582332 0.09941473 -0.24530214 -0.012154619 0.49253708
-0.10164531 -0.3413781 0.12629986 0.2181348 0.07366352 0.45095187 -0.4520972 0.8120898
0.1280485 -0.22231063 -0.29386836 0.062346566 0.23816356 0.02309756 -0.27967578 -0.11582398
0.036372963 0.028273623 0.31817934 -0.12633711 -0.054467276 0.10555241 0.07225655 0.071036816
-0.22079404 0.14570957 -0.3476024 0.5014588 -0.15939224 -0.035278484 0.7522728 0.17772187
-0.39661053 0.25354213 -0.41158733 -0.020816648 0.05343298 0.0869515 0.2656992 0.0048772036
0.6407278 0.12920487 -0.052746896 -0.06808775 0.12611298 0.25709453 0.09750282 0.27916735
0.37008432 0.2999219 0.24522676 -0.050781045 -0.079758085 -0.18947747 -0.13496596 -0.107591234
-0.8325188 -0.30746582 0.18504618 0.1253488 -0.09218767 -0.1871906 0.060273755 -0.09490134
0.44053084 0.12820387 -0.009758251 -0.17006855 -0.40888873 0.040019345 0.09050719 -0.23966756
0.29924795 0.024088932 0.6336455 0.26756498 0.13025056 -0.026341004 0.054703943 -0.13805985
-0.8212617 -0.054908223 0.10846806 -0.040645923 0.51667315 -0.49711522 -0.03562811 0.057553913
-0.49630654 0.5085453 0.44297683 0.08363222 -0.023403434 -0.2006131 -0.097324505 0.084776625
-0.32101882 0.5177161 -0.38691315 0.055879083 0.097770765 0.00021427764 -0.07657341 -0.023427105
-0.3834538 0.10661755 0.16247961 -0.022065261 -0.06486428 -0.12846695 -0.043504223 -0.07657582
-0.49117762 -0.1762094 -0.32544532 -0.03818888 -0.07937957 -0.10493639 -0.1261982 -0.12341277
0.33429062 -0.22490962 0.06935811 0.37259716 -0.2247741 0.21723011 -0.7049186 0.07275814
-0.083218716 -0.20395231 0.49413666 -0.18144667 -0.5092656 -0.17133968 -0.2305834 0.48651484
0.25239462 -0.7638826 -0.010725636 0.057867832 -0.27201265 -0.09846039 0.07263358 -0.13466181
-0.4703893 -0.027881322 -0.057952162 -0.03342678 -0.5913779 0.14406501 0.41751492 0.2728048
-0.2744891 -0.3392429 0.100355655 0.38812888 -0.045399666 0.15855071 -0.37279078 -0.29382414
-0.47493964 -0.007880562 0.5154414 -0.060367484 -0.033639546 0.19251049 -0.0067245835 0.17698236
-0.058633793 -0.027482243 -0.30730075 0.01363237 -0.2205473 -0.37897247 -0.0977854 -0.017283738
0.011612848 0.52260596 0.34959617 -0.052146275 0.032358706 -0.049482528 -0.09807831 -0.03439147
-0.2207724 0.6051059 -0.09077284 -0.14833993 0.10301487 0.042807914 0.12345106 -0.02781117
0.042745773 0.44331828 -0.26796532 0.093398765 0.06423499 -0.07485001 0.11810392 0.37546283
-0.6671645 0.42971686 -0.08070894 -0.18861572 -0.20498976 0.14549233 0.35997757 -0.08477439
-0.08824616 -0.090552375 -0.02948455 -0.5782576 -0.24145189 -0.27440307 0.065689795 -0.14561874
0.5110177 0.20226273 -0.2564543 -0.26208928 0.13194199 -0.05231773 -0.09107807 0.07274005

critic.preprocess.model.model.0.bias f4 [64]
00000000: f800 bebd 8294 ebbe 7748 043f fb01 4dbd
00000010: 18d5 0c3e 88df 32bf cf41 b03e e1fa 9cbd
00000020: e5e2 8bbc fb88 043f c96d 503f bc5e 6fbe
00000030: 57c1 48bd 1588 c63e cdc3 33be f228 083f
00000040: 5716 bb3e 1cb0 123f c1a4 47bd a9ea 783c
00000050: eeff 8cbd c229 cfbe ee37 b6be 2923 693e
00000060: 13ef 413e c227 1bbf 50f7 253f 7eb4 223e
00000070: 419d 633e 95d7 d7be 293e ad3e f1a8 b7bd
00000080: 1d72 0bbd e7ce 8d3e 7321 96bd 5612 e53d
00000090: 60de 36bf 4ca6 173f 48d1 e7be ce21 bcbe
000000a0: 1ba7 3bbe e3d7 1b3f f3b6 5cbe f7c4 1bbf
000000b0: 7bb1 efbe 3b27 4f3d b065 223f 6a2b e3be
000000c0: 1533 0dbf 673a 8d3a cfa7 84be 70e6 833e
000000d0: a633 213f bf08 12be be42 a0be 3a6e aebe
000000e0: bcf2 83be fd6a c4bd 54fc a7bb d068 173e
000000f0: 0a65 683e 1c59 16bf 78f8 dc3e 8546 0a3f
-0.092775285 -0.4601174 0.5167307 -0.050050717 0.13753164 -0.6987233 0.34425208 -0.07665039
-0.017075965 0.51771516 0.8141752 -0.23375982 -0.04901251 0.38775697 -0.17555161 0.5318748
0.3654048 0.5729997 -0.048741106 0.015192666 -0.06884752 -0.40461546 -0.35589546 0.22767319
0.18938856 -0.6060754 0.64830494 0.15889165 0.22227956 -0.42156664 0.33836487 -0.0896777
-0.034044374 0.27696916 -0.07330599 0.11185138 -0.7143307 0.59238124 -0.45276856 -0.3674454
-0.18325464 0.6087629 -0.21554165 -0.6084742 -0.46815094 0.050574522 0.6343641 -0.4436906
-0.5515607 0.0010774852 -0.25909278 0.25761747 0.62969434 -0.14261149 -0.3130092 -0.3406847
-0.2577113 -0.09590719 -0.0051265154 0.14786077 0.22694793 -0.5872972 0.43158317 0.54013854

critic.preprocess.model.model.2.weight f4 [64, 64]
00000000: 579c 55be 9307 8cbe f138 02be e125 45be
00000010: 7944 f3bd b354 e0bc 9a23 82be b285 5ebe
00000020: 3c23 f7be bfc6 c83d feb5 163e 9ad4 d439
00000030: fb0a 75bd 65df 163e 0d3e 33be 53ba 813b
00000040: 7265 e0bd cddd 53be 58c0 50be 90c0 493e
00000050: 41a0 863d d9a4 933d a3a7 04be 616f b6be
00000060: 8fae 1ebf f575 6cbd f5f0 23be 1763 67be
00000070: 05e1 65be 3d92 70be 84c7 d13e 59a7 9e3c
00000080: 445a 9b3e 3a3a 2c3e a9d1 6abd 2437 43bb
00000090: be3c 71bd 1db5 103e 9c92 933c 21c7 b3be
000000a0: 1e0a 41bc 96c3 1cbe b233 ccbd 07b8 583e
000000b0: 9a20 d9be 6343 243f f8ea 9fbc 8c15 75bf
000000c0: e1bc 0b3c c791 1d3e e786 ccbd 5f5e 453f
000000d0: e0ea ea3d 6f87 95be 24e6 753e 53f7 ee3d
000000e0: f2d0 123f f5d7 09bf 7c20 80bd 8ba4 8f3e
000000f0: 06eb 92be 3d3b 1bbd 22b6 2cbe 323d d63d
00000100: e80d 88bd 09a6 1b3f c4c5 723e a7fe e83c
00000110: 81ca 92be c674 e63e 8b46 5bbe 73b4 733e
00000120: 7cba 4b3e fdbc d7be 0462 42be a794 3abe
00000130: c9a2 b83e 9911 bebc 92fd 54bd 7490 7b3e
00000140: f6b1 14be 37e1 8cbe a1e5 0f3e 600d d63c
00000150: 2956 1a3e 6003 81be 7129 4fbb 8fc7 76be
00000160: 38df b9be 29c5 263e 6dd0 1cbf b3f3 873d
00000170: 5974 213e 1e67 073d de4f c4be 4335 6cbc
00000180: 3a6c 89be 51f5 aa3c 7138 93be 79ca 0cbe
00000190: 393f 5d3d a1cc b1be 5bbc 253e 9034 94be
000001a0: 4348 97bc 818d a5be aa75 16be 6171 9b3e
000001b0: 5d25 ec3c 225d 103c 1e80 07be d048 9c3e
000001c0: ad74 a63e 4a91 f3bd a108 74be 47d6 c03e
000001d0: 9044 bebe 7312 9cbe c383 9dbe 0e4d 843e
000001e0: 523b 7bbe cebd 7fbe 73f9 343e 9d7c 623d
000001f0: 7de8 643e 0d54 11be 0d04 42bd 95d9 00be
00000200: 4dac 9a3e d90d c4bd ebce 03be 1a85 2bbf
00000210: ec1e abbe 0aad ccbd 7e2e 33bd dd3b f7bc
00000220: d67c b7be a76a f9be 8615 453e 2084 093c
00000230: 59f3 113f 9171 853e 23b9 56bd 577d 653e
00000240: eb1e 1dbf e092 91be 0ce5 70be bb01 153e
00000250: 9a77 813e 3337 843f f0ec 813e 8a0c 073f
00000260: 589c a13b 8aeb ce3c 078d 083d 7cc0 39bf
00000270: de94 dfbe 7e34 f3be 0235 b8bd fa2a a6bd
00000280: c507 753e 5678 4abc f7e6 2dbe 97f0 c2be
00000290: 9145 9b3e 072c 993e 65b9 3f3d 1b4e a0be
000002a0: ec12 9b3d 3f3c dcbe d396 7cbd bc3f e73e
000002b0: ac36 00bf 3a7b 823e b025 2abe 1752 f4be
000002c0: bfef 683e 0f5d 29bd aad3 323d 49c1 1d3e
000002d0: 6db2 88be e203 383e d72e 28be 065e 913d
000002e0: a6b4 303f 9b82 febe 89dc a1bd 49b8 94bc
000002f0: de53 1dbd 6f6e 8bbd e2c7 843b 1e1d bebd
00000300: 71fb cbbd 10de 333c e7c8 023f 4158 a3be
00000310: a168 993d aec9 6fbe 27ac c13d 01b0 db3e
00000320: fe30 7d3c ad2c d43e f417 433d b49b ac3d
00000330: ad58 2cbd d09c 033e 5419 5fba 56cf ba3d
00000340: bfdf f93e cf7b a13e b463 743d 906b 493e
00000350: 6b45 9cbc 5511 cebe c476 5cbe d28e 973e
00000360: 8ac3 673e 253f 2abf 02b5 573e deec 303e
00000370: 18c4 80be e258 24be 151a 7abe 871b ce3d
00000380: 618e fabd cb4f 65be f4bf 85be b9ff 573e
00000390: 73f6 b7be e901 1a3d 7a3c 6bbe 1b80 d7bd
000003a0: 12f5 29bd f2a1 493e de85 cabe 78ed 39bc
000003b0: 7178 113e 6a1f 05be 4fbb 3d3f f623 fbbe
000003c0: 5497 fcbe 1b77 f63e fbc9 973d d987 f3bd
000003d0: 780e d73e 8d8a 0cbe e303 66be bd42 8abe
000003e0: 6ab0 3abe 863b 73be b332 0e3d 9d3a e5bb
000003f0: a2cf 59be cbc1 a33d 2924 b83e 480a 543e
-0.2086042 -0.2734953 -0.12717034 -0.19252731 -0.118782945 -0.027384138 -0.25417787 -0.21730688
-0.4826907 0.09803533 0.14717862 0.00040594192 -0.059824925 0.14733656 -0.17504139 0.003958979
-0.10956849 -0.20690079 -0.20385873 0.19702363 0.06573535 0.072091766 -0.12954573 -0.3563185
-0.61985105 -0.05772968 -0.16009887 -0.22596394 -0.2244912 -0.23493285 0.4097253 0.019366907
0.30342305 0.16819087 -0.057328854 -0.0029787505 -0.05889582 0.14131589 0.018014245 -0.3511286
-0.011782197 -0.15308985 -0.099707976 0.21163951 -0.42407686 0.64165324 -0.019521222 -0.95736
0.008528919 0.15387641 -0.09986668 0.77097124 0.1147058 -0.2920489 0.24013573 0.11668267
0.57350075 -0.5384515 -0.06256196 0.28055224 -0.28694934 -0.03789829 -0.16866353 0.10460891
-0.066432774 0.60800225 0.23708254 0.02844174 -0.28670123 0.45010966 -0.21413629 0.23799305
0.19895357 -0.42136374 -0.18982702 -0.18220769 0.36061695 -0.02320175 -0.051999636 0.24566823
-0.14521012 -0.27515575 0.1405244 0.026129425 0.1507193 -0.25197887 -0.0031610394 -0.24099563
-0.36303115 0.16286148 -0.6125553 0.06638279 0.1576704 0.033057325 -0.38342184 -0.014416995
-0.26840383 0.02086893 -0.28754 -0.13749112 0.054015372 -0.34726432 0.16185133 -0.28946352
-0.018467074 -0.3233452 -0.14693323 0.3035994 0.02882641 0.008811267 -0.13232467 0.30524302
0.32510892 -0.11892946 -0.23831417 0.3766348 -0.37161684 -0.30482826 -0.3076459 0.25840038
-0.24534348 -0.24974748 0.17673282 0.05529462 0.22354312 -0.14192219 -0.047367144 -0.12583001
0.3020958 -0.09572954 -0.12871902 -0.6699997 -0.3342203 -0.09993942 -0.04374551 -0.030179912
-0.3583743 -0.48714182 0.19246492 0.008393317 0.57011944 0.26063207 -0.052422654 0.22411095
-0.613753 -0.2843237 -0.23524874 0.14551441 0.2528656 1.0329345 0.2537608 0.5275351
0.0049319677 0.025258798 0.03333762 -0.7255933 -0.43668264 -0.47500986 -0.089944854 -0.08113666
0.23928745 -0.012357792 -0.16982637 -0.3807418 0.30326512 0.29916403 0.046807665 -0.3130959
0.075719684 -0.43014714 -0.061667275 0.45165813 -0.5008342 0.2548464 -0.16615939 -0.4771888
0.22747706 -0.041348513 0.04365889 0.15405764 -0.26698628 0.17970231 -0.16424118 0.07098012
0.6902565 -0.4970902 -0.07903392 -0.01815428 -0.03841006 -0.06808173 0.004052148 -0.092828974
-0.09960068 0.010978237 0.510878 -0.3190327 0.074906595 -0.23416778 0.094566636 0.42907718
0.015453575 0.41440335 0.047630265 0.084281355 -0.042076755 0.12852788 -0.0008510549 0.091215774
0.48803517 0.3153977 0.059665397 0.19669938 -0.01907607 -0.40247598 -0.2152968 0.2960115
0.22633186 -0.665026 0.21065143 0.17277858 -0.25149608 -0.16049531 -0.24424012 0.10063844
-0.12234188 -0.2239372 -0.2612301 0.21093644 -0.35930213 0.037599478 -0.22972289 -0.10522481
-0.041493483 0.19690683 -0.39555258 -0.011348121 0.14206101 -0.13000265 0.74113935 -0.49050874
-0.49334204 0.48137745 0.074115716 -0.11891145 0.42003226 -0.13724728 -0.2246242 -0.27004042
-0.18231359 -0.23753175 0.03471632 -0.0069955126 -0.21270612 0.079959475 0.35965088 0.20707047

critic.preprocess.model.model.2.bias f4 [64]
00000000: 1fb9 c83e 0abd 23bd d365 0dbe 4128 cc3e
00000010: 992a ffbe ab35 063e fe38 a1be 0219 a9bd
00000020: 0ee2 bbbe b6ce 383b 3879 d0bd 2890 953e
00000030: 2f82 3f3e bc92 9dbe afdc 10bd 7b03 88be
00000040: 948b 5e3e b98a 62bd 1086 d6be 7659 63bd
00000050: a28a 3a3e b65a bdbe 3fb9 b3be 9af4 06bf
00000060: 9569 843d 8997 0e3e 058d e13e 0766 003f
00000070: 1ceb ff3d e005 c03e dbd7 19be 6147 cf3d
00000080: b909 393d 0904 7fbe aee8 853e 76e5 d4be
00000090: 34b8 a73e 7125 aabd fe9e bb3b 8cbf de3c
000000a0: 7e12 e2be fd16 3f3e eb70 c63c 38e4 3c3b
000000b0: bdde 85be 581d e0be 3d26 f33d 30f0 483e
000000c0: db1c cc3e e591 b93e f0bd 4fbe 4057 a6bd
000000d0: 61eb b83e c4a6 3dbe 4c04 2d3e 5f4e 073f
000000e0: 334c a1be e4bc bbbd 5dc3 d43e 20b9 e8be
000000f0: 8519 e63e 7fab 0dbd f6dd 12bf 31c1 c2be
0.39203736 -0.039975204 -0.13808374 0.3987446 -0.49837187 0.1310641 -0.31488794 -0.08256723
-0.36695904 0.0028199381 -0.10179371 0.29211545 0.18702005 -0.30776012 -0.03536671 -0.26565155
0.21732932 -0.055308077 -0.41899157 -0.05550524 0.18216947 -0.3698327 -0.3510227 -0.5271698
0.06465451 0.13924994 0.44052902 0.5015568 0.124960154 0.37504482 -0.15023749 0.10121036
0.045175288 -0.24903883 0.26154083 -0.41581315 0.32757723 -0.08307923 0.0057257405 0.027190946
-0.44154733 0.18661113 0.024223765 0.0028822552 -0.26146498 -0.43772388 0.11872528 0.19622874
0.39865765 0.3624412 -0.20287299 -0.0812211 0.3611708 -0.18520647 0.1689617 0.5285396
-0.31503448 -0.091668874 0.415553 -0.4545374 0.44941345 -0.03458738 -0.57369936 -0.38038018

critic.last.model.0.weight f4 [1, 64]
00000000: 1cb0 e43e d87a 083e fac8 b4bd 19b8 723e
00000010: 07d8 d3be c62c 23be de17 3ebd 0190 68bb
00000020: aeb8 7dbe 8299 be3e 067d dc3c a65b c63d
00000030: 8b06 c1be f2be a3be 9db7 df3d 40a3 4fbe
00000040: 31e3 e83d 1ebc 243e 4104 b6be d8c7 293e
00000050: b62a e6bc 61ad 93be 4d33 b3be 5658 81be
00000060: b8f9 69be 1a59 8d3c 231f 1c3e 6437 033f
00000070: 0dc8 ae3d 9efc ad3d dcf0 90bd fc53 4a3e
00000080: f6e5 0ebe a1d6 85be a3dd da3c 73e5 92be
00000090: 289a 3d3d caad c83e 3f9c a03d a27c 56bc
000000a0: aa32 c2be 9c56 023a b418 203d 26b0 a5bd
000000b0: e985 f6be 7a72 cabe 1c15 073e e0da cfbe
000000c0: e64e 063f 3c27 fc3c 6d97 8d3e e4e2 d03e
000000d0: 895c 5d3e 2338 4cbe 01d2 073e 34e7 cf3e
000000e0: 52c5 35be 0c4c c3bd c100 bc3e 48fc 10bf
000000f0: ea2c d93e ba29 003a 77eb 8abe 625d 7abe
0.4466561 0.13328111 -0.08827396 0.2370304 -0.41375753 -0.15935048 -0.04640948 -0.0035486224
-0.24777481 0.37226492 0.026915085 0.09685449 -0.37700304 -0.31981617 0.10923693 -0.20277119
0.11371458 0.16087386 -0.3555012 0.1658014 -0.028096538 -0.28843215 -0.35000077 -0.25262707
-0.22849166 0.017254401 0.15246253 0.51256394 0.085342504 0.084954485 -0.0707719 0.197586
-0.1395491 -0.2614031 0.026717013 -0.2869068 0.046289593 0.3919509 0.078423016 -0.013091238
-0.3792928 0.0004972012 0.03908606 -0.08090238 -0.4814904 -0.39540464 0.13191646 -0.40596676
0.5246414 0.030780427 0.2765459 0.40798104 0.2161733 -0.1994329 0.13263704 0.4060608
-0.17751053 -0.09535989 0.36719325 -0.5663495 0.4241708 0.000488903 -0.2713277 -0.24449685

_actor_critic.actor.sigma_param f4 [2, 1]
00000000: 75ba 7bbf 535e 33c0
-0.98331386 -2.802632

_actor_critic.actor.preprocess.model.model.0.weight f4 [64, 8]
00000000: 13fc e5bd cacf c7bd 2fca 9a3d 94e7 ec3d
00000010: 52ef 853e 2be4 ecbd ed89 243e c2cc 08be
00000020: f76b 64bf 4c96 98be 5f4b 4e3e 7502 aa3d
00000030: 94b0 923e 1055 6f3e bb9d ad3d 8743 93bf
00000040: ae2f 1b3e 7fa9 6cbd a62b cabd 7d85 df3d
00000050: 14b2 073c 01e8 103d 8f71 eebd 0bd3 d6be
00000060: 8e0c ccbd fdda 33be cec1 4c3d 8dc7 ca3e
00000070: 3560 d13e 48e2 003f 476b 213d a9a1 5abe
00000080: a440 023f 8148 d03e bb58 993d 05c3 2c3e
00000090: 3f15 93be 195a a0bd 3c77 5e3e 5912 053f
000000a0: 8afd 3d3e 9a35 b438 8bc4 9c3d 61f9 bcbd
000000b0: 0f57 f83c 981c f2ba 8bab cdbd 4fbd 073f
000000c0: a115 543c f106 833e 911f 6abe b6bb fb3a
000000d0: bbcb 47bd c711 e03e 367b e93e 0fc9 5b3e
000000e0: 2f10 5f3c 8e17 613e ffb0 07be 0bfd 11bd
000000f0: f23e 9f3e 0412 a03e b2cc 22be ba4f 833e
00000100: 1b30 4abe 1655 853e f53e 863e 18fe c83b
00000110: 30f8 fabd ecbe d4be df80 863e d00c efbd
00000120: 0e45 df3b 7f0c 443d dc55 913e 651f 11be
00000130: 018b d43d ea18 883e 8aea 13be a3a6 573b
00000140: a266 f83d 14f1 2b3e 89f2 ea3c cd9f 913d
00000150: 09be 87be 12ac 273e d671 8b3e 5f4a 3fbe
00000160: cd6d 873e 2c08 253b 2570 87be cf9a 89be
00000170: 8b0f 85be 11f1 a2be de2e bf3e af68 35be
00000180: ce58 6ebe 2eab 8cbd 381a 333e b60e b73d
00000190: 8cb2 a23e 94c9 733e 3c5e 77bd 9fd1 01be
000001a0: 365d 283e 9b63 f2bd d7cc efbe 51af 80be
000001b0: 5016 7b3d 9fec 973d 56b4 01be 265c 66be
000001c0: ecce e7bd 8c2a 633f b668 c6be 7f33 533e
000001d0: 3ebb 633e 1e2f 703e 98ef 04bf 4acf bf3e
000001e0: f1b0 e4be 1263 adbe 83b7 bf3c 5908 22bf
000001f0: 60e2 4fbe 6b00 493e 5803 bdbd 86c9 2c3e
00000200: 777d 523d 3316 1f3e 4d29 a93c bb05 04be
00000210: a2fb aebe 8685 47bd d0e7 383e 7199 d0be
00000220: 211e 19be 350c 75bd 2559 48bb 6069 28ba
00000230: c9ce 323e 26f0 703e a2b5 de3d aca1 40be
00000240: 62ac 843c 51c5 873e c90e 9cbd 451d 64be
00000250: e6f7 b1be d011 3bbe bf3f d9bb ce78 ae3d
00000260: 5323 94bc 75ef a9be 9b37 983d 2a1a a5bd
00000270: 3cfc 94be 726b 5a3e faff d8be e413 1e3f
00000280: a139 b6be d9a5 9abe aabb 903d 99ca 8bbe
00000290: 69b7 983e 74ab 213e a406 d7bd 4739 a0be
000002a0: 39b0 29be c450 933d f4af a83d 36fa edbd
000002b0: 70cd b2be 0924 3c3c 7642 0a3e b4eb bebd
000002c0: 0cf3 52be 84a3 8c3d dc74 6d3d a254 893d
000002d0: d0c6 603e a18e 2a3d e3cc 12be 99e3 2f3d
000002e0: 417d 62be bcfd bc3c 1e6f 603e 3b72 5a3e
000002f0: 33b5 143e cd28 d8bd 8231 01be 18fd 27be
00000300: 782f 1e3e cfed 6e3e f44c d4bd 04c2 d2bd
00000310: 1f9c c03e 53bc b03d c193 a2bd 2bfe 74be
00000320: de81 40be 03a2 79bd 84be 453d 7730 3bbe
00000330: 1858 1cbd e1b8 00be 31c1 03be 2766 403f
00000340: b8b7 d23e 94e4 e1be c53b f83c 128e 963c
00000350: 9182 8dbd df24 f6be c39e 90bd 5bc0 3abd
00000360: e3dc 17bd 3386 1cbe 6ebe ec3c 3ad1 37be
00000370: ba27 b8bd 5619 c7be 91d9 aabe 54ca 0b3f
00000380: 6e1b b8be 5da3 27be 86a7 06bf 6201 62be
00000390: 6fd3 af3d 023b 38be 0530 56bd 84e0 b33e
000003a0: e54d e83c aef7 21bd 5032 90be 7d40 253e
000003b0: 9e42 453e d805 523e 2e46 ba3c c2f5 02bf
000003c0: 8cdf 28be c391 4b3e e863 823e deab 1abe
000003d0: e6bd e6bd e295 02be 3ff2 c93d 128d 59be
000003e0: f31b 0dbd ace2 42bb 0464 8b3e 8ae9 773b
000003f0: 77cd 33bd 8927 173e 4ba5 163e 3377 24bf
-0.1122972 -0.097564295 0.07558095 0.115676075 0.2615915 -0.11566957 0.1606824 -0.13359359
-0.8922724 -0.29802167 0.2014594 0.0830125 0.28650343 0.23372293 0.0847735 -1.1504983
0.15154907 -0.05777883 -0.098716065 0.10914133 0.008282203 0.035377506 -0.11642753 -0.41957888
-0.09963332 -0.17564006 0.049989514 0.3960537 0.40893713 0.5034528 0.03940895 -0.21350731
0.50879884 0.40680316 0.07487627 0.16871269 -0.28727147 -0.07829685 0.21725172 0.5198112
0.18553749 8.593053e-05 0.07654675 -0.09227253 0.03031495 -0.0018471656 -0.10042485 0.53023237
0.01294461 0.25591233 -0.22863604 0.0019205722 -0.048778277 0.43763563 0.45601815 0.21463417
0.013614698 0.21981642 -0.13251112 -0.03564171 0.3110271 0.31263745 -0.15898398 0.25646764
-0.19744913 0.26041478 0.26219907 0.006133806 -0.12254369 -0.41551912 0.26270196 -0.11672366
0.006813652 0.04786348 0.28385818 -0.14172132 0.103780754 0.26581508 -0.14444938 0.003290572
0.12128951 0.16791183 0.028680103 0.07110558 -0.26512173 0.16374233 0.27235287 -0.18680714
0.2645096 0.0025181873 -0.26452747 -0.26875922 -0.2598842 -0.31824544 0.37340444 -0.17715715
-0.23276064 -0.068685874 0.1749047 0.08938353 0.31776845 0.23807365 -0.060392603 -0.1267762
0.16441807 -0.118354045 -0.46835968 -0.25133756 0.061300576 0.07418179 -0.12666449 -0.2249609
-0.11318764 0.88736796 -0.38751763 0.20625113 0.22239396 0.23455474 -0.5192809 0.37462837
-0.44666246 -0.33864647 0.023402935 -0.6329399 -0.20301199 0.19629066 -0.092291534 0.1687375
0.051389184 0.15535812 0.020649577 -0.12892811 -0.34176356 -0.048711322 0.1805718 -0.40742067
-0.149529 -0.059826095 -0.0030570712 -0.00064243935 0.17461695 0.2352911 0.108744875 -0.18811673
0.01619548 0.26517728 -0.076200075 -0.2227679 -0.34759444 -0.18268514 -0.0066299136 0.085191354
-0.01808325 -0.33190504 0.07432481 -0.08061631 -0.2909869 0.2133005 -0.42382795 0.617491
-0.35590842 -0.30204657 0.07067044 -0.27303007 0.2982743 0.1578806 -0.104993135 -0.312937
-0.1657113 0.07193139 0.082366854 -0.116199896 -0.3492236 0.011483201 0.13501915 -0.093223006
-0.20600528 0.06867126 0.057972774 0.067055956 0.21950841 0.041639928 -0.1433597 0.042941663
-0.22118093 0.023070209 0.21917388 0.21332638 0.14522247 -0.10554657 -0.12616542 -0.16405141
0.15447795 0.23332904 -0.1036624 -0.10290912 0.3761911 0.0862967 -0.07938338 -0.23925082
-0.1879954 -0.060945522 0.048277393 -0.18280207 -0.03816995 -0.12570526 -0.12866665 0.7515587
0.4115579 -0.44119704 0.030301938 0.018378291 -0.06909669 -0.48075005 -0.070615314 -0.0455936
-0.03707589 -0.15285568 0.028899398 -0.17950907 -0.08991952 -0.38886517 -0.33369115 0.54605603
-0.35958427 -0.16370912 -0.5259937 -0.2207084 0.0858525 -0.1799126 -0.05229189 0.3513223
0.028357456 -0.039542846 -0.28163385 0.16137882 0.19263694 0.20510042 0.022738542 -0.51156247
-0.16491526 0.19879822 0.25466847 -0.15104625 -0.11266689 -0.12752488 0.09860658 -0.2124522
-0.034450483 -0.0029737158 0.27224743 0.003782841 -0.04389712 0.14761175 0.14711492 -0.64244384

_actor_critic.actor.preprocess.model.model.0.bias f4 [64]
00000000: 0a91 d73c fb31 01bd 5c3a b53d 13a7 983e
00000010: 62e9 213a 8ff2 fe3d 46bd e33b 807e 933d
00000020: c405 e1bd c675 2e3b 1baa f9bc 9809 abbc
00000030: eb99 a83d b579 52bd d55b 3cbe cf42 443d
00000040: 7e07 ce3b 8709 d4bd 5bcb 28bd 9219 e33d
00000050: 772d 2bbd 3163 c4bd b3df cdbc e6cb 143e
00000060: 06e6 04bd 7e04 00bc a93b 113e d059 0f3e
00000070: 6dad a8bd aa1c f1bd 3085 63bc 8a19 5a3d
00000080: 9f5a 503d 4264 b4bc 5a1f 8c3c a324 f33c
00000090: 5e0e f8bd 7c0f 953d c5c8 d33d 2c19 a3bd
000000a0: 005d 5637 01be d43d bb9d ad3d e6d0 8bbe
000000b0: 5f26 643e b931 2f3e 1dd3 9d3d b491 393e
000000c0: 26a0 953d 0735 febd 3430 943d 53c4 313e
000000d0: b969 28bd 16ec abbc e4db b7bd 4e44 923c
000000e0: d951 b33c 4d31 b8bd c37b 3bbd d322 9dbc
000000f0: 391d 91bd 8c54 f43b 5680 b0bc 5b4f b0bc
0.026314277 -0.031541806 0.08849022 0.29814968 0.00061764393 0.12448608 0.0069500534 0.07201862
-0.10987428 0.0026620491 -0.03047662 -0.020878598 0.082324825 -0.0513856 -0.18394406 0.047915276
0.006287514 -0.1035338 -0.04120956 0.110888615 -0.041791406 -0.09589232 -0.025131082 0.14530906
-0.03244593 -0.007813571 0.14182915 0.13999104 -0.08236203 -0.11773045 -0.013886735 0.053247012
0.050867673 -0.022020463 0.017104793 0.029680556 -0.12112115 0.07278344 0.10341028 -0.079637855
1.2777047e-05 0.10387803 0.0847735 -0.27307814 0.22280262 0.17108811 0.07706282 0.18121988
0.073059365 -0.12412458 0.072357565 0.17360048 -0.04111645 -0.020986598 -0.08977488 0.017854836
0.021889614 -0.089937784 -0.045772325 -0.019181645 -0.07085652 0.007456368 -0.02154557 -0.021522215

_actor_critic.actor.preprocess.model.model.2.weight f4 [64, 64]
00000000: 4f89 093e 9bb7 81be cb2f 193d c8b6 333c
00000010: e57f 37be 8c36 a33c 9753 3cbe d617 8f3d
00000020: e60d 563e 5be2 183e 143e 8cbe 48b8 1dbd
00000030: ca10 e43d 6d32 91bc 4f93 4f3c 1102 2f3e
00000040: 128f b3be f8f8 823d 30c3 4e3e 8411 923e
00000050: c88d 893e 10dc 1f3e b497 8d3d be37 1cbe
00000060: e99b 77be 953f 963d a060 f0bd 22f1 913e
00000070: c84c 9e3e 4785 38be 6c5c c33d 2884 50bd
00000080: 0d8c 68bd 60db f1bd 797a 873e 4350 ce3e
00000090: e47e 5c3e 7735 b6be 0d93 04be c5cc cfbd
000000a0: 545c 3bbe 1c17 443c 455f 733d b2fb c7bc
000000b0: 9553 f7bc db1d 243e f42a 73be 2035 c73d
000000c0: 2305 27be fb2c 8c3c c24a eebd 3f97 96bc
000000d0: 8f1d 0cbe 146d c8be 2ff7 633c 725c 0ebe
000000e0: 38b6 3e3d 3af9 4e3e 9720 8bbe 3b7b 593c
000000f0: 8b7a cf3d d013 173e d5a9 db3e 0bcb 57be
00000100: e96e 40be ea0d 26be 5577 77be 68c1 9ebe
00000110: a730 5dbc 4075 0cbd 2171 7ebd b535 70be
00000120: 2186 d03d 6d47 0e3d d79d 8e3d 5575 963d
00000130: b976 59be 8f78 573d 707f aa3e ae40 29be
00000140: d671 0d3e 858d 8f3e f67a 213e 200c 3fbe
00000150: 9295 44be 4536 a3be 13b6 433e a12c 0c3d
00000160: d22e 7cbd b1ce 25bc 7d3f fa3e b9eb 2e3e
00000170: 88d6 be3e 1c82 713d e832 c53e 08f4 fd3d
00000180: d946 223d f082 21bd f97b 2c3e 2c34 113e
00000190: b737 1fbe 5778 513e d76c 41be 09a0 c3bd
000001a0: 860b abbd 3d1e a23c 86db 09be 5332 81bd
000001b0: 997a 94be 1af6 ec3d a2e9 48bc 2afd 0bb9
000001c0: fec0 863e f00a 9fbd d9d7 eabb b23a a4bd
000001d0: dd78 533d 8a99 163d e079 1cbe d2ce 823e
000001e0: f684 f93c e47f 96be e563 1cbe fde9 463e
000001f0: 8e29 99b9 865b f33c 4d90 d33d 4738 183d
00000200: eab2 20be 6205 20bd 7562 c83e f204 0fbd
00000210: 1c0e 48bd 5727 5b3a c391 933e 2759 0d3e
00000220: cb66 2cbe 21d4 23bd 5c93 6fbd cec7 82be
00000230: a3cf 833e 8cf7 e93c d260 8e3e 9845 8d3e
00000240: 5f61 8cbe 1cbe b2bc b0b6 0e3c 8352 13bd
00000250: b572 1c3d 871f acbe 82d6 8b3e 86d1 42bd
00000260: 23ca 1b3d 5d5c 8b3c 63e3 30bd a66b b03d
00000270: ca25 84be 09af 85bd 197e 423e 6db5 99be
00000280: 75ba 1f3d 9966 613d 83dd 9fbe 1458 44be
00000290: 0a21 81bd fa6c 703e 7f28 66be ed0d 903e
000002a0: 5955 e4be 0244 253e b75e 80bd abcf f7bd
000002b0: 60d0 bb3d fea2 4c3e cde3 003d d291 57be
000002c0: 0679 583e ea7f b1bd ae27 d43e 3cf1 34bd
000002d0: c605 fdbd f66c b53b d05c 54be a830 4d3d
000002e0: d5af 87b9 5c74 683e 04cf 37be 16fc 99bc
000002f0: 5ba3 363e 625e cd3d 5d13 b13d 4882 3bbc
00000300: f295 c23c 20b0 db3e 87f5 b2bc 55e0 2e3e
00000310: 86a6 adbe 50fb 41bc 95b1 d2bd 857f ff3c
00000320: 30a5 b53d 313c e4bd cd59 22be 3d17 d8bd
00000330: 096e 6c3e 440d 8f3e cdf7 d53c c8b3 d23d
00000340: b119 11bd 429e 0a3e 49a9 873c 6be4 c0bc
00000350: 23f7 103f 1735 d7bd 951a da3e 2ac7 a23e
00000360: c376 6fbd 8fc0 123e c670 94bd 2c09 30be
00000370: 7b90 e5bd 939b 773d 46fd f33d 16ea 083f
00000380: 4b07 593d 71fd 213d 6701 7c3e f031 38be
00000390: 1cce 2d3e 2f19 acbe 5c3a bfbd 104c 903d
000003a0: da4d f6bd b241 24be 2768 7abe 3581 bc3e
000003b0: 55f9 acbd 9ef3 483c 2852 123e fec4 abbc
000003c0: 771e 6fbe 7b66 9bbb 9480 a73e 3828 34bd
000003d0: 761e c23e 5f31 413e 9971 403e 1ec8 4bba
000003e0: dd79 3d3c daba d8bd b674 733e 42bd 7abe
000003f0: 32a2 e0ba d27d 9f3d a9ef 793d 24fb 13be
0.13431285 -0.25335392 0.037399095 0.010968871 -0.17919882 0.01992347 -0.18391262 0.06986968
0.2090374 0.14930098 -0.27391112 -0.038505822 0.11136015 -0.01772424 0.012669398 0.17090632
-0.3507009 0.06395143 0.20191646 0.28528988 0.26865983 0.15611291 0.06913701 -0.15255639
-0.24180569 0.07336346 -0.1173718 0.28504282 0.30917954 -0.18019591 0.095391124 -0.050907284
-0.056774188 -0.118094206 0.26460627 0.4029561 0.2153278 -0.35587665 -0.1294672 -0.101464786
-0.18296939 0.0119684 0.059417028 -0.02441201 -0.030191222 0.16027014 -0.23746854 0.0972693
-0.16310553 0.017111292 -0.11635353 -0.018382667 -0.1368315 -0.3914572 0.013913914 -0.13902453
0.046560496 0.2021226 -0.27173302 0.013274009 0.10130795 0.14753652 0.4290301 -0.21073548
-0.18792309 -0.16216245 -0.24166615 -0.31006932 -0.013500369 -0.034291506 -0.062119607 -0.23457988
0.10181833 0.034736086 0.06963699 0.07346598 -0.21236695 0.052605208 0.33300352 -0.1652858
0.13812956 0.28037658 0.15769562 -0.18656969 -0.19197682 -0.31877342 0.19112425 0.03422225
-0.06156809 -0.01012008 0.48876563 0.17082109 0.3727305 0.058961973 0.385154 0.12400061
0.039618347 -0.039431512 0.16844167 0.14180058 -0.15548597 0.20456062 -0.18889175 -0.09552009
-0.08351807 0.01978981 -0.13462648 -0.06308427 -0.28999785 0.11570378 -0.012262734 -0.00013350384
0.26319116 -0.07765758 -0.0071668443 -0.08019008 0.051628936 0.03676752 -0.15280867 0.25548416
0.030458909 -0.29394448 -0.15272482 0.19425197 -0.00029213395 0.029706728 0.103302576 0.037163045
-0.1569325 -0.039067633 0.39137617 -0.034916826 -0.04884158 0.0008360049 0.28822145 0.1380354
-0.16836087 -0.039997224 -0.058490142 -0.25543064 0.25744352 0.028560422 0.27808243 0.27592158
-0.27418038 -0.021819167 0.008710548 -0.03596736 0.03819533 -0.33617803 0.27312094 -0.0475631
0.03803457 0.017011816 -0.043185603 0.08614282 -0.2581008 -0.06527526 0.18993415 -0.3002123
0.03899618 0.055029485 -0.31223688 -0.19174224 -0.0630513 0.23479071 -0.22476386 0.28135625
-0.44596365 0.16139224 -0.062680654 -0.121001564 0.09170604 0.19984052 0.031467248 -0.2105172
0.21139917 -0.08666976 0.41436523 -0.04417537 -0.12354617 0.005536671 -0.2073853 0.05009523
-0.00025880212 0.22700638 -0.17950064 -0.018796962 0.17835753 0.10027768 0.086462714 -0.011444636
0.02375314 0.4290781 -0.021845592 0.17077763 -0.3391611 -0.011839703 -0.10287777 0.031188736
0.08869398 -0.11144293 -0.15854569 -0.10551307 0.2308885 0.27939808 0.026119137 0.10288197
-0.03542489 0.13536933 0.016560214 -0.023546418 0.566271 -0.10508173 0.42598405 0.31792575
-0.05846287 0.14331268 -0.07248072 -0.17190999 -0.11209198 0.0604511 0.119135424 0.53482187
0.05298547 0.03954834 0.2460991 -0.179878 0.16973156 -0.33612964 -0.09337303 0.07045758
-0.12026568 -0.16040686 -0.24453793 0.36817327 -0.08445994 0.012265114 0.14289153 -0.020967957
-0.23351465 -0.0047424412 0.32715285 -0.043983668 0.37913865 0.1886649 0.18793334 -0.0007773655
0.011564699 -0.10582514 0.2377499 -0.24486259 -0.0017138182 0.0778767 0.061019573 -0.14451271
