results/Walker2d-v3/trpo/3/220709-074351/policy.pth (torch, 53732 bytes, 24 tensors)

actor.sigma_param f4 [6, 1]
00000000: 0391 d3bf 720b 7fbf faa0 aebf 3688 b4bf
00000010: 81eb f0bf d98d 04c0
-1.6528629 -0.9962684 -1.3642876 -1.4104068 -1.882187 -2.0711577

actor.preprocess.model.model.0.weight f4 [64, 17]
00000000: 0ab4 153e f1f5 a3be 974f 96be 9df4 193e
00000010: fe69 81be 4586 823b 1ce2 663d c159 ccbe
00000020: 6348 5dbe 8f8b 193e 9652 02be 5f5d 803e
00000030: 90e3 89be 08d2 c9bc 985f c0bd dbd4 553d
00000040: ede3 293e 516f f53d fd8f 9f3d c48d 7e3d
00000050: 7fb3 a73e e2f5 493d 67af 2bbe a7b3 253e
00000060: 9e45 14be e392 93bd 2609 32be 7fa6 05bd
00000070: 72d9 e6bd 2ea8 103d 35a7 babd 596e 4b3d
00000080: 60a6 21be 9f6e 35be bf44 923e 0cf2 2f3e
00000090: f3b3 19be 4f91 c1bd b8d4 eebd b150 823d
000000a0: 092c b8be acae b53e 1797 853c f355 cfbc
000000b0: 0d71 95be 8547 903d bde2 963e d58d bcbd
000000c0: 91d5 113e cbf9 d8bd f7a3 fabb 5eee 70bc
000000d0: a9e0 fd3c d789 92bd 6ab7 c4bd a618 c6bb
000000e0: a9e8 2e3c 4438 b9be b9d5 e0bd 8cef fb3d
000000f0: 4b46 0dbe 9e13 8a3b 7769 46be 3b64 15bc
00000100: 021b 883c fdbf 6a3d 1bc2 6a3e 653a c9bb
00000110: f0ce fdbd ab2a 21be 6efd 8ebe f597 cb3d
00000120: aa48 343d ed58 0dbe 4d2e 90bc 3381 1abe
00000130: 9bd6 87be 2def a7bd 110b 7abe 0a76 8cbd
00000140: 22d4 723c 107d 0fbe f968 cdbd 1980 953e
00000150: 803e 7d3e 8229 b63d ff81 533e c312 58be
00000160: c368 76be 77b7 303e 83a3 f6be 15f8 adbe
00000170: 079e 03be a1da 5d3d f535 743e 1bbd fc3b
00000180: 521c 94bd c750 fabb 1f56 89be fac8 e5bd
00000190: fa48 a7be ce17 18be 0137 cfbe 49a2 993e
000001a0: 3ff7 b5bd ec05 c73d f390 4ebb 1ea1 8abd
000001b0: 7795 963d 29dd b0bd b969 b13e 8c28 99bc
000001c0: afc0 b73d e30f cbbd f3d2 f83d f739 553d
000001d0: c3fb cbbc 4525 9b3c fc07 12bf ba83 81bd
000001e0: 4df5 c5bd 2693 333e 8e85 c73e 9042 18bd
000001f0: 955e ddbb 9541 b13d 41ed 893e 3ecf 4e3e
00000200: 4c06 1fbe c946 9cbd d691 273d 41c9 3bbd
00000210: d9ae 11be 1ca5 ce3d 12b4 453d 070b 55be
00000220: f7b4 e8bd 09d3 f33d e7b0 a5bd 1c35 bd3d
00000230: 5526 a43e fd20 073d 5c1e 87be a1a4 143d
00000240: c968 b53d 5d7b 55be 6bca 96bd 5328 7d3e
00000250: 3997 24be e600 29be 15e7 96be 65e9 70bd
00000260: 6bbe 31bc ad5f d1be f93e 80be e36f eebe
00000270: 61fe ffbc 5548 3bbe 99a0 adbc 184c 90be
00000280: ceab 4abc 8db3 053e 1af4 95be bad8 28be
00000290: 8066 0cbe 29c9 79bd b2fc 29be 4b99 db3d
000002a0: f632 62be e3e1 e73d ee19 0e3d 236b 74bd
000002b0: a6c5 9e3e c40c 45be dc7b a23e 3595 bf3d
000002c0: 1844 55be 38a5 adbe 029d 17be fef5 88bd
000002d0: 302a a5bc add8 323e 8408 c73b 55be d13e
000002e0: 5d83 443e 1d76 9c3e fcb7 39be ca51 9a3e
000002f0: d993 89be e998 18be dcc5 26be 4d3f 953e
00000300: d575 a63c 0604 993b 802c d33d 3a04 febd
00000310: 1fb1 003e 9f4e cabc af79 adbd 065f e63d
00000320: f354 323d 1fa0 653e 349b 45be b862 9abd
00000330: c57b 3c3e 14bb d5bd b85a 44be 0959 f2bb
00000340: f758 0dbd eeca d13e a260 aabd b377 32be
00000350: d597 b03c 3c47 993c bc4d d1be b461 643e
00000360: d5eb 04be 4ae4 83bd 462a f6bd f00f 9dbe
00000370: 5594 5cbd 462d 113e 4234 2ebe 63b5 75bc
00000380: ff5b 233e f61a 84be 80dc 1e3d c838 66be
00000390: e442 9bbd 83c9 acbe 6a73 97bd 3362 0d3e
000003a0: ac5a 1cbd 865a d33d 0bec f43d cf8d e63d
000003b0: 069c c9be ee4f 1cbd 2009 b6be 77df 92be
000003c0: 3525 adbd e896 03be 2a4d 813d c64a d6bd
000003d0: 3936 83be fc5e fc3e c703 0bbe c84d 96be
000003e0: 778e 00be 942f aebe 8836 23bd efc0 9a3d
000003f0: 9dfa 0fbe 64e3 a6bd b026 843e 05d0 54be
0.1461946 -0.32023576 -0.29357597 0.15034719 -0.25276178 0.0039832913 0.05636798 -0.39912227
-0.21609645 0.14994644 -0.12726817 0.25071236 -0.2693143 -0.024636284 -0.09393233 0.052204948
0.16590853 0.119841225 0.077911355 0.062146917 0.32754132 0.049306758 -0.1676613 0.16181813
-0.14479682 -0.07205751 -0.17386302 -0.032629486 -0.11271943 0.03531664 -0.091139235 0.049665783
-0.15786123 -0.1771798 0.28568074 0.17182177 -0.15010051 -0.094515435 -0.11661667 0.06363047
-0.35971096 0.35484827 0.016307397 -0.025309538 -0.29187813 0.07044891 0.29469863 -0.0920674
0.14241625 -0.10594519 -0.0076489407 -0.014705269 0.030990915 -0.07155197 -0.09605296 -0.006045419
0.010675588 -0.3617574 -0.10978264 0.12301549 -0.13796346 0.0042137643 -0.19376169 -0.009118135
0.01661444 0.057312 0.22925608 -0.0061409944 -0.12392986 -0.15738933 -0.27927727 0.09941093
0.04401461 -0.13803454 -0.017600203 -0.15088348 -0.26530918 -0.08199916 -0.24418284 -0.06858452
0.014821084 -0.14012551 -0.100297876 0.29199293 0.24730873 0.08894636 0.20655058 -0.21100907
-0.24063401 0.17257486 -0.48171625 -0.33978334 -0.12853251 0.05416358 0.23848708 0.007712973
-0.07231964 -0.007639024 -0.26823518 -0.11219974 -0.32672864 -0.14852831 -0.40471652 0.30006626
-0.08885049 0.097179264 -0.0031519502 -0.06769012 0.07352727 -0.08635933 0.34650972 -0.018696092
0.08972298 -0.099151395 0.1214961 0.052057233 -0.024900323 0.01893867 -0.57043433 -0.06323953
-0.09665928 0.17536601 0.38969082 -0.037172854 -0.00675566 0.08655087 0.26938823 0.20196244
-0.15529746 -0.07630689 0.040910564 -0.045846228 -0.14226855 0.10090086 0.04826743 -0.20804988
-0.11362641 0.11905486 -0.08090382 0.092386454 0.32060495 0.032990444 -0.2639035 0.036289815
0.08857877 -0.2084784 -0.07362827 0.24722414 -0.16073312 -0.16504249 -0.29473177 -0.058816332
-0.010848622 -0.40893307 -0.25048044 -0.46569738 -0.031249227 -0.18289311 -0.021194743 -0.28183055
-0.012370063 0.13056774 -0.29287797 -0.16488925 -0.13710976 -0.060982857 -0.16600302 0.10722598
-0.22089753 0.11322381 0.034692697 -0.059672486 0.3101017 -0.19243151 0.31735122 0.09354631
-0.20826757 -0.33915114 -0.14805987 -0.06687544 -0.020161718 0.17465468 0.006074013 0.40965524
0.19190736 0.30558863 -0.1813659 0.30140525 -0.2687061 -0.1490208 -0.16286415 0.29149857
0.020319859 0.004669669 0.10311222 -0.1240315 0.12567566 -0.024695693 -0.08470475 0.11248593
0.043538045 0.22424363 -0.19297487 -0.0753836 0.1840659 -0.10436073 -0.19175231 -0.0073958677
-0.03450867 0.40975136 -0.083192125 -0.17428474 0.021556774 0.018710725 -0.4087962 0.22302896
-0.12980588 -0.06440027 -0.12019782 -0.30676222 -0.053852398 0.14177427 -0.17012122 -0.014996859
0.15953062 -0.2580182 0.038784504 -0.22482598 -0.07581118 -0.3374749 -0.0739506 0.13806991
-0.03817241 0.1032 0.11959084 0.112575166 -0.3937685 -0.038162164 -0.35553837 -0.28686115
-0.08454362 -0.12850535 0.06313546 -0.10463481 -0.25627306 0.49291217 -0.1357566 -0.29356217
-0.12554346 -0.34020674 -0.039846927 0.075563304 -0.14060445 -0.0814884 0.25810766 -0.20782478

actor.preprocess.model.model.0.bias f4 [64]
00000000: bdab 08bc c874 b23d 83d2 0ebb 70a8 3abc
00000010: a337 e43c 8eb9 853d 4061 853d 4a1c f63d
00000020: 6093 fc3d 9c76 073e b78a 1ebd 3fe6 a1be
00000030: 5c50 863e bfd3 19be b7db 59bd 3d1a 493d
00000040: 4d31 183c 5425 68bd f889 ecbd 59bf a73e
00000050: 864f 833d 813b dcbd 9879 993e bcf4 67be
00000060: 3eb5 5f3d 18aa c7bd c751 01be 93cb 11be
00000070: 2e42 e93d 5038 ef3e 11d1 d03d ce6b d1bd
00000080: d80e 553e 3e6b 4e3e 1d3a c83e cb4f 8bbe
00000090: f7f2 80bd f85e 953d 0c04 15be 145c 89be
000000a0: e90c 693e b128 a4bd 45e6 52bd 309b 443d
000000b0: 7e19 b1bc e3aa c43d f254 2b3e 5ac2 2a3e
000000c0: 0dd9 1c3d cce8 0d3e df6c f1bd c3b7 e9bd
000000d0: 891d f4bd 8f55 5cbe 5af9 2f3e c9ec 27be
000000e0: c030 09be 3808 843e a2c1 fd3d 474f af3d
000000f0: 5786 babd 6e73 f5bd 4193 83bc 2c92 9fbc
-0.008341727 0.087136805 -0.0021792955 -0.011392698 0.02785856 0.065295324 0.065126896 0.120171145
0.12332797 0.1322884 -0.038706508 -0.31620976 0.26233184 -0.15022181 -0.053188052 0.04909729
0.009289098 -0.056676224 -0.11549753 0.32763174 0.06411652 -0.10753537 0.2997558 -0.22651953
0.054616205 -0.0974924 -0.12628852 -0.14237814 0.11389576 0.4672265 0.10196126 -0.1022564
0.20806444 0.20158097 0.39106837 -0.27209315 -0.06296342 0.072935045 -0.14552325 -0.26828063
0.22758831 -0.08015574 -0.051489133 0.04799956 -0.021618601 0.096029066 0.16731623 0.16675702
0.038292933 0.13858336 -0.11788344 -0.11412003 -0.11919696 -0.21517013 0.17184964 -0.1639892
-0.13397503 0.2578752 0.12390448 0.08560043 -0.091076545 -0.11984907 -0.016061427 -0.01947888

actor.preprocess.model.model.2.weight f4 [64, 64]
00000000: 964c 8ebd 610e d3bc 718c 8cbd 3a0f c93d
00000010: e3f6 483d ee0a a1be 9b3f 57be 3c34 d83d
00000020: ee5f 023e 41cf 9fbe 0cde ca3e 0149 f83d
00000030: 66e2 633d 0dc2 8f3e e4ef 073d f830 bf3d
00000040: c989 8cbe 6096 d1bd 4963 d7bd 27e3 e83c
00000050: e58e dabd 4bac 5bbe 97c6 ad3e e359 56be
00000060: 48b1 63be 5b17 1ebd 250f 0f3e 5760 b1be
00000070: 0ea4 6a3d 594b 5ebe b0b1 1a3e 5c34 adbd
00000080: a1cc d43b aa32 3abe 5b39 663c bf77 513e
00000090: ba39 59be 7cab 943d c93c 1a3d efd7 053e
000000a0: adac debc 41e0 913a 9961 23be 6e7a e83c
000000b0: 8fa7 20bc ce6f 4d3d b52e 8ebb 4bce 85bd
000000c0: 1c55 a3bd 5013 a73d 1173 bfbe 0da9 61be
000000d0: 4212 75be daa7 2f3d e1bb 3b3e 4b4b 5e3e
000000e0: 0b00 12be e150 33bf ebea 433d 3d6c 323c
000000f0: 70f3 17bd 85c6 5ebe 65e4 063e d0a9 9e3d
00000100: 11a8 bb3d e22c d5bd 6b01 08be 27e0 38be
00000110: 1fa3 213d b30f 753d 7feb 74be 130f 83be
00000120: 97a8 ecbc 4b02 353e c277 91bd 6ef6 913e
00000130: 4e4d fcbd 4fdd 47bd 6273 d3be 024a 3a3e
00000140: 8bd6 793c ade2 24bd beb3 513e 6cbe d73d
00000150: da6d 02be 163d a3bd 2450 99bd 2a90 603e
00000160: 3f80 37be d8ee 4f3c eeae 463e 15e3 e33d
00000170: 8d40 de3d e928 093d 5f4c 4dbd 9d52 53be
00000180: 2f81 a7bd 822c de3e a43e 64bd 0a49 06be
00000190: ba5c 6b3e 9c56 113d 4e30 9d3c e07d 87bd
000001a0: 4524 afbd d0fd 62be 4c50 433e a3a6 84be
000001b0: 949d cebe 251c 503e 1311 743e e648 d73c
000001c0: 7ac1 3e3e eff1 393e 791a 62be a0ba 4dbe
000001d0: 5105 febd 0620 a4be 1924 d1bd 0c14 70bd
000001e0: 96a4 e1bd 0f34 f4bd b713 30be f70f 2cbd
000001f0: 8ce5 3a3e f4ae 7fbe d913 a63d 8604 89bb
00000200: 834a 353c 74a2 70bc 0927 5abb d078 5d3e
00000210: dd11 dc3e 2df9 c83d 14dd adbd 377d dc3d
00000220: b1fb 7bbd 99b6 d4bd 7b30 653e 09ab 923b
00000230: 610a 683e 7548 a93d fe6d aabd ce4f e4bd
00000240: d5c4 10be d2e7 bbbe 9393 aa3b d3bb 1a3e
00000250: adc6 543c f5d1 063e 691e 4a3e 7fd0 0bbe
00000260: 2bfa e6bd d639 e5bc 8699 11be 2a45 b33c
00000270: 237f b43e bdd1 333e 56ed 8dbd 7fc9 7cbd
00000280: 1167 52be c5d1 993c f871 82be 9195 67bd
00000290: 5361 92be 719c 2b3e 1073 a4be 755d f2be
000002a0: 1e70 03be f96f 50be 1247 703e 4e97 8bbe
000002b0: 9e52 e23d 72fb ee3b 34f3 97bd 9d26 fb3c
000002c0: b04e 893d fe60 fd3e 6f74 b13e 3dfe 883e
000002d0: 3d73 5e3e 3770 3ebd 4af6 3fbd 1f61 e13c
000002e0: 251d 29bd 7e29 053d f5a6 043e 793b 98bc
000002f0: 72a5 033e 52ca 743d 46c0 a93e 844d 3fbe
00000300: c662 b53d 909d a13d 1161 29be cfcf 77be
00000310: cc52 8d3e f075 663d 8baf b33c 6f22 94be
00000320: c2ce 293e 808b 63bd 9d96 233e a233 343e
00000330: 7daf 08be 13f7 b03c 6509 233d 6190 cebd
00000340: c8b3 493d 21a7 fabd 4b61 d4bb 59e1 9d3d
00000350: 3b09 95bc 0cbe edbd 4652 793e 5780 83be
00000360: c1f3 a83e ef60 023f 4feb 5dbe 643c 1c3e
00000370: 85f3 6ebe 99b2 18bc 64d5 13bc 39d1 4e3e
00000380: 7145 27bd d166 673d f427 623e b594 0dbe
00000390: 4713 c8bd 5042 56be d788 213e d832 803e
000003a0: 409f 763e 574f 603e b495 c83e 9d0c 32bd
000003b0: 3dd3 153d e23d 8c3e 46c0 20bc a24e cf3e
000003c0: d91d a8bd 0f7d bb3d 7c55 21be be58 aebb
000003d0: 1317 653e cdd8 143e f265 9ebd 7e9f 1e3c
000003e0: f1f7 b33b cd73 093d 08ed 04bd a8d2 593e
000003f0: a0d5 cabd e294 a43d b82d 013e 1c21 c0bd
-0.06948201 -0.025763692 -0.068627246 0.09817357 0.049063575 -0.3145365 -0.21020357 0.10556838
0.12731907 -0.3121281 0.39622533 0.121232994 0.055635832 0.28077736 0.033187762 0.09335512
-0.27448872 -0.1023376 -0.10516984 0.028428627 -0.10671786 -0.21452443 0.33940575 -0.20932727
-0.22235596 -0.038596492 0.13970621 -0.34643814 0.05728536 -0.2170843 0.15106845 -0.084572524
0.00649412 -0.1818339 0.014051761 0.20455836 -0.21213427 0.072592705 0.037655625 0.13070653
-0.027181948 0.0011129455 -0.159552 0.028378692 -0.009805574 0.050155453 -0.004339064 -0.06533488
-0.07975218 0.081579804 -0.37392476 -0.22037144 -0.23932746 0.042884685 0.18333389 0.2170841
-0.14257829 -0.70045286 0.047831457 0.010890064 -0.037097394 -0.21755417 0.13173063 0.07747233
0.091629155 -0.10408951 -0.13281791 -0.18054257 0.039462205 0.059829425 -0.2391796 -0.25597438
-0.028888984 0.17676656 -0.0710292 0.28508323 -0.12319432 -0.04879504 -0.41298968 0.18192294
0.015248905 -0.040255237 0.20478722 0.10534367 -0.12737218 -0.079706356 -0.07485989 0.21929994
-0.17920016 0.012691222 0.19402668 0.11127297 0.10852156 0.03348628 -0.05012166 -0.20636983
-0.08178937 0.43393332 -0.0557238 -0.131138 0.22984591 0.035482988 0.019188073 -0.066158056
-0.0855184 -0.22167134 0.190736 -0.25908384 -0.40354598 0.20323236 0.23834638 0.026279878
0.18628493 0.18158697 -0.22080411 -0.20090723 -0.12403358 -0.32055682 -0.10211963 -0.05861287
-0.110177204 -0.11923992 -0.1719502 -0.042007413 0.18251628 -0.24969083 0.081092544 -0.0041814474
0.011065128 -0.014687169 -0.0033287427 0.21628118 0.4298238 0.098131515 -0.08489433 0.1076607
-0.06151933 -0.1038639 0.22381775 0.0044759554 0.22660209 0.08265773 -0.083217606 -0.11148034
-0.14137585 -0.36700302 0.0052055805 0.15110712 0.012986821 0.1316603 0.19738163 -0.13653754
-0.112781845 -0.02798168 -0.14218721 0.021883566 0.35253248 0.17560478 -0.06930034 -0.0617156
-0.20547129 0.018776784 -0.25477576 -0.056539122 -0.28589877 0.16758896 -0.32119036 -0.47336927
-0.12835738 -0.20355214 0.23464611 -0.27263874 0.11050914 0.007293158 -0.07419434 0.03065806
0.067044616 0.49488062 0.34659144 0.26756468 0.21723647 -0.046493735 -0.04686574 0.027512131
-0.04128756 0.032510273 0.12954314 -0.018583046 0.12856081 0.05976326 0.33154505 -0.18681914
0.0885673 0.07891381 -0.16540934 -0.24200366 0.27602232 0.056264818 0.021934291 -0.2893252
0.16582778 -0.05555296 0.15975423 0.17597821 -0.13348193 0.02160219 0.03980388 -0.10086132
0.04924372 -0.122389086 -0.006481325 0.07708997 -0.018192878 -0.11608514 0.24347791 -0.25683853
0.3299847 0.5092916 -0.21671794 0.15257412 -0.23335083 -0.009319925 -0.009023044 0.20197
-0.04083771 0.056494538 0.22085553 -0.13826258 -0.09769302 -0.20923734 0.15774857 0.2503879
0.24084187 0.21905266 0.39176714 -0.04346906 0.036578406 0.27390963 -0.009811467 0.4048968
-0.08208818 0.091547124 -0.15755266 -0.0053206375 0.22372083 0.14535828 -0.07734288 0.009681581
0.0054922034 0.0335577 -0.032452613 0.21271765 -0.09904027 0.0803621 0.12615097 -0.09381315

actor.preprocess.model.model.2.bias f4 [64]
00000000: 29eb 613d b497 433d 61a7 c03d 34d6 b9bd
00000010: 3c27 2e3e 22c9 87bc 67fb 303c 5d69 c8bd
00000020: dd78 ec3d 1504 a03c 13a6 b83d 8f67 283d
00000030: e709 d93d ef2d de3c 3a66 f7bd ea73 89bd
00000040: 3acf 59be 4dd5 2abe 3f03 043d f2e9 0dbe
00000050: 91b4 4dbd 1659 b3bd 9932 1dbd e660 19be
00000060: 7256 503d 18be 9cbd 4517 01bd c0d8 cb3c
00000070: 598f 87bd 7c97 dfbc e1d8 0cbd d0ea ff3d
00000080: c147 5abc 0864 61bd 3a04 80bc e6c7 b53d
00000090: bafd 6bbd 9c13 44be bec7 b73d 3219 833e
000000a0: 6468 c2bd f1c3 1fbd db39 ecbd 86d7 21be
000000b0: 7044 85ba 0e13 d43d 4ff2 24bd ac93 193c
000000c0: 654b 1ebb 3def 0ebd 8287 823d 7701 87bd
000000d0: a2df e4bc 6841 46be 8225 38bd 4be2 8c3a
000000e0: 3d82 023e de9c a9bd f9f5 39bd 2772 9dbd
000000f0: 7b7d c7bb 5f08 1f3e 1a94 3ebd 1b06 04be
0.055155907 0.047752097 0.09406925 -0.09074059 0.17007154 -0.0165754 0.0108021265 -0.097857215
0.1154649 0.019533196 0.09016051 0.041114386 0.10597592 0.027121512 -0.12080045 -0.06711562
-0.21270457 -0.1668293 0.03222966 -0.13858774 -0.05022103 -0.08757226 -0.03837833 -0.1497837
0.05086369 -0.07653445 -0.031516332 0.024883628 -0.06619138 -0.027293913 -0.03438652 0.12495959
-0.0133227715 -0.055027038 -0.015627015 0.08876018 -0.05761502 -0.19148105 0.08973645 0.2560516
-0.09492567 -0.039005224 -0.115344726 -0.15804872 -0.0010167491 0.10355197 -0.040270146 0.009373587
-0.0024153825 -0.034896124 0.06373502 -0.06592076 -0.027938668 -0.19360888 -0.044957645 0.0010748593
0.12744994 -0.08281873 -0.045400593 -0.076877885 -0.0060879565 0.15530537 -0.04652796 -0.12892954

actor.mu.model.0.weight f4 [6, 64]
00000000: 6d7b 6e3e 2c28 aabd 715f 25bd 3228 bcbc
00000010: 6d80 a9bd 822f 873e 9cd3 a93e 4633 8fbe
00000020: d07a 8fbd 9967 5d3c 493b 463d 3e4d fdbd
00000030: 77c4 503d dd5b 9d3c db33 4b3e d0ab b53d
00000040: 7d2f d63d 52b0 20be b23c 6f3e ba51 083e
00000050: c018 133d dada fa3b a185 943d 096a 0abe
00000060: 68ef 973d e2b5 ebbd 55ff a1bc 26a3 bebd
00000070: 2e5a 0d3b b689 8c3e 5e21 56bd 75b9 953b
00000080: e61b 18bc 9455 dc3d 968d e63e b9a3 433e
00000090: 0547 593d 5988 bb3e 0f00 5abe 29a0 283e
000000a0: 3c59 16be de16 a1be 2331 65be 309b 0f3e
000000b0: 1f30 393e b13e fc3d d156 833d 65d0 643d
000000c0: 3765 bfbe 6519 f2bc 0458 423d 4c57 41be
000000d0: feab be3e 3f0f d73c 6620 413d 0192 61bd
000000e0: 2a25 cebe 62ce 69be e05e 973e 2a00 adbd
000000f0: 0ded 5cbd e491 aabd c1be bdbe 7a8f fcbc
00000100: c4aa bc3d b347 033e 05b2 bf3d a4b7 02be
00000110: 360d 3f3d 4d78 12be da54 32ba f684 333d
00000120: d86b d53d ffa0 c5bd 0fdb f6bc e46b 693e
00000130: d53a cfbc 0e9b 643e 13be a7bc b221 4cbe
00000140: cbed 46be 3413 0dbe 07c0 eb3d f026 843d
00000150: 7d94 2cbe bd79 88bd 8e93 96bd c0b7 d43d
00000160: 6210 0cbb a5d7 07be 162c 823e db87 113d
00000170: 8e67 e43b cc83 4b3d 9181 033e 0166 593e
00000180: e038 13be 7e8b edbd 0514 09be 98cf ee3d
00000190: a3b8 d1bd ccb2 323d bc84 033e 5782 1b3e
000001a0: 3d70 28be b6e7 83bc 4568 22be 90a2 50bd
000001b0: 4e84 153a 5063 b13d 6009 dabd 86c5 9ebd
000001c0: c061 02be 9345 0dbd 1f44 dd3d 9f8d fb3c
000001d0: 3400 49be 3f22 5abc 8313 113d 87ac b9bd
000001e0: d7d1 a43d d2cc a8bd 3f03 d7bd 35b6 4bbc
000001f0: 670b e53d 7f8d 43bc 6df3 d83d 36eb 9b3c
00000200: 9ec2 3b3e 9b65 0c3d c07d 8cbe 4542 82bb
00000210: d4d0 96be 7cb6 6b3d 338b 803e 8a1f 0abe
00000220: 516c 823d a0e0 393e 8075 9b3e e08e f2bc
00000230: 1870 d3bd 49d2 443d 42df 713d 4ccd 02be
00000240: 8e8a bd3e 4205 a03e b900 3f3e 468a 0e3f
00000250: 9644 3b3c 0df3 1e3e 0c39 0dbe 3d30 6a3e
00000260: f8cc bbbe d49f 173c cda0 833d 7163 b43d
00000270: 20e6 ef3c 3bc9 9cbd 8513 923d 6070 52be
00000280: 9cb3 c13d db0d 5abe 8e6c eebd 98a3 133e
00000290: b1d7 b93d 9f82 81bd 8991 78bd 4cc5 9abc
000002a0: bb32 7f3d 2859 043e 852e 23be ddab 5d3d
000002b0: ac51 35be 066b 44be a60d 233e 2584 23be
000002c0: 3bc7 f8bd e0bc 833d 733d 91bd 93c5 a33d
000002d0: 46e4 2c3e b4f5 643e bbfa d43d 2547 8bbd
000002e0: 48e4 223d f866 5d3e 5e92 603d ccdd 623e
000002f0: 5d42 033d 4098 5b3d eee2 9d3c 2a0b 9b3d
00000300: 6e84 27be efa7 133e a56f 913d ed8c d3bd
00000310: 4570 023e b3b5 683d 9107 0c3e 38fb edbd
00000320: 8d56 da3d 44ea 573c 56b2 b1bd eff8 e3bc
00000330: 0546 ea3d e678 c7bc 7a84 50be ff5e b3bc
00000340: 6311 5cbe 9a35 a8bc 8c30 9b3d 4006 28be
00000350: 8a4e bd3d 2abb 86bd 97d5 ecbd f857 6d3d
00000360: ffe8 0dbd 443b 963c 4739 aabd 7d5b 043d
00000370: 883d 50bd 34d7 743d 1c32 9dbd b624 3d3d
00000380: 3277 60bd 43ea 01be 09ac 8cbd 10f6 8f3d
00000390: de49 96bd 7bc6 e13c 6549 153e 8ffb 513e
000003a0: c113 42bd d934 f93c 2cce 6bbd 26b8 6c3b
000003b0: da22 ab3c 11dd 1bbc d35d c83d b747 893d
000003c0: 092e 373e 01e7 99be e770 4bbe 8285 913d
000003d0: a910 21be e860 fa3c c329 363d 0333 263d
000003e0: 3831 733e 5c2d 19bd 0d45 4ebe ecf6 bc3b
000003f0: c529 bc3b 5b5c 453e c8eb 4b3e 3832 bfbd
0.2328927 -0.083084434 -0.040374223 -0.022968385 -0.082764484 0.26403433 0.33169258 -0.27968806
-0.070058465 0.013513469 0.048396382 -0.123682484 0.050968613 0.019208843 0.19844 0.08870661
0.104582764 -0.15692261 0.23362997 0.13312426 0.035912275 0.0076554837 0.0725205 -0.13517012
0.0741871 -0.11509301 -0.019775072 -0.09308462 0.0021568644 0.27448815 -0.052277915 0.0045692273
-0.009283995 0.1075851 0.45029896 0.19105424 0.053046245 0.36627463 -0.21289085 0.16467346
-0.14682478 -0.3146276 -0.22382025 0.14024043 0.18084763 0.12316645 0.06413043 0.055862803
-0.37381908 -0.029553125 0.04744722 -0.18880957 0.37240595 0.026252387 0.04715004 -0.05507088
-0.4026273 -0.22832635 0.2956457 -0.08447297 -0.053937007 -0.08328608 -0.37059596 -0.030830134
0.092122585 0.1282032 0.093601264 -0.12765366 0.04664346 -0.14303704 -0.0006802805 0.043827973
0.1042096 -0.09649848 -0.030133752 0.22795063 -0.025296608 0.22324774 -0.020476377 -0.19934729
-0.19426648 -0.13776857 0.11511236 0.06452739 -0.16853519 -0.06663845 -0.073523626 0.1038661
-0.002137207 -0.13265856 0.2542426 0.035529952 0.0069703525 0.04968624 0.12842394 0.21230318
-0.14377165 -0.11598872 -0.13386543 0.11660689 -0.10240295 0.043627545 0.12843603 0.1518644
-0.16449066 -0.0161017 -0.15860088 -0.05093628 0.0005703614 0.086615205 -0.106463194 -0.07752518
-0.12732601 -0.03449018 0.10804009 0.030707179 -0.19628984 -0.013313829 0.035419 -0.0906611
0.08047836 -0.082421914 -0.10498666 -0.012433578 0.111838154 -0.011935591 0.10593305 0.019033056
0.1833596 0.034276586 -0.2743969 -0.003975185 -0.29456198 0.057547078 0.251062 -0.13488594
0.06368316 0.18152094 0.30363083 -0.029609144 -0.103241146 0.048052106 0.059050806 -0.12773627
0.3701977 0.3125401 0.1865262 0.5567974 0.011429926 0.15522404 -0.13791293 0.22869964
-0.36679816 0.009254415 0.06427155 0.088080294 0.029284537 -0.07655569 0.07132629 -0.2055068
0.09458086 -0.21294348 -0.11641799 0.14417875 0.09074343 -0.06323742 -0.06068567 -0.018892907
0.06230424 0.12924635 -0.15935715 0.05411898 -0.17706937 -0.19181451 0.15923175 -0.15968378
-0.12147375 0.064325094 -0.07091799 0.07996669 0.16883954 0.22359353 0.103993855 -0.06800679
0.039768487 0.2162131 0.054827087 0.22154921 0.03204571 0.053611994 0.019273248 0.07570489
-0.16359112 0.1441953 0.07101373 -0.10329614 0.1273814 0.056813907 0.13674761 -0.11620182
0.106610395 0.013178412 -0.08676593 -0.027828662 0.114391364 -0.024349641 -0.20363036 -0.021895884
-0.21491008 -0.020533372 0.07577619 -0.16408634 0.09243496 -0.065786675 -0.115641765 0.05794522
-0.03464603 0.018338807 -0.08311706 0.032313813 -0.05083993 0.059775546 -0.07675573 0.04617759
-0.054801174 -0.1268702 -0.068687506 0.070293546 -0.07338308 0.027560463 0.14578779 0.20506118
-0.04738212 0.030420708 -0.057569668 0.0036120503 0.020890642 -0.009513156 0.097835205 0.06703132
0.17888655 -0.30059054 -0.19867288 0.07105543 -0.15729012 0.030563787 0.04447342 0.040575992
0.23749244 -0.037396774 -0.20143528 0.00576674 0.005742284 0.19273512 0.19914162 -0.0933575

actor.mu.model.0.bias f4 [6]
00000000: 3da9 273f 16e1 363f b7cd 02be 957d 273f
00000010: 44db fd3e f057 2dbd
0.6549261 0.71437204 -0.12773786 0.65426 0.4958135 -0.04232019

critic.preprocess.model.model.0.weight f4 [64, 17]
00000000: 7960 3ebe 77b5 2bbe 60ed c5bd de25 173e
00000010: 6624 5fbe 8cb1 f43e fc10 57be 0a4b e13f
00000020: 5da3 723e 2e32 0ebe 79ff a9be a94e 7e3e
00000030: 8b9c b7bc a3d7 0bbe 44fe 933d 3518 2a3e
00000040: 42f9 333f 508c 0bbe d493 bb3d 378f c7be
00000050: 4924 e7be b168 85be 6b3e be3b 230d d03e
00000060: 7e46 8e3e 9de9 0a3f 637c b7be e4b9 30be
00000070: 3566 773e b3c6 a13d 1eb7 f6bd 7dc8 cb3d
00000080: 6c11 283f aa0c bdbd a7d8 2fbf 66d4 ec3e
00000090: d1b5 683d ad6b 6dbc 4cdf 943e 9a49 5fbd
000000a0: 7eff 223d ed7f 4c3f bc18 3a3e 5d9a e6be
000000b0: 02d6 9ebe 3462 f23d 0879 ec3c f352 6fbe
000000c0: 320d 8b3e 65e5 863e deab 46bf df54 193f
000000d0: 3605 42bf d350 b0be 2139 3fbe fe6d 013e
000000e0: 634f 2a3e 7772 41bf 85af 6c3e 4e36 45be
000000f0: 336e 9cbd c472 bc3e 6ec9 433e 5be2 fd3c
00000100: 341d fa3d 6e06 6ebe 0eb0 96be 641a 8ebe
00000110: cbb7 bebd 9f18 15bf 89e0 93be 303a 0a3e
00000120: 6145 193d 84d0 b8bd 4eba 173f 8f21 5e3e
00000130: e7df 53be 17af 34be d7c0 77bf 088e dbbe
00000140: ca56 063e 53ea fcbc 777f 123f b7d6 e53e
00000150: cbc1 21bf c3e5 35be 6a3c 893e 35cd 9e3d
00000160: ee31 0d3e bf5c 1c3e f3d2 2fbe 9c92 2cbf
00000170: 4782 54bd 719a 9f3e 4eba 46bc 7b5d 5ebe
00000180: fc9c 213e 95ce 9d3e c8f3 9cbd 9a5b 25bc
00000190: 73c3 eabb c707 26be dc8e bdbe 1b53 663f
000001a0: 1718 28bd 21dd 97bc 75a4 ea3d 5c25 873d
000001b0: c98b 183f 5099 3c3e e13a 6b3d 7d95 c13e
000001c0: 07e7 84be bea3 d6be aebb e7bd 70a0 2a3e
000001d0: 56c9 063d 8149 0f3e 6e96 d23d a33b 0b3f
000001e0: c304 8ebe 4722 5ebe 7273 03be 686d d13d
000001f0: e99f 19be 3168 903d a6dd 27be 522f 20bf
00000200: 4c66 c23e df0a a0bc 103e cbbd 9168 a33e
00000210: 83da 823e de8d 50bd 2fca 53bb 1681 6f3e
00000220: a0bb 923e 62f8 12bf bf72 823e 5e54 a83e
00000230: be32 a43e 35c3 8d3e 44d9 943e 052d 11be
00000240: 3745 c53d 8cd9 1b3e 9b28 35be 362c 28be
00000250: 63e9 193d bb56 4b3d 027d 243e f35b ab3e
00000260: 170e bc3a ce6a ed3d 52da 11be 0cf4 733e
00000270: cee8 8dbe c265 893e 5223 2e3d a1f6 b83e
00000280: 6d74 983d c555 023f 2b09 db3d 7ad7 6ebe
00000290: 42d1 0a3d e483 683b b31e 433d a9d2 d33d
000002a0: 8f9e 543e 559a 573e 2f6c bf3d e95b 433f
000002b0: a533 c33d a704 a2bd bcb6 8b3e 5275 cabd
000002c0: 57b9 57be c432 383e 1a38 903e 47af e5be
000002d0: 8cad 4c3f 7f22 27be 0f42 183e d036 f03d
000002e0: 32ca 68be 7ca1 3bbe 9a90 a13e 6301 053e
000002f0: 201d e5be 1d9c fa3e a2f6 a73d 8210 013f
00000300: 702f 3cbb 7985 4a3c 2b4f 9f3f d9e4 c8be
00000310: 1db4 84be 58b4 2cbd 51c5 d83c 3a9e 03bd
00000320: 9887 b2bd 32e7 29be 43f4 023f 0f94 07be
00000330: 5b0d 533f 1ee6 88be 1d34 0bbe 853d 17be
00000340: 9bbe 223e 1f04 ef3d c482 e43d 7b16 a9bc
00000350: b340 bd3b 4c49 2b3f 001e c0bd b965 cebd
00000360: 511a 04be a787 e93e 3b56 60be 19d8 a0bf
00000370: 1f47 59be 0236 153e d81a 65bf c04b 903e
00000380: ce40 c23d b448 f83e 5d14 063e 1eb7 233f
00000390: bf4c 71be 437c e7be 4646 883e 2588 3fbe
000003a0: ab02 93be 03af 6f3e 0841 003d 2cf5 d23d
000003b0: 79ab c3be e01d 24be 9026 9a3e b4fe dd3d
000003c0: 6fb8 10bf cb01 ecbc 4f34 6f3a a597 22bd
000003d0: e5c9 91bd f2d0 893e 6146 dfbe 1e77 963d
000003e0: a8c4 a73e 2b09 d9bd 0095 04be ac7d b73d
000003f0: f5d4 0ebe 78b2 5fbe 5cbc e3bd 742f 323e
-0.18591489 -0.16768442 -0.09664416 0.14760539 -0.21791229 0.47791708 -0.21002573 1.7601025
0.2369513 -0.1388633 -0.33202723 0.24834694 -0.022413513 -0.13656478 0.07226232 0.16610797
0.7030221 -0.13627744 0.09159055 -0.38976452 -0.4514487 -0.26056436 0.0058057806 0.40635023
0.27788156 0.54262716 -0.35837087 -0.17258412 0.24160083 0.07899227 -0.120466456 0.099503495
0.65651584 -0.09230931 -0.6868996 0.46255797 0.05681402 -0.014491004 0.29076612 -0.05451355
0.039794438 0.798827 0.18173498 -0.45039645 -0.3102265 0.11835137 0.028866306 -0.23371486
0.27158505 0.2634689 -0.77606 0.5989513 -0.757892 -0.34436664 -0.18674137 0.12639615
0.16631846 -0.75565284 0.2311383 -0.19258997 -0.07638206 0.3680631 0.19119808 0.030991724
0.12212601 -0.2324464 -0.29431194 -0.2775451 -0.093123995 -0.58240694 -0.28882244 0.1349876
0.03741968 -0.09024146 0.59268653 0.21692489 -0.2069088 -0.17644916 -0.96778625 -0.428818
0.13119045 -0.030873453 0.57225746 0.44890377 -0.6318633 -0.17763428 0.26803905 0.07753984
0.13788578 0.15269755 -0.17170314 -0.6741121 -0.051882055 0.31172517 -0.012129379 -0.21715347
0.15782541 0.30821672 -0.07663685 -0.01009264 -0.0071644126 -0.16213904 -0.37023056 0.8997056
-0.0410386 -0.01853806 0.11457149 0.065989226 0.59588295 0.18417859 0.0574292 0.37809363
-0.2595751 -0.419218 -0.11315094 0.16662765 0.032906853 0.13992883 0.102825984 0.54387873
-0.27738008 -0.21692763 -0.12837008 0.10225946 -0.15002407 0.07051123 -0.16393146 -0.62572205
0.3796867 -0.019536434 -0.09923947 0.31915715 0.25557336 -0.050916545 -0.0032316556 0.23389086
0.28658772 -0.5741025 0.2547817 0.32876867 0.32069963 0.27687994 0.2907201 -0.1417733
0.09632342 0.15219706 -0.17691271 -0.16423115 0.03757609 0.04964326 0.16063312 0.3346859
0.0014347461 0.11592637 -0.14243439 0.23823565 -0.27716678 0.26835448 0.042514153 0.36125663
0.074440815 0.50912124 0.10695108 -0.23324385 0.03389097 0.0035479004 0.0476367 0.103429146
0.2076361 0.21054967 0.09346806 0.7631212 0.09531335 -0.079110436 0.27287853 -0.09885658
-0.21066795 0.17988116 0.28167802 -0.44860289 0.7995231 -0.16321753 0.1486895 0.11729205
-0.22733381 -0.1832332 0.31555635 0.1298881 -0.44748783 0.4894723 0.08201338 0.50415814
-0.0028714798 0.012360924 1.2446035 -0.39237097 -0.25918666 -0.042164177 0.026461275 -0.03213332
-0.08717269 -0.165921 0.51153964 -0.13240074 0.82442254 -0.26738065 -0.13594098 -0.14769562
0.15893023 0.11670708 0.11157754 -0.020640602 0.005775535 0.6690872 -0.09380722 -0.10077996
-0.12900664 0.45611307 -0.21907894 -1.2565948 -0.21218537 0.14571384 -0.89494085 0.28182793
0.09485017 0.48492968 0.13093705 0.6395129 -0.23564433 -0.45211992 0.26616114 -0.18704279
-0.28712973 0.23406605 0.03131202 0.10300669 -0.3821676 -0.16027021 0.30107546 0.108395964
-0.56531423 -0.028809449 0.0009124921 -0.0396954 -0.071185865 0.26917225 -0.43608382 0.073469386
0.32767224 -0.10597452 -0.12947464 0.08959517 -0.13948424 -0.21845424 -0.11119911 0.17400914

critic.preprocess.model.model.0.bias f4 [64]
00000000: 0f2f ea3e e422 9cbd 583f 353d 60bd 04bf
00000010: 512c 833e e8de 24bf 2704 eabe c964 3ebf
00000020: a710 2a3f d8c6 553e 2d92 a53e 1a3f 403e
00000030: b80f 6fbd c6aa fc3d 82f4 0cbc a7d3 43bf
00000040: 047d 9b3e d2ce f93e 6973 a53e 74f1 e73e
00000050: ee68 163f d5bd 993e 278b fbbe 47f7 2abf
00000060: 35ea 00bf 6a8f 0d3e 91a4 2d3e eb4d 0ebf
00000070: 8abc ddbd 5387 bbbe 5b05 6cbf 7f32 0cbf
00000080: a8a1 0a3f 92ab 02bf 6cbe 0dbf 12c8 9b3e
00000090: f39f 953d f4f7 013e 8e76 3a3f b09a efbe
000000a0: 264c fb3e 1c30 1dbe b2f2 823e 2521 39bf
000000b0: b437 333d 0f3a 8d3e bb7d 82be 7cc8 33be
000000c0: 003c 2b3f 1def 3f3f b486 48bf 3a0e 54bf
000000d0: 8cd0 22bf ed10 553e a3e9 c43e f072 a8bd
000000e0: 393f 16be 0d5f aabd d642 fdbe 7469 3bbe
000000f0: 38d1 19bf e9e1 1d3f 4529 843e 61b3 e83e
0.45739028 -0.07623842 0.044249862 -0.51851463 0.25619748 -0.6440263 -0.45706293 -0.74372536
0.6643166 0.20876634 0.32338086 0.18774071 -0.0583646 0.1233726 -0.008603217 -0.7649483
0.30368817 0.48790604 0.32314613 0.45301402 0.5875386 0.30027643 -0.49129602 -0.66783565
-0.5035737 0.1382424 0.16957308 -0.55587643 -0.108269766 -0.36626682 -0.9219567 -0.5476455
0.5415292 -0.51043046 -0.55368686 0.3042608 0.073058985 0.12692243 0.7283715 -0.46797705
0.49081534 -0.15350384 0.25575787 -0.723162 0.043754295 0.27583358 -0.2548655 -0.17556947
0.6688843 0.7497423 -0.7833054 -0.8283421 -0.6359947 0.20807238 0.384595 -0.082250476
-0.14672555 -0.08318911 -0.49465054 -0.18301946 -0.6008487 0.61672837 0.25812736 0.45449355

critic.preprocess.model.model.2.weight f4 [64, 64]
00000000: fcc3 643d e571 543e 1354 36be cef7 e23b
00000010: ce05 653e b3c6 19be 1500 11bf b8ca e0bd
00000020: 570d 25bd 471b e9be 6bc0 3ebd 2c40 da3c
00000030: b185 9dbe aebb 95bd ce9f 9e3d a7c6 ffbe
00000040: ce79 0d3b 38e3 1b3f e050 febb b9b7 103e
00000050: e83a 373e 4353 953d 943b 803b 2ab6 34be
00000060: 4144 32be 94d3 243d 747c 52bf b948 11be
00000070: df53 bdbe 4d94 63be 4b76 953d d253 10bf
00000080: 41f0 733b 5aaf b8be 7e35 4bbe b43e 57be
00000090: ea8f 11be 30cf 8b3e 1b96 b73e e88d c8be
000000a0: fe92 21be 4bd3 b1bd 9c25 193f d931 9abe
000000b0: dc16 d13e 1b79 a4be f0c0 9c3c 4b91 04be
000000c0: 5099 e73d 80eb ccbd 4bdf 05bf 5bd0 22bf
000000d0: a1a8 68bf 6cdd d53d d69f 6d3e 1620 9f3d
000000e0: ca9e e1be d4f4 cbbe 957e 6c3d fc42 183f
000000f0: 7409 92be e2d9 013f 7c2f 193e 38da ea3e
00000100: 6e09 943e 2c5b a63d 2180 f8bd 7dee 263f
00000110: 5974 8c3f 8155 82be eafd be3d a45a e13d
00000120: 734d 353e 711b 0c3f 2249 e7bd 3f99 993e
00000130: 83ce a6be 63b1 55bb 068a 36be 0df6 87be
00000140: f781 43bd 81b5 ee3b d899 b53e 1076 cc3e
00000150: b837 66be 99db 17bd 59db bdbe a2e4 2a3f
00000160: be3d 4b3e 3f10 823c 9516 bd3d 1a33 303e
00000170: b778 013f f53a 8bbe 1986 d83d 15ea c4bc
00000180: 30a2 d4bd a42d 56bd 0e2c eb3d 4af0 7a3e
00000190: 493a 45be 24c2 90bd f900 72be 06f0 80be
000001a0: e6d9 e03d 3208 b33e bcd3 a5bc dc0c 9abd
000001b0: b387 ee3d d4af a0be c43e ae3e fc9b 9abd
000001c0: 51f0 c0bd aa13 713e 6e5a c7be 62ff a6be
000001d0: eddc 2f3d edef 59be 956a 00be 1684 34be
000001e0: 12e7 f23e 14b8 633c ac77 8d3e 0d48 f03d
000001f0: 703e 883e 9357 9ebe e032 28bc a8f7 bbbd
00000200: 7444 fa3e f441 1cbd 653a a1be b452 ca3d
00000210: 2c52 1b3c e3a6 9dbe 6a9f 13be cd2d 3ebe
00000220: 51e2 413e 213c 083f ab53 75be f9bd 5c3e
00000230: b777 0f3f 384a 603e 051b 22bf 3b71 2cbf
00000240: fe94 ba3e 0fa9 343e 13f4 debe 6a23 acbd
00000250: 691b fd3e c87e 72be 689f 32bf fb82 493e
00000260: f8e9 fabe 53ec 893e 7f5f b33d 5d39 35be
00000270: a86b cb3e 8788 d73d f47c 85be 6ba9 eebe
00000280: 6282 5a3f d2ce 1dbe 8ad7 2cbd cbee 0b3e
00000290: 706c 3b3f b7f5 f13d 1c6f fb3e f415 cbbe
000002a0: c73a 9cbd e235 ec3e c3de a3be 8175 5fbd
000002b0: 1a7e 98be be28 d43e 7bb2 f1ba 6449 46be
000002c0: e7a7 f13e 557f a23e e050 aebe b3a2 d3be
000002d0: 269a c63d 7648 5abd 92c3 4bbe eb1c 0abf
000002e0: af8f cdbe 6cf7 463e b8f6 ac3a 9094 903e
000002f0: 1314 06ba c8d7 253e 79e0 2d3f ceda ec3e
00000300: 8dfd 0b3f 5d8d aabe c9bd 6dbf 32b3 65be
00000310: 718f 12be 47a3 a6be 93dc f5bd 662f 0b3e
00000320: 5077 9b3c 6e26 afbd bf23 0dbe a897 5a3e
00000330: bc1f dc3e 74c0 a43e 10be 973e 8137 01bf
00000340: 2f32 0c3e 5f7d e43e a37c 15be d6be 363f
00000350: 3a49 003e 8c1b 82be 5713 dc3e 59a9 32bf
00000360: 638b 6fbe abf7 bf3e 8d38 b5be 2ca8 acbe
00000370: 8451 05be 47a4 5bbf 997d 2ebf cf37 6a3e
00000380: a207 4e3d 6ec8 1cba 27de fbbe d160 473f
00000390: 0e85 1bbd 32ae 48bc 6101 ee3e 4106 07bf
000003a0: 5871 1fbe 9d94 ccbe 7f1e 35be 22e8 3dbf
000003b0: d878 213e 12e1 d1be 45aa 343f 86d1 fc3a
000003c0: dea8 48be db63 143f 27b4 85bf d664 cfbe
000003d0: 9025 5dbf de65 b53d 73c9 12bf c204 c93e
000003e0: cd80 6fbe 7adf 0c3f 1fcf 573d 5958 0b3e
000003f0: b30d 1bbe f303 a73e 89e5 933e 656e 3b3e
0.055850968 0.20746572 -0.1780551 0.0069265133 0.22365496 -0.15017204 -0.5664075 -0.109761655
-0.040295925 -0.45528623 -0.046570223 0.026641928 -0.3076606 -0.07311188 0.07745324 -0.49956247
0.0021587494 0.60893583 -0.007761106 0.14132585 0.17893565 0.072912715 0.0039133523 -0.17647615
-0.1740885 0.04024084 -0.8222115 -0.14187898 -0.3697805 -0.22224541 0.07297953 -0.563779
0.003722206 -0.36071283 -0.19844624 -0.21020013 -0.14215055 0.2730651 0.3585671 -0.39170766
-0.1577873 -0.08682879 0.5982301 -0.30116156 0.40837753 -0.32123646 0.019134969 -0.1294605
0.11308539 -0.100058556 -0.52293843 -0.63599175 -0.9088231 0.104426235 0.23205504 0.07769792
-0.4406646 -0.39835227 0.057737906 0.5947721 -0.28522837 0.5072309 0.1495952 0.45869613
0.28913444 0.081228584 -0.12133814 0.65207654 1.0973006 -0.2545586 0.09325774 0.110036165
0.17705326 0.5472937 -0.11293246 0.2999973 -0.3257943 -0.0032606951 -0.1782609 -0.2655491
-0.047731366 0.0072848205 0.35468936 0.39933825 -0.22482193 -0.03707466 -0.3708141 0.66755116
0.19847772 0.015876887 0.09232823 0.17206994 0.5057482 -0.27193418 0.10572452 -0.0240374
-0.10382497 -0.05228962 0.11483012 0.24505726 -0.19260515 -0.070682794 -0.23633184 -0.25183123
0.10979061 0.3496719 -0.020242564 -0.07521984 0.11646976 -0.31384146 0.3403226 -0.07549283
-0.09420837 0.23542657 -0.3893618 -0.32616717 0.0429353 -0.2128293 -0.12540658 -0.17628512
0.47441918 0.013898868 0.27630365 0.117324926 0.26610136 -0.3092619 -0.010266036 -0.09178096
0.4888035 -0.038148835 -0.31489864 0.098790556 0.0094800405 -0.30791387 -0.1441628 -0.18572159
0.18933989 0.5321675 -0.23957698 0.21556844 0.56042045 0.21903312 -0.6332248 -0.67360276
0.36441797 0.17642616 -0.4354559 -0.08405192 0.49434975 -0.23681176 -0.69774485 0.19678871
-0.4900663 0.26938114 0.08758449 -0.17697664 0.39730573 0.105240874 -0.26071894 -0.4661363
0.853552 -0.15410927 -0.04219774 0.13665311 0.7321234 0.118144445 0.49108207 -0.39665186
-0.076283984 0.4613486 -0.3200589 -0.05455542 -0.29783708 0.41437334 -0.0018440032 -0.19363934
0.47198412 0.31737772 -0.34046078 -0.41335067 0.0969737 -0.05329176 -0.19898823 -0.53950375
-0.40148684 0.19430321 0.0013196087 0.28238344 -0.00051146856 0.16195595 0.67920643 0.46260685
0.5468376 -0.33310977 -0.92867714 -0.22431639 -0.14312531 -0.32546446 -0.12004962 0.135923
0.018977791 -0.08552252 -0.13783167 0.21346915 0.4299296 0.3217808 0.29637194 -0.5047532
0.13691019 0.446269 -0.14598326 0.7138494 0.12527934 -0.25411642 0.42983505 -0.69789654
-0.23393016 0.37493643 -0.35394707 -0.33722055 -0.13019377 -0.8579754 -0.68160397 0.22872852
0.050300248 -0.0005980794 -0.49192926 0.77882105 -0.037968688 -0.012248563 0.46485427 -0.5274392
-0.15570581 -0.39957133 -0.17687415 -0.7418233 0.15768754 -0.40992028 0.7057231 0.0019288517
-0.19595668 0.5796487 -1.0445603 -0.4050662 -0.8638544 0.0885732 -0.5733864 0.39261442
-0.23388977 0.550285 0.05268776 0.1360792 -0.15141945 0.326202 0.2888606 0.18303831

critic.preprocess.model.model.2.bias f4 [64]
00000000: 0275 a63e 5e2d b23b 963f 993d 9c0b e93e
00000010: b5a1 95bd f8a8 c63e afe5 213e df92 d2be
00000020: 098a a63d 8819 84bd 9510 0ebf 690d 21bd
00000030: ad51 5b3e 0a98 57be e78b d0bd 055e 643e
00000040: 2cad 313e 64ec 94be 3e6e b23e 08af 183d
00000050: c93e 05bf 26a6 9c3e a0b5 9cbe 2f75 e4be
00000060: df6c 92be e717 283e a51a bb3e 5af9 9e3e
00000070: 9a57 f93d 56cf bebe d01f e63e 7060 15be
00000080: 90e0 ddbe 7510 c13c 54dd 243e ab1a 12be
00000090: c2c6 093e 164c 57be d4ec d5be 7759 06bf
000000a0: 4c56 4d3d ccde 993d 97b6 b63d 7835 c13d
000000b0: 90c6 d03e 2ae0 edbd 16a3 d43e 518b 8ebe
000000c0: 4206 07be 02f1 1a3f d723 5cbc cb84 8fbd
000000d0: c0ef dabd 3caa a33e c53b bc3e 3298 e93d
000000e0: f642 1f3e 142e 913d e4c9 babe 5c75 0abe
000000f0: ca1b 213e 9e7f 8e3d e94f 16be 59eb 51be
0.32511145 0.005437537 0.07482831 0.4551667 -0.07306234 0.38800788 0.15810274 -0.4112768
0.08131797 -0.06450182 -0.5549405 -0.03931943 0.21417876 -0.21054092 -0.10182934 0.2230149
0.17351216 -0.29086602 0.34849733 0.037276298 -0.5204893 0.3059551 -0.3060732 -0.44620654
-0.28598687 0.16415368 0.36543766 0.31049615 0.12174912 -0.3726756 0.44946146 -0.14587569
-0.4333539 0.023567418 0.16100055 -0.14267986 0.13454726 -0.21025118 -0.41782248 -0.5248026
0.050131127 0.07513198 0.08921545 0.094340265 0.4077649 -0.116150215 0.41530675 -0.27840665
-0.13185981 0.60524 -0.013436279 -0.0700775 -0.1069026 0.31965816 0.3676435 0.11405982
0.15552887 0.07088867 -0.36482155 -0.13521332 0.15733257 0.06957935 -0.14678921 -0.20499934

critic.last.model.0.weight f4 [1, 64]
00000000: c73b b43d 1402 9a3d c05b 34bd ab48 a53e
00000010: e82a a63d 7370 fc3d f37b acbd 3892 e3be
00000020: c2b7 2cbd bafa bbbb 02e9 38be 3e25 8a3d
00000030: 99b1 debd 9400 f0bd c0bf 443c faca 993d
00000040: c110 533d c578 e7bd 0ad8 b63d 35ed abbd
00000050: 6dff 62bd 6925 0f3e 8286 3ebd 919f 3fbd
00000060: 52aa 82bd 8bfc 8e3d b251 3b3e df5d 013e
00000070: 7fa1 eebc 191a 13be 2fc4 983e c339 a4bd
00000080: 0410 64bd 53ea 7b3d 1de1 273d 0a77 9cbd
00000090: 7439 c4bd 5aa2 90bd e94b b93d e3a7 a1be
000000a0: 17dd db3c 504f 273e 91b1 3e3c b602 473d
000000b0: 03c6 9f3d 66cb a03d 96a1 d33c c508 b9bd
000000c0: b519 21bb 5689 243e c153 9abd 0228 ed3d
000000d0: 5b8c 69bd 04fe d23d 0c1b 473e 97f6 df3a
000000e0: 591a f3bd c486 8b3d c20d 08be e597 55be
000000f0: e8a7 ec3d 6c9a 603c e436 7ebd 9eb6 13bd
0.08800464 0.075199276 -0.044032812 0.32282004 0.081136525 0.123261355 -0.08422079 -0.44447494
-0.042167433 -0.005736676 -0.18057635 0.06745385 -0.10873718 -0.1171886 0.012008607 0.07509418
0.05152965 -0.11302332 0.08927925 -0.08394853 -0.055419374 0.13979115 -0.046514995 -0.046783034
-0.06380142 0.069817625 0.18292883 0.12633465 -0.029129742 -0.14365424 0.29837176 -0.0801883
-0.055679336 0.061502766 0.04098617 -0.076398924 -0.09581271 -0.07062216 0.09047682 -0.315734
0.026838822 0.16338849 0.011639015 0.04858657 0.078014396 0.07851295 0.025833886 -0.09034876
-0.0024581973 0.16068015 -0.07535506 0.115798965 -0.05701862 0.10302356 0.19443911 0.0017087039
-0.1187026 0.06812814 -0.13286498 -0.20858724 0.11555463 0.013708692 -0.062064067 -0.03606283

_actor_critic.actor.sigma_param f4 [6, 1]
00000000: 0391 d3bf 720b 7fbf faa0 aebf 3688 b4bf
00000010: 81eb f0bf d98d 04c0
-1.6528629 -0.9962684 -1.3642876 -1.4104068 -1.882187 -2.0711577

_actor_critic.actor.preprocess.model.model.0.weight f4 [64, 17]
00000000: 0ab4 153e f1f5 a3be 974f 96be 9df4 193e
00000010: fe69 81be 4586 823b 1ce2 663d c159 ccbe
00000020: 6348 5dbe 8f8b 193e 9652 02be 5f5d 803e
00000030: 90e3 89be 08d2 c9bc 985f c0bd dbd4 553d
00000040: ede3 293e 516f f53d fd8f 9f3d c48d 7e3d
00000050: 7fb3 a73e e2f5 493d 67af 2bbe a7b3 253e
00000060: 9e45 14be e392 93bd 2609 32be 7fa6 05bd
00000070: 72d9 e6bd 2ea8 103d 35a7 babd 596e 4b3d
00000080: 60a6 21be 9f6e 35be bf44 923e 0cf2 2f3e
00000090: f3b3 19be 4f91 c1bd b8d4 eebd b150 823d
000000a0: 092c b8be acae b53e 1797 853c f355 cfbc
000000b0: 0d71 95be 8547 903d bde2 963e d58d bcbd
000000c0: 91d5 113e cbf9 d8bd f7a3 fabb 5eee 70bc
000000d0: a9e0 fd3c d789 92bd 6ab7 c4bd a618 c6bb
000000e0: a9e8 2e3c 4438 b9be b9d5 e0bd 8cef fb3d
000000f0: 4b46 0dbe 9e13 8a3b 7769 46be 3b64 15bc
00000100: 021b 883c fdbf 6a3d 1bc2 6a3e 653a c9bb
00000110: f0ce fdbd ab2a 21be 6efd 8ebe f597 cb3d
00000120: aa48 343d ed58 0dbe 4d2e 90bc 3381 1abe
00000130: 9bd6 87be 2def a7bd 110b 7abe 0a76 8cbd
00000140: 22d4 723c 107d 0fbe f968 cdbd 1980 953e
00000150: 803e 7d3e 8229 b63d ff81 533e c312 58be
00000160: c368 76be 77b7 303e 83a3 f6be 15f8 adbe
00000170: 079e 03be a1da 5d3d f535 743e 1bbd fc3b
00000180: 521c 94bd c750 fabb 1f56 89be fac8 e5bd
00000190: fa48 a7be ce17 18be 0137 cfbe 49a2 993e
000001a0: 3ff7 b5bd ec05 c73d f390 4ebb 1ea1 8abd
000001b0: 7795 963d 29dd b0bd b969 b13e 8c28 99bc
000001c0: afc0 b73d e30f cbbd f3d2 f83d f739 553d
000001d0: c3fb cbbc 4525 9b3c fc07 12bf ba83 81bd
000001e0: 4df5 c5bd 2693 333e 8e85 c73e 9042 18bd
000001f0: 955e ddbb 9541 b13d 41ed 893e 3ecf 4e3e
00000200: 4c06 1fbe c946 9cbd d691 273d 41c9 3bbd
00000210: d9ae 11be 1ca5 ce3d 12b4 453d 070b 55be
00000220: f7b4 e8bd 09d3 f33d e7b0 a5bd 1c35 bd3d
00000230: 5526 a43e fd20 073d 5c1e 87be a1a4 143d
00000240: c968 b53d 5d7b 55be 6bca 96bd 5328 7d3e
00000250: 3997 24be e600 29be 15e7 96be 65e9 70bd
00000260: 6bbe 31bc ad5f d1be f93e 80be e36f eebe
00000270: 61fe ffbc 5548 3bbe 99a0 adbc 184c 90be
00000280: ceab 4abc 8db3 053e 1af4 95be bad8 28be
00000290: 8066 0cbe 29c9 79bd b2fc 29be 4b99 db3d
000002a0: f632 62be e3e1 e73d ee19 0e3d 236b 74bd
000002b0: a6c5 9e3e c40c 45be dc7b a23e 3595 bf3d
000002c0: 1844 55be 38a5 adbe 029d 17be fef5 88bd
000002d0: 302a a5bc add8 323e 8408 c73b 55be d13e
000002e0: 5d83 443e 1d76 9c3e fcb7 39be ca51 9a3e
000002f0: d993 89be e998 18be dcc5 26be 4d3f 953e
00000300: d575 a63c 0604 993b 802c d33d 3a04 febd
00000310: 1fb1 003e 9f4e cabc af79 adbd 065f e63d
00000320: f354 323d 1fa0 653e 349b 45be b862 9abd
00000330: c57b 3c3e 14bb d5bd b85a 44be 0959 f2bb
00000340: f758 0dbd eeca d13e a260 aabd b377 32be
00000350: d597 b03c 3c47 993c bc4d d1be b461 643e
00000360: d5eb 04be 4ae4 83bd 462a f6bd f00f 9dbe
00000370: 5594 5cbd 462d 113e 4234 2ebe 63b5 75bc
00000380: ff5b 233e f61a 84be 80dc 1e3d c838 66be
00000390: e442 9bbd 83c9 acbe 6a73 97bd 3362 0d3e
000003a0: ac5a 1cbd 865a d33d 0bec f43d cf8d e63d
000003b0: 069c c9be ee4f 1cbd 2009 b6be 77df 92be
000003c0: 3525 adbd e896 03be 2a4d 813d c64a d6bd
000003d0: 3936 83be fc5e fc3e c703 0bbe c84d 96be
000003e0: 778e 00be 942f aebe 8836 23bd efc0 9a3d
000003f0: 9dfa 0fbe 64e3 a6bd b026 843e 05d0 54be
0.1461946 -0.32023576 -0.29357597 0.15034719 -0.25276178 0.0039832913 0.05636798 -0.39912227
-0.21609645 0.14994644 -0.12726817 0.25071236 -0.2693143 -0.024636284 -0.09393233 0.052204948
0.16590853 0.119841225 0.077911355 0.062146917 0.32754132 0.049306758 -0.1676613 0.16181813
-0.14479682 -0.07205751 -0.17386302 -0.032629486 -0.11271943 0.03531664 -0.091139235 0.049665783
-0.15786123 -0.1771798 0.28568074 0.17182177 -0.15010051 -0.094515435 -0.11661667 0.06363047
-0.35971096 0.35484827 0.016307397 -0.025309538 -0.29187813 0.07044891 0.29469863 -0.0920674
0.14241625 -0.10594519 -0.0076489407 -0.014705269 0.030990915 -0.07155197 -0.09605296 -0.006045419
0.010675588 -0.3617574 -0.10978264 0.12301549 -0.13796346 0.0042137643 -0.19376169 -0.009118135
0.01661444 0.057312 0.22925608 -0.0061409944 -0.12392986 -0.15738933 -0.27927727 0.09941093
0.04401461 -0.13803454 -0.017600203 -0.15088348 -0.26530918 -0.08199916 -0.24418284 -0.06858452
0.014821084 -0.14012551 -0.100297876 0.29199293 0.24730873 0.08894636 0.20655058 -0.21100907
-0.24063401 0.17257486 -0.48171625 -0.33978334 -0.12853251 0.05416358 0.23848708 0.007712973
-0.07231964 -0.007639024 -0.26823518 -0.11219974 -0.32672864 -0.14852831 -0.40471652 0.30006626
-0.08885049 0.097179264 -0.0031519502 -0.06769012 0.07352727 -0.08635933 0.34650972 -0.018696092
0.08972298 -0.099151395 0.1214961 0.052057233 -0.024900323 0.01893867 -0.57043433 -0.06323953
-0.09665928 0.17536601 0.38969082 -0.037172854 -0.00675566 0.08655087 0.26938823 0.20196244
-0.15529746 -0.07630689 0.040910564 -0.045846228 -0.14226855 0.10090086 0.04826743 -0.20804988
-0.11362641 0.11905486 -0.08090382 0.092386454 0.32060495 0.032990444 -0.2639035 0.036289815
0.08857877 -0.2084784 -0.07362827 0.24722414 -0.16073312 -0.16504249 -0.29473177 -0.058816332
-0.010848622 -0.40893307 -0.25048044 -0.46569738 -0.031249227 -0.18289311 -0.021194743 -0.28183055
-0.012370063 0.13056774 -0.29287797 -0.16488925 -0.13710976 -0.060982857 -0.16600302 0.10722598
-0.22089753 0.11322381 0.034692697 -0.059672486 0.3101017 -0.19243151 0.31735122 0.09354631
-0.20826757 -0.33915114 -0.14805987 -0.06687544 -0.020161718 0.17465468 0.006074013 0.40965524
0.19190736 0.30558863 -0.1813659 0.30140525 -0.2687061 -0.1490208 -0.16286415 0.29149857
0.020319859 0.004669669 0.10311222 -0.1240315 0.12567566 -0.024695693 -0.08470475 0.11248593
0.043538045 0.22424363 -0.19297487 -0.0753836 0.1840659 -0.10436073 -0.19175231 -0.0073958677
-0.03450867 0.40975136 -0.083192125 -0.17428474 0.021556774 0.018710725 -0.4087962 0.22302896
-0.12980588 -0.06440027 -0.12019782 -0.30676222 -0.053852398 0.14177427 -0.17012122 -0.014996859
0.15953062 -0.2580182 0.038784504 -0.22482598 -0.07581118 -0.3374749 -0.0739506 0.13806991
-0.03817241 0.1032 0.11959084 0.112575166 -0.3937685 -0.038162164 -0.35553837 -0.28686115
-0.08454362 -0.12850535 0.06313546 -0.10463481 -0.25627306 0.49291217 -0.1357566 -0.29356217
-0.12554346 -0.34020674 -0.039846927 0.075563304 -0.14060445 -0.0814884 0.25810766 -0.20782478

_actor_critic.actor.preprocess.model.model.0.bias f4 [64]
00000000: bdab 08bc c874 b23d 83d2 0ebb 70a8 3abc
00000010: a337 e43c 8eb9 853d 4061 853d 4a1c f63d
00000020: 6093 fc3d 9c76 073e b78a 1ebd 3fe6 a1be
00000030: 5c50 863e bfd3 19be b7db 59bd 3d1a 493d
00000040: 4d31 183c 5425 68bd f889 ecbd 59bf a73e
00000050: 864f 833d 813b dcbd 9879 993e bcf4 67be
00000060: 3eb5 5f3d 18aa c7bd c751 01be 93cb 11be
00000070: 2e42 e93d 5038 ef3e 11d1 d03d ce6b d1bd
00000080: d80e 553e 3e6b 4e3e 1d3a c83e cb4f 8bbe
00000090: f7f2 80bd f85e 953d 0c04 15be 145c 89be
000000a0: e90c 693e b128 a4bd 45e6 52bd 309b 443d
000000b0: 7e19 b1bc e3aa c43d f254 2b3e 5ac2 2a3e
000000c0: 0dd9 1c3d cce8 0d3e df6c f1bd c3b7 e9bd
000000d0: 891d f4bd 8f55 5cbe 5af9 2f3e c9ec 27be
000000e0: c030 09be 3808 843e a2c1 fd3d 474f af3d
000000f0: 5786 babd 6e73 f5bd 4193 83bc 2c92 9fbc
-0.008341727 0.087136805 -0.0021792955 -0.011392698 0.02785856 0.065295324 0.065126896 0.120171145
0.12332797 0.1322884 -0.038706508 -0.31620976 0.26233184 -0.15022181 -0.053188052 0.04909729
0.009289098 -0.056676224 -0.11549753 0.32763174 0.06411652 -0.10753537 0.2997558 -0.22651953
0.054616205 -0.0974924 -0.12628852 -0.14237814 0.11389576 0.4672265 0.10196126 -0.1022564
0.20806444 0.20158097 0.39106837 -0.27209315 -0.06296342 0.072935045 -0.14552325 -0.26828063
0.22758831 -0.08015574 -0.051489133 0.04799956 -0.021618601 0.096029066 0.16731623 0.16675702
0.038292933 0.13858336 -0.11788344 -0.11412003 -0.11919696 -0.21517013 0.17184964 -0.1639892
-0.13397503 0.2578752 0.12390448 0.08560043 -0.091076545 -0.11984907 -0.016061427 -0.01947888
