results/Walker2d-v3/ppo/0/220622-172433/policy.pth (torch, 53732 bytes, 24 tensors)

actor.sigma_param f4 [6, 1]
0	0xc0017aa8	-2.0231113
1	0xc01869e0	-2.381462
2	0xc01a6ea3	-2.4130027
3	0xc0181f1e	-2.3768992
4	0xc01221aa	-2.2833047
5	0xc032b8b4	-2.7925234

actor.preprocess.model.model.0.weight f4 [64, 17]
0	0xbe5bc1ca	-0.21460643
1	0xbe90bc6f	-0.28268763
2	0xbef6bf30	-0.4819274
3	0xbcec7f5e	-0.028869327
4	0xbcf4e2b5	-0.029893259
5	0xbe8faa50	-0.28059626
6	0xbd0d57e6	-0.034507655
7	0xbe650618	-0.22365606
8	0xbedc01ae	-0.42970031
9	0xbe36f101	-0.17865373
10	0xbe90a38a	-0.2824977
11	0x3f08ad45	0.5338939
12	0x3df09e9d	0.11749003
13	0xbe1afcc5	-0.15135486
14	0x3e7a9b6e	0.24473354
15	0x3e026633	0.12734298
16	0x3ce2351a	0.027613211
17	0x3ef63411	0.480866
18	0x3e7ea3df	0.248672
19	0x3e98e5ef	0.29862925
20	0xbd4b715f	-0.049668666
21	0xbe090f79	-0.13384809
22	0x3db892f6	0.090124056
23	0xbea75516	-0.32682103
24	0x3da3bcdc	0.079950064
25	0x3c087167	0.0083278185
26	0x3f024a4a	0.50894606
27	0x3e90d267	0.28285524
28	0xbe117a20	-0.14206743
29	0xbe6872fd	-0.22700115
30	0x3dee5d5f	0.11638903
31	0x3eb1d2aa	0.34731036
32	0xbe589a9b	-0.21152727
33	0x3e14e418	0.14540136
34	0xbef11f6e	-0.4709429
35	0x3ccf2fca	0.025291342
36	0x3c8190b0	0.015816063
37	0xbe4e3cdc	-0.20140404
38	0x3e744d46	0.23857602
39	0x3e2e4776	0.17019448
40	0xbd990577	-0.074717455
41	0x3d4981ac	0.04919593
42	0x3ee0b1d3	0.4388567
43	0x3e71f0c9	0.23627008
44	0x3da023fa	0.07819362
45	0x3e3dd512	0.18538311
46	0xbe901ed4	-0.2814852
47	0x3cce471b	0.02518039
48	0xbe6c922f	-0.2310264
49	0xbd8eaa5b	-0.069660865
50	0x3e462c78	0.19352901
51	0xbe1d20b8	-0.15344512
52	0x3eb7b53f	0.35880467
53	0xbbf7367d	-0.0075443373
54	0xbe7179b5	-0.23581584
55	0x3e67313c	0.22577375
56	0xbe8466d0	-0.2585969
57	0xbd76fe2d	-0.060300995
58	0xbea1feff	-0.3163986
59	0x3eb345df	0.35014245
60	0x3e293f2f	0.16528009
61	0x3e1d2fe5	0.15350302
62	0xbcef6a57	-0.029225511
63	0xbeb9e9a0	-0.36311054
64	0x3e5f9044	0.21832377
65	0xbd5e3cda	-0.05425725
66	0x3b31d525	0.00271351
67	0xbea78875	-0.32721296
68	0xbef27f1e	-0.47362608
69	0x3eb2385d	0.34808627
70	0x3e8d1512	0.27555138
71	0xbe9025dc	-0.28153884
72	0xbdd091e1	-0.10184074
73	0xbef8107d	-0.4845008
74	0x3dbbb842	0.09166004
75	0xbeebf098	-0.46081996
76	0x3f091176	0.5354227
77	0xbea6f14b	-0.32605967
78	0x3ddd3348	0.10800797
79	0xbddd6778	-0.10810751
80	0xbe6c00be	-0.23047158
81	0x3de98dbe	0.11403988
82	0xbee3c404	-0.44485486
83	0xbd722f98	-0.05912742
84	0xbe34949e	-0.17634818
85	0x3f002978	0.50063276
86	0xbd38ccc4	-0.045117155
87	0xbe2197bb	-0.15780537
88	0xbd961c54	-0.07329622
89	0xbdd81fe0	-0.10552955
90	0x3eb807a7	0.35943338
91	0x3e30dcd1	0.17271735
92	0x3c9f7063	0.01946277
93	0x3dbcf4fd	0.09226415
94	0x3eac4fbd	0.33654585
95	0xbe14d37c	-0.145338
96	0xbd269729	-0.0406715
97	0xbdd36d76	-0.103236124
98	0xbef0c7e1	-0.47027496
99	0xbe5c90ad	-0.21539564
100	0xbcc471e1	-0.023980083
101	0x3e9fff46	0.31249446
102	0x3e1faf7d	0.15594287
103	0x3e485a42	0.1956568
104	0x3b84645e	0.004040285
105	0x3e1cafd6	0.15301451
106	0x3de8106d	0.11331258
107	0xbe58c9a5	-0.21170671
108	0x3e0f49c0	0.13992977
109	0xbdbbc24b	-0.09167918
110	0xbe82115a	-0.25403863
111	0x3e1c4dab	0.15264003
112	0x3f33f0c1	0.70289236
113	0x3e175234	0.14777452
114	0x3e9a360b	0.30119357
115	0x3d060cc4	0.032727018
116	0xbe64c2af	-0.22339891
117	0xbedbff60	-0.42968273
118	0x3eb99fb5	0.3625466
119	0xbe19a910	-0.15005898
120	0x3f031322	0.5120107
121	0xbe0ec6f1	-0.13943078
122	0x3ec09142	0.37610823
123	0xbec308eb	-0.3809274
124	0xbe8cb39c	-0.2748078
125	0xbbdf2e47	-0.0068109366
126	0xbd5ac09d	-0.053406347
127	0x3e3a39d9	0.1818613
128	0xbe713c06	-0.23558053
129	0xbe300bbc	-0.17191976
130	0xbe7912d6	-0.24323592
131	0x3f0395cd	0.5140045
132	0xbee4ccaf	-0.4468741
133	0x3dede9a2	0.116168275
134	0xbdcd55c6	-0.100261256
135	0xbea331d0	-0.3187394
136	0x3df181a6	0.117923066
137	0xbe1df9b7	-0.1542729
138	0xbaee61f5	-0.0018187152
139	0xbe1010e7	-0.14068948
140	0x3e492487	0.1964284
141	0xbe246346	-0.16053495
142	0xbd56bb6d	-0.052424837
143	0xbee64ff9	-0.4498289
144	0xbd7089bd	-0.058725107
145	0xbe15f43a	-0.14643946
146	0xbe118cad	-0.1421382
147	0x3d60ae2d	0.054853607
148	0xbb367dbd	-0.0027845942
149	0x3dcd723a	0.100315526
150	0xbe6ccc04	-0.23124701
151	0xbd0a76bf	-0.03380465
152	0x3e40022f	0.18750833
153	0xbf1c217d	-0.609886
154	0xbc7eb72a	-0.015546599
155	0x3d6569db	0.056009155
156	0x3e8262de	0.25466055
157	0x3e2a0252	0.16602448
158	0xbd038477	-0.03210875
159	0xbe537779	-0.20651044
160	0xbd3c7d94	-0.046018198
161	0x3d3413c8	0.043964177
162	0xbe32af72	-0.1744974
163	0x3e4cf7c0	0.20016384
164	0x3ed61d05	0.41819015
165	0xbe08cfb3	-0.13360481
166	0xbe1407d3	-0.1445611
167	0x3cbb3be4	0.022855707
168	0xbd230c41	-0.039806608
169	0xbe8edcfb	-0.2790297
170	0xbe63dd25	-0.22252329
171	0x3e0a659e	0.13515326
172	0xbf15500e	-0.5832528
173	0xbc69f5f9	-0.014279836
174	0xbede56a1	-0.43425468
175	0x3ec6398d	0.38715783
176	0xbe06491d	-0.13113828
177	0x3d083ac3	0.033259165
178	0xbcc7e388	-0.024400488
179	0x3bf9a479	0.0076184836
180	0xbe6d0318	-0.23145711
181	0xbdb62981	-0.08894635
182	0xbe4e1d82	-0.20128444
183	0x3ea04075	0.31299177
184	0xbcfa6bfd	-0.030569071
185	0x3d6cfdbc	0.057859167
186	0x3cba9cb5	0.022779802
187	0x3da93ca9	0.08263523
188	0x3dc20f3e	0.094755635
189	0x3eca068d	0.39458123
190	0xbccfabe8	-0.025350526
191	0xbda84cd7	-0.08217781
192	0xbc4f9da5	-0.012671863
193	0xbf0859fa	-0.53262293
194	0xbec15dcc	-0.37766874
195	0xbdcfad99	-0.10140533
196	0x3c9a7809	0.018856065
197	0x3d57214c	0.05252199
198	0xbeb9a1c1	-0.3625622
199	0xbaecc460	-0.0018063895
200	0xbe6659c3	-0.22495179
201	0xbd937652	-0.07200302
202	0xbebed54c	-0.37272108
203	0xbe55a10f	-0.2086222
204	0xbf0529d8	-0.52016973
205	0xbe8abbde	-0.27096456
206	0xbc88b6b9	-0.016688691
207	0xbe03883e	-0.12844941
208	0xbdd32517	-0.10309809
209	0x3e60129d	0.218821
210	0xbe268cee	-0.16264698
211	0x3dbe1b9d	0.092826106
212	0xbe731b4a	-0.23740879
213	0x3ea7b31d	0.3275384
214	0x3e01da30	0.12680888
215	0xbe5045af	-0.20339082
216	0xbee94612	-0.45561272
217	0x3e7d2f27	0.24725018
218	0x3da0b7fe	0.07847594
219	0xbf132f30	-0.5749388
220	0xbd09c0e2	-0.033631213
221	0xbd9d4088	-0.07678324
222	0x3ecf17d6	0.40447873
223	0x3e85eb90	0.26156282
224	0x3d65b282	0.05607844
225	0x3e174533	0.14772491
226	0xbf276f5f	-0.65404314
227	0x3dc9c20d	0.098514654
228	0x3ec6935b	0.38784298
229	0x3e6376f7	0.2221335
230	0x3e0f7d0d	0.14012547
231	0x3e447b96	0.1918777
232	0x3e0fa36a	0.14027181
233	0xbec8af01	-0.39196017
234	0x3e726420	0.23671007
235	0x3dd72aed	0.10506234
236	0x3ec1c3cf	0.37844703
237	0x3e5bf96e	0.21481869
238	0xbe882fff	-0.26599118
239	0xbe1d2247	-0.15345107
240	0xbf36c925	-0.7140067
241	0x3c83895c	0.016056709
242	0x3dffa7b6	0.1248316
243	0xbd7907b0	-0.060798347
244	0x3db121d1	0.08649028
245	0xbf0ba61c	-0.5455034
246	0xbdadf845	-0.08494619
247	0xbece34e2	-0.4027472
248	0x3eba2704	0.36357892
249	0xbe08561c	-0.13314098
250	0x3e1fb607	0.15596782
251	0xbeca2b50	-0.3948617
252	0xbddab54d	-0.10679112
253	0x3ef5214b	0.47876963
254	0x3e8e243f	0.2776203
255	0xbe0fcf71	-0.14043976

actor.preprocess.model.model.0.bias f4 [64]
0	0xbd23f243	-0.04002596
1	0x3e7e9ebe	0.24865243
2	0xbe5673b8	-0.2094258
3	0xbdf727a1	-0.120681055
4	0x3eb26add	0.34847155
5	0x3ebda73b	0.3704165
6	0x3e059ccf	0.13048099
7	0xbd8f2b25	-0.06990651
8	0xbe9ed107	-0.3101885
9	0xbec10c9b	-0.3770493
10	0xbed70fb0	-0.42004156
11	0xbe2242d2	-0.15845802
12	0x3cbbbae5	0.022916267
13	0x3d4e9397	0.05043372
14	0xbbc99fe1	-0.0061530923
15	0xbe4219d1	-0.1895516
16	0xbe431037	-0.19049154
17	0x3e0da741	0.13833334
18	0xbe4b1656	-0.19832739
19	0xbe4b18f4	-0.19833738
20	0xbe8f526c	-0.2799257
21	0x3ea4e1b8	0.3220346
22	0x3de718d2	0.11284031
23	0x3e4186a6	0.1889902
24	0x3d075209	0.03303722
25	0xbd951bd8	-0.072807014
26	0x3e2321b8	0.15930831
27	0x3e8fe165	0.2810165
28	0xbe858df5	-0.26084867
29	0xbc8e0c6e	-0.017339911
30	0x3e17bfe8	0.148193
31	0xbbce6520	-0.006298676
32	0x3e809b47	0.25118467
33	0xbeed94a0	-0.46402454
34	0x3aab9aa2	0.0013092349
35	0x3b6cb8a1	0.003612079
36	0xbe98af4b	-0.29821238
37	0xbe550eff	-0.20806502
38	0xbec2d47a	-0.38052732
39	0x3eabaa8a	0.33528548
40	0xbe0dd16a	-0.13849416
41	0xbe22a55f	-0.15883397
42	0xbeb58eb7	-0.35460445
43	0x3e77488b	0.24148767
44	0xbce6a928	-0.028156832
45	0x3d00097c	0.031259045
46	0xbed513c2	-0.41616637
47	0xbe4f056c	-0.20216912
48	0x3e9f5924	0.31122696
49	0xbecf25fb	-0.40458664
50	0x3e74e8f5	0.23916991
51	0xbd405918	-0.046959966
52	0xbd35d25f	-0.04439008
53	0xbd8a733e	-0.06760262
54	0xbe8b1bd3	-0.27169666
55	0xbf077970	-0.52919674
56	0xbc500ed2	-0.012698846
57	0x3e94b15c	0.29041564
58	0xbdad3839	-0.08457989
59	0xbe88a962	-0.2669173
60	0x3e4f3acb	0.20237271
61	0x3e9fc76a	0.31206828
62	0xbed7a5e6	-0.42118758
63	0x3b68d9a8	0.0035530124

actor.preprocess.model.model.2.weight f4 [64, 64]
0	0xbe3172f2	-0.17329004
1	0x3c3d1cd3	0.011542517
2	0x3e7e0940	0.24808216
3	0xbd5471eb	-0.051866453
4	0x3ede6753	0.43438205
5	0x3e626d92	0.2211211
6	0x3d80f051	0.06295837
7	0xbcf09fda	-0.029373098
8	0xbdd2dec6	-0.10296397
9	0x3e382f49	0.17986788
10	0xbec49dc3	-0.38401613
11	0x3e7d9c5e	0.2476668
12	0xbd5122c8	-0.05105856
13	0x3ec551c4	0.38538945
14	0xbccc693d	-0.024952525
15	0x3d86a1b0	0.06573808
16	0xbd8fc0e0	-0.0701921
17	0x3eef57ed	0.4674677
18	0xbdb13030	-0.08651769
19	0x3e904a82	0.28181845
20	0x3e1707e9	0.14749111
21	0xbe25d773	-0.16195469
22	0x3e666929	0.22501053
23	0xbd8d583b	-0.06901594
24	0xbd54271e	-0.051795118
25	0xbe6e3f4f	-0.23266338
26	0x3e71ed92	0.23625782
27	0xbd379855	-0.04482301
28	0x3ed1ec70	0.410007
29	0x3e945860	0.28973675
30	0x3f16bb3a	0.58879435
31	0xbd19295d	-0.037392963
32	0xbd39a2e3	-0.045321357
33	0xbefba5f6	-0.49150056
34	0x3ee0966d	0.43864766
35	0x3ddd5152	0.10806526
36	0x3ea4faa8	0.32222486
37	0x3ec466cc	0.38359678
38	0x3c1f025d	0.009705153
39	0x3de2a0f2	0.11065854
40	0xbcc6cdc3	-0.024268037
41	0x3d73dd96	0.059537493
42	0xbeb2e0a9	-0.34937027
43	0x39dfd887	0.000426952
44	0xbead9250	-0.3390069
45	0xbc842365	-0.016130159
46	0xbe7aca8f	-0.24491332
47	0x3e5e14ef	0.21687673
48	0xbe458fb8	-0.19293106
49	0x3e8abe22	0.27098185
50	0x3e643dc8	0.22289193
51	0x3da7a482	0.08185674
52	0xbeacee91	-0.33775762
53	0x3e4adfa3	0.19811873
54	0xbe1756bb	-0.14779179
55	0xbe7286df	-0.23684262
56	0x3e8714d3	0.26383075
57	0x3d2b13f0	0.04176706
58	0x3db829d7	0.08992355
59	0x3eb58dd0	0.35459757
60	0xbd8d7815	-0.069076695
61	0x3e88eceb	0.26743254
62	0xbeb85cde	-0.36008352
63	0xbdc9a053	-0.098450325
64	0x3ead4f9c	0.338498
65	0xbedee33d	-0.43532744
66	0xbbb23032	-0.0054378742
67	0x3e90535b	0.28188595
68	0x3ec776ed	0.3895792
69	0xbe9c11ae	-0.3048224
70	0xbe52676a	-0.20547262
71	0x3ed2a92b	0.4114469
72	0x3e39af31	0.18133236
73	0x3e953f90	0.29150057
74	0xbe2f79e3	-0.1713634
75	0x3e78eea3	0.24309783
76	0x3e8efefb	0.2792891
77	0xbe80362a	-0.25041324
78	0x3e2dbdd3	0.16966943
79	0x3e01b099	0.12665023
80	0x3c962980	0.018330336
81	0x3dd7991e	0.10527252
82	0x3e845285	0.25844207
83	0x3d85d3b9	0.065345235
84	0x3e7d7b0e	0.24753973
85	0x3d13e0a8	0.03610292
86	0x3cbd17a4	0.023082562
87	0x3d37e3dd	0.04489504
88	0x3e54b359	0.2077154
89	0x3e5b6a55	0.21427281
90	0x3d5c22c8	0.053744107
91	0xbe44bc63	-0.19212489
92	0xbd8ae34f	-0.06781637
93	0x3ef10264	0.47072136
94	0x3eacfcb0	0.33786535
95	0xbd9c5d0f	-0.07634937
96	0xbe31ba67	-0.17356263
97	0x3e3a0020	0.1816411
98	0xbecd62ec	-0.40114534
99	0xbd8772f8	-0.066137254
100	0x3ed52f17	0.4163749
101	0x3e133ebb	0.14379399
102	0x3dd65d51	0.104670174
103	0xbe7f369b	-0.24923174
104	0xbdb99e29	-0.0906337
105	0xbe94ee1c	-0.29087913
106	0xbdf5312f	-0.11972272
107	0xbd9d3fe5	-0.076782025
108	0xbe5026f0	-0.20327353
109	0x3ddada09	0.10686118
110	0xbd0b0f0c	-0.033949897
111	0xbe668976	-0.22513375
112	0xbe99a8d4	-0.30011618
113	0xbeafcc27	-0.34335443
114	0x3dd93948	0.10606629
115	0x3e41dda3	0.18932204
116	0xbec39bab	-0.38204703
117	0xbde8b844	-0.11363271
118	0xbecbd27b	-0.3980902
119	0x3e771d07	0.24132167
120	0x3cd184c6	0.025576007
121	0xbd8e890d	-0.06959734
122	0xbe29a8e1	-0.16568328
123	0x3ed64140	0.41846657
124	0x3d01ecbb	0.031719904
125	0x3e22b25c	0.15888351
126	0xbd845fb5	-0.06463567
127	0x3ed04bd3	0.4068285
128	0x3e893161	0.26795486
129	0x3ea9bfc4	0.33154118
130	0xbdb2919e	-0.087191805
131	0x3eb2b1b1	0.34901193
132	0xbeb1d736	-0.34734505
133	0xbbf2faae	-0.0074151373
134	0x3cb3ac1a	0.02193265
135	0xbe33cdc7	-0.17558967
136	0x3ef466ee	0.4773478
137	0x3e70206a	0.23449865
138	0xbcb8fde6	-0.022582006
139	0x3d2e0fdd	0.042495597
140	0xbe8635f5	-0.2621304
141	0x3e5a94bd	0.21345802
142	0x3f2688d0	0.6505251
143	0x3e327cec	0.17430466
144	0x3e8cc3a2	0.27493006
145	0x3c144979	0.00905072
146	0x3c331963	0.010931346
147	0xbcd7aba2	-0.026326958
148	0x3e6ea70c	0.23305911
149	0x3e1dcee8	0.1541096
150	0x3d020014	0.031738356
151	0xbe41d3c4	-0.18928438
152	0xbae70628	-0.0017625736
153	0x3e10c750	0.14138532
154	0xbd8efcc6	-0.069818065
155	0xbec28508	-0.3799212
156	0x3dc26d42	0.094934955
157	0x3d1263d5	0.03573974
158	0x3dee663c	0.116405934
159	0xbd8bd11c	-0.06826994
160	0xbcc49682	-0.023997549
161	0x3e1a63f7	0.15077196
162	0xbd9de5f4	-0.07709876
163	0x3eaebb74	0.3412739
164	0x3e87f39e	0.26553053
165	0x3e12f006	0.14349374
166	0xbb9707f7	-0.004609104
167	0xbda512b4	-0.08060208
168	0x3cf0b012	0.029380832
169	0xbe4de7ed	-0.20108004
170	0x3e14dd1a	0.14537469
171	0xbdf17928	-0.11790687
172	0x3c8f4237	0.017487628
173	0xbc6a8e8d	-0.014316213
174	0x3e60fa3d	0.21970458
175	0xbd005162	-0.031327613
176	0xbe014cc0	-0.12626934
177	0xbe1377d0	-0.14401174
178	0xbe31bc4c	-0.17356986
179	0x3d398668	0.045294195
180	0xbd87df32	-0.06634368
181	0x3f2b4214	0.668977
182	0x3e4a5e10	0.19762444
183	0x3e4e47db	0.20144598
184	0xbeca55ea	-0.39518672
185	0xbe3429a4	-0.1759401
186	0xbcba208b	-0.022720596
187	0x3e9ad7a7	0.30242655
188	0xbe3cae1d	-0.18425794
189	0xbdf857c6	-0.121261165
190	0x3e5368b9	0.20645417
191	0xbe0f961a	-0.14022103
192	0xbc0ee62e	-0.008721871
193	0xbe31c086	-0.17358598
194	0x3e4d6891	0.2005942
195	0xbeb70935	-0.35749212
196	0xbe6eae4d	-0.23308678
197	0xbd30abe9	-0.043132696
198	0x3f1084e5	0.5645278
199	0x3e067fcc	0.13134688
200	0x3e4142b9	0.18873109
201	0x3ef5bb77	0.47994587
202	0xbb42481d	-0.0029645034
203	0x3ebd5d0e	0.36985058
204	0xbc77cd91	-0.015124694
205	0x3b40e33d	0.002943232
206	0xbeba60c2	-0.36401945
207	0x3e00d5da	0.12581578
208	0x3edb39ba	0.4281748
209	0x3e36df54	0.1785863
210	0xbe4b996c	-0.19882745
211	0x3dfa6320	0.12225938
212	0xbcc878b6	-0.024471622
213	0xbd9fd7ea	-0.07804854
214	0xbf043d2d	-0.51655847
215	0xbebfb6ed	-0.3744425
216	0x3e356c4e	0.17717096
217	0x3e8abef5	0.27098814
218	0xbea226c4	-0.316702
219	0xbdc699f1	-0.09697331
220	0xbdf9093f	-0.12159967
221	0xbea7b964	-0.3275863
222	0xbe9d1349	-0.30678776
223	0x3d94cab8	0.07265228
224	0x3e13b0a2	0.14422849
225	0x3edc32e9	0.4300759
226	0xbd0a8499	-0.03381786
227	0x3ebe23c9	0.37136677
228	0x3da84f9c	0.08218309
229	0x3e039cf8	0.12852848
230	0xbe8f63ba	-0.28005773
231	0xbeb82a97	-0.35969993
232	0x3ceb0261	0.028687658
233	0x3d9f2b6b	0.07771953
234	0x3ecdb35c	0.40175903
235	0x3d8165e5	0.06318263
236	0xbe0b91a8	-0.13629782
237	0x3e08d0ea	0.13360944
238	0x3f102216	0.5630201
239	0x3e801cdc	0.25022018
240	0xbe5dc7d6	-0.21658263
241	0x3ecc73e2	0.39932162
242	0xbef164d4	-0.47147238
243	0xbee3437a	-0.44387418
244	0xbd339a28	-0.043848187
245	0x3d35cfa6	0.044387482
246	0x3eba91f6	0.36439484
247	0x3ed30d89	0.41221264
248	0xbec71aff	-0.38887784
249	0xbde4a1f4	-0.111637026
250	0x3c180e6a	0.00928078
251	0xbce52557	-0.027971907
252	0xbe0935c2	-0.13399413
253	0xbe15a9dd	-0.14615579
254	0xbd1e922d	-0.038713623
255	0xbe85f330	-0.261621

actor.preprocess.model.model.2.bias f4 [64]
0	0x3e1a5b3f	0.1507387
1	0xbe1dd096	-0.154116
2	0xbed006b8	-0.40630126
3	0xbf153bf1	-0.5829459
4	0xbe5fc188	-0.2185117
5	0x3e99f50c	0.30069768
6	0xbe025664	-0.12728268
7	0xbdc23776	-0.094832346
8	0xbe972027	-0.29516718
9	0x3e66db3e	0.22544572
10	0xbe8909ab	-0.2676519
11	0xbe5d1507	-0.21590053
12	0x3defac4d	0.11702786
13	0xbe9f64a0	-0.31131458
14	0x3d85622e	0.06512867
15	0x3ccef55d	0.025263483
16	0x3e7d7ba1	0.24754192
17	0x3e0b4d6e	0.13603756
18	0x3ea1fca8	0.31638074
19	0x3e711a4e	0.2354519
20	0xbc2f269a	-0.010690356
21	0x3e1ddf67	0.15417252
22	0xbcfa8d4e	-0.030584957
23	0x3e875abe	0.26436418
24	0x3da9f3b2	0.08298434
25	0xbda966d2	-0.082715645
26	0xbda9d1bd	-0.082919575
27	0x3e98a4d9	0.2981327
28	0xbe903e7a	-0.28172666
29	0xbe556cb7	-0.20842253
30	0xbe46e11d	-0.19421811
31	0x3e2c144e	0.1680462
32	0x3dd76b73	0.10518541
33	0xbe181ff9	-0.14855947
34	0xbd8bcf96	-0.06826703
35	0xbacf3e3a	-0.0015811392
36	0xbe94ad7e	-0.29038614
37	0xbe3e2ca1	-0.18571712
38	0xbe7ed793	-0.24886923
39	0xbe9e3e69	-0.3090699
40	0xbe4c71bd	-0.19965263
41	0x3e0be4cf	0.13661502
42	0x3d70e113	0.058808398
43	0xbedd316e	-0.43201774
44	0x3e198f90	0.14996171
45	0x3caeb71e	0.021327551
46	0x3cec0623	0.02881152
47	0xbd93e702	-0.072217956
48	0xbe0f1691	-0.13973452
49	0x3df3346a	0.118752316
50	0xbea0f20d	-0.3143467
51	0x3dc06363	0.093939565
52	0x3d09a8b9	0.033608172
53	0x3ec0e628	0.37675595
54	0x3e7a20bf	0.24426554
55	0x3ec760f9	0.38941172
56	0x3dca0527	0.09864264
57	0xbda37fb3	-0.07983341
58	0x3e95d76a	0.2926591
59	0x3e5c4bf6	0.21513352
60	0x3d2d0b37	0.042247023
61	0xbd2a0e99	-0.041517828
62	0xbd94d3ee	-0.07266985
63	0xbe508038	-0.20361412

actor.mu.model.0.weight f4 [6, 64]
0	0x3db3194b	0.087450586
1	0x3e07142e	0.13191292
2	0xbe17fd6a	-0.14842764
3	0xbe0d9949	-0.13828005
4	0xbdf3c6d5	-0.119031586
5	0x3e6136a5	0.21993501
6	0x3e4104b7	0.18849455
7	0x3b5778da	0.003287843
8	0xbe075698	-0.13216627
9	0x3e11e53d	0.14247604
10	0xbd249a1a	-0.040186025
11	0xbe2755ec	-0.1634137
12	0x3df3b22b	0.11899217
13	0xbc0eb367	-0.008709765
14	0x3d8b114c	0.067904085
15	0x3dc7f74f	0.09763967
16	0x3e8f5574	0.27994883
17	0xbc418002	-0.011810305
18	0x3dba926c	0.09109959
19	0xbb58d9c3	-0.003308878
20	0x3dfd6d09	0.123743124
21	0xbd0d328d	-0.034472037
22	0x3d0e2070	0.034698904
23	0xbe7d0819	-0.2471012
24	0x3c8e855c	0.017397575
25	0xbce00141	-0.027344348
26	0x3ce401a0	0.027832806
27	0x3d2124d4	0.039341763
28	0xbd8d59bc	-0.06901881
29	0xbda76243	-0.08173039
30	0xbe229f35	-0.15881045
31	0x3e5e0787	0.21682559
32	0xbc3de4bd	-0.01159018
33	0xbdb711fb	-0.089389764
34	0xbdfc9693	-0.12333407
35	0xbd8e2871	-0.06941307
36	0xbdf030ef	-0.11728083
37	0xbd567863	-0.052360903
38	0xbdbb0eba	-0.09133668
39	0x3c477037	0.01217275
40	0xbc41766d	-0.01180802
41	0x3d028dc4	0.03187348
42	0xbc04e813	-0.008111971
43	0xbe1956ef	-0.14974569
44	0xbd730f07	-0.059340503
45	0x3d8e455e	0.069468245
46	0x3d097ea5	0.033568043
47	0xbb818399	-0.0039524552
48	0x3dcd8f6a	0.1003712
49	0x3dc74921	0.09730745
50	0x3c2d87db	0.0105914725
51	0xbc891ffa	-0.01673888
52	0x3e66fdd7	0.2255777
53	0xbcb127d3	-0.021625435
54	0x3e5fc87b	0.21853821
55	0x3d871e71	0.06597603
56	0x3da49399	0.080359645
57	0xbe047dcf	-0.12938617
58	0x3df4ed92	0.119593754
59	0xbd0e7815	-0.034782488
60	0x3df2eba0	0.11861348
61	0xbdd1ea00	-0.1024971
62	0xbaf5f899	-0.0018766104
63	0x3cd878da	0.026424814
64	0xbe240792	-0.16018513
65	0x3df6d11f	0.120516054
66	0x3d8a37ee	0.06748949
67	0x3dad1c57	0.08452671
68	0x3d9aaf45	0.07552961
69	0x3db3e72a	0.087843254
70	0x3e46130a	0.193432
71	0x3dd4a65a	0.103832915
72	0x3d5dca91	0.05414826
73	0x3dba5696	0.09098546
74	0xbce0b8ed	-0.02743193
75	0xbd68278c	-0.05667834
76	0x3ca37273	0.019952035
77	0x3e208171	0.15674378
78	0x3dab506c	0.08364949
79	0x3bd519d7	0.0065033245
80	0x3db3d13c	0.08780143
81	0xbd2c11d0	-0.042009175
82	0xbd7acf1d	-0.061232675
83	0x3d293c44	0.04131724
84	0x3bf99d9a	0.0076176645
85	0x3dfdfa7c	0.12401292
86	0xbc44e3ec	-0.012017231
87	0xbd415102	-0.047196396
88	0x3cbd3be1	0.023099842
89	0xbc021190	-0.007938758
90	0xbe073e66	-0.13207397
91	0xbc59e272	-0.013298618
92	0xbccfbe1b	-0.025359204
93	0xbea30cc8	-0.3184569
94	0x3c97703c	0.018486135
95	0xbd9f329d	-0.077733256
96	0x3d980ecf	0.074246995
97	0xbe46ee45	-0.1942683
98	0x3bd35b40	0.006450087
99	0x3dbb29a5	0.091388024
100	0x3e391900	0.18075943
101	0x3df5d983	0.12004378
102	0x3e287e7b	0.16454498
103	0x3ce281fd	0.027649874
104	0xbe1bda7c	-0.15220064
105	0xbe65783f	-0.22409151
106	0xbd6ae78f	-0.057349738
107	0xbe60f33d	-0.21967788
108	0x3d0dfcc7	0.034664895
109	0xbdbcb975	-0.092150606
110	0xbe118ac9	-0.14213099
111	0xbdc33817	-0.09532183
112	0xbceb26c8	-0.028705016
113	0x3d5bb59c	0.053639993
114	0xbd325c19	-0.043544862
115	0x3d8c0b12	0.06838049
116	0x3d219d34	0.03945656
117	0xbe7366c7	-0.23769675
118	0x3d911f4b	0.07086047
119	0x3e538409	0.20655836
120	0xbdf737b3	-0.12071171
121	0xbde00d0d	-0.10939989
122	0x3e0d316e	0.13788387
123	0x3df536a0	0.119733095
124	0xbe535738	-0.2063874
125	0xbe17fe99	-0.14843215
126	0x3dd5fe62	0.1044891
127	0x3ea427e2	0.32061678
128	0x3d36c33f	0.044619795
129	0x3d62653b	0.055272322
130	0xbd6e3228	-0.0581533
131	0x3e9835b0	0.2972846
132	0xbcb668fc	-0.022266857
133	0x3d6ef6ba	0.058340766
134	0xbe0ce72c	-0.1376006
135	0x3ccf7895	0.025326053
136	0xbd07cf21	-0.033156518
137	0xbcfe1c4c	-0.031019352
138	0xbe0b1802	-0.13583377
139	0x3dcf1954	0.10112253
140	0x3e82139d	0.2540559
141	0x3e5b51b6	0.21417889
142	0xbd27d319	-0.040972803
143	0xbe09bee2	-0.13451722
144	0x3dcb89dc	0.09938404
145	0x3d4c83fa	0.04993055
146	0xbdea92af	-0.11453759
147	0x3e314e4e	0.17315027
148	0x3e03fa04	0.12888342
149	0x3d2180cd	0.039429475
150	0x3d344857	0.0440143
151	0xbdc23a54	-0.094837815
152	0xbe2d5e1a	-0.16930428
153	0x3d2d48cb	0.04230575
154	0x3d5c61ef	0.053804334
155	0xbcc923c6	-0.02455319
156	0x3dc849df	0.09779715
157	0x3dcd9493	0.10038104
158	0x3e2244a4	0.15846497
159	0x3d76459e	0.060124986
160	0x3cd08367	0.025453283
161	0x3dbea98b	0.093096815
162	0x3d8dafab	0.06918272
163	0xbded4c3a	-0.11586805
164	0x3dbd77ba	0.09251352
165	0x3db37ba4	0.08763817
166	0xbd68b4bd	-0.05681299
167	0x3b34c780	0.0027584732
168	0xbde12a2f	-0.10994374
169	0xbcdf1ba1	-0.027234854
170	0xbdc4b28c	-0.096043676
171	0xbd9cac31	-0.076500304
172	0xbe93da94	-0.288777
173	0xbdbe1c6c	-0.09282765
174	0xbe15004e	-0.14550897
175	0x3c915e0e	0.017745044
176	0xbe95c861	-0.2925444
177	0xbd42c61d	-0.047552217
178	0xbd89aec0	-0.06722784
179	0x3e367e1d	0.17821546
180	0xbd8120d6	-0.06305091
181	0x3da42e45	0.08016638
182	0x3da587ed	0.080825664
183	0xbc2e5e2b	-0.010642569
184	0xbea5bbcd	-0.32369843
185	0xbd395263	-0.045244586
186	0xbb2da49c	-0.002649582
187	0xbe27582a	-0.16342226
188	0xbe3dd49e	-0.18538138
189	0x3cc17a5c	0.023617916
190	0x3cf0a684	0.029376276
191	0x3df84ad0	0.12123644
192	0xbde961e6	-0.11395626
193	0x3c10b348	0.0088318065
194	0xbda5cd94	-0.080958515
195	0x3dae35d7	0.08506363
196	0x3d986a7f	0.074421875
197	0x3bf91030	0.0076008067
198	0xbe7bdbc1	-0.24595548
199	0xbc5aabdb	-0.013346638
200	0x3d0d9d70	0.034573972
201	0xbdb11bea	-0.08647902
202	0xbd3a258c	-0.045445964
203	0xbe0c99a7	-0.13730489
204	0xbe28cae2	-0.16483644
205	0x3e26ffc2	0.16308501
206	0xbe4f9bbd	-0.20274253
207	0x3dfafbd7	0.12255066
208	0xbe497214	-0.19672424
209	0x3c72481c	0.0147877
210	0xbd447d99	-0.04797134
211	0x3e38c3c1	0.18043424
212	0xbd3fb033	-0.046798896
213	0xbc8a8f3f	-0.016914008
214	0x3dca78b7	0.09886306
215	0x3eb65cfb	0.35617813
216	0xbe5d15a1	-0.21590282
217	0x3deacb1f	0.114645235
218	0x3d9fc6dc	0.07801601
219	0xbca1029c	-0.019654565
220	0x3da9fad2	0.08299793
221	0x3ead5910	0.33857012
222	0x3d93c171	0.072146304
223	0x3d2ca03f	0.04214501
224	0x3dc240ed	0.0948504
225	0x3d563d0b	0.05230431
226	0x3d6dff56	0.058104835
227	0xbddac77b	-0.10682579
228	0xbcac279a	-0.021014977
229	0xbc9f558d	-0.019449973
230	0x3d99aef6	0.07504074
231	0x3bd6d9ee	0.006556741
232	0xbdb4f6c9	-0.08836133
233	0xbdf3c8dd	-0.11903546
234	0xbbb68f55	-0.0055712857
235	0xbdb7a3ab	-0.08966764
236	0x3dd60a6e	0.10451208
237	0x3db85074	0.0899972
238	0x3dcc3d6c	0.09972653
239	0xbdb373b4	-0.08762303
240	0x3e3c9ce8	0.1841923
241	0x3deef0a7	0.116669945
242	0xbe659a81	-0.2242222
243	0x3c791192	0.015201943
244	0x3dd1016c	0.10205349
245	0xbb664238	-0.0035134684
246	0xbd7dee9c	-0.061995134
247	0x3b1da123	0.0024052344
248	0xbdafe3df	-0.08588385
249	0x3d951050	0.07278502
250	0x3c37f289	0.0112272585
251	0xbcf90ae7	-0.030400706
252	0x3e0c4989	0.13699926
253	0x3e0ce132	0.1375778
254	0xbda43518	-0.08017939
255	0x3e0948a8	0.13406622

actor.mu.model.0.bias f4 [6]
0	0x3e5dbd95	0.21654351
1	0x3dd84486	0.10559945
2	0xbcc6ade7	-0.024252845
3	0x3da61869	0.081101246
4	0x3e3339ff	0.17502593
5	0xbde7c146	-0.11316161

critic.preprocess.model.model.0.weight f4 [64, 17]
0	0xbd0a5ac1	-0.033777956
1	0xbf2d228d	-0.67630845
2	0x3d0f6242	0.035005815
3	0x3e218210	0.15772271
4	0xbe1e9bf5	-0.1548918
5	0x3ef4e273	0.47829017
6	0x3c9d9129	0.019234257
7	0xbdddbeba	-0.10827394
8	0xbe97a04c	-0.29614484
9	0xbdadf75e	-0.08494447
10	0x3cae862a	0.021304209
11	0xbd0c4922	-0.034249432
12	0xbc251e9f	-0.010078101
13	0xbbb50a37	-0.0055248993
14	0x3dee8f7a	0.1164846
15	0x3d3e919e	0.04652559
16	0x3d63fd4f	0.055661496
17	0x3e600ceb	0.21879928
18	0xbef164bb	-0.47147164
19	0x3c203f13	0.009780663
20	0x3ec7078b	0.38872942
21	0x3e20104d	0.15631218
22	0x3dbda239	0.09259457
23	0xbe940b97	-0.28915092
24	0xbf485089	-0.78247887
25	0xbf057342	-0.52128994
26	0xbe90e994	-0.28303206
27	0x3e278ad7	0.16361557
28	0xbe1b3d24	-0.15160042
29	0xbe167b83	-0.14695553
30	0xbbb345ff	-0.0054709907
31	0x3e36bc8e	0.17845365
32	0xbd266f7a	-0.040633656
33	0x3e3aa382	0.18226436
34	0x3f0242d2	0.5088321
35	0x3d50fd9d	0.051023114
36	0x3d5e3229	0.054247055
37	0xbe9fdbbc	-0.31222332
38	0xbe17fb92	-0.1484206
39	0x3e0ddc14	0.13853484
40	0x3afb40e0	0.0019169115
41	0x3e43f648	0.19136918
42	0xbd7d0ddb	-0.06178079
43	0x3d729760	0.059226394
44	0xbe97af56	-0.29625958
45	0x3d893b01	0.06700707
46	0xbe572980	-0.21011925
47	0x3ca844ae	0.020540562
48	0x3e27be04	0.16381079
49	0x3d72cf34	0.059279636
50	0x3cdb75db	0.026789596
51	0x3f037d1d	0.5136278
52	0xbe6474c1	-0.22310163
53	0x3c5e6950	0.013574913
54	0x3d269f18	0.040679067
55	0xbdc8bdc5	-0.09801821
56	0xbf0822bc	-0.53178
57	0x3e0db23b	0.13837521
58	0xbda60b86	-0.08107667
59	0x3ea44a2e	0.32087845
60	0x3ece6fc7	0.40319654
61	0x3e80143e	0.25015444
62	0xbe6fd622	-0.23421529
63	0xbc7f99e0	-0.0156006515
64	0xbd1031a0	-0.035203576
65	0x3e89cb71	0.26913026
66	0x3d5eb31e	0.05437004
67	0xbe38dca5	-0.18052919
68	0x3e51f7ac	0.20504636
69	0xbec9a5cb	-0.39384302
70	0xbdba4b7f	-0.09096431
71	0xbdade52e	-0.08490978
72	0x3e61381b	0.21994059
73	0xbdafeb78	-0.08589834
74	0xbd823bb6	-0.06359045
75	0x3cf72e33	0.030173397
76	0xbe83ef42	-0.25768477
77	0x3f204caf	0.6261701
78	0xbe1685ce	-0.1469948
79	0x39845338	0.00025239005
80	0x3e40fda5	0.18846758
81	0x3e01474b	0.12624852
82	0x3d74295d	0.05960976
83	0x3d2e2346	0.042514108
84	0xbd4bcffd	-0.0497589
85	0x3dc38985	0.09547714
86	0xbec7131b	-0.38881764
87	0x3e8e864c	0.27836835
88	0x3eefc052	0.46826416
89	0x3e9dd82b	0.30828986
90	0x3de86ca4	0.113488466
91	0x3d7e5665	0.06209411
92	0x3e26889e	0.16263053
93	0xbf57b132	-0.84254754
94	0x3ec0799f	0.3759279
95	0x3e426144	0.18982416
96	0x3cf41174	0.029793479
97	0x3bb295ca	0.005449985
98	0x3ad1b9eb	0.0016000842
99	0xbe880380	-0.2656517
100	0xbcc5e930	-0.024159044
101	0x3c0b68af	0.008508845
102	0x3e115454	0.14192325
103	0xbea28bc8	-0.3174727
104	0xbd32a298	-0.043612093
105	0x3dcc4979	0.09974951
106	0xbd2824e6	-0.041050814
107	0xbe6ee304	-0.23328787
108	0x3d33289f	0.04373991
109	0x3c0f28bb	0.008737738
110	0xbea9d69a	-0.3317154
111	0x3f4f0e4c	0.8088119
112	0x3e54c51c	0.20778316
113	0xbe32fa6a	-0.17478338
114	0x3e5112be	0.20417306
115	0xbd37fdeb	-0.04491989
116	0x3dbdcffb	0.09268185
117	0xbc9b9488	-0.018991724
118	0x3d114f86	0.03547623
119	0x3e3e0805	0.18557747
120	0xbee99cd9	-0.45627478
121	0xbc841ce9	-0.016127067
122	0x3e6f25cc	0.23354262
123	0xbdf69d6a	-0.12041743
124	0xbcf40ba3	-0.029790705
125	0x3d99b262	0.07504727
126	0x3d5e0086	0.054199718
127	0xbec9f2eb	-0.39443144
128	0xbe584987	-0.21121798
129	0x3eeadcd6	0.4587161
130	0x3ccfcb16	0.025365394
131	0xbdd083ce	-0.1018139
132	0xbb79523d	-0.0038043403
133	0xbee80260	-0.45314312
134	0xbe4a87e3	-0.19778399
135	0xbdb88bc0	-0.0901103
136	0x3f3a0dde	0.7267741
137	0xbef1f467	-0.47256777
138	0x3d4fbfd2	0.050720043
139	0x3e8eb302	0.27870947
140	0xbd8b67fb	-0.06806942
141	0x3e8e00d7	0.27735016
142	0xbd1b0312	-0.037844725
143	0x3eeb17df	0.4591665
144	0x3f0ada0b	0.5423896
145	0x3e8f531b	0.27993092
146	0xbc7425aa	-0.014901558
147	0x3d8b1a70	0.06792152
148	0x3ec2482a	0.37945682
149	0xbc87997d	-0.016552681
150	0xbe9331d6	-0.2874896
151	0xbd86b7cd	-0.06578026
152	0x3b659604	0.0035032043
153	0x3f0f5300	0.5598602
154	0xbe10e36d	-0.14149256
155	0xbce30991	-0.027714523
156	0x3e2139bc	0.1574468
157	0xbda96e06	-0.082729384
158	0xbd0c4cd0	-0.03425294
159	0xbcddc698	-0.027072236
160	0xbd67cfac	-0.056594536
161	0x3c3d3fbb	0.011550839
162	0x3c9ad2f0	0.018899411
163	0x3de81aeb	0.11333259
164	0x3da95eb5	0.08270017
165	0xbb955827	-0.0045576277
166	0x3c7add64	0.015311573
167	0xbe14f194	-0.1454528
168	0xbd10e5dc	-0.03537546
169	0xbbe20dc9	-0.006898616
170	0xbf12f788	-0.5740895
171	0x3d36ad0e	0.04459863
172	0x3d0866cc	0.03330116
173	0xbdb3e31c	-0.08783552
174	0xbe8f7d8c	-0.28025472
175	0xbf0c6a89	-0.5485006
176	0xbe79661f	-0.24355362
177	0xbf48c589	-0.78426415
178	0x3f0df00f	0.55444425
179	0xbe102147	-0.14075194
180	0xbe433967	-0.19064866
181	0x3d9b2690	0.075757146
182	0xbc95e1e7	-0.018296195
183	0xbce80d57	-0.028326673
184	0xbed3b3b6	-0.41348046
185	0xbe0abab0	-0.13547778
186	0xbd57daf0	-0.05269903
187	0xbd7f8bd9	-0.06238923
188	0x3ecda15c	0.4016217
189	0xbb4b0806	-0.0030980124
190	0xbef133b6	-0.47109765
191	0xbe811cab	-0.25217184
192	0x3cb339aa	0.021878082
193	0xbe4fb4cf	-0.20283817
194	0xbd63a232	-0.055574603
195	0x3ddfad1b	0.10921689
196	0x3da2099f	0.07911991
197	0x3f21cb63	0.6320097
198	0x3e30dcbd	0.17271705
199	0xbe6cb220	-0.23114824
200	0xbd3927ac	-0.04520385
201	0xbf71cc22	-0.94452107
202	0xbe5ada17	-0.21372257
203	0xbe8a5f6e	-0.27025932
204	0xbe473ec4	-0.19457537
205	0xbf2b0a40	-0.66812515
206	0x3d9d99c4	0.07695344
207	0x3ef38c71	0.47568086
208	0x3eb81e2d	0.35960522
209	0x3e833f5d	0.2563428
210	0x3e0335cd	0.12813492
211	0x3e6e2ae5	0.2325855
212	0xbf3c869c	-0.736429
213	0x3e69281f	0.22769211
214	0x3e2868b5	0.16446193
215	0x3e092121	0.13391544
216	0x3e29241e	0.16517684
217	0xbc2283ed	-0.009919149
218	0xbeed5d73	-0.4636036
219	0xbdb319d0	-0.08745158
220	0xbe4fc779	-0.20290937
221	0x3e01886c	0.12649697
222	0xbef93c24	-0.48678696
223	0x3dcb7f0e	0.09936343
224	0x3e7d9de2	0.24767259
225	0xbe4b95e1	-0.19881393
226	0x3e5afe7f	0.21386145
227	0x3dff5947	0.124682
228	0x3e1bba45	0.15207775
229	0xbf403069	-0.7507387
230	0xbe94f10d	-0.29090157
231	0x3e27c5ff	0.16384123
232	0x3c697157	0.014248214
233	0xbe304f30	-0.17217708
234	0xbb67ed7d	-0.0035389357
235	0x3d817def	0.06322848
236	0x3d6d1cea	0.057888903
237	0xbd61af5f	-0.055098888
238	0xbabc9953	-0.0014388956
239	0x3ec107a8	0.37701154
240	0x3d849a5d	0.06474755
241	0x3e83b6a0	0.2572527
242	0xbd3160f5	-0.043305356
243	0xbf093c3f	-0.53607553
244	0xbe8ea1a7	-0.27857706
245	0x3ab13615	0.0013520146
246	0x3f0805f8	0.5313411
247	0x3e1d9f5b	0.1539282
248	0x3e40eb4e	0.18839762
249	0xbd25845f	-0.040409442
250	0xbd04e59e	-0.032445543
251	0x3cc33519	0.02382903
252	0xbe9b4515	-0.30326143
253	0xbca7e5c1	-0.020495297
254	0xbda2708d	-0.079316236
255	0xbe9c89b2	-0.30573803

critic.preprocess.model.model.0.bias f4 [64]
0	0xbdbd84a6	-0.09253816
1	0xbe126118	-0.14294851
2	0xbf71302e	-0.9421414
3	0x3f6c5f44	0.92332864
4	0xbe2e9c94	-0.17051917
5	0x3e1fe247	0.15613662
6	0x3e971906	0.2951128
7	0xbeabf355	-0.33584085
8	0x3f4dc796	0.8038267
9	0x3f2c677b	0.673454
10	0xbf06e9e9	-0.5270067
11	0x3e05421c	0.130135
12	0x3e32447b	0.17408936
13	0x3f4e9ed5	0.8071111
14	0xbf48149e	-0.7815646
15	0xbf0c4707	-0.5479588
16	0x3f8743c9	1.0567561
17	0x3fa438f0	1.2829876
18	0x3f1ca714	0.6119244
19	0x3ee1dfb5	0.44115987
20	0x3e2c9310	0.16852975
21	0x3f1d992c	0.61561847
22	0x3ddd6951	0.10811103
23	0x3ee0db46	0.43917292
24	0x3e11186f	0.14169477
25	0x3ebd7986	0.37006778
26	0xbedff93b	-0.43744835
27	0x3f8202a1	1.0157052
28	0x3e75f32e	0.24018547
29	0xbdf0db5a	-0.11760588
30	0xbd228725	-0.039679665
31	0x3ee63697	0.44963524
32	0x3ea00465	0.31253353
33	0x3e44b248	0.19208634
34	0xbec3869f	-0.38188645
35	0xbeab468b	-0.33452258
36	0x3ec9aa0a	0.39387542
37	0xbf69b0d8	-0.9128547
38	0x3ed89b33	0.42305908
39	0x3ea5aa48	0.32356477
40	0x3de23c5c	0.11046669
41	0xbf8c39e0	-1.0955162
42	0xbe7e2e07	-0.24822246
43	0xbed0b893	-0.4076582
44	0x3eef0741	0.46685222
45	0x3f22ebd9	0.63641125
46	0x3e7572d2	0.23969582
47	0x3f27e54c	0.65584254
48	0xbe61dbd0	-0.22056508
49	0xbf168339	-0.5879398
50	0xbe4edf84	-0.20202452
51	0x3f01bc55	0.50677997
52	0x3deed808	0.116622984
53	0x3f0db1ea	0.553496
54	0x3ebb581c	0.3659066
55	0x3ba23833	0.004950547
56	0x3e9b8405	0.3037416
57	0x3f459f26	0.77195966
58	0x3f447537	0.76741356
59	0x3ecbf2aa	0.39833575
60	0x3e5b84ee	0.21437427
61	0xbf132165	-0.5747283
62	0x3e986c1f	0.2976999
63	0xbcc72255	-0.024308363

critic.preprocess.model.model.2.weight f4 [64, 64]
0	0x3d9e18c9	0.07719571
1	0x3eb8bb30	0.36080313
2	0x3e9d91c6	0.3077528
3	0xbe2cea08	-0.16886151
4	0x3d8fad2b	0.07015451
5	0xbe083c16	-0.13304171
6	0x3e03be17	0.12865482
7	0x3e8ae227	0.27125666
8	0xbe549b88	-0.20762455
9	0x3ea38024	0.319337
10	0x3d6ee5f2	0.05832476
11	0xbe291100	-0.16510391
12	0xbef2bb29	-0.47408417
13	0xbe93be19	-0.2885597
14	0x3ef11d01	0.4709244
15	0x3d9f1c8b	0.07769116
16	0x3cd58257	0.026063127
17	0xbe94618e	-0.28980678
18	0x3e0872e0	0.13325071
19	0xbd848ad6	-0.06471793
20	0x3deb233f	0.11481332
21	0xbecd1381	-0.40053943
22	0xbe111540	-0.14168262
23	0xbccf5236	-0.025307756
24	0x3d356e78	0.044294804
25	0x3bea4946	0.007149848
26	0xbd42942b	-0.047504585
27	0xbe8df9bc	-0.27729595
28	0xbf02ec93	-0.51142234
29	0xbea4c718	-0.32183146
30	0x3e71cd77	0.23613535
31	0x3df73ab2	0.12071742
32	0x3e68d35d	0.22736879
33	0x3e066ae7	0.13126718
34	0x3dcc8695	0.09986607
35	0x3e567d25	0.20946176
36	0xbe8e6ebf	-0.27818868
37	0xbdabd975	-0.08391086
38	0xbd5437cb	-0.05181102
39	0x3e3dc62e	0.18532631
40	0xbe0da46b	-0.13832252
41	0x3ee01577	0.43766376
42	0x3ee6df0c	0.45092046
43	0x3e6131a9	0.219916
44	0xbebbfec2	-0.36717802
45	0xbdb5d9b1	-0.08879412
46	0xbe914c28	-0.28378415
47	0x3d11940f	0.03554159
48	0x3e834943	0.25641832
49	0x3ebb3b4b	0.36568674
50	0x3e5760aa	0.21032968
51	0xbf2a0b7f	-0.6642379
52	0x3d991617	0.074749164
53	0x3e8cc481	0.2749367
54	0xbe66f412	-0.22554043
55	0xbe9d1121	-0.3067713
56	0x3ddd98a9	0.10820133
57	0x3e9065e2	0.2820273
58	0xbdadc837	-0.084854536
59	0xbe7f4b31	-0.24931027
60	0xbd295ce8	-0.041348368
61	0x3f03be15	0.5146192
62	0x3cd8d959	0.026470827
63	0xbe95bfc7	-0.29247877
64	0xbe638ed7	-0.22222458
65	0xbe140663	-0.14455561
66	0x3d3cb07e	0.046066754
67	0xbd836ccd	-0.064172365
68	0x3dafa51a	0.085764125
69	0xbea3d004	-0.3199464
70	0xbd104160	-0.035218596
71	0xbd937bfd	-0.07201383
72	0x3e9e70ad	0.3094534
73	0xbe88e715	-0.26738802
74	0x3ecdac50	0.40170527
75	0x3e349b34	0.1763733
76	0xbee66eb3	-0.45006332
77	0xbf1bdcb9	-0.6088367
78	0x3e9b02f8	0.30275702
79	0xbd25faa4	-0.040522233
80	0xbec5075b	-0.38482174
81	0xbe590792	-0.21194294
82	0xbcb9f54c	-0.022699974
83	0x3dd3679a	0.10322495
84	0xbdc612db	-0.09671565
85	0xbe72b309	-0.23701109
86	0x3deead35	0.1165413
87	0x3d6100d5	0.054932434
88	0x3dd714e7	0.10502034
89	0xbed056db	-0.40691265
90	0xbe5c0eba	-0.21489993
91	0xbd34865c	-0.044073448
92	0xbe0e6270	-0.13904738
93	0x3db53a42	0.088490024
94	0x3e43e7d1	0.191314
95	0xbec8dba0	-0.3923006
96	0x3df89955	0.12138621
97	0xbd9f5b1c	-0.077810496
98	0x3ed34d41	0.41269878
99	0x3e5b7f8f	0.21435378
100	0x3db6c8b2	0.08924998
101	0xbdcf9bef	-0.10137164
102	0xbe855893	-0.2604414
103	0xbe8e0a2f	-0.27742144
104	0x3ccacecf	0.024756817
105	0x3d4e561a	0.05037508
106	0x3de2152a	0.11039193
107	0x3e6a9e35	0.22911914
108	0xbc787b80	-0.015166163
109	0x3ecc720a	0.39930755
110	0xbe9edb6a	-0.31026775
111	0xbee5f4c5	-0.44913307
112	0x3e3c37c9	0.18380655
113	0x3ed56b6e	0.41683525
114	0x3e9fbfdd	0.31201068
115	0xbee5c883	-0.4487954
116	0x3efbb883	0.4916421
117	0xbf8fa685	-1.1222693
118	0xbf2737c4	-0.65319467
119	0x3eb1c274	0.34718668
120	0xbea35133	-0.31897888
121	0xbf2fd601	-0.6868592
122	0x3e4025fb	0.18764488
123	0xbf181430	-0.59405804
124	0x3df5dba8	0.12004787
125	0x3eb5176d	0.35369435
126	0xbe569871	-0.2095659
127	0x3dd3b729	0.103376694
128	0x3d66d604	0.056356445
129	0x3ebddf6f	0.3708453
130	0xbe27ab40	-0.1637392
131	0xbec2b350	-0.3802743
132	0x3e994633	0.2993637
133	0x3de580f2	0.11206235
134	0x3d8a76dc	0.06760952
135	0xbd03483f	-0.03205132
136	0xbb871023	-0.0041217967
137	0x3e5f2090	0.21789765
138	0xbe1f7486	-0.15571794
139	0xbd27f71e	-0.041007154
140	0xbe87cef4	-0.2652508
141	0xbe5cd2f1	-0.21564843
142	0xbdfd92d9	-0.123815246
143	0xbaddd972	-0.0016925766
144	0x3ea31510	0.31852007
145	0xbe6c6f19	-0.23089255
146	0x3ee56999	0.44807127
147	0x3d108abf	0.03528857
148	0xbdbc3116	-0.0918905
149	0xbd3ff28f	-0.04686218
150	0xbd910bca	-0.07082327
151	0x3ba30357	0.0049747634
152	0xbe0a10cd	-0.13482971
153	0xbdc695f4	-0.0969657
154	0xbd9b09e1	-0.075702436
155	0xbe3d5e80	-0.1849308
156	0xbeb77405	-0.35830703
157	0xbded2b50	-0.11580527
158	0xbebbe18d	-0.3669552
159	0xbeb928a2	-0.36163813
160	0x3e63c2b9	0.2224225
161	0x3e067d2c	0.13133687
162	0x3dc912d3	0.098180436
163	0xbc8a9ace	-0.01691952
164	0xbe7ec74c	-0.24880713
165	0x3ef1d75a	0.47234613
166	0xbd3aeec5	-0.045637865
167	0x3e6ed54d	0.23323555
168	0x3bee6bb0	0.007276021
169	0x3db579db	0.08861133
170	0x3ebcd670	0.36882353
171	0xbbb55559	-0.005533856
172	0x3e5f990e	0.2183573
173	0xbe3dcf96	-0.18536219
174	0xbd45db01	-0.04830456
175	0x3e703f05	0.2346154
176	0x3e805a6f	0.25068995
177	0x3e794f45	0.24346645
178	0x3d0e1492	0.034687586
179	0xbeaaa418	-0.3332832
180	0x3f0214a8	0.5081277
181	0xbe982125	-0.29712787
182	0x3e85588c	0.26044118
183	0xbeaf6c6d	-0.3426241
184	0xbe01811d	-0.12646909
185	0x3e822246	0.25416774
186	0xbe578030	-0.21044993
187	0xbdadfbaa	-0.08495267
188	0xbcee2db5	-0.02907453
189	0x3e909f77	0.28246662
190	0xbe0b33a3	-0.13593917
191	0xbe21d11c	-0.15802425
192	0x3ebd73e0	0.37002468
193	0x3e97dc32	0.29660183
194	0x3ae4c766	0.0017454445
195	0x3da32bc9	0.07967336
196	0xbdf39233	-0.1189312
197	0x3e964619	0.29350355
198	0x3e9f0e45	0.31065574
199	0xbdd61607	-0.1045342
200	0xbcc7ef08	-0.024405971
201	0x3bd33157	0.0064450908
202	0xbe4dffb9	-0.20117082
203	0xbe1a3244	-0.15058237
204	0x3ea121c5	0.31471077
205	0x3eff991a	0.49921495
206	0xbeb1e2ce	-0.3474335
207	0xbe0b7e84	-0.1362248
208	0x3d259fa3	0.040435445
209	0x3c91b4ca	0.017786402
210	0xbe88c672	-0.26713902
211	0x3e2f6856	0.17129645
212	0x3ea43b55	0.32076517
213	0xbe1ff2b8	-0.15619934
214	0xbdac84b9	-0.08423752
215	0x3e557ee5	0.20849188
216	0xbf1fef2f	-0.6247434
217	0x3ec50d0a	0.3848651
218	0x3d9bd48d	0.076089
219	0xbe57742c	-0.2104041
220	0xbdd16ba3	-0.10225608
221	0xbd2d9ed9	-0.042387817
222	0x3eb272e3	0.34853277
223	0x3e53adae	0.20671722
224	0x3db29145	0.08719114
225	0x3d9d5a00	0.07683182
226	0xbe0ef047	-0.13958846
227	0xbed7ca02	-0.42146307
228	0xbed98e23	-0.42491254
229	0xbe6ff1f0	-0.23432136
230	0x3e87a976	0.26496476
231	0x3e84356a	0.25822002
232	0xbee66c19	-0.45004347
233	0xbe3ac52c	-0.18239278
234	0xbeedbdab	-0.46433768
235	0xbe9c6067	-0.305423
236	0xbccd919d	-0.025093848
237	0xbeed6960	-0.46369457
238	0x3e4dcb13	0.20096998
239	0x3eacd935	0.33759466
240	0xbe9eecbf	-0.31039998
241	0x3d645ec7	0.05575445
242	0xbef62982	-0.48078543
243	0xbe1d31f7	-0.15351091
244	0xbe9952e6	-0.2994606
245	0x3d063f22	0.032775052
246	0x3e5f2e79	0.21795072
247	0x3e7ac33e	0.24488541
248	0x3e12ffbd	0.14355369
249	0x3edecbac	0.43514764
250	0xbde4b709	-0.11167724
251	0x3eb5e385	0.35525146
252	0xbd4cf5a8	-0.050038964
253	0xbf366736	-0.7125124
254	0x3e23ef3c	0.1600923
255	0xbb4189e1	-0.0029531645

critic.preprocess.model.model.2.bias f4 [64]
0	0xbd22dea5	-0.03976311
1	0xbd1ba3c7	-0.037997987
2	0x3e5b7bfe	0.21434018
3	0x3dd7ab39	0.10530705
4	0xbebc6637	-0.36796734
5	0x3e5dfd8d	0.21678753
6	0xbc5f2683	-0.013620022
7	0xbe79fc9a	-0.24412766
8	0xbcc9f6d3	-0.024653828
9	0x3ee036b1	0.43791726
10	0xbe11329a	-0.14179459
11	0xbbb1aef0	-0.0054224655
12	0x3eec99e7	0.46211168
13	0x3e5e1475	0.21687491
14	0x3e986f00	0.29772186
15	0x3df0b4b6	0.11753218
16	0x3e5dfd1b	0.21678583
17	0xbe1c3fe8	-0.15258753
18	0x3db80636	0.0898556
19	0xbdba624e	-0.091007814
20	0x3d194973	0.037423562
21	0xbeca88b4	-0.3955742
22	0x3e3e3f5c	0.18578857
23	0x3e365260	0.17804861
24	0x3ecf16c0	0.40447044
25	0xbe933ebc	-0.287588
26	0x3ee0fe2a	0.43943912
27	0xbdf64230	-0.12024343
28	0x3e660ef4	0.22466642
29	0x3edbb46b	0.42911085
30	0x3d99c084	0.075074226
31	0xbe61d4fd	-0.22053905
32	0x3e1264ca	0.1429626
33	0xbe097cab	-0.13426463
34	0x3e0c43af	0.13697694
35	0x3dc52d18	0.096277416
36	0xbde7c993	-0.11317744
37	0xbe5a5239	-0.21320428
38	0x3d6b8484	0.057499424
39	0x3df6fd97	0.12060087
40	0xbe1e8681	-0.15480997
41	0xbe2ed39f	-0.17072915
42	0xbe0bfc2d	-0.13670416
43	0xbd8360d9	-0.064149566
44	0xbe7969fa	-0.24356833
45	0x3c59f9b1	0.01330416
46	0x3c7cc58e	0.01542796
47	0x3e199bd7	0.15000854
48	0xbee646d7	-0.44975922
49	0x3e998970	0.2998767
50	0x3e2c12bf	0.16804026
51	0xbeae3484	-0.3402444
52	0xbc938314	-0.018006839
53	0x3e3b70ac	0.183047
54	0xbdeb0e82	-0.114773765
55	0x3db81640	0.08988619
56	0x3e07f1f3	0.1327589
57	0x3d1bac35	0.038006026
58	0x3f0057fd	0.5013426
59	0x3e25c03e	0.16186616
60	0xbe493fd6	-0.19653258
61	0xbe143891	-0.14474703
62	0x3e748711	0.23879649
63	0xbe86663f	-0.26249883

critic.last.model.0.weight f4 [1, 64]
0	0x3db80d78	0.08986944
1	0x3e2f9e75	0.1715029
2	0x3dd76435	0.1051716
3	0x3e4fb320	0.20283175
4	0xbe953b22	-0.29146677
5	0x3e4f4154	0.20239764
6	0xbd7ac4f7	-0.061222997
7	0xbe1f982e	-0.15585396
8	0xbe0f2cc6	-0.13981923
9	0x3e89829b	0.26857457
10	0xbe1f1fdf	-0.15539502
11	0xbe537f95	-0.20654137
12	0x3e8adfe9	0.27123955
13	0x3e06f8dc	0.1318087
14	0x3dd28ce5	0.1028078
15	0x3d97b14f	0.07406866
16	0x3db8fb1d	0.09032271
17	0xbe82a99c	-0.25520027
18	0x3d8d09ec	0.06886658
19	0xbf1a2090	-0.60205936
20	0x3d9428c2	0.072343364
21	0xbe243dc4	-0.16039187
22	0x3e02d931	0.12778164
23	0x3dde559d	0.10856173
24	0x3efa2daa	0.48862964
25	0xbe0b56ff	-0.13607405
26	0x3e37ee4b	0.17961995
27	0xbe67db3c	-0.22642225
28	0x3cee229a	0.029069234
29	0x3e2a980d	0.16659565
30	0x3d6b303a	0.05741904
31	0xbdf97474	-0.12180415
32	0x3e4bff91	0.1992171
33	0xbde90f46	-0.11379866
34	0x3e6ba1d5	0.23010953
35	0x3d031641	0.032003645
36	0xbed737eb	-0.4203485
37	0xbd9aafe2	-0.07553078
38	0x3d6e00c7	0.05810621
39	0x3e038224	0.12842613
40	0xbdfbe907	-0.12300306
41	0xbdccc0e0	-0.099977255
42	0xbe8cae51	-0.27476743
43	0xbe830402	-0.25588995
44	0xbe87a5a2	-0.26493555
45	0x3e623021	0.22088672
46	0x3dd63eaa	0.10461171
47	0x3e9c4670	0.3052249
48	0xbe4f99e2	-0.20273545
49	0x3e3ff142	0.18744376
50	0x3ddec16d	0.10876737
51	0xbda2e8be	-0.07954548
52	0x3e2725f2	0.16323069
53	0x3e6d28f5	0.23160155
54	0xbe443b9d	-0.19163366
55	0x3e825a9b	0.2545975
56	0x3e6ad30d	0.22932072
57	0x3e986ceb	0.29770598
58	0x3e84aa41	0.25911143
59	0x3d6096a0	0.054831147
60	0xbdfb438b	-0.12268742
61	0xbdfe0798	-0.12403792
62	0x3e53ba87	0.20676623
63	0xbea9da89	-0.33174542

_actor_critic.actor.sigma_param f4 [6, 1]
0	0xc0017aa8	-2.0231113
1	0xc01869e0	-2.381462
2	0xc01a6ea3	-2.4130027
3	0xc0181f1e	-2.3768992
4	0xc01221aa	-2.2833047
5	0xc032b8b4	-2.7925234

_actor_critic.actor.preprocess.model.model.0.weight f4 [64, 17]
0	0xbe5bc1ca	-0.21460643
1	0xbe90bc6f	-0.28268763
2	0xbef6bf30	-0.4819274
3	0xbcec7f5e	-0.028869327
4	0xbcf4e2b5	-0.029893259
5	0xbe8faa50	-0.28059626
6	0xbd0d57e6	-0.034507655
7	0xbe650618	-0.22365606
8	0xbedc01ae	-0.42970031
9	0xbe36f101	-0.17865373
10	0xbe90a38a	-0.2824977
11	0x3f08ad45	0.5338939
12	0x3df09e9d	0.11749003
13	0xbe1afcc5	-0.15135486
14	0x3e7a9b6e	0.24473354
15	0x3e026633	0.12734298
16	0x3ce2351a	0.027613211
17	0x3ef63411	0.480866
18	0x3e7ea3df	0.248672
19	0x3e98e5ef	0.29862925
20	0xbd4b715f	-0.049668666
21	0xbe090f79	-0.13384809
22	0x3db892f6	0.090124056
23	0xbea75516	-0.32682103
24	0x3da3bcdc	0.079950064
25	0x3c087167	0.0083278185
26	0x3f024a4a	0.50894606
27	0x3e90d267	0.28285524
28	0xbe117a20	-0.14206743
29	0xbe6872fd	-0.22700115
30	0x3dee5d5f	0.11638903
31	0x3eb1d2aa	0.34731036
32	0xbe589a9b	-0.21152727
33	0x3e14e418	0.14540136
34	0xbef11f6e	-0.4709429
35	0x3ccf2fca	0.025291342
36	0x3c8190b0	0.015816063
37	0xbe4e3cdc	-0.20140404
38	0x3e744d46	0.23857602
39	0x3e2e4776	0.17019448
40	0xbd990577	-0.074717455
41	0x3d4981ac	0.04919593
42	0x3ee0b1d3	0.4388567
43	0x3e71f0c9	0.23627008
44	0x3da023fa	0.07819362
45	0x3e3dd512	0.18538311
46	0xbe901ed4	-0.2814852
47	0x3cce471b	0.02518039
48	0xbe6c922f	-0.2310264
49	0xbd8eaa5b	-0.069660865
50	0x3e462c78	0.19352901
51	0xbe1d20b8	-0.15344512
52	0x3eb7b53f	0.35880467
53	0xbbf7367d	-0.0075443373
54	0xbe7179b5	-0.23581584
55	0x3e67313c	0.22577375
56	0xbe8466d0	-0.2585969
57	0xbd76fe2d	-0.060300995
58	0xbea1feff	-0.3163986
59	0x3eb345df	0.35014245
60	0x3e293f2f	0.16528009
61	0x3e1d2fe5	0.15350302
62	0xbcef6a57	-0.029225511
63	0xbeb9e9a0	-0.36311054
64	0x3e5f9044	0.21832377
65	0xbd5e3cda	-0.05425725
66	0x3b31d525	0.00271351
67	0xbea78875	-0.32721296
68	0xbef27f1e	-0.47362608
69	0x3eb2385d	0.34808627
70	0x3e8d1512	0.27555138
71	0xbe9025dc	-0.28153884
72	0xbdd091e1	-0.10184074
73	0xbef8107d	-0.4845008
74	0x3dbbb842	0.09166004
75	0xbeebf098	-0.46081996
76	0x3f091176	0.5354227
77	0xbea6f14b	-0.32605967
78	0x3ddd3348	0.10800797
79	0xbddd6778	-0.10810751
80	0xbe6c00be	-0.23047158
81	0x3de98dbe	0.11403988
82	0xbee3c404	-0.44485486
83	0xbd722f98	-0.05912742
84	0xbe34949e	-0.17634818
85	0x3f002978	0.50063276
86	0xbd38ccc4	-0.045117155
87	0xbe2197bb	-0.15780537
88	0xbd961c54	-0.07329622
89	0xbdd81fe0	-0.10552955
90	0x3eb807a7	0.35943338
91	0x3e30dcd1	0.17271735
92	0x3c9f7063	0.01946277
93	0x3dbcf4fd	0.09226415
94	0x3eac4fbd	0.33654585
95	0xbe14d37c	-0.145338
96	0xbd269729	-0.0406715
97	0xbdd36d76	-0.103236124
98	0xbef0c7e1	-0.47027496
99	0xbe5c90ad	-0.21539564
100	0xbcc471e1	-0.023980083
101	0x3e9fff46	0.31249446
102	0x3e1faf7d	0.15594287
103	0x3e485a42	0.1956568
104	0x3b84645e	0.004040285
105	0x3e1cafd6	0.15301451
106	0x3de8106d	0.11331258
107	0xbe58c9a5	-0.21170671
108	0x3e0f49c0	0.13992977
109	0xbdbbc24b	-0.09167918
110	0xbe82115a	-0.25403863
111	0x3e1c4dab	0.15264003
112	0x3f33f0c1	0.70289236
113	0x3e175234	0.14777452
114	0x3e9a360b	0.30119357
115	0x3d060cc4	0.032727018
116	0xbe64c2af	-0.22339891
117	0xbedbff60	-0.42968273
118	0x3eb99fb5	0.3625466
119	0xbe19a910	-0.15005898
120	0x3f031322	0.5120107
121	0xbe0ec6f1	-0.13943078
122	0x3ec09142	0.37610823
123	0xbec308eb	-0.3809274
124	0xbe8cb39c	-0.2748078
125	0xbbdf2e47	-0.0068109366
126	0xbd5ac09d	-0.053406347
127	0x3e3a39d9	0.1818613
128	0xbe713c06	-0.23558053
129	0xbe300bbc	-0.17191976
130	0xbe7912d6	-0.24323592
131	0x3f0395cd	0.5140045
132	0xbee4ccaf	-0.4468741
133	0x3dede9a2	0.116168275
134	0xbdcd55c6	-0.100261256
135	0xbea331d0	-0.3187394
136	0x3df181a6	0.117923066
137	0xbe1df9b7	-0.1542729
138	0xbaee61f5	-0.0018187152
139	0xbe1010e7	-0.14068948
140	0x3e492487	0.1964284
141	0xbe246346	-0.16053495
142	0xbd56bb6d	-0.052424837
143	0xbee64ff9	-0.4498289
144	0xbd7089bd	-0.058725107
145	0xbe15f43a	-0.14643946
146	0xbe118cad	-0.1421382
147	0x3d60ae2d	0.054853607
148	0xbb367dbd	-0.0027845942
149	0x3dcd723a	0.100315526
150	0xbe6ccc04	-0.23124701
151	0xbd0a76bf	-0.03380465
152	0x3e40022f	0.18750833
153	0xbf1c217d	-0.609886
154	0xbc7eb72a	-0.015546599
155	0x3d6569db	0.056009155
156	0x3e8262de	0.25466055
157	0x3e2a0252	0.16602448
158	0xbd038477	-0.03210875
159	0xbe537779	-0.20651044
160	0xbd3c7d94	-0.046018198
161	0x3d3413c8	0.043964177
162	0xbe32af72	-0.1744974
163	0x3e4cf7c0	0.20016384
164	0x3ed61d05	0.41819015
165	0xbe08cfb3	-0.13360481
166	0xbe1407d3	-0.1445611
167	0x3cbb3be4	0.022855707
168	0xbd230c41	-0.039806608
169	0xbe8edcfb	-0.2790297
170	0xbe63dd25	-0.22252329
171	0x3e0a659e	0.13515326
172	0xbf15500e	-0.5832528
173	0xbc69f5f9	-0.014279836
174	0xbede56a1	-0.43425468
175	0x3ec6398d	0.38715783
176	0xbe06491d	-0.13113828
177	0x3d083ac3	0.033259165
178	0xbcc7e388	-0.024400488
179	0x3bf9a479	0.0076184836
180	0xbe6d0318	-0.23145711
181	0xbdb62981	-0.08894635
182	0xbe4e1d82	-0.20128444
183	0x3ea04075	0.31299177
184	0xbcfa6bfd	-0.030569071
185	0x3d6cfdbc	0.057859167
186	0x3cba9cb5	0.022779802
187	0x3da93ca9	0.08263523
188	0x3dc20f3e	0.094755635
189	0x3eca068d	0.39458123
190	0xbccfabe8	-0.025350526
191	0xbda84cd7	-0.08217781
192	0xbc4f9da5	-0.012671863
193	0xbf0859fa	-0.53262293
194	0xbec15dcc	-0.37766874
195	0xbdcfad99	-0.10140533
196	0x3c9a7809	0.018856065
197	0x3d57214c	0.05252199
198	0xbeb9a1c1	-0.3625622
199	0xbaecc460	-0.0018063895
200	0xbe6659c3	-0.22495179
201	0xbd937652	-0.07200302
202	0xbebed54c	-0.37272108
203	0xbe55a10f	-0.2086222
204	0xbf0529d8	-0.52016973
205	0xbe8abbde	-0.27096456
206	0xbc88b6b9	-0.016688691
207	0xbe03883e	-0.12844941
208	0xbdd32517	-0.10309809
209	0x3e60129d	0.218821
210	0xbe268cee	-0.16264698
211	0x3dbe1b9d	0.092826106
212	0xbe731b4a	-0.23740879
213	0x3ea7b31d	0.3275384
214	0x3e01da30	0.12680888
215	0xbe5045af	-0.20339082
216	0xbee94612	-0.45561272
217	0x3e7d2f27	0.24725018
218	0x3da0b7fe	0.07847594
219	0xbf132f30	-0.5749388
220	0xbd09c0e2	-0.033631213
221	0xbd9d4088	-0.07678324
222	0x3ecf17d6	0.40447873
223	0x3e85eb90	0.26156282
224	0x3d65b282	0.05607844
225	0x3e174533	0.14772491
226	0xbf276f5f	-0.65404314
227	0x3dc9c20d	0.098514654
228	0x3ec6935b	0.38784298
229	0x3e6376f7	0.2221335
230	0x3e0f7d0d	0.14012547
231	0x3e447b96	0.1918777
232	0x3e0fa36a	0.14027181
233	0xbec8af01	-0.39196017
234	0x3e726420	0.23671007
235	0x3dd72aed	0.10506234
236	0x3ec1c3cf	0.37844703
237	0x3e5bf96e	0.21481869
238	0xbe882fff	-0.26599118
239	0xbe1d2247	-0.15345107
240	0xbf36c925	-0.7140067
241	0x3c83895c	0.016056709
242	0x3dffa7b6	0.1248316
243	0xbd7907b0	-0.060798347
244	0x3db121d1	0.08649028
245	0xbf0ba61c	-0.5455034
246	0xbdadf845	-0.08494619
247	0xbece34e2	-0.4027472
248	0x3eba2704	0.36357892
249	0xbe08561c	-0.13314098
250	0x3e1fb607	0.15596782
251	0xbeca2b50	-0.3948617
252	0xbddab54d	-0.10679112
253	0x3ef5214b	0.47876963
254	0x3e8e243f	0.2776203
255	0xbe0fcf71	-0.14043976
