results/HalfCheetah-v3/trpo/9/220709-064426/policy.pth (torch, 53732 bytes, 24 tensors)

actor.sigma_param f4 [6, 1]
000000 fa 19 fa bf f6 a2 00 c0 56 14 cf bf 89 05 12 c0
       -1.9539177 -2.0099463 -1.6178081 -2.2815878
000010 04 d0 1f c0 a7 42 fb bf
       -2.4970713 -1.9629716

actor.preprocess.model.model.0.weight f4 [64, 17]
000000 51 d6 ff bd bf 28 62 be e9 e0 01 be 8d ff 2f 3d
       -0.124920495 -0.22085856 -0.12683453 0.04296832
000010 0b e7 76 3b c5 27 fd bd a9 c1 8c 3e 2d 96 0f be
       0.0037674333 -0.12361101 0.274915 -0.14022131
000020 30 b9 4e 3e 0a 12 80 3e 67 2e fd bd a7 57 32 3e
       0.20187831 0.25013763 -0.12362366 0.17416249
000030 a0 7b a4 3c 25 f9 e0 3d f9 2c 80 3d ce 3e 40 be
       0.02007848 0.109850205 0.06258578 -0.18773958
000040 fa d9 32 be 52 b2 17 bd 76 73 89 be 21 e0 eb 3d
       -0.17465964 -0.037035294 -0.26845902 0.115173586
000050 3f e3 cd bd 2d 3b b4 bd 37 f7 4d 3e 89 56 df bd
       -0.100531094 -0.088003494 0.20113836 -0.10905177
000060 b8 37 45 3e dd 82 4b be 8a ba 74 3e 7f ec ae bd
       0.19259536 -0.19874139 0.23899284 -0.08541202
000070 fc de 69 be b9 d4 76 be 41 1c 98 3e dc 1a 4c 3d
       -0.22838968 -0.24104585 0.29709056 0.049830303
000080 f5 9e 31 be e8 4c f5 3e d6 9d 22 3e ca ab f9 be
       -0.17345794 0.47910237 0.15880522 -0.48763877
000090 84 1c 2d 3d 8f a9 2a be be 87 31 3d 43 e1 a4 be
       0.042263523 -0.16666244 0.043342344 -0.3220311
0000a0 3a c0 75 3d 6a f4 54 3d 3e 0b fe bc 40 3c 6c 3c
       0.059997775 0.051990904 -0.03101122 0.014418662
0000b0 a9 a8 4b bd 7f 8f 50 be db 26 78 3e 8b 88 fa bd
       -0.049721394 -0.2036724 0.24233572 -0.12233075
0000c0 e1 f0 ac 3e 68 7f 0d 3d f4 4d 24 be 2d 1d 56 3d
       0.33777526 0.034545332 -0.16045362 0.052273918
0000d0 73 28 67 bf b6 35 8f 3d 62 6e 1d be 48 9b f8 3c
       -0.90296096 0.069926664 -0.15374139 0.030347481
0000e0 2a 6b 8f be d9 95 8a be b1 ae 67 be 1e 6e 95 be
       -0.28011447 -0.2706745 -0.22625233 -0.29185575
0000f0 c6 57 ef 3d 81 da 4b be 07 80 a7 3d c8 bb af 3d
       0.11686663 -0.19907571 0.08178716 0.08580738
000100 3c f9 83 bd bf 38 a6 be 50 58 bc be 3e 28 2f be
       -0.06444022 -0.3246517 -0.36786127 -0.17105195
000110 7f cc e7 3e 44 9b bd bc e6 aa 9a 3d 28 c7 c1 3d
       0.45273206 -0.023145325 0.075521275 0.09461814
000120 2c 30 cc 3d 02 1a 35 3e 27 d3 63 3d c4 0e 0f 3e
       0.099701256 0.17685702 0.055621292 0.13970476
000130 57 b4 5f 3d 8d dd 27 3f 52 a4 71 3c bc cd ae bd
       0.054615345 0.65572435 0.01474865 -0.085353345
000140 d8 dc ea bc 69 0e 00 be 81 e1 52 3d c5 f7 34 3e
       -0.02866976 -0.12505497 0.05148459 0.17672642
000150 ae d5 e6 3d d7 4f 43 3e 77 5d b0 be f4 8c ac bc
       0.11271225 0.19073425 -0.34446308 -0.021063305
000160 8a 2c 2a 3d af 3c 69 3d 32 55 03 be d5 e6 3a bc
       0.041546382 0.056942638 -0.12825468 -0.011407574
000170 86 c6 6d 3d fe 2f d9 3d 56 09 e4 3e 2f d2 82 3d
       0.058050655 0.10604857 0.44538373 0.063877456
000180 d3 c3 7b 3e f4 13 80 3d 71 06 66 3e bd 45 84 3e
       0.2458642 0.06253806 0.22463395 0.25834456
000190 d2 c0 8b 3d 27 be 00 be 7e f8 29 3e 17 7d 1b 3f
       0.06823887 -0.12572537 0.16598698 0.60737747
0001a0 02 6d d4 3d ba 82 9a 3d 54 18 28 3e a8 a6 d0 bd
       0.10372354 0.07544465 0.1641553 -0.10188037
0001b0 52 4a 4f 3d fa 4f 0d be b4 d5 2c 3e 44 e6 3a bd
       0.050607987 -0.1380004 0.16878396 -0.045629755
0001c0 fc 48 d1 3d 07 44 0b be 2c 4d 64 3d db ff 66 be
       0.10218999 -0.13600169 0.05573766 -0.22558539
0001d0 50 0a 01 be e0 6b 59 3e 24 47 94 bd 31 fe a9 3e
       -0.1260159 0.21232557 -0.072401315 0.33201745
0001e0 ea a7 94 3e e2 4d 19 3e 20 bd d8 bd c4 9f f1 3d
       0.29034358 0.14971116 -0.10582948 0.11798051
0001f0 bb fd 0f be a4 bd 9a 3e 1f 26 90 3e 99 33 84 bd
       -0.14061634 0.3022281 0.28154084 -0.06455154
000200 6b f1 90 bc 31 63 b0 3e 5f dc 13 be 0d 03 a3 3b
       -0.017693242 0.34450677 -0.14439534 0.004974729
000210 17 f0 81 bd 6f 8d 07 be 42 bf 0c 3e 00 ab 6e 3d
       -0.06344622 -0.13237546 0.13744834 0.058268547
000220 d6 8a 0b be 91 0f 38 3e c7 4c dc 3d 0d 7d 1c 3e
       -0.1362718 0.17974688 0.107568316 0.15282078
000230 a2 c2 72 be c7 f0 47 be d9 c3 04 3e b3 bd e4 3d
       -0.23707059 -0.19525443 0.12965335 0.11168995
000240 df 61 13 be d8 0e b4 3e 6c 58 b7 bd 88 81 ad 3e
       -0.14392804 0.35167575 -0.08952412 0.33887887
000250 92 c1 0b bd 80 16 b3 bd 43 a2 5a be a1 b7 ae bd
       -0.03412015 -0.08744526 -0.2135096 -0.08531118
000260 9f cf 85 3e 1e 2a 82 3d 99 4c c9 bc c3 52 74 be
       0.26134965 0.063556895 -0.024572657 -0.23859696
000270 a2 dc 12 3d 74 4a 37 3b c8 b0 8d 3e 73 8a e0 3a
       0.035854943 0.0027967962 0.27673936 0.0017131105
000280 52 24 af 3d 43 7d 95 bd 77 8a 8e 3e 2c 91 3d be
       0.085518494 -0.072992824 0.27840015 -0.1851241
000290 d8 4c 92 be a1 f2 83 be a3 0f 34 3d 6d eb c6 3e
       -0.28574252 -0.2577105 0.043960225 0.3885149
0002a0 ab 50 06 be 92 7f bd bd 02 2f 88 be 50 bf 9d 3e
       -0.1311671 -0.09252848 -0.26598364 0.30810022
0002b0 13 43 2d 3e c2 2a 81 bc 64 9a 98 3d ba 4a 32 3d
       0.16920118 -0.015767459 0.07451323 0.043528296
0002c0 a8 f4 a6 3e c6 47 8c bd 6f b7 86 bd 48 dc 14 be
       0.32608533 -0.06849627 -0.06577956 -0.14537156
0002d0 b1 d0 98 3e 06 4d 99 3e 02 ef 17 3e 68 68 e4 3e
       0.2984672 0.29941577 0.14837268 0.44610906
0002e0 c9 33 9c 3e 69 26 35 be 48 7e 8d bb 92 4c e7 bd
       0.3050826 -0.17690434 -0.0043180324 -0.112939015
0002f0 54 59 bd bd 38 d5 89 be fa c1 44 be 24 6f 11 3e
       -0.092455536 -0.26920485 -0.19214621 0.14202553
000300 12 26 4a 3d fb 0c eb 3d 09 24 e1 bd a9 f7 d2 3e
       0.049352713 0.11477085 -0.10993201 0.41204575
000310 97 a3 30 bd bd 00 54 3e 75 d1 9a bd b3 e6 ba bd
       -0.04312476 0.20703407 -0.07559482 -0.09126034
000320 a2 2f 81 3e 19 7a 9e 3e 8b b6 1f 3e 37 aa d0 bb
       0.25231653 0.30952528 0.15596978 -0.0063679474
000330 2b 40 a7 3d 1a 9d 67 be ed 5e 1e 3e 9c 9d 03 be
       0.08166536 -0.22618523 0.15465899 -0.12853092
000340 47 6c b7 bb b9 fa f9 bc 10 a0 db be 5b 9b 52 bd
       -0.0055976245 -0.030515062 -0.42895555 -0.05141769
000350 74 9e 62 be 29 11 93 3e 5d af 48 bc 2c 9f e0 3d
       -0.22130758 0.2872403 -0.012248841 0.109678596
000360 8d 3d 42 bd fe 42 fe 3d 53 b3 e8 bd 3c d3 56 3d
       -0.04742198 0.124151215 -0.113623284 0.052447543
000370 3b d1 22 be 4e fd 8d 3e 08 02 a4 3e fd 5e a4 be
       -0.15900128 0.2773232 0.320328 -0.3210372
000380 74 96 0a be fa cc 0b be 1c c7 01 3e a7 aa 67 3e
       -0.13533956 -0.13652411 0.1267361 0.22623692
000390 14 6f ae bd 75 54 a8 bd 27 b5 20 be b7 2d 86 3d
       -0.0851728 -0.08219234 -0.15694104 0.06551688
0003a0 8b 8f 7f 3e 8c ad 75 3e 6b 5b aa 3e 0a 05 f9 3c
       0.24957101 0.23991984 0.3327287 0.03039791
0003b0 af f9 74 3e 5b fe ea bc 17 a2 1d 3d e0 54 c8 3e
       0.23923372 -0.02868574 0.03848466 0.39127254
0003c0 78 cc 64 bd 7a 71 9d ba b0 55 83 3d 84 82 20 3f
       -0.05585906 -0.0012011968 0.06412828 0.6269915
0003d0 aa ae 4a be e4 b0 96 3c be 4a 42 3e 17 76 b4 3c
       -0.19793192 0.018394895 0.18973824 0.022028966
0003e0 4c 54 1d 3e 88 b8 33 be 3b 8d a7 3d 9b f0 f1 3d
       0.15364188 -0.17550862 0.081812344 0.1181347
0003f0 60 4d e1 3d 9d 63 87 be 40 34 5c 3d 05 90 37 be
       0.11001086 -0.26443186 0.053760767 -0.17926033

actor.preprocess.model.model.0.bias f4 [64]
000000 47 ad 3c 3e ad d6 d2 bd 20 71 77 3d c8 d1 36 3e
       0.18425475 -0.102948524 0.06041062 0.17853463
000010 3f b8 8b 3d 6a 1b c7 3e 0f 2d bc 3c 6e e9 de 3d
       0.068222515 0.38888103 0.022970704 0.10884367
000020 fa e7 40 bc 8e 0a cb bd 60 ea 8b bd 66 53 50 3e
       -0.0117740575 -0.099141225 -0.06831813 0.20344314
000030 91 93 10 be de df 28 3e 5c 99 ac bd 08 7c 0b 3e
       -0.14118792 0.16491649 -0.084276885 0.13621533
000040 02 7f f5 3d 27 49 a8 3d 53 11 e4 3d 22 80 88 3e
       0.119871154 0.08217078 0.11136117 0.26660258
000050 e1 d3 b4 be e5 3f 9d 3d 19 d9 68 3d 64 fe d4 3c
       -0.353179 0.076782025 0.056847665 0.02600021
000060 2b 27 1a 3d ff 92 44 3d 0c d4 02 3e d5 7e 32 3d
       0.03763501 0.04799175 0.12776202 0.043577988
000070 ca 77 fb 3d d8 94 7b bd 79 f6 a3 3d d6 72 d2 3d
       0.12278707 -0.061421245 0.08005995 0.102758095
000080 a1 0e 90 3e ba 35 29 bd b1 2f 15 be 25 b3 a5 be
       0.2813616 -0.041311003 -0.14568974 -0.3236324
000090 fa 63 80 bd af 7d 30 3d e5 3e 0e 3e ec 3b 23 3e
       -0.06269069 0.04308861 0.1389118 0.15940827
0000a0 8d 5a 03 bd 5e 11 7f 3e da 26 24 be b2 e2 1f bc
       -0.032068778 0.24908969 -0.16030446 -0.009758638
0000b0 62 25 1a 3d 20 1c 80 3e 93 36 3c 3d 1b e4 08 be
       0.037633307 0.25021458 0.045950484 -0.13368265
0000c0 49 a4 57 3e 15 13 f7 3d a0 55 3f be c1 7e a3 bd
       0.21058764 0.120641865 -0.18685007 -0.07983161
0000d0 b6 3e ee bd 69 0d 7b be 8b 2d c4 3d 69 54 c5 3d
       -0.11633055 -0.24516834 0.09578999 0.096352406
0000e0 b1 9f 8c 3d b1 14 a5 bd d9 3b 93 3e e5 e6 f0 bc
       0.06866396 -0.08060587 0.28756598 -0.029406974
0000f0 08 4e a5 be 19 35 83 bc aa 68 67 bd 48 fc 56 3d
       -0.32286096 -0.01601653 -0.0564963 0.052486688

actor.preprocess.model.model.2.weight f4 [64, 64]
000000 f2 f8 a9 3c f8 14 3c 3e cc 68 ce 3c ef 1a 94 be
       0.02074859 0.18367374 0.025196455 -0.289268
000010 77 83 c2 3d 4c 84 77 bd 76 f9 55 be ae ea cf bd
       0.09497731 -0.060428903 -0.20895943 -0.101521835
000020 14 56 7c 3d e0 7c 27 3d 5f d7 09 be 55 a3 1c 3d
       0.061605528 0.040890574 -0.13461064 0.038241703
000030 cb 29 49 be d4 7a 9a bd 62 e4 56 bd a0 22 8e bb
       -0.19644849 -0.07542959 -0.052463897 -0.0043376237
000040 25 9b 3c be c6 90 72 3d 09 a6 86 3e 98 29 99 3d
       -0.18418558 0.059220098 0.2629855 0.074786365
000050 2a 04 a5 3e 8e 91 18 be ef 6b d4 be c5 f4 97 be
       0.3222974 -0.14899275 -0.41488597 -0.29678932
000060 ef 94 49 3e 4e 2c ed bd 41 86 fb 3d c4 13 f1 bd
       0.1968572 -0.11580716 0.12281466 -0.11771348
000070 9a 38 bd bd 46 3a 86 bd 6d d6 2d be ec 20 e8 bd
       -0.092393115 -0.065540835 -0.16976328 -0.11334404
000080 aa cc b0 bc 3a 77 90 bd c1 c5 c3 bd 6b b2 7e be
       -0.021581966 -0.07053991 -0.09559203 -0.24872749
000090 51 6f 6a bc d0 8f 7a 3d 4a ab 2f be 33 d4 9a be
       -0.014308766 0.061172307 -0.17155185 -0.3024002
0000a0 bd 26 2e 3e a9 3d 81 3e 06 ed 93 bd fd fc 5c 3c
       0.17006965 0.25242355 -0.07222943 0.0134880515
0000b0 1e 16 50 3e 24 bb a7 bd ff aa 11 bd a5 57 36 3e
       0.20320937 -0.08189991 -0.035563465 0.17806871
0000c0 33 3e 5d 3d 9e f1 47 be 4a d5 c5 3d b8 7c 6b 3e
       0.054014396 -0.19525763 0.09659822 0.22996795
0000d0 ce dd 9b 3e 6c bc 40 be c1 7b 2f 3e 3b 37 4d 3e
       0.3044266 -0.18821877 0.17137052 0.200406
0000e0 d4 a2 e6 3d 7e 6a e1 bd d6 15 91 bd d4 f8 dd be
       0.11261526 -0.1100664 -0.07084243 -0.43353903
0000f0 77 c0 11 be 44 0b 5a be 74 ab 19 bc 0e 8a 8c be
       -0.14233576 -0.2129336 -0.0093792565 -0.27449077
000100 96 d5 8f bd 18 15 90 3e f8 6a d9 3e 92 cf 81 3e
       -0.0702316 0.28141093 0.42464423 0.25353676
000110 27 3e c6 3e 9d 23 9b bd b5 ff 30 be a0 2c e0 bd
       0.38719293 -0.07575152 -0.17285044 -0.109460115
000120 da 17 4a bd 54 e0 94 bc a9 e6 54 be 3d b4 7e 3e
       -0.049339153 -0.018173374 -0.20791115 0.24873443
000130 01 40 8b 3b 61 ac cb bc 48 4f 57 3d b1 2a a3 3d
       0.004249573 -0.02486247 0.052565843 0.07967127
000140 d7 2d a1 3d fb 0e 05 bd 90 26 8f 3d 0d f0 06 3e
       0.078700714 -0.03248499 0.06989777 0.1317751
000150 fa a0 67 be 2d 45 97 3e d4 d3 89 bd 84 64 9c 3e
       -0.22620001 0.29544964 -0.06729856 0.30545437
000160 b7 dd 19 3c e1 ab c0 be ca 6f b0 3e bc 10 90 3d
       0.00939124 -0.37631133 0.34460288 0.07034442
000170 65 ef e6 3d b0 5f 55 be 9d 15 07 3c 1e 63 87 3d
       0.1127613 -0.20837283 0.008244899 0.06610702
000180 ea e7 84 3d f7 88 94 bd c3 95 8b bd 32 34 02 be
       0.064895466 -0.072526865 -0.06815674 -0.12715223
000190 40 7d 67 3e bb 82 fa bc f0 84 94 3d a1 24 ef 3d
       0.22606373 -0.030579915 0.07251918 0.11676908
0001a0 a6 1a 97 3e 33 44 6f 3e 7a 73 b9 3d 2a 47 cd 3c
       0.2951252 0.2336586 0.090552285 0.025058348
0001b0 2a 59 ba 3e 7c 7a c0 be 80 06 3e be 34 31 11 be
       0.36396152 -0.37593448 -0.18557167 -0.14178926
0001c0 00 8f 0b 3d b6 47 03 be 8a 6b 90 3d 8b 8c 0d bf
       0.034071922 -0.12820324 0.070517614 -0.55292577
0001d0 26 2c 54 bd 44 ce 85 3e 0d 7e 0c bd 30 67 e2 bd
       -0.051799916 0.2613393 -0.0342999 -0.11054838
0001e0 cc 72 f3 bd 86 bb 18 bd 96 eb de 3d bc 7b 06 be
       -0.1188713 -0.03728821 0.10884778 -0.13133138
0001f0 86 32 8e 3e 94 3a 4d 3d 6f 10 e5 bd b9 25 8c 3e
       0.2777292 0.050104693 -0.11184775 0.2737253
000200 3f ff 7f be 0d d1 32 be 66 ce 87 bd 5b 5b 31 be
       -0.24999712 -0.17462559 -0.06631164 -0.17320006
000210 a8 6a 17 3c 22 31 dd 39 23 39 46 be 74 bf f6 bd
       0.009241737 0.00042189012 -0.19357733 -0.120482355
000220 d4 df 36 3d 59 6a 26 be 99 32 26 be 37 70 2f bd
       0.044647053 -0.16251506 -0.16230239 -0.042831626
000230 c4 a2 e8 ba e0 a8 bc 3d 80 e8 cd be f0 00 a2 3c
       -0.0017748703 0.09211898 -0.40216446 0.019775838
000240 f0 4b 70 3e 07 ae 36 3e 32 c5 d8 3d 2e 06 0b 3c
       0.23466468 0.17839824 0.10584487 0.00848536
000250 3c c5 05 be be e5 b1 3d e2 f8 71 3e b1 f4 37 be
       -0.1306352 0.08686398 0.23630098 -0.17964436
000260 14 28 89 be b3 be bd be 0b 38 5d be 4d 08 02 be
       -0.2678839 -0.37059554 -0.2160341 -0.12698479
000270 51 85 61 be 4a 6a 5b be 08 fc fe bd f0 af ee bd
       -0.22023512 -0.21427265 -0.12450415 -0.11654651
000280 22 20 5a 3e 74 79 b2 be f7 57 15 be 0e c2 47 3d
       0.2130132 -0.34858286 -0.14584337 0.04876905
000290 c7 5a 76 3e 62 d4 8a 3e 84 9c 21 be b3 b2 3d 3d
       0.24058066 0.2711516 -0.15782362 0.046313
0002a0 42 36 96 3e f0 67 47 be 5a 55 00 be a0 9b 19 3e
       0.2933827 -0.19473243 -0.12532559 0.15000772
0002b0 05 64 f9 3d 06 6f 28 3e 75 35 98 bc 30 01 c1 bd
       0.1217728 0.16448602 -0.018580178 -0.094240546
0002c0 05 0a 84 bd 12 d7 44 be 61 2d 0d be 56 73 a5 be
       -0.064472236 -0.19222668 -0.13786842 -0.32314557
0002d0 ef f1 18 be 52 a8 4e be d5 1e bd be 90 cf 83 3e
       -0.1493604 -0.20181397 -0.36937585 0.25744295
0002e0 11 3a 2a 3e a9 47 1b 3d d9 2b a1 3d 84 dc b0 bc
       0.16623713 0.037910137 0.078696914 -0.021589525
0002f0 3a 90 56 be 0d 23 cf bd 5e b6 28 3e 1c 64 37 3e
       -0.20953456 -0.10114107 0.16475818 0.17909282
000300 25 23 5f 3e 3d 15 8d bc ba b6 ac 3b c5 99 54 3e
       0.2179075 -0.017222041 0.005270806 0.20761783
000310 d1 c5 71 bd 15 2e 43 bd d2 06 94 be 65 31 36 be
       -0.059026543 -0.04765137 -0.28911453 -0.1779228
000320 b4 10 b0 bd ce b3 2b be 11 79 d5 3b f5 ec 41 3e
       -0.08596936 -0.16767809 0.0065146764 0.18938048
000330 33 09 d8 3d e2 35 cb be 4c 55 44 3e 02 5e b1 3e
       0.105486296 -0.39689547 0.19173163 0.34642035
000340 f2 32 10 be 84 62 63 3e eb cd a5 3d 32 aa 4a 3c
       -0.14081934 0.2220555 0.08095916 0.012369679
000350 0d d0 3e be a0 cd d3 bd e0 5f 5d be d1 dc 5e 3d
       -0.18634053 -0.10341954 -0.21618605 0.054409806
000360 73 17 29 3e 96 4c 04 3e e3 02 d2 3d 90 5c 09 be
       0.16512851 0.1291984 0.10254457 -0.13414216
000370 3f 11 e7 3c b5 7f c8 bd e0 e1 d1 3d 35 2d 1e 3e
       0.028206466 -0.09789983 0.1024816 0.15446933
000380 39 cd f5 3d 7b 72 05 be ae 89 3f 3e 7f ad 8e bd
       0.12002034 -0.13031952 0.18704864 -0.069666855
000390 b0 d8 6e 3e d1 5a 32 3e 86 12 98 be 74 23 c4 be
       0.23324847 0.17417456 -0.29701632 -0.383083
0003a0 20 a7 09 3d e0 4f 75 be ec 83 30 3e 06 6d 7d 3e
       0.03360665 -0.23956251 0.17237824 0.2474862
0003b0 4d 4f d9 3d df 3a d0 bd 63 24 9e 3e 08 a1 01 3e
       0.106108285 -0.10167479 0.30887136 0.12659085
0003c0 f3 d5 99 3d 46 8a bf 3e 62 0a 8d be af fe 07 bd
       0.07511511 0.37410182 -0.27546984 -0.03320187
0003d0 f5 7d 01 be 9f d6 d7 bd 91 77 40 3d d8 4f 10 be
       -0.12645705 -0.105389826 0.046989027 -0.14092958
0003e0 24 97 7b 3e 86 ad 2e 3e 1c 09 a6 bd 33 27 79 3e
       0.24569374 0.17058381 -0.08107206 0.2433136
0003f0 d6 f6 b6 3d 16 d4 41 bd 19 6c 54 be d1 be 87 3d
       0.08933799 -0.0473214 -0.20744361 0.06628192

actor.preprocess.model.model.2.bias f4 [64]
000000 c6 67 e6 bb fe 84 1b 3e f2 15 a4 3d 6e fa 34 3d
       -0.0070314137 0.15187451 0.08011998 0.04418414
000010 5c 30 f3 bc 3c 63 18 be 54 6f 2b bd 0d c5 e4 3a
       -0.029686145 -0.14881605 -0.041854218 0.0017453745
000020 57 04 a9 bd c6 7e 8b 3d 37 0c 38 bd 30 29 75 bd
       -0.08252781 0.068112895 -0.044933524 -0.059853733
000030 fc 92 4b bd 7a 33 44 3d d5 8e 28 3d b9 e0 f8 bd
       -0.049700722 0.047900654 0.04115184 -0.121522374
000040 78 33 5d 3d fe 60 3b be 59 be 97 3d 75 85 85 3e
       0.054004163 -0.18298718 0.07409353 0.26078382
000050 6b b0 db 3c f1 cd 1e 3e dd 7c dc 3d 82 be 11 be
       0.026817521 0.15508248 0.10766003 -0.14232829
000060 d6 7f d3 3d 67 70 d6 bd 33 99 37 be 14 f5 94 bc
       0.10327117 -0.10470658 -0.17929535 -0.018183269
000070 58 39 a6 bd 32 4a 71 bd 43 71 79 bd 1d ea 11 3d
       -0.08116406 -0.05890865 -0.06089903 0.03562366
000080 02 3c ca be ca 39 ff 3c 36 d1 05 3e d8 1f 91 3e
       -0.39498907 0.031155486 0.13068089 0.28344607
000090 35 35 b2 3d 37 e7 a0 be 04 8c 59 bd d1 02 32 be
       0.08701555 -0.31426403 -0.053112045 -0.17383887
0000a0 65 5f 10 3d c4 a0 70 3e fb 6d 85 bd d0 2b d1 3b
       0.035247225 0.23498827 -0.06515118 0.0063833967
0000b0 a2 69 0d bd 80 59 20 3d 14 b0 e9 bd 2c 58 39 3d
       -0.034524567 0.039147854 -0.11410537 0.045250103
0000c0 03 96 57 3d aa 86 69 bd 8e 56 11 3d 97 2c a9 3d
       0.052633297 -0.05701319 0.035482936 0.08260458
0000d0 79 de 61 3d c8 e8 f8 3c 04 ca e2 3d c9 25 c4 3b
       0.055143807 0.030384436 0.11073688 0.0059859497
0000e0 c3 6b 42 3d 09 45 22 bb e5 8e 01 bc 5e 79 e2 ba
       0.04746605 -0.0024760386 -0.007907604 -0.0017278602
0000f0 59 fb c2 3d 26 9c 92 ba 60 15 90 bc 20 f3 3d bc
       0.09520597 -0.0011185452 -0.017588317 -0.01159361

actor.mu.model.0.weight f4 [6, 64]
000000 51 a0 93 bd 68 a5 f9 3c 53 dd e3 bd 86 0a 97 bd
       -0.07208312 0.03047438 -0.111261986 -0.07375054
000010 1c 78 bc bd 9a 09 d9 be 73 f8 e1 bd fb c0 f8 3d
       -0.092025965 -0.42390138 -0.11033716 0.12146183
000020 09 90 23 3e 90 fb 84 bd 91 c1 6f be f7 e7 1c be
       0.15972914 -0.06493294 -0.23413683 -0.15322863
000030 43 f2 2d bc 29 77 00 3c fe 69 61 be 89 88 1d 3d
       -0.010616842 0.00784091 -0.22013089 0.03846029
000040 4e 2c 88 be 08 61 79 3e c1 7e c6 bd 66 a7 b1 3e
       -0.26596302 0.2435342 -0.09692145 0.34698027
000050 28 a0 8d b9 20 b4 8d be 93 36 25 bd 3b 60 83 3e
       -0.0002701294 -0.27676487 -0.04033525 0.25659356
000060 a6 92 00 3b 43 63 cb 3d e7 e2 3f 3e f9 8a 6b 3e
       0.001961866 0.09931042 0.187389 0.23002233
000070 d4 5e 49 be a8 66 7b bd dd 80 0f be 82 3a f4 3d
       -0.1966508 -0.061377198 -0.14014001 0.11925222
000080 41 81 1b 3e 2a b0 56 be 59 d0 cf 3c b4 c4 14 3e
       0.15186025 -0.20965639 0.025367903 0.14528161
000090 c6 a6 01 3e 57 f9 be 3e 15 ec 38 be 85 cd 6d 3c
       0.12661275 0.37299606 -0.18058808 0.014514332
0000a0 7b 68 50 be 11 dd ef 3e 7c 4a 3b be 59 fd c8 bd
       -0.20352356 0.46848348 -0.18290132 -0.09813947
0000b0 2b 50 24 3d 58 37 34 3d d1 b3 89 3e cc 32 98 3e
       0.040115517 0.043998092 0.26895002 0.29726255
0000c0 6e fb e1 3d fd 06 77 3d e6 d2 52 3c 9d cf 87 3d
       0.110342845 0.0603094 0.012867665 0.06631396
0000d0 33 50 b2 be f8 97 b1 3e fd a3 89 3e b0 d1 bd 3d
       -0.34826812 0.34686255 0.26882926 0.0926851
0000e0 b8 92 4e be 70 b1 41 be ba 6e ec 3d 0b 1a aa 3e
       -0.20173156 -0.18915343 0.11544557 0.33222994
0000f0 8d 26 30 3e 54 e7 02 3e 2f cb 58 bd 22 7e b8 bd
       0.17202206 0.12783557 -0.052928146 -0.09008433
000100 80 bc 91 3d c8 d3 d3 bd 6b 8e d3 3c 74 a8 4f 3d
       0.07116032 -0.103431284 0.025824746 0.05069776
000110 b5 b6 35 be db fe c9 bb de ed c9 3b 06 11 bc bd
       -0.17745478 -0.0061644143 0.006162389 -0.091829345
000120 20 36 35 3d f8 4a 25 be 74 b3 93 3e 1e bd 33 be
       0.04424107 -0.1614188 0.2884785 -0.17552611
000130 98 0d b4 be a5 b5 a0 3d 82 ae ac 3d e5 05 22 3d
       -0.3516662 0.07847146 0.08431722 0.039556403
000140 3f ad b6 3e a6 d4 1b be db ed 3e 3d 08 00 06 be
       0.3567905 -0.15217838 0.046613555 -0.1308595
000150 b5 1a 5b be 73 8b 79 3e 3b 2d 51 3d 48 2c 0c be
       -0.21396907 0.24369602 0.051068526 -0.13688767
000160 cb 80 05 be 5c 2a 2f 3e b5 be a1 3e f3 79 ae 3d
       -0.13037412 0.17106003 0.3159081 0.08519354
000170 06 e9 ca ba c1 a2 4c 3e 09 90 c4 bd b6 7f 78 3d
       -0.0015480823 0.1998396 -0.09597785 0.06066867
000180 d1 e6 9f 3e 6d 86 e0 3d 95 53 50 be 5d 37 87 3d
       0.31230786 0.1096314 -0.20344384 0.066023566
000190 6e bb b4 3d 6f 30 83 be 75 2b a1 be 41 7e a4 be
       0.08824812 -0.2562289 -0.31478468 -0.32127574
0001a0 cf cd 02 be d3 b5 05 be 6f d7 a4 bd 9b bb c0 bb
       -0.12773822 -0.13057642 -0.08048903 -0.0058817393
0001b0 23 22 b6 3c 4d c7 5d be 05 43 35 bd e6 08 72 bd
       0.022233075 -0.21658058 -0.044253368 -0.059090517
0001c0 1c f8 63 3e a0 60 f4 3c 5a a7 15 be 81 6c c4 bd
       0.22262615 0.02983123 -0.14614621 -0.09591008
0001d0 7f 24 ca bc ac 63 cf be a6 80 87 bd 28 8f 41 be
       -0.024675606 -0.4050573 -0.066163346 -0.18902266
0001e0 ce 71 01 be 05 aa 11 be a5 68 5c bd 16 b3 ee bd
       -0.1264107 -0.14225014 -0.053810734 -0.11655252
0001f0 85 a9 8e be b4 41 79 3d 3b 49 f6 3d cb 41 da 3d
       -0.27863708 0.060853675 0.12025686 0.1065708
000200 63 39 95 bc ae a5 b1 3d 65 8e 34 bd d7 03 0c bd
       -0.01821584 0.08674179 -0.04408111 -0.03418335
000210 f3 15 4c be 5a 8f 19 bd 40 8f 98 3d 18 66 97 bd
       -0.19930248 -0.037490226 0.07449198 -0.0739252
000220 b9 c4 19 bd bc 75 5e 3e 73 e2 1a 3e 21 6a 49 bd
       -0.037541125 0.217246 0.15125446 -0.049173478
000230 9a 62 71 3d 21 67 2a 3c 7c 51 06 bd ed 07 36 3e
       0.058931924 0.010400564 -0.032792553 0.17776461
000240 a7 c4 e6 be 2f 77 d2 3d ff 8d 00 3d fb 5c c7 3e
       -0.4507191 0.10276639 0.031385418 0.38938126
000250 78 bc 40 be 75 ac 09 3d dc 5d 07 be c3 0a cc 3d
       -0.18821895 0.033611733 -0.13219398 0.0996299
000260 c1 f7 f8 bd e2 67 88 be 38 6b 01 3e 61 b0 63 bd
       -0.1215663 -0.26641756 0.12638557 -0.05558813
000270 04 50 4f bd 8f 02 d0 bd d8 7c 95 bd 0d ab c3 bd
       -0.05061342 -0.10156738 -0.07299203 -0.0955411
000280 f9 ac 35 be 48 af 82 bd 60 5e 74 3e a7 76 95 bd
       -0.17741765 -0.063810885 0.23864126 -0.07298022
000290 bf d4 92 bd cf d9 72 be f6 11 35 bc 3e e2 d4 bd
       -0.07169484 -0.237159 -0.0110516455 -0.10394715
0002a0 b9 d9 35 bd 17 af 86 3e a6 89 e1 bd 8e 19 dd bd
       -0.04439709 0.26305458 -0.110125825 -0.1079589
0002b0 b4 e6 0e 3e 74 e3 f6 3d 51 dc d1 bb fe f1 91 3e
       0.13955194 0.12055102 -0.0064044376 0.28504938
0002c0 87 a2 d3 bc ad 81 29 3d ff 18 81 3e bc d8 8b 3d
       -0.025834335 0.041383434 0.25214383 0.06828448
0002d0 90 9c a4 bd b7 d0 0b be 0d 59 b1 3e e7 44 43 be
       -0.080376744 -0.13653837 0.34638253 -0.19069253
0002e0 6b f0 d7 3d d7 77 80 3b 92 3e c6 3e 77 83 25 3e
       0.10543903 0.003920536 0.38719612 0.16163431
0002f0 f9 41 cc 3e 0e d8 55 be 57 70 4d be f2 08 77 be
       0.39894083 -0.208832 -0.20062385 -0.24124506
000300 a0 dd 25 be eb 68 12 bf 53 3a b2 be 77 21 1f be
       -0.16197824 -0.5719134 -0.34810123 -0.1554011
000310 f9 d5 d3 3c 5a 0b 0f 3e 15 3d 94 bd 51 9e de bd
       0.025858866 0.13969174 -0.07238213 -0.1087004
000320 ab ea f4 3d ad 28 18 bc d8 2a 28 3e 48 68 96 be
       0.11958822 -0.009287042 0.16422594 -0.29376435
000330 a8 57 d4 be 8e 9f 0d 3e ff 0e 0e be c0 06 fd bd
       -0.41473126 0.13830397 -0.13872908 -0.12354803
000340 27 76 18 3f 52 f6 b5 bd aa dc 3a 3d cc 22 d0 3e
       0.59555286 -0.088848725 0.045620598 0.40651548
000350 04 78 63 bd 4e a4 b3 be 7b ed 54 3e bf 50 0a 3f
       -0.055534378 -0.35086292 0.20793717 0.5402946
000360 a9 ba 00 be 3d 1d 14 3e bf 41 e6 bd 8c d4 79 3d
       -0.12571205 0.14464279 -0.11243009 0.060993716
000370 9c 67 20 be e3 e1 e5 3d 6f 51 11 bd 1a 5c d3 bd
       -0.15664524 0.11224725 -0.03547805 -0.10320301
000380 46 fb 66 bf 27 90 c8 bd 11 81 0b 3c 74 84 87 3f
       -0.9022716 -0.0979312 0.008514659 1.0587296
000390 aa d4 94 bd 0e 7a 75 3d 5f ca 03 3e 76 07 91 3e
       -0.07267125 0.059930854 0.12870167 0.28326005
0003a0 f7 ee 8c 3e b7 36 02 bd 41 1c ed bc 7c 86 86 bd
       0.27526066 -0.03179046 -0.028944137 -0.065686196
0003b0 b3 4f 86 3d a1 e1 37 be 88 bb 64 3e f7 cc 1d 3e
       0.0655817 -0.17957164 0.22337162 0.15410219
0003c0 de 29 f4 bd 48 c2 95 3d d3 3f 76 3e e0 04 78 be
       -0.11922048 0.07312447 0.24047785 -0.2422061
0003d0 75 da df 3d 5e d2 59 3e e4 6c 66 3d 13 fb 90 3d
       0.10930339 0.21271655 0.05625619 0.070791386
0003e0 5a a6 ca 3e 97 42 b7 3d 50 88 84 3e a4 2b 9f 3d
       0.3958004 0.08948248 0.25885248 0.07771996
0003f0 d9 21 00 3c 80 93 84 be ff 77 cb 3c f9 c1 06 3e
       0.00782057 -0.25893784 0.024837492 0.13159932

actor.mu.model.0.bias f4 [6]
000000 03 f3 1d ba 94 ae fe 3d 7a c2 99 3d 4d 31 d9 bd
       -0.0006025286 0.12435642 0.075077966 -0.106051065
000010 ed 93 40 3e 54 4d f4 bd
       0.18806429 -0.11928812

critic.preprocess.model.model.0.weight f4 [64, 17]
000000 23 48 2f be 7e d3 b7 bb 7d 9b f6 3c 5e c2 0b 3e
       -0.17117362 -0.0056099286 0.03010344 0.13648364
000010 00 a0 3f 3c 1c 5a 30 be 5e 27 93 bd 12 a5 ee 3c
       0.011695862 -0.17221874 -0.07185243 0.029131446
000020 b7 cc ca 3e 04 8b cb 3e a8 d8 cf bc 87 33 32 be
       0.3960931 0.39754498 -0.025371864 -0.17402469
000030 7a e9 92 bd ad 33 c3 bd a6 cc 8a be 7a 45 c5 bd
       -0.07173438 -0.09531341 -0.2710926 -0.09632392
000040 14 cb ae bd 41 96 b2 3e 51 5e 47 3f 97 45 34 be
       -0.08534828 0.3488026 0.7787829 -0.17604671
000050 5c ef 36 3e c6 be 4e bd 72 4a 46 bd 16 85 81 be
       0.17864746 -0.050474904 -0.04841084 -0.2529685
000060 78 d2 b5 bd bf 65 a2 be 7f 2d ad 3d 69 93 c9 3c
       -0.08878034 -0.3171825 0.08455943 0.024606423
000070 45 16 0a 3f df 48 46 3c db 95 40 bd 1e 86 dd 3c
       0.5394023 0.012102335 -0.047017913 0.027041491
000080 14 ee 8c 3d 38 cc 2d bd 1a a6 f6 bd 9a 83 99 3e
       0.06881347 -0.042431086 -0.120434 0.29983217
000090 99 08 1a 3d 84 b3 77 be 9b ad 2f 3d ff ef 4c 3e
       0.037605856 -0.24189574 0.042890172 0.20013426
0000a0 61 3b c6 bd f6 da e0 3d 8a 21 03 bc 99 0e 17 bf
       -0.096792944 0.109792635 -0.008003602 -0.5900665
0000b0 d0 3a 95 3e ef f5 b3 be c0 00 17 be 84 b1 b4 bd
       0.29146433 -0.3514857 -0.1474638 -0.08822921
0000c0 f1 dd 6c bf c6 3f 22 be 6b 0d 87 3d f0 ea 42 be
       -0.92526156 -0.1584464 0.06594356 -0.19034934
0000d0 e6 ee 3a be da 93 6f 3e a2 ea 39 bd f5 cd d6 3c
       -0.18255195 0.23396245 -0.04538978 0.026221255
0000e0 58 37 1f bf b1 7d 2d 3e 87 d9 fe bc 15 32 5d 3e
       -0.6219382 0.16942479 -0.031109584 0.21601136
0000f0 13 d1 d3 3e 20 fa f0 be 60 3f 8a 3e b4 17 ba 3d
       0.41370448 -0.4706583 0.27001476 0.09086552
000100 f1 7e 45 3e e0 61 53 be 13 30 39 be b0 aa d4 ba
       0.19286706 -0.20642805 -0.18084745 -0.0016225185
000110 f5 d7 c6 bf 10 a9 b0 be ad 56 95 be ec 27 bd bd
       -1.5534655 -0.34503984 -0.2916769 -0.0923613
000120 8a 50 c5 bd 35 b6 b9 3b d8 05 92 3d b2 19 d2 3d
       -0.09634502 0.0056674727 0.07130021 0.10258807
000130 58 90 59 bc b4 a8 03 bf 20 45 bb 3d 6d 97 de 3d
       -0.013279043 -0.51429296 0.09144044 0.10868726
000140 1b 60 84 bd 55 87 bd bd 5a 45 a9 bd 40 10 9e 3d
       -0.06463643 -0.09254328 -0.08265181 0.07717943
000150 93 da 87 bb c7 c9 a0 be b1 9c 04 3f 9e f8 24 3e
       -0.004145929 -0.31403944 0.5180159 0.16110465
000160 a7 de 51 bc 44 2d 53 3c 6e 44 95 be c7 7a 1d 3d
       -0.012809432 0.01288921 -0.2915377 0.038447168
000170 6c 61 84 bd fe d9 94 3e 2b 3a 9a bc 1e 64 24 3e
       -0.06463894 0.29072565 -0.018826565 0.16053817
000180 76 b4 bb bd e2 5a 2b 3e bb d5 48 bd 30 bd ec 3e
       -0.091652796 0.16733888 -0.049031954 0.4623809
000190 dc e8 80 3e ea 8a 80 3c 85 39 52 be cb c3 b1 3e
       0.25177658 0.01569124 -0.20529754 0.3471969
0001a0 ee 05 cc 3d e0 47 20 3c 17 b1 a4 3c f6 68 a3 3d
       0.099620685 0.009782761 0.020103974 0.07979004
0001b0 cf 47 cc 3c af a0 41 3d 95 21 43 3e 67 49 5c be
       0.024936585 0.04727238 0.1905578 -0.21512376
0001c0 0d ec 06 3e 86 df 3b 3e ab 8c 69 3d d9 8a e2 bd
       0.13175984 0.18346986 0.057018917 -0.11061639
0001d0 cd 6c cb be ba 85 01 bf ae db e8 3b 4c 2a ac 3e
       -0.39731446 -0.50594676 0.007106266 0.3362602
0001e0 a1 0d 71 3e fa 44 90 3d 6f 1c 5a be f9 9a 93 3d
       0.23540355 0.07044406 -0.21299909 0.07207293
0001f0 99 37 99 3e f7 fa ff 3e af 31 8a 3e 52 68 80 bd
       0.2992523 0.49996158 0.2699103 -0.062698975
000200 61 09 56 3e 20 54 be be a3 e1 86 3d 58 8a c5 bd
       0.20902015 -0.37173557 0.065860055 -0.096455276
000210 80 cb 3a bd c4 ea 37 3f fe 27 42 3e 6b a8 3f 3d
       -0.04560423 0.718426 0.18960568 0.046791475
000220 7d 95 88 be 4a af 2b 3f 33 7a 9a 3e ac 66 45 3d
       -0.2667655 0.67064345 0.30171356 0.04819362
000230 ca d6 40 bd 00 2d 32 bd cc bb a9 3d b1 22 9e 3c
       -0.04707984 -0.043499947 0.082877725 0.019303652
000240 30 9a 31 be 2d 44 11 bf e6 86 c1 be d5 7a 8f bf
       -0.17343974 -0.56744653 -0.37798232 -1.120936
000250 82 6b a1 bd 88 2a b2 be b3 3d 00 be 0a 0f 26 bd
       -0.078818336 -0.34798074 -0.12523536 -0.040541686
000260 09 b1 e0 3d 1d d5 86 be c2 c1 33 3f e0 10 cb 3e
       0.10971267 -0.26334468 0.70217526 0.39661312
000270 fc bd ef bd 5b 25 17 3e ad a8 d1 3d 6f dc af 3d
       -0.117061585 0.14760344 0.102372505 0.08586966
000280 06 e0 89 3e f6 12 6a bc c6 03 7c 3e dc 7b 4a 3e
       0.2692873 -0.014286747 0.24610814 0.19773811
000290 0a 43 bf 3e 4a 71 d3 3b 14 8b db 3b 20 99 ac bd
       0.37355834 0.006452714 0.006699929 -0.08427644
0002a0 e9 dc 1b be e2 1c f3 3c 56 b2 53 3e ff b2 0c bf
       -0.1522099 0.029676858 0.20673499 -0.54960626
0002b0 a7 e0 8b be a8 02 17 be c0 4c 26 be d6 c9 e5 bc
       -0.27319834 -0.14747107 -0.16240215 -0.028050344
0002c0 41 29 46 be 69 bf 9d bc cc 7c 06 be d2 d8 2c 3d
       -0.19351675 -0.01925631 -0.13133544 0.042198963
0002d0 d6 52 a7 bd 80 fe 32 3e 3e 0d 44 be 0b 8a cd 3c
       -0.081700966 0.17479897 -0.19145676 0.025090238
0002e0 d1 37 00 be b7 b7 b1 3c 81 2b 0d 3d 88 6a 8d 3d
       -0.12521292 0.021694047 0.034465317 0.06905085
0002f0 17 68 df be 31 89 29 3d ae 58 61 3d 84 ef 13 3e
       -0.43634102 0.0413906 0.055016212 0.14446837
000300 2f e6 a0 bd 25 02 21 bd 38 5c 65 bd df 43 4d 3e
       -0.07856404 -0.039308686 -0.05599615 0.20045422
000310 0a e4 7a 3e e1 34 f9 bd 67 4b 61 3e a9 23 b7 3d
       0.24501052 -0.12168289 0.2200142 0.089423485
000320 b4 b5 08 bd da 3a bb bd c8 fe e5 bd 0d 84 be bc
       -0.03337641 -0.091420844 -0.11230236 -0.023256326
000330 da 79 8f bd 2e c9 24 be 01 1d 55 3e 33 5a c1 bc
       -0.07005663 -0.16092369 0.20811845 -0.02360258
000340 fe 3d c3 bd c3 d4 f3 bd 26 d0 46 bd 37 cb fd 3b
       -0.095333084 -0.119058155 -0.04853835 0.0077451724
000350 f6 97 83 be ef ea 65 bd 40 58 d9 3c ab 24 f7 be
       -0.25701874 -0.056132253 0.026531339 -0.48270163
000360 01 28 0d 3d 16 3c e9 bd 60 c5 d5 be 19 03 16 bd
       0.03446198 -0.113884136 -0.41752148 -0.036624048
000370 44 03 f1 3d e8 08 95 be ba c4 84 bf 16 08 d6 be
       0.11768201 -0.29108357 -1.0372536 -0.41803044
000380 26 84 1d 3c 66 d1 cd 3b b5 05 8a 3e 1c db 39 3d
       0.009614026 0.0062810658 0.2695748 0.045374975
000390 fb 42 a7 3d c4 6a c3 3d 3f 54 84 be 7e b9 d9 be
       0.081670724 0.09541848 -0.25845525 -0.42524332
0003a0 22 59 39 3c 1c d7 76 be 80 6e 63 bd d9 86 b7 3a
       0.011312755 -0.24105495 -0.055525303 0.001400198
0003b0 54 0c fa bc 53 f7 8c 3d cd a7 cd be bd f9 fd be
       -0.030523457 0.06883111 -0.40167084 -0.49604598
0003c0 20 a1 ab bd 8e 10 85 3d 20 f4 1b bd 25 f0 f9 3b
       -0.083803415 0.06497298 -0.038074613 0.0076275044
0003d0 36 fa e2 bc fa df 13 3e bb 2c fe bd 72 8d a7 bd
       -0.0277072 0.14440909 -0.124108754 -0.081812754
0003e0 2b bb b0 be 62 aa 89 bd 78 c3 62 be dd 46 45 bc
       -0.34517798 -0.06721951 -0.22144878 -0.012040821
0003f0 d4 23 a8 bc ab d4 f8 bc 21 4f c0 bc 9c 50 d6 3d
       -0.020524897 -0.030374845 -0.023475232 0.10464594

critic.preprocess.model.model.0.bias f4 [64]
000000 09 f4 06 be a1 c4 e4 be 41 44 17 3e ca 64 88 be
       -0.1317903 -0.44681266 0.1477213 -0.26639396
000010 fb d1 af bc 41 d6 05 bf b3 b1 88 be 65 21 74 3f
       -0.021462431 -0.5228005 -0.26698074 0.95363456
000020 ac 8d 0f 3e 92 16 14 bf 27 05 51 3e 1f 43 ef 3c
       0.14018887 -0.5784694 0.20412122 0.02920681
000030 19 a4 dc 3e 0d 89 2c 3f 2e 9c 56 3f 34 bf 80 bb
       0.43093947 0.6739662 0.8383206 -0.003929043
000040 65 d1 b1 3e 11 a9 27 3f 19 45 8f 3f 7e a4 53 3e
       0.34730068 0.6549235 1.1192962 0.20668218
000050 4c 5b 23 3e 1c c6 66 bd 89 15 36 3f 19 1b 2b 3f
       0.15952796 -0.056341276 0.7112661 0.6683822
000060 c4 65 d9 be 52 20 b6 be 35 97 36 be e4 09 c2 be
       -0.42460454 -0.35571533 -0.17831118 -0.3789817
000070 32 88 07 3b be bd 9a bf a3 f5 3a be 1e 2b 12 bf
       0.0020680544 -1.2089155 -0.18257765 -0.5709704
000080 21 08 d4 be 37 23 0d bf a3 6b 52 3e 6a 15 89 be
       -0.41412452 -0.5513186 0.20548873 -0.2677415
000090 73 a2 69 3e 80 d6 04 3e fd 34 15 3f 8c fd c7 be
       0.22815876 0.1297245 0.5828398 -0.39060628
0000a0 db 40 76 bf d8 6e c5 3e e0 6c 92 3f db c7 e6 be
       -0.9619271 0.3856113 1.1439476 -0.45074353
0000b0 fa 10 df be 3a 8a ca 3d 5d 62 c6 be 25 d3 42 bf
       -0.4356764 0.09889646 -0.3874692 -0.7610343
0000c0 78 83 b5 be 6e 34 34 3e 49 17 1b 3f 97 8c c0 3e
       -0.35451865 0.17598125 0.60582405 0.37607262
0000d0 33 20 84 3e 3e ca 8c 3e 96 0d 14 3f 60 8c 61 3e
       0.25805816 0.2749805 0.5783323 0.22026205
0000e0 95 e2 7a bd b3 85 e7 3d 33 5c 91 3f d5 8a 0c 3d
       -0.06125124 0.11304798 1.1356262 0.034312088
0000f0 50 5d cf 3e 15 00 88 bf e0 52 f6 3c 37 96 00 be
       0.4050088 -1.0625025 0.030068815 -0.12557302

critic.preprocess.model.model.2.weight f4 [64, 64]
000000 15 e9 1f be 0c 3b 84 3d c4 8a 23 3e 52 4b 10 3e
       -0.15616257 0.06456575 0.15970904 0.14091232
000010 d8 e1 20 3e d8 76 5d 3e 1a 51 70 3d 56 04 66 bd
       0.15711153 0.21627367 0.058671094 -0.05615648
000020 a6 c2 a5 bb 18 68 16 be d5 a4 9d be 32 b4 20 3e
       -0.0050586043 -0.14688146 -0.3078982 0.15693739
000030 49 f3 cb be 21 bc bd 3d 67 7e 0c be f9 4a 47 bc
       -0.3983405 0.09264398 -0.13720094 -0.012163871
000040 8f 6a 5c bd 19 26 c4 be 63 f7 2a 3e cd d7 22 be
       -0.05381256 -0.38310316 0.16695933 -0.15902634
000050 8d 79 e6 3d ef 91 24 3e 41 20 bd bd eb e2 3a bf
       0.11253653 0.16071294 -0.092346676 -0.730025
000060 72 a1 fc 3d 03 a7 c6 3e 13 f9 21 bd cb 26 96 be
       0.12335481 0.38799295 -0.039544176 -0.29326472
000070 9d 0b 04 be c0 05 61 3d c7 62 57 3e 4f f2 32 3d
       -0.12895055 0.054937124 0.21033774 0.043688115
000080 8d 04 cb bd 78 0b 82 bd 6f 9e 3e 3d b9 bf c0 be
       -0.09912977 -0.06349844 0.046537813 -0.37646273
000090 c4 9c 1b 3e 3f 1a fb 3e 1b 14 d9 be e3 9f fa 3e
       0.1519652 0.49043462 -0.42398152 0.4895011
0000a0 cc ac a2 3d d5 28 4a be 75 1d d3 bd f1 8d 12 be
       0.07943115 -0.19742139 -0.10308353 -0.14311959
0000b0 13 6f 04 3d 3b f5 45 bd c1 ed 01 bf 81 29 58 3e
       0.03233249 -0.048329573 -0.5075341 0.21109582
0000c0 d5 4a 4b 3c 57 ca 2d bb 8b 8f a9 3e 51 81 04 3d
       0.012407978 -0.002651831 0.33117327 0.03234989
0000d0 8a ac e5 bd a9 3f 32 be a5 98 6c 3e 43 1a 72 be
       -0.1121455 -0.17407097 0.23105104 -0.2364283
0000e0 3c fe 5e 3d dd 58 be bd d5 52 fa 3d 95 37 f4 be
       0.054441676 -0.09294293 0.1222283 -0.47698656
0000f0 79 91 ee 3d 02 91 80 3e 4d 4b f7 3d c7 73 d5 3d
       0.116488405 0.25110632 0.12074909 0.104224734
000100 19 53 08 be f5 46 0d 3f 5a 67 f5 3d e9 9f dd bd
       -0.13312949 0.55186397 0.11982603 -0.10821516
000110 39 f6 2d be bb a4 33 bc bb 76 df 3d 01 c4 87 bd
       -0.16988458 -0.010964568 0.10911318 -0.06629182
000120 11 c7 92 3d 8a bb 7f 3d d8 57 ac 3d d0 75 56 3d
       0.07166875 0.06243471 0.08415192 0.05235845
000130 88 ad 97 bd 83 a5 5c bf 35 64 83 bf da 2e 86 3d
       -0.07406145 -0.8619005 -1.0264956 0.06551905
000140 1f 64 ff bd a9 34 f0 bd 25 ae db bd a4 ff 81 3e
       -0.124702685 -0.11728794 -0.10726575 0.2539035
000150 8e ec 04 3e 11 28 94 bd 22 95 ad be 30 55 a3 3c
       0.12980863 -0.072342046 -0.33902842 0.019938082
000160 8c f2 ec 3c 52 88 31 3f e5 f8 79 3e 1a ac 89 3e
       0.02892425 0.69348633 0.24411352 0.26889116
000170 9a c9 b7 3e 44 2d a7 3e cc 8e 0f 3e 56 6f 2c be
       0.35895997 0.32651722 0.14019316 -0.16839346
000180 73 e5 7b 3e 89 27 5f 3f 4a 47 8e be d0 33 ca 3c
       0.24599247 0.871697 -0.27788764 0.02468291
000190 5b 68 dc be 9a 9f 08 be cb 16 81 be 6b bf 88 3d
       -0.43048367 -0.13342133 -0.25212702 0.06677135
0001a0 f0 de 9e 3e 37 1d 6e 3e 9e 15 ce be 66 12 89 3e
       0.31029463 0.23253332 -0.40250868 0.2677185
0001b0 fa 2a a8 3d a6 b9 2a 3e 78 bc 3d 3e f7 2b e5 3e
       0.08211322 0.16672382 0.18528926 0.44760105
0001c0 6e 00 75 3f 1f 58 06 be 36 87 ec be 56 b4 4e be
       0.9570378 -0.13119553 -0.46196908 -0.2018598
0001d0 f1 63 85 3e 36 58 02 be 3d 26 8a be a4 12 87 be
       0.26052812 -0.12728962 -0.26982298 -0.2638141
0001e0 e0 0e 6a 3e c6 ab f2 3a 81 d9 e6 be 70 32 6a bc
       0.22857237 0.0018514327 -0.45087817 -0.014294252
0001f0 8e 72 72 be aa 14 2e 3f b9 aa ed 3e c0 27 8d 3c
       -0.23676512 0.6800028 0.46419314 0.017230868
000200 97 78 c2 3e 62 c3 5e 3e d2 08 f4 bd 9a ea 8c 3e
       0.37982628 0.2175422 -0.11915745 0.27522737
000210 84 b7 c1 3e 75 16 83 3e 3f bb 71 3e 68 af af 3b
       0.37835324 0.2560307 0.23606585 0.005361486
000220 2a aa 98 3e c9 d1 c1 bd 79 e2 99 be 5a 0e 15 3c
       0.29817325 -0.094638415 -0.30055597 0.00909766
000230 bf 7b 5c 3e 16 01 dd 3d 4b de 5c 3d f8 28 c5 3c
       0.2153158 0.10791223 0.053922933 0.024067387
000240 f6 eb 88 3e 5d 53 d5 be 74 6b 00 be 24 a8 b7 bc
       0.26742524 -0.41665164 -0.1254099 -0.022419043
000250 8a 1c a2 be 7e a3 e0 3d 25 ed bd 3d 75 46 99 3d
       -0.316624 0.10968684 0.09273747 0.07484142
000260 73 2d 86 3e 11 ca e1 3d 02 5f c1 bd 13 c6 45 bd
       0.2620655 0.11024869 -0.094419494 -0.0482846
000270 73 b4 83 3c 46 36 dc 3e 37 b3 10 bc 35 6f a1 3e
       0.016077256 0.43010157 -0.008831791 0.31530157
000280 8b 0d 35 be eb ce a9 bc 58 21 43 be 0d 1a 4d 3e
       -0.17680947 -0.020728549 -0.19055688 0.20029469
000290 2d f6 e4 3e 6e 9b 5f be 39 bf 3c be 34 4b a5 3e
       0.44719067 -0.21836635 -0.1843232 0.32283938
0002a0 7d 6e f3 3d 6e 85 93 bd 82 81 e5 be fc 59 83 be
       0.11886308 -0.07203184 -0.4482537 -0.2565459
0002b0 7c a1 cb 3d 60 42 0e bd f6 d7 8f be 3b cb b4 3c
       0.0994291 -0.03473127 -0.28094453 0.022069564
0002c0 14 34 b9 3b 55 a3 e3 be cd bb 8c be f6 e1 a2 be
       0.00565196 -0.4446055 -0.2748703 -0.3181302
0002d0 4a 3e 02 bf 4d 17 c9 3d 41 86 ee 3d cc ad a3 3e
       -0.50876296 0.098188974 0.11646701 0.31968534
0002e0 ff 59 ab be ec a4 97 bc 91 cc 30 bf 51 de b9 be
       -0.334671 -0.018511258 -0.69062144 -0.36302426
0002f0 2e 31 99 3d 3d b1 98 3e fe 7a 2c 3e 34 b6 b8 3d
       0.074800834 0.29822722 0.16843793 0.090191275
000300 25 10 3a 3f a1 05 5f be 96 06 f4 bc 7e ff 5c 3d
       0.72680885 -0.21779491 -0.029788297 0.053954594
000310 d0 2e 4c 3e 0b 02 ed 3e c1 f8 80 3d 5e cd 66 be
       0.19939733 0.4629062 0.06297446 -0.22539279
000320 31 fb 9a be 81 8c 7e 3d 7f af 67 bc c2 bc 41 3c
       -0.3026977 0.062145714 -0.014140963 0.0118247885
000330 49 ac e0 3d 4c 3d 17 3d f3 46 05 3b 46 06 17 be
       0.10970361 0.03692369 0.0020336478 -0.14748487
000340 8e 34 09 3d 97 fc a9 bd 24 5c 62 3e da 56 a5 bd
       0.033497386 -0.08300131 0.22105461 -0.08073206
000350 a6 90 1e 3d ad 08 fd bd 0e ab 09 3c a8 c2 4b be
       0.038712166 -0.123551704 0.008402599 -0.19898474
000360 b3 9e ae 3e 8d aa a1 be 65 e2 f0 bd c4 b3 d7 be
       0.34105453 -0.31575432 -0.11761931 -0.42129338
000370 73 4f 21 3e b3 7e 9c bc 80 6a ee 3d 03 77 05 3e
       0.15752964 -0.019103384 0.11641407 0.1303368
000380 a9 6e f4 bd d6 25 c7 bb 83 2d 41 3d c0 c2 a7 bd
       -0.11935169 -0.0060775084 0.047162544 -0.081914425
000390 36 91 4d be 74 e2 32 be 86 b1 79 3e 0b af 26 3e
       -0.20074925 -0.17469198 0.24384126 0.16277711
0003a0 a0 43 9e 3e 4d 5d 8b 3e 15 b3 6a 3d 9a 65 e2 bd
       0.3091097 0.2721962 0.057299692 -0.11054535
0003b0 26 97 90 bd 8e 7b 50 be f6 3a 8b be fe 78 43 be
       -0.07060079 -0.20359632 -0.2719342 -0.19089124
0003c0 97 e0 4a be 9a 9d dc be e3 a2 77 be 6c f2 20 3e
       -0.19812237 -0.4308899 -0.2418323 0.15717477
0003d0 db aa db bd fd 7d c2 3e 63 d7 7f bd e8 a2 4a 3d
       -0.107259475 0.37986746 -0.06246127 0.049471766
0003e0 1c 0c ac bd 4f 13 8d 3d c3 e4 e5 bd 9c ca 56 be
       -0.08400747 0.068884484 -0.112252735 -0.20975727
0003f0 ca 03 95 bc bf ed c7 bd f6 7d 98 3e a1 7a a1 3e
       -0.018190283 -0.09762143 0.297836 0.3153887

critic.preprocess.model.model.2.bias f4 [64]
000000 08 85 37 3d bb df 82 be b5 90 8e be de 95 a7 3d
       0.044804603 -0.25561318 -0.27844778 0.08182882
000010 bc c4 3e 3c d1 60 da bc 2c da 67 3d b4 4f ba be
       0.011643585 -0.026657494 0.05660455 -0.36388934
000020 80 ef a3 3d cd 0f 73 3e 78 3a 03 be 4d b6 b1 3d
       0.080046654 0.23736496 -0.12815273 0.08677349
000030 9a ac 70 bd e9 a4 fc 3d c9 30 df 3d e0 cd 1c 3f
       -0.058758356 0.123361416 0.10897977 0.6125164
000040 b1 00 af bc ce e1 d9 bd de dd a0 3d f6 bf d0 bd
       -0.021362634 -0.10638772 0.07854818 -0.10192864
000050 21 7a aa bd a0 76 ba 3d 43 a5 17 3c 89 70 b4 3d
       -0.083240755 0.09104657 0.00925571 0.08810527
000060 6a a6 17 bd 0e c3 aa 3d 58 d3 a4 3e 07 3f 98 bc
       -0.03702394 0.08337985 0.32192492 -0.018584741
000070 ab 97 a6 3e 02 c6 f1 3e ae 90 59 3f 29 93 97 3d
       0.32537588 0.4722138 0.8498639 0.074011154
000080 56 45 e0 bc 28 a7 f0 3e 7f 07 81 bd 61 dc a1 3e
       -0.027376812 0.4700253 -0.06300258 0.31613448
000090 4b 83 02 bf cb 8f 2a 3e 27 4a 51 3b ff bf ff 3a
       -0.5098159 0.16656415 0.0031935067 0.0019512175
0000a0 fb a0 b0 39 13 d6 58 bf 72 26 67 3d 1e ef 07 3e
       0.00033689276 -0.8470165 0.05643315 0.1327481
0000b0 70 a9 4b 3c 4a 51 05 bc 08 92 bf bd a0 45 a0 bd
       0.012430534 -0.008137057 -0.09354025 -0.0782578
0000c0 e1 28 fe 3e 25 5e 94 ba 49 71 43 bf b1 42 06 be
       0.49640563 -0.0011319561 -0.76344734 -0.13111378
0000d0 9b 3a d1 be 36 89 83 be 2b ca 16 bf 07 14 c6 3d
       -0.40865025 -0.2569062 -0.58902234 0.09671789
0000e0 6b a3 a2 bb bd 13 af 3c 73 8f 2c bd 12 8b 28 bd
       -0.0049633286 0.021371717 -0.04212899 -0.041148253
0000f0 85 17 3a bd 2c db a8 3d 84 c7 b1 be bb 6f ce 3b
       -0.045432586 0.08244929 -0.3472253 0.0062999404

critic.last.model.0.weight f4 [1, 64]
000000 45 67 a9 3c de 71 ed bd c8 ed 10 be f1 f7 4e 3d
       0.020679126 -0.11593984 -0.14153206 0.050529424
000010 3f 03 f0 bc 2f 33 2c 3b 65 4d 67 3d b1 f4 4b bd
       -0.029298423 0.0026275625 0.056470294 -0.049793903
000020 b6 67 20 be e8 dc 9b 3d eb b9 a1 3d bf 6a 59 3c
       -0.15664563 0.07610494 0.07896789 0.013270079
000030 ab 30 0e bd 25 60 12 be 75 75 08 bd 3f c0 3c 3e
       -0.034714382 -0.14294489 -0.03331514 0.18432711
000040 79 4d 7f bd 51 f5 8d bd 6f 68 2c bd d5 91 41 be
       -0.062329743 -0.06931556 -0.042091783 -0.18903287
000050 32 ff 02 3d 81 ac 4e bd 17 5a b6 3a 09 0f bb 3b
       0.031981654 -0.05045748 0.0013912347 0.0057085794
000060 b9 93 32 3c 3f 49 a7 3c d7 5d c1 3d 70 38 4f 3d
       0.010899478 0.020420669 0.09441727 0.050590932
000070 6b ea 89 3d bb 5d a7 3e 03 c2 05 3f 3b b1 01 3b
       0.06734165 0.32688698 0.52249163 0.0019789475
000080 a4 4a 5e 3d c7 81 82 3e c2 3c 87 ba 40 7f b4 3d
       0.0542704 0.25489637 -0.001031779 0.088133335
000090 66 50 ac be d6 9e 3e 3c 80 2e 8d ba cb 3c 03 be
       -0.3365509 0.011634549 -0.0010771304 -0.1281616
0000a0 15 62 a8 bc 91 15 74 be 0d 0d ce bd c9 d3 85 3d
       -0.020554582 -0.23836352 -0.10061083 0.065345354
0000b0 e1 e5 a6 3b 3b a5 54 bb 35 cf 73 3d f0 19 b9 bd
       0.0050933217 -0.0032447118 0.05952378 -0.0903815
0000c0 84 59 04 3f bb 5b 47 bb aa 81 48 be c6 1f f2 bc
       0.5169909 -0.0030419666 -0.19580713 -0.029556166
0000d0 41 9f 90 be f7 5c 23 bd 45 16 b7 3d ab 75 94 3b
       -0.282465 -0.03988358 0.089397945 0.0045306287
0000e0 96 5f 8a 3b 88 a9 35 bb 1e 2e ae bd 60 4a 4b bd
       0.0042228205 -0.0027719457 -0.0850489 -0.049631476
0000f0 4f c4 31 3d 81 e8 81 bc ca 48 9b bd 93 8a ec ba
       0.043400105 -0.015857937 -0.07582243 -0.001804667

_actor_critic.actor.sigma_param f4 [6, 1]
000000 fa 19 fa bf f6 a2 00 c0 56 14 cf bf 89 05 12 c0
       -1.9539177 -2.0099463 -1.6178081 -2.2815878
000010 04 d0 1f c0 a7 42 fb bf
       -2.4970713 -1.9629716
