results/Swimmer-v3/trpo/9/220709-071606/policy.pth (torch, 47844 bytes, 24 tensors)

actor.sigma_param f4 [2, 1]
000000 c2 e6 02 c0 a2 50 1e c0
       -2.0453343 -2.4736714

actor.preprocess.model.model.0.weight f4 [64, 8]
000000 c9 8d 8f be 6d 9a ec bd 7f 3f cb 3d 2a 07 77 3e
       -0.2803786 -0.11552892 0.0992422 0.24123827
000010 c1 e3 5c bd 8e 0b 7f be 5e 02 31 3e 10 2a 24 bf
       -0.05392814 -0.24906752 0.1728606 -0.6412668
000020 9c 24 f7 3e 45 66 4b 3e e6 8e 45 be 79 2e b7 3c
       0.48270118 0.19863231 -0.19292793 0.022361027
000030 27 fa 96 3e 4d 2e 4d be 4a be c5 bd e8 65 0a 3e
       0.29487726 -0.20037194 -0.096554354 0.13515437
000040 db fa 50 be 2b f9 29 3d 73 50 94 3d a9 a9 50 3e
       -0.20408194 0.04149739 0.07241907 0.2037722
000050 87 35 9b bd 9f ed 17 be 10 0c 26 3d a9 04 0e be
       -0.07578569 -0.14836739 0.040538847 -0.13868965
000060 be bd b6 be 29 e7 cb be 99 b0 05 3f 86 4a b8 bc
       -0.35691637 -0.398248 0.5222259 -0.022496473
000070 69 5f 2a be 8b 33 7d be 2d 22 6e 3e 52 9c 56 bf
       -0.16637959 -0.24726693 0.23255225 -0.83832276
000080 46 ac ad be dd 9a 33 3f 59 70 9c 3e 48 7e 93 bd
       -0.33920497 0.7015818 0.30554464 -0.072018206
000090 91 65 f6 3b e2 07 ad 3d 92 2a c2 be b0 1b c9 bb
       0.007519432 0.08448769 -0.37923104 -0.006137334
0000a0 0e 04 1c be 29 4f 49 be 06 99 3c bd ab 84 15 3e
       -0.15235922 -0.19659103 -0.046044372 0.1460139
0000b0 81 28 8c 3d 94 e3 d3 3c 54 a5 ad 3c da 68 9b be
       0.06843663 0.025865354 0.021196999 -0.30353433
0000c0 ab c1 eb 3e c0 0f 3d 3e d6 62 87 be fe 6f a6 3c
       0.46046194 0.1846304 -0.26442593 0.020317074
0000d0 ea 0d 5b be 2c af 8d 3e ed 0e 9e be 40 a3 15 3f
       -0.21392027 0.27672708 -0.30870762 0.58452225
0000e0 5c 1f c6 3e 64 c0 a2 3e 7c ae b5 be 22 3c 82 bc
       0.386958 0.31787407 -0.35484684 -0.015897814
0000f0 7d 7a a9 3d 17 ad 8c 3e 49 96 38 bc 55 d8 4b 3f
       0.08275316 0.27475807 -0.0112662995 0.7962697
000100 7e 36 ef bc 4d 21 34 3d b1 ff 10 be c4 57 be 3c
       -0.029200789 0.04397707 -0.14160039 0.02323521
000110 fd ec a0 3e 68 ca ba bc 54 f2 90 bc d9 c4 03 be
       0.31430808 -0.022801593 -0.017693676 -0.1286806
000120 e7 49 f1 3d 5b d4 b8 3d ac 9e 26 3e d1 cb 8d be
       0.11781674 0.090248786 0.16271466 -0.27694562
000130 d6 3c 9e bc 25 60 9d 3e 57 7c 85 3e 9c e8 59 be
       -0.019316118 0.30737415 0.26071426 -0.2128014
000140 e2 02 a9 3d 8f b0 69 bd 69 e0 c1 bd a1 21 3a 3e
       0.08252503 -0.057053145 -0.09466631 0.18176891
000150 25 ec c8 bb 26 33 35 3e f2 82 5c be 60 cb b9 3e
       -0.0061316662 0.17695293 -0.21534327 0.36287975
000160 a4 e5 34 3d db 16 69 3e ad 8a 1f be c5 ac 94 3e
       0.044164315 0.22762625 -0.15580244 0.29038063
000170 43 34 8d 3e 8c 77 29 3c 00 d7 79 3e a9 9c 6f 3d
       0.27578935 0.010343444 0.24398422 0.058499012
000180 5d d7 f7 3e 95 17 66 be 16 2b d4 bd ba 1b a5 3e
       0.48406497 -0.22469933 -0.103597805 0.32247716
000190 b7 cf 87 3e 1a 31 87 be 3b 67 86 3d 41 e5 01 3f
       0.2652566 -0.2640465 0.065626584 0.5074044
0001a0 c5 e1 c4 3d a9 0a c8 3d 3f da 04 3d cd d7 e8 bd
       0.096133746 0.09767658 0.0324347 -0.11369286
0001b0 11 79 3c 3b 21 ae 36 be 1f 21 e9 bd 42 df 55 3e
       0.0028758685 -0.17839862 -0.113832705 0.20885947
0001c0 fa d3 9a be 8d e9 a4 be 05 22 2e 3e a9 7d c1 be
       -0.3023985 -0.32209435 0.17005165 -0.37791184
0001d0 82 8b bd be 26 11 2f 3e 5d 98 af bd d3 4a 0d 3f
       -0.370205 0.17096385 -0.08573983 0.551923
0001e0 94 e8 3d 3e 9d 8c 37 3d 45 30 b5 3e 63 e9 49 bd
       0.18545753 0.044811834 0.3538839 -0.04929484
0001f0 78 7b 16 bd 75 3b 98 3e d3 42 9d 3e ef 7e ed be
       -0.036738843 0.29732862 0.30715045 -0.46385905
000200 3b 26 84 3e f6 87 26 3f 38 04 3f be 21 88 e4 3c
       0.25810418 0.6505121 -0.18653953 0.027896943
000210 2b 39 4b 3e 61 30 64 3e f5 f8 b8 3d 7c fc 8c bd
       0.19846027 0.2228408 0.0903186 -0.06884095
000220 6c ea 5d 3a a9 55 a5 3d 06 97 db bc 70 92 c0 3d
       0.00084654125 0.08072979 -0.026805412 0.09402931
000230 1b 0c ac be 8a bd 67 be dd 4b e7 bc 78 79 64 3d
       -0.33602986 -0.22630897 -0.028234417 0.055779904
000240 43 76 ef bc 82 4b c4 3e 26 ca 3b 39 4c 00 b2 3e
       -0.029231196 0.38338858 0.00017909016 0.34765851
000250 e9 f4 25 3e 2b 5d 78 be 67 9e 62 3e 23 ee eb be
       0.16206707 -0.24254291 0.22130738 -0.4608012
000260 d7 59 b7 3e d8 6b 9e 3e 72 03 86 3d a8 c3 21 be
       0.3581073 0.30941653 0.06543626 -0.15797293
000270 b2 c6 eb bd 7e 2d d2 3d 4f 95 5f be b6 06 5f 3e
       -0.115125075 0.10262583 -0.218343 0.21779904
000280 7f 22 11 3d db c8 9f 3d 53 73 1f 3d 37 a8 86 bd
       0.03543329 0.07801982 0.03892834 -0.06575053
000290 45 7b 9c be e5 8a 94 bd 61 49 26 3d 36 c7 07 3f
       -0.30562797 -0.072530545 0.040597323 0.53038347
0002a0 53 35 8e 3e d8 d6 e3 3d 07 7f 84 be c5 e0 bb 3d
       0.27775058 0.111249626 -0.25878164 0.09173731
0002b0 f2 c2 40 3e 6a 6c 83 3d cf 01 b6 bc 44 bd 09 3f
       0.18824366 0.06417163 -0.02221766 0.5380442
0002c0 c3 f5 0f 3e 46 44 d1 be 18 50 3b 3e 56 9b ea bc
       0.14058594 -0.408724 0.18292272 -0.028638523
0002d0 c4 fc 8c 3e d9 c3 de 3d ed d7 a1 3e 3c 1b 9f 3e
       0.27536595 0.10877199 0.3161005 0.31075466
0002e0 12 13 8d 3d b3 3c 38 be 6d b1 6c be d4 42 1b 3d
       0.06888403 -0.17991905 -0.23114558 0.03790553
0002f0 6b 46 0e be b8 6b a1 be 15 13 16 be b9 d4 3b 3e
       -0.1389405 -0.31527495 -0.14655717 0.18342866
000300 18 8a 12 3e ce 94 b1 3d e9 cb 03 bd c9 ad fc bc
       0.14310491 0.0867096 -0.032176886 -0.030844586
000310 ac a4 96 bd 3e 6b bf 3d 64 dd 99 be f5 17 74 3e
       -0.073556274 0.09346627 -0.3005172 0.23837264
000320 99 74 df 3e 17 f2 25 3f c2 92 81 3e 5f 4c d0 bd
       0.43643644 0.64822525 0.2530728 -0.10170817
000330 82 2b c3 3e 06 7d b9 3d 0e 3e b6 3d 60 12 5c be
       0.3811913 0.090570495 0.08898555 -0.21491385
000340 8f 2a 0e bd 80 16 c4 3d b2 7e 38 be 07 c5 fb 3d
       -0.034708556 0.09574604 -0.1801708 0.12293439
000350 69 54 b2 3b 0c fb 6c 3e 33 b0 b2 3e 26 01 0b 3e
       0.0054421914 0.23142642 0.34900054 0.13574657
000360 71 6c 0d 3c b7 83 06 3f fd bd 7d be 22 d6 06 bd
       0.0086318115 0.5254473 -0.24779506 -0.032919057
000370 94 0b 2f be 4e ce 51 bd e0 e8 3c 3e ef 3e e9 be
       -0.1709426 -0.051222138 0.1844821 -0.45555827
000380 96 b0 8f be c0 06 0b bf db 88 29 3e 89 6d ba be
       -0.28064412 -0.54307175 0.16556112 -0.36411694
000390 27 50 cd be 95 65 b6 be be 9e 39 be c4 07 40 3e
       -0.40100214 -0.35624376 -0.18126962 0.18752962
0003a0 74 15 46 be 78 f5 fa 3e 65 16 fb 3e 18 7c aa 3d
       -0.19344121 0.49015403 0.49040523 0.0832445
0003b0 82 b2 33 3e 08 86 40 3e 1c 64 ec bd 43 8e 96 3e
       0.17548564 0.18801129 -0.11542532 0.29405412
0003c0 89 78 79 be 0b df 8c bd 68 f8 8c bd 70 f4 1d 3f
       -0.24362387 -0.068784796 -0.06883317 0.6170111
0003d0 10 61 ed bd dd 1f 41 3e 25 a6 3b be 15 6c ac bd
       -0.11590779 0.18859811 -0.18325098 -0.084190525
0003e0 71 b8 3c be f5 6a c0 be 06 36 26 bd da 55 c3 3d
       -0.18429734 -0.37581602 -0.040578865 0.09537859
0003f0 22 27 5d be b5 d4 8b be b1 aa 4c 3d 9e e5 48 be
       -0.21596959 -0.2731072 0.04996747 -0.19618842

actor.preprocess.model.model.0.bias f4 [64]
000000 d5 61 79 bd 43 4b 3f 3e 49 4a ef bd 4a 54 f7 3d
       -0.060884316 0.18681054 -0.11684091 0.12076624
000010 14 d4 57 3e 57 8d dd 3b 10 3a 6d be e7 c4 f5 bc
       0.21076995 0.006761234 -0.2316668 -0.030001117
000020 a3 e1 08 3e ff b7 d0 3c 39 59 08 3d c3 9e d8 bd
       0.13367324 0.025478361 0.033288214 -0.105771564
000030 f1 ad ac 3c d9 e6 31 bd 56 24 f0 bd 14 f1 d8 3d
       0.021079035 -0.043433044 -0.117256805 0.10592857
000040 17 99 90 3d f5 2a 79 be e6 28 dd bd 5c a4 73 3b
       0.070604496 -0.24332793 -0.107988164 0.0037176823
000050 ff b4 ef bd de 93 2b be 85 71 83 3e 32 e5 0b bc
       -0.11704444 -0.16755626 0.25672546 -0.008538531
000060 f4 3d 97 3c 61 5f 43 3d 62 62 b9 bc 5e c9 78 be
       0.018462159 0.047698382 -0.02262992 -0.24295565
000070 17 3b 20 be 62 69 fa bd f7 0e 97 3d 4c cb c3 3a
       -0.15647541 -0.122271314 0.07375901 0.0014937907
000080 33 fa e1 3d 20 9c f9 3d 7a ee cb 3d 25 92 51 be
       0.1103405 0.121879816 0.09957595 -0.20465906
000090 2f 7d 3a 3d 9c 0b 90 3d db d2 6d bd 66 06 e6 bd
       0.04552954 0.07033464 -0.058062416 -0.11231689
0000a0 e4 db 12 3e 29 2c 77 3d d2 2e d5 3c 0a 36 1e be
       0.14341694 0.06034485 0.026023302 -0.15450302
0000b0 b9 94 41 bd f7 e5 71 be ae ff fb bc e3 e1 ec 3c
       -0.047260974 -0.23622881 -0.030761566 0.028916305
0000c0 93 37 33 3e 2d b6 38 bc 63 47 19 be 07 a7 35 bd
       0.17501669 -0.011273903 -0.14968638 -0.044348743
0000d0 8b 5a 01 3d df fb 09 be f0 38 12 3e d1 9b f6 bc
       0.03158049 -0.13474987 0.14279532 -0.030103596
0000e0 e7 8d 0e bd 1d f8 33 be ae ef 11 bd 07 cf a1 3d
       -0.034803297 -0.17575116 -0.035628967 0.079008155
0000f0 b2 04 3e 3d f6 6e a8 bc 6d 38 74 3e 6a d8 ea 3d
       0.046391197 -0.020560723 0.2384965 0.11467059

actor.preprocess.model.model.2.weight f4 [64, 64]
000000 bf af 6c 3c 1f 59 2b 3e 25 46 4d 3d 44 d3 93 be
       0.014446198 0.16733216 0.050115723 -0.2887212
000010 89 83 7d 3d 83 07 55 bd 8e df 32 be 5b 32 a6 bd
       0.06189302 -0.052009117 -0.17468092 -0.08115073
000020 eb 58 a0 3d f9 5c 38 3d 92 75 39 be a1 5d 41 3d
       0.0782946 0.04501054 -0.18111256 0.047208432
000030 31 96 14 be c5 b6 b8 bd 06 2c 95 bd 1b 44 49 3d
       -0.14510418 -0.090192355 -0.072837874 0.049137216
000040 0c 46 32 be 35 98 1c 3d d9 12 93 3e 24 63 ca 3d
       -0.17409533 0.038231093 0.28725317 0.09882191
000050 5d 94 9d 3e 56 5e 3b be 74 0b c9 be c3 1b a7 be
       0.30777255 -0.18297705 -0.3926655 -0.32638368
000060 8c c3 2e 3e 13 6c 15 bd f3 de 19 3e ab c6 fb bd
       0.17066783 -0.03648002 0.15026455 -0.12293752
000070 3a 50 15 be 95 69 5e bd 63 de 66 be b1 7e b7 bd
       -0.14581385 -0.05429991 -0.22545771 -0.08959711
000080 06 bb 8f bd f5 82 8a bd 9c b4 45 bd 85 f4 6c be
       -0.07018094 -0.06763259 -0.048267946 -0.23140152
000090 3d 1a e3 3b b6 cb 4c 3d 64 af f0 bd 87 a0 a0 be
       0.006930618 0.04999896 -0.11752203 -0.31372473
0000a0 63 ff 5b 3e 9f 23 96 3e 4e 86 77 bd ec d4 8d 3c
       0.21484141 0.29324052 -0.060430817 0.017313443
0000b0 cc 22 57 3e 1e 11 df bd fb 6e bf bc 96 92 57 3e
       0.21009368 -0.10891937 -0.02336835 0.21052012
0000c0 f8 b2 b3 3d c7 07 44 be 92 db d4 3d a9 5f 72 3e
       0.0877437 -0.19143592 0.10393442 0.23669304
0000d0 e9 31 a0 3e 72 f6 37 be 9b 44 03 3e c8 28 40 3e
       0.31288078 -0.17965105 0.1281914 0.18765557
0000e0 e5 81 da 3d 7a a5 98 bd ab 7e f5 bd 00 83 f4 be
       0.10669307 -0.07453437 -0.119870506 -0.47756195
0000f0 44 b0 02 be b3 c6 3d be 68 43 9d ba 99 24 87 be
       -0.12762552 -0.18532829 -0.0011998238 -0.2639511
000100 6e 52 eb bd fb ad 84 3e 55 2c ab 3e 24 56 37 3e
       -0.114903316 0.25913987 0.3343226 0.17903954
000110 54 c6 97 3e 07 49 36 be 52 f0 10 be 10 c3 06 be
       0.296435 -0.17801295 -0.14154175 -0.13160348
000120 4a eb 7c bd 73 65 ef bd 63 57 0a be b0 42 58 3e
       -0.061747827 -0.11689272 -0.13509898 0.2111919
000130 7c db 39 bd 1e 83 17 3e dd 89 52 3e 86 80 c8 3d
       -0.045375332 0.14796111 0.20560403 0.09790139
000140 17 94 6b 3c 56 a6 55 3d 20 b8 d2 bc ca 26 f4 3d
       0.014378569 0.052160583 -0.025722563 0.11921461
000150 54 74 9b bd f2 43 ad 3e d5 49 02 be b6 66 a1 3e
       -0.07590547 0.338409 -0.12723477 0.31523675
000160 1e 31 d6 3c 41 2f d4 be 99 6a 8b 3e c5 ee 6e 3d
       0.026146468 -0.41442302 0.27229765 0.058333177
000170 a2 62 f4 3d 92 a7 f8 bc df c1 bd bd 39 f2 08 3e
       0.11932875 -0.030353341 -0.092654936 0.1337365
000180 9a af 0e 3e 9b 52 56 bd 2a e2 f4 3d 82 bc b2 bd
       0.13934174 -0.052324872 0.119572 -0.08727361
000190 bc d6 74 3e 47 fd 14 be a2 48 1e 3d 07 ac f5 3d
       0.2391004 -0.14549743 0.038643487 0.11995702
0001a0 00 d1 6b 3e 60 0a 85 3e 93 a4 34 3d 95 26 12 3e
       0.23028946 0.25984478 0.044102263 0.1427253
0001b0 a3 b5 92 3e 73 86 ad be be 10 01 be f4 de 0a bd
       0.28654203 -0.3389164 -0.12604043 -0.03390403
0001c0 bb a7 c7 3d 00 f4 8d bd a3 e2 06 3e 30 62 e7 be
       0.09748789 -0.06931305 0.13172393 -0.451921
0001d0 e7 d1 06 bd ac 97 b4 3e 3e 2f b4 bd 87 82 0e bd
       -0.032915022 0.35271966 -0.08798073 -0.03479245
0001e0 b4 f6 d7 bb 3f 13 2d bd 01 ea 10 bd 11 f1 53 be
       -0.0065906886 -0.042254683 -0.035379414 -0.20697428
0001f0 2f 88 ac 3e f1 2b 14 bc a1 33 fe bd 41 f4 00 3e
       0.3369765 -0.00904368 -0.12412191 0.12593175
000200 09 2d 8f be 32 19 ec bd 85 58 3c be db 52 79 be
       -0.27964047 -0.11528243 -0.18393143 -0.24348013
000210 49 04 a5 bd 27 5f 43 bd 69 b3 18 be ff c6 2b be
       -0.08057458 -0.047698166 -0.1491219 -0.1677513
000220 c3 e5 c6 3d 67 d7 66 be 54 81 b1 bd d7 e9 67 bd
       0.09711792 -0.22543107 -0.086672455 -0.05661949
000230 b8 f7 b6 bc c2 1c cb 3d a3 7f b9 be 9e 05 b4 3a
       -0.022334918 0.099175945 -0.36230192 0.0013734584
000240 81 7a 98 3e 9f 0c 3d 3e e4 85 fe 3c 40 f4 0d bd
       0.29780963 0.18461846 0.031069703 -0.034656763
000250 b2 11 fa bd 48 56 c7 3d 18 27 6e 3e ad 37 16 be
       -0.12210406 0.09733254 0.232571 -0.14669676
000260 83 b0 81 be b5 93 9a be 82 77 43 be 2e 39 30 be
       -0.2532998 -0.30190817 -0.19088557 -0.17209312
000270 da dd 1c be 45 14 72 be 35 21 7a be e2 f7 86 bd
       -0.15319005 -0.23640545 -0.2442673 -0.06590249
000280 c9 20 32 3e 86 7e 89 be b9 b8 f9 bd c7 5b 82 bc
       0.17395319 -0.26854342 -0.12193436 -0.015912903
000290 83 34 8d 3e 86 28 a7 3e bc 2b 04 be da f0 9a 3d
       0.27579126 0.32648104 -0.12907308 0.0756547
0002a0 a7 cd 93 3e 71 94 10 be a9 42 36 be cd af b1 3d
       0.28867838 -0.14119126 -0.17798866 0.086761095
0002b0 0c e8 d2 bc 0c 95 a7 3d 14 1a 46 bd a9 0c 02 bc
       -0.025745414 0.08182725 -0.048364714 -0.007937589
0002c0 39 b5 a9 bd db 12 20 be b4 d2 11 be 8e dc 94 be
       -0.082865186 -0.15632193 -0.14240533 -0.2907452
0002d0 01 77 19 be 33 1b 58 be 1a ba b7 be ef 1c 88 3e
       -0.14986803 -0.21104126 -0.35884172 0.26584575
0002e0 9f 58 73 3e 5e 48 a4 3d d7 94 f4 3c 45 3d ba 3c
       0.23764275 0.080216154 0.029856129 0.022734294
0002f0 9c d3 14 be d2 4b 30 bd 06 f5 1e 3e ef 00 ad 3d
       -0.14533848 -0.043041058 0.15523157 0.08447444
000300 28 84 06 3f 06 07 23 be a8 4d f4 3d d2 81 18 3f
       0.52545404 -0.15920648 0.11928874 0.5957309
000310 fe e8 b7 bd 90 10 b0 3d 9a 4b ff be 38 45 ee be
       -0.089799866 0.08596909 -0.49862367 -0.46537185
000320 b2 9e 0d bd f6 98 3e be 72 58 91 bd 76 03 1f 3d
       -0.03457517 -0.18613037 -0.07096948 0.03882166
000330 09 f2 e0 bc f7 4d e9 be 6c 2d 8b 3d 32 67 9d 3e
       -0.027459161 -0.45567295 0.06795773 0.30742794
000340 1a be b1 be f4 63 6d 3e 99 86 13 3e 68 8b 47 be
       -0.34715348 0.2318266 0.14406814 -0.19486773
000350 fb 40 9b be e0 06 9d be 7c 8b 61 be f7 7f 5a 3d
       -0.30323014 -0.30669308 -0.22025865 0.053344693
000360 a7 cb b6 3b f4 d2 6b bd ee 1c c3 bc b9 09 44 bd
       0.0055784765 -0.057574227 -0.023817506 -0.047860835
000370 ed cd 26 3e a4 1d e2 bd bb 28 7e 3e 46 72 83 3e
       0.16289492 -0.1104081 0.24820225 0.2567312
000380 f9 ba ea 3d 50 91 8d ba 3c 7b c7 3e e3 38 46 bd
       0.114614435 -0.0010800753 0.38961208 -0.048394095
000390 3b eb b2 3e 14 b0 69 3e 04 be eb be 7a f9 f3 be
       0.34945092 0.22821075 -0.46043408 -0.47651273
0003a0 93 f4 74 3c ca ea 52 be 64 11 00 3f 5e af b4 3e
       0.014950889 -0.20597377 0.50026536 0.35290045
0003b0 06 f9 22 3e 83 84 c8 bd 28 4f e6 3e 9d 82 03 3d
       0.15915307 -0.097908996 0.44982266 0.032106984
0003c0 e8 48 22 3e d3 ff 4a 3e dc 0e e7 be 09 b9 d3 bd
       0.15848124 0.19824152 -0.45128524 -0.10338027
0003d0 f5 54 48 bc 0e 03 1e 3c 33 a3 cd bc e2 dc 8a bd
       -0.012227287 0.009644283 -0.025102234 -0.06780411
0003e0 b1 0f e6 3e db a7 a5 3c 67 c7 ca bd eb f9 70 3e
       0.44933847 0.020221641 -0.09901314 0.23532836
0003f0 17 a4 c0 3d 6b 5b 45 be 79 29 48 be f4 f3 00 3f
       0.09406298 -0.19273154 -0.1954707 0.5037224

actor.preprocess.model.model.2.bias f4 [64]
000000 40 ce 55 3b d7 f5 4e bd 32 e8 b8 3d a2 0c ab 3d
       0.0032624155 -0.05052742 0.09028663 0.08352019
000010 e5 f8 e2 3c c4 c6 8d 3d 90 df 78 3d f0 6a aa bd
       0.027706573 0.06922677 0.06076008 -0.08321178
000020 c2 ea 57 3d fa d1 3a bd aa f2 6f bd e7 2a f6 bc
       0.052714117 -0.045610406 -0.05858103 -0.030049754
000030 a0 e1 20 be 32 b0 89 3e a6 34 c6 bb 08 c0 10 be
       -0.15711069 0.2689224 -0.0060487567 -0.14135754
000040 92 25 16 bd f7 e9 94 3c 97 5c 2f 3d 25 5d 81 3e
       -0.036656924 0.01817797 0.04281291 0.25266376
000050 08 37 07 bd 5b 44 11 3d 3d 15 d6 3d ec 6b 14 be
       -0.033011466 0.03546558 0.1045327 -0.14494294
000060 b7 d6 21 3e 94 10 03 3d f5 ab f3 bc a4 6a 9a bd
       0.15804563 0.031998232 -0.029745081 -0.07539871
000070 9f 14 fa bd d8 7c 6d bc 31 41 98 3b 7e ae f5 bd
       -0.122109644 -0.014495097 0.0046464433 -0.11996172
000080 3d 75 a8 bd fe b3 91 3d 96 5e 96 3b 5d 4b 94 3c
       -0.082254864 0.07114409 0.0045889122 0.018102342
000090 7b e0 6d 3e 52 75 65 bd 99 79 37 bc 48 fd 20 3d
       0.23230164 -0.05602009 -0.011198425 0.039304048
0000a0 14 8a df 3c 60 76 da 3c a6 f1 e3 3a 2c ed 9b bd
       0.02728752 0.026667774 0.0017390742 -0.07613596
0000b0 16 03 49 3d 12 55 ca bd 98 91 51 3d ef 1a fd bc
       0.04907521 -0.09879507 0.05116424 -0.030896632
0000c0 79 c0 7b 3d 8a d3 34 3c 68 79 20 bd a6 15 00 be
       0.061462853 0.011036763 -0.039178282 -0.12508258
0000d0 49 da b1 3d 9c 0e 03 bd 48 b8 b0 bb fd 6e 18 3e
       0.08684213 -0.031996354 -0.005393062 0.14886089
0000e0 75 1e 88 bd aa 1d 49 be 29 08 92 bd cd de 38 bb
       -0.06646434 -0.19640222 -0.07130463 -0.0028208971
0000f0 2b 30 39 3d 49 31 01 3d 54 75 26 3e 0e 71 f1 bc
       0.045211952 0.031541143 0.16255695 -0.029472854

actor.mu.model.0.weight f4 [2, 64]
000000 02 5b a8 3c 02 29 ab bc c9 48 1e be bc 32 12 be
       0.020551208 -0.020893577 -0.15457453 -0.14277166
000010 9e 64 c2 bc 38 1f 18 3d 1c e2 0e be 3f fe 43 3e
       -0.023729619 0.037139148 -0.13953441 0.19139956
000020 8d 79 d9 be 6c 82 bf 3c c2 29 37 be 7b a4 05 3e
       -0.42475548 0.02337762 -0.17887023 0.13051026
000030 e0 f8 1b 3d 0c e0 0f 3e 19 f5 1a bc 5a af 3b 3e
       0.038079143 0.14050311 -0.00945785 0.1832861
000040 cb 77 c0 bd b9 d3 10 3d 19 bb 38 be f7 3f 51 be
       -0.09397849 0.035358164 -0.18040122 -0.20434557
000050 38 3b b2 bd 4e 6a cc bc 46 33 a9 be a6 98 89 be
       -0.08702701 -0.024953034 -0.3304693 -0.26874274
000060 04 e0 a7 3d 3e ce ec 3d 7d 57 44 bd 58 f3 a8 3e
       0.081970245 0.11562775 -0.047934998 0.32998157
000070 d2 44 ff 3d 8d a2 1c 3e 22 38 e6 3d 0e db 5e 3e
       0.12464298 0.15296383 0.11241175 0.2176325
000080 b9 d7 91 3e 8e 73 93 be ae 51 64 be b8 6f d4 3c
       0.28484896 -0.287991 -0.22296783 0.025932178
000090 db 7a 28 3f 83 59 a0 3d 16 23 54 3c f3 2d be 3e
       0.6581246 0.07829573 0.012947818 0.3714443
0000a0 80 b0 15 be be 5a e7 bd 0f 48 e0 bd 9f ea dd 3e
       -0.1461811 -0.112966046 -0.10951244 0.43343064
0000b0 44 f6 29 3e 7d 84 9e be a6 4c b7 bd ae a8 9b 3e
       0.16597849 -0.30960456 -0.089501664 0.3040213
0000c0 18 be 21 be 45 8a 76 bd d7 48 f9 bd 4d 7f a6 be
       -0.15795171 -0.060190458 -0.12172096 -0.32518998
0000d0 aa 2b 55 be bf 40 51 3d ac 02 e7 3e 02 fb 08 be
       -0.20817438 0.051087137 0.45119226 -0.13377002
0000e0 82 db 6e 3d e5 5d 21 be d5 b1 c9 3c 1b e6 cc 3d
       0.058314808 -0.15758474 0.02462093 0.10004827
0000f0 51 70 d7 3d 3e 39 a1 bd 2a bd b7 3e 2a 31 3c be
       0.105194695 -0.07872246 0.35886508 -0.1837813
000100 1d 22 01 3e c6 d4 9a be 2f 3a 82 3e db fe c0 bf
       0.1261067 -0.30240458 0.25435016 -1.5077776
000110 63 22 a6 be 5f 3a dd 3e 3e 8b d6 3d e5 66 9e 3d
       -0.3244811 0.43208596 0.10475777 0.07734469
000120 32 12 2a 3d 3e 65 10 be 63 8e 22 3f af 1a 86 bd
       0.04152126 -0.14101121 0.63498515 -0.06548058
000130 48 75 11 bd 71 e4 12 3f d0 f0 fe bd e2 5b 84 be
       -0.03551224 0.57379824 -0.12448275 -0.2585135
000140 36 a3 02 bd 95 02 fd be 3d 0d a8 3e 60 9b 6c bf
       -0.03189393 -0.49416032 0.328226 -0.92424583
000150 fe 96 7d bd 12 a7 c5 3e 30 e8 3b 3d 23 d7 71 be
       -0.061911575 0.38604027 0.045875728 -0.23617224
000160 bc 45 29 3f b7 ca 22 bd 17 10 be 3e e5 1e 3b bd
       0.6612203 -0.039744105 0.3712165 -0.04568376
000170 0e dc 84 be 58 df 6d 3e 49 b3 35 be f9 e7 5a bd
       -0.25949138 0.2322973 -0.17744173 -0.053443883
000180 75 fb 90 be ac 3b d3 bd 39 9d c8 bd 04 69 78 3d
       -0.28316846 -0.10314116 -0.09795613 0.060647026
000190 63 a9 39 3f 52 07 3a bb 00 3e 90 be 73 3a cc be
       0.7252409 -0.002838571 -0.28172302 -0.39888343
0001a0 d2 76 1b be ca f7 cb bd 34 bb 28 3e 25 50 71 bd
       -0.15182045 -0.099593714 0.16477662 -0.058914322
0001b0 08 46 84 be 17 da 61 3f 9d 7e 60 3d 75 cd 28 bd
       -0.2583468 0.88223404 0.054808248 -0.041211564
0001c0 c2 10 b6 3e 06 43 cd 3e 74 63 63 bd d8 a0 41 3f
       0.3555966 0.40090197 -0.055514768 0.75636053
0001d0 09 76 7f 3e 0c 22 47 be bc 38 d1 bd 14 fa 76 3e
       0.2494737 -0.19446582 -0.10215899 0.24118835
0001e0 97 0e ce be 7a 11 e9 3e 45 c2 9d be d8 81 61 3d
       -0.40245506 0.45521146 -0.30812278 0.05505547
0001f0 a6 30 9b be 36 53 8a 3e b7 c6 b0 bf c0 16 2c be
       -0.30310553 0.2701661 -1.3810643 -0.16805553

actor.mu.model.0.bias f4 [2]
000000 69 9d 54 be 6a 74 2f 3e
       -0.20763172 0.17134252

critic.preprocess.model.model.0.weight f4 [64, 8]
000000 62 e2 83 3e 49 67 19 bf 5d dc ba be 90 c5 a2 3d
       0.25758654 -0.59923226 -0.3649625 0.07947838
000010 f6 53 1e 3e 2f 63 d1 be 2c 5e ab be 47 78 5a 3e
       0.15461716 -0.40895984 -0.33470285 0.21334945
000020 3a 4d de 3d 67 33 09 3f bf 1b b0 bd 09 41 17 be
       0.108545735 0.5359406 -0.08599042 -0.14770903
000030 71 c4 94 3e f4 4f 8e be 63 e9 e0 3c 31 17 d1 3d
       0.29056123 -0.27795374 0.027455037 0.102095015
000040 38 16 63 bf 31 f9 c1 3e a2 aa 34 3f 0c 68 15 3e
       -0.8870578 0.3788543 0.70572865 0.14590472
000050 9d 03 f6 bd 1a 38 85 bd 52 c6 3c 3e 01 e3 fe 3d
       -0.12012408 -0.06504841 0.18435028 0.12445641
000060 d6 c7 07 bf 54 fe 1c be e5 63 d7 3e ed c0 05 bf
       -0.530393 -0.15331393 0.420684 -0.52247506
000070 39 d2 1d 3e fc e9 a8 bd cb 39 99 3e 53 a7 79 3e
       0.15412225 -0.08247754 0.29926905 0.24380235
000080 45 e5 24 3f 8b 1f 59 3d 86 8f 1f 3f ff d1 65 3e
       0.6441234 0.053008597 0.62328374 0.22443388
000090 7e 40 25 3e 24 f9 2a 3e 6d 7a ea bd 75 75 28 3d
       0.16137883 0.16696602 -0.11449132 0.04112764
0000a0 62 3f 70 3d 19 4d 3c 3e 13 dc 9d 3e 02 40 03 bd
       0.058654197 0.18388785 0.30831966 -0.032043464
0000b0 6f 83 b6 3e 5d 02 25 3e 7e 8d 54 3d 61 9f 7f be
       0.3564715 0.16114183 0.05189275 -0.24963142
0000c0 12 66 ea be be e8 1a 3f a0 2e a9 3e 2e ab 4d be
       -0.45780998 0.60511386 0.33043385 -0.20084831
0000d0 be 0e 3a be 94 6a e6 3d da 75 86 3e fc 66 34 bd
       -0.18169686 0.11250797 0.2626179 -0.044043526
0000e0 38 0b 37 bf d3 22 d9 3d e7 4b 68 bd de f5 76 3e
       -0.71501493 0.10602345 -0.05671301 0.24117228
0000f0 9d 2e 3e 3d 20 e5 d1 bc ed bd 23 3e da c3 38 3d
       0.046431173 -0.02562195 0.1599042 0.045108654
000100 93 39 fb be b2 4c a9 3e 88 71 f3 3c d3 ef 50 3e
       -0.49067363 0.33066326 0.029717222 0.20403986
000110 b2 2f 72 bf 52 3f 68 be ac 50 ad be f5 09 22 bd
       -0.9460403 -0.22680405 -0.3385061 -0.039560277
000120 95 5f e7 be c8 aa 59 3e ab 2f 1c be dd e2 95 bf
       -0.4519011 0.21256554 -0.15252559 -1.1709858
000130 30 6f db be d5 04 70 bd fd ff 47 3e 15 22 49 be
       -0.42858267 -0.05859836 0.19531246 -0.19641908
000140 07 e0 2f be c5 91 05 3e a4 7c ee bd 7a 09 bb bd
       -0.17175303 0.13043888 -0.11644867 -0.09132667
000150 19 a1 4d 3e e9 59 ad 3d aa f7 81 3e d8 97 46 be
       0.20080985 0.084644146 0.25384265 -0.19393861
000160 49 78 0f 3f 63 bb 4a be 39 0e 23 bf 38 a5 74 be
       0.56042916 -0.19798045 -0.6369358 -0.23891151
000170 50 42 a8 bd 58 a7 23 3e 5c c9 b1 3d 9c 09 1d 3e
       -0.08215773 0.15981805 0.086809844 0.15335697
000180 01 58 d5 3f b7 00 fb be a3 5e e4 be c1 ac 02 3e
       1.6667482 -0.49023983 -0.44603452 0.12761213
000190 50 47 91 3d 3f 3c 07 3e 19 0a e9 bd 50 fe 11 be
       0.0709368 0.13206576 -0.11378879 -0.14257169
0001a0 5a 21 d3 3e d5 bc 43 3e ca 74 8a be 0d 71 12 be
       0.41236383 0.19115002 -0.27042228 -0.14300938
0001b0 82 f5 ab bd 6e 23 57 bd fc 68 38 3e 33 74 a9 3d
       -0.08396436 -0.052524023 0.18008798 0.08274116
0001c0 a8 c4 b0 be f3 9d ef 3e ae 6e 47 bf 26 f3 af 3e
       -0.34525037 0.46800193 -0.7790326 0.34365195
0001d0 a6 0a 0e be f0 fd ba bc bf f4 8c 3e 04 8c 26 3c
       -0.1387125 -0.022826165 0.27530476 0.010165218
0001e0 23 d4 6a 3f fe ef 70 3e 2a 76 6d 3c c7 53 fc 3e
       0.91729945 0.2352905 0.014493505 0.49282667
0001f0 f3 dd a1 be d8 e4 90 3e 50 a1 d8 3e 29 01 b3 be
       -0.31614646 0.28299594 0.42310572 -0.34961823
000200 68 c9 f3 bd 1b 04 22 bf 80 b3 d7 3b 87 19 ba be
       -0.119036496 -0.63287514 0.0065826774 -0.363476
000210 85 80 9a 3e a9 f2 da bc 62 63 2b be cd c4 16 bf
       0.30176178 -0.026727038 -0.1673713 -0.58894044
000220 59 53 ca be d8 37 99 3e 7b e7 c6 3e a8 29 e4 bd
       -0.39516714 0.29925418 0.3884848 -0.11140758
000230 55 4c 50 be 6f a5 c7 bd ae 2b 9a 3d 91 9b a5 3d
       -0.20341618 -0.09748351 0.075278625 0.080863126
000240 61 a2 5c 3d 2f d1 88 bf 87 f4 11 bd 12 8c cd bd
       0.053865794 -1.0688838 -0.03563359 -0.10036482
000250 e6 e7 f9 3d 6c cd ab 3d 48 7b 4c bd 05 b9 89 3d
       0.12202434 0.083887905 -0.049922258 0.06724743
000260 c5 a3 1a be 7a c0 3b bf 6b a7 c7 ba 47 c1 29 3e
       -0.15101536 -0.7334057 -0.001523239 0.16577636
000270 71 8c be be 66 0e d9 be c5 ef e6 be a4 f8 9e 3e
       -0.37216523 -0.42393798 -0.45104805 0.31049073
000280 bf 28 0d 3f 60 25 03 bf 3a c4 24 3d d4 f7 c6 3e
       0.551403 -0.51228905 0.0402262 0.38860953
000290 2f 79 92 3d c0 a0 a1 bd 93 82 0f bf 2f 49 88 3e
       0.0715202 -0.07891989 -0.56058615 0.26618335
0002a0 f0 15 e0 bf 33 96 1d 3f a6 53 cc 3e 4b 0f 13 be
       -1.7506695 0.6155731 0.3990757 -0.14361303
0002b0 de 63 10 be 33 ed de 3d 58 6c 5d 3d ac 79 65 be
       -0.14100596 0.10885086 0.054058403 -0.22409695
0002c0 25 87 8f bf aa 33 dc 3e fa ab 81 3d 6e fc 0a be
       -1.1213118 0.43008167 0.0633163 -0.13572857
0002d0 5c 0f 94 3c 02 bb 5c be b3 d0 7d bd 7c 37 2a bd
       0.01807373 -0.21555713 -0.06196661 -0.04155682
0002e0 30 8f b0 be c7 d5 5a 3d 1d f5 dc 3e 0a 77 cb 3c
       -0.34484243 0.05342653 0.43155757 0.024837036
0002f0 7d 09 4b bd 60 fc 7a 3e 5a 83 aa 3e 5b 25 95 3e
       -0.049569596 0.24510336 0.33303338 0.29130062
000300 d8 56 e4 3d ec 8a 04 3f be 90 5c be 9e 1d 7f 3c
       0.11149377 0.5177448 -0.2153959 0.015571026
000310 d5 c5 a1 3e 4e 23 72 be 66 37 aa 3e 51 84 a8 3e
       0.31596246 -0.2364628 0.3324539 0.3291345
000320 f4 b9 df 3e eb 63 66 bf ea 12 d3 3e a6 97 d2 be
       0.43696558 -0.8999621 0.41225368 -0.41131324
000330 8e 94 c5 3e 12 b3 2e bd 0d 60 f3 bd 0d cb 6f be
       0.385899 -0.042651244 -0.118835546 -0.23417301
000340 fc b8 3c bf ab fe 70 3d 29 53 03 3e 81 70 a4 3e
       -0.73719764 0.05883662 0.12824692 0.32117084
000350 60 7b 98 be 98 4a d9 bd 46 79 0d 3e 17 9b 80 be
       -0.29781628 -0.10609931 0.13815793 -0.25118324
000360 ae 3f a1 be ec 22 b4 be 19 85 ca 3e 2d 64 2a 3e
       -0.31493896 -0.35182893 0.3955467 0.16639777
000370 1b 6f 99 be fb d9 84 be 62 69 d2 be 32 c9 35 bf
       -0.2996758 -0.25947556 -0.41096026 -0.71010125
000380 34 29 7d 3e b1 6e 4b bf 76 b2 31 3d 22 53 ee 3c
       0.24722749 -0.79465777 0.043383084 0.029092375
000390 9c d1 28 3e f8 bf 2e 3e eb 59 24 3f 13 da 18 3e
       0.1648621 0.17065418 0.64199704 0.14926939
0003a0 27 a9 a8 bf 02 5d 49 3e 53 93 94 3e a8 36 04 bf
       -1.3176621 0.19664386 0.2901865 -0.516459
0003b0 4c 77 23 be 98 f5 ca 3b a0 31 ae be 28 ed e6 bd
       -0.15963477 0.006193828 -0.34022236 -0.11275703
0003c0 57 ae 12 bf 74 a5 52 3d 06 46 b5 3e b1 fa 3e 3f
       -0.5729727 0.05142732 0.35404986 0.74601275
0003d0 af c6 e5 be bf e5 95 3e a4 45 cb 3d da de 26 3d
       -0.44878146 0.29276845 0.09925392 0.04073987
0003e0 a3 d9 7c 3f 9c 2f 2d bf 9c 72 c6 be 50 92 d1 3d
       0.9876959 -0.6765077 -0.38759315 0.10232985
0003f0 65 f5 84 bd 50 bc 87 3e c9 ed d2 3d 3b d1 c0 bd
       -0.06492118 0.2651086 0.1029926 -0.094149075

critic.preprocess.model.model.0.bias f4 [64]
000000 d1 61 49 3f b2 1e 9f be d9 c5 20 bf 14 da 35 bc
       0.7866488 -0.31078106 -0.6280189 -0.011099357
000010 26 ee de be 5d d4 68 bf e0 b1 6a bf 94 69 2a bf
       -0.43541068 -0.9094904 -0.91677666 -0.6656735
000020 a8 40 03 bf 38 5a fa bd 13 aa 10 3f 3f b2 72 3e
       -0.5127053 -0.12224239 0.5650951 0.23700808
000030 8b 58 e8 3e 90 36 5a 3f 9b 7c 5c bf 6c b5 3a 3f
       0.45380053 0.85239506 -0.8612763 0.7293308
000040 00 ce 85 3e a4 97 6b 3e 80 b6 b8 bd 47 6d c5 3e
       0.26133728 0.23007065 -0.09019184 0.38559934
000050 1b f4 07 3f be 0c 21 bf e8 fb fb be e8 3b 15 bf
       0.5310685 -0.6291007 -0.49215627 -0.58294535
000060 8f cb cd bd 17 63 8e 3d 99 93 29 3f ce fd 2b 3d
       -0.10048591 0.06952494 0.6624084 0.041990094
000070 1b 6f bf 3e 9b 26 d0 bd 6c 18 46 bc 40 e6 73 3e
       0.37389454 -0.101636134 -0.012090784 0.23818302
000080 d7 cf 1e bf ea 23 67 3c f5 57 4c 3f 1f 57 a1 be
       -0.6203589 0.014107684 0.7982171 -0.3151178
000090 36 31 3b 3e 86 08 35 bf fe b9 af 3e 70 b7 19 bf
       0.18280491 -0.7071613 0.34321588 -0.6004553
0000a0 db ae 33 3f d9 4b 0a bf dc 69 8a be 03 1b ff 3d
       0.70188683 -0.54021984 -0.2703389 0.12456324
0000b0 1a 72 87 be 43 37 59 bc 8f 46 d4 3e 6f 3b c9 be
       -0.2645424 -0.013257804 0.41460082 -0.39303157
0000c0 9f 31 91 be f3 36 49 bf 16 7a 1f bf 7d a7 5a be
       -0.2835817 -0.7859947 -0.62295663 -0.21352954
0000d0 94 5f 22 bf 54 f2 4c 3f 04 1d 3b bf bc 59 61 3f
       -0.6342709 0.80057263 -0.7309115 0.8802755
0000e0 b5 ce 32 3f f1 e2 07 3e 45 12 f6 3d fc 98 f1 3d
       0.6984666 0.13270165 0.120152034 0.117967576
0000f0 a2 77 b1 bd e5 fa 32 3f 3b a4 7c bd 7e 1d 56 3f
       -0.08665396 0.69914085 -0.06168006 0.8363875

critic.preprocess.model.model.2.weight f4 [64, 64]
000000 de 43 b7 3d 5a e3 28 bd 01 b3 42 be 66 30 a9 bd
       0.089484915 -0.041232444 -0.19013597 -0.082611844
000010 7a 5b 42 3e 63 b9 58 3e d7 24 2a bd e2 c5 76 be
       0.18980208 0.2116447 -0.04153904 -0.24098924
000020 7c 3c 1f bd e3 ec 8b be 75 43 dd 3d 8f f9 d1 3e
       -0.03887604 -0.27329168 0.10803882 0.4101071
000030 f3 3e 95 3e 14 8c c9 3e 66 fc 99 3b a0 f6 08 3f
       0.2914959 0.39364684 0.0046992777 0.5350132
000040 ce bc 52 3e 64 da 99 be 6a 63 99 3e 5d 59 df be
       0.20579836 -0.3004943 0.2995866 -0.43622866
000050 e1 ab 92 3d 56 8d 46 be 16 5b 97 be e2 aa df be
       0.071616895 -0.19389853 -0.2956168 -0.4368506
000060 2a 26 fb bd be 36 27 3f 3e e6 45 be 77 05 9d be
       -0.122631386 0.65317905 -0.19326112 -0.30668232
000070 17 d1 7c 3e 59 0a e3 be f5 05 d1 bc 37 45 18 3e
       0.24689136 -0.44343832 -0.025515536 0.14870153
000080 3d 28 1b bf be c2 e9 3d bc 97 17 3e 16 ea 16 bf
       -0.60608274 0.11414097 0.14803976 -0.58950937
000090 16 5b 53 be 5a 33 09 3f f0 55 76 bf 4a aa d1 3e
       -0.20640215 0.5359398 -0.9622488 0.40950233
0000a0 af e2 81 be e2 92 aa bd 58 b7 1a 3d ca c7 93 3e
       -0.25368258 -0.08328797 0.037772506 0.28863364
0000b0 91 d4 13 3f a0 c0 a8 be 76 ac 45 be f9 72 a8 3e
       0.57746226 -0.3295946 -0.1930407 0.32900217
0000c0 67 da 89 3d c5 a5 ea bc d1 e4 22 3f 6b a6 46 be
       0.0673111 -0.028643498 0.63630396 -0.19399421
0000d0 6c fd 0f 3e fc 57 0e be 34 98 7c 3d 24 3b af 3b
       0.14061517 -0.13900751 0.06166859 0.0053476263
0000e0 1d 3c 8c 3d 18 89 91 bc f5 aa ba be 2b 53 01 3e
       0.06847403 -0.017765567 -0.36458555 0.12629382
0000f0 3a 18 09 bd d1 6d de 3d 27 5c e3 3c 34 f8 92 3e
       -0.03347037 0.108607896 0.027753903 0.2870499
000100 60 6b ea 3d 53 82 ca be 13 6a 38 bd 9c 67 bf 3e
       0.114462614 -0.39552554 -0.045023035 0.37383735
000110 c2 28 9c bd 51 7b b7 be ab cd 8b 3e 33 ac 6b bd
       -0.076249614 -0.3583627 0.2730535 -0.05753727
000120 54 7b b3 3e bf d2 34 3e bf 4d f8 3d 53 fb 55 be
       0.3505503 0.17658518 0.12124204 -0.20896654
000130 0a 17 8a be 67 e1 1c bd ed e7 a9 be b2 3c 85 3e
       -0.26970702 -0.038300898 -0.33184758 0.2602287
000140 29 dd 9c 3d 5a 60 46 3e fc cb 58 3e fb 3d e7 3e
       0.076593705 0.19372693 0.21171564 0.45164475
000150 e1 5e a5 3e 22 c0 94 3e e0 0c 25 3d 6d 20 74 3e
       0.3229895 0.29052836 0.04029548 0.23840494
000160 5c 20 f4 be bc d7 95 3e ce d3 73 3e b8 f8 35 3f
       -0.47680938 0.29266155 0.23811266 0.7108264
000170 88 ec 2e 3d 66 c9 aa 3e 18 16 03 be 71 76 85 be
       0.042706043 0.3335678 -0.12801397 -0.26066926
000180 77 13 7a bd e4 cb 17 3e 74 b3 bd 3d f8 17 09 be
       -0.06105372 0.14823872 0.092627436 -0.1338805
000190 b9 7c 9a be 17 2d df be 7a 1d 44 3e 19 f4 38 bf
       -0.3017328 -0.43589088 0.1915187 -0.72247463
0001a0 e5 6f 20 3e 1c 23 17 bf 92 3e 26 be 1c 67 0c be
       0.15667684 -0.5903795 -0.16234806 -0.13711208
0001b0 f9 31 c7 bc bc 42 df bc 1a 5d 7d 3e 69 c2 73 be
       -0.024315821 -0.027253501 0.24742547 -0.2380463
0001c0 bb dc e8 3e a8 cd 28 bd 41 5d 92 bf 3f 67 de 3c
       0.45480904 -0.041211754 -1.1434709 0.027148841
0001d0 1b 79 02 bf ec ce 75 3e c5 7e a0 bd 01 44 90 3d
       -0.5096604 0.24004716 -0.07836679 0.07044221
0001e0 fc 23 cf bc 9b a0 94 3e 01 22 f3 bd a4 63 80 bc
       -0.025285713 0.29028782 -0.1187172 -0.015672512
0001f0 6c 01 d3 bd ce 7e 99 3e 5c 7a 54 3e 65 d2 b3 3e
       -0.103030056 0.29979557 0.20749801 0.35121456
000200 7b 4d cd bc 27 d3 76 3e 08 00 9d 3e 0a 92 11 bd
       -0.02506136 0.24103986 0.30664086 -0.035539664
000210 8e b6 12 3d e4 ab 6f bd 9b 33 b9 3c e4 09 b2 3e
       0.03581863 -0.058513537 0.022607615 0.3477317
000220 22 d9 ad bc 77 da 36 bc 17 0f 58 be 53 51 7d be
       -0.021221701 -0.0111604845 -0.21099506 -0.24738054
000230 80 0c 13 bf 3e 83 34 3e da a9 77 3c 19 88 c8 be
       -0.5744095 0.1762819 0.015116179 -0.39166334
000240 51 82 04 3e a5 d9 37 bb 07 c6 52 3d 5d 65 19 be
       0.12940337 -0.002805331 0.051458385 -0.14980073
000250 d8 c5 ad be 28 8d 31 3f 2e 50 b9 3e 7d 61 79 3e
       -0.33940005 0.6935601 0.36193985 0.24353595
000260 df 01 02 bd 4d 09 7a be cc bc d4 bd 93 c0 0a 3d
       -0.031740066 -0.2441761 -0.10387573 0.03387506
000270 2a 7f 73 3d 93 0f 33 3f 6d 97 f5 3e e6 bf 1d 3d
       0.059447445 0.6994564 0.4796709 0.038513087
000280 52 be 5a 3c 9d 87 ce bc a9 f8 9f be 40 ae 16 3f
       0.01335104 -0.02521115 -0.312444 0.58859634
000290 8c ce 05 3f 36 62 33 3e 51 23 cb 3e 0f a7 cd be
       0.5226829 0.17517933 0.39675382 -0.40166518
0002a0 3d 56 b8 3d 68 3b 2f bc a1 c0 b1 be 3b 18 e4 be
       0.09000824 -0.010695316 -0.34717277 -0.44549736
0002b0 54 04 5f be 75 dc 95 3d 09 49 b2 bd 36 ba 6d be
       -0.21778995 0.073174395 -0.087053366 -0.23215565
0002c0 e1 84 b1 3e 23 6f f7 bd 8e b4 8f be 95 28 84 3e
       0.3467169 -0.120817445 -0.2806744 0.25812212
0002d0 f3 4f e7 be df 93 57 3e 95 da 02 3f 96 eb 25 3e
       -0.45178184 0.21052502 0.5111478 0.1620315
0002e0 5a cb 94 be f6 95 2d 3e d9 ec 8f 3b f6 c2 ab be
       -0.29061395 0.16951737 0.004392248 -0.3354718
0002f0 80 7f 44 3e 00 66 6d bd 4b 42 7d be 1c be 21 bf
       0.19189262 -0.057958603 -0.2473232 -0.6318071
000300 7b 70 27 3f ab fc 5a be ec 96 8a be dc f0 84 3d
       0.65406007 -0.21385448 -0.2706827 0.06491253
000310 f7 ac 02 bd 2e 3d bd be 20 8e 04 bf f6 4e db be
       -0.031903233 -0.3696074 -0.51779366 -0.4283368
000320 b4 fc 80 be cc a3 12 be 6a d4 d0 3d 50 97 10 3e
       -0.25192797 -0.14320296 0.10196765 0.14120221
000330 bc cd 74 3e a1 ca a1 3c fe 15 43 be 47 41 5b 3e
       0.23906606 0.019749941 -0.19051358 0.2141162
000340 fa 9d 54 3e 3e 21 71 3e 6f 0f a4 bc 8f 10 00 3d
       0.20763388 0.23547837 -0.02002689 0.03126579
000350 aa 7f 8e 3e 92 1e 29 bf 67 ce a9 be 11 f6 6f be
       0.27831775 -0.6606227 -0.33165285 -0.2343371
000360 a3 51 96 3d 59 cf 43 be e0 83 36 3e c8 e2 7c bd
       0.0733979 -0.19122066 0.17823744 -0.061739713
000370 e7 50 5d 3e f5 fe 7a be 94 2e 80 3d 15 29 ce 3d
       0.21612893 -0.24511321 0.06258884 0.100664295
000380 dc 9d 77 be bb 41 0d bd 46 3e 6b 3f 2c b3 2b be
       -0.24181312 -0.034486514 0.91891897 -0.16767567
000390 f0 78 b8 be 46 ab 8c 3d bd 0e 09 bd ab 33 cd 3e
       -0.36029768 0.06868605 -0.03346132 0.40078482
0003a0 16 ec 08 3f 42 cf 36 3e f8 b6 36 be f2 5f 64 3e
       0.5348524 0.178525 -0.17843235 0.22302225
0003b0 e7 97 9d 3e 4d 8e 89 3d 20 48 4a bc 52 a3 7f be
       0.30779955 0.06716595 -0.0123462975 -0.24964646
0003c0 b0 66 fc be 23 06 0e bf 00 4a 92 be cf 32 82 3d
       -0.49297094 -0.55478114 -0.28572083 0.06357347
0003d0 ef 60 23 be 15 90 e8 3e 3c 2a 2e bf 10 b8 ba 3e
       -0.15954946 0.45422426 -0.68033195 0.36468554
0003e0 82 2d ae 3d a5 1d 7c 3e 15 89 f2 be 23 0c 46 bb
       0.08504774 0.24620683 -0.4737021 -0.0030219636
0003f0 09 3d 91 be d7 c2 a3 3d 78 37 56 be 07 84 39 3f
       -0.2836688 0.07996147 -0.20919597 0.7246708

critic.preprocess.model.model.2.bias f4 [64]
000000 1b 3c 70 3e c0 96 bb 3e 35 73 9a be 5b 0d 19 3f
       0.23460428 0.3663845 -0.3016602 0.59786004
000010 4f 7a 3e be fe 42 2c 3e 3f 8f 0b 3e 33 7b 35 bf
       -0.18601345 0.1682243 0.13628863 -0.7089111
000020 28 93 38 be d2 93 4b 3e 3c d8 04 3e a3 96 2b 3d
       -0.18024886 0.19880608 0.12973112 0.041891705
000030 3d 1d 0c bf da 7f 54 be 68 a6 23 be 7c 94 80 3e
       -0.54732114 -0.20751897 -0.15981448 0.25113285
000040 0d a4 de be 26 94 20 be 21 bc 11 bf 68 ce cd be
       -0.43484536 -0.15681514 -0.56927687 -0.40196538
000050 db 0a 63 3e 87 20 c0 be 16 e6 e1 3e a7 cf e3 bc
       0.2217211 -0.37524816 0.44120854 -0.027808977
000060 9e 2b e0 be df 88 12 3f b3 7b 99 3e 3f ad 0e 3e
       -0.43783277 0.572401 0.29977188 0.13933276
000070 87 b3 fc 3e 17 47 38 bc 77 b6 1a 3f e6 84 ff bd
       0.49355718 -0.011247418 0.6043467 -0.1247652
000080 7a e1 8a be 63 3f 34 be 53 1c fe bc 46 b2 4d 3e
       -0.2712515 -0.17602305 -0.031019365 0.20087537
000090 4b a6 89 be d2 a7 cf be 41 e5 f0 be f6 16 35 3e
       -0.26884684 -0.40557724 -0.47049907 0.1768454
0000a0 7d 62 af be a1 f4 52 3f d0 db 0e 3d 7b c2 94 3e
       -0.34254828 0.82404524 0.0348776 0.29054627
0000b0 d1 6f fe 3d 3c a1 9c be 78 37 07 3f fa c2 37 bf
       0.12423671 -0.30591762 0.52819014 -0.71781886
0000c0 ac 4a b7 3e 50 c1 d8 3e 0e 8d 37 bd 4c bd 9c 3e
       0.35799158 0.42334986 -0.044812255 0.30613172
0000d0 f3 c9 e8 3e 93 5a c8 bd 38 25 91 3e 85 61 ae be
       0.45466575 -0.09782901 0.28348708 -0.34058776
0000e0 d9 b6 cb be 64 05 17 be fd 08 09 bf 0c 14 6a bd
       -0.3978794 -0.1474815 -0.5352934 -0.057148024
0000f0 ba f3 eb 3e b6 1a 25 be 14 48 cc bd b1 da 01 3f
       0.46084386 -0.1612347 -0.09974685 0.5072432

critic.last.model.0.weight f4 [1, 64]
000000 80 89 b4 3e fd 7d 83 be 3b 19 ca be a6 1d 14 3f
       0.35261154 -0.2568206 -0.39472374 0.5785774
000010 84 db f9 3d c1 72 98 3e 77 44 68 3e c2 73 e1 be
       0.122000724 0.2977505 0.22682367 -0.4403363
000020 d1 bb b1 be 2c 33 5f 3e 94 75 45 3e 93 8b 97 3e
       -0.34713605 0.21796864 0.19283134 0.29598674
000030 8e b7 66 be d7 d3 fb bd 1f ab 1b be 6c 3b 82 3e
       -0.22530958 -0.122962646 -0.15201996 0.2543596
000040 a6 17 6b be c5 8f 93 be 51 70 2b be 95 c3 a4 be
       -0.2295824 -0.28820625 -0.16742064 -0.32180467
000050 26 fb ce 3d b2 d3 b8 be e0 d1 9e 3d bb 21 aa 3e
       0.101064965 -0.3609901 0.07754874 0.3322886
000060 0d 39 66 be a2 6e 94 3e 3c f7 5e 3e 74 62 4d 3e
       -0.224827 0.28990656 0.21774 0.20057088
000070 9d 6e 32 3e f9 ee e2 3d ea e2 a8 3e 6c c8 56 bd
       0.17425008 0.11080737 0.32985622 -0.05243723
000080 dc d7 d6 3d bb 2d 61 3e 17 12 f8 bd 2d 32 a3 3e
       0.10490391 0.21990101 -0.12112825 0.3187422
000090 b4 76 c3 bd 92 36 b0 3e 3e fa a9 be 62 9b a4 be
       -0.09544125 0.34416634 -0.33198732 -0.32149798
0000a0 ff f7 0c be a0 03 8c 3e 0e 13 8b be 37 3a e3 3e
       -0.13766478 0.27346516 -0.27162975 0.44380352
0000b0 83 7c d5 3d 0e 48 28 be 71 61 b7 3e 69 43 34 bf
       0.10424139 -0.16433737 0.3581653 -0.7041536
0000c0 87 0c 49 3e 19 54 2a 3e bc 80 3a be 26 4a ef be
       0.19633685 0.16633643 -0.18213171 -0.46736258
0000d0 41 1b 08 3e d7 7e fa bd f0 af ff 3d 31 28 59 3e
       0.13291647 -0.12231224 0.12484729 0.21206738
0000e0 48 1c 70 be e3 9b 65 3e ab 48 7d bf 32 ae 8b be
       -0.23448288 0.22422747 -0.9893901 -0.27281338
0000f0 eb 34 f0 3e 08 26 53 be 44 42 b3 bd 20 2a 49 3e
       0.46915373 -0.20619977 -0.087528735 0.19644976

_actor_critic.actor.sigma_param f4 [2, 1]
000000 c2 e6 02 c0 a2 50 1e c0
       -2.0453343 -2.4736714

_actor_critic.actor.preprocess.model.model.0.weight f4 [64, 8]
000000 c9 8d 8f be 6d 9a ec bd 7f 3f cb 3d 2a 07 77 3e
       -0.2803786 -0.11552892 0.0992422 0.24123827
000010 c1 e3 5c bd 8e 0b 7f be 5e 02 31 3e 10 2a 24 bf
       -0.05392814 -0.24906752 0.1728606 -0.6412668
000020 9c 24 f7 3e 45 66 4b 3e e6 8e 45 be 79 2e b7 3c
       0.48270118 0.19863231 -0.19292793 0.022361027
000030 27 fa 96 3e 4d 2e 4d be 4a be c5 bd e8 65 0a 3e
       0.29487726 -0.20037194 -0.096554354 0.13515437
000040 db fa 50 be 2b f9 29 3d 73 50 94 3d a9 a9 50 3e
       -0.20408194 0.04149739 0.07241907 0.2037722
000050 87 35 9b bd 9f ed 17 be 10 0c 26 3d a9 04 0e be
       -0.07578569 -0.14836739 0.040538847 -0.13868965
000060 be bd b6 be 29 e7 cb be 99 b0 05 3f 86 4a b8 bc
       -0.35691637 -0.398248 0.5222259 -0.022496473
000070 69 5f 2a be 8b 33 7d be 2d 22 6e 3e 52 9c 56 bf
       -0.16637959 -0.24726693 0.23255225 -0.83832276
000080 46 ac ad be dd 9a 33 3f 59 70 9c 3e 48 7e 93 bd
       -0.33920497 0.7015818 0.30554464 -0.072018206
000090 91 65 f6 3b e2 07 ad 3d 92 2a c2 be b0 1b c9 bb
       0.007519432 0.08448769 -0.37923104 -0.006137334
0000a0 0e 04 1c be 29 4f 49 be 06 99 3c bd ab 84 15 3e
       -0.15235922 -0.19659103 -0.046044372 0.1460139
0000b0 81 28 8c 3d 94 e3 d3 3c 54 a5 ad 3c da 68 9b be
       0.06843663 0.025865354 0.021196999 -0.30353433
0000c0 ab c1 eb 3e c0 0f 3d 3e d6 62 87 be fe 6f a6 3c
       0.46046194 0.1846304 -0.26442593 0.020317074
0000d0 ea 0d 5b be 2c af 8d 3e ed 0e 9e be 40 a3 15 3f
       -0.21392027 0.27672708 -0.30870762 0.58452225
0000e0 5c 1f c6 3e 64 c0 a2 3e 7c ae b5 be 22 3c 82 bc
       0.386958 0.31787407 -0.35484684 -0.015897814
0000f0 7d 7a a9 3d 17 ad 8c 3e 49 96 38 bc 55 d8 4b 3f
       0.08275316 0.27475807 -0.0112662995 0.7962697
000100 7e 36 ef bc 4d 21 34 3d b1 ff 10 be c4 57 be 3c
       -0.029200789 0.04397707 -0.14160039 0.02323521
000110 fd ec a0 3e 68 ca ba bc 54 f2 90 bc d9 c4 03 be
       0.31430808 -0.022801593 -0.017693676 -0.1286806
000120 e7 49 f1 3d 5b d4 b8 3d ac 9e 26 3e d1 cb 8d be
       0.11781674 0.090248786 0.16271466 -0.27694562
000130 d6 3c 9e bc 25 60 9d 3e 57 7c 85 3e 9c e8 59 be
       -0.019316118 0.30737415 0.26071426 -0.2128014
000140 e2 02 a9 3d 8f b0 69 bd 69 e0 c1 bd a1 21 3a 3e
       0.08252503 -0.057053145 -0.09466631 0.18176891
000150 25 ec c8 bb 26 33 35 3e f2 82 5c be 60 cb b9 3e
       -0.0061316662 0.17695293 -0.21534327 0.36287975
000160 a4 e5 34 3d db 16 69 3e ad 8a 1f be c5 ac 94 3e
       0.044164315 0.22762625 -0.15580244 0.29038063
000170 43 34 8d 3e 8c 77 29 3c 00 d7 79 3e a9 9c 6f 3d
       0.27578935 0.010343444 0.24398422 0.058499012
000180 5d d7 f7 3e 95 17 66 be 16 2b d4 bd ba 1b a5 3e
       0.48406497 -0.22469933 -0.103597805 0.32247716
000190 b7 cf 87 3e 1a 31 87 be 3b 67 86 3d 41 e5 01 3f
       0.2652566 -0.2640465 0.065626584 0.5074044
0001a0 c5 e1 c4 3d a9 0a c8 3d 3f da 04 3d cd d7 e8 bd
       0.096133746 0.09767658 0.0324347 -0.11369286
0001b0 11 79 3c 3b 21 ae 36 be 1f 21 e9 bd 42 df 55 3e
       0.0028758685 -0.17839862 -0.113832705 0.20885947
0001c0 fa d3 9a be 8d e9 a4 be 05 22 2e 3e a9 7d c1 be
       -0.3023985 -0.32209435 0.17005165 -0.37791184
0001d0 82 8b bd be 26 11 2f 3e 5d 98 af bd d3 4a 0d 3f
       -0.370205 0.17096385 -0.08573983 0.551923
0001e0 94 e8 3d 3e 9d 8c 37 3d 45 30 b5 3e 63 e9 49 bd
       0.18545753 0.044811834 0.3538839 -0.04929484
0001f0 78 7b 16 bd 75 3b 98 3e d3 42 9d 3e ef 7e ed be
       -0.036738843 0.29732862 0.30715045 -0.46385905
000200 3b 26 84 3e f6 87 26 3f 38 04 3f be 21 88 e4 3c
       0.25810418 0.6505121 -0.18653953 0.027896943
000210 2b 39 4b 3e 61 30 64 3e f5 f8 b8 3d 7c fc 8c bd
       0.19846027 0.2228408 0.0903186 -0.06884095
000220 6c ea 5d 3a a9 55 a5 3d 06 97 db bc 70 92 c0 3d
       0.00084654125 0.08072979 -0.026805412 0.09402931
000230 1b 0c ac be 8a bd 67 be dd 4b e7 bc 78 79 64 3d
       -0.33602986 -0.22630897 -0.028234417 0.055779904
000240 43 76 ef bc 82 4b c4 3e 26 ca 3b 39 4c 00 b2 3e
       -0.029231196 0.38338858 0.00017909016 0.34765851
000250 e9 f4 25 3e 2b 5d 78 be 67 9e 62 3e 23 ee eb be
       0.16206707 -0.24254291 0.22130738 -0.4608012
000260 d7 59 b7 3e d8 6b 9e 3e 72 03 86 3d a8 c3 21 be
       0.3581073 0.30941653 0.06543626 -0.15797293
000270 b2 c6 eb bd 7e 2d d2 3d 4f 95 5f be b6 06 5f 3e
       -0.115125075 0.10262583 -0.218343 0.21779904
000280 7f 22 11 3d db c8 9f 3d 53 73 1f 3d 37 a8 86 bd
       0.03543329 0.07801982 0.03892834 -0.06575053
000290 45 7b 9c be e5 8a 94 bd 61 49 26 3d 36 c7 07 3f
       -0.30562797 -0.072530545 0.040597323 0.53038347
0002a0 53 35 8e 3e d8 d6 e3 3d 07 7f 84 be c5 e0 bb 3d
       0.27775058 0.111249626 -0.25878164 0.09173731
0002b0 f2 c2 40 3e 6a 6c 83 3d cf 01 b6 bc 44 bd 09 3f
       0.18824366 0.06417163 -0.02221766 0.5380442
0002c0 c3 f5 0f 3e 46 44 d1 be 18 50 3b 3e 56 9b ea bc
       0.14058594 -0.408724 0.18292272 -0.028638523
0002d0 c4 fc 8c 3e d9 c3 de 3d ed d7 a1 3e 3c 1b 9f 3e
       0.27536595 0.10877199 0.3161005 0.31075466
0002e0 12 13 8d 3d b3 3c 38 be 6d b1 6c be d4 42 1b 3d
       0.06888403 -0.17991905 -0.23114558 0.03790553
0002f0 6b 46 0e be b8 6b a1 be 15 13 16 be b9 d4 3b 3e
       -0.1389405 -0.31527495 -0.14655717 0.18342866
000300 18 8a 12 3e ce 94 b1 3d e9 cb 03 bd c9 ad fc bc
       0.14310491 0.0867096 -0.032176886 -0.030844586
000310 ac a4 96 bd 3e 6b bf 3d 64 dd 99 be f5 17 74 3e
       -0.073556274 0.09346627 -0.3005172 0.23837264
000320 99 74 df 3e 17 f2 25 3f c2 92 81 3e 5f 4c d0 bd
       0.43643644 0.64822525 0.2530728 -0.10170817
000330 82 2b c3 3e 06 7d b9 3d 0e 3e b6 3d 60 12 5c be
       0.3811913 0.090570495 0.08898555 -0.21491385
000340 8f 2a 0e bd 80 16 c4 3d b2 7e 38 be 07 c5 fb 3d
       -0.034708556 0.09574604 -0.1801708 0.12293439
000350 69 54 b2 3b 0c fb 6c 3e 33 b0 b2 3e 26 01 0b 3e
       0.0054421914 0.23142642 0.34900054 0.13574657
000360 71 6c 0d 3c b7 83 06 3f fd bd 7d be 22 d6 06 bd
       0.0086318115 0.5254473 -0.24779506 -0.032919057
000370 94 0b 2f be 4e ce 51 bd e0 e8 3c 3e ef 3e e9 be
       -0.1709426 -0.051222138 0.1844821 -0.45555827
000380 96 b0 8f be c0 06 0b bf db 88 29 3e 89 6d ba be
       -0.28064412 -0.54307175 0.16556112 -0.36411694
000390 27 50 cd be 95 65 b6 be be 9e 39 be c4 07 40 3e
       -0.40100214 -0.35624376 -0.18126962 0.18752962
0003a0 74 15 46 be 78 f5 fa 3e 65 16 fb 3e 18 7c aa 3d
       -0.19344121 0.49015403 0.49040523 0.0832445
0003b0 82 b2 33 3e 08 86 40 3e 1c 64 ec bd 43 8e 96 3e
       0.17548564 0.18801129 -0.11542532 0.29405412
0003c0 89 78 79 be 0b df 8c bd 68 f8 8c bd 70 f4 1d 3f
       -0.24362387 -0.068784796 -0.06883317 0.6170111
0003d0 10 61 ed bd dd 1f 41 3e 25 a6 3b be 15 6c ac bd
       -0.11590779 0.18859811 -0.18325098 -0.084190525
0003e0 71 b8 3c be f5 6a c0 be 06 36 26 bd da 55 c3 3d
       -0.18429734 -0.37581602 -0.040578865 0.09537859
0003f0 22 27 5d be b5 d4 8b be b1 aa 4c 3d 9e e5 48 be
       -0.21596959 -0.2731072 0.04996747 -0.19618842

_actor_critic.actor.preprocess.model.model.0.bias f4 [64]
000000 d5 61 79 bd 43 4b 3f 3e 49 4a ef bd 4a 54 f7 3d
       -0.060884316 0.18681054 -0.11684091 0.12076624
000010 14 d4 57 3e 57 8d dd 3b 10 3a 6d be e7 c4 f5 bc
       0.21076995 0.006761234 -0.2316668 -0.030001117
000020 a3 e1 08 3e ff b7 d0 3c 39 59 08 3d c3 9e d8 bd
       0.13367324 0.025478361 0.033288214 -0.105771564
000030 f1 ad ac 3c d9 e6 31 bd 56 24 f0 bd 14 f1 d8 3d
       0.021079035 -0.043433044 -0.117256805 0.10592857
000040 17 99 90 3d f5 2a 79 be e6 28 dd bd 5c a4 73 3b
       0.070604496 -0.24332793 -0.107988164 0.0037176823
000050 ff b4 ef bd de 93 2b be 85 71 83 3e 32 e5 0b bc
       -0.11704444 -0.16755626 0.25672546 -0.008538531
000060 f4 3d 97 3c 61 5f 43 3d 62 62 b9 bc 5e c9 78 be
       0.018462159 0.047698382 -0.02262992 -0.24295565
000070 17 3b 20 be 62 69 fa bd f7 0e 97 3d 4c cb c3 3a
       -0.15647541 -0.122271314 0.07375901 0.0014937907
000080 33 fa e1 3d 20 9c f9 3d 7a ee cb 3d 25 92 51 be
       0.1103405 0.121879816 0.09957595 -0.20465906
000090 2f 7d 3a 3d 9c 0b 90 3d db d2 6d bd 66 06 e6 bd
       0.04552954 0.07033464 -0.058062416 -0.11231689
0000a0 e4 db 12 3e 29 2c 77 3d d2 2e d5 3c 0a 36 1e be
       0.14341694 0.06034485 0.026023302 -0.15450302
0000b0 b9 94 41 bd f7 e5 71 be ae ff fb bc e3 e1 ec 3c
       -0.047260974 -0.23622881 -0.030761566 0.028916305
0000c0 93 37 33 3e 2d b6 38 bc 63 47 19 be 07 a7 35 bd
       0.17501669 -0.011273903 -0.14968638 -0.044348743
0000d0 8b 5a 01 3d df fb 09 be f0 38 12 3e d1 9b f6 bc
       0.03158049 -0.13474987 0.14279532 -0.030103596
0000e0 e7 8d 0e bd 1d f8 33 be ae ef 11 bd 07 cf a1 3d
       -0.034803297 -0.17575116 -0.035628967 0.079008155
0000f0 b2 04 3e 3d f6 6e a8 bc 6d 38 74 3e 6a d8 ea 3d
       0.046391197 -0.020560723 0.2384965 0.11467059
