results/Ant-v3/ppo/6/220623-152203/policy.pth (torch, 103908 bytes, 24 tensors)

actor.sigma_param f4 [8, 1]
000000 89 2e 41 c0 53 bb 5e c0 e1 28 56 c0 f4 f7 49 c0
       -3.0184653 -3.4801834 -3.346245 -3.1557589
000010 65 f3 4a c0 66 09 3b c0 b1 d3 3f c0 fb f9 3b c0
       -3.1711056 -2.9224486 -2.9972956 -2.9371326

actor.preprocess.model.model.0.weight f4 [64, 111]
000000 de 88 52 3e 32 e9 87 bd e7 b7 9f 3e eb 3a d8 3e
       0.20560023 -0.06636275 0.31194994 0.4223245
000010 18 10 cb be 06 3f 14 bd 50 c4 5f 3e 15 de d1 be
       -0.39660716 -0.036192916 0.21852231 -0.40989748
000020 11 25 9d be c1 0f 57 3d a8 c1 32 3e 0f 86 03 bc
       -0.30692342 0.05250526 0.17456686 -0.0080275675
000030 c3 31 06 be 84 34 17 3e 70 bc a0 bc 06 68 04 3e
       -0.1310492 0.14766127 -0.019621104 0.12930307
000040 09 04 54 3e c4 5c b5 3e 2a 31 70 3d e2 2e 4d 3e
       0.20704664 0.35422337 0.058640637 0.20037416
000050 20 c7 3d 3e d4 aa e8 3c 25 06 e7 3c ef 1c f0 3e
       0.18532991 0.02840177 0.028201172 0.46897075
000060 d3 72 82 3e 79 a6 59 3e db 63 19 3d 3a 2f f4 bd
       0.2547823 0.2125491 0.037448745 -0.1192307
000070 ee 84 b9 bc cf 24 fc 3d 43 31 05 3e e6 90 e9 3d
       -0.022646394 0.12311708 0.13007073 0.1140459
000080 81 95 b8 bc 17 47 23 bd 5c 07 9b be 6d 59 08 be
       -0.022532227 -0.03986272 -0.30279052 -0.13315363
000090 93 28 7c bd 2b 0f 81 ba da 4c 05 be 3c 29 7c 3d
       -0.061562132 -0.0009846439 -0.13017598 0.06156276
0000a0 2f 91 da bd ab a4 ef bc 28 fe 22 be 72 53 94 3d
       -0.10672223 -0.029253324 -0.15917265 0.072424784
0000b0 16 92 f5 bd d4 60 40 bd e5 5b 11 3a a6 92 bb bd
       -0.11990754 -0.046967342 0.00055450044 -0.0915883
0000c0 c1 0e 25 3d 03 71 b6 3d a0 09 e5 bd 95 03 b0 3d
       0.040297274 0.08908274 -0.111834764 0.08594433
0000d0 65 a1 84 3e db 7b 0a be ff 49 59 bd 20 9d c1 bd
       0.25904384 -0.1352381 -0.053049084 -0.09453797
0000e0 35 9e dd 3d 14 ca 10 3e be 00 10 3e bf ac 76 bc
       0.10821191 0.14139587 0.14062783 -0.015055834
0000f0 1d 76 d7 3d 22 a8 c1 bd be 83 5f 3e 1f dd 54 be
       0.10520575 -0.09455897 0.218276 -0.20787476
000100 ca 54 4e 3d 3b d2 36 bd ea e5 db bd d8 a2 f8 3d
       0.05037383 -0.044634085 -0.10737212 0.12140435
000110 9e e3 df 3d dc 15 1f be 66 07 19 3e 1b f0 b6 bd
       0.109320864 -0.15535682 0.14944229 -0.08932515
000120 1b 42 a6 bc a7 02 d2 bd 32 96 82 3d bf 11 f7 bc
       -0.020295193 -0.10254412 0.06376304 -0.03015983
000130 63 87 1f be ec 23 ec 3d 5b 4a eb 3d 4d ad 87 bd
       -0.1557899 0.11530289 0.114887916 -0.066248514
000140 3e eb 0a 3d 0f b5 38 be a1 76 9f 3d b4 ec f0 bd
       0.03391575 -0.18037818 0.077862985 -0.117638975
000150 a9 2f 4d 3e cd ee 15 be 67 fe 70 3e 97 d1 ad bd
       0.20037712 -0.14641877 0.23534547 -0.08487242
000160 81 0d 68 be c7 f7 98 3e ca 2c e8 bd 45 d6 0e be
       -0.22661401 0.2987654 -0.11336668 -0.13948925
000170 1a 1f f8 3d 9b 0d 10 bd e8 25 a1 3c be 6f cf 3d
       0.12115307 -0.035169225 0.019671395 0.10128735
000180 80 94 42 3e 08 4a d3 bd 77 65 14 3e 24 c4 2a be
       0.19001961 -0.10316855 0.14491831 -0.16676384
000190 3f a3 5d 3e c6 13 29 3e 51 f9 74 3e 02 fe 18 be
       0.21644305 0.16511449 0.23923232 -0.14940646
0001a0 f0 99 95 be 76 4a 11 3e d3 c8 20 be 08 d1 60 3c
       -0.29219007 0.14188561 -0.15701608 0.013721712
0001b0 af 99 68 be 58 e3 08 be 51 69 1e b9 12 37 8f bd
       -0.22714876 -0.13367975 -0.00015107288 -0.06992926
0001c0 25 3b d5 3e a3 06 5f 3d 23 8e ae 3d 53 37 07 3d
       0.41646686 0.05444969 0.08523204 0.033011746
0001d0 30 0d 54 be 7b cb 8f bd ab 27 72 3d 7b 66 bb 3b
       -0.20708156 -0.07021233 0.05911986 0.0057190037
0001e0 0a 8c 81 bc 9f fd b7 be ce 13 b3 3e 1b 7f 21 be
       -0.015813846 -0.35935685 0.34976047 -0.15771143
0001f0 95 df bb bd 4a 51 cf 3a 95 74 87 3d b2 ed 1a 3e
       -0.09173504 0.0015817073 0.06614033 0.15129736
000200 7d 0c 95 3e 4d 39 b9 3e e1 51 37 be 4c b2 15 3d
       0.2911109 0.3617653 -0.17902328 0.03654699
000210 64 93 41 be 69 e8 06 bf 56 57 64 bd 09 43 15 be
       -0.18903881 -0.5269838 -0.055747353 -0.14576353
000220 e7 ee a9 bd 18 f5 96 3e 2e 7f 61 3d c6 96 9d 3d
       -0.0829752 0.29483867 0.05505293 0.076947734
000230 8a aa 73 bd 39 11 55 3e b4 1b 5a 3e 0e fb 19 3e
       -0.05948881 0.20807351 0.2129963 0.15037176
000240 96 39 6a bd 71 8d 52 be a4 f9 40 bc aa d7 31 3e
       -0.057183824 -0.20561768 -0.011778269 0.17367426
000250 08 9a fe 3d 4a a7 f0 bc 5e cf 2e 3d 71 33 61 bd
       0.12431723 -0.029376645 0.04267823 -0.0549807
000260 e6 37 22 be 48 41 dd bd ec 90 02 3e 18 18 bb 3d
       -0.15841636 -0.10803467 0.12750596 0.09135455
000270 0f 54 1e 3c f5 9e 15 3c 96 f5 0b 3c 51 10 f1 bd
       0.009663596 0.009132137 0.008542439 -0.1177069
000280 39 7f 5f 3e 4b 15 47 3d 27 86 73 3e ab a6 3c 3d
       0.21825875 0.04860429 0.23781644 0.046057384
000290 2e e9 64 be 37 04 81 3d d5 5c d3 bd c7 02 24 bd
       -0.22354576 0.06299632 -0.10320441 -0.04004171
0002a0 78 29 16 3e 79 4b a0 bc 26 be 14 3d 7f 72 2b be
       0.14664257 -0.019567238 0.036314152 -0.16742896
0002b0 bb 9f 65 bc 9e 07 23 3e 77 6d 0b 3d 22 13 10 3e
       -0.0140151335 0.15920874 0.03403994 0.14069799
0002c0 3b b4 76 be 4c 6c 3a 3d 44 6a 16 be 52 4c 1b 3e
       -0.2409219 0.045513436 -0.14688975 0.15165833
0002d0 03 43 b9 3d a1 a5 6f bb b6 27 07 3d 53 7a e1 3d
       0.090459846 -0.0036567228 0.032996856 0.110096596
0002e0 a3 9c 25 be 99 8f ee 3d 1e 63 b9 be 8b 91 36 be
       -0.16173033 0.11648483 -0.36208433 -0.17828958
0002f0 1d 27 21 bd 52 17 d0 b9 9d c5 e2 3c 41 ea e3 3d
       -0.039343942 -0.00039690227 0.02768212 0.11128665
000300 a3 42 20 3e 75 f9 94 3c 8d 62 71 be 8a 0b f0 bc
       0.1565042 0.018185357 -0.2357275 -0.029302377
000310 55 8d b4 3e 31 db 31 be e0 78 18 3e 5e 03 fd 3d
       0.35264078 -0.17368771 0.1488986 0.12354158
000320 dc 41 e2 bd 64 b1 a2 3d a3 ee 19 be fe 67 92 3d
       -0.11047718 0.07943991 -0.15032439 0.07148741
000330 9c 79 a0 bc 3f 8b 20 3d 17 2d 22 3e 7b 01 15 be
       -0.019589238 0.039195295 0.15837513 -0.14551346
000340 f5 c8 b3 3c 68 3b 3e be 3f c9 29 3e 74 62 27 bd
       0.02194641 -0.18577349 0.16580676 -0.040865377
000350 a5 c0 97 3d f1 a3 16 3d 44 fa db bd db 49 c2 3d
       0.07409791 0.03677744 -0.10741094 0.09486743
000360 57 21 b8 bd 46 98 06 be e1 ce 2b bb a0 e4 a6 bd
       -0.08990734 -0.13144025 -0.0026215839 -0.081490755
000370 46 78 32 bd be 44 c8 bd e6 62 1b 3d a4 f7 ec be
       -0.043571733 -0.097787365 0.037936114 -0.46282685
000380 ca ad 04 3c 1f 4e 95 3e e4 01 b3 be 10 48 2e 3d
       0.008098075 0.29161164 -0.3496238 0.042549193
000390 3c 61 4f 3d 70 38 e4 3d 48 05 c1 3d 37 f8 8f 3e
       0.05062984 0.11143577 0.094248354 0.2811906
0003a0 86 99 af bd 1b 5c a5 be 0f 4f 92 3e 09 97 0c 3d
       -0.08574204 -0.32296833 0.28575942 0.034323726
0003b0 e9 94 fb bc 23 46 80 bd 7c 64 60 be cd 7e bb be
       -0.030710654 -0.062633775 -0.21913332 -0.3662018
0003c0 51 9c a5 bd d1 b6 6a 3e 66 da 04 be e3 9f 37 be
       -0.080864556 0.22921301 -0.12973937 -0.17932086
0003d0 e6 5a 58 3d fe 7e 3e be 28 c8 90 bd d1 37 45 be
       0.052821063 -0.18603131 -0.07069427 -0.19259574
0003e0 99 f8 1b 3e ed de a8 3c 82 40 97 3d 81 17 2a be
       0.15231551 0.020614112 0.07385351 -0.16610529
0003f0 f8 d9 20 bc c8 b5 07 bd db 8a 18 3e 76 1e 8b 3d
       -0.009817593 -0.033132344 0.14896719 0.06792919

actor.preprocess.model.model.0.bias f4 [64]
000000 46 74 ef 3c f3 f2 07 be cd 39 01 3d 8e c0 9e 3e
       0.029230248 -0.13276272 0.031549264 0.31006283
000010 b8 57 d1 bd 8b 0a af 3e dd 84 00 be cd 8c 96 bd
       -0.10221809 0.3418773 -0.12550683 -0.07351074
000020 58 ae 36 3e 8b 23 3d be fd 39 38 3e 05 af f9 3d
       0.17839944 -0.1847059 0.17990871 0.121915855
000030 83 5b 25 3e d5 2e 8a 3b 86 96 4a be 43 a5 06 be
       0.1614819 0.0042170086 -0.19783983 -0.1314898
000040 63 7a 19 be 1b c0 32 3e 72 a0 a1 3d dc 31 94 3d
       -0.14988093 0.17456095 0.07891931 0.072360724
000050 48 9a 03 bd 22 21 33 3e 04 20 75 be 73 bc e1 3d
       -0.032129556 0.17493108 -0.23937994 0.11022272
000060 0a 8e d3 bc ff 67 1c 3e e6 77 82 3d a9 3a 46 be
       -0.025824565 0.15274046 0.06370525 -0.19358315
000070 cb 89 82 bc 51 09 4f be 20 74 2c bd 00 2b a1 3d
       -0.015934845 -0.20218398 -0.042102933 0.0786953
000080 bc 58 a5 3d 4e f2 49 be 70 1c 38 3d b8 08 06 3d
       0.08073565 -0.19721338 0.044948995 0.03272316
000090 82 c8 76 be df 7a 44 3b e3 68 03 be d9 0b d9 3e
       -0.24099925 0.0029980463 -0.1283298 0.42391852
0000a0 06 6c 0e be e1 40 d8 3d 53 f7 42 3d aa 13 3d be
       -0.13908395 0.1055925 0.047599148 -0.18464532
0000b0 23 72 33 be 64 99 be bd 8f b4 9e 3c 11 6e 17 3e
       -0.17524008 -0.09306601 0.019373206 0.14788081
0000c0 98 1b 40 bd cd 1c d7 bd 7c 42 5a bd d0 a9 a7 bd
       -0.046901315 -0.1050354 -0.05328606 -0.08186686
0000d0 c4 e6 c0 bc 76 10 9a 3d e8 26 9c bd 7a e4 78 bd
       -0.023547538 0.07522671 -0.07624608 -0.060764767
0000e0 e2 85 38 bd 30 04 0f be 32 e8 f2 3c d7 8a 63 bd
       -0.045049556 -0.13966441 0.029651735 -0.05555233
0000f0 b6 3f 24 3e 51 3c c8 3d dc 7e 19 3e 93 fb ce bd
       0.16039929 0.097771294 0.149898 -0.10106578

actor.preprocess.model.model.2.weight f4 [64, 64]
000000 d8 30 a5 3e d7 c9 10 3e 00 33 83 bd 40 e5 4c be
       0.32263827 0.14139496 -0.06406212 -0.20009327
000010 c1 ca f9 bc e0 50 95 3d c1 d3 cb 3e 8c 2c 56 3e
       -0.030492188 0.07290816 0.39809993 0.20915431
000020 19 8c 6b bd 70 17 77 3e 20 a1 3d 3e 0b 48 fd bd
       -0.057506654 0.24130034 0.18518496 -0.12367257
000030 d8 24 9a bd b3 c7 25 bf e8 2e f6 bc 64 4b 81 be
       -0.07526559 -0.6475784 -0.030051664 -0.2525283
000040 12 bc a3 3d 2f 11 18 be d0 c9 3d 3e 28 31 a5 be
       0.07994856 -0.14850305 0.18534017 -0.32264066
000050 f7 cc 18 be ed 3f ad 3e 3f 7b c4 3d ec c8 4c bd
       -0.14921938 0.33837834 0.0959382 -0.0499963
000060 05 48 b4 3d 47 54 2b 3e bc ab e1 bd 11 9e 8d 3e
       0.08802799 0.16731368 -0.11019084 0.27659658
000070 d2 2c 26 bf b8 c6 aa 3e 74 8e 84 3e c9 ed fd 3c
       -0.6491214 0.33354735 0.25889933 0.030997174
000080 69 df 3a 3e 51 42 a1 3c 25 3e 11 be 9b e9 ce 3d
       0.18249287 0.019684942 -0.14183863 0.101031505
000090 0d 4e 1d be 65 52 28 ba cc 20 61 3e 96 a6 c5 be
       -0.15361805 -0.0006420969 0.21985167 -0.38603657
0000a0 53 ab 00 3d f0 9a 81 bd 76 45 82 3d 0d 18 25 3d
       0.031413388 -0.0632838 0.06360905 0.04030614
0000b0 c8 44 bd 3e 03 68 d1 3e 5e b4 69 3d da 94 94 3b
       0.36966538 0.40899667 0.057056777 0.004534346
0000c0 01 fb 2d 3f d3 3f b9 be 53 e1 53 bd be 02 b9 be
       0.67961127 -0.36181507 -0.051728558 -0.36134905
0000d0 62 8a b5 3e 86 b4 56 be b4 4c 38 be 2d 63 fa 3d
       0.3545714 -0.20967302 -0.1799801 0.122259475
0000e0 82 ab 37 bd 29 1c 39 3e 87 86 58 3e c8 da 50 3e
       -0.044841297 0.18077148 0.21145068 0.20395958
0000f0 09 8b 27 be 61 7b a3 3d 72 d4 08 be 25 cf 32 3e
       -0.16361631 0.07982517 -0.13362291 0.17461832
000100 e4 eb 1a be e6 95 f8 bc 88 70 d0 3c 14 ef 33 be
       -0.15129048 -0.030344915 0.025444284 -0.1757167
000110 5a d7 1f 3e 00 cb 29 be 24 85 85 be 1a b8 22 3e
       0.15609494 -0.16581345 -0.2607814 0.15890542
000120 9e bf 6b 3d f2 be aa 3a e5 89 c2 bd 8d 93 cd bd
       0.057555787 0.0013026877 -0.094989575 -0.10037909
000130 26 7e ec 3c ab 6a bb 3e e4 bd e0 3b 91 a1 a8 bd
       0.028868746 0.3660482 0.006858574 -0.08233941
000140 a9 b7 ce be 73 68 c8 3e cf 68 b8 3c 42 ef 85 be
       -0.40374497 0.39142188 0.022510914 -0.26159102
000150 5f a2 01 bf 5b 9d 3b be 88 d9 88 3d 3b b9 b8 3e
       -0.50638384 -0.18321745 0.06682116 0.3607882
000160 08 96 48 3e 62 52 a1 bd 9a ca 3b bf f3 2f 87 3e
       0.19588482 -0.078770414 -0.7335602 0.2640377
000170 ab fa 13 3e 42 aa 91 be 79 17 b1 bd 1c 90 07 be
       0.14451091 -0.2845021 -0.08647055 -0.13238567
000180 03 d6 56 3e fd ec 6e bd 3c da e3 bd 9b e6 60 be
       0.20980076 -0.05833148 -0.11125609 -0.21962969
000190 2a fe c4 bd e5 b1 36 3e b6 7c 36 be c9 d6 9d be
       -0.096187904 0.17841299 -0.17821011 -0.3082793
0001a0 c6 95 40 be 44 f4 1f be 99 81 53 be 8b f5 8b 3d
       -0.18807134 -0.15620524 -0.20654906 0.06833943
0001b0 ed c1 a6 bd 97 56 54 bc d2 0f 46 3e 42 f6 67 be
       -0.08142457 -0.012960098 0.19341972 -0.22652534
0001c0 e2 14 f6 3d bd a1 ab 3d 76 27 9d be ac 7b a4 bd
       0.12015702 0.083804585 -0.3069417 -0.08031401
0001d0 e8 c8 84 3e f9 dc 05 be 0e eb 92 bb be d0 23 be
       0.2593453 -0.13072576 -0.004483587 -0.15997598
0001e0 4f 95 b7 3e ff 63 b5 3d 13 4f 59 3d 59 bf 0b 3f
       0.358561 0.08856963 0.053053927 0.5458885
0001f0 86 99 e2 3e 04 bc 24 bf 36 b8 86 3e 22 41 cc 3e
       0.44257754 -0.6434939 0.26312417 0.39893442
000200 e0 b2 52 be 91 16 87 be 2c e6 bb bd d8 4f 80 3d
       -0.20576048 -0.26384404 -0.09174761 0.06265229
000210 2d db 14 be 35 67 e3 3e b1 26 0d 3d ac d3 a9 3e
       -0.14536734 0.44414678 0.034460727 0.33169305
000220 cb 47 0d 3e 70 99 5e 3e fe 93 2b 3e e6 e6 77 3e
       0.13796918 0.2173822 0.16755673 0.24209175
000230 67 6f d0 3e 4c f1 91 3d f5 8c ba be fd a8 30 3e
       0.40709993 0.07126102 -0.36435667 0.17251964
000240 3f 80 72 3e af e6 63 3e 1a f1 91 be 1f 3b 1a 3e
       0.23681735 0.22255968 -0.28504258 0.15061615
000250 14 08 88 3e 97 1a bd bd af c0 dc 3c d0 14 87 bd
       0.26568663 -0.09233587 0.026947347 -0.065957665
000260 35 cc fa 3c 25 f1 7a bc c2 73 5a 3d 50 c1 0d 3e
       0.030614952 -0.015316282 0.05333305 0.13843274
000270 c1 03 de bd 8d 2b 9b be cd 0d 0b 3f ad 99 85 be
       -0.1084056 -0.30306664 0.54317933 -0.26093808
000280 5a 55 bf be ac d9 02 3e 99 9a b4 3e 08 a1 8e be
       -0.37369806 0.12778348 0.352742 -0.27857232
000290 54 ef 90 3c 90 11 54 3e e3 de 58 3e 27 0d 3a bd
       0.017692246 0.20709825 0.21178775 -0.0454227
0002a0 fe e2 02 be a8 6d 8b 3d b2 95 e8 ba ab e9 c5 be
       -0.12781903 0.06808025 -0.0017744808 -0.38654837
0002b0 d1 47 59 3e b8 eb 20 3e ce f5 f5 bd e9 41 82 3c
       0.21218802 0.1571492 -0.12009774 0.015900569
0002c0 27 17 57 3e 6b bc c9 bb ce bd 8a be f6 04 7d 3e
       0.21004926 -0.0061564944 -0.27097934 0.24708924
0002d0 eb 64 40 bd c3 ee bd be 38 6c ba 3d 35 2f a5 3d
       -0.046971243 -0.37096223 0.09102672 0.08065645
0002e0 40 9f a5 be ce 9d 77 be e8 26 9b be a3 51 99 3a
       -0.3234806 -0.24181291 -0.3030312 0.0011697303
0002f0 b5 a9 0a 3e ac 13 97 3e 82 6c 49 3e af f6 b2 3e
       0.135413 0.29507196 0.19670299 0.3495383
000300 ba 35 2d 3e 8a de f4 3d 5e 70 67 3e 38 e3 17 be
       0.16915026 0.119565085 0.22601458 -0.14832771
000310 69 99 dd 3c c1 af 69 be 12 6d 41 bd 5a e1 c8 bb
       0.02705069 -0.22820951 -0.04722316 -0.0061303796
000320 97 ad a8 be f6 9e 51 3e 28 fd 26 bf 79 6e c8 3b
       -0.3294494 0.20470795 -0.65230036 0.006116685
000330 6d 31 35 bd f6 cc 80 3e 39 f4 12 be 67 e6 2e be
       -0.04423659 0.25156373 -0.14350976 -0.17080079
000340 3e 99 b9 be 1e b0 7e be 2f f8 75 bd 4b 13 e9 bd
       -0.36249727 -0.24871871 -0.06005114 -0.11380633
000350 52 cf 40 bd 6d 55 05 3f d7 62 1a be e7 8d 0b be
       -0.047072716 0.52083474 -0.15076767 -0.1362835
000360 3f 29 3a 3e 5c ac 02 bf bf d5 c7 3e 79 aa d0 3e
       0.18179797 -0.5104425 0.39030263 0.4075506
000370 27 9a 85 3c 41 f6 67 3e 3d a1 cf 3d ab 49 93 be
       0.016308857 0.22652532 0.10138176 -0.28767142
000380 bc ef aa 3e 4f d9 b5 be 92 f1 c7 3d 2e b1 bf 3e
       0.33386028 -0.35517356 0.09762873 0.37439865
000390 b8 e7 13 bd 5c 05 a6 bc f1 0b fb 3e 5a 7b 5c be
       -0.036109656 -0.020266227 0.49032548 -0.2153143
0003a0 4f 96 7e 3e 40 ff 99 3d 66 03 b6 be e8 ed a5 be
       0.24862026 0.07519388 -0.35549468 -0.3240807
0003b0 66 69 9a 3e 0c 33 d9 be 4f 44 4a 3d 80 13 58 bd
       0.30158538 -0.42421758 0.04938155 -0.05275297
0003c0 93 c0 a1 be b9 ae 18 3e b0 06 c6 3e 2e 50 d3 3e
       -0.31592235 0.14910401 0.38676977 0.4127211
0003d0 75 18 94 be b2 ee f6 3e ed 13 bc bd f6 80 f5 3c
       -0.2892491 0.48228985 -0.09183488 0.02996872
0003e0 45 f1 55 be f7 16 31 3e 3f 68 88 bd 2e 6b b1 3e
       -0.20892818 0.17293917 -0.06660508 0.34652084
0003f0 5b 2d d0 3d 0d 55 90 3e 46 36 cb 3e 34 72 75 be
       0.10164901 0.2818989 0.39689845 -0.23969346

actor.preprocess.model.model.2.bias f4 [64]
000000 e3 34 24 be 2d fd ff bd 2e 3b 1a 3d ae 3a ab bd
       -0.160358 -0.12499461 0.037654094 -0.08360802
000010 48 25 81 3d a9 e2 11 be 44 80 90 ba 4d 9d c2 bd
       0.06305939 -0.1424662 -0.0011024554 -0.09502659
000020 ca 6c 0a 3e fe 77 d1 bc b8 47 45 3d 6b e3 d1 3d
       0.13518062 -0.025569912 0.0481641 0.10248455
000030 b4 70 28 3e d2 fb 8c 3e 19 99 c1 bc c7 79 48 be
       0.16449243 0.27535874 -0.023632573 -0.19577704
000040 27 20 18 3e 3f ad 12 be c9 58 07 3e 1e df be bd
       0.14856015 -0.143239 0.13217463 -0.093199
000050 71 09 c4 3c d4 57 9d bc d1 4f 1c be 21 80 c8 bd
       0.023930283 -0.019206919 -0.15264823 -0.09790064
000060 34 e9 01 be 52 d6 42 3e e3 ce 9e bc 3a a9 8a bd
       -0.12686616 0.19027069 -0.01938576 -0.06770559
000070 70 77 1d be 23 f3 2c 3e 17 87 53 3e b1 1c 52 be
       -0.15377593 0.16889624 0.20657001 -0.20518757
000080 af 23 c8 bc 33 d1 a9 bb 16 e9 18 be e4 41 16 be
       -0.024431078 -0.005182409 -0.14932665 -0.14673573
000090 1c 91 4a 3e 59 89 04 be 35 0a 5b 3d 62 91 70 3e
       0.19781917 -0.12943019 0.05347653 0.23492959
0000a0 ab 4b e9 3d 3b 18 f7 bd 56 c6 4d 3d 9f 02 30 be
       0.11391386 -0.120651685 0.050237976 -0.171885
0000b0 10 31 8d bc a3 9b 0b be d8 73 9c ba e4 56 2b bd
       -0.017235309 -0.1363359 -0.001193638 -0.041830912
0000c0 84 c7 86 bd 97 44 4e 3b 1f 3a 8e bd 3d d4 a2 3d
       -0.06581023 0.0031473988 -0.069446795 0.079506375
0000d0 e9 d9 4a 3d de e6 ac bd 83 89 c3 bd 60 0b 37 3d
       0.04952422 -0.08442472 -0.09547713 0.044688582
0000e0 ff 47 1d 3e 74 3c 9b be 38 ac 40 3c b6 3b cc 3d
       0.15359496 -0.3031956 0.01175981 0.099723265
0000f0 49 fc 16 3d fe e2 2b 3e 00 28 04 be db 34 d5 3d
       0.03686169 0.1678581 -0.12905884 0.10410472

actor.mu.model.0.weight f4 [8, 64]
000000 63 54 9e bd a7 eb 97 3d 3b 99 b5 3c 1a 9d fa bb
       -0.07730939 0.07417994 0.022167793 -0.0076481225
000010 75 d2 8a bd 1f bc b4 3d d0 1e 06 be 6d c9 85 bd
       -0.06778423 0.08824944 -0.13097692 -0.065325595
000020 7e 53 d5 3d 9b c1 07 bd 5c b9 e1 bb 4f 58 73 bc
       0.104163155 -0.03314362 -0.0068885516 -0.014852597
000030 44 91 d5 3d 46 21 ea 3d d3 eb 7b bd b9 ed b3 3d
       0.10428098 0.11432128 -0.061504196 0.087855764
000040 10 fd d5 3c 9c 7d 00 3d 22 56 94 3d 01 8f 2d be
       0.026121646 0.03136979 0.07242991 -0.16949083
000050 a2 8b 64 3e 39 5f 77 bd b7 f0 9a 3b ec 07 04 be
       0.2231889 -0.060393546 0.0047284025 -0.12893647
000060 f0 a7 00 3c 12 f8 27 3e 73 dc 4a bd d7 09 a8 bd
       0.007852539 0.16403225 -0.049526643 -0.08205002
000070 27 10 3d 3c 46 1a 16 3e 3f 1e 95 3c 6e 30 03 be
       0.011539496 0.1465846 0.018202899 -0.12811443
000080 f9 b0 06 bd 54 6f ff bc 60 e1 9e 3d 90 8a 0e 3e
       -0.032883618 -0.031181015 0.077578306 0.13920045
000090 b9 13 89 be 70 17 02 be a8 c2 03 3e e4 17 a1 3c
       -0.2677286 -0.12704253 0.12867224 0.019664712
0000a0 74 52 56 3d 9a 10 c6 3c 22 56 08 3d ed 86 c8 3d
       0.052324727 0.024177838 0.033285268 0.0979136
0000b0 c2 59 14 be 6e 12 7a bd 68 63 14 3e 7f 31 87 3d
       -0.14487365 -0.061052732 0.14491045 0.066012375
0000c0 e8 c7 68 3d 11 48 47 bd 62 24 9f bd 00 07 b7 bd
       0.05683127 -0.048652712 -0.07770611 -0.08936882
0000d0 aa c4 0a bd 27 b4 14 3d 96 67 34 3c b4 42 9e 3c
       -0.03387896 0.03630462 0.011011025 0.019318916
0000e0 25 8d f4 bc 46 1e 0d bd 56 a4 8c 3d 51 6f 9f 3d
       -0.02985246 -0.0344527 0.06867282 0.07784904
0000f0 82 14 93 bd a3 1a 45 3d 41 6b 80 3c 50 28 84 bd
       -0.07181646 0.048121106 0.015676143 -0.064530015
000100 0f 34 68 bd e3 07 93 bd cb a1 6e 3d 3f 4c 2d bd
       -0.056690272 -0.07179239 0.058259767 -0.042309042
000110 35 95 b4 3d 50 e8 18 3d 32 bc 24 3d b0 45 10 3d
       0.088175215 0.037330925 0.04021854 0.03522271
000120 cb 71 0b be 50 4a 39 3d 8d 9d 57 3d 32 8d ac bc
       -0.13617627 0.045236886 0.052640487 -0.02106342
000130 82 9c 45 bd 96 ce 99 bd 14 8d 9c bc 97 c7 9c 3d
       -0.04824496 -0.07510106 -0.01911024 0.07655256
000140 58 4a 85 3d 7b d6 18 bd 95 28 06 3d 12 ea a0 3d
       0.065083206 -0.03731392 0.032753546 0.07857145
000150 ae 3a 35 3d 73 2b b0 bd 0c f1 13 3d 4b 71 cb 3d
       0.044245414 -0.08602037 0.036118552 0.09933718
000160 26 73 a1 3d 0b e5 5c 3d 8e b0 c9 3c 67 17 18 bd
       0.07883291 0.05392937 0.02462032 -0.037131693
000170 ba 3f 68 3d 6e 5a 53 3d 5c 77 a0 bd c9 b4 35 3b
       0.0567014 0.051599912 -0.07835266 0.0027726165
000180 ca 76 01 3e 1b 9f 9e bd 64 9a 0f 3e 47 4a 4b bd
       0.1264297 -0.07745191 0.14023739 -0.049631383
000190 53 32 69 bd 23 56 2d bd 59 2a fb bd f9 07 fe bd
       -0.05693276 -0.042318475 -0.122639365 -0.124038644
0001a0 4d 8b 65 3d 85 7a b4 3d de be 96 bd c5 fb e1 3c
       0.05604105 0.08812431 -0.07360624 0.027585873
0001b0 96 9a 59 3d 03 6c 66 3c eb a5 58 bd 45 f6 e7 bc
       0.05312594 0.014063838 -0.052892607 -0.028315673
0001c0 57 29 06 3e 68 87 16 bc e0 ac a8 bc 36 81 aa 3d
       0.13101707 -0.009187557 -0.020590246 0.08325426
0001d0 65 01 f2 bc 7a bd 6b bc ab 1f 07 3d 7a 93 35 3e
       -0.02954168 -0.014388436 0.032989185 0.17732039
0001e0 11 a6 7d bc 3b 11 6c be b3 75 22 bb 71 28 f8 ba
       -0.015481488 -0.23053448 -0.0024789392 -0.0018932951
0001f0 ee 68 20 bd 98 c4 2f 3c 2a fc 62 bd b0 71 92 bc
       -0.03916257 0.010728024 -0.055416264 -0.017876476
000200 4e 58 9b 3d 34 b4 66 3d 6a 25 b0 3d de 65 01 be
       0.07585202 0.0563242 0.08600886 -0.12636515
000210 8e 0e 87 3c 09 de 91 bd 25 1b c1 bd b2 b7 3b bd
       0.016486432 -0.07122428 -0.094290055 -0.045829482
000220 ec 75 51 3d 4c b7 37 bd da 93 95 bd a2 ae d2 bd
       0.05113785 -0.04485254 -0.07303591 -0.10287215
000230 88 d0 08 be 53 27 41 bd 30 7f 5f 3c 1b 94 cf bc
       -0.13360798 -0.047156643 0.013641164 -0.025339177
000240 a4 e8 ff ba 06 1a 01 bd db 3f 44 bb 40 20 0b be
       -0.0019524288 -0.03151896 -0.0029945287 -0.13586521
000250 d6 64 cb bd 2c 10 6f bb c6 3b ab 3c 2d 84 a9 bc
       -0.09931342 -0.0036478145 0.020902526 -0.02069291
000260 fe d2 ff bb 00 8f 95 bc 92 83 ed ba 90 dc ae ba
       -0.0078071347 -0.018256664 -0.0018120876 -0.0013340879
000270 eb b0 3c 3b af 7b 7c 3c 00 7f 43 3d 99 04 15 bd
       0.0028791975 0.015410348 0.04772854 -0.036381338
000280 7e 7f d6 bd 5a 4a ac bc 72 86 04 3d 19 7d 84 bd
       -0.10473536 -0.021031547 0.03235478 -0.06469173
000290 00 14 c9 3d 44 d5 d3 bc 48 50 40 3d 74 f8 0d 3e
       0.09818268 -0.025858529 0.046951562 0.13864309
0002a0 54 85 bf bd 77 54 15 3d 66 8b dd bb f8 37 a1 bd
       -0.09351602 0.036457505 -0.0067610024 -0.07872003
0002b0 e4 98 a5 bd 5b bf 01 bd b7 7b 8c 3d 68 80 47 bd
       -0.08085802 -0.03167663 0.06859534 -0.048706442
0002c0 df 07 b0 bd 03 a5 40 be ea 2b 2e 3d 9c 3f 94 3d
       -0.08595251 -0.18812947 0.04252235 0.07238695
0002d0 8c 29 57 bd 4f 21 b1 3d 59 62 3a bc e1 04 e6 3d
       -0.052529857 0.08648931 -0.011375987 0.11231399
0002e0 92 bb 23 3c 8d bf b9 bc d0 04 49 3d ed d8 de 3c
       0.009993451 -0.022674346 0.049076855 0.027203048
0002f0 e0 ce 75 bd 51 b6 23 3c 0b a5 5c 3c 3a f1 d3 3d
       -0.060011744 0.009992198 0.013467084 0.10348745
000300 97 70 67 3d 32 e0 55 3c 1c 36 83 3d e2 3f a4 bd
       0.05650386 0.013053941 0.06406805 -0.08019997
000310 4b 99 05 bc b3 8f fe 3c fa b9 e7 bd 93 e1 36 3d
       -0.008154224 0.03107438 -0.11314769 0.044648718
000320 e0 7e 4a 3b cb c3 1d 3d 7a 6a 10 bd df 28 8e 3b
       0.0030898377 0.0385168 -0.035257794 0.0043383683
000330 52 f7 99 3d 90 f8 b0 3d fa a5 38 bc 43 af 82 3c
       0.07517876 0.086411595 -0.011270041 0.015952712
000340 56 de fb 3c b8 7f 39 3c 69 39 54 bd 0b c6 0f 3a
       0.030745666 0.011321954 -0.051812563 0.0005484528
000350 6b cd 12 3d c6 c8 da bb 96 a4 0d bd cf 81 d5 bc
       0.035840433 -0.006676766 -0.03458079 -0.026062874
000360 88 1e 32 3d 0d 12 ba bd 65 2c a4 3c 60 50 e4 bc
       0.043486148 -0.09085474 0.0200407 -0.027870357
000370 82 52 44 3d 67 b9 3c bc 0c dd 17 3c 86 46 06 3e
       0.047930248 -0.011518813 0.00926901 0.1311284
000380 9f 55 42 3c a5 48 83 bc 33 63 bb 3b 5e d8 c3 bc
       0.011861234 -0.01602585 0.0057186126 -0.023906883
000390 02 4a f0 bc f0 e1 18 be 9a 9b 05 bd 25 1d 9c bb
       -0.029332165 -0.14929938 -0.032619096 -0.0047642165
0003a0 6d 78 69 bc dc 36 c5 bc 85 e3 be 3d 9c 13 ff bc
       -0.014249903 -0.02407401 0.0932074 -0.03113728
0003b0 79 51 1a bd 19 9e d2 bd 61 8d 04 bd ec e8 ad 3c
       -0.037675355 -0.10284061 -0.032361392 0.02122923
0003c0 32 65 9c 3b 2e df 38 3c 20 b2 21 3b 21 ed 04 bd
       0.0047728056 0.011283679 0.002467282 -0.032452706
0003d0 24 74 80 3d 2b ff f1 3c 55 fa a0 bd 66 57 cf 3c
       0.06272152 0.029540619 -0.07860247 0.02531023
0003e0 93 43 f5 bd 46 75 99 3d df 30 0d bd ed 46 2d be
       -0.119757794 0.07493071 -0.034470435 -0.16921587
0003f0 ba ce 8f 3d 5b a2 e6 3d a8 ca dc 3c ee 10 44 bd
       0.07021852 0.112614356 0.026952103 -0.047867708

actor.mu.model.0.bias f4 [8]
000000 83 7e 01 bd 9a c5 b7 bd ca 5a 1a 3d ee 8e b5 bd
       -0.03161479 -0.089732364 0.03768424 -0.08865152
000010 27 f7 98 3c 1b 1b 0e 3e 14 56 0e 3e df ed 1f 3e
       0.018672539 0.13877527 0.13900024 0.15618084

critic.preprocess.model.model.0.weight f4 [64, 111]
000000 43 5b b1 3e 50 2b 68 bf 85 0b 9c 3e e1 0c 83 3f
       0.3463994 -0.9069109 0.3047754 1.0238305
000010 76 94 12 be ca 60 5d be 09 dc 04 bb ce 0e ef 3c
       -0.14314446 -0.21618953 -0.0020272753 0.029181864
000020 1f 38 1e 3c 71 cd 70 be 54 e6 d5 bd cd 5f db bc
       0.009656935 -0.2351587 -0.10444322 -0.02677908
000030 27 84 46 3e d5 b6 9c 3d 16 47 ed 3d 78 55 be 3e
       0.1938635 0.0765206 0.11585824 0.37174582
000040 f2 56 8f 3c d1 3f 53 3e 6f be 7b be a1 b8 72 bc
       0.017497513 0.20629813 -0.24584363 -0.014814527
000050 20 70 03 bd cd 96 b6 bd 6f ff 2f 3d eb 58 56 be
       -0.032089353 -0.08915482 0.04296821 -0.20932357
000060 e0 44 38 3d bd 83 0d be 6d ae 16 bd af b5 3d be
       0.04498756 -0.13819785 -0.03678744 -0.18526338
000070 8f de 2f 3e 58 88 39 3e f5 9d 13 be bd f5 87 bd
       0.17174743 0.18118417 -0.14415725 -0.06638668
000080 4d d3 9e bd 89 49 fd 3b 1f 05 18 3e e6 ba c9 bd
       -0.07755146 0.0077297133 0.14845704 -0.09850101
000090 a2 98 43 bd e9 e0 e1 bd 6f fc 6a 3e ef b3 22 be
       -0.047752984 -0.11029226 0.22947858 -0.15888952
0000a0 f1 d0 1e bd f1 ac 16 3e 59 9d 01 bc dc b5 75 3e
       -0.03877348 0.1471441 -0.00791105 0.23995155
0000b0 a3 c7 a8 bc 84 38 c2 3d ff 7a c5 bd 58 0c 7b bb
       -0.020603007 0.09483436 -0.096426 -0.0038306918
0000c0 31 f0 40 3e 89 90 c6 3b f8 33 58 3d 86 8b f6 3c
       0.18841626 0.0060597104 0.052783936 0.030095827
0000d0 c2 4a 8a 3e bc fe de 3d a8 a8 14 3e 27 a9 eb bc
       0.2701016 0.108884305 0.14517462 -0.028767182
0000e0 63 57 0e be 3a d2 26 bd ec cf ce 3b 2b 31 12 3e
       -0.13900523 -0.04072783 0.0063114073 0.14276569
0000f0 e3 3a 7c 3c ac 31 5e 3e 3e 77 02 3e d8 d0 ab bd
       0.015394899 0.21698636 0.127408 -0.08389443
000100 9d 09 d2 bc fb 94 a4 bc eb 46 7c bd fd 28 42 be
       -0.02563935 -0.02009057 -0.06159107 -0.18960948
000110 5a a3 c0 be f8 5c 4a bc 68 1b 02 3e 0e d7 22 3d
       -0.37624627 -0.012351267 0.12705767 0.039755873
000120 21 2e 0f be 69 d6 6b be 26 54 00 3d 9e ab d2 3d
       -0.1398244 -0.2303101 0.03133025 0.1028664
000130 b5 ed dc 3d 16 1d a7 3d cc b3 6e 3e d6 89 64 bd
       0.107875265 0.081598446 0.23310775 -0.055795513
000140 1d bd 18 3d 0d c9 04 bd 4c d1 8f 3e 67 cf 6e 3d
       0.037289727 -0.0324183 0.28089368 0.058303263
000150 eb 35 0e 3e dd a2 bb bd 84 cb ce 3c e4 32 37 3e
       0.13887756 -0.09161923 0.025243528 0.17890507
000160 73 82 0b bc ce 57 09 be 24 94 a9 bc 1e d1 57 3d
       -0.008514988 -0.13412401 -0.020700522 0.052689664
000170 ce 9f f3 bc c9 ee f5 bd 48 74 83 bd 9c eb 1c bc
       -0.029739287 -0.12008435 -0.06418663 -0.009577658
000180 3d 8a d8 3d aa 30 72 3c 59 90 84 3d 25 37 e1 3d
       0.10573242 0.01478211 0.06472845 0.10996846
000190 8c 66 e2 bd 0f 4e 8f 3d 2a e7 c0 bc d6 d3 62 be
       -0.110547155 0.0699731 -0.023547728 -0.22151121
0001a0 83 04 95 be c9 24 49 3e 8f 67 ba bc 72 9f a5 bd
       -0.29105005 0.19642939 -0.022754459 -0.080870524
0001b0 0a c8 ec 3d 13 dc ff 3d 14 30 67 be a2 0c 9a 3e
       0.11561592 0.12493148 -0.22576934 0.30087763
0001c0 53 1d 7e 3e 3c c0 52 bf dc 36 54 3f fe 4f a1 3e
       0.24815874 -0.82324576 0.8289621 0.31506342
0001d0 12 fc 06 3e 1a c0 13 bd f2 1f 11 bb 82 80 20 3e
       0.13182095 -0.036071874 -0.0022144285 0.15674022
0001e0 04 f4 64 3e 79 0f db 3d 8d 96 74 bd 76 6d 3b be
       0.2235871 0.106963105 -0.05971389 -0.18303475
0001f0 11 ae e8 bd 86 ba cc bd 18 77 72 3e d7 0f 5d bd
       -0.113613255 -0.09996514 0.23678243 -0.053970184
000200 7a bc 20 b6 63 54 c6 bc 7b 3e 46 3c 0a f3 8e bd
       -2.3951566e-06 -0.02421016 0.012099857 -0.0697995
000210 66 37 96 bd 23 15 0a 3d cd 0f aa 3d 3b 50 9b 3d
       -0.07334785 0.033711564 0.08303795 0.07583662
000220 14 8d de 3d 2a 39 18 be 6e 6e f8 3d 09 f6 36 3e
       0.10866752 -0.14865556 0.12130438 0.17867292
000230 2c 75 57 3d 32 82 3b 3e 1e ea 8c be ca a8 e8 3c
       0.05260198 0.18311384 -0.27522367 0.028400797
000240 db fa aa bd fc 8b 5a 3d 49 0f 4e 3e 85 5e 8b 3d
       -0.08348628 0.053356156 0.20123018 0.068051375
000250 cf db db 3b 3f ac 21 bc d6 ce 12 bd 1f a6 97 bc
       0.006709553 -0.009867727 -0.035841785 -0.01851183
000260 b9 de 65 be 22 76 52 be c9 6b c2 bd 8f 65 dd 3c
       -0.22448243 -0.20552877 -0.09493215 0.027025966
000270 64 3c b8 bd a8 95 0b bd ec f8 37 3d 41 3f 22 3e
       -0.089958936 -0.03407827 0.044915125 0.15844442
000280 3c 47 c3 3d 10 e0 c9 3c 10 00 b0 bd 54 c6 4e 3c
       0.09535071 0.024642974 -0.08593762 0.012620527
000290 85 0d 88 bc 60 e3 73 bd da f3 1a be 26 9b 49 be
       -0.01660801 -0.059543014 -0.15132084 -0.1968809
0002a0 6f 42 01 3e cb aa 8f bd 3a 43 54 3e 87 10 b6 be
       0.12622999 -0.07014998 0.2072877 -0.35559484
0002b0 7c cf 9c bd 0f e9 65 3d 2f 8c db 3d c8 a8 df 3d
       -0.07656762 0.056130465 0.10720097 0.10920864
0002c0 95 4c 9c bd aa 02 ad 3d 14 9e 0e 3d 0a 0f 80 bb
       -0.07631794 0.08447774 0.034818724 -0.003908043
0002d0 67 e6 0e 3e 4a 19 ca be 7c 1c 2b bd d9 71 d8 3c
       0.13955079 -0.3947242 -0.04177521 0.026421474
0002e0 30 ce 57 3d 9e 2f eb bc 84 5c 13 3e 28 17 e9 bd
       0.05268687 -0.02870923 0.1439076 -0.1138137
0002f0 a9 58 90 bc b8 07 08 3e 1a 33 2f be a5 92 20 be
       -0.017620401 0.13284194 -0.17109337 -0.1568094
000300 3f f0 0e be 89 fd 43 3e 93 ea c3 bc 08 b9 21 be
       -0.13958834 0.19139685 -0.023915565 -0.1579324
000310 8b f5 12 3e 82 39 93 bb 79 ed b0 bd ff 97 92 3c
       0.1435148 -0.0044929394 -0.08639044 0.017894743
000320 32 05 7d bd d8 8f 7e 3e 1d 33 95 3e 52 0c 75 bd
       -0.061772533 0.2485956 0.2914056 -0.059826203
000330 e8 c2 00 3e f8 b8 44 3d 3e 7d 8c 3d 5f 4a 45 3e
       0.12574351 0.048027962 0.068598256 0.19266652
000340 ef 1b 08 3e 3c 3c 45 3d c8 10 03 bd 4c 33 85 bc
       0.13291906 0.048153147 -0.031998426 -0.016259812
000350 9a cf a5 bd 36 a7 8c 3d bf e8 f1 bd 62 3d 47 bc
       -0.080962375 0.068678305 -0.11811971 -0.012160631
000360 a7 d3 cf 3d 1f 0f 7c bd ff b1 11 3e f0 27 44 3e
       0.10147791 -0.061537858 0.14228056 0.1915586
000370 d1 de 35 be 00 2a 2f 3e d4 32 7e be 34 8e b4 bd
       -0.17760779 0.17105865 -0.24824077 -0.088161856
000380 ff 9d 4a 3d 20 01 bf 3e 00 d9 77 3e 97 11 a0 3d
       0.049467083 0.37305546 0.24203873 0.07815855
000390 ad 29 0a bb ae 0a 23 3d a2 9f eb bd ca 70 2e 3c
       -0.002108197 0.039805107 -0.11505057 0.010647008
0003a0 78 40 9e 3c 87 0d 8c 3c 64 9e 4b bd d0 ff 2e bd
       0.01931785 0.017096294 -0.0497116 -0.04272443
0003b0 81 ad ce bd eb 08 8a be 34 64 6b 3e 79 0b 0a 3e
       -0.10091687 -0.2695993 0.22987443 0.13480939
0003c0 2c 5b 2a 3e 02 fc 2f 3d 7d 8c 18 3d 2b a3 89 3d
       0.16636342 0.042964943 0.037243355 0.06720575
0003d0 1b db 9f 3d 81 7b 8e 3d 7b ad 9a bd a4 2c f4 3d
       0.07805463 0.0695715 -0.0755262 0.11922577
0003e0 78 1d 5a 3b 0b c9 49 bc 1e 73 44 3e 44 0e 23 bd
       0.0033281725 -0.012315999 0.19184539 -0.039808527
0003f0 0b 08 04 bd 8a eb 03 bd 60 e9 52 bd 31 3c 55 bd
       -0.032234233 -0.03220705 -0.051492095 -0.052059356

critic.preprocess.model.model.0.bias f4 [64]
000000 2b f4 35 bf 2e 86 ae be 53 6a 87 3f 76 79 65 bf
       -0.71075696 -0.34086746 1.0579323 -0.8963846
000010 23 51 1e 3e a8 b0 dc 3e 9e eb 4e bf 3f 94 95 3d
       0.15460639 0.43103528 -0.80828273 0.07303666
000020 e9 67 8d bf aa 82 40 3e 5f 83 25 3f f2 08 9a 3f
       -1.1047336 0.18799844 0.6465358 1.203398
000030 7a 9c 88 bf 41 0b 6d be 83 63 50 3f b1 0c 65 bf
       -1.0672753 -0.23148824 0.8140184 -0.8947249
000040 fb 2b 73 bd 8d 51 43 bf f6 ef 54 bf 94 d1 cd 3e
       -0.059368115 -0.7629631 -0.8317865 0.40198958
000050 a7 5a d5 be 24 97 17 3f 11 6a 8b bf 62 6a 00 bf
       -0.41670725 0.59215 -1.0891744 -0.5016233
000060 91 57 52 bf 7f 95 82 3e ad 8b 39 bf 8f a4 25 bf
       -0.82164866 0.2550468 -0.72478753 -0.6470422
000070 50 82 08 3f e7 27 2d be 50 3f 1f 3e cf cc 8d bf
       0.5332384 -0.16909753 0.15551496 -1.1078128
000080 1a dc 9b bd 0b c4 18 be 0e ed e8 3e a1 4a 27 bf
       -0.076103404 -0.14918534 0.45493358 -0.6534825
000090 3a f2 70 3f 04 88 d0 3c 47 4d 1c 3f 8d fb 47 bf
       0.9411961 0.025455482 0.61055416 -0.7811821
0000a0 d5 5b 68 be 28 ad 5a bf 69 16 c0 be 72 7f 24 3e
       -0.22691281 -0.85420465 -0.37517098 0.16064242
0000b0 15 50 6b bf 55 82 74 3f e9 ea f0 3d 98 e1 77 bd
       -0.9191907 0.9551137 0.117635556 -0.060517877
0000c0 63 5d 9a 3d 87 c5 57 bf 8b 80 8a bf fe 35 05 3e
       0.07537343 -0.8428578 -1.0820478 0.13008878
0000d0 f0 f6 d6 3e 33 49 04 3f f6 3e 1e 3f b1 e3 81 be
       0.41985273 0.51674193 0.6181482 -0.25369027
0000e0 63 43 9a bf e2 a7 72 3f 11 bb 14 3f a5 61 0c be
       -1.2051815 0.9478742 0.5809794 -0.13709123
0000f0 0e 72 88 3f da f9 10 bf 9a 87 84 3f de 3c c9 3e
       1.0659807 -0.56631243 1.0353882 0.3930425

critic.preprocess.model.model.2.weight f4 [64, 64]
000000 6a 9e e8 be 14 e9 95 be 00 a8 1c 3f 7e f1 78 bf
       -0.4543336 -0.29279387 0.6119385 -0.9724349
000010 fc 2d 89 3e 1a be af 3e 13 e5 73 3e 95 9e 30 bf
       0.26792896 0.34324723 0.23817854 -0.68991977
000020 a4 8e 96 bf f1 b6 7f be 98 0b 95 3e 94 0f c7 3f
       -1.176228 -0.2497213 0.29110408 1.5551629
000030 43 3d 2a bf c2 29 81 be 83 94 eb 3e 92 a6 21 bf
       -0.6649973 -0.2522717 0.46011743 -0.6314479
000040 00 af d1 3e 31 9e 35 bf d4 60 76 be 01 8c 89 3e
       0.40953827 -0.70944506 -0.24060374 0.26864627
000050 3d 48 bc 3e f6 a7 35 3e 7c 68 00 bf 4c 57 f8 bd
       0.36773863 0.17739853 -0.5015943 -0.121260256
000060 db ff 31 be 6d 0a 7e bc 82 65 35 bf b7 2a f2 be
       -0.17382757 -0.015505415 -0.70858014 -0.47298214
000070 fd 30 06 3f 3d f4 9e be 6b 97 ab 3e ab 9a a5 bf
       0.524185 -0.31045714 0.3351396 -1.2937826
000080 f0 a0 81 bd 05 3f b5 3e 5f 2c b5 3e e1 03 8d be
       -0.063295245 0.35399643 0.35385415 -0.27542022
000090 5a 09 ea 3e d4 eb 49 bd a2 61 2a be 1b ab 21 be
       0.4571026 -0.04929717 -0.16638806 -0.15787928
0000a0 06 e6 10 3e 48 ac 19 be 06 e9 44 be 7b a3 70 3e
       0.14150247 -0.15007126 -0.19229516 0.23499863
0000b0 e7 e6 f4 be 55 5f 16 3d c0 95 a3 be bd 03 38 3e
       -0.47832415 0.03671201 -0.31950188 0.17970176
0000c0 f4 aa 91 3e b5 c6 0f bf 5a 7f f2 be 01 5d 78 3d
       0.2845074 -0.5616258 -0.47362787 0.06063557
0000d0 0d 5b d8 3e 0f d0 fe 3d 9d be 82 bc b4 5e 8c 3e
       0.42256966 0.12442028 -0.015960032 0.27416003
0000e0 75 1d 94 bf 96 a3 1c be fa 56 38 3e a2 8f f2 bd
       -1.157149 -0.15296778 0.18001929 -0.11843802
0000f0 e2 7b ca 3e 58 5f 3b 3d 9b fb 0b 3f 69 25 2c 3d
       0.3954764 0.045745224 0.54680794 0.042027865
000100 ad 7e d1 bd 5f d3 4b bd fc 1a 41 be ae aa d7 be
       -0.102292396 -0.049762126 -0.1885795 -0.42122406
000110 13 48 71 3d 47 52 09 3e d3 6d f8 3d 49 e4 69 3c
       0.058906626 0.13410293 0.12130322 0.014275619
000120 b5 fd 33 3d 40 08 f2 3e fc 91 3a 3e 32 40 30 be
       0.043943126 0.4727192 0.18219751 -0.17211989
000130 c2 46 81 3d 8e 3e 8c 3e ff 87 e3 3d 51 c5 77 be
       0.06312324 0.27391475 0.111099236 -0.24196364
000140 37 17 29 bf a5 f1 05 be 71 5e 54 3d 02 7b b1 3d
       -0.6605105 -0.13080461 0.05184788 0.0866604
000150 2f 6e 6a 3d 33 3f e9 3d 13 43 a3 3e fa be 83 be
       0.057233986 0.113890074 0.3188711 -0.2573164
000160 ae 26 83 3e 6e 7a 95 be 05 7f 8e 3d fc 61 6e 3e
       0.25615448 -0.2919497 0.06957821 0.23279566
000170 71 53 c1 3d 4d 05 c3 bd d1 94 51 be 0f 86 3f bd
       0.09439743 -0.095224954 -0.20466925 -0.046758708
000180 69 b1 31 bd 5d fc 8f 3e 7d cd fc be 98 d1 0a 3d
       -0.043382082 0.28122225 -0.49375525 0.03389129
000190 b9 39 b3 3b 15 62 e2 bd c2 ae 0f 3e 44 80 7b 3e
       0.0054695276 -0.11053864 0.14031509 0.24560648
0001a0 03 83 69 3e c4 d9 1f 3d a6 70 93 3e 22 55 81 3e
       0.22803883 0.039026037 0.2879688 0.25260264
0001b0 d7 df 55 bd d8 48 0c be 2f be ba 3e 8a f2 c9 3d
       -0.052215423 -0.13699663 0.36473224 0.09860714
0001c0 c7 66 a5 bd 72 0c d6 3e ea 77 5a 3e 8b cf 01 be
       -0.08076244 0.4180637 0.21334806 -0.12676828
0001d0 16 81 92 3e 4f c5 d8 3d 80 84 00 be bc 0b c6 bd
       0.2861411 0.10584509 -0.12550545 -0.09670207
0001e0 bd 27 a8 be b3 b3 a0 bd f2 52 95 3c 06 51 e4 bd
       -0.32842818 -0.07846775 0.018228028 -0.111482665
0001f0 23 2b 7d bd db 9e b0 be 4f b8 ac 3d 20 1d 4d 3e
       -0.061808717 -0.34496197 0.084335916 0.20030642
000200 89 df 6e be e9 ab 96 bc 1f 84 32 bd 46 88 ba bc
       -0.2332746 -0.01839252 -0.04358303 -0.022770058
000210 35 be dc bd 40 33 20 be df e3 25 be b3 30 1d be
       -0.107784666 -0.1564455 -0.16200207 -0.15350609
000220 a7 0f 93 3d 4b af 83 bd 66 6e 54 3e 7f 6a a0 be
       0.0718072 -0.06429919 0.20745239 -0.3133125
000230 3c ae b5 be dd d3 bf bc 77 0c 83 be 87 07 85 3e
       -0.35484493 -0.023416454 -0.25595447 0.25982305
000240 00 bd a9 be 17 16 f6 bd d9 13 33 be c7 0a 83 3d
       -0.33152008 -0.12015932 -0.1748804 0.0639854
000250 35 bb bf be 08 74 ec bc c1 f9 bc 3e 1b c5 cb bd
       -0.37447515 -0.028863922 0.36909297 -0.09949704
000260 ab ef 44 bd 1d b7 4f bb e7 99 01 bd b4 50 8e 3e
       -0.048080128 -0.0031694837 -0.031640913 0.27795947
000270 2e 5e 2e 3e b1 aa 99 3e 42 6c b6 3d 20 84 ff bd
       0.17028114 0.3001304 0.08907367 -0.12476373
000280 a9 52 a7 bd 52 2f b6 3e 0b 58 99 bd ff 07 56 3c
       -0.08170063 0.35582978 -0.07487496 0.01306343
000290 e6 38 8c 3e af 35 bd bd 5e 9d c1 bd 0f 84 03 3e
       0.2738716 -0.09238755 -0.094538435 0.12843345
0002a0 95 59 84 3e c5 a3 0d be 8d 86 47 3e 24 d9 d5 3e
       0.25849596 -0.13832004 0.19484921 0.41767228
0002b0 01 10 17 3e 38 b7 21 be da 24 b7 be c0 d8 8f 3d
       0.14752199 -0.15792549 -0.35770303 0.07023764
0002c0 5d 6b e2 3e e6 62 49 be a3 80 f1 3d 23 19 01 3e
       0.44222537 -0.19666633 0.11792114 0.12607245
0002d0 5c eb 39 3e 96 41 0e 3e 6b 9a 4b 3d d0 76 dd be
       0.18156189 0.13892207 0.04970781 -0.4325471
0002e0 fb ac 82 be 99 66 ed 3c 29 ad c3 3e ef ed 7b be
       -0.255226 0.028979586 0.38218048 -0.24602483
0002f0 b5 f5 90 be e6 00 f8 bd ba 1a 2e 3d 03 3f 84 3e
       -0.2831246 -0.12109546 0.042505957 0.25829324
000300 83 bb b8 3e 18 40 63 3e 28 cd 03 bf 0a f8 da 3a
       0.3608056 0.22192419 -0.5148492 0.0016706001
000310 40 6f 3e be 31 e0 6e bc 13 2c b8 3d e1 e0 c7 bd
       -0.18597126 -0.014579819 0.089927815 -0.09759689
000320 8b 1a 8a 3e e0 55 95 bd 8f 82 1a bf 28 da b0 be
       0.26973376 -0.0729177 -0.60355467 -0.3454144
000330 77 24 a3 3d ad 13 f8 3e 60 8e fb be f8 7a cd 3c
       0.079659395 0.4845251 -0.4913206 0.02508305
000340 b1 62 da 3c 7d dc b1 3e f3 d4 3f 3e fb b2 7e 3e
       0.026658388 0.34738532 0.18733577 0.24872963
000350 78 ed d0 bd cc d5 3b bd 0a 2c 84 3e a1 8d 8f bd
       -0.102015436 -0.04585819 0.2581485 -0.070094354
000360 86 45 a7 bd 8b 6e d6 3e 2a 99 de 3e 65 e7 f9 bc
       -0.081675574 0.41881213 0.4347623 -0.030505845
000370 ed 6f 36 be 7d 6b 3e bb 24 53 a4 3c 5b a7 26 3e
       -0.17816134 -0.0029055767 0.020059176 0.16274779
000380 9e 3b cf be 70 65 d7 3d d0 f5 81 bd c6 60 18 3d
       -0.40475172 0.105173945 -0.06345713 0.037201665
000390 94 49 9f be 96 f3 47 3e 7c c2 5a 3e 9e af ca 3e
       -0.31110823 0.19526514 0.21363252 0.3958711
0003a0 33 1c 82 3e df c2 db 3e 2e b9 62 bc 14 ae d0 3e
       0.2541214 0.42922112 -0.013838096 0.4075781
0003b0 80 39 8b 3e a5 a8 45 bf ed 62 7c bb aa 27 92 be
       0.27192307 -0.77210456 -0.0038511113 -0.28545886
0003c0 0c 11 0b bc f1 34 c4 bb f7 38 f2 3e 8a 8e ec be
       -0.008487951 -0.0059877564 0.47309086 -0.462025
0003d0 1f b4 5a bd 79 54 50 3e 08 8b 00 3e 89 56 25 3e
       -0.053394433 0.20344724 0.12553036 0.16146292
0003e0 03 ac 14 be 81 55 bc be 34 37 8a be 6e b9 c5 3d
       -0.14518742 -0.36783984 -0.26995242 0.096545085
0003f0 b4 c1 92 bd 60 8e 68 3e 42 3f 04 3d f7 18 40 3e
       -0.07165852 0.22710562 0.03228689 0.18759523

critic.preprocess.model.model.2.bias f4 [64]
000000 fd e8 ed 3e a3 0c 49 3e 4e 46 10 3e 97 f2 c7 bd
       0.46466818 0.19633727 0.14089319 -0.09763067
000010 55 55 42 be eb ed a0 bc 13 4b 89 be ea 59 97 be
       -0.18977864 -0.019644698 -0.2681509 -0.29560786
000020 f1 87 6b bd b2 62 0c be db 34 ff 3d e8 02 cc 3c
       -0.05750269 -0.13709524 0.12461253 0.02490373
000030 7b 96 f3 b9 6a 0f b0 be c5 6a 32 bd 03 ce bb be
       -0.00046460688 -0.3438676 -0.043558855 -0.36680612
000040 bb 95 14 3e d0 9e f9 bd d9 b4 5d 3e 06 31 b3 bd
       0.14510243 -0.12188494 0.21651019 -0.08749585
000050 9a 54 46 3d 5e 7f fa bd 3a ea ce be 8b 99 04 bd
       0.048420526 -0.122313246 -0.40413076 -0.032372992
000060 0b 79 63 3e df 7a 98 3e a8 4b 1a be a4 90 a8 3e
       0.22214143 0.29781243 -0.15067923 0.32922852
000070 51 78 2b 3e a0 ae 42 bd 9a 9c 01 bf 84 4c 99 3d
       0.16745116 -0.047529817 -0.5062958 0.07485297
000080 49 cc c6 be 7d d5 d2 be 7b 3b 59 3e f2 2f a0 3e
       -0.38827732 -0.41178504 0.21214096 0.3128658
000090 a3 13 00 be 36 5c d7 be ef a0 ff bd 16 8a d5 bd
       -0.12507491 -0.4206254 -0.124818675 -0.104267284
0000a0 18 76 c7 3d b6 e9 b8 3c 7e e8 51 bd 31 3f 41 3d
       0.097393215 0.02257238 -0.051247112 0.047179405
0000b0 ab 6b 61 3e dc b5 4c 3e 2b 82 30 bd 51 84 19 bd
       0.22013728 0.19991249 -0.043092888 -0.037479702
0000c0 56 fd cf 3b f2 87 9d 3e 1d 1c d7 3e 39 d1 80 3c
       0.0063473387 0.3076778 0.42013636 0.015724765
0000d0 33 71 f8 bc f4 34 62 3e 5c f5 f9 3c 21 f4 8a 3b
       -0.030327415 0.22090513 0.030512504 0.004240528
0000e0 30 97 52 bd 5f c6 6b be 5d b7 a8 bd 93 f2 55 bd
       -0.051413715 -0.23024891 -0.08238099 -0.05223329
0000f0 a9 c0 ea 3e a4 ec 66 be fc 91 9f 3d 94 7d 26 be
       0.45850113 -0.22551209 0.07791516 -0.16258842

critic.last.model.0.weight f4 [1, 64]
000000 89 d5 7a 3e 35 7c b3 3d a5 ea 73 3d b1 05 3b 3e
       0.2449552 0.08763925 0.059549946 0.1826389
000010 ae 8d 8e bd a8 59 a4 bd bd 76 2b bd bf 46 f6 bd
       -0.06960617 -0.08024913 -0.041861285 -0.120252125
000020 66 bb 18 be 44 e0 82 3e db fb 96 3d 5c 85 9c bd
       -0.14915237 0.25561726 0.07372256 -0.07642624
000030 c5 94 9b bd a1 9d 4f bd b5 f5 15 be 8a 8d 5c be
       -0.07596735 -0.050687436 -0.14644511 -0.21538368
000040 2e 80 ca 3d ba 95 e1 bd 4e fe 80 be 89 37 1d be
       0.098877296 -0.11014886 -0.2519402 -0.15353216
000050 7d 65 b2 3c e0 1d a9 3d b7 7c 83 be 89 48 aa bd
       0.021776909 0.08257651 -0.25681087 -0.08314616
000060 c9 f6 29 3d 28 aa 48 3e f0 71 d4 bd 0b 33 87 3e
       0.04149512 0.1959616 -0.10373294 0.2640613
000070 e0 76 74 3d e0 34 5c 3d 17 34 d9 be 70 4c 4a be
       0.05968368 0.053761363 -0.42422554 -0.19755721
000080 2a 1b ca 3e 1b dc 6b be 87 eb 42 3e 4f b7 dc 3d
       0.3947385 -0.23033182 0.19035159 0.10777151
000090 76 da bb 3e 7e 36 11 bf 95 4e 84 be 59 d1 8a 3d
       0.3669011 -0.56723773 -0.25841203 0.06778211
0000a0 2c 1a af 3d 1e 1f f4 bc 0f 0f 05 be 86 86 04 be
       0.08549914 -0.029799994 -0.12994026 -0.12941942
0000b0 d2 7f 93 3d 60 f9 3b be b5 f5 64 be 44 86 01 3e
       0.07202114 -0.18356848 -0.22359355 0.12648875
0000c0 0e 22 c2 bd f3 88 12 3e d0 63 b0 3e 0b 92 e2 3e
       -0.09479152 0.14310054 0.3445115 0.44252047
0000d0 16 8c 8e be 50 58 a6 3e b1 0f 4b be 7c 79 8d bd
       -0.27841252 0.32489252 -0.19830205 -0.06907937
0000e0 04 16 c2 3e db 2d 79 bd ba 8b d5 bd 4e 84 a4 3e
       0.37907422 -0.060834747 -0.10427041 0.3213219
0000f0 ca d8 8f 3e 26 78 16 be a3 8f a3 3d 67 f3 03 3e
       0.28095084 -0.1469427 0.07986381 0.1288582

_actor_critic.actor.sigma_param f4 [8, 1]
000000 89 2e 41 c0 53 bb 5e c0 e1 28 56 c0 f4 f7 49 c0
       -3.0184653 -3.4801834 -3.346245 -3.1557589
000010 65 f3 4a c0 66 09 3b c0 b1 d3 3f c0 fb f9 3b c0
       -3.1711056 -2.9224486 -2.9972956 -2.9371326
