results/HalfCheetah-v3/ppo/6/220621-160713/policy.pth (torch, 53732 bytes, 24 tensors)

actor.sigma_param f4 [6, 1]
-2.7657025 -3.2078404 -2.5837388 -3.2407074 -2.7480638 -2.4633453
00000000: 4501 31c0 424d 4dc0 fa5b 25c0 c067 4fc0
00000010: 47e0 2fc0 73a7 1dc0

actor.preprocess.model.model.0.weight f4 [64, 17]
0.15049373 -0.020860132 0.008120235 0.2849726 -0.43336552 -0.006937987 0.18161036 -0.3796323
-0.057668693 0.12112166 -0.01433956 0.12658656 -0.09455884 0.36538872 -0.121007055 0.22138144
0.24336743 0.79477507 -0.2158218 0.014342854 0.23186637 -0.08745315 -0.06315369 0.2822052
0.14158195 0.14768869 0.07489936 0.21387804 0.09699642 -0.22859582 0.14736357 0.3784938
0.2590121 -0.27338454 -1.0662197 -0.877876 -0.08906096 0.013005198 -0.17617433 0.0027685773
-0.037475426 -0.004141565 -0.19633329 -0.05658424 -0.2036532 -0.14704543 -0.08146309 0.08612231
0.21385472 0.09450411 -0.146899 0.3408781 0.9131963 -0.103068665 -0.055667497 -0.21659222
0.19098724 0.15088071 0.23360345 -0.1912113 -0.07113924 -0.23398481 0.40901783 -0.1200514
0.08454408 -0.12377718 -0.20105338 0.1092028 0.22526212 -0.7154875 0.1403008 -0.1807471
-0.08849333 -0.07023489 0.12130554 -0.23650444 -0.030419718 0.40692285 -0.02647662 0.15041085
-0.26068538 -0.115836285 0.23891091 -0.14575307 0.11104397 -0.5440138 0.7014359 0.0012432365
-0.08864645 0.31936198 -0.19089392 -0.08260767 0.11242728 0.01557751 -0.009224833 0.13683145
0.14299151 0.07552262 0.26843995 -0.47593418 0.20564725 0.44630483 0.42806128 -0.560915
-0.55033165 0.19091824 -0.3116586 0.0040835505 -0.030723933 -0.07538666 -0.04334706 -0.10209009
0.31190646 0.089520246 0.22052301 -0.23180799 0.20074289 0.08744271 0.044734336 -0.19819194
-0.33295733 -0.2942754 -0.0020553558 0.051110417 -0.33077562 0.2902976 -0.16325122 -0.092536144
0.54309577 0.40300345 -0.684525 0.0687097 -0.5962194 -0.4710341 -0.1227896 0.18019168
-0.22325963 0.31099248 0.41201788 0.086571716 -0.19333953 0.26217893 0.15409926 0.15394332
-0.15126061 -0.46184662 0.0357565 0.31520388 0.18081337 -0.21900998 0.24002859 0.22715576
-0.115108356 0.08738109 0.10152698 -0.049900375 -0.1260903 -0.24018268 0.015855262 -0.38584158
0.19475393 0.09469579 0.8204916 0.5742187 -0.32121933 0.33361778 0.009847642 0.1199562
0.058414053 0.18269312 -0.5249703 -0.34444597 0.13881981 0.09052243 0.093134336 0.090581544
-0.5015052 0.04555916 -0.2410063 -0.10316721 0.1525157 -0.11474966 0.17135026 -0.03592282
-0.09372747 0.039880063 -0.44549903 -0.35779667 -0.08482658 -0.03520419 -0.07894429 0.22176392
0.26406872 0.097081214 -0.27325293 0.052545786 0.639327 0.035936095 0.30208233 0.2295481
0.17485262 0.46989372 0.030802997 0.3405524 0.15168674 -0.25186142 0.23131698 -0.4145077
0.052645594 -0.24563983 0.18775442 -0.06761302 0.054905083 0.2517756 -0.026958777 0.18822847
-0.03981949 0.03770246 -0.24260378 -0.30710515 -0.21501964 -0.35337776 0.14398666 -0.47556046
0.30551705 0.17482196 -0.1906361 0.06506291 0.11495579 0.35153604 0.08836867 0.17624365
-0.23802581 -0.09010624 0.241271 0.20768063 -0.42529377 -0.017559553 -0.13871345 -1.4167254
-0.06369431 0.08905264 0.10410229 0.16585176 0.13315336 0.021621203 -0.11025353 -0.15024951
-0.06412663 0.07761561 -0.0437579 -0.033292085 0.12535362 -0.06820985 0.036550686 0.17009696
00000000: 071b 1a3e dee2 aabc bc0a 053c eee7 913e
00000010: 16e2 ddbe 0e58 e3bb 11f8 393e 2a5f c2be
00000020: 0236 6cbd a20e f83d 79f0 6abc e89f 013e
00000030: 11a8 c1bd 3b14 bb3e 8cd2 f7bd d1b1 623e
00000040: 5035 793e 6176 4b3f 6400 5dbe 4afe 6a3c
00000050: 616e 6d3e a31a b3bd b956 81bd 337d 903e
00000060: dcfa 103e b43b 173e d664 993d d802 5b3e
00000070: 0fa6 c63d 0615 6abe 7ae6 163e f0c9 c13e
00000080: 3c9d 843e 0ff9 8bbe e379 88bf 7bbc 60bf
00000090: 9865 b6bd c113 553c 0b67 34be 0571 353b
000000a0: d57f 19bd f7b5 87bb 980b 49be e0c4 67bd
000000b0: 778a 50be 1493 16be 1fd6 a6bd e560 b03d
000000c0: bbfc 5a3e 5f8b c13d b16c 16be 9387 ae3e
000000d0: 3cc7 693f aa15 d3bd 9a03 64bd 5aca 5dbe
000000e0: 2992 433e 7980 1a3e be35 6f3e e5cc 43be
000000f0: 73b1 91bd b799 6fbe c96a d13e 82dd f5bd
00000100: 7225 ad3d e47e fdbd f0e0 4dbe b8a5 df3d
00000110: 1dab 663e 302a 37bf 03ab 0f3e c515 39be
00000120: fe3b b5bd 4fd7 8fbd 0a6f f83d 382e 72be
00000130: c632 f9bc 3158 d03e 7fe5 d8bc 4d05 1a3e
00000140: 8e78 85be 933b edbd 10a5 743e 4b40 15be
00000150: 056b e33d 7d44 0bbf 4e91 333f 18f4 a23a
00000160: 458c b5bd 6a83 a33e b279 43be 362e a9bd
00000170: 4640 e63d d038 7f3c c123 17bc 8b1d 0c3e
00000180: 5e6c 123e 9aab 9a3d f670 893e a5ad f3be
00000190: 3195 523e 1182 e43e d92a db3e 2098 0fbf
000001a0: 89e2 0cbf 1280 433e b791 9fbe 4ecf 853b
000001b0: c2b0 fbbc 5264 9abd b08c 31bd 9c14 d1bd
000001c0: 34b2 9f3e 6456 b73d c9d0 613e 135f 6dbe
000001d0: 8b8f 4d3e 2a15 b33d 5a3b 373d d4f2 4abe
000001e0: 6279 aabe 44ab 96be 26b3 06bb 2859 513d
000001f0: 6c5b a9be e3a1 943e 542b 27be 9783 bdbd
00000200: 5308 0b3f 7856 ce3e 083d 2fbf acb7 8c3d
00000210: d6a1 18bf 622b f1be 1d79 fbbd 2b84 383e
00000220: 2c9e 64be 683a 9f3e 02f4 d23e 834c b13d
00000230: ccfa 45be 513c 863e 32cc 1d3e 51a3 1d3e
00000240: 10e4 1abe 2977 ecbe 6875 123d 6762 a13e
00000250: 2427 393e 2744 60be 0eca 753e 859b 683e
00000260: eebd ebbd dbf4 b23d 61ed cf3d 5664 4cbd
00000270: d11d 01be 73f2 75be e5e2 813c 078d c5be
00000280: 936d 473e deef c13d bd0b 523f ffff 123f
00000290: dc76 a4be f3cf aa3e 0158 213c 99ab f53d
000002a0: 9343 6f3d e813 3b3e 7464 06bf 395b b0be
000002b0: c826 0e3e d363 b93d 37bd be3d d182 b93d
000002c0: a562 00bf 3e9c 3a3d 5bca 76be 5549 d3bd
000002d0: 132d 1c3e df01 ebbd 7176 2f3e cf23 13bd
000002e0: 30f4 bfbd 4759 233d 7318 e4be 2031 b7be
000002f0: 8fb9 adbd 4532 10bd 8bad a1bd 1516 633e
00000300: 0434 873e 84d2 c63d cfe7 8bbe 403a 573d
00000310: efaa 233f ba31 133d 89aa 9a3e a80e 6b3e
00000320: 910c 333e e995 f03e 9156 fc3c e25c ae3e
00000330: c553 1b3e fbf3 80be 5cde 6c3e 5a3a d4be
00000340: e8a2 573d 0289 7bbe b242 403e b278 8abd
00000350: 27e4 603d bbe8 803e a7d8 dcbc f7be 403e
00000360: c319 23bd e56d 1a3d 206d 78be e33c 9dbe
00000370: 1c2e 5cbe eeed b4be 3d71 133e a97c f3be
00000380: bb6c 9c3e 8704 333e 1c36 43be b43f 853d
00000390: f16d eb3d 88fc b33e a2fa b43d 3779 343e
000003a0: 0abd 73be 9f89 b8bd bf0f 773e 3baa 543e
000003b0: 1bc0 d9be 0dd9 8fbc e60a 0ebe 4257 b5bf
000003c0: 2a72 82bd 3b61 b63d 9533 d53d 0bd5 293e
000003d0: 5b59 083e f31e b13c 9acc e1bd 02db 19be
000003e0: d354 83bd eff4 9e3d 7c3b 33bd 485d 08bd
000003f0: b35c 003e 9bb1 8bbd 2cb6 153d e62d 2e3e

actor.preprocess.model.model.0.bias f4 [64]
-0.062250122 0.25487012 -0.3241312 -0.34601822 0.3205192 -0.20944063 0.14178854 -0.24581765
0.093346916 -0.20521635 -0.14473385 0.16466144 -0.061913423 0.29501787 -0.23259866 0.01403611
0.20687212 0.10939509 0.17434633 -0.31410027 0.21798971 0.0939009 -0.025829403 -0.17603639
0.17677402 0.16524988 0.26350662 0.16395283 0.1365086 0.19177836 0.024814563 -0.19076432
-0.29389215 -0.28242183 -0.13135199 -0.17164972 0.060994204 0.0016415669 -0.10162018 -0.15437566
0.09728792 -0.051491555 0.30121833 0.106778644 0.15806407 0.052060913 -0.22341543 -0.21185097
-0.1559077 0.12302687 -0.0022633485 -0.12597638 0.023924293 -0.37090087 0.15597792 -0.19233783
0.051695317 -0.17199652 0.2877125 -0.13625656 0.19730759 -0.03893227 0.2763803 0.050863966
00000000: fcf9 7ebd 567e 823e 86f4 a5be 4d29 b1be
00000010: 181b a43e 9b77 56be 0431 113e 9fb7 7bbe
00000020: ab2c bf3d 3c24 52be 1c35 14be 029d 283e
00000030: ee98 7dbd 950c 973e 582e 6ebe b6f7 653c
00000040: 49d6 533e 880a e03d d887 323e c0d1 a0be
00000050: b238 5f3e 1d4f c03d 2f98 d3bc e242 34be
00000060: 4004 353e 4437 293e 57ea 863e 40e3 273e
00000070: e9c8 0b3e 8c61 443e e947 cb3c b957 43be
00000080: 0879 96be 9899 90be 2381 06be f2c4 2fbe
00000090: 0fd5 793d d829 d73a 3e1e d0bd a714 1ebe
000000a0: e43e c73d cfe8 52bd 4a39 9a3e c3ae da3d
000000b0: 8cdb 213e d33d 553d 04c7 64be 76ef 58be
000000c0: 45a6 1fbe 83f5 fb3d b054 14bb f4ff 00be
000000d0: e1fc c33c b8e6 bdbe adb8 1f3e 35f4 44be
000000e0: 78be 533d db1f 30be 0e4f 933e d786 0bbe
000000f0: 000b 4a3e 7277 1fbd b881 8d3e bc56 503d

actor.preprocess.model.model.2.weight f4 [64, 64]
0.431049 -0.3012927 0.10791126 -0.23107323 0.065923326 0.1761199 0.3306851 0.18003616
0.28971604 -0.010128288 0.20890501 -0.025388239 0.020879453 -0.47475353 -0.049529064 0.1469431
0.41952735 -0.036436457 0.19849965 -0.071038075 -0.20705757 0.23371252 0.30376983 -0.27538446
-0.15969416 0.107406214 0.17474043 0.14587028 -0.5299016 0.31395432 0.25354442 0.34250572
0.3582001 0.1793088 0.12634696 0.30786842 -0.026863286 0.4032476 0.13431366 -0.25847986
-0.00536958 0.03886137 -0.39128026 -0.3408849 -0.30996037 0.4465964 -0.028125335 0.23784189
0.2808423 -0.63141817 -0.067138486 -0.128094 0.26416674 0.021734936 -0.23587708 0.43540016
-0.005639252 0.18525933 0.11142821 0.058384016 -0.38390604 -0.20633061 -0.020819902 0.07499408
0.14327407 0.18844108 -0.07011221 -0.26576066 -0.057175517 -0.09374353 -0.18567242 0.10853914
-0.118414015 0.15897213 -0.06122927 -0.00457972 -0.075211905 0.28447232 -0.35809654 0.15189691
-0.25582618 0.29442197 0.33737653 -0.11375294 -0.24555358 0.034277838 0.05546139 0.46950302
0.31354433 -0.06264795 -0.6371044 0.38514242 0.171457 -0.17492497 0.07060467 -0.27060553
0.2878044 -0.14112289 -0.03399749 -0.15544657 -0.09752666 0.2147985 -0.071151234 -0.071013145
-0.12420812 0.052586854 0.16260834 0.20451057 0.086831175 0.10383272 0.11868963 -0.36170554
0.05448813 0.103789546 -0.47032553 -0.13650118 0.51030046 -0.02863862 -0.058916386 -0.3238487
0.19721909 0.11117624 0.20282671 0.5368936 0.22849858 -0.75542206 0.20677266 -0.051112324
-0.27155298 -0.2770757 -0.25764975 -0.116902046 -0.096949294 0.29262987 0.18634987 0.29858148
-0.08408243 0.37840247 0.023480965 0.06561321 0.15788151 0.28607416 -0.26709744 0.41667807
0.015237965 0.18366858 -0.28290936 0.070485696 0.39548784 -0.10960672 0.09722372 -0.28140157
0.07130569 0.10088166 0.073951505 0.19448292 0.023563338 -0.21450658 0.2293025 -0.38970357
-0.228731 -0.111744024 0.23916768 -0.08766737 0.4262346 -0.14556192 0.13567437 -0.102109544
-0.16259685 -0.23020244 -0.078674756 -0.3062243 0.15818849 0.18185425 -0.17009751 -0.24272165
0.267762 0.19132526 -0.1657838 0.21803081 0.13035771 -0.6549463 0.20134558 0.039463047
-0.33923683 -0.43422592 -0.027691165 -0.20010507 0.041581806 0.5375826 0.5119281 0.30334255
0.38550884 0.36187196 -0.11469739 -0.06906436 0.056232527 -0.0849238 -0.102112666 -0.08199832
-0.017734144 0.25959605 -0.25214875 0.1046523 -0.0024452407 -0.020022782 -0.25617787 -0.1016971
-0.28450155 -0.39662257 0.0009431507 -0.17331335 -0.12568396 0.4225408 -0.34746408 0.0048622075
0.05668191 -0.49592257 0.18232274 0.3519788 -0.09737064 -0.13207102 0.49389312 0.1625962
0.48752475 -0.0975842 0.12513341 0.44178778 -0.06639539 -0.36185113 0.35342357 -0.22026204
0.21898054 0.02560228 -0.28258058 0.11521518 0.388339 -0.43515283 -0.1597007 0.097329944
0.043296713 0.02731006 0.33376482 0.117252454 -0.31363514 0.40207535 -0.08221948 0.19126824
-0.3034903 0.06853367 -0.29413217 0.32263532 -0.013803583 -0.061967008 0.38716888 -0.15287581
00000000: 74b2 dc3e 0943 9abe 9400 dd3d 769e 6cbe
00000010: cf02 873d c658 343e 8f4f a93e 665b 383e
00000020: a955 943e 1ef1 25bc 32eb 553e fffa cfbc
00000030: 630b ab3c e512 f3be fdde 4abd 4178 163e
00000040: 4acc d63e 653e 15bd 7e43 4b3e 697c 91bd
00000050: e606 54be 5652 6f3e b887 9b3e 31ff 8cbe
00000060: de86 23be caf7 db3d 28ef 323e 055f 153e
00000070: a2a7 07bf 9fbe a03e 93d0 813e e95c af3e
00000080: 0166 b73e ba9c 373e 1961 013e eea0 9d3e
00000090: 6510 dcbc 7876 ce3e 8589 093e 7957 84be
000000a0: 4df3 afbb 1a2d 1f3d e355 c8be 7788 aebe
000000b0: 20b3 9ebe 49a8 e43e 1a67 e6bc d38c 733e
000000c0: 90ca 8f3e 9fa4 21bf e77f 89bd 132b 03be
000000d0: dd40 873e 770d b23c c389 71be c5ec de3e
000000e0: 79c9 b8bb 9fb4 3d3e 7934 e43d 1424 6f3d
000000f0: 558f c4be 5548 53be 808e aabc 7f96 993d
00000100: 70b6 123e b3f6 403e fe96 8fbd c811 88be
00000110: e030 6abd 9cfc bfbd e920 3ebe c549 de3d
00000120: 0c83 f2bd 97c9 223e 8bcb 7abd 7a11 96bb
00000130: b308 9abd 5ba6 913e 6e58 b7be dd8a 1b3e
00000140: a6fb 82be 7abe 963e 9ebc ac3e 4df7 e8bd
00000150: 6672 7bbe eb66 0c3d 7c2b 633d b362 f03e
00000160: e288 a03e 924d 80bd 4619 23bf 6331 c53e
00000170: 6c92 2f3e 881f 33be 2e99 903d cf8c 8abe
00000180: 195b 933e 8582 10be f440 0bbd 632d 1fbe
00000190: 0fbc c7bd 23f4 5b3e bdb7 91bd 576f 91bd
000001a0: d460 febd 5065 573d cd82 263e 386b 513e
000001b0: 8bd4 b13d 40a6 d43d 8c13 f33d 7831 b9be
000001c0: f22e 5f3d 9d8f d43d 82ce f0be f7c6 0bbe
000001d0: 0da3 023f 8a9b eabc 4f52 71bd 7fcf a5be
000001e0: cdf3 493e 5eb0 e33d ceb1 4f3e dc71 093f
000001f0: 88fb 693e 5763 41bf 36bc 533e 285b 51bd
00000200: fe08 8bbe dedc 8dbe abea 83be 576a efbd
00000210: 5a8d c6bd 95d3 953e 80d2 3e3e acdf 983e
00000220: 6933 acbd f8bd c13e 275b c03c 3860 863d
00000230: b1ab 213e 5078 923e ffc0 88be d456 d53e
00000240: a8a8 793c 9e13 3c3e 7fd9 90be ce5a 903d
00000250: 627d ca3e 7d79 e0bd 3b1d c73d de13 90be
00000260: b808 923d 0b9b ce3d e373 973d 8826 473e
00000270: e707 c13c 9da7 5bbe 46ce 6a3e 3a87 c7be
00000280: 7638 6abe 0dda e4bd 5fe8 743e f38a b3bd
00000290: 6c3b da3e 2f0e 15be 39ee 0a3e cf1e d1bd
000002a0: ca7f 26be 30ba 6bbe 3b20 a1bd 6ec9 9cbe
000002b0: 2afc 213e 0038 3a3e 0b2e 2ebe 068c 78be
000002c0: 1a18 893e c5ea 433e 3ac3 29be 7843 5f3e
000002d0: 7e7c 053e 90aa 27bf 892d 4e3e 01a4 213d
000002e0: 73b0 adbe dc52 debe 95d8 e2bc 58e8 4cbe
000002f0: af51 2a3d 039f 093f b80d 033f b74f 9b3e
00000300: 6a61 c53e 4847 b93e 77e6 eabd 9d71 8dbd
00000310: 1454 663d 87ec adbd 7220 d1bd bcee a7bd
00000320: 3247 91bc c6e9 843e a419 81be f253 d63d
00000330: 5540 20bb d106 a4bc bf29 83be 9246 d0bd
00000340: 30aa 91be 1d12 cbbe c63d 773a 0e79 31be
00000350: 4cb3 00be 4557 d83e d0e6 b1be 2753 9f3b
00000360: 4a2b 683d 90e9 fdbe d0b2 3a3e 9136 b43e
00000370: 426a c7bd a03d 07be 8fdf fc3e 9e7f 263e
00000380: d89c f93e 3ada c7bd f922 003e 0232 e23e
00000390: 4efa 87bd 8d44 b9be eff3 b43e 5f8c 61be
000003a0: 6f3c 603e dfbb d13c 67ae 90be f0f5 eb3d
000003b0: 5fd4 c63e 5acc debe 9588 23be ec54 c73d
000003c0: e557 313d 59b9 df3c 39e3 aa3e 0e22 f03d
000003d0: c994 a0be d2dc cd3e b062 a8bd d2db 433e
000003e0: 1563 9bbe 615b 8c3d 7e98 96be 7530 a53e
000003f0: 6c28 62bc 1ed1 7dbd 003b c63e 7a8b 1cbe

actor.preprocess.model.model.2.bias f4 [64]
-0.102869 0.10341047 0.22062337 -0.025011236 0.23204836 0.30521435 0.2112972 -0.07408065
-0.0004178064 -0.11313394 0.099541806 -0.070564635 0.023187926 -0.28979814 0.0820293 -0.067786545
0.061980195 0.041188218 -0.08569237 0.103955425 0.105143905 0.14290991 0.045452956 0.2767691
-0.013452071 -0.15981397 -0.01467259 -0.016307121 0.08463015 0.1964777 -0.36755264 0.096523255
-0.054171585 0.0066777836 0.22466993 0.26328418 0.12960917 0.18254015 0.11807023 0.25460964
-0.31182557 0.24336314 0.118751295 0.1026825 0.10126441 0.37257144 -0.033501785 0.28469536
-0.030427232 -0.33489865 -0.042049974 -0.12571076 0.16044433 -0.1780032 -0.435524 -0.017843481
0.09119228 -0.047955606 -0.0076557407 0.10958872 -0.063409775 0.071152344 0.10395012 0.06881748
00000000: fbac d2bd dec8 d33d 18eb 613e 5de4 ccbc
00000010: 169e 6d3e 0e45 9c3e 4b5e 583e 99b7 97bd
00000020: 070d dbb9 c4b2 e7bd 93dc cb3d 3184 90bd
00000030: 9bf4 bd3c 6c60 94be fafe a73d acd3 8abd
00000040: f2de 7d3d fab4 283d 7b7f afbd 95e6 d43d
00000050: b055 d73d fa56 123e e12c 3a3d aeb4 8d3e
00000060: 1366 5cbc 46a6 23be 4e65 70bc 8396 85bc
00000070: 9252 ad3d 7331 493e dc2f bcbe fcad c53d
00000080: 06e3 5dbd 4fd1 da3b e00f 663e 2fcd 863e
00000090: 44b8 043e ceeb 3a3e cece f13d 325c 823e
000000a0: 9aa7 9fbe 3034 793e e133 f33d 344b d23d
000000b0: b763 cf3d afc1 be3e 2b39 09bd 97c3 913e
000000c0: 8842 f9bc d677 abbe 983c 2cbd 52ba 00be
000000d0: 854b 243e 7946 36be 00fd debe 7e2c 92bc
000000e0: 05c3 ba3d 196d 44bd 02dd fabb 0d70 e03d
000000f0: fcdc 81bd 52b8 913d cde3 d43d 2ef0 8c3d

actor.mu.model.0.weight f4 [6, 64]
0.04243769 0.051503066 -0.08049741 0.024276061 -0.16132826 -0.1055617 -0.20929052 0.17976418
-0.04723086 0.076489724 -0.0055249156 -0.08611603 -0.062470127 -0.031246193 0.035634592 -0.012980306
-0.022342037 0.0047095628 0.08282715 -0.11004186 0.034626845 0.17784348 -0.03446536 -0.09276743
-0.09764682 -0.16571853 -0.024844537 0.05586923 0.038727272 -0.048766557 0.009106751 0.17670546
0.044362146 0.25708634 0.18983327 -0.039244927 0.25145307 -0.07408897 0.010260104 0.0926458
0.0068089897 -0.09544283 0.017587947 -0.033504434 -0.09595321 0.19463158 0.0569905 -0.0320305
-0.15777795 0.11120751 -0.0026648778 0.08870147 0.08328158 -0.21666089 0.13563335 0.09053187
-0.048292678 0.15480313 0.024518114 0.11943083 -0.4027303 0.12861472 -0.07639024 -0.11431581
0.02335485 -0.10827474 0.049919214 -0.13023956 -0.11763589 -0.18374768 -0.1904415 -0.04543019
0.13936605 0.09078888 -0.022488538 0.086241305 -0.21486439 -0.18492462 0.093579926 -0.07171113
0.06657391 -0.04674267 -0.03407792 0.05071029 -0.2890506 0.11520459 0.012430757 -0.02424126
0.045951176 -0.037901867 -0.12788169 -0.046931785 0.11873453 0.06449948 -0.35409528 0.009962299
0.060129113 -0.16933976 0.020799622 -0.07957572 0.09910444 0.09381345 0.116338305 -0.09438268
0.100912526 -0.09980859 0.12495636 -0.03985119 0.12883367 -0.08067716 -0.0546405 0.060568254
-0.08317356 0.20915891 0.04831387 -0.010482495 -0.113833584 -0.026908452 0.20198011 0.025586596
-0.37077093 -0.011902382 0.049401402 -0.15916331 0.13678426 0.077502996 -0.017958494 -0.08685653
-0.13184421 0.119604945 -0.12160834 -0.19098568 0.17479208 -0.047587935 0.028493265 0.030918442
0.052059695 0.027790176 -0.12298336 -0.045060184 0.07942644 -0.12903659 -0.21237363 0.054282285
0.05952947 0.15224299 -0.114210054 0.20792831 0.053698026 0.050207254 0.11663777 -0.16849168
-0.078728974 0.053065926 -0.0017693982 0.099894546 -0.002800216 -0.19303313 0.15566139 0.19745645
0.102446444 0.17299946 0.2348982 0.016432572 0.07269541 -0.057333924 0.27907106 0.20674951
-0.08286965 0.098167315 -0.135927 -0.180671 0.062111452 0.017540028 0.0004817709 0.026212333
-0.18766122 0.044880476 -0.14205296 0.02614553 -0.01075429 0.041695327 -0.10373108 0.02988009
0.11094014 -0.09474509 0.061462265 0.011413745 0.07186678 -0.10996677 -0.077151075 -0.020885482
0.1642224 0.09875025 0.05898509 0.008897289 0.2365664 0.11058721 0.010437924 -0.054475695
0.09585826 0.15015325 -0.14573613 -0.2963482 -0.08572543 0.107103124 0.020128386 0.06162085
0.011243993 -0.08118394 -0.04859738 -0.051354513 0.06126915 0.207756 -0.16383775 0.098293826
-0.054510348 0.04327863 0.14762619 0.037644252 0.08684909 -0.18081151 -0.025817292 -0.0073174466
-0.03793308 0.08239103 0.10554162 0.25215507 -0.041872 -0.055895768 -0.13703685 -0.023420371
0.0022087544 0.021514924 0.028437342 0.21336278 -0.14025241 0.46099868 0.12675048 -0.23894975
-0.09045871 0.19327702 0.18061411 -0.11158363 0.05093883 0.13802479 -0.13853693 -0.20021166
0.04636761 -0.18016613 0.012043582 0.14476696 -0.14965166 0.12181555 -0.20160234 0.058300078
00000000: 25d3 2d3d e1f4 523d d3db a4bd 97de c63c
00000010: 3c33 25be bc30 d8bd 4150 56be 1a14 383e
00000020: 2575 41bd a5a6 9c3d 5a0a b5bb 9a5d b0bd
00000030: ade0 7fbd 04f8 ffbc 94f5 113d 59ab 54bc
00000040: a606 b7bc ad52 9a3b 48a1 a93d a05d e1bd
00000050: e1d4 0d3d 9a1c 363e 8d2b 0dbd dafc bdbd
00000060: 0efb c7bd 1eb2 29be c586 cbbc 22d7 643d
00000070: 7da0 1e3d 71bf 47bd 7b34 153c 47f2 343e
00000080: 15b5 353d d2a0 833e a763 423e 4abf 20bd
00000090: 75be 803e f5bb 97bd ff19 283c 15bd bd3d
000000a0: f21d df3b 8877 c3bd 9914 903c f23b 09bd
000000b0: 1e83 c4bd 804d 473e df6e 693d 6a32 03bd
000000c0: 8b90 21be c3c0 e33d 3ba5 2ebb 1ea9 b53d
000000d0: 888f aa3d 5adc 5dbe 78e3 0a3e c668 b93d
000000e0: 8bce 45bd b684 1e3e 36da c83c 2798 f43d
000000f0: aa32 cebe 94b3 033e 7c72 9cbd 681e eabd
00000100: ac52 bf3c 26bf ddbd 1778 4c3d 855d 05be
00000110: 16eb f0bd 5a28 3cbe 1903 43be 0215 3abd
00000120: f9b5 0e3e 85ef b93d e239 b8bc 489f b03d
00000130: 6905 5cbe e15c 3dbe d5a6 bf3d 49dd 92bd
00000140: e757 883d 3e75 3fbd 4a95 0bbd 98b5 4f3d
00000150: 71fe 93be 62f0 eb3d 60aa 4b3c 9b95 c6bc
00000160: 4d37 3c3d fd3e 1bbd 6bf3 02be 8b3b 40bd
00000170: 172b f33d 4e18 843d fa4b b5be e938 233c
00000180: f249 763d 6767 2dbe f863 aa3c 98f8 a2bd
00000190: 45f7 ca3d 4421 c03d c742 ee3d b54b c1bd
000001a0: 3aab ce3d 7268 ccbd 1fe9 ff3d 003b 23bd
000001b0: f9ec 033e 113a a5bd b8ce 5fbd 6b16 783d
000001c0: e656 aabd c12d 563e c4e4 453d c5be 2bbc
000001d0: 9521 e9bd 1d6f dcbc e0d3 4e3e fb9a d13c
000001e0: b0d5 bdbe 3502 43bc 2059 4a3d b5fb 22be
000001f0: 2c11 0c3e e4b9 9e3d b11d 93bc d6e1 b1bd
00000200: 2b02 07be 70f3 f43d cb0d f9bd c091 43be
00000210: b2fc 323e 91eb 42bd b56a e93c ac48 fd3c
00000220: 8c3c 553d 39a8 e33c b3de fbbd 0791 38bd
00000230: 54aa a23d 2b22 04be 7978 59be 1a57 5e3d
00000240: 2cd5 733d 96e5 1b3e f6e6 e9bd 29eb 543e
00000250: 76f2 5b3d 1fa6 4d3d c8df ee3d 1589 2cbe
00000260: a83c a1bd a85b 593d 27eb e7ba 8395 cc3d
00000270: d483 37bb 7aaa 45be b365 1f3e 0632 4a3e
00000280: 71cf d13d c526 313e 2789 703e 9a9d 863c
00000290: 55e1 943d fad6 6abd 67e2 8e3e 25b6 533e
000002a0: 90b7 a9bd f20b c93d 7330 0bbe d201 39be
000002b0: 9468 7e3d 1bb0 8f3c 3296 fc39 3fbb d63c
000002c0: 432a 40be 97d4 373d 5576 11be 272f d63c
000002d0: c332 30bc b8c8 2a3d f670 d4bd 17c7 f43c
000002e0: 9634 e33d b709 c2bd dbbf 7b3d b700 3b3c
000002f0: e42e 933d 4236 e1bd 6201 9ebd 0818 abbc
00000300: eb29 283e 923d ca3d 5a9a 713d efc5 113c
00000310: 763e 723e 8c7b e23d d403 2b3c e821 5fbd
00000320: 5651 c43d c6c1 193e da3b 15be f4ba 97be
00000330: d090 afbd e258 db3d 49e4 a43c 2566 7c3d
00000340: ba38 383c c443 a6bd 0c0e 47bd 1c59 52bd
00000350: 5cf5 7a3d fdbd 543e 15c5 27be 464e c93d
00000360: 3e46 5fbd ef44 313d 522b 173e dc30 1a3d
00000370: f0dd b13d a726 39be c97e d3bc 31c7 efbb
00000380: b85f 1bbd a1bc a83d 3426 d83d 781a 813e
00000390: f981 2bbd f6f2 64bd 6353 0cbe 14dc bfbc
000003a0: c0c0 103b 1140 b03c 6ef5 e83c c67b 5a3e
000003b0: 549e 0fbe 0508 ec3e e1ca 013e 3eaf 74be
000003c0: 6b42 b9bd 69ea 453e e8f2 383e f585 e4bd
000003d0: 3ca5 503d 5f56 0d3e a0dc 0dbe 4904 4dbe
000003e0: f7eb 3d3d 787d 38be 7252 453c ca3d 143e
000003f0: 493e 19be 6e7a f93d d870 4ebe 10cc 6e3d

actor.mu.model.0.bias f4 [6]
-0.008714899 -0.009247862 -0.004576323 0.06554452 0.033580158 0.0035072826
00000000: f0c8 0ebc 5884 17bc fbf4 95bb 353c 863d
00000010: 598b 093d 70da 653b

critic.preprocess.model.model.0.weight f4 [64, 17]
0.23773587 -1.0978621 -0.17392285 -0.23165849 -0.11816468 -0.08480134 0.22979039 0.055113453
-0.08978283 0.2792701 -0.3226512 0.099450596 0.11320455 0.06809757 -0.3010066 -0.36974207
-0.05540844 -0.17713246 0.7214106 -0.47905776 -0.09304637 -0.034117512 0.1160108 0.21364118
0.16745266 0.274032 -0.26238185 0.38120285 0.067282155 0.3949949 -0.08576767 -0.28971267
-0.038159166 -0.1601742 0.42590338 -0.33994117 -0.23327644 -0.057723984 0.07006535 -0.30107832
-0.11279445 -0.018729465 -0.11860735 0.26899493 0.1252617 0.08467427 0.12914556 -0.009787032
0.10254393 -0.1488912 -0.09288141 0.2511171 1.491487 -0.051105782 0.18665184 0.0012094697
-0.123565376 -0.023231529 -0.024616795 0.13066505 -0.027018644 0.38467026 0.338417 0.12809435
-0.019560337 -0.09187376 -0.028598746 0.076426886 -0.8232524 0.82102746 -0.036181938 -0.084131196
-0.12809959 -0.34411153 -0.055847347 0.003793324 0.09362263 -0.4216125 0.4369221 -0.22567423
0.10529971 0.061272867 0.13508318 0.20187697 0.097717285 -0.23400915 0.32948712 0.5101506
-0.04807337 -0.034300715 0.1424988 0.04696586 -0.017493566 -0.2552722 -0.19137563 0.11990612
0.46438566 0.15092406 -0.038723864 -0.032070853 0.099800654 0.18185939 -0.061895333 -0.42653337
-0.21740988 -0.10833426 0.06952415 0.045181423 -0.08230877 -0.035926655 -0.25990325 -0.1378525
-0.11492137 -0.13616061 -0.1563525 -0.121203385 0.14274089 0.11385055 0.05880038 0.7446078
-0.63800937 0.16525534 -0.23593253 -0.09224358 -0.05465138 -0.4940673 -0.13529775 -0.39537138
0.03303681 0.30191544 0.044202954 0.07613786 0.080431074 0.1600831 0.07851606 0.022391748
-0.07448053 0.54162043 0.035499077 0.051283386 -0.002057926 0.3836778 -0.014234792 0.12881468
0.21078676 0.14755276 0.37166813 0.31881973 0.2652316 -0.002751365 0.115541674 -0.011251803
-0.11528857 -0.03608659 -0.98050094 -0.0057345233 -0.18455093 -0.022633474 -0.12284334 0.09853725
0.03303914 0.21901433 -0.17773628 -0.19154985 -0.19735733 -0.12451871 0.012387464 -0.20951629
-0.11616323 -0.08372058 -0.16945393 -0.99558824 -0.34368694 -0.10652072 0.04283931 0.0144668305
-0.18254188 -0.0308794 0.2534045 -0.27405176 0.0077408487 -0.40492985 -0.021769926 0.07887982
-0.20633043 -0.012731731 -0.027856853 0.013418326 0.6628505 0.47055033 -0.16927038 0.08390026
-0.29497755 0.14677991 0.036868487 -0.22314541 0.22502819 0.3027549 -0.32012942 0.21617508
0.08059074 0.32894653 0.23305388 0.089015916 -0.09363282 -0.20499586 0.052901316 0.21089052
0.006025796 -0.21192065 0.07627696 -0.048454013 -0.20159909 0.22531451 0.14707652 0.28126073
0.20018539 -0.042287428 0.2762958 -0.029795902 -0.09568711 0.2703837 -0.2163081 -0.16068603
0.040550414 -0.1731299 0.05198578 0.13900846 0.011499435 0.17587727 0.3712221 0.1137033
0.263744 0.3043664 0.071352586 0.14350347 -0.039769225 -0.011165498 -0.19947778 0.8915647
-0.23810051 0.19229224 0.06855947 -0.39925936 -0.104553156 -0.20205443 0.0067949058 -0.07076073
0.31157237 0.0068220105 0.3129315 -0.012841348 -0.42056438 -0.03213208 -0.03259273 -0.12028178
00000000: 0871 733e bf86 8cbf d518 32be e237 6dbe
00000010: 5300 f2bd 53ac adbd 2c4e 6b3e a5be 613d
00000020: 0fe0 b7bd 7efc 8e3e 8a32 a5be c1ac cb3d
00000030: cad7 e73d bd76 8b3d 891d 9abe d54e bdbe
00000040: f6f3 62bd 3662 35be 5dae 383f 0f47 f5be
00000050: 188f bebd cebe 0bbd 1297 ed3d c1c4 5a3e
00000060: b678 2b3e ec4d 8c3e ea56 86be 052d c33e
00000070: 3acb 893d c63c ca3e f6a6 afbd 3855 94be
00000080: c94c 1cbd b504 24be 0210 da3e c50c aebe
00000090: 05e0 6ebe fc6f 6cbd 6c7e 8f3d f026 9abe
000000a0: c700 e7bd 896e 99bc 69e8 f2bd b4b9 893e
000000b0: 9a44 003e b469 ad3d bc3e 043e ca59 20bc
000000c0: 8d02 d23d ef76 18be 9c38 bebd 6c92 803e
000000d0: 0ce9 be3f 4c54 51bd a921 3f3e 1287 9e3a
000000e0: d80f fdbd 0c50 bebc 29a9 c9bc 0fcd 053e
000000f0: 3456 ddbc 80f3 c43e fe44 ad3e 2a2b 033e
00000100: 003d a0bc 4f28 bcbd eb47 eabc b385 9c3d
00000110: abc0 52bf db2e 523f 8333 14bd fa4c acbd
00000120: 8a2c 03be 632f b0be 30c0 64bd 6b99 783b
00000130: 39bd bf3d 98dd d7be 41b4 df3e 2517 67be
00000140: 60a7 d73d 42f9 7a3d 3f53 0a3e d6b8 4e3e
00000150: 0020 c83d 18a0 6fbe 89b2 a83e 3b99 023f
00000160: 95e8 44bd e87e 0cbd 35eb 113e 465f 403d
00000170: ab4e 8fbc 0ab3 82be f9f7 43be 5791 f53d
00000180: f5c3 ed3e d68b 1a3e ea9c 1ebd ba5c 03bd
00000190: 4964 cc3d 5939 3a3e f685 7dbd 9562 dabe
000001a0: b2a0 5ebe 5ade ddbd ad62 8e3d 2810 393d
000001b0: 8091 a8bd d427 13bd 0a12 85be 3529 0dbe
000001c0: e55b ebbd b06d 0bbe df1a 20be 7b39 f8bd
000001d0: ab2a 123e 7a2a e93d abd8 703d 9e9e 3e3f
000001e0: 9554 23bf b238 293e 4c98 71be 34ea bcbd
000001f0: 20da 5fbd 64f6 fcbe 7e8b 0abe 1e6e cabe
00000200: 9b51 073d a994 9a3e 280e 353d 2bee 9b3d
00000210: 0cb9 a43d d3ec 233e 07cd a03d e66e b73c
00000220: 4089 98bd a3a7 0a3f 7b67 113d 870e 523d
00000230: 45de 06bb 6b71 c43e 0c39 69bc ffe7 033e
00000240: 7cd8 573e 1218 173e 494b be3e 573c a33e
00000250: 70cc 873e 3f50 34bb 1da1 ec3d 7b59 38bc
00000260: 6a1c ecbd 88cf 13bd 1c02 7bbf abe8 bbbb
00000270: ebfa 3cbe d669 b9bc 4a95 fbbd e6cd c93d
00000280: 0d54 073d 4b45 603e 8000 36be a525 44be
00000290: 0a18 4abe aa03 ffbd caf4 4a3c 708b 56be
000002a0: fde6 edbd b275 abbd 5585 2dbe dfde 7ebf
000002b0: bcf7 afbe 8927 dabd 4678 2f3d 4906 6d3c
000002c0: 42ec 3abe ccf6 fcbc 3cbe 813e 8350 8cbe
000002d0: f2a6 fd3b f752 cfbe d856 b2bc be8b a13d
000002e0: 4948 53be c098 50bc 0e34 e4bc 8ad8 5b3c
000002f0: 92b0 293f f9eb f03e 3755 2dbe e6d3 ab3d
00000300: 4c07 97be 794d 163e 6903 173d 3b80 64be
00000310: ca6d 663e b102 9b3e 01e8 a3be 005d 5d3e
00000320: c20c a53d ae6b a83e ada5 6e3e fa4d b63d
00000330: 90c2 bfbd 6fea 51be 0daf 583d aff3 573e
00000340: 0a74 c53b ba01 59be 1837 9c3d b777 46bd
00000350: fe6f 4ebe d9b8 663e 3a9b 163e 6801 903e
00000360: 66fd 4c3e 9535 2dbd a576 8d3e 8916 f4bc
00000370: 9bf7 c3bd bb6f 8a3e df7f 5dbe e18a 24be
00000380: 3118 263d f748 31be 0bef 543d 3c58 0e3e
00000390: 2068 3c3c 2c19 343e d310 be3e 47dd e83d
000003a0: 7409 873e ead5 9b3e 4e21 923d 93f2 123e
000003b0: 0ee5 22bd 7eef 36bc e743 4cbe 963d 643f
000003c0: 9fd0 73be 42e8 443e e868 8c3d b96b ccbe
000003d0: f71f d6bd 5be7 4ebe cda7 de3b 00eb 90bd
000003e0: 6a86 9f3e 2c8b df3b 8f38 a03e 8464 52bc
000003f0: 3754 d7be ee9c 03bd f47f 05bd 4b56 f6bd

critic.preprocess.model.model.0.bias f4 [64]
-0.24140197 -0.250883 -0.66229033 0.70972687 -0.301756 -0.36814487 0.11062264 -0.0749861
-0.34661493 -0.2416616 -0.16013213 0.32065356 0.71096855 0.68308306 -0.30296546 -0.07296155
-0.6135267 0.82192117 -0.58717304 0.6661687 -0.1852609 -0.019591745 -0.851567 0.2623819
-0.1625379 -0.27193376 0.10991968 -0.86583126 -0.7457811 0.9574572 -0.7278571 0.82231236
-0.91247225 0.6476045 -0.6875963 -0.25773457 -0.6344121 -0.5871239 -0.84210604 0.5229688
0.6376965 0.021636609 -0.09294413 0.5874261 0.45918053 -0.28815326 -0.106348276 0.25729695
0.2949826 0.31638226 -0.30494913 -0.5821308 0.3184328 0.41051897 0.09148054 -0.4897948
-0.36933994 0.28764632 -0.53500473 -0.8269439 0.30585945 -0.2051853 -0.47355232 -0.0017861243
00000000: 1432 77be bd73 80be dc8b 29bf a9b0 353f
00000010: c37f 9abe 7c7d bcbe 1f8e e23d 5092 99bd
00000020: 8377 b1be 2376 77be adf9 23be b42c a43e
00000030: 0902 363f 88de 2e3f 4a1e 9bbe dd6c 95bd
00000040: 1610 1dbf 6d69 523f f950 16bf 088a 2a3f
00000050: 09b5 3dbe de7e a0bc 4b00 5abf ec56 863e
00000060: 5670 26be e73a 8bbe 921d e13d 1ea7 5dbf
00000070: 83eb 3ebf ea1b 753f d854 3abf 1083 523f
00000080: c897 69bf 69c9 253f 5006 30bf c9f5 83be
00000090: d568 22bf c04d 16bf 4394 57bf 49e1 053f
000000a0: 1440 233f 423f b13c 7e59 bebd 8f61 163f
000000b0: b619 eb3e d388 93be 20cd d9bd 6dbc 833e
000000c0: f607 973e dbfc a13e 4b22 9cbe 8606 15bf
000000d0: a009 a33e 8b2f d23e 265a bb3d 62c6 fabe
000000e0: 201a bdbe 6146 933e 12f6 08bf 98b2 53bf
000000f0: 9c99 9c3e 181c 52be 7375 f2be 631c eaba

critic.preprocess.model.model.2.weight f4 [64, 64]
0.40269938 0.058486808 -0.109374024 -0.46440166 -0.037222806 -0.14826421 0.26568425 0.092118554
-0.35945615 0.21344717 0.55638295 -0.07652891 0.14203568 -0.19691853 0.002392141 -0.2671386
0.27768186 -0.47890028 0.022339307 0.16781028 0.5134009 0.19300593 0.073665895 -0.036226496
0.025452308 0.11647795 -0.27409405 0.55417174 0.01152977 -0.31650183 0.08007003 0.04282413
0.29527503 0.1264542 0.024763253 0.13028571 -0.2746718 0.08145376 -0.20963056 0.25649533
0.05794485 -0.17980446 -0.11753058 0.0435117 -0.1149557 0.12421787 -0.26067072 0.0042117964
0.2645748 -0.11821823 0.38985905 0.037523586 0.59885556 -0.061162207 -0.14201885 0.3681106
-0.0689277 0.01992151 -0.20780419 -0.080291875 0.15174462 0.3455179 0.14643918 -0.15766458
-0.09110063 -0.12194843 -0.523865 -0.7756071 -0.15653409 0.40190807 0.21294989 -0.23052248
-0.22913371 0.4121114 0.25085324 -0.2641352 0.09877476 0.25346756 -0.2746734 -0.29751977
-0.64805555 0.03312728 0.16031446 -0.015689675 0.13603832 0.33816764 -0.15639809 -0.201554
0.025876326 -0.26568738 0.30814424 0.20404947 -0.24635215 0.2509804 -0.30180734 0.063657
-0.19722569 0.10801614 -0.3470273 -0.16737749 -0.03935444 -0.70900106 0.003707946 0.054832097
0.4368346 0.12877004 0.10537516 -0.20579514 0.055396743 -0.0008021618 0.5975647 0.27533427
0.2062883 0.12584038 0.41859168 -0.20810552 0.10230875 0.3283957 -0.16235092 -0.257271
-0.4071452 -0.12795956 0.044332344 0.07529651 0.3683778 -0.012800796 -0.10687868 0.09539257
-0.3552313 0.20881134 -0.15742192 0.17881303 -0.20866506 -0.04107936 -0.02723934 -0.21164277
0.086842366 -0.072617725 -0.037609223 -0.337141 -0.64278924 -0.29866582 -0.01052538 0.37062573
-0.010538084 -0.061793603 -0.06435936 0.23127332 -0.40765184 -0.007996336 0.19011754 0.32437408
-0.2413029 -0.041077804 0.13069358 0.13056888 0.16450658 0.16030572 -0.1440978 -0.07650215
-0.090364955 0.10835064 -0.0026023495 -0.04801568 0.096247315 -0.023939561 -0.108184986 -0.06446526
-0.11602174 0.016169624 0.17119743 0.09577011 -0.01048527 -0.05170883 0.08088104 0.13841729
0.23835592 -0.13831817 0.04465909 0.06423504 -0.15369608 0.16269153 0.07328822 -0.23681551
-0.26523685 0.01782994 0.4938918 -0.074387506 -0.0048541026 -0.18801564 0.24608333 0.39812952
0.13903019 0.3395392 -0.24209026 0.2712191 -0.3941299 0.06913394 0.039922796 0.05954281
0.22264601 -0.15595427 -0.4568002 -0.116402134 -0.101057254 0.16601573 -0.055996012 -0.09641795
0.04336749 -0.14139616 -0.37460893 0.04438904 -0.120060146 -0.3210814 0.041249115 -0.03622528
0.03739751 0.19151881 -0.075389005 -0.2807229 0.04370359 0.23808268 -0.2088712 0.014810714
-0.11694426 -0.07258123 0.23486339 0.119173765 -0.16104339 0.053913612 -0.030258643 0.002977939
0.14171988 0.12763157 0.058590215 -0.034045935 0.6623385 -0.50364244 0.28542224 -0.012078651
-0.18931456 -0.011116834 -0.1629772 -0.5299262 -0.32491902 0.0094291605 0.25098056 0.38522708
-0.5275422 -0.38264754 0.13323358 0.39460665 -0.04920522 -0.02223959 0.15701088 0.026961913
00000000: 9d2e ce3e dd8f 6f3d 7dff dfbd 0ec6 edbe
00000010: f176 18bd 93d2 17be c407 883e a7a8 bc3d
00000020: a30a b8be e591 5a3e 1d6f 0e3f 30bb 9cbd
00000030: cd71 113e 03a5 49be 77c5 1c3b 64c6 88be
00000040: 512c 8e3e 6b32 f5be ec00 b73c 75d6 2b3e
00000050: 3e6e 033f 59a3 453e 25de 963d 3c62 14bd
00000060: 5c81 d03c fe8b ee3d 0e56 8cbe 33de 0d3f
00000070: 5ce7 3c3c 870c a2be c2fb a33d 5b68 2f3d
00000080: 4a2e 973e 367d 013e 4edc ca3c 9e69 053e
00000090: c8a1 8cbe 3bd1 a63d 65a9 56be 5b53 833e
000000a0: 9457 6d3d a91e 38be dfb3 f0bd 5339 323d
000000b0: e56d ebbd f065 fe3d a276 85be 1c03 8a3b
000000c0: 5976 873e 661c f2bd 9b9b c73e 55b2 193d
000000d0: 994e 193f 3985 7abd 646d 11be fe78 bc3e
000000e0: f729 8dbd 6f32 a33c 9fca 54be 1170 a4bd
000000f0: f162 1b3e b9e7 b03e 27f4 153e d372 21be
00000100: f892 babd 19c0 f9bd 041c 06bf 308e 46bf
00000110: 794a 20be e5c6 cd3e 890f 5a3e 160e 6cbe
00000120: 07a2 6abe 4400 d33e d66f 803e bb3c 87be
00000130: 6c4a ca3d 80c6 813e fea1 8cbe 8354 98be
00000140: f8e6 25bf 79b0 073d 7929 243e a287 80bc
00000150: a14d 0b3e 4f24 ad3e d226 20be 2c64 4ebe
00000160: 97fa d33c 2d08 88be 15c5 9d3e 58f2 503e
00000170: bd43 7cbe 8180 803e 7e86 9abe 9a5e 823d
00000180: 88f5 49be 9137 dd3d 90ad b1be 0165 2bbe
00000190: 1f32 21bd 1881 35bf 0301 733b 9f97 603d
000001a0: c9a8 df3e 4bdc 033e efce d73d f6bb 52be
000001b0: b2e7 623d 2b48 52ba 00fa 183f 9df8 8c3e
000001c0: 3d3d 533e 4ddc 003e a651 d63e 9d19 55be
000001d0: 4087 d13d 7b23 a83e 523f 26be 06b9 83be
000001e0: 5675 d0be d507 03be d595 353d 0e35 9a3d
000001f0: 049c bc3e 6eba 51bc 36e3 dabd 2e5d c33d
00000200: e1e0 b5be a4d2 553e 3633 21be c31a 373e
00000210: 4bac 55be d542 28bd 0925 dfbc e2b8 58be
00000220: 69da b13d 9ab8 94bd 210c 1abd bf9d acbe
00000230: d68d 24bf baea 98be a572 2cbc a8c2 bd3e
00000240: eea7 2cbc 4a1b 7dbd d7ce 83bd ead2 6c3e
00000250: beb7 d0be 1003 03bc 2cae 423e 5c14 a63e
00000260: 1b18 77be 3341 28bd 8ad4 053e d9b3 053e
00000270: 6a74 283e 2f27 243e 608e 13be 29ad 9cbd
00000280: 4311 b9bd f1e6 dd3d 2e8c 2abb 17ac 44bd
00000290: 501d c53d e61c c4bc 1790 ddbd 5d06 84bd
000002a0: ce9c edbd 2976 843c 614e 2f3e 1f23 c43d
000002b0: 69ca 2bbc a3cc 53bd f5a4 a53d 43bd 0d3e
000002c0: 9313 743e 47a3 0dbe 73ec 363d a98d 833d
000002d0: 8162 1dbe 9c98 263e 2218 963d c47f 72be
000002e0: 20cd 87be 1810 923c 63df fc3e 7a58 98bd
000002f0: 2a0f 9fbb 2c87 40be 45fd 7b3e a2d7 cb3e
00000300: ee5d 0e3e 15d8 ad3e 82e6 77be 3bdd 8a3e
00000310: 65cb c9be 1896 8d3d 1686 233d 29e3 733d
00000320: 51fd 633e 7ab2 1fbe b7e1 e9be 3e64 eebd
00000330: 1bf7 cebd 0700 2a3e 135c 65bd c676 c5bd
00000340: 1ca2 313d 28ca 10be becc bfbe 48d1 353d
00000350: 18e2 f5bd c864 a4be d5f4 283d f660 14bd
00000360: 222e 193d 821d 443e 8d65 9abd e9ba 8fbe
00000370: 8902 333d f2cb 733e 55e2 55be a3a8 723c
00000380: 7980 efbd 78a5 94bd 0780 703e 6011 f43d
00000390: 8fe8 24be 85d4 5c3d f9e0 f7bc 8729 433b
000003a0: 041f 113e dab1 023e 4bfc 6f3d c073 0bbd
000003b0: 048f 293f b6ee 00bf dd22 923e 89e5 45bc
000003c0: addb 41be 6223 36bc 7fe3 26be 3ea9 07bf
000003d0: c95b a6be c47c 1a3c 8680 803e 7c3c c53e
000003e0: 010d 07bf 61ea c3be 626e 083e e209 ca3e
000003f0: 6a8b 49bd cd2f b6bc 76c7 203e 3bdf dc3c

critic.preprocess.model.model.2.bias f4 [64]
-0.13126034 0.2544253 0.1759623 0.11711146 -0.2251841 0.42639175 -0.015072943 0.09448992
-0.19658424 0.38615006 0.193742 0.42501855 0.00721413 0.053604413 -0.39349064 0.047327172
0.027529174 -0.18680294 -0.22762282 0.1427136 -0.13013427 0.33414003 -0.20612592 -0.24495764
-0.008064138 0.025309348 -0.01625394 0.39299425 0.16580178 0.099185735 -0.19864637 -0.037089836
-0.02968856 -0.06690192 0.1153458 0.11570198 -0.060825042 -0.038729955 -0.048690982 -0.29213884
0.20924121 0.41208822 -0.37316838 -0.020625634 -0.44207475 -0.24359125 -0.31545436 0.07165496
0.0074581513 0.6743407 0.25261202 0.36904952 -0.115198635 0.13613439 -0.28787646 0.050943606
0.16258347 -0.0392396 -0.3495689 0.042812597 0.06725896 -0.15285619 0.12515746 0.12629937
00000000: 1c69 06be 0844 823e 762f 343e 22d8 ef3d
00000010: a996 66be 0550 da3e 81f4 76bc ee83 c13d
00000020: 614d 49be 76b5 c53e 4e64 463e 089c d93e
00000030: 8264 ec3b 4d90 5b3d 9b77 c9be 23da 413d
00000040: dd84 e13c 4549 3fbe f515 69be 8423 123e
00000050: eb41 05be 6714 ab3e ac12 53be 2dd6 7abe
00000060: 721f 04bc 8d55 cf3c fc26 85bc 8b36 c93e
00000070: f1c7 293e e421 cb3d f469 4bbe 83eb 17bd
00000080: 6c35 f3bc e003 89bd 6b3a ec3d 29f5 ec3d
00000090: ae23 79bd 4da3 1ebd 3270 47bd 3993 95be
000000a0: 5443 563e 3afd d23e ed0f bfbe 17f7 a8bc
000000b0: 9f57 e2be fc6f 79be 3c83 a1be d6bf 923d
000000c0: 8263 f43b 98a1 2c3f 5d56 813e 0ff4 bc3e
000000d0: 43ed ebbd d066 0b3e 8b64 93be 3eaa 503d
000000e0: 487c 263e b4b9 20bd b2fa b2be 435c 2f3d
000000f0: 11bf 893d 5586 1cbe 4729 003e 9f54 013e

critic.last.model.0.weight f4 [1, 64]
0.124431886 0.09938525 0.07055481 -0.066018865 -0.27237707 0.27087352 -0.21167636 -0.28677803
-0.03780847 0.11619817 0.13880906 0.2503129 -0.049423356 0.027241554 -0.17770696 -0.07761997
0.20101765 -0.26126096 -0.09701477 -0.058861945 0.007914007 0.1780169 -0.13173494 -0.10805855
0.09338215 -0.024651067 -0.108224094 0.21468374 0.12682055 0.06662217 -0.43606946 -0.05536229
0.110692464 0.013812268 0.09407988 -0.013310825 0.2230978 -0.29053843 -0.17004953 -0.12929767
0.112887 0.27318764 -0.16148838 -0.2904348 -0.09138147 -0.14290585 -0.20291652 0.061054096
-0.051860917 0.15011871 0.054166906 0.22099946 -0.28976038 0.09093061 -0.2609401 -0.1107253
0.06203635 -0.08496168 -0.3455915 0.05609147 0.023893561 -0.18695635 0.058521062 0.11850768
00000000: 25d6 fe3d 7e8a cb3d 0a7f 903d e634 87bd
00000010: 0275 8bbe efaf 8a3e b0c1 58be 92d4 92be
00000020: 0edd 1abd 4ef9 ed3d f623 0e3e 0329 803e
00000030: 2570 4abd ae29 df3c d0f8 35be 38f7 9ebd
00000040: 92d7 4d3e ffc3 85be aeaf c6bd 3919 71bd
00000050: c0a9 013c 104a 363e 86e5 06be cd4d ddbd
00000060: 243f bf3d 09f1 c9bc 98a4 ddbd 0ed6 5b3e
00000070: 3fdd 013e 3471 883d 7f44 dfbe 92c3 62bd
00000080: bbb2 e23d da4c 623c f4ac c03d a615 5abc
00000090: c073 643e 74c1 94be 7721 2ebe 9c66 04be
000000a0: 4d31 e73d 40df 8b3e 365d 25be dfb3 94be
000000b0: 3526 bbbd e955 12be 59c9 4fbe dc13 7a3d
000000c0: 1d6c 54bd b8b8 193e 1ede 5d3d af4d 623e
000000d0: 795b 94be d439 ba3d f199 85be f2c3 e2bd
000000e0: d419 7e3d 6400 aebd 5ef1 b0be 2bc0 653d
000000f0: 6ebc c33c 7c71 3fbe c8b3 6f3d 28b4 f23d

_actor_critic.actor.sigma_param f4 [6, 1]
-2.7657025 -3.2078404 -2.5837388 -3.2407074 -2.7480638 -2.4633453
00000000: 4501 31c0 424d 4dc0 fa5b 25c0 c067 4fc0
00000010: 47e0 2fc0 73a7 1dc0

_actor_critic.actor.preprocess.model.model.0.weight f4 [64, 17]
0.15049373 -0.020860132 0.008120235 0.2849726 -0.43336552 -0.006937987 0.18161036 -0.3796323
-0.057668693 0.12112166 -0.01433956 0.12658656 -0.09455884 0.36538872 -0.121007055 0.22138144
0.24336743 0.79477507 -0.2158218 0.014342854 0.23186637 -0.08745315 -0.06315369 0.2822052
0.14158195 0.14768869 0.07489936 0.21387804 0.09699642 -0.22859582 0.14736357 0.3784938
0.2590121 -0.27338454 -1.0662197 -0.877876 -0.08906096 0.013005198 -0.17617433 0.0027685773
-0.037475426 -0.004141565 -0.19633329 -0.05658424 -0.2036532 -0.14704543 -0.08146309 0.08612231
0.21385472 0.09450411 -0.146899 0.3408781 0.9131963 -0.103068665 -0.055667497 -0.21659222
0.19098724 0.15088071 0.23360345 -0.1912113 -0.07113924 -0.23398481 0.40901783 -0.1200514
0.08454408 -0.12377718 -0.20105338 0.1092028 0.22526212 -0.7154875 0.1403008 -0.1807471
-0.08849333 -0.07023489 0.12130554 -0.23650444 -0.030419718 0.40692285 -0.02647662 0.15041085
-0.26068538 -0.115836285 0.23891091 -0.14575307 0.11104397 -0.5440138 0.7014359 0.0012432365
-0.08864645 0.31936198 -0.19089392 -0.08260767 0.11242728 0.01557751 -0.009224833 0.13683145
0.14299151 0.07552262 0.26843995 -0.47593418 0.20564725 0.44630483 0.42806128 -0.560915
-0.55033165 0.19091824 -0.3116586 0.0040835505 -0.030723933 -0.07538666 -0.04334706 -0.10209009
0.31190646 0.089520246 0.22052301 -0.23180799 0.20074289 0.08744271 0.044734336 -0.19819194
-0.33295733 -0.2942754 -0.0020553558 0.051110417 -0.33077562 0.2902976 -0.16325122 -0.092536144
0.54309577 0.40300345 -0.684525 0.0687097 -0.5962194 -0.4710341 -0.1227896 0.18019168
-0.22325963 0.31099248 0.41201788 0.086571716 -0.19333953 0.26217893 0.15409926 0.15394332
-0.15126061 -0.46184662 0.0357565 0.31520388 0.18081337 -0.21900998 0.24002859 0.22715576
-0.115108356 0.08738109 0.10152698 -0.049900375 -0.1260903 -0.24018268 0.015855262 -0.38584158
0.19475393 0.09469579 0.8204916 0.5742187 -0.32121933 0.33361778 0.009847642 0.1199562
0.058414053 0.18269312 -0.5249703 -0.34444597 0.13881981 0.09052243 0.093134336 0.090581544
-0.5015052 0.04555916 -0.2410063 -0.10316721 0.1525157 -0.11474966 0.17135026 -0.03592282
-0.09372747 0.039880063 -0.44549903 -0.35779667 -0.08482658 -0.03520419 -0.07894429 0.22176392
0.26406872 0.097081214 -0.27325293 0.052545786 0.639327 0.035936095 0.30208233 0.2295481
0.17485262 0.46989372 0.030802997 0.3405524 0.15168674 -0.25186142 0.23131698 -0.4145077
0.052645594 -0.24563983 0.18775442 -0.06761302 0.054905083 0.2517756 -0.026958777 0.18822847
-0.03981949 0.03770246 -0.24260378 -0.30710515 -0.21501964 -0.35337776 0.14398666 -0.47556046
0.30551705 0.17482196 -0.1906361 0.06506291 0.11495579 0.35153604 0.08836867 0.17624365
-0.23802581 -0.09010624 0.241271 0.20768063 -0.42529377 -0.017559553 -0.13871345 -1.4167254
-0.06369431 0.08905264 0.10410229 0.16585176 0.13315336 0.021621203 -0.11025353 -0.15024951
-0.06412663 0.07761561 -0.0437579 -0.033292085 0.12535362 -0.06820985 0.036550686 0.17009696
00000000: 071b 1a3e dee2 aabc bc0a 053c eee7 913e
00000010: 16e2 ddbe 0e58 e3bb 11f8 393e 2a5f c2be
00000020: 0236 6cbd a20e f83d 79f0 6abc e89f 013e
00000030: 11a8 c1bd 3b14 bb3e 8cd2 f7bd d1b1 623e
00000040: 5035 793e 6176 4b3f 6400 5dbe 4afe 6a3c
00000050: 616e 6d3e a31a b3bd b956 81bd 337d 903e
00000060: dcfa 103e b43b 173e d664 993d d802 5b3e
00000070: 0fa6 c63d 0615 6abe 7ae6 163e f0c9 c13e
00000080: 3c9d 843e 0ff9 8bbe e379 88bf 7bbc 60bf
00000090: 9865 b6bd c113 553c 0b67 34be 0571 353b
000000a0: d57f 19bd f7b5 87bb 980b 49be e0c4 67bd
000000b0: 778a 50be 1493 16be 1fd6 a6bd e560 b03d
000000c0: bbfc 5a3e 5f8b c13d b16c 16be 9387 ae3e
000000d0: 3cc7 693f aa15 d3bd 9a03 64bd 5aca 5dbe
000000e0: 2992 433e 7980 1a3e be35 6f3e e5cc 43be
000000f0: 73b1 91bd b799 6fbe c96a d13e 82dd f5bd
00000100: 7225 ad3d e47e fdbd f0e0 4dbe b8a5 df3d
00000110: 1dab 663e 302a 37bf 03ab 0f3e c515 39be
00000120: fe3b b5bd 4fd7 8fbd 0a6f f83d 382e 72be
00000130: c632 f9bc 3158 d03e 7fe5 d8bc 4d05 1a3e
00000140: 8e78 85be 933b edbd 10a5 743e 4b40 15be
00000150: 056b e33d 7d44 0bbf 4e91 333f 18f4 a23a
00000160: 458c b5bd 6a83 a33e b279 43be 362e a9bd
00000170: 4640 e63d d038 7f3c c123 17bc 8b1d 0c3e
00000180: 5e6c 123e 9aab 9a3d f670 893e a5ad f3be
00000190: 3195 523e 1182 e43e d92a db3e 2098 0fbf
000001a0: 89e2 0cbf 1280 433e b791 9fbe 4ecf 853b
000001b0: c2b0 fbbc 5264 9abd b08c 31bd 9c14 d1bd
000001c0: 34b2 9f3e 6456 b73d c9d0 613e 135f 6dbe
000001d0: 8b8f 4d3e 2a15 b33d 5a3b 373d d4f2 4abe
000001e0: 6279 aabe 44ab 96be 26b3 06bb 2859 513d
000001f0: 6c5b a9be e3a1 943e 542b 27be 9783 bdbd
00000200: 5308 0b3f 7856 ce3e 083d 2fbf acb7 8c3d
00000210: d6a1 18bf 622b f1be 1d79 fbbd 2b84 383e
00000220: 2c9e 64be 683a 9f3e 02f4 d23e 834c b13d
00000230: ccfa 45be 513c 863e 32cc 1d3e 51a3 1d3e
00000240: 10e4 1abe 2977 ecbe 6875 123d 6762 a13e
00000250: 2427 393e 2744 60be 0eca 753e 859b 683e
00000260: eebd ebbd dbf4 b23d 61ed cf3d 5664 4cbd
00000270: d11d 01be 73f2 75be e5e2 813c 078d c5be
00000280: 936d 473e deef c13d bd0b 523f ffff 123f
00000290: dc76 a4be f3cf aa3e 0158 213c 99ab f53d
000002a0: 9343 6f3d e813 3b3e 7464 06bf 395b b0be
000002b0: c826 0e3e d363 b93d 37bd be3d d182 b93d
000002c0: a562 00bf 3e9c 3a3d 5bca 76be 5549 d3bd
000002d0: 132d 1c3e df01 ebbd 7176 2f3e cf23 13bd
000002e0: 30f4 bfbd 4759 233d 7318 e4be 2031 b7be
000002f0: 8fb9 adbd 4532 10bd 8bad a1bd 1516 633e
00000300: 0434 873e 84d2 c63d cfe7 8bbe 403a 573d
00000310: efaa 233f ba31 133d 89aa 9a3e a80e 6b3e
00000320: 910c 333e e995 f03e 9156 fc3c e25c ae3e
00000330: c553 1b3e fbf3 80be 5cde 6c3e 5a3a d4be
00000340: e8a2 573d 0289 7bbe b242 403e b278 8abd
00000350: 27e4 603d bbe8 803e a7d8 dcbc f7be 403e
00000360: c319 23bd e56d 1a3d 206d 78be e33c 9dbe
00000370: 1c2e 5cbe eeed b4be 3d71 133e a97c f3be
00000380: bb6c 9c3e 8704 333e 1c36 43be b43f 853d
00000390: f16d eb3d 88fc b33e a2fa b43d 3779 343e
000003a0: 0abd 73be 9f89 b8bd bf0f 773e 3baa 543e
000003b0: 1bc0 d9be 0dd9 8fbc e60a 0ebe 4257 b5bf
000003c0: 2a72 82bd 3b61 b63d 9533 d53d 0bd5 293e
000003d0: 5b59 083e f31e b13c 9acc e1bd 02db 19be
000003e0: d354 83bd eff4 9e3d 7c3b 33bd 485d 08bd
000003f0: b35c 003e 9bb1 8bbd 2cb6 153d e62d 2e3e

_actor_critic.actor.preprocess.model.model.0.bias f4 [64]
-0.062250122 0.25487012 -0.3241312 -0.34601822 0.3205192 -0.20944063 0.14178854 -0.24581765
0.093346916 -0.20521635 -0.14473385 0.16466144 -0.061913423 0.29501787 -0.23259866 0.01403611
0.20687212 0.10939509 0.17434633 -0.31410027 0.21798971 0.0939009 -0.025829403 -0.17603639
0.17677402 0.16524988 0.26350662 0.16395283 0.1365086 0.19177836 0.024814563 -0.19076432
-0.29389215 -0.28242183 -0.13135199 -0.17164972 0.060994204 0.0016415669 -0.10162018 -0.15437566
0.09728792 -0.051491555 0.30121833 0.106778644 0.15806407 0.052060913 -0.22341543 -0.21185097
-0.1559077 0.12302687 -0.0022633485 -0.12597638 0.023924293 -0.37090087 0.15597792 -0.19233783
0.051695317 -0.17199652 0.2877125 -0.13625656 0.19730759 -0.03893227 0.2763803 0.050863966
00000000: fcf9 7ebd 567e 823e 86f4 a5be 4d29 b1be
00000010: 181b a43e 9b77 56be 0431 113e 9fb7 7bbe
00000020: ab2c bf3d 3c24 52be 1c35 14be 029d 283e
00000030: ee98 7dbd 950c 973e 582e 6ebe b6f7 653c
00000040: 49d6 533e 880a e03d d887 323e c0d1 a0be
00000050: b238 5f3e 1d4f c03d 2f98 d3bc e242 34be
00000060: 4004 353e 4437 293e 57ea 863e 40e3 273e
00000070: e9c8 0b3e 8c61 443e e947 cb3c b957 43be
00000080: 0879 96be 9899 90be 2381 06be f2c4 2fbe
00000090: 0fd5 793d d829 d73a 3e1e d0bd a714 1ebe
000000a0: e43e c73d cfe8 52bd 4a39 9a3e c3ae da3d
000000b0: 8cdb 213e d33d 553d 04c7 64be 76ef 58be
000000c0: 45a6 1fbe 83f5 fb3d b054 14bb f4ff 00be
000000d0: e1fc c33c b8e6 bdbe adb8 1f3e 35f4 44be
000000e0: 78be 533d db1f 30be 0e4f 933e d786 0bbe
000000f0: 000b 4a3e 7277 1fbd b881 8d3e bc56 503d
