results/HalfCheetah-v3/trpo/3/220709-064426/policy.pth (torch, 53732 bytes, 24 tensors)

actor.sigma_param f4 [6, 1]
-1.8637688 -2.077079 -1.4341887 -2.5268106 -2.4291553 -2.0679884
00000000: fa8f eebf ddee 04c0 7f93 b7bf 44b7 21c0
00000010: 4877 1bc0 ec59 04c0

actor.preprocess.model.model.0.weight f4 [64, 17]
0.091148295 -0.26388836 -0.07751616 0.08972221 -0.0023351677 -0.08233104 -0.11166705 -0.27732533
-0.32786635 0.046062555 -0.22138542 0.20883502 -0.061093096 -0.10564735 -0.09516543 -0.06512569
-0.12648647 0.2382761 -0.36442617 0.19179198 0.31764814 0.04109715 -0.2078139 0.15901424
-0.13848613 0.28211972 -0.10210636 -0.20137396 0.15990476 -0.12767957 0.04847397 0.05106432
0.0018125712 -0.01585139 0.3416701 0.47376272 -0.050432473 -0.25920925 -0.13585465 0.11529898
-0.21640438 0.15358487 0.006018034 -0.00823416 -0.24973053 0.17213224 0.28640828 -0.08277039
0.10927112 0.13311578 0.05917642 0.016014785 0.22933352 -0.0675858 -0.121104114 -0.20627195
-0.024388628 -0.20866412 -0.23392381 0.16020328 -0.16042839 -0.039341506 0.07329308 -0.20165013
0.06482166 0.10080114 0.11583235 -0.13442889 0.014851144 -0.17940266 -0.22894698 0.2596083
0.034211293 -0.2840807 0.084090814 0.01063723 0.1520487 0.104049645 -0.33123824 0.19591662
-0.2178014 -0.13709399 -0.002040666 0.23879024 0.23377544 0.33775747 -0.02182165 -0.21378629
-0.39378253 0.067520835 -0.47892657 -0.24738753 -0.10277405 -0.11497627 0.438529 0.019919654
0.29510632 -0.1705348 -0.03452519 0.2381475 -0.21048978 -0.05943849 -0.3886811 0.25832695
-0.15750274 0.11061162 -0.10004696 -0.017885447 0.15968718 0.05282212 0.391275 -0.0069129704
0.18497498 -0.07569213 0.055909075 0.12065091 -0.2801266 0.2629637 -0.17499945 -0.14572288
-0.150184 0.106298506 0.37213784 0.023008756 -0.052025978 0.07507104 0.2313262 0.05297497
-0.05858404 -0.14621216 0.20219351 -0.26004562 -0.034930762 0.2118237 0.0910007 0.0934344
-0.13069105 0.3582016 0.03018127 0.0268581 0.30801952 0.029471261 -0.09540051 -0.09753735
-0.057024322 -0.018406203 0.025588665 0.18306786 -0.20752911 -0.18265612 -0.32505018 -0.014666975
-0.020425238 -0.43991417 -0.08164108 -0.27418512 -0.21291901 -0.12027354 0.061721563 -0.0683275
-0.1018125 0.04549841 -0.30788913 -0.23842654 -0.22179562 -0.03205151 -0.098788984 -0.028844234
-0.08163871 0.35290372 -0.027458241 0.027681498 0.41988844 -0.38416475 0.44518244 -0.013131926
0.033594895 -0.26485118 0.008104762 -0.13931583 0.07820316 0.26268908 -0.10699365 0.21228674
0.21886459 -0.06718144 -0.26471895 0.1438393 -0.1386439 -0.08021369 -0.15376244 0.24081062
0.059191518 -0.116236776 -0.07264795 -0.13503145 0.069132276 0.038643934 -0.23035592 0.4426013
-0.11062783 0.2455988 -0.08484273 -0.040524267 0.23061457 -0.26930988 0.027626593 0.053491585
0.01604121 0.54735357 -0.15762015 -0.22989976 0.16778348 0.21032517 -0.4566137 0.117486775
-0.007412436 -0.01827771 -0.25103307 -0.39275664 -0.15098885 0.12245244 -0.19549406 0.12168253
0.2053211 0.02113279 -0.05380924 -0.1323197 -0.15231872 -0.34904966 -0.11065827 -0.0441673
-0.33855295 0.16626608 -0.056997094 -0.028568925 -0.4283446 0.013823187 -0.2953655 -0.4738279
0.01872047 -0.16036439 0.02254003 -0.17627355 -0.014676761 0.14953646 -0.37758854 -0.15458773
-0.069502406 -0.51028156 -0.08313263 -0.06855771 0.011670735 0.01778363 0.2294588 -0.0860071
00000000: f5ab ba3d 601c 87be cbc0 9ebd 47c0 b73d
00000010: 9d09 19bb 2d9d a8bd b2b1 e4bd 96fd 8dbe
00000020: 19de a7be 17ac 3c3d dcb2 62be d9d8 553e
00000030: c13c 7abd a35d d8bd 18e6 c2bd 9e60 85bd
00000040: ab85 01be a6fe 733e 1196 babe 1e65 443e
00000050: c7a2 a23e 7c55 283d 2bcd 54be a1d4 223e
00000060: 4fcf 0dbe ff71 903e 241d d1bd fa34 4ebe
00000070: 13be 233e 6fbe 02be a48c 463d d228 513d
00000080: cc93 ed3a c6da 81bc 62ef ae3e 0791 f23e
00000090: 4892 4ebd 13b7 84be 7b1d 0bbe df21 ec3d
000000a0: 1c99 5dbe 5a45 1d3e ee32 c53b 92e8 06bc
000000b0: 5cb9 7fbe 6f43 303e 1ba4 923e 8683 a9bd
000000c0: 89c9 df3d 814f 083e f962 723d 7031 833c
000000d0: 68d6 6a3e 6d6a 8abd 6f05 f8bd f438 53be
000000e0: a9ca c7bc 0cac 55be b989 6fbe 540c 243e
000000f0: 5747 24be 8f24 21bd af1a 963d 5f7d 4ebe
00000100: 38c1 843d d470 ce3d 8339 ed3d baa7 09be
00000110: 3652 733c 55b5 37be 1471 6abe 61eb 843e
00000120: 2421 0c3d 0773 91be ce37 ac3d c747 2e3c
00000130: a8b2 1b3e fb17 d53d 0f98 a9be 5e9e 483e
00000140: 5507 5fbe 5e62 0cbe b2bc 05bb 6e85 743e
00000150: d462 6f3e 8cee ac3e 51c3 b2bc cbea 5abe
00000160: dd9d c9be 5d48 8a3d dd35 f5be 2853 7dbe
00000170: 337b d2bd ae78 ebbd e086 e03e 8b2e a33c
00000180: 2d18 973e ada0 2ebe 496a 0dbd f0dc 733e
00000190: a28a 57be c675 73bd 3601 c7be 6e43 843e
000001a0: 6648 21be 5888 e23d 6ce5 ccbd 8084 92bc
000001b0: 0985 233e 025c 583d 3255 c83e 3386 e2bb
000001c0: 156a 3d3e 7a04 9bbd ea00 653d d317 f73d
000001d0: c16c 8fbe 2ea3 863e 0e33 33be 6138 15be
000001e0: d6c9 19be 08b3 d93d da88 be3e dc7c bc3c
000001f0: 3119 55bd d8be 993d c6e0 6c3e 48fc 583d
00000200: d1f5 6fbd a4b8 15be d10b 4f3e b324 85be
00000210: 8f13 0fbd 50e8 583e 935e ba3d 895a bf3d
00000220: e0d3 05be 3366 b73e b63e f73c 8505 dc3c
00000230: bcb4 9d3e b76d f13c 5861 c3bd aac1 c7bd
00000240: 5692 69bd 9bc8 96bc 529f d13c 2476 3b3e
00000250: 8382 54be 350a 3bbe fa6c a6be c04d 70bc
00000260: d452 a7bc 6e3c e1be 7033 a7bd fe61 8cbe
00000270: 7107 5abe f951 f6bd c0cf 7c3d 4aef 8bbd
00000280: 1283 d0bd 8a5c 3a3d a5a3 9dbe 1626 74be
00000290: 641e 63be 7248 03bd e151 cabd be4a ecbc
000002a0: 3232 a7bd ccaf b43e 1bf0 e0bc 4fc4 e23c
000002b0: 9efb d63e 3eb1 c4be f4ee e33e 4a27 57bc
000002c0: cd9a 093d 939a 87be d6c9 043c cfa8 0ebe
000002d0: fa28 a03d 2f7f 863e 7d1f dbbd b261 593e
000002e0: 0a1e 603e 6c96 89bd 3e89 87be 9c4a 133e
000002f0: abf8 0dbe 1347 a4bd e773 1dbe 0f97 763e
00000300: ce72 723d 8c0d eebd 73c8 94bd af45 0abe
00000310: 3995 8d3d 1a49 1e3d 6ce2 6bbe a39c e23e
00000320: d890 e2bd 407e 7b3e 06c2 adbd c6fc 25bd
00000330: 3a26 6c3e fce2 89be 2a51 e23c fe19 5b3d
00000340: db68 833c 5d1f 0c3f 2d67 21be d86a 6bbe
00000350: 6fcf 2b3e 7b5f 573e 45c9 e9be e89c f03d
00000360: 05e4 f2bb 23bb 95bc 6887 80be 6617 c9be
00000370: d29c 1abe 58c8 fa3d 982f 48be b134 f93d
00000380: b23f 523e ac1e ad3c 1467 5cbd d17e 07be
00000390: 70f9 1bbe a3b6 b2be cea0 e2bd c5e8 34bd
000003a0: d056 adbe a841 2a3e c975 69bd 6109 eabc
000003b0: fc4f dbbe a67a 623c 263a 97be 9299 f2be
000003c0: ac5b 993c 9036 24be dea5 b83c 0e81 34be
000003d0: cc76 70bc 1620 193e 4953 c1be 3f4c 1ebe
000003e0: 4757 8ebd d0a1 02bf 7141 aabd fc67 8cbd
000003f0: 9c36 3f3c faae 913c 3ff7 6a3e 7e24 b0bd

actor.preprocess.model.model.0.bias f4 [64]
-0.18617545 0.110970065 -0.10680302 -0.15035078 0.18711264 -0.050403837 0.08477653 -0.13243191
-0.20041832 -0.26128283 -0.09863588 0.07267384 -0.04716868 -0.046647448 -0.24821872 0.0018230253
0.09448943 0.0708193 0.020151058 -0.06316765 -0.12497754 0.08638134 -0.0074602757 -0.12842505
-0.085073344 0.29034397 0.17263617 -0.009182127 -0.11530379 -0.08908356 -0.062597536 -0.08746994
0.07080564 -0.13609809 0.28788725 0.117890984 -0.14186367 -0.32321045 -0.092874944 -0.18428987
-0.1508892 -0.16469352 -0.045440204 -0.13095696 0.18640445 0.0072254557 0.17289777 -0.0073922626
-0.2635617 0.0005146465 0.05656054 0.07091169 -0.0183989 0.0020638132 -0.015453741 -0.029739287
-0.28683692 -0.007514369 0.2579244 0.106420584 0.16314209 0.08944788 0.08007719 -0.048808724
00000000: c7a4 3ebe 4644 e33d 8bbb dabd 8ef5 19be
00000010: 759a 3f3e 4174 4ebd 519f ad3d 3b9c 07be
00000020: 763a 4dbe ddc6 85be 9c01 cabd 06d6 943d
00000030: f233 41bd 6511 3fbd 0c2d 7ebe 94f2 ee3a
00000040: ad83 c13d b609 913d d513 a53c 0a5e 81bd
00000050: 39f4 ffbd b3e8 b03d 5475 f4bb db81 03be
00000060: ef3a aebd f7a7 943e 89c7 303e a270 16bc
00000070: 6524 ecbd 7171 b6bd 2333 80bd 7123 b3bd
00000080: 8c02 913d 4c5d 0bbe f565 933e d470 f13d
00000090: b644 11be d77b a5be 3835 bebd 7cb6 3cbe
000000a0: b382 1abe 6ba5 28be 821f 3abd 9519 06be
000000b0: cfe0 3e3e 84c3 ec3b 1d0c 313e cb3a f2bb
000000c0: 8ff1 86be 58e9 063a 06ac 673d 263a 913d
000000d0: 4ab9 96bc 0a41 073b b031 7dbc ce9f f3bc
000000e0: 4adc 92be 193b f6bb ab0e 843e 09f3 d93d
000000f0: b80e 273e 7330 b73d 83ff a33d a8eb 47bd

actor.preprocess.model.model.2.weight f4 [64, 64]
-0.113471925 -0.0018466389 -0.087162405 0.13610336 -0.034667432 -0.23622625 -0.19647951 0.109401226
0.16515036 -0.389507 0.48419195 0.09597071 0.113952644 0.21257375 -0.07178229 0.07817828
-0.27915502 -0.058155812 -0.13488658 -0.056139987 -0.2807662 -0.1608758 0.19966021 -0.2585304
-0.2664891 -0.024937851 0.105391085 -0.37129214 -0.04934574 -0.2974406 0.029867733 -0.055253707
0.04107765 -0.09714131 0.06842441 0.14493372 -0.19435255 0.00051169796 0.079461604 0.21815449
-0.005612856 -0.06311481 -0.13279015 -0.064226724 0.012150655 0.013164059 0.040488586 -0.05240064
-0.12400593 0.20280728 -0.32048774 -0.1822216 -0.17804226 -0.072293445 0.22004838 0.32376328
-0.04499904 -0.56221735 0.10716017 -0.02985902 0.048906606 -0.18101048 0.09472551 0.16124842
0.030200383 -0.07788627 -0.13771307 -0.17562826 0.049664617 0.12417325 -0.24686496 -0.2332383
-0.025783353 0.16510957 -0.13015768 0.2564702 -0.12726226 -0.080592245 -0.405644 0.20977558
0.047131013 -0.0010182669 0.09692511 0.037213363 -0.20228809 -0.09455497 -0.052626725 0.11538595
-0.18580647 0.08436303 0.24604477 0.12278603 0.081846505 0.040228367 -0.1314384 -0.15773217
-0.02301407 0.4435814 -0.04750463 -0.1491374 0.18120721 0.053013735 0.06194129 -0.06532788
-0.14456397 -0.239464 0.21355246 -0.26496208 -0.40342236 0.1949836 0.28094754 0.015329054
0.15109438 0.19184753 -0.2367297 -0.20931605 -0.087940626 -0.37742156 -0.09625667 -0.0507633
-0.13532849 -0.14923544 -0.18477152 -0.058123633 0.21378084 -0.25375956 0.117464334 -0.009881474
-0.007300427 -0.10447811 0.06230272 0.11011268 0.39677384 0.13790815 -0.08771662 0.11316831
-0.1056145 -0.13162206 0.017294163 0.09336832 0.34231183 0.18589474 -0.043257836 -0.086143345
-0.072525695 -0.2459146 0.05289481 0.044399496 0.025117487 0.15263924 0.119153455 -0.12349189
-0.15838954 0.010418604 -0.07459805 0.042639807 0.26860374 0.09394359 -0.16882819 0.010153026
-0.091665186 -0.07104106 -0.21216209 -0.1272358 -0.28121442 0.06463821 -0.23978794 -0.24390078
-0.073600166 -0.2997405 0.0032036123 -0.3187042 0.09878921 -0.05032191 -0.01202605 0.07488896
0.07170999 0.5503697 0.3480334 0.18130879 0.23612711 0.08479471 -0.09008033 0.20650266
-0.14863965 -0.04542055 0.25756928 -0.014589661 0.16234379 -0.0109860115 0.37778342 -0.12297557
0.052614927 0.100993834 -0.13558406 -0.19022174 0.26347956 -0.11884418 0.0075655244 -0.33019525
0.18059286 -0.060575716 0.2619448 0.24642397 -0.26139447 0.052044135 0.071072824 -0.14926103
0.034165733 -0.22267297 -0.0070573525 0.05284558 -0.00308263 -0.12848383 0.22813283 -0.21416107
0.4468399 0.47424784 -0.25414798 0.1868198 -0.28723985 -0.041433334 -0.04175376 0.21801111
-0.09072709 0.07033546 0.15848134 -0.032331336 -0.06384411 -0.21966527 0.14937072 0.1372971
0.17267297 0.2653631 0.44275615 -0.106145084 -0.07417022 0.41030952 -0.01661584 0.3502846
-0.083930954 0.029583298 -0.16780213 0.027433502 0.23456429 0.1269431 -0.08312944 -0.08978674
-0.004470211 0.10064485 -0.012845174 0.2578671 -0.14470993 0.073294744 0.10571039 -0.21151885
00000000: f863 e8bd eb0a f2ba 3482 b2bd ae5e 0b3e
00000010: 70ff 0dbd 4be5 71be ed31 49be c00d e03d
00000020: 2d1d 293e 766d c7be 02e8 f73e 4b8c c43d
00000030: 0160 e93d efac 593e 9802 93bd ef1b a03d
00000040: 68ed 8ebe ca34 6ebd b51f 0abe 0bf3 65bd
00000050: 96c0 8fbe a0bc 24be ba73 4c3e 195e 84be
00000060: 4271 88be 774a ccbc 48d7 d73d 011a bebe
00000070: c21e 4abd 224a 98be 2dad f43c b651 62bd
00000080: 0a41 283d 06f2 c6bd 1922 8c3d 8169 143e
00000090: 5b04 47be 7823 063a c4bc a23d e463 5f3e
000000a0: 0cec b7bb 5642 81bd 24fa 07be 4d89 83bd
000000b0: 8a13 473c 11ae 573c 5cd7 253d 0ea2 56bd
000000c0: d2f6 fdbd b6ac 4f3e f816 a4be 4d98 3abe
000000d0: b650 36be 960e 94bd 5d54 613e 4dc4 a53e
000000e0: ea50 38bd 7aed 0fbf cb76 db3d e79a f4bc
000000f0: 4b52 483d d05a 39be 73ff c13d 4e1e 253e
00000100: cb66 f73c d682 9fbd a804 0dbe e5d7 33be
00000110: 206d 4b3d 8b4e fe3d 2bca 7cbe 05d6 6ebe
00000120: 9c37 d3bc 7c12 293e 0e48 05be 1050 833e
00000130: 0a51 02be 8c0d a5bd 92b0 cfbe 69cf 563e
00000140: 730c 413d 5e77 85ba ac80 c63d 0a6d 183d
00000150: 9c24 4fbe 09a6 c1bd 1f8f 57bd 784f ec3d
00000160: 0d44 3ebe 86c6 ac3d 29f3 7b3e 3e77 fb3d
00000170: 249f a73d 80c6 243d ca97 06be 8b84 21be
00000180: 0188 bcbc 1a1d e33e 3794 42bd 79b7 18be
00000190: 628e 393e ee24 593d 26b6 7d3d a0ca 85bd
000001a0: 9408 14be 0d36 75be 7fad 5a3e 1ca9 87be
000001b0: 608d cebe c8a9 473e 5bd8 8f3e b626 7b3c
000001c0: 7cb8 1a3e ae73 443e 4569 72be f256 56be
000001d0: 371a b4bd 663d c1be 3822 c5bd 2eed 4fbd
000001e0: 8d93 0abe 2dd1 18be bf34 3dbe 0c13 6ebd
000001f0: 5de9 5a3e c6ec 81be 2491 f03d e8e5 21bc
00000200: 6c38 efbb 9ff8 d5bd 2331 7f3d c282 e13d
00000210: f125 cb3e cb37 0d3e c5a4 b3bd c9c4 e73d
00000220: 6a4c d8bd efc7 06be 7dac 8d3c e437 bf3d
00000230: 7f43 af3e 315b 3e3e 212f 31bd ec6b b0bd
00000240: 5a88 94bd 09d1 7bbe 3aa8 583d 3fdc 353d
00000250: 30c3 cd3c 764d 1c3e ba06 f43d 51e9 fcbd
00000260: de30 22be cbb2 2a3c ddc6 98bd 14a7 2e3d
00000270: 6e86 893e 7f65 c03d 4ce1 2cbe e158 263c
00000280: f5ba bbbd fa7d 91bd 0541 59be 1a4a 02be
00000290: 56fb 8fbe 0a61 843d f88a 75be 20c1 79be
000002a0: afbb 96bd 9677 99be b2f3 513b 322d a3be
000002b0: ff51 ca3d 591e 4ebd e908 45bc 625f 993d
000002c0: b0dc 923d 07e5 0c3f 6f31 b23e 03a9 393e
000002d0: 4ecb 713e d9a8 ad3d 097c b8bd 6f75 533e
000002e0: fe34 18be e60a 3abd 1fe0 833e 7909 6fbc
000002f0: 733d 263e acfe 33bc d46c c13e 9eda fbbd
00000300: c082 573d dbd5 ce3d 8cd6 0abe 7dc9 42be
00000310: cbe6 863e 9464 f3bd 38e8 f73b 5a0f a9be
00000320: 56ed 383e 3e1e 78bd a11d 863e 9156 7c3e
00000330: 7fd5 85be 3b2c 553d a18e 913d e2d7 18be
00000340: 5ef1 0b3d 6204 64be 5d41 e7bb 9b74 583d
00000350: f305 4abb 4491 03be a79b 693e 0a4d 5bbe
00000360: 33c8 e43e 9dd0 f23e af1f 82be b14d 3f3e
00000370: 1a11 93be 00b6 29bd fe05 2bbd 4e3e 5f3e
00000380: 20cf b9bd 0a0c 903d ef48 223e dd6d 04bd
00000390: b3c0 82bd efef 60be a3f4 183e 9c97 0c3e
000003a0: 2fd1 303e acdd 873e efb0 e23e 9862 d9bd
000003b0: 8ee6 97bd 1714 d23e f11d 88bc 8158 b33e
000003c0: fee3 abbd ac58 f23c 52d4 2bbe 39bc e03c
000003d0: 9f31 703e 5ffd 013e c53f aabd 1ce2 b7bd
000003e0: d97a 92bb e31e ce3d 9174 52bc 2807 843e
000003f0: d72e 14be 8e1b 963d b07e d83d 6698 58be

actor.preprocess.model.model.2.bias f4 [64]
0.1431069 0.06824011 0.09080012 0.0567111 -0.21780504 0.17801349 -0.071293004 0.07387795
-0.0047527626 0.09659012 -0.075404264 0.024849474 0.05915569 0.0774673 0.07311249 0.0131941615
-0.17422605 0.03163045 -0.032640647 0.052708846 -0.13022973 0.16575138 -0.013474133 0.005084806
0.025476888 -0.062969804 -0.11654727 -0.11084342 -0.2119762 -0.0148183545 0.0045437524 0.025497083
0.14037995 -0.0066302223 0.023673965 -0.029694818 0.08300647 0.2116221 0.14880963 -0.0008546058
0.0031442132 -0.020680124 0.049502235 -0.06882269 -0.0036459367 -0.12500605 0.063911654 0.054859146
0.0069510667 -0.100511275 0.107936434 0.40195027 -0.040709734 0.050121475 -0.046866994 0.03818325
0.1324415 0.014679732 -0.0199345 -0.07539217 0.21517503 0.17463294 0.09249428 -0.0026631516
00000000: 9d8a 123e 79c1 8b3d 6af5 b93d e649 683d
00000010: 4908 5fbe 2b49 363e 1102 92bd 534d 973d
00000020: 10bd 9bbb 0ad1 c53d 8d6d 9abd 2091 cb3c
00000030: 3d4d 723d 2da7 9e3d 00bc 953d 532c 583c
00000040: 5068 32be ee8e 013d 33b2 05bd 3be5 573d
00000050: f15a 05be bbba 293e 9cc2 5cbc 729e a63b
00000060: e8b4 d03c 50f6 80bd 56b0 eebd e001 e3bd
00000070: 4a10 59be afc8 72bc c2e3 943b 42df d03c
00000080: c3bf 0f3e 5642 d9bb e7ef c13c 8c42 f3bc
00000090: 4cff a93d 77b3 583e 8d61 183e a007 60ba
000000a0: 250f 4e3b 5d69 a9bc dbc2 4a3d e9f2 8cbd
000000b0: abf0 6ebb 9601 00be 1de4 823d fcb3 603d
000000c0: c6c5 e33b dbd8 cdbd c70d dd3d 6dcc cd3e
000000d0: 40bf 26bd 2d4c 4d3d 9bf7 3fbd 0a66 1c3d
000000e0: bf9e 073e 4283 703c ad4d a3bc 3667 9abd
000000f0: d856 5c3e fad2 323e a46d bd3d 4588 2ebb

actor.mu.model.0.weight f4 [6, 64]
-0.27122578 0.10423596 0.17698523 -0.21974072 -0.14968215 0.1995667 -0.17006314 -0.39058518
-0.123927236 -0.110261254 -0.4203374 0.13633803 0.16281945 -0.12471805 -0.17018124 0.23630823
0.041627325 0.09829273 -0.35845 0.15690815 -0.0504503 0.018965263 -0.2650941 -0.058448784
0.09157052 -0.27492967 0.21797577 0.12679906 0.07185522 -0.17393367 -0.07685386 -0.25194192
0.32222372 -0.19009362 -0.22026142 0.35697854 -0.23068735 -0.121065676 -0.028736988 0.076519355
0.07488134 0.0068752645 0.066046596 0.17053054 0.15769811 0.16745934 0.054880645 0.111353405
0.24622048 0.12084568 -0.31411523 0.40710777 0.009806187 -0.0057400772 -0.18521856 -0.005890469
0.1084394 0.024342472 -0.08612938 -0.014863487 -0.16763742 0.163461 -0.12155897 -0.018663555
-0.033530105 -0.09827185 -0.10843388 0.022919944 0.33684528 -0.12392474 0.3870582 -0.005752313
0.10104845 -0.06729642 0.09488715 -0.13367514 -0.112042315 -0.4633784 -0.04376694 0.008133071
0.36050823 -0.06512264 0.113739654 0.1332573 0.28056565 0.22363201 0.008722296 0.05338831
-0.16904534 0.117417015 -0.096826896 0.13971329 -0.46318167 0.18352118 -0.33658352 -0.14748584
-0.15103179 0.3153842 0.03056792 -0.13418232 -0.2809796 0.25024718 -0.022457987 -0.03262923
-0.14562693 -0.29682544 0.016404673 -0.15313028 0.14964983 -0.14581427 -0.23023552 -0.39183608
-0.18780564 0.1172236 -0.09321925 0.11789996 0.25764996 0.22907162 0.17791772 0.26728573
-0.04067826 0.2235633 0.12704298 -0.0013147992 -0.1840027 0.18713294 -0.11646894 -0.015970483
-0.104547076 0.12498897 0.031164927 -0.22246233 -0.21938728 0.110968135 -0.08094013 0.0065538776
-0.21934846 0.042822216 -0.23321134 0.13107178 0.12707815 0.14837755 0.04080843 -0.110471085
-0.20568494 -0.35276806 -0.045853704 0.094744556 -0.19039503 0.017931404 -0.06637067 -0.24415122
-0.02406193 -0.32588995 0.24647486 -0.051581994 0.16568784 -0.16135855 0.04575455 0.015827151
0.29724818 0.009814053 -0.08905745 0.26601398 -0.14070569 0.08589439 0.17447604 0.023184754
-0.032849878 0.13596822 0.0044583306 -0.03541338 0.04051836 0.16373104 0.2181451 0.003392966
0.24815829 0.19546276 0.008031448 -0.16779576 -0.15567316 0.018679235 -0.070280954 0.03690634
0.03029517 0.23045258 0.12777677 -0.019074243 -0.021588983 0.033910427 0.08129241 0.085118465
0.14146028 -0.060775433 0.10380733 0.1335435 0.31913203 0.15772986 -0.22214808 0.48909646
-0.25821787 -0.031043723 0.043320335 -0.11300517 0.10594383 0.1553083 -0.052889902 0.20022328
-0.025747672 0.10744484 -0.014542178 0.3280983 0.056858703 0.4176162 0.020515474 -0.05251375
0.25663763 0.15615366 0.577837 -0.0010972333 0.05793582 0.15970184 0.2342726 0.037446816
0.06576985 -0.044721317 -0.13680746 0.054994326 0.09514683 -0.14002465 0.20435986 0.06531235
0.12741345 0.008687817 -0.051958803 -0.120000064 -0.1232031 -0.16766554 0.086560965 -0.26216266
0.37504977 -0.0013402535 -0.11616185 1.215505 -0.108402126 -0.063082084 -0.06669878 -0.047675423
0.15958825 -0.29146758 -0.3421583 0.017763266 -0.13138248 0.039854262 -0.18175894 0.023383744
00000000: 1bde 8abe aa79 d53d 9e3b 353e b603 61be
00000010: 4746 19be 375b 4c3e 0825 2ebe c8fa c7be
00000020: 90cd fdbd a7d0 e1bd 7736 d7be 329c 0b3e
00000030: 24ba 263e 2d6c ffbd fe43 2ebe c9fa 713e
00000040: 6a81 2a3d b34d c93d c286 b7be 88ac 203e
00000050: f9a4 4ebd 0a5d 9b3c 6aba 87be fe67 6fbd
00000060: 5389 bb3d 95c3 8cbe 0a35 5f3e 9dd7 013e
00000070: d428 933d ab1b 32be 8e65 9dbd 88fe 80be
00000080: 82fa a43e e7a7 42be 368c 61be e4c5 b63e
00000090: 4e39 6cbe 48f1 f7bd d569 ebbc 2eb6 9c3d
000000a0: 635b 993d e649 e13b 7043 873d 8f9f 2e3e
000000b0: 9d7b 213e 767a 2b3e 87ca 603d 410d e43d
000000c0: 3921 7c3e f17d f73d b6d3 a0be 6e70 d03e
000000d0: 21aa 203c 4217 bcbb efa9 3dbe d604 c1bb
000000e0: 7a15 de3d dd69 c73c 9a64 b0bd fc85 73bc
000000f0: 25a9 2bbe 5262 273e e9f3 f8bd 50e4 98bc
00000100: dd56 09bd c042 c9bd 9512 debd 9bc2 bb3c
00000110: fc76 ac3e 41cc fdbd 7e2c c63e e67d bcbb
00000120: 7df2 ce3d b5d2 89bd 3254 c23d 23e2 08be
00000130: 7176 e5bd ef3f edbe f644 33bd 9240 053c
00000140: 8994 b83e 055f 85bd 56f0 e83d 9a74 083e
00000150: 4da6 8f3e caff 643e f6e7 0e3c b3ad 5a3d
00000160: 391a 2dbe 5578 f03d 2e4d c6bd 0011 0f3e
00000170: 2626 edbe faec 3b3e ad54 acbe 8706 17be
00000180: 14a8 1abe 0a7a a13e 9369 fa3c 1767 09be
00000190: 8fdc 8fbe 6620 803e d0f9 b7bc 3aa6 05bd
000001a0: 3a1f 15be 81f9 97be 1863 863c 2fce 1cbe
000001b0: ce3d 193e 5650 15be dcc2 6bbe bd9e c8be
000001c0: 1f50 40be ed12 f03d bce9 bebd 8975 f13d
000001d0: b2ea 833e c091 6a3e 1030 363e add9 883e
000001e0: 3f9e 26bd c7ed 643e 8e17 023e 5755 acba
000001f0: 346b 3cbe c79f 3f3e 4587 eebd 88d4 82bc
00000200: c71c d6bd 38fa ff3d 974d ff3c 2acd 63be
00000210: 0fa7 60be 4343 e33d f0c3 a5bd e9c1 d63b
00000220: e29c 60be 5966 2f3d f4ce 6ebe ae37 063e
00000230: c620 023e 49f0 173e be26 273d aa3e e2bd
00000240: 139f 52be 049e b4be 18d1 3bbd 6f09 c23d
00000250: eaf6 42be e1e4 923c 59ed 87bd c702 7abe
00000260: 861d c5bc 0cdb a6be e863 7c3e a447 53bd
00000270: 13aa 293e 2d3b 25be 1f69 3b3d f1a7 813c
00000280: ea30 983e 1fcb 203c c163 b6bd fc32 883e
00000290: 2715 10be 66e9 af3d d9a9 323e f4ed bd3c
000002a0: 988d 06bd 413b 0b3e 3017 923b 9f0d 11bd
000002b0: 94f6 253d 1ca9 273e 6e61 5f3e 865c 5e3b
000002c0: 351d 7e3e 6427 483e 5696 033c a7d2 2bbe
000002d0: c968 1fbe 3205 993c 76ef 8fbd 1a2b 173d
000002e0: 942d f83c c3fb 6b3e ead7 023e 9641 9cbc
000002f0: 61db b0bc a9e5 0a3d a37c a63d 9752 ae3d
00000300: f7da 103e a9ef 78bd f098 d43d a1bf 083e
00000310: 4665 a33e f083 213e c97a 63be da6a fa3e
00000320: 2235 84be 684f febc aa70 313d 416f e7bd
00000330: 14f9 d83d 2409 1f3e 15a3 58bd 5507 4d3e
00000340: c8ec d2bc 0a0c dc3d 5142 6ebc 80fc a73e
00000350: ace4 683d cad1 d53e 1110 a83c a818 57bd
00000360: 0266 833e bfe6 1f3e 20ed 133f 0ad1 8fba
00000370: 1c4e 6d3d e188 233e 28e5 6f3e d561 193d
00000380: 58b2 863d b32d 37bd 4117 0cbe bb41 613d
00000390: 57dc c23d 9f62 0fbe b643 513e 7bc2 853d
000003a0: ac78 023e 5857 0e3c c1d2 54bd 98c2 f5bd
000003b0: e851 fcbd 84b0 2bbe e046 b13d 2f3a 86be
000003c0: 8606 c03e 72ab afba 44e6 edbd ab95 9b3f
000003d0: ef01 debd 2e31 81bd 5f99 88bd 4e47 43bd
000003e0: 1a6b 233e 3d3b 95be 5f2f afbe 4584 913c
000003f0: 2189 06be 393e 233d 041f 3abe 448f bf3c

actor.mu.model.0.bias f4 [6]
-0.0019107669 -0.07455142 0.12633295 0.309138 0.09867687 0.39370385
00000000: b372 faba 6aae 98bd 6d5d 013e 5647 9e3e
00000010: 1917 ca3d 8d93 c93e

critic.preprocess.model.model.0.weight f4 [64, 17]
0.2853121 -0.96261805 -0.02261194 -0.0041145706 -0.022797093 -0.01793194 -0.040130462 -0.034333292
-0.45264116 0.13439882 -0.5360752 -0.07641292 -0.3941793 0.0946121 -0.14328748 -0.10581491
-0.048229493 -0.3840036 0.1610128 -0.6448534 0.17044076 -0.5069967 -0.29534748 0.6763902
0.13415845 0.36386806 -0.21753645 0.13724509 -0.1918019 0.15889972 -0.050588164 -0.39141154
0.058067225 0.5938493 -0.3512077 0.38890946 -0.04697786 0.033975 0.017770968 -0.43383846
-0.43441212 -0.22173902 -0.32601827 -0.1742067 0.15576272 0.0062687583 -0.027176622 -0.10558158
-0.19831763 -0.035536606 -0.13279273 0.2816623 -0.32047406 -0.03227174 0.08897985 -0.13906854
0.21469271 -0.12625976 -0.013103554 -0.28660166 -0.11956401 0.3271945 0.39994723 0.27028286
0.10039347 0.08241506 0.12893926 0.027293168 0.32564336 -0.00458143 0.07834795 -0.13116464
0.116158485 0.39642638 0.20536058 -0.16688342 -0.1290321 -0.23458272 -0.061900645 0.07983367
-0.11258352 0.032187738 0.36046818 0.35707608 -0.1130348 -0.011816929 0.2975677 0.42767105
0.032992665 0.080287196 0.07938108 -0.4041133 -0.15841515 -0.15857199 0.09855461 -0.03436874
-0.45997614 0.5472037 -0.13549094 -0.17602557 -0.04082619 0.058542103 -0.21632667 0.41488233
0.020834295 0.053586707 0.18766703 0.059653245 0.1285161 -0.19126125 -0.30268854 0.12798677
0.0037952117 0.06342972 -0.058284834 0.112820044 -0.19085674 -0.3788308 -0.021502046 0.30376175
-0.2965836 0.17507699 0.019255158 0.10127758 -0.38609543 -0.19486898 -0.10762577 -0.34600344
0.09733563 0.21873736 0.2908538 0.3152793 0.05367605 0.4623725 0.3700741 0.048950892
0.3649733 -0.49185073 0.045245655 -0.0588732 0.13296168 0.24891931 0.20804465 0.043498337
-0.14423291 0.1370823 -0.25622088 -0.48253596 -0.059624165 -0.13666809 0.22743471 0.10506501
-0.07529033 0.046277147 -0.17604876 0.05632376 -0.12164157 0.26268604 0.22200264 0.02782159
-0.054034125 0.050963096 0.41481525 -0.23004548 0.11364849 0.03776289 -0.0055224113 0.50552255
0.019117057 -0.0750429 -0.27349967 0.30073738 0.23833883 0.23256417 -0.17560261 0.027437422
-0.4551914 -0.20841363 0.30903068 -0.25648516 0.3343064 0.37238398 0.2622496 -0.26620537
-0.0151090175 0.05505974 -0.21487586 0.1380075 -0.07860965 -0.029437624 0.120630585 0.10105719
0.12911102 0.062836066 0.03819392 0.39718333 -0.04989617 -0.08857036 -0.17795342 -0.19808048
0.039541867 -0.05181759 0.02169762 0.07260177 0.27845454 -0.8474937 -0.24728513 -0.108845755
0.1294835 0.08739568 -0.11390721 0.021593966 0.046317257 -0.24862812 -0.29514655 -0.28248096
-0.095517576 0.066678 -0.36693597 -0.29207698 0.031006785 0.1365038 -0.7108938 -0.0058585354
-0.08899496 -0.11870027 -0.053986054 0.008669908 0.12584667 -0.031860247 0.04443869 -0.0064979363
-0.17187382 0.007399309 0.05730156 -0.023383562 -0.18322992 -0.117499135 -0.10960421 0.43791074
-0.010138231 0.078881435 0.063917205 0.21169782 0.11085659 -0.1449723 -0.09458425 0.14629757
0.2612998 0.26258272 0.20866032 -0.048278313 -0.020318594 0.11220848 0.13463047 -0.01387272
00000000: 6d14 923e 236e 76bf ad3c b9bc 85d3 86bb
00000010: f8c0 babc 01e6 92bc d75f 24bd 11a1 0cbd
00000020: 95c0 e7be d89f 093e 393c 09bf 617e 9cbd
00000030: dfd1 c9be fdc3 c13d f4b9 12be 7db5 d8bd
00000040: 4a8c 45bd 1f9c c4be 8ae0 243e 1d15 25bf
00000050: 0688 2e3e 89ca 01bf c937 97be e827 2d3f
00000060: d560 093e ea4c ba3e e0c1 5ebe fa89 0c3e
00000070: b867 44be 9cb6 223e 8935 4fbd 1867 c8be
00000080: e6d7 6d3d 8206 183f 7fd1 b3be 241f c73e
00000090: db6b 40bd 5f29 0b3d 6c94 913c 1320 debe
000000a0: 446b debe 8e0f 63be deeb a6be 3e63 32be
000000b0: 4380 1f3e 286a cd3b 82a1 debc 283b d8bd
000000c0: c713 4bbe d58e 11bd d1fa 07be 0a36 903e
000000d0: 2d15 a4be 5f2f 04bd 113b b63d fc67 0ebe
000000e0: 68d8 5b3e 3d4a 01be 4ab0 56bc 74bd 92be
000000f0: fadd f4bd 0a86 a73e e2c5 cc3e 8462 8a3e
00000100: 179b cd3d 3ac9 a83d a708 043e ec95 df3c
00000110: baba a63e d21f 96bb e474 a03d 0650 06be
00000120: 80e4 ed3d 66f8 ca3e 0b4a 523e 7de3 2abe
00000130: fe20 04be 7436 70be 888b 7dbd d67f a33d
00000140: 3092 e6bd 4ad7 033d 498f b83e add2 b63e
00000150: ca7e e7bd cb9b 41bc cb5a 983e b3f7 da3e
00000160: 5123 073d 9d6d a43d 8c92 a23d f0e7 cebe
00000170: 9537 22be b260 22be 00d7 c93d 3cc6 0cbd
00000180: fe81 ebbe 8b15 0c3f 23be 0abe 0c40 34be
00000190: 5d39 27bd d8c9 6f3d bd84 5dbe 756b d43e
000001a0: afac aa3c bc7d 5b3d c92b 403e f656 743d
000001b0: b999 033e fdd9 43be fef9 9abe f70e 033e
000001c0: 16b9 783b 71e7 813d 14bc 6ebd 320e e73d
000001d0: f36f 43be 1cf6 c1be 0f25 b0bc a986 9b3e
000001e0: ced9 97be 6247 333e febc 9d3c 9f6a cf3d
000001f0: 4dae c5be bc8b 47be e66a dcbd 5d27 b1be
00000200: e757 c73d b0fc 5f3e caea 943e 4a6c a13e
00000210: 6bdb 5b3d 17bc ec3e 5a7a bd3e bb80 483d
00000220: c8dd ba3e dcd3 fbbe 8253 393d 0625 71bd
00000230: 1b27 083e b4e4 7e3e a809 553e 502b 323d
00000240: cbb1 13be 4d5f 0c3e 622f 83be f40e f7be
00000250: 7838 74bd b8f2 0bbe a5e4 683e 532c d73d
00000260: d131 9abd 1b8d 3d3d 2046 34be beb3 663d
00000270: 371f f9bd c97e 863e a954 633e 1aea e33c
00000280: e352 5dbd aebe 503d aa62 d43e 0b91 6bbe
00000290: 8ac0 e83d 43ad 1a3d 58f5 b4bb ed69 013f
000002a0: 609b 9c3c 18b0 99bd 2608 8cbe 40fa 993e
000002b0: 180f 743e 4d25 6e3e 2cd1 33be 72c4 e03c
000002c0: d90e e9be 626a 55be 4539 9e3e 0652 83be
000002d0: 352a ab3e 1da9 be3e 9445 863e 124c 88be
000002e0: d08b 77bc 5286 613d 6b08 5cbe d751 0d3e
000002f0: 19fe a0bd 2c27 f1bc 2b0d f73d 12f7 ce3d
00000300: ae35 043e 32b0 803d 3a71 1c3d 9d5b cb3e
00000310: ed5f 4cbd 6064 b5bd 6c39 36be 9cd5 4abe
00000320: a7f6 213d ae3e 54bd 35bf b13c 3db0 943d
00000330: 9891 8e3e 59f5 58bf 5038 7dbe 86ea debd
00000340: 5397 043e 82fc b23d 2f48 e9bd d4e5 b03c
00000350: 2ab7 3d3d 5f98 7ebe 731d 97be 58a1 90be
00000360: b89e c3bd 7a8e 883d 08df bbbe 1d8b 95be
00000370: f101 fe3c a7c7 0b3e 23fd 35bf f5f8 bfbb
00000380: fd42 b6bd 2119 f3bd 7b20 5dbd 3b0c 0e3c
00000390: f3dd 003e e47f 02bd 5805 363d a4ec d4bb
000003a0: b1ff 2fbe e775 f23b 0ab5 6a3d e28e bfbc
000003b0: a0a0 3bbe 63a3 f0bd 2c78 e0bd d635 e03e
000003c0: d31a 26bc 978c a13d 06e7 823d 50c7 583e
000003d0: c808 e33d 9e73 14be 63b5 c1bd 08cf 153e
000003e0: 16c9 853e 3e71 863e 0dab 553e 7bbf 45bd
000003f0: 2e73 a6bc 8fcd e53d 92dc 093e 684a 63bc

critic.preprocess.model.model.0.bias f4 [64]
0.7171869 0.39372516 -0.9320354 0.41608095 0.09193649 0.013528273 0.25693217 -0.28538772
0.23966467 -0.19421549 -0.2315202 0.18621026 0.7991872 0.6531617 -0.6057634 -0.7543952
-0.31769374 0.11976714 -0.09771235 -0.4038379 0.14300801 0.63758814 0.02261981 0.05557444
0.57000333 -0.046178106 0.021643573 0.47097188 0.65754575 -0.5661986 -0.46726772 -0.03535016
-0.27145582 0.12357291 -0.05792865 -0.46375632 -0.1737027 0.010296415 0.007693131 0.2108278
-0.563041 0.7498081 0.31771362 0.49028972 0.40299875 0.20270833 0.764275 0.075149305
0.16521163 0.82365555 -1.3421686 1.081033 0.92627406 -0.49898133 0.031838503 -0.43227777
-0.2212629 0.0068273754 -0.57153547 0.32139224 0.048616886 -0.017405195 -0.47240627 -0.38027802
00000000: 9099 373f 5896 c93e df99 6ebf 9008 d53e
00000010: 3349 bc3d b1a5 5d3c 9d8c 833e 571e 92be
00000020: a86a 753e 6de0 46be a213 6dbe e7ad 3e3e
00000030: 8897 4c3f 9b35 273f 4f13 1bbf 0b20 41bf
00000040: c1a8 a2be 7948 f53d 6a1d c8bd d7c3 cebe
00000050: b170 123e fa38 233f 2e4d b93c 06a2 633d
00000060: bdeb 113f 4125 3dbd dd4d b13c 3a23 f13e
00000070: eb54 283f 64f2 10bf b73d efbe 54cb 10bd
00000080: 42fc 8abe cb13 fd3d 9846 6dbd 7871 edbe
00000090: 1fdf 31be 4bb2 283c a916 fc3b 3ee3 573e
000000a0: 7423 10bf 6cf3 3f3f 5cab a23e 4107 fb3e
000000b0: da55 ce3e c692 4f3e 87a7 433f e1e7 993d
000000c0: 3d2d 293e 17db 523f 2ecc abbf 4a5f 8a3f
000000d0: 4c20 6d3f 7b7a ffbe 1769 023d 8353 ddbe
000000e0: be92 62be 2db8 df3b 2650 12bf 868d a43e
000000f0: 8022 473d 5795 8ebc 3cdf f1be cdb3 c2be

critic.preprocess.model.model.2.weight f4 [64, 64]
0.01799988 0.40391305 0.003042321 -0.13297316 -0.15193173 -0.104443386 -0.33679038 -0.024178715
-0.068157606 -0.11174514 0.1864568 0.092866674 -0.07050173 -0.11923499 0.19528273 0.10956271
0.15634698 0.109673485 -0.0844627 -0.095578544 0.113756955 0.24562052 -0.07992914 -0.1588194
-0.051867686 0.06696769 -0.30065435 0.016609512 -0.56651556 -0.081473306 0.45011246 0.107701175
-0.20157063 -0.14966582 -0.16127114 -0.067491084 0.31057817 -0.33106276 -0.06238062 -0.45490867
-0.3029741 -0.27143717 0.19359958 -0.115868874 0.048769865 0.06348452 0.021282105 -0.15991558
0.053710584 -0.2891425 -0.45241952 -0.1531903 -0.28429618 0.06161131 0.30918244 0.11823401
0.14811267 -0.0688842 0.105387025 -0.04577278 0.1669388 0.06294012 -0.008133868 0.005531207
0.16258557 -0.2145988 0.17776792 0.48017412 0.40033153 -0.09406353 0.115676515 -0.043414813
0.11131838 0.18489198 -0.071452335 -0.088291734 0.089132704 0.44759443 -0.32363832 -0.58607477
-0.48838985 0.34465405 0.11615558 -0.10843438 0.110877134 0.58802617 -0.24792711 0.29853
0.15517762 0.026968958 0.20917189 -0.09721169 0.04560202 -0.23407988 0.022826832 0.019368626
-0.29253772 0.09626879 0.039711 -0.046553656 -0.043457475 -0.17206869 -0.4036737 -0.08684149
-0.12942462 0.294649 0.090848975 0.047670584 0.16471387 -0.20830707 0.79967546 0.002227703
0.013493578 0.5152836 -0.3917968 0.04694768 0.31891054 -0.035472065 0.33765507 -0.23302476
0.11606533 0.10344592 -0.61121905 0.18588778 -0.039945837 -0.27536967 -0.057200722 -0.26418933
0.047085542 0.105231926 -0.25808063 0.11142195 -0.10235751 0.20621131 0.19430572 -0.15085791
-0.3068035 0.08492713 -0.034488454 0.08323941 0.17000623 -0.4605184 0.29829836 0.21320872
-0.036871478 -0.33687878 0.24696803 -0.606251 0.041961666 0.24258505 0.12663567 0.08695084
-0.10489825 -0.31564802 -0.20000045 -0.41099077 0.32274252 0.36141518 0.24133374 0.03134092
0.28139633 -0.07723257 -0.11692227 0.17516872 0.24046421 0.38043803 0.095073335 0.1436574
0.4740181 0.0041916445 0.14718497 1.0457375 -0.06727727 0.40263557 0.1368107 -0.3842524
-0.502171 -0.33253357 -0.5457457 0.2529938 0.48872706 0.0032783642 -0.41171193 0.07107365
-0.13164344 -0.115657 0.34489208 0.26629958 -0.16313578 0.012627892 0.2960851 0.23897986
0.24510226 0.032797545 -0.2790348 -0.037342176 -0.12308411 -0.1899779 0.15204057 -0.14637671
-0.116757095 0.09404716 -0.05087273 0.09895998 0.15898757 -0.009316639 -0.28681543 -0.57563
0.015057035 -0.24149975 -0.07333199 -0.1907671 0.15963204 0.002286377 0.016547855 0.111133404
-0.081414804 -0.09908837 0.30185 0.20014629 0.03768804 -0.7403932 -0.09729237 0.11187124
0.084720075 -0.18785599 -0.30312616 0.05426715 0.06481854 -0.17750809 0.12955363 -0.19133788
-0.21920514 0.3528626 0.10744216 0.18886727 0.4217389 -0.21650401 0.37986296 0.012715106
-0.1832937 0.5725532 -0.34586477 0.07474073 0.19277914 0.020495817 0.042285316 -0.22471535
-0.073585816 0.18309385 -0.11330291 -0.070840545 0.04118107 0.16529925 -0.38045457 0.12347809
00000000: 7c74 933c b1cd ce3e ad61 473b 1e2a 08be
00000010: fe93 1bbe 6ae6 d5bd ca6f acbe 7112 c6bc
00000020: 3796 8bbd a3da e4bd 88ee 3e3e e230 be3d
00000030: 3663 90bd 7931 f4bd 32f8 473e 6a62 e03d
00000040: 6c19 203e 7e9c e03d c8fa acbd afbe c3bd
00000050: 68f9 e83d f283 7b3e e4b1 a3bd 8ea1 22be
00000060: 3673 54bd 5b26 893d 5eef 99be ac10 883c
00000070: 2a07 11bf 7adb a6bd 2475 e63e 6f92 dc3d
00000080: 8868 4ebe ff41 19be 4324 25be c438 8abd
00000090: 1a04 9f3e 0f81 a9be d282 7fbd cae9 e8be
000000a0: 6c1f 9bbe d0f9 8abe f83e 463e a94c edbd
000000b0: e9c2 473d 2c04 823d cf57 ae3c e9c0 23be
000000c0: a1ff 5b3d 7c0a 94be 88a3 e7be ebdd 1cbe
000000d0: 458f 91be 245c 7c3d 294d 9e3e ac24 f23d
000000e0: d9aa 173e 2913 8dbd 27d5 d73d 3d7c 3bbd
000000f0: 01f2 2a3e c0e6 803d ea43 05bc 213f b53b
00000100: d57c 263e cabf 5bbe cb08 363e 62d9 f53e
00000110: 41f8 cc3e 61a4 c0bd cfe7 ec3d bbd3 31bd
00000120: e4fa e33d 5354 3d3e 9a55 92bd 4cd2 b4bd
00000130: 358b b63d 192b e53e ecb3 a5be ff08 16bf
00000140: 3c0e fabe 7f76 b03e fae2 ed3d d812 debd
00000150: 8d13 e33d e288 163f 9be0 7dbe edd8 983e
00000160: e2e6 1e3e 01ee dc3c 2831 563e ec16 c7bd
00000170: 2fc9 3a3d a3b2 6fbe 56ff ba3c f4aa 9e3c
00000180: 81c7 95be 9228 c53d 00a8 223d 0caf 3ebd
00000190: 7700 32bd c632 30be 52ae cebe f3d9 b1bd
000001a0: e387 04be 3cdc 963e 070f ba3d 3b42 433d
000001b0: c1aa 283e 734e 55be 88b7 4c3f a8fe 113b
000001c0: 2b14 5d3c a0e9 033f 9799 c8be 364c 403d
000001d0: 3e48 a33e 284b 11bd 20e1 ac3e 0b9e 6ebe
000001e0: a9b3 ed3d 74db d33d da78 1cbf 5e59 3e3e
000001f0: 3f9e 23bd 41fd 8cbe 4e4b 6abd d343 87be
00000200: c5dc 403d d683 d73d 2523 84be 3131 e43d
00000210: d0a0 d1bd 0f29 533e 14f8 463e 7f7a 1abe
00000220: 5915 9dbe 46ee ad3d c443 0dbd 6c79 aa3d
00000230: 1d16 2e3e 11c9 ebbe 90ba 983e 6353 5a3e
00000240: 8c06 17bd 607b acbe 30e5 7c3e 4433 1bbf
00000250: ffdf 2b3d 3768 783e c8ac 013e 4813 b23d
00000260: e5d4 d6bd 9e9c a1be ebcc 4cbe 626d d2be
00000270: 823e a53e 690b b93e 3120 773e 565f 003d
00000280: 2e13 903e 1c2c 9ebd f174 efbd 6e5f 333e
00000290: 403c 763e c6c8 c23e cfb5 c23d ed1a 133e
000002a0: 80b2 f23e 105a 893b a8b7 163e bada 853f
000002b0: aac8 89bd 4026 ce3e 1b18 0c3e bbbc c4be
000002c0: 478e 00bf d741 aabe fdb5 0bbf 6788 813e
000002d0: 6f3a fa3e d3d9 563b e8cb d2be 108f 913d
000002e0: 8acd 06be 94dd ecbd b295 b03e 6b58 883e
000002f0: 110d 27be 38e5 4e3c 7798 973e 23b7 743e
00000300: 16fc 7a3e b856 063d a6dd 8ebe 1cf4 18bd
00000310: 8613 fcbd 9189 42be 86b0 1b3e c7e3 15be
00000320: 581e efbd cc9b c03d ec5f 50bd 88ab ca3d
00000330: a3cd 223e d1a4 18bc 79d9 92be 7d5c 13bf
00000340: c8b1 763c b64b 77be 152f 96bd 7358 43be
00000350: 9576 233e 0ad7 153b 5e8f 873c e999 e33d
00000360: cebc a6bd d8ee cabd 158c 9a3e 26f3 4c3e
00000370: c65e 1a3d 698a 3dbf 3941 c7bd c01c e53d
00000380: b881 ad3d 525d 40be 5a33 9bbe 3b47 5e3d
00000390: 95bf 843d aec4 35be b5a9 043e 14ee 43be
000003a0: 5077 60be 68aa b43e a30a dc3d 6c66 413e
000003b0: 29ee d73e 3ab3 5dbe 667d c23e 0553 503c
000003c0: 58b1 3bbe d992 123f 3015 b1be ab11 993d
000003d0: e567 453e d8e6 a73c 5e33 2d3d c81b 66be
000003e0: 29b4 96bd f47c 3b3e 5b0b e8bd d914 91bd
000003f0: 7bad 283d 3544 293e f1ca c2be 15e2 fc3d

critic.preprocess.model.model.2.bias f4 [64]
0.009814416 0.17594199 0.42175174 0.24965961 0.09402818 0.12351358 0.1654126 0.07965179
0.023047287 0.060456928 0.097882695 -0.09106172 0.12536578 -0.2407471 -0.094959 0.009982207
0.08070965 0.07714654 0.021295866 0.069248006 -0.42802012 0.5170187 -0.047065426 -0.37466583
-0.2709341 0.35162684 0.25443354 0.20542088 0.4367249 -0.30393928 0.49819595 -0.40957636
0.13147037 -0.11990289 0.038644116 0.027861541 -0.006129118 0.09536836 -0.109990746 -0.1970292
-1.0974292 0.18400541 0.4187602 0.11619013 -0.058496814 -0.06949771 0.009811527 -0.23525798
0.026726078 0.09727278 -0.008101299 0.2132937 -0.026096364 0.044371597 0.009224884 -0.1734498
0.06730484 0.05588813 -0.094333135 0.1896905 -0.41084105 -0.13190183 -0.05136445 -0.036543548
00000000: a5cc 203c 232a 343e d8ef d73e c5a6 7f3e
00000010: d991 c03d b0f4 fc3d ec61 293e 7a20 a33d
00000020: aacd bc3c afa1 773d b976 c83d 917e babd
00000030: e35f 003e 6886 76be dd79 c2bd 698c 233c
00000040: 1a4b a53d 01ff 9d3d ab74 ae3c e6d1 8d3d
00000050: 7425 dbbe 565b 043f adc7 40bd 33d4 bfbe
00000060: e0b7 8abe 6f08 b43e 1d45 823e da59 523e
00000070: 689a df3e ee9d 9bbe 8a13 ff3e feb3 d1be
00000080: 2ba0 063e a58f f5bd 4b49 1e3d e33d e43c
00000090: c5d6 c8bb 7d50 c33d d442 e1bd 06c2 49be
000000a0: 8f78 8cbf ea6b 3c3e bd67 d63e 17f5 ed3d
000000b0: 5b9a 6fbd d154 8ebd 87c0 203c 78e7 70be
000000c0: a6f0 da3c f436 c73d 50bb 04bc aa69 5a3e
000000d0: 0bc8 d5bc febe 353d f823 173c d39c 31be
000000e0: 1fd7 893d f4ea 643d bb31 c1bd 3a3e 423e
000000f0: c259 d2be 4611 07be 8863 52bd b0ae 15bd

critic.last.model.0.weight f4 [1, 64]
0.03931593 0.0078109526 -0.083098285 0.123922355 0.0046118526 0.04003486 0.0055831852 -0.031865813
-0.008173397 0.022872288 -0.06433221 -0.01040541 -0.067945346 -0.031282134 -0.033296324 0.0654574
0.043818615 -0.050520796 -0.0077521536 -0.042289037 -0.129854 0.31664744 -0.03187902 -0.12389715
-0.20055427 0.08540664 0.20814258 0.1261072 0.21485643 -0.18501501 0.5132444 -0.15828572
0.020888006 -0.02094905 -0.009560941 -0.026445221 -0.013162808 -0.0014970503 0.096098974 -0.2604872
-0.47212902 0.052734017 0.1560625 -0.0032574376 0.11662779 0.13551019 0.032224853 -0.0272414
-0.033810955 0.0432769 -0.06679748 0.066480026 -0.018190304 0.020996604 0.081313334 -0.011340398
-0.005142821 0.012521765 -0.13014881 0.008633861 -0.16599873 -0.0067626066 -0.23003186 -0.032497738
00000000: be09 213d 05f3 ff3b 6f2f aabd 01cb fd3d
00000010: 061f 973b 98fb 233d 27f3 b63b ba85 02bd
00000020: b6e9 05bc aa5e bb3c 9bc0 83bd 747b 2abc
00000030: ee26 8bbd b221 00bd ba61 08bd 880e 863d
00000040: 267b 333d e5ee 4ebd c705 febb 4537 2dbd
00000050: 72f8 04be 9d1f a23e 9393 02bd cabd fdbd
00000060: 195e 4dbe ade9 ae3d 5423 553e 3f22 013e
00000070: 5303 5c3e 9374 3dbe fc63 033f a715 22be
00000080: 531d ab3c 589d abbc 7ea5 1cbc a6a3 d8bc
00000090: d1a8 57bc ac38 c4ba 8acf c43d 945e 85be
000000a0: e5ba f1be a0ff 573d d9ce 1f3e bc7a 55bb
000000b0: 8dda ee3d 2fc3 0a3e 35fe 033d 5b29 dfbc
000000c0: 5b7d 0abd 1e43 313d 1ecd 88bd ae26 883d
000000d0: d503 95bc 1201 ac3c 9b87 a63d 14cd 39bc
000000e0: 1c85 a8bb 1728 4d3c bb45 05be 0a75 0d3c
000000f0: 92fb 29be db98 ddbb 798d 6bbe 591c 05bd

_actor_critic.actor.sigma_param f4 [6, 1]
-1.8637688 -2.077079 -1.4341887 -2.5268106 -2.4291553 -2.0679884
00000000: fa8f eebf ddee 04c0 7f93 b7bf 44b7 21c0
00000010: 4877 1bc0 ec59 04c0

_actor_critic.actor.preprocess.model.model.0.weight f4 [64, 17]
0.091148295 -0.26388836 -0.07751616 0.08972221 -0.0023351677 -0.08233104 -0.11166705 -0.27732533
-0.32786635 0.046062555 -0.22138542 0.20883502 -0.061093096 -0.10564735 -0.09516543 -0.06512569
-0.12648647 0.2382761 -0.36442617 0.19179198 0.31764814 0.04109715 -0.2078139 0.15901424
-0.13848613 0.28211972 -0.10210636 -0.20137396 0.15990476 -0.12767957 0.04847397 0.05106432
0.0018125712 -0.01585139 0.3416701 0.47376272 -0.050432473 -0.25920925 -0.13585465 0.11529898
-0.21640438 0.15358487 0.006018034 -0.00823416 -0.24973053 0.17213224 0.28640828 -0.08277039
0.10927112 0.13311578 0.05917642 0.016014785 0.22933352 -0.0675858 -0.121104114 -0.20627195
-0.024388628 -0.20866412 -0.23392381 0.16020328 -0.16042839 -0.039341506 0.07329308 -0.20165013
0.06482166 0.10080114 0.11583235 -0.13442889 0.014851144 -0.17940266 -0.22894698 0.2596083
0.034211293 -0.2840807 0.084090814 0.01063723 0.1520487 0.104049645 -0.33123824 0.19591662
-0.2178014 -0.13709399 -0.002040666 0.23879024 0.23377544 0.33775747 -0.02182165 -0.21378629
-0.39378253 0.067520835 -0.47892657 -0.24738753 -0.10277405 -0.11497627 0.438529 0.019919654
0.29510632 -0.1705348 -0.03452519 0.2381475 -0.21048978 -0.05943849 -0.3886811 0.25832695
-0.15750274 0.11061162 -0.10004696 -0.017885447 0.15968718 0.05282212 0.391275 -0.0069129704
0.18497498 -0.07569213 0.055909075 0.12065091 -0.2801266 0.2629637 -0.17499945 -0.14572288
-0.150184 0.106298506 0.37213784 0.023008756 -0.052025978 0.07507104 0.2313262 0.05297497
-0.05858404 -0.14621216 0.20219351 -0.26004562 -0.034930762 0.2118237 0.0910007 0.0934344
-0.13069105 0.3582016 0.03018127 0.0268581 0.30801952 0.029471261 -0.09540051 -0.09753735
-0.057024322 -0.018406203 0.025588665 0.18306786 -0.20752911 -0.18265612 -0.32505018 -0.014666975
-0.020425238 -0.43991417 -0.08164108 -0.27418512 -0.21291901 -0.12027354 0.061721563 -0.0683275
-0.1018125 0.04549841 -0.30788913 -0.23842654 -0.22179562 -0.03205151 -0.098788984 -0.028844234
-0.08163871 0.35290372 -0.027458241 0.027681498 0.41988844 -0.38416475 0.44518244 -0.013131926
0.033594895 -0.26485118 0.008104762 -0.13931583 0.07820316 0.26268908 -0.10699365 0.21228674
0.21886459 -0.06718144 -0.26471895 0.1438393 -0.1386439 -0.08021369 -0.15376244 0.24081062
0.059191518 -0.116236776 -0.07264795 -0.13503145 0.069132276 0.038643934 -0.23035592 0.4426013
-0.11062783 0.2455988 -0.08484273 -0.040524267 0.23061457 -0.26930988 0.027626593 0.053491585
0.01604121 0.54735357 -0.15762015 -0.22989976 0.16778348 0.21032517 -0.4566137 0.117486775
-0.007412436 -0.01827771 -0.25103307 -0.39275664 -0.15098885 0.12245244 -0.19549406 0.12168253
0.2053211 0.02113279 -0.05380924 -0.1323197 -0.15231872 -0.34904966 -0.11065827 -0.0441673
-0.33855295 0.16626608 -0.056997094 -0.028568925 -0.4283446 0.013823187 -0.2953655 -0.4738279
0.01872047 -0.16036439 0.02254003 -0.17627355 -0.014676761 0.14953646 -0.37758854 -0.15458773
-0.069502406 -0.51028156 -0.08313263 -0.06855771 0.011670735 0.01778363 0.2294588 -0.0860071
00000000: f5ab ba3d 601c 87be cbc0 9ebd 47c0 b73d
00000010: 9d09 19bb 2d9d a8bd b2b1 e4bd 96fd 8dbe
00000020: 19de a7be 17ac 3c3d dcb2 62be d9d8 553e
00000030: c13c 7abd a35d d8bd 18e6 c2bd 9e60 85bd
00000040: ab85 01be a6fe 733e 1196 babe 1e65 443e
00000050: c7a2 a23e 7c55 283d 2bcd 54be a1d4 223e
00000060: 4fcf 0dbe ff71 903e 241d d1bd fa34 4ebe
00000070: 13be 233e 6fbe 02be a48c 463d d228 513d
00000080: cc93 ed3a c6da 81bc 62ef ae3e 0791 f23e
00000090: 4892 4ebd 13b7 84be 7b1d 0bbe df21 ec3d
000000a0: 1c99 5dbe 5a45 1d3e ee32 c53b 92e8 06bc
000000b0: 5cb9 7fbe 6f43 303e 1ba4 923e 8683 a9bd
000000c0: 89c9 df3d 814f 083e f962 723d 7031 833c
000000d0: 68d6 6a3e 6d6a 8abd 6f05 f8bd f438 53be
000000e0: a9ca c7bc 0cac 55be b989 6fbe 540c 243e
000000f0: 5747 24be 8f24 21bd af1a 963d 5f7d 4ebe
00000100: 38c1 843d d470 ce3d 8339 ed3d baa7 09be
00000110: 3652 733c 55b5 37be 1471 6abe 61eb 843e
00000120: 2421 0c3d 0773 91be ce37 ac3d c747 2e3c
00000130: a8b2 1b3e fb17 d53d 0f98 a9be 5e9e 483e
00000140: 5507 5fbe 5e62 0cbe b2bc 05bb 6e85 743e
00000150: d462 6f3e 8cee ac3e 51c3 b2bc cbea 5abe
00000160: dd9d c9be 5d48 8a3d dd35 f5be 2853 7dbe
00000170: 337b d2bd ae78 ebbd e086 e03e 8b2e a33c
00000180: 2d18 973e ada0 2ebe 496a 0dbd f0dc 733e
00000190: a28a 57be c675 73bd 3601 c7be 6e43 843e
000001a0: 6648 21be 5888 e23d 6ce5 ccbd 8084 92bc
000001b0: 0985 233e 025c 583d 3255 c83e 3386 e2bb
000001c0: 156a 3d3e 7a04 9bbd ea00 653d d317 f73d
000001d0: c16c 8fbe 2ea3 863e 0e33 33be 6138 15be
000001e0: d6c9 19be 08b3 d93d da88 be3e dc7c bc3c
000001f0: 3119 55bd d8be 993d c6e0 6c3e 48fc 583d
00000200: d1f5 6fbd a4b8 15be d10b 4f3e b324 85be
00000210: 8f13 0fbd 50e8 583e 935e ba3d 895a bf3d
00000220: e0d3 05be 3366 b73e b63e f73c 8505 dc3c
00000230: bcb4 9d3e b76d f13c 5861 c3bd aac1 c7bd
00000240: 5692 69bd 9bc8 96bc 529f d13c 2476 3b3e
00000250: 8382 54be 350a 3bbe fa6c a6be c04d 70bc
00000260: d452 a7bc 6e3c e1be 7033 a7bd fe61 8cbe
00000270: 7107 5abe f951 f6bd c0cf 7c3d 4aef 8bbd
00000280: 1283 d0bd 8a5c 3a3d a5a3 9dbe 1626 74be
00000290: 641e 63be 7248 03bd e151 cabd be4a ecbc
000002a0: 3232 a7bd ccaf b43e 1bf0 e0bc 4fc4 e23c
000002b0: 9efb d63e 3eb1 c4be f4ee e33e 4a27 57bc
000002c0: cd9a 093d 939a 87be d6c9 043c cfa8 0ebe
000002d0: fa28 a03d 2f7f 863e 7d1f dbbd b261 593e
000002e0: 0a1e 603e 6c96 89bd 3e89 87be 9c4a 133e
000002f0: abf8 0dbe 1347 a4bd e773 1dbe 0f97 763e
00000300: ce72 723d 8c0d eebd 73c8 94bd af45 0abe
00000310: 3995 8d3d 1a49 1e3d 6ce2 6bbe a39c e23e
00000320: d890 e2bd 407e 7b3e 06c2 adbd c6fc 25bd
00000330: 3a26 6c3e fce2 89be 2a51 e23c fe19 5b3d
00000340: db68 833c 5d1f 0c3f 2d67 21be d86a 6bbe
00000350: 6fcf 2b3e 7b5f 573e 45c9 e9be e89c f03d
00000360: 05e4 f2bb 23bb 95bc 6887 80be 6617 c9be
00000370: d29c 1abe 58c8 fa3d 982f 48be b134 f93d
00000380: b23f 523e ac1e ad3c 1467 5cbd d17e 07be
00000390: 70f9 1bbe a3b6 b2be cea0 e2bd c5e8 34bd
000003a0: d056 adbe a841 2a3e c975 69bd 6109 eabc
000003b0: fc4f dbbe a67a 623c 263a 97be 9299 f2be
000003c0: ac5b 993c 9036 24be dea5 b83c 0e81 34be
000003d0: cc76 70bc 1620 193e 4953 c1be 3f4c 1ebe
000003e0: 4757 8ebd d0a1 02bf 7141 aabd fc67 8cbd
000003f0: 9c36 3f3c faae 913c 3ff7 6a3e 7e24 b0bd

_actor_critic.actor.preprocess.model.model.0.bias f4 [64]
-0.18617545 0.110970065 -0.10680302 -0.15035078 0.18711264 -0.050403837 0.08477653 -0.13243191
-0.20041832 -0.26128283 -0.09863588 0.07267384 -0.04716868 -0.046647448 -0.24821872 0.0018230253
0.09448943 0.0708193 0.020151058 -0.06316765 -0.12497754 0.08638134 -0.0074602757 -0.12842505
-0.085073344 0.29034397 0.17263617 -0.009182127 -0.11530379 -0.08908356 -0.062597536 -0.08746994
0.07080564 -0.13609809 0.28788725 0.117890984 -0.14186367 -0.32321045 -0.092874944 -0.18428987
-0.1508892 -0.16469352 -0.045440204 -0.13095696 0.18640445 0.0072254557 0.17289777 -0.0073922626
-0.2635617 0.0005146465 0.05656054 0.07091169 -0.0183989 0.0020638132 -0.015453741 -0.029739287
-0.28683692 -0.007514369 0.2579244 0.106420584 0.16314209 0.08944788 0.08007719 -0.048808724
00000000: c7a4 3ebe 4644 e33d 8bbb dabd 8ef5 19be
00000010: 759a 3f3e 4174 4ebd 519f ad3d 3b9c 07be
00000020: 763a 4dbe ddc6 85be 9c01 cabd 06d6 943d
00000030: f233 41bd 6511 3fbd 0c2d 7ebe 94f2 ee3a
00000040: ad83 c13d b609 913d d513 a53c 0a5e 81bd
00000050: 39f4 ffbd b3e8 b03d 5475 f4bb db81 03be
00000060: ef3a aebd f7a7 943e 89c7 303e a270 16bc
00000070: 6524 ecbd 7171 b6bd 2333 80bd 7123 b3bd
00000080: 8c02 913d 4c5d 0bbe f565 933e d470 f13d
00000090: b644 11be d77b a5be 3835 bebd 7cb6 3cbe
000000a0: b382 1abe 6ba5 28be 821f 3abd 9519 06be
000000b0: cfe0 3e3e 84c3 ec3b 1d0c 313e cb3a f2bb
000000c0: 8ff1 86be 58e9 063a 06ac 673d 263a 913d
000000d0: 4ab9 96bc 0a41 073b b031 7dbc ce9f f3bc
000000e0: 4adc 92be 193b f6bb ab0e 843e 09f3 d93d
000000f0: b80e 273e 7330 b73d 83ff a33d a8eb 47bd
