results/Walker2d-v3/trpo/8/220709-074352/policy.pth (torch, 53732 bytes, 24 tensors)

actor.sigma_param f4 [6, 1]
-1.5768042 -1.222338 -1.2720639 -1.4307134 -2.0148814 -2.128667
00000000: b8d4 c9bf 9275 9cbf fdd2 a2bf 9e21 b7bf
00000010: d1f3 00c0 153c 08c0

actor.preprocess.model.model.0.weight f4 [64, 17]
-0.015791217 -0.028826408 0.32756922 0.044236198 0.29235736 -0.046585314 0.03783922 0.037931915
-0.3125479 -0.35852563 0.36864385 0.23293109 -0.15585248 -0.109715484 -0.12201484 -0.09790041
0.2102123 -0.25677854 -0.09978971 0.030304397 -0.07329334 -0.029191973 -0.2602216 -0.38565534
-0.22356486 -0.02723521 0.08899496 0.20063224 0.2071374 0.23283115 -0.07261699 -0.022254087
0.24081922 0.34822622 -0.049241915 0.18563312 0.056073695 0.09756374 0.25989166 -0.071404435
0.29248822 -0.12461947 -0.16813724 0.085630015 0.10714612 0.043734483 -0.04696856 -0.055839516
-0.1862435 0.11864716 -0.20057507 0.14458916 -0.15347232 0.8333947 0.1351796 0.25076598
0.046535347 0.28236696 0.032476295 0.024147784 0.23062605 -0.029797656 0.0016320768 -0.07652078
-0.091253236 -0.18412136 -0.008201119 -0.16161935 -0.060712013 -0.37329602 0.14694741 -0.53717184
-0.20356813 0.16498433 0.060871135 -0.81084895 0.29293564 0.17569003 -0.067803584 0.17200722
-0.019306667 0.02353234 0.04816224 0.15965322 -0.34364974 0.2573037 0.3911287 0.09478221
0.24234833 0.10638726 -0.18235768 0.035006054 -0.05401438 -0.24715547 0.40692347 0.0608365
-0.25707003 0.2586157 0.29778326 0.24892913 -0.097690016 -0.40411583 -0.059558496 0.10974685
0.04055252 -0.063721664 -0.30301687 -0.15841374 0.3243591 0.1358439 -0.11595382 0.072312094
0.10918394 0.38260525 -0.18434654 0.26091677 0.15948199 0.04850366 -0.4818246 0.02574737
-0.2686278 0.0566459 0.1361821 -0.26103237 0.019251855 0.5200395 -0.2112768 -0.012192473
0.34234065 0.20803921 -0.108913824 0.12174454 -0.16442098 -0.053730246 0.21641977 -0.028720478
-0.17959532 0.05511211 0.072934456 -0.14944948 0.073668584 0.20182745 0.36267948 -0.06819788
0.026337994 0.054380428 0.20015459 -0.00862243 -0.40856245 -0.18905793 0.2938571 -0.08716058
0.0016990365 -0.18109186 0.1495745 0.14796486 -0.34799767 0.40364683 -0.39985397 0.39150798
-0.07295126 -0.036308393 0.17498094 -0.31471768 0.09566834 -0.11409761 -0.050721522 0.11697685
-0.023645563 -0.039859474 0.17263591 -0.00503591 -0.35994774 -0.049099572 0.03380751 -0.0692016
-0.07580158 -0.21752524 0.107687086 0.4685108 0.08292356 -0.23044878 -0.07531547 0.27314535
0.010277086 -0.07878611 -0.08181205 0.16104245 0.3205264 0.02834792 -0.07127446 -0.23425703
-0.03379383 0.14580865 0.15748161 0.030245418 0.12179991 0.04035379 -0.030508429 -0.0646807
-0.10812133 0.085948855 -0.066271015 -0.15541856 -0.23252939 -0.16480117 -0.05385402 0.39342445
0.44632876 -0.32617155 0.11119292 0.052989904 0.021323433 -0.27322966 -0.08766273 0.28733164
0.002784688 0.12170603 0.31196654 -0.0481952 -0.3697482 -0.5367037 -0.25804704 0.09250058
-0.2371652 0.022392565 -0.46531615 -0.06382258 -0.2720334 -0.010307983 -0.30364135 0.21697032
-0.29306096 0.057680055 -0.19709149 0.08063574 0.01904432 0.09456898 -0.050454058 -0.23095031
-0.064638846 0.1084077 0.14320466 -0.05207598 -0.15805463 -0.31656358 0.04468252 -0.04488625
0.31712854 0.15024762 0.08847163 0.27713448 -0.020917663 0.21951838 0.20380251 -0.48149058
00000000: 955c 81bc 5c25 ecbc 27b7 a73e 0431 353d
00000010: ddaf 953e 3ed0 3ebd 4cfd 1a3d 7f5e 1b3d
00000020: 4706 a0be ac90 b7be e3be bc3e 7d85 6e3e
00000030: cb97 1fbe 83b2 e0bd ebe2 f9bd 0380 c8bd
00000040: e541 573e 7a78 83be 8c5e ccbd ed40 f83c
00000050: d21a 96bd 0124 efbc c43b 85be 9e74 c5be
00000060: 30ee 64be 601c dfbc fd42 b63d 8a72 4d3e
00000070: d41b 543e 4a6b 6e3e 37b8 94bd 344e b6bc
00000080: 5099 763e b54a b23e e4b1 49bd 9c16 3e3e
00000090: 88ad 653d 80cf c73d 8510 853e 7d3c 92bd
000000a0: 04c1 953e 7e38 ffbd 2b2c 2cbe ca5e af3d
000000b0: 6d6f db3d ee22 333d 1b62 40bd fab7 64bd
000000c0: 9eb6 3ebe 48fd f23d 8d63 4dbe 2e0f 143e
000000d0: d927 1dbe 5b59 553f 856c 0a3e 6664 803e
000000e0: d99b 3e3d 6792 903e dd05 053d 93d1 c53c
000000f0: 3c29 6c3e 371a f4bc 69eb d53a edb6 9cbd
00000100: fae2 babd 4f8a 3cbe fc5d 06bc 8b7f 25be
00000110: 29ad 78bd a820 bfbe 6279 163e 1884 09bf
00000120: 2a74 50be a7f1 283e 0354 793d cc93 4fbf
00000130: a9fb 953e 16e8 333e 9bdc 8abd a922 303e
00000140: 0429 9ebc e5c6 c03c c545 453d 227c 233e
00000150: dcf2 afbe 50bd 833e 0542 c83e 2d1d c23d
00000160: 292a 783e 90e1 d93d f9bb 3abe 8262 0f3d
00000170: 2f3e 5dbd 5316 7dbe 4658 d03e b22f 793d
00000180: af9e 83be 4769 843e 0c77 983e 47e7 7e3e
00000190: b411 c8bd 45e8 cebe 9cf3 73bd f5c2 e03d
000001a0: 661a 263d 8180 82bd 0725 9bbe 3637 22be
000001b0: 6512 a63e aa1a 0b3e 3279 edbd 5d18 943d
000001c0: d49b df3d d6e4 c33e 57c5 3cbe e296 853e
000001d0: 3f4f 233e c6ab 463d b7b1 f6be 26ec d23c
000001e0: 9589 89be 8805 683d 5273 0b3e 09a6 85be
000001f0: 11b6 9d3c 4f21 053f f258 58be f0c2 47bc
00000200: 4647 af3e 3b08 553e 360e dfbd 3455 f93d
00000210: f95d 28be 3f14 5cbd 259d 5d3e 3547 ebbc
00000220: d6e7 37be 3cbd 613d a95e 953d 4909 19be
00000230: 8edf 963d dbab 4e3e 20b1 b93e 55ab 8bbd
00000240: c7c2 d73c 03be 5e3d 53f5 4c3e 1845 0dbc
00000250: 192f d1be 6798 41be 7074 963e 3f81 b2bd
00000260: 34b2 de3a 2570 39be 0f2a 193e 1a84 173e
00000270: c02c b2be ccaa ce3e a9b9 ccbe bc73 c83e
00000280: 7867 95bd 1cb8 14bd 342e 333e ad22 a1be
00000290: c3ed c33d 02ac e9bd 5fc1 4fbd 8f91 ef3d
000002a0: 57b4 c1bc b043 23bd 78c7 303e 4604 a5bb
000002b0: 124b b8be a21c 49bd be79 0a3d 92b9 8dbd
000002c0: dc3d 9bbd f0be 5ebe 0c8b dc3d a6e0 ef3e
000002d0: d4d3 a93d c4fa 6bbe ff3e 9abd b5d9 8b3e
000002e0: 3961 283c 9d5a a1bd 138d a7bd 50e8 243e
000002f0: 091c a43e e639 e83c 58f8 91bd 13e1 6fbe
00000300: 666b 0abd dd4e 153e dc42 213e 3dc5 f73c
00000310: 3b72 f93d 044a 253d d0ec f9bc 5177 84bd
00000320: b76e ddbd f405 b03d 19b9 87bd 0b26 1fbe
00000330: 2f1c 6ebe a3c1 28be 0896 5cbd ee6e c93e
00000340: 3485 e43e f5ff a6be 1db9 e33d f10b 593d
00000350: 7bae ae3c c2e4 8bbe 8488 b3bd 221d 933e
00000360: 507f 363b 0341 f93d 14ba 9f3e 5468 45bd
00000370: a34f bdbe 6a65 09bf be1e 84be f270 bd3d
00000380: 6fdb 72be 9d70 b73c eb3d eebe 6ab5 82bd
00000390: f647 8bbe d0e2 28bc e176 9bbe 782d 5e3e
000003a0: 160c 96be ec41 6c3d 5ad2 49be 5a24 a53d
000003b0: d502 9c3c 62ad c13d eaa8 4ebd 3d7e 6cbe
000003c0: 5f61 84bd db04 de3d 3ea4 123e 9f4d 55bd
000003d0: 13d9 21be 9f14 a2be 0505 373d a5da 37bd
000003e0: ac5e a23e 83da 193e 9d30 b53d 92e4 8d3e
000003f0: 855b abbc 6dc9 603e 9bb1 503e ef85 f6be

actor.preprocess.model.model.0.bias f4 [64]
-0.12550616 -0.14717382 0.2944094 -0.23779878 0.105478235 0.1180171 -0.110057026 -0.048581343
-0.10127552 -0.1905745 0.3147126 0.07803073 -0.003946269 -0.33504438 0.19033125 0.014916809
0.01689914 0.12380718 -0.2278431 -0.12566106 0.03163337 -0.08569592 -0.0237527 -0.0042640422
0.091833614 0.116731785 -0.040299963 0.16173813 -0.01850438 -0.13559775 0.034313556 0.0068275356
0.0059302915 -0.28044826 0.16908318 -0.025467655 -0.0028442624 0.3414642 -0.076109506 0.12760913
-0.093899325 0.061441787 -0.14130738 0.20839529 -0.0012199021 0.012959773 0.086275846 0.079593375
0.031866457 0.2121419 -0.054405384 0.06892285 -0.01711103 0.0337294 0.05603728 0.061127525
-0.032961622 -0.031023152 -0.15160827 -0.18600804 0.035832606 0.0005295314 -0.22713007 0.0039481954
00000000: b084 00be bcb4 16be d4bc 963e 8681 73be
00000010: f904 d83d f3b2 f13d 9465 e1bd 3bfd 46bd
00000020: 8a69 cfbd f625 43be 0322 a13e 93ce 9f3d
00000030: b44f 81bb f08a abbe 32e6 423e a265 743c
00000040: 1170 8a3c 9e8e fd3d b44f 69be 4bad 00be
00000050: fe91 013d 5881 afbd 0695 c2bc 61b9 8bbb
00000060: 4313 bc3d 1311 ef3d 9311 25bd ae9e 253e
00000070: 7f96 97bc 23da 0abe 5f8c 0c3d 85b9 df3b
00000080: e452 c23b ea96 8fbe 2424 2d3e 8ba1 d0bc
00000090: ce66 3abb 65d4 ae3e 4ddf 9bbd f8ab 023e
000000a0: 4a4e c0bd 62aa 7b3d e2b2 10be 9365 553e
000000b0: 1fe5 9fba 3a55 543c 64b1 b03d da01 a33d
000000c0: 6786 023d ba3b 593e 2ed8 5ebd 6c27 8d3d
000000d0: 6e2c 8cbc d727 0a3d 5987 653d db60 7a3d
000000e0: c402 07bd 4424 febc 333f 1bbe e478 3ebe
000000f0: 36c5 123d 40d0 0a3a c994 68be dd5f 813b

actor.preprocess.model.model.2.weight f4 [64, 64]
0.17842433 -0.1744729 0.17765483 -0.006331163 -0.044280656 -0.07930542 -0.13496485 0.15571316
0.24522802 0.23084009 -0.15765947 -0.0051043383 0.22477959 0.04960805 0.05911234 0.21550067
-0.29791367 0.020927139 0.42762464 0.14717071 0.48280933 0.070559904 -0.0042899675 -0.24185687
-0.30321404 -0.043863546 -0.22900216 0.110333435 0.33059064 -0.25225785 0.15094078 0.09367174
0.022781841 -0.1268475 0.31108013 0.37254652 0.23211378 -0.34148657 -0.14861894 -0.165808
-0.3109772 -0.06636426 0.1752537 0.062148057 -0.05019669 0.011441788 -0.1918953 0.041397937
-0.05299727 -0.009085643 -0.24542488 0.107975304 -0.28107518 -0.24246192 0.073785596 -0.22120203
-0.10109739 0.32114872 -0.24426827 0.17152323 0.154424 0.27025852 0.28994226 -0.15036339
-0.22655338 -0.16454537 -0.21389939 -0.1639526 -0.045866944 0.059493065 -0.15072402 -0.2466448
0.13465779 0.05607844 0.113150075 0.12936722 -0.193229 0.12979114 0.1781362 -0.18200055
0.09126109 0.25756955 0.07164511 -0.2123501 -0.051646065 -0.43264163 0.1125335 0.06301927
0.0016105493 0.03792481 0.53532064 0.14516142 0.5327893 0.021105563 0.42316508 0.05432657
0.17429692 0.0048840865 0.21661781 0.23267215 -0.114162095 0.1401158 -0.30032045 -0.14453085
-0.023671417 -0.13934973 -0.12880623 -0.15568691 -0.31493187 0.05870259 -0.10242224 0.058638208
0.29869437 -0.11626338 -0.08552907 -0.050651148 0.016810773 -0.012737235 -0.20956874 0.25542954
0.02659647 -0.3658857 -0.26078027 0.09889531 0.033808537 0.22729602 0.07177096 -0.07920643
-0.13382083 -0.0050659357 0.45481464 -0.08621283 0.13062415 0.016189277 0.21366966 0.104399115
-0.13835622 -0.0034984453 -0.12608427 -0.13664898 0.23934409 0.1318952 0.246817 0.4987677
-0.2924266 0.062245376 -0.010050421 -0.11478936 0.14333537 -0.3570358 0.17512877 -0.15865542
0.06637893 0.01815006 -0.020420501 0.10368442 -0.14174719 -0.13910072 0.17929259 -0.25355488
0.13405548 -0.029540611 -0.32515982 -0.1547711 0.09398067 0.2945293 -0.3456923 0.16322623
-0.47196758 0.16261941 -0.06724853 -0.06580488 0.14418955 0.17210123 0.028015297 -0.20548065
0.2574185 -0.0100209825 0.31755856 -0.04364842 -0.07497605 0.07764418 -0.118247434 -0.011467853
0.0043918346 0.2478684 -0.27069747 0.10734076 0.22542077 0.055282556 0.07788551 -0.045183178
0.020086527 0.20490721 -0.1341225 -0.046497986 -0.23813891 -0.0049489047 -0.045982536 0.02773219
0.14483105 -0.2453356 -0.14926374 -0.18026336 0.24124369 0.2071434 0.04398643 0.0755754
-0.10652 0.09765304 0.1271217 0.08561884 0.39774683 -0.10837564 0.41122577 0.26814547
-0.20959005 0.25747693 -0.06906528 -0.20098303 -0.1651579 0.06766243 0.111393176 0.54463315
-0.038807753 0.046909265 0.32067558 -0.077517405 0.17134167 -0.116272174 0.105854124 0.09313117
-0.14359541 -0.249881 -0.14663863 0.27479145 -0.05211935 -0.0049034995 0.1272177 0.040750284
-0.18310931 0.035145763 0.24644731 -0.12805963 0.27884746 0.29122797 0.37820315 -0.065818414
0.023099143 -0.04915509 0.23167436 -0.18154952 -0.13382524 0.10451223 0.155148 -0.0019830093
00000000: deb4 363e 06a9 32be 26eb 353e a575 cfbb
00000010: a25f 35bd e16a a2bd 3a34 0abe 4573 1f3e
00000020: 0e1d 7b3e 5861 6c3e 7c71 21be 4b42 a7bb
00000030: 9f2c 663e d031 4b3d c81f 723d 35ac 5c3e
00000040: 2488 98be 646f ab3c 9ef1 da3e ebb3 163e
00000050: c932 f73e b681 903d db92 8cbb 54a9 77be
00000060: df3e 9bbe 43aa 33bd 8b7f 6abe 7ff6 e13d
00000070: 2d43 a93e f127 81be 3890 1a3e f8d6 bf3d
00000080: fca0 ba3c 50e4 01be e545 9f3e 6bbe be3e
00000090: 3caf 6d3e 54d7 aebe 902f 18be 93c9 29be
000000a0: 6738 9fbe fce9 87bd b575 333e f68e 7e3d
000000b0: 0b9b 4dbd 5676 3b3c 3480 44be e290 293d
000000c0: aa13 59bd f3db 14bc a950 7bbe 2822 dd3d
000000d0: 16e9 8fbe f047 78be e71c 973d c982 62be
000000e0: 260c cfbd 9b6d a43e 7621 7abe c9a3 2f3e
000000f0: 5321 1e3e 535f 8a3e 5073 943e dcf8 19be
00000100: 9cfd 67be 957e 28be 7108 5bbe 31e3 27be
00000110: fade 3bbd 00af 733d 6657 1abe 7490 7cbe
00000120: bbe3 093e 82b2 653d 3abb e73d d778 043e
00000130: d3dd 45be f8e7 043e 5669 363e 5a5e 3abe
00000140: 18e7 ba3d 28e0 833e acba 923d 4e72 59be
00000150: d38a 53bd 3483 ddbe f777 e63d 3f10 813d
00000160: 1119 d33a 0c57 1b3d c60a 093f 32a5 143e
00000170: e164 083f 93e5 ac3c 18a9 d83e 8a85 5e3d
00000180: e47a 323e b00a a03b 0fd1 5d3e 9c41 6e3e
00000190: d1cd e9bd 847a 0f3e 9ac3 99be e5ff 13be
000001a0: 8fea c1bc b2b1 0ebe c8e5 03be 646c 1fbe
000001b0: c03e a1be 2172 703d c0c2 d1bd 9e2e 703d
000001c0: 78ee 983e 7f1b eebd dd29 afbd 9477 4fbd
000001d0: bfb6 893c d6af 50bc 3099 56be a9c7 823e
000001e0: d7e0 d93c 5f55 bbbe fe84 85be a089 ca3d
000001f0: d27a 0a3d 4ac0 683e a7fc 923d fb36 a2bd
00000200: 5408 09be 2600 a6bb 77dd e83e 5a90 b0bd
00000210: 56c2 053e 609f 843c 38cc 5a3e 34cf d53d
00000220: 41ad 0dbe 2c46 65bb 3c1c 01be b6ed 0bbe
00000230: 9e16 753e 890f 073e 98bd 7c3e 7b5e ff3e
00000240: f0b8 95be 02f5 7e3d 85aa 24bc af16 ebbd
00000250: 82c6 123e 65cd b6be f554 333e 9176 22be
00000260: adf1 873d 6faf 943c e548 a7bc 7f58 d43d
00000270: 2d26 11be 6b70 0ebe 7a98 373e f2d1 81be
00000280: d745 093e 27ff f1bc 597b a6be 517c 1ebe
00000290: f078 c03d 8bcc 963e 95fe b0be c724 273e
000002a0: bca5 f1be b485 263e 99b9 89bd b5c4 86bd
000002b0: 6da6 133e 4e3b 303e 5680 e53c 8569 52be
000002c0: 5ccc 833e 0c2f 24bc 0997 a23e b0c8 32bd
000002d0: 0b8d 99bd e903 9f3d b62b f2bd a9e3 3bbc
000002e0: 61e9 8f3b 37d1 7d3e dc98 8abe 79d5 db3d
000002f0: b4d4 663e f66f 623d 7082 9f3d ff11 39bd
00000300: 808c a43c 32d3 513e 6957 09be ac74 3ebd
00000310: b0da 73be 6c2a a2bb 2f58 3cbd 9e2e e33c
00000320: 974e 143e 4139 7bbe 98d8 18be f596 38be
00000330: 9608 773e 661d 543e 1d2b 343d 46c7 9a3d
00000340: 2827 dabd 51fe c73d 312c 023e ee58 af3d
00000350: 79a5 cb3e 0cf4 ddbd 2f8c d23e 5d4a 893e
00000360: c69e 56be 04d4 833e 1972 8dbd 7fce 4dbe
00000370: 271f 29be 9a92 8a3d 1b22 e43d 146d 0b3f
00000380: e1f4 1ebd ee23 403d 972f a43e 72c1 9ebd
00000390: 3174 2f3e 1b20 eebd 0cca d83d 8ebb be3d
000003a0: ad0a 13be cee0 7fbe 7028 16be 77b1 8c3e
000003b0: 197b 55bd 89ad a0bb 5b45 023e c5e9 263d
000003c0: 0281 3bbe 01f5 0f3d af5c 7c3e 1022 03be
000003d0: 18c5 8e3e d51b 953e d8a3 c13e cecb 86bd
000003e0: 6a3a bd3c d956 49bd 0b3c 6d3e 1ee8 39be
000003f0: 7c09 09be 820a d63d 1edf 1e3e 60f5 01bb

actor.preprocess.model.model.2.bias f4 [64]
-0.11461327 0.07025562 0.085075915 0.010123232 -0.04468418 -0.040494774 0.21193592 0.14730264
-0.036753498 0.049825814 0.07958225 0.016456338 -0.0881903 0.045204595 -0.057304908 0.046793193
-0.062815204 -0.0719257 -0.04447902 -0.10674124 0.07264257 0.1826166 -0.12790033 -0.061396547
-0.10967998 -0.02409699 0.053968783 -0.055445492 -0.09211582 -0.0052684876 -0.048663042 0.04153692
0.0303087 -0.045324996 -0.030063339 -0.0057870806 -0.06403011 0.07236008 -0.073321804 -0.086974286
0.059425842 -0.05730373 -0.12270261 0.01656679 -0.065534934 -0.027234344 -0.036801726 0.024408257
-0.025946938 0.09044565 0.044766013 -0.021854341 -0.09099476 -0.24727157 0.031205732 -0.12393186
0.06356373 -0.0051645874 0.042042248 -0.072525054 -0.03427995 0.054307014 0.030124346 0.20980926
00000000: 5dba eabd 2ee2 8f3d 483c ae3d eadb 253c
00000010: c206 37bd d9dd 25bd bb05 593e 81d6 163e
00000020: d68a 16bd 2716 4c3d 05fc a23d 71cf 863c
00000030: 1e9d b4bd 7428 393d 8db8 6abd 38aa 3f3d
00000040: 42a5 80bd c84d 93bd a22f 36bd 279b dabd
00000050: a1c5 943d d9ff 3a3e 4ef8 02be f27a 7bbd
00000060: e69f e0bd 0d67 c5bc 5f0e 5d3d d01a 63bd
00000070: 38a7 bcbd 47a3 acbb e652 47bd 9e22 2a3d
00000080: f349 f83c b4a6 39bd 6447 f6bc 8da1 bdbb
00000090: 3822 83bd 8631 943d be29 96bd 931f b2bd
000000a0: 8368 733d 51b7 6abd 824b fbbd 14b7 873c
000000b0: 2e37 86bd 8f1a dfbc 68bd 16bd d3f3 c73c
000000c0: ac8e d4bc 923b b93d 915c 373d e007 b3bc
000000d0: 765b babd c234 7dbe 2aa3 ff3c fdcf fdbd
000000e0: b32d 823d b33b a9bb 7e34 2c3d 0488 94bd
000000f0: 2269 0cbd 0871 5e3d 55c7 f63c 3dd8 563e

actor.mu.model.0.weight f4 [6, 64]
0.07280913 0.15740082 0.07572329 0.022259312 0.15705474 -0.19215523 -0.08249468 -0.5232234
0.021688282 0.04270342 -0.0069766645 -0.12302579 -0.0731204 -0.040512446 0.33803052 -0.23018289
-0.10420999 0.057015184 0.01289835 0.1689736 0.030738316 -0.0115977395 -0.11106935 -0.5143801
0.4127336 0.19613312 -0.09841874 -0.05538564 0.10075786 0.06918951 -0.059247795 0.289955
-0.14775279 -0.14941895 0.16444638 -0.17931023 0.044781413 -0.031894147 0.06365522 -0.047800817
-0.13599654 0.15790454 0.12449325 -0.41049156 -0.0986091 -0.04857229 0.060775217 -0.16326971
-0.053520072 -0.13409261 0.10689448 -0.15434204 0.07635551 0.15058096 0.2872409 0.116055265
-0.011473922 0.2734817 -0.021084003 0.059155658 -0.20752645 0.10376023 -0.1631033 -0.1397067
0.45460966 0.22159813 -0.1483527 -0.16676143 0.13713221 -0.25285318 0.27785462 -0.006442967
0.18323588 -0.4283054 -0.0276859 0.15435989 0.0027404292 0.31073654 0.12301171 -0.04852578
-0.07139484 -0.13920589 0.1813398 0.14732301 -0.0048294268 0.35790282 -0.44905958 -0.11203049
0.017121837 0.33520648 -0.1591897 0.17346519 -0.17678103 -0.16916658 -0.20400101 0.15515977
0.019631997 -0.039134916 -0.06880484 -0.14980747 0.1015646 0.17865005 -0.054750625 -0.1299592
-0.25366575 0.19351488 -0.16397974 0.119316466 0.23282525 0.11160105 0.036226902 -0.00809533
-0.12511194 -0.13397536 0.124531746 0.06541867 0.05531934 0.13749859 0.3457613 -0.00015375216
-0.026982212 0.13841878 0.03690144 -0.14150308 -0.27351612 0.103006564 -0.024768872 0.11342932
0.19155131 -0.30839506 -0.34003258 -0.5294368 0.042983856 -0.07220737 -0.41008645 -0.017907325
0.1091882 0.1681853 -0.13515848 -0.015746823 0.3633938 0.3423336 -0.3791199 -0.21665975
-0.16766478 -0.35885426 0.23060408 0.15697059 -0.031058421 -0.16762462 -0.23236173 0.09383305
-0.040464632 0.099374704 -0.005763211 -0.2113234 0.14007974 -0.097099595 -0.088770956 0.030717192
0.09389109 -0.092854895 -0.5577924 0.052024707 0.047716577 0.034755453 0.11309183 0.18892387
0.26184586 0.17962293 0.022986833 -0.06861386 0.16291179 0.027819153 -0.3264243 0.30194852
0.0571591 -0.10358664 -0.020758279 0.114016585 0.237439 0.43506262 0.06049978 -0.17406313
0.029602334 -0.15090606 0.013661279 0.056296438 -0.23111606 0.047060248 -0.1659183 -0.236109
-0.076354064 -0.17586091 0.17644691 -0.014657759 -0.15426803 0.19167358 0.08075797 0.32390526
-0.45621848 -0.1989083 0.36064225 0.22776908 -0.32576522 0.0781261 -0.052500486 0.12264015
-0.19590199 -0.031652883 0.13268857 -0.29565802 0.075546265 0.039433762 0.09802443 -0.08980531
-0.25554597 0.04346534 -0.22088042 -0.004016752 0.051815763 -0.0169103 0.06950263 -0.14975198
-0.062672846 0.08995367 -0.12820666 0.3622928 -0.057562787 -0.0004027041 -0.16794086 -0.005195463
0.120941974 -0.2652551 0.055405147 -0.009933742 -0.27697867 -0.1491715 -0.106262185 0.04841423
0.037754085 -0.19933279 0.1300501 0.121150985 -0.028496183 -0.16317262 -0.110828176 -0.054466452
-0.09485308 0.0551791 0.095210716 -0.11637655 0.32104194 0.08195227 0.017120285 -0.11906852
00000000: f41c 953d ae2d 213e d014 9b3d 2959 b63c
00000010: f5d2 203e 57c4 44be f9f2 a8bd f8f1 05bf
00000020: a0ab b13c c8e9 2e3d 819c e4bb f2f4 fbbd
00000030: 26c0 95bd 61f0 25bd 5612 ad3e 10b5 6bbe
00000040: 0c6c d5bd c188 693d 9a53 533c 6a07 2d3e
00000050: ecce fb3c 7204 3ebc 5478 e3bd 6aae 03bf
00000060: d251 d33e 1fd7 483e c48f c9bd 0edc 62bd
00000070: 235a ce3d 3bb3 8d3d d1ad 72bd fb74 943e
00000080: 824c 17be 4801 19be a264 283e 1a9d 37be
00000090: b76c 373d 70a3 02bd ab5d 823d caca 43bd
000000a0: ad42 0bbe bab1 213e 51f6 fe3d f32b d2be
000000b0: 91f3 c9bd bdf3 46bd 6fef 783d 2d30 27be
000000c0: dd37 5bbd 934f 09be 7eeb da3d d70b 1ebe
000000d0: 4760 9c3d e531 1a3e 3d11 933e 62ae ed3d
000000e0: 1efd 3bbc cb05 8c3e 5cb8 acbc 344d 723d
000000f0: d081 54be 3e80 d43d 8d04 27be 460f 0fbe
00000100: 99c2 e83e 9fea 623e c5e9 17be 82c3 2abe
00000110: 636c 0c3e f975 81be f642 8e3e 861f d3bb
00000120: 30a2 3b3e d84a dbbe 8acd e2bc 8510 1e3e
00000130: c698 333b dc18 9f3e 90ed fb3d f8c2 46bd
00000140: 7537 92bd fd8b 0ebe 24b1 393e d8db 163e
00000150: 2b40 9ebb 0a3f b73e 23eb e5be 3e70 e5bd
00000160: 1843 8c3c 2fa0 ab3e a002 23be dca0 313e
00000170: 1606 35be 013a 2dbe a4e5 50be 34e2 1e3e
00000180: 48d3 a03c ef4b 20bd 8de9 8cbd 2167 19be
00000190: 1a01 d03d 0af0 363e 3142 60bd 0614 05be
000001a0: 7ae0 81be c428 463e 4eea 27be 315c f43d
000001b0: be69 6e3e 178f e43d a962 143d 46a2 04bc
000001c0: 581d 00be d630 09be 800a ff3d 39fa 853d
000001d0: 8896 623d 6ecc 0c3e a007 b13e 8838 21b9
000001e0: cd09 ddbc a7bd 0d3e f725 173d 2fe6 10be
000001f0: 4e0a 8cbe 1bf5 d23d 17e8 cabc a24d e83d
00000200: 0726 443e f5e5 9dbe c018 aebe 2c89 07bf
00000210: d70f 303d 75e1 93bd daf6 d1be 62b2 92bc
00000220: 109e df3d c438 2c3e fc66 0abe 7bff 80bc
00000230: c10e ba3e 5a46 af3e 011c c2be 0edc 5dbe
00000240: 51b0 2bbe bfbb b7be 7a23 6c3e e6bc 203e
00000250: 3b6e febc caa5 2bbe 3cf0 6dbe 8b2b c03d
00000260: 3ebe 25bd f784 cb3d 51d9 bcbb 2965 58be
00000270: 1071 0f3e 27dc c6bd 8ccd b5bd 9fa2 fb3c
00000280: f949 c03d b52a bebd 7ccb 0ebf dc17 553d
00000290: 7572 433d bc5b 0e3d b09c e73d 4275 413e
000002a0: a910 863e 13ef 373e e24e bc3c 6c85 8cbd
000002b0: 59d2 263e fee4 e33c 1621 a7be ff98 9a3e
000002c0: a91f 6a3d 3b25 d4bd 440d aabc 8781 e93d
000002d0: 3623 733e 87c0 de3e 9ece 773d 9b3d 32be
000002e0: 9880 f23c 1e87 1abe 8fd3 5f3c 1897 663d
000002f0: b0a9 6cbe 3fc2 403d 7de6 29be 8fc6 71be
00000300: 855f 9cbd e214 34be 80ae 343e 1927 70bc
00000310: 70f8 1dbe 1446 443e 6f64 a53d e9d6 a53e
00000320: 7895 e9be 9eae 4bbe 1aa6 b83e 4c3c 693e
00000330: b3ca a6be 9400 a03d c00a 57bd c22a fb3d
00000340: 889a 48be 74a6 01bd 83df 073e 7d60 97be
00000350: 00b8 9a3d 4c85 213d 08c1 c83d d9eb b7bd
00000360: ecd6 82be b608 323d 7a2e 62be f59e 83bb
00000370: c43c 543d 7887 8abc 6557 8e3d 9558 19be
00000380: 9f5a 80bd a139 b83d 9b48 03be 717e b93e
00000390: f5c6 6bbd 0822 d3b9 b0f8 2bbe b43e aabb
000003a0: 6db0 f73d 84cf 87be 82f0 623d 22c1 22bc
000003b0: 26d0 8dbe 6ac0 18be fd9f d9bd 004e 463d
000003c0: 07a4 1a3d e51d 4cbe da2b 053e 021e f83d
000003d0: d470 e9bc b916 27be e2f9 e2bd 3718 5fbd
000003e0: 5542 c2bd 7b03 623d d6fd c23d d456 eebd
000003f0: 9c5f a43e 97d6 a73d d73f 8c3c 32da f3bd

actor.mu.model.0.bias f4 [6]
0.55761266 0.5254501 0.0253728 0.41542962 0.4915216 0.123666674
00000000: b4bf 0e3f e683 063f 9eda cf3c 31b3 d43e
00000010: b8a8 fb3e f444 fd3d

critic.preprocess.model.model.0.weight f4 [64, 17]
-0.2512943 -0.38068885 -0.03867207 -0.39257026 0.023777928 0.068399735 0.09600657 -0.10187773
-0.17669031 -0.4644545 -0.551791 0.43764478 0.20558491 -0.093819514 0.05887145 0.056703236
-0.36694598 0.99779475 0.64979756 0.0037755205 0.10510451 0.07607885 -0.2900781 -0.5481561
0.27528313 -0.22785108 -0.20248795 0.37013656 -0.0012619533 -0.09270802 0.058619328 -0.24223882
-0.5454165 -0.0666818 0.4966828 0.27416065 0.18230999 0.42411178 -0.14744484 -0.025276456
-0.11386598 -0.4901208 -0.08348236 1.1250838 0.4470468 -0.10585255 0.20363635 0.0064243576
-0.10287613 0.5233785 -0.18503939 -0.40289226 0.009304352 0.9392591 0.13897812 0.23932686
-0.10726955 0.18799502 -0.4132457 0.4019826 -0.403917 -0.8332704 0.75569963 0.24296996
0.06380265 -0.01517526 -0.15887065 0.23900895 0.010243275 -0.6381946 0.48739588 -0.21732783
0.40599412 0.1818667 1.07572 0.6001754 -0.55844325 0.3033417 0.20550221 0.06572777
0.02889949 0.004408117 -0.11599025 -0.13522202 -0.18598692 -0.3982789 -0.042849008 -0.018412754
-0.2947813 -0.157143 -0.046942227 0.017910844 -0.1285976 0.7039874 -0.15750319 0.08998559
-0.31643718 -0.060985465 0.1447196 0.039595064 0.095886916 0.10318191 0.2528597 0.08246942
-0.024641918 -0.013410251 0.20220608 0.016146047 0.12110904 -0.19531064 0.15032303 0.58310986
-1.1187199 -0.11619577 0.06978605 0.13906682 0.9333086 0.14972906 -0.27453578 -0.055879902
-0.75383425 0.8897407 0.37146074 -0.42178532 -0.21056007 -0.44037884 0.12355137 0.16993609
0.10577195 0.35345176 0.3271356 0.33283684 -0.0723727 -0.3367174 -0.5597163 -0.0768821
-0.45936018 0.21574327 -0.102982774 -0.2691367 0.09165375 -0.030288072 0.09747471 -0.5784393
-0.16284527 -0.07745789 0.052174732 -0.10933106 -0.09572448 -0.05161494 0.026178023 0.13496011
0.016724177 0.24795583 -0.39988005 0.11695923 -0.2687529 0.04285236 0.045351572 0.31645137
0.050911404 -0.7522658 0.437696 0.1256158 -0.16105357 -0.0020614292 0.0037666513 0.13923417
-0.044273898 -0.2031547 -0.536158 0.12664871 -0.12127425 -0.11956524 0.7448652 -0.05646673
-0.037579916 0.08193604 -0.13660678 -0.19555739 -0.24981733 0.5831985 0.4215598 0.19543628
-0.23494412 -0.45435566 -0.20076808 1.0679277 0.1585976 -0.23516694 -0.32645592 -0.23547842
-0.03681853 0.782837 0.54962283 -0.5807613 -0.028811295 0.019784138 0.11715581 0.1353609
-0.01264063 -0.056875475 0.050313264 -0.2381579 -0.25132227 -0.47711188 0.38573617 -0.01850817
0.087243766 0.15258266 0.64469457 -0.16952558 -0.09384102 -0.8175993 -0.271161 0.36217177
-0.18488452 0.043538142 -0.119988404 0.24065205 0.11716494 -1.2941291 -0.6335371 -0.5381687
0.28100687 -0.26821423 0.329349 0.20342319 0.59163046 0.013477108 0.09580319 0.5915246
-0.3820294 0.19547683 -0.11173819 -0.19171797 -0.3986516 0.21774596 0.80374354 0.11209349
-0.10898026 -0.48958492 -0.1646978 -0.11733546 -0.31440297 -0.5192852 0.010969608 -0.1911514
0.39594933 0.053754073 -0.16491504 -0.22203477 -0.5293894 -0.3394192 0.15752001 0.5525031
00000000: a6a9 80be a6e9 c2be 9b66 1ebd f8fe c8be
00000010: eec9 c23c 2915 8c3d 189f c43d 45a5 d0bd
00000020: 4eee 34be fbcc edbe 2d42 0dbf fa12 e03e
00000030: da84 523e 7224 c0bd 3123 713d a741 683d
00000040: 58e0 bbbe 7a6f 7f3f 2259 263f b96e 773b
00000050: 0941 d73d 3acf 9b3d 1e85 94be f553 0cbf
00000060: e9f1 8c3e cb51 69be 0059 4fbe 8a82 bd3e
00000070: 2068 a5ba b4dd bdbd d21a 703d 740d 78be
00000080: 6aa0 0bbf 7890 88bd 354d fe3e c95e 8c3e
00000090: 78af 3a3e 2e25 d93e c8fb 16be 9210 cfbc
000000a0: 9132 e9bd 1df1 fabe cdf8 aabd bf02 903f
000000b0: 51e3 e43e 39c9 d8bd 0c86 503e 6b83 d23b
000000c0: b8b0 d2bd 22fc 053f f77a 3dbe e547 cebe
000000d0: 4871 183c 4973 703f 4850 0e3e 1a12 753e
000000e0: 23b0 dbbd c481 403e f194 d3be aad0 cd3e
000000f0: 36ce cebe 3551 55bf 8875 413f 1ecd 783e
00000100: f7aa 823d a7a1 78bc fdae 22be c3be 743e
00000110: 69d3 273c b960 23bf f48b f93e 308b 5ebe
00000120: 76de cf3e 443b 3a3e 31b1 893f 18a5 193f
00000130: 23f6 0ebf 9a4f 9b3e 2c6f 523e 489c 863d
00000140: a0be ec3c f771 903b 4c8c edbd a477 0abe
00000150: 5b73 3ebe 36eb cbbe 7182 2fbd 58d6 96bc
00000160: 93ed 96be 18ea 20be 7e46 40bd c3b9 923c
00000170: 17af 03be 8538 343f 8448 21be 5d4a b83d
00000180: 0e04 a2be e5cb 79bd 6031 143e 6f2e 223d
00000190: 5c60 c43d 0a51 d33d d476 813e bae5 a83d
000001a0: d9dd c9bc abb6 5bbc 1c0f 4f3e b744 843c
000001b0: 0408 f83d 83ff 47be 48ee 193e b046 153f
000001c0: 3732 8fbf 0cf8 edbd fdeb 8e3d 8867 0e3e
000001d0: 50ed 6e3f 9352 193e f48f 8cbe 53e2 64bd
000001e0: 48fb 40bf 0cc6 633f 1a30 be3e 3ff4 d7be
000001f0: 0f9d 57be 5679 e1be 8008 fd3d ba03 2e3e
00000200: f79e d83d a1f7 b43e 517e a73e 9769 aa3e
00000210: 2338 94bd 3966 acbe 9149 0fbf 5d74 9dbd
00000220: 4231 ebbe ceeb 5c3e a2e8 d2bd 49cc 89be
00000230: f6b4 bb3d b11e f8bc d2a0 c73d 9914 14bf
00000240: e9c0 26be 3ea2 9ebd 2cb5 553d f6e8 dfbd
00000250: 320b c4bd 306a 53bd 4b73 d63c fc32 0a3e
00000260: 2401 893c 22e8 7d3e 14bd ccbe 5288 ef3d
00000270: fb99 89be f585 2f3d 92c2 393d ea05 a23e
00000280: 7a88 503d 7e94 40bf b119 e03e 6ea1 003e
00000290: 3aeb 24be 0b19 07bb ecd9 763b 6793 0e3e
000002a0: 8c58 35bd c907 50be a741 09bf 33b0 013e
000002b0: a25e f8bd 9fde f4bd 7caf 3e3f a849 67bd
000002c0: 66ed 19bd 15ce a73d a6e2 0bbe 3240 48be
000002d0: 1dd0 7fbe 7f4c 153f b0d6 d73e 7320 483e
000002e0: 3195 70be 4ea1 e8be 2696 4dbe dbb1 883f
000002f0: 6967 223e 9acf 70be 3b25 a7be 4121 71be
00000300: 07cf 16bd 0168 483f 15b4 0c3f c6ac 14bf
00000310: aa05 ecbc 5812 a23c 63ef ef3d 0c9c 0a3e
00000320: a51a 4fbc 42f6 68bd 4815 4e3d aadf 73be
00000330: 50ad 80be 0248 f4be 367f c53e 729e 97bc
00000340: dcac b23d a13e 1c3e b40a 253f 1d98 2dbe
00000350: b82f c0bd 304e 51bf 9dd5 8abe 946e b93e
00000360: 5e52 3dbe 0d55 323d 7bbc f5bd 7e6d 763e
00000370: 2cf4 ef3d 06a6 a5bf 7d2f 22bf 6dc5 09bf
00000380: 22e0 8f3e 6053 89be 6fa0 a83e 2b4e 503e
00000390: 1875 173f 17cf 5c3c 7634 c43d 286e 173f
000003a0: 5c99 c3be 142b 483e fed6 e4bd b751 44be
000003b0: 101c ccbe ccf8 5e3e 23c2 4d3f 4691 e53d
000003c0: 0b31 dfbd e0aa fabe 8aa6 28be 934d f0bd
000003d0: 6df9 a0be e0ef 04bf dfb9 333c 31bd 43be
000003e0: dfb9 ca3e 3b2d 5c3d 7ddf 28be 155d 63be
000003f0: 1086 07bf 5ac8 adbe ed4c 213e d870 0d3f

critic.preprocess.model.model.0.bias f4 [64]
0.23665848 0.10372499 0.73662215 -0.7270897 0.82759684 -0.6112601 -0.39180404 -0.75169206
-0.7906213 0.608888 0.37830472 -0.4786757 0.6937336 0.048944563 0.5209924 0.39089993
0.6348887 0.49261913 0.381664 0.5684305 0.08019184 -0.63660496 -0.2764108 0.7854746
-0.27578044 -0.96193236 0.6814012 -0.011733792 0.63577193 0.75216395 0.24849945 0.004996529
-0.63529485 0.49832934 -0.47932464 0.59136695 0.57193094 -0.5493088 -0.3582865 0.6124842
1.1216934 0.6586277 -0.05459765 0.61284065 -0.007215962 0.34307107 -0.54988676 0.5650928
0.3346712 -0.36139914 -0.51124024 -0.87668306 -0.23110388 -0.5010132 -0.6750337 0.5434893
0.48359525 -0.116125986 -0.48091805 0.31074408 0.7235042 -0.85614336 0.019665468 -0.21417297
00000000: 9a56 723e c46d d43d 4593 3c3f 8d22 3abf
00000010: 63dd 533f 8b7b 1cbf 8a9a c8be e46e 40bf
00000020: 2866 4abf 15e0 1b3f 28b1 c13e fb14 f5be
00000030: 8698 313f 187a 483d c25f 053f 0924 c83e
00000040: 1188 223f 9338 fc3e 7769 c33e a984 113f
00000050: 9f3b a43d 8bf8 22bf b785 8dbe dd14 493f
00000060: 1833 8dbe 3341 76bf 4f70 2e3f 173f 40bc
00000070: f3c1 223f d18d 403f a476 7e3e ecb9 a33b
00000080: afa2 22bf 0625 ff3e 0a6a f5be d363 173f
00000090: 116a 123f 809f 0cbf 5471 b7be c4cb 1c3f
000000a0: a693 8f3f d39b 283f c9a1 5fbd 20e3 1c3f
000000b0: e073 ecbb 03a7 af3e 61c5 0cbf eca9 103f
000000c0: 065a ab3e 4f09 b9be a4e0 02bf 4d6e 60bf
000000d0: 7fa6 6cbe 6742 00bf 02cf 2cbf 1d22 0b3f
000000e0: cc99 f73e 76d3 edbd e43a f6be d919 9f3e
000000f0: 9237 393f 362c 5bbf 7a19 a13c 2950 5bbe

critic.preprocess.model.model.2.weight f4 [64, 64]
-0.30173647 -0.02255067 -0.08426558 0.13045266 -0.1177167 0.7462454 -0.21008681 0.17177363
-0.399619 -0.15069127 -0.36476588 0.10428052 0.022542201 0.16318814 0.011878387 -0.055003166
0.03581454 0.12225196 -0.059548978 0.055887535 0.13479845 -0.010046265 -0.07505481 -0.36712268
-0.5471565 0.44064578 -0.046853807 0.15139271 0.08605276 0.10545771 0.5918609 -0.3048268
0.1026047 0.12145894 -0.10570039 -0.25286746 -0.38785383 -0.04454674 0.1633875 -0.02389781
-0.31929716 0.18169753 0.15322478 -0.082969 -0.16622631 0.18443334 0.082819164 0.14787087
-0.024916455 0.04848844 0.02061553 0.645039 0.6508893 0.057032138 0.17376423 0.382215
0.3569301 -0.121612564 -0.027988743 0.1361323 -0.06352045 0.5054572 0.23133506 -0.0040295427
-0.16516383 0.6877249 0.051937617 0.07970443 -0.13626967 0.19452964 -0.14164402 -0.12593381
-0.056490052 -0.23456004 0.22490332 -0.5050319 0.33544973 -0.26806936 -0.35241547 0.15986851
-0.35538423 0.11753775 0.059994947 0.3431201 0.12658776 -0.3113641 -0.14886531 -0.35136372
-0.41639352 0.13413009 -0.35546976 0.43777445 0.1995635 0.4042552 -0.06477628 0.081992544
0.064718805 0.37173566 -0.27804795 -0.04096042 0.009513501 -0.14912578 -0.056242947 -0.03581988
-0.18048579 -0.01978414 -0.110404484 0.06627098 -0.32225025 0.45994118 0.3466261 0.050155308
0.1277415 -0.2929073 -0.24562134 -0.0045665796 -0.2600216 -0.019669464 -0.9694792 0.107758
0.1272378 -0.1738198 -0.089793324 -0.13823888 0.3403952 -0.19538388 -0.13522121 0.3221734
0.335011 -0.122884154 -0.28922743 0.056444857 -0.6848116 0.4370317 -0.29171792 0.22851573
0.87371963 -0.4213079 0.17328145 0.23833153 -0.46674034 -0.16547547 -0.021151286 0.04645598
-0.14153107 -0.2018849 0.07351453 -0.27620393 0.11595088 0.57177293 0.52190965 -0.1486561
0.07134608 0.23466447 0.22372094 -0.120660834 -0.32357046 -0.57684076 -0.44388935 -0.08725227
-0.31432295 -0.1839594 0.120605566 0.043015298 -0.39394036 -0.61228955 0.11550559 -0.2524746
-0.27551338 -0.26439822 0.09665672 -0.1984049 0.22070214 0.25716606 0.29954702 -0.23605251
-0.047893137 -0.15180431 0.6128215 0.31468323 0.3001619 0.2669686 0.27160054 -0.12736312
-0.6415757 -0.49652824 0.3991943 -0.4698727 -0.1754423 0.4501291 0.0572284 -0.2514974
0.26330674 -0.0534691 0.63605136 -0.3537536 0.9287892 -0.48229313 0.32876307 -0.21738389
-0.3392597 0.8637592 0.21686931 0.0643264 0.60752845 0.20030625 0.080656625 0.055679366
0.20588082 0.030538118 0.50132465 0.5062813 0.49360132 -0.2699417 -0.07276619 0.6841218
0.36610034 -0.68165094 -0.035133727 -0.46790704 0.44018772 -0.14254208 0.044146862 0.64750105
-0.5497535 0.032967027 -0.24503031 0.23439413 0.53130645 0.077931896 -0.3191646 -0.12767033
0.63224274 0.102922834 -0.008877911 0.4190741 0.58828956 0.15120162 -0.30804425 -0.39601725
0.26510623 0.49814984 -0.17524777 -0.7459182 -0.52282566 -0.12404123 -0.5703236 0.13022423
-0.2269299 -0.09375353 -0.48459035 0.17876934 -0.14368668 -0.94884527 0.16363508 -0.21769537
00000000: 347d 9abe 2fbc b8bc 6f93 acbd 6295 053e
00000010: 7415 f1bd f009 3f3f ff20 57be 6de5 2f3e
00000020: dd9a ccbe d04e 1abe 98c2 babe 0691 d53d
00000030: 6caa b83c cb1a 273e 919d 423c 004b 61bd
00000040: 44b2 123d 3c5f fa3d a1e9 73bd 54ea 643d
00000050: 9b08 0a3e 1799 24bc 56b6 99bd 81f7 bbbe
00000060: 7312 0cbf 539c e13e c7e9 3fbd b106 1b3e
00000070: 6e3c b03d 36fa d73d 3284 173f 4212 9cbe
00000080: 6a22 d23d 77bf f83d 7279 d8bd d877 81be
00000090: c794 c6be a476 36bd 0e4f 273e 57c5 c3bc
000000a0: eb7a a3be eb0e 3a3e f5e6 1c3e a7eb a9bd
000000b0: 3b37 2abe 18dc 3c3e 189d a93d 766b 173e
000000c0: 981d ccbc d19b 463d e6e1 a83c 4721 253f
000000d0: aea0 263f 889a 693d 40ef 313e afb1 c33e
000000e0: 8bbf b63e 0210 f9bd a648 e5bc 4466 0b3e
000000f0: 0217 82bd a565 013f 19e3 6c3e 410a 84bb
00000100: b520 29be bd0e 303f 8abc 543d 143c a33d
00000110: 478a 0bbe c732 473e 210b 11be cbf4 00be
00000120: 1d62 67bd 8230 70be 0e4d 663e c549 01bf
00000130: 11c0 ab3e 6340 89be cd6f b4be 92b4 233e
00000140: ecf4 b5be a2b7 f03d 43bd 753d 70ad af3e
00000150: 39a0 013e 1e6b 9fbe 2670 18be f2e5 b3be
00000160: 8831 d5be 6659 093e 2200 b6be f923 e03e
00000170: 605a 4c3e 8afa ce3e 6da9 84bd b5eb a73d
00000180: 4b8b 843d 2354 be3e 4d5c 8ebe 1dc6 27bd
00000190: 84de 1b3c 6eb4 18be 015f 66bd deb7 12bd
000001a0: 44d1 38be 5912 a2bc bf1b e2bd 14b9 873d
000001b0: fcfd a4be 697d eb3e fa78 b13e a76f 4d3d
000001c0: abce 023e f2f7 95be 2984 7bbe 3fa3 95bb
000001d0: 8d21 85be db21 a1bc ca2f 78bf 3ab0 dc3d
000001e0: a04a 023e d1fd 31be 90e5 b7bd 7e8e 0dbe
000001f0: 4848 ae3e b612 48be 6e77 0abe e9f3 a43e
00000200: 9086 ab3e b0aa fbbd 9e15 94be b932 673d
00000210: d04f 2fbf 9ec2 df3e 0d5c 95be 0700 6a3e
00000220: 17ac 5f3f abb5 d7be b170 313e 2e0d 743e
00000230: 97f8 eebe 6772 29be 7645 adbc a048 3e3d
00000240: 85ed 10be eaba 4ebe c98e 963d 9a6a 8dbe
00000250: a877 ed3d b65f 123f df9b 053f 4e39 18be
00000260: e51d 923d e24b 703e 1a17 653e 071d f7bd
00000270: 07ab a5be d6ab 13bf 7745 e3be 51b1 b2bd
00000280: f0ee a0be da5f 3cbe 0d00 f73d cf30 303d
00000290: 8db2 c9be 02bf 1cbf 328e ec3d 5a44 81be
000002a0: 1710 8dbe 345f 87be f5f3 c53d a72a 4bbe
000002b0: beff 613e 45ab 833e 3a5e 993e c0b7 71be
000002c0: 982b 44bd 9772 1bbe dfe1 1c3f 291e a13e
000002d0: d2ae 993e 1cb0 883e 3a0f 8b3e 7a6b 02be
000002e0: 4e3e 24bf f338 febe 3263 cc3e 2893 f0be
000002f0: 25a7 33be 5277 e63e 5468 6a3d 44c4 80be
00000300: 24d0 863e 6a02 5bbd 43d4 223f 311f b5be
00000310: 21c5 6d3f 20ef f6be a253 a83e e299 5ebe
00000320: 73b3 adbe 531f 5d3f fd12 5e3e 8fbd 833d
00000330: fc86 1b3f 151d 4d3e 4d2f a53d 0c10 643d
00000340: 6cd2 523e 132b fa3c d056 003f a79b 013f
00000350: 50b9 fc3e cc35 8abe 7106 95bd 9b22 2f3f
00000360: 8171 bb3e ad80 2ebf 62e8 0fbd 8391 efbe
00000370: 4960 e13e 8df6 11be 57d3 343d a1c2 253f
00000380: a5bc 0cbf 6f08 073d 3ae9 7abe 0405 703e
00000390: b303 083f c29a 9f3d 8b69 a3be 03bc 02be
000003a0: a9da 213f 35c9 d23d a874 11bc e190 d63e
000003b0: 259a 163f 99d4 1a3e fab7 9dbe c6c2 cabe
000003c0: 01bc 873e 7f0d ff3e 2774 33be 7ff4 3ebf
000003d0: e7d7 05bf 5409 febd ba00 12bf 8059 053e
000003e0: 5060 68be da01 c0bd 3a1c f8be 4f0f 373e
000003f0: 9a22 13be 86e7 72bf f48f 273e 89eb 5ebe

critic.preprocess.model.model.2.bias f4 [64]
0.12798668 0.28048772 -0.47639042 0.51712835 -0.35636562 -0.05589444 -0.3575446 -0.18274534
-0.099096626 -0.14037038 -0.12919928 0.1744252 0.0011346058 -0.3464032 0.05161753 -0.07741776
0.15826294 -0.07084295 -0.25386766 -0.014403327 0.3130463 -0.16620362 -0.23606186 -0.35823262
-0.36913148 0.23168373 -0.0042313077 0.26628447 0.29883337 -0.16114883 -0.26571983 0.17675807
-0.38128665 0.18847625 0.54503965 -0.2760387 0.08457288 0.16256128 0.3945863 -0.15662803
-0.14488056 0.099996746 0.12167535 -0.07306207 -0.39877295 0.011474953 -0.020192515 -0.20345353
0.4536166 0.6775757 0.43104437 0.12258397 -0.03350467 -0.29483062 -0.1911007 0.25201657
0.090821765 -0.006050623 0.37558067 -0.252881 -0.04554049 0.09966831 0.27095553 -0.64807415
00000000: f10e 033e 169c 8f3e 72e9 f3be 8662 043f
00000010: 8e75 b6be 91f1 64bd 1610 b7be 9821 3bbe
00000020: 2cf3 cabd 41bd 0fbe d14c 04be 859c 323e
00000030: 0eb7 943a c35b b1be e76c 533d 348d 9ebd
00000040: ae0f 223e 1c16 91bd f1fa 81be effb 6bbc
00000050: 9b47 a03e 4831 2abe 33ba 71be 446a b7be
00000060: cdfe bcbe 803e 6d3e c8a6 8abb 7056 883e
00000070: b000 993e 3304 25be 6e0c 88be 1100 353e
00000080: 0138 c3be ebff 403e b887 0b3f f254 8dbe
00000090: 8c34 ad3d 7776 263e 3707 ca3e 1963 20be
000000a0: 925b 14be 18cb cc3d ed30 f93d 91a1 95bd
000000b0: f82b ccbe 7101 3c3c c66a a5bc 1f56 50be
000000c0: 6f40 e83e 9a75 2d3f d9b1 dc3e 4e0d fb3d
000000d0: 313c 09bd 0af4 96be e7af 43be 5108 813e
000000e0: c300 ba3d 4e44 c6bb 1c4c c03e 9e79 81be
000000f0: aa88 3abd e61e cc3d afba 8a3e 30e8 25bf

critic.last.model.0.weight f4 [1, 64]
0.14368173 0.12031536 0.055895835 0.1794845 -0.11446497 0.020026432 -0.13406335 0.081128225
-0.05605426 0.09370314 -0.023041269 0.11342144 -0.11312038 -0.2533157 -0.05232401 -0.03963222
0.007706319 0.0348508 -0.1092315 0.17378063 -0.06978967 -0.06507548 -0.13833521 -0.21662399
0.017551254 -0.034866877 0.04606213 0.14587162 -0.052605614 0.10068214 -0.011004619 0.08045077
-0.14210166 -0.08203156 0.19306149 0.010040731 0.02071091 0.102867246 0.123699166 0.08366615
-0.041500352 0.09978523 -0.07373695 -0.13471152 -0.21037948 -0.12507959 0.05478404 -0.08717194
0.5308659 0.18766843 0.21896306 0.10819488 0.051748864 -0.089842334 -0.03654799 0.03642217
-0.07106255 0.0651949 0.3804471 -0.055034615 0.054920655 -0.034760427 0.046148453 -0.29388562
00000000: 4e21 133e e667 f63d 08f3 643d c9ca 373e
00000010: 9c6c eabd 790e a43c e747 09be 8e26 a63d
00000020: 2799 65bd 6fe7 bf3d 0bc1 bcbc 8049 e83d
00000030: a8ab e7bd 98b2 81be b351 56bd 6555 22bd
00000040: 4a85 fc3b b6bf 0e3d c4b4 dfbd 8df3 313e
00000050: e3ed 8ebd 4b46 85bd bfa7 0dbe aed2 5dbe
00000060: a6c7 8f3c 92d0 0ebd a5ab 3c3d 5f5f 153e
00000070: fc78 57bd 7032 ce3d b84c 34bc 60c3 a43d
00000080: 1983 11be 2a00 a8bd e9b1 453e e181 243c
00000090: eda9 a93c 10ac d23d fd55 fd3d 2959 ab3d
000000a0: 46fc 29bd 335c cc3d 6603 97bd d1f1 09be
000000b0: b86d 57be dd14 00be 3b65 603d 3487 b2bd
000000c0: d4e6 073f 272c 403e da37 603e 4795 dd3d
000000d0: 9ef6 533d 42ff b7bd 58b3 15bd 6a2f 153d
000000e0: 3e89 91bd e784 853d f6c9 c23e fa6b 61bd
000000f0: 7bf4 603d f360 0ebd 2906 3d3d 2d78 96be

_actor_critic.actor.sigma_param f4 [6, 1]
-1.5768042 -1.222338 -1.2720639 -1.4307134 -2.0148814 -2.128667
00000000: b8d4 c9bf 9275 9cbf fdd2 a2bf 9e21 b7bf
00000010: d1f3 00c0 153c 08c0

_actor_critic.actor.preprocess.model.model.0.weight f4 [64, 17]
-0.015791217 -0.028826408 0.32756922 0.044236198 0.29235736 -0.046585314 0.03783922 0.037931915
-0.3125479 -0.35852563 0.36864385 0.23293109 -0.15585248 -0.109715484 -0.12201484 -0.09790041
0.2102123 -0.25677854 -0.09978971 0.030304397 -0.07329334 -0.029191973 -0.2602216 -0.38565534
-0.22356486 -0.02723521 0.08899496 0.20063224 0.2071374 0.23283115 -0.07261699 -0.022254087
0.24081922 0.34822622 -0.049241915 0.18563312 0.056073695 0.09756374 0.25989166 -0.071404435
0.29248822 -0.12461947 -0.16813724 0.085630015 0.10714612 0.043734483 -0.04696856 -0.055839516
-0.1862435 0.11864716 -0.20057507 0.14458916 -0.15347232 0.8333947 0.1351796 0.25076598
0.046535347 0.28236696 0.032476295 0.024147784 0.23062605 -0.029797656 0.0016320768 -0.07652078
-0.091253236 -0.18412136 -0.008201119 -0.16161935 -0.060712013 -0.37329602 0.14694741 -0.53717184
-0.20356813 0.16498433 0.060871135 -0.81084895 0.29293564 0.17569003 -0.067803584 0.17200722
-0.019306667 0.02353234 0.04816224 0.15965322 -0.34364974 0.2573037 0.3911287 0.09478221
0.24234833 0.10638726 -0.18235768 0.035006054 -0.05401438 -0.24715547 0.40692347 0.0608365
-0.25707003 0.2586157 0.29778326 0.24892913 -0.097690016 -0.40411583 -0.059558496 0.10974685
0.04055252 -0.063721664 -0.30301687 -0.15841374 0.3243591 0.1358439 -0.11595382 0.072312094
0.10918394 0.38260525 -0.18434654 0.26091677 0.15948199 0.04850366 -0.4818246 0.02574737
-0.2686278 0.0566459 0.1361821 -0.26103237 0.019251855 0.5200395 -0.2112768 -0.012192473
0.34234065 0.20803921 -0.108913824 0.12174454 -0.16442098 -0.053730246 0.21641977 -0.028720478
-0.17959532 0.05511211 0.072934456 -0.14944948 0.073668584 0.20182745 0.36267948 -0.06819788
0.026337994 0.054380428 0.20015459 -0.00862243 -0.40856245 -0.18905793 0.2938571 -0.08716058
0.0016990365 -0.18109186 0.1495745 0.14796486 -0.34799767 0.40364683 -0.39985397 0.39150798
-0.07295126 -0.036308393 0.17498094 -0.31471768 0.09566834 -0.11409761 -0.050721522 0.11697685
-0.023645563 -0.039859474 0.17263591 -0.00503591 -0.35994774 -0.049099572 0.03380751 -0.0692016
-0.07580158 -0.21752524 0.107687086 0.4685108 0.08292356 -0.23044878 -0.07531547 0.27314535
0.010277086 -0.07878611 -0.08181205 0.16104245 0.3205264 0.02834792 -0.07127446 -0.23425703
-0.03379383 0.14580865 0.15748161 0.030245418 0.12179991 0.04035379 -0.030508429 -0.0646807
-0.10812133 0.085948855 -0.066271015 -0.15541856 -0.23252939 -0.16480117 -0.05385402 0.39342445
0.44632876 -0.32617155 0.11119292 0.052989904 0.021323433 -0.27322966 -0.08766273 0.28733164
0.002784688 0.12170603 0.31196654 -0.0481952 -0.3697482 -0.5367037 -0.25804704 0.09250058
-0.2371652 0.022392565 -0.46531615 -0.06382258 -0.2720334 -0.010307983 -0.30364135 0.21697032
-0.29306096 0.057680055 -0.19709149 0.08063574 0.01904432 0.09456898 -0.050454058 -0.23095031
-0.064638846 0.1084077 0.14320466 -0.05207598 -0.15805463 -0.31656358 0.04468252 -0.04488625
0.31712854 0.15024762 0.08847163 0.27713448 -0.020917663 0.21951838 0.20380251 -0.48149058
00000000: 955c 81bc 5c25 ecbc 27b7 a73e 0431 353d
00000010: ddaf 953e 3ed0 3ebd 4cfd 1a3d 7f5e 1b3d
00000020: 4706 a0be ac90 b7be e3be bc3e 7d85 6e3e
00000030: cb97 1fbe 83b2 e0bd ebe2 f9bd 0380 c8bd
00000040: e541 573e 7a78 83be 8c5e ccbd ed40 f83c
00000050: d21a 96bd 0124 efbc c43b 85be 9e74 c5be
00000060: 30ee 64be 601c dfbc fd42 b63d 8a72 4d3e
00000070: d41b 543e 4a6b 6e3e 37b8 94bd 344e b6bc
00000080: 5099 763e b54a b23e e4b1 49bd 9c16 3e3e
00000090: 88ad 653d 80cf c73d 8510 853e 7d3c 92bd
000000a0: 04c1 953e 7e38 ffbd 2b2c 2cbe ca5e af3d
000000b0: 6d6f db3d ee22 333d 1b62 40bd fab7 64bd
000000c0: 9eb6 3ebe 48fd f23d 8d63 4dbe 2e0f 143e
000000d0: d927 1dbe 5b59 553f 856c 0a3e 6664 803e
000000e0: d99b 3e3d 6792 903e dd05 053d 93d1 c53c
000000f0: 3c29 6c3e 371a f4bc 69eb d53a edb6 9cbd
00000100: fae2 babd 4f8a 3cbe fc5d 06bc 8b7f 25be
00000110: 29ad 78bd a820 bfbe 6279 163e 1884 09bf
00000120: 2a74 50be a7f1 283e 0354 793d cc93 4fbf
00000130: a9fb 953e 16e8 333e 9bdc 8abd a922 303e
00000140: 0429 9ebc e5c6 c03c c545 453d 227c 233e
00000150: dcf2 afbe 50bd 833e 0542 c83e 2d1d c23d
00000160: 292a 783e 90e1 d93d f9bb 3abe 8262 0f3d
00000170: 2f3e 5dbd 5316 7dbe 4658 d03e b22f 793d
00000180: af9e 83be 4769 843e 0c77 983e 47e7 7e3e
00000190: b411 c8bd 45e8 cebe 9cf3 73bd f5c2 e03d
000001a0: 661a 263d 8180 82bd 0725 9bbe 3637 22be
000001b0: 6512 a63e aa1a 0b3e 3279 edbd 5d18 943d
000001c0: d49b df3d d6e4 c33e 57c5 3cbe e296 853e
000001d0: 3f4f 233e c6ab 463d b7b1 f6be 26ec d23c
000001e0: 9589 89be 8805 683d 5273 0b3e 09a6 85be
000001f0: 11b6 9d3c 4f21 053f f258 58be f0c2 47bc
00000200: 4647 af3e 3b08 553e 360e dfbd 3455 f93d
00000210: f95d 28be 3f14 5cbd 259d 5d3e 3547 ebbc
00000220: d6e7 37be 3cbd 613d a95e 953d 4909 19be
00000230: 8edf 963d dbab 4e3e 20b1 b93e 55ab 8bbd
00000240: c7c2 d73c 03be 5e3d 53f5 4c3e 1845 0dbc
00000250: 192f d1be 6798 41be 7074 963e 3f81 b2bd
00000260: 34b2 de3a 2570 39be 0f2a 193e 1a84 173e
00000270: c02c b2be ccaa ce3e a9b9 ccbe bc73 c83e
00000280: 7867 95bd 1cb8 14bd 342e 333e ad22 a1be
00000290: c3ed c33d 02ac e9bd 5fc1 4fbd 8f91 ef3d
000002a0: 57b4 c1bc b043 23bd 78c7 303e 4604 a5bb
000002b0: 124b b8be a21c 49bd be79 0a3d 92b9 8dbd
000002c0: dc3d 9bbd f0be 5ebe 0c8b dc3d a6e0 ef3e
000002d0: d4d3 a93d c4fa 6bbe ff3e 9abd b5d9 8b3e
000002e0: 3961 283c 9d5a a1bd 138d a7bd 50e8 243e
000002f0: 091c a43e e639 e83c 58f8 91bd 13e1 6fbe
00000300: 666b 0abd dd4e 153e dc42 213e 3dc5 f73c
00000310: 3b72 f93d 044a 253d d0ec f9bc 5177 84bd
00000320: b76e ddbd f405 b03d 19b9 87bd 0b26 1fbe
00000330: 2f1c 6ebe a3c1 28be 0896 5cbd ee6e c93e
00000340: 3485 e43e f5ff a6be 1db9 e33d f10b 593d
00000350: 7bae ae3c c2e4 8bbe 8488 b3bd 221d 933e
00000360: 507f 363b 0341 f93d 14ba 9f3e 5468 45bd
00000370: a34f bdbe 6a65 09bf be1e 84be f270 bd3d
00000380: 6fdb 72be 9d70 b73c eb3d eebe 6ab5 82bd
00000390: f647 8bbe d0e2 28bc e176 9bbe 782d 5e3e
000003a0: 160c 96be ec41 6c3d 5ad2 49be 5a24 a53d
000003b0: d502 9c3c 62ad c13d eaa8 4ebd 3d7e 6cbe
000003c0: 5f61 84bd db04 de3d 3ea4 123e 9f4d 55bd
000003d0: 13d9 21be 9f14 a2be 0505 373d a5da 37bd
000003e0: ac5e a23e 83da 193e 9d30 b53d 92e4 8d3e
000003f0: 855b abbc 6dc9 603e 9bb1 503e ef85 f6be

_actor_critic.actor.preprocess.model.model.0.bias f4 [64]
-0.12550616 -0.14717382 0.2944094 -0.23779878 0.105478235 0.1180171 -0.110057026 -0.048581343
-0.10127552 -0.1905745 0.3147126 0.07803073 -0.003946269 -0.33504438 0.19033125 0.014916809
0.01689914 0.12380718 -0.2278431 -0.12566106 0.03163337 -0.08569592 -0.0237527 -0.0042640422
0.091833614 0.116731785 -0.040299963 0.16173813 -0.01850438 -0.13559775 0.034313556 0.0068275356
0.0059302915 -0.28044826 0.16908318 -0.025467655 -0.0028442624 0.3414642 -0.076109506 0.12760913
-0.093899325 0.061441787 -0.14130738 0.20839529 -0.0012199021 0.012959773 0.086275846 0.079593375
0.031866457 0.2121419 -0.054405384 0.06892285 -0.01711103 0.0337294 0.05603728 0.061127525
-0.032961622 -0.031023152 -0.15160827 -0.18600804 0.035832606 0.0005295314 -0.22713007 0.0039481954
00000000: b084 00be bcb4 16be d4bc 963e 8681 73be
00000010: f904 d83d f3b2 f13d 9465 e1bd 3bfd 46bd
00000020: 8a69 cfbd f625 43be 0322 a13e 93ce 9f3d
00000030: b44f 81bb f08a abbe 32e6 423e a265 743c
00000040: 1170 8a3c 9e8e fd3d b44f 69be 4bad 00be
00000050: fe91 013d 5881 afbd 0695 c2bc 61b9 8bbb
00000060: 4313 bc3d 1311 ef3d 9311 25bd ae9e 253e
00000070: 7f96 97bc 23da 0abe 5f8c 0c3d 85b9 df3b
00000080: e452 c23b ea96 8fbe 2424 2d3e 8ba1 d0bc
00000090: ce66 3abb 65d4 ae3e 4ddf 9bbd f8ab 023e
000000a0: 4a4e c0bd 62aa 7b3d e2b2 10be 9365 553e
000000b0: 1fe5 9fba 3a55 543c 64b1 b03d da01 a33d
000000c0: 6786 023d ba3b 593e 2ed8 5ebd 6c27 8d3d
000000d0: 6e2c 8cbc d727 0a3d 5987 653d db60 7a3d
000000e0: c402 07bd 4424 febc 333f 1bbe e478 3ebe
000000f0: 36c5 123d 40d0 0a3a c994 68be dd5f 813b
