results/Swimmer-v3/a2c/9/220624-142731/policy.pth (torch, 47844 bytes, 24 tensors)

actor.sigma_param f4 [2, 1]
00000000: 972d 3640 3aaf 4340
2.8465326 3.05757

actor.preprocess.model.model.0.weight f4 [64, 8]
00000000: 7c57 2abd 9181 e4bd e52d ed3d 9f1f ba3d
00000010: b0ba 82be f7aa 91bd 06dc f63c 01ec eebe
00000020: 5797 d93e 8321 ef3e f0a0 99bd db74 d7bb
00000030: a752 023f 0fc7 a9be d793 d13b c51a 07bd
00000040: 3265 a23e 6e62 3a3e ac55 0f3d 6a6a c93d
00000050: 6b3e c73e 51f7 41be 241e d83d 8f45 88be
00000060: f338 54bd c3e0 02bf d86c 653e 65b9 ac3c
00000070: c205 86be 8a05 4bbe 3427 f23e 0244 2cbe
00000080: 06d2 8ebd f438 643f 450e 1e3e 37d0 eabe
00000090: 011f e339 0b04 64be 7ebb 05be 503b 08be
000000a0: a3ae 5fbe a50f 9dbe 8a29 99bd cf10 083e
000000b0: 90a6 0c3e f722 e9bc 1d9e f53c eef6 9ebd
000000c0: 2c23 253f 66cf 403e 18d8 cdbe 30f9 313b
000000d0: 0200 d3be 054d f6bd a74f 4abd 4871 f73e
000000e0: 45c6 0d3e 5ac8 c53e f798 3fbe fd15 9dbd
000000f0: d046 a23e 96c2 813d 40c5 f63d 7ee4 523e
00000100: e121 7c3d b9b8 8e3e a071 b3be e03b 1ebc
00000110: 2ba7 e53e 4213 83be f298 3a3d 3daa b03d
00000120: 0f6c 75bd 7d1b 993e 8529 ba3e 025d 0f3d
00000130: abac 9c3d a89b ed3e 6287 ea3c c47d a4be
00000140: 8f0a 43be 7e87 c9be cac4 0fbd 4614 173e
00000150: 659c 7fbe 1525 6a3e d2f0 59be a12d 7ebc
00000160: 8ac3 343e 59d1 a53e 1b2f bbbd 9e66 133d
00000170: 05f8 b73e d2da 18be 4bb1 993e f32b 053e
00000180: 4fd8 123f 5f17 24be e4a3 d1bd 4a11 e13e
00000190: 1a1f 4d3d 20c7 11bf ce6b 103e a5e9 2f3f
000001a0: e680 09be a21c 81be 583f fd3d 6d7a 39bc
000001b0: fc53 a5be ddd9 ab3d 316a 84be 98c4 113d
000001c0: 6a06 1ebe f8cb 04bf bd70 94bc f071 5fbe
000001d0: 3d40 96be a47a f63e 304d adbb 7b2a 203e
000001e0: 6994 fd3e 521f 023d 34fc ef3d f01e 613c
000001f0: bb64 2cbe cc33 863e 88c6 783e 880f ebbe
00000200: 0bac 9e3e b891 193f e9a0 18be e850 ccbc
00000210: b6ca 673e 2263 26be d597 393e 7f3b d9bc
00000220: ca55 a4be 56fe f03e 4cc0 f43e 5f85 203d
00000230: c924 a2be c2c1 b6bd c3bf 18be 2050 ba3c
00000240: 0e9b 8abe e10c 393f 69b0 013f 7234 3f3e
00000250: 265e f43b f833 fdbe 9c14 103e 3ef0 a8bd
00000260: b6df 1a3f 00b2 d63e 8fc3 583d e540 91be
00000270: bfc7 63be 45bc 0bbe a905 05be 31a8 613d
00000280: b9ec a6be 7392 ad3d 04b4 a83d 47bf 923d
00000290: 66a8 bbbe 5002 6dbe b36c 0b3e 90c7 853f
000002a0: 3684 353e d1bc b43e bdab 2ebe de30 3e3e
000002b0: 6ed6 fc3e b089 1cbe 3dab aa3d 9949 7e3e
000002c0: 6383 0bbe eaf2 16bf bb5e 8c3c e2ea 803d
000002d0: 5347 c93d 6174 6c3e b316 c73e 6ce1 ea3d
000002e0: b2ff 93be 2238 adbe 924f f9bd 887c 4dbd
000002f0: e809 27bd 2466 5cbe 548e 73bc 0f0f d93d
00000300: 7350 3bbe 4b4e 93bd d62a 4f3c faf9 8fbc
00000310: 412f ecbe 1d8d 4d3e 2560 9dbe 9ae0 1b3e
00000320: c5be 203f ba6a f93e 3acb f13d b4b6 acbd
00000330: b056 6b3e 3199 c7bd fec9 123d 0a7b 0dbe
00000340: bdf3 0a3e ad32 403e 3e8e b2be ba72 7c3c
00000350: 4316 3abe 14f4 873e f5ee 713e 7bff ef3d
00000360: 83dc 0e3c 5f19 1b3f 07d4 88bd 00c0 0e3d
00000370: 3f48 98be 8ae8 04be f48c e63c ee67 00be
00000380: e6aa 26bf 9209 7abe 2169 2f3d c72d 3d3c
00000390: 356e 1bbe d28e b9be 5604 0cbe 5d69 5f3f
000003a0: ec90 73be cff8 283f 901d 4d3f a01c bd3b
000003b0: f0e4 9d3e ccd1 8d3d 7d86 c4bd 791f 8e3e
000003c0: 91f9 99be 9aeb 88be 4179 13bd 6b6f e63e
000003d0: 942c 83be 88f5 8f3e 179e 253d c596 b9bd
000003e0: fdcf edbe dbb1 d9be b326 603d 69bd ba3d
000003f0: 3441 5ebe 0f11 8ebe 2cdf e13d b210 8f3e
-0.041587338 -0.11157525 0.11581019 0.090880625 -0.25533056 -0.07112687 0.030134212 -0.46664432
0.42498276 0.46705255 -0.075013995 -0.0065752096 0.5090737 -0.33159682 0.0063957977 -0.032984514
0.3171783 0.1820161 0.034993812 0.0983475 0.3891481 -0.18942 0.10552624 -0.2661557
-0.051812124 -0.5112421 0.22404802 0.021084497 -0.26176268 -0.19826332 0.47295535 -0.16822818
-0.069736525 0.89149404 0.15435131 -0.4586198 0.00043319914 -0.22267167 -0.13059804 -0.13303876
-0.21843962 -0.30675998 -0.07478626 0.13287662 0.13735414 -0.028459055 0.02998262 -0.07761942
0.64506793 0.18829116 -0.4020393 0.0027156584 -0.41210943 -0.12026409 -0.04939237 0.48328614
0.13845165 0.3862942 -0.18710695 -0.076702096 0.3169465 0.063359424 0.12049341 0.20594975
0.061555747 0.27875307 -0.35047626 -0.00965783 0.44854102 -0.2560063 0.045556016 0.086262204
-0.059917506 0.29903784 0.36359802 0.03500081 0.07650121 0.4640782 0.028629009 -0.32127202
-0.19046997 -0.39361185 -0.035099782 0.14753827 -0.24962004 0.22865708 -0.21283272 -0.0155138085
0.17652717 0.32386282 -0.09139844 0.035986535 0.3593141 -0.14927223 0.30018076 0.13005047
0.5736131 -0.1602454 -0.10236338 0.43958503 0.05007849 -0.56944466 0.14103624 0.6871589
-0.13428077 -0.25217158 0.123655975 -0.0113206925 -0.32290637 0.083911635 -0.25862268 0.035587877
-0.15432134 -0.5187373 -0.018120164 -0.21820807 -0.29345885 0.48140442 -0.0052887425 0.15641205
0.4952729 0.03176815 0.11718026 0.013740286 -0.168353 0.26211393 0.24294484 -0.45910287
0.30990633 0.59987974 -0.14905132 -0.024940923 0.22635922 -0.16248754 0.18124326 -0.026517628
-0.32096702 0.47069043 0.4780296 0.039189693 -0.3166869 -0.08923675 -0.14916901 0.022743285
-0.27071422 0.72285277 0.50659806 0.1867235 0.0074575124 -0.49453712 0.14070362 -0.082489476
0.60497606 0.41932678 0.052920874 -0.28369823 -0.22244166 -0.13646038 -0.1299044 0.05509204
-0.3260248 0.084751986 0.0823746 0.071653895 -0.36651915 -0.23145413 0.13615684 1.0451527
0.17726216 0.35300305 -0.170577 0.18573329 0.49382347 -0.15286899 0.08333442 0.24832763
-0.13624339 -0.5896441 0.017135015 0.062948 0.09828057 0.2309127 0.38884506 0.11468777
-0.28906018 -0.33831888 -0.1217338 -0.05016759 -0.04078093 -0.21523339 -0.014865477 0.10598575
-0.18292408 -0.071926676 0.01264449 -0.017575253 -0.46129802 0.20073362 -0.30737415 0.15222397
0.6279109 0.48714238 0.118063405 -0.08433285 0.22982287 -0.09746016 0.035837166 -0.13816467
0.13569541 0.18769331 -0.34874147 0.015408212 -0.18172555 0.26553404 0.23626311 0.11718651
0.008719566 0.6058559 -0.06681066 0.034851074 -0.2974262 -0.12979332 0.028143384 -0.12539646
-0.6510452 -0.24417713 0.042824868 0.011546559 -0.1517876 -0.36241776 -0.13673529 0.87270147
-0.23785752 0.6600465 0.80123234 0.0057712346 0.30838728 0.06924781 -0.09595964 0.27758387
-0.30073217 -0.2674225 -0.03600431 0.4500688 -0.25619948 0.28117013 0.04043397 -0.0906196
-0.46447745 -0.42518505 0.054724406 0.09118158 -0.2170456 -0.2774739 0.11028895 0.27942425

actor.preprocess.model.model.0.bias f4 [64]
00000000: 6de3 5a3d 9379 e3bb 01be 3b3d b1eb 2b3d
00000010: 10bf 4d3e 9e63 8dbc 82a8 853c 8f17 05ba
00000020: 78d5 25bd 3b6e 9e3d b98b 0cbc 60d2 97bc
00000030: 79d2 1a3e 4a36 95bb 57b0 223d 83d6 8d3c
00000040: 8a1d 0b3c 0806 77bd 1d3a 47be f869 db3c
00000050: 5051 4dbd 0f3f ecbb 433c 3fbd bafc acbc
00000060: 18cc 0cbd bc2b 7a3c b0a0 5ebd 88b9 8cbc
00000070: b764 c4bc 94d0 31bd 1e44 c53c 13aa 99bb
00000080: 5c78 b6bc 3e25 0fbd 66c8 d23c c1d8 463d
00000090: 2dc0 76bc d211 ed3a aeb5 403b feb0 583d
000000a0: 5165 c03c 1c06 103d 75e3 b83d 51b6 5fbd
000000b0: d17b 0bbe 13e2 233c f54c 0a3c 2b51 313e
000000c0: 1b44 c63b ed82 7d3c 963a 6ebd e22f b3bb
000000d0: a7c8 903c 8e7c 2b3c 2748 063c 7d61 04bb
000000e0: 9d46 c2bc 7487 af3c 20d7 303c 6a7d 89bd
000000f0: 0409 d13b 3dee 783d d712 66bc 340b f43c
0.053439546 -0.006941983 0.0458355 0.04197282 0.20092416 -0.017259415 0.016315702 -0.0005077058
-0.040486783 0.077358685 -0.008578234 -0.018532932 0.15119351 -0.004553591 0.039718952 0.017314201
0.008490929 -0.060308486 -0.19455762 0.026783928 -0.050126374 -0.0072096656 -0.04668833 -0.021116603
-0.034374326 0.015269216 -0.054352462 -0.017178312 -0.023973806 -0.043411806 0.024080332 -0.004689464
-0.022274189 -0.034947626 0.025730323 0.048546556 -0.015060467 0.0018086976 0.0029405165 0.052903168
0.023485811 0.035162076 0.09027759 -0.05461723 -0.13621451 0.010002631 0.0084412 0.1731612
0.0060505993 0.01547311 -0.05816134 -0.0054683546 0.017673803 0.010466708 0.008195913 -0.002019971
-0.023715312 0.021426894 0.010793477 -0.06713374 0.0063792486 0.060774077 -0.014042578 0.029790498

actor.preprocess.model.model.2.weight f4 [64, 64]
00000000: baa9 82bc 12db 343e 00b7 eb3d e4d1 6cbe
00000010: 6cfa 623e 69ee 8bba b2c3 acbe 5588 6e3c
00000020: cf5f a93d 5dfc 833d 6b66 6fbe 8afd da3d
00000030: bbe9 e7bd b2cf c7bd d278 59be 3025 24be
00000040: b045 11bd 91ed 253e e4b7 fb3e 3c32 dfbd
00000050: 5c64 9a3e f7a2 02bc 1bd3 f0be c5b5 c2be
00000060: 3574 633e 467b f7bd 8e15 c33c c5d7 a1bd
00000070: 5487 4dbd f1ee 803e 5d6b 02be aff3 b4bd
00000080: de13 81be c6de c2bb 02ce db3d a159 75bd
00000090: 979c 62be 847f 15be f633 aabd 537f 78be
000000a0: 08a8 1c3e 5066 833e 7128 113e caf1 1d3e
000000b0: 8a37 0d3f c87e a6bd fb53 8b3d 2422 233d
000000c0: 8159 6fbe f51e a6be f80e 3c3e ba0f c33e
000000d0: e933 d53e 6f92 c8be c56f 963e 51d7 103e
000000e0: 5409 fc3c b9e4 97bd 2c82 cdbe bc08 19bf
000000f0: 041d 05be 10a7 65be 6927 703b a8c0 87be
00000100: 2b89 83be 098d 893f 1833 0f3f d6d0 a8be
00000110: 0543 fc3e 0caf 97be 7fd8 343e a11d 163f
00000120: f6a4 de3e 6797 a0bd eb6b febe 0559 3b3f
00000130: aa77 c43e bbfe adbd c58f 83bc 1e49 9f3e
00000140: ac06 703f 447e 483d 494b 2d3e 15d7 0f3f
00000150: b167 d2be 7235 8c3f fc07 a4be e3e9 823d
00000160: 7d2d 70bd ea66 a33e 2588 b23e 57cf 503e
00000170: 1bde c1be ed4e 083e c6fb c7be 1334 9dbe
00000180: 9dc2 3e3e 1524 09bf a9f6 f4bd 2220 f4bc
00000190: 7528 60be c5d9 e2bd c97a 153f 5741 013f
000001a0: e8d7 1d3f b2cd fa3d 3171 5abe fbde bcbd
000001b0: 3fbf e03e 811c 11bf 2d5a 21bf 6f0f c5bd
000001c0: 1fc9 14be 3d4e 22be cf07 94bb ff9a d5be
000001d0: 23d4 a2be a9f0 f0be 1a59 3ebe ffec 15bf
000001e0: 1726 83bf 0d4f 2f3f fa5e 29be f872 acbe
000001f0: d87a 163f c2bf f73d e3ef 10bf 791c abbe
00000200: 3411 88be af52 22be 461e 41be 8b26 3bbe
00000210: 516d 85be 67b6 273c 3ea0 edbc da6c 99be
00000220: 1ae3 293e 2e59 b8be d772 1b3d 817b 9ebd
00000230: 3a5b 073c e8ad 433d a9d7 34be ceb4 1c3e
00000240: 8b68 043e 33b7 9fbc 225f 5bbe 1da6 aa3d
00000250: 0393 33bd f437 0fbd b55e ed3e 6370 ccbc
00000260: b104 c3be fb4e 9ebe 2854 3dbd 85b1 b4be
00000270: 91cc 03be 5f5a 03bf 4656 6abe 8b5d 393d
00000280: b8fc ad3e aee1 9fbe 7ed2 69be 7b6e 47be
00000290: 10e4 e23e 6b4b 033f 746d 3abe a5f0 d43b
000002a0: 4b66 9c3e eb27 18be cbc5 b3be bf03 01bd
000002b0: fdd3 b3be bf97 813d f5eb 1cbe 87ca 063e
000002c0: 0fe8 8c3e 336a 90bb 78cc 13be 20ae f1be
000002d0: 3df9 83be 1936 c23c 4c48 f5be cfce 923e
000002e0: 2057 833e 9878 803c 83f6 bf3e 7111 283e
000002f0: ba5e ddbd 3b14 823d 0afa 193e 4423 8c3d
00000300: 4bb6 413e 6108 19bf 581a 8dbe 81b3 d83e
00000310: 170d 87be 35ec 243d d107 f3be e5df 07bf
00000320: 1595 9fbe 2632 35be 4f59 a93e 9d00 d2bd
00000330: a45e 05be 8b9f 55be 5237 9a3e 469a 153e
00000340: a4d0 56bf a9d3 3d3e 5e6f cabd 25bd adbe
00000350: ac08 733e b34a d5be f86e a63c 1900 5e3e
00000360: f04c 563e aa1b debe 6bca 183e aa19 48be
00000370: 71db e83e 05c6 60be 289e d33e 6fe3 cb3e
00000380: 6038 423d 0d8c 293e a378 a93e d09f e8bd
00000390: f9f0 e83e e186 823e 0688 1abf f0c5 15bf
000003a0: eb47 66be 4c4d 97be 256a b03e c818 b53e
000003b0: d4ac 95bc 429c 4c3e cf73 1c3f 9fe0 ce3d
000003c0: e6f9 953e ec53 e03e 4f46 27be 167b c9bc
000003d0: 4ef8 c93d 087b c93e 86a4 3f3e ab6f 643e
000003e0: c95b 343f 0bb7 85be a109 9f3b fedd b43e
000003f0: 275d fcbd ed6a 37be e1d0 253e 36fe 913e
-0.015950073 0.17661694 0.11509514 -0.23126942 0.22165841 -0.001067591 -0.33743054 0.014558871
0.08270227 0.06444619 -0.23378913 0.1069289 -0.113238774 -0.097564116 -0.21237496 -0.16029811
-0.03546685 0.16203906 0.49163735 -0.10898253 0.30154693 -0.007973424 -0.4703606 -0.38029304
0.22212298 -0.120840594 0.023813989 -0.07902483 -0.050177887 0.25182298 -0.12736268 -0.088355415
-0.2521047 -0.005946967 0.10732652 -0.05989993 -0.22130047 -0.14599425 -0.08310692 -0.2426732
0.15298474 0.25663996 0.14175583 0.15424266 0.5516287 -0.0812965 0.068031274 0.03982748
-0.23373987 -0.32445493 0.18365085 0.38097936 0.41641167 -0.3917422 0.29382148 0.14144637
0.030766167 -0.07416672 -0.40138376 -0.5977895 -0.1299935 -0.2242701 0.0036644584 -0.26514173
-0.25690588 1.0746166 0.5593734 -0.3297183 0.49269882 -0.29625738 0.17660712 0.5863896
0.4348523 -0.07841378 -0.4969171 0.7318271 0.38372546 -0.084958516 -0.016059766 0.3111047
0.9376018 0.04894854 0.1692325 0.56187564 -0.41094735 1.095381 -0.32037342 0.063922666
-0.05863713 0.31914455 0.34869495 0.20391594 -0.37864766 0.13311358 -0.39059275 -0.30703792
0.18628927 -0.5357068 -0.11961109 -0.029800478 -0.21890433 -0.110766925 0.5839048 0.50490326
0.6165757 0.122462645 -0.21332242 -0.09222218 0.4389591 -0.5668412 -0.6302822 -0.09622084
-0.14529847 -0.15850158 -0.0045175324 -0.41719815 -0.31802472 -0.4705861 -0.18588677 -0.5856475
-1.0245999 0.68479997 -0.16540137 -0.33681464 0.58781195 0.12097122 -0.5661604 -0.3342016
-0.26575625 -0.15851854 -0.18859205 -0.18276422 -0.26059964 0.010236359 -0.029007073 -0.2996586
0.16590539 -0.3600554 0.037951317 -0.077384 0.008261496 0.04777327 -0.17660393 0.15303347
0.12930505 -0.019496536 -0.21423009 0.08332465 -0.043841373 -0.03496547 0.46361318 -0.024955934
-0.38089517 -0.30919632 -0.046222836 -0.35291687 -0.12871005 -0.5130977 -0.22884473 0.045255225
0.33981872 -0.31226867 -0.22834203 -0.19475739 0.44314623 0.51286954 -0.18205816 0.0064984136
0.30546793 -0.14858977 -0.35111842 -0.031497713 -0.35122672 0.063277714 -0.15324385 0.13163196
0.27520797 -0.004407191 -0.14433467 -0.4720316 -0.2577609 0.023707436 -0.4790672 0.28673407
0.2565241 0.015682504 0.3749276 0.16412903 -0.10809083 0.06351515 0.15036789 0.06842664
0.18917195 -0.5977841 -0.2755916 0.4232445 -0.26377174 0.040264327 -0.474669 -0.5307601
-0.31168428 -0.17694911 0.3307595 -0.10254023 -0.13024384 -0.20861642 0.3012033 0.14609632
-0.8391211 0.18537773 -0.09884523 -0.33933368 0.23733777 -0.41658553 0.020316586 0.21679725
0.20927787 -0.4338048 0.14920966 -0.1954104 0.4547992 -0.21950538 0.413316 0.39821956
0.047417045 0.16557331 0.3309985 -0.11358607 0.45496348 0.2549353 -0.60363805 -0.58505154
-0.22488372 -0.2955116 0.34455982 0.3537047 -0.018270887 0.19981483 0.6111421 0.10101437
0.2929222 0.43814027 -0.16335414 -0.024594825 0.098618135 0.39351678 0.18715104 0.22308223
0.70452553 -0.26116213 0.004853443 0.35325617 -0.12322455 -0.17911883 0.16192962 0.2851426

actor.preprocess.model.model.2.bias f4 [64]
00000000: 5b29 1f3d a212 123b 73b8 fcbc b1fd 333c
00000010: 26a2 87bc e4a2 d0bb e432 4fbd ee1b bcbd
00000020: 44ad 7fbd 58ba 93bc 53f9 3c3c 1baf 14bc
00000030: 2053 ad3d af6b 8d3c cd2c 8e3b 6372 043d
00000040: 6db8 093d c62a 553d 0e95 683c afa5 e6bc
00000050: cf5a bfbc 6191 25bd 793d 72bc 4844 d03c
00000060: 4f88 8a3d fdbf 00bd 33ef 8fbd e884 b13c
00000070: 7aee 593d 59a2 1f3d c632 753b cef3 fbb9
00000080: 018b 88bc 689e 22bd c1f9 323d 89db 4fbd
00000090: d731 87ba d768 e6bb 2f55 a8bd c32d 083d
000000a0: 15ab 783c 96e2 1b3d ebd7 473d fced 7a3d
000000b0: 3fbc 8fbb c0a5 04bd 1a54 4b3d 17f1 033d
000000c0: 3001 a93c ea6b e4ba 370e b8bd 6115 8fbc
000000d0: e7c6 cdbc cd77 153d 251c 103d 08e2 94bc
000000e0: 77ec 033d fe8b c4bc cc0a c3bc 473c 923c
000000f0: 1511 333c ec61 5eba fc45 7b3c 6c97 5ebd
0.0388578 0.0022288938 -0.030849671 0.010985778 -0.01655681 -0.0063670743 -0.050585642 -0.09185015
-0.0624211 -0.018033192 0.011534053 -0.0090749515 0.084631205 0.017263262 0.0043388368 0.03233565
0.033623148 0.052042745 0.014195694 -0.028155176 -0.02335873 -0.040421847 -0.014785164 0.025423184
0.0676428 -0.031433094 -0.070280455 0.02166982 0.053205945 0.038973186 0.0037414297 -0.000480561
-0.016667845 -0.03970185 0.043695215 -0.050746474 -0.0010314536 -0.007031541 -0.082193725 0.033246767
0.015177508 0.038057886 0.0487899 0.061262116 -0.0043864544 -0.032384634 0.049640752 0.032212343
0.020630449 -0.001742718 -0.08987086 -0.017466249 -0.025119258 0.036491204 0.03518309 -0.018174186
0.032207932 -0.023992535 -0.02380886 0.017851008 0.010929366 -0.00084832194 0.01533651 -0.054343626

actor.mu.model.0.weight f4 [2, 64]
00000000: 166c 753f 87a9 903e 1bb2 6cbf a9c2 44bf
00000010: 8964 783f 50d7 743f 4c84 63bf bafb 8bbd
00000020: b8c7 70bf bfd5 e43e 51cb 703f 1bbb 6dbf
00000030: d889 2b3f 06ae bc3e 45eb 76bf 982d 763f
00000040: f082 6e3f 1464 523f ac31 6bbc ebc3 6dbe
00000050: 5066 77bf d1d3 77bf eb7d 71bf 1aad 673f
00000060: e7ec 56be 6cf7 74bf f529 423e 9ad7 763f
00000070: 0c1e 70bf 66da 78be 00f4 6cbf 5e86 0b3f
00000080: 654b 6dbf 8ef2 77bf 8b45 693e 28ab 70bf
00000090: a268 cd3e 305d a4be 6b63 823d 55fe 38be
000000a0: 150a 793f 2c4a 92be 7e5a 57be c291 733f
000000b0: c026 05be 54e7 993e b67c 38be 4c9d 773f
000000c0: 7e81 70bf 18b2 77bf 520d 183e 4ebe 6e3f
000000d0: 84a6 79bf 7665 5a3f f056 783f 372f 74bf
000000e0: 37c8 743f 8b3d 703f 6c89 15bf 2330 713f
000000f0: 66fd abbe d87f 6d3e f724 e7be c165 74bf
00000100: d300 603c b4c4 f83f 350c 15bc 6951 93bf
00000110: 8547 60bc 49f2 3b3d fd12 14be a19f 7dbf
00000120: 5d7c be3d 27d3 b23f 29b4 2b3b 5dc9 a4bd
00000130: 0c01 2bbf 02c9 0040 e51f 04be 66f8 973c
00000140: 746b d13c 1b66 4abf d7fc d33f f7da 0dc0
00000150: fb39 fc3b 20f9 5ebc b0d4 733a 6d62 b0bd
00000160: fc26 8f3f 2c37 093c 547c 92bf 1b28 7c3c
00000170: 5a44 a8bd 5613 783f e12e 84bd 318e d73f
00000180: a58a 2ebc 99f0 b43c 9225 0540 908f 1ebc
00000190: 0ed4 e13f 7a48 c1bf 291d 9fbf 4ea2 ebbf
000001a0: 3125 0eba 78f8 823f f66c 853f 03c7 56bb
000001b0: a881 f7bf 1d23 0740 6b16 8b3f f72a aa3b
000001c0: bb39 a83c 5044 b2bb d5e0 90bf 66e8 0f3d
000001d0: 4cc7 b73c 227b f2bd a3b2 c73c d83c 22bd
000001e0: 54c1 4bbd 0bda 193d e38c a7bf e083 2c3d
000001f0: d8e9 fbbf 1802 0240 7aa7 02c0 769f 093d
0.9586805 0.2825434 -0.9245927 -0.7685953 0.97028404 0.9564104 -0.88873744 -0.068351224
-0.94054747 0.44694325 0.94060236 -0.92863625 0.6700721 0.3685152 -0.9645274 0.9616332
0.93168545 0.8218396 -0.014355104 -0.23219268 -0.9664049 -0.9680758 -0.9433276 0.9049851
-0.20988809 -0.95690036 0.18961318 0.9642273 -0.9379585 -0.24302062 -0.92559814 0.54501903
-0.9269317 -0.96854484 0.22780435 -0.94011164 0.4011889 -0.32102346 0.06366619 -0.1806577
0.9728101 -0.28572214 -0.21030614 0.95144284 -0.13003063 0.30059302 -0.18016323 0.9672439
-0.9394759 -0.96756124 0.14848831 0.9325913 -0.9751971 0.8531107 0.97007656 -0.95384544
0.95618004 0.9384391 -0.58412814 0.94214076 -0.33591765 0.231933 -0.4514539 -0.95467764
0.0136720715 1.9435029 -0.009097149 -1.150922 -0.013688927 0.045885358 -0.14460368 -0.990717
0.09301064 1.3970689 0.0026199913 -0.080462195 -0.6679847 2.0122685 -0.12902792 0.018551063
0.025563933 -0.7906205 1.6561536 -2.2164896 0.0076973415 -0.013609201 0.0009301407 -0.08612523
1.1183772 0.00837497 -1.1444192 0.015390421 -0.08216162 0.96904504 -0.06454254 1.6840268
-0.010653173 0.022087382 2.080418 -0.009677783 1.7642839 -1.5100243 -1.2430774 -1.8408906
-0.0005422412 1.0232077 1.0423877 -0.0032772429 -1.9336443 2.1115181 1.0866216 0.00519311
0.02053534 -0.0054402724 -1.1318613 0.03513374 0.0224339 -0.11839892 0.024377173 -0.039608806
-0.04974492 0.037561458 -1.308987 0.042117953 -1.9680738 2.0313778 -2.041472 0.03359934

actor.mu.model.0.bias f4 [2]
00000000: 1d7f 12bc 1fe1 9a3c
-0.008941439 0.018906174

critic.preprocess.model.model.0.weight f4 [64, 8]
00000000: 58af 2f3e 98c7 c8bd c26c f1bd f0ed 873d
00000010: 54e2 903e fae1 6bbe 1f61 92bd 61f5 933d
00000020: fec0 3a3e 51aa 8f3d 9244 ee3c 2d7a bfbc
00000030: 2f69 103e 2342 d5bc 5808 23be 1268 bdbb
00000040: 0ec2 dbbe 5040 e83e 9575 143f 0b09 f1bc
00000050: 5e6b d7bd 9145 00bc 2f06 8bbc 3b83 fd3d
00000060: 83d1 e0bd ffa5 e33a e1e8 ef3d 8630 2fbe
00000070: bdf1 583e 3e5d 39bc 96ca ea3c 100d 963d
00000080: 1ea8 9e3e 0334 0c3c 4749 5fbc aece bfbc
00000090: 88aa 793c 910a 553d 77e9 643c 3b1e 063e
000000a0: 6851 52bd 82c0 903e a306 b6bd 9828 09bd
000000b0: 4ef6 df3d 73a6 9f3d 6fe3 30bd 16de 4e3d
000000c0: 3b9f b1be 8134 873e 47df 74bd c21b 8fbe
000000d0: e2f9 55be 094f 0a3e d898 f5bc f4db 82bd
000000e0: 0dff bcbe 8863 d7bd 58b8 0abe a790 043e
000000f0: 643c 063e cbe9 ebbd 16f3 ac3d c024 083e
00000100: 5ba8 02be 5981 0d3e a97c 05be 6538 dc3c
00000110: f9e2 05bf bee3 05bf d6f5 5b3e 3e2c 1a3d
00000120: fe8b 5cbd 6992 adbe 40da 603e c3a9 68be
00000130: a8a4 1abd ab33 cabc c95e 623b dcbc 58be
00000140: 071e 9ebe cdf1 87bc 4880 5fbe 8158 a5be
00000150: 132a 203e 1562 a2bd 1e7b 2cbe 176c fc3c
00000160: 480a 8f3e eee5 86be b723 01bf cb37 6b3c
00000170: 6c51 2abe 9f74 623e 2b38 653e cc2c 143d
00000180: b151 423e 87a4 9b3e 90e0 6d3d 5499 923d
00000190: f214 68bd b7af 563e a008 fbbd 1af5 113d
000001a0: 1f08 dd3e 1146 0d3e 960d da3d 3f3e a9bd
000001b0: b96e b4be 1586 073e 5a99 66bc a1b0 acbd
000001c0: 523c 55be 137c 04be e7bb a3be 0d5d 883e
000001d0: 9905 283e b56f a3bd ebea 783e b4b5 ae3e
000001e0: a1fa 0abe 9a3d c33e bd4b 613d 474d 353e
000001f0: c7c8 293c 93e1 063d 525e dc3e d2e5 0ebe
00000200: 9504 30bd 202c bbbe 2f59 2e3c 21c7 76bd
00000210: 2a1a 813e 859b 633b a12e 95be 209b f2bd
00000220: b249 9cbd b426 2b3e 76f0 debd ed0a 083e
00000230: d172 7a3e fe62 75be bf0b fcbd f209 a4bd
00000240: 67f2 683d 861b cfbe a536 97be 34ad f6bd
00000250: 69f7 e03d 0b02 0f3e 6b18 3abd 1eb9 803d
00000260: 55e8 863e 46ba babe 3ec8 5b3e 41fb aa3d
00000270: dff1 d93d 1233 d8bc 33fe 83bd 6ecb 2f3d
00000280: b84c df3e 2af7 f9bd 3818 263e e010 103e
00000290: 2e67 043e 77fc 383d 99ae 50be 639d 3c3e
000002a0: 5e22 1dbf 3b0c 703e 2caf 233e 0394 22be
000002b0: 13d0 93be 2da5 ed3d c9c8 d4bd 177a c3bd
000002c0: 7d6e 80be 373a 153e d75c f7bd 491d 8ebd
000002d0: a133 d13c 5748 56be 3d6d 3abe a3be 47be
000002e0: 5f4d 0abf b3c7 723e a274 ee3e 1bc2 1ebd
000002f0: 8dca 46be 7ee5 973e 860f 623e 837b 843e
00000300: add2 babd 4f92 993e 16d2 04bd 4474 373e
00000310: 0c52 9d3e cf10 d63d 030e 4b3e 3573 cd3d
00000320: feb5 0d3e d801 83be f882 d3be f5f2 f9bd
00000330: c040 1b3e 157f ee3d 0a64 a1bd 644f 79bd
00000340: 5e72 95be f173 43bd f63d 803d 34d3 7f3e
00000350: d841 1ebe a539 65be facc 503e 8df4 c3be
00000360: 805f c1bc 658d 0cbe 83e0 463e 1930 993e
00000370: 4106 a3be ba9d 4abe a56f 9cbd 448d 6abe
00000380: 4f7f 98be 4685 27bd 46d6 dfbb 480f 09bd
00000390: 7940 233e 0b10 913e fda2 8a3e 50a6 423e
000003a0: 2421 31ba 9e2d 0ebd 401b 7c3e 7726 b8be
000003b0: 35ac 613d 3b02 49be cdab 3dbe 8d98 81be
000003c0: 5a5e d3bd 3d26 e03b 3279 fc3e 2b8c 2f3d
000003d0: 8dec 8dbe 3ef8 a83e c367 b6bc 8653 bf3d
000003e0: 1d81 0fbe 3304 c9bd c023 1bbe ab48 c13e
000003f0: 10df f1bc be09 933e 2102 253e f053 03be
0.17156732 -0.098036945 -0.11788322 0.0663718 0.28297675 -0.23035422 -0.07147431 0.07224537
0.18237683 0.07014907 0.029085431 -0.023373688 0.14102624 -0.026032513 -0.15921152 -0.0057802284
-0.4292149 0.45361567 0.57991916 -0.029423257 -0.105185255 -0.007829086 -0.016970722 0.12378546
-0.10977461 0.0017368196 0.1171434 -0.17108354 0.21185966 -0.011313735 0.028661054 0.0732671
0.30987638 0.008557322 -0.0136283105 -0.023413982 0.015238412 0.05201203 0.013971678 0.1309747
-0.051347166 0.28271872 -0.088879846 -0.03348598 0.10935651 0.077954195 -0.043185648 0.050504766
-0.34691796 0.26407245 -0.059783246 -0.27950865 -0.20896104 0.13506712 -0.029980108 -0.06389609
-0.36913338 -0.10517031 -0.13546884 0.12945805 0.13108975 -0.11519202 0.084448025 0.13295269
-0.12759535 0.13818873 -0.13035835 0.02688236 -0.5229946 -0.5230063 0.21480498 0.03763985
-0.053844444 -0.33900765 0.21958256 -0.22721009 -0.037754685 -0.02468284 0.003454136 -0.21165794
-0.30882284 -0.016594792 -0.21826279 -0.32294086 0.1564105 -0.07928864 -0.1684384 0.03081326
0.2793753 -0.26347297 -0.5044512 0.014356564 -0.16632622 0.221148 0.22384708 0.036175534
0.18976475 0.30398962 0.058075488 0.07158151 -0.0566606 0.20965467 -0.122575045 0.035634138
0.43170258 0.1379626 0.106471226 -0.082638256 -0.35240725 0.13234742 -0.014074648 -0.08432127
-0.20823792 -0.12937956 -0.31979296 0.26633492 0.16408385 -0.07980291 0.24308364 0.34123003
-0.1357217 0.38132936 0.05500387 0.1770526 0.01036281 0.032929968 0.4304071 -0.13954857
-0.04297312 -0.36557102 0.01064138 -0.060248498 0.25215274 0.0034730148 -0.29137138 -0.11845994
-0.07631244 0.16713983 -0.10885708 0.13285418 0.24457861 -0.23963544 -0.12306928 -0.080097094
0.056871798 -0.40450686 -0.29533878 -0.120447546 0.1098469 0.13965623 -0.045433443 0.06285308
0.2634913 -0.3647024 0.21463105 0.08348704 0.106418364 -0.02639154 -0.06444969 0.042918615
0.4361322 -0.12205346 0.16220176 0.14068937 0.12929985 0.045162644 -0.20379104 0.18419413
-0.61380565 0.23442166 0.15984792 -0.15876774 -0.28869686 0.116037704 -0.10389859 -0.09544771
-0.25084296 0.14572988 -0.12078255 -0.069391795 0.025537314 -0.20926033 -0.18205734 -0.19506316
-0.5402431 0.23708992 0.4657336 -0.038759332 -0.19413204 0.29667276 0.22076234 0.25875482
-0.091222145 0.29994437 -0.032426916 0.17915446 0.3072666 0.10452425 0.19829564 0.100317396
0.13838956 -0.25587344 -0.4131086 -0.122045435 0.15161419 0.11645333 -0.07880409 -0.06086673
-0.29188818 -0.047717992 0.06261818 0.24982911 -0.15454805 -0.22385271 0.20390692 -0.38272515
-0.023605108 -0.13725813 0.19421582 0.29919508 -0.3184071 -0.1978673 -0.07638482 -0.22905451
-0.2978463 -0.040898584 -0.0068309633 -0.03346184 0.15942563 0.28332552 0.27077475 0.19008756
-0.00067569525 -0.034711473 0.2461977 -0.35966846 0.05509587 -0.19629757 -0.18522568 -0.253117
-0.103207305 0.006840496 0.49311215 0.042858284 -0.27719536 0.33001894 -0.022266274 0.09342103
-0.14014097 -0.09815254 -0.15150356 0.37750754 -0.02952531 0.2871837 0.16114093 -0.12824988

critic.preprocess.model.model.0.bias f4 [64]
00000000: e998 85be f128 dc3e 1f6c 743d 2c7a e9bd
00000010: 1c58 8abe c9bd b0be 4450 97bd e554 05bd
00000020: 3f76 523e 52f8 0abf 86e4 a9bd b04e 453e
00000030: 64a3 5e3e 5d48 a23d 3e4a 9d3e 44e1 c53e
00000040: 4d96 c9be c4d6 a63c 1f94 68be db1f ee3e
00000050: e941 833e dc10 a83d 4c34 38be 437c abbd
00000060: 47dc 5f3d da3b 4fbe 1747 7f3e ff1a 493e
00000070: e3de 5dbc f107 93be 52a9 11be d0ec 693c
00000080: 026e 8e3e c853 423e 3ced c63e 954d 80be
00000090: ce67 4cbe c30d 17be 7c1c 84be 42a2 fabe
000000a0: 54b8 ab3e cb1a 37bd 3b60 99be cbf8 083e
000000b0: 5022 e8be 40fb ca3d cdcd bc3e b9c1 30be
000000c0: 5863 033d b225 97bc faa5 593f 3511 6aba
000000d0: eaf5 e5bd b43a a03a 8d92 7ebe 215e 843e
000000e0: 7faa 863e e2f1 7b3e 7eae f13e 9d78 d73d
000000f0: a2ff 84bd 9ef2 ee3e c1aa b5bd 4b26 92bb
-0.26093224 0.42999986 0.059673425 -0.114002556 -0.27020347 -0.34519795 -0.07388356 -0.032551665
0.2055292 -0.54285157 -0.082955405 0.19268298 0.21742016 0.079239585 0.30720705 0.38648427
-0.39372483 0.02036608 -0.22712754 0.4650868 0.25636223 0.08206341 -0.179887 -0.083733104
0.054653432 -0.20237675 0.24929462 0.19639204 -0.01354191 -0.28716996 -0.14224747 0.014277652
0.27818304 0.18977273 0.3885287 -0.2505919 -0.19961473 -0.14751343 -0.25802982 -0.48951918
0.3353907 -0.044703286 -0.2995623 0.13376157 -0.45338678 0.099112034 0.36875764 -0.172614
0.032077163 -0.018450592 0.85018885 -0.00089289556 -0.11228545 0.0012224526 -0.24860592 0.25853065
0.26301953 0.2460399 0.4720344 0.10521052 -0.064940706 0.46669477 -0.08870459 -0.0044601313

critic.preprocess.model.model.2.weight f4 [64, 64]
00000000: 61ae 373b b0e6 3abd b0d9 92be fc84 4ebd
00000010: 33fe d73d 60eb 86be 916f d5bd 224a 87be
00000020: 2056 4a3e ba2d 63bd 5ecd c5bb 2a8e 053f
00000030: 97c8 23be 903d c33e dbd9 d2bd 2533 b8bb
00000040: 72bc 11be 41b5 edbe 6bb2 5e3e 5449 123d
00000050: ad28 b73e 217a f4bc b31c 80be fedb 2ebf
00000060: c166 6dbe ff4f b93e b07c e7bd 1d86 84be
00000070: bcfe 58be deda 16bd f9fc 24bc 354c 253d
00000080: d58a 51be b25e 4cbe d224 023f be03 01bf
00000090: 7256 4dbd b9f7 723e 82d7 27bf b0d8 1cbd
000000a0: 992d 613d 5643 c5be 4b29 d1bb eab4 173e
000000b0: 490f 403c 0277 f8bc cedb 27be f9c1 d43d
000000c0: 71fa 3f3e 74f7 2e3e 476e d53e c9b1 dabd
000000d0: 5554 c3bd bccd 83be ab5a 06be af77 86bd
000000e0: bd0e 5c3d cff3 18bc d3e2 0c3c 222e 62be
000000f0: dd47 e23d af15 343e ae8c b53a 324c 803e
00000100: 527c cdbd 8ad3 123e 2f0a 89bd 0c7c 603e
00000110: 8f74 c73d 6423 0a3e 63e4 683e 830f 5d3e
00000120: bb12 5f3e 1ac6 8abd ba60 4bbd 7075 47be
00000130: aaa4 1e3e 3a88 aabe 0690 b43d 372f 9c3d
00000140: 5be7 93bc 6087 2f3d c175 a63e f656 3ebd
00000150: 5cce 593b bbe1 c5bc 3c5a 1fbd 79c6 043e
00000160: b452 01bd 3980 c93e 4139 eb3d 00f1 603e
00000170: f109 6cbd caff 693d 42e5 17be 405a 24be
00000180: 6fd1 7c3d 355a eb3e 990e 0ebe fd3a ecbd
00000190: 0b69 49be 63bd 303e 971f bfbd c6a1 2abe
000001a0: f89d ca3d 1f27 d83e af11 05be f25b 12be
000001b0: 4ec4 a6be 9c4e 843d f4b7 f5bd 7388 c5bd
000001c0: ca6f ad3e 7351 2ebe e645 02bf a365 c53c
000001d0: 1454 8f3d 82a7 2a3e 2837 b53d 403d 443e
000001e0: cda0 d13d 22db 563e 3ff1 69be ecbc a43d
000001f0: ad3e 5c3c 6f46 5b3e fde3 ec3e 80fa 913e
00000200: 405e cebd a6f3 443d bffa 41bc e6c6 973c
00000210: 2b9c 1d3e 61db 413d 99d8 a6ba d12d 893e
00000220: 918e 843d 6606 11be 3ba0 18be f472 35be
00000230: 4d29 1abd 50f3 d53d 4c22 92bd 86df bc3d
00000240: fbde 9b3e c979 9a3d 2541 483e c01e 24bf
00000250: a5f8 09bf 1c05 953e e871 663e 0a5f 173e
00000260: 4878 67bd 2bb1 48bc d4d8 2dbe 1926 003e
00000270: 49f9 233e 5ea3 c83e da41 8d3e 3378 063e
00000280: 2cfd e0bd b92d 803e eaa7 92be d4e3 d83e
00000290: 85ec 293f 2126 f93d 0e3b 903d 218d dfbc
000002a0: d73b c7bd 1c9e d13d 0e04 38be 57f8 92be
000002b0: 1fa3 6ebd 280e c9bd b13d 4fbd 213e 2a3d
000002c0: 546d d93d aa0e 01be aa0c 35be e8c7 52bd
000002d0: 8483 b0be 5b8b 9bbb 0d6a d83e 5e66 623e
000002e0: 24ea bdbe af1e e13c e32b 78be e8ac 5fbe
000002f0: 404d 5b3c 2634 73be 6f04 7fbd 8eaf 71be
00000300: 4343 213f f56e 03bf 8e8c 32be ac63 9e3d
00000310: f50a 043d 1cc4 b63e 583b 35be f8e4 8abd
00000320: dadb 9cbe 81f5 343e 4edd d33e cef5 d9ba
00000330: 61fd 1bbe 24a9 51be 61fd c5bd 36bf 9ebd
00000340: f22a ab3e 4b4c 683c 92b2 493e 4e47 0abf
00000350: c919 8abe 1776 77be 0eb2 6fbb 28be 9abd
00000360: 9de4 c43d b87f febd 1edd fc3a 8629 09bf
00000370: ed93 623e 4e80 f13d 9618 783e 815c f33d
00000380: 702c abbe bd2c b5bc eb58 863e 838d a83d
00000390: bbeb 253e 56e9 033d f91b 753e ff93 d73e
000003a0: cd69 6a3e 8cee 733e 391e d93d e482 6cbd
000003b0: f910 603e 9e51 a9bd 7087 9fbe 1161 063c
000003c0: 0f9d 00be 910d 9dbe 1fae 14bf 9cb3 083e
000003d0: 7719 91bc 7f0a 673e c8cf 823d 8b53 b9bc
000003e0: a729 22bd 67c9 513d 6406 04bf 517e 1abe
000003f0: 5f37 6d3d d346 c8be 9aea 15bb 6e30 f53d
0.0028027522 -0.045630157 -0.28681707 -0.050419793 0.105465315 -0.26351452 -0.1042167 -0.26423746
0.19759417 -0.05546353 -0.0060364446 0.5217005 -0.15994488 0.38132906 -0.10295459 -0.0056213313
-0.14232042 -0.46427348 0.21747749 0.035714462 0.3577322 -0.029843392 -0.25021896 -0.6830443
-0.23183729 0.36193845 -0.11303079 -0.2588357 -0.21190923 -0.03682982 -0.010070079 0.04035588
-0.20463116 -0.19957998 0.50837433 -0.50396335 -0.05013127 0.23727311 -0.65563214 -0.038292587
0.054975126 -0.38527936 -0.0063830963 0.14815107 0.011722394 -0.030330185 -0.16392443 0.1038856
0.1874788 0.17086583 0.41685697 -0.10678441 -0.095375694 -0.257429 -0.13120525 -0.065657966
0.053724993 -0.009335472 0.008599001 -0.22087911 0.11048863 0.17586397 0.001385113 0.25058132
-0.10033478 0.14338508 -0.066913955 0.2192232 0.09739029 0.13490063 0.22743373 0.21587949
0.21784489 -0.06776066 -0.049652793 -0.19478393 0.15492502 -0.33307058 0.08816533 0.07626193
-0.018054655 0.042853713 0.32511714 -0.04646965 0.0033234572 -0.024155488 -0.038904414 0.12966336
-0.031573012 0.3935564 0.1148553 0.21966934 -0.05762667 0.057128705 -0.14833549 -0.16050053
0.06172317 0.4596726 -0.13872756 -0.115346886 -0.19668977 0.17259745 -0.09332197 -0.16663274
0.098934114 0.42217347 -0.12995027 -0.14292887 -0.32571644 0.06460306 -0.11997977 -0.09645166
0.3387435 -0.17023258 -0.50887907 0.024096316 0.069984585 0.16665462 0.08848411 0.1916399
0.102357484 0.2098203 -0.22845934 0.080438465 0.013442677 0.21413587 0.4626769 0.2851143
-0.100765705 0.048083924 -0.011839568 0.01852746 0.15391605 0.047328357 -0.0012729346 0.26792768
0.06472505 -0.14162597 -0.14904873 -0.17719632 -0.037637044 0.10446799 -0.07135448 0.09222321
0.30443558 0.0754276 0.195561 -0.6410942 -0.53895026 0.2910546 0.2250439 0.14782348
-0.056511194 -0.012249271 -0.16977245 0.12514533 0.16013063 0.3918714 0.27589303 0.1313179
-0.10985789 0.25034884 -0.28643733 0.4236132 0.66376525 0.12165476 0.07042514 -0.027288975
-0.097282104 0.10235235 -0.17970297 -0.28705093 -0.058261033 -0.09817153 -0.050595943 0.041563157
0.10616556 -0.1260325 -0.17680612 -0.051460177 -0.34475338 -0.004746837 0.4226841 0.22109362
-0.37092698 0.027480451 -0.24235491 -0.21843302 0.013385117 -0.23750362 -0.062260088 -0.23602125
0.6299326 -0.5134118 -0.1743643 0.07733855 0.032237012 0.35696495 -0.17698419 -0.067819536
-0.30636483 0.17671777 0.4137978 -0.0016629042 -0.15233375 -0.20474678 -0.09667469 -0.07751314
0.33431202 0.014178346 0.19697025 -0.5401505 -0.26972798 -0.24166141 -0.0036574635 -0.07555801
0.09613917 -0.12426704 0.0019291972 -0.53578985 0.22126742 0.1179205 0.24228129 0.11882878
-0.3343234 -0.02211606 0.26239714 0.08230116 0.16203205 0.03220495 0.23936452 0.421051
0.22891922 0.23821467 0.10601468 -0.057742015 0.21881475 -0.0826752 -0.31158018 0.008201853
-0.12559913 -0.30674413 -0.5807819 0.13349766 -0.017712338 0.22562598 0.063872874 -0.022622844
-0.039590504 0.051217463 -0.5157225 -0.15087248 0.057914134 -0.39116535 -0.002287543 0.11972128

critic.preprocess.model.model.2.bias f4 [64]
00000000: a29a 0c3e 0611 e2bd 46f7 47be b484 9ebe
00000010: fa9c 9cbe 5f55 673e ce1a 003e bc7f 95be
00000020: 6f06 09bd b98e 953b c7f1 2bbe 90db 423e
00000030: 101f 79be 937a 50be 2ea4 75be 7830 8c3e
00000040: ec9c 52be 2060 7cbd a798 273e 629b 4bbe
00000050: 8139 643e f4bb 72be 88b3 7d3e 628d 4f3e
00000060: ce22 75be f106 7f3e 3ae2 0b3e 1030 143e
00000070: afa3 673e 3b1b 213e ae61 1b3e e3c4 863e
00000080: 20e4 7fbe f21f 293e 6856 13be 917d f13d
00000090: ed9b 163e 105f 7bbe 9b85 11be c8a9 89be
000000a0: dfac 1abe 72eb b6be deba 323e 8b71 b7bd
000000b0: 1e96 593e b712 7abe 840b 883e ef71 1bbe
000000c0: a0fd 323e 6b2f 2ebe 921b 30be 067d cfbd
000000d0: 22ce 08be ac86 26be 4096 953e 0de4 88be
000000e0: 35fe 55be a2a1 103e 3608 99be 4929 0bbe
000000f0: 83fa 723e 810a eebd 43da 483e 9c76 723e
0.13730863 -0.11038403 -0.19527921 -0.3096062 -0.30588514 0.2259116 0.12510225 -0.29199016
-0.0334534 0.004564133 -0.1679145 0.19029069 -0.24328256 -0.20359258 -0.23988411 0.2738073
-0.20567673 -0.06161511 0.16366826 -0.19883493 0.22287561 -0.23704511 0.24775517 0.20268777
-0.23939058 0.24904992 0.13660517 0.1447146 0.22621034 0.15733044 0.1517398 0.26322088
-0.24989367 0.16516092 -0.1438843 0.11791528 0.14707918 -0.24547982 -0.14211123 -0.26887345
-0.15105008 -0.35726506 0.17454097 -0.089572035 0.21248671 -0.24421202 0.26571286 -0.15180181
0.17479563 -0.17010276 -0.17198017 -0.10131268 -0.13359883 -0.1626231 0.29216194 -0.2673649
-0.20897754 0.14124158 -0.29889077 -0.13589968 0.23728375 -0.11623097 0.1961451 0.23678058

critic.last.model.0.weight f4 [1, 64]
00000000: 8fb7 e13e 5208 33be e942 bbbe 3eff d73e
00000010: fa30 fabd 9b5f cb3e 0c40 b53e 6eca adbe
00000020: 446f a2be b489 723e 2ce8 253e f8da 5e3e
00000030: 028e 7ebe 58bf aebe d730 6dbe 3b38 9c3e
00000040: be58 88be e3f9 33be 799e 0fbe cb2f eabe
00000050: 4955 353e 88bf 8fbe 6f60 733e 007b b03e
00000060: 3038 983d 870b 8f3e aa08 443e 68ba 2f3e
00000070: f4f6 123e d805 393e 9957 26bc 6e96 fdbc
00000080: 2f1d e8bc 0e78 743e 09dd 9dbe babf 073f
00000090: 18b2 59be 5b06 c8bd 80fb a3be b2fa ddbe
000000a0: 69b7 adbd ae81 b1bd 0353 d9be 736d be3e
000000b0: bcfe b23e dcb8 83be ef6a b03e f4df 93be
000000c0: 27cd 733e fdbb 293e 0413 00be a45c 39be
000000d0: 2075 f4bd 6e18 a5bd 7c8b 633e 20a1 8abe
000000e0: 698e b5be d690 9a3e dd3d 1bbf 592c b1be
000000f0: a178 d33e d246 2fbe 7efb 58be fc28 973e
0.44085357 -0.17483643 -0.36574486 0.42186922 -0.12216373 0.3972138 0.35400426 -0.33943504
-0.31725514 0.23685342 0.16201848 0.21763217 -0.24858859 -0.3413036 -0.23163162 0.3051165
-0.26630205 -0.17575793 -0.14025296 -0.45739588 0.17708315 -0.28075814 0.23767255 0.34468842
0.07432592 0.27938482 0.1914393 0.17160952 0.14352018 0.18068635 -0.010152721 -0.03095552
-0.028334228 0.23873922 -0.308327 0.53026927 -0.21259344 -0.09766837 -0.32027817 -0.43355328
-0.08482248 -0.086673126 -0.42446145 0.37192878 0.34959972 -0.25726974 0.34456584 -0.288818
0.23808728 0.16575618 -0.12507254 -0.18101746 -0.11936402 -0.080613 0.22221178 -0.27076054
-0.35460213 0.30188626 -0.6064127 -0.34604147 0.4130297 -0.1711686 -0.21189687 0.29523456

_actor_critic.actor.sigma_param f4 [2, 1]
00000000: 972d 3640 3aaf 4340
2.8465326 3.05757

_actor_critic.actor.preprocess.model.model.0.weight f4 [64, 8]
00000000: 7c57 2abd 9181 e4bd e52d ed3d 9f1f ba3d
00000010: b0ba 82be f7aa 91bd 06dc f63c 01ec eebe
00000020: 5797 d93e 8321 ef3e f0a0 99bd db74 d7bb
00000030: a752 023f 0fc7 a9be d793 d13b c51a 07bd
00000040: 3265 a23e 6e62 3a3e ac55 0f3d 6a6a c93d
00000050: 6b3e c73e 51f7 41be 241e d83d 8f45 88be
00000060: f338 54bd c3e0 02bf d86c 653e 65b9 ac3c
00000070: c205 86be 8a05 4bbe 3427 f23e 0244 2cbe
00000080: 06d2 8ebd f438 643f 450e 1e3e 37d0 eabe
00000090: 011f e339 0b04 64be 7ebb 05be 503b 08be
000000a0: a3ae 5fbe a50f 9dbe 8a29 99bd cf10 083e
000000b0: 90a6 0c3e f722 e9bc 1d9e f53c eef6 9ebd
000000c0: 2c23 253f 66cf 403e 18d8 cdbe 30f9 313b
000000d0: 0200 d3be 054d f6bd a74f 4abd 4871 f73e
000000e0: 45c6 0d3e 5ac8 c53e f798 3fbe fd15 9dbd
000000f0: d046 a23e 96c2 813d 40c5 f63d 7ee4 523e
00000100: e121 7c3d b9b8 8e3e a071 b3be e03b 1ebc
00000110: 2ba7 e53e 4213 83be f298 3a3d 3daa b03d
00000120: 0f6c 75bd 7d1b 993e 8529 ba3e 025d 0f3d
00000130: abac 9c3d a89b ed3e 6287 ea3c c47d a4be
00000140: 8f0a 43be 7e87 c9be cac4 0fbd 4614 173e
00000150: 659c 7fbe 1525 6a3e d2f0 59be a12d 7ebc
00000160: 8ac3 343e 59d1 a53e 1b2f bbbd 9e66 133d
00000170: 05f8 b73e d2da 18be 4bb1 993e f32b 053e
00000180: 4fd8 123f 5f17 24be e4a3 d1bd 4a11 e13e
00000190: 1a1f 4d3d 20c7 11bf ce6b 103e a5e9 2f3f
000001a0: e680 09be a21c 81be 583f fd3d 6d7a 39bc
000001b0: fc53 a5be ddd9 ab3d 316a 84be 98c4 113d
000001c0: 6a06 1ebe f8cb 04bf bd70 94bc f071 5fbe
000001d0: 3d40 96be a47a f63e 304d adbb 7b2a 203e
000001e0: 6994 fd3e 521f 023d 34fc ef3d f01e 613c
000001f0: bb64 2cbe cc33 863e 88c6 783e 880f ebbe
00000200: 0bac 9e3e b891 193f e9a0 18be e850 ccbc
00000210: b6ca 673e 2263 26be d597 393e 7f3b d9bc
00000220: ca55 a4be 56fe f03e 4cc0 f43e 5f85 203d
00000230: c924 a2be c2c1 b6bd c3bf 18be 2050 ba3c
00000240: 0e9b 8abe e10c 393f 69b0 013f 7234 3f3e
00000250: 265e f43b f833 fdbe 9c14 103e 3ef0 a8bd
00000260: b6df 1a3f 00b2 d63e 8fc3 583d e540 91be
00000270: bfc7 63be 45bc 0bbe a905 05be 31a8 613d
00000280: b9ec a6be 7392 ad3d 04b4 a83d 47bf 923d
00000290: 66a8 bbbe 5002 6dbe b36c 0b3e 90c7 853f
000002a0: 3684 353e d1bc b43e bdab 2ebe de30 3e3e
000002b0: 6ed6 fc3e b089 1cbe 3dab aa3d 9949 7e3e
000002c0: 6383 0bbe eaf2 16bf bb5e 8c3c e2ea 803d
000002d0: 5347 c93d 6174 6c3e b316 c73e 6ce1 ea3d
000002e0: b2ff 93be 2238 adbe 924f f9bd 887c 4dbd
000002f0: e809 27bd 2466 5cbe 548e 73bc 0f0f d93d
00000300: 7350 3bbe 4b4e 93bd d62a 4f3c faf9 8fbc
00000310: 412f ecbe 1d8d 4d3e 2560 9dbe 9ae0 1b3e
00000320: c5be 203f ba6a f93e 3acb f13d b4b6 acbd
00000330: b056 6b3e 3199 c7bd fec9 123d 0a7b 0dbe
00000340: bdf3 0a3e ad32 403e 3e8e b2be ba72 7c3c
00000350: 4316 3abe 14f4 873e f5ee 713e 7bff ef3d
00000360: 83dc 0e3c 5f19 1b3f 07d4 88bd 00c0 0e3d
00000370: 3f48 98be 8ae8 04be f48c e63c ee67 00be
00000380: e6aa 26bf 9209 7abe 2169 2f3d c72d 3d3c
00000390: 356e 1bbe d28e b9be 5604 0cbe 5d69 5f3f
000003a0: ec90 73be cff8 283f 901d 4d3f a01c bd3b
000003b0: f0e4 9d3e ccd1 8d3d 7d86 c4bd 791f 8e3e
000003c0: 91f9 99be 9aeb 88be 4179 13bd 6b6f e63e
000003d0: 942c 83be 88f5 8f3e 179e 253d c596 b9bd
000003e0: fdcf edbe dbb1 d9be b326 603d 69bd ba3d
000003f0: 3441 5ebe 0f11 8ebe 2cdf e13d b210 8f3e
-0.041587338 -0.11157525 0.11581019 0.090880625 -0.25533056 -0.07112687 0.030134212 -0.46664432
0.42498276 0.46705255 -0.075013995 -0.0065752096 0.5090737 -0.33159682 0.0063957977 -0.032984514
0.3171783 0.1820161 0.034993812 0.0983475 0.3891481 -0.18942 0.10552624 -0.2661557
-0.051812124 -0.5112421 0.22404802 0.021084497 -0.26176268 -0.19826332 0.47295535 -0.16822818
-0.069736525 0.89149404 0.15435131 -0.4586198 0.00043319914 -0.22267167 -0.13059804 -0.13303876
-0.21843962 -0.30675998 -0.07478626 0.13287662 0.13735414 -0.028459055 0.02998262 -0.07761942
0.64506793 0.18829116 -0.4020393 0.0027156584 -0.41210943 -0.12026409 -0.04939237 0.48328614
0.13845165 0.3862942 -0.18710695 -0.076702096 0.3169465 0.063359424 0.12049341 0.20594975
0.061555747 0.27875307 -0.35047626 -0.00965783 0.44854102 -0.2560063 0.045556016 0.086262204
-0.059917506 0.29903784 0.36359802 0.03500081 0.07650121 0.4640782 0.028629009 -0.32127202
-0.19046997 -0.39361185 -0.035099782 0.14753827 -0.24962004 0.22865708 -0.21283272 -0.0155138085
0.17652717 0.32386282 -0.09139844 0.035986535 0.3593141 -0.14927223 0.30018076 0.13005047
0.5736131 -0.1602454 -0.10236338 0.43958503 0.05007849 -0.56944466 0.14103624 0.6871589
-0.13428077 -0.25217158 0.123655975 -0.0113206925 -0.32290637 0.083911635 -0.25862268 0.035587877
-0.15432134 -0.5187373 -0.018120164 -0.21820807 -0.29345885 0.48140442 -0.0052887425 0.15641205
0.4952729 0.03176815 0.11718026 0.013740286 -0.168353 0.26211393 0.24294484 -0.45910287
0.30990633 0.59987974 -0.14905132 -0.024940923 0.22635922 -0.16248754 0.18124326 -0.026517628
-0.32096702 0.47069043 0.4780296 0.039189693 -0.3166869 -0.08923675 -0.14916901 0.022743285
-0.27071422 0.72285277 0.50659806 0.1867235 0.0074575124 -0.49453712 0.14070362 -0.082489476
0.60497606 0.41932678 0.052920874 -0.28369823 -0.22244166 -0.13646038 -0.1299044 0.05509204
-0.3260248 0.084751986 0.0823746 0.071653895 -0.36651915 -0.23145413 0.13615684 1.0451527
0.17726216 0.35300305 -0.170577 0.18573329 0.49382347 -0.15286899 0.08333442 0.24832763
-0.13624339 -0.5896441 0.017135015 0.062948 0.09828057 0.2309127 0.38884506 0.11468777
-0.28906018 -0.33831888 -0.1217338 -0.05016759 -0.04078093 -0.21523339 -0.014865477 0.10598575
-0.18292408 -0.071926676 0.01264449 -0.017575253 -0.46129802 0.20073362 -0.30737415 0.15222397
0.6279109 0.48714238 0.118063405 -0.08433285 0.22982287 -0.09746016 0.035837166 -0.13816467
0.13569541 0.18769331 -0.34874147 0.015408212 -0.18172555 0.26553404 0.23626311 0.11718651
0.008719566 0.6058559 -0.06681066 0.034851074 -0.2974262 -0.12979332 0.028143384 -0.12539646
-0.6510452 -0.24417713 0.042824868 0.011546559 -0.1517876 -0.36241776 -0.13673529 0.87270147
-0.23785752 0.6600465 0.80123234 0.0057712346 0.30838728 0.06924781 -0.09595964 0.27758387
-0.30073217 -0.2674225 -0.03600431 0.4500688 -0.25619948 0.28117013 0.04043397 -0.0906196
-0.46447745 -0.42518505 0.054724406 0.09118158 -0.2170456 -0.2774739 0.11028895 0.27942425

_actor_critic.actor.preprocess.model.model.0.bias f4 [64]
00000000: 6de3 5a3d 9379 e3bb 01be 3b3d b1eb 2b3d
00000010: 10bf 4d3e 9e63 8dbc 82a8 853c 8f17 05ba
00000020: 78d5 25bd 3b6e 9e3d b98b 0cbc 60d2 97bc
00000030: 79d2 1a3e 4a36 95bb 57b0 223d 83d6 8d3c
00000040: 8a1d 0b3c 0806 77bd 1d3a 47be f869 db3c
00000050: 5051 4dbd 0f3f ecbb 433c 3fbd bafc acbc
00000060: 18cc 0cbd bc2b 7a3c b0a0 5ebd 88b9 8cbc
00000070: b764 c4bc 94d0 31bd 1e44 c53c 13aa 99bb
00000080: 5c78 b6bc 3e25 0fbd 66c8 d23c c1d8 463d
00000090: 2dc0 76bc d211 ed3a aeb5 403b feb0 583d
000000a0: 5165 c03c 1c06 103d 75e3 b83d 51b6 5fbd
000000b0: d17b 0bbe 13e2 233c f54c 0a3c 2b51 313e
000000c0: 1b44 c63b ed82 7d3c 963a 6ebd e22f b3bb
000000d0: a7c8 903c 8e7c 2b3c 2748 063c 7d61 04bb
000000e0: 9d46 c2bc 7487 af3c 20d7 303c 6a7d 89bd
000000f0: 0409 d13b 3dee 783d d712 66bc 340b f43c
0.053439546 -0.006941983 0.0458355 0.04197282 0.20092416 -0.017259415 0.016315702 -0.0005077058
-0.040486783 0.077358685 -0.008578234 -0.018532932 0.15119351 -0.004553591 0.039718952 0.017314201
0.008490929 -0.060308486 -0.19455762 0.026783928 -0.050126374 -0.0072096656 -0.04668833 -0.021116603
-0.034374326 0.015269216 -0.054352462 -0.017178312 -0.023973806 -0.043411806 0.024080332 -0.004689464
-0.022274189 -0.034947626 0.025730323 0.048546556 -0.015060467 0.0018086976 0.0029405165 0.052903168
0.023485811 0.035162076 0.09027759 -0.05461723 -0.13621451 0.010002631 0.0084412 0.1731612
0.0060505993 0.01547311 -0.05816134 -0.0054683546 0.017673803 0.010466708 0.008195913 -0.002019971
-0.023715312 0.021426894 0.010793477 -0.06713374 0.0063792486 0.060774077 -0.014042578 0.029790498

_actor_critic.actor.preprocess.model.model.2.weight f4 [64, 64]
00000000: baa9 82bc 12db 343e 00b7 eb3d e4d1 6cbe
00000010: 6cfa 623e 69ee 8bba b2c3 acbe 5588 6e3c
00000020: cf5f a93d 5dfc 833d 6b66 6fbe 8afd da3d
00000030: bbe9 e7bd b2cf c7bd d278 59be 3025 24be
00000040: b045 11bd 91ed 253e e4b7 fb3e 3c32 dfbd
00000050: 5c64 9a3e f7a2 02bc 1bd3 f0be c5b5 c2be
00000060: 3574 633e 467b f7bd 8e15 c33c c5d7 a1bd
00000070: 5487 4dbd f1ee 803e 5d6b 02be aff3 b4bd
00000080: de13 81be c6de c2bb 02ce db3d a159 75bd
00000090: 979c 62be 847f 15be f633 aabd 537f 78be
000000a0: 08a8 1c3e 5066 833e 7128 113e caf1 1d3e
000000b0: 8a37 0d3f c87e a6bd fb53 8b3d 2422 233d
000000c0: 8159 6fbe f51e a6be f80e 3c3e ba0f c33e
000000d0: e933 d53e 6f92 c8be c56f 963e 51d7 103e
000000e0: 5409 fc3c b9e4 97bd 2c82 cdbe bc08 19bf
000000f0: 041d 05be 10a7 65be 6927 703b a8c0 87be
00000100: 2b89 83be 098d 893f 1833 0f3f d6d0 a8be
00000110: 0543 fc3e 0caf 97be 7fd8 343e a11d 163f
00000120: f6a4 de3e 6797 a0bd eb6b febe 0559 3b3f
00000130: aa77 c43e bbfe adbd c58f 83bc 1e49 9f3e
00000140: ac06 703f 447e 483d 494b 2d3e 15d7 0f3f
00000150: b167 d2be 7235 8c3f fc07 a4be e3e9 823d
00000160: 7d2d 70bd ea66 a33e 2588 b23e 57cf 503e
00000170: 1bde c1be ed4e 083e c6fb c7be 1334 9dbe
00000180: 9dc2 3e3e 1524 09bf a9f6 f4bd 2220 f4bc
00000190: 7528 60be c5d9 e2bd c97a 153f 5741 013f
000001a0: e8d7 1d3f b2cd fa3d 3171 5abe fbde bcbd
000001b0: 3fbf e03e 811c 11bf 2d5a 21bf 6f0f c5bd
000001c0: 1fc9 14be 3d4e 22be cf07 94bb ff9a d5be
000001d0: 23d4 a2be a9f0 f0be 1a59 3ebe ffec 15bf
000001e0: 1726 83bf 0d4f 2f3f fa5e 29be f872 acbe
000001f0: d87a 163f c2bf f73d e3ef 10bf 791c abbe
00000200: 3411 88be af52 22be 461e 41be 8b26 3bbe
00000210: 516d 85be 67b6 273c 3ea0 edbc da6c 99be
00000220: 1ae3 293e 2e59 b8be d772 1b3d 817b 9ebd
00000230: 3a5b 073c e8ad 433d a9d7 34be ceb4 1c3e
00000240: 8b68 043e 33b7 9fbc 225f 5bbe 1da6 aa3d
00000250: 0393 33bd f437 0fbd b55e ed3e 6370 ccbc
00000260: b104 c3be fb4e 9ebe 2854 3dbd 85b1 b4be
00000270: 91cc 03be 5f5a 03bf 4656 6abe 8b5d 393d
00000280: b8fc ad3e aee1 9fbe 7ed2 69be 7b6e 47be
00000290: 10e4 e23e 6b4b 033f 746d 3abe a5f0 d43b
000002a0: 4b66 9c3e eb27 18be cbc5 b3be bf03 01bd
000002b0: fdd3 b3be bf97 813d f5eb 1cbe 87ca 063e
000002c0: 0fe8 8c3e 336a 90bb 78cc 13be 20ae f1be
000002d0: 3df9 83be 1936 c23c 4c48 f5be cfce 923e
000002e0: 2057 833e 9878 803c 83f6 bf3e 7111 283e
000002f0: ba5e ddbd 3b14 823d 0afa 193e 4423 8c3d
00000300: 4bb6 413e 6108 19bf 581a 8dbe 81b3 d83e
00000310: 170d 87be 35ec 243d d107 f3be e5df 07bf
00000320: 1595 9fbe 2632 35be 4f59 a93e 9d00 d2bd
00000330: a45e 05be 8b9f 55be 5237 9a3e 469a 153e
00000340: a4d0 56bf a9d3 3d3e 5e6f cabd 25bd adbe
00000350: ac08 733e b34a d5be f86e a63c 1900 5e3e
00000360: f04c 563e aa1b debe 6bca 183e aa19 48be
00000370: 71db e83e 05c6 60be 289e d33e 6fe3 cb3e
00000380: 6038 423d 0d8c 293e a378 a93e d09f e8bd
00000390: f9f0 e83e e186 823e 0688 1abf f0c5 15bf
000003a0: eb47 66be 4c4d 97be 256a b03e c818 b53e
000003b0: d4ac 95bc 429c 4c3e cf73 1c3f 9fe0 ce3d
000003c0: e6f9 953e ec53 e03e 4f46 27be 167b c9bc
000003d0: 4ef8 c93d 087b c93e 86a4 3f3e ab6f 643e
000003e0: c95b 343f 0bb7 85be a109 9f3b fedd b43e
000003f0: 275d fcbd ed6a 37be e1d0 253e 36fe 913e
-0.015950073 0.17661694 0.11509514 -0.23126942 0.22165841 -0.001067591 -0.33743054 0.014558871
0.08270227 0.06444619 -0.23378913 0.1069289 -0.113238774 -0.097564116 -0.21237496 -0.16029811
-0.03546685 0.16203906 0.49163735 -0.10898253 0.30154693 -0.007973424 -0.4703606 -0.38029304
0.22212298 -0.120840594 0.023813989 -0.07902483 -0.050177887 0.25182298 -0.12736268 -0.088355415
-0.2521047 -0.005946967 0.10732652 -0.05989993 -0.22130047 -0.14599425 -0.08310692 -0.2426732
0.15298474 0.25663996 0.14175583 0.15424266 0.5516287 -0.0812965 0.068031274 0.03982748
-0.23373987 -0.32445493 0.18365085 0.38097936 0.41641167 -0.3917422 0.29382148 0.14144637
0.030766167 -0.07416672 -0.40138376 -0.5977895 -0.1299935 -0.2242701 0.0036644584 -0.26514173
-0.25690588 1.0746166 0.5593734 -0.3297183 0.49269882 -0.29625738 0.17660712 0.5863896
0.4348523 -0.07841378 -0.4969171 0.7318271 0.38372546 -0.084958516 -0.016059766 0.3111047
0.9376018 0.04894854 0.1692325 0.56187564 -0.41094735 1.095381 -0.32037342 0.063922666
-0.05863713 0.31914455 0.34869495 0.20391594 -0.37864766 0.13311358 -0.39059275 -0.30703792
0.18628927 -0.5357068 -0.11961109 -0.029800478 -0.21890433 -0.110766925 0.5839048 0.50490326
0.6165757 0.122462645 -0.21332242 -0.09222218 0.4389591 -0.5668412 -0.6302822 -0.09622084
-0.14529847 -0.15850158 -0.0045175324 -0.41719815 -0.31802472 -0.4705861 -0.18588677 -0.5856475
-1.0245999 0.68479997 -0.16540137 -0.33681464 0.58781195 0.12097122 -0.5661604 -0.3342016
-0.26575625 -0.15851854 -0.18859205 -0.18276422 -0.26059964 0.010236359 -0.029007073 -0.2996586
0.16590539 -0.3600554 0.037951317 -0.077384 0.008261496 0.04777327 -0.17660393 0.15303347
0.12930505 -0.019496536 -0.21423009 0.08332465 -0.043841373 -0.03496547 0.46361318 -0.024955934
-0.38089517 -0.30919632 -0.046222836 -0.35291687 -0.12871005 -0.5130977 -0.22884473 0.045255225
0.33981872 -0.31226867 -0.22834203 -0.19475739 0.44314623 0.51286954 -0.18205816 0.0064984136
0.30546793 -0.14858977 -0.35111842 -0.031497713 -0.35122672 0.063277714 -0.15324385 0.13163196
0.27520797 -0.004407191 -0.14433467 -0.4720316 -0.2577609 0.023707436 -0.4790672 0.28673407
0.2565241 0.015682504 0.3749276 0.16412903 -0.10809083 0.06351515 0.15036789 0.06842664
0.18917195 -0.5977841 -0.2755916 0.4232445 -0.26377174 0.040264327 -0.474669 -0.5307601
-0.31168428 -0.17694911 0.3307595 -0.10254023 -0.13024384 -0.20861642 0.3012033 0.14609632
-0.8391211 0.18537773 -0.09884523 -0.33933368 0.23733777 -0.41658553 0.020316586 0.21679725
0.20927787 -0.4338048 0.14920966 -0.1954104 0.4547992 -0.21950538 0.413316 0.39821956
0.047417045 0.16557331 0.3309985 -0.11358607 0.45496348 0.2549353 -0.60363805 -0.58505154
-0.22488372 -0.2955116 0.34455982 0.3537047 -0.018270887 0.19981483 0.6111421 0.10101437
0.2929222 0.43814027 -0.16335414 -0.024594825 0.098618135 0.39351678 0.18715104 0.22308223
0.70452553 -0.26116213 0.004853443 0.35325617 -0.12322455 -0.17911883 0.16192962 0.2851426
