results/Swimmer-v3/ppo/5/220623-152516/policy.pth (torch, 47844 bytes, 24 tensors)

actor.sigma_param f4 [2, 1]
-3.439122 -2.806718
00000000: 931a 5cc0 45a1 33c0

actor.preprocess.model.model.0.weight f4 [64, 8]
0.45021403 0.17196783 0.25608665 0.12975311 0.3520256 -0.01454911 -0.2952832 -0.20265278
0.5529424 0.20907699 -0.17736079 -0.21659257 0.06327201 -0.123574905 0.059417035 0.04396657
0.2532925 -0.014035949 -0.20456636 0.17083503 -0.34345868 -0.38316557 0.068709135 0.28899646
0.24924324 0.29057637 -0.14214456 -0.0019231966 0.1249548 -0.12405417 0.3824233 0.25845873
0.5089307 0.16316746 -0.09026712 0.035648376 -0.5873197 -0.10758219 0.018646011 0.5075233
0.19388129 0.4114242 -0.009630666 -0.021959415 -0.16041312 -0.27873233 0.11672857 0.16860867
-0.26114783 -0.14083204 -0.16196105 0.24510024 -0.29066515 0.041547466 -0.34322903 -0.17658867
-0.16715306 -0.16944396 -0.029762302 -0.08277064 0.34906104 0.23378517 0.2346594 0.13884518
0.29830384 -0.4509666 0.21995778 -0.2644415 -0.29390198 -0.1699098 0.28756538 -0.15592754
-0.31131226 -0.080975436 -0.010726389 0.35581782 -0.24875884 -0.15833259 0.028557833 -0.1777539
0.48726264 0.049889177 0.25739682 -0.124948956 0.09629312 -0.2809043 -0.09389634 0.09935215
-0.41971937 -0.43139857 0.08421456 -0.0349984 -0.3030854 -0.67613435 0.15985785 0.07659982
0.061641756 -0.01928745 -0.30090812 0.21218736 0.45100275 0.007934926 -0.010104757 0.6255319
-0.11298699 -0.35898054 0.2097002 0.41173503 -0.019660868 0.18536873 -0.18386763 0.47491938
0.14044657 -0.27973083 -0.18919212 0.10604008 -0.35502717 0.009231541 0.14674646 -0.07340271
-0.4440775 0.14507337 0.04978217 -0.19005357 0.32438996 -0.13237014 -0.0075656874 0.17539212
-0.3880806 -0.54112697 0.67064667 -0.032750025 0.0638086 0.4763735 -0.13380331 -0.107164
0.25292304 0.49046654 -0.041858427 0.07390782 0.070247814 0.08204464 0.5769943 0.1432487
-0.28408283 0.29391664 0.45583916 -0.041195676 0.27663237 0.03333685 0.2049615 0.104950786
0.36224344 0.32807848 0.029107532 -0.28589845 0.16693506 0.20697609 0.006268987 0.10689918
-0.08428625 -0.21731016 -0.067059256 0.29545063 -0.29164425 -0.0018598672 -0.24319883 -0.16495043
0.056186635 -0.42210245 -0.21284065 -0.1330165 -0.13814807 -0.0012336475 -0.28243 0.024341898
-0.7224336 -0.03919589 -0.2163432 0.106197 0.13705938 0.08280426 0.2799322 0.106476955
-0.40983516 -0.29186475 0.04382416 0.24103993 -0.06919326 0.06633686 0.041078247 -0.2320237
0.07508418 -0.2644132 0.28168166 0.03186296 -0.24499907 -0.4624514 -0.3994668 0.36836946
-0.18755527 -0.21613114 0.22044167 0.13574046 -0.46253836 0.07923107 -0.26641554 -0.15231575
0.31466326 0.088666834 -0.1786679 -0.1807913 0.3665957 -0.17705652 -0.096375674 0.022693247
0.3824123 0.12844327 -0.20190169 -0.06330891 0.6759749 -0.22999263 -0.0467581 0.38587606
0.037053972 -0.562686 -0.2422035 -0.14301085 0.05404982 0.21168116 -0.43749896 0.058540683
-0.37191024 -0.2070636 -0.13681623 0.1972045 -0.106067695 0.2562409 -0.07828553 0.42204785
-0.45770124 0.15356255 -0.06868602 0.019898005 -0.10503669 0.36108133 0.102780685 -0.4163022
0.1944987 0.13304386 -0.43469757 -0.19388235 0.034465257 -0.01293373 -0.032120846 0.010648551
00000000: 7482 e63e 5618 303e ca1d 833e 00de 043e
00000010: b33c b43e 645f 6ebc 5c2f 97be 3684 4fbe
00000020: a28d 0d3f 4718 563e 119e 35be 71ca 5dbe
00000030: c194 813d d714 fdbd 475f 733d 4a16 343d
00000040: 8eaf 813e 09f7 65bc d879 51be 61ef 2e3e
00000050: d1d9 afbe 472e c4be 60b7 8c3d 58f7 933e
00000060: 9f39 7f3e 6dc6 943e 588e 11be c513 fcba
00000070: 4de8 ff3d 1d10 febd fdcc c33e b454 843e
00000080: 4849 023f 5f15 273e f8dd b8bd 0804 123d
00000090: 955a 16bf 0d54 dcbd 85bf 983c 0ced 013f
000000a0: d188 463e 31a6 d23e f1c9 1dbc 3be4 b3bc
000000b0: 5643 24be 01b6 8ebe 630f ef3d c0a7 2c3e
000000c0: 2bb5 85be 4636 10be 1ed9 25be 8ffb 7a3e
000000d0: 10d2 94be ad2d 2a3d b7bb afbe a9d3 34be
000000e0: 2c2a 2bbe b882 2dbe 12d0 f3bc a783 a9bd
000000f0: 21b8 b23e 6165 6f3e 8e4a 703e 6e2d 0e3e
00000100: 48bb 983e 18e5 e6be 9d3c 613e e064 87be
00000110: 527a 96be d6fc 2dbe c53b 933e 78ab 1fbe
00000120: 5264 9fbe 73d6 a5bd bcbd 2fbc c12d b63e
00000130: a3ba 7ebe f021 22be 1ef2 e93c 1e05 36be
00000140: 7d7a f93e 9858 4c3d 84c9 833e 3de5 ffbd
00000150: 5435 c53d b0d2 8fbe b94c c0bd 2479 cb3d
00000160: 75e5 d6be 46e0 dcbe af78 ac3d 7b5a 0fbd
00000170: 022e 9bbe 2417 2dbf c7b1 233e 5ee0 9c3d
00000180: 117c 7c3d b700 9ebc a110 9abe a547 593e
00000190: d5e9 e63e 7e01 023c 6c8e 25bc dc22 203f
000001a0: b965 e7bd 4ccc b7be a6bb 563e efce d23e
000001b0: d40f a1bc 4dd1 3d3e cc47 3cbe a228 f33e
000001c0: 3ad1 0f3e e138 8fbe 94bb 41be 8b2b d93d
000001d0: 1fc6 b5be e43f 173c b444 163e 2954 96bd
000001e0: 205e e3be 1d8e 143e 64e8 4b3d 679d 42be
000001f0: 7116 a63e 0a8c 07be 96e9 f7bb fe99 333e
00000200: 80b2 c6be 4c87 0abf 80af 2b3f e424 06bd
00000210: 15ae 823d 3ae7 f33e bc03 09be cd78 dbbd
00000220: 217f 813e 6e1e fb3e be73 2bbd fc5c 973d
00000230: 16de 8f3d 0507 a83d e6b5 133f caaf 123e
00000240: 4e73 91be 3e7c 963e c063 e93e ccbc 28bd
00000250: c2a2 8d3e 398c 083d 6de1 513e 70f0 d63d
00000260: f977 b93e e7f9 a73e eb72 ee3c 4861 92be
00000270: 06f1 2a3e 8af1 533e 136c cd3b f5ed da3d
00000280: 459e acbd 8e86 5ebe 5d56 89bd 4e45 973e
00000290: 6552 95be cac6 f3ba 1d09 79be c4e8 28be
000002a0: f523 663d d01d d8be e6f2 59be 7a35 08be
000002b0: b076 0dbe 57b2 a1ba aa9a 90be a968 c73c
000002c0: 69f1 38bf df8b 20bd 1289 5dbe d07d d93d
000002d0: 4b59 0c3e 4895 a93d 4653 8f3e 9710 da3d
000002e0: ead5 d1be 4c6f 95be f680 333d 2cd3 763e
000002f0: 32b5 8dbd 9fdb 873d aa41 283d 9f97 6dbe
00000300: bcc5 993d 2b61 87be 9438 903e bc82 023d
00000310: 09e1 7abe 6ec6 ecbe ea86 ccbe ec9a bc3e
00000320: 7d0e 40be 7b51 5dbe 76bb 613e 8cff 0a3e
00000330: d4d1 ecbe e643 a23d 9e67 88be a9f8 1bbe
00000340: 8b1b a13e f596 b53d b8f4 36be 5b21 39be
00000350: 6eb2 bb3e 4e4e 35be 9c60 c5bd 30e7 b93c
00000360: 8ccb c33e a286 033e 51bf 4ebe 1aa8 81bd
00000370: b10c 2d3f 3083 6bbe 6c85 3fbd 8c91 c53e
00000380: e8c5 173d 310c 10bf 3204 78be 7071 12be
00000390: 5863 5d3d f2c2 583e ddff dfbe 5bc8 6f3d
000003a0: 056b bebe 7b08 54be 8e19 0cbe faef 493e
000003b0: 053a d9bd 0232 833e 2a54 a0bd a816 d83e
000003c0: d157 eabe 803f 1d3e 42ab 8cbd 2401 a33c
000003d0: 7a1d d7bd a7df b83e ae7e d23d 9025 d5be
000003e0: ab2a 473e a63c 083e ae90 debe 1889 46be
000003f0: 712b 0d3d ffe7 53bc 2691 03bd 4377 2e3c

actor.preprocess.model.model.0.bias f4 [64]
0.08915357 0.038187735 -0.078793265 0.012782827 -0.028301287 -0.07249905 0.14572193 -0.23942709
0.31670627 0.20210196 0.041208543 0.12653711 -0.050696317 0.028210659 0.088571504 -0.24179335
0.10694392 -0.047929104 -0.045420304 -0.13439338 0.060963314 -0.054988243 -0.31189302 0.046843812
0.05199986 0.09203817 -0.073481455 -0.041645326 0.03588478 0.020426901 -0.08755089 0.042177703
-0.26738945 -0.03158851 -0.021205448 -0.05200501 0.21238773 0.19361953 -0.05883079 0.07254352
0.31626073 0.06646616 0.09770551 -0.004838722 -0.006037884 -0.115375765 0.14112619 -0.11536425
0.1333005 -0.020993248 0.015297234 -0.25863037 0.0285478 0.0068178074 0.21069603 -0.20651901
-0.003839321 0.042960957 -0.032580502 -0.03556246 0.08742079 0.12506773 0.06983451 0.20001146
00000000: 2696 b63d be6a 1c3d 5d5e a1bd 106f 513c
00000010: 1ad8 e7bc 627a 94bd 2138 153e 602c 75be
00000020: 5327 a23e d1f3 4e3e 4aca 283d f292 013e
00000030: f1a6 4fbd 0a1a e73c fa64 b53d ad98 77be
00000040: 6a05 db3d 4f51 44bd a40a 3abd 6b9e 09be
00000050: abb4 793d 5a3b 61bd 71b0 9fbe 4cdf 3f3d
00000060: cefd 543d 827e bc3d 727d 96bd 4a94 2abd
00000070: ebfb 123d 5156 a73c e24d b3bd 87c2 2c3d
00000080: 45e7 88be f462 01bd 0cb7 adbc 3503 55bd
00000090: 2b7c 593e 3344 463e 8ef8 70bd b291 943d
000000a0: edec a13e 691f 883d d419 c83d 248e 9ebb
000000b0: 71d9 c5bb 214a ecbd 6283 103e 1844 ecbd
000000c0: ed7f 083e 08fa abbc 40a1 7a3c 336b 84be
000000d0: 13dd e93c ea67 df3b b3c0 573e b879 53be
000000e0: 1e9d 7bbb d4f7 2f3d 2273 05bd f1a9 11bd
000000f0: ac09 b33d c111 003e 6505 8f3d cecf 4c3e

actor.preprocess.model.model.2.weight f4 [64, 64]
0.3100187 -0.106739745 0.12601227 -0.29406485 -0.28419772 0.105298266 -0.02016627 0.48011804
0.006773327 -0.35010144 0.2458008 0.16496472 0.08340841 0.1753869 -0.049705923 0.27344778
0.4623251 -0.36599874 -0.0010772625 0.22451039 -0.021098891 -0.22778192 0.058889993 -0.2408334
0.14803623 -0.124415725 0.5513607 0.034287333 -0.10418833 0.07730982 -0.12781353 0.08857259
0.41327703 -0.24873106 0.0027992206 -0.11286898 -0.12211511 0.07541366 0.006423452 -0.1017235
-0.3531435 0.036309954 -0.112331614 -0.0058835894 -0.105301015 0.16532475 -0.018219281 0.31107005
-0.09786709 -0.020704577 -0.1794892 -0.19899248 0.08954387 0.015306614 -0.27265102 0.42369056
0.2034413 0.13082983 0.20915192 0.44066712 -0.53777736 -0.47946572 -0.31657824 -0.16247682
-0.0094415955 -0.2365545 0.1764763 0.4263037 -0.050998744 0.013996263 -0.15921345 0.17677882
-0.0768452 -0.15656514 -0.058334433 -0.049782682 0.121650055 -0.2391419 0.116356425 0.029890314
-0.020026976 -0.2169569 -0.12433007 0.16094106 0.1194868 0.02718151 -0.020416837 -0.1866185
-0.26059914 0.039161276 0.123095006 -0.36638534 0.03376365 -0.10182463 -0.018023206 -0.41381443
-0.031751174 0.13451113 -0.26658943 -0.45262045 0.05895449 0.15887235 0.11474336 0.033845533
0.04106114 0.10179382 -0.12013318 0.039302595 -0.23265485 -0.22193041 0.043274272 0.11733805
0.08045285 -0.21233982 0.32703257 -0.32098413 0.0611007 -0.0020356758 -0.17941755 -0.08848472
0.19414671 -0.16948634 -0.0152865825 -0.08332075 -0.32351738 0.25343034 -0.22322416 0.11584627
0.233471 -0.19487873 -0.12695442 0.22559041 -0.117908284 0.10711322 -0.12637019 0.45607355
-0.413261 -0.33355215 -0.12214809 0.29455277 0.4249229 -0.055171072 -0.55235565 0.46691254
0.14420722 -0.07379964 -0.12338165 0.44000295 -0.25710475 -0.024766387 0.5615716 -0.03673589
0.13198644 -0.24971311 -0.28453997 0.19089448 -0.41816893 0.0025729432 0.1679621 -0.062626846
0.0676393 -0.11663835 0.12676212 0.03876556 -0.13602598 -0.20074745 0.0936091 -0.20493911
-0.51508135 -0.06771408 0.031138057 -0.1471915 -0.033157084 0.093494736 0.10835926 0.11389152
-0.23221609 0.25273365 0.35341483 0.022103949 0.19486052 0.0025748732 -0.38389853 0.62903804
0.1491879 0.102662906 0.27581617 -0.18726112 0.11953993 0.0929895 0.27773532 -0.18878959
-0.05716163 0.2907444 0.10549838 0.1168521 -0.10507318 0.13780198 0.038446397 -0.10802363
0.14512867 0.14716758 -0.053028926 0.22349757 -0.06376593 0.26504827 0.23583673 -0.2058493
0.08200718 -0.12741189 -0.25094712 -0.16683869 0.0509329 0.05370601 0.28372067 -0.19436434
0.14322066 0.53665936 -0.09710571 -0.09846669 0.22037664 0.27160916 -0.15001275 0.0021125143
-0.3044557 0.13294594 -0.17333783 -0.22987272 0.16631064 0.20881492 -0.039581455 0.24873134
0.31654322 -0.38336346 0.090097554 -0.10322136 -0.034677666 -0.30492312 0.08130814 -0.5159421
0.05940938 0.0655107 -0.3724098 0.05677516 0.012077037 -0.3660733 0.05981252 0.3058782
-0.07538264 0.08236817 0.10375408 -0.11531781 0.14060831 0.3265495 -0.055622503 0.014350681
00000000: c5ba 9e3e 5e9a dabd 5c09 013e ab8f 96be
00000010: 5d82 91be 9ea6 d73d bc33 a5bc 08d2 f53e
00000020: c9f2 dd3b 7f40 b3be 34b3 7b3e 83ec 283e
00000030: 07d2 aa3d a098 333e 7098 4bbd 5901 8c3e
00000040: e0b5 ec3e 3064 bbbe ee32 8dba 0de6 653e
00000050: 95d7 acbc aa3f 69be a236 713d 089d 76be
00000060: cf96 173e accd febd fa25 0d3f e070 0c3d
00000070: b160 d5bd 9c54 9e3d 8de1 02be 8c65 b53d
00000080: 0c99 d33e 5bb3 7ebe 2173 373b da27 e7bd
00000090: 7d17 fabd 7a72 9a3d d27b d23b 6954 d0bd
000000a0: 3acf b4be bfb9 143d 1e0e e6bd 20cb c0bb
000000b0: 0fa8 d7bd e44a 293e 9a40 95bc 9344 9f3e
000000c0: 8a6e c8bd a59c a9bc 04cc 37be afc4 4bbe
000000d0: c762 b73d 98c8 7a3c ea98 8bbe f8ed d83e
000000e0: eb52 503e 41f8 053e ec2b 563e 1f9f e13e
000000f0: c7ab 09bf 887c f5be 8b16 a2be 5360 26be
00000100: ecb0 1abc 583b 72be 34b6 343e 7b44 da3e
00000110: 0fe4 50bd 9550 653c da08 23be 8205 353e
00000120: 0461 9dbd 9d52 20be 16f0 6ebd ede8 4bbd
00000130: aa23 f93d 9de1 74be 474c ee3d 88dc f43c
00000140: 9d0f a4bc f329 5ebe c4a0 febd bccd 243e
00000150: 7fb5 f43d c2ab de3c 3641 a7bc ec18 3fbe
00000160: 406d 85be 9367 203d 3c19 fc3d dc96 bbbe
00000170: c14b 0a3d 6e89 d0bd 67a5 93bc 7cdf d3be
00000180: 850d 02bd 49bd 093e 697e 88be debd e7be
00000190: 437a 713d 6faf 223e 91fe ea3d 9da1 0a3d
000001a0: ba2f 283d 4779 d03d 6208 f6bd c2fb 203d
000001b0: 133d 6ebe ba41 63be 5d40 313d ee4e f03d
000001c0: 77c4 a43d 9c6f 59be d070 a73e 0858 a4be
000001d0: ba44 7a3d f968 05bb 3cb9 37be 7a37 b5bd
000001e0: 65ce 463e d48d 2dbe 9374 7abc 12a4 aabd
000001f0: 12a4 a5be 9fc1 813e e094 64be cf40 ed3d
00000200: 0613 6f3e 4a8e 47be 5700 02be 2c01 673e
00000210: e679 f1bd 2d5e db3d 3067 01be 7982 e93e
00000220: f296 d3be 59c7 aabe c728 fabd 9fcf 963e
00000230: 7f8f d93e 10fb 61bd 2e67 0dbf 290f ef3e
00000240: 0fab 133e 4424 97bd 85af fcbd 1148 e13e
00000250: 3ca3 83be e1e2 cabc 28c3 0f3f 5f78 16bd
00000260: 7427 073e cbb4 7fbe 39af 91be d879 433e
00000270: 3d1a d6be d39e 283b 42fe 2b3e 8142 80bd
00000280: 7986 8a3d 16e0 eebd eecd 013e a3c8 1e3d
00000290: 654a 0bbe bd90 4dbe 21b6 bf3d 8fdb 51be
000002a0: 5fdc 03bf aead 8abd 3d15 ff3c 5eb9 16be
000002b0: b9cf 07bd 2b7a bf3d 76eb dd3d f53f e93d
000002c0: 0eca 6dbe 4e66 813e caf2 b43e 5713 b53c
000002d0: 8489 473e 34bf 283b 598e c4be a308 213f
000002e0: b6c4 183e ee40 d23d c737 8d3e 61c1 3fbe
000002f0: 5ad1 f43d 4771 be3d 5333 8e3e 0f52 41be
00000300: 5022 6abd 73dc 943e 890f d83d 2750 ef3d
00000310: 9b30 d7bd f61b 0d3e f879 1d3d 7e3b ddbd
00000320: 9c9c 143e 19b3 163e dc34 59bd 8cdc 643e
00000330: b697 82bd 68b4 873e 2f7f 713e 29ca 52be
00000340: 61f3 a73d 4378 02be 247c 80be c3d7 2abe
00000350: 049f 503d d5fa 5b3d d643 913e 7207 47be
00000360: 70a8 123e 8262 093f 5cdf c6bd e7a8 c9bd
00000370: 6aaa 613e 5b10 8b3e f19c 19be 1c72 0a3b
00000380: 9ee1 9bbe fb22 083e 797f 31be c163 6bbe
00000390: 564d 2a3e 94d3 553e 2a20 22bd 6eb3 7e3e
000003a0: f411 a23e 3748 c4be 1185 b83d b865 d3bd
000003b0: 2b0a 0ebd e21e 9cbe e284 a63d c814 04bf
000003c0: 4057 733d 792a 863d 7fac bebe 128d 683d
000003d0: c4de 453c f66d bbbe f9fd 743d 119c 9c3e
000003e0: 3762 9abd a5b0 a83d 057d d43d be2b ecbd
000003f0: a0fb 0f3e 7f31 a73e 6cd4 63bd 1e1f 6b3c

actor.preprocess.model.model.2.bias f4 [64]
-0.25206837 0.008997309 -0.282656 0.059658278 0.24044238 0.14867693 -0.005565594 0.08382839
0.08231489 0.04527632 -0.0414561 -0.01934848 -0.12082862 -0.10928312 0.10406122 -0.034110196
-0.05338292 -0.13657147 0.030583706 0.03781661 -0.28593233 0.0038919454 0.024112416 0.21082552
-0.024007771 0.23547311 0.043003723 -0.39573294 -0.030918632 0.112378515 0.078967035 -0.034088194
0.13277534 0.06853107 -0.009718772 -0.0322382 -0.082639016 0.3283574 -0.14578946 0.03254729
-0.040392984 0.15086116 -0.35261565 -0.010105461 -0.16892137 0.049320515 0.06065876 -0.0022471678
-0.13332817 -0.20543285 0.019310862 -0.011048147 0.0905167 -0.10660444 -0.01677048 0.0071461042
-0.16336106 0.03185374 0.07371115 -0.0019772544 0.017894888 -0.16135946 -0.00466297 0.19094388
00000000: 1b0f 81be 7369 133c 4ab8 90be 3d5c 743d
00000010: 8736 763e c43e 183e 965f b6bb 38ae ab3d
00000020: b694 a83d aa73 393d dfcd 29bd b480 9ebc
00000030: ff74 f7bd d4cf dfbd 0d1e d53d 22b7 0bbd
00000040: 0ca8 5abd 64d9 0bbe ae8a fa3c 97e5 1a3d
00000050: b965 92be 0210 7f3b 6787 c53c a5e2 573e
00000060: f2ab c4bc dd1f 713e ac24 303d 829d cabe
00000070: 1249 fdbc b526 e63d 78b9 a13d 10a0 0bbd
00000080: 42f6 073e 055a 8c3d 7c3b 1fbc 340c 04bd
00000090: a53e a9bd 761e a83e d549 15be 4f50 053d
000000a0: 1d73 25bd 597b 1a3e 0a8a b4be 6091 25bc
000000b0: b9f9 2cbe 4f04 4a3d 5275 783d 3845 13bb
000000c0: 2e87 08be fd5c 52be d031 9e3c 4a03 35bc
000000d0: d260 b93d 6e53 dabd 3f62 89bc de29 ea3b
000000e0: 1f48 27be 1179 023d dff5 963d d394 01bb
000000f0: 4d98 923c 6a3b 25be d4cb 98bb cb86 433e

actor.mu.model.0.weight f4 [2, 64]
0.089630425 -0.022864169 0.04871013 -0.048486274 -0.08439394 -0.015653774 -0.022552906 -0.05277263
0.0187574 0.030315822 -0.21577415 -0.05431442 0.026749352 -0.008070922 -0.033354275 -0.011013437
-0.0072162244 -0.0696665 0.01727318 0.006015675 0.21074763 -0.0021022572 0.15510154 -0.036599018
-0.047898393 -0.04385909 0.07752023 0.11876231 0.26451546 -0.03199733 -0.09244649 -0.123808995
0.10955036 -0.0405903 0.15631518 -0.064845845 0.015910812 -0.083446376 -0.070156105 0.0062535396
-0.059911303 -0.08089933 0.056600984 -0.0021386428 0.0038673535 0.0097460775 -0.06489546 -0.0077620517
-0.020909555 -0.036465306 -0.09948303 -0.025997354 0.009669418 -0.039636947 0.051529203 -0.005338987
0.025058946 0.1741788 -0.06990506 0.06988509 -0.100340985 0.08731869 0.0046730987 0.021205692
-0.049496315 -0.021000672 0.07445815 -0.075744934 -0.035649076 -0.055974584 -0.04702339 -0.42274734
0.071942255 0.35893345 -0.2765091 -0.034428306 0.0028588467 0.025447428 -0.039497674 0.062425137
-0.029516425 0.13495767 0.0012186092 0.0006812733 0.0826412 0.064502925 -0.08873104 -0.10534605
0.08348863 -0.09321085 -0.16131341 0.016423203 0.28358147 0.011923997 0.1538373 -0.0026058524
-0.18004584 -0.03671251 -0.0019372636 0.14166917 -0.028387647 -0.11704069 0.10237116 -0.08466803
-0.08963488 0.0010143244 -0.012690194 0.04900077 -0.3115105 -0.23492055 0.20478025 5.73001e-05
0.11750497 -0.072008565 0.17191239 0.012027686 -0.14568716 -0.14629252 -0.00083586085 -0.093347095
0.10657503 -0.17576241 -0.009001576 -0.03580187 0.119239695 -0.06144237 -0.01325345 0.17490245
00000000: 2890 b73d a34d bbbc 4684 473d 8b99 46bd
00000010: bbd6 acbd 583c 80bc dfc0 b8bc 1d28 58bd
00000020: 1ea9 993c e358 f83c e6f3 5cbe cc78 5ebd
00000030: 7521 db3c e73b 04bc 7e9e 08bd b471 34bc
00000040: 1476 ecbb 4fad 8ebd 7c80 8d3c 241f c53b
00000050: 3ace 573e 06c6 09bb f0d2 1e3e dae8 15bd
00000060: 1b31 44bd 97a5 33bd edc2 9e3d a739 f33d
00000070: 926e 873e a20f 03bd 9654 bdbd 928f fdbd
00000080: f05b e03d 0442 26bd 1611 203e e6cd 84bd
00000090: 6457 823c efe5 aabd 01ae 8fbd 7eea cc3b
000000a0: 8e65 75bd 8cae a5bd 6fd6 673d 7928 0cbb
000000b0: 6d73 7d3b 03ae 1f3c e9e7 84bd cf58 febb
000000c0: 844a abbc a55c 15bd c2bd cbbd 67f8 d4bc
000000d0: 7b6c 1e3c 5a5a 22bd 4910 533d abf2 aebb
000000e0: 6b48 cd3c ed5b 323e 622a 8fbd ea1f 8f3d
000000f0: 937f cdbd 24d4 b23d cb20 993b 8fb7 ad3c
00000100: a6bc 4abd 9a09 acbc 847d 983d 2920 9bbd
00000110: c404 12bd 9b45 65bd 999b 40bd 5772 d8be
00000120: 7656 933d 20c6 b73e 9a92 8dbe b204 0dbd
00000130: 7d5b 3b3b 2077 d03c 50c8 21bd 80b1 7f3d
00000140: 6ecc f1bc 5832 0a3e bdb9 9f3a 7a97 323a
00000150: ca3f a93d 1c1a 843d 9fb8 b5bd abbf d7bd
00000160: 16fc aa3d 55e5 bebd 582f 25be f489 863c
00000170: 9731 913e de5c 433c 8687 1d3e f3c6 2abb
00000180: f05d 38be db5f 16bd c8eb fdba b911 113e
00000190: 368d e8bc 07b3 efbd f9a7 d13d 6f66 adbd
000001a0: 7e92 b7bd 14f3 843a 88ea 4fbc 08b5 483d
000001b0: 4e7e 9fbe 038f 70be eab1 513e 8455 7038
000001c0: 72a6 f03d 3a79 93bd cd09 303e c60f 453c
000001d0: 042f 15be b5cd 15be ac1d 5bba c32c bfbd
000001e0: 0244 da3d 10fb 33be 597b 13bc fba4 12bd
000001f0: f133 f43d ffaa 7bbd 0025 59bc a119 333e

actor.mu.model.0.bias f4 [2]
-0.22258204 0.0144744525
00000000: 8cec 63be 4126 6d3c

critic.preprocess.model.model.0.weight f4 [64, 8]
0.023652703 -0.22149663 0.14167295 -0.22591533 -0.13702576 0.25508857 -0.18060519 -0.17134942
0.54038984 0.2421496 -0.45772773 -0.06632409 0.10631963 0.20285916 -0.20850135 0.048841845
-0.31241655 -0.010877589 -0.034794647 -0.2670583 -0.17110205 -0.24530314 0.34078136 -0.119150564
-0.44358015 -0.4052872 0.04711679 -0.13819835 -0.14226183 0.013339755 -0.2731625 -0.2282654
-0.57610804 -0.35342336 -0.095185466 -0.15381217 0.09755418 -0.09818891 0.06436246 0.27529564
-0.81333536 0.50078446 0.2466263 -0.30158526 0.021489283 -0.12339428 -0.3581125 0.06835304
0.054683484 0.35238606 -0.042856347 -0.07201969 0.13573354 -0.00010964263 0.021905016 0.10503271
-0.33688217 -0.31494176 0.050738975 -0.08480778 -0.06395865 -0.18699674 -0.020374738 0.08287014
-0.48887646 0.10859113 0.15515101 -0.26718867 0.18054503 -0.29228944 0.03186369 0.025777247
0.3750093 0.0789151 -0.5082788 0.10888324 -0.3975446 -0.29051036 0.35999882 0.77586174
0.14271714 -0.11336612 -0.31913608 -0.1327784 0.2397771 0.05728388 -0.26500404 -0.3218307
-0.7276291 -0.34615308 0.25728783 0.022310745 0.010595479 -0.21510749 -0.23007527 0.004569475
0.49664566 0.2063151 -0.023419477 0.038843792 -0.3344203 0.4196862 0.27612597 0.031556074
-0.055638924 0.06343135 0.30290624 0.26814416 -0.08565236 -0.023893673 0.2116078 0.024255497
-0.16305983 -0.1353663 0.28335893 -0.2051586 -0.03287715 -0.047999382 0.06930565 -0.16400437
0.08092391 0.16277544 0.50343907 0.119144954 0.07662188 -0.018835321 -0.17561641 0.114758335
-0.115395755 0.085509084 -0.34437245 -0.15905246 0.18489796 0.31700656 0.13807487 -0.3528081
0.6001994 -0.024955409 0.054369517 0.022660606 0.12655497 0.15055938 0.13753405 -0.031984016
0.47563258 -0.114964314 0.006237813 -0.006473362 -0.32797337 0.6610358 0.09971438 -0.20051643
-1.0785532 -0.03199716 0.10064473 -0.07006778 0.15558374 -0.13699672 -0.26346928 -0.15149027
0.40445232 -0.26627105 0.20159541 -0.04830749 0.08578165 0.12790206 0.07544172 -0.046259034
0.6713919 -0.7877955 -0.9276194 0.1160416 -0.055464443 0.0918443 -0.038686913 -0.08431056
0.63536185 -0.20590743 0.27314004 0.048145466 0.24219614 -0.020840056 -0.14324602 -0.0068749893
0.44939148 -0.33505523 0.18414317 -0.096262716 0.36424902 -0.11986841 -0.24139275 0.12942061
0.31475577 -0.43582177 0.045498867 -0.24760707 0.2114237 -0.106262445 -0.1333644 0.06892774
-0.16495974 0.18274255 0.1395093 0.078744926 0.21659303 0.27130947 0.04621049 0.11726054
0.51112175 -0.053571068 -0.11836919 0.22111511 0.07805391 0.14588048 0.13598312 -0.38500747
-0.057164174 0.5482798 -0.40210575 -0.05741777 0.33686718 -0.38595933 -0.17181826 -0.007377274
0.54915756 0.21569024 -0.442862 0.24275312 -0.01658535 -0.0987848 -0.11795546 0.096010424
0.06686294 -0.10062213 0.17557685 -0.32434496 -0.23692797 0.14462641 -0.28472698 0.20209055
0.06417586 -0.08180646 -0.10357597 -0.17431377 -0.20121618 -0.25332707 -0.04917884 0.09103053
0.7323368 0.2032241 0.182009 0.09789998 -0.3478592 0.4716273 0.20137708 -0.20035037
00000000: 50c3 c13c 03d0 62be b712 113e 5956 67be
00000010: 7b50 0cbe f89a 823e 91f0 38be 3976 2fbe
00000020: fd56 0a3f 11f6 773e 4a5b eabe edd4 87bd
00000030: 1bbe d93d 50ba 4f3e 6181 55be 630e 483d
00000040: 10f5 9fbe ea37 32bc d584 0ebd debb 88be
00000050: 6035 2fbe bf30 7bbe e57a ae3e 3605 f4bd
00000060: f01c e3be ce81 cfbe 89fd 403d de83 0dbe
00000070: 16ad 11be fd8e 5a3c f5db 8bbe 68be 69be
00000080: d17b 13bf e8f3 b4be 99f0 c2bd f080 1dbe
00000090: 7cca c73d 4417 c9bd 77d0 833d 8df3 8c3e
000000a0: bf36 50bf 6933 003f 9b8b 7c3e 6269 9abe
000000b0: 4b0a b03c 24b6 fcbd 865a b7be aefc 8b3d
000000c0: cafb 5f3d f26b b43e 238a 2fbd 0f7f 93bd
000000d0: bcfd 0a3e f0ef e5b8 2672 b33c 641b d73d
000000e0: d27b acbe 0c40 a1be acd3 4f3d b4af adbd
000000f0: c1fc 82bd 137c 3fbe ece8 a6bc d2b7 a93d
00000100: 044e fabe 0765 de3d e8df 1e3e f4cc 88be
00000110: cce0 383e f6a6 95be 8083 023d ce2a d33c
00000120: 3801 c03e 3d9e a13d 8f1e 02bf 2dfe de3d
00000130: f78a cbbe c6bd 94be c451 b83e e09e 463f
00000140: 7124 123e 7f2c e8bd ce65 a3be 10f7 07be
00000150: 2188 753e 80a2 6a3d 9cae 87be fec6 a4be
00000160: e745 3abf fa3a b1be 3bbb 833e 06c5 b63c
00000170: a998 2d3c 2345 5cbe da98 6bbe 89bb 953b
00000180: 5748 fe3e 4444 533e 34da bfbc ab1a 1f3d
00000190: 2339 abbe 1ce1 d63e 6260 8d3e f140 013d
000001a0: a4e5 63bd 4ce8 813d 8716 9b3e 314a 893e
000001b0: 816a afbd aabc c3bc b7af 583e 77b3 c63c
000001c0: 28f9 26be 779d 0abe 6c14 913e 1915 52be
000001d0: 31aa 06bd 009b 44bd 1ff0 8d3d c3f0 27be
000001e0: 6fbb a53d 9bae 263e 62e1 003f 4502 f43d
000001f0: efeb 9c3d 884c 9abc cad4 33be 6b06 eb3d
00000200: 9c54 ecbd 631f af3d 9651 b0be a6de 22be
00000210: e455 3d3e af4e a23e 8063 0d3e 43a3 b4be
00000220: aba6 193f 496f ccbc 92b2 5e3d bca2 b93c
00000230: a097 013e 3d2c 1a3e bad5 0c3e ac01 03bd
00000240: 1d86 f33e 6972 ebbd 9166 cc3b 7f1e d4bb
00000250: 20ec a7be a439 293f 0e37 cc3d 2e54 4dbe
00000260: 080e 8abf 740f 03bd d31e ce3d b27f 8fbd
00000270: 5851 1f3e de48 0cbe 72e5 86be 4420 1bbe
00000280: 6014 cf3e ae54 88be 076f 4e3e 13de 45bd
00000290: 4aae af3d c2f8 023e 3081 9a3d 1d7a 3dbd
000002a0: 57e0 2b3f f7ac 49bf 7778 6dbf 38a7 ed3d
000002b0: af2e 63bd dd18 bc3d 2b76 1ebd 04ab acbd
000002c0: 13a7 223f 66d9 52be 03d9 8b3e 2e34 453d
000002d0: 4402 783e c4b8 aabc 16af 12be 9747 e1bb
000002e0: a416 e63e 5c8c abbe 0790 3c3e 6325 c5bd
000002f0: d97e ba3e 927d f5bd a92f 77be d686 043e
00000300: ab27 a13e 0824 dfbe 055d 3a3d b58c 7dbe
00000310: 747f 583e 20a0 d9bd ad90 08be fd29 8d3d
00000320: 35eb 28be dd20 3b3e 87db 0e3e 0545 a13d
00000330: 90ca 5d3e 13e9 8a3e 3647 3d3d 4b26 f03d
00000340: e0d8 023f 566d 5bbd 8c6b f2bd 006c 623e
00000350: bada 9f3d b161 153e 293f 0b3e b31f c5be
00000360: fb24 6abd 115c 0c3f cee0 cdbe e52e 6bbd
00000370: db79 ac3e 769c c5be 20f1 2fbe 0fbd f1bb
00000380: 9795 0c3f e7dd 5c3e cfbe e2be 4694 783e
00000390: 00de 87bc af4f cabd a292 f1bd 1da1 c43d
000003a0: 70ef 883d fa12 cebd 6bca 333e 8b10 a6be
000003b0: 3f9d 72be f218 143e bcc7 91be d3f0 4e3e
000003c0: a26e 833d 258a a7bd a31f d4bd 4f7f 32be
000003d0: 9d0b 4ebe 16b4 81be c06f 49bd 376e ba3d
000003e0: 6d7a 3b3f fa19 503e 9160 3a3e c97f c83d
000003f0: 9a1a b2be 2279 f13e cb35 4e3e a628 4dbe

critic.preprocess.model.model.0.bias f4 [64]
0.2745495 0.36844164 -0.120665304 0.103773564 0.0036399039 0.11863516 -0.90964985 -0.33347332
-0.105396196 0.098441854 -0.26235822 0.028368205 0.44240445 0.82204044 0.65865487 -0.5675027
-0.00010229942 0.4719938 0.5032503 0.35486042 0.41913432 0.12664255 0.09732742 0.482257
-0.012443207 0.3135106 0.31100005 -0.06252078 -0.027647445 -0.120416634 0.4023356 0.29514977
-0.22905545 0.35215697 0.34391454 -0.24101767 0.120163046 0.079484895 0.03539053 -0.035716612
-0.014127068 0.17585152 0.12085196 -0.11202518 0.14344877 -0.39181805 0.72804713 -0.46686816
-0.1393001 0.45264012 0.6768734 0.32407135 -0.5566566 0.10411035 -0.648162 -0.022686668
0.21273722 -0.025436316 -0.31221187 0.2507159 -0.019022254 0.18187535 -0.28594533 0.4688426
00000000: c191 8c3e 62a4 bc3e 5f1f f7bd 3c87 d43d
00000010: 748b 6e3b fef6 f23d d0de 68bf 04bd aabe
00000020: f6d9 d7bd e29b c93d d153 86be 7064 e83c
00000030: d682 e23e 3e71 523f 9b9d 283f db47 11bf
00000040: 9589 d6b8 2ca9 f13e 03d5 003f 44b0 b53e
00000050: c698 d63e 96ae 013e 9953 c73d 64ea f63e
00000060: 98de 4bbc 7684 a03e 663b 9f3e e50a 80bd
00000070: e57c e2bc ff9c f6bd effe cd3e df1d 973e
00000080: 838d 6abe eb4d b43e 9115 b03e 56cd 76be
00000090: 0b18 f63d fac8 a23d a9f5 103d 954b 12bd
000000a0: 3875 67bc 6c12 343e 3b81 f73d 756d e5bd
000000b0: 3ce4 123e 609c c8be 4c61 3a3f 5809 efbe
000000c0: afa4 0ebe 72c0 e73e 9347 2d3f aeec a53e
000000d0: 0c81 0ebf cf37 d53d f2ed 25bf 64d9 b9bc
000000e0: c9d7 593e d25f d0bc 3cda 9fbe d65d 803e
000000f0: 8fd4 9bbc 883d 3a3e 6d67 92be 230c f03e

critic.preprocess.model.model.2.weight f4 [64, 64]
0.24707255 0.1730266 -0.26846743 0.0938132 -0.44605887 0.35134915 -0.0929314 -0.22898176
-0.08440741 -0.17060018 -0.2075142 0.23875004 -0.037536036 -0.017531011 0.20925774 -0.23844346
-0.192552 0.039713353 -0.093884796 0.19006327 -0.040047728 0.47491655 -0.21371567 0.22558759
0.2120229 0.4053766 0.3306066 0.42753738 0.025846975 -0.048629265 0.552655 -0.113361575
-0.07867528 -0.2769278 0.6619781 -0.17483266 0.35027164 0.12632349 -0.011599881 -0.41409636
0.23959619 -0.07330173 0.17519268 -0.1986022 0.040611695 0.29000732 0.32606515 -0.6539136
0.23091018 -0.08922688 0.18288483 0.31136364 -0.24232017 0.38546222 -0.52978104 -0.1409266
-0.21760741 -0.008579641 -0.2733899 -0.20780623 0.06601828 0.12793091 -0.14916165 0.41569263
-0.29475513 -0.25635225 0.055999447 -0.3447485 -0.37531394 0.0683138 0.28954238 0.015428341
0.33177575 -0.13566509 -0.25003475 0.40704936 -0.109041736 -0.20206435 -0.23351228 0.61489075
-0.12220562 -0.10746538 0.07639041 0.06517521 0.29803398 -0.16295573 0.32512876 -0.10605058
-0.33519682 0.076917395 -0.093297936 0.17983499 -0.32193804 0.002892242 -0.22261363 0.37327072
0.43326735 -0.23841904 0.27303556 -0.17544547 -0.4649931 -0.5909244 0.28031993 -0.08996583
0.24631107 -0.023554496 0.008133028 0.23403352 -0.12788384 0.11199458 -0.20271116 0.21889874
-0.2789746 -0.20969349 0.11313973 0.1586426 0.20066138 -0.17995586 0.17591032 -0.084133804
-0.16284747 0.18955603 0.5178057 -0.23426923 0.50543827 0.06540656 -0.21935634 -0.072028466
0.37217832 0.0067699593 -0.27097127 -0.2702873 -0.42388883 -0.2628591 -0.41380766 -0.18849637
-0.3061073 0.26210767 -0.4336201 -0.44423205 0.36356324 0.61925656 0.3618369 -0.30723846
-0.010389577 0.5433741 0.3970082 -0.4781962 0.7620111 0.04594713 0.17237201 0.13051628
0.2249687 0.5867345 0.048933636 -0.22057484 -0.08669566 -0.07442858 0.33505896 0.507098
0.13915192 -0.134488 0.7313407 0.11742338 -0.29368573 -0.16610631 -0.05539727 -0.31850398
0.51864177 0.28026018 -0.34327725 -0.30864003 -0.4642235 -0.2508195 0.022497142 -0.0853463
0.44280607 0.12943627 0.724936 0.20416892 0.34446838 0.568899 -0.16772513 0.30174166
-0.2160907 0.49539697 -0.17499487 -0.055470064 0.47853515 0.5560926 -0.29162735 0.018695844
0.007505318 0.08029002 0.04806269 0.3592065 -0.18164812 -0.10215708 -0.3280508 0.1816651
0.1265343 -0.1326061 0.29354593 0.09585437 -0.061416343 -0.12921475 -0.14813271 -0.1905866
-0.099082656 -0.1376285 -0.2437399 -0.0141380755 -0.08260563 -0.05277101 -0.10200807 -0.035541292
0.43276557 -0.44831258 -0.46743774 -0.23309988 -0.3333265 0.25314608 0.16751578 -0.165078
-0.40476307 0.22931649 0.2535516 -0.0028126235 -0.05821543 -0.09962425 0.12495131 -0.2475897
0.1772612 0.09047877 -0.08627946 -0.04295378 -0.14853409 -0.012757038 -0.29215845 -0.00095114746
0.12775981 0.25494438 0.05756234 0.12418555 0.4282325 -0.13018557 -0.1307475 0.027061552
-0.0057246103 -0.005809024 0.10040434 -0.24221383 0.13640371 -0.23149776 -0.20097478 -0.1353111
00000000: 9600 7d3e e32d 313e 9074 89be 2321 c03d
00000010: d461 e4be 09e4 b33e d152 bebd 327a 6abe
00000020: cbdd acbd d0b1 2ebe 9a7e 54be e47a 743e
00000030: 63bf 19bd 329d 8fbc a947 563e 862a 74be
00000040: 5a2c 45be 78aa 223d ac46 c0bd f29f 423e
00000050: 1609 24bd 4328 f33e 48d8 5abe 6f00 673e
00000060: 881c 593e 868d cf3e 4545 a93e 2ee6 da3e
00000070: 09bd d33c 7b2f 47bd cc7a 0d3f 1d2a e8bd
00000080: 8120 a1bd 7bc9 8dbe 6677 293f 5507 33be
00000090: ce56 b33e f25a 013e 6d0d 3ebc 7004 d4be
000000a0: b458 753e 381f 96bd b665 333e 605e 4bbe
000000b0: 7358 263d d77b 943e 03f2 a63e e266 27bf
000000c0: b873 6c3e 95bc b6bd 2946 3b3e 0e6b 9f3e
000000d0: c722 78be 4e5b c53e bb9f 07bf 104f 10be
000000e0: 7ad4 5ebe 9f91 0cbc c3f9 8bbe 28cb 54be
000000f0: 9834 873d 5200 033e d5bd 18be aad5 d43e
00000100: 25ea 96be 9a40 83be ad5f 653d e082 b0be
00000110: 2629 c0be 1be8 8b3d e63e 943e 27c7 7c3c
00000120: 83de a93e caeb 0abe 8e04 80be c668 d03e
00000130: 4651 dfbd f5e9 4ebe d81d 6fbe 7b69 1d3f
00000140: f146 fabd cf16 dcbd 9372 9c3d 957a 853d
00000150: e997 983e dedd 26be 4777 a63e 0c31 d9bd
00000160: eb9e abbe de86 9d3d fd12 bfbd aa26 383e
00000170: 10d5 a4be c58b 3d3b d4f4 63be 571d bf3e
00000180: 38d5 dd3e 1f24 74be 51cb 8b3e faa7 33be
00000190: 9313 eebe d246 17bf 1886 8f3e 0140 b8bd
000001a0: f838 7c3e 5cf5 c0bc 6440 053c 7ca6 6f3e
000001b0: fbf3 02be 6a5d e53d 8493 4fbe fe26 603e
000001c0: c2d5 8ebe e4b9 56be ceb5 e73d 3573 223e
000001d0: 2d7a 4d3e 5946 38be d621 343e 584e acbd
000001e0: 7dc1 26be fa1a 423e ea8e 043f 46e4 6fbe
000001f0: 6764 013f e0f3 853d f39e 60be a983 93bd
00000200: 288e be3e 89d6 dd3b bfbc 8abe 1963 8abe
00000210: f507 d9be 7895 86be 99de d3be 3105 41be
00000220: 19ba 9cbe fa32 863e 7403 debe 6272 e3be
00000230: f624 ba3e 9987 1e3f b042 b93e 5c4e 9dbe
00000240: 0b39 2abc 911a 0b3f a944 cb3e 22d6 f4be
00000250: 2913 433f 0f33 3c3d 4a82 303e 0fa6 053e
00000260: 325e 663e 3b34 163f a36e 483d 5fde 61be
00000270: 7f8d b1bd 036e 98bd d98c ab3e 2dd1 013f
00000280: d77d 0e3e 39b7 09be 2539 3b3f ab7b f03d
00000290: fa5d 96be c617 2abe 3fe8 62bd f412 a3be
000002a0: b5c5 043f 437e 8f3e 09c2 afbe 1106 9ebe
000002b0: b4ae edbe 6a6b 80be ed4b b83c 0aca aebd
000002c0: 7ab7 e23e f18a 043e 6895 393f a811 513e
000002d0: 295e b03e 5da3 113f 23c0 2bbe e27d 9a3e
000002e0: e146 5dbe aca4 fd3e db31 33be 9434 63bd
000002f0: 8f02 f53e 165c 0e3f 2e50 95be 0728 993c
00000300: 2cef f53b 186f a43d 62dd 443d eae9 b73e
00000310: f701 3abe bb37 d1bd 46f6 a7be 6a06 3a3e
00000320: 3592 013e e5c9 07be a74b 963e 4c4f c43d
00000330: b48f 7bbd df50 04be 1ab0 17be 2229 43be
00000340: d9eb cabd 7cee 0cbe f496 79be 63a3 67bc
00000350: 242d a9bd 6a26 58bd 9be9 d0bd bf93 11bd
00000360: 7393 dd3e 3a89 e5be 0054 efbe bcb1 6ebe
00000370: c5a9 aabe 5d9c 813e 4289 2b3e 350a 29be
00000380: 1b3d cfbe f1d1 6a3e 84d1 813e fe53 38bb
00000390: 4d73 6ebd cc07 ccbd 79e6 ff3d 2888 7dbe
000003a0: f683 353e ef4c b93d 49b3 b0bd 4ef0 2fbd
000003b0: 5219 18be e502 51bc cb95 95be 6d56 79ba
000003c0: 78d3 023e 1288 823e 7dc6 6b3d fe54 fe3d
000003d0: 4a41 db3e 5e4f 05be ace2 05be 30b0 dd3c
000003e0: 8395 bbbb a059 bebb caa0 cd3d e706 78be
000003f0: 6aad 0b3e c00d 6dbe 55cc 4dbe fe8e 0abe

critic.preprocess.model.model.2.bias f4 [64]
0.37201563 -0.12941639 0.3068442 -0.014662372 -0.16338333 0.04404501 -0.0722293 0.016978554
-0.18844192 -0.2418376 0.10695945 0.015537448 -0.05026604 0.37668172 -0.36491293 0.09686097
0.21819639 0.09342841 -0.029288953 -0.019880272 0.21191469 0.18623786 -0.10436562 -0.39607692
-0.14851218 -0.18057483 -0.18897009 0.20155963 -0.11017109 0.13135976 -0.049956586 0.05400319
-0.32115805 -0.32552382 -0.29702303 0.032109827 0.0598745 -0.29526767 0.020339768 0.2971259
0.1860082 -0.10596694 0.08033917 0.000671348 0.11071869 -0.0015699989 0.11527562 -0.045820642
-0.12565207 0.14797643 0.0967712 0.0021176983 -0.13452093 0.13673478 0.37650657 0.11228039
0.056799706 0.025571445 -0.04759955 -0.115494855 -0.1638836 0.13077867 -0.036404807 -0.02206171
00000000: d578 be3e bb85 04be af1a 9d3e 723a 70bc
00000010: f64d 27be 8a68 343d f5ec 93bd 9c16 8b3c
00000020: ebf6 40be 47a4 77be 8e0d db3d c890 7e3c
00000030: c3e3 4dbd 6ddc c03e ded5 babe 0b5f c63d
00000040: e06e 5f3e 6557 bf3d 63ef efbc f4db a2bc
00000050: 2a00 593e 23b5 3e3e a4bd d5bd 98ca cabe
00000060: 9413 18be 9ce8 38be 6081 41be a665 4e3e
00000070: 61a1 e1bd 2c83 063e 479f 4cbd 7332 5d3d
00000080: d46e a4be 0fab a6be 6713 98be 9885 033d
00000090: f73e 753d 532d 97be 969f a63c e320 983e
000000a0: ef78 3e3e 3205 d9bd dd88 a43d 67fd 2f3a
000000b0: 7bc0 e23d 6cc8 cdba a015 ec3d 6dae 3bbd
000000c0: f0aa 00be 2287 173e fb2f c63d 15c9 0a3b
000000d0: dbbf 09be 3404 0c3e 78c5 c03e 43f3 e53d
000000e0: cfa6 683d 357b d13c bff7 42bd 9188 ecbd
000000f0: 1ad1 27be d8ea 053e 351d 15bd c2ba b4bc

critic.last.model.0.weight f4 [1, 64]
0.3493284 0.20547484 0.7493347 -0.074231856 0.4265821 -0.12357178 -0.26954034 -0.21573268
-0.053770214 -0.15652789 0.16034292 0.17633975 0.3516065 0.19315618 -0.39287162 -0.44730532
0.46284708 0.28708732 -0.26305708 0.1543935 0.14789213 0.3226468 -0.30572692 -0.45032814
0.22383225 0.12509266 -0.20064859 0.21157527 -0.1889979 0.04871635 -0.17867906 -0.061262358
-0.3361269 -0.3760986 -0.28999183 -0.3594408 0.28946987 -0.16672195 0.15050727 0.39430737
-0.14841972 -0.14052881 -0.20305862 -0.1307102 0.18363833 -0.18146074 0.2838619 0.34444955
-0.28192547 0.19925767 0.027481219 0.34189022 -0.25486973 0.30011678 0.37860072 0.0671347
-0.20908442 -0.16064756 0.3178818 -0.17450051 0.28665465 0.26588368 -0.31902462 -0.1059878
00000000: 2cdb b23e ff67 523e 66d4 3f3f df06 98bd
00000010: f868 da3e 3413 fdbd 3101 8abe 07e9 5cbe
00000020: 283e 5cbd d948 20be ef30 243e 6892 343e
00000030: c405 b43e bcca 453e 7826 c9be 3405 e5be
00000040: 4bfa ec3e 1cfd 923e 6baf 86be 5419 1e3e
00000050: 0971 173e f631 a53e 3d88 9cbe 6991 e6be
00000060: 4834 653e 4a18 003e d376 4dbe 30a7 583e
00000070: aa88 41be cc8a 473d a5f7 36be 3dee 7abd
00000080: d318 acbe ff8f c0be cf79 94be a008 b8be
00000090: 6535 943e 29b9 2abe 941e 1a3e a8e2 c93e
000000a0: 57fb 17be c9e6 0fbe 99ee 4fbe e5d8 05be
000000b0: b00b 3c3e d8d0 39be 5956 913e b15b b03e
000000c0: 8958 90be 340a 4c3e 4b20 e13c 3c0c af3e
000000d0: 497e 82be e8a8 993e f4d7 c13e eb7d 893d
000000e0: 3a1a 56be cb80 24be 67c1 a23e 43b0 32be
000000f0: 66c4 923e e821 883e 3257 a3be 2210 d9bd

_actor_critic.actor.sigma_param f4 [2, 1]
-3.439122 -2.806718
00000000: 931a 5cc0 45a1 33c0

_actor_critic.actor.preprocess.model.model.0.weight f4 [64, 8]
0.45021403 0.17196783 0.25608665 0.12975311 0.3520256 -0.01454911 -0.2952832 -0.20265278
0.5529424 0.20907699 -0.17736079 -0.21659257 0.06327201 -0.123574905 0.059417035 0.04396657
0.2532925 -0.014035949 -0.20456636 0.17083503 -0.34345868 -0.38316557 0.068709135 0.28899646
0.24924324 0.29057637 -0.14214456 -0.0019231966 0.1249548 -0.12405417 0.3824233 0.25845873
0.5089307 0.16316746 -0.09026712 0.035648376 -0.5873197 -0.10758219 0.018646011 0.5075233
0.19388129 0.4114242 -0.009630666 -0.021959415 -0.16041312 -0.27873233 0.11672857 0.16860867
-0.26114783 -0.14083204 -0.16196105 0.24510024 -0.29066515 0.041547466 -0.34322903 -0.17658867
-0.16715306 -0.16944396 -0.029762302 -0.08277064 0.34906104 0.23378517 0.2346594 0.13884518
0.29830384 -0.4509666 0.21995778 -0.2644415 -0.29390198 -0.1699098 0.28756538 -0.15592754
-0.31131226 -0.080975436 -0.010726389 0.35581782 -0.24875884 -0.15833259 0.028557833 -0.1777539
0.48726264 0.049889177 0.25739682 -0.124948956 0.09629312 -0.2809043 -0.09389634 0.09935215
-0.41971937 -0.43139857 0.08421456 -0.0349984 -0.3030854 -0.67613435 0.15985785 0.07659982
0.061641756 -0.01928745 -0.30090812 0.21218736 0.45100275 0.007934926 -0.010104757 0.6255319
-0.11298699 -0.35898054 0.2097002 0.41173503 -0.019660868 0.18536873 -0.18386763 0.47491938
0.14044657 -0.27973083 -0.18919212 0.10604008 -0.35502717 0.009231541 0.14674646 -0.07340271
-0.4440775 0.14507337 0.04978217 -0.19005357 0.32438996 -0.13237014 -0.0075656874 0.17539212
-0.3880806 -0.54112697 0.67064667 -0.032750025 0.0638086 0.4763735 -0.13380331 -0.107164
0.25292304 0.49046654 -0.041858427 0.07390782 0.070247814 0.08204464 0.5769943 0.1432487
-0.28408283 0.29391664 0.45583916 -0.041195676 0.27663237 0.03333685 0.2049615 0.104950786
0.36224344 0.32807848 0.029107532 -0.28589845 0.16693506 0.20697609 0.006268987 0.10689918
-0.08428625 -0.21731016 -0.067059256 0.29545063 -0.29164425 -0.0018598672 -0.24319883 -0.16495043
0.056186635 -0.42210245 -0.21284065 -0.1330165 -0.13814807 -0.0012336475 -0.28243 0.024341898
-0.7224336 -0.03919589 -0.2163432 0.106197 0.13705938 0.08280426 0.2799322 0.106476955
-0.40983516 -0.29186475 0.04382416 0.24103993 -0.06919326 0.06633686 0.041078247 -0.2320237
0.07508418 -0.2644132 0.28168166 0.03186296 -0.24499907 -0.4624514 -0.3994668 0.36836946
-0.18755527 -0.21613114 0.22044167 0.13574046 -0.46253836 0.07923107 -0.26641554 -0.15231575
0.31466326 0.088666834 -0.1786679 -0.1807913 0.3665957 -0.17705652 -0.096375674 0.022693247
0.3824123 0.12844327 -0.20190169 -0.06330891 0.6759749 -0.22999263 -0.0467581 0.38587606
0.037053972 -0.562686 -0.2422035 -0.14301085 0.05404982 0.21168116 -0.43749896 0.058540683
-0.37191024 -0.2070636 -0.13681623 0.1972045 -0.106067695 0.2562409 -0.07828553 0.42204785
-0.45770124 0.15356255 -0.06868602 0.019898005 -0.10503669 0.36108133 0.102780685 -0.4163022
0.1944987 0.13304386 -0.43469757 -0.19388235 0.034465257 -0.01293373 -0.032120846 0.010648551
00000000: 7482 e63e 5618 303e ca1d 833e 00de 043e
00000010: b33c b43e 645f 6ebc 5c2f 97be 3684 4fbe
00000020: a28d 0d3f 4718 563e 119e 35be 71ca 5dbe
00000030: c194 813d d714 fdbd 475f 733d 4a16 343d
00000040: 8eaf 813e 09f7 65bc d879 51be 61ef 2e3e
00000050: d1d9 afbe 472e c4be 60b7 8c3d 58f7 933e
00000060: 9f39 7f3e 6dc6 943e 588e 11be c513 fcba
00000070: 4de8 ff3d 1d10 febd fdcc c33e b454 843e
00000080: 4849 023f 5f15 273e f8dd b8bd 0804 123d
00000090: 955a 16bf 0d54 dcbd 85bf 983c 0ced 013f
000000a0: d188 463e 31a6 d23e f1c9 1dbc 3be4 b3bc
000000b0: 5643 24be 01b6 8ebe 630f ef3d c0a7 2c3e
000000c0: 2bb5 85be 4636 10be 1ed9 25be 8ffb 7a3e
000000d0: 10d2 94be ad2d 2a3d b7bb afbe a9d3 34be
000000e0: 2c2a 2bbe b882 2dbe 12d0 f3bc a783 a9bd
000000f0: 21b8 b23e 6165 6f3e 8e4a 703e 6e2d 0e3e
00000100: 48bb 983e 18e5 e6be 9d3c 613e e064 87be
00000110: 527a 96be d6fc 2dbe c53b 933e 78ab 1fbe
00000120: 5264 9fbe 73d6 a5bd bcbd 2fbc c12d b63e
00000130: a3ba 7ebe f021 22be 1ef2 e93c 1e05 36be
00000140: 7d7a f93e 9858 4c3d 84c9 833e 3de5 ffbd
00000150: 5435 c53d b0d2 8fbe b94c c0bd 2479 cb3d
00000160: 75e5 d6be 46e0 dcbe af78 ac3d 7b5a 0fbd
00000170: 022e 9bbe 2417 2dbf c7b1 233e 5ee0 9c3d
00000180: 117c 7c3d b700 9ebc a110 9abe a547 593e
00000190: d5e9 e63e 7e01 023c 6c8e 25bc dc22 203f
000001a0: b965 e7bd 4ccc b7be a6bb 563e efce d23e
000001b0: d40f a1bc 4dd1 3d3e cc47 3cbe a228 f33e
000001c0: 3ad1 0f3e e138 8fbe 94bb 41be 8b2b d93d
000001d0: 1fc6 b5be e43f 173c b444 163e 2954 96bd
000001e0: 205e e3be 1d8e 143e 64e8 4b3d 679d 42be
000001f0: 7116 a63e 0a8c 07be 96e9 f7bb fe99 333e
00000200: 80b2 c6be 4c87 0abf 80af 2b3f e424 06bd
00000210: 15ae 823d 3ae7 f33e bc03 09be cd78 dbbd
00000220: 217f 813e 6e1e fb3e be73 2bbd fc5c 973d
00000230: 16de 8f3d 0507 a83d e6b5 133f caaf 123e
00000240: 4e73 91be 3e7c 963e c063 e93e ccbc 28bd
00000250: c2a2 8d3e 398c 083d 6de1 513e 70f0 d63d
00000260: f977 b93e e7f9 a73e eb72 ee3c 4861 92be
00000270: 06f1 2a3e 8af1 533e 136c cd3b f5ed da3d
00000280: 459e acbd 8e86 5ebe 5d56 89bd 4e45 973e
00000290: 6552 95be cac6 f3ba 1d09 79be c4e8 28be
000002a0: f523 663d d01d d8be e6f2 59be 7a35 08be
000002b0: b076 0dbe 57b2 a1ba aa9a 90be a968 c73c
000002c0: 69f1 38bf df8b 20bd 1289 5dbe d07d d93d
000002d0: 4b59 0c3e 4895 a93d 4653 8f3e 9710 da3d
000002e0: ead5 d1be 4c6f 95be f680 333d 2cd3 763e
000002f0: 32b5 8dbd 9fdb 873d aa41 283d 9f97 6dbe
00000300: bcc5 993d 2b61 87be 9438 903e bc82 023d
00000310: 09e1 7abe 6ec6 ecbe ea86 ccbe ec9a bc3e
00000320: 7d0e 40be 7b51 5dbe 76bb 613e 8cff 0a3e
00000330: d4d1 ecbe e643 a23d 9e67 88be a9f8 1bbe
00000340: 8b1b a13e f596 b53d b8f4 36be 5b21 39be
00000350: 6eb2 bb3e 4e4e 35be 9c60 c5bd 30e7 b93c
00000360: 8ccb c33e a286 033e 51bf 4ebe 1aa8 81bd
00000370: b10c 2d3f 3083 6bbe 6c85 3fbd 8c91 c53e
00000380: e8c5 173d 310c 10bf 3204 78be 7071 12be
00000390: 5863 5d3d f2c2 583e ddff dfbe 5bc8 6f3d
000003a0: 056b bebe 7b08 54be 8e19 0cbe faef 493e
000003b0: 053a d9bd 0232 833e 2a54 a0bd a816 d83e
000003c0: d157 eabe 803f 1d3e 42ab 8cbd 2401 a33c
000003d0: 7a1d d7bd a7df b83e ae7e d23d 9025 d5be
000003e0: ab2a 473e a63c 083e ae90 debe 1889 46be
000003f0: 712b 0d3d ffe7 53bc 2691 03bd 4377 2e3c

_actor_critic.actor.preprocess.model.model.0.bias f4 [64]
0.08915357 0.038187735 -0.078793265 0.012782827 -0.028301287 -0.07249905 0.14572193 -0.23942709
0.31670627 0.20210196 0.041208543 0.12653711 -0.050696317 0.028210659 0.088571504 -0.24179335
0.10694392 -0.047929104 -0.045420304 -0.13439338 0.060963314 -0.054988243 -0.31189302 0.046843812
0.05199986 0.09203817 -0.073481455 -0.041645326 0.03588478 0.020426901 -0.08755089 0.042177703
-0.26738945 -0.03158851 -0.021205448 -0.05200501 0.21238773 0.19361953 -0.05883079 0.07254352
0.31626073 0.06646616 0.09770551 -0.004838722 -0.006037884 -0.115375765 0.14112619 -0.11536425
0.1333005 -0.020993248 0.015297234 -0.25863037 0.0285478 0.0068178074 0.21069603 -0.20651901
-0.003839321 0.042960957 -0.032580502 -0.03556246 0.08742079 0.12506773 0.06983451 0.20001146
00000000: 2696 b63d be6a 1c3d 5d5e a1bd 106f 513c
00000010: 1ad8 e7bc 627a 94bd 2138 153e 602c 75be
00000020: 5327 a23e d1f3 4e3e 4aca 283d f292 013e
00000030: f1a6 4fbd 0a1a e73c fa64 b53d ad98 77be
00000040: 6a05 db3d 4f51 44bd a40a 3abd 6b9e 09be
00000050: abb4 793d 5a3b 61bd 71b0 9fbe 4cdf 3f3d
00000060: cefd 543d 827e bc3d 727d 96bd 4a94 2abd
00000070: ebfb 123d 5156 a73c e24d b3bd 87c2 2c3d
00000080: 45e7 88be f462 01bd 0cb7 adbc 3503 55bd
00000090: 2b7c 593e 3344 463e 8ef8 70bd b291 943d
000000a0: edec a13e 691f 883d d419 c83d 248e 9ebb
000000b0: 71d9 c5bb 214a ecbd 6283 103e 1844 ecbd
000000c0: ed7f 083e 08fa abbc 40a1 7a3c 336b 84be
000000d0: 13dd e93c ea67 df3b b3c0 573e b879 53be
000000e0: 1e9d 7bbb d4f7 2f3d 2273 05bd f1a9 11bd
000000f0: ac09 b33d c111 003e 6505 8f3d cecf 4c3e

_actor_critic.actor.preprocess.model.model.2.weight f4 [64, 64]
0.3100187 -0.106739745 0.12601227 -0.29406485 -0.28419772 0.105298266 -0.02016627 0.48011804
0.006773327 -0.35010144 0.2458008 0.16496472 0.08340841 0.1753869 -0.049705923 0.27344778
0.4623251 -0.36599874 -0.0010772625 0.22451039 -0.021098891 -0.22778192 0.058889993 -0.2408334
0.14803623 -0.124415725 0.5513607 0.034287333 -0.10418833 0.07730982 -0.12781353 0.08857259
0.41327703 -0.24873106 0.0027992206 -0.11286898 -0.12211511 0.07541366 0.006423452 -0.1017235
-0.3531435 0.036309954 -0.112331614 -0.0058835894 -0.105301015 0.16532475 -0.018219281 0.31107005
-0.09786709 -0.020704577 -0.1794892 -0.19899248 0.08954387 0.015306614 -0.27265102 0.42369056
0.2034413 0.13082983 0.20915192 0.44066712 -0.53777736 -0.47946572 -0.31657824 -0.16247682
-0.0094415955 -0.2365545 0.1764763 0.4263037 -0.050998744 0.013996263 -0.15921345 0.17677882
-0.0768452 -0.15656514 -0.058334433 -0.049782682 0.121650055 -0.2391419 0.116356425 0.029890314
-0.020026976 -0.2169569 -0.12433007 0.16094106 0.1194868 0.02718151 -0.020416837 -0.1866185
-0.26059914 0.039161276 0.123095006 -0.36638534 0.03376365 -0.10182463 -0.018023206 -0.41381443
-0.031751174 0.13451113 -0.26658943 -0.45262045 0.05895449 0.15887235 0.11474336 0.033845533
0.04106114 0.10179382 -0.12013318 0.039302595 -0.23265485 -0.22193041 0.043274272 0.11733805
0.08045285 -0.21233982 0.32703257 -0.32098413 0.0611007 -0.0020356758 -0.17941755 -0.08848472
0.19414671 -0.16948634 -0.0152865825 -0.08332075 -0.32351738 0.25343034 -0.22322416 0.11584627
0.233471 -0.19487873 -0.12695442 0.22559041 -0.117908284 0.10711322 -0.12637019 0.45607355
-0.413261 -0.33355215 -0.12214809 0.29455277 0.4249229 -0.055171072 -0.55235565 0.46691254
0.14420722 -0.07379964 -0.12338165 0.44000295 -0.25710475 -0.024766387 0.5615716 -0.03673589
0.13198644 -0.24971311 -0.28453997 0.19089448 -0.41816893 0.0025729432 0.1679621 -0.062626846
0.0676393 -0.11663835 0.12676212 0.03876556 -0.13602598 -0.20074745 0.0936091 -0.20493911
-0.51508135 -0.06771408 0.031138057 -0.1471915 -0.033157084 0.093494736 0.10835926 0.11389152
-0.23221609 0.25273365 0.35341483 0.022103949 0.19486052 0.0025748732 -0.38389853 0.62903804
0.1491879 0.102662906 0.27581617 -0.18726112 0.11953993 0.0929895 0.27773532 -0.18878959
-0.05716163 0.2907444 0.10549838 0.1168521 -0.10507318 0.13780198 0.038446397 -0.10802363
0.14512867 0.14716758 -0.053028926 0.22349757 -0.06376593 0.26504827 0.23583673 -0.2058493
0.08200718 -0.12741189 -0.25094712 -0.16683869 0.0509329 0.05370601 0.28372067 -0.19436434
0.14322066 0.53665936 -0.09710571 -0.09846669 0.22037664 0.27160916 -0.15001275 0.0021125143
-0.3044557 0.13294594 -0.17333783 -0.22987272 0.16631064 0.20881492 -0.039581455 0.24873134
0.31654322 -0.38336346 0.090097554 -0.10322136 -0.034677666 -0.30492312 0.08130814 -0.5159421
0.05940938 0.0655107 -0.3724098 0.05677516 0.012077037 -0.3660733 0.05981252 0.3058782
-0.07538264 0.08236817 0.10375408 -0.11531781 0.14060831 0.3265495 -0.055622503 0.014350681
00000000: c5ba 9e3e 5e9a dabd 5c09 013e ab8f 96be
00000010: 5d82 91be 9ea6 d73d bc33 a5bc 08d2 f53e
00000020: c9f2 dd3b 7f40 b3be 34b3 7b3e 83ec 283e
00000030: 07d2 aa3d a098 333e 7098 4bbd 5901 8c3e
00000040: e0b5 ec3e 3064 bbbe ee32 8dba 0de6 653e
00000050: 95d7 acbc aa3f 69be a236 713d 089d 76be
00000060: cf96 173e accd febd fa25 0d3f e070 0c3d
00000070: b160 d5bd 9c54 9e3d 8de1 02be 8c65 b53d
00000080: 0c99 d33e 5bb3 7ebe 2173 373b da27 e7bd
00000090: 7d17 fabd 7a72 9a3d d27b d23b 6954 d0bd
000000a0: 3acf b4be bfb9 143d 1e0e e6bd 20cb c0bb
000000b0: 0fa8 d7bd e44a 293e 9a40 95bc 9344 9f3e
000000c0: 8a6e c8bd a59c a9bc 04cc 37be afc4 4bbe
000000d0: c762 b73d 98c8 7a3c ea98 8bbe f8ed d83e
000000e0: eb52 503e 41f8 053e ec2b 563e 1f9f e13e
000000f0: c7ab 09bf 887c f5be 8b16 a2be 5360 26be
00000100: ecb0 1abc 583b 72be 34b6 343e 7b44 da3e
00000110: 0fe4 50bd 9550 653c da08 23be 8205 353e
00000120: 0461 9dbd 9d52 20be 16f0 6ebd ede8 4bbd
00000130: aa23 f93d 9de1 74be 474c ee3d 88dc f43c
00000140: 9d0f a4bc f329 5ebe c4a0 febd bccd 243e
00000150: 7fb5 f43d c2ab de3c 3641 a7bc ec18 3fbe
00000160: 406d 85be 9367 203d 3c19 fc3d dc96 bbbe
00000170: c14b 0a3d 6e89 d0bd 67a5 93bc 7cdf d3be
00000180: 850d 02bd 49bd 093e 697e 88be debd e7be
00000190: 437a 713d 6faf 223e 91fe ea3d 9da1 0a3d
000001a0: ba2f 283d 4779 d03d 6208 f6bd c2fb 203d
000001b0: 133d 6ebe ba41 63be 5d40 313d ee4e f03d
000001c0: 77c4 a43d 9c6f 59be d070 a73e 0858 a4be
000001d0: ba44 7a3d f968 05bb 3cb9 37be 7a37 b5bd
000001e0: 65ce 463e d48d 2dbe 9374 7abc 12a4 aabd
000001f0: 12a4 a5be 9fc1 813e e094 64be cf40 ed3d
00000200: 0613 6f3e 4a8e 47be 5700 02be 2c01 673e
00000210: e679 f1bd 2d5e db3d 3067 01be 7982 e93e
00000220: f296 d3be 59c7 aabe c728 fabd 9fcf 963e
00000230: 7f8f d93e 10fb 61bd 2e67 0dbf 290f ef3e
00000240: 0fab 133e 4424 97bd 85af fcbd 1148 e13e
00000250: 3ca3 83be e1e2 cabc 28c3 0f3f 5f78 16bd
00000260: 7427 073e cbb4 7fbe 39af 91be d879 433e
00000270: 3d1a d6be d39e 283b 42fe 2b3e 8142 80bd
00000280: 7986 8a3d 16e0 eebd eecd 013e a3c8 1e3d
00000290: 654a 0bbe bd90 4dbe 21b6 bf3d 8fdb 51be
000002a0: 5fdc 03bf aead 8abd 3d15 ff3c 5eb9 16be
000002b0: b9cf 07bd 2b7a bf3d 76eb dd3d f53f e93d
000002c0: 0eca 6dbe 4e66 813e caf2 b43e 5713 b53c
000002d0: 8489 473e 34bf 283b 598e c4be a308 213f
000002e0: b6c4 183e ee40 d23d c737 8d3e 61c1 3fbe
000002f0: 5ad1 f43d 4771 be3d 5333 8e3e 0f52 41be
00000300: 5022 6abd 73dc 943e 890f d83d 2750 ef3d
00000310: 9b30 d7bd f61b 0d3e f879 1d3d 7e3b ddbd
00000320: 9c9c 143e 19b3 163e dc34 59bd 8cdc 643e
00000330: b697 82bd 68b4 873e 2f7f 713e 29ca 52be
00000340: 61f3 a73d 4378 02be 247c 80be c3d7 2abe
00000350: 049f 503d d5fa 5b3d d643 913e 7207 47be
00000360: 70a8 123e 8262 093f 5cdf c6bd e7a8 c9bd
00000370: 6aaa 613e 5b10 8b3e f19c 19be 1c72 0a3b
00000380: 9ee1 9bbe fb22 083e 797f 31be c163 6bbe
00000390: 564d 2a3e 94d3 553e 2a20 22bd 6eb3 7e3e
000003a0: f411 a23e 3748 c4be 1185 b83d b865 d3bd
000003b0: 2b0a 0ebd e21e 9cbe e284 a63d c814 04bf
000003c0: 4057 733d 792a 863d 7fac bebe 128d 683d
000003d0: c4de 453c f66d bbbe f9fd 743d 119c 9c3e
000003e0: 3762 9abd a5b0 a83d 057d d43d be2b ecbd
000003f0: a0fb 0f3e 7f31 a73e 6cd4 63bd 1e1f 6b3c
