results/Walker2d-v3/trpo/7/220709-074352/policy.pth (torch, 53668 bytes, 24 tensors)

actor.sigma_param f4 [6, 1]
000000 87 99 d1 bf 20 60 ec bf 9e 2e f0 bf 93 75 bf bf
       -1.6374978 -1.8466835 -1.8764226 -1.4957756
000010 02 9e c4 bf 67 6a 08 c0
       -1.536072 -2.1314943

actor.preprocess.model.model.0.weight f4 [64, 17]
000000 ce 1e 14 be f7 73 2a 3e d2 88 29 be a8 b1 ec 3d
       -0.14464876 0.166458 -0.16556099 0.11557323
000010 ff 63 cb be 6d 1a 27 be 73 f0 6b be 37 c3 33 be
       -0.39724728 -0.16318674 -0.23040943 -0.17554937
000020 17 e6 bf 3d 28 30 66 3d 7c 96 ae 3c 60 7f d7 bd
       0.09370058 0.05619827 0.02131199 -0.10522342
000030 fd a2 d9 3c 60 f6 a4 3d f8 b6 7d 3e 0a 43 8d 3c
       0.026566977 0.08054805 0.24776828 0.01724388
000040 21 92 a7 bd 2e 41 5d 3e 61 38 9e be 2c 49 9c be
       -0.08182169 0.21606895 -0.3090239 -0.30524576
000050 de 35 ec bd e7 2c 64 3d 49 1b 71 bd c4 b1 80 3e
       -0.11533712 0.055706885 -0.05886391 0.25135624
000060 5f f4 95 3e 3a cb 82 be 16 ae d2 bd 5e 0f 80 3e
       0.29288003 -0.25545675 -0.102871105 0.25011724
000070 0c 0f 05 3e 69 d1 25 3e 7b 13 b7 3b a3 1d 40 3e
       0.12994021 0.16193165 0.005587039 0.18761306
000080 9b a7 ac 3e d0 87 da 3d e6 83 7d 3e 37 90 aa bc
       0.33721623 0.106704354 0.24757347 -0.02082072
000090 f5 75 3d be d0 62 58 3e 35 00 86 3e cc b8 bf 3d
       -0.18502028 0.21131444 0.26172033 0.09361419
0000a0 ef f3 08 be f3 95 8c be 0d 30 be 3d 48 6c bc be
       -0.13374303 -0.27458152 0.09286509 -0.36801362
0000b0 df 8a 64 3e b2 42 60 bd 94 06 81 be 8b 9a 51 bd
       0.223186 -0.054751106 -0.2520033 -0.051172774
0000c0 bf ec 09 3d 64 ca 86 be b1 23 4c 3e e0 7f 90 bd
       0.033673044 -0.26326287 0.1993549 -0.0705564
0000d0 1b 5d 67 3d a1 0e 2f 3e e3 a1 cd be 42 5b 9a 3e
       0.056485277 0.17095424 -0.40162572 0.3014775
0000e0 a9 e0 95 be 1c 45 88 bc 5c 81 8c be 99 2f 8d 3d
       -0.29272965 -0.016634516 -0.27442443 0.06893844
0000f0 de 95 fa 3c 45 27 ac 3e 67 34 e3 3d 98 78 93 bd
       0.03058904 0.3362371 0.11093979 -0.07200736
000100 79 b6 f5 3e eb b8 c5 bd 28 9c 4e bd 9e e3 b8 3a
       0.47990778 -0.09654411 -0.05044189 0.0014105921
000110 f3 0e 79 3d 6e 58 ee 3d 12 6f be be a8 22 de bd
       0.060805272 0.116379604 -0.37194115 -0.10846454
000120 6a 56 2a 3d 73 d0 95 be 87 fb ea bd 8d cb 34 be
       0.041586317 -0.29260597 -0.11473756 -0.17655773
000130 dc 13 c3 bd c2 3d a4 be 22 34 b5 3d ed f9 41 be
       -0.09525272 -0.32078367 0.08847834 -0.18942995
000140 a2 99 b0 3e 9d 07 9d 3d 3e 01 e1 3d 94 4c 87 3e
       0.34492213 0.07667468 0.10986565 0.26425612
000150 ba 04 83 be ac d1 91 3e 5a d3 e6 be ad 53 4f bb
       -0.25589544 0.2848028 -0.45083123 -0.0031635568
000160 b5 d7 01 be c9 37 b8 3d b9 a5 a9 3e dc e9 48 3e
       -0.12679942 0.08995015 0.3313425 0.1962046
000170 d1 f4 be 3e 26 f8 76 ba 9d aa e9 3e c2 33 34 be
       0.37296155 -0.0009421132 0.4563798 -0.17597869
000180 6a 9a c3 3b a3 6b 39 3e 66 fb ac bd 94 06 91 3e
       0.0059693353 0.18107466 -0.08446388 0.2832533
000190 ca 43 fa 3d ea f9 85 bc b5 f7 1e 3d 93 c3 c3 3e
       0.12219961 -0.01635452 0.03881045 0.3823515
0001a0 f4 6d cb 3d 8b 3b 4d 3e 16 98 c8 bd 75 16 83 be
       0.09933081 0.20042245 -0.09794633 -0.2560307
0001b0 2e 78 d9 3e 1b a6 e6 3a a2 9a 7b bd 04 e4 2c 3e
       0.42474502 0.0017597111 -0.061426766 0.16883856
0001c0 90 7d 25 3d b3 b8 b6 3e 99 38 3d 3e dc 31 57 be
       0.04040295 0.3568779 0.18478622 -0.21015114
0001d0 a3 d0 91 3e 1a 70 aa be 56 f0 b2 bd f3 8d 8a be
       0.2847949 -0.33288652 -0.08737247 -0.27061424
0001e0 aa 67 4e 3d 52 07 bc bd 38 3c 18 be c6 cc f0 be
       0.05039183 -0.09181084 -0.14866722 -0.4703123
0001f0 67 cf 2d be 7b c2 d8 3c 31 d9 43 3e 8a 15 a8 3e
       -0.16973649 0.026459923 0.1912582 0.32828933
000200 0c ee 9a be 0b 94 30 3e b4 f6 c5 be 2a ed 9d be
       -0.3025974 0.17243974 -0.38664782 -0.30845004
000210 f3 9c ab bc 11 ef 5a 3d 56 74 36 bd d2 cb 45 bb
       -0.020948863 0.053450648 -0.04454454 -0.00301813
000220 c0 a6 98 be 0b 21 7a be 47 8d 79 be 21 d4 31 3e
       -0.2981472 -0.24426667 -0.243703 0.17366077
000230 d7 44 e5 be 01 21 82 3d c6 92 cd be 9d 21 36 be
       -0.44779083 0.06353951 -0.40151042 -0.1778626
000240 57 15 89 be 88 f9 b7 3d 36 72 96 3c 4e 52 2e be
       -0.26774094 0.08983141 0.018365007 -0.17023584
000250 df 01 3c 3e e5 32 5c be 0a 3f 96 be 60 5d 05 3c
       0.18360089 -0.2150379 -0.2934497 0.008139938
000260 34 b2 06 bd 41 39 93 be 75 f6 07 3f 52 4f d6 be
       -0.03288479 -0.2875462 0.5311044 -0.41857392
000270 a3 b1 12 be 31 73 10 be 52 ae 1c 3e 42 02 a4 bd
       -0.14325576 -0.14106442 0.15300873 -0.08008243
000280 38 62 fc bd be 38 98 3e 3a cd ef be 5b 4a a6 be
       -0.12323421 0.2973079 -0.46836263 -0.32478604
000290 44 4a 8c 3e e1 0d 21 be 0e 05 56 3e cb a4 50 be
       0.2740041 -0.1572795 0.20900366 -0.20375364
0002a0 5e da ba bd 1c ef af 3d 2d 6f cb be 5f 55 37 3d
       -0.091236815 0.08590528 -0.39733258 0.04475915
0002b0 ca bb 7e be bc 7f 8d bc 3f 6f 01 bd 5d ea 18 bd
       -0.24876323 -0.017272823 -0.031600233 -0.03733288
0002c0 48 04 17 3d b4 52 e9 3e ae bf a9 3e 5f e2 7c 3e
       0.036869317 0.4557091 0.33154052 0.24695729
0002d0 5d 61 34 3e 1a e7 1c be 4d 94 3a bc dd b8 8d be
       0.17615266 -0.15322533 -0.011387897 -0.27680102
0002e0 99 08 b4 bc 79 4c 85 3d d5 4e 43 be a7 3a a3 3d
       -0.021976756 0.065087266 -0.19073041 0.079701714
0002f0 b7 0c ff bc f2 86 36 3e 2c 0f 93 3e a7 c9 ae 3e
       -0.031133993 0.17824915 0.28722513 0.34138224
000300 57 a4 3b be 55 c0 5a 3e ea f4 36 be 08 1a c8 3b
       -0.1832441 0.21362431 -0.17866865 0.006106619
000310 8c 9d 35 3d d4 09 ea bd c5 de ad 3d 40 f1 cd 3b
       0.0443397 -0.11427656 0.084897555 0.0062848628
000320 35 80 67 3d e1 9f 0c 3e 15 71 f8 bd 1d bd 0a bd
       0.056518752 0.13732864 -0.12130944 -0.03387176
000330 11 78 e6 bd 84 80 d6 bd 82 24 d0 bc 04 44 a9 3d
       -0.112533696 -0.10473731 -0.025408033 0.08264926
000340 7c 49 23 3e 84 ff 85 3d 31 a4 e3 3d 98 38 99 be
       0.15946001 0.06542876 0.111153014 -0.2992599
000350 19 b2 7c be 89 aa 29 bd be bd 1e 3e a6 48 6f be
       -0.24677314 -0.0414224 0.15502068 -0.23367557
000360 31 17 c3 3d e4 f7 55 be 37 ff 13 3e 89 b8 4a be
       0.09525908 -0.20895344 0.14452825 -0.19796957
000370 15 49 0f bd b2 40 56 3e 02 81 d9 bd ec e0 8f bd
       -0.034981806 0.20923117 -0.106203094 -0.07025322
000380 28 c6 9a 3e b8 4b c7 3e c3 e4 e7 3c 32 7f e5 3e
       0.30229306 0.38924956 0.028307324 0.44823605
000390 4d aa ac 3d 5d 24 cc 3c c1 86 b8 bd 03 e2 3d 3d
       0.0843092 0.024919683 -0.09010077 0.04635812
0003a0 55 bf 15 3c e9 23 90 3e ad b8 3e bd 9a ac 26 bd
       0.009139855 0.28152397 -0.04656284 -0.04069195
0003b0 a2 84 03 3e ae 2c 4f 3e ee 6e 00 3e 47 5d 96 3d
       0.12843564 0.20231888 0.12542316 0.0734201
0003c0 cf b8 66 3d 2e 68 12 3d d7 37 8c bd b8 57 7d be
       0.05632859 0.035743885 -0.06846588 -0.24740493
0003d0 06 2f 3d 3d 82 69 8a 3e b9 46 9d 3e 94 6f 4f 3d
       0.046187423 0.2703362 0.3071802 0.05064352
0003e0 b8 1e a0 be 06 79 5a 3e 2c cb c4 3c 39 f2 02 be
       -0.31273437 0.2133523 0.024022661 -0.12787713
0003f0 cf e0 79 3e 86 99 ce be 5f dc f3 3c 8e 1e 9e be
       0.24402164 -0.40351504 0.029768167 -0.30882686

actor.preprocess.model.model.0.bias f4 [64]
000000 33 79 38 bd 32 e6 e1 bd 66 b2 2b 3e be 45 59 3d
       -0.04503746 -0.110302344 0.16767272 0.053045027
000010 2c 29 b9 bd f7 2c 03 be 61 5f 84 3e 10 34 5b 3e
       -0.09041056 -0.12810121 0.25854018 0.21406579
000020 de d8 50 bc 01 a2 1e 3e 39 5d e3 bd 54 80 12 3e
       -0.012747018 0.15491487 -0.11101765 0.14306766
000030 b5 34 e7 bd 9b 6f 36 bd 6d 34 99 bc f0 42 3f 3d
       -0.1128935 -0.04454003 -0.018701756 0.046694696
000040 4a c9 9c bd 82 dc 63 3e 26 75 ce bd aa ca 4f 3e
       -0.0765558 0.22252086 -0.10080938 0.20292154
000050 37 d1 de bd 56 6d 0b be e1 4d f6 3d 5c 61 43 3e
       -0.10879748 -0.13615927 0.12026573 0.19080108
000060 83 10 1f bc 7e 4c f8 bd f8 86 61 3e eb 54 5c be
       -0.009708527 -0.12123965 0.22024143 -0.21516769
000070 3f 93 89 3e 78 c4 a1 bc 20 4c 42 3d ac 68 2e 3e
       0.26870152 -0.019747004 0.04743588 0.17032117
000080 06 d1 3d 3e 0a 63 a0 be 33 fb 1a 3e c0 f1 ab bc
       0.18536767 -0.3132556 0.15134887 -0.020989299
000090 56 5c 63 bd ca c7 6f 3c 68 53 1a 3d ab b6 32 3c
       -0.05550798 0.014635036 0.0376772 0.010907809
0000a0 ef a1 00 be 4d 53 ca 3d b0 f2 81 be 12 d1 83 be
       -0.12561773 0.098791696 -0.25380468 -0.25745445
0000b0 11 a2 e8 3d e2 a1 92 3d f0 d6 30 bd 77 40 a9 3d
       0.11359037 0.07159783 -0.04317373 0.08264249
0000c0 42 78 38 3d b9 fa 3b be f6 ed c4 bd b7 af e5 3e
       0.04503656 -0.18357362 -0.096157 0.44860622
0000d0 9b ac 84 3d 06 a7 be bd fc 96 ee 3b 53 91 d2 bd
       0.064782344 -0.09309201 0.0072811823 -0.10281625
0000e0 81 e1 25 bc e4 c1 98 3e 7b 79 ea 3d 2a 86 04 3e
       -0.010124565 0.29835427 0.11448952 0.12941805
0000f0 5a a4 c0 bc 52 23 be bc 57 4c c0 3d c8 f6 e0 3d
       -0.023515869 -0.023210201 0.09389561 0.1098457

actor.preprocess.model.model.2.weight f4 [64, 64]
000000 e5 0b 6d be 48 a7 7d bd a5 67 c4 3d 23 53 fe 3b
       -0.23149069 -0.06192711 0.09590081 0.0077613755
000010 48 fe 8e 3e eb cd 05 3e d5 b0 b1 bd 19 cf 15 3d
       0.27928376 0.13066833 -0.08676306 0.036574457
000020 a9 67 6b 3d 71 2b 2e be e6 be 64 3d 3a 94 d0 bc
       0.057471905 -0.17008759 0.055846117 -0.025461305
000030 cd a9 a6 be 75 09 26 3e 86 8a 3e be 73 22 a0 3d
       -0.32551423 0.16214545 -0.1860753 0.07819071
000040 52 b4 77 3e 6e 61 19 3e a3 f3 09 be 99 e5 be 3e
       0.2418988 0.14978573 -0.13471846 0.37284544
000050 ea 87 12 be 5c 5b 21 be 98 02 9a 3d 28 a1 67 3e
       -0.1430966 -0.15757507 0.07520026 0.2262007
000060 56 e6 6d be 9e 25 8f be 82 98 c8 be 28 e0 1d 3b
       -0.23232397 -0.27958387 -0.39178854 0.0024089906
000070 24 28 76 3d 85 ea 26 be a6 f0 42 3d 94 6b 83 be
       0.060096875 -0.163004 0.04759278 -0.25668013
000080 c0 58 7d bd 46 21 ab 3e f5 e6 8e 3c 69 01 9e 3b
       -0.061852217 0.33423823 0.017444113 0.0048219454
000090 06 ec a8 3e fb ec 8f bd 8e 6d 3e bd 52 6f 73 3e
       0.32992572 -0.07027622 -0.0464912 0.23772934
0000a0 ed a1 eb bc fb ee 52 be cf 54 c5 3c 46 1c ff 3c
       -0.028763736 -0.20598976 0.024088291 0.031141412
0000b0 13 e3 80 3d 51 85 61 be 3e ef 74 be 09 ba a8 bd
       0.06293311 -0.22023512 -0.23919389 -0.082386084
0000c0 ac 90 2d be 50 6d 92 be 22 27 f5 3d d8 7f 91 3d
       -0.16949719 -0.28599024 0.119703546 0.071044624
0000d0 91 22 c9 be c9 0f 2b 3d d0 be 13 3e 8a fe db bd
       -0.39284185 0.0417631 0.14428258 -0.10741909
0000e0 36 93 d6 3c fc a5 b4 be cc 62 3e be 2d 23 bd bd
       0.026193243 -0.35282886 -0.18592376 -0.09235225
0000f0 0c 90 81 be 1f f2 d3 bd 12 e2 ee bd 13 b8 89 bd
       -0.25305212 -0.10348915 -0.11664213 -0.067245625
000100 bd 68 0f 3e dd 71 80 3c bb 5a 84 be 6f 99 cb bd
       0.14004798 0.015679294 -0.25850472 -0.099413745
000110 2c 89 80 3e 0b 03 a0 bd b3 97 2d 3d 88 34 00 3e
       0.25104654 -0.078130804 0.042381 0.12520039
000120 6c a1 b0 3d 8d 04 df 3e 01 ef cd 3d 2b d8 4a be
       0.08624539 0.4355816 0.10055352 -0.19809024
000130 10 a8 80 be e2 f0 3e be f1 bf 89 3e ff 99 42 3e
       -0.25128222 -0.18646577 0.26904252 0.19004057
000140 c1 86 f2 bd 0a 9a 06 3d 8c 81 3e bd 19 64 5f 3d
       -0.118421085 0.032861747 -0.046510264 0.05453882
000150 60 9e 74 3c 37 b2 6f bc a3 c6 cc 3c 0b 6b 13 bd
       0.014930338 -0.014629892 0.024997061 -0.035990756
000160 36 dd 27 3e 8d 15 3d bd 44 50 ec 3e f7 b1 0d 3e
       0.16392979 -0.04616313 0.46154988 0.1383742
000170 06 1e 1d bd c1 97 cd be 81 6a 91 3e 91 b8 e9 bc
       -0.03835871 -0.40154842 0.2840157 -0.028530391
000180 e6 bc aa be f0 da a7 be 02 bc 8f be 8b d2 c0 bc
       -0.33347243 -0.32784224 -0.28073126 -0.023537895
000190 b3 63 4d 3e ed 6a d0 be 1d f6 1c be 19 09 97 3d
       0.20057563 -0.40706578 -0.1532826 0.07374782
0001a0 78 15 3b 3d 04 6f cf 3c e1 c1 a5 be e4 7f 98 be
       0.04567477 0.025321491 -0.3237448 -0.29785073
0001b0 5d 06 89 be 0c 95 39 3d e7 c3 f2 3c be 07 01 be
       -0.26762667 0.045308158 0.02963443 -0.1260061
0001c0 e1 88 1a be 66 8a ee bb e5 e6 56 be 57 ce 9b be
       -0.15091278 -0.007279682 -0.20986517 -0.30430862
0001d0 18 1b 3d 3e 69 a5 24 be 9a 26 8d 3b 38 df 40 3e
       0.18467367 -0.16078724 0.00430758 0.18835151
0001e0 00 d1 cf 3c be ce 5a be b0 cc c4 be c5 68 c6 bc
       0.025368214 -0.21367928 -0.38437414 -0.02421988
0001f0 13 9f 61 bd c6 2c 1f 3e 2d d5 43 3e 65 e0 1c 3e
       -0.055083346 0.15544423 0.19124289 0.15319975
000200 4b 68 d0 bc f9 60 97 be 32 6e dc bd 75 8b 5c 3e
       -0.025440356 -0.29566172 -0.107632056 0.21537574
000210 58 22 90 bc eb 95 58 be bc 60 9a 3c 53 e4 be be
       -0.017594501 -0.21150939 0.018844955 -0.37283573
000220 e5 e8 10 3e 3b f9 ab bd fe 12 82 3d f8 5c 37 3d
       0.14151342 -0.08397146 0.06351279 0.044766396
000230 15 1e 16 3e bd b8 b4 be ce 65 3c 3e 48 8d 2c 3e
       0.14659913 -0.35297194 0.1839821 0.1685077
000240 30 28 37 bc 46 ee 37 3d 5e 59 8d 3d 7f 42 31 3d
       -0.011179015 0.04490497 0.06901811 0.043276306
000250 b3 fb 23 3e d0 80 b4 3e 7a db 0a be 8f cf a3 be
       0.16013984 0.35254526 -0.13560286 -0.31994292
000260 ed 92 de bd 08 b0 5f bd ab b3 4a bd 36 c7 2e 3e
       -0.108678676 -0.054611236 -0.04948775 0.1706818
000270 66 4f 2f be 01 37 f5 bb 87 61 a8 3e b4 77 02 3e
       -0.17120132 -0.0074833636 0.32886907 0.12740976
000280 7b dc 15 be 20 22 fc 3c 1a 80 c6 be e7 6f 92 bd
       -0.14634888 0.03077799 -0.3876961 -0.0715025
000290 89 23 9e 3e 11 d1 ac 3e 83 ef 84 3e ba 08 85 3e
       0.30886486 0.33753255 0.25963983 0.2598322
0002a0 1c 99 ab be 76 ec f1 3c e7 8d d2 ba 35 dd 25 3c
       -0.3351525 0.029531699 -0.0016064019 0.010123541
0002b0 48 09 af be 84 f0 ca 3e 31 19 3a be 7a 77 b1 be
       -0.3418677 0.39636624 -0.18173672 -0.34661466
0002c0 b6 bc 0c bb 72 d7 99 bd 65 03 bd 3d bb ea 96 bc
       -0.0021474785 -0.07511796 0.09229163 -0.018422475
0002d0 a0 44 d9 bd 26 a7 a2 3d 45 ed 0e be 1e 14 8e be
       -0.10608792 0.07942037 -0.13957699 -0.27749723
0002e0 f4 17 28 3e e3 30 f0 bd 55 3f 78 3d 06 fb 08 3e
       0.16415387 -0.117280744 0.060607273 0.13377008
0002f0 03 61 41 3d b2 b5 2c be 51 bd a3 be 19 fe 0c 3e
       0.04721166 -0.16866186 -0.31980374 0.13768806
000300 94 16 db bd 2d 96 eb 3d 3d ff 9d 3e 85 03 8f be
       -0.10697666 0.11503253 0.30858794 -0.27932373
000310 d3 e0 c7 bc a3 08 80 be 2d d8 21 bd be cd 1a 3e
       -0.024399197 -0.2500659 -0.039512802 0.15117547
000320 a7 d5 6c 3c 73 1b ce 3d f0 f8 40 3d be 12 2d be
       0.014455236 0.10063829 0.047112405 -0.16901681
000330 58 16 3b be 46 78 75 3d 97 a1 94 bd a3 de b7 bd
       -0.18270242 0.059929155 -0.07257383 -0.089780115
000340 b6 22 0e 3d fe f3 2d 3e 88 dd 35 3e 25 a3 44 3e
       0.03470107 0.16987607 0.17760289 0.1920286
000350 a8 cc 8f be 3f fe 02 3e ce 9d 99 3d 1c ed 29 3e
       -0.28085828 0.127923 0.07500802 0.16594356
000360 90 8a 60 be c9 72 21 3e ab 8a 98 be 7a ae 7b 3d
       -0.21927857 0.15766443 -0.29793295 0.06144569
000370 7d 2b 23 3e cf 04 81 be 40 ac b0 be 8c d9 8c 3d
       0.15934558 -0.2519898 -0.34506416 0.06877431
000380 29 43 0c 3e d9 a8 60 be 8f 01 6e be 58 ff 51 3d
       0.13697495 -0.2193941 -0.23242782 0.051268905
000390 21 f0 b7 be 0e 32 7c 3d 7f 5b 69 bd d8 34 cd bd
       -0.3592539 0.061571173 -0.056972023 -0.10019845
0003a0 db bf af 3d 99 d4 71 3e e9 3f ac bd b9 be bf 3d
       0.085815154 0.23616256 -0.084106274 0.09362549
0003b0 27 fc 5b be bb 2a aa 3d 27 36 73 be a3 e1 35 bd
       -0.21482907 0.083089314 -0.23751126 -0.044404637
0003c0 3a a6 2e bd 95 00 9a 3e 60 25 b9 3e 31 23 f5 bd
       -0.042638995 0.3007857 0.36161327 -0.11969603
0003d0 d0 21 ff 3c 57 6a 85 be 80 e3 3b be e9 e8 9d 3e
       0.031144053 -0.26057693 -0.18348503 0.3084176
0003e0 4a 83 88 3e da 1d d1 bc 44 39 87 be 2f b2 74 bd
       0.26662666 -0.02552693 -0.26410878 -0.05974024
0003f0 cf c2 c4 3d 28 78 6b 3d e4 50 5e bc 37 bc bc 3e
       0.09607469 0.057487637 -0.0135690905 0.36862347

actor.preprocess.model.model.2.bias f4 [64]
000000 0d d8 18 bd ad 85 79 3d 97 21 a5 3c fe f6 54 3d
       -0.037315417 0.0609185 0.020157618 0.051993363
000010 22 a9 d7 3d 43 fc 7a 3d 90 ca e6 bd b5 b6 1a be
       0.105303064 0.06127573 -0.112691045 -0.1510876
000020 23 df 2c be e1 f3 56 3b a2 84 b2 3d 2e 56 ef bd
       -0.16881995 0.0032799172 0.08716704 -0.11686359
000030 25 64 ac bd 72 33 cc bd 52 5a 79 3d c3 58 56 bd
       -0.084175386 -0.0997075 0.06087715 -0.052330744
000040 0f 79 60 bd 7f c3 93 ba 9a 66 26 3e 35 c7 75 bb
       -0.05480295 -0.0011273472 0.16250077 -0.003750277
000050 98 68 e0 bc 86 fa e9 bd 7d ca 3e bd ff b1 13 3d
       -0.027393624 -0.11424737 -0.046579827 0.036058422
000060 45 dc 8c be 2c 10 b6 3d b6 69 a2 3d 5b 9a c3 bd
       -0.27511802 0.08889803 0.07930319 -0.09550925
000070 34 e1 20 bd 41 a5 19 3d d1 6c 6f bc f1 26 46 bd
       -0.03927727 0.037511114 -0.014613346 -0.04837698
000080 8f 0d 10 3d 89 5f 9d 3c 9d e6 82 bd b7 fb fc 3b
       0.03516918 0.019210594 -0.06391642 0.0077204364
000090 b8 62 db 3d 76 21 33 3e b6 0f cd 3c 6a 77 17 be
       0.107121885 0.17493233 0.025031906 -0.14791647
0000a0 4b b1 05 3e 7b 6e 79 bc fa 26 3a be 5f cd bf bd
       0.13055913 -0.0152240945 -0.18178931 -0.09365343
0000b0 8e f7 0b 3d 02 a8 9c 3d 54 a3 ac bd ab d8 00 3d
       0.034171633 0.076492324 -0.0842959 0.03145663
0000c0 5e cc b4 3c b3 e8 38 3d 82 32 05 3e bd bd 85 bd
       0.022070106 0.045143794 0.13007548 -0.0653033
0000d0 48 84 bd bd b7 0b 75 3d e4 d4 80 bd 5e 42 e8 3c
       -0.09253746 0.059825625 -0.06290606 0.028351959
0000e0 ec a5 47 bc af d7 14 3d 17 30 4c 3e e3 88 3e 3d
       -0.012185555 0.036338504 0.1994022 0.046517264
0000f0 9b 84 9f 3d 84 68 01 bd 27 86 c4 bd b5 96 14 3e
       0.07788964 -0.031593814 -0.095959 0.14510615

actor.mu.model.0.weight f4 [6, 64]
000000 46 18 a8 bd d2 01 da 3d d3 8c 3a 3e 86 16 60 3c
       -0.08207755 0.106448784 0.18217783 0.013677245
000010 8a c0 e1 3d 27 2e 99 be 9f bf 4b be ee 22 85 be
       0.11023052 -0.29918024 -0.19897316 -0.26003212
000020 90 82 6b be 6e 94 86 3e b0 cc 85 3b 9c 41 87 3a
       -0.22999024 0.26285118 0.0040832385 0.0010319236
000030 63 1e 37 be 19 73 85 be 26 f6 4b 3d a5 e3 32 3d
       -0.17882685 -0.26064375 0.049795292 0.04367413
000040 f6 99 85 be c3 27 b9 3d 4f 58 c2 3c 3e 74 02 3e
       -0.26094025 0.09040787 0.02372375 0.12739655
000050 dc 8b 4d be ef f4 0d 3d 13 c3 87 3d b8 25 b6 bb
       -0.20072883 0.034657415 0.06629004 -0.0055586956
000060 97 7c b5 3d bd b1 e0 3d 46 db 8b 3e 64 1b 71 3e
       0.08861654 0.10971401 0.2731573 0.23545605
000070 ac ce 4f be c9 42 85 3e fb 3e e0 3d fd b1 95 bd
       -0.20293683 0.26027516 0.109495126 -0.07309339
000080 b5 a0 0c bd 9e 14 b9 bc f0 b2 cc bc 1c de 97 bc
       -0.03433295 -0.022592839 -0.024987668 -0.018538527
000090 03 8c 4b bd fa 80 d7 3d c1 ad 46 3e 51 fd a6 be
       -0.049694072 0.10522647 0.1940222 -0.3261514
0000a0 a2 c9 ec 3b f8 aa 26 ba 51 06 ec bd 81 a8 aa 3e
       0.007226185 -0.0006357874 -0.11524642 0.33331683
0000b0 a9 a3 07 3e 67 2f 16 bd f0 79 52 bd f5 0a 3c 3e
       0.13246025 -0.0366663 -0.05138582 0.18363555
0000c0 bd d6 61 bd 6b aa 6a be 2c 8e 60 bd 5d f3 6d be
       -0.05513643 -0.22916572 -0.054823086 -0.23237367
0000d0 83 2f c8 be ac 34 d2 bd 5d 1a 8f 3e 88 2a b7 be
       -0.3909875 -0.102639526 0.279498 -0.35774636
0000e0 96 9f db 3a a5 3f 6c be c1 d3 40 3e 4e 23 1b bb
       0.0016755934 -0.23071153 0.18830778 -0.0023672166
0000f0 d0 29 1c be 6f 33 19 3e d9 c0 06 3e 30 77 dd bd
       -0.15250325 0.14961027 0.13159503 -0.10813749
000100 fa 66 7d be df 1b 3f 3d 99 c1 51 3e f8 00 8e be
       -0.24746314 0.04665744 0.20484008 -0.27735114
000110 7f ab 0f 3e e9 f0 3c 3e 1b b8 9a be ce eb 8b 3d
       0.14030264 0.18451275 -0.30218586 0.068320855
000120 00 c1 00 3c 26 e6 14 3b 72 f1 92 bd 44 93 0d 3e
       0.007858515 0.0022720187 -0.07174958 0.13825709
000130 12 72 d6 3e a1 46 82 3e b5 11 5b 3d c4 9f 67 3d
       0.41883904 0.2544451 0.053483684 0.05654885
000140 48 11 22 3c b2 54 8f be c2 a3 9e 3e e4 a1 12 3e
       0.0098918155 -0.27994305 0.30984312 0.14319569
000150 10 fb 5a bd 2a 97 48 3e 2b 05 86 be 9a 47 a6 3e
       -0.053462088 0.19588915 -0.26175818 0.32476503
000160 4c 1c 3b 3e 24 3b 54 be a1 00 3a bd 3b 52 b3 be
       0.18272513 -0.20725685 -0.045410756 -0.35023674
000170 04 f1 38 3e 28 bb 29 bb f0 a7 2d 3e 5c 46 cd 3d
       0.1806069 -0.0025898907 0.16958594 0.100231856
000180 f7 a2 cb 3e ed cb 32 be 19 9e 88 3e e3 d3 37 3d
       0.3977277 -0.17460604 0.2668312 0.044879805
000190 d1 04 08 3d 9d a2 c3 be e3 83 8a be 95 ad e7 bd
       0.03320772 -0.38210002 -0.27053747 -0.11312405
0001a0 99 87 58 bd c2 37 03 bf 83 0a 31 3e 17 19 85 3e
       -0.05286369 -0.51256955 0.17289166 0.25995705
0001b0 96 89 8f be 39 36 41 3e 6f 68 a5 3d 78 cb 98 be
       -0.28034657 0.1886834 0.0807656 -0.29842734
0001c0 c2 fa f6 bd 3a bf 87 be a8 61 97 bd 83 91 8f be
       -0.12059547 -0.26513082 -0.07391673 -0.28040704
0001d0 d9 59 02 3d 90 a0 06 3c e3 b0 83 be a5 88 a9 3c
       0.031823967 0.008216992 -0.2572089 0.02069504
0001e0 6e a9 98 be d8 73 7a 3e 3f db 8d 3d a5 b9 98 be
       -0.29816765 0.24458253 0.069265835 -0.29829136
0001f0 e5 e8 b6 3e 02 56 59 3e 3f 75 c4 3d eb c6 76 3d
       0.3572456 0.21224216 0.095926754 0.060248297
000200 5d 51 8d 3d 48 1b f8 be fb 7a c5 3e ae a0 34 3d
       0.069002844 -0.48458314 0.3857039 0.04409855
000210 c5 94 80 3e 47 a4 76 3e c2 9a e0 be d5 d9 58 be
       0.25113502 0.24086104 -0.4386807 -0.21176846
000220 2b cd 21 3d c3 2b 54 be 82 2f 1d 3e 3d 94 b2 3e
       0.039502304 -0.20719819 0.15350154 0.34878722
000230 d7 f4 68 be 90 10 f5 3c ed ae 92 be 14 63 e4 bd
       -0.22749649 0.029915124 -0.28649083 -0.1115171
000240 09 04 05 be de c5 9a 3e ef 78 f7 3d cf 7d fa 3c
       -0.1298982 0.30229086 0.12083613 0.030577568
000250 42 ac 89 3d 28 21 57 3e c3 8d cc be cb 1b ae 3e
       0.06722309 0.21008742 -0.39951906 0.3400558
000260 b4 08 07 3f 90 31 22 be f8 2d 8a 3c 2e 2f 04 bf
       0.52747655 -0.15839219 0.016867623 -0.5163449
000270 78 15 b2 3d 1c 4e 0e bc d4 da eb bd 0d e7 93 bd
       0.08695501 -0.008685615 -0.115163475 -0.07221804
000280 00 84 00 be 94 63 70 3d 32 12 1e 3f cd 4a fb bd
       -0.12550354 0.058688715 0.61746514 -0.122701265
000290 29 f9 6d 3e 2d 80 15 3c ea 46 21 3e c4 45 53 be
       0.23239578 0.009124798 0.15749708 -0.20632082
0002a0 13 1a 54 be 4a 03 8d 3e de 87 d2 be 22 16 10 3e
       -0.20713072 0.27541572 -0.41119283 0.14070943
0002b0 a3 9b 04 be fb cd 03 3d c3 7d 6f be dc ec 03 3e
       -0.12949996 0.03217886 -0.23387818 0.12883323
0002c0 2c bc 94 3e 52 3e 8a 3e 36 33 72 3d 74 9d 61 be
       0.29049814 0.27000672 0.05913087 -0.2203272
0002d0 68 5c 77 3b 31 9d cd be c0 ba e8 3e 82 1c fc 3d
       0.0037744287 -0.4015899 0.4545498 0.12310125
0002e0 56 3e 8f bd 2e dd a9 3d d3 ee 1d 3f 40 98 4a be
       -0.069943115 0.0829414 0.6169254 -0.19784641
0002f0 d3 4c 85 3e 29 59 d8 3d 00 d3 9b 3c c2 b2 4a 3e
       0.26035175 0.10563881 0.019021511 0.19794753
000300 0c 3b 08 3e 17 70 8d 3e 5e d9 bc 3d cd da 26 3e
       0.13303775 0.2762458 0.09221147 0.16294403
000310 e8 4f 35 bd 74 9b 6e 3e f0 3e b5 3e 90 19 78 3d
       -0.044265658 0.23301488 0.3539958 0.060571253
000320 b9 1d 19 be ae 37 ae be e0 9b f6 bd 1a 7c d9 3d
       -0.14952745 -0.34026855 -0.120414495 0.106193736
000330 92 57 de 3d 05 fc e7 3d 1c 19 b8 3d dd e2 10 be
       0.108565465 0.11327366 0.08989164 -0.14149041
000340 e2 2c b1 bd 76 4e 3f be 90 46 9a 3c e3 d6 41 be
       -0.08651139 -0.18682274 0.018832475 -0.18929629
000350 a5 20 2f 3e cf b0 e5 bd 16 1e f4 3c c5 d9 b2 be
       0.17102297 -0.11215364 0.029799502 -0.3493177
000360 8e 48 b7 be 4e 90 be 3e 08 8a 8a 3d 46 75 fe 3e
       -0.35797542 0.3721947 0.067646086 0.49698848
000370 4d fa 3b 3e 2d 71 c2 3b 57 54 a6 3d 65 a3 29 3e
       0.18357201 0.0059339018 0.08121555 0.16566236
000380 89 a2 20 3e d5 a7 80 3d a7 25 10 3e f2 6b 3e 3d
       0.15687002 0.062820114 0.14076863 0.046489663
000390 bc 21 a9 3e 14 e5 5d be 11 aa c0 3d 05 f0 00 3e
       0.3303355 -0.21669418 0.094074376 0.1259156
0003a0 9f 41 57 3e 03 66 9f be 36 74 e5 bc 13 41 ff 3d
       0.21021126 -0.31132516 -0.028009515 0.12463584
0003b0 a5 e2 d9 3d 9f e3 de 3e 2c c1 8d be 55 91 60 be
       0.10638932 0.43533036 -0.2768644 -0.2193044
0003c0 63 44 60 3a 42 10 0e bd 72 c1 be bd 27 0b 10 3e
       0.0008555112 -0.034683473 -0.093142405 0.14066754
0003d0 d9 26 48 be a7 32 dc 3d bc 0f ca 3d 97 a2 2e be
       -0.19546069 0.10751849 0.09866282 -0.1705421
0003e0 55 42 9a be 7f f0 a8 3e 36 bd dc 3b 4a 82 3b 3d
       -0.30128732 0.32995984 0.006736423 0.04577855
0003f0 ca 83 df bb 67 cc b5 3d 09 fc 6b be 1b 9d 5a 3e
       -0.0068211304 0.08876877 -0.23045363 0.21348993

actor.mu.model.0.bias f4 [6]
000000 35 75 16 3f c5 23 57 3e 78 eb 8b 3e a0 80 99 3e
       0.58772594 0.21009739 0.27328086 0.29980946
000010 6c 07 02 3f 1f 3e 82 bd
       0.50792575 -0.06359505

critic.preprocess.model.model.0.weight f4 [64, 17]
000000 4e ed 81 be a9 6d 06 bc d0 35 ac 3e 9a 80 15 bd
       -0.25376362 -0.008204856 0.33634806 -0.036499597
000010 52 01 95 3e 76 2c 59 3d 4f 40 58 bd 97 a4 8d 3f
       0.2910257 0.053020917 -0.052795704 1.1065854
000020 b7 53 85 be d5 29 4b bf a9 0e f3 3d 64 58 74 be
       -0.26040432 -0.79360706 0.118680306 -0.23861843
000030 ab d5 a7 be c8 5e a8 3d 9e ae 41 be e8 20 5e 3d
       -0.32780203 0.08221203 -0.18914267 0.0542306
000040 39 8b 14 3e aa a0 74 be 74 f2 85 3e 81 ef 8e 3c
       0.14506234 -0.23889413 0.2616154 0.017448189
000050 13 53 a4 be a6 9b ac 3e f4 1b 29 bc 4d a6 85 be
       -0.3209463 0.337125 -0.010321606 -0.2610344
000060 b2 84 53 bf 37 00 58 3e e8 5b 9f bb 77 e5 08 3e
       -0.8262435 0.21093832 -0.004863251 0.13368784
000070 6d a8 e1 3e dd 53 ee 3e cf 29 27 3e 6b b6 a4 be
       0.4407381 0.46548358 0.16324542 -0.32170424
000080 01 52 a1 3e fc b0 30 3e 5a 3b ee bb 7e 38 71 3d
       0.31507877 0.17255014 -0.007270259 0.058891766
000090 f2 98 4d be 11 bd b8 be 96 31 26 be 65 84 85 3e
       -0.20077875 -0.36081746 -0.16229853 0.26077572
0000a0 20 2e a3 3e dd 55 29 bf 83 9b d4 3d 73 97 14 3e
       0.31871128 -0.6614664 0.10381224 0.14510898
0000b0 e7 4c 0a 3d 67 29 91 be 39 15 c8 be 95 b7 9c bd
       0.033764746 -0.283519 -0.39078692 -0.07652203
0000c0 fa 24 ff 3e be cd ab 3e be d7 ec bd 22 d2 78 3e
       0.49832898 0.33555406 -0.11564587 0.2429891
0000d0 7f 5a 89 3d 75 a9 d7 3e f5 f6 17 be 85 5d 1d be
       0.06706714 0.42121473 -0.148403 -0.15367706
0000e0 9f ea 6d 3e a9 0f 9a be ca f4 ac 3d d3 8c b4 3e
       0.23234032 -0.30090073 0.08445127 0.3526369
0000f0 42 74 93 be b1 fd 80 be 68 5f 32 bd 7c ad 42 bd
       -0.28799635 -0.2519355 -0.043548018 -0.04752873
000100 73 c1 4d 3e b3 a8 ee bd b1 2d 48 bd 23 cd 79 bd
       0.20093326 -0.116532706 -0.0488717 -0.06098665
000110 29 d6 9e be 4c 5d 7a 3d d0 b0 b0 3e 77 69 d1 3e
       -0.31022766 0.06112413 0.34509897 0.40900776
000120 64 6a 85 bd 9b 64 64 bd 0f d6 b4 bd e7 1a a8 3e
       -0.06514433 -0.055760007 -0.08829891 0.32833025
000130 fc c0 f3 3e 95 b3 d1 be 26 16 12 bd 2e a0 f9 3d
       0.47608173 -0.40957323 -0.035665654 0.12188755
000140 41 c2 70 be 77 63 46 bd 23 67 d5 bd e2 66 3b be
       -0.23511602 -0.0484347 -0.104200624 -0.18300965
000150 3e 87 8b 3e 01 2d c1 bd 57 e5 2f 3f f7 be 94 be
       0.2725162 -0.09432412 0.6870932 -0.29051945
000160 61 f7 01 be 9a 43 3a bd de 30 8a be 77 5d ad 3d
       -0.12692024 -0.045474626 -0.26990408 0.08465093
000170 27 88 ab bd a9 e2 77 3e 92 40 62 be 82 50 87 be
       -0.083755784 0.24207558 -0.22094944 -0.2642861
000180 ee e2 e1 3c 86 6a 72 bd 47 e7 34 bc fd f3 6c 3e
       0.027574029 -0.05918362 -0.011041469 0.23139949
000190 1f a9 68 3d bc ad af bd ef d6 04 3f 08 4f 5c 3e
       0.05680191 -0.08578059 0.5189046 0.21514523
0001a0 6b dc 80 3e 10 74 e6 3d 48 65 8f 3e b3 f8 1e bd
       0.25168166 0.11252606 0.2800696 -0.038811397
0001b0 21 7b aa 3e f5 71 76 bb 63 af 22 bf 65 21 cb bd
       0.33297065 -0.0037604545 -0.6354887 -0.09918479
0001c0 93 16 d4 3e ce a9 82 bd f2 81 28 be 83 bf eb bc
       0.41423473 -0.06380044 -0.1645582 -0.028777843
0001d0 69 a3 74 3e eb 25 16 be db 52 df 3c eb 8e 22 bd
       0.23890461 -0.14662902 0.027261188 -0.03968708
0001e0 eb 23 e3 3e 30 68 c5 bd ba 2e 5f be 3c d0 c7 bd
       0.4436334 -0.09639013 -0.21795169 -0.097565144
0001f0 5d 25 40 bf 22 f2 e5 3d d1 10 98 be a9 d0 ca 3e
       -0.7505701 0.11227824 -0.2970033 0.3961232
000200 55 e6 77 bc 41 04 8e bd 21 8d db bd 65 ec c2 be
       -0.015130599 -0.06934405 -0.107202776 -0.3807098
000210 d9 4f 0e be c2 ea d3 3e fe c6 ee bd b0 4b d0 3d
       -0.13897647 0.41390043 -0.116590485 0.10170686
000220 ed 48 9f be 28 9a 10 bc 09 30 dd 3c bb 46 4c be
       -0.31110325 -0.008825816 0.027000444 -0.19948857
000230 b9 30 d3 bd eb 9a ae 3c 61 0c 1d be c3 20 49 3c
       -0.103120275 0.021314105 -0.15336753 0.012275877
000240 41 90 38 3c 90 dc d5 bc cf 9d 97 be de 00 e5 3d
       0.011264862 -0.026106149 -0.29612586 0.11181806
000250 26 41 bd 3e d2 8b 82 bd d9 a9 f4 bc 64 a7 23 3e
       0.36963767 -0.06374325 -0.029866146 0.15981823
000260 0d f3 fd bd b2 1f 13 3e 6e 7d fd be 23 f7 ca 3e
       -0.12399874 0.1436756 -0.49509758 0.39641675
000270 e4 e8 8d 3d 77 dc bc 3c b6 51 06 3e 03 ec 89 be
       0.06929186 0.023054345 0.13117108 -0.26937875
000280 19 0c d4 3d f8 e0 9f bd 13 8c c9 bc a3 59 19 3d
       0.1035387 -0.07806581 -0.024602925 0.037439
000290 d5 01 26 3d 3c d7 d9 3d 19 80 9c bd b3 dc e7 3b
       0.04052909 0.10636756 -0.0764162 0.00707587
0002a0 cc 8c 7a 3e a8 99 b9 bd 2a 4e 48 3f fa e5 2e 3e
       0.24467772 -0.09062511 0.7824427 0.17079917
0002b0 ac 85 59 3d 08 4f ba bb 40 bf 0f bf 09 85 19 be
       0.053105995 -0.005685691 -0.561512 -0.14992155
0002c0 b8 cf a6 be ac bb 39 3e 8a a6 e5 be 8a 00 95 3d
       -0.32580352 0.18137997 -0.44853622 0.072754934
0002d0 71 1d 06 3f 37 5e 33 3e f7 a5 90 3e 9f db 0f be
       0.52388674 0.17516409 0.2825162 -0.14048623
0002e0 f2 d3 ec be cb 6e 41 be 5d 34 1f 3e 18 b5 43 be
       -0.4625545 -0.1888992 0.15547319 -0.1911205
0002f0 96 19 c8 3d ca 9a 80 be b4 22 e3 be aa b5 3d bd
       0.09770505 -0.25118095 -0.44362414 -0.046315826
000300 86 42 a1 3d 2b 6e 61 3d a0 eb ed be 9a 34 17 be
       0.078740165 0.055036705 -0.4646883 -0.1476616
000310 ae 56 1b 3e e7 57 42 bf 0d 36 34 3e 45 30 3c 3d
       0.15169784 -0.7591538 0.17598744 0.04594447
000320 d9 66 8e bc a3 00 13 3d 47 c4 bf 3c 92 20 b9 3d
       -0.017383026 0.03588928 0.023409022 0.090394154
000330 a5 69 11 3f bb 46 ad be cc 4d 37 3e 37 64 bd bc
       0.56801826 -0.33843026 0.17900771 -0.023119075
000340 73 50 46 3d 14 7b 5d 3e 0e 86 85 be cd 08 3a be
       0.048416566 0.21628982 -0.26078838 -0.1816742
000350 8b cc e5 bd 10 1f 7f be 7a ff f6 be 54 98 95 3e
       -0.11220654 -0.24914193 -0.48241788 0.2921778
000360 99 b7 8d 3e 94 07 6f bc 3b 63 8b 3e c1 98 23 3e
       0.27679136 -0.014589209 0.27224144 0.1597624
000370 8c 14 74 3d e8 0a 11 3e b2 d2 3b bf 4f 14 bf 3e
       0.059589908 0.14164317 -0.7336837 0.37320182
000380 fe 5c 84 3d 56 61 9e be 31 74 8f 3e d0 a2 1e 3e
       0.06463049 -0.30933636 0.28018335 0.15491796
000390 af e1 03 bf 15 d8 18 be 5c 1f 62 3e 9c f8 d1 be
       -0.5151624 -0.14926179 0.22082275 -0.41009986
0003a0 63 0a ea bd 7b 46 15 3e 1a d4 1d 3e 7d d7 df 3e
       -0.11427762 0.14577667 0.15412942 0.43719092
0003b0 e1 1e 04 3e 01 66 39 bd ac 30 c8 be a9 17 bd be
       0.12902404 -0.045263294 -0.39099634 -0.36932114
0003c0 8f d8 70 3e 87 19 77 3e 59 80 30 bf c8 9c 43 bd
       0.2352011 0.24130832 -0.68945843 -0.04775694
0003d0 5a b7 eb 3d 36 41 24 be 16 6a 83 3e 74 cb 6d bd
       0.11509581 -0.16040501 0.25666875 -0.058055356
0003e0 57 0c de 3c ba b0 9e 3e 1d 95 c7 3e 01 fe 5e be
       0.027105493 0.30994207 0.38980952 -0.21776582
0003f0 3f 74 06 bf 64 a5 9e be 4a b1 b9 bd 06 c3 98 be
       -0.5252113 -0.30985558 -0.09067018 -0.2983629

critic.preprocess.model.model.0.bias f4 [64]
000000 3f 29 cb be 4a 71 51 3f 3f 1c 39 bd 7e 5f ae 3e
       -0.39679906 0.8181349 -0.045192953 0.3405723
000010 1e 76 3c bf 7a 62 2b bf 9f 0e f5 3e 0e 32 a1 be
       -0.7361773 -0.6694714 0.47862718 -0.314835
000020 1c 3a 32 bf ec e2 fd 3e 94 7c 0c bf e7 3a 19 3d
       -0.6961992 0.4958719 -0.5487759 0.03740969
000030 30 29 a5 3e c7 76 29 bf 2c 1d f1 3e 05 32 49 be
       0.32257986 -0.66196865 0.4709257 -0.19647987
000040 71 56 f3 3e e4 a0 9f be 48 ae 1e 3f e4 a4 a5 be
       0.47526887 -0.31177437 0.6198468 -0.32352364
000050 58 95 a6 3d 1b d6 1a bf f5 22 17 3f 6f 32 17 bf
       0.08133954 -0.6048295 0.59037715 -0.5906133
000060 e0 6a cb 3e b2 55 99 be 38 38 01 bf 15 c2 d2 3e
       0.39729977 -0.29948193 -0.5047641 0.41163698
000070 43 fd 94 be fe d1 24 3f a4 66 ba 3d 2b d4 01 3e
       -0.29099473 0.6438292 0.091016084 0.12678592
000080 3b 99 0d bf 67 ab 07 bf 24 24 4b bf af 1a 5b be
       -0.55311936 -0.52995914 -0.7935202 -0.21396898
000090 f6 3a 12 bf 72 2b 3d be 3f e6 f4 3e 8f 0f 11 bf
       -0.5712122 -0.18473604 0.47831914 -0.56664366
0000a0 81 26 ca be 7b e7 6c be d6 e5 27 3f df 53 ae be
       -0.394825 -0.23135178 0.65585077 -0.34048364
0000b0 99 b3 53 3f f6 55 28 3d 99 f4 e4 be c7 8e 5f bf
       0.8269592 0.041097604 -0.44717863 -0.87327236
0000c0 be a1 d4 3e 34 95 d5 3e fd 56 4b 3f be e1 28 bf
       0.4152965 0.41715395 0.7942961 -0.65969455
0000d0 ea e4 19 3f 16 83 0f bf 63 fa 3e 3f e5 52 e9 bd
       0.6011492 -0.56059396 0.7460081 -0.11392764
0000e0 4c 17 2b be 7d ca 01 3e af 96 ab be b7 6c 23 3e
       -0.16708106 0.126749 -0.335134 0.1595944
0000f0 ed 47 21 3f e9 3d 72 bf 9a 22 4e 3e 24 51 8b be
       0.63000375 -0.9462572 0.20130387 -0.27210343

critic.preprocess.model.model.2.weight f4 [64, 64]
000000 b5 30 64 be a7 9b 2f be 26 83 d4 3d 9e cd 8a bd
       -0.22284205 -0.1714922 0.10376577 -0.067774996
000010 94 bd 38 3d 0c 15 93 bd 81 27 df bd d7 57 80 be
       0.04510267 -0.07181749 -0.10896207 -0.25067016
000020 f3 19 af 3e e0 c0 74 3e 88 81 c9 bd 9c db 84 bc
       0.34199485 0.23901701 -0.09839159 -0.016218
000030 53 fd 52 bd b9 09 f7 3d 26 8f 74 3e 18 49 03 be
       -0.05151112 0.12062401 0.23882732 -0.12820852
000040 8f 2a e5 3c 10 0c ac 3d 38 49 86 bd 4e 17 11 bf
       0.027974395 0.08400738 -0.06556934 -0.56676185
000050 31 12 7a bd 45 d5 2a be d4 a0 3d 3e 04 ca ab 3e
       -0.061052505 -0.16682918 0.18518382 0.33552563
000060 90 0d cc 3e 0e 82 07 be f5 c4 01 be 6e 44 99 bc
       0.39854097 -0.13233206 -0.1267279 -0.018709388
000070 6b 57 f9 3c 1c 9b 45 3e d2 26 8b bd 3e be 33 be
       0.030437192 0.19297451 -0.06794514 -0.1755304
000080 2a 5d 3d be 25 fc 0e bc 52 24 a8 be 89 6f e2 be
       -0.1849257 -0.008727108 -0.3284021 -0.4422572
000090 03 a6 94 be 23 5d b4 bd ad 09 03 bd 2b ff 7d be
       -0.29032907 -0.08806827 -0.03199165 -0.2480437
0000a0 48 07 8c be 4e 82 c7 3e d0 59 79 3e 29 95 20 3e
       -0.27349305 0.38966602 0.24350667 0.156819
0000b0 3f ac 21 3e c5 72 c5 bd 3c 8f 0e bd c6 e5 05 be
       0.15788363 -0.09641031 -0.034804568 -0.13075933
0000c0 0f 1d 13 3c 67 40 c5 bd dc 75 c1 be ef 81 2c be
       0.008979096 -0.096314244 -0.37785232 -0.1684644
0000d0 4e 86 ac 3e 01 fe 72 3d d0 0f 10 be d4 e3 9e 3e
       0.33696216 0.05932427 -0.14068532 0.31033194
0000e0 c9 01 a5 3e 30 eb 76 3e ca 37 0e be f2 30 80 bb
       0.32227924 0.24113154 -0.1388847 -0.0039120847
0000f0 b4 66 da bd 0f 38 c7 3d 34 1a b3 3d b6 04 91 3d
       -0.1066412 0.09727489 0.08745232 0.07080977
000100 50 64 92 3d fa 0f bc bd a0 5a aa bd 24 48 5c 3e
       0.07148039 -0.09182735 -0.083180666 0.21511894
000110 1a a6 62 3e cb e9 70 3d 43 e5 02 bf a9 40 61 3b
       0.22133675 0.058816712 -0.51131076 0.0034370816
000120 60 8e d0 bd 22 c8 7e 3e 73 c0 c3 be dc 73 c0 bd
       -0.10183406 0.24881032 -0.38232765 -0.093970984
000130 e3 a3 3d be 2d a8 f3 be 42 ac 9d 3d 35 e7 09 3e
       -0.18519549 -0.47589245 0.07698871 0.13467105
000140 93 e3 cc bd 2a 55 dd bd 1e b9 f2 3e 81 62 ba 3c
       -0.10004344 -0.108072594 0.47406858 0.022752048
000150 29 db 39 bd c5 f9 2a 3f 3f 4f ad 3c de 48 11 3e
       -0.045375023 0.6678737 0.021155952 0.14187953
000160 c8 1c 38 be 6b 16 75 3e 6d bc 97 3e 03 df 50 be
       -0.17979729 0.23934333 0.29635945 -0.20397572
000170 b8 ac ac 3d 30 1f 2b be 2c 36 66 be e7 b9 7f bd
       0.08431381 -0.16711116 -0.22481602 -0.06243315
000180 8e df 20 3e bd 25 7e bd a8 59 90 be ee 04 86 be
       0.1571028 -0.06204771 -0.28193402 -0.26175636
000190 7d 71 bd be 8e 73 31 be 2d e2 51 be df a6 31 3e
       -0.37000647 -0.17329237 -0.20496435 0.17348813
0001a0 ed 1c 07 3e d4 49 1a 3e e2 6f 68 3e 17 a9 c5 bc
       0.13194628 0.15067226 0.2269893 -0.02412848
0001b0 d3 d8 6c bd 9c 6f bb 3d 9f e5 c5 bc 3e 5c 8c be
       -0.057823967 0.09152147 -0.024157343 -0.27414125
0001c0 ce 26 9b 3d a1 a9 5c bc 57 d9 a6 be 8c 67 a9 bd
       0.07575761 -0.013468177 -0.32587692 -0.08271703
0001d0 c2 0f c0 bc f7 dd 74 3e b5 24 12 be 89 49 55 be
       -0.023445014 0.23912798 -0.14271815 -0.20828833
0001e0 f7 ea 1f bf 48 f4 a3 be 30 86 62 be ab cc bb bd
       -0.624679 -0.3202231 -0.22121501 -0.09169897
0001f0 cd 10 83 be 9d 69 19 be b2 08 65 3e 1b 31 99 be
       -0.25598755 -0.14981695 0.22366598 -0.29920277
000200 42 af aa bd bb 0c fc 3c fa 27 db be 4c 2e a0 3d
       -0.08334209 0.03076779 -0.42803937 0.078213304
000210 ae 27 26 be d7 7a 98 bd 5c 69 07 3f 9c 20 fc bd
       -0.16226074 -0.07445305 0.5289514 -0.12310907
000220 b0 bb 8e 3d b7 b9 b6 be 25 ca ac 3c 28 6c c9 be
       0.06969392 -0.35688564 0.021092484 -0.3934033
000230 1f fc e1 3d 06 60 99 bd 52 8d 69 be 50 45 88 bd
       0.110344164 -0.07489018 -0.22807816 -0.06653845
000240 db 62 eb 3c 1f 17 11 bd 91 01 8f 3d 59 33 04 be
       0.028733661 -0.03542244 0.06982721 -0.12910213
000250 80 c1 68 bd 93 02 0a bf e4 08 66 3e 88 d7 df 3e
       -0.05682516 -0.5391018 0.22464329 0.43719125
000260 9b 1f cb bc de 68 c9 be cd e5 77 3e 5a 11 ea bc
       -0.024795344 -0.3933782 0.24208756 -0.028572727
000270 17 f4 2d be ad 53 c6 3d be 61 a4 bd e7 4a 26 3e
       -0.16987644 0.09683929 -0.08026455 0.1623951
000280 6d b4 11 3c ea 7a 50 be 66 e1 50 3d b2 ec 50 be
       0.0088931145 -0.20359388 0.050996207 -0.20402792
000290 58 d7 9f 3d c3 ee 52 be 8a e5 10 3f 01 e5 7b be
       0.078047454 -0.20598893 0.5660025 -0.24599077
0002a0 88 32 84 bd 35 a1 a9 3e a1 55 bb bc cb 06 32 be
       -0.064549506 0.33130804 -0.02286798 -0.17385404
0002b0 d4 a5 0c be ac 09 ac bd 2f 3d 10 3e 31 50 91 be
       -0.13735133 -0.08400282 0.1408584 -0.28381494
0002c0 84 9c 02 be ad 99 ad 3e 8a 26 ac 3d 56 fa 1b be
       -0.12755018 0.33906308 0.08405788 -0.15232214
0002d0 14 ee 8f 3e f4 04 58 be 65 6d 31 be 65 29 d8 be
       0.28111327 -0.2109564 -0.17326887 -0.42219082
0002e0 52 74 9c be 5a 3a 5d be d6 d2 4e be d4 76 2f 3e
       -0.30557495 -0.2160429 -0.20197615 0.17135173
0002f0 c3 3d b3 3e 3a a6 3a 3e e3 e6 3d be 9a e2 8d be
       0.35008058 0.18227473 -0.18545108 -0.27711946
000300 f5 fb e3 bd 77 0b c5 bc 42 25 af ba 41 2f d9 bd
       -0.11132041 -0.024053318 -0.0013362544 -0.10604716
000310 50 f8 5c 3e 80 96 f4 3c 14 cb 1d 3d 27 8e cd 3d
       0.21579099 0.02985692 0.03852375 0.10036879
000320 69 68 a7 bd f9 d6 28 3e 18 2f c6 3d 1a 56 af 3d
       -0.081742115 0.16488256 0.09676951 0.085613444
000330 26 04 9c bd 04 d8 4e bc 40 a8 25 3d 19 8a 00 be
       -0.07617979 -0.012624744 0.04044366 -0.1255268
000340 47 2c 05 3e 90 3e 2f 3e a6 1d 33 be 15 42 7a 3e
       0.13005172 0.1711371 -0.17491779 0.24439271
000350 13 44 7c be d7 9f 82 3e 6f ec 0b be a1 e3 07 3d
       -0.24635343 0.25512573 -0.13664411 0.03317607
000360 df 5f 68 3d b4 b3 7f bd 7a ae 55 bc 9e e9 8d be
       0.056732055 -0.062427238 -0.013042087 -0.27717298
000370 02 c8 7d be 2d 9c 81 3d 78 68 8b 3e 0b b7 1d 3e
       -0.24783328 0.06328616 0.2722814 0.15401857
000380 26 16 be bd 9d 1a a3 bd a3 07 9f bd 73 78 83 3e
       -0.09281568 -0.079640605 -0.077651285 0.25677833
000390 b8 b4 c9 bb 8b 81 66 3c f0 e0 11 3e af ff 39 3e
       -0.0061555766 0.014068971 0.14245963 0.18163942
0003a0 8b c2 be bc 7e 08 1d be b2 6a 2b 3e f9 85 05 be
       -0.023286125 -0.15335271 0.1673992 -0.13039388
0003b0 d7 e3 07 bd b1 05 a6 3d d7 4f 7a be 5d 88 37 be
       -0.03317627 0.08106554 -0.24444519 -0.17923112
0003c0 9f ba 8a 3d 81 69 d5 3e 95 ce ba bd 52 a6 db bd
       0.067738764 0.41682056 -0.09121434 -0.107250825
0003d0 24 8b 99 bd 82 a7 38 bc 9a 2d 75 be 27 3c 81 be
       -0.07497242 -0.011270406 -0.23943177 -0.25241205
0003e0 16 bc d3 bc b0 fc 30 3e 89 44 40 be e5 65 df bc
       -0.025846522 0.17283893 -0.18776144 -0.027270267
0003f0 bd 2f 6a bd 39 92 c7 3e 1a 2d 96 bd 06 be 6b bd
       -0.057174433 0.38978747 -0.07332821 -0.057554267

critic.preprocess.model.model.2.bias f4 [64]
000000 82 74 74 3e 4b 9e 40 3e a7 e3 35 be ea 27 e8 3d
       0.23872569 0.18810384 -0.17762624 0.11335738
000010 e8 9d 02 3e 87 0b 15 3e 08 57 15 3e c3 ce 12 3e
       0.12755549 0.14555179 0.14583981 0.14336686
000020 23 e3 5b be 86 6e 01 bf f7 bd 7f 3d 02 77 6f be
       -0.21473365 -0.5055927 0.062437024 -0.23385242
000030 59 bc a2 3d 2c ab af be a6 ee 60 3f 4d ee e7 be
       0.07946081 -0.3431028 0.8786415 -0.45298997
000040 8c e8 fc be 53 f6 d5 be 8c e6 f1 3e 0f 1c cf bd
       -0.4939617 -0.41789493 0.47246206 -0.101127736
000050 9f 06 90 be be 70 15 be 48 5d 2e 3d 72 48 16 bf
       -0.28130051 -0.14593789 0.04256943 -0.5870429
000060 3a 44 7c 3e df 81 dc be 22 90 ed bc 60 d6 1c bf
       0.24635401 -0.43067834 -0.028999392 -0.6126461
000070 46 68 4f 3f c1 4d db 3e 1a 3f 0d be 7a 2b 62 be
       0.81018484 0.4283276 -0.13793603 -0.22086897
000080 0f 4b 75 be 9c ea 84 3d b7 8c 44 3e a6 cc ab be
       -0.23954414 0.06490061 0.19194303 -0.33554572
000090 83 19 86 3d da 10 ca 3d 6a 48 6a be f1 eb 2f bd
       0.06547835 0.098664954 -0.22879186 -0.04294962
0000a0 2b 78 14 be bf ed 8c 3e 30 37 13 3e ff 3e 5e 3e
       -0.14498965 0.27525136 0.14376521 0.21703719
0000b0 ae 56 cd be 52 e1 cd be b2 d1 41 be 72 57 e4 3e
       -0.40105194 -0.40210968 -0.18927649 0.44597965
0000c0 53 da f6 3d 25 9b b9 bd a0 39 cf be 53 55 98 be
       0.12053361 -0.090627946 -0.40473652 -0.29752597
0000d0 91 39 b7 3e 48 e5 2a 3e b5 00 6f be 08 1a 8f be
       0.35786107 0.16689026 -0.23340113 -0.27949548
0000e0 8a 52 d3 bd 94 00 e8 be 49 31 e3 3e 11 ca a0 3e
       -0.103184775 -0.4531294 0.4437354 0.31404164
0000f0 60 9b 73 bd bb a8 95 bc 9d 2a ff be 16 d4 d2 bd
       -0.05947435 -0.018268934 -0.498372 -0.102943584

critic.last.model.0.weight f4 [1, 64]
000000 4b 0f 4a 3d 4d 2c 89 3d 75 7b aa bd 98 fc c3 3b
       0.04933099 0.06697903 -0.08324329 0.0059810393
000010 ca 19 83 3d 85 55 89 3d 82 69 27 3d 4f d2 ec 3d
       0.06401403 0.06705765 0.040872104 0.11563551
000020 b2 8e 35 bd d0 b3 32 be c7 dd 09 3d e4 25 40 bd
       -0.044325538 -0.17451406 0.03365877 -0.046911135
000030 b5 a7 67 3b ba ea e5 bd 85 d6 a4 3e f7 d9 03 be
       0.0035347764 -0.11226411 0.32194915 -0.12876116
000040 5f 03 d1 bd ee 47 9f bd 11 51 95 3d 24 60 ad ba
       -0.10205721 -0.077773914 0.07290853 -0.0013227505
000050 e0 f6 98 bd 62 5b 23 bd 29 a9 43 3d 0b b9 f0 be
       -0.07468963 -0.03988207 0.047768746 -0.47016177
000060 de 3d 0b 3d dc 15 56 be e5 5c a8 3d 95 1a b0 bd
       0.033994548 -0.20906776 0.08220843 -0.0859882
000070 10 01 83 3e 49 43 0f 3e a5 ce 81 3c f8 59 1f bd
       0.25586748 0.13990511 0.015845606 -0.03890416
000080 68 de 76 bd f7 23 78 3d 34 fc 73 3a 7e 92 2e be
       -0.060270697 0.060581174 0.00093072955 -0.1704807
000090 b8 eb 77 3c a2 86 2b 3d 34 a4 4a bd 36 c1 ac bd
       0.015131883 0.041876443 -0.049473003 -0.084352896
0000a0 f3 66 8e bb 14 ea c2 3c 89 90 9d 3d 82 b8 5d 3d
       -0.0043457686 0.023793258 0.076935835 0.05413104
0000b0 ef 13 fb bd 6a 2f 28 be d4 6e 90 3c 3d 58 cd 3d
       -0.122596614 -0.16424337 0.017630972 0.10026596
0000c0 ed 15 ea b9 8b 3a d8 bc 1e 5d 20 be be 46 01 bd
       -0.00044648294 -0.026395103 -0.15660521 -0.031561606
0000d0 bd 3a 5f 3e 1d a0 e4 39 64 dd ec bb 31 68 2b be
       0.2179975 0.00043606843 -0.0072285403 -0.16738965
0000e0 3f 22 8b 3d 48 ed 05 bf 2a af 15 3e ee 14 e1 3c
       0.06793641 -0.5231519 0.14617601 0.0274758
0000f0 bb f7 bd bc f3 2e 9d 3d ad aa 80 bd 39 fd 81 bd
       -0.023189416 0.076749705 -0.06282554 -0.063471265

_actor_critic.actor.sigma_param f4 [6, 1]
000000 87 99 d1 bf 20 60 ec bf 9e 2e f0 bf 93 75 bf bf
       -1.6374978 -1.8466835 -1.8764226 -1.4957756
000010 02 9e c4 bf 67 6a 08 c0
       -1.536072 -2.1314943
