results/Walker2d-v3/a2c/6/220626-172356/policy.pth (torch, 53732 bytes, 24 tensors)

actor.sigma_param f4 [6, 1]
00000000: 62b1 2abf bebd 27bf 946d 46bf bb77 01bf
00000010: a173 80bf 5454 87bf
-0.66676915 -0.655239 -0.7751095 -0.5057332 -1.0035287 -1.057261

actor.preprocess.model.model.0.weight f4 [64, 17]
00000000: 6b60 123e 5ac6 2d3d ad52 03be c336 903d
00000010: 6fec 4fbe ebff 4abe c101 983c 37f3 b6be
00000020: d772 84bd 2242 06be 3d00 84be daca 98bc
00000030: f1d7 6e3d 119a 7d3e c6d6 8fbe 6889 963c
00000040: bb76 153f 25ae 7f3e 9d78 2fbe c3c1 f9ba
00000050: 20e2 f13a 4acf 09be 1ced 883e bcd4 263e
00000060: 932a 803e 08d7 36be 2661 85be 08a3 45be
00000070: 3851 d8bd 986b 2e3e 1ea1 8c3d b2ca 593e
00000080: b4c8 7ebe 92b2 24be f6df b8be 643b 87be
00000090: 5309 293e 02a1 c9bc d0c9 96be cccd c13d
000000a0: e1d2 c0bb 14f9 2ebe e3ca 60be f934 a03e
000000b0: 2a41 dfbd 6079 4b3d cab2 edbb 2012 d93d
000000c0: 8477 c43d cffb c83e 5ae7 b9bd b44d 5b3e
000000d0: 34f0 cf3e 72ea 55be 9970 ce3d 2dc7 0cbe
000000e0: 2fe1 913d 467c 763c fec9 d73d 46d2 5bbc
000000f0: 4815 74bd 521f 7abe cf24 1f3e c14f 20be
00000100: 6000 fa3b f481 a6bd f7e6 42be 01eb b33e
00000110: 7b44 383e cbff bebe a5b5 1c3e c37b 68be
00000120: 4351 bcbd 5ebd da3d c7eb d83d 5c5c fa3b
00000130: 5b1d babe 0760 223e 5371 403e 9513 bbbd
00000140: aa33 44be 65a5 c8bd 202a 943e ed70 48be
00000150: 7aad d1bd f387 91bc 4155 df3e fdb4 79bd
00000160: 777e 16be 0824 ca3e 51a3 c5bd ff88 71bd
00000170: f477 0b3e 8181 8e3e 81ac 43bc 5d6a 003d
00000180: 7e4a 0d3e 5665 54be 92fc 023d be6f 6bbe
00000190: bec3 253e c8e5 b93e 2abb db3e 5782 15bd
000001a0: 3f03 b0be ac6a ad3d e335 17be 61c0 38bc
000001b0: 1275 c6be 4b5a 17be a6ce d73d d4a2 f1bd
000001c0: c8f1 cb3d 5298 703d 7ce5 363e 2701 5fbe
000001d0: de27 993d 13a5 513e aa47 d43e 5e4f c03c
000001e0: e804 5bbe 5d13 36be b0d1 ec3d 7136 84bd
000001f0: 17a1 a4be 61bd 4d3e 5d7a 43be 6239 1d3d
00000200: c3d3 c23e 66c3 103f c85e 75bd 264e 4d3d
00000210: 2038 99be 92e2 64be 2cd9 25be a387 0c3e
00000220: 9722 92be d1bc 763d 13bc a33d a260 2bbd
00000230: b4c0 63be c435 593e ec68 f03d 3a32 103e
00000240: f66c 13be 542c 7ebe 4d1b b63d 22e9 9e3e
00000250: 309f 1e3e d63c dbbd f533 583c 69e2 ae3c
00000260: 4cb0 26be 8c8c 44be 4a2b e23d cdb2 153e
00000270: 929e 4b3e 2318 393d 5dcd 1b3d 34ef 43be
00000280: 9a44 dc3e 31e5 0e3e a60e 383e 6ca2 0b3e
00000290: 51d8 eebe cfbc 043c 2b90 d4bd c708 21bd
000002a0: f635 0a3d e79a 89bc 315f 033e f55e 0cbf
000002b0: c1d4 8bbd 76b9 5e3d 318c 80bd 73e5 6d3e
000002c0: bd93 a3be c530 873e e6bd f7be 221e 0d3e
000002d0: ab45 4c3e b13e c03d 4744 ce3d 462c 113e
000002e0: 7cf7 00bc f65c 4d3e 1e3c 96be 139f 5fbe
000002f0: f69c 10be e3c7 b23d 01d2 6a3e 096d 523d
00000300: e833 9d3e f30b 233d 3349 b5be 5669 12be
00000310: 503e 063f 292f 88bd cf36 723e 83ab e03e
00000320: c055 5f3c 465c a03e f341 1fbe 75ce 1c3d
00000330: 8d32 57bd 8855 423d efd3 683e 41a3 43bd
00000340: 4a58 a6bd 779c e2bd 7b5a 713e 315f 1cbe
00000350: 5a72 623d cffe e73d 4a95 07be 2981 4a3d
00000360: ce95 e6bd d4e7 1ebd bc12 82bc 39b8 67be
00000370: 1305 6cbe 6b81 2bbe e03a 593e 9214 9cbe
00000380: c952 b63d 8636 f13d ee1c cfbe f060 20be
00000390: 2967 9a3e a5ff 023e a000 683e b052 893e
000003a0: 749f 68bd 53dc fcbd 604d b93d 0e38 063e
000003b0: 84e7 8fbe 7198 a6bb 928f 4a3c 961c 00bf
000003c0: c270 89bd c3f2 9a3d 4a5e 293d 9e0b 9a3c
000003d0: 42e4 d93d c282 883b 6aed 7fbe 0179 8fbd
000003e0: 0b21 d8bc c833 1a3e 15b0 3fbd 131c 13be
000003f0: 1c55 1c3c 74a1 713d 6a86 ef3d 4bce b33d
0.14294593 0.04242549 -0.12824507 0.07041695 -0.20305036 -0.19824187 0.018555524 -0.35732433
-0.064672165 -0.13111165 -0.25781432 -0.018651415 0.058311407 0.24765803 -0.28093547 0.018376067
0.58384293 0.24968775 -0.17135854 -0.0019054938 0.0018454231 -0.13457981 0.267434 0.16292089
0.25032482 -0.17855465 -0.2605068 -0.19300473 -0.10562366 0.17033231 0.06866668 0.21268728
-0.2488125 -0.16083744 -0.3610837 -0.264125 0.16507463 -0.024612907 -0.29450846 0.09463081
-0.0058845137 -0.17087203 -0.21952395 0.31290415 -0.10901101 0.0496763 -0.0072539793 0.1059916
0.09593108 0.39254615 -0.0907733 0.2141636 0.40612948 -0.20890215 0.1008007 -0.13747855
0.071230285 0.0150442775 0.10536574 -0.013416832 -0.059590608 -0.2442601 0.15541385 -0.15655424
0.0076294392 -0.08130255 -0.19033419 0.3514023 0.17994873 -0.3730453 0.15303667 -0.22703461
-0.09195187 0.1068065 0.10591846 0.0076404046 -0.3635052 0.15856944 0.1879323 -0.09134594
-0.19160333 -0.097971715 0.2893839 -0.19574328 -0.10238166 -0.017765021 0.4361973 -0.06096362
-0.1469668 0.39480615 -0.09650291 -0.05896854 0.13619977 0.2783318 -0.011942984 0.031351436
0.13797948 -0.20741782 0.03197915 -0.22991845 0.16187951 0.36308122 0.42916232 -0.036501255
-0.34377477 0.08467612 -0.1476665 -0.011276335 -0.38761193 -0.14780538 0.10537462 -0.11798635
0.099582255 0.058739014 0.17860979 -0.21777783 0.07478307 0.20473127 0.41460925 0.023475345
-0.2138859 -0.17780824 0.11563432 -0.064556964 -0.32154152 0.20091774 -0.19089647 0.038384803
0.38052186 0.56548154 -0.059904844 0.050123356 -0.29925632 -0.22352055 -0.16196126 0.13723616
-0.28542015 0.060238663 0.07994857 -0.041840203 -0.22241479 0.21211916 0.11738762 0.1408166
-0.14397034 -0.24821597 0.08891926 0.3103724 0.15490413 -0.10704963 0.013195981 0.021348195
-0.1627819 -0.1919424 0.11043413 0.14618988 0.19884709 0.045189034 0.038037647 -0.19134218
0.4302109 0.13954617 0.17974338 0.13636178 -0.4664941 0.008101656 -0.1037906 -0.03931501
0.033742867 -0.016797496 0.12829281 -0.5483239 -0.06827689 0.054376088 -0.062767394 0.23232059
-0.31948653 0.26404396 -0.4838707 0.13781026 0.19948451 0.093869574 0.100716166 0.14177045
-0.007871505 0.20054993 -0.2934274 -0.21838026 -0.14122376 0.087295316 0.22931673 0.051373515
0.30703664 0.039806318 -0.3540741 -0.14297995 0.5243883 -0.0664962 0.2365372 0.43880853
0.013631284 0.313204 -0.15552501 0.03828283 -0.052538443 0.04744485 0.22737096 -0.047763113
-0.081223086 -0.110649996 0.23569672 -0.15270688 0.055284835 0.11327898 -0.13240543 0.049439583
-0.11259042 -0.038795307 -0.015878074 -0.22628869 -0.2304881 -0.16748588 0.21213865 -0.30484444
0.08902509 0.11777978 -0.4045176 -0.15661979 0.3015683 0.12792833 0.22656488 0.26820898
-0.05679269 -0.12346711 0.09047961 0.1310732 -0.2810632 -0.0050840904 0.012363331 -0.5004362
-0.0671096 0.075658344 0.041349687 0.018804368 0.1063924 0.004165978 -0.2499291 -0.070055015
-0.026382944 0.15058815 -0.046798784 -0.14366178 0.009541776 0.058991864 0.11695559 0.08779582

actor.preprocess.model.model.0.bias f4 [64]
00000000: 7bd4 953c 15c8 133e 5031 1a3e e4e7 073e
00000010: daa0 923e eb6f 073e 5182 a3be fffb 66be
00000020: 60b2 95be 2888 6a3e cff2 403d 5d91 ed3e
00000030: ca86 d83e 7696 a5be 24d4 d8be 2b68 5abe
00000040: 317e 093d 539c 90be 27dc 80be 7f13 6abe
00000050: 44d1 c0be 4c40 e63e c4af c13e b8c5 a43e
00000060: 739a 553e c729 043f 7bea babe ba1c b43e
00000070: c6ff e3be 87ae c93e 135b 713e 942a 1cbe
00000080: 1848 8c3e e4a8 9fbe 6e83 77be 7742 8bbe
00000090: 5a52 44be 798b b63e 9ed7 9abe af89 813d
000000a0: c09e e23d b479 d0bd bb12 58be 77e5 b43e
000000b0: 8bbd d9bd f5c7 d23e 3c02 b63d 00ac b5be
000000c0: a09f 86be ee61 b63e c9e5 b1be 5abe 00bc
000000d0: 7776 823d 9e72 ba3e 8f0a ca3e d2e8 c4be
000000e0: 4239 94be e982 d33d fcf6 adbe a77f b5be
000000f0: 996d 323e 2cd5 6abe 3c0b 2e3e fd64 83be
0.018289795 0.14431794 0.15057874 0.13272053 0.28638345 0.13226287 -0.3193536 -0.22557066
-0.29237652 0.22903502 0.04710656 0.46399966 0.42290336 -0.32341355 -0.4234935 -0.213288
0.03356761 -0.28244266 -0.25167963 -0.22859 -0.37659657 0.4497093 0.3782941 0.32182097
0.20859699 0.5162625 -0.3650702 0.35178167 -0.44531077 0.39390966 0.23569898 -0.15250617
0.27398753 -0.3118354 -0.2417123 -0.27199146 -0.1917204 0.35653284 -0.30242628 0.06325089
0.110654354 -0.10179463 -0.21100895 0.35331318 -0.106318556 0.4116818 0.08887145 -0.35482788
-0.2629366 0.3562159 -0.34745625 -0.007857883 0.063702516 0.3641557 0.3946118 -0.38458878
-0.28949934 0.103277035 -0.33977497 -0.35448954 0.1742462 -0.22932881 0.16996473 -0.25662985

actor.preprocess.model.model.2.weight f4 [64, 64]
00000000: ee14 203f b636 4a3e f88e 25be 0a17 1e3e
00000010: 2d8d 723d f664 0ebd f89d fc3e d863 203e
00000020: ebc5 febb 4d83 0c3d 9435 523e aaa7 1e3c
00000030: 40a5 2fbe 651b cdbe 424a f83c 6e1b b8bd
00000040: 3847 253e e7c9 5abd 5fd7 de3d e386 8ebe
00000050: 63cf 38be 8930 3b3e a7b2 433d 45e5 c4bd
00000060: d822 2dbe 0a7d 173e 8bca 26be 91d1 3b3e
00000070: 19db f8be 3c1f b93e cb56 b1bb e5c0 f7bd
00000080: 1609 543e 47c1 2bbd 9be3 55be 5399 d33d
00000090: ef6f 1e3e cfee 08be 9826 1dbd 39f4 39bd
000000a0: 9bd9 dcbd 98a9 a43d e2a2 05be baaf b5be
000000b0: 7022 ef3d 599d 813e 08a4 5e3e e039 ed3c
000000c0: 6f68 b03e 91d8 cabe 7425 70be 9c49 383e
000000d0: b7b5 153f 772f ffbd 1a07 6cbd b2de a73e
000000e0: 32e2 1f3e fe0d 223d 044a a5bd f596 453e
000000f0: de3b 0dbe 8ab4 cfbd 184e 42be 3ea2 f4bd
00000100: 1b7f 833d 1390 2e3e 8697 613b 9870 1b3c
00000110: 8a02 283b 25f3 73bd c2ed a5be ed82 323e
00000120: 330f 5bbd 703a 19bc 6543 423d 0732 b03d
00000130: c657 773e f2e6 7a3e 7c17 9cbe 6f89 9abd
00000140: 80c3 10be 1852 213e 053d 523e 1a82 b4bd
00000150: db1b a1be 8117 b63c deba 6b3e aea8 bc3e
00000160: 7d52 ba3e d113 0b3e 5eb3 0dbf e4ec ad3e
00000170: 0b2b 24bb 9c30 0bbe 3602 0cbe 2d60 4dbe
00000180: c79a 8c3e 1aae 8abd 038c e33d 26b9 65be
00000190: 60f4 83be b992 b43e 7188 83bd 295d cbbd
000001a0: 077a 43be 6899 ccbc 086a 9dbd a233 003e
000001b0: 72e7 50bd da8e da3d efee 9e3d e593 63be
000001c0: 038e 043e 9160 373e ea86 a0be ffa8 47be
000001d0: 11b2 223e 0b2f 0d3e 6594 263d b9fa 27be
000001e0: c705 2ebd bab0 eebc 5307 6ebe bc52 a73e
000001f0: cae7 863e c25b 00bf 09ed 9a3e e2da f03d
00000200: 90cb ef3d afa7 2fbe b2d2 94be 654f 523e
00000210: c116 8ebe 357e ba3e 2b24 693d 64c3 183e
00000220: 8879 a03c 4129 0a3e b683 f3bd d2a5 f03d
00000230: e46d 553e b312 bc3d 4b84 07bf c3d7 b83e
00000240: 9381 4d3e 2ea5 8e3e bbe9 e2bd 43cd e5bd
00000250: 3dc9 233e 2df8 073e 6166 f63c 02a7 ec3d
00000260: 7c97 b3bd 6909 fcbc 8315 22bd 5e5e db3e
00000270: 8eca aa3c e06d b63c 7adf a03e d1f8 a1be
00000280: ad3f 40be f8ff 65bd cb23 933e bac1 95be
00000290: d3e7 083e dbcb 7e3d 18d8 8c3d 12ad 35bd
000002a0: 61b8 a0be f3ff 8f3e 4f6c a639 2570 a4be
000002b0: 654a 143c 1797 853e 9ff5 9a3c f35a 013e
000002c0: 51f4 cd3c 0210 703e acd6 3bbe 5d81 b93e
000002d0: 17a1 3b3e a7c5 c1be b0a0 ac3e 44a3 2a3e
000002e0: f6b4 62be 5a23 45be 11d9 e3bd 68de 3ebc
000002f0: d23d 623e 8c99 4c3e 13bc 933e 7791 4c3d
00000300: e091 5b3e 8a37 463e 2dbf 38be 00ac eabb
00000310: 8043 29be ec36 d53d ace5 3a3d c5f6 e4bd
00000320: 0ffc 40bc 3386 3f3d 648c 8abe c64b 35be
00000330: 9d38 173e 1217 3b3e de23 86be 4cd5 43bb
00000340: 7aef 9bbc 914c 6fbe 21aa 413e b74e 86be
00000350: e086 5bbe a15a ad3e b452 30be bb2c 7abd
00000360: dd42 de3d 5e88 81bd c586 c03d eb15 713e
00000370: e53d 643d ccf9 42bd 442f 6c3e f11c 4c3d
00000380: c65d cd3e 35e7 78bd 0ea7 dc3e ed97 803e
00000390: 92e5 30be 4aa6 1abd 6950 5d3e 6717 6d3b
000003a0: c96e 2cbe cecd ac3e 5a91 8bbe 2598 7abd
000003b0: 16db 883e ac57 90be 3e63 99be b168 56be
000003c0: b97e 5fbe d889 fe3d f056 1a3e 37cf 443e
000003d0: a5b7 a0be c265 003e 9181 05bd 5fae 443e
000003e0: ec2e b1be 751c 72bd 2524 1dbd 1a95 c63e
000003f0: 3313 5ebc 9782 3d3e 6656 973e 23d6 853c
0.62531936 0.19747433 -0.1616782 0.15438476 0.059216667 -0.034764253 0.4933927 0.15663087
-0.0077750585 0.034304906 0.20528251 0.009683529 -0.17152882 -0.40059963 0.030308846 -0.08989607
0.16140449 -0.053415205 0.108809225 -0.27837285 -0.18047862 0.18280233 0.047777798 -0.09614042
-0.16907823 0.14793792 -0.16288202 0.18341662 -0.48604658 0.36156642 -0.005411958 -0.120973386
0.20706591 -0.04193237 -0.20887606 0.10331979 0.15472387 -0.13372348 -0.038366884 -0.045398924
-0.107836924 0.0804016 -0.13050416 -0.3548563 0.1167649 0.2531536 0.2174226 0.028958261
0.34454677 -0.39618352 -0.23451787 0.1799683 0.584804 -0.12460225 -0.05762396 0.3278709
0.1561363 0.039564125 -0.08070758 0.19295867 -0.13792369 -0.10141857 -0.18975103 -0.11945008
0.06420728 0.17047147 0.003442259 0.009487294 0.002563628 -0.059558053 -0.32407957 0.17432757
-0.053481292 -0.0093523115 0.047427554 0.08603292 0.24154577 0.24502161 -0.30486667 -0.07545745
-0.14137077 0.15753973 0.2053109 -0.088138774 -0.31466565 0.022228004 0.23020503 0.36847442
0.3639106 0.13581778 -0.5535182 0.33969796 -0.002505007 -0.13592762 -0.13672718 -0.2005622
0.27461836 -0.067714885 0.111106895 -0.2243391 -0.2577238 0.3526819 -0.064225085 -0.09929878
-0.19089518 -0.024975494 -0.076862395 0.12519696 -0.051001973 0.10671778 0.07760417 -0.22224386
0.12944798 0.17907931 -0.3135293 -0.1949806 0.1588824 0.13787477 0.040668864 -0.16404237
-0.04248598 -0.029137004 -0.23244981 0.3268031 0.26348716 -0.5014001 0.30258968 0.117604986
0.11708748 -0.1715381 -0.29066998 0.20538099 -0.27751735 0.36424413 0.056919258 0.14918286
0.0195892 0.134923 -0.11890356 0.11750378 0.20842701 0.09183254 -0.5293624 0.36102113
0.2006896 0.27860397 -0.11079737 -0.11220791 0.15994735 0.13278265 0.030078115 0.11555292
-0.08769128 -0.030766206 -0.039571296 0.42845434 0.020848539 0.02226919 0.314205 -0.31635144
-0.1877429 -0.056152314 0.28738245 -0.29249364 0.13369684 0.06220613 0.06877154 -0.044354506
-0.3139067 0.2812496 0.00031742683 -0.3211681 0.00905094 0.26091835 0.01891595 0.1263235
0.025140913 0.23443606 -0.1834361 0.3623151 0.1832317 -0.3784611 0.33716345 0.16663843
-0.22139344 -0.19251767 -0.111253865 -0.0116497055 0.22093895 0.19980448 0.28854427 0.049943414
0.21442366 0.19357124 -0.18041678 -0.0071616173 -0.16529655 0.10410866 0.04562919 -0.1117988
-0.011778845 0.04675884 -0.27060235 -0.17704687 0.1476769 0.1827052 -0.2619924 -0.0029881774
-0.01903509 -0.23369052 0.18912555 -0.2623193 -0.2143817 0.33858207 -0.17219049 -0.061077815
0.10852597 -0.06324838 0.09400705 0.23543517 0.05572309 -0.047601506 0.23064905 0.04983229
0.40110606 -0.06076737 0.43096203 0.2511591 -0.17275074 -0.03775624 0.21612705 0.003617728
-0.16839136 0.33750767 -0.27259332 -0.061180253 0.2672965 -0.28191888 -0.29958528 -0.20938374
-0.21825685 0.12428635 0.15072227 0.19219671 -0.3139011 0.12538818 -0.032594267 0.19207142
-0.3460611 -0.05910917 -0.03836455 0.3878563 -0.013554382 0.18506847 0.29558104 0.01633746

actor.preprocess.model.model.2.bias f4 [64]
00000000: 5b44 6b3d 6fc9 223f 382a a03c 2084 543d
00000010: 6916 1dbe 08a7 c4be 3aa4 a53d 3963 a3be
00000020: a7a1 ef3e 0bf1 ed3e dc30 abbd 8341 03bf
00000030: a7ac d5be afa9 cebe 3feb eebe 4ffa 7c3e
00000040: 1f1c b3bd 430f 07bf 7d2f f7be 9091 c23e
00000050: 7d61 22bf 601e d5b8 424b b4be 99d7 a1be
00000060: b5a9 043e db70 2ebd 639e 1bbe 0603 e33e
00000070: 0c38 813e 6812 343d 0df7 5b3e 5f39 0a3e
00000080: 45dc 8ebd f18b 45be 352a 92be e428 953e
00000090: c096 21be 1481 f7be b3c6 dbbd dd0c a3be
000000a0: 3241 10bf f846 073f 6b9f 6c3d cbaf 9d3e
000000b0: 6845 32be dad7 1c3d 3b61 6bbd eea0 b9be
000000c0: 57c4 e2bc 0f3e cdbe 260a 00be 1e7a 98be
000000d0: e026 b0be a7d2 233f 47d9 dabc ebe6 c4bd
000000e0: 258f 96be e861 73be 234b acbe a6b5 d8bb
000000f0: 597e c73e a60e 9cbe 7e23 f5be 0725 783d
0.057438236 0.63588613 0.019551381 0.051883817 -0.1534058 -0.38408685 0.08087964 -0.31911638
0.46803018 0.46472964 -0.083589286 -0.5127184 -0.41733286 -0.40363833 -0.46663854 0.2470486
-0.08745598 -0.5275766 -0.48278418 0.3800168 -0.63430005 -0.00010162289 -0.35213667 -0.316098
0.12955363 -0.042588096 -0.15197138 0.44338244 0.25238073 0.043962866 0.21480961 0.13498448
-0.06975607 -0.19291665 -0.28547826 0.2913276 -0.15780163 -0.48340666 -0.10731258 -0.3184575
-0.5634948 0.52842665 0.05776922 0.30798182 -0.17409289 0.03829179 -0.057465773 -0.36255592
-0.027681513 -0.4008641 -0.12503871 -0.29780668 -0.3440466 0.63993305 -0.026714934 -0.096143566
-0.29406086 -0.23767817 -0.33651075 -0.006613451 0.38963583 -0.30479926 -0.4787864 0.060582187

actor.mu.model.0.weight f4 [6, 64]
00000000: 51ac 14bd 9b5a 1e3e bc29 793c fb72 00bd
00000010: ad9b 82bd 9269 f3bd efec cc3d fc4a cebd
00000020: dfde 4a3e 5d4d 143e 286f c83c 3cca 48be
00000030: 0a03 13be 3191 81bd 4e2e 20be 1341 0f3e
00000040: 3808 e3bc c2b8 3ebe 4218 b7bd 916b 3a3e
00000050: 9e43 24be 6fd7 223d def8 f5bd a110 31be
00000060: d1a9 683d 1f52 e83d 51fe d2bd b801 0d3e
00000070: af41 c63d 0489 6e3d 5911 e73d 3583 3d3d
00000080: 6e6a bb3b fc31 5f3d 9504 0f3d 699a 1ebd
00000090: 85c5 d03d a912 d9bd 95e3 afbb 8723 17be
000000a0: 63d4 20be 07e2 093e 9ec3 0a3d 7d39 ea3d
000000b0: 8565 3cbc e934 febc a23f 923d 40f4 c4bd
000000c0: c76e 39bc d570 19be feba 0dbe 950a 07be
000000d0: 2d82 38be b867 013e c9c6 89bc e147 9d3d
000000e0: 08ab b0bd d8eb 753d 68ba c6bd a97a c53c
000000f0: c851 0e3e e416 d9bd 9c41 fdbd 5049 8e3d
00000100: 84e7 953d c409 2c3e 1f1e d4bc 66e9 533d
00000110: 2079 7e3b 35f0 dfbd f11d a73d 31f3 ebbd
00000120: e3db 283e 220c 253e f24b 4ebd 7f7a fdbd
00000130: d081 19be 25bf 4cbe 1c84 fbbd 5ee7 d93d
00000140: 5ea2 17bd de76 40be 7d10 28be f228 0c3e
00000150: 4dfc 80be 0d16 08bd 91df 90bd c831 f9bd
00000160: d333 b23c 3fb5 133c ed55 64bd 985e 293e
00000170: fb9e fd3d e3c3 1f3e 8795 0c3e df53 bb3d
00000180: 4e4d 4d3c 566a eebd 05d8 bfbd 8f7c 0c3e
00000190: 2992 15bd 4179 3ebe 776a 7cbd e0a7 17be
000001a0: 1428 10be 1b6e 1f3e e43b a73d cc25 d83d
000001b0: c703 fc3c 2447 d43c bac6 57bd f202 15be
000001c0: cc21 113d ca17 ebbd 4c2d 99bd ec79 b2bd
000001d0: 1c57 b7bd 8545 593e 7878 00bc 6ed6 fcbc
000001e0: 8afd d4bd af9e bebd d6e3 f7bd 7f63 7e3c
000001f0: 2c42 373e fa64 f8bd d1bf 4bbe bf3e 553d
00000200: 973a 24bd 6460 f23d 45c7 6a3d 9d77 483d
00000210: 64c2 483d a822 5dbe ad45 3b3e deea 89bd
00000220: f944 cb3d 993f 483e 2be3 01be 0899 a8bd
00000230: 94bb 9dbe 9c80 d3bd 27b3 f4bd b5f5 1ebe
00000240: 0fcf d4bc 2dd3 e8bd 2518 cbbd 825b 313d
00000250: bf38 bdbd ed4a ccbd e532 94bc 1a27 47bd
00000260: 8bc3 c2b7 e278 97bd 4fcf 19be 3acd 443e
00000270: b7ec 023e 130a e53d 4a3e f13d e1b8 223e
00000280: 5d01 dfbc 62f5 d4bc df88 a4bd 481c 903d
00000290: f218 883d 3565 47bd 8242 ffba 50ed e3bc
000002a0: ec3a d1bd 927c d33d 4884 adbc 19bb 5c3e
000002b0: 4632 baba 1b4e 39bb 5139 7b3c b272 ebbd
000002c0: f748 9e3a 6e70 64be 3d14 8fbd 0b1f 69be
000002d0: f648 33bc 963f a53d de23 cdbd 88af 1b3d
000002e0: 6f25 22be 48ce 32bd 851e cbbd ac55 053d
000002f0: 2b0e 0a3e 796d 45be 335f 99bd 952f 743e
00000300: 4536 023e 0544 ad3d 77e8 5abd 76c5 75bd
00000310: bd2d 0dbe 2fd9 253d c3fc bb3b 2a53 9c3d
00000320: ea55 0d3e 4cd1 8e3d ac95 a0bd 19d6 19be
00000330: 114f 1f3d cc5a 883d 2457 0cbc 0739 a2bd
00000340: 72f7 a5bd c163 b2bd 9887 80bd 759e 4e3d
00000350: db7c c5bd 96f3 af3d e67e bebd 0799 7abd
00000360: 2c63 f83d 063a ddbd c95b d43d 279c 243d
00000370: 4eb9 56bd 7ce7 2bbe 52a8 71bd 7297 96bd
00000380: 3435 bebd 74d7 5fbe be64 cfbd 7feb 423d
00000390: b689 04be 0624 c33c 3956 94bd ef6a c6bd
000003a0: ef8f acbd 55b0 813d 39ac bd3d ff7a 60bd
000003b0: 9c20 acbd 8b41 5e3e 051f 973d 1da4 f93c
000003c0: 8662 07be a41d 27bc 6b63 a9bd 5a2b ef3c
000003d0: db49 e4bd f4c1 b83d 98fe 493e 9041 4bbe
000003e0: 9201 493c 129d 18be 2f2c 61be 1ac2 0abe
000003f0: 315f 493d 6b3a e339 8c25 f4bd 8ed0 81bd
-0.036297146 0.1546425 0.015207704 -0.031359654 -0.06377349 -0.1188537 0.10006129 -0.10072896
0.19811581 0.14482637 0.024467066 -0.19608396 -0.14356628 -0.06326521 -0.15642664 0.13989668
-0.02771388 -0.18625167 -0.08940174 0.18205096 -0.16041419 0.039756235 -0.12010358 -0.172915
0.056802575 0.11343788 -0.10302413 0.13770187 0.09680497 0.058236137 0.11282606 0.046267707
0.0057194745 0.05449103 0.03491648 -0.038721476 0.10193924 -0.10599262 -0.005367706 -0.14759646
-0.15706019 0.13465129 0.03387796 0.11436746 -0.0114988135 -0.031031089 0.07141043 -0.096168995
-0.011317915 -0.14984448 -0.13840863 -0.1318763 -0.18018408 0.12637222 -0.016818421 0.076797254
-0.086263716 0.06003937 -0.09703523 0.02410634 0.13898385 -0.10600069 -0.123660296 0.06947577
0.07319549 0.168006 -0.02589327 0.051736258 0.003882952 -0.10934488 0.08160008 -0.115209945
0.1649013 0.1611791 -0.050365396 -0.1237688 -0.14990926 -0.19994791 -0.12281057 0.10639833
-0.03702008 -0.18795344 -0.1641254 0.13687494 -0.2519249 -0.033224154 -0.07073892 -0.12167698
0.021753227 0.00901538 -0.055746008 0.16539991 0.12383839 0.15602069 0.13728915 0.091468565
0.012530638 -0.11641376 -0.09367374 0.1371939 -0.036516342 -0.18600942 -0.06162497 -0.14810133
-0.14077789 0.15569346 0.0816572 0.10554084 0.03076352 0.025912829 -0.052679755 -0.14551905
0.03543262 -0.11479147 -0.07479343 -0.08714661 -0.08952162 0.21217926 -0.007841222 -0.030863967
-0.10399921 -0.0930761 -0.12104003 0.015526651 0.17896336 -0.12128635 -0.19897391 0.052061792
-0.040094938 0.11834791 0.057318944 0.048942197 0.04901351 -0.21595252 0.18288298 -0.067342505
0.09925265 0.1955551 -0.12684314 -0.082323134 -0.30807173 -0.10327265 -0.11948233 -0.15523417
-0.02597764 -0.113684036 -0.099167146 0.04330016 -0.09239339 -0.099752285 -0.018090675 -0.048621275
-2.3217659e-05 -0.073961034 -0.15020488 0.19218913 0.12785612 0.11183562 0.11779459 0.15890838
-0.02722233 -0.025995914 -0.080339186 0.07036644 0.06645383 -0.048680503 -0.0019474777 -0.02782312
-0.102163166 0.10326494 -0.02118124 0.21555747 -0.0014205656 -0.0028275314 0.0153334895 -0.11496486
0.0012076189 -0.22308514 -0.06986282 -0.22765748 -0.010942688 0.08068769 -0.10016607 0.038009197
-0.15834592 -0.043653756 -0.099179305 0.032552406 0.13481967 -0.19280042 -0.07488861 0.23846276
0.12716015 0.08460239 -0.053444352 -0.060002767 -0.13786979 0.040490326 0.0057369187 0.0763305
0.13802305 0.06973514 -0.07841048 -0.15023078 0.038893763 0.06657943 -0.008565698 -0.07921033
-0.08103837 -0.08710433 -0.062758625 0.050444085 -0.09642955 0.08591382 -0.09301548 -0.061181094
0.121282905 -0.10802083 0.10369069 0.04018798 -0.052422814 -0.16787523 -0.058998413 -0.07353105
-0.092874914 -0.21859533 -0.10126637 0.047587868 -0.12943158 0.023820888 -0.07243008 -0.09688365
-0.08425891 0.06332461 0.092613645 -0.0548048 -0.08404657 0.2170469 0.073789634 0.030473763
-0.13221177 -0.010199938 -0.082709156 0.029195476 -0.11146899 0.090213686 0.19726026 -0.19849229
0.012268441 -0.14903668 -0.21989511 -0.13550606 0.049163047 0.0004334034 -0.11921224 -0.06338607

actor.mu.model.0.bias f4 [6]
00000000: 13fb 933e 4574 5c3e 1394 c73d 52b0 373e
00000010: ee59 483e ac53 273d
0.28902492 0.21528728 0.0974504 0.17938355 0.19565555 0.04085128

critic.preprocess.model.model.0.weight f4 [64, 17]
00000000: 668a fabd 7b9d e8be ccaa 82be 92f2 b93e
00000010: 762d 08bd 54f5 00be 4023 9e3d 30c8 72bd
00000020: ab84 fa3d 7c9e ab3e dbb0 58bd 7175 a73e
00000030: 83da 1fbc 95e6 d5bc f2f6 3dbe 250c 11be
00000040: 602e 3fbd c466 323d 50f7 29bd 4ed4 a9be
00000050: 7fe2 80bd a6f7 69be 799f 1ebe 2523 f5bd
00000060: 86f5 ef3e 8de4 143e d428 08bd 6b0f e8bd
00000070: 0e29 d33d 2fb8 5d3d 3e17 82be 458b 2fbd
00000080: 8a99 13be fc54 823e 969d 333e ccfa 37bd
00000090: d6fe 61bd 1e31 7bbe 4a8f d53e f5c6 31be
000000a0: 9d70 abbc afb6 b33c b1bb 803d bfd6 703e
000000b0: 3e16 99bc 6dc5 0c3e 1b4c f43b cb3e 533d
000000c0: d4e5 923d 3f2b 24bd b9b7 e83d 2b5a 7cbd
000000d0: e73c 063f a720 843e 1974 e13e bfbb 11be
000000e0: da3e 0bbe 1c3d 443d ab73 943e 6c43 d63e
000000f0: 2d2c ca3c 7cdd df3e cc23 233d f120 82bd
00000100: fa3a 15be 9bd5 81bd 39b8 20be 028e b7bb
00000110: 0469 12bf 6efd 38bd 6274 3e3e 8be6 363e
00000120: f044 68be d772 b4be 6ec5 b73c aed0 ac3e
00000130: 8e18 943d 6c3a e3be 7f6f 8c3e ec44 30be
00000140: 72cc 1dbe 8a38 9cbd b714 35bd d708 8dbd
00000150: ef69 543e d575 86be e45b 5d3e 9c64 4a3e
00000160: f107 983c b11d eabd b878 0fbe 9813 033d
00000170: 8cda 49be 7907 97bd b4f9 c9be 3e2a 4abc
00000180: 626f 5fbc 6e06 c9bc a281 b83d 5906 173d
00000190: 5676 90bd 4537 183d 4050 153d a6a8 ccbe
000001a0: d0a0 99be 1713 be3c fcc8 013d 15e8 58be
000001b0: 7e5c a2ba 2364 333e 845a 04bf de9b 2a3e
000001c0: 8e5b 0b3e 05eb 85bd e3b1 5abd 2b43 ecbc
000001d0: a24a b9bd f168 d7bc c5af 473c a749 853e
000001e0: f443 b0bc cf75 393d 5ee5 77be 947c 713c
000001f0: 5949 8dbe b869 65be 8cdc d93d 8361 98be
00000200: cc19 0d3d df7f 9f3e 89f0 1fbe b73a acbd
00000210: 342f 3c3d 8ff1 323e c952 b73b 1d77 69bd
00000220: 8ec8 9ebe fb65 8dbd 2ef3 563c 9ec1 6b3e
00000230: a548 e33c 0edd 823e 6dbd 4cbe 5789 1e3e
00000240: dacd a4be 7abf 933e e1a2 6a3e 44dd c93d
00000250: 2750 c23d 5cf3 bb3c 51c6 84bd 8490 ebbd
00000260: d9c3 a4bd 13e1 5cbe 155b 32be 96ce 673d
00000270: aaaf e5bd a131 aabd c1fa 6e3d bbf8 c73d
00000280: 36e1 6d3d 3296 f13b a013 11bf 59cc 30be
00000290: fc6a c7bd 2359 4e3d cbd7 23be 97ed dcbd
000002a0: 4854 663c b505 df3d 3e1e 193e e9d4 06bf
000002b0: 7bf9 abbd 3be8 ccbd e163 073e 347c 403d
000002c0: f5e5 aabc 5baf ddb9 c4e1 1d3e 0932 dd3d
000002d0: 36ea 193c 8174 30be 84ef e1bd f9dd 443d
000002e0: eba2 413d cd4e aa3c f4ca 523d 5eb6 bebc
000002f0: 1568 d8bd 8cfe a63d 3da8 83be 86d2 b0bd
00000300: 388e aabe 0538 043e 271a f1bd 3b26 04bf
00000310: a553 4f3e c6b7 273c dabc c4bd 7a49 52bd
00000320: ce6f 27be 2cd8 3e3d 518d 7b3d e1c0 16bc
00000330: d375 67bd 4403 43be ee34 153e 780a 8f3e
00000340: 97a2 da3d 57c6 003b 7089 71bc 90f1 233e
00000350: 0661 95be ac7c 7d3e d950 40be 1516 3a3d
00000360: d82e 943e c85c 01be 54ff b63d 9189 ee3d
00000370: abff aabd acd9 c13e d39d 6cbd 08b4 f33d
00000380: 2f08 67bd 7942 e7bd 1422 763e 84a7 2cbe
00000390: 4fe3 90be b57b 2b3f 8af8 f8bb ee6d e43d
000003a0: b046 1c3e 0fff c73d 147a 4cbd 2ab2 33bd
000003b0: 0e7f 97bc 80f2 30bd ad8d 253d 51c9 d7bd
000003c0: b9a1 63bd b28e 32bd 3018 2e3e 82eb e4bd
000003d0: d243 443e 9b9a 633e 3912 32be f824 c93e
000003e0: 76a3 cd3e 8726 b5bd 8f79 03bb 66a5 2fbe
000003f0: 4610 7dbe 463a 05be 4f45 b5bc 1ce5 bcbe
-0.12233429 -0.45432648 -0.25520933 0.3631788 -0.03324648 -0.12593585 0.07721567 -0.059272945
0.12232336 0.3351935 -0.052903038 0.32706788 -0.009756687 -0.026110927 -0.18551233 -0.14164789
-0.046675086 0.043555036 -0.04149562 -0.33169788 -0.06293201 -0.22848377 -0.15490521 -0.11969594
0.46867007 0.1454031 -0.03324206 -0.11331066 0.10310565 0.05413073 -0.25408357 -0.042857427
-0.14414039 0.25455463 0.17540583 -0.044916913 -0.05517467 -0.24530455 0.41710883 -0.17361052
-0.020927722 0.021937696 0.06285799 0.23519419 -0.018687364 0.13747187 0.0074553615 0.051573556
0.071727425 -0.040080305 0.11363167 -0.06160943 0.5243668 0.25806162 0.44033888 -0.14231776
-0.13598195 0.04790984 0.28994498 0.41848314 0.024679268 0.43723667 0.03982906 -0.06353939
-0.14573279 -0.0633957 -0.15695275 -0.0056016454 -0.5719149 -0.045163564 0.18599084 0.17861383
-0.22682548 -0.35243866 0.022433009 0.3375296 0.07231246 -0.4438051 0.27428815 -0.17213792
-0.15410021 -0.076279715 -0.04420921 -0.06886452 0.20743535 -0.26261774 0.21617085 0.19764942
0.018558474 -0.114314444 -0.14010894 0.032001108 -0.19712275 -0.07374472 -0.3944832 -0.012339173
-0.013637396 -0.024539199 0.090091005 0.036871288 -0.07053821 0.037162084 0.036453485 -0.3997242
-0.30005503 0.023202462 0.031685814 -0.21182282 -0.0012387184 0.17518668 -0.51700616 0.16661021
0.13609144 -0.06538967 -0.053392302 -0.028840622 -0.09047438 -0.026295157 0.012187903 0.26032755
-0.021516778 0.045278367 -0.2420859 0.014739174 -0.27595022 -0.2240361 0.10637769 -0.29761896
0.03444843 0.31152245 -0.156191 -0.084096365 0.045943454 0.1747496 0.0055945856 -0.05699836
-0.31012386 -0.06904217 0.013119502 0.23023078 0.0277446 0.25559276 -0.19994135 0.15482078
-0.32188302 0.28857023 0.22913696 0.09856656 0.09487944 0.022943191 -0.06483138 -0.115021735
-0.080451675 -0.21570234 -0.17417558 0.0565935 -0.11215146 -0.08310247 0.058344606 0.097642384
0.058076106 0.007372641 -0.5667057 -0.17265452 -0.097372025 0.050377976 -0.16000287 -0.10787504
0.01405818 0.108897604 0.14952943 -0.52668625 -0.08397194 -0.10005232 0.13221695 0.04699345
-0.020861605 -0.00042283055 0.15418154 0.10800559 0.009394219 -0.17231943 -0.11032012 0.048063252
0.04727451 0.020789528 0.051463082 -0.023280319 -0.10566727 0.0815402 -0.25714293 -0.08633904
-0.3331163 0.12911995 -0.11772566 -0.51620835 0.20246752 0.010236686 -0.09606333 -0.051339604
-0.16351244 0.046592876 0.061414067 -0.009201259 -0.05650885 -0.19044214 0.14570972 0.27937675
0.10675543 0.001964947 -0.01474224 0.16010118 -0.29175586 0.2475459 -0.18780841 0.045431215
0.2894199 -0.1263305 0.08935419 0.116473325 -0.08349546 0.37861383 -0.0577677 0.118995726
-0.05640429 -0.112919755 0.24036437 -0.16860777 -0.28298423 0.66985637 -0.0075979875 0.1115378
0.1526134 0.097654454 -0.04992111 -0.043871082 -0.018493202 -0.043200016 0.040418316 -0.10536445
-0.055574153 -0.043593116 0.17001414 -0.11177732 0.19166496 0.22226946 -0.17389764 0.39286017
0.40163773 -0.08845239 -0.0020061468 -0.17152938 -0.24713239 -0.13010511 -0.022127775 -0.36893547

critic.preprocess.model.model.0.bias f4 [64]
00000000: ee49 383e 5e28 a73d 2629 efbd 2eb4 3c3e
00000010: a486 d33d 7b45 eabe a12b f4be 9a66 babe
00000020: 7474 643d bd35 28be 1313 c53d 94d8 dabd
00000030: 3357 fe3e af46 f03e 7d08 603d 7a37 123f
00000040: 69b9 0bbe 5348 933e af2e 96bd fe30 0b3d
00000050: 3d4c 60be 4706 e53c 6fac 523e 7f93 08bf
00000060: 0ac9 9d3e 2f8a 1fbe d8a5 ff3d bacc 04bf
00000070: 3e97 bc3e 1098 0cbe d8b0 f4be 4487 9cbe
00000080: 4996 dcbe 604f 513e 25b2 2ebe 33bf 5cbe
00000090: 8e5e e53e b081 d53e c8c5 4bbd e0ab 513e
000000a0: 10ba bdbe 74ba ce3e 3f57 e9be 11d8 a3be
000000b0: 8388 fcbe 5fd3 153e 0d7d 6bbe 65f2 86be
000000c0: a443 963e 3e3e d83d 2b2a 76be 01af 7b3e
000000d0: 2f63 ae3c e220 16bf f326 40be d63c 25be
000000e0: 0cac f73d f313 49be 4932 14bd 67bc 9d3e
000000f0: 1320 913e 9e56 f53c c425 58be e9e2 c4be
0.17996952 0.08161996 -0.1167777 0.18428108 0.10328415 -0.45756134 -0.47689536 -0.36406404
0.05577512 -0.1642675 0.09622779 -0.1068584 0.49675903 0.46928927 0.054695595 0.571159
-0.13644947 0.28766116 -0.07333123 0.03398227 -0.21904083 0.027957095 0.2057359 -0.5335006
0.30817443 -0.15580057 0.12482804 -0.5187489 0.3683414 -0.13729882 -0.4779117 -0.3057195
-0.43083408 0.20440435 -0.17060144 -0.21557312 0.44798702 0.41700506 -0.049749166 0.20475721
-0.37056017 0.40376627 -0.45574376 -0.32000783 -0.493229 0.14631413 -0.22996922 -0.26356807
0.2934848 0.10558747 -0.24039523 0.24578477 0.021287529 -0.58643925 -0.18764858 -0.16136488
0.12093362 -0.19636516 -0.03618077 0.30807802 0.28344783 0.029948529 -0.21108156 -0.3845437

critic.preprocess.model.model.2.weight f4 [64, 64]
00000000: dc92 543e 0dec 0b3e 171e 37bd 652d 25be
00000010: b5cd dfbd fbef bdbd 2af2 da3d 6338 64be
00000020: 88db bebe cbfb 33be 7442 5e3e e8a4 3c3e
00000030: d9d9 693e 209d 80be fe08 693e c408 f73b
00000040: e7e7 aa3e 1b57 45be 5394 023e fcf7 003d
00000050: d5cb 713e 8478 fdbd 5c67 8e3e 3056 553d
00000060: 5646 dabd 2afe e7bd 04dd 3dbe 4106 433e
00000070: e4c2 753e d686 c1be 20d2 783d adba 97bd
00000080: 885d 3e3e 2c94 313e ffe2 873e 41a0 183d
00000090: a2cb e8bd 3f75 e13d be90 3fbe 6313 db3d
000000a0: 2286 833d 6e1f b5bd a960 7fbd 435c 273e
000000b0: 3961 edbd 558a ccbd 0704 80be 0d33 d1bd
000000c0: 5f10 4d3e 8976 edbc 4632 913e c6da 76bd
000000d0: a2af b33e 3928 aa3d 9563 c237 71b7 7c3e
000000e0: 693e e5bd e502 2abd 3d43 223d 6020 72bd
000000f0: b057 25bd fc5b 393e f94d a13e f726 88bd
00000100: 9f5c 03be 425c 633c 5c80 86be 509b dcbe
00000110: f11e 8dbd 7a88 a03e 405e 523d 528b 393c
00000120: 6950 6cbc 6b4c 9e3d aaa0 fa3d 92ce 34be
00000130: 9abe 9e3d 77ee a13d 7404 293d 176a 49be
00000140: 34f4 86be a1bc e6bd 4118 943e 6e17 16be
00000150: 8399 273d 4469 733d 0ec2 653e f775 25be
00000160: 12e6 be3d e67c 28be 57d2 e83d 2184 863e
00000170: 69fc 0f3c b704 e13c 0633 4fbe 7d57 473d
00000180: a3a0 0bbe dfac bbbc 2572 92be 5343 64bd
00000190: 7022 dc3d 03ea 64be 5eff 9b3d c183 043e
000001a0: a331 273e edce b63d e871 7d3e d6d6 813d
000001b0: 2810 05bd 4a39 25be f97b fa3e 62d5 143e
000001c0: 4794 423d 5133 0e3f 5132 023e b589 68bd
000001d0: 918c 033e 1b86 22bd e5ea a6bd aeff 813d
000001e0: 1a3d 64be 6bb4 21bd 86d6 bb3b d73b 333e
000001f0: 9b39 1c3d df1f 3fbe 42c6 1abe c874 03bd
00000200: bba9 4bbe 604a 6d3e 963a b53d ddcb f53d
00000210: c4fd 29be 3399 73bd d4eb 5bbe 0a02 33be
00000220: e1bb 303e 9149 51be 82ed 843d cae5 b1be
00000230: 0f37 babe 35a3 74be 186b 3abd e2ad a03e
00000240: 8aae c6bd 57f1 2cbe a669 58be f2df 853e
00000250: be97 7dbe ff56 51bb 7625 9e3e 2b75 ff3d
00000260: d9c0 a2bd 749c 82bc e3fc d43d 7398 ca3e
00000270: e556 c63d 64d2 663e f353 e7bc a8ae 1abc
00000280: 747e ecbd d400 843e 0df0 cb3c aa8b ab3a
00000290: c00d 703e db9b a6bc 43a7 6cbe e8e4 153c
000002a0: 8be5 e9bd 0ce4 8abd dc38 e73d cc10 643e
000002b0: ae86 d33d b31f 62bc d6fe d4bd 7aff aabd
000002c0: eee7 b33e 62f5 293d aed9 a5bd 9069 393d
000002d0: f0be 81bc 1c05 f73d 5993 39bd 9b98 c0be
000002e0: 391b fdbc 728f 07be 8b37 163f 3c26 5dbd
000002f0: e011 babd 0b53 9fbd 94c8 333e b447 553e
00000300: 3bd3 563e b8e8 9e3e 4e75 8cbe 81a2 49bd
00000310: 63fc 30bd 445e 8c3d dd8f 1f3e 2490 3fbd
00000320: 64dd 883e 0e81 aabd 3041 7dbe b8e8 f4bb
00000330: 0dc4 35be 36d6 1e3e 93a2 d6bd 843a 9fbd
00000340: dcb8 883d 17f1 1abe 2b5c 923d b01a b93d
00000350: e42d 0cba bcf5 28bc 397e 84bd 30dd e5bd
00000360: 0e20 84bb 8dbf 9e3e 7029 803d c5d4 4ebe
00000370: 42ed 55bd 7856 a83c 7ac6 0bbe 2436 92bd
00000380: 0297 87bd 4225 d1bc bbf3 043d b4f3 36bd
00000390: 9301 7cbd 34aa e43d cdbf 483d 0590 4c3d
000003a0: 3e5d 243e 260c aa3e c483 dbbd db40 183e
000003b0: 217a ff3e 32df e1be e8ed ba3d aeec 1abe
000003c0: 5f6c 9bbd f884 c3be e5e2 8d3d 6da7 53be
000003d0: 1178 bfbd 0baf 103e 16e8 183e 35e3 173e
000003e0: 60c7 dcbe e5b0 a6be 140b 833c b9e7 953e
000003f0: f12a 003c df66 4f3e 89d0 ad3c 6e9e bb3e
0.20759147 0.13664265 -0.04470643 -0.16130598 -0.109279074 -0.09274288 0.106907204 -0.22287135
-0.37276864 -0.1757652 0.21705037 0.18422282 0.22837009 -0.25119877 0.22757336 0.0075388867
0.33380052 -0.1927151 0.12751894 0.031486496 0.23612912 -0.12376502 0.27813232 0.052084148
-0.10657947 -0.11327775 -0.18541342 0.19045354 0.24000126 -0.37798184 0.060747266 -0.074086525
0.18590367 0.1734168 0.26540372 0.037262205 -0.11366965 0.11008691 -0.18707559 0.10697057
0.06422068 -0.08843885 -0.06234804 0.16343789 -0.115908094 -0.09987322 -0.25003073 -0.10214815
0.20025776 -0.028987186 0.28358668 -0.060267232 0.35094935 0.08308453 2.3172974e-05 0.24679352
-0.111935444 -0.041506667 0.039614905 -0.059112906 -0.04036683 0.18101496 0.315048 -0.06648057
-0.12828301 0.013876976 -0.26269805 -0.43087244 -0.06890667 0.31354123 0.051359415 0.01132472
-0.014423468 0.07729419 0.122376755 -0.17656925 0.07751198 0.07906812 0.041264012 -0.19669376
-0.26358187 -0.11266447 0.28924754 -0.14657375 0.040917885 0.05942656 0.22437307 -0.16158281
0.09321226 -0.16453895 0.11368244 0.2627268 0.008788207 0.027468069 -0.20234308 0.04866742
-0.13635497 -0.02290958 -0.2860271 -0.055728268 0.10748756 -0.22354893 0.07617067 0.12940885
0.16327529 0.08926187 0.24750483 0.06339805 -0.03248611 -0.16135135 0.4892271 0.14534524
0.04750469 0.5554705 0.12714507 -0.056771953 0.1284659 -0.039678674 -0.08150271 0.06347595
-0.22288933 -0.0394787 0.0057323603 0.17503296 0.038140874 -0.18664502 -0.15114692 -0.032093793
-0.19888966 0.23172903 0.08849065 0.120017745 -0.1660071 -0.059472274 -0.2147668 -0.17481247
0.1725917 -0.2043822 0.064906135 -0.34745628 -0.3637013 -0.23890384 -0.04551229 0.31382662
-0.097012594 -0.16888939 -0.21134052 0.2614742 -0.24764916 -0.0031942723 0.30887955 0.1247352
-0.07946939 -0.015943743 0.10399797 0.39569435 0.096845426 0.22541195 -0.028238272 -0.009441055
-0.115475565 0.25781882 0.024894739 0.0013087888 0.23442745 -0.02033799 -0.2311068 0.009148814
-0.11420735 -0.06781778 0.11290142 0.22272032 0.103284225 -0.013801503 -0.104001686 -0.083495095
0.35137886 0.04149378 -0.0809816 0.045266688 -0.015838116 0.120615214 -0.045306537 -0.3761643
-0.03089677 -0.13238314 0.586785 -0.05399154 -0.09085441 -0.07779511 0.17556983 0.20828134
0.20979016 0.31036925 -0.27433246 -0.04922724 -0.043209445 0.06853917 0.15582223 -0.046768323
0.26731408 -0.083253965 -0.24731898 -0.0074740313 -0.17750569 0.15511402 -0.10480227 -0.07774833
0.06675884 -0.15131031 0.07146486 0.09038293 -0.00053474144 -0.010312494 -0.064693876 -0.11223829
-0.0040321415 0.31005517 0.062579036 -0.20198353 -0.05222822 0.020549044 -0.13649932 -0.07139233
-0.06620599 -0.025530461 0.032459002 -0.044666007 -0.06152494 0.11165276 0.04901104 0.049942035
0.16051194 0.33212394 -0.10718492 0.1486849 0.49897864 -0.44115597 0.09127408 -0.15129349
-0.075890295 -0.38187385 0.06928042 -0.20669337 -0.09349073 0.14129274 0.14932284 0.14832766
-0.4312086 -0.32556835 0.015996493 0.29278353 0.007822738 0.20254086 0.021217601 0.3664431

critic.preprocess.model.model.2.bias f4 [64]
00000000: 624f 9a3d b1d6 363d 6313 753d aff4 a7bd
00000010: b440 47be a318 e93d b000 5cbe 094e 30be
00000020: c674 dabd 2c6b ed3d aefd 493c bf12 b13e
00000030: c7ec 95bc 6373 08be b5e8 bfbd 5a6f 29be
00000040: 4e51 563e 9c17 4cbd ab28 1abe a0b1 0abe
00000050: 3050 f1bd d903 a83e 8f97 a2be e696 3ebe
00000060: 45f7 ad3d 20d9 023d b8c8 3fbe 87c0 863e
00000070: 344a ee3d 3bc9 323d b238 21be e808 8fbd
00000080: 4e9c 393e 7c60 fc3c 6c52 143e 36e0 a23d
00000090: 5d96 ac3e 851f 08be 8442 0abd c8a8 01be
000000a0: 1656 653e 252b 123e c8d6 3fbd e04d 2abe
000000b0: 30bc 203e d473 7dbe 992b ecbd ec08 b83d
000000c0: 3416 b7bd 4f4e 803d 2d37 633e 4b6a a23e
000000d0: 6ca5 14bf 84cb 4a3e 4d06 c8bd 80f4 23be
000000e0: 00e7 423e 7eed 24bc 56eb 9cbe 7016 2e3e
000000f0: aacb 0e3e 79f5 d3be f275 fe3d cb52 a13d
0.07534672 0.04463834 0.05983294 -0.082009666 -0.19458276 0.11381652 -0.21484637 -0.17217268
-0.10666804 0.11592707 0.012328548 0.34584615 -0.01830138 -0.13325267 -0.09370557 -0.16546384
0.20929453 -0.049827203 -0.15054576 -0.13544321 -0.11782873 0.32815436 -0.31756255 -0.1861225
0.084944285 0.031945348 -0.18728912 0.26318762 0.11635247 0.04364894 -0.15744284 -0.069841206
0.18126032 0.030807726 0.14484566 0.07952921 0.33708468 -0.13293274 -0.03375484 -0.12662041
0.2239612 0.14274271 -0.04683569 -0.1663127 0.15696788 -0.24751216 -0.11531753 0.08986077
-0.08939782 0.06264936 0.22189017 0.3172172 -0.58064914 0.19804198 -0.09766827 -0.16011238
0.19033432 -0.010066388 -0.30648297 0.17000747 0.13944879 -0.41398218 0.1242484 0.0787712

critic.last.model.0.weight f4 [1, 64]
00000000: a8c7 c33d 83d2 c93c e7ba 1a3e ff71 87bd
00000010: e7e8 6bbe 981e fe3c 5920 4dbe 4b1b 1dbd
00000020: 826e f0bc 5f75 163e ebd3 07bd 8817 083e
00000030: 7b74 35bc a2d0 94bd fa87 dbbc 1d04 d1bd
00000040: 4d09 643e 8178 20be 71f5 01be c6c7 b8bd
00000050: d2e5 fdbc a32b 083e 80cb 99be 55b1 fdbd
00000060: ade6 8b3c 0cd5 343e e977 57be d1a6 463e
00000070: e989 d93d 5152 eb3c aeae 92be e38d 59be
00000080: 8be2 b83d 5273 27bc f01a a43d e83b de3d
00000090: cb65 cb3e 6bcc a4be 38f5 a2be 349e b5bc
000000a0: a2e7 463e 98fb e93c 90e1 84be 9dad 91be
000000b0: 1baf 9b3d 080a 54be a173 68be d796 b63d
000000c0: 030a bebd 7fb0 263d ca67 253e 626f 8a3e
000000d0: d3c8 0abf 0d24 2c3e b91f 16be b359 c6bd
000000e0: 3fc8 f23e 79fc 683d c4c4 07bf b49e 493e
000000f0: ca6e 063e 3ca2 91be cf20 e53d cdad c23c
0.09559566 0.024636513 0.1511036 -0.0661354 -0.23038064 0.031020448 -0.20031871 -0.038356107
-0.02934957 0.14693211 -0.033161085 0.13290226 -0.011075134 -0.07266356 -0.026798237 -0.10205863
0.22269173 -0.15670969 -0.12691285 -0.09022479 -0.030993376 0.13297896 -0.3003807 -0.12387339
0.017077768 0.17659396 -0.21041836 0.19399573 0.106220074 0.028725775 -0.28648895 -0.21245532
0.09027585 -0.010220366 0.080129504 0.1085127 0.397261 -0.3218721 -0.31827712 -0.022170164
0.19424298 0.028562352 -0.2595334 -0.2845277 0.07601758 -0.20706952 -0.22700359 0.08915489
-0.09279253 0.040695664 0.16152874 0.27038103 -0.54212683 0.16810627 -0.14660539 -0.096850775
0.474184 0.0568814 -0.53034616 0.19689447 0.131282 -0.28444088 0.11187898 0.023764515

_actor_critic.actor.sigma_param f4 [6, 1]
00000000: 62b1 2abf bebd 27bf 946d 46bf bb77 01bf
00000010: a173 80bf 5454 87bf
-0.66676915 -0.655239 -0.7751095 -0.5057332 -1.0035287 -1.057261

_actor_critic.actor.preprocess.model.model.0.weight f4 [64, 17]
00000000: 6b60 123e 5ac6 2d3d ad52 03be c336 903d
00000010: 6fec 4fbe ebff 4abe c101 983c 37f3 b6be
00000020: d772 84bd 2242 06be 3d00 84be daca 98bc
00000030: f1d7 6e3d 119a 7d3e c6d6 8fbe 6889 963c
00000040: bb76 153f 25ae 7f3e 9d78 2fbe c3c1 f9ba
00000050: 20e2 f13a 4acf 09be 1ced 883e bcd4 263e
00000060: 932a 803e 08d7 36be 2661 85be 08a3 45be
00000070: 3851 d8bd 986b 2e3e 1ea1 8c3d b2ca 593e
00000080: b4c8 7ebe 92b2 24be f6df b8be 643b 87be
00000090: 5309 293e 02a1 c9bc d0c9 96be cccd c13d
000000a0: e1d2 c0bb 14f9 2ebe e3ca 60be f934 a03e
000000b0: 2a41 dfbd 6079 4b3d cab2 edbb 2012 d93d
000000c0: 8477 c43d cffb c83e 5ae7 b9bd b44d 5b3e
000000d0: 34f0 cf3e 72ea 55be 9970 ce3d 2dc7 0cbe
000000e0: 2fe1 913d 467c 763c fec9 d73d 46d2 5bbc
000000f0: 4815 74bd 521f 7abe cf24 1f3e c14f 20be
00000100: 6000 fa3b f481 a6bd f7e6 42be 01eb b33e
00000110: 7b44 383e cbff bebe a5b5 1c3e c37b 68be
00000120: 4351 bcbd 5ebd da3d c7eb d83d 5c5c fa3b
00000130: 5b1d babe 0760 223e 5371 403e 9513 bbbd
00000140: aa33 44be 65a5 c8bd 202a 943e ed70 48be
00000150: 7aad d1bd f387 91bc 4155 df3e fdb4 79bd
00000160: 777e 16be 0824 ca3e 51a3 c5bd ff88 71bd
00000170: f477 0b3e 8181 8e3e 81ac 43bc 5d6a 003d
00000180: 7e4a 0d3e 5665 54be 92fc 023d be6f 6bbe
00000190: bec3 253e c8e5 b93e 2abb db3e 5782 15bd
000001a0: 3f03 b0be ac6a ad3d e335 17be 61c0 38bc
000001b0: 1275 c6be 4b5a 17be a6ce d73d d4a2 f1bd
000001c0: c8f1 cb3d 5298 703d 7ce5 363e 2701 5fbe
000001d0: de27 993d 13a5 513e aa47 d43e 5e4f c03c
000001e0: e804 5bbe 5d13 36be b0d1 ec3d 7136 84bd
000001f0: 17a1 a4be 61bd 4d3e 5d7a 43be 6239 1d3d
00000200: c3d3 c23e 66c3 103f c85e 75bd 264e 4d3d
00000210: 2038 99be 92e2 64be 2cd9 25be a387 0c3e
00000220: 9722 92be d1bc 763d 13bc a33d a260 2bbd
00000230: b4c0 63be c435 593e ec68 f03d 3a32 103e
00000240: f66c 13be 542c 7ebe 4d1b b63d 22e9 9e3e
00000250: 309f 1e3e d63c dbbd f533 583c 69e2 ae3c
00000260: 4cb0 26be 8c8c 44be 4a2b e23d cdb2 153e
00000270: 929e 4b3e 2318 393d 5dcd 1b3d 34ef 43be
00000280: 9a44 dc3e 31e5 0e3e a60e 383e 6ca2 0b3e
00000290: 51d8 eebe cfbc 043c 2b90 d4bd c708 21bd
000002a0: f635 0a3d e79a 89bc 315f 033e f55e 0cbf
000002b0: c1d4 8bbd 76b9 5e3d 318c 80bd 73e5 6d3e
000002c0: bd93 a3be c530 873e e6bd f7be 221e 0d3e
000002d0: ab45 4c3e b13e c03d 4744 ce3d 462c 113e
000002e0: 7cf7 00bc f65c 4d3e 1e3c 96be 139f 5fbe
000002f0: f69c 10be e3c7 b23d 01d2 6a3e 096d 523d
00000300: e833 9d3e f30b 233d 3349 b5be 5669 12be
00000310: 503e 063f 292f 88bd cf36 723e 83ab e03e
00000320: c055 5f3c 465c a03e f341 1fbe 75ce 1c3d
00000330: 8d32 57bd 8855 423d efd3 683e 41a3 43bd
00000340: 4a58 a6bd 779c e2bd 7b5a 713e 315f 1cbe
00000350: 5a72 623d cffe e73d 4a95 07be 2981 4a3d
00000360: ce95 e6bd d4e7 1ebd bc12 82bc 39b8 67be
00000370: 1305 6cbe 6b81 2bbe e03a 593e 9214 9cbe
00000380: c952 b63d 8636 f13d ee1c cfbe f060 20be
00000390: 2967 9a3e a5ff 023e a000 683e b052 893e
000003a0: 749f 68bd 53dc fcbd 604d b93d 0e38 063e
000003b0: 84e7 8fbe 7198 a6bb 928f 4a3c 961c 00bf
000003c0: c270 89bd c3f2 9a3d 4a5e 293d 9e0b 9a3c
000003d0: 42e4 d93d c282 883b 6aed 7fbe 0179 8fbd
000003e0: 0b21 d8bc c833 1a3e 15b0 3fbd 131c 13be
000003f0: 1c55 1c3c 74a1 713d 6a86 ef3d 4bce b33d
0.14294593 0.04242549 -0.12824507 0.07041695 -0.20305036 -0.19824187 0.018555524 -0.35732433
-0.064672165 -0.13111165 -0.25781432 -0.018651415 0.058311407 0.24765803 -0.28093547 0.018376067
0.58384293 0.24968775 -0.17135854 -0.0019054938 0.0018454231 -0.13457981 0.267434 0.16292089
0.25032482 -0.17855465 -0.2605068 -0.19300473 -0.10562366 0.17033231 0.06866668 0.21268728
-0.2488125 -0.16083744 -0.3610837 -0.264125 0.16507463 -0.024612907 -0.29450846 0.09463081
-0.0058845137 -0.17087203 -0.21952395 0.31290415 -0.10901101 0.0496763 -0.0072539793 0.1059916
0.09593108 0.39254615 -0.0907733 0.2141636 0.40612948 -0.20890215 0.1008007 -0.13747855
0.071230285 0.0150442775 0.10536574 -0.013416832 -0.059590608 -0.2442601 0.15541385 -0.15655424
0.0076294392 -0.08130255 -0.19033419 0.3514023 0.17994873 -0.3730453 0.15303667 -0.22703461
-0.09195187 0.1068065 0.10591846 0.0076404046 -0.3635052 0.15856944 0.1879323 -0.09134594
-0.19160333 -0.097971715 0.2893839 -0.19574328 -0.10238166 -0.017765021 0.4361973 -0.06096362
-0.1469668 0.39480615 -0.09650291 -0.05896854 0.13619977 0.2783318 -0.011942984 0.031351436
0.13797948 -0.20741782 0.03197915 -0.22991845 0.16187951 0.36308122 0.42916232 -0.036501255
-0.34377477 0.08467612 -0.1476665 -0.011276335 -0.38761193 -0.14780538 0.10537462 -0.11798635
0.099582255 0.058739014 0.17860979 -0.21777783 0.07478307 0.20473127 0.41460925 0.023475345
-0.2138859 -0.17780824 0.11563432 -0.064556964 -0.32154152 0.20091774 -0.19089647 0.038384803
0.38052186 0.56548154 -0.059904844 0.050123356 -0.29925632 -0.22352055 -0.16196126 0.13723616
-0.28542015 0.060238663 0.07994857 -0.041840203 -0.22241479 0.21211916 0.11738762 0.1408166
-0.14397034 -0.24821597 0.08891926 0.3103724 0.15490413 -0.10704963 0.013195981 0.021348195
-0.1627819 -0.1919424 0.11043413 0.14618988 0.19884709 0.045189034 0.038037647 -0.19134218
0.4302109 0.13954617 0.17974338 0.13636178 -0.4664941 0.008101656 -0.1037906 -0.03931501
0.033742867 -0.016797496 0.12829281 -0.5483239 -0.06827689 0.054376088 -0.062767394 0.23232059
-0.31948653 0.26404396 -0.4838707 0.13781026 0.19948451 0.093869574 0.100716166 0.14177045
-0.007871505 0.20054993 -0.2934274 -0.21838026 -0.14122376 0.087295316 0.22931673 0.051373515
0.30703664 0.039806318 -0.3540741 -0.14297995 0.5243883 -0.0664962 0.2365372 0.43880853
0.013631284 0.313204 -0.15552501 0.03828283 -0.052538443 0.04744485 0.22737096 -0.047763113
-0.081223086 -0.110649996 0.23569672 -0.15270688 0.055284835 0.11327898 -0.13240543 0.049439583
-0.11259042 -0.038795307 -0.015878074 -0.22628869 -0.2304881 -0.16748588 0.21213865 -0.30484444
0.08902509 0.11777978 -0.4045176 -0.15661979 0.3015683 0.12792833 0.22656488 0.26820898
-0.05679269 -0.12346711 0.09047961 0.1310732 -0.2810632 -0.0050840904 0.012363331 -0.5004362
-0.0671096 0.075658344 0.041349687 0.018804368 0.1063924 0.004165978 -0.2499291 -0.070055015
-0.026382944 0.15058815 -0.046798784 -0.14366178 0.009541776 0.058991864 0.11695559 0.08779582

_actor_critic.actor.preprocess.model.model.0.bias f4 [64]
00000000: 7bd4 953c 15c8 133e 5031 1a3e e4e7 073e
00000010: daa0 923e eb6f 073e 5182 a3be fffb 66be
00000020: 60b2 95be 2888 6a3e cff2 403d 5d91 ed3e
00000030: ca86 d83e 7696 a5be 24d4 d8be 2b68 5abe
00000040: 317e 093d 539c 90be 27dc 80be 7f13 6abe
00000050: 44d1 c0be 4c40 e63e c4af c13e b8c5 a43e
00000060: 739a 553e c729 043f 7bea babe ba1c b43e
00000070: c6ff e3be 87ae c93e 135b 713e 942a 1cbe
00000080: 1848 8c3e e4a8 9fbe 6e83 77be 7742 8bbe
00000090: 5a52 44be 798b b63e 9ed7 9abe af89 813d
000000a0: c09e e23d b479 d0bd bb12 58be 77e5 b43e
000000b0: 8bbd d9bd f5c7 d23e 3c02 b63d 00ac b5be
000000c0: a09f 86be ee61 b63e c9e5 b1be 5abe 00bc
000000d0: 7776 823d 9e72 ba3e 8f0a ca3e d2e8 c4be
000000e0: 4239 94be e982 d33d fcf6 adbe a77f b5be
000000f0: 996d 323e 2cd5 6abe 3c0b 2e3e fd64 83be
0.018289795 0.14431794 0.15057874 0.13272053 0.28638345 0.13226287 -0.3193536 -0.22557066
-0.29237652 0.22903502 0.04710656 0.46399966 0.42290336 -0.32341355 -0.4234935 -0.213288
0.03356761 -0.28244266 -0.25167963 -0.22859 -0.37659657 0.4497093 0.3782941 0.32182097
0.20859699 0.5162625 -0.3650702 0.35178167 -0.44531077 0.39390966 0.23569898 -0.15250617
0.27398753 -0.3118354 -0.2417123 -0.27199146 -0.1917204 0.35653284 -0.30242628 0.06325089
0.110654354 -0.10179463 -0.21100895 0.35331318 -0.106318556 0.4116818 0.08887145 -0.35482788
-0.2629366 0.3562159 -0.34745625 -0.007857883 0.063702516 0.3641557 0.3946118 -0.38458878
-0.28949934 0.103277035 -0.33977497 -0.35448954 0.1742462 -0.22932881 0.16996473 -0.25662985
