results/Ant-v3/a2c/4/220625-184804/policy.pth (torch, 103972 bytes, 24 tensors)

actor.sigma_param f4 [8, 1]
-2.1286588 -2.1183379 -2.1362484 -2.6598544 -2.233886 -2.1804523 -2.1304355 -2.130859
00000000: f23b 08c0 d992 07c0 4bb8 08c0 0e3b 2ac0
00000010: fdf7 0ec0 888c 0bc0 0e59 08c0 fe5f 08c0

actor.preprocess.model.model.0.weight f4 [64, 111]
-0.17862275 -0.011643924 -0.064346455 0.10182178 0.2858451 0.25570652 -0.272566 0.103294775
0.16886301 -0.11753418 0.09498209 -0.06666691 -0.06488181 0.2608333 0.031038312 0.083070725
-0.03140608 0.042081986 0.036396388 0.5712297 0.18895459 0.015302291 0.06478997 -0.26941594
0.11156214 -0.020788258 -0.1559793 0.10877058 0.20774497 0.0900568 -0.116126776 -0.2556376
0.14026193 0.11013719 0.03500061 -0.15459122 -0.07192989 -0.16386814 -0.15956032 -0.19366398
0.045489524 -0.104208976 -0.24093707 0.24200895 0.06028131 -0.022102237 0.045149837 0.05825708
0.21134469 0.0075979587 0.1987542 0.07671682 0.22517946 0.18425104 0.0112266475 0.00040203476
-0.21213543 -0.33070272 -0.14871891 -0.052186094 -0.09538391 -0.011069707 0.2936894 0.13496038
-0.2824229 -0.08062774 -0.10503701 0.024028586 -0.29747978 -0.219981 0.02563494 0.058677807
0.12813087 0.3299392 -0.021963403 0.08489008 -0.10418239 -0.22679996 0.08654698 0.02492312
-0.1079573 -0.05065892 -0.0075207124 -0.12144105 -0.11202117 -0.13512394 0.015411976 -0.04449785
0.13377066 -0.017130194 -0.12143905 -0.19607 0.013953748 -0.03188911 -0.0011662387 -0.043147497
-0.025748724 -0.08973292 -0.039693173 0.012573885 0.0122963255 0.0001944589 0.094624564 -0.19945675
0.13603064 -0.17056958 0.01068256 -0.11177061 -0.13250722 0.07373182 -0.14536723 0.2259613
-0.33747125 -0.22512425 0.16393726 0.13076355 0.17595984 -0.07885614 -0.09846248 -0.32478905
-0.1625361 0.013826398 0.1840632 0.113049544 -0.08554431 0.034276355 0.06758292 0.030620256
-0.021284316 0.18610708 0.18511581 -0.0054101474 -0.13310383 0.08367223 0.054952063 0.051610496
-0.15895753 -0.17551221 -0.10688479 0.114135034 0.121372364 0.17192943 -0.008183685 -0.04418355
-0.16053881 0.23709884 0.15639317 0.06240576 0.03362161 -0.1294322 -0.25468463 -0.030527152
0.09091605 0.085106045 -0.14508565 -0.07664746 0.19418582 0.20399195 0.020549377 -0.14213203
-0.008937873 -0.11133438 -0.16817458 0.09361763 -0.09986887 0.27589235 0.13775831 -0.0014310359
0.1574123 -0.1325085 -0.15989777 0.0040819566 -0.18214524 -0.04802859 0.01855509 -0.15596423
-0.14763744 0.10168259 -0.1066379 0.096873336 0.1679089 -0.23177628 0.051161196 0.17076139
-0.053587887 -0.25535706 0.1269603 -0.09350383 -0.11339972 -0.014809092 0.1502284 -0.18826239
-0.016084896 -0.13734792 -0.08984479 0.046985645 -0.107166834 0.115644984 0.022604218 0.1390194
0.18730359 -0.026217075 0.11485986 0.07787732 0.19469342 -0.08869763 -0.1333528 0.091515176
-0.12843154 -0.037060153 -0.06989964 0.10542506 0.1538509 0.23678961 -0.04010472 0.18530737
0.052000586 0.049695868 0.15439075 -0.101086296 -0.0802375 -0.3144844 0.35571072 -0.15999857
0.14693053 -0.10679765 0.1579376 0.058449324 -0.11595311 -0.27691773 0.01043038 -0.00090608746
0.15698172 -0.050170302 -0.25666192 0.051401038 -0.06639682 0.22420903 -0.051277928 -0.18376844
0.07848405 0.020402256 -0.18703598 -0.03798211 -0.18461585 -0.08451361 0.3999991 -0.1482526
-0.2223112 -0.084539525 0.1461136 -0.014342638 0.019722147 -0.13303544 0.11425534 -0.1038862
00000000: e2e8 36be 28c6 3ebc 13c8 83bd f087 d03d
00000010: 4a5a 923e f7eb 823e c58d 8bbe 368c d33d
00000020: 6dea 2c3e c3b5 f0bd f885 c23d a988 88bd
00000030: c1e0 84bd f18b 853e 0f44 fe3c fc20 aa3d
00000040: a9a3 00bd 295e 2c3d 6114 153d 1c3c 123f
00000050: 507d 413e 76b6 7a3c 9bb0 843d e3f0 89be
00000060: b17a e43d 234c aabc 0ab9 1fbe 1cc3 de3d
00000070: 19bb 543e b36f b83d e0d3 edbd eee2 82be
00000080: d3a0 0f3e 9b8f e13d cd5c 0f3d 294d 1ebe
00000090: fa4f 93bd 0dcd 27be c863 23be da4f 46be
000000a0: 3953 3a3d 846b d5bd 35b8 76be 32d1 773e
000000b0: 89e9 763d c00f b5bc 09ef 383d fa9e 6e3d
000000c0: be6a 583e 4cf8 f83b 3986 4b3e b51d 9d3d
000000d0: 7295 663e 4eac 3c3e f9ef 373c 31c8 d239
000000e0: 083a 59be de51 a9be c549 18be 16c1 55bd
000000f0: a458 c3bd b75d 35bc 755e 963e 0e33 0a3e
00000100: bc99 90be 2820 a5bd a51d d7bd 99d7 c43c
00000110: 454f 98be b342 61be 5e00 d23c 2458 703d
00000120: bd34 033e caed a83e 98ec b3bc dada ad3d
00000130: 945d d5bd 403e 68be 8b3f b13d 922b cc3c
00000140: b818 ddbd ba7f 4fbd 4f70 f6bb 16b6 f8bd
00000150: 5b6b e5bd ee5d 0abe 8382 7c3c 6143 36bd
00000160: 2dfb 083e 9f54 8cbc 09b5 f8bd 93c6 48be
00000170: 439e 643c 289e 02bd 7adc 98ba 6ebb 30bd
00000180: fdee d2bc e5c5 b7bd 4f95 22bd b202 4e3c
00000190: 8776 493c aae7 4b39 86ca c13d 643e 4cbe
000001a0: 9e4b 0b3e cba9 2ebe e705 2f3c fde7 e4bd
000001b0: f9af 07be b500 973d 26db 14be 6662 673e
000001c0: 08c9 acbe f986 66be 2bdf 273e e1e6 053e
000001d0: d12e 343e 547f a1bd b2a6 c9bd c04a a6be
000001e0: dd6f 26be 1e88 623c 107b 3c3e 8586 e73d
000001f0: db31 afbd 5d65 0c3d ea68 8a3d 55d7 fa3c
00000200: 725c aebc db92 3e3e 008f 3d3e 9b47 b1bb
00000210: 5f4c 08be 595c ab3d 6a15 613d 8765 533d
00000220: c3c5 22be 79b9 33be 6ae6 dabd a1bf e93d
00000230: 1392 f83d 450e 303e dd14 06bc cff9 34bd
00000240: 4964 24be 0aca 723e 8825 203e 2f9d 7f3d
00000250: d0b6 093d e089 04be 0666 82be 1414 fabc
00000260: 3232 ba3d 144c ae3d 5591 14be 58f9 9cbd
00000270: a6d8 463e 44e3 503e 2b57 a83c 0f8b 11be
00000280: 2870 12bc 4803 e4bd f535 2cbe 9aba bf3d
00000290: 0d88 ccbd c341 8d3e 8410 0d3e 9991 bbba
000002a0: b130 213e 4fb0 07be 3ebc 23be efc1 853b
000002b0: 4884 3abe a0b9 44bd d800 983c 16b5 1fbe
000002c0: 452e 17be f63e d03d f964 dabd 8765 c63d
000002d0: 50f0 2b3e c356 6dbe 678e 513d 13dc 2e3e
000002e0: f97e 5bbd 29be 82be e201 023e f07e bfbd
000002f0: 1d3e e8bd d5a1 72bc 79d5 193e dbc7 40be
00000300: 79c4 83bc efa4 0cbe 8c00 b8bd 0574 403d
00000310: 497a dbbd 47d7 ec3d 7b2c b93c 1a5b 0e3e
00000320: 83cc 3f3e 31c5 d6bc a53b eb3d 257e 9f3d
00000330: b65d 473e 1aa7 b5bd a38d 08be 4f6c bb3d
00000340: 8f83 03be 63cc 17bd 8b27 8fbd 18e9 d73d
00000350: 178b 1d3e fa78 723e d944 24bd 37c1 3d3e
00000360: 91fe 543d e58d 4b3d 9c18 1e3e 5506 cfbd
00000370: 8f53 a4bd 1904 a1be b71f b63e aad6 23be
00000380: f574 163e bab8 dabd 65ba 213e 8f68 6f3d
00000390: d378 edbd 29c8 8dbe 2fe4 2a3c 8086 6dba
000003a0: d1bf 203e 607f 4dbd 3169 83be e589 523d
000003b0: 0efb 87bd 0d97 653e ce08 52bd cb2d 3cbe
000003c0: 3fbc a03d a222 a73c 5c86 3fbe 2193 1bbd
000003d0: f00b 3dbe 7915 adbd afcc cc3e 88cf 17be
000003e0: 8ca5 63be 0f23 adbd ce9e 153e 62fd 6abc
000003f0: 5790 a13c 713a 08be b4fe e93d 4ac2 d4bd

actor.preprocess.model.model.0.bias f4 [64]
0.114232264 -0.006493594 0.09137038 -0.04687773 0.0791472 0.15087979 -0.07233515 -0.043740258
-0.104876116 0.23493767 0.08284962 -0.19641072 -0.06716475 -0.10078476 -0.23742022 0.007304499
-0.17159256 0.0041788924 0.008862093 0.2349485 0.002194332 0.14437106 -0.21292801 0.09188567
-0.058925413 -0.059714522 -0.104034714 0.05197138 -0.0738269 0.0559948 0.018919516 -0.07108816
-0.12899803 0.22368254 0.0790719 0.073164366 -0.03815903 -0.18467394 -0.008744292 0.0040161656
-0.16136575 -0.14613825 -0.0099974 0.007845916 -0.16343859 0.09682661 0.14053619 0.17352791
0.06416925 -0.082607396 -0.18523715 0.06742661 -0.06648937 -0.1844968 0.12809272 -0.039899033
0.15539648 0.03166938 -0.020436408 -0.13794485 0.073086634 0.07042922 -0.0132180955 -0.075812854
00000000: 9bf2 e93d 37c8 d4bb 6520 bb3d dd02 40bd
00000010: ed17 a23d 3b80 1a3e 7324 94bd fc28 33bd
00000020: 4ac9 d6bd 8093 703e 10ad a93d e41f 49be
00000030: ac8d 89bd 3e68 cebd 491e 73be 945a ef3b
00000040: f6b5 2fbe 17ef 883b 5032 113c 5796 703e
00000050: c8ce 0f3b 02d6 133e cd09 5abe 8e2e bc3d
00000060: c65b 71bd 3797 74bd 2710 d5bd f1df 543d
00000070: 8f32 97bd ce5a 653d 1afd 9a3c ab96 91bd
00000080: 0f18 04be 090d 653e 73f0 a13d 33d7 953d
00000090: a54c 1cbd 2a1b 3dbe 3844 0fbc 0a9a 833b
000000a0: 103d 25be 44a5 15be 23cc 23bc 288c 003c
000000b0: 725c 27be 084d c63d b8e8 0f3e 4db1 313e
000000c0: 2b6b 833d 112e a9bd cfae 3dbe f616 8a3d
000000d0: 942b 88bd bbec 3cbe bd2a 033e 2b6d 23bd
000000e0: 4120 1f3e c0b7 013d 416a a7bc 6a41 0dbe
000000f0: 72ae 953d 323d 903d b690 58bc c543 9bbd

actor.preprocess.model.model.2.weight f4 [64, 64]
-0.09334589 0.13105632 -0.2038703 0.19580062 0.014811653 0.2893091 0.2570863 -0.055741303
-0.11677739 -0.017651865 0.088967316 0.13326758 -0.20633695 -0.05872605 0.080578454 0.08430776
-0.11575911 0.12662788 -0.03053077 -0.056853496 0.2629655 0.11000284 -0.20797093 0.060076248
0.33755332 0.014483805 -0.30910584 0.02996882 -0.2688149 0.13666159 0.11019384 0.0137662655
0.22094475 -0.11126518 0.042764887 -0.08170649 0.25045982 0.41585594 -0.13426009 -0.3437324
0.05363731 0.15108763 0.17737691 0.14197916 -0.0093068695 0.17243777 -0.3593315 0.01556597
0.15285635 0.3521437 -0.0328725 0.018666977 0.21088335 0.24699034 0.14716767 -0.014486848
-0.124865286 0.14589556 -0.095376015 0.21203673 -0.4537324 0.10996394 0.059495583 0.14214204
-0.14134625 0.07340954 0.21998121 0.16744958 -0.24148819 -0.2786912 0.16714044 0.23347305
0.0019469263 0.08116474 0.14591515 0.23199426 0.43664438 -0.119639196 -0.22035868 0.12816292
-0.29584074 0.09812275 0.18550481 -0.07462979 0.3255906 0.25265455 -0.07090523 -0.111464456
0.3475318 -0.21717711 0.061290506 0.2851906 -0.02088783 0.011710388 -0.16780534 -0.0114618745
0.08127838 0.06837963 0.10455286 -0.265714 -0.022168836 0.29893228 0.1313637 0.035765026
0.04613141 0.28206646 0.16755562 0.11172159 0.14495516 0.2196822 -0.26848426 0.08346286
0.25286153 -0.2975877 0.11727771 -0.119726084 -0.045718934 0.3136632 -0.009455891 0.029415885
-0.059851386 0.15746315 0.089109056 -0.27187228 0.13018014 0.15192956 -0.09865284 0.050613366
0.29470527 -0.0029815626 -0.13031548 -0.16047928 0.117153674 -0.2069246 -0.06374375 0.200434
0.36906016 -0.18949074 0.09808769 0.21880774 -0.059897672 -0.124576904 0.29976416 0.008594271
0.38245937 0.015602835 -0.14347275 -0.20426781 -0.034818646 0.027973972 0.18301976 -0.23531431
-0.010090564 -0.2194448 -0.10587283 -0.07077758 -0.043262713 -0.02915994 0.07901696 -0.18141726
-0.19626127 0.033754498 -0.13307126 0.06871503 0.20599838 0.1584708 -0.17871425 0.14473005
0.26785436 -0.06904652 -0.22017464 -0.30874628 -0.09694701 -0.11273829 -0.29136074 0.23899333
-0.0014343051 -0.23899573 0.112026796 -0.17294 -0.054141402 0.27988562 0.029004453 0.15093799
-0.08640223 0.16872372 0.45621487 0.22018011 0.024806602 0.17364188 0.2068321 -0.09785667
0.10113032 -0.1510595 -0.47897193 -0.099521965 -0.0072561637 -0.18217856 -0.04997863 0.19889149
-0.11724352 0.0037770465 0.2568966 0.09871494 -0.18037419 -0.21131882 0.019201223 -0.113926336
-0.25724202 -0.024513505 -0.059361126 0.30112898 -0.027195195 0.011581074 -0.032040425 0.29214668
0.23420885 -0.0758237 0.02409916 0.20652609 -0.07652651 0.053559497 -0.07530359 0.05906782
-0.06831293 -0.06998667 -0.31022388 -0.02743404 0.026044935 0.047575668 -0.03346121 0.10475444
-0.0753333 0.11446834 -0.2593412 0.0004619944 -0.24662258 0.2192399 -0.13238059 0.20597094
-0.29925162 -0.0037386157 0.27797553 0.21204345 0.106158555 -0.24430822 -0.23469113 -0.17346112
0.20116775 0.09078546 -0.08748708 0.006347334 0.10922025 -0.23334257 0.16505152 0.055451516
00000000: 212c bfbd a133 063e 60c3 50be f57f 483e
00000010: 93ac 723c 5320 943e d1a0 833e fe50 64bd
00000020: fc28 efbd a59a 90bc 7f34 b63d 4c77 083e
00000030: fe49 53be ba8a 70bd 5106 a53d 8ca9 ac3d
00000040: 1d13 edbd bdaa 013e aa1b fabc 36df 68bd
00000050: 6aa3 863e 2b49 e13d 55f6 54be 8312 763d
00000060: cad3 ac3e 7b4d 6d3c 1f43 9ebe 2c81 f53c
00000070: 1ba2 89be 04f1 0b3e 4fad e13d e78b 613c
00000080: 573f 623e 00df e3bd 3c2a 2f3d bb55 a7bd
00000090: 453c 803e 12eb d43e 7a7b 09be b1fd afbe
000000a0: ccb2 5b3d b7b6 1a3e 4ba2 353e fc62 113e
000000b0: d77b 18bc 8793 303e 4cfa b7be 6908 7f3c
000000c0: 6086 1c3e 2e4c b43e 51a5 06bd 7deb 983c
000000d0: cef1 573e 09eb 7c3e 1fb3 163e 3f5a 6dbc
000000e0: 5fb9 ffbd a565 153e 8054 c3bd 2820 593e
000000f0: 9d4f e8be c634 e13d a4b1 733d af8d 113e
00000100: 12bd 10be be57 963d c142 613e e777 2b3e
00000110: ae48 77be 9db0 8ebe dd26 2b3e 8f13 6f3e
00000120: 0230 ff3a b339 a63d c86a 153e e78f 6d3e
00000130: da8f df3e 6505 f5bd b5a5 61be 243d 033e
00000140: 7078 97be 95f4 c83d f9f4 3d3e 81d7 98bd
00000150: d0b3 a63e f05b 813e c336 91bd 7a47 e4bd
00000160: b0ef b13e ad63 5ebe c10b 7b3d 8104 923e
00000170: f41c abbc eddc 3f3c 2ad5 2bbe 96ca 3bbc
00000180: 4775 a63d 9f0a 8c3d cf1f d63d aa0b 88be
00000190: 6b9b b5bc a70d 993e 3584 063e 597e 123d
000001a0: 4af4 3c3d 046b 903e b393 2b3e 4ace e43d
000001b0: 206f 143e 5ff4 603e c576 89be 93ee aa3d
000001c0: 1177 813e 6a5d 98be 4c2f f03d f332 f5bd
000001d0: c743 3bbd 7798 a03e e2ec 1abc 95f9 f03c
000001e0: ba26 75bd 053e 213e cf7e b63d d832 8bbe
000001f0: f14d 053e 6c93 1b3e 800a cabd f64f 4f3d
00000200: 9ce3 963e 5266 43bb 6c71 05be ae54 24be
00000210: 44ee ef3d 0be4 53be 158c 82bd 923e 4d3e
00000220: 74f5 bc3e dc09 42be 33e2 c83d 230f 603e
00000230: 4357 75bd 2d22 ffbd b07a 993e fcce 0c3c
00000240: b7d1 c33e 09a3 7f3c 85ea 12be 952b 51be
00000250: ff9d 0ebd ac29 e53c 8869 3b3e 3cf6 70be
00000260: e552 25bc 23b6 60be dbd3 d8bd d6f3 90bd
00000270: 3e34 31bd d4e0 eebc a5d3 a13d 72c5 39be
00000280: b7f8 48be 2842 0a3d d543 08be 77ba 8c3d
00000290: 3df1 523e 2b46 223e de00 37be 1d34 143e
000002a0: 3524 893e 4368 8dbd 7675 61be fe13 9ebe
000002b0: 278c c6bd 55e3 e6bd 3c2d 95be abba 743e
000002c0: 4bff bbba 4cbb 74be 4e6e e53d 2f17 31be
000002d0: 60c3 5dbd 2b4d 8f3e bf9a ed3c 7d8f 1a3e
000002e0: a7f3 b0bd e9c5 2c3e ff94 e93e e576 613e
000002f0: 3737 cb3c 2dcf 313e cbcb 533e 1469 c8bd
00000300: 6a1d cf3d 57af 1abe cf3b f5be 2cd2 cbbd
00000310: 1dc5 edbb 048d 3abe 64b6 4cbd 36aa 4b3e
00000320: 5f1d f0bd 5388 773b f387 833e 0f2b ca3d
00000330: 03b4 38be f663 58be e24b 9d3c 3652 e9bd
00000340: 3ab5 83be 8cd0 c8bc a724 73bd 942d 9a3e
00000350: 75c8 debc 8cbe 3d3c d23c 03bd 4094 953e
00000360: 72d4 6f3e 7549 9bbd 9a6b c53c 937b 533e
00000370: eeb9 9cbd 3461 5b3d c538 9abd 19f1 713d
00000380: a6e7 8bbd 2c55 8fbd aad5 9ebe 5abd e0bc
00000390: 305c d53c b4de 423d 9f0e 09bd 7f89 d63d
000003a0: 5848 9abd 616e ea3d 5fc8 84be d737 f239
000003b0: a18a 7cbe 6d80 603e c78e 07be 0cea 523e
000003c0: 8237 99be 9003 75bb cf52 8e3e eb21 593e
000003d0: a869 d93d ef2b 7abe df52 70be cb9f 31be
000003e0: ebfe 4d3e baed b93d 6d2c b3bd 4cfd cf3b
000003f0: deae df3d 5bf1 6ebe 4403 293e 2121 633d

actor.preprocess.model.model.2.bias f4 [64]
-0.13590275 -0.13768774 -0.30111137 0.06614554 -0.2258122 0.03716955 0.13849798 0.0053302734
-0.13191716 -0.045570247 -0.14876787 0.024210673 -0.0384682 -0.13046679 -0.26131755 -0.13749768
0.1412346 -0.11556327 -0.16697514 0.034305133 0.019868841 -0.093359396 0.022934033 0.10585988
-0.097674824 0.17669195 -0.06111088 0.053392265 -0.14748435 0.009575762 -0.036116324 -0.04379349
-0.017739736 0.16529869 -0.10176103 0.05777708 -0.14524771 0.06517905 0.20703664 -0.028793547
0.10734574 -0.06652963 -0.1447853 -0.034234602 0.13577917 0.053239368 0.0539698 0.082969815
0.0062340484 0.14400217 0.1358782 -0.16296306 -0.08837974 -0.1406922 -0.11028437 0.1518393
0.12455885 0.06420301 0.0079513965 -0.057387903 -0.05179709 0.10530211 0.043498382 -0.08235574
00000000: 172a 0bbe 04fe 0cbe 452b 9abe 5077 873d
00000010: 503b 67be 193f 183d 6ad2 0d3e 93a9 ae3b
00000020: 4b15 07be dea7 3abd 9b56 18be 7655 c63c
00000030: d590 1dbd 1699 05be 6acb 85be 31cc 0cbe
00000040: ce9f 103e 70ac ecbd 88fb 2abe 8a83 0c3d
00000050: fbc3 a23c 3633 bfbd 27e0 bb3c 11cd d83d
00000060: bd09 c8bd bcee 343e 674f 7abd d9b1 5a3d
00000070: 2306 17be a8e3 1c3c b6ee 13bd cd60 33bd
00000080: ec52 91bc 0f44 293e 1668 d0bd a9a7 6c3d
00000090: d1bb 14be 987c 853d 6a01 543e 72e0 ebbc
000000a0: 15d8 db3d b040 88bd 9942 14be 9539 0cbd
000000b0: b209 0b3e 8611 5a3d 700f 5d3d 14ec a93d
000000c0: fd46 cc3b 4e75 133e a823 0b3e cadf 26be
000000d0: 7000 b5bd 9e11 10be c6dc e1bd c37b 1b3e
000000e0: b618 ff3d de7c 833d 9346 023c 940f 6bbd
000000f0: 2f29 54bd a2a8 d73d 5c2b 323d 20aa a8bd

actor.mu.model.0.weight f4 [8, 64]
-0.0030078643 -0.047188383 -0.048352733 -0.010715733 -0.05897144 -0.0097256005 0.04345053 -0.023857662
0.0017121462 -0.04376417 -0.020834718 0.034866173 -0.00082290627 0.04425797 -0.0013300931 -0.039192695
0.058742218 -0.041127387 -0.0061836564 -0.004331343 -0.010716746 0.0056348117 0.02363643 -0.0134468265
0.02547055 0.016270181 -0.009682734 -0.07031381 -0.008180582 -0.00616988 0.0020993168 0.037656266
0.008317221 0.036136277 -0.023072053 -0.0032243705 -0.012818522 -0.058927927 0.08635386 0.025124231
0.058285214 -0.017993735 -0.0049628345 -0.016543576 -0.006549334 -0.0005342135 0.020274116 0.022012519
-0.0395411 0.039086483 0.026817752 0.0047462173 -0.0028793393 0.07078872 -0.0025662268 0.05490989
0.0007062001 0.019464836 -0.023547256 -0.0009108341 -0.0020827306 -0.0056853653 0.031189466 0.0024832347
0.014149893 0.036051966 0.02713569 -0.018989017 0.0628378 0.09954767 -0.114773765 -0.03887444
0.082033895 0.035752278 -0.012641639 -0.036345575 0.07235483 -0.079806976 -0.018376745 -0.0012434392
-0.017491514 0.0794786 0.026799759 -0.04347923 -0.0006912082 -0.007831599 -0.02976411 -0.039951354
-0.061151464 0.04086727 0.046556916 -0.07228554 0.042319436 -0.038543407 0.048578728 -0.043064427
-0.08366438 0.03264796 0.084471084 0.005142875 0.07644213 0.011028261 -0.030755775 0.0946459
0.016511772 0.0014145066 -0.03365489 0.035446506 0.10036556 -0.039378 0.036151327 -0.028034704
-0.016210375 -0.0013943379 0.022164872 0.09164672 -0.027549976 -0.03612338 -0.022292329 -0.05808452
-0.0054969555 0.027354015 0.0014707387 0.06390083 -0.027299738 -0.059472363 0.015632156 0.012668292
0.10915831 0.117827155 -0.035064667 0.004545217 0.036326364 -0.08598904 0.025171159 0.053151365
0.0070515415 -0.0010900884 -0.0537507 0.040321425 -0.0046060253 0.11527919 0.17089649 -0.109929025
-0.0152382655 0.01013437 0.090265855 -0.011241606 -0.06921426 0.01766758 0.09165884 -0.10447675
0.030044556 -0.013004551 -0.005834781 -0.080280416 0.06493855 -0.04613842 0.0306776 0.079625696
0.10769301 -0.07372555 0.03457274 0.046056215 0.160677 0.12098472 -0.0059326263 0.12706256
-0.06474389 0.02006981 0.023439214 -0.1199737 -0.09327309 0.012077163 0.061351664 -0.12972535
0.047394026 0.013083811 -0.050192624 0.03333416 0.02573943 0.13911317 -0.014301977 -0.005536678
-0.05329047 0.09503353 -0.023004796 -0.025168456 -0.07849917 0.06617731 -0.04898419 0.032644086
0.07044857 0.025194973 0.02804225 0.023988094 0.022792792 0.018880747 0.19369692 -0.020490376
0.052892532 -0.05421163 -0.0028425565 0.012310257 0.12572627 0.05818557 0.18997641 0.08502762
0.08679077 -0.079114646 0.052738156 0.03420255 0.038460623 0.0034545085 0.014198486 -0.023556452
0.00078169693 -0.07446625 0.023977552 -0.056917347 0.053922918 0.02677434 -0.035158202 -0.019474208
-0.001125299 0.020227615 -0.0048306687 -0.012421243 -0.005162856 -0.0439761 -0.064621724 -0.052828953
0.024665164 -0.019656276 0.016825298 0.020917114 0.033909503 -0.014916462 -0.007139212 -0.053086676
0.03690789 0.04613045 -0.07347538 0.03724232 0.037516713 0.0864892 0.028038371 0.013789532
-0.042093027 -0.031666026 -0.0101003 0.0060759624 0.057769258 -0.058231823 0.045617223 0.086771145
00000000: 971f 45bb 9b48 41bd 840d 46bd 0b91 2fbc
00000010: 098c 71bd 2058 1fbc 2ff9 313d 2571 c3bc
00000020: 186a e03a 0f42 33bd 92ad aabc d5cf 0e3d
00000030: 4eb8 57ba d847 353d 8556 aeba 8588 20bd
00000040: ae9b 703d 3175 28bd 45a0 cabb f0ed 8dbb
00000050: 4a95 2fbc 3aa4 b83b 30a1 c13c 1450 5cbc
00000060: 9da7 d03c 0b49 853c 54a4 1ebc b000 90bd
00000070: d907 06bc b42c cabb b194 093b 753d 1a3d
00000080: f444 083c a203 143d 9a01 bdbc f64f 53bb
00000090: c704 52bc 695e 71bd 4bda b03d 55d1 cd3c
000000a0: 7abc 6e3d 9967 93bc 469f a2bb 6586 87bc
000000b0: cc9b d6bb 760a 0cba e715 a63c 9953 b43c
000000c0: d9f5 21bd 2619 203d e7b0 db3c 2886 9b3b
000000d0: 4cb3 3cbb adf9 903d 242e 28bb 31e9 603d
000000e0: 4920 393a b874 9f3c 2de6 c0bc 0bc5 6eba
000000f0: 6c7e 08bb 4d4c babb 0d81 ff3c c4bd 223b
00000100: f4d4 673c 3aab 133d ab4b de3c db8e 9bbc
00000110: 1bb1 803d a6df cb3d 820e ebbd ce3a 1fbd
00000120: 6301 a83d fb70 123d e11e 4fbc 19df 14bd
00000130: c52e 943d d771 a3bd d48a 96bc e5fa a2ba
00000140: 5d4a 8fbc adc5 a23d 2b8b db3c 4717 32bd
00000150: 3232 35ba 1b50 00bc ddd3 f3bc 08a4 23bd
00000160: f579 7abd 7064 273d 77b2 3e3d 710a 94bd
00000170: 2557 2d3d b1df 1dbd 7dfa 463d 5364 30bd
00000180: 3b58 abbd deb9 053d 2dff ac3d 9085 a83b
00000190: b18d 9c3d e1af 343c 89f3 fbbc b6d5 c13d
000001a0: b243 873c f766 b93a b6d9 09bd 5b30 113d
000001b0: 758c cd3d d34a 21bd 6a13 143d 09a9 e5bc
000001c0: 9fcb 84bc 37c2 b6ba 1b93 b53c 47b1 bb3d
000001d0: 7db0 e1bc 1cf6 13bd 679e b6bc 09ea 6dbd
000001e0: ce1f b4bb 8715 e03c cdc5 c03a 70de 823d
000001f0: b3a3 dfbc 4b99 73bd 020f 803c ab8e 4f3c
00000200: 648e df3d 5d4f f13d f89f 0fbd 0bf0 943b
00000210: f4ca 143d 061b b0bd bf33 ce3c 3fb5 593d
00000220: 9e10 e73b 4ce1 8eba b229 5cbd 1428 253d
00000230: 24ee 96bb 7f17 ec3d 7dff 2e3e 7822 e1bd
00000240: eba9 79bc a10a 263c 4edd b83d b72e 38bc
00000250: 35c0 8dbd 9abb 903c a1b7 bb3d e8f7 d5bd
00000260: 0020 f63c 0a11 55bc b131 bfbb 0f6a a4bd
00000270: 81fe 843d a4fb 3cbd 974f fb3c cc12 a33d
00000280: 278e dc3d 6cfd 96bd 259c 0d3d 71a5 3c3d
00000290: 8388 243e d6c6 f73d 7a66 c2bb b01c 023e
000002a0: 7298 84bd 7169 a43c 9803 c03c c5b4 f5bd
000002b0: f605 bfbd 4bdf 453c e24b 7b3d b9d6 04be
000002c0: 3d20 423d 7b5d 563c c896 4dbd 6689 083d
000002d0: 7fdb d23c af73 0e3e d752 6abc 056d b5bb
000002e0: 1c47 5abd f0a0 c23d 8e74 bcbc 142e cebc
000002f0: 2cc4 a0bd f887 873d a5a3 48bd ceb5 053d
00000300: 5747 903d b065 ce3c dcb8 e53c ae82 c43c
00000310: f3b7 ba3c ccab 9a3c 7c58 463e 6fdb a7bc
00000320: d7a5 583d 040d 5ebd 2f4a 3abb f6b0 493c
00000330: 63be 003e fe53 6e3d 2d89 423e f622 ae3d
00000340: 5cbf b13d dc06 a2bd f703 583d f917 0c3d
00000350: e388 1d3d 0965 623b c4a0 683c 76f9 c0bc
00000360: cbea 4c3a c381 98bd 926c c43c 2a22 69bd
00000370: 47de 5c3d dc55 db3c 0c02 10bd 6088 9fbc
00000380: c57e 93ba 62b4 a53c 964a 9ebb 7882 4bbc
00000390: 2d2d a9bb 4820 34bd 6558 84bd 2c63 58bd
000003a0: 990e ca3c 3306 a1bc 35d5 893c 5e5a ab3c
000003b0: b1e4 0a3d 2d64 74bc 0df0 e9bb 6a71 59bd
000003c0: ba2c 173d 48f3 3c3d 437a 96bd 678b 183d
000003d0: 20ab 193d 4021 b13d bab0 e53c 7ded 613c
000003e0: bd69 2cbd 3cb4 01bd bb7b 25bc de18 c73b
000003f0: 759f 6c3d 7e84 6ebd 20d9 3a3d 12b5 b13d

actor.mu.model.0.bias f4 [8]
0.09990821 -0.06777353 -0.036093045 -0.12130846 -0.009787892 0.11402792 0.034050975 0.1406008
00000000: ad9c cc3d d9cc 8abd 4dd6 13bd 9270 f8bd
00000010: 655d 20bc 7887 e93d 0979 0b3d a8f9 0f3e

critic.preprocess.model.model.0.weight f4 [64, 111]
0.1482399 -0.23744573 0.37996793 -0.11564079 -0.06336212 -0.1733445 0.07090142 -0.037596263
0.19200951 -0.029431665 -0.01978493 0.21718931 0.027396424 -0.016226646 0.07154919 -0.06554804
0.036774628 -0.08701634 0.0739413 -0.014767424 -0.120220736 -0.02396077 0.10577288 0.035562262
0.031643618 0.008030929 -0.038386058 -0.056149337 0.1835709 0.06931177 -0.038869884 -0.34082758
0.13459387 0.038204167 0.01640301 0.33923078 0.22104578 0.10890732 -0.12858315 -0.12588483
0.099588156 -0.0579403 0.20917729 -0.22408383 0.05193538 0.07085299 0.030002732 -0.08864346
-0.16512467 0.006352074 -0.0028383946 0.032225426 -0.09269419 -0.08723451 -0.19973566 0.3438722
0.15798548 0.104668185 -0.067190155 -0.07761366 -0.01425377 -0.1996572 0.19325067 -0.14306414
0.08500771 0.20146579 0.01233735 -0.061102692 -0.16354816 0.087701544 -0.17856416 -0.2669721
0.19085008 -0.12650755 0.11562734 0.060568735 -0.12600736 -0.13749152 0.2245385 -0.00027418986
0.028595565 -0.10812585 0.11648731 -0.03932547 0.049853906 0.07978611 -0.034994565 -0.017440256
0.07357051 0.25692406 0.07984055 -0.04465343 0.02001865 0.019483855 -0.10119316 -0.036038715
0.077048235 -0.035541605 0.07792298 0.10314519 -0.089914866 -0.19922061 -0.030988796 0.10722313
-0.07787521 -0.081808515 0.024511663 0.028050486 0.07754646 -0.024063854 -0.019960249 0.060870074
0.04118887 0.12827188 0.14161281 -0.21083379 0.067120306 -0.08983574 -0.017742572 -0.0678719
-0.021462856 0.022144668 0.052423388 0.14523557 0.067636654 0.13325135 0.20598967 0.11726994
0.048973285 0.020728046 0.06311315 0.04166371 -0.058232404 0.15521932 -0.0019127171 0.001816608
0.069548 0.016576389 0.043865748 0.07917246 -0.23150368 0.05074102 0.09903555 0.091099076
-0.08819837 -0.021899633 0.1452463 -0.23521394 0.005981013 0.042547755 -0.27707905 -0.1521401
0.07696261 -0.02682189 -0.10217614 0.18267925 -0.013659255 -0.13976362 0.20971951 -0.09011299
0.07868607 0.021277294 0.24386355 -0.051516723 -0.03268588 -0.16287217 -0.15637322 -0.053289756
-0.05228919 0.15141837 0.080284745 0.15782796 0.28795567 -0.12987758 0.049675327 0.093696155
-0.025780499 -0.12559265 0.24624118 0.011520077 0.00999044 0.048230525 0.0025212788 0.051354226
0.13951124 0.062293973 -0.090236925 -0.19881505 -0.07643606 -0.098238915 -0.07319684 0.18377872
0.018413346 0.06508102 0.005000634 -0.15408601 0.21346813 -0.050102264 -0.060095895 0.11426516
0.11408011 0.095680706 0.4165208 -0.07284705 0.17079467 -0.12790142 0.03796835 -0.11019946
0.11555839 -0.15725704 0.043903645 -0.19028038 0.14358838 0.089898035 -0.04762807 0.24136911
-0.16698182 0.27197713 -0.0013402121 0.23985422 -0.11379378 0.07427777 0.1210908 0.24570116
0.09506936 0.15537342 -0.12426914 -0.1597879 -0.01694706 0.107800946 -0.027378885 0.035737697
0.009192018 0.12163468 0.028724765 0.076958254 0.004843526 0.031655908 -0.063240215 0.049868606
-0.037526757 -0.17790094 -0.054473467 0.06719798 0.07107926 -0.011830309 0.08447091 0.12802641
0.032511692 -0.01861955 -0.01807916 -0.037917707 -0.11713038 -0.15218571 -0.067814164 -0.19530569
00000000: 33cc 173e f924 73be 288b c23e 14d5 ecbd
00000010: 00c4 81bd 3881 31be c434 913d 8afe 19bd
00000020: 249e 443e ad1a f1bc 0114 a2bc e066 5e3e
00000030: 776e e03c beed 84bc 6288 923d 0d3e 86bd
00000040: fea0 163d 9f35 b2bd 896e 973d 11f3 71bc
00000050: 4a36 f6bd 6049 c4bc 749f d83d bca9 113d
00000060: bd9c 013d 2894 033c b33a 1dbd d9fc 65bd
00000070: 03fa 3b3e 54f3 8d3d 0736 1fbd f480 aebe
00000080: fad2 093e f97b 1c3d 9b5f 863c a8af ad3e
00000090: d359 623e cd0a df3d 4dab 03be f4e7 00be
000000a0: e0f4 cb3d cf52 6dbd 9232 563e 3b76 65be
000000b0: 31ba 543d 5f1b 913d 4ac8 f53c b48a b5bd
000000c0: 7116 29be 0f25 d03b 5c04 3abb cffe 033d
000000d0: 74d6 bdbd 02a8 b2bd 8187 4cbe 0410 b03e
000000e0: f2c6 213e 465c d63d fe9a 89bd e9f3 9ebd
000000f0: a588 69bc f072 4cbe 81e3 453e 687f 12be
00000100: 8618 ae3d 0c4d 4e3e 9922 4a3c d146 7abd
00000110: 2b79 27be de9c b33d 86d9 36be 91b0 88be
00000120: 346e 433e 328b 01be 07ce ec3d ec16 783d
00000130: 1308 01be 94ca 0cbe 6ced 653e 24c1 8fb9
00000140: 3f41 ea3c 1671 ddbd e690 ee3d be13 21bd
00000150: 9c33 4c3d e666 a33d 7656 0fbd dede 8ebc
00000160: 23ac 963d 8d8b 833e 7183 a33d 84e6 36bd
00000170: 27fe a33c 9b9c 9f3c 5c3e cfbd 559d 13bd
00000180: 77cb 9d3d 1394 11bd 1596 9f3d c93d d33d
00000190: 4925 b8bd 7d00 4cbe 37dc fdbc cd97 db3d
000001a0: 0a7d 9fbd 398b a7bd afcc c83c 22ca e53c
000001b0: aed0 9e3d 8f21 c5bc ad83 a3bc e652 793d
000001c0: a9b5 283d b459 033e f302 113e d0e4 57be
000001d0: 5f76 893d cdfb b7bd df58 91bc 6c00 8bbd
000001e0: dfd2 afbc bc68 b53c e8b9 563d a2b8 143e
000001f0: 1685 8a3d 0b73 083e f5ee 523e 392b f03d
00000200: 3698 483d ddcd a93c 7841 813d 91a7 2a3d
00000210: 1a85 6ebd d0f1 1e3e 23b4 faba 401b ee3a
00000220: 2f6f 8e3d 35cb 873c 92ac 333d 2c25 a23d
00000230: 4d0f 6dbe d1d5 4f3d 27d3 ca3d 2792 ba3d
00000240: 59a1 b4bd dc66 b3bc 72bb 143e ecdb 70be
00000250: 60fc c33b 8e46 2e3d 4edd 8dbe 9dca 1bbe
00000260: 939e 9d3d 95b9 dbbc b941 d1bd 4510 3b3e
00000270: 11cb 5fbc 321e 0fbe b6c0 563e 298d b8bd
00000280: 2a26 a13d b84d ae3c 5eb7 793e 3303 53bd
00000290: a1e1 05bd f6c7 26be 4d20 20be 5c46 5abd
000002a0: 312d 56bd 6b0d 1b3e 546c a43d a79d 213e
000002b0: ed6e 933e a1fe 04be 5b78 4b3d c5e3 bf3d
000002c0: a031 d3bc 5c9b 00be a626 7c3e b4be 3c3c
000002d0: f1ae 233c 5f8d 453d 0a3c 253b cf58 523d
000002e0: 09dc 0e3e f727 7f3d 23ce b8bd 2c96 4bbe
000002f0: 828a 9cbd 7c31 c9bd 3ae8 95bd 7d30 3c3e
00000300: 96d7 963c 3349 853d 5cdc a33b b9c8 1dbe
00000310: 6497 5a3e 0838 4dbd 1d27 76bd da03 ea3d
00000320: d5a2 e93d 3ff4 c33d 3742 d53e d630 95bd
00000330: cce4 2e3e 97f8 02be b384 1b3d 41b0 e1bd
00000340: e1a9 ec3d fd07 21be 4fd4 333d dcd8 42be
00000350: d508 133e 761c b83d a715 43bd 7729 773e
00000360: 48fd 2abe 9640 8b3e 0eaa afba 589c 753e
00000370: b70c e9bd f21e 983d 74fe f73d 1699 7b3e
00000380: bab3 c23d 361a 1f3e d280 febd 709f 23be
00000390: 90d4 8abc bec6 dc3d af49 e0bc b161 123d
000003a0: 1e9a 163c 9a1b f93d 3350 eb3c 4a9c 9d3d
000003b0: 71b6 9e3b a0a9 013d 1684 81bd 0643 4c3d
000003c0: a8b5 19bd aa2b 36be 921f 5fbd 189f 893d
000003d0: 0192 913d ead3 41bc 16ff ac3d 5b19 033e
000003e0: fb2a 053d 0788 98bc bf1a 94bc 994f 1bbd
000003f0: 0de2 efbd 92d6 1bbe 27e2 8abd 37fe 47be

critic.preprocess.model.model.0.bias f4 [64]
-0.1039884 -0.3804606 0.10180402 -0.12776774 0.13541773 -0.08342333 0.04546918 0.10744992
0.25889573 0.40508908 -0.26564398 -0.09750722 0.094316274 -0.12508182 -0.106765024 0.10580987
0.4061711 -0.28921506 -0.3073196 -0.47027633 -0.07911398 -0.15630351 0.28440592 -0.18632199
-0.24411772 0.13391812 0.36513558 -0.23714699 -0.17890961 -0.45444667 -0.23793408 0.21883146
0.228866 -0.2492897 -0.15576652 -0.2728299 0.19206175 0.35318938 -0.24461454 0.08075282
-0.16500627 0.32483044 0.4286375 0.22760358 0.20544693 0.19175258 -0.25267214 -0.19843657
0.20249589 -0.032604527 -0.29943022 -0.33109435 0.1262269 -0.018583251 -0.17415638 0.18225238
0.07952579 0.12812665 0.0032437597 0.3073293 -0.36175507 0.05821924 -0.21273647 -0.050342288
00000000: dff7 d4bd bbcb c2be a07e d03d 8cd5 02be
00000010: f2aa 0a3e dad9 aabd e43d 3a3d b40e dc3d
00000020: fb8d 843e d667 cf3e 7d02 88be deb1 c7bd
00000030: e428 c13d 7315 00be 9fa7 dabd d8b2 d83d
00000040: a9f5 cf3e ff13 94be ff58 9dbe 0fc8 f0be
00000050: 8306 a2bd 070e 20be a79d 913e 31cb 3ebe
00000060: fff9 79be d521 093e 0df3 ba3e a9d6 72be
00000070: 1534 37be 3cad e8be fea4 73be 5b15 603e
00000080: d95b 6a3e cd45 7fbe 4281 1fbe 5cb0 8bbe
00000090: d6ab 443e 3dd5 b43e 3c7c 7abe bc61 a53d
000000a0: 67f7 28be 2d50 a63e 6076 db3e ea10 693e
000000b0: ae60 523e ca5a 443e 3e5e 81be f532 4bbe
000000c0: 155b 4f3e 538c 05bd eb4e 99be 3385 a9be
000000d0: a041 013e e73b 98bc 0d56 32be 5ea0 3a3e
000000e0: 6bde a23d a233 033e 4295 543b 445a 9d3e
000000f0: f637 b9be 4c77 6e3d 97d7 59be b733 4ebd

critic.preprocess.model.model.2.weight f4 [64, 64]
0.0970462 0.09072327 -0.07649644 -0.14095116 0.34117615 -0.27155438 0.1443437 0.06611054
-0.064160794 0.023049928 -0.015607948 0.019941 0.26666895 0.091657095 -0.11085655 0.122679174
0.37308833 0.24486464 0.20356053 0.010597366 0.0795798 0.17777237 0.056425534 -0.09790218
0.037320968 0.069781564 0.15219927 0.15549862 0.0734418 -0.5161395 -0.015646344 -0.075682536
-0.10898648 0.24472184 0.08530839 0.037943076 -0.04143191 -0.35103047 0.08379348 -0.04591381
0.08698903 0.26768306 -0.0838647 0.1502674 0.08852951 -0.028226335 -0.3167928 0.14381601
0.1751563 -0.0065132105 -0.11459867 0.022021947 0.26452178 0.08593624 0.1565433 -0.051730584
0.17252482 0.16739129 0.07674447 0.402628 0.32677993 0.14502104 -0.22324435 0.085984
-0.12968093 0.25085342 0.05012412 0.3099793 0.035171386 0.27053803 0.21081433 0.0038410074
-0.30065155 0.36712518 -0.02155742 0.08930558 -0.015603118 -0.10319829 -0.087606534 0.11503282
-0.035039365 0.28884643 0.014056632 -0.08481323 -0.123193465 -0.07426871 -0.05601378 0.05828154
-0.11984112 -0.13840266 0.08855781 -0.26426047 -0.16646826 -0.20432961 0.14038657 -0.020258768
-0.18616013 0.057589844 0.29862767 0.069529876 0.071970925 0.0589696 0.06148715 0.102225415
-0.06771638 -0.19326441 -0.0009919471 -0.023226228 -0.10757197 -0.0018657278 -0.034509085 -0.07194501
-0.053884223 0.3905295 0.023426086 -0.03571074 0.40132248 -0.26765433 -0.17512232 -0.12345673
-0.21333541 0.10691115 -0.19558737 -0.34376362 -0.045267906 -0.021147165 -0.26444337 0.088165246
-0.19911046 0.067643285 -0.27132693 -0.035275623 -0.26378515 -0.24140373 -0.040976062 0.056882434
-0.3004243 0.016704725 -0.006301692 -0.0045257397 -0.035678715 -0.28393874 0.029888593 -0.25147644
-0.38447523 0.34880805 0.15719412 0.2398904 -0.11401009 0.01783308 -0.17459467 -0.06929094
0.08201893 0.03169492 -0.05522979 0.57023436 0.025743298 0.04885617 -0.07383247 -0.223041
0.03138585 0.027585836 0.18015553 -0.47673184 -0.046902437 -0.059990834 0.15417351 -0.07860246
0.015630353 -0.33684224 -0.08200737 -0.13088682 0.13727187 -0.013468292 0.25733984 -0.019893331
-0.40197447 0.087088525 -0.10469175 -0.14228725 -0.12460046 -0.035050854 -0.098311 -0.092145786
0.15383202 -0.0069925473 0.0014256203 -0.011889856 0.2806365 0.09217177 -0.070823535 0.09427901
-0.18203557 0.030904284 -0.21322711 0.0325424 0.30450553 0.08806104 -0.021335823 0.08388559
-0.045619868 -0.21621253 -0.22640373 -0.14024565 0.08557366 -0.03859039 -0.13828559 -0.12763487
-0.23605104 0.119089305 0.13835531 0.026712302 -0.16164607 0.13219859 -0.2564899 0.16122182
-0.06488526 0.048587672 -0.11333478 -0.49485153 -0.009616976 0.105327815 -0.42063847 -0.12336751
-0.12966622 -0.12615195 -0.09731489 -0.01138487 0.020400466 0.042318627 0.31896952 0.056956843
-0.21229765 -0.050502434 -0.00376773 -0.21325989 -0.25950834 0.084899746 -0.043601464 0.114878796
0.17289348 -0.24369669 0.0794426 0.09575666 -0.2674518 0.13662095 0.3487005 -0.32041913
0.12398925 0.05092053 0.020811224 -0.122254975 0.13240087 -0.20651233 -0.10888618 0.23010562
00000000: 28c0 c63d 1fcd b93d 2aaa 9cbd 8055 10be
00000010: a4ae ae3e 2d09 8bbe d6ce 133e f664 873d
00000020: bc66 83bd 34d3 bc3c 7bb8 7fbc 4f5b a33c
00000030: d588 883e b7b6 bb3d c208 e3bd 383f fb3d
00000040: 6f05 bf3e ccbd 7a3e 2c72 503e 93a0 2d3c
00000050: bcfa a23d f609 363e 761e 673d f080 c8bd
00000060: dfdd 183d a3e9 8e3d 20da 1b3e 083b 1f3e
00000070: a868 963d b821 04bf c32c 80bc 72ff 9abd
00000080: 4e34 dfbd 5d98 7a3e 2ab6 ae3d 336a 1b3d
00000090: 82b4 29bd 44ba b3be eb9b ab3d 1f10 3cbd
000000a0: 4e27 b23d c10d 893e 41c1 abbd b3df 193e
000000b0: f64e b53d ea3a e7bc aa32 a2be 8144 133e
000000c0: 2c5c 333e c56c d5bb b5b2 eabd 5f67 b43c
000000d0: 666f 873e 57ff af3d e34c 203e 73e3 53bd
000000e0: 59aa 303e 9f68 2b3e 342c 9d3d 4225 ce3e
000000f0: b34f a73e 6580 143e 2b9a 64be 6118 b03d
00000100: 14cb 04be dc6f 803e f34e 4d3d 9bb5 9e3e
00000110: df0f 103d f683 8a3e b6df 573e 69b9 7b3b
00000120: 00ef 99be d5f7 bb3e 3099 b0bc d8e5 b63d
00000130: 38a4 7fbc a059 d3bd 0e6b b3bd 5496 eb3d
00000140: 7085 0fbd aee3 933e ca4d 663c 8fb2 adbd
00000150: db4c fcbd 321a 98bd b56e 65bd a0b8 6e3d
00000160: 436f f5bd 6db9 0dbe cc5d b53d 264d 87be
00000170: a876 2abe c83b 51be 7fc1 0f3e b7f5 a5bc
00000180: c3a0 3ebe 54e3 6b3d bae5 983e ae65 8e3d
00000190: 7e65 933d 1b8a 713d f3d9 7b3d 8f5b d13d
000001a0: e3ae 8abd 1be7 45be 3904 82ba ee44 bebc
000001b0: b14e dcbd 708b f4ba 6659 0dbd e857 93bd
000001c0: b4b5 5cbd 7cf3 c73e 10e8 bf3c 6d45 12bd
000001d0: 247a cd3e fd09 89be 4453 33be e2d6 fcbd
000001e0: 9974 5abe 3cf4 da3d 0e48 48be c901 b0be
000001f0: d76a 39bd d23c adbc 1f65 87be fb8f b43d
00000200: 9de3 4bbe 9088 8a3d 5deb 8abe 2c7d 10bd
00000210: d90e 87be 8a32 77be 84d6 27bd 8efd 683d
00000220: 37d1 99be 59d8 883c 6d7e cebb a84c 94bb
00000230: d823 12bd 6b60 91be ecd8 f43c 85c1 80be
00000240: f0d9 c4be f896 b23e 7ff7 203e d4a5 753e
00000250: 1f7e e9bd ae16 923c f2c8 32be 69e8 8dbd
00000260: 8af9 a73d 88d2 013d a238 62bd e1fa 113f
00000270: 9ce3 d23c 681d 483d 7a35 97bd dc64 64be
00000280: 738e 003d b1fb e13c b17a 383e 3216 f4be
00000290: c51c 40bd f3b8 75bd a9df 1d3e 54fa a0bd
000002a0: 3a0b 803c 9676 acbe 7bf3 a7bd 3207 06be
000002b0: ff90 0c3e 1caa 5cbc 0cc2 833e 57f7 a2bc
000002c0: 99cf cdbe 785b b23d a168 d6bd c0b3 11be
000002d0: 872e ffbd 7c91 0fbd 4757 c9bd eeb6 bcbd
000002e0: 2486 1d3e bd21 e5bb e1db ba3a accd 42bc
000002f0: 96af 8f3e 8ec4 bc3d ee0b 91bd 5b15 c13d
00000300: 8867 3abe fb2a fd3c 3558 5abe 2e4b 053d
00000310: 26e8 9b3e 5959 b43d 77c8 aebc 35cc ab3d
00000320: e6db 3abd d166 5dbe 61d6 67be 8e9c 0fbe
00000330: 3e41 af3d f510 1ebd bd9a 0dbe b7b2 02be
00000340: 5db7 71be 18e5 f33d 04ad 0d3e c2d3 da3c
00000350: 8c86 25be 115f 073e a552 83be 5517 253e
00000360: 90e2 84bd de03 473d 111c e8bd 2e5d fdbe
00000370: 8590 1dbc 1cb6 d73d ed5d d7be 1ba8 fcbd
00000380: 39c7 04be fa2d 01be 074d c7bd 9b87 3abc
00000390: e11e a73c 4c56 2d3d f94f a33e 944b 693d
000003a0: 8e64 59be a4db 4ebd 05ec 76bb cd60 5abe
000003b0: 47de 84be ebdf ad3d 7397 32bd 9345 eb3d
000003c0: fd0a 313e a08b 79be cdb2 a23d 111c c43d
000003d0: 71ef 88be 5de6 0b3e df88 b23e fa0d a4be
000003e0: 13ee fd3d 0c92 503d 4d7c aa3c d160 fabd
000003f0: 1894 073e f877 53be b8ff debd cfa0 6b3e

critic.preprocess.model.model.2.bias f4 [64]
0.19312966 0.155412 -0.29313225 0.12773025 -0.19780597 0.11078009 -0.3152533 -0.36353394
-0.19995545 -0.13295206 0.13270839 0.183623 0.16312493 0.15908226 -0.07161308 0.13613538
0.18638337 -0.11383039 0.114419706 -0.17088243 -0.17337169 0.21870261 -0.12045006 0.072433084
0.16834214 -0.2552281 0.1772312 -0.07797829 0.21570559 0.19505133 0.11005825 0.2469118
-0.13152052 -0.15789919 0.12735672 0.22075073 -0.14915758 -0.15490209 0.19450864 0.22372809
-0.16682588 0.14100148 0.20088436 -0.10052501 -0.19939895 0.23143283 0.14062572 0.13320601
0.17571898 0.11407764 -0.12888554 0.2013999 0.20760824 -0.25835332 0.17470062 -0.121705756
0.093211085 -0.04050623 0.09936396 0.24545307 0.15837255 -0.19848058 0.23099065 0.14412713
00000000: c8c3 453e 5324 1f3e 6e15 96be b8cb 023e
00000010: a68d 4abe ace0 e23d e168 a1be 1f21 babe
00000020: 1fc1 4cbe 9624 08be b5e4 073e ab07 3c3e
00000030: 390a 273e 76e6 223e e1a9 92bd 1367 0b3e
00000040: 48db 3e3e e81f e9bd e154 ea3d cefb 2ebe
00000050: 5988 31be 94f3 5f3e 85ae f6bd cc57 943d
00000060: e261 2c3e 42ad 82be 187c 353e 15b3 9fbd
00000070: ede1 5c3e 89bb 473e 3866 e13d 72d6 7c3e
00000080: 51ad 06be 53b0 21be cd69 023e 7b0c 623e
00000090: c4bc 18be a79e 1ebe 462d 473e fa18 653e
000000a0: 67d4 2abe b162 103e a1b4 4d3e 0ee0 cdbd
000000b0: 3d2f 4cbe bafc 6c3e 3000 103e 2867 083e
000000c0: adef 333e 8aa1 e93d 92fa 03be c63b 4e3e
000000d0: 4197 543e e346 84be b8e4 323e de40 f9bd
000000e0: 74e5 be3d dce9 25bd 557f cb3d 0d58 7b3e
000000f0: 6a2c 223e 7e3e 4bbe d088 6c3e 1096 133e

critic.last.model.0.weight f4 [1, 64]
0.033103265 0.022730434 -0.26026106 0.2585688 -0.11721954 0.029396163 -0.11600017 -0.4897945
-0.084528305 -0.062843926 0.053177077 -0.009778709 0.077042446 -0.00090246997 -0.07782096 0.05809311
0.10370178 -0.005921883 0.09118053 -0.022221006 -0.020731132 -0.0178372 -0.24552262 0.00036431476
0.04933559 -0.21608314 0.0787687 -0.12778552 0.081438765 0.14780228 0.10901203 0.3791035
-0.034103177 -0.10846043 0.05051175 0.2336386 0.009715318 -0.00032207073 0.08764198 0.13707744
-0.07104511 0.049312085 0.11369319 -0.012729702 -0.16678233 0.20200418 0.16276199 0.11554221
0.15798774 -0.016538654 -0.17550652 0.10740034 0.033844233 -0.3669063 0.18708603 -0.009609904
0.030652463 -0.11011074 0.089084685 0.3375685 0.08037288 -0.30104634 0.12980899 0.069088064
00000000: 4a97 073d 2d35 ba3c f040 85be 2163 843e
00000010: cc10 f0bd 39d0 f03c 7f91 edbd 58c6 fabe
00000020: 2d1d adbd 51b4 80bd 35d0 593d e136 20bc
00000030: 6ec8 9d3d bc93 6cba 9860 9fbd 0af3 6d3d
00000040: 9961 d43d 5b0c c2bb dcbc ba3d d408 b6bc
00000050: 56d4 a9bc 521f 92bc 486a 7bbe 8001 bf39
00000060: 1e14 4a3d e644 5dbe 7c51 a13d 35da 02be
00000070: 5ec9 a63d 7b59 173e b341 df3d db19 c23e
00000080: c6af 0bbd 8020 debd 69e5 4e3d f53e 6f3e
00000090: ff2c 1f3c 9adb a8b9 a37d b33d 075e 0c3e
000000a0: 1980 91bd 78fb 493d fad7 e83d 3d90 50bc
000000b0: fdc8 2abe 2fda 4e3e 14ab 263e 65a1 ec3d
000000c0: 8ac7 213e 127c 87bc fbb7 33be b6f4 db3d
000000d0: 40a0 0a3d 24db bbbe 7b93 3f3e dc72 1dbc
000000e0: e01a fb3c bd81 e1bd 0872 b63d c7d5 ac3e
000000f0: 899a a43d bf22 9abe a6ec 043e 0b7e 8d3d

_actor_critic.actor.sigma_param f4 [8, 1]
-2.1286588 -2.1183379 -2.1362484 -2.6598544 -2.233886 -2.1804523 -2.1304355 -2.130859
00000000: f23b 08c0 d992 07c0 4bb8 08c0 0e3b 2ac0
00000010: fdf7 0ec0 888c 0bc0 0e59 08c0 fe5f 08c0

_actor_critic.actor.preprocess.model.model.0.weight f4 [64, 111]
-0.17862275 -0.011643924 -0.064346455 0.10182178 0.2858451 0.25570652 -0.272566 0.103294775
0.16886301 -0.11753418 0.09498209 -0.06666691 -0.06488181 0.2608333 0.031038312 0.083070725
-0.03140608 0.042081986 0.036396388 0.5712297 0.18895459 0.015302291 0.06478997 -0.26941594
0.11156214 -0.020788258 -0.1559793 0.10877058 0.20774497 0.0900568 -0.116126776 -0.2556376
0.14026193 0.11013719 0.03500061 -0.15459122 -0.07192989 -0.16386814 -0.15956032 -0.19366398
0.045489524 -0.104208976 -0.24093707 0.24200895 0.06028131 -0.022102237 0.045149837 0.05825708
0.21134469 0.0075979587 0.1987542 0.07671682 0.22517946 0.18425104 0.0112266475 0.00040203476
-0.21213543 -0.33070272 -0.14871891 -0.052186094 -0.09538391 -0.011069707 0.2936894 0.13496038
-0.2824229 -0.08062774 -0.10503701 0.024028586 -0.29747978 -0.219981 0.02563494 0.058677807
0.12813087 0.3299392 -0.021963403 0.08489008 -0.10418239 -0.22679996 0.08654698 0.02492312
-0.1079573 -0.05065892 -0.0075207124 -0.12144105 -0.11202117 -0.13512394 0.015411976 -0.04449785
0.13377066 -0.017130194 -0.12143905 -0.19607 0.013953748 -0.03188911 -0.0011662387 -0.043147497
-0.025748724 -0.08973292 -0.039693173 0.012573885 0.0122963255 0.0001944589 0.094624564 -0.19945675
0.13603064 -0.17056958 0.01068256 -0.11177061 -0.13250722 0.07373182 -0.14536723 0.2259613
-0.33747125 -0.22512425 0.16393726 0.13076355 0.17595984 -0.07885614 -0.09846248 -0.32478905
-0.1625361 0.013826398 0.1840632 0.113049544 -0.08554431 0.034276355 0.06758292 0.030620256
-0.021284316 0.18610708 0.18511581 -0.0054101474 -0.13310383 0.08367223 0.054952063 0.051610496
-0.15895753 -0.17551221 -0.10688479 0.114135034 0.121372364 0.17192943 -0.008183685 -0.04418355
-0.16053881 0.23709884 0.15639317 0.06240576 0.03362161 -0.1294322 -0.25468463 -0.030527152
0.09091605 0.085106045 -0.14508565 -0.07664746 0.19418582 0.20399195 0.020549377 -0.14213203
-0.008937873 -0.11133438 -0.16817458 0.09361763 -0.09986887 0.27589235 0.13775831 -0.0014310359
0.1574123 -0.1325085 -0.15989777 0.0040819566 -0.18214524 -0.04802859 0.01855509 -0.15596423
-0.14763744 0.10168259 -0.1066379 0.096873336 0.1679089 -0.23177628 0.051161196 0.17076139
-0.053587887 -0.25535706 0.1269603 -0.09350383 -0.11339972 -0.014809092 0.1502284 -0.18826239
-0.016084896 -0.13734792 -0.08984479 0.046985645 -0.107166834 0.115644984 0.022604218 0.1390194
0.18730359 -0.026217075 0.11485986 0.07787732 0.19469342 -0.08869763 -0.1333528 0.091515176
-0.12843154 -0.037060153 -0.06989964 0.10542506 0.1538509 0.23678961 -0.04010472 0.18530737
0.052000586 0.049695868 0.15439075 -0.101086296 -0.0802375 -0.3144844 0.35571072 -0.15999857
0.14693053 -0.10679765 0.1579376 0.058449324 -0.11595311 -0.27691773 0.01043038 -0.00090608746
0.15698172 -0.050170302 -0.25666192 0.051401038 -0.06639682 0.22420903 -0.051277928 -0.18376844
0.07848405 0.020402256 -0.18703598 -0.03798211 -0.18461585 -0.08451361 0.3999991 -0.1482526
-0.2223112 -0.084539525 0.1461136 -0.014342638 0.019722147 -0.13303544 0.11425534 -0.1038862
00000000: e2e8 36be 28c6 3ebc 13c8 83bd f087 d03d
00000010: 4a5a 923e f7eb 823e c58d 8bbe 368c d33d
00000020: 6dea 2c3e c3b5 f0bd f885 c23d a988 88bd
00000030: c1e0 84bd f18b 853e 0f44 fe3c fc20 aa3d
00000040: a9a3 00bd 295e 2c3d 6114 153d 1c3c 123f
00000050: 507d 413e 76b6 7a3c 9bb0 843d e3f0 89be
00000060: b17a e43d 234c aabc 0ab9 1fbe 1cc3 de3d
00000070: 19bb 543e b36f b83d e0d3 edbd eee2 82be
00000080: d3a0 0f3e 9b8f e13d cd5c 0f3d 294d 1ebe
00000090: fa4f 93bd 0dcd 27be c863 23be da4f 46be
000000a0: 3953 3a3d 846b d5bd 35b8 76be 32d1 773e
000000b0: 89e9 763d c00f b5bc 09ef 383d fa9e 6e3d
000000c0: be6a 583e 4cf8 f83b 3986 4b3e b51d 9d3d
000000d0: 7295 663e 4eac 3c3e f9ef 373c 31c8 d239
000000e0: 083a 59be de51 a9be c549 18be 16c1 55bd
000000f0: a458 c3bd b75d 35bc 755e 963e 0e33 0a3e
00000100: bc99 90be 2820 a5bd a51d d7bd 99d7 c43c
00000110: 454f 98be b342 61be 5e00 d23c 2458 703d
00000120: bd34 033e caed a83e 98ec b3bc dada ad3d
00000130: 945d d5bd 403e 68be 8b3f b13d 922b cc3c
00000140: b818 ddbd ba7f 4fbd 4f70 f6bb 16b6 f8bd
00000150: 5b6b e5bd ee5d 0abe 8382 7c3c 6143 36bd
00000160: 2dfb 083e 9f54 8cbc 09b5 f8bd 93c6 48be
00000170: 439e 643c 289e 02bd 7adc 98ba 6ebb 30bd
00000180: fdee d2bc e5c5 b7bd 4f95 22bd b202 4e3c
00000190: 8776 493c aae7 4b39 86ca c13d 643e 4cbe
000001a0: 9e4b 0b3e cba9 2ebe e705 2f3c fde7 e4bd
000001b0: f9af 07be b500 973d 26db 14be 6662 673e
000001c0: 08c9 acbe f986 66be 2bdf 273e e1e6 053e
000001d0: d12e 343e 547f a1bd b2a6 c9bd c04a a6be
000001e0: dd6f 26be 1e88 623c 107b 3c3e 8586 e73d
000001f0: db31 afbd 5d65 0c3d ea68 8a3d 55d7 fa3c
00000200: 725c aebc db92 3e3e 008f 3d3e 9b47 b1bb
00000210: 5f4c 08be 595c ab3d 6a15 613d 8765 533d
00000220: c3c5 22be 79b9 33be 6ae6 dabd a1bf e93d
00000230: 1392 f83d 450e 303e dd14 06bc cff9 34bd
00000240: 4964 24be 0aca 723e 8825 203e 2f9d 7f3d
00000250: d0b6 093d e089 04be 0666 82be 1414 fabc
00000260: 3232 ba3d 144c ae3d 5591 14be 58f9 9cbd
00000270: a6d8 463e 44e3 503e 2b57 a83c 0f8b 11be
00000280: 2870 12bc 4803 e4bd f535 2cbe 9aba bf3d
00000290: 0d88 ccbd c341 8d3e 8410 0d3e 9991 bbba
000002a0: b130 213e 4fb0 07be 3ebc 23be efc1 853b
000002b0: 4884 3abe a0b9 44bd d800 983c 16b5 1fbe
000002c0: 452e 17be f63e d03d f964 dabd 8765 c63d
000002d0: 50f0 2b3e c356 6dbe 678e 513d 13dc 2e3e
000002e0: f97e 5bbd 29be 82be e201 023e f07e bfbd
000002f0: 1d3e e8bd d5a1 72bc 79d5 193e dbc7 40be
00000300: 79c4 83bc efa4 0cbe 8c00 b8bd 0574 403d
00000310: 497a dbbd 47d7 ec3d 7b2c b93c 1a5b 0e3e
00000320: 83cc 3f3e 31c5 d6bc a53b eb3d 257e 9f3d
00000330: b65d 473e 1aa7 b5bd a38d 08be 4f6c bb3d
00000340: 8f83 03be 63cc 17bd 8b27 8fbd 18e9 d73d
00000350: 178b 1d3e fa78 723e d944 24bd 37c1 3d3e
00000360: 91fe 543d e58d 4b3d 9c18 1e3e 5506 cfbd
00000370: 8f53 a4bd 1904 a1be b71f b63e aad6 23be
00000380: f574 163e bab8 dabd 65ba 213e 8f68 6f3d
00000390: d378 edbd 29c8 8dbe 2fe4 2a3c 8086 6dba
000003a0: d1bf 203e 607f 4dbd 3169 83be e589 523d
000003b0: 0efb 87bd 0d97 653e ce08 52bd cb2d 3cbe
000003c0: 3fbc a03d a222 a73c 5c86 3fbe 2193 1bbd
000003d0: f00b 3dbe 7915 adbd afcc cc3e 88cf 17be
000003e0: 8ca5 63be 0f23 adbd ce9e 153e 62fd 6abc
000003f0: 5790 a13c 713a 08be b4fe e93d 4ac2 d4bd

_actor_critic.actor.preprocess.model.model.0.bias f4 [64]
0.114232264 -0.006493594 0.09137038 -0.04687773 0.0791472 0.15087979 -0.07233515 -0.043740258
-0.104876116 0.23493767 0.08284962 -0.19641072 -0.06716475 -0.10078476 -0.23742022 0.007304499
-0.17159256 0.0041788924 0.008862093 0.2349485 0.002194332 0.14437106 -0.21292801 0.09188567
-0.058925413 -0.059714522 -0.104034714 0.05197138 -0.0738269 0.0559948 0.018919516 -0.07108816
-0.12899803 0.22368254 0.0790719 0.073164366 -0.03815903 -0.18467394 -0.008744292 0.0040161656
-0.16136575 -0.14613825 -0.0099974 0.007845916 -0.16343859 0.09682661 0.14053619 0.17352791
0.06416925 -0.082607396 -0.18523715 0.06742661 -0.06648937 -0.1844968 0.12809272 -0.039899033
0.15539648 0.03166938 -0.020436408 -0.13794485 0.073086634 0.07042922 -0.0132180955 -0.075812854
00000000: 9bf2 e93d 37c8 d4bb 6520 bb3d dd02 40bd
00000010: ed17 a23d 3b80 1a3e 7324 94bd fc28 33bd
00000020: 4ac9 d6bd 8093 703e 10ad a93d e41f 49be
00000030: ac8d 89bd 3e68 cebd 491e 73be 945a ef3b
00000040: f6b5 2fbe 17ef 883b 5032 113c 5796 703e
00000050: c8ce 0f3b 02d6 133e cd09 5abe 8e2e bc3d
00000060: c65b 71bd 3797 74bd 2710 d5bd f1df 543d
00000070: 8f32 97bd ce5a 653d 1afd 9a3c ab96 91bd
00000080: 0f18 04be 090d 653e 73f0 a13d 33d7 953d
00000090: a54c 1cbd 2a1b 3dbe 3844 0fbc 0a9a 833b
000000a0: 103d 25be 44a5 15be 23cc 23bc 288c 003c
000000b0: 725c 27be 084d c63d b8e8 0f3e 4db1 313e
000000c0: 2b6b 833d 112e a9bd cfae 3dbe f616 8a3d
000000d0: 942b 88bd bbec 3cbe bd2a 033e 2b6d 23bd
000000e0: 4120 1f3e c0b7 013d 416a a7bc 6a41 0dbe
000000f0: 72ae 953d 323d 903d b690 58bc c543 9bbd
