results/Swimmer-v3/a2c/2/220624-142732/policy.pth (torch, 47844 bytes, 24 tensors)

actor.sigma_param f4 [2, 1]
0	0x40354dad	2.832866
1	0x40461df4	3.0955782

actor.preprocess.model.model.0.weight f4 [64, 8]
0	0xbe52fade	-0.2060351
1	0xbedf7b84	-0.43648922
2	0x3e42c6a1	0.19021083
3	0xbc1c1c47	-0.009528226
4	0xbe43bb97	-0.19114529
5	0xbd1bbf34	-0.038024142
6	0xbec85101	-0.391243
7	0xbd966e57	-0.073452644
8	0xbdbf578d	-0.09342871
9	0x3de2b66a	0.11069949
10	0x3ec1e920	0.37873173
11	0x3e36ca6f	0.1785066
12	0x3e620f45	0.22076137
13	0xbda8a5b1	-0.08234728
14	0xbc808990	-0.015690595
15	0x3d81ad8e	0.06331931
16	0x3ee30c29	0.44345215
17	0x3d4a80a5	0.04943909
18	0xbf18d65c	-0.59702086
19	0x3dbbac26	0.09163694
20	0xbaadd9e3	-0.0013263788
21	0xbe7d4e5c	-0.24736923
22	0x3e31e957	0.17374168
23	0x3f2efac0	0.68351364
24	0x3e364a3d	0.17801757
25	0xbf5d0b93	-0.86345786
26	0xbe8c7f91	-0.27441075
27	0x3e284d4f	0.16435741
28	0x3d2a1220	0.04152119
29	0x3e842bd9	0.25814703
30	0xbe9ec185	-0.3100702
31	0x3d5b15c1	0.053487543
32	0xbe8345f3	-0.25639305
33	0xbefd2578	-0.4944265
34	0xbd24b78d	-0.04021411
35	0x3e39f589	0.1816007
36	0xbee47985	-0.44623962
37	0x3d939600	0.072063446
38	0x3e2aed30	0.16692042
39	0xbe060aec	-0.13090104
40	0x3e7b9d91	0.24571826
41	0xbec913e8	-0.39273
42	0xbda8e951	-0.082476266
43	0x3d7fa3db	0.062412124
44	0xbe800dad	-0.25010434
45	0xbe0fb32f	-0.14033197
46	0x3b8c3d2e	0.004279754
47	0xbe3a3ffb	-0.18188469
48	0xbe8cdc53	-0.27511844
49	0xbdb281c9	-0.08716161
50	0x3d9e28ce	0.077226266
51	0x3ddc1db6	0.107478544
52	0xbe72d967	-0.23715745
53	0xbe267968	-0.1625725
54	0x3e605088	0.2190572
55	0x3eb0875a	0.34478265
56	0xbc5c1d60	-0.013434738
57	0x3f18df46	0.5971569
58	0x3daeb272	0.085301295
59	0xbd8bcb8a	-0.06825931
60	0x3e121af5	0.14268096
61	0x3d95b465	0.07309798
62	0x3ead6e70	0.3387332
63	0x3cf20b9c	0.029546551
64	0xbe49f7e1	-0.19723465
65	0xbdb9409f	-0.090455286
66	0x3e7df007	0.24798594
67	0x3ec296e5	0.38005748
68	0xbeaa4760	-0.3325758
69	0x3cdc2e45	0.026877532
70	0xbe40e426	-0.18837032
71	0xbf076a29	-0.5289636
72	0xbecd40cb	-0.40088496
73	0xbec81abb	-0.39082894
74	0x3e49cc79	0.19706906
75	0x3ed678b8	0.41888976
76	0x3d7eea20	0.062234998
77	0x3ce1d2aa	0.027566273
78	0xbe4757ba	-0.19467059
79	0xbe92ffca	-0.28710777
80	0x3f0769de	0.52895916
81	0x3ee62499	0.44949797
82	0x3dd43f96	0.103636906
83	0x3bbdaf04	0.0057886858
84	0x3e8df80a	0.277283
85	0xbdfbc060	-0.12292552
86	0x3e806494	0.25076735
87	0x3da15c5f	0.078789465
88	0x3d2a453f	0.041569944
89	0xbee82f06	-0.45348376
90	0xbea8a594	-0.32938826
91	0x3b9169f3	0.004437679
92	0x3e489012	0.19586208
93	0x3d2cfdfd	0.04223441
94	0x3e030083	0.12793164
95	0xbe0111ed	-0.12604494
96	0x3e656ee6	0.22405586
97	0xbf003d03	-0.50093096
98	0xbf0fe35a	-0.56206286
99	0xbd600a47	-0.0546973
100	0xbe0f355f	-0.13985203
101	0x3e66a3ce	0.22523424
102	0x3ec9c0ae	0.39404815
103	0xbe318a6b	-0.17337959
104	0x3eaab79d	0.3334321
105	0x3efb570e	0.49089855
106	0xbe146386	-0.1449109
107	0xbde6aed2	-0.11263813
108	0x3de58c7b	0.11208435
109	0xbde00959	-0.10939283
110	0xbe8c226f	-0.2737002
111	0xbca9e3e4	-0.02073855
112	0x3e0f4292	0.13990238
113	0x3ec385ad	0.38187924
114	0x3dc2f168	0.09518701
115	0xbdf6779f	-0.12034535
116	0xbdfef497	-0.124489956
117	0x3e8faf9a	0.2806366
118	0x3ea06e5b	0.31334195
119	0x3e15350c	0.14571017
120	0xbdc37813	-0.09544387
121	0xbecba531	-0.3977447
122	0xbe9b9fea	-0.30395442
123	0xbedd94bc	-0.43277538
124	0x3e14a163	0.14514689
125	0x3eb92391	0.36159948
126	0x3cd26b2a	0.025685865
127	0x3de3975e	0.111128554
128	0xbece8042	-0.40332228
129	0xbf1992e3	-0.59989756
130	0x3dc6ce38	0.09707302
131	0xbbce5572	-0.006296807
132	0xbcb92ced	-0.02260443
133	0xbeb1b26b	-0.34706435
134	0x3e1fc874	0.1560381
135	0xbd5bfba1	-0.05370677
136	0xbdfd1dbd	-0.12359188
137	0xbf3a52da	-0.7278267
138	0xbdc0245b	-0.09381934
139	0xbca24e11	-0.019812616
140	0xbdfe542f	-0.124184005
141	0xbec2f87b	-0.380802
142	0xbdd19a1a	-0.10234471
143	0xbe024963	-0.12723307
144	0x3d26f240	0.04075837
145	0x3f15fd6f	0.58589834
146	0xbea39804	-0.31951916
147	0x3e27a773	0.1637247
148	0x3e364ccd	0.17802735
149	0xbe43ef99	-0.19134368
150	0x3ea98483	0.3310891
151	0xbd66e075	-0.056366403
152	0xbec3e94d	-0.38263932
153	0xbe44cd4a	-0.19218937
154	0x3e9d6832	0.30743557
155	0x3ef610ed	0.48059788
156	0x3e80543d	0.2506427
157	0xbe38ff49	-0.18066134
158	0xbccfac47	-0.025350703
159	0xbed6a5a2	-0.41923243
160	0x3e4251a7	0.1897646
161	0x3de635af	0.11240708
162	0xbd11b852	-0.035576172
163	0x3bf851e5	0.007578122
164	0x3f1c9456	0.6116384
165	0x3ca980e2	0.020691339
166	0x3e85e33a	0.26149923
167	0xbe8a5840	-0.27020454
168	0x3f07bf35	0.53026134
169	0x3c5acf84	0.01335514
170	0x3e06f826	0.13180599
171	0x3ddc1773	0.1074666
172	0x3e59d971	0.21274354
173	0x3e930b22	0.2871943
174	0x3c58c538	0.013230614
175	0xbf1b2e1f	-0.6061725
176	0x3f1419d0	0.57851887
177	0x3ea26269	0.31715706
178	0x3dcb0f65	0.09915046
179	0x3deaa8c6	0.11457972
180	0x3ec75f55	0.3893992
181	0x3eb3f7f1	0.35150102
182	0x3e02443a	0.12721339
183	0xbe95a36a	-0.29226238
184	0xbf268c22	-0.65057576
185	0x3f34e63c	0.7066381
186	0xbe276fb8	-0.16351211
187	0x3e3adffc	0.18249506
188	0xbe15f8ab	-0.1464564
189	0x3e8c0172	0.27344853
190	0xbe90d2cd	-0.28285828
191	0x3c9cf70c	0.01916077
192	0xbebce40a	-0.3689273
193	0xbec8ce9d	-0.39220133
194	0x3dbce745	0.09223799
195	0x3d71aa19	0.05900011
196	0xbd28e7ce	-0.04123669
197	0x3db6e9a5	0.08931283
198	0x3dc24a56	0.09486835
199	0x3e3bbf4b	0.18334691
200	0x3e968fa9	0.2940648
201	0xbe47e511	-0.19520976
202	0xbf00fa2a	-0.5038172
203	0x3e4d6077	0.2005633
204	0x3b174b2f	0.0023085584
205	0x3e310b0f	0.17289375
206	0xbd92eb4f	-0.07173788
207	0xbd51140e	-0.051044516
208	0xbf23870c	-0.6387794
209	0x3b94b31e	0.004537954
210	0xbe056efc	-0.13030618
211	0x3bb6bde8	0.005576838
212	0xbeef9784	-0.46795285
213	0xbe8fa360	-0.28054333
214	0x3cd964ab	0.02653726
215	0x3f47af09	0.7800146
216	0xbf1d8b7a	-0.6154095
217	0xbcbbf0a0	-0.022941887
218	0x3e467142	0.19379142
219	0xbe9799ac	-0.2960943
220	0x3e117770	0.14205718
221	0x3de2f686	0.11082177
222	0x39085b67	0.00013004021
223	0xbf275caf	-0.653758
224	0xbcac9d71	-0.021071168
225	0x3f11447a	0.5674511
226	0xbe08d36d	-0.13361903
227	0x3eb83d0c	0.35984075
228	0x3ec1cf13	0.37853298
229	0xbe3097fd	-0.17245479
230	0x3cab89fc	0.02093982
231	0x3decdfed	0.11566148
232	0xbe509630	-0.20369792
233	0xbe3fe2c7	-0.18738852
234	0x3e992a84	0.2991525
235	0xbe23f980	-0.16013145
236	0xbdcb3967	-0.09923058
237	0x3c359759	0.011083447
238	0x3e34a3ab	0.1764056
239	0x3ef11a49	0.47090366
240	0x3e57669d	0.21035238
241	0x3ed3550f	0.41275832
242	0x3abfc37f	0.0014630406
243	0xbe09df3a	-0.1346406
244	0xbd25acfc	-0.040448174
245	0xbd826ee9	-0.06368811
246	0x3aca9066	0.0015454411
247	0xbe5117ad	-0.20419188
248	0x3e23ce86	0.15996751
249	0xbf0d882f	-0.55285925
250	0xbdea4a58	-0.11439961
251	0x3ec18d37	0.3780305
252	0x3cbfa4f0	0.023394078
253	0x3db58e6a	0.08865054
254	0xbd80da1d	-0.06291602
255	0x3d0ad5e3	0.033895385

actor.preprocess.model.model.0.bias f4 [64]
0	0xbc176fd9	-0.009242975
1	0x3e0ac27d	0.13550754
2	0xbd33a5e7	-0.04385939
3	0xbe3fc41f	-0.18727158
4	0xbd91fb28	-0.071279824
5	0xbe319c71	-0.17344834
6	0x3da8b779	0.0823812
7	0x3df96d9d	0.1217911
8	0x3cc5e3ac	0.024156414
9	0x3d43a3f6	0.047763787
10	0x3c93de4f	0.018050341
11	0xbe00410a	-0.1252481
12	0xbe53ebfb	-0.20695488
13	0x3cc4b38d	0.024011398
14	0x3d91a49a	0.071114734
15	0xbcb31171	-0.021858903
16	0xbb7c9c95	-0.0038545479
17	0xbe02d080	-0.12774849
18	0xbcf1b1e3	-0.029503768
19	0x3d33fa70	0.043940008
20	0xbd207929	-0.039178047
21	0xbde3fd9e	-0.11132358
22	0xbde55761	-0.11198307
23	0x3d5321c1	0.051545862
24	0x3ca3a4cd	0.019976044
25	0xbe58f2e1	-0.21186401
26	0x3e0427ba	0.1290578
27	0x3d43c031	0.04779071
28	0xbce5b9e2	-0.028042737
29	0x3d8beefc	0.06832692
30	0x3ba7d3b3	0.005121672
31	0xbe2787b9	-0.16360368
32	0xbdabbad6	-0.083852455
33	0xbdefa3a0	-0.11701131
34	0xbc675e56	-0.0141216125
35	0x3d07092c	0.03296773
36	0x3d6df215	0.058092196
37	0xbdf5fdf1	-0.12011326
38	0x3950edb2	0.00019924974
39	0xbc38ad64	-0.011271808
40	0xbdbed463	-0.09317853
41	0xbd2ffd85	-0.042966384
42	0x3d79bc64	0.06097068
43	0x3d1d22de	0.03836333
44	0xbbe7db22	-0.007075683
45	0x3da34b2a	0.07973321
46	0x3d9ded9c	0.07711336
47	0xbd240a2b	-0.04004876
48	0xbe610b6f	-0.21977018
49	0xbe635cad	-0.22203322
50	0xbe7a9cc1	-0.2447386
51	0x3e208a25	0.15677698
52	0x3cfb9c6a	0.030714232
53	0x3aef74df	0.0018269083
54	0x3d178986	0.036996387
55	0x3c91b82c	0.017788015
56	0xbd197133	-0.03746147
57	0xbc925370	-0.017862052
58	0xbe341241	-0.17585088
59	0xbc9e4092	-0.019317899
60	0x3da20fbc	0.07913157
61	0x3db4f765	0.08836249
62	0xbbcddfcb	-0.0062827817
63	0x3de1abea	0.11019118

actor.preprocess.model.model.2.weight f4 [64, 64]
0	0x3ea1fcd8	0.31638217
1	0x3e98c73f	0.29839513
2	0xbe9d963d	-0.30778685
3	0xbeb23434	-0.34805453
4	0x3e308d92	0.17241505
5	0xbd8d5a92	-0.069020405
6	0x3eba8fe9	0.3643792
7	0x3efb9e8f	0.49144408
8	0x3dd1c224	0.102421075
9	0xbe85560a	-0.26042205
10	0xbe6f3159	-0.23358668
11	0xbd3d201a	-0.046173193
12	0xbe71ab6a	-0.23600546
13	0xbd75fcbd	-0.060055483
14	0x3df9297c	0.12166116
15	0xbcf66945	-0.030079493
16	0xbe2cbe51	-0.16869475
17	0xbe2478d1	-0.16061713
18	0x3ec4d758	0.38445544
19	0x3e7e5173	0.24835758
20	0xbe1c8087	-0.15283404
21	0xbda06090	-0.07830918
22	0xbdf3fc25	-0.11913327
23	0x3e525448	0.20539963
24	0xbdd790a8	-0.10525638
25	0x3c81cbf5	0.015844325
26	0xbd7c81d2	-0.061647244
27	0x3c63330a	0.013867149
28	0x3eb44a56	0.35212964
29	0x3de199bd	0.110156514
30	0xbdfa67cc	-0.12226829
31	0xbed81946	-0.42206782
32	0xbd88ac9a	-0.06673546
33	0xbe5ec4a2	-0.21754697
34	0xbda9eb8c	-0.0829688
35	0x3b8a775a	0.0042256536
36	0x3cfbab41	0.030721309
37	0x3d076dcc	0.033063695
38	0x3ea200ef	0.31641337
39	0xbe87942d	-0.26480237
40	0xbbd53935	-0.0065070638
41	0xbecc9f89	-0.39965466
42	0x3ec76891	0.38946965
43	0xbb2f1580	-0.0026715696
44	0x3d75f087	0.060043838
45	0xbcc6d1cd	-0.024269963
46	0x3e28843d	0.16456695
47	0xbd9c6ab9	-0.07637543
48	0xbe0fe60d	-0.14052601
49	0xbd0598f9	-0.03261659
50	0xbf099200	-0.53738403
51	0x3eac43cb	0.33645472
52	0x3d896291	0.06708253
53	0x3bd2ee47	0.0064370963
54	0xbc990b38	-0.018682107
55	0xbea82dab	-0.32847342
56	0xbee80c8e	-0.45322078
57	0xbdaed82e	-0.08537327
58	0xbe66247a	-0.22474852
59	0x3d75b5bc	0.05998777
60	0x3c1f37db	0.009717907
61	0x3ea85ff1	0.32885697
62	0x3d1f1fdc	0.038848743
63	0x3df108d9	0.11769266
64	0x3deeaef5	0.11654464
65	0x3dadb950	0.08482611
66	0x3dcb776d	0.09934888
67	0xbe3c5521	-0.18391849
68	0xbe67131a	-0.2256588
69	0xbf0ddbc8	-0.55413485
70	0x3e5b0322	0.21387914
71	0x3dde03ba	0.108405545
72	0xbd1f7fe7	-0.038940337
73	0x3dce4003	0.10070803
74	0xbdfc21f5	-0.12311164
75	0xbe236ea9	-0.15960182
76	0xbe66aae1	-0.22526123
77	0x3e02f1c6	0.12787542
78	0x3c8a608c	0.01689174
79	0xbde61ce8	-0.11235982
80	0xbcd68abf	-0.026189206
81	0xbe20c25a	-0.15699139
82	0x3ec07201	0.37586978
83	0x3f02dd94	0.5111935
84	0x3daaaa91	0.08333314
85	0xbcd97265	-0.026543805
86	0x3e5d84cc	0.21632689
87	0x3e9436d2	0.28948075
88	0x3e60a7ae	0.21938965
89	0x3e097413	0.13423185
90	0x3e9d26a7	0.30693552
91	0xbd96beaa	-0.07360585
92	0x3ece3e35	0.40281835
93	0xbd14850b	-0.036259692
94	0x3d263e62	0.040586837
95	0xbd394201	-0.04522896
96	0xbe8a9600	-0.27067566
97	0x3e117469	0.14204563
98	0x3ed5195f	0.4162092
99	0x3e47b363	0.19502024
100	0x3e75ae63	0.23992305
101	0xbd946c84	-0.0724726
102	0x3d15b529	0.03654972
103	0xbb1ce278	-0.0023938697
104	0x3d2ad010	0.04170233
105	0xbe3e94b0	-0.18611407
106	0x3ee680af	0.45020053
107	0xbe3bb0db	-0.18329184
108	0xbec9538f	-0.39321563
109	0x3ebd7425	0.37002674
110	0x3d83ef36	0.0644211
111	0xbe710c49	-0.23539843
112	0xbdb2d8f0	-0.08732784
113	0xbe34e23f	-0.17664431
114	0xbefed5af	-0.49772403
115	0x3ec7fad6	0.3905856
116	0x3d82a199	0.063784786
117	0x3e527cd4	0.2055543
118	0x3e89d479	0.26919916
119	0x3dd503af	0.10401093
120	0xbe3c0da0	-0.18364573
121	0x3e838297	0.2568557
122	0xbe813306	-0.2523424
123	0x3e3d705b	0.18499891
124	0x3d8cd0a3	0.06875732
125	0xbe5f1237	-0.21784292
126	0xbec1d8d7	-0.37860748
127	0xbcd44499	-0.025911616
128	0xbefb9b54	-0.49141943
129	0xbdc0e9aa	-0.09419568
130	0x3ef2d7f0	0.47430372
131	0xbda93043	-0.08261158
132	0xbeb817de	-0.3595571
133	0x3d9e1d0d	0.07720385
134	0xbcf3db3d	-0.029767627
135	0x3e4f0ca2	0.20219663
136	0xbe2680b5	-0.16260035
137	0xbf233a9f	-0.63761324
138	0x3f9930ae	1.1967981
139	0x3e4a72ad	0.19770308
140	0x3d3af57b	0.045644265
141	0x3f3e3e2f	0.74313635
142	0x3ebbbabe	0.3666591
143	0xbe16a19c	-0.14710087
144	0xbec370ca	-0.3817199
145	0xbe9f189e	-0.3107347
146	0x3f16b6e6	0.5887283
147	0xbe94268b	-0.28935656
148	0x3e288e17	0.16460453
149	0xbde46eb8	-0.111539304
150	0x3f39f8cf	0.72645277
151	0x3d8d66c6	0.06904368
152	0xbf1fc9e1	-0.6241742
153	0xbe2c7fd7	-0.16845642
154	0xbdba28e4	-0.090898305
155	0xbef8f04f	-0.4862084
156	0x3dbdd454	0.09269014
157	0xbefd1d9e	-0.4943666
158	0x3e560216	0.20899233
159	0xbd4f95d2	-0.05067999
160	0x3e59b8e5	0.21261938
161	0x3e285985	0.16440399
162	0x3eba50ed	0.36389866
163	0x3f84d60c	1.0377822
164	0x3edd5a1c	0.4323281
165	0xbec68aeb	-0.3877786
166	0xbf277f23	-0.6542837
167	0x3f17502d	0.59106714
168	0x3efb177c	0.49041355
169	0xbdb134fb	-0.08652683
170	0x3e9e214c	0.30884778
171	0x3df435d1	0.11924327
172	0xbd51f18f	-0.05125576
173	0x3ed69eae	0.41917938
174	0xbebb244d	-0.36551133
175	0xbe3a6115	-0.18201096
176	0xbea05333	-0.31313476
177	0x3b83287c	0.004002629
178	0xbed8e2ab	-0.42360434
179	0x3ebaed30	0.36509085
180	0xbe5e69ae	-0.21720001
181	0xbf85280d	-1.0402848
182	0xbf2f9bff	-0.68597406
183	0xbd3e552d	-0.04646795
184	0xbbf08c17	-0.0073409188
185	0xbf19354f	-0.5984697
186	0xbdd4e76f	-0.10395705
187	0xbe5ebfe2	-0.21752885
188	0x3d125a7d	0.035730828
189	0xbeaf79e4	-0.34272683
190	0xbd8f5c2d	-0.07000003
191	0xbe97f61d	-0.29679957
192	0xbd8a1d18	-0.067438304
193	0xbe6424b3	-0.22279625
194	0x3eb9dfcf	0.36303565
195	0xbc89bfb9	-0.016815053
196	0x3d47b567	0.048756983
197	0x3ed4834b	0.4150642
198	0x3e010762	0.12600473
199	0xbeb0d40c	-0.3453678
200	0x3e8d25a2	0.27567774
201	0xbc576f5d	-0.01314911
202	0x3e3eb5b9	0.18624009
203	0x3d23f795	0.040031034
204	0x3eae6330	0.3406005
205	0xbd803926	-0.062609
206	0xbe1d1caa	-0.15342966
207	0x3e16d884	0.14731032
208	0xbe14d54d	-0.14534493
209	0x3c21b14d	0.009868932
210	0xbe7b4bd2	-0.24540642
211	0xbeb77aa9	-0.3583577
212	0xbc1c8b48	-0.009554692
213	0x3e2addb8	0.16686141
214	0x3ea24abd	0.31697646
215	0xbeb6739c	-0.35635078
216	0xbd92d9d2	-0.07170452
217	0x3ec6fd82	0.38865286
218	0xbe9bf8ee	-0.30463356
219	0xbe114a33	-0.14188461
220	0xbe49c5c5	-0.1970435
221	0x3e7854f4	0.24251157
222	0x3e11755e	0.14204928
223	0x3e90c552	0.28275543
224	0x3da608a4	0.08107117
225	0x3d66ff7f	0.056396004
226	0x3e51c8c7	0.20486747
227	0x3d6c5ba5	0.057704587
228	0x3c307c5f	0.01077184
229	0x3ef5b489	0.479893
230	0xbe012107	-0.12610255
231	0x3ed332b5	0.41249624
232	0x3dbf2c44	0.09334615
233	0xbe198223	-0.1499105
234	0xbe00ca1d	-0.125771
235	0xbef35274	-0.47523844
236	0x3d8564cb	0.06513365
237	0xbf16bdd2	-0.5888339
238	0xbe749dac	-0.23888272
239	0x3e6c0b2a	0.23051134
240	0x3dc75e11	0.097347386
241	0x3ec3ce1a	0.3824318
242	0x3e7eb9c0	0.24875546
243	0x3d1be2c8	0.038058072
244	0x3e292382	0.16517451
245	0xbd74a1cc	-0.059724614
246	0xbe22f1a7	-0.15912496
247	0x3bd4bf91	0.006492563
248	0x3e2daf02	0.16961291
249	0x3d266481	0.04062319
250	0x3d630bd0	0.055431187
251	0xbdb3fda5	-0.08788613
252	0x3cc47f56	0.0239865
253	0xbb430ac9	-0.0029761067
254	0xbe110b31	-0.14164425
255	0xbe5fb452	-0.2184613

actor.preprocess.model.model.2.bias f4 [64]
0	0x3df483b4	0.11939183
1	0x3dfbc3d5	0.12293211
2	0x38f0297c	0.00011451819
3	0xbdc76db6	-0.097377226
4	0x3d8612b4	0.06546536
5	0xbdb6d653	-0.08927598
6	0x3ca97713	0.020686662
7	0xba4e63d1	-0.000787315
8	0xbdc499d5	-0.09599654
9	0xbdefc816	-0.11708085
10	0xbe0dd620	-0.13851213
11	0xbdcb05e9	-0.09913237
12	0xbddbd6e6	-0.10734348
13	0x3dc13bce	0.09435235
14	0xba993a41	-0.0011690335
15	0x3db07618	0.086162746
16	0x3df8f8c3	0.121568225
17	0x3d57aff3	0.052658033
18	0xbe3991ab	-0.18121974
19	0x3e04726a	0.1293427
20	0x3df1a020	0.117981195
21	0x3def9110	0.1169759
22	0x3dff6f61	0.12472416
23	0xbd805bbb	-0.06267496
24	0xbdd5bc36	-0.10436289
25	0xbdbafa45	-0.091297664
26	0xbb58f02c	-0.0033102138
27	0xbdb900db	-0.09033366
28	0xbdf21658	-0.11820668
29	0x3d0532d0	0.03251916
30	0xbe052a51	-0.13004424
31	0xbc3766cb	-0.011193941
32	0x3dc8cbca	0.09804495
33	0xbdf211f7	-0.11819833
34	0x3d80b1d7	0.0628392
35	0x3dc12724	0.094312936
36	0x3e0bc290	0.13648438
37	0xbd1c2369	-0.038119707
38	0x3dbb5799	0.09147567
39	0xbc5908e6	-0.01324675
40	0xbcd23245	-0.025658736
41	0x3dc25ff9	0.094909616
42	0xbe173592	-0.14766529
43	0xbd5cf6c3	-0.053946268
44	0xbdeb9ac0	-0.115041256
45	0x3e02c83b	0.12771694
46	0x3e2c96bf	0.1685438
47	0xbdc478e1	-0.09593368
48	0x3df8f66b	0.121563755
49	0x3c55382b	0.01301388
50	0xbd756675	-0.059912164
51	0x3e0b4c96	0.13603434
52	0x3dcc03a6	0.099616334
53	0xbbe98a89	-0.0071271104
54	0x3c5f1555	0.013615926
55	0xbd166fd1	-0.03672773
56	0xbddc1620	-0.107464075
57	0xbc0487f8	-0.008089058
58	0xbde86326	-0.11347036
59	0x3da29d3c	0.07940146
60	0x3dd33c52	0.103142396
61	0x3dd57995	0.104235806
62	0x3e0666f8	0.13125217
63	0x3e09352b	0.13399188

actor.mu.model.0.weight f4 [2, 64]
0	0x3f57e14d	0.84328157
1	0x3f5dfaf2	0.8671104
2	0x3e6f28d5	0.2335542
3	0xbf55eff7	-0.8356928
4	0x3a2362d9	0.0006232686
5	0xbf58d9a7	-0.8470711
6	0xbe38ca0e	-0.18045828
7	0xbe804fc1	-0.25060847
8	0xbf6023cf	-0.8755464
9	0xbf4b45d9	-0.79403454
10	0xbf49d073	-0.78833693
11	0xbf5479e2	-0.8299848
12	0xbf5e7277	-0.8689341
13	0x3eb27050	0.34851313
14	0xbea9a0a7	-0.3313038
15	0x3f5d064b	0.8633773
16	0x3f5acad1	0.85465723
17	0x3f58d538	0.84700346
18	0xbf4de50d	-0.8042763
19	0x3f5b446e	0.8565129
20	0x3f5df494	0.8670132
21	0x3f583a1b	0.8446366
22	0x3f5b7154	0.857198
23	0xbc871870	-0.016491145
24	0xbf5b0fcd	-0.85570985
25	0xbf598168	-0.84963083
26	0x3e7bdecd	0.2459671
27	0x3d6a7b9c	0.05724679
28	0xbf5e02bb	-0.86722916
29	0x3e03a610	0.12856317
30	0xbf55554c	-0.8333328
31	0xbd929e98	-0.071591556
32	0x3f59274a	0.84825575
33	0xbf5b15ac	-0.85579944
34	0x3f5ce0e6	0.8628067
35	0x3f5c4ad7	0.86051697
36	0x3f5e9db4	0.86959386
37	0xbed130d3	-0.40857562
38	0x3f5cf9aa	0.8631846
39	0xbe5749bd	-0.21024223
40	0xbefbf010	-0.4920659
41	0x3f5e5e3c	0.8686254
42	0xbf577c54	-0.84174085
43	0xbf571a3b	-0.840244
44	0x3cbef0c4	0.023308165
45	0x3f5fa8ac	0.8736675
46	0x3f4cc845	0.7999309
47	0xbf5b8d3e	-0.85762393
48	0x3f62a92e	0.885394
49	0x3def08f9	0.11671633
50	0x3d66958e	0.05629497
51	0x3f5c6e32	0.86105645
52	0x3f5c8094	0.86133695
53	0x3e47ea77	0.19523035
54	0x3e37cd50	0.17949414
55	0xbd84a87f	-0.064774506
56	0xbf5c1202	-0.8596498
57	0x3e94d20a	0.29066497
58	0xbf571d13	-0.8402874
59	0x3f4e4813	0.80578727
60	0x3f60f4ec	0.8787372
61	0x3f5d687b	0.8648755
62	0x3f54bcc4	0.83100533
63	0x3f59b14e	0.8503617
64	0xbbec44a5	-0.0072103315
65	0x3d8c0f32	0.06838836
66	0x40130ebc	2.2977743
67	0x3c8a88c3	0.016910916
68	0xbf84c733	-1.0373291
69	0xbd94d39f	-0.07266926
70	0xc00835aa	-2.1282754
71	0xc00e210c	-2.220767
72	0xbcb757e7	-0.022380782
73	0x3bd895a3	0.006609635
74	0x3dda726c	0.106663555
75	0x3c9b8ade	0.018987115
76	0xbceaa7d3	-0.028644478
77	0x4019206e	2.3926044
78	0xc01973fa	-2.3977036
79	0x3cd9abe9	0.026571231
80	0xbd21dd4b	-0.039517682
81	0x3cceafd4	0.025230326
82	0x3e5c3668	0.2150513
83	0x3cbc9851	0.023021849
84	0x3d269511	0.040669505
85	0x3cff7eb9	0.031188356
86	0x3d3474ed	0.04405682
87	0x3f8d1106	1.102082
88	0xbd75d502	-0.060017593
89	0xbc6235f1	-0.013806806
90	0x4005d359	2.0910246
91	0x3f9cb498	1.2242613
92	0xbccf4445	-0.025301108
93	0xbf78a1f2	-0.9712211
94	0xbbfa03b9	-0.0076298383
95	0x3f83af27	1.0287827
96	0x3cf06ba6	0.029348206
97	0xbd453529	-0.0481464
98	0x3c9f250d	0.019426847
99	0x3d7a0afc	0.06104563
100	0x3ca461c3	0.020066148
101	0xc00ee334	-2.2326174
102	0x3d56bd56	0.05242666
103	0xc0149919	-2.3218443
104	0xbffbf092	-1.9682791
105	0x3d108942	0.03528715
106	0xbd9c9e20	-0.076473475
107	0xbd6ad92b	-0.057336014
108	0x3f8501b3	1.0391144
109	0x3d92d9ba	0.07170434
110	0xbdfda3e7	-0.123847775
111	0xbd087a8c	-0.033319995
112	0x3c9d8090	0.019226342
113	0xbf61e531	-0.88240343
114	0x3f94168a	1.1569378
115	0x3cbd40c3	0.02310217
116	0x3ca42c19	0.020040559
117	0x40155bf4	2.3337374
118	0x3fbf68fe	1.4953916
119	0x3f8a2aad	1.0794274
120	0x3d450a8d	0.048105765
121	0x4012b973	2.292569
122	0xbd8cffe6	-0.06884746
123	0x3f6300d0	0.88673115
124	0x3ce7e8d1	0.028309258
125	0x3d4a8b5f	0.04944932
126	0xbd447e42	-0.04797197
127	0x3d898056	0.06713931

actor.mu.model.0.bias f4 [2]
0	0x3e6d22cb	0.23157804
1	0xbd116dcc	-0.0355051

critic.preprocess.model.model.0.weight f4 [64, 8]
0	0xbe9d8f60	-0.3077345
1	0x3f2ceebc	0.6755178
2	0x3eafa92d	0.34308758
3	0x3d68ab1f	0.05680382
4	0xbdb0722e	-0.08615528
5	0xbd72a2a3	-0.059237134
6	0x3ce871c1	0.028374555
7	0xbd75ce94	-0.06001146
8	0xbe8d1110	-0.2755208
9	0xbe586098	-0.21130598
10	0x3e7daf09	0.24773802
11	0xbea24f2f	-0.31701037
12	0x3daaec4c	0.08345851
13	0x39a220c9	0.00030923475
14	0xbe272904	-0.1632424
15	0xbdbb9284	-0.09158805
16	0x3d074fcc	0.033035085
17	0x3db8f2f1	0.090307124
18	0x3e46ba7c	0.19407076
19	0xbe9402ba	-0.2890833
20	0xbc8b7775	-0.017024735
21	0xbd716c87	-0.05894139
22	0xbce1a064	-0.0275423
23	0xbc169106	-0.00918985
24	0xbe71f41a	-0.23628274
25	0xbd50020c	-0.050783202
26	0xbe4e53c6	-0.20149145
27	0x3ebcf142	0.36902815
28	0x3e7ec5c3	0.24880128
29	0x3e95013a	0.29102498
30	0x3dd2985c	0.102829665
31	0x3df46826	0.11933927
32	0x3eb5c565	0.35502163
33	0xbe8bba32	-0.27290493
34	0xbd785df4	-0.060636476
35	0xbd20c04e	-0.039245896
36	0x3cc71bfb	0.024305334
37	0xbe0c1ee0	-0.13683653
38	0xbdc6c205	-0.09704975
39	0xbd9cc64c	-0.076550096
40	0x3def699a	0.11690064
41	0xbe113233	-0.14179306
42	0xbd969d1c	-0.07354185
43	0x3e64ab57	0.22330986
44	0x3d405957	0.0469602
45	0xbea91376	-0.3302266
46	0xbe8e180c	-0.2775272
47	0xbe599f4a	-0.2125217
48	0x3f17057a	0.5899273
49	0xbe87b071	-0.26501802
50	0xbea6e881	-0.3259926
51	0x3db27086	0.087128684
52	0x3db710ce	0.08938752
53	0xbde193ce	-0.1101452
54	0xbe050f6a	-0.12994161
55	0xbe3469d2	-0.17618492
56	0xbead42d8	-0.3384006
57	0xbe4bfe85	-0.1992131
58	0xbe11b2d0	-0.14228368
59	0xbe4f5cdf	-0.20250271
60	0xbe6bb06a	-0.23016515
61	0x3dfb1c4e	0.12261258
62	0x3eab3b3b	0.33443627
63	0x3e28e741	0.16494466
64	0xbf040c77	-0.5158152
65	0x3e0d812b	0.13818805
66	0xbd52f727	-0.051505234
67	0xbcf67369	-0.030084329
68	0x3db2b17a	0.08725257
69	0xbc22b0e5	-0.00992987
70	0xbda1a87d	-0.07893465
71	0xbcea99fd	-0.02863788
72	0xbef8b240	-0.48573494
73	0xbd775b7c	-0.06038998
74	0x3e8eccec	0.27890718
75	0xbd62262e	-0.055212192
76	0xbe8590bb	-0.26086983
77	0x3de3aa41	0.11116458
78	0x3e8efd9e	0.2792787
79	0x3df8340e	0.12119304
80	0x3c05ece9	0.00817416
81	0x3ca5c58f	0.020235805
82	0xbe2ef93f	-0.17087267
83	0x3e2dfb00	0.1699028
84	0x3e153f0d	0.14574833
85	0x3e60e836	0.21963581
86	0xbf1805a9	-0.59383637
87	0x3d966ada	0.07344599
88	0x3ecc0c17	0.39852974
89	0xbec91eb1	-0.39281228
90	0x3e72c552	0.23708084
91	0x3e7bf74f	0.2460606
92	0xbe9437ae	-0.2894873
93	0x3e1665e3	0.14687304
94	0xbe60541a	-0.21907082
95	0x3da709ad	0.081561424
96	0x3ddcd1c8	0.107822
97	0x3e8e40a3	0.2778369
98	0x3dba889a	0.09108086
99	0xbcb1931e	-0.021676596
100	0xbc517339	-0.012783819
101	0x3dfede2e	0.12444721
102	0x3dde5701	0.108564384
103	0x3dfe2f71	0.124113925
104	0xbe9adc6a	-0.30246288
105	0x3d655fcf	0.055999573
106	0xbf081d0a	-0.5316931
107	0xbee133ff	-0.43984982
108	0xbc38cd6c	-0.011279445
109	0xbe9094ba	-0.2823847
110	0xbe8ee16b	-0.27906355
111	0x3c403cc5	0.011733239
112	0xbd86df5e	-0.06585573
113	0xbd9cef69	-0.07662851
114	0xbebfbbb4	-0.37447894
115	0xbdc34970	-0.095354915
116	0x3d689478	0.056782216
117	0x3d6fe041	0.058563475
118	0xbd1d51e2	-0.038408168
119	0x3cffaac5	0.031209359
120	0xbd92e81c	-0.071731776
121	0x3e4e5a39	0.20151605
122	0xbeee439e	-0.46535963
123	0x3d9fc513	0.07801261
124	0xbdf02d5d	-0.11727402
125	0x3d981aa4	0.07426956
126	0xbcdb06e1	-0.026736679
127	0xbd1edf54	-0.0387872
128	0xbe846e61	-0.25865462
129	0xbddb743a	-0.10715528
130	0x3e4e50ce	0.20148012
131	0xbe80273f	-0.25029942
132	0xbe0fc0d4	-0.14038402
133	0xbc96ea30	-0.018422216
134	0x3eb30af4	0.34969294
135	0xbe68d1d9	-0.227363
136	0xbe13744d	-0.14399834
137	0x3d873ab2	0.06602992
138	0x3f1252f0	0.571578
139	0xbe1978bd	-0.14987464
140	0x3e245f6d	0.16052027
141	0x3d64d293	0.05586488
142	0xbe4cb25c	-0.19989914
143	0xbd951c8d	-0.07280836
144	0xbe021b5b	-0.12705748
145	0xbd6da136	-0.05801507
146	0x3e7fc5f8	0.24977863
147	0x3e0f654b	0.14003484
148	0xbcb4371e	-0.021998938
149	0x3dcba272	0.09943093
150	0x3e342d0c	0.17595309
151	0xbdbdf136	-0.09274523
152	0x3b5467c4	0.0032410482
153	0x3dc210ea	0.09475882
154	0xbdebd017	-0.11514299
155	0xbec4ff0e	-0.3847584
156	0x3eb02761	0.34405044
157	0xbe21c480	-0.15797615
158	0xbe8449dd	-0.25837603
159	0xbd1a3b29	-0.037654076
160	0x3dd90472	0.10596551
161	0xbdff105b	-0.124542914
162	0x3e49e496	0.19716105
163	0xbda7b8ae	-0.08189522
164	0x3ead7fa0	0.33886433
165	0x3e8799b8	0.26484466
166	0xbdfe4616	-0.124157116
167	0x3d887c1e	0.066642985
168	0xbc8b9397	-0.01703815
169	0xbd195315	-0.03743275
170	0x3c4b6d5f	0.012416213
171	0x3da629f5	0.081134714
172	0xbdda1e22	-0.10650279
173	0x3c6c03f0	0.014405236
174	0x3e1c0816	0.1523746
175	0x3e2070f8	0.15668094
176	0xbe8eaaee	-0.27864784
177	0xbceef9d0	-0.029171854
178	0x3df169c9	0.11787755
179	0xbde05569	-0.10953791
180	0xbea0b435	-0.31387487
181	0xbd2292bd	-0.03969072
182	0xbe8a381e	-0.2699594
183	0xbe7888e7	-0.24270974
184	0x3ebf81ae	0.37403625
185	0xbd99aaa3	-0.075032495
186	0x3e4d7d8a	0.2006742
187	0x3e193e78	0.14965236
188	0xbbbff67e	-0.0058582416
189	0xbe3969b4	-0.18106729
190	0x3e19df69	0.1502663
191	0x3e0e20c2	0.13879684
192	0x3e229125	0.1587568
193	0xbe87df4b	-0.26537547
194	0xbf13bad0	-0.5770693
195	0xbde5c4f6	-0.11219208
196	0x3ddfa7b1	0.109206565
197	0x3e235258	0.1594938
198	0xbd0eee16	-0.034895025
199	0xbd0fc02f	-0.03509539
200	0x3e4bd571	0.1990564
201	0x3cdeb618	0.027186438
202	0xbd51aa5d	-0.05118786
203	0x3cfcc668	0.030856326
204	0xbe9705e3	-0.2949668
205	0xbd65483e	-0.0559771
206	0x3e10fde7	0.14159356
207	0xbdefcd43	-0.117090724
208	0xbd444754	-0.047919586
209	0xbc921fca	-0.017837424
210	0xbe6bf965	-0.23044355
211	0x3dd3dc27	0.10344725
212	0x3e89c2d0	0.26906443
213	0xbdeb4ca4	-0.114892274
214	0xbb90db1b	-0.0044206507
215	0x3e694a90	0.2278235
216	0x3e883f52	0.2661081
217	0xbea8bffd	-0.32958975
218	0x3b95e9c3	0.0045749857
219	0xbe5e89cc	-0.21732253
220	0x3dce5342	0.10074474
221	0xbd224167	-0.039613154
222	0xbec0215c	-0.3752545
223	0x3dee97b5	0.116500296
224	0xbd9d270a	-0.07673462
225	0x3de89d36	0.113581106
226	0x3bd29fba	0.0064277323
227	0x3d624784	0.055243984
228	0xbe8a2281	-0.2697945
229	0xbe097693	-0.13424139
230	0x3e28881e	0.16458175
231	0x3d73d39f	0.05952799
232	0x3e7342b9	0.23755921
233	0x3dde98aa	0.10868962
234	0x3ebe8df8	0.3721769
235	0xbde3c430	-0.11121404
236	0x3e4c58ba	0.19955721
237	0x3deb5fb4	0.11492863
238	0xbdf75c7e	-0.12078188
239	0x3bd86600	0.006603956
240	0x3e03618e	0.12830183
241	0xbe40680c	-0.1878969
242	0xbe81fa68	-0.25386357
243	0xbbabf1c2	-0.0052473256
244	0xbe3f9f61	-0.18713142
245	0xbe9c5d6d	-0.30540028
246	0xbda4b20b	-0.080417715
247	0xbdbcd624	-0.092205316
248	0xbeb9608c	-0.36206472
249	0x3ea69cfc	0.32541645
250	0xbcd2459d	-0.02566796
251	0x3e143356	0.14472708
252	0x3e25ee7e	0.16204259
253	0x3c57d0ca	0.013172338
254	0x3ec79705	0.38982406
255	0x3d864584	0.06556228

critic.preprocess.model.model.0.bias f4 [64]
0	0x3e2729a1	0.16324474
1	0xbe6aa715	-0.22915299
2	0x3bd2c33c	0.006431965
3	0x3e4fab60	0.20280218
4	0x3e80ec42	0.2518025
5	0x3ed86de2	0.42271334
6	0xbdee1bc2	-0.11626388
7	0xbe700035	-0.23437579
8	0xbe8a40e0	-0.2700262
9	0x3cbf6cd2	0.02336732
10	0xbdbc8f8f	-0.09207069
11	0x3cbe208b	0.023208877
12	0x3ead1c02	0.3381043
13	0xbe88e67c	-0.26738346
14	0xbe95b555	-0.29239908
15	0x3e5f7283	0.21821027
16	0xbddc59e5	-0.107593335
17	0x3dcfb85a	0.10142584
18	0x3e132cf5	0.14372618
19	0xbe315228	-0.17316496
20	0xbe842890	-0.25812197
21	0x3ebd485e	0.36969274
22	0x3de32939	0.11091847
23	0x3d95b769	0.07310373
24	0xbe19b111	-0.15008952
25	0xbe457d89	-0.19286169
26	0x3e3ca665	0.1842285
27	0xbe21ec25	-0.15812738
28	0x3e210f09	0.15728392
29	0xbecfe39e	-0.40603346
30	0xbe257626	-0.16158351
31	0xbe860e41	-0.2618275
32	0x3eb0a4b5	0.34500661
33	0x3e6b05a4	0.2295137
34	0xbe457f8d	-0.19286938
35	0xbe108ab8	-0.14115417
36	0x3e600780	0.21877861
37	0xbe2e8b8c	-0.1704542
38	0xbe9ed84c	-0.31024396
39	0x3ef5eb35	0.4803101
40	0xbe8eb955	-0.27875772
41	0x3eb4e547	0.35331175
42	0x3dc19423	0.09452083
43	0xbea82866	-0.32843322
44	0xbe9b155a	-0.30289727
45	0x3f25ba37	0.64737266
46	0xbcbcd9a1	-0.023052992
47	0xbe219a95	-0.15781625
48	0x3de8c19f	0.11365055
49	0xbe8663ba	-0.2624796
50	0xbe9d5a67	-0.30733034
51	0xbd80a3da	-0.06281252
52	0xbde4ffca	-0.111816004
53	0xbca5438b	-0.020173809
54	0x3d52d837	0.05147573
55	0x3da75f50	0.08172476
56	0x3e6b2821	0.22964527
57	0x3d7ff0e8	0.062485605
58	0xbec45204	-0.38343823
59	0xbe572d66	-0.21013412
60	0x3e294d69	0.16533436
61	0x3dfb918f	0.122836225
62	0x3e6ff10d	0.23431797
63	0xbe43db54	-0.19126636

critic.preprocess.model.model.2.weight f4 [64, 64]
0	0x3de98b3d	0.11403511
1	0xbd22de13	-0.039762568
2	0xbcb2564e	-0.021769669
3	0xbd85410f	-0.065065496
4	0xbd12432f	-0.035708603
5	0x3db46dfa	0.08810039
6	0x3e1249b0	0.14285922
7	0xbe8cab54	-0.27474463
8	0x3e229801	0.15878297
9	0xbdcd8f90	-0.10037148
10	0xbd1f2795	-0.038856108
11	0xbda62178	-0.081118524
12	0x3e4e7a73	0.20163898
13	0x3cac2b1e	0.021016654
14	0x3eacd9cc	0.33759916
15	0x3eb20045	0.3476583
16	0xbe3124be	-0.17299172
17	0x3d676dec	0.056501314
18	0xbe48ef40	-0.19622517
19	0xbe44ca10	-0.19217706
20	0x3e107f12	0.14110973
21	0xbe5f206b	-0.2178971
22	0xbd81811f	-0.06323456
23	0x3df1216c	0.11773953
24	0xbd4097cb	-0.04701976
25	0x3e444750	0.19167829
26	0x3e6b3a2b	0.22971408
27	0xbea26eab	-0.31725058
28	0xbe9b5bda	-0.30343515
29	0x3d377f9d	0.044799436
30	0xbe06c4d7	-0.13161026
31	0xbe84309e	-0.25818342
32	0xbeba218c	-0.3635372
33	0xbe895abc	-0.26827037
34	0x3eb44224	0.3520671
35	0xbe1301fb	-0.14356224
36	0xbcb96cfe	-0.02263498
37	0xbe786d5e	-0.2426047
38	0xbedd3278	-0.43202567
39	0xbe0bad4b	-0.13640325
40	0xbe633249	-0.22187151
41	0xbefbd43e	-0.49185365
42	0xbe09119d	-0.13385625
43	0x3e00bb9f	0.12571572
44	0xbd75efdd	-0.060043205
45	0xbdc4f4c6	-0.09616999
46	0xbd4214f4	-0.047383264
47	0x3ee9c73f	0.45659825
48	0x3e9b71f4	0.30360377
49	0xbd09a370	-0.03360313
50	0xbeb6d385	-0.35708252
51	0x3e9da5da	0.30790597
52	0xbec38044	-0.38183796
53	0x3e3cee98	0.18450391
54	0x3e4a2caf	0.19743608
55	0xbd489b8d	-0.04897647
56	0x3e4243f7	0.18971239
57	0xbd97c1ce	-0.07410012
58	0xbe050dc6	-0.12993535
59	0x3e4e6a6e	0.20157787
60	0xbd377399	-0.044787977
61	0xbd332fea	-0.043746866
62	0xbd247e8b	-0.040159743
63	0xbe264ed1	-0.16241004
64	0xbd79e28c	-0.061007068
65	0x3d2e367e	0.042532437
66	0x3e16522b	0.14679782
67	0x3e847be1	0.25875762
68	0x3e7769e6	0.24161491
69	0xbdf3e622	-0.11909129
70	0xbdfd30e3	-0.1236284
71	0xbde06564	-0.10956839
72	0xbe59cf31	-0.21270443
73	0x3d6cc4b5	0.057804782
74	0xbcf26086	-0.029587042
75	0xbe5937a3	-0.2121263
76	0x3e65dc61	0.22447349
77	0x3e26ee66	0.1630188
78	0xbebd9b57	-0.37032577
79	0x3de6cb85	0.11269287
80	0x3d8041ab	0.06262525
81	0x3e88cac3	0.26717195
82	0x3ce21fe8	0.027603105
83	0x3e76283d	0.24038787
84	0xbba8626c	-0.005138686
85	0x3ea7e7d4	0.32794058
86	0x3e446279	0.1917819
87	0xbd810497	-0.062997036
88	0xbe3a7ce8	-0.1821171
89	0xbdb47968	-0.08812219
90	0x3d9e9537	0.07743304
91	0xbf13cd11	-0.5773478
92	0x3da6ea3d	0.08150146
93	0xbdcdc02b	-0.10046419
94	0xbebd1566	-0.36930388
95	0x3eda1ac5	0.4259855
96	0x3e5698ff	0.20956801
97	0xbe135c38	-0.14390647
98	0x3e138985	0.14407928
99	0x3e9e4b49	0.30916813
100	0xbe95a0ee	-0.29224342
101	0xbc8906f7	-0.016726954
102	0xbf3fc87b	-0.74915284
103	0x3da2ad26	0.07943182
104	0xbd0cff60	-0.034423232
105	0xbdfa1977	-0.12211888
106	0xbe8de600	-0.2771454
107	0xbba944a7	-0.0051656547
108	0x3e5ad5c4	0.21370608
109	0xbda58b91	-0.08083261
110	0xbe8e2646	-0.27763575
111	0xbe1946f4	-0.14968473
112	0xbbe95d14	-0.0071216915
113	0x3d671daa	0.056424774
114	0xbdb285b3	-0.08716907
115	0xbd3fa80c	-0.04679112
116	0x3e0952bf	0.13410471
117	0xbe133f88	-0.14379704
118	0x3da262aa	0.07928975
119	0x3e8d3cc9	0.27585438
120	0x3df47dbd	0.11938045
121	0xbe44c8ea	-0.19217268
122	0x3e396652	0.18105438
123	0x3dd9fc9b	0.10643884
124	0x3d23e20a	0.04001049
125	0x3ec3746c	0.3817476
126	0x3e4e0178	0.20117748
127	0xbe6373e8	-0.22212183
128	0xbe423a80	-0.18967628
129	0xbd8a775a	-0.06761046
130	0xbe5f310f	-0.21796058
131	0x3e7831de	0.24237773
132	0xbe173b59	-0.14768733
133	0xbe1d8c54	-0.15385562
134	0xbe00a3e5	-0.12562521
135	0x3c1e60a8	0.009666599
136	0x3da3663b	0.07978483
137	0x3e2b1e86	0.16710863
138	0x3b02066c	0.0019840254
139	0xbe1cb38c	-0.15302867
140	0x3d8bcfc0	0.068267345
141	0xbe461255	-0.1934293
142	0x3d16d40c	0.036823317
143	0xbe05811b	-0.13037531
144	0x3dc066f9	0.093946405
145	0x3e84673d	0.25860015
146	0x3ec221c8	0.37916398
147	0x3ea4cd2a	0.32187778
148	0xbe4a7432	-0.19770887
149	0xbeaac766	-0.33355254
150	0xbd8bc579	-0.06824774
151	0x3d072030	0.03298968
152	0xbc26eaac	-0.010187786
153	0xbdbab5c4	-0.091167
154	0xbe4ac925	-0.19803293
155	0xbe810407	-0.25198385
156	0xbe8094eb	-0.25113615
157	0x3ee6dbf9	0.450897
158	0xbdc78f06	-0.097440764
159	0xbbf72a09	-0.007542853
160	0x3d89cb72	0.06728257
161	0xbeb67609	-0.3563693
162	0x3da90aae	0.0825399
163	0xbd064020	-0.032775998
164	0x3e00e686	0.12587938
165	0xbd674608	-0.05646327
166	0x3bbffaed	0.00585877
167	0xbe91c8d9	-0.28473547
168	0x3e6b77d7	0.22994934
169	0xbcac4ed6	-0.021033686
170	0xbd99a609	-0.07502372
171	0x3e641381	0.22273065
172	0x3e9a4be1	0.30136016
173	0x3dfb6107	0.12274366
174	0x3e9dddff	0.30833432
175	0x3e7e232c	0.24818105
176	0x3e9cb794	0.3060881
177	0xbd3551f2	-0.044267602
178	0x3dcabf26	0.0989974
179	0x3c54fdc0	0.012999952
180	0x3e317130	0.17328334
181	0xbe270641	-0.1631098
182	0x3df5116d	0.11966214
183	0x3d691d96	0.05691298
184	0xbb8bf7a3	-0.004271464
185	0xbe578421	-0.21046497
186	0xbdb02a04	-0.08601764
187	0xbe098f4f	-0.13433574
188	0xbd4cff66	-0.050048254
189	0xbea29f4e	-0.31762165
190	0xbe716c55	-0.23576482
191	0xbeb56544	-0.35428822
192	0xbdfbacc5	-0.122888125
193	0xbec8fa7f	-0.39253613
194	0xbe0bf23c	-0.13666624
195	0x3d29f05e	0.041488998
196	0x3ed4fd73	0.41599616
197	0x3da80e93	0.08205905
198	0x3f07fc66	0.53119504
199	0xbf156472	-0.5835639
200	0xbe9be7db	-0.3045033
201	0xbed65dfe	-0.41868585
202	0x3f20e8a0	0.6285496
203	0x3ed5bfca	0.41747886
204	0xbc8cb1af	-0.01717457
205	0xbe90c8bf	-0.28278157
206	0x3dfdc811	0.12391675
207	0xbe649e12	-0.22325924
208	0xbe9dfff5	-0.30859342
209	0xbd9a2c34	-0.07527962
210	0x3cef1bbe	0.029188033
211	0xbb34a87f	-0.0027566252
212	0xbbc59b2e	-0.0060304618
213	0x3e03f214	0.12885314
214	0x3df67ba3	0.120353006
215	0x3d83e264	0.06439665
216	0xbe19ab3e	-0.1500673
217	0xbd1a6677	-0.037695374
218	0x3e2b5e6d	0.1673524
219	0x3e61e5c3	0.22060303
220	0xbcad31f5	-0.021141985
221	0x3e0fe52f	0.1405227
222	0xbe8357ee	-0.25653023
223	0x3e178de7	0.14800225
224	0x3e7b1f76	0.2452372
225	0x3e3ecd83	0.18633084
226	0xbd90f757	-0.07078426
227	0x3db55321	0.08853746
228	0x3e8a396b	0.2699693
229	0x3d993aaf	0.07481896
230	0x3c1dbdf4	0.009627808
231	0x3d5db69f	0.05412924
232	0xbcf95637	-0.030436618
233	0xbe0b2967	-0.13590012
234	0xbdb34b04	-0.087545425
235	0xbe73ade2	-0.237968
236	0xbe8066c2	-0.25078398
237	0xbd852056	-0.06500308
238	0x3e1bf56d	0.15230341
239	0xbe1b8eeb	-0.15191238
240	0x3e9f6d98	0.311383
241	0x3dec580d	0.11540232
242	0xbe75422b	-0.23951022
243	0x3e14402a	0.14477602
244	0xbed0b5da	-0.40763742
245	0x3c264fad	0.010150832
246	0x3d08fb27	0.033442643
247	0xbe1ce164	-0.15320355
248	0x3e8dd222	0.2769938
249	0xbdc01ce3	-0.0938051
250	0xbeddcf30	-0.43322134
251	0x3ed4d900	0.41571808
252	0xbe080c56	-0.13285956
253	0x3ea1afe1	0.31579497
254	0x3c8f3243	0.017480021
255	0x3d8470e8	0.06466848

critic.preprocess.model.model.2.bias f4 [64]
0	0xbd500670	-0.05078739
1	0x3e4f6ff7	0.20257555
2	0xbe1a3205	-0.15058143
3	0x3d7715f7	0.06032368
4	0xbe703f53	-0.23461656
5	0x3e8cece3	0.2752448
6	0x3d8d09d2	0.06886639
7	0xbdecbc28	-0.115593255
8	0xbe48fd60	-0.19627905
9	0xbdf75159	-0.12076063
10	0xbe65ab5b	-0.22428648
11	0x3d139843	0.03603388
12	0x3e8a9d72	0.27073246
13	0xbea85df2	-0.32884175
14	0xbe56a78e	-0.20962355
15	0x3d6d5b5b	0.05794845
16	0xbe8c8bf8	-0.27450538
17	0x3d825b52	0.06365074
18	0x3e4d0da2	0.20024732
19	0xbe732283	-0.23743634
20	0x3e48e538	0.1961869
21	0x3e64441f	0.22291611
22	0xbe475da8	-0.19469321
23	0x3e86b07a	0.26306516
24	0x3d3023d1	0.043002907
25	0x3dc369e3	0.09541681
26	0xbe2c4dbb	-0.16826527
27	0x3e5c3001	0.21502687
28	0x3e284ede	0.16436335
29	0x3d96e9ae	0.073687896
30	0x3e83eea2	0.25768
31	0x3cf2a423	0.029619282
32	0x3e2fe566	0.17177352
33	0x3d8d79c1	0.06907988
34	0xbda69550	-0.08133948
35	0x3e53b41a	0.20674172
36	0xbe3c172c	-0.18368214
37	0xbe47c855	-0.19510014
38	0xbd88f5f5	-0.066875376
39	0xbe855375	-0.26040235
40	0x3e6c2dab	0.23064296
41	0xbe181f2c	-0.14855641
42	0x3cf9d43f	0.030496715
43	0x3e28641c	0.16444439
44	0x3e7d3fc3	0.24731354
45	0xbe897645	-0.26848045
46	0x3ce829fc	0.028340332
47	0xbe5306da	-0.20608082
48	0xbe1f2a97	-0.1554359
49	0x3e8b5d44	0.27219594
50	0xbe27526a	-0.16340032
51	0xbc658683	-0.014009121
52	0xbd8a273b	-0.06745764
53	0xbe0b9136	-0.13629612
54	0xbe862150	-0.2619729
55	0xbdfbd211	-0.12295926
56	0x3e23b11c	0.1598553
57	0xbe832de7	-0.25620958
58	0xbe1290a4	-0.14312989
59	0x3e367327	0.17817365
60	0x3e4fbae2	0.20286134
61	0xbd5e4dca	-0.054273404
62	0x3e3a5b59	0.18198909
63	0xbe2d88fc	-0.16946787

critic.last.model.0.weight f4 [1, 64]
0	0x3dff63f2	0.12470235
1	0x3e694804	0.22781378
2	0xbd995fe1	-0.074889906
3	0x3eb003a1	0.3437777
4	0xbeeb318b	-0.45936236
5	0x3e668743	0.22512536
6	0xbde83e4d	-0.11340008
7	0xbec3e301	-0.38259128
8	0xbe36c7da	-0.17849675
9	0xbe585137	-0.21124731
10	0xbe85a56c	-0.2610277
11	0xbe012b19	-0.12614097
12	0x3e8d7e50	0.2763543
13	0xbeba580f	-0.36395308
14	0x3ecfbcee	0.4057383
15	0x3e8bd1a3	0.27308378
16	0xbf69fb1f	-0.91398805
17	0x3d3a79ca	0.045526303
18	0xbc873e7f	-0.016509293
19	0xbe86cc21	-0.26327613
20	0x3ea422ab	0.320577
21	0x3e446a79	0.19181241
22	0xbdad2d3d	-0.08455894
23	0x3ecf0c03	0.40438852
24	0xb9441b77	-0.00018702248
25	0x3a8f5257	0.0010934573
26	0x3ec728d7	0.38898346
27	0x3e2e367b	0.1701297
28	0x3e05db16	0.13071856
29	0x3e4c73df	0.19966076
30	0x3ef870f1	0.48523667
31	0xbe9bf349	-0.3045905
32	0x3e49bdc6	0.19701299
33	0xbe0342db	-0.12818472
34	0xbe0c2c11	-0.13688685
35	0x3f0a6272	0.54056466
36	0xbe61774b	-0.22018163
37	0xbeddda48	-0.43330598
38	0xbe38b242	-0.1803675
39	0xbe8d694c	-0.27619398
40	0x3e0d2d7c	0.13786882
41	0xbb0a1ce4	-0.002107435
42	0xbd3b0211	-0.045656268
43	0x3db9279d	0.09040759
44	0x3eabcf77	0.3355672
45	0xbefa7764	-0.48919213
46	0xbee30805	-0.44342056
47	0xbe0b6da7	-0.13616048
48	0xbe9f9f70	-0.3117633
49	0x3e9fafef	0.31188914
50	0x3e1046ab	0.14089458
51	0xbe49fdc9	-0.19725718
52	0xbdfa78db	-0.122300826
53	0x3e853a10	0.2602086
54	0xbf05221b	-0.52005166
55	0xbb75be46	-0.0037497445
56	0x3e7dd4a8	0.24788153
57	0xbe7e315b	-0.24823515
58	0xbe3a86e7	-0.18215524
59	0x3e8bc0b3	0.27295455
60	0x3e93705a	0.28796655
61	0xbf036ea4	-0.513407
62	0x3e14823a	0.14502802
63	0xbe8fd289	-0.28090313

_actor_critic.actor.sigma_param f4 [2, 1]
0	0x40354dad	2.832866
1	0x40461df4	3.0955782

_actor_critic.actor.preprocess.model.model.0.weight f4 [64, 8]
0	0xbe52fade	-0.2060351
1	0xbedf7b84	-0.43648922
2	0x3e42c6a1	0.19021083
3	0xbc1c1c47	-0.009528226
4	0xbe43bb97	-0.19114529
5	0xbd1bbf34	-0.038024142
6	0xbec85101	-0.391243
7	0xbd966e57	-0.073452644
8	0xbdbf578d	-0.09342871
9	0x3de2b66a	0.11069949
10	0x3ec1e920	0.37873173
11	0x3e36ca6f	0.1785066
12	0x3e620f45	0.22076137
13	0xbda8a5b1	-0.08234728
14	0xbc808990	-0.015690595
15	0x3d81ad8e	0.06331931
16	0x3ee30c29	0.44345215
17	0x3d4a80a5	0.04943909
18	0xbf18d65c	-0.59702086
19	0x3dbbac26	0.09163694
20	0xbaadd9e3	-0.0013263788
21	0xbe7d4e5c	-0.24736923
22	0x3e31e957	0.17374168
23	0x3f2efac0	0.68351364
24	0x3e364a3d	0.17801757
25	0xbf5d0b93	-0.86345786
26	0xbe8c7f91	-0.27441075
27	0x3e284d4f	0.16435741
28	0x3d2a1220	0.04152119
29	0x3e842bd9	0.25814703
30	0xbe9ec185	-0.3100702
31	0x3d5b15c1	0.053487543
32	0xbe8345f3	-0.25639305
33	0xbefd2578	-0.4944265
34	0xbd24b78d	-0.04021411
35	0x3e39f589	0.1816007
36	0xbee47985	-0.44623962
37	0x3d939600	0.072063446
38	0x3e2aed30	0.16692042
39	0xbe060aec	-0.13090104
40	0x3e7b9d91	0.24571826
41	0xbec913e8	-0.39273
42	0xbda8e951	-0.082476266
43	0x3d7fa3db	0.062412124
44	0xbe800dad	-0.25010434
45	0xbe0fb32f	-0.14033197
46	0x3b8c3d2e	0.004279754
47	0xbe3a3ffb	-0.18188469
48	0xbe8cdc53	-0.27511844
49	0xbdb281c9	-0.08716161
50	0x3d9e28ce	0.077226266
51	0x3ddc1db6	0.107478544
52	0xbe72d967	-0.23715745
53	0xbe267968	-0.1625725
54	0x3e605088	0.2190572
55	0x3eb0875a	0.34478265
56	0xbc5c1d60	-0.013434738
57	0x3f18df46	0.5971569
58	0x3daeb272	0.085301295
59	0xbd8bcb8a	-0.06825931
60	0x3e121af5	0.14268096
61	0x3d95b465	0.07309798
62	0x3ead6e70	0.3387332
63	0x3cf20b9c	0.029546551
64	0xbe49f7e1	-0.19723465
65	0xbdb9409f	-0.090455286
66	0x3e7df007	0.24798594
67	0x3ec296e5	0.38005748
68	0xbeaa4760	-0.3325758
69	0x3cdc2e45	0.026877532
70	0xbe40e426	-0.18837032
71	0xbf076a29	-0.5289636
72	0xbecd40cb	-0.40088496
73	0xbec81abb	-0.39082894
74	0x3e49cc79	0.19706906
75	0x3ed678b8	0.41888976
76	0x3d7eea20	0.062234998
77	0x3ce1d2aa	0.027566273
78	0xbe4757ba	-0.19467059
79	0xbe92ffca	-0.28710777
80	0x3f0769de	0.52895916
81	0x3ee62499	0.44949797
82	0x3dd43f96	0.103636906
83	0x3bbdaf04	0.0057886858
84	0x3e8df80a	0.277283
85	0xbdfbc060	-0.12292552
86	0x3e806494	0.25076735
87	0x3da15c5f	0.078789465
88	0x3d2a453f	0.041569944
89	0xbee82f06	-0.45348376
90	0xbea8a594	-0.32938826
91	0x3b9169f3	0.004437679
92	0x3e489012	0.19586208
93	0x3d2cfdfd	0.04223441
94	0x3e030083	0.12793164
95	0xbe0111ed	-0.12604494
96	0x3e656ee6	0.22405586
97	0xbf003d03	-0.50093096
98	0xbf0fe35a	-0.56206286
99	0xbd600a47	-0.0546973
100	0xbe0f355f	-0.13985203
101	0x3e66a3ce	0.22523424
102	0x3ec9c0ae	0.39404815
103	0xbe318a6b	-0.17337959
104	0x3eaab79d	0.3334321
105	0x3efb570e	0.49089855
106	0xbe146386	-0.1449109
107	0xbde6aed2	-0.11263813
108	0x3de58c7b	0.11208435
109	0xbde00959	-0.10939283
110	0xbe8c226f	-0.2737002
111	0xbca9e3e4	-0.02073855
112	0x3e0f4292	0.13990238
113	0x3ec385ad	0.38187924
114	0x3dc2f168	0.09518701
115	0xbdf6779f	-0.12034535
116	0xbdfef497	-0.124489956
117	0x3e8faf9a	0.2806366
118	0x3ea06e5b	0.31334195
119	0x3e15350c	0.14571017
120	0xbdc37813	-0.09544387
121	0xbecba531	-0.3977447
122	0xbe9b9fea	-0.30395442
123	0xbedd94bc	-0.43277538
124	0x3e14a163	0.14514689
125	0x3eb92391	0.36159948
126	0x3cd26b2a	0.025685865
127	0x3de3975e	0.111128554
128	0xbece8042	-0.40332228
129	0xbf1992e3	-0.59989756
130	0x3dc6ce38	0.09707302
131	0xbbce5572	-0.006296807
132	0xbcb92ced	-0.02260443
133	0xbeb1b26b	-0.34706435
134	0x3e1fc874	0.1560381
135	0xbd5bfba1	-0.05370677
136	0xbdfd1dbd	-0.12359188
137	0xbf3a52da	-0.7278267
138	0xbdc0245b	-0.09381934
139	0xbca24e11	-0.019812616
140	0xbdfe542f	-0.124184005
141	0xbec2f87b	-0.380802
142	0xbdd19a1a	-0.10234471
143	0xbe024963	-0.12723307
144	0x3d26f240	0.04075837
145	0x3f15fd6f	0.58589834
146	0xbea39804	-0.31951916
147	0x3e27a773	0.1637247
148	0x3e364ccd	0.17802735
149	0xbe43ef99	-0.19134368
150	0x3ea98483	0.3310891
151	0xbd66e075	-0.056366403
152	0xbec3e94d	-0.38263932
153	0xbe44cd4a	-0.19218937
154	0x3e9d6832	0.30743557
155	0x3ef610ed	0.48059788
156	0x3e80543d	0.2506427
157	0xbe38ff49	-0.18066134
158	0xbccfac47	-0.025350703
159	0xbed6a5a2	-0.41923243
160	0x3e4251a7	0.1897646
161	0x3de635af	0.11240708
162	0xbd11b852	-0.035576172
163	0x3bf851e5	0.007578122
164	0x3f1c9456	0.6116384
165	0x3ca980e2	0.020691339
166	0x3e85e33a	0.26149923
167	0xbe8a5840	-0.27020454
168	0x3f07bf35	0.53026134
169	0x3c5acf84	0.01335514
170	0x3e06f826	0.13180599
171	0x3ddc1773	0.1074666
172	0x3e59d971	0.21274354
173	0x3e930b22	0.2871943
174	0x3c58c538	0.013230614
175	0xbf1b2e1f	-0.6061725
176	0x3f1419d0	0.57851887
177	0x3ea26269	0.31715706
178	0x3dcb0f65	0.09915046
179	0x3deaa8c6	0.11457972
180	0x3ec75f55	0.3893992
181	0x3eb3f7f1	0.35150102
182	0x3e02443a	0.12721339
183	0xbe95a36a	-0.29226238
184	0xbf268c22	-0.65057576
185	0x3f34e63c	0.7066381
186	0xbe276fb8	-0.16351211
187	0x3e3adffc	0.18249506
188	0xbe15f8ab	-0.1464564
189	0x3e8c0172	0.27344853
190	0xbe90d2cd	-0.28285828
191	0x3c9cf70c	0.01916077
192	0xbebce40a	-0.3689273
193	0xbec8ce9d	-0.39220133
194	0x3dbce745	0.09223799
195	0x3d71aa19	0.05900011
196	0xbd28e7ce	-0.04123669
197	0x3db6e9a5	0.08931283
198	0x3dc24a56	0.09486835
199	0x3e3bbf4b	0.18334691
200	0x3e968fa9	0.2940648
201	0xbe47e511	-0.19520976
202	0xbf00fa2a	-0.5038172
203	0x3e4d6077	0.2005633
204	0x3b174b2f	0.0023085584
205	0x3e310b0f	0.17289375
206	0xbd92eb4f	-0.07173788
207	0xbd51140e	-0.051044516
208	0xbf23870c	-0.6387794
209	0x3b94b31e	0.004537954
210	0xbe056efc	-0.13030618
211	0x3bb6bde8	0.005576838
212	0xbeef9784	-0.46795285
213	0xbe8fa360	-0.28054333
214	0x3cd964ab	0.02653726
215	0x3f47af09	0.7800146
216	0xbf1d8b7a	-0.6154095
217	0xbcbbf0a0	-0.022941887
218	0x3e467142	0.19379142
219	0xbe9799ac	-0.2960943
220	0x3e117770	0.14205718
221	0x3de2f686	0.11082177
222	0x39085b67	0.00013004021
223	0xbf275caf	-0.653758
224	0xbcac9d71	-0.021071168
225	0x3f11447a	0.5674511
226	0xbe08d36d	-0.13361903
227	0x3eb83d0c	0.35984075
228	0x3ec1cf13	0.37853298
229	0xbe3097fd	-0.17245479
230	0x3cab89fc	0.02093982
231	0x3decdfed	0.11566148
232	0xbe509630	-0.20369792
233	0xbe3fe2c7	-0.18738852
234	0x3e992a84	0.2991525
235	0xbe23f980	-0.16013145
236	0xbdcb3967	-0.09923058
237	0x3c359759	0.011083447
238	0x3e34a3ab	0.1764056
239	0x3ef11a49	0.47090366
240	0x3e57669d	0.21035238
241	0x3ed3550f	0.41275832
242	0x3abfc37f	0.0014630406
243	0xbe09df3a	-0.1346406
244	0xbd25acfc	-0.040448174
245	0xbd826ee9	-0.06368811
246	0x3aca9066	0.0015454411
247	0xbe5117ad	-0.20419188
248	0x3e23ce86	0.15996751
249	0xbf0d882f	-0.55285925
250	0xbdea4a58	-0.11439961
251	0x3ec18d37	0.3780305
252	0x3cbfa4f0	0.023394078
253	0x3db58e6a	0.08865054
254	0xbd80da1d	-0.06291602
255	0x3d0ad5e3	0.033895385

_actor_critic.actor.preprocess.model.model.0.bias f4 [64]
0	0xbc176fd9	-0.009242975
1	0x3e0ac27d	0.13550754
2	0xbd33a5e7	-0.04385939
3	0xbe3fc41f	-0.18727158
4	0xbd91fb28	-0.071279824
5	0xbe319c71	-0.17344834
6	0x3da8b779	0.0823812
7	0x3df96d9d	0.1217911
8	0x3cc5e3ac	0.024156414
9	0x3d43a3f6	0.047763787
10	0x3c93de4f	0.018050341
11	0xbe00410a	-0.1252481
12	0xbe53ebfb	-0.20695488
13	0x3cc4b38d	0.024011398
14	0x3d91a49a	0.071114734
15	0xbcb31171	-0.021858903
16	0xbb7c9c95	-0.0038545479
17	0xbe02d080	-0.12774849
18	0xbcf1b1e3	-0.029503768
19	0x3d33fa70	0.043940008
20	0xbd207929	-0.039178047
21	0xbde3fd9e	-0.11132358
22	0xbde55761	-0.11198307
23	0x3d5321c1	0.051545862
24	0x3ca3a4cd	0.019976044
25	0xbe58f2e1	-0.21186401
26	0x3e0427ba	0.1290578
27	0x3d43c031	0.04779071
28	0xbce5b9e2	-0.028042737
29	0x3d8beefc	0.06832692
30	0x3ba7d3b3	0.005121672
31	0xbe2787b9	-0.16360368
32	0xbdabbad6	-0.083852455
33	0xbdefa3a0	-0.11701131
34	0xbc675e56	-0.0141216125
35	0x3d07092c	0.03296773
36	0x3d6df215	0.058092196
37	0xbdf5fdf1	-0.12011326
38	0x3950edb2	0.00019924974
39	0xbc38ad64	-0.011271808
40	0xbdbed463	-0.09317853
41	0xbd2ffd85	-0.042966384
42	0x3d79bc64	0.06097068
43	0x3d1d22de	0.03836333
44	0xbbe7db22	-0.007075683
45	0x3da34b2a	0.07973321
46	0x3d9ded9c	0.07711336
47	0xbd240a2b	-0.04004876
48	0xbe610b6f	-0.21977018
49	0xbe635cad	-0.22203322
50	0xbe7a9cc1	-0.2447386
51	0x3e208a25	0.15677698
52	0x3cfb9c6a	0.030714232
53	0x3aef74df	0.0018269083
54	0x3d178986	0.036996387
55	0x3c91b82c	0.017788015
56	0xbd197133	-0.03746147
57	0xbc925370	-0.017862052
58	0xbe341241	-0.17585088
59	0xbc9e4092	-0.019317899
60	0x3da20fbc	0.07913157
61	0x3db4f765	0.08836249
62	0xbbcddfcb	-0.0062827817
63	0x3de1abea	0.11019118
