results/Ant-v3/a2c/5/220625-184804/policy.pth (torch, 103908 bytes, 24 tensors)

actor.sigma_param f4 [8, 1]
-1.9991628 -2.432649 -2.3043396 -2.0626943 -2.1365352 -2.5270474 -2.2277832 -2.148818
00000000: 91e4 ffbf 85b0 1bc0 4d7a 13c0 2f03 04c0
00000010: febc 08c0 25bb 21c0 0094 0ec0 3c86 09c0

actor.preprocess.model.model.0.weight f4 [64, 111]
-0.011572672 0.2017892 -0.015074386 0.27599084 0.13803104 -0.1515795 -0.2772877 0.17698894
0.07380859 0.116595306 -0.13880429 -0.18061213 0.22336744 -0.05248209 -0.01445668 0.010475586
0.063307755 -0.03326446 0.02454844 -0.02317186 -0.19328004 -0.11125903 -0.014644587 0.107693404
0.041660603 0.1742663 0.041317347 -0.0405942 0.05364998 -0.07313534 0.24468112 0.046151783
0.18326528 0.09271273 -0.0107218465 -0.11437557 -0.118844524 0.08836528 -0.010401465 0.16110018
0.053554155 0.15956756 0.012840622 0.012750105 -0.12665178 -0.101435944 -0.12246704 0.13666323
-0.1279195 -0.016076734 -0.08195608 0.1679254 -0.17800987 -0.029344223 -0.25392988 -0.051357716
-0.06723055 -0.041544173 0.037959512 -0.034332637 0.06943095 0.1732021 0.19375612 0.074928716
0.13724823 -0.13422474 0.121730916 -0.20208223 0.027072122 0.009271856 0.22960183 -0.15362404
-0.05424269 -0.08938124 -0.05719973 0.17984955 -0.08669606 -0.20531484 0.10033583 -0.07107075
0.13189249 0.1491434 0.16053867 -0.022131458 0.07106122 -0.09091214 -0.19750372 0.09947849
-0.3431268 -0.15609935 0.051212344 0.08602256 -0.19464853 -0.42779332 0.04333871 -0.09271396
-0.099419385 -0.10050731 -0.17248599 0.17318101 0.17689952 0.09630466 0.036670137 0.29670426
-0.003256571 -0.17945261 0.09074998 0.30831072 -0.066057295 0.05211049 0.03800078 0.24221902
0.1572605 0.06287046 -0.14140387 -0.020641953 -0.019084321 -0.010121321 0.046815373 0.04609156
-0.13197793 0.08163403 -0.055061184 0.13584943 0.15040095 0.00974793 -0.09969778 0.12979369
-0.15628226 -0.2658258 0.39096728 -0.123860925 -0.070708446 0.14018391 0.15694924 -0.25112554
-0.06282985 0.39477694 0.04234318 0.08321769 0.0392032 0.024324654 0.29991385 0.04089285
-0.13500601 0.022428859 0.16447914 0.0480839 0.029942911 -0.024800647 0.07494899 0.03646361
0.108877875 0.18280496 0.11658311 -0.13257334 0.029990556 0.23434642 -0.12856163 0.04279634
0.004409206 -0.06299568 -0.06517807 0.15804033 -0.12642488 -0.044511385 -0.15559489 -0.015907401
0.07570253 -0.17011847 -0.13940418 -0.19699381 -0.011806211 0.06696218 -0.06350807 0.004319337
-0.38443375 -0.06617838 -0.05775971 -0.038692486 -0.18609133 -0.07682826 0.20002352 0.028204555
-0.030115224 -0.19079785 -0.04223181 0.17455524 0.055381924 0.022812694 0.14669186 -0.17908351
0.1017761 -0.07807161 0.13392144 0.015656604 -0.071848884 -0.23412696 -0.32827172 0.1912345
-0.0063051814 -0.05740377 0.086918645 0.035746563 -0.2584838 -0.030976864 -0.14963469 -0.02579611
0.02143617 0.022251006 -0.07018121 -0.06309493 0.18519261 -0.02137993 -0.1257579 -0.012633593
0.05501693 0.06805266 -0.096721865 -0.00810384 0.36470821 -0.05241557 -0.48546252 0.33874914
0.0018034885 -0.2523308 -0.15083177 -0.10854666 -0.01652022 0.21858488 -0.3097546 0.100108445
-0.287561 -0.2840574 -0.057547454 0.19051942 -0.09880616 0.1598375 0.114139855 0.1045709
-0.054763794 -0.05735571 0.012235829 0.25131688 -0.12811473 0.19076847 0.04869715 -0.29813892
0.1805457 0.019944472 -0.18636821 -0.10444377 0.015618538 0.060722288 -0.022431225 0.018418368
00000000: 4e9b 3dbc d4a1 4e3e 8ffa 76bc ac4e 8d3e
00000010: 0258 0d3e a837 1bbe a7f8 8dbe 973c 353e
00000020: f528 973d 85c9 ee3d b622 0ebe 63f2 38be
00000030: 6fba 643e 76f7 56bd b6db 6cbc cba1 2b3c
00000040: 7fa7 813d 5040 08bd cf19 c93c ead2 bdbc
00000050: 34eb 45be c6db e3bd daef 6fbc 5c8e dc3d
00000060: 4fa4 2a3d dd72 323e 613c 293d 1b46 26bd
00000070: 15c0 5b3d fbc7 95bd b08d 7a3e a709 3d3d
00000080: e5a9 3b3e 2ce0 bd3d afaa 2fbc bd3d eabd
00000090: c264 f3bd dbf8 b43d e86a 2abc 72f7 243e
000000a0: 9a5b 5b3d ae65 233e 7961 523c d1e5 503c
000000b0: 01b1 01be a6bd cfbd 00d0 fabd 72f1 0b3e
000000c0: 54fd 02be 5bb3 83bc 97d8 a7bd a3f4 2b3e
000000d0: 3848 36be 4c63 f0bc 1903 82be 785c 52bd
000000e0: 2cb0 89bd 392a 2abd 6f7b 1b3d 61a0 0cbd
000000f0: d031 8e3d e45b 313e 0168 463e 3a74 993d
00000100: cd8a 0c3e 3672 09be 0f4e f93d a5ee 4ebe
00000110: 5bc6 dd3c fce8 173c be1c 6b3e 9f4f 1dbe
00000120: 952d 5ebd 830d b7bd 444a 6abd 7b2a 383e
00000130: b48d b1bd 0e3e 52be df7c cd3d 8b8d 91bd
00000140: d30e 073e 0cb9 183e 4064 243e 084d b5bc
00000150: 8b88 913d 2530 babd 6a3e 4abe 61bb cb3d
00000160: 51ae afbe 82d8 1fbe 09c4 513d 992c b03d
00000170: f251 47be ba07 dbbe ee83 313d d1e0 bdbd
00000180: 649c cbbd c7d6 cdbd 2ba0 30be 5d56 313e
00000190: 2625 353e 613b c53d 6d33 163d 9fe9 973e
000001a0: 326c 55bb 6dc2 37be 20db b93d e7da 9d3e
000001b0: 0c49 87bd cf71 553d b5a6 1b3d 4308 783e
000001c0: e608 213e 3ac2 803d 2dcc 10be 5019 a9bc
000001d0: b956 9cbc e6d3 25bc 7ac1 3f3d 81ca 3c3d
000001e0: 3925 07be be2f a73d d687 61bd 1d1c 0b3e
000001f0: b502 1a3e c8b5 1f3c 5a2e ccbd a3e8 043e
00000200: 7508 20be 521a 88be dd2c c83e ccaa fdbd
00000210: 97cf 90bd 5f8c 0f3e 4db7 203e 8793 80be
00000220: f0ac 80bd 3420 ca3e 0b70 2d3d 096e aa3d
00000230: 8993 203d 7f44 c73c 4f8e 993e 437f 273d
00000240: 043f 0abe babc b73c 386d 283e a0f3 443d
00000250: d64a f53c ba2a cbbc db7e 993d de5a 153d
00000260: 5dfb de3d 3931 3b3e 20c3 ee3d 4ec1 07be
00000270: c1ae f53c 82f8 6f3e a9a5 03be 374b 2f3d
00000280: 1a7b 903b e103 81bd 147c 85bd 53d5 213e
00000290: 8675 01be 9251 36bd 4454 1fbe 3d50 82bc
000002a0: ee09 9b3d 8933 2ebe f8bf 0ebe bfb8 49be
000002b0: d76e 41bc 7823 893d 8510 82bd 3a89 8d3b
000002c0: 80d4 c4be 8888 87bd 7295 6cbd 037c 1ebd
000002d0: ba8e 3ebe 2358 9dbd f7d2 4c3e 3d0d e73c
000002e0: 34b4 f6bc 8360 43be 43fb 2cbd 9cbe 323e
000002f0: 28d8 623d b0e1 ba3c 6436 163e ab61 37be
00000300: fd6f d03d 02e4 9fbd b422 093e 4742 803c
00000310: 8225 93bd fabe 6fbe 3b13 a8be fad2 433e
00000320: b29b cebb 3720 6bbd 6702 b23d fd6a 123d
00000330: fd57 84be 31c3 fdbc d639 19be 5d52 d3bc
00000340: e89a af3c be47 b63c 2bbb 8fbd ea37 81bd
00000350: 22a3 3d3e f724 afbc aec6 00be 21fd 4ebc
00000360: 6f59 613d 315f 8b3d 1d16 c6bd f8c5 04bc
00000370: 09bb ba3e b5b1 56bd 8b8e f8be 8770 ad3e
00000380: 0863 ec3a 8131 81be a573 1abe b64d debd
00000390: 6a55 87bc b7d4 5f3e 2898 9ebe a805 cd3d
000003a0: 323b 93be f96f 91be e1b6 6bbd 8617 433e
000003b0: e25a cabd 71ac 233e 28c2 e93d 4529 d63d
000003c0: 0050 60bd d2ed 6abd c978 483c 9bac 803e
000003d0: 8230 03be cf58 433e aa76 473d aaa5 98be
000003e0: f9e0 383e 9762 a33c 4fd7 3ebe 9ee6 d5bd
000003f0: e5e4 7f3c efb7 783d b0c1 b7bc 1ee2 963c

actor.preprocess.model.model.0.bias f4 [64]
-0.0837957 -0.05235659 -0.10365329 -0.08282477 -0.119817995 0.09118132 0.15543824 -0.031942442
-0.07858823 -0.09607557 -0.0034579115 0.049716618 -0.042619366 0.10041667 -0.07356055 -0.012173363
-0.07967753 0.09976706 -0.10143041 0.116809584 -0.10255642 -0.0992977 -0.058171283 -0.040120605
-0.028350491 -0.32339644 0.115562305 -0.19609049 -0.11461646 0.027828515 -0.13526085 -0.1986516
-0.109993614 -0.10932415 -0.12710053 -0.075823575 0.067020155 -0.062191777 -0.10689593 -0.10130638
0.04570601 0.012726919 0.08658377 0.094991684 0.069484845 -0.030158812 -0.028471852 -0.05287126
0.11087551 -0.032976836 -0.015530928 0.062707715 -0.08079682 -0.036580287 0.07441709 -0.06506407
0.10795606 -0.1467371 0.011837621 0.12755078 0.23492448 0.015352362 -0.081284784 -0.16555417
00000000: 149d abbd dd73 56bd 2d48 d4bd 08a0 a9bd
00000010: 2363 f5bd 46bd ba3d 342b 1f3e 14d6 02bd
00000020: def2 a0bd 45c3 c4bd 219e 62bb a7a3 4b3d
00000030: a591 2ebd 41a7 cd3d eaa6 96bd c972 47bc
00000040: f92d a3bd ac52 cc3d bfba cfbd dd39 ef3d
00000050: 1a09 d2bd 985c cbbd 0345 6ebd 8155 24bd
00000060: 4a3f e8bc 3894 a5be eeab ec3d f2cb 48be
00000070: 09bc eabd a0f8 e33c d281 0abe 536b 4bbe
00000080: 5544 e1bd 57e5 dfbd a426 02be 6449 9bbd
00000090: dd41 893d cebc 7ebd 41ec dabd b879 cfbd
000000a0: 3a36 3b3d 9184 503c d552 b13d 008b c23d
000000b0: 124e 8e3d 9d0f f7bc cd3d e9bc 898f 58bd
000000c0: b312 e33d b812 07bd 6f75 7ebc e76c 803d
000000d0: ce78 a5bd 36d5 15bd fd67 983d 5040 85bd
000000e0: 1118 dd3d 4042 16be 95f2 413c ac9c 023e
000000f0: 0b90 703e 7988 7b3c a378 a6bd 0887 29be

actor.preprocess.model.model.2.weight f4 [64, 64]
0.16285728 -0.17255674 0.2368588 -0.20356707 -0.2549271 0.35097682 0.14949852 0.12634078
-0.00044837224 -0.039742738 0.007596016 0.15813594 0.04946257 0.21111025 0.11586202 0.2472875
0.2048786 -0.2591745 -0.17627282 -0.10189712 0.20299514 -0.092895634 -0.095552936 -0.14953181
0.23567751 -0.055011936 0.24156359 -0.08712936 -0.052707568 0.25621265 0.022080392 0.32449144
0.15359645 -0.16239049 -0.08898809 -0.018227583 -0.18932405 0.026760198 -0.0304253 -0.095266715
-0.15103975 0.031486727 -0.20864582 0.11573325 -0.11799348 0.06799919 -0.07311242 0.16175213
-0.017776527 -0.12551506 -0.42298523 -0.14132172 0.004336067 -0.05250826 -0.15950307 0.28044653
0.1662564 0.187354 0.16052131 0.43494943 -0.20773183 -0.28441218 -0.49507228 -0.07788748
0.04541594 -0.09164147 0.13070656 0.41462058 -0.09119974 0.033794973 -0.09527229 0.12465679
-0.012319242 -0.14006075 -0.20093353 -0.11554482 0.18044439 -0.286876 0.15619968 0.023673045
-0.14583707 -0.25164914 -0.23343745 0.14448124 0.14477687 0.14428277 0.08595806 -0.23888524
-0.25590822 -0.053743687 0.15450116 -0.37242386 0.19023852 -0.083628915 -0.031438295 -0.2733322
-0.012813565 0.12731309 -0.34758815 -0.2982085 -0.021841997 -0.10972181 0.28538027 -0.03861949
-0.016207004 0.09153557 -0.19091387 0.14537571 -0.13235791 -0.1339717 0.040195018 -0.023485795
0.13378951 -0.1305471 0.32333758 -0.22883135 0.0023133182 -0.008874205 -0.21660304 -0.04581068
0.16989945 -0.16198418 -0.07384977 -0.044434413 -0.13409421 0.25269136 -0.28052738 0.20280544
0.120321736 -0.070198216 -0.07095125 0.15326811 0.008154863 0.15503243 0.035346743 0.13285202
-0.2691978 -0.10906884 -0.1579337 0.13519181 0.44014606 -0.11315068 -0.36335367 0.18002555
0.0810758 -0.15461175 -0.2885807 0.30514967 -0.00828944 0.021890327 0.1934569 0.0069804727
0.12286169 -0.2032882 -0.355778 0.057704464 -0.22815353 -0.046524078 0.34227642 0.046869352
-0.18738279 -0.14375564 0.1436738 0.21263179 0.07178594 -0.014127185 -0.063007414 -0.07743283
-0.014130767 -0.11408957 0.0135885095 -0.06771319 0.11103871 0.14302118 0.13184497 0.26266065
0.0005130976 0.15793605 0.09670846 -0.24480213 0.16770102 -0.07454957 -0.31071332 0.26682574
0.14238992 0.3189901 0.33355433 -0.12418183 0.19572459 0.20296253 0.18748672 -0.06509937
0.053683452 0.29255244 0.13185753 0.26612797 -0.10827902 0.12428411 -0.09849706 -0.10328408
0.08776083 0.07932659 -0.06493345 0.060279574 -0.063024595 0.21490623 0.17720965 -0.13373022
0.027954586 0.056084774 -0.18796962 -0.024895832 -0.18369742 -0.012104385 0.35561088 -0.16705109
0.16675249 0.3301916 -0.11068387 0.046702716 0.1697715 0.13594666 -0.14443262 -0.067092955
-0.19619334 0.15058316 -0.19763626 -0.20209628 0.03723318 0.068251766 -0.032671142 0.17789564
0.3710919 -0.40291727 -0.079532094 -0.10012112 0.08044875 -0.22564717 -0.05264759 -0.46331805
0.011475905 0.1898378 -0.22299784 0.09528109 -0.07338902 -0.19484283 0.0009930581 0.29764238
-0.0019069539 0.084732175 0.15064071 -0.026127856 0.10150725 0.28802297 -0.13644747 -0.075159974
00000000: 0fc4 263e b7b2 30be 1d8b 723e e373 50be
00000010: ce85 82be 3cb3 b33e 2416 193e 7a5f 013e
00000020: 8113 ebb9 48c9 22bd 00e8 f83b 63ee 213e
00000030: 4499 4a3d 492d 583e 1149 ed3d ef38 7d3e
00000040: b2cb 513e 85b2 84be dd80 34be 70af d0bd
00000050: f5dd 4f3e 1140 bebd 42b1 c3bd de1e 19be
00000060: 7255 713e 3254 61bd 725c 773e e170 b2bd
00000070: e4e3 57bd 4e2e 833e f0e1 b43c be23 a63e
00000080: 6348 1d3e b149 26be 633f b6bd 0352 95bc
00000090: 2ade 41be 3438 db3c 7b3e f9bc 321b c3bd
000000a0: 2aaa 1abe 3af8 003d 40a7 55be 8e05 ed3d
000000b0: 91a6 f1bd 2943 8b3d f7bb 95bd 5aa2 253e
000000c0: 14a0 91bc 0587 00be 8591 d8be a4b6 10be
000000d0: 9115 8e3b e712 57bd c654 23be b096 8f3e
000000e0: 1e3f 2a3e bad9 3f3e b35f 243e b1b1 de3e
000000f0: a7b7 54be 799e 91be 1d7a fdbe 7983 9fbd
00000100: 1106 3a3d 86ae bbbd f1d7 053e 2649 d43e
00000110: eec6 babd 996c 0a3d 1e1e c3bd 0f4c ff3d
00000120: a5d6 49bc 166c 0fbe 85c1 4dbe c3a2 ecbd
00000130: 6ac6 383e 69e1 92be cff2 1f3e f9ed c13c
00000140: 5056 15be 28d8 80be 3a0a 6fbe e4f2 133e
00000150: 6340 143e ddbe 133e c80a b03d 559e 74be
00000160: 6706 83be 5722 5cbd 8d35 1e3e 57ae bebe
00000170: e3cd 423e a345 abbd 71c5 00bd 33f2 8bbe
00000180: fdef 51bc 5d5e 023e 13f7 b1be c9ae 98be
00000190: fded b2bc d4b5 e0bd 5d1d 923e 782f 1ebd
000001a0: 8dc4 84bc 0077 bb3d ed7e 43be 5fdd 143e
000001b0: d588 07be e12f 09be 88a3 243d 4865 c0bc
000001c0: 1e00 093e 24ae 05be 818c a53e c452 6abe
000001d0: 0a9b 173b 1d65 11bc 30cd 5dbe fba3 3bbd
000001e0: 1ffa 2d3e 2edf 25be 8c3e 97bd dc00 36bd
000001f0: fe4f 09be c360 813e 49a1 8fbe 3bac 4f3e
00000200: 3e6b f63d 15c4 8fbd e44e 91bd 51f2 1c3e
00000210: f99b 053c d2c0 1e3e bfc7 103d 5c0a 083e
00000220: 4bd4 89be 7c5f dfbd 5fb9 21be b96f 0a3e
00000230: d35a e13e 8bbb e7bd 7e09 babe 9e58 383e
00000240: 120b a63d 8b52 1ebe d9c0 93be 943c 9c3e
00000250: 6ed0 07bc 5853 b33c 9119 463e 73bc e43b
00000260: e99e fb3d c82a 50be 8928 b6be 845b 6c3d
00000270: 14a1 69be 0890 3ebd db3e af3e 14fa 3f3d
00000280: 46e1 3fbe ae34 13be 3a1f 133e 26bc 593e
00000290: 8204 933d b575 67bc 080a 81bd 1b95 9ebd
000002a0: bc84 67bc cba7 e9bd 57a2 5e3c 37ad 8abd
000002b0: 4368 e33d 2574 123e 5e02 073e 757b 863e
000002c0: 6681 063a fdb9 213e 160f c63d 69ad 7abe
000002d0: d1b9 2b3e 72ad 98bd d115 9fbe 629d 883e
000002e0: aace 113e ac52 a33e a2c7 aa3e 0b53 febd
000002f0: 076c 483e 69d5 4f3e 85fc 3f3e d252 85bd
00000300: 2ee3 5b3d 6fc9 953e a905 073e ed41 883e
00000310: 64c1 ddbd ab88 fe3d d4b8 c9bd 9b86 d3bd
00000320: f3bb b33d fb75 a23d d4fb 84bd b7e7 763d
00000330: 0a13 81bd 6110 5c3e 7276 353e 93f0 08be
00000340: 0401 e53c 26b9 653d 1c7b 40be 58f2 cbbc
00000350: 2d1b 3cbe 7851 46bc a112 b63e 710f 2bbe
00000360: 2ac1 2a3e e00e a93e 3aae e2bd 594b 3f3d
00000370: 95d8 2d3e 9a35 0b3e 25e6 13be 0868 89bd
00000380: e8e6 48be 7932 1a3e 2961 4abe 54f2 4ebe
00000390: d281 183d 95c7 8b3d 2dd2 05bd 462a 363e
000003a0: c2ff bd3e 2c4b cebe b9e1 a2bd 4d0c cdbd
000003b0: 50c2 a43d 0d10 67be 00a5 57bd 0638 edbe
000003c0: 6f05 3c3c d764 423e 8c59 64be bb22 c33d
000003d0: fc4c 96bd e184 47be 8029 823a 9564 983e
000003e0: c1f2 f9ba 1088 ad3d 8f41 1a3e 160a d6bc
000003f0: 08e3 cf3d bf77 933e e3b8 0bbe 79ed 99bd

actor.preprocess.model.model.2.bias f4 [64]
0.04036478 -0.0025776196 -0.02360927 -0.0981547 0.124982335 0.2020747 -0.014551277 -0.09289967
-0.10717663 0.18708374 0.19895907 0.066139676 -0.022079354 0.035218783 -0.0021702468 -0.14973088
0.039270036 -0.054481655 -0.15946744 0.011433343 -0.11676996 -0.09695675 0.014482685 0.06018121
0.07288488 0.0030274298 0.13233653 -0.023205092 -0.022329377 0.20231667 -0.00957374 0.039097294
-0.025381917 0.017495712 0.04199643 0.1761823 -0.044550654 -0.028712323 -0.08592041 -0.0686916
-0.09305416 -0.050849125 -0.066331096 -0.19713786 0.17974967 -0.13384025 0.14299345 0.0064180056
0.008560252 -0.0106291035 -0.21055515 0.074890025 0.042060364 0.124877416 -0.076274455 -0.102240935
0.0397664 0.09997018 -0.0169134 -0.24232052 -0.05492548 0.0073745055 0.043459766 -0.095071286
00000000: 8a55 253d 48ed 28bb 3a68 c1bc 5505 c9bd
00000010: bdf6 ff3d acec 4e3e 7b68 6ebc 2f42 bebd
00000020: 6c7f dbbd e192 3f3e edbb 4b3e 3d74 873d
00000030: c3df b4bc 9241 103d b33a 0ebb 0d53 19be
00000040: 9ed9 203d 2828 5fbd 6f4b 23be eb52 3b3c
00000050: 1725 efbd 4391 c6bd c948 6d3c 9380 763d
00000060: ab44 953d d867 463b 3a83 073e 9b18 bebc
00000070: 19ec b6bc 1a2c 4f3e 2ddb 1cbc 7c24 203d
00000080: bded cfbc 2b53 8f3c 7304 2c3d 2269 343e
00000090: bf7a 36bd 1b36 ebbc 0af7 afbd 2eae 8cbd
000000a0: 2e93 bebd 2c47 50bd 99d8 87bd 82de 49be
000000b0: 4c10 383e 6b0d 09be e06c 123e 224e d23b
000000c0: 4d40 0c3c b125 2ebc c59b 57be f15f 993d
000000d0: 7d47 2c3d bbbf ff3d c835 9cbd b263 d1bd
000000e0: 18e2 223d 2abd cc3d f88d 8abc df22 78be
000000f0: 8af9 60bd d6a5 f13b de02 323d bcb4 c2bd

actor.mu.model.0.weight f4 [8, 64]
-0.00045672778 0.06067303 -0.009788254 0.008104529 -0.06118439 0.12377053 0.04856936 0.013025601
0.092099205 -0.05807311 0.023209793 0.02522767 -0.032153938 -0.0482444 -0.04489 0.060064808
0.21065588 0.04191222 0.094577126 -0.03825452 -0.08819902 -0.008378826 0.0045110863 0.046523605
0.0030731824 0.0028717194 0.080913015 0.0356939 0.094198875 0.20082954 -0.12714086 -0.0668698
-0.05735063 -0.031562135 0.021086302 0.018560674 0.027450224 0.01828266 0.08584891 -0.027571952
-0.031168874 0.12673335 0.018655103 -0.025053885 -0.13080446 0.05516742 0.075365044 0.013266175
0.061933104 -0.05660013 -0.109478556 0.025009926 -0.07029347 0.053687073 0.03245009 0.0025802753
-0.011247106 -0.0005573159 0.06605708 -0.004602824 -0.019935643 -0.075697355 0.0245806 -0.046304937
0.0034207592 0.0070155663 -0.023414917 0.039269645 -0.03020776 0.0326776 -0.02719782 -0.039165884
0.010242659 -0.023818154 0.0050158724 0.0006866976 -0.0147982305 -0.018055255 0.017801104 0.019755058
-0.022914503 0.04180931 0.006874708 -0.031486187 0.041352794 0.055734776 0.027224606 0.0020595856
0.030243503 0.0109683825 -0.018145747 -0.07701609 -0.032017082 -0.07501457 -0.010773105 0.00529188
0.07156279 0.046972055 0.056055587 0.096232995 -0.028146237 0.013480145 0.032448955 0.017123317
0.047154438 -0.106840394 0.014633543 -0.017852964 0.014285065 0.018460212 0.010646503 0.016944053
0.018252544 -0.0030186817 0.04924811 -0.068697035 0.0562834 0.022934865 0.0001725607 0.0060906434
-0.009033253 -0.07625592 0.031770024 0.03598254 0.017961398 0.02147602 0.007261156 0.0803018
0.031820852 -0.019666359 -0.01167442 -0.030866433 0.03146882 -0.0131665785 0.0032066598 -0.016212195
-0.046210743 0.010794808 -0.010545595 -0.004767434 -0.05844001 -0.038214784 -0.02138582 -0.05485669
0.039211668 0.025200106 -0.04229253 0.07113629 -7.0005604e-05 -0.04588754 -0.0073920344 0.048493452
0.06400662 -0.015919035 0.031106856 -0.018570533 -0.09825612 0.012626292 0.03920611 -0.036648944
-0.06721441 0.03348956 -0.0040386654 0.042060923 -0.03418434 -0.0012551552 0.024739824 -0.054712333
0.033999387 0.024244701 -0.042582624 -0.01939172 -0.041710973 0.0042514256 -0.019181933 0.023531554
0.007315797 -0.023312142 -0.042133104 0.064965345 0.06200931 -0.034053553 -0.06560118 0.004715903
0.014172404 -0.0026718455 0.0067235082 -0.024281343 0.01384884 -0.019205458 -0.01952665 -0.02757099
-0.0037235015 -0.004370091 -0.050372157 -0.004078937 -0.048309192 0.07967261 0.023176765 0.02582106
0.005766836 -0.082688026 -0.08866463 0.014568836 0.031042393 -0.02356993 -0.0054997373 0.024259258
0.04811852 -0.0019220391 0.07714924 0.008942248 0.04092381 0.009672413 0.00030219436 -0.06858624
-0.040523235 0.006116312 -0.042809926 -0.01812698 -0.041741773 -0.032398324 -0.006546405 -0.03902738
0.008047563 0.015194961 -0.00079995836 -0.021621017 -0.05787259 -0.009420446 0.029798314 -0.007165765
-0.036714956 0.07154702 0.051617514 0.021912316 -0.03922209 -0.030973712 0.098935604 -0.042121362
0.00980971 0.09626344 0.045079637 0.045088988 -0.10877251 -0.08969954 -0.013410444 -0.010795062
0.018870072 0.0015412802 -0.0224314 0.044767663 -0.05160855 0.05954725 -0.0044971867 -0.034162853
00000000: f774 efb9 4884 783d ea5e 20bc dcc8 043c
00000010: 7c9c 7abd 677b fd3d aaf0 463d 5569 553c
00000020: 829e bc3d 12de 6dbd 7722 be3c 42aa ce3c
00000030: d9b3 03bd ec9b 45bd 94de 37bd 8406 763d
00000040: 2db6 573e 26ac 2b3d a7b1 c13d c6b0 1cbd
00000050: b0a1 b4bd 5847 09bc bcd1 933b 898f 3e3d
00000060: 7267 493b 7533 3c3b b9b5 a53d c433 123d
00000070: 57eb c03d 42a6 4d3e 3731 02be 09f3 88bd
00000080: 7fe8 6abd 4c47 01bd 2ebd ac3c 8e0c 983c
00000090: 4bdf e03c 84c5 953c 8ed1 af3d 93de e1bc
000000a0: de55 ffbc 63c6 013e 96d2 983c ce3d cdbc
000000b0: 9bf1 05be 3cf7 613d fd58 9a3d 5f5a 593c
000000c0: 91ad 7d3d 8ad5 67bd 4b36 e0bd 9ee1 cc3c
000000d0: 06f6 8fbd fae6 5b3d 63ea 043d d619 293b
000000e0: c845 38bc d618 12ba ef48 873d 49d3 96bb
000000f0: 1350 a3bc 3707 9bbd 415d c93c 3faa 3dbd
00000100: d12e 603b d6e2 e53b a4d0 bfbc 35d9 203d
00000110: 4476 f7bc f2d8 053d f6cd debc 686c 20bd
00000120: d3d0 273c 4a1e c3bc 305c a43b 7f03 343a
00000130: 4774 72bc 9de8 93bc 9fd3 913c 5cd5 a13c
00000140: 32b7 bbbc 3d40 2b3d 3b45 e13b a9f7 00bd
00000150: 8c61 293d 264a 643d 2306 df3c 1dfa 063b
00000160: 39c1 f73c bbb4 333c 64a6 94bc 9dba 9dbd
00000170: 5824 03bd 3da1 99bd ad81 30bc 8267 ad3b
00000180: 838f 923d c565 403d 8b9a 653d ce15 c53d
00000190: f092 e6bc d3db 5c3c 32e9 043d 3346 8c3c
000001a0: 0325 413d 23cf dabd 87c1 6f3c 6140 92bc
000001b0: e80b 6a3c df39 973c ac6e 2e3c 41ce 8a3c
000001c0: 5c86 953c 13d5 45bb 63b8 493d 08b1 8cbd
000001d0: 6c89 663d e6e1 bb3c 69f1 3439 0594 c73b
000001e0: 3600 14bc 102c 9cbd 4921 023d 6e62 133d
000001f0: c823 933c 7aee af3c feee ed3b 4575 a43d
00000200: 9556 023d 581b a1bc 1146 3fbc 9adb fcbc
00000210: 73e5 003d a2b8 57bc d326 523b 70cf 84bc
00000220: 7a47 3dbd b5dc 303c 6ec7 2cbc 2338 9cbb
00000230: cb5e 6fbd 1b87 1cbd 5131 afbc 69b1 60bd
00000240: 6a9c 203d 7470 ce3c ef3a 2dbd e7af 913d
00000250: f9cf 92b8 93f4 3bbd e138 f2bb 12a1 463d
00000260: e715 833d a368 82bc ced3 fe3c 3b21 98bc
00000270: 813a c9bd 82de 4e3c 9696 203d 341d 16bd
00000280: b5a7 89bd 592c 093d c856 84bb 1348 2c3d
00000290: e104 0cbd 0584 a4ba 2cab ca3c 0a1a 60bd
000002a0: f142 0b3d d39c c63c 1e6b 2ebd 62db 9ebc
000002b0: 20d9 2abd 8b4f 8b3b 6e23 9dbc 3fc5 c03c
000002c0: 5ab9 ef3b 1bf9 bebc c393 2cbd 8d0c 853d
000002d0: 79fd 7d3d bd7b 0bbd e959 86bd dd87 9a3b
000002e0: 5f33 683c 211a 2fbb e050 dc3b abe9 c6bc
000002f0: 3fe6 623c c454 9dbc 5af6 9fbc 8fdc e1bc
00000300: fd05 74bb fb32 8fbb 0953 4ebd 9ba8 85bb
00000310: dcdf 45bd 652b a33d 33dd bd3c b086 d33c
00000320: baf7 bc3b 5758 a9bd cd95 b5bd 21b2 6e3c
00000330: 9e4c fe3c ba15 c1bc 2437 b4bb 5abb c63c
00000340: ed17 453d eeec fbba 6c00 9e3d 8282 123c
00000350: ba9f 273d 0a79 1e3c d76f 9e39 f176 8cbd
00000360: b1fb 25bd 586b c83b 7659 2fbd 087f 94bc
00000370: 6cf9 2abd 1bb4 04bd 3a83 d6bb 2ddb 1fbd
00000380: edd9 033c 49f4 783c 4cb4 51ba 8f1e b1bc
00000390: cf0b 6dbd 3758 1abc 981b f43c cbce eabb
000003a0: 6c62 16bd 3e87 923d e36c 533d 7581 b33c
000003b0: 58a7 20bd 95bc fdbc c09e ca3d 7387 2cbd
000003c0: e8b8 203c c425 c53d 6da5 383d 3baf 383d
000003d0: 1fc4 debd 64b4 b7bd 7bb7 5bbc c6dd 30bc
000003e0: 6995 9a3c c804 ca3a 0ec2 b7bc 4c5e 373d
000003f0: 7d63 53bd d1e7 733d 235d 93bb 59ee 0bbd

actor.mu.model.0.bias f4 [8]
-0.04972867 -0.14547673 0.10527164 -0.041346833 0.017972883 0.1807092 0.040448233 0.15199915
00000000: 4ab0 4bbd daf7 14be a898 d73d 4c5b 29bd
00000010: de3b 933c d50b 393e 0cad 253d aaa5 1b3e

critic.preprocess.model.model.0.weight f4 [64, 111]
-0.13015522 -0.1367569 0.04885539 -0.19059607 0.012957437 -0.012060431 0.13275635 -0.06643923
0.037724182 0.01630632 -0.17950468 0.020256747 0.24088717 0.17910668 -0.015779942 0.21350789
0.099126436 0.029857866 -0.040936157 -0.07487322 -0.010791646 -0.09902807 0.090640366 0.04497646
-0.088568546 -0.1072479 -0.04404219 -0.08411501 -0.03601665 0.14230788 -0.06633291 0.011722952
-0.20858228 -0.060137782 0.06779207 -0.0085618375 0.031164106 0.016369393 0.039947208 0.25261608
-0.059155177 0.10752025 -0.07369326 -0.12231278 -0.19066553 -0.22585241 0.0023508405 -0.14065968
0.14677723 0.12657037 0.01661328 0.005576626 0.03594585 -0.014762413 0.0038944902 0.009190504
-0.172331 -0.0070232064 0.049549736 0.038411822 0.037044443 -0.096664965 0.10586141 -0.30414844
-0.119103074 0.122425854 0.104851514 -0.06827391 0.09980466 -0.1303274 -0.030968219 -0.27635986
-0.15705237 0.144724 0.13328679 -0.08876528 0.13154432 -0.1355952 0.18989538 0.082478665
0.006272267 -0.11392072 -0.1455239 -0.1798304 0.27271983 -0.042090643 -0.061386704 -0.20316681
-0.16989474 -0.08196722 0.21713412 0.10940354 0.11776612 -0.10479633 -0.017330516 -0.01843519
0.054523256 0.038909234 -0.04327992 -0.0019644024 -0.37709022 0.076459885 -0.2264724 0.124169216
0.1168503 0.14933036 0.19798908 0.25876036 -0.12621716 0.066217735 -0.079573266 0.038759734
-0.08833293 -0.005865599 0.32854605 0.14895067 0.11938453 0.19251004 -0.001074364 -0.16276696
0.033296935 0.14066519 0.18767862 -0.08822827 0.0149706295 0.049807224 -0.03919401 0.046119362
-0.0046657464 0.026838424 -0.1292985 -0.0787018 0.037072144 0.092051305 0.028849687 -0.09752398
0.041790374 -0.035956852 -0.04256485 -0.034188487 0.2267329 0.021818116 0.08066557 0.0011074906
0.05658864 -0.17136559 -0.06352937 0.021692585 -0.25339314 0.13578507 0.108367585 0.08964818
-0.18426457 0.177459 0.13770622 0.027068982 -0.2814784 -0.2365811 -0.013518978 0.005346462
0.041951057 -0.07690624 0.14952861 -0.037413545 -0.024755847 -0.055411905 0.07741665 -0.014017232
-0.06323216 -0.30867478 -0.22101673 0.030197032 0.1499355 0.21576467 0.09803746 -0.105952434
0.17786132 -0.19594361 0.142996 -0.045746833 -0.055614535 -0.18801406 0.007290717 0.031879906
0.15147845 -0.09540223 0.111023925 -0.079632 0.09625717 -0.2916353 -0.036976743 0.21595442
0.059213296 -0.06823513 0.011887942 -0.022850791 0.23142438 0.093645535 -0.10706877 0.018805489
-0.020770686 0.07738752 -0.0066287415 0.069759555 0.1961896 0.2171229 0.05492439 -0.01890448
0.22002707 -0.16239917 -0.066882 0.066927485 0.03999135 0.066499054 0.0016457258 0.05514502
0.0071338294 0.2686019 -0.11740475 -0.006479177 0.20936659 -0.16072236 0.023983251 -0.11617766
0.24298935 0.14442259 -0.09133998 0.15563573 0.049721494 0.09863974 -0.055111054 -0.07485157
0.04471398 -0.052562423 0.1416175 -0.06528132 -0.09232423 -0.058109414 0.044809375 0.28108692
-0.105501495 0.05032288 -0.060051516 0.068504296 -0.07647917 -0.0737439 0.067920394 0.016587155
0.15540048 0.03298352 -0.014025669 0.19819361 -0.1604981 0.2600002 -0.16087168 0.026053898
00000000: 6947 05be 000a 0cbe 971c 483d 9e2b 43be
00000010: 6e4b 543c 1d99 45bc 48f1 073e 4b11 88bd
00000020: ac84 1a3d d594 853c 13d0 37be 7af1 a53c
00000030: 20ab 763e be67 373e f044 81bc d0a1 5a3e
00000040: cd02 cb3d 7c98 f43c acac 27bd 2157 99bd
00000050: 72cf 30bc 3bcf cabd a8a1 b93d 3d39 383d
00000060: 6d63 b5bd c9a4 dbbd 9565 34bd 7e44 acbd
00000070: 3286 13bd 28b9 113e 8cd9 87bd a011 403c
00000080: 9896 55be 0953 76bd 92d6 8a3d f346 0cbc
00000090: de4b ff3c 1b19 863c af9f 233d e556 813e
000000a0: b34c 72bd 9433 dc3d 7eec 96bd 1f7f fabd
000000b0: d33d 43be db45 67be 8f10 1a3b 1709 10be
000000c0: c54c 163e aa9b 013e 9318 883c 21bc b63b
000000d0: f53b 133d 0cde 71bc b43a 7f3b c593 163c
000000e0: 8a77 30be ed22 e6bb aaf4 4a3d b755 1d3d
000000f0: eabb 173d 48f8 c5bd decd d83d 58b9 9bbe
00000100: 50ec f3bd 68ba fa3d 64bc d63d 31d3 8bbd
00000110: 6366 cc3d 8c74 05be 10b1 fdbc 0a7f 8dbe
00000120: 56d2 20be 8732 143e 557c 083e 92ca b5bd
00000130: 8eb3 063e 78d9 0abe ef73 423e 93ea a83d
00000140: 9787 cd3b 444f e9bd 3804 15be 7625 38be
00000150: efa1 8b3e 3d67 2cbd a070 7bbd f60a 50be
00000160: e3f8 2dbe 6ede a7bd 6858 5e3e f70e e03d
00000170: 5d2f f13d 759f d6bd baf8 8dbc 6505 97bc
00000180: c753 5f3d 4a5f 1f3d 4946 31bd 34bd 00bb
00000190: f811 c1be 0097 9c3d 61e8 67be 6e4c fe3d
000001a0: 364f ef3d 0fea 183e a6bd 4a3e 3d7c 843e
000001b0: 123f 01be 2a9d 873d 4ff7 a2bd 87c2 1e3d
000001c0: e5e7 b4bd 3634 c0bb 3037 a83e 8686 183e
000001d0: e07f f43d 5a21 453e acd1 8cba 62ac 26be
000001e0: 5e62 083d 890a 103e d32e 403e 06b1 b4bd
000001f0: 5f47 753c a902 4c3d e689 20bd a8e7 3c3d
00000200: 1ee3 98bb 41dc db3c d366 04be 692e a1bd
00000210: f6d8 173d 6585 bc3d 2e56 ec3c a7ba c7bd
00000220: 622c 2b3d 7e47 13bd 7b58 2ebd 3a09 0cbd
00000230: ab2c 683e e8bb b23c fe33 a53d 3829 913a
00000240: 7dc9 673d 767a 2fbe b01b 82bd a6b4 b13c
00000250: bfbc 81be 3e0b 0b3e d3ef dd3d 7799 b73d
00000260: daaf 3cbe d0b7 353e dc02 0d3e c5bf dd3c
00000270: f01d 90be 5142 72be b47e 5dbc 6031 af3b
00000280: dfd4 2b3d 0581 9dbd 071e 193e f23e 19bd
00000290: c6cc cabc 98f7 62bd 9f8c 9e3d 88a8 65bc
000002a0: dd7f 81bd 9f0a 9ebe 3652 62be c45f f73c
000002b0: b188 193e 6af1 5c3e ddc7 c83d 97fd d8bd
000002c0: 4721 363e 71a5 48be 8b6d 123e 0861 3bbd
000002d0: 11cc 63bd c286 40be f8e6 ee3b 8194 023d
000002e0: 2b1d 1b3e 3f62 c3bd 8360 e33d 1a16 a3bd
000002f0: 7b22 c53d 3951 95be ed74 17bd 2823 5d3e
00000300: a489 723d dcbe 8bbd a5c5 423c 9531 bbbc
00000310: 83fa 6c3e 3bc9 bf3d df46 dbbd f80d 9a3c
00000320: 4927 aabc 597d 9e3d ea35 d9bb 19de 8e3d
00000330: ede5 483e 7755 5e3e 66f8 603d 91dd 9abc
00000340: c74e 613e f84b 26be 6ef9 88bd 4711 893d
00000350: f8cd 233d a830 883d 65b5 d73a bfdf 613d
00000360: e6c2 e93b 3086 893e e771 f0bd 474f d4bb
00000370: 3264 563e 6794 24be 8678 c43c 8eee edbd
00000380: 33d2 783e 84e3 133e 7510 bbbd f95e 1f3e
00000390: c4a8 4b3d a203 ca3d 21bc 61bd c84b 99bd
000003a0: 0226 373d b24b 57bd 2e04 113e 36b2 85bd
000003b0: 7c14 bdbd 2304 6ebd 098a 373d a0ea 8f3e
000003c0: 2b11 d8bd 5d1f 4e3d 94f8 75bd fb4b 8c3d
000003d0: 1ca1 9cbd 0b07 97bd d919 8b3d c9e1 873c
000003e0: 4e21 1f3e ba19 073d ebcb 65bc 44f3 4a3e
000003f0: 9d59 24be bf1e 853e 8cbb 24be fc6e d53c

critic.preprocess.model.model.0.bias f4 [64]
-0.08647933 -0.15632792 -0.03079215 0.2962335 -0.1399905 0.31171235 -0.14293566 -0.046238154
-0.18819681 0.27880767 0.090669885 0.185134 0.2898329 -0.10006095 -0.05593767 0.21050085
0.12727217 0.24640016 -0.3168448 0.2739627 0.053223528 -0.09396992 -0.15663828 0.04505875
-0.16203313 -0.18965077 -0.15065661 -0.29969501 0.18067719 -0.36344093 0.104535475 -0.12912367
0.1762622 0.38694012 -0.39191425 -0.14725727 -0.22925554 -0.34018987 -0.11554338 0.28863427
0.072599515 0.09588258 -0.19463284 0.41041556 0.1381648 -0.34240752 0.324636 0.18550996
0.13068305 0.4649362 0.2537097 -0.2711821 0.21619983 -0.03461195 0.0009850923 0.1455883
0.10281717 0.18609907 -0.21452655 0.047326047 0.31314975 0.19862404 0.16178885 0.19536543
00000000: 131c b1bd 6d14 20be d23f fcbc ebab 973e
00000010: ab59 0fbe c398 9f3e ba5d 12be 3864 3dbd
00000020: aab6 40be e1bf 8e3e 22b1 b93d c493 3d3e
00000030: fa64 943e c1ec ccbd e61e 65bd 898d 573e
00000040: a353 023e 5350 7c3e 7b39 a2be d744 8c3e
00000050: ea00 5a3d 4d73 c0bd c965 20be 868f 383d
00000060: 03ec 25be d033 42be ba45 1abe a071 99be
00000070: 7103 393e ee14 babe b216 d63d ff38 04be
00000080: 147e 343e 041d c63e fca8 c8be 9cca 16be
00000090: f7c1 6abe 5e2d aebe 02a2 ecbd dfc7 933e
000000a0: 0eaf 943d 165e c43d d54d 47be fd21 d23e
000000b0: 137b 0d3e 0a50 afbe b136 a63e 53f6 3d3e
000000c0: c7d1 053e 1e0c ee3e 3de6 813e 61d8 8abe
000000d0: 7d63 5d3e 43c5 0dbd 361e 813a 1915 153e
000000e0: cf91 d23d c190 3e3e d9ac 5bbe f5d8 413d
000000f0: 2a55 a03e 1a64 4b3e faab 253e e00d 483e

critic.preprocess.model.model.2.weight f4 [64, 64]
0.11313629 0.24021783 -0.09409514 -0.030780487 -0.2819188 0.12254757 -0.010362662 -0.066494554
-0.10245099 -0.10617303 -0.1150998 0.21977122 -0.0024260734 -0.22597617 0.15932311 -0.24352713
0.007974862 -0.0030289511 -0.08954826 -0.004993977 -0.17822398 0.3470142 -0.17949843 0.07335204
0.22560285 0.25361454 0.31424955 0.25415555 0.046995763 -0.027626183 0.39802516 -0.14961794
-0.22073835 -0.19300553 0.1732513 -0.09894547 0.21056193 0.116840154 0.035872534 -0.18177599
-0.11791986 0.03322633 0.25891 -0.2001309 -0.08118584 0.2976443 0.07869363 -0.3394986
0.2249804 -0.15487762 -0.19053592 0.11799203 -0.12170234 0.28323632 -0.19805728 -0.16646579
-0.39432925 -0.08355666 -0.019255491 -0.34287328 -0.13965382 0.032832 -0.16860235 -0.015410565
-0.13204443 -0.03969595 -0.14103043 -0.18002947 -0.0009134132 0.007476671 0.082430236 0.01666045
0.3331123 -0.1321888 -0.05881532 0.5148362 -0.16479914 -0.189061 -0.1010788 0.21924578
0.020196604 -0.025611829 0.1588699 0.15835348 0.14265653 -0.026959278 0.3258067 -0.053736284
-0.060363136 0.17403921 -0.009519274 0.31826016 -0.29352608 -0.08873129 -0.11721969 0.19700134
0.13727182 -0.18461305 0.034110382 -0.21816352 -0.19618587 -0.35890833 0.36388493 -0.10263216
0.02431619 -0.10419658 0.06860065 0.38278788 -0.15787068 0.06273421 -0.05511571 -0.097658485
-0.20609312 -0.072293386 0.16262269 0.18828364 0.05257784 -0.111266896 -0.059998922 -0.0001700038
-0.044090606 -0.04856123 0.32506925 -0.20888183 -0.015540726 -0.039577924 -0.21159916 0.1391191
0.2218305 -0.09373025 -0.14674728 -0.11188497 -0.19644094 -0.027260913 -0.20063812 0.06746468
-0.1295872 0.12802581 0.015485879 -0.19224292 0.3049121 0.1300243 0.105897345 -0.16615711
0.30876762 0.21375741 0.110598624 -0.20131823 0.3312912 -0.18052544 -0.11734036 -0.15733352
0.1834456 0.20336103 -0.11969788 -0.03704055 -0.034975264 -0.07514519 0.1457767 0.21103849
0.1579112 -0.11200437 -0.029153021 0.08284949 -0.11489232 -0.14624536 0.014719905 -0.07105546
0.17280458 0.20688681 -0.16763233 -0.0017966079 -0.23076066 -0.06660329 -0.08204957 0.03399996
0.16605453 -0.17557877 0.31391108 0.08235691 0.1507492 0.10556025 0.07641754 0.21862581
-0.15351781 0.42218903 -0.005497634 -0.20996787 0.07115531 0.19122055 0.012170758 -0.18920855
-0.05726067 0.03342923 0.18774585 0.38340706 -0.11068681 -0.14896455 -0.2583799 0.22379993
0.068247244 -0.19639012 0.2910893 0.16628383 -0.07753456 -0.033494964 -0.1445534 -0.05591308
0.03377528 -0.12957259 -0.20931046 0.01789153 0.015105681 -0.08590287 -0.12388129 -0.09816309
0.28344715 -0.20935892 -0.4030228 -0.14051265 -0.46215326 0.172358 0.06224974 -0.19866528
-0.30375203 0.21773666 0.22291766 0.02512101 0.05738558 0.0242695 0.0806988 -0.214051
0.11761721 -0.02906083 0.08737718 -0.031085398 -0.10417931 -0.020361323 -0.21523216 0.00029595362
0.0945334 0.23826227 0.016408192 0.083667435 0.4771088 -0.003466993 -0.14730684 0.06425665
0.076471895 0.042887643 -0.04497701 -0.16838987 0.15519746 -0.19980828 -0.03096936 -0.007699199
00000000: 00b4 e73d aafb 753e f4b4 c0bd 5c27 fcbc
00000010: a957 90be 38fa fa3d 28c8 29bc 4c2e 88bd
00000020: d3d1 d1bd 3f71 d9bd 72b9 ebbd b50b 613e
00000030: c2fe 1ebb 4c66 67be 9925 233e 2d5f 79be
00000040: ffa8 023c 5e81 46bb 1465 b7bd 84a4 a3bb
00000050: 5980 36be d8ab b13e 70ce 37be 9839 963d
00000060: 6f04 673e c4d9 813e 51e5 a03e ad20 823e
00000070: a17e 403d 4e50 e2bc f4c9 cb3e 7235 19be
00000080: 3c09 62be 3ea3 45be ca68 313e eca3 cabd
00000090: 8c9d 573e e449 ef3d 14ef 123d 7c23 3abe
000000a0: f87f f1bd 5518 083d da8f 843e 1def 4cbe
000000b0: c344 a6bd d564 983e 202a a13d c3d2 adbe
000000c0: 4361 663e 3d98 1ebe d91b 43be cea5 f13d
000000d0: 143f f9bd 5a04 913e 87cf 4abe 0276 2abe
000000e0: 86e5 c9be c11f abbd b1bd 9dbc 168d afbe
000000f0: 6901 0fbe d97a 063d 18a6 2cbe 987c 7cbc
00000100: a836 07be 3898 22bd 486a 10be a559 38be
00000110: 1f72 6fba ddfe f43b 2fd1 a83d 7f7b 883c
00000120: b28d aa3e 805c 07be 55e8 70bd 4ecc 033f
00000130: 1bc1 28be 3599 41be 6702 cfbd f781 603e
00000140: 5973 a53c e6cf d1bc cbae 223e 6a27 223e
00000150: 8e14 123e b4d9 dcbc 23d0 a63e 941a 5cbd
00000160: 563f 77bd 5637 323e bbf6 1bbc fff2 a23e
00000170: 0d49 96be c0b8 b5bd e010 f0bd b8ba 493e
00000180: fc90 0c3e 340b 3dbe 54b7 0b3d 4266 5fbe
00000190: f3e4 48be d5c2 b7be 204f ba3e cf30 d2bd
000001a0: bf32 c73c 0465 d5bd 7f7e 8c3d c6fc c33e
000001b0: daa8 21be cb7a 803d 03c1 61bd 2c01 c8bd
000001c0: 130a 53be 8e0e 94bd 9086 263e 6dcd 403e
000001d0: dc5b 573d e6df e3bd 6ec1 75bd 0c43 32b9
000001e0: 5a98 34bd 24e8 46bd 7a6f a63e 1ee5 55be
000001f0: 879e 7ebc 761c 22bd 73ad 58be 3d75 0e3e
00000200: 8927 633e a5f5 bfbd eb44 16be f223 e5bd
00000210: d027 49be 4752 dfbc 1474 4dbe ec2a 8a3d
00000220: 82b2 04be 3319 033e 7cb8 7d3c 54db 44be
00000230: 701d 9c3e 1725 053e b5e0 d83d 1725 2abe
00000240: ca16 9e3e 39e3 5a3e 8881 e23d 5e26 4ebe
00000250: 009f a93e a9db 38be 2550 f0bd 0a1c 21be
00000260: 2ad9 3b3e e03d 503e 2a24 f5bd d5b7 17bd
00000270: 3942 0fbd b9e5 99bd 7d46 153e 791a 583e
00000280: 79b3 213e 8c62 e5bd 51d2 eebc feac a93d
00000290: aa4c ebbd 58c1 15be c22b 713c 8685 91bd
000002a0: aff3 303e 23da 533e cfa7 2bbe 287c ebba
000002b0: 864c 6cbe 4e67 88bd 9b09 a8bd 8b43 0b3d
000002c0: 330a 2a3e ecca 33be f4b8 a03e bdaa a83d
000002d0: 005e 1a3e f92f d83d cd80 9c3d 72df 5f3e
000002e0: c633 1dbe 2929 d83e 7f25 b4bb d101 57be
000002f0: e0b9 913d 52cf 433e dc67 473c e3bf 41be
00000300: 2a8a 6abd 17ed 083d 7340 403e ee4d c43e
00000310: c4af e2bd 2a8a 18be 5f4a 84be cf2b 653e
00000320: 36c5 8b3d 7e1a 49be a809 953e 4f46 2a3e
00000330: 70ca 9ebd 0432 09bd ce05 14be 1d05 65bd
00000340: f357 0a3d adae 04be 7b55 56be 4291 923c
00000350: d17d 773c d8ed afbd 79b5 fdbd bb09 c9bd
00000360: fc1f 913e 2f62 56be 0159 cebe 8ce2 0fbe
00000370: 5a9f ecbe 9e7e 303e 95f9 7e3d e96e 4bbe
00000380: 6385 9bbe 5cf6 5e3e 8744 643e 94ca cd3c
00000390: 240d 6b3d d5d0 c63c 6a45 a53d 2f30 5bbe
000003a0: 4be1 f03d fa10 eebc cff2 b23d cea6 febc
000003b0: f65b d5bd cacc a6bc d265 5cbe 392a 9b39
000003c0: ba9a c13d 06fb 733e 796a 863c d559 ab3d
000003d0: 9b47 f43e 7e36 63bb 9bd7 16be fe98 833d
000003e0: 4c9d 9c3d f4aa 2f3d d039 38bd 656e 2cbe
000003f0: 15ec 1e3e 8b9a 4cbe 75b3 fdbc 9049 fcbb

critic.preprocess.model.model.2.bias f4 [64]
0.051861495 0.11537766 0.2075043 -0.056321323 0.24028204 0.26685277 -0.14474262 0.14185718
0.0984717 -0.2037909 0.14158246 0.10665868 0.1360236 0.13009658 -0.14935383 -0.26213717
0.19617037 0.106853575 -0.28010315 0.09408123 0.07211368 0.29510114 -0.09989958 -0.19105329
0.27554864 0.13521928 -0.12869155 0.23194964 -0.15690537 -0.2517077 0.06974968 -0.19792315
-0.14559492 -0.20113558 -0.10284288 -0.11584345 0.10522553 -0.2823224 0.241401 0.14770696
-0.12303536 -0.22381234 -0.07394381 -0.12252866 0.19010712 -0.25945222 0.14715135 0.16629918
-0.3076887 0.10482011 0.21604899 0.0923364 -0.15086573 0.12585673 0.17596532 -0.12687007
-0.090519436 -0.28334087 0.084385365 -0.23288369 0.10564248 0.12539817 -0.11820531 -0.15088084
00000000: b86c 543d 1f4b ec3d 027c 543e 30b1 66bd
00000010: 7f0c 763e eda0 883e 6937 14be 0243 113e
00000020: 88ab c93d 90ae 50be fefa 103e de6f da3d
00000030: c549 0b3e 0a38 053e 36f0 18be d836 86be
00000040: e3e0 483e 0cd6 da3d ae69 8fbe a9ad c03d
00000050: 56b0 933d 7f17 973e 2798 ccbd 79a3 43be
00000060: b614 8d3e ec76 0a3e b8c7 03be 3584 6d3e
00000070: cdab 20be d5df 80be ecd8 8e3d 5eac 4abe
00000080: d616 15be 7cf6 4dbe 4a9f d2bd 553f edbd
00000090: 7c80 d73d 908c 90be d331 773e 7e40 173e
000000a0: f6f9 fbbd 102f 65be da6f 97bd 4ef0 fabd
000000b0: 71ab 423e ecd6 84be d8ae 163e 554a 2a3e
000000c0: 6089 9dbe edab d63d f23b 5d3e de1a bd3d
000000d0: 8c7c 1abe 96e0 003e 4130 343e 3aea 01be
000000e0: 4162 b9bd 0e12 91be 3cd2 ac3d 1079 6ebe
000000f0: 165b d83d 6168 003e a015 f2bd 8280 1abe

critic.last.model.0.weight f4 [1, 64]
0.19671606 0.042337 0.30295947 0.018236555 0.21878558 0.002385867 -0.10167149 0.012601355
-0.0034562203 -0.094832905 0.034266513 0.10630689 0.15099154 0.042054463 -0.08539331 -0.35723692
0.315603 -0.0018897854 -0.21946982 0.03846313 0.07803521 0.24324155 -0.13749845 -0.2683448
0.16007262 0.057052348 -0.05344901 0.22055565 -0.104683176 -0.04135861 0.047247704 -0.00912097
-0.18996924 -0.095712215 -0.113600954 -0.1813168 0.090610966 -0.2629206 0.14587301 0.1561616
-0.007333969 -0.068242274 -0.16441323 -0.024801752 0.1225347 -0.19104218 0.15256758 0.14975573
-0.3756559 0.023450075 0.044721264 0.030380325 -0.11411639 0.044784304 0.1541065 0.0046132784
-0.10497522 -0.16558692 0.15594234 -0.011228572 0.10773642 0.018400526 -0.14024083 -0.079392046
00000000: ef6f 493e 9069 2d3d 811d 9b3e d464 953c
00000010: 5409 603e 355c 1c3b 2439 d0bd ea75 4e3c
00000020: c181 62bb c137 c2bd 0b5b 0c3d 6db7 d93d
00000030: 879d 1a3e 4d41 2c3d b0e2 aebd c2e7 b6be
00000040: b796 a13e adb2 f7ba b2bc 60be 848b 1d3d
00000050: edd0 9f3d 5014 793e 65cc 0cbe 7d64 89be
00000060: 14ea 233e b9af 693d 59ed 5abd 57d9 613e
00000070: 2264 d6bd a567 29bd cf86 413d 1f70 15bc
00000080: 4c87 42be c404 c4bd 9ea7 e8bd 1cab 39be
00000090: 3e92 b93d 879d 86be bc5f 153e d4e8 1f3e
000000a0: cb51 f0bb 9bc2 8bbd f15b 28be 0b2d cbbc
000000b0: 79f3 fa3d 90a0 43be ad3a 1c3e 9159 193e
000000c0: f855 c0be 5f1a c03c a52d 373d 29e0 f83c
000000d0: dbb5 e9bd bf6f 373d 18ce 1d3e fc2a 973b
000000e0: 40fd d6bd 9e8f 29be 59af 1f3e 0bf8 37bc
000000f0: eaa4 dc3d b3bc 963c 4b9b 0fbe 4c98 a2bd

_actor_critic.actor.sigma_param f4 [8, 1]
-1.9991628 -2.432649 -2.3043396 -2.0626943 -2.1365352 -2.5270474 -2.2277832 -2.148818
00000000: 91e4 ffbf 85b0 1bc0 4d7a 13c0 2f03 04c0
00000010: febc 08c0 25bb 21c0 0094 0ec0 3c86 09c0

_actor_critic.actor.preprocess.model.model.0.weight f4 [64, 111]
-0.011572672 0.2017892 -0.015074386 0.27599084 0.13803104 -0.1515795 -0.2772877 0.17698894
0.07380859 0.116595306 -0.13880429 -0.18061213 0.22336744 -0.05248209 -0.01445668 0.010475586
0.063307755 -0.03326446 0.02454844 -0.02317186 -0.19328004 -0.11125903 -0.014644587 0.107693404
0.041660603 0.1742663 0.041317347 -0.0405942 0.05364998 -0.07313534 0.24468112 0.046151783
0.18326528 0.09271273 -0.0107218465 -0.11437557 -0.118844524 0.08836528 -0.010401465 0.16110018
0.053554155 0.15956756 0.012840622 0.012750105 -0.12665178 -0.101435944 -0.12246704 0.13666323
-0.1279195 -0.016076734 -0.08195608 0.1679254 -0.17800987 -0.029344223 -0.25392988 -0.051357716
-0.06723055 -0.041544173 0.037959512 -0.034332637 0.06943095 0.1732021 0.19375612 0.074928716
0.13724823 -0.13422474 0.121730916 -0.20208223 0.027072122 0.009271856 0.22960183 -0.15362404
-0.05424269 -0.08938124 -0.05719973 0.17984955 -0.08669606 -0.20531484 0.10033583 -0.07107075
0.13189249 0.1491434 0.16053867 -0.022131458 0.07106122 -0.09091214 -0.19750372 0.09947849
-0.3431268 -0.15609935 0.051212344 0.08602256 -0.19464853 -0.42779332 0.04333871 -0.09271396
-0.099419385 -0.10050731 -0.17248599 0.17318101 0.17689952 0.09630466 0.036670137 0.29670426
-0.003256571 -0.17945261 0.09074998 0.30831072 -0.066057295 0.05211049 0.03800078 0.24221902
0.1572605 0.06287046 -0.14140387 -0.020641953 -0.019084321 -0.010121321 0.046815373 0.04609156
-0.13197793 0.08163403 -0.055061184 0.13584943 0.15040095 0.00974793 -0.09969778 0.12979369
-0.15628226 -0.2658258 0.39096728 -0.123860925 -0.070708446 0.14018391 0.15694924 -0.25112554
-0.06282985 0.39477694 0.04234318 0.08321769 0.0392032 0.024324654 0.29991385 0.04089285
-0.13500601 0.022428859 0.16447914 0.0480839 0.029942911 -0.024800647 0.07494899 0.03646361
0.108877875 0.18280496 0.11658311 -0.13257334 0.029990556 0.23434642 -0.12856163 0.04279634
0.004409206 -0.06299568 -0.06517807 0.15804033 -0.12642488 -0.044511385 -0.15559489 -0.015907401
0.07570253 -0.17011847 -0.13940418 -0.19699381 -0.011806211 0.06696218 -0.06350807 0.004319337
-0.38443375 -0.06617838 -0.05775971 -0.038692486 -0.18609133 -0.07682826 0.20002352 0.028204555
-0.030115224 -0.19079785 -0.04223181 0.17455524 0.055381924 0.022812694 0.14669186 -0.17908351
0.1017761 -0.07807161 0.13392144 0.015656604 -0.071848884 -0.23412696 -0.32827172 0.1912345
-0.0063051814 -0.05740377 0.086918645 0.035746563 -0.2584838 -0.030976864 -0.14963469 -0.02579611
0.02143617 0.022251006 -0.07018121 -0.06309493 0.18519261 -0.02137993 -0.1257579 -0.012633593
0.05501693 0.06805266 -0.096721865 -0.00810384 0.36470821 -0.05241557 -0.48546252 0.33874914
0.0018034885 -0.2523308 -0.15083177 -0.10854666 -0.01652022 0.21858488 -0.3097546 0.100108445
-0.287561 -0.2840574 -0.057547454 0.19051942 -0.09880616 0.1598375 0.114139855 0.1045709
-0.054763794 -0.05735571 0.012235829 0.25131688 -0.12811473 0.19076847 0.04869715 -0.29813892
0.1805457 0.019944472 -0.18636821 -0.10444377 0.015618538 0.060722288 -0.022431225 0.018418368
00000000: 4e9b 3dbc d4a1 4e3e 8ffa 76bc ac4e 8d3e
00000010: 0258 0d3e a837 1bbe a7f8 8dbe 973c 353e
00000020: f528 973d 85c9 ee3d b622 0ebe 63f2 38be
00000030: 6fba 643e 76f7 56bd b6db 6cbc cba1 2b3c
00000040: 7fa7 813d 5040 08bd cf19 c93c ead2 bdbc
00000050: 34eb 45be c6db e3bd daef 6fbc 5c8e dc3d
00000060: 4fa4 2a3d dd72 323e 613c 293d 1b46 26bd
00000070: 15c0 5b3d fbc7 95bd b08d 7a3e a709 3d3d
00000080: e5a9 3b3e 2ce0 bd3d afaa 2fbc bd3d eabd
00000090: c264 f3bd dbf8 b43d e86a 2abc 72f7 243e
000000a0: 9a5b 5b3d ae65 233e 7961 523c d1e5 503c
000000b0: 01b1 01be a6bd cfbd 00d0 fabd 72f1 0b3e
000000c0: 54fd 02be 5bb3 83bc 97d8 a7bd a3f4 2b3e
000000d0: 3848 36be 4c63 f0bc 1903 82be 785c 52bd
000000e0: 2cb0 89bd 392a 2abd 6f7b 1b3d 61a0 0cbd
000000f0: d031 8e3d e45b 313e 0168 463e 3a74 993d
00000100: cd8a 0c3e 3672 09be 0f4e f93d a5ee 4ebe
00000110: 5bc6 dd3c fce8 173c be1c 6b3e 9f4f 1dbe
00000120: 952d 5ebd 830d b7bd 444a 6abd 7b2a 383e
00000130: b48d b1bd 0e3e 52be df7c cd3d 8b8d 91bd
00000140: d30e 073e 0cb9 183e 4064 243e 084d b5bc
00000150: 8b88 913d 2530 babd 6a3e 4abe 61bb cb3d
00000160: 51ae afbe 82d8 1fbe 09c4 513d 992c b03d
00000170: f251 47be ba07 dbbe ee83 313d d1e0 bdbd
00000180: 649c cbbd c7d6 cdbd 2ba0 30be 5d56 313e
00000190: 2625 353e 613b c53d 6d33 163d 9fe9 973e
000001a0: 326c 55bb 6dc2 37be 20db b93d e7da 9d3e
000001b0: 0c49 87bd cf71 553d b5a6 1b3d 4308 783e
000001c0: e608 213e 3ac2 803d 2dcc 10be 5019 a9bc
000001d0: b956 9cbc e6d3 25bc 7ac1 3f3d 81ca 3c3d
000001e0: 3925 07be be2f a73d d687 61bd 1d1c 0b3e
000001f0: b502 1a3e c8b5 1f3c 5a2e ccbd a3e8 043e
00000200: 7508 20be 521a 88be dd2c c83e ccaa fdbd
00000210: 97cf 90bd 5f8c 0f3e 4db7 203e 8793 80be
00000220: f0ac 80bd 3420 ca3e 0b70 2d3d 096e aa3d
00000230: 8993 203d 7f44 c73c 4f8e 993e 437f 273d
00000240: 043f 0abe babc b73c 386d 283e a0f3 443d
00000250: d64a f53c ba2a cbbc db7e 993d de5a 153d
00000260: 5dfb de3d 3931 3b3e 20c3 ee3d 4ec1 07be
00000270: c1ae f53c 82f8 6f3e a9a5 03be 374b 2f3d
00000280: 1a7b 903b e103 81bd 147c 85bd 53d5 213e
00000290: 8675 01be 9251 36bd 4454 1fbe 3d50 82bc
000002a0: ee09 9b3d 8933 2ebe f8bf 0ebe bfb8 49be
000002b0: d76e 41bc 7823 893d 8510 82bd 3a89 8d3b
000002c0: 80d4 c4be 8888 87bd 7295 6cbd 037c 1ebd
000002d0: ba8e 3ebe 2358 9dbd f7d2 4c3e 3d0d e73c
000002e0: 34b4 f6bc 8360 43be 43fb 2cbd 9cbe 323e
000002f0: 28d8 623d b0e1 ba3c 6436 163e ab61 37be
00000300: fd6f d03d 02e4 9fbd b422 093e 4742 803c
00000310: 8225 93bd fabe 6fbe 3b13 a8be fad2 433e
00000320: b29b cebb 3720 6bbd 6702 b23d fd6a 123d
00000330: fd57 84be 31c3 fdbc d639 19be 5d52 d3bc
00000340: e89a af3c be47 b63c 2bbb 8fbd ea37 81bd
00000350: 22a3 3d3e f724 afbc aec6 00be 21fd 4ebc
00000360: 6f59 613d 315f 8b3d 1d16 c6bd f8c5 04bc
00000370: 09bb ba3e b5b1 56bd 8b8e f8be 8770 ad3e
00000380: 0863 ec3a 8131 81be a573 1abe b64d debd
00000390: 6a55 87bc b7d4 5f3e 2898 9ebe a805 cd3d
000003a0: 323b 93be f96f 91be e1b6 6bbd 8617 433e
000003b0: e25a cabd 71ac 233e 28c2 e93d 4529 d63d
000003c0: 0050 60bd d2ed 6abd c978 483c 9bac 803e
000003d0: 8230 03be cf58 433e aa76 473d aaa5 98be
000003e0: f9e0 383e 9762 a33c 4fd7 3ebe 9ee6 d5bd
000003f0: e5e4 7f3c efb7 783d b0c1 b7bc 1ee2 963c

_actor_critic.actor.preprocess.model.model.0.bias f4 [64]
-0.0837957 -0.05235659 -0.10365329 -0.08282477 -0.119817995 0.09118132 0.15543824 -0.031942442
-0.07858823 -0.09607557 -0.0034579115 0.049716618 -0.042619366 0.10041667 -0.07356055 -0.012173363
-0.07967753 0.09976706 -0.10143041 0.116809584 -0.10255642 -0.0992977 -0.058171283 -0.040120605
-0.028350491 -0.32339644 0.115562305 -0.19609049 -0.11461646 0.027828515 -0.13526085 -0.1986516
-0.109993614 -0.10932415 -0.12710053 -0.075823575 0.067020155 -0.062191777 -0.10689593 -0.10130638
0.04570601 0.012726919 0.08658377 0.094991684 0.069484845 -0.030158812 -0.028471852 -0.05287126
0.11087551 -0.032976836 -0.015530928 0.062707715 -0.08079682 -0.036580287 0.07441709 -0.06506407
0.10795606 -0.1467371 0.011837621 0.12755078 0.23492448 0.015352362 -0.081284784 -0.16555417
00000000: 149d abbd dd73 56bd 2d48 d4bd 08a0 a9bd
00000010: 2363 f5bd 46bd ba3d 342b 1f3e 14d6 02bd
00000020: def2 a0bd 45c3 c4bd 219e 62bb a7a3 4b3d
00000030: a591 2ebd 41a7 cd3d eaa6 96bd c972 47bc
00000040: f92d a3bd ac52 cc3d bfba cfbd dd39 ef3d
00000050: 1a09 d2bd 985c cbbd 0345 6ebd 8155 24bd
00000060: 4a3f e8bc 3894 a5be eeab ec3d f2cb 48be
00000070: 09bc eabd a0f8 e33c d281 0abe 536b 4bbe
00000080: 5544 e1bd 57e5 dfbd a426 02be 6449 9bbd
00000090: dd41 893d cebc 7ebd 41ec dabd b879 cfbd
000000a0: 3a36 3b3d 9184 503c d552 b13d 008b c23d
000000b0: 124e 8e3d 9d0f f7bc cd3d e9bc 898f 58bd
000000c0: b312 e33d b812 07bd 6f75 7ebc e76c 803d
000000d0: ce78 a5bd 36d5 15bd fd67 983d 5040 85bd
000000e0: 1118 dd3d 4042 16be 95f2 413c ac9c 023e
000000f0: 0b90 703e 7988 7b3c a378 a6bd 0887 29be
