results/Swimmer-v3/a2c/8/220624-142732/policy.pth (torch, 47844 bytes, 24 tensors)

actor.sigma_param f4 [2, 1]
00000000: 446c 3940 62c9 5640
2.897233 3.3560414

actor.preprocess.model.model.0.weight f4 [64, 8]
00000000: c0bf d7be 7df9 663e d6d7 3f3e 865c edbc
00000010: fea5 383e 899f 87bd 40e4 283d 1bb2 0c3e
00000020: d4de 13bf 092b f0be 29ed 623e 77a6 7c3e
00000030: 4fa6 fdbe 91ef 403e 1321 5fbe 088e edbe
00000040: ce9e e53e 3cbc 00bd d6c9 b8bd 77c5 8b3d
00000050: ec26 2a3e 5d79 0b3d 0b78 0cbe 4c4f 80bf
00000060: 15f7 95bd 08fa f2be 7a75 d8bd df95 c33e
00000070: 23ee c13c 2f2c be3e cc5e 053d 2b90 0c3e
00000080: cdbb 1c3f 3472 153f e7d5 8c3e 7f13 4a3d
00000090: 1dab 8d3e 4510 fabd fa2d e73e 2d98 b13d
000000a0: 3f2d d23e 583b cfbd 6376 9ebd 0b24 65bd
000000b0: 8b1e 1b3b 6811 9fbe 5332 113e 4130 f83e
000000c0: ca54 2b3e 5a40 033f ffa2 5bbe 3550 b33c
000000d0: 80a3 913d f405 b73e e383 033f 11c9 2c3e
000000e0: 493b 9e3e b008 d23e 0be7 e73c 00dc 963c
000000f0: 804c 1f3f 3e49 0dbe 3834 363e 81f8 003e
00000100: 8580 f5be 84a8 5ebd faf3 58bc f9e6 923e
00000110: e159 a1be 99d5 b5be 9108 a53d 5c67 083f
00000120: acee 76bd ba8d 21be 81a7 c43e 1d29 abbe
00000130: f733 38be 5a93 2d3e c180 e2bd cc29 21be
00000140: a664 a83e 9665 a0bd cc6f 6abd 1b90 2e3e
00000150: a384 68be 0b1a 5b3e cb81 263e 4b83 edbd
00000160: 019d f43e 3883 8c3e b55b 09be 9006 55be
00000170: c354 93bd a014 e0bd 412f 113e 51be fcbe
00000180: df62 f7be 6cc6 c53e 4ae0 fc3e 497e 193d
00000190: 88d7 873e e164 8f3c 5ea4 0abd a192 693e
000001a0: e42b 143e 9482 a73e 9046 57be 71c7 47be
000001b0: d37e a33e c6df 04be 53d4 ccbd c3a3 76be
000001c0: 4b74 bc3e 76d2 423f 83cb 74be 92b0 f6ba
000001d0: 6ef5 723e ce39 b13c 4fd7 00bf 1c06 143d
000001e0: 8749 cebe 85df d2be 7dc8 893d 3cd6 22be
000001f0: b758 f4be 2e51 193f 163b 91be 0624 d73d
00000200: 87ad 5e3d 1840 53be c057 ce3c eb56 4cbd
00000210: 70ca 2bbf e420 673d b810 48bd 181b 40be
00000220: 236c bfbe 192a c33d 20bf b33e e37d b9be
00000230: 6da2 393d 7ad4 dc3e f225 4a3d 3a8f 12bf
00000240: d289 63be 761d 273f c3f6 6f3e ff94 cc3b
00000250: 3bff d9be f22a 45be 3653 63bb 7d60 47bd
00000260: a348 18be d3d1 aebe ebc2 273e 8202 5e3d
00000270: 894c 13bf 65e9 e03e a6df 67be 2460 193e
00000280: f646 d6be fdb2 fabe a9bd 963d d819 82be
00000290: 8f37 cd3d bbe6 5abd b561 cf3d 4f78 d93a
000002a0: 0f30 a8be adc7 28be 6ab6 c83d 6548 46be
000002b0: 34b5 e9be 3d93 9c3e 30ed e6bd bbde 64be
000002c0: cda1 abbe fc46 82bd a41e 16bb 0da9 de3d
000002d0: 4516 b93d eb03 9fbd 40be 61bd 903e 313e
000002e0: 9f69 8ebe 9254 39be 9c3a 233e cadb a43e
000002f0: 52a7 8b3d 445f a93d ab4a 24be bd96 44be
00000300: f670 563e c664 093f c5a6 ddba 7fb6 35bd
00000310: 9049 043f 84d0 37be aec3 45bd b40f 323d
00000320: af53 2abf 7b0d 96bc 545a 05bd a08b 4d3d
00000330: 4627 81be d083 44be 8eb4 2a3d 252f 8a3f
00000340: 76f6 213f df74 74bf 70b0 edbe ceb5 fb3d
00000350: c453 cb3d b80d 75be 1c05 10be 2c0a c6bd
00000360: 7156 cabe 637b 2cbe 5e12 3a3c 9b50 bfbd
00000370: faba 56bf cf58 173b 185a c0be 2cba 9b3e
00000380: f97f 1bbd 3311 fc3d cb41 1cbf ec8e 8dbe
00000390: 34a8 2dbd b446 f03c de79 27be 8e65 a23e
000003a0: c4f4 a03e 6aa7 ee3c 62f8 7cbe ff13 3f3e
000003b0: 1d88 8e3e e78a 0f3e ee4e 65bd 0737 63bf
000003c0: bb3c 9ebe 139d 68be cdd6 753e 803c 61be
000003d0: 6efb 283d 139e f1bd d7e1 363e 7404 85be
000003e0: 41cb 43be 88d2 fcbd 7dfe e73e 6376 9c3e
000003f0: 45e8 f0be b97c 683e 446a b6bd afbe 07bf
-0.4213848 0.2255611 0.18734679 -0.028974783 0.18032071 -0.06622226 0.0412333 0.13739817
-0.57761884 -0.46907833 0.22160782 0.24672876 -0.49540946 0.18841387 -0.2178996 -0.46397424
0.4484772 -0.031429514 -0.09022872 0.06824773 0.1661641 0.034051288 -0.13717668 -1.00242
-0.07322518 -0.47456384 -0.10569282 0.3820028 0.023673123 0.37143084 0.03256111 0.1372687
0.6122406 0.58377385 0.27506945 0.049335 0.27669612 -0.122101344 0.45152265 0.08671603
0.41050145 -0.10118741 -0.07737424 -0.055942576 0.0023669328 -0.31067967 0.14179353 0.48474315
0.16731563 0.5127007 -0.21448897 0.021888832 0.07111263 0.3574673 0.5137312 0.16873576
0.30904606 0.41022253 0.028308412 0.018415451 0.62226105 -0.13797471 0.17793357 0.12594797
-0.47949615 -0.054359928 -0.013241762 0.28691843 -0.31513885 -0.35514525 0.080582745 0.53282714
-0.06028621 -0.1577672 0.38409045 -0.33429804 -0.17988573 0.16950741 -0.11059714 -0.157386
0.3288929 -0.07831876 -0.057235524 0.1704716 -0.22706847 0.21396653 0.1626045 -0.11597308
0.47776034 0.27443862 -0.1341389 -0.20803285 -0.071939014 -0.10941434 0.14178182 -0.4936395
-0.4831762 0.38627946 0.4938987 0.03747395 0.26531625 0.017504157 -0.03384816 0.2280984
0.14469868 0.3271681 -0.21023011 -0.19509675 0.31932697 -0.12975988 -0.10001435 -0.24085908
0.36807474 0.7610239 -0.23905759 -0.0018820933 0.23726436 0.021634009 -0.50328535 0.03613864
-0.40290472 -0.41186157 0.06727693 -0.15902036 -0.47723934 0.59889495 -0.28365391 0.10504918
0.054364707 -0.20629919 0.025188327 -0.04988758 -0.6710577 0.05642785 -0.04884407 -0.18760335
-0.3738719 0.09529514 0.35106754 -0.36228856 0.045320917 0.43130857 0.049352594 -0.57249796
-0.22220543 0.6527933 0.23433976 0.0062433477 -0.42577538 -0.19254664 -0.0034687049 -0.048676003
-0.14871459 -0.34144458 0.16382949 0.05420161 -0.5753866 0.43928066 -0.22643909 0.14978081
-0.41851014 -0.48964682 0.073603936 -0.25410342 0.100203626 -0.053442698 0.10126058 0.0016591641
-0.32849166 -0.1648242 0.09800418 -0.19363554 -0.4564606 0.30581084 -0.11275709 -0.2235059
-0.33521882 -0.063611954 -0.0022906447 0.10872088 0.09037451 -0.07764419 -0.055113077 0.17309022
-0.27814957 -0.18098667 0.15940326 0.32198936 0.06819023 0.082701236 -0.16044109 -0.19198127
0.20941529 0.53669393 -0.0016910663 -0.044363495 0.5167475 -0.17950636 -0.048282318 0.043472007
-0.6653394 -0.018316975 -0.032556847 0.050181985 -0.25225276 -0.19190907 0.041676097 1.0795637
0.63266695 -0.9549083 -0.46423674 0.12290536 0.099280864 -0.23931015 -0.14064449 -0.09669909
-0.39519075 -0.16843943 0.011356918 -0.09341546 -0.83879054 0.0023093706 -0.37568736 0.30415475
-0.03796384 0.12307968 -0.6103789 -0.27648103 -0.04239674 0.029330589 -0.16355082 0.31718105
0.3143674 0.029132564 -0.24704126 0.18659972 0.2783822 0.14017831 -0.055983476 -0.8875584
-0.3090571 -0.22716169 0.24007721 -0.21995735 0.041255407 -0.117977284 0.17859589 -0.2597996
-0.19120504 -0.12344843 0.45311347 0.30559072 -0.47052208 0.22703828 -0.08906987 -0.53025335

actor.preprocess.model.model.0.bias f4 [64]
00000000: a008 053e e126 6c3d 433d cabd 2ca5 aabe
00000010: 09d9 0c3d e0ef 95bd eff8 e13c bec1 e13c
00000020: 29dc 313e bf8c 833d 3fd3 c2bd bc01 d7bd
00000030: 1480 093e 0a33 2a3d f372 1d3d 0751 5cbc
00000040: 2236 18bd 3d45 353d 0e37 6f3e f429 18bd
00000050: 3592 10bd e43c c23b 33f0 f33d 860d 8b3d
00000060: 8a00 ec3d 8dcb 093e e58f 73be 2fc1 8c3c
00000070: 559d 423c adf6 92bd 2591 c63c cdd1 48bb
00000080: 93b0 8cbe 77f8 04be a117 9a3d 1fd5 51bd
00000090: 7e96 6dbe 52f8 523d 8bc8 a6bd e22d ae3d
000000a0: 004b 91bd 4f2e 05bd af25 5abd 495b cabd
000000b0: 3897 053c a3a0 513b 1941 ccbc 9a6d 8b3c
000000c0: 4f38 d53c 4c11 be3d 2d31 363d 5b2d 36be
000000d0: e5eb 33be 4dbb 253e 3d14 9f3d dbc1 bd3c
000000e0: 4866 78be 7c0f 173e 2984 cebd e73e b9bd
000000f0: e6e8 c8bc 288a bfbd 6003 60bc e816 ae3d
0.12991571 0.057654265 -0.09874966 -0.3332914 0.03438667 -0.07321143 0.027584521 0.027558204
0.1736914 0.064233296 -0.09512948 -0.10498378 0.13427764 0.04155258 0.038439702 -0.013447053
-0.037161 0.044255484 0.23360845 -0.037149385 -0.035295684 0.005927669 0.11911049 0.06789689
0.1152354 0.13456555 -0.2378536 0.01718196 0.011878331 -0.07175956 0.024239132 -0.003064263
-0.27478465 -0.12985407 0.07524038 -0.05122864 -0.2320194 0.051506348 -0.08143719 0.08504845
-0.07094383 -0.032514866 -0.053258594 -0.098806925 0.008153729 0.0031986616 -0.024933385 0.017020036
0.026027827 0.09280643 0.04448049 -0.17790739 -0.17570455 0.16184731 0.07767532 0.023163727
-0.24257767 0.14752 -0.10083801 -0.09045201 -0.024525117 -0.09352523 -0.01367268 0.08500463

actor.preprocess.model.model.2.weight f4 [64, 64]
00000000: 9158 653e 755e 6b3d 7268 c5be c86a 37bd
00000010: 5d0a 56bf cc85 4abd 753d 17be f4d6 7fbe
00000020: 8cbe ed3e dd39 943c 21af e9be 6747 9ebe
00000030: 8c62 093e 1a3f b8bd 7582 abbe 96ed 273f
00000040: 98e3 d7be 498f 49bc c7ac bd3d a497 c43e
00000050: 47e4 283f 4966 9e3e 2692 b53e 4d98 bcbd
00000060: 11bb c5be 8acd 243f a4d4 81bd ccc4 163f
00000070: b430 c83e da26 9cbe bdec 7c3e 0d57 e3bd
00000080: 0be8 073d 3be5 f8bd ceeb d73e d7e4 d73e
00000090: ef8a bf3d 86a7 fabe aa89 93be 7e70 253c
000000a0: dc8e febe 309f 893d 2c5c debe 22c5 69be
000000b0: ae08 17bc 024c 4e3e 701d dabd 8c22 1a3f
000000c0: 65ae b1bb 5e9f 8a3e a172 a3bc 7f0c 813d
000000d0: e55f 9dbe 3f9e abbe 027f c33e 459d 403e
000000e0: 641c 053e b8ad d93d d65f f6be 9f2d 183d
000000f0: 6a92 003f 914a c7be d66f 5fbc 90f4 a9be
00000100: cf9c f9be 20d1 8cbe fe92 1cbe c404 bfbc
00000110: 285c fb3c 02e2 1a3c 5e57 8e3c 5b4d 5bbe
00000120: 81a8 20bd 860c 36bd d54b bf3e 64e6 ab3d
00000130: 1f07 fabe 1cbd 7d3d a87e cb3e 306c a1be
00000140: 6759 7d3e f43e fa3d 9c5c 20bd 1c6c eabd
00000150: d74f 91be bdd3 e2be ac20 fdbc cd84 01bd
00000160: 9903 45be e0ad cfbd db83 423f 6775 0e3e
00000170: c736 0a3f a191 e63d ab92 0d3e b2fd b63d
00000180: 3d5b ca3e 00d2 023e 1556 5abd db87 8e3e
00000190: c93e 523e 6352 d93d ea54 16be 687c 99be
000001a0: dbec 5a3e a1b3 943b 4b42 de3d 1e50 d93d
000001b0: 45d9 76be 2a6d b23d aeb4 bf3c 7ab4 28be
000001c0: a91a f03c d135 4bbe 96b1 a43b e3c7 843d
000001d0: 70e1 b63e 2711 29be 7841 42be 707e 573e
000001e0: 8410 6b3e be97 e9be ad11 7d3c e5ca a73e
000001f0: 2508 9d3d 44ef 713e 0572 853e 96c1 83bd
00000200: 7e36 fc3d ed0a b2bc 89a8 833e be3b 82be
00000210: e104 013c bd34 a1bc b57c 8e3e 29e3 e83d
00000220: b86b c03c c3fa 35bd c524 98be 2031 8fbe
00000230: fe9f db3e 338f b53b d62a b93e 38e2 ac3e
00000240: 70f7 a9be ef00 3e3d 3cf5 873e b81f d5bd
00000250: c015 db39 a86e 3dbe e20c e13e b435 50bd
00000260: 111f 863e 0117 3e3e 5528 a3be 089b 373e
00000270: d671 7bbe 9dc8 dcbd 3764 933e be75 a4be
00000280: 9823 83be ed7b f2bd 743a 72be 8ceb b2be
00000290: 5b73 a5be ef77 973e 2572 4cbe 489d bd3e
000002a0: 54ef 18bf 65da 193e dce1 03be 74b1 23be
000002b0: 4ae9 85bd 0ceb 363e de77 ebbd 2447 d4bd
000002c0: 1389 8e3e b31b 993d a6dd f93e bece 61be
000002d0: 9d14 a9be 064c 343e 1fc3 bfbd 8747 df3c
000002e0: 2538 92be 54b2 d73e 4097 94be 3e28 20be
000002f0: 3311 343e 4d91 bfbd 384d b03d 02cc 0e3e
00000300: 58f9 ab3d f586 ba3e bcb7 02bf 9cb3 5c3d
00000310: 68fe 7dbf dd32 b13d c36e e9bd f3f4 98be
00000320: 069f 7d3e a3e9 67be 490a babe bb81 dabe
00000330: 924e 443e a7f6 2b3e b0b0 82be a905 0b3f
00000340: b545 67be 4424 4fbd 7776 00bd 1ba8 a03e
00000350: 2a57 603f 2857 473c 7545 303f 33d3 803e
00000360: b822 91be 3e76 403f 55a1 5d3d e17e 473e
00000370: 6118 693d e094 66be 68c0 373e 52e1 7d3e
00000380: 889c 1f3d 155a 473d 6ea0 cc3e 8618 b3bd
00000390: e6e6 4f3d a44a c9be bc61 ff3c 95df 283e
000003a0: 6c0f a8be 1fb2 b8bd a1b5 1dbf a99d 0a3e
000003b0: ef7f 863d addc a83c 5945 ec3d 4205 f73e
000003c0: b790 16bd 5649 903e 1315 fb3e 4443 85bc
000003d0: bf5a 383e 5464 923e b696 183f 02ea ce3e
000003e0: 2dfd 163e ae09 2dbe c4c7 06bd cab1 cbbd
000003f0: 3d5a bf3e c590 e3be 13c2 5fbe 05f6 35be
0.22397067 0.057463128 -0.38556248 -0.04477957 -0.83609563 -0.049444005 -0.14769538 -0.24984342
0.46434438 0.018093998 -0.45641425 -0.3091385 0.13416499 -0.08996411 -0.33497968 0.655969
-0.42165828 -0.012302228 0.0926147 0.38396943 0.65973324 0.30937412 0.35463065 -0.092087366
-0.38619283 0.6437613 -0.06339386 0.5889404 0.39099658 -0.3049839 0.24699683 -0.11100588
0.033180278 -0.12153097 0.42172092 0.42166778 0.09352671 -0.48955935 -0.28815967 0.010097621
-0.49718368 0.06719816 -0.43429697 -0.22829106 -0.009218378 0.20146182 -0.10650146 0.60208964
-0.005422401 0.27074713 -0.01995212 0.063012116 -0.30737224 -0.3351917 0.38182837 0.18809994
0.12999111 0.10628837 -0.48119992 0.037152883 0.5022341 -0.38924077 -0.013637504 -0.331944
-0.48752448 -0.275033 -0.15290448 -0.023317702 0.030683592 0.0094532985 0.017375644 -0.21416228
-0.039223198 -0.044445537 0.37362543 0.08393553 -0.48833558 0.061947927 0.3974507 -0.31527853
0.24741136 0.122190386 -0.03915082 -0.114464015 -0.28381225 -0.44302168 -0.030899368 -0.03162079
-0.19239654 -0.10140586 0.75982445 0.13911973 0.53989834 0.11258245 0.1382548 0.08935107
0.39522734 0.12775421 -0.05330475 0.27838024 0.20531763 0.10611417 -0.1468083 -0.29977727
0.21379416 0.004538015 0.10852488 0.10610984 -0.24106319 0.08712228 0.023401584 -0.16475096
0.029309588 -0.19844748 0.0050260527 0.06483438 0.3571887 -0.1651045 -0.18970287 0.21044326
0.22955519 -0.45623583 0.015446109 0.32771984 0.07667569 0.23626429 0.26063552 -0.06433408
0.12315081 -0.021733725 0.2571452 -0.25436205 0.007874698 -0.019678468 0.2782952 0.11371452
0.023488864 -0.044428598 -0.29715553 -0.27967167 0.42895502 0.0055407523 0.36165494 0.3376634
-0.33196592 0.04638761 0.26554286 -0.104064405 0.0004178714 -0.18499243 0.4395514 -0.050832465
0.26195577 0.18563463 -0.31866708 0.17930233 -0.24555144 -0.107804514 0.28787395 -0.3212108
-0.25613093 -0.11840043 -0.2365511 -0.34945333 -0.32314572 0.2958369 -0.19965418 0.3703406
-0.59740186 0.15024717 -0.12879127 -0.15985662 -0.06538637 0.17863101 -0.11497472 -0.103651315
0.27838954 0.07475986 0.48801917 -0.22051522 -0.3302354 0.17607126 -0.09363388 0.027255787
-0.2855846 0.4212824 -0.29021645 -0.15640351 0.17584686 -0.09353886 0.08608478 0.1394501
0.08397168 0.3643109 -0.51061606 0.053882226 -0.9921632 0.086522795 -0.11398079 -0.2987438
0.24767694 -0.22647719 -0.36335972 -0.42677101 0.19170597 0.16793309 -0.25525427 0.5430551
-0.22585185 -0.050571695 -0.031362977 0.31378254 0.87633 0.012166776 0.68855983 0.25161132
-0.283468 0.75180423 0.054108936 0.19481994 0.056908015 -0.22517729 0.17944491 0.24792984
0.03896764 0.048669893 0.39966148 -0.08744912 0.05075731 -0.3931476 0.031174533 0.1649154
-0.32824266 -0.09018349 -0.6160527 0.13536705 0.0656737 0.020613039 0.115366645 0.482462
-0.036759105 0.2818095 0.49039516 -0.016267426 0.18003367 0.2859217 0.59604967 0.4041291
0.14745016 -0.16898224 -0.032905355 -0.0994602 0.37373534 -0.44446388 -0.21851377 -0.1776963

actor.preprocess.model.model.2.bias f4 [64]
00000000: d390 193d 85ed ccbd 6b22 0f3e 6a63 983a
00000010: 0a0e 143e 44db d3bc 79e7 a43c 8114 8f3c
00000020: 8185 293e 8f30 0fbe 366f 0cbe 71af 033e
00000030: fadc 07be e022 323e c382 01be 7856 ebbd
00000040: b8b7 613c ec6e 16bd 5f0f 8f3d 20c4 f5bd
00000050: b1e2 14be f670 29bd 2618 ccbd 9759 0fbe
00000060: 00a8 f23d a308 233d 727c 11be d5c9 ff3d
00000070: e725 053d 3ab4 1b3d 61bf 063e 2240 0fbd
00000080: 01af 32be 2b3c 113e b2f6 0c3e 8f2b c13b
00000090: 6d4e 1b3e 193d 44bd 61b6 22be 9af1 07bc
000000a0: 4115 2a3c 1bfa 0bbd 67e8 a13b 7599 c03b
000000b0: 9fdb 103e a45d 823c 30a8 1ebe 7953 f73c
000000c0: 2be0 a83d 9719 1f3e 4c2a bcbb 1e2e f1bd
000000d0: 3f28 f63c d35e cbbc 47a9 e6bd d1f5 42be
000000e0: ebda 12be f10b 133c c22c 03be daad 4abd
000000f0: a355 0dbe 85f9 903b be6f 973c 9e06 f03b
0.03749163 -0.10006241 0.13977973 0.0011626307 0.1445848 -0.02586139 0.020129906 0.017465832
0.16554834 -0.13983367 -0.13714299 0.12859894 -0.1326789 0.17396116 -0.12647538 -0.11491102
0.013776712 -0.036726877 0.06985354 -0.120002985 -0.14539601 -0.041367494 -0.099655434 -0.1399902
0.1184845 0.03980316 -0.14207628 0.12489668 0.03250685 0.038013674 0.13158943 -0.03497327
-0.17449571 0.14183109 0.13765982 0.005895085 0.15166636 -0.04790983 -0.15889885 -0.008297348
0.010381044 -0.034174066 0.0049410346 0.0058776685 0.14146279 0.015913792 -0.15493846 0.03019117
0.08245882 0.15537106 -0.005742347 -0.11776374 0.030048488 -0.02482549 -0.11262756 -0.19039084
-0.14341323 0.008975015 -0.12810043 -0.049482204 -0.13802199 0.0044242763 0.0184859 0.0073250076

actor.mu.model.0.weight f4 [2, 64]
00000000: cb13 b53d 95df 81bf 53e2 8d3f 9334 313e
00000010: b295 8b3f f409 a9be 3b6d 383e 0e19 1fbf
00000020: 49b7 8b3f e6b2 8bbf d5eb 8cbf f1ff 7c3f
00000030: ffdd 84bf 0600 8c3f 8174 88bf 6a25 89bf
00000040: afbe 133e 85cf 4fbd 0f58 173c 6fa7 88bf
00000050: 2f78 87bf bed5 33be 788d 8abf 9503 8abf
00000060: 67ca 883f a918 87be 4337 88bf c47e 813f
00000070: 685c 4f3e 5b80 1b3f 1151 8d3f 2b1d f6be
00000080: 8c1c 8abf 74cc 883f 4186 873f 088f c03e
00000090: 23fa 873f 33e8 7b3d 285c 89bf f45e 02bf
000000a0: d177 fa3e 1d6d 26bf a9bc 74bf 532c c23d
000000b0: 3dd9 8b3f e008 09be e0f6 89bf c2f7 0e3e
000000c0: 55ae 7e3f 142f 823f 1382 06be e1ee 85bf
000000d0: 5c3f 84be 442c dd3e 9528 88bf 67cb 8abf
000000e0: 2324 8dbf 9003 4dbc be8d 8bbf 1dce 33bf
000000f0: 0bbf 8cbf 02d8 b7bc b18a d23e 0c5b 8c3e
00000100: 23b7 8fbf 5b5a ae3d 9213 db3c 04b3 94bf
00000110: 9d6c c73c cdc1 f5bf c212 1c40 e6b8 0fc0
00000120: 8eb1 b53c e9fa 70bc ae36 20be db72 7ebd
00000130: 16fb 23bd a0af 0a3c d2a8 a33c be94 b63b
00000140: a0e5 8bbf 511a 983f b5c4 be3f 72a5 b4bc
00000150: 1450 7a3c 6923 8d3f d0ba 39bd d360 b3bc
00000160: bedd f93d 058b 16c0 3ca5 5f3c 3a80 d23c
00000170: bdc9 91bf 80ac 0c40 86ac 453e d9c3 d9bf
00000180: 82f0 cdbc c86d 0f3d 09c5 053e e703 1d40
00000190: c6e0 313d 72db efbf 49f2 43bb 2a50 05c0
000001a0: dce1 d93f 857e fcbf 0002 53bf 1ee0 963f
000001b0: 218a f83c 558d 913f 0ab7 81bc 6beb 82bf
000001c0: 8121 dabe 5f89 b5bd 10b8 ffbf dcb6 b2bd
000001d0: 61e4 0a40 342e 1240 0cbf cd3b 64c2 dfbc
000001e0: 77ef f3bb 4801 90bf 9d36 243c c950 dfbf
000001f0: 64dc d5bc b804 a4bf f05b fb3f a9d4 57bf
0.08841666 -1.0146357 1.1084694 0.17305212 1.0905058 -0.33015406 0.18010418 -0.62147605
1.0915309 -1.091397 -1.100947 0.98828036 -1.0380248 1.0937507 -1.0660554 -1.0714543
0.14428209 -0.050735015 0.009237303 -1.0676097 -1.0583552 -0.17562005 -1.0824423 -1.0782343
1.0686768 -0.26386002 -1.0641865 1.0116811 0.20250094 0.6074273 1.1040365 -0.48069128
-1.0789962 1.0687394 1.0587846 0.37609124 1.0623211 0.06150074 -1.0731249 -0.50926137
0.48919538 -0.65010244 -0.9560037 0.094811104 1.0925671 -0.13382292 -1.0778465 0.139617
0.9948476 1.0170617 -0.13135557 -1.0463525 -0.2582959 0.43197834 -1.0637385 -1.0843323
-1.1026653 -0.012513056 -1.0902631 -0.7023638 -1.0995802 -0.022441868 0.41121438 0.27413213
-1.1227764 0.08513328 0.02674273 -1.1617131 0.024343783 -1.9199768 2.438645 -2.2456603
0.022179391 -0.014708259 -0.15645859 -0.062121253 -0.040034376 0.008464724 0.01997796 0.0055719307
-1.0929451 1.1883031 1.490378 -0.022051547 0.015277881 1.1026431 -0.045344174 -0.021896755
0.12200497 -2.352235 0.013650235 0.025695909 -1.1389691 2.1980286 0.19304094 -1.7012893
-0.025139097 0.035016805 0.13063444 2.4533632 0.04342725 -1.8738844 -0.0029899052 -2.0830178
1.7022052 -1.9726111 -0.82424927 1.1787145 0.030339302 1.1371256 -0.01583435 -1.0228094
-0.42603686 -0.08864092 -1.9978046 -0.08726284 2.1701891 2.28407 0.006278878 -0.027314372
-0.007444318 -1.1250391 0.010022786 -1.7446529 -0.026106067 -1.281394 1.9637432 -0.8430887

actor.mu.model.0.bias f4 [2]
00000000: fa06 123e dcb4 083a
0.14260474 0.00052149384

critic.preprocess.model.model.0.weight f4 [64, 8]
00000000: aee9 23be 45f4 89be 3133 f8bb d707 2a3e
00000010: 24bd 3dbe 3ac4 a03e db61 d3be 9a36 39bd
00000020: 9460 d83d d149 f4bd 7ff7 c3bd 1a9b 053d
00000030: a910 c9bd 422a 41be d671 41be c92d 75bd
00000040: 5aea babe 3c3b c33e 4833 453e fcd8 113e
00000050: c7e2 89bd db1a a2bd 5718 ab3d f28e 33bd
00000060: 2673 943e e5d7 88bd 045b a5bd b2c3 eb3e
00000070: c72e a53c 7516 3dbe 57a2 343e 7716 e43d
00000080: f76d 303d 3ea8 00bf ccf2 cdbd 8c8d f53d
00000090: 007f c63d 427e 293e 51ae 28bc 6749 b53e
000000a0: db27 96bc 8abf 08bd b437 d7bd e27b 9a3d
000000b0: 92ca 403e 7677 69bd 12ab 75be 5652 a0bd
000000c0: 3adf c43d 188c 93bd 28a0 dc3d dddc 7bbd
000000d0: 9c63 cdbe fae0 483e eca3 1cbe 18d2 b03e
000000e0: e964 89be 3acc 543e 413f bcbe 2223 983e
000000f0: f337 b23d ea43 aabb cf47 1b3f 25f6 a93d
00000100: dbe9 c23a 88c3 2fbd b143 f1be d3bb 77bc
00000110: 5a32 88bd 790a dcbc a63f 1f3d dc41 6d3d
00000120: ab67 fb3e 95ed 1c3e 7038 a3bc 6abf 47bc
00000130: a643 583e af76 463e 984c 1e3e 57fa 303e
00000140: 11ce b23e 1459 6a3e f435 073f 2bb7 933c
00000150: e558 1f3e 93b0 eebd c63e 07be 024f 80bd
00000160: fc57 0ebf cc9c 87bd d5bd 903d 607c 5d3c
00000170: 54a4 08bc 6dff 903c d0f1 223c de04 013d
00000180: 5311 ef3d 2ab0 693e b3bb 7a3e 4c36 863d
00000190: b136 8fbe dfb9 2ebc 5f4f 453e 4faa 10be
000001a0: 7e47 243e 696c 013d a65d ef3e db3d 9c3e
000001b0: 2951 97bd 82a0 7e3e 2101 d8bc 1d4e c7bc
000001c0: ac27 f3be 74b3 4abe 5e0a 533e 6a8f 813e
000001d0: ad9b 143e 0873 cfbe bc15 60be d0fd 2e3e
000001e0: b718 cabe 84f2 a13e 9f27 3c3e 6661 1b3e
000001f0: a3d0 ecbd 7955 b0bc 9429 11be b6ad 173c
00000200: 06f5 3ebd b5bb 9c3e e8d5 00bf ed0d ad3d
00000210: ef5f f83d 3392 cdbd a01d 37be 28f4 0e3d
00000220: ab4b c8be 22c7 a3bc f36f 89bc 16f3 3abe
00000230: 1772 b63a 9d12 ebbd 86b4 0f3d f367 c7bd
00000240: 2eaf afbe 45da 05be bc71 01bd ac8d 9cbe
00000250: 6f1b 273d fbff 2bbe 6815 00be 86fe 95bc
00000260: cf40 9b3e 5727 17be 6cbb be3d 98fa 363d
00000270: a56c 91be e998 1c3e a071 12bc 9cc5 f3bc
00000280: 85fb 9c3d 02dd 00be 46b1 703d 8f09 30be
00000290: 28b2 d0bd 7d86 38bc 8628 333d a4d8 b83e
000002a0: cea1 a83d 0b62 82be 9570 67bc 5895 143e
000002b0: 0710 12be ff94 0a3d f197 273e e486 783d
000002c0: 0c66 d8be 3a8f 533e af16 113e 1223 f5bd
000002d0: 636d c7be 131c 80bd 27c6 b93e ce0f 553e
000002e0: 9075 3fbe 8da9 23be d96c d9bd f898 d93d
000002f0: e0a2 f13d 1313 73bd 7d93 14be a480 593c
00000300: a06f 79be cbe7 8d3c 135e 143e 5540 d3be
00000310: 719d 84bd 4751 493e 4893 103e 44b5 493c
00000320: ed71 883e aaca e33c 01a2 3abe 6124 863b
00000330: 903f 2bbe 2102 83be c86b fabc 9387 a8bd
00000340: 3ad3 893e af7d 893e 7d03 0b3e 7acb 44be
00000350: 06be 223e 2e8d 88be d1a3 5c3b d417 893d
00000360: f3df a0be 53fc b33e c79c 713c 4bbf 233d
00000370: c527 d53c df0a 763d 9da6 a33c 2ab5 883c
00000380: 9c27 493e d68a 893e 1584 76be 5d0f 653e
00000390: 4197 c4bd df0b bd3c 8b41 523c e92c 9f3e
000003a0: 04ff 04bf a527 943e 1078 71be 0318 27be
000003b0: 38e2 033e bc3c d63c 79fb d23e 2278 dd3d
000003c0: a366 67be 40ed 54be 3723 7abe 3d85 4ebe
000003d0: c41f 53be c61d 8abe 2bac d93c 8b82 153d
000003e0: 86c4 a93e ff82 ff3b 6582 4ebd befa 70be
000003f0: 27e3 583d 3f3c 0c3c 25bb 19be ff93 203e
-0.1600711 -0.26944175 -0.007574462 0.16604553 -0.18529183 0.3139971 -0.41285595 -0.045218088
0.10565296 -0.11928142 -0.095686905 0.03261862 -0.09817631 -0.18863776 -0.18891081 -0.059858117
-0.3650692 0.3813113 0.19257843 0.14242929 -0.067327075 -0.079152785 0.08354252 -0.043837495
0.289941 -0.066818036 -0.080740005 0.4604774 0.020163907 -0.18465598 0.17640053 0.11137097
0.04307362 -0.5025672 -0.100560755 0.119898885 0.09692192 0.1655207 -0.0102954665 0.35407564
-0.018329551 -0.03338579 -0.105086714 0.0754316 0.18827274 -0.056998692 -0.2399104 -0.07828204
0.096128896 -0.07204455 0.10772735 -0.06148993 -0.40115058 0.19617072 -0.15296906 0.3453529
-0.268348 0.20781031 -0.3676701 0.29714304 0.08702078 -0.0051960843 0.60656446 0.082989015
0.001487072 -0.042911083 -0.47121957 -0.015120464 -0.06650229 -0.026860463 0.03887906 0.057924137
0.4910253 0.15325005 -0.019924372 -0.012191633 0.21119556 0.19381212 0.15458906 0.17282997
0.3492284 0.22885543 0.528167 0.018031677 0.15561254 -0.116547726 -0.1320754 -0.062650695
-0.55603004 -0.066217035 0.070674576 0.013518423 -0.00833996 0.017699922 0.009945348 0.031498782
0.11673226 0.22821108 0.24485664 0.06553325 -0.27971414 -0.010664432 0.19268559 -0.14127468
0.16042897 0.03159753 0.46751136 0.30515942 -0.07388527 0.24865916 -0.026367726 -0.02432924
-0.47491205 -0.19795018 0.20609424 0.2530473 0.1451251 -0.4051745 -0.21883291 0.1708901
-0.3947198 0.31630337 0.18374489 0.15173873 -0.11563232 -0.021525132 -0.14176017 0.0092577245
-0.04662039 0.3061196 -0.50326395 0.08449922 0.12127673 -0.10037651 -0.17882395 0.034900814
-0.3912023 -0.019992415 -0.016777014 -0.18256792 0.00139195 -0.114781596 0.03508427 -0.097366236
-0.3431334 -0.13071544 -0.031602606 -0.30576837 0.040797647 -0.16796868 -0.12508166 -0.018309843
0.30322883 -0.147611 0.09313092 0.04467258 -0.28403202 0.15292706 -0.008938223 -0.029757313
0.07665161 -0.12584308 0.05876281 -0.17191146 -0.101902306 -0.011262533 0.043739818 0.36102784
0.08233987 -0.25465426 -0.014125963 0.14510095 -0.14263926 0.0338335 0.16366555 0.060675517
-0.42265356 0.20660105 0.1416881 -0.1196958 -0.38950643 -0.06255355 0.3628399 0.2080681
-0.1869719 -0.15982647 -0.10616464 0.106248796 0.11798644 -0.059344362 -0.14509387 0.013275299
-0.24358988 0.017322442 0.14489011 -0.4126002 -0.06475342 0.19659911 0.14118683 0.0123112835
0.26649418 0.027806599 -0.18225862 0.004093692 -0.16723466 -0.25587562 -0.030568972 -0.08228984
0.26918966 0.268537 0.1357555 -0.19218245 0.158928 -0.26670212 0.0033666978 0.06693998
-0.3142086 0.35153446 0.014746851 0.039977353 0.02601994 0.06006896 0.019976908 0.016687948
0.19644016 0.26863736 -0.24073823 0.22369142 -0.09599162 0.02307695 0.0128330095 0.3108895
-0.5195162 0.28936496 -0.23580956 -0.16317753 0.12879264 0.026152007 0.41207483 0.10813929
-0.22597747 -0.20793629 -0.24427496 -0.20168014 -0.20617586 -0.2697584 0.026571354 0.03650145
0.33157748 0.0077975984 -0.050417323 -0.2353315 0.052951004 0.008559286 -0.15012796 0.15681456

critic.preprocess.model.model.0.bias f4 [64]
00000000: 1b20 6dbe 2956 72be d621 553e 5a40 883d
00000010: 2ca8 f63e de38 ff3e cb43 5a3d 9c93 cb3d
00000020: 820c 82be bb90 89bc dd25 6cbe 5f0d ae3e
00000030: e045 213e 5e82 943c c4cd b6bc d63b ae3e
00000040: 89e1 a13e b095 c6bc 9228 9b3e d803 323e
00000050: 5f4f 82be 7261 293f 671c 97be 163d ba3e
00000060: 8c1a 8cbe a5e1 a53e b63a 86bd d177 a8be
00000070: ada7 833e 78bf a7be 5c86 f4be bfe9 61be
00000080: a1f6 b2be 5c9e c13e f0b6 42be 9bd0 a13d
00000090: a610 033e c686 a8be 9beb 87bd 55dc 48be
000000a0: 6182 7fbe d7d7 cc3e 33d4 85be c414 8b3e
000000b0: 0010 21bd 0aee ddbe 8091 f93e ba6c 85bd
000000c0: 7f08 b2be 4c0a bc3e c857 bbbe f3e8 893e
000000d0: 6e84 5a3d 7b2b cf3c c6a5 4abe 022f a73d
000000e0: 7d50 4e3e 8f77 9a3e 01ab b13e ca84 133e
000000f0: 320f 413e 1e36 713d a28d 85be 62e1 9abd
-0.23156779 -0.2366568 0.20813689 0.06652899 0.4817518 0.49848074 0.05328731 0.09940264
-0.25400168 -0.016792646 -0.23061319 0.33994576 0.15749311 0.01812857 -0.022314914 0.34030026
0.31617382 -0.024241298 0.3030439 0.17384279 -0.2545118 0.66164315 -0.29513857 0.3637473
-0.27364004 0.32398716 -0.06554167 -0.32903913 0.25713864 -0.32763267 -0.47758758 -0.22061823
-0.34953788 0.3781613 -0.19015098 0.079011165 0.1279932 -0.32915324 -0.06636735 -0.196153
-0.2495208 0.40008423 -0.26138458 0.2716428 -0.0393219 -0.43345672 0.4874382 -0.065148786
-0.34772107 0.36726606 -0.3659041 0.2693554 0.05334895 0.025289288 -0.197898 0.08163263
0.20147891 0.3016934 0.34700778 0.14406124 0.18853453 0.0588895 -0.2608462 -0.075625196

critic.preprocess.model.model.2.weight f4 [64, 64]
00000000: f4af 36be ae1a f3bd ba4e 03be ee93 1ebe
00000010: 67bb 193e b018 dc3e 8c3a 53be b897 3cbe
00000020: 26e7 47be efb4 d2bb bc7f 513b 5df2 06bd
00000030: d511 0ebe dd71 72bd 6008 1dbe 7aad c5bd
00000040: b792 1a3e aefd 87be a32c 20be 11a2 cb3e
00000050: 8c5e 1c3d 3022 f23d 22b6 88be c5bc 30be
00000060: 00e7 33bf e296 f13e 9d63 41bd 89e7 01bf
00000070: 184c 77bd 6d40 07be ec3d 9c3e 596f 0c3d
00000080: 1660 483e aa06 4c3e 95e5 7a3d 7717 aa3e
00000090: f144 1dbc 0081 11bf abd5 ed3d b6f7 30bf
000000a0: bee7 34be 1d45 10bd af93 b6bc b02d 8d3e
000000b0: e73d 82be 00ce 8e3e 2ffc ee3d f3a9 31be
000000c0: 48ba 73be 6d23 113e 8793 833c 2529 573f
000000d0: f111 343e e5d6 f0bc f8b2 be3e 9e72 423e
000000e0: 2166 ac3e 6b4a 79be 7805 fa3d 987f 823e
000000f0: 55b7 99be 7d8e b63d c709 8abe e278 333e
00000100: 9f6c 3abe 5d2e 203e 1547 e93e c877 15be
00000110: 5453 0fbe 54c8 933e 3c75 7e3c 2ee3 4f3e
00000120: 8216 1bbe c58f f7be fe42 2d3e b15e ae3d
00000130: 765f c73e b849 793c efff 093d baaa cc3e
00000140: bb43 05be 6c30 993d e76b 683e 3ca0 f5bd
00000150: 95cf dd3d d2d7 64be 5724 36be ced1 2abd
00000160: ba70 a1be 078e dd3d 22f8 b2be 4be3 b73d
00000170: 35f8 953e 5dc5 513e 3d9a b9be 1b61 23be
00000180: 01b6 51be c548 a43d e71f 64be acc4 b5be
00000190: 3566 e5bd f283 0fbe 6eb8 b3be effa 31be
000001a0: 006d b6be 50ce 70bd 49a0 d4be b7ab 133e
000001b0: a3bd bdbc 0fb0 47be f563 883e af23 403e
000001c0: 8bda 4a3d cfeb 1e3e e805 52be 6864 5a3e
000001d0: 3301 cebe 131e 17be 3aee 1abf 1b80 003b
000001e0: fc28 90be c973 d7bc 149b d03d 7139 7abd
000001f0: 7ab6 dd3e 512e abbe 0769 1ebe a906 28be
00000200: 61cf a13d 48ab 353d 57a0 d4bd 82d0 173c
00000210: a593 b5be 83bd 52be 7c13 9ebe 5c83 5ebe
00000220: 4bb6 ce3e 034c 89be c926 933e e64e b7be
00000230: 3a27 a9bd b2fe 943d bc42 423d 879d e23d
00000240: 2858 26bd c89e b2be c52d 323b a93a b93d
00000250: 77ca 403e 2e48 3d3d b736 263e 2497 443d
00000260: 3271 9abc daa0 78bd 6d47 343e 94eb 35be
00000270: e5ab 263d 566c a0be 42c9 023e 48f1 c13e
00000280: 9ba4 b83d 8370 81bd 1446 f4bd 173b 403e
00000290: 76d0 393e 5449 bebb 1ef4 c03e d3e3 69be
000002a0: 97a0 a03e acc9 dfbe ce4f 0c3f 1ded e73d
000002b0: 6c7e 62be a1c2 243f 09b2 27be 6fc3 19be
000002c0: 9bf8 9d3e 2dec 86be 8e8c 623e 3867 5abd
000002d0: 75ed 983e 2796 05be a870 5e3e 91ec 8c3e
000002e0: 6790 393d b3de 02bf 8440 0f3e beff a93c
000002f0: fc24 b6bd 32ee 9c3e a504 923e 86f8 79bc
00000300: 13c7 dbbd 1632 203e 9cbf 8b3e 8dcf 40be
00000310: 7724 173e e01c 9dbc 3d5e 013d 6532 853d
00000320: e474 13bd a718 bf3e d456 b7bd f0ae 9b3d
00000330: 32c2 27bd 2e05 073e 2160 acbd 6af9 0fbe
00000340: 54bc 793e 8f39 573c b565 67bb 47e0 4f3e
00000350: 4498 123e d29c e4be 3081 3bbe ac89 ac3d
00000360: 2eaf 443e e3ee 9dbe 3a2b 6b3e faf9 df3d
00000370: 8286 2fbe db14 bcbd 5197 7dbe 5275 e13e
00000380: 241a 533e 540d a4be deeb e13d c4de 683e
00000390: f28c e7bd e2dd 07be cf12 65be faa0 34be
000003a0: f34e 863e 61de 5bbe 2086 10be 8ec9 363e
000003b0: 6886 683e 0b62 3abd d7ee 83bc 29ae 77be
000003c0: e858 693d b549 b43e 0df2 903e c9bf a0bd
000003d0: 997e c8bd b4e9 f2bc 0de8 1c3d fc72 61bd
000003e0: 340d 98be cea9 7bbe 32c3 3dbd 5d25 0d3d
000003f0: 2f39 96be ba54 5c3e e61c 8c3e 4e32 c33d
-0.17840558 -0.11870323 -0.12823 -0.15486118 0.15012895 0.42987585 -0.20627803 -0.18417251
-0.1952177 -0.0064302604 0.0031967005 -0.03294598 -0.1387399 -0.05919062 -0.15335226 -0.09652229
0.1509503 -0.2656073 -0.15642028 0.39772084 0.038176104 0.11822927 -0.26701456 -0.1725951
-0.70274353 0.47185427 -0.04721414 -0.5074392 -0.060375303 -0.1320817 0.30515993 0.034285877
0.19567904 0.19924417 0.061254103 0.33221027 -0.009598956 -0.56837463 0.116130196 -0.69127977
-0.17666528 -0.03522216 -0.022287218 0.2757392 -0.25437853 0.2789154 0.11669194 -0.17349987
-0.2380153 0.1417367 0.016061557 0.84047157 0.17584969 -0.029399345 0.37245917 0.18989035
0.33671668 -0.24344794 0.12208074 0.2548797 -0.30022684 0.08913896 -0.26960585 0.17526582
-0.18205498 0.15642686 0.45562044 -0.14596474 -0.13996631 0.28863776 0.015530881 0.20301506
-0.15145305 -0.48351875 0.16920087 0.08514155 0.38940018 0.01521533 0.033691343 0.39974004
-0.13014118 0.07479939 0.22697411 -0.11993453 0.10830609 -0.22347954 -0.177873 -0.04170399
-0.31531316 0.10818105 -0.34954935 0.089788996 0.2929093 0.20485444 -0.36250487 -0.15955012
-0.20479585 0.08021692 -0.22277795 -0.3550161 -0.11201135 -0.14015177 -0.35101646 -0.1738088
-0.35630035 -0.058790505 -0.41528538 0.14420973 -0.023161715 -0.19500755 0.2663876 0.18763612
0.049524825 0.15519641 -0.20510066 0.21327364 -0.4023529 -0.14757566 -0.60519755 0.0019607607
-0.2815627 -0.026300328 0.10185829 -0.061089937 0.4330328 -0.33433774 -0.15469752 -0.1640879
0.079008825 0.0443528 -0.10382145 0.009266021 -0.35464206 -0.20580105 -0.3087424 -0.21729797
0.40373453 -0.26815805 0.28740528 -0.35802382 -0.08259435 0.07275142 0.047426924 0.11065202
-0.040611416 -0.34886765 0.0027187925 0.09044392 0.18827234 0.046211414 0.1623181 0.0479957
-0.018852804 -0.060700275 0.17605372 -0.17765647 0.040691275 -0.31332654 0.12772086 0.37879395
0.09015771 -0.06320288 -0.11927429 0.18772541 0.18145928 -0.0058070812 0.37686247 -0.22840814
0.3137252 -0.4370855 0.5480927 0.11324523 -0.22118539 0.6435948 -0.16376509 -0.15015958
0.30853733 -0.26352063 0.2212393 -0.053321093 0.29868665 -0.1304556 0.21722662 0.27524236
0.04530373 -0.5112106 0.13989455 0.02075183 -0.08893773 0.3065048 0.28519168 -0.0152570065
-0.1073133 0.15644106 0.27294624 -0.18829174 0.14760004 -0.019178808 0.031584013 0.065037526
-0.036000147 0.37323496 -0.08952108 0.07601726 -0.040956683 0.1318557 -0.08416773 -0.14059988
0.24388248 0.013136282 -0.0035308425 0.20300399 0.14315897 -0.44650894 -0.18311 0.08424696
0.19207451 -0.3084632 0.22965708 0.10936351 -0.17141154 -0.09183665 -0.24764754 0.4403482
0.2061544 -0.3204142 0.11031316 0.22741228 -0.1130618 -0.13268235 -0.22370456 -0.17639533
0.26232108 -0.2147155 -0.14113665 0.17850325 0.22707522 -0.045503657 -0.016105099 -0.2418753
0.056969553 0.35212484 0.2830967 -0.0784908 -0.097897716 -0.029652454 0.03830724 -0.0550413
-0.29697573 -0.24576494 -0.04632873 0.03445946 -0.29340503 0.21516696 0.27365798 0.09531079

critic.preprocess.model.model.2.bias f4 [64]
00000000: 5b74 6f3e 2aab b53d e74c 7abe 02d3 763c
00000010: 2dd6 2bbe 2cbf 2a3e 5ae3 44be e193 683e
00000020: 44ae fabd 26e5 193e 9a2b 6dbd 7647 5c3e
00000030: 18cb 59be 11f5 bb3d 86f2 43be 6bb8 37be
00000040: 49f2 073e d5c3 0a3e b5f3 92bd 06f0 603e
00000050: 31e0 693e f34a 5dbe 73f8 cdbd 91d4 96be
00000060: 0808 09be 6614 45be c426 09be 1954 903e
00000070: 49ba 233e 4554 383e 62f0 75be 6f86 1e3e
00000080: 2c6c 85be 8975 c33d 52e2 0a3c c9dc d53d
00000090: 1765 2f3e b0b3 813e d1e8 3abe d51a 103e
000000a0: a8b4 25be 0cdc be3d e617 273d a63a d7bc
000000b0: d620 263e a781 123d e743 ce3d 6f03 0ebe
000000c0: 2666 8e3e d68c 5c3e c9e6 243e f0af 423e
000000d0: 5353 92be 7ccd 78be e6e8 a93d 51e5 e7bb
000000e0: 03de 45bd 1293 77be f7df 433e 5a10 e6bd
000000f0: c1d5 603e ebe2 163e cc50 3d3e 098f 2c3d
0.2338423 0.088705376 -0.24443398 0.015064957 -0.1678092 0.16674489 -0.19227353 0.22712661
-0.1224027 0.1502882 -0.05790291 0.21511635 -0.2126888 0.09177602 -0.19135484 -0.17941444
0.13276018 0.13551266 -0.0717539 0.21966562 0.22839428 -0.21610622 -0.100571536 -0.2945905
-0.1338197 -0.19246063 -0.13393694 0.2818916 0.15989031 0.18000896 -0.2401748 0.1548097
-0.2605909 0.095439024 0.0084768105 0.10442502 0.17128406 0.25332403 -0.18252875 0.14072736
-0.16182196 0.09319314 0.040794276 -0.026273083 0.16223463 0.035768177 0.10071545 -0.13868497
0.27812308 0.215381 0.16103663 0.19012427 -0.28579196 -0.24297136 0.08296375 -0.007076897
-0.04830743 -0.24177197 0.19128405 -0.112335876 0.2195654 0.14735 0.18487853 0.042128596

critic.last.model.0.weight f4 [1, 64]
00000000: 46fe 023f 6f17 9f3e 3416 75be 91ac 483d
00000010: a458 55be 17c3 13be 1cd8 8ebe d563 1c3e
00000020: 92d9 d2be 593e 893e 625d 3f3c 9485 913e
00000030: 565a edbe f7b2 c9bd 6b11 debd ef0f a1be
00000040: 18a0 a63d 63ae ee3e b503 b7be 2496 d13e
00000050: 3375 823d 6c83 d2be a5a9 adbe 91f4 83be
00000060: 29ab 15be c763 7abc 8af4 463e bebc fe3e
00000070: 64d3 a63e 3750 ba3e 8fb6 41be 5dab 993e
00000080: 8412 92be 2314 b9be 1206 0a3e 17ed 64be
00000090: 666c b3bb ca79 d13e befb 29bd c4f0 5a3e
000000a0: b0be 9fbe 1334 fd3d 527a 333a e660 58ba
000000b0: 8bc7 e2be 3fe8 8cbe b63b 3b3e e222 93bd
000000c0: 3506 403f 9677 d73d 6da7 d83e a3d4 c83e
000000d0: 637f 853e da70 cebe 1b3a 063c 0c24 b53d
000000e0: 6f2e 1ebe 81e8 7cbe 58c8 b63e d007 a9be
000000f0: bdab cf3e 887e e93c 24f9 af3d b813 12be
0.5116924 0.31072566 -0.23934251 0.048992697 -0.20834595 -0.1442989 -0.27899253 0.15272458
-0.41181618 0.2680538 0.011679979 0.28422225 -0.46357983 -0.09848588 -0.10843166 -0.3145747
0.08136004 0.46617422 -0.35745016 0.4093486 0.0637001 -0.41115892 -0.3391849 -0.25772527
-0.14616074 -0.015282578 0.19429222 0.49753374 0.32583153 0.36389324 -0.18917297 0.30013552
-0.2852975 -0.36148176 0.13478878 -0.22356068 -0.0054755686 0.4091323 -0.041499846 0.21380907
-0.3120017 0.12363448 0.0006846535 -0.0008254185 -0.44292864 -0.2752094 0.18284497 -0.07184388
0.7500947 0.10520856 0.42315236 0.3922473 0.2607375 -0.40320474 0.008192564 0.08844766
-0.154474 -0.24698068 0.35699725 -0.33013773 0.40560713 0.028502718 0.08592442 -0.14265335

_actor_critic.actor.sigma_param f4 [2, 1]
00000000: 446c 3940 62c9 5640
2.897233 3.3560414

_actor_critic.actor.preprocess.model.model.0.weight f4 [64, 8]
00000000: c0bf d7be 7df9 663e d6d7 3f3e 865c edbc
00000010: fea5 383e 899f 87bd 40e4 283d 1bb2 0c3e
00000020: d4de 13bf 092b f0be 29ed 623e 77a6 7c3e
00000030: 4fa6 fdbe 91ef 403e 1321 5fbe 088e edbe
00000040: ce9e e53e 3cbc 00bd d6c9 b8bd 77c5 8b3d
00000050: ec26 2a3e 5d79 0b3d 0b78 0cbe 4c4f 80bf
00000060: 15f7 95bd 08fa f2be 7a75 d8bd df95 c33e
00000070: 23ee c13c 2f2c be3e cc5e 053d 2b90 0c3e
00000080: cdbb 1c3f 3472 153f e7d5 8c3e 7f13 4a3d
00000090: 1dab 8d3e 4510 fabd fa2d e73e 2d98 b13d
000000a0: 3f2d d23e 583b cfbd 6376 9ebd 0b24 65bd
000000b0: 8b1e 1b3b 6811 9fbe 5332 113e 4130 f83e
000000c0: ca54 2b3e 5a40 033f ffa2 5bbe 3550 b33c
000000d0: 80a3 913d f405 b73e e383 033f 11c9 2c3e
000000e0: 493b 9e3e b008 d23e 0be7 e73c 00dc 963c
000000f0: 804c 1f3f 3e49 0dbe 3834 363e 81f8 003e
00000100: 8580 f5be 84a8 5ebd faf3 58bc f9e6 923e
00000110: e159 a1be 99d5 b5be 9108 a53d 5c67 083f
00000120: acee 76bd ba8d 21be 81a7 c43e 1d29 abbe
00000130: f733 38be 5a93 2d3e c180 e2bd cc29 21be
00000140: a664 a83e 9665 a0bd cc6f 6abd 1b90 2e3e
00000150: a384 68be 0b1a 5b3e cb81 263e 4b83 edbd
00000160: 019d f43e 3883 8c3e b55b 09be 9006 55be
00000170: c354 93bd a014 e0bd 412f 113e 51be fcbe
00000180: df62 f7be 6cc6 c53e 4ae0 fc3e 497e 193d
00000190: 88d7 873e e164 8f3c 5ea4 0abd a192 693e
000001a0: e42b 143e 9482 a73e 9046 57be 71c7 47be
000001b0: d37e a33e c6df 04be 53d4 ccbd c3a3 76be
000001c0: 4b74 bc3e 76d2 423f 83cb 74be 92b0 f6ba
000001d0: 6ef5 723e ce39 b13c 4fd7 00bf 1c06 143d
000001e0: 8749 cebe 85df d2be 7dc8 893d 3cd6 22be
000001f0: b758 f4be 2e51 193f 163b 91be 0624 d73d
00000200: 87ad 5e3d 1840 53be c057 ce3c eb56 4cbd
00000210: 70ca 2bbf e420 673d b810 48bd 181b 40be
00000220: 236c bfbe 192a c33d 20bf b33e e37d b9be
00000230: 6da2 393d 7ad4 dc3e f225 4a3d 3a8f 12bf
00000240: d289 63be 761d 273f c3f6 6f3e ff94 cc3b
00000250: 3bff d9be f22a 45be 3653 63bb 7d60 47bd
00000260: a348 18be d3d1 aebe ebc2 273e 8202 5e3d
00000270: 894c 13bf 65e9 e03e a6df 67be 2460 193e
00000280: f646 d6be fdb2 fabe a9bd 963d d819 82be
00000290: 8f37 cd3d bbe6 5abd b561 cf3d 4f78 d93a
000002a0: 0f30 a8be adc7 28be 6ab6 c83d 6548 46be
000002b0: 34b5 e9be 3d93 9c3e 30ed e6bd bbde 64be
000002c0: cda1 abbe fc46 82bd a41e 16bb 0da9 de3d
000002d0: 4516 b93d eb03 9fbd 40be 61bd 903e 313e
000002e0: 9f69 8ebe 9254 39be 9c3a 233e cadb a43e
000002f0: 52a7 8b3d 445f a93d ab4a 24be bd96 44be
00000300: f670 563e c664 093f c5a6 ddba 7fb6 35bd
00000310: 9049 043f 84d0 37be aec3 45bd b40f 323d
00000320: af53 2abf 7b0d 96bc 545a 05bd a08b 4d3d
00000330: 4627 81be d083 44be 8eb4 2a3d 252f 8a3f
00000340: 76f6 213f df74 74bf 70b0 edbe ceb5 fb3d
00000350: c453 cb3d b80d 75be 1c05 10be 2c0a c6bd
00000360: 7156 cabe 637b 2cbe 5e12 3a3c 9b50 bfbd
00000370: faba 56bf cf58 173b 185a c0be 2cba 9b3e
00000380: f97f 1bbd 3311 fc3d cb41 1cbf ec8e 8dbe
00000390: 34a8 2dbd b446 f03c de79 27be 8e65 a23e
000003a0: c4f4 a03e 6aa7 ee3c 62f8 7cbe ff13 3f3e
000003b0: 1d88 8e3e e78a 0f3e ee4e 65bd 0737 63bf
000003c0: bb3c 9ebe 139d 68be cdd6 753e 803c 61be
000003d0: 6efb 283d 139e f1bd d7e1 363e 7404 85be
000003e0: 41cb 43be 88d2 fcbd 7dfe e73e 6376 9c3e
000003f0: 45e8 f0be b97c 683e 446a b6bd afbe 07bf
-0.4213848 0.2255611 0.18734679 -0.028974783 0.18032071 -0.06622226 0.0412333 0.13739817
-0.57761884 -0.46907833 0.22160782 0.24672876 -0.49540946 0.18841387 -0.2178996 -0.46397424
0.4484772 -0.031429514 -0.09022872 0.06824773 0.1661641 0.034051288 -0.13717668 -1.00242
-0.07322518 -0.47456384 -0.10569282 0.3820028 0.023673123 0.37143084 0.03256111 0.1372687
0.6122406 0.58377385 0.27506945 0.049335 0.27669612 -0.122101344 0.45152265 0.08671603
0.41050145 -0.10118741 -0.07737424 -0.055942576 0.0023669328 -0.31067967 0.14179353 0.48474315
0.16731563 0.5127007 -0.21448897 0.021888832 0.07111263 0.3574673 0.5137312 0.16873576
0.30904606 0.41022253 0.028308412 0.018415451 0.62226105 -0.13797471 0.17793357 0.12594797
-0.47949615 -0.054359928 -0.013241762 0.28691843 -0.31513885 -0.35514525 0.080582745 0.53282714
-0.06028621 -0.1577672 0.38409045 -0.33429804 -0.17988573 0.16950741 -0.11059714 -0.157386
0.3288929 -0.07831876 -0.057235524 0.1704716 -0.22706847 0.21396653 0.1626045 -0.11597308
0.47776034 0.27443862 -0.1341389 -0.20803285 -0.071939014 -0.10941434 0.14178182 -0.4936395
-0.4831762 0.38627946 0.4938987 0.03747395 0.26531625 0.017504157 -0.03384816 0.2280984
0.14469868 0.3271681 -0.21023011 -0.19509675 0.31932697 -0.12975988 -0.10001435 -0.24085908
0.36807474 0.7610239 -0.23905759 -0.0018820933 0.23726436 0.021634009 -0.50328535 0.03613864
-0.40290472 -0.41186157 0.06727693 -0.15902036 -0.47723934 0.59889495 -0.28365391 0.10504918
0.054364707 -0.20629919 0.025188327 -0.04988758 -0.6710577 0.05642785 -0.04884407 -0.18760335
-0.3738719 0.09529514 0.35106754 -0.36228856 0.045320917 0.43130857 0.049352594 -0.57249796
-0.22220543 0.6527933 0.23433976 0.0062433477 -0.42577538 -0.19254664 -0.0034687049 -0.048676003
-0.14871459 -0.34144458 0.16382949 0.05420161 -0.5753866 0.43928066 -0.22643909 0.14978081
-0.41851014 -0.48964682 0.073603936 -0.25410342 0.100203626 -0.053442698 0.10126058 0.0016591641
-0.32849166 -0.1648242 0.09800418 -0.19363554 -0.4564606 0.30581084 -0.11275709 -0.2235059
-0.33521882 -0.063611954 -0.0022906447 0.10872088 0.09037451 -0.07764419 -0.055113077 0.17309022
-0.27814957 -0.18098667 0.15940326 0.32198936 0.06819023 0.082701236 -0.16044109 -0.19198127
0.20941529 0.53669393 -0.0016910663 -0.044363495 0.5167475 -0.17950636 -0.048282318 0.043472007
-0.6653394 -0.018316975 -0.032556847 0.050181985 -0.25225276 -0.19190907 0.041676097 1.0795637
0.63266695 -0.9549083 -0.46423674 0.12290536 0.099280864 -0.23931015 -0.14064449 -0.09669909
-0.39519075 -0.16843943 0.011356918 -0.09341546 -0.83879054 0.0023093706 -0.37568736 0.30415475
-0.03796384 0.12307968 -0.6103789 -0.27648103 -0.04239674 0.029330589 -0.16355082 0.31718105
0.3143674 0.029132564 -0.24704126 0.18659972 0.2783822 0.14017831 -0.055983476 -0.8875584
-0.3090571 -0.22716169 0.24007721 -0.21995735 0.041255407 -0.117977284 0.17859589 -0.2597996
-0.19120504 -0.12344843 0.45311347 0.30559072 -0.47052208 0.22703828 -0.08906987 -0.53025335

_actor_critic.actor.preprocess.model.model.0.bias f4 [64]
00000000: a008 053e e126 6c3d 433d cabd 2ca5 aabe
00000010: 09d9 0c3d e0ef 95bd eff8 e13c bec1 e13c
00000020: 29dc 313e bf8c 833d 3fd3 c2bd bc01 d7bd
00000030: 1480 093e 0a33 2a3d f372 1d3d 0751 5cbc
00000040: 2236 18bd 3d45 353d 0e37 6f3e f429 18bd
00000050: 3592 10bd e43c c23b 33f0 f33d 860d 8b3d
00000060: 8a00 ec3d 8dcb 093e e58f 73be 2fc1 8c3c
00000070: 559d 423c adf6 92bd 2591 c63c cdd1 48bb
00000080: 93b0 8cbe 77f8 04be a117 9a3d 1fd5 51bd
00000090: 7e96 6dbe 52f8 523d 8bc8 a6bd e22d ae3d
000000a0: 004b 91bd 4f2e 05bd af25 5abd 495b cabd
000000b0: 3897 053c a3a0 513b 1941 ccbc 9a6d 8b3c
000000c0: 4f38 d53c 4c11 be3d 2d31 363d 5b2d 36be
000000d0: e5eb 33be 4dbb 253e 3d14 9f3d dbc1 bd3c
000000e0: 4866 78be 7c0f 173e 2984 cebd e73e b9bd
000000f0: e6e8 c8bc 288a bfbd 6003 60bc e816 ae3d
0.12991571 0.057654265 -0.09874966 -0.3332914 0.03438667 -0.07321143 0.027584521 0.027558204
0.1736914 0.064233296 -0.09512948 -0.10498378 0.13427764 0.04155258 0.038439702 -0.013447053
-0.037161 0.044255484 0.23360845 -0.037149385 -0.035295684 0.005927669 0.11911049 0.06789689
0.1152354 0.13456555 -0.2378536 0.01718196 0.011878331 -0.07175956 0.024239132 -0.003064263
-0.27478465 -0.12985407 0.07524038 -0.05122864 -0.2320194 0.051506348 -0.08143719 0.08504845
-0.07094383 -0.032514866 -0.053258594 -0.098806925 0.008153729 0.0031986616 -0.024933385 0.017020036
0.026027827 0.09280643 0.04448049 -0.17790739 -0.17570455 0.16184731 0.07767532 0.023163727
-0.24257767 0.14752 -0.10083801 -0.09045201 -0.024525117 -0.09352523 -0.01367268 0.08500463

_actor_critic.actor.preprocess.model.model.2.weight f4 [64, 64]
00000000: 9158 653e 755e 6b3d 7268 c5be c86a 37bd
00000010: 5d0a 56bf cc85 4abd 753d 17be f4d6 7fbe
00000020: 8cbe ed3e dd39 943c 21af e9be 6747 9ebe
00000030: 8c62 093e 1a3f b8bd 7582 abbe 96ed 273f
00000040: 98e3 d7be 498f 49bc c7ac bd3d a497 c43e
00000050: 47e4 283f 4966 9e3e 2692 b53e 4d98 bcbd
00000060: 11bb c5be 8acd 243f a4d4 81bd ccc4 163f
00000070: b430 c83e da26 9cbe bdec 7c3e 0d57 e3bd
00000080: 0be8 073d 3be5 f8bd ceeb d73e d7e4 d73e
00000090: ef8a bf3d 86a7 fabe aa89 93be 7e70 253c
000000a0: dc8e febe 309f 893d 2c5c debe 22c5 69be
000000b0: ae08 17bc 024c 4e3e 701d dabd 8c22 1a3f
000000c0: 65ae b1bb 5e9f 8a3e a172 a3bc 7f0c 813d
000000d0: e55f 9dbe 3f9e abbe 027f c33e 459d 403e
000000e0: 641c 053e b8ad d93d d65f f6be 9f2d 183d
000000f0: 6a92 003f 914a c7be d66f 5fbc 90f4 a9be
00000100: cf9c f9be 20d1 8cbe fe92 1cbe c404 bfbc
00000110: 285c fb3c 02e2 1a3c 5e57 8e3c 5b4d 5bbe
00000120: 81a8 20bd 860c 36bd d54b bf3e 64e6 ab3d
00000130: 1f07 fabe 1cbd 7d3d a87e cb3e 306c a1be
00000140: 6759 7d3e f43e fa3d 9c5c 20bd 1c6c eabd
00000150: d74f 91be bdd3 e2be ac20 fdbc cd84 01bd
00000160: 9903 45be e0ad cfbd db83 423f 6775 0e3e
00000170: c736 0a3f a191 e63d ab92 0d3e b2fd b63d
00000180: 3d5b ca3e 00d2 023e 1556 5abd db87 8e3e
00000190: c93e 523e 6352 d93d ea54 16be 687c 99be
000001a0: dbec 5a3e a1b3 943b 4b42 de3d 1e50 d93d
000001b0: 45d9 76be 2a6d b23d aeb4 bf3c 7ab4 28be
000001c0: a91a f03c d135 4bbe 96b1 a43b e3c7 843d
000001d0: 70e1 b63e 2711 29be 7841 42be 707e 573e
000001e0: 8410 6b3e be97 e9be ad11 7d3c e5ca a73e
000001f0: 2508 9d3d 44ef 713e 0572 853e 96c1 83bd
00000200: 7e36 fc3d ed0a b2bc 89a8 833e be3b 82be
00000210: e104 013c bd34 a1bc b57c 8e3e 29e3 e83d
00000220: b86b c03c c3fa 35bd c524 98be 2031 8fbe
00000230: fe9f db3e 338f b53b d62a b93e 38e2 ac3e
00000240: 70f7 a9be ef00 3e3d 3cf5 873e b81f d5bd
00000250: c015 db39 a86e 3dbe e20c e13e b435 50bd
00000260: 111f 863e 0117 3e3e 5528 a3be 089b 373e
00000270: d671 7bbe 9dc8 dcbd 3764 933e be75 a4be
00000280: 9823 83be ed7b f2bd 743a 72be 8ceb b2be
00000290: 5b73 a5be ef77 973e 2572 4cbe 489d bd3e
000002a0: 54ef 18bf 65da 193e dce1 03be 74b1 23be
000002b0: 4ae9 85bd 0ceb 363e de77 ebbd 2447 d4bd
000002c0: 1389 8e3e b31b 993d a6dd f93e bece 61be
000002d0: 9d14 a9be 064c 343e 1fc3 bfbd 8747 df3c
000002e0: 2538 92be 54b2 d73e 4097 94be 3e28 20be
000002f0: 3311 343e 4d91 bfbd 384d b03d 02cc 0e3e
00000300: 58f9 ab3d f586 ba3e bcb7 02bf 9cb3 5c3d
00000310: 68fe 7dbf dd32 b13d c36e e9bd f3f4 98be
00000320: 069f 7d3e a3e9 67be 490a babe bb81 dabe
00000330: 924e 443e a7f6 2b3e b0b0 82be a905 0b3f
00000340: b545 67be 4424 4fbd 7776 00bd 1ba8 a03e
00000350: 2a57 603f 2857 473c 7545 303f 33d3 803e
00000360: b822 91be 3e76 403f 55a1 5d3d e17e 473e
00000370: 6118 693d e094 66be 68c0 373e 52e1 7d3e
00000380: 889c 1f3d 155a 473d 6ea0 cc3e 8618 b3bd
00000390: e6e6 4f3d a44a c9be bc61 ff3c 95df 283e
000003a0: 6c0f a8be 1fb2 b8bd a1b5 1dbf a99d 0a3e
000003b0: ef7f 863d addc a83c 5945 ec3d 4205 f73e
000003c0: b790 16bd 5649 903e 1315 fb3e 4443 85bc
000003d0: bf5a 383e 5464 923e b696 183f 02ea ce3e
000003e0: 2dfd 163e ae09 2dbe c4c7 06bd cab1 cbbd
000003f0: 3d5a bf3e c590 e3be 13c2 5fbe 05f6 35be
0.22397067 0.057463128 -0.38556248 -0.04477957 -0.83609563 -0.049444005 -0.14769538 -0.24984342
0.46434438 0.018093998 -0.45641425 -0.3091385 0.13416499 -0.08996411 -0.33497968 0.655969
-0.42165828 -0.012302228 0.0926147 0.38396943 0.65973324 0.30937412 0.35463065 -0.092087366
-0.38619283 0.6437613 -0.06339386 0.5889404 0.39099658 -0.3049839 0.24699683 -0.11100588
0.033180278 -0.12153097 0.42172092 0.42166778 0.09352671 -0.48955935 -0.28815967 0.010097621
-0.49718368 0.06719816 -0.43429697 -0.22829106 -0.009218378 0.20146182 -0.10650146 0.60208964
-0.005422401 0.27074713 -0.01995212 0.063012116 -0.30737224 -0.3351917 0.38182837 0.18809994
0.12999111 0.10628837 -0.48119992 0.037152883 0.5022341 -0.38924077 -0.013637504 -0.331944
-0.48752448 -0.275033 -0.15290448 -0.023317702 0.030683592 0.0094532985 0.017375644 -0.21416228
-0.039223198 -0.044445537 0.37362543 0.08393553 -0.48833558 0.061947927 0.3974507 -0.31527853
0.24741136 0.122190386 -0.03915082 -0.114464015 -0.28381225 -0.44302168 -0.030899368 -0.03162079
-0.19239654 -0.10140586 0.75982445 0.13911973 0.53989834 0.11258245 0.1382548 0.08935107
0.39522734 0.12775421 -0.05330475 0.27838024 0.20531763 0.10611417 -0.1468083 -0.29977727
0.21379416 0.004538015 0.10852488 0.10610984 -0.24106319 0.08712228 0.023401584 -0.16475096
0.029309588 -0.19844748 0.0050260527 0.06483438 0.3571887 -0.1651045 -0.18970287 0.21044326
0.22955519 -0.45623583 0.015446109 0.32771984 0.07667569 0.23626429 0.26063552 -0.06433408
0.12315081 -0.021733725 0.2571452 -0.25436205 0.007874698 -0.019678468 0.2782952 0.11371452
0.023488864 -0.044428598 -0.29715553 -0.27967167 0.42895502 0.0055407523 0.36165494 0.3376634
-0.33196592 0.04638761 0.26554286 -0.104064405 0.0004178714 -0.18499243 0.4395514 -0.050832465
0.26195577 0.18563463 -0.31866708 0.17930233 -0.24555144 -0.107804514 0.28787395 -0.3212108
-0.25613093 -0.11840043 -0.2365511 -0.34945333 -0.32314572 0.2958369 -0.19965418 0.3703406
-0.59740186 0.15024717 -0.12879127 -0.15985662 -0.06538637 0.17863101 -0.11497472 -0.103651315
0.27838954 0.07475986 0.48801917 -0.22051522 -0.3302354 0.17607126 -0.09363388 0.027255787
-0.2855846 0.4212824 -0.29021645 -0.15640351 0.17584686 -0.09353886 0.08608478 0.1394501
0.08397168 0.3643109 -0.51061606 0.053882226 -0.9921632 0.086522795 -0.11398079 -0.2987438
0.24767694 -0.22647719 -0.36335972 -0.42677101 0.19170597 0.16793309 -0.25525427 0.5430551
-0.22585185 -0.050571695 -0.031362977 0.31378254 0.87633 0.012166776 0.68855983 0.25161132
-0.283468 0.75180423 0.054108936 0.19481994 0.056908015 -0.22517729 0.17944491 0.24792984
0.03896764 0.048669893 0.39966148 -0.08744912 0.05075731 -0.3931476 0.031174533 0.1649154
-0.32824266 -0.09018349 -0.6160527 0.13536705 0.0656737 0.020613039 0.115366645 0.482462
-0.036759105 0.2818095 0.49039516 -0.016267426 0.18003367 0.2859217 0.59604967 0.4041291
0.14745016 -0.16898224 -0.032905355 -0.0994602 0.37373534 -0.44446388 -0.21851377 -0.1776963
