results/Walker2d-v3/ppo/5/220622-172433/policy.pth (torch, 53732 bytes, 24 tensors)

actor.sigma_param f4 [6, 1]
00000000: c177 13c0 435b e2bf bfc7 09c0 8ea0 06c0
00000010: fcf6 ebbf 8ca3 0ac0
-2.3041842 -1.7684101 -2.1528165 -2.1035495 -1.8434749 -2.166232

actor.preprocess.model.model.0.weight f4 [64, 17]
00000000: ee9f 283e f92d 1c3e 20e6 493e 5770 0b3f
00000010: 77b5 b63e 9131 d5bd 4bd1 cebe 2f7a 083e
00000020: 526f 9c3d 290a ea3e 845d 30be cfb1 5ebe
00000030: 9e6f 9f3d db70 3ebe 648e eb3d d2cc 113e
00000040: 47d8 6abe 2649 c0be a902 a93d 617a 423e
00000050: b6d7 933d c150 98be ad01 87bd 8095 dc3d
00000060: 7a62 b63d 65a2 d33e c311 d53d 4020 e9bd
00000070: b940 723e 2637 f4bd 2cd1 c83e 1175 b8bd
00000080: 22fa dc3d ddc9 993c c158 c8be 3636 52be
00000090: fd23 b5be d562 a23d 140d ce3b ed8e 913d
000000a0: b62d 923e f22b c63e 6bb2 22be 9c70 0abe
000000b0: 0a97 9ebe 0a89 3abd 2d79 b5be d736 5b3e
000000c0: 2ad2 81be aa40 433e aef0 6bbd bf27 bd3e
000000d0: d661 05bf f623 86be 66d7 eebe 1500 92bb
000000e0: ab0a 5bbe d129 23bd da4c 08bc 1759 dbbd
000000f0: 295e 3e3e 1dc8 6d3e 2a63 813e f705 31be
00000100: be35 673e bd59 88be 0569 573e 9431 a2bb
00000110: 7894 f43d 61cc a2bd 855d 083f 652f 07bd
00000120: 2e5a 91bc a3b8 acbd 72de 4dbe f5a8 b23e
00000130: ca58 a6bb 437d 9abe 754d d83d 2cb3 6f3d
00000140: eea4 893e 0cf7 a2bd e59c a9bd d5c1 443d
00000150: 1dd9 8bbd c5ef 86be 7a08 80be 1579 a33e
00000160: a4a0 0dbf 062b 73be 2bd6 4f3c de83 a2bc
00000170: cb20 98be 1238 13bf 8016 60bc 04a0 17be
00000180: 10e9 18be 0195 99be 34b2 20be 4136 c53e
00000190: 83fb ad3e f74e 323e 316d 4abe 4e6d 913e
000001a0: 8cbf 8f3d 0350 e0be 0502 913e 58d0 b43e
000001b0: e02a 79be 8de8 98bd 9f72 3dbd 6853 e53e
000001c0: a9d1 10be 2571 79be 1d14 7ebe c335 84be
000001d0: 05e9 6e3d 10fb 22be 2813 c0be 1113 543e
000001e0: cdc0 b3be de32 973b 69e0 17be ab19 073e
000001f0: 9609 643e 61e9 5a3d 1209 883d 046b f03d
00000200: 6590 b5be 2327 0cbe d1bc 4d3f a6fc b9be
00000210: b6e7 babd 7f9a 803b aa88 ff3d 07c0 36be
00000220: e2aa 1abe 57d8 4e3f bb94 f33c 6f64 7e3d
00000230: 5bff 2c3e 43ce a93d c3d3 1d3f ec8a e83d
00000240: a510 4bbe 2ba4 3bbe ecfe 713e 55d4 113e
00000250: c5e3 9e3e 9f5e ae3d 7363 103e 34b0 3ebd
00000260: c311 3a3d db91 843e 5bc3 223e 5ff2 7ebe
00000270: 6f89 77bb 7a4e 033f 74ab 07be e3c2 1a3e
00000280: 0f0d 8f3d 44ce 91be 95b0 38be b696 643e
00000290: ea92 86be bac0 71be 9b08 d43d fe51 e6bd
000002a0: 3a8a db3e 19f6 343c c3a0 cfbd f279 0cbf
000002b0: 224e fc3b f6ea 413d 7de6 3bbe 3298 d83a
000002c0: 7301 49bf 1848 f5bc 4c79 d6be f22b 03bd
000002d0: bc5d d6be 31bc 943c 0cf8 5a3e f560 943d
000002e0: b00c 48bd 7930 64be 1609 2d3e 05e5 fb3d
000002f0: 1829 953e be42 cfbd 65f6 2b3d 4e16 2fbf
00000300: ab44 523e cdaf 3cbe 8139 a83d 422a e3ba
00000310: 2497 24be cfcb cfbe bb25 d0be f585 a93d
00000320: 41db 3bbc ff63 f13d 1424 5bbe 096f 893c
00000330: fc7e 06bf 4c4b d9bd 36e2 a0be 0270 50be
00000340: 81e0 32be fb7e 43be c036 86bd 9984 aabd
00000350: e020 cf3e 6eab f4bc 8f8b 20be 840b d1bd
00000360: 33ac 913e 79fc 473e c6ca 64bd 91db 3abe
00000370: fbaf e83e 2931 84be 3c9d 6ebe 9b5c 6c3e
00000380: ca83 953e 98b3 e8be dc7e 80be 4eeb 60be
00000390: 729f b73d fb03 f83e f3c0 613d b01c 683e
000003a0: d325 cabe 0bad 3cbe d424 febe 340d ea3c
000003b0: 614b b6be c0b0 78bd 7a17 8dbe 55c7 db3e
000003c0: 4738 c5be 3ec7 e0bd dd95 c8bd 8495 023e
000003d0: 5c75 6abd f9e0 3ebd 31e5 cabd 4f5a 9abe
000003e0: 4a2d 42be 29e7 b1bd 2913 0cbf 6c4c 62be
000003f0: ede8 e83d 64f9 16be d54e 75be 2ec8 e43d
0.16467258 0.15251912 0.19716692 0.5446829 0.35685322 -0.10409845 -0.40394053 0.1332786
0.0763842 0.45710877 -0.17223173 -0.21747516 0.07784961 -0.18597738 0.11501768 0.14238289
-0.22934066 -0.37555808 0.082524605 0.18991996 0.07218878 -0.2974911 -0.065921165 0.10770702
0.08905502 0.41334835 0.104037784 -0.11383104 0.23657502 -0.11924581 0.39222085 -0.09006704
0.107898965 0.018773014 -0.39130214 -0.20528492 -0.3537902 0.07929007 0.00628818 0.07107339
0.285505 0.38705403 -0.15888374 -0.1351952 -0.3097461 -0.045540847 -0.35444012 0.21407638
-0.25355655 0.19067636 -0.057602577 0.36944386 -0.5210241 -0.2619931 -0.4664871 -0.004455576
-0.21390788 -0.0398348 -0.008319104 -0.10710352 0.18590607 0.23220868 0.2527097 -0.17287432
0.22579095 -0.26630965 0.21036156 -0.004949758 0.11942381 -0.079491384 0.532677 -0.033004183
-0.017743196 -0.08433654 -0.20104387 0.3489453 -0.0050765024 -0.30173692 0.10561649 0.05852048
0.26883644 -0.07957277 -0.082818784 0.048036415 -0.068285204 -0.26354805 -0.25006467 0.31928316
-0.55323243 -0.23746881 0.012685339 -0.01983827 -0.2971252 -0.5750743 -0.013677239 -0.14807135
-0.14932656 -0.29996493 -0.15692979 0.38517955 0.3398095 0.17412935 -0.19768216 0.28403705
0.070189565 -0.43811044 0.28321853 0.35315204 -0.24332762 -0.074662305 -0.04625189 0.44790196
-0.14142479 -0.24359567 -0.2481236 -0.25822267 0.058327693 -0.15916085 -0.37514615 0.20710398
-0.35108033 0.004614218 -0.148317 0.13193385 0.22269282 0.053445224 0.06642355 0.117391616
-0.35461727 -0.13686804 0.80366236 -0.36325568 -0.091262266 0.0039246674 0.124772385 -0.1784669
-0.15104249 0.8079886 0.029734006 0.0621075 0.16894285 0.082912944 0.6165125 0.11354622
-0.19830568 -0.18324344 0.23632401 0.14241154 0.3103315 0.08514141 0.14100437 -0.04655476
0.045427095 0.2589253 0.15894835 -0.24897145 -0.0037771126 0.5129162 -0.13248998 0.15113406
0.069849126 -0.2847768 -0.1803611 0.22323117 -0.26283962 -0.23608676 0.10353204 -0.112461075
0.42878896 0.011045002 -0.10138085 -0.54873574 0.007699744 0.047343217 -0.18349643 0.001652485
-0.78517836 -0.029941604 -0.41889417 -0.03202433 -0.4186839 0.018156143 0.21383685 0.072450556
-0.048840225 -0.22284116 0.16897997 0.122995414 0.29132915 -0.10120152 0.041983027 -0.6839341
0.20534007 -0.18426438 0.08214093 -0.0017331319 -0.1607328 -0.4058518 -0.40653786 0.082775034
-0.011465848 0.11786651 -0.21400481 0.016776579 -0.5253751 -0.10610065 -0.31422585 -0.20355228
-0.17468454 -0.19091408 -0.065534115 -0.08326072 0.4045477 -0.0298669 -0.15678237 -0.102072746
0.2845169 0.19529904 -0.055857442 -0.1824782 0.45446762 -0.25818756 -0.23302168 0.23082201
0.2920211 -0.4544952 -0.25096786 -0.21964762 0.08965959 0.48440537 0.05511565 0.22667193
-0.39481983 -0.18425386 -0.49637473 0.028570749 -0.35604385 -0.060715437 -0.27556974 0.42925516
-0.385195 -0.109755024 -0.09794209 0.12752348 -0.05724083 -0.04660127 -0.09906996 -0.30147025
-0.18962589 -0.086866684 -0.54716736 -0.22099465 0.11372552 -0.14743572 -0.23955853 0.11170994

actor.preprocess.model.model.0.bias f4 [64]
00000000: db0a bf3d 0813 1f3e 818f 783e fdb6 703e
00000010: 836a 80be dd61 cf3d 263e 293e 32a3 fd3d
00000020: 790b 80be 6f52 23be 3941 743e 4a8e 10bd
00000030: c830 623e 027f 30be 2a79 a83b 53d9 82be
00000040: 1f7f 5c3e eab5 9b3e 8251 4fbe 59bc 8ebd
00000050: a9af 4f3b 1ef3 853e f46c 683d 612c b6bd
00000060: d27a 6f3e 3dd4 7abd bacb 5a3d 285c 41be
00000070: 1a11 7dbe 4958 7a3d 948b aa3e 8330 983e
00000080: f73a 76bd bb66 26bd a0ab 14be e8a6 063e
00000090: 72a8 02bd 612e f8bd b0c5 a43c b019 273e
000000a0: 96e4 973d dc9c b63e a703 05be a200 a4bc
000000b0: 51b4 0ebe 91e9 3f3e 5626 3ebc 0e45 c6be
000000c0: 5c60 59be 163f f13c f0b9 3ebe a767 253d
000000d0: c0cb c23e 9f58 6fbe a348 f53e a550 e23d
000000e0: 2e9e 30be 1a04 e03c edbb a6be 8dbd 493e
000000f0: 61e4 803e 307b 143d 5c64 673c 8c43 49be
0.093282424 0.15534604 0.24273492 0.23507304 -0.25081262 0.10126088 0.16527614 0.12384643
-0.25008753 -0.15949415 0.23853005 -0.035291947 0.22088921 -0.1723595 0.005141397 -0.2555643
0.21532868 0.30412227 -0.20245937 -0.06969518 0.0031690395 0.26162046 0.05674453 -0.08895183
0.23386696 -0.061237562 0.053416945 -0.18882811 -0.24713555 0.06111935 0.33309615 0.29724512
-0.060114827 -0.040625315 -0.14518595 0.13149607 -0.031898923 -0.12118221 0.020113796 0.16318393
0.07416646 0.3566655 -0.12989675 -0.020019833 -0.13935973 0.18741442 -0.01160582 -0.3872456
-0.21228164 0.029449027 -0.18625617 0.040382054 0.38046074 -0.2337365 0.4790698 0.11050538
-0.17247841 0.027345706 -0.3256525 0.19701214 0.2517424 0.036250293 0.014123049 -0.19654673

actor.preprocess.model.model.2.weight f4 [64, 64]
00000000: a08f b23e 2980 2a3d 45a4 a83e f1bb 8bbd
00000010: 3acc 81be a4fc 903e 0ffa ac3e 96d0 833c
00000020: 8137 21be 512f a3bb ce4e 933e f22d d23e
00000030: 8b4c 583d 7f1d 953d 712b 8e3d ee8a 553d
00000040: c162 d13e 7a65 76bd fcc2 c3be 3778 45be
00000050: 7344 983e b127 1fbe c9d4 543c 9d2f 83be
00000060: 5ac8 ac3e 4da3 dc3d 252d 7e3e e0fa c4bb
00000070: 51a8 24bd 3ea8 3ebe 000a 1abe 989a 1c3e
00000080: 0ad0 973e 26f3 b3be 0a04 e9bd e71a d0bd
00000090: 95ab 39bd cb83 c03d 6fa8 453e c318 b8bc
000000a0: c479 7bbe 49d1 a13d 77d6 8ebe f537 663e
000000b0: 75e6 3abe 7b15 d93e fa2c 40bd 7ccd f43d
000000c0: 3fcd 4cbd 0b9a 5dbe 0e83 c8be 94c3 02be
000000d0: e82b 0a3d fd73 56be 2c1d 213e 5c18 273f
000000e0: e5b8 0c3e c054 7f3e 3272 ea3d 56e9 9b3e
000000f0: d40e 37be 0764 50be b189 cdbe ce75 b4bd
00000100: e7e5 8bbe 8c97 19be 2725 a43e b523 f63e
00000110: 0f69 e6bd 1656 573e 0dbf 7dbe e949 e23c
00000120: e446 72be ee80 debe ac0d 61bd 3ce7 fc3e
00000130: 0e08 ab3e bfe6 363d acb8 723e 35fd 02be
00000140: 0e71 4abd 8e4c 6ebe 0362 96be c5c5 be3e
00000150: edb3 503e ab6a c33d f384 8fbe 0bda dbbe
00000160: aee2 27bd f99c 193e f47b 1c3f 0b9c 6cbd
00000170: 1224 c9bc 2997 84bd 8e1d aabd 45df 9abe
00000180: 26e3 26bd f7b3 6f3e d050 4fbf ac7c 98be
00000190: 7184 98bd 394b c1bc 3243 a23e 89f6 68bd
000001a0: 3c8e 1ebd 9a1e 3f3d ccd9 753e 3a4c 063e
000001b0: ee0c 493c f9be 143d 5c8e 933d f102 03be
000001c0: 2e35 e6bc e51d d3bd b894 0f3f e4e4 c83b
000001d0: 5494 b5be d63a f2bd 2b73 35be 8e7f e53d
000001e0: 0162 4b3e b324 1dbf e459 e23d 0b56 edbe
000001f0: eee3 71be 9682 193f ef6e f9be 7334 0a3e
00000200: 82a3 903e 320a 1abd 223e b13d 0e7a ad3c
00000210: db2e 3dbd dd07 113e 3b14 6e3e 30da 323e
00000220: 6846 aabe 97ae 31be a185 0dbb e21a b93d
00000230: 66b3 d93e 569e 27be 5ea5 36be 398e b8bd
00000240: c9bf 3c3e 382a 57be ba71 c4be 9fdb f03e
00000250: 5922 09be 3d38 e33b 82dd a13e d27b 983e
00000260: b074 6f3e e0f3 ccbe 0c05 0dbf 6d49 9ebc
00000270: 5383 f4be 03b3 97be 693d d43e 724b aa3e
00000280: fda1 6abe 33bc 30be 3dce 903e edc8 5b3e
00000290: 697a b2bd b6a1 a33d e70c 433d e3a5 653d
000002a0: 4a15 093d 0e9d babd fe08 923d ef1c 0dbd
000002b0: e6c6 693c a0b6 163e 795c 933d 7dca 043e
000002c0: 6ab1 0f3e 6436 343e 7442 743e e8ed 85bd
000002d0: 050c ad3e dfef c23b ed8f bbbe 98a7 963e
000002e0: cb54 073e 3c71 033f 31c6 053f 7b1e d8bd
000002f0: aaf5 953e ab17 4e3d cb91 093e dc04 c6bd
00000300: 591f 303d 9f2b 0b3f 67bf 513d 87cb 1f3e
00000310: bfe8 53be bcb9 d93b 503c ce3c 64ad 17be
00000320: e0cb 423e 52fb cdba 421c c2bd 5a17 403e
00000330: c151 373d 4f03 fdbd 7df1 003d 19da 46be
00000340: 80f7 913e ef27 0cbe ed61 9cbe da2c 1cbe
00000350: 74d4 8cbd 428e 4b3e bc0e ec3e 2a94 a4be
00000360: 1ce8 bb3e fb0f 963e 0643 14be e635 9f3d
00000370: ef77 ee3d a4c2 ad3e 2dd4 b13c e7f1 0cbc
00000380: 4718 cbbe f1d1 ad3e 381d a1be 1873 5bbe
00000390: ecad 09bc 0592 bbbd 24db 0cbe 60c5 833e
000003a0: fe60 af3e 5ab7 22be 6b89 c43d fe64 94be
000003b0: e90b 67be b201 c2be a20f d43c 0a4d 27bf
000003c0: 0918 d8bd 705e d03d 93bf 8bbe e23b 103e
000003d0: 86c6 b03d 9a6c debe 8e2d c1bd bd2c b93e
000003e0: 5a4f 9ebe e322 e53c 40c5 0e3c 5f63 593e
000003f0: f477 b63d de1e 9d3e 85eb 99bd d187 c6bd
0.34875202 0.04162613 0.32937828 -0.06822956 -0.25351125 0.2831775 0.3378453 0.016090672
-0.1574383 -0.004980006 0.2877106 0.41050678 0.052807372 0.072810166 0.069418795 0.052134447
0.40895656 -0.06015537 -0.382347 -0.1928414 0.29739723 -0.15542485 0.012990185 -0.25622264
0.33746606 0.10773335 0.24821909 -0.006011352 -0.04019958 -0.18618867 -0.15042877 0.15293348
0.2965091 -0.35146445 -0.113777235 -0.10161381 -0.04532965 0.094001375 0.19302534 -0.022472745
-0.24558169 0.07901246 -0.27898 0.22482283 -0.18251975 0.423992 -0.046917893 0.119532555
-0.050000425 -0.21640794 -0.39162487 -0.1276992 0.03373328 -0.20942684 0.15733784 0.65271544
0.13742407 0.24934673 0.11447562 0.3045146 -0.1787675 -0.20350657 -0.40144113 -0.08811532
-0.2732384 -0.14999217 0.32059595 0.48074117 -0.11250507 0.21028933 -0.24779911 0.027623134
-0.23659855 -0.4345774 -0.05494468 0.49395168 0.33404583 0.04465365 0.23703259 -0.12791903
-0.049424224 -0.23271391 -0.29371652 0.3726026 0.20381136 0.0954183 -0.2803112 -0.4293979
-0.040987663 0.15001287 0.6112664 -0.057766 -0.024553332 -0.06474144 -0.08306418 -0.30248466
-0.04074397 0.23408495 -0.80982685 -0.29782617 -0.07447136 -0.02359544 0.3169189 -0.05687574
-0.038709864 0.046660043 0.24008864 0.13115016 0.012271149 0.03631494 0.07204887 -0.12794091
-0.02810153 -0.10308436 0.560863 0.0061308015 -0.35464728 -0.11827628 -0.17719714 0.1120597
0.19861604 -0.61384124 0.110523015 -0.46354708 -0.23622105 0.59964883 -0.48717448 0.1349657
0.28249747 -0.03760738 0.08654429 0.021176364 -0.046187263 0.14163156 0.23249905 0.17466044
-0.3325684 -0.17351757 -0.0021594542 0.090383306 0.42519683 -0.16368994 -0.1783652 -0.09011502
0.18432535 -0.21012199 -0.38368016 0.47042558 -0.13392009 0.0069341944 0.3161431 0.29781967
0.23384356 -0.40029812 -0.55085826 -0.019322122 -0.47756442 -0.29628763 0.41453102 0.33260685
-0.22913356 -0.17259292 0.28282347 0.21463366 -0.08714754 0.07989828 0.047619727 0.056066405
0.03346757 -0.09111987 0.071306214 -0.03445142 0.0142686125 0.14718103 0.07195372 0.12967868
0.14032522 0.17598873 0.23853475 -0.06539518 0.33798233 0.005949005 -0.36633244 0.2942474
0.1321594 0.51344657 0.5225554 -0.10552689 0.2928899 0.05031554 0.13434522 -0.096688956
0.042998645 0.54363436 0.051207926 0.15604983 -0.20694254 0.0066444557 0.025175244 -0.14812237
0.19023085 -0.0015715158 -0.09478046 0.18758908 0.0447557 -0.12354147 0.0314803 -0.19419135
0.2850914 -0.13687108 -0.3054346 -0.15251485 -0.0687646 0.19878486 0.4610499 -0.3214429
0.36700523 0.29309067 -0.14478692 0.07773952 0.11643969 0.33937562 0.021707619 -0.008602596
-0.3966696 0.33949235 -0.31467605 -0.21430624 -0.008403283 -0.091587104 -0.1375547 0.25736523
0.34253687 -0.15890256 0.09596523 -0.289833 -0.22563137 -0.37891918 0.02588636 -0.6535193
-0.10551459 0.101742625 -0.27294597 0.14085343 0.08631615 -0.4344223 -0.09432517 0.36166945
-0.30919915 0.027970737 0.00871402 0.21229313 0.08909598 0.30687612 -0.07515625 -0.09693874

actor.preprocess.model.model.2.bias f4 [64]
00000000: a0f7 6e3e 96fc ce3d e18b 793d 796a bd3e
00000010: 5063 7c3b faad c33c cc65 3cbd 2900 9bbe
00000020: ac7a 6ebe 40e7 dd3d d75a fa3d 581f 263e
00000030: 9dcd e2bd 34d3 b1bd 39be e0bd ff57 053e
00000040: 5317 9f3d 1282 93be 042f acbe 2734 67bd
00000050: 3deb c0bb 18d8 2cbd 89ea 22be f846 483e
00000060: 6a50 44be 5e41 8d3d c0a6 a2be 1ce4 93be
00000070: 533a d0bd f293 cebd 888b 02be 5ad5 afbd
00000080: be02 863d ad3f 24bb 9430 05bd 12ea 12bf
00000090: 1319 b1bd 9ba7 473e d8d9 82be d24e 41bb
000000a0: 3317 0ebe c155 b13e bc23 3cbe 88ef 3c3e
000000b0: cfc1 34be f564 9dbe 7e6a 2bbb 0c9b 6d3e
000000c0: a4c6 6e3e 459f 4dbc aa40 98be da7c c9bd
000000d0: f6d4 e53d 55a4 4bbd 0a90 06be 6a82 66be
000000e0: 8e7c f53d 9ff3 333e b113 313d 496d 493e
000000f0: dc66 8dbc c932 97bd 5d72 df3d 7042 51be
0.23336649 0.10106771 0.060924415 0.36995295 0.0038511343 0.02388667 -0.04599552 -0.3027356
-0.23288983 0.10835123 0.122243576 0.16222894 -0.11074374 -0.08682862 -0.10973782 0.13021849
0.077681206 -0.28810173 -0.3362962 -0.05644622 -0.0058874176 -0.04219827 -0.1590978 0.19558322
-0.191713 0.068972334 -0.31767845 -0.2888497 -0.101673745 -0.10086812 -0.1274854 -0.085856155
0.06543492 -0.0025062368 -0.03251703 -0.5738841 -0.08647361 0.1949753 -0.25556827 -0.0029496443
-0.13876037 0.34635738 -0.18373007 0.18450749 -0.17652057 -0.30741087 -0.0026156004 0.23203677
0.23317963 -0.01255018 -0.29736835 -0.09838267 0.1122226 -0.049717266 -0.13140884 -0.22510687
0.119866475 0.17573403 0.04323167 0.19670595 -0.017260961 -0.073827334 0.10910485 -0.204355

actor.mu.model.0.weight f4 [6, 64]
00000000: f737 fbbc 5d79 2cbe 14c4 3b3d 5490 f2bc
00000010: 2975 f5bd 97fa 263e 17ee e6bd e15b 64bc
00000020: 71d4 1abe edb3 94bd c2b0 b53d 5803 d03b
00000030: 7e52 04be 2aba afbd 50e3 e03d acfe 573d
00000040: b43f fa3c 43ad 25be f1d7 ecbd c714 a2bd
00000050: 7b45 4c3c dac0 c1bd f3d2 7e3e 01d8 98bd
00000060: 2f7b 3dbe 891c c8bc 9f92 a7bc 083d 453e
00000070: b190 29be 0aac 29be 6c02 11bd 8378 f03c
00000080: 8d16 fd3c a465 8c3a 0fd6 723e cc26 b63c
00000090: 136f 89bd 1d79 b6bd 1136 ac3d 2f81 e43c
000000a0: f55b 02be 77ac d03d 4044 6ebd 5171 e13d
000000b0: 7975 4e3d a21d 90bc 4cca 363e 7175 df3b
000000c0: db39 073e 595b e33d 8653 23be 54fe 04be
000000d0: fb08 733e 296e 51bd f410 5fbd f1ab 31bd
000000e0: 4e63 673e a1da cbbc 4f82 eb3c 99f2 0fbe
000000f0: 7121 24bd 64b1 5cbe e224 803d cbe7 ad3c
00000100: 8de4 b03c 989e 07bd 97ae 393e 78cc 373d
00000110: 6af9 d5bc a74f 88bd cd7c 03be 59e3 8bbc
00000120: 0464 f63d c3b6 e23d fdce 23be a84a c4bd
00000130: 4f82 49be f0a2 ebbd 6cd7 cabc 2ee6 9bbc
00000140: 0879 99bd ec29 b13b 5959 973d 9e56 9f3d
00000150: 43ae 0e3d e3a9 093e 01b4 48be d289 2a3d
00000160: 5def a13d 7b4f d83d e246 7c3d b2e9 7abe
00000170: 359d f5bd 2da2 24be 258b 45be 11a3 1fbc
00000180: ffde e83d 9a81 10be 6f83 ccbd 0f33 a0bd
00000190: 5a63 19be d65c bd3d 4550 a5bd 2dd2 4dbd
000001a0: fc93 a6bd 2001 0a3e 3c1a 00be 9fec 923d
000001b0: 6a2b 70bd f78c 433c 1283 3cbd 087c a7bd
000001c0: da25 153c 6fb9 2ebd 7a25 c4bd 0df8 b5bd
000001d0: 5441 09bc b9f4 9ebd e519 30bc c7f4 b13d
000001e0: 453b 2b3e bc87 28be fe29 67bd 3f61 e73d
000001f0: bb61 a23e 1588 a43c 6709 1ebd ad88 b3bd
00000200: f206 363c 1fc3 6fbe 4fd5 103e b966 d8bd
00000210: 51fc 89bd 360d 4fbe f726 033e 3bf0 a9bd
00000220: db72 8abe 24de f23d 6351 423e d28b 393e
00000230: 3009 d73c 143b 8abd f1cc fe3d 2157 1ebd
00000240: 19fb 7e3c e023 41bd 93ef 35bc 60e2 443e
00000250: c1eb 8ebd 1c1e 093e f3e6 3dbd 7b6e a8bd
00000260: cdec f8bd 4b0d 0fbd 7934 05be e7ef 8e3c
00000270: 7f40 873c db31 0d3d da36 0dbe d62e 2fbd
00000280: 022d 6dbe 07b9 6fbd 8567 243e 53ab 223c
00000290: 743b 35bd 3169 85bd 37ac fa3d 7ed0 313c
000002a0: fe4d 0d3e f864 0bbe 4b44 32be c41a 70be
000002b0: f744 53bc c56a e83d 73ae f53c 7ddc 1c3d
000002c0: 9dc9 fe3c 3223 a83e e857 2abc 836f db3d
000002d0: 05c5 9e3d 6783 9e3d 5c32 a6be 7eda b63d
000002e0: d867 053e a823 d93b 9f44 7e3d 34fa b1bd
000002f0: 2298 843d 963c 8cbe e1d6 36bd cc77 3bbe
00000300: f670 ef3d 7c37 3c3e fbfa a7bc 8608 413d
00000310: 3330 773a 82e4 dfbc d177 6bbb 1c65 a3bd
00000320: e2bd 463c bbb4 bdbd 3810 c6ba d61a 093c
00000330: 48e6 503c bf0c ccbc fbfd a43d 8c1e 0c3e
00000340: aace 0b3d 6193 88bd 1ecb e73d 7cd7 293d
00000350: e595 223d f230 24bd 15e6 033b 8f15 ddbd
00000360: f85e d0bc a385 2cbe 7587 6c3d fbe2 03be
00000370: f8bd 003d 55af c33c 9539 7ebd 2825 963d
00000380: 14df 983d 16d8 a1bd 70e7 653d 0d8b 0abe
00000390: 1a2d 0a3d 050a d7bd ac23 033e d897 43bd
000003a0: fe27 c33d d6f5 9c3d 2ca0 03be a41c adbd
000003b0: 4a30 aabe a37d 21be 04e8 24be d383 173e
000003c0: 089f ccbd f854 dd3b 21a2 9d3d 3f91 243e
000003d0: d236 9c3c f0bb 6bbd 8b61 cbbc 79df acbd
000003e0: c773 393d a401 6e3d cc7d ccbd f607 593e
000003f0: d287 173d 17b4 083d 908b 253d 2d5c aa3c
-0.030666335 -0.16843171 0.04584129 -0.029609837 -0.11985237 0.1630653 -0.11275881 -0.013937921
-0.15120102 -0.072608806 0.088716045 0.006348055 -0.12922093 -0.0858043 0.109808564 0.05273311
0.030547954 -0.16179375 -0.11564625 -0.07914119 0.012467737 -0.09460612 0.24885158 -0.074630745
-0.18504022 -0.02442767 -0.020455657 0.19261563 -0.16559102 -0.16569534 -0.0354027 0.02935434
0.030894542 0.0010711444 0.2371447 0.022235297 -0.06710639 -0.08909819 0.0840875 0.02789363
-0.12730391 0.10189145 -0.058170557 0.110079415 0.050405 -0.017592255 0.17850608 0.00681942
0.13205664 0.111014076 -0.1594983 -0.12987643 0.23733895 -0.051130448 -0.054459527 -0.043376867
0.22596475 -0.024884524 0.02874866 -0.14057387 -0.040070955 -0.21552044 0.06257035 0.021228692
0.021593357 -0.03311023 0.18133007 0.04487273 -0.026119906 -0.066558175 -0.12840576 -0.017076181
0.12030795 0.11070015 -0.15996929 -0.09584552 -0.19678615 -0.11505687 -0.024760924 -0.019030657
-0.07493788 0.005406609 0.073900886 0.07780193 0.034834158 0.13443713 -0.19599916 0.041635342
0.07906983 0.10562035 0.061591037 -0.2450321 -0.119928755 -0.1607749 -0.1929136 -0.009743468
0.11370658 -0.14111939 -0.099860065 -0.07822239 -0.14979306 0.09246223 -0.08071951 -0.050249267
-0.081336945 0.13476992 -0.12510008 0.07174038 -0.058635153 0.011935464 -0.046023436 -0.08177954
0.009103263 -0.042657312 -0.095774606 -0.088852026 -0.008377392 -0.07761521 -0.010748361 0.08689266
0.16721828 -0.16458029 -0.05643653 0.11297845 0.31715187 0.02008442 -0.038583186 -0.08766303
0.011110054 -0.23414277 0.14143871 -0.10566468 -0.06737579 -0.20219883 0.12807833 -0.082977735
-0.27040753 0.11858776 0.18976359 0.18119743 0.026249498 -0.067495495 0.12441433 -0.03865731
0.015562796 -0.047153354 -0.011104482 0.1922698 -0.0697856 0.13390392 -0.04636283 -0.082241975
-0.12154541 -0.034924787 -0.13008298 0.017448379 0.016510246 0.034471374 -0.13790455 -0.042769276
-0.231617 -0.058526065 0.16055115 0.009928542 -0.044246152 -0.06514204 0.122398786 0.010852931
0.13799283 -0.13612735 -0.17408864 -0.2344771 -0.0128948605 0.1134849 0.02999041 0.03829621
0.031101996 0.32839352 -0.010396935 0.107146285 0.07752422 0.07739907 -0.32460296 0.08928393
0.13027894 0.006626565 0.06207716 -0.086903006 0.064743295 -0.27389973 -0.04463852 -0.18307418
0.116914675 0.1838054 -0.020505419 0.04712727 0.00094294845 -0.02733064 -0.003592957 -0.079782695
0.0121302325 -0.09262987 -0.0015111035 0.008368215 0.012750216 -0.024908422 0.080562554 0.13683528
0.034132637 -0.06668735 0.113180384 0.041465268 0.03969373 -0.04008574 0.0020126153 -0.107951276
-0.02543591 -0.16847853 0.05774637 -0.12879555 0.03143117 0.023887316 -0.062066633 0.07331306
0.07464424 -0.07902543 0.05612892 -0.13529606 0.03373442 -0.10499958 0.12806576 -0.04775223
0.09529112 0.07664077 -0.1285407 -0.084527284 -0.33239967 -0.15770583 -0.16104132 0.1479638
-0.0999127 0.006754514 0.07696939 0.16071032 0.01906911 -0.057552278 -0.024826786 -0.084410615
0.04527643 0.058107033 -0.09984931 0.21194443 0.036994763 0.033374872 0.0404163 0.020795906

actor.mu.model.0.bias f4 [6]
00000000: 5324 c23d 2bed 72bc 16ed 953c 4b41 263e
00000010: b619 853e f134 1cbd
0.094795845 -0.014827053 0.018301528 0.16235845 0.25996178 -0.038136426

critic.preprocess.model.model.0.weight f4 [64, 17]
00000000: a43e febe 565e 2c3d 5d1b efbe e920 acbe
00000010: 2750 f5bc 1341 aa3e a1c2 21be e74b 673d
00000020: 0f9f 403f 6729 40be 9817 f7be 014d 6b3e
00000030: 0b4d 8b3d 9324 3d3d 22b0 093e c90d 853d
00000040: 6e55 f63d 7cec a0bd b1d3 a43e 92a0 a8be
00000050: 6d21 aabe 9858 19be dde4 a8bd 419b d73c
00000060: 7690 9fbe 0109 4cbc 5ba9 4abe b20c a93d
00000070: 8e42 51bd 44da cabb f307 2dba 9c28 54bd
00000080: f07b dfbd e91d 15be 6f00 463b 0cdc dabe
00000090: 247a 0f3e 1c81 99ba d4e8 783b 6971 b93e
000000a0: 9c0e 333e 3a5c e2bd 29fa b0be ab2c b2bd
000000b0: 2520 53bf b42d a0bd 84bf 1f3e c6bc 3ebc
000000c0: 8a8a 193f 7f4b 7f3e 82bf 973d b5b6 6abe
000000d0: 3a3a f73e 151b 01be 5a41 b73d e1db bbbd
000000e0: 36ea 05bf 80de ecbd 4de1 dd3d 7c65 9a3e
000000f0: c136 b6bd da51 afbe 34fd 86bd af1f 87bd
00000100: 7fab 6cbd d278 bf3e d22b e2bb 7819 873d
00000110: ee99 cdbe e5a8 41be 9e40 8d3d f40c 8fbe
00000120: 03f6 46be bd4e 3c3f 4b5e 433e e2c5 ebbd
00000130: 7cd2 a83e e89f 2f3d f19f 0a3e 2acb f83d
00000140: 00cd 97bd 9b5a c7bd 6cb1 7fbe eefe 03be
00000150: 0136 403e 3a03 74be 3319 ffbe e8c9 aebd
00000160: 26ae 11bd 209b 02be 2285 8c3f 0a3e 1a3d
00000170: afd4 8d3c a088 0ebf 3bed 693e 16db b93d
00000180: 063f 83bd b436 103c ba5c 08be 3738 683d
00000190: 861e 65bc 6d61 e33d ef1b 833e 3438 8a3e
000001a0: 2f11 44bd 7fe4 e8bd 420f 8b3e 4090 0b3f
000001b0: 6b82 9fbd 2e3d 103f 163b 99bd 2b3f 593e
000001c0: b565 48be 32a3 5d3e 7533 663e 25fb 183e
000001d0: 7d59 803e f4fb 1c3d d919 0dbd 93dd 06bf
000001e0: 128c 8e3e fc04 f4bd ba46 203e 0715 343e
000001f0: 8eb3 1abf 9047 bdbd 7b3e 813e a7c7 963d
00000200: 4e6c a8be f450 bc3e 0aed 9ebe c724 3fbe
00000210: 91f3 06be d048 9abd 7255 9cbd 6649 bebd
00000220: 3392 85be cee8 b6bd b4bc 623e fffb 94bc
00000230: 04a9 9d3e ebd4 bb3d f358 85bd 66f7 0cbd
00000240: d058 f83e 0327 d2be 8d31 02bf 246a dd3b
00000250: 00b9 cfbd 2aa5 713c 7079 073f ac33 823c
00000260: b34b 48bd 4677 e33e f393 0f3f ccf8 0bbe
00000270: 1e88 853b 0081 e0bd 8e8e f6be 9765 a93d
00000280: ddeb 253e 19d2 333e db2b 6d3e 5b1f 843e
00000290: 9241 6bbe 0916 90bd 731a f0bc fc77 72bd
000002a0: 72e8 a43c 1cb5 49be 0845 9bbe eb91 46be
000002b0: 36d9 663e b31c 3b3e f0cb 903b 3396 ecbd
000002c0: 5dc9 1bbe 794c 8dbe 2906 003f 0330 74be
000002d0: 01ed a4bc bb0d 9e3d 92ab 0abd e432 8abb
000002e0: 5453 aa3c 5ce4 95bd e77e 72bc 8c1b a13e
000002f0: e420 593e 4e5e 35bf 9287 31bd 93d8 c53e
00000300: 5815 013f 65ae 343e 0587 ab3d 7dee 77be
00000310: 3b99 413f de19 f63e 7340 98be 5a6c 9c3c
00000320: 2526 243e ef2a 813d 8052 213d c141 f1bd
00000330: bdb8 f03e 1745 f03e 6094 89bd eb80 4a3d
00000340: 0e78 bc3e e242 c8be 0db9 963d e40e 24bd
00000350: c90e 803d 1359 943e 72c1 683e cf5a 943d
00000360: ac02 843d 9bb3 a63d 3ae6 d0be 279b 2ebc
00000370: 1938 483d d011 c3be 8662 b1be 9c18 3cbd
00000380: c59f 1d3e 2268 dbbd 9e92 133f 4d55 bd3d
00000390: 25c8 e63e e5e1 a13c bcc0 67be 2580 713d
000003a0: 7d64 7a3e f08d fb3d cfb1 06bd e2d0 e5be
000003b0: ab26 a3bd aefd 3cbc 7299 373e 28ee 4f3f
000003c0: ab3a fdbd 5e3d 19bc 35fb 27be 5502 15bf
000003d0: de20 b2bd f0a8 bfbe 8968 1fbd a69a 0abd
000003e0: 6960 f33e c1af 09bf 32cc 86be e867 9fbd
000003f0: de80 28bd c5bf babd cb43 b13d ef50 ee3d
-0.49657166 0.042082153 -0.46700564 -0.33618858 -0.029945446 0.33252773 -0.15796901 0.05646887
0.75242704 -0.18765794 -0.48260188 0.22978593 0.06801804 0.046177458 0.13446096 0.0649677
0.12028013 -0.07857606 0.32192758 -0.32935005 -0.33228627 -0.14975202 -0.08246777 0.026319148
-0.31164902 -0.012453319 -0.19791166 0.082543746 -0.051088862 -0.00619057 -0.0006600611 -0.05179654
-0.10912311 -0.14562191 0.003021266 -0.42746007 0.14011437 -0.0011711451 0.0037980573 0.36219338
0.17486042 -0.11052747 -0.34565857 -0.08699926 -0.82470924 -0.07821217 0.15600401 -0.011641687
0.5997702 0.24931143 0.07409574 -0.2292126 0.4828661 -0.12607987 0.08948012 -0.09172798
-0.523105 -0.11565876 0.10833988 0.3015555 -0.08897162 -0.34242135 -0.065912634 -0.0659784
-0.05778074 0.37396866 -0.0069021964 0.06596655 -0.40156502 -0.18912084 0.068970904 -0.2793957
-0.19429784 0.73557645 0.19078939 -0.115123525 0.32973087 0.042877108 0.13537575 0.121481255
-0.074121475 -0.097340785 -0.24970025 -0.12890217 0.18770601 -0.23829356 -0.49823913 -0.08534604
-0.03556647 -0.12754488 1.0978129 0.03765682 0.01731333 -0.55677223 0.22844402 0.090749905
-0.06408505 0.008802105 -0.13316622 0.056694236 -0.013984328 0.11102567 0.2560725 0.26996005
-0.04786795 -0.11371707 0.27160078 0.54516983 -0.07788547 0.5634335 -0.07481973 0.21215503
-0.19570048 0.21644285 0.22480567 0.14939554 0.25068274 0.03832622 -0.03444848 -0.52681845
0.2784124 -0.11915013 0.1565198 0.17586146 -0.6043023 -0.09242165 0.2524298 0.073622994
-0.3289513 0.36780512 -0.3104022 -0.18666373 -0.1317885 -0.07533419 -0.07633485 -0.092913434
-0.26088104 -0.08931123 0.22142297 -0.018186567 0.3079301 0.0917147 -0.06511106 -0.034415625
0.4850526 -0.4104539 -0.5085686 0.0067570377 -0.10142708 0.014748851 0.52919674 0.01589378
-0.048900317 0.44426936 0.5608513 -0.13669127 0.0040750643 -0.10962105 -0.48155636 0.0827133
0.16203256 0.17560615 0.23161261 0.25805172 -0.22974232 -0.07035453 -0.029309487 -0.059196457
0.02013037 -0.19697994 -0.30326104 -0.19391601 0.22543797 0.18272667 0.0044188425 -0.11552086
-0.15213533 -0.27597407 0.500094 -0.2384644 -0.020132544 0.07717463 -0.03385503 -0.0042174924
0.020791687 -0.07318947 -0.014800764 0.3146633 0.21203953 -0.7084702 -0.04334218 0.38641796
0.5042319 0.17644651 0.08375362 -0.2421207 0.75624436 0.4806661 -0.2973667 0.019094635
0.16030176 0.06307017 0.03938532 -0.1178012 0.47015944 0.4692771 -0.067177534 0.049439352
0.36810344 -0.39113528 0.073595144 -0.040053263 0.0625282 0.28974208 0.22730044 0.07243883
0.06445822 0.08139726 -0.4080065 -0.010657108 0.048881624 -0.38099527 -0.3464548 -0.045921907
0.15392978 -0.10713221 0.57645595 0.092447855 0.45074573 0.019761035 -0.22632116 0.0589601
0.24452396 0.12282932 -0.032884415 -0.44885927 -0.0796636 -0.011535091 0.17929628 0.8122277
-0.12364706 -0.00935301 -0.16404422 -0.58206683 -0.08697675 -0.37433577 -0.038918052 -0.03383889
0.47534493 -0.53783804 -0.26327664 -0.077834904 -0.041138522 -0.091186084 0.086555086 0.116365306

critic.preprocess.model.model.0.bias f4 [64]
00000000: 4617 8ebe 0390 1cbf 6e04 703c 1b28 a2be
00000010: 189f 883e 4d0f 253e d23f a6be 1881 6d3f
00000020: 5170 85be 000d e1be e419 b1bd 3d01 9e3e
00000030: 2268 043f 278b ffbe 345c be3d 89bd 75be
00000040: 6408 22bf 6ee9 0b3c cd5b 5fbe d02c f53e
00000050: e940 ba3e 1ed6 8abf f597 7ebf 0d89 413e
00000060: 39ff 9dbd 398a 3d3f 37d6 343f 55ff 4b3e
00000070: 06f5 93be f7a5 28bf 1da9 b63e 815b 0cbc
00000080: f0c8 693c d3bb 0abf 2e51 503f 2e7f c83e
00000090: 921f 9ebe 373b 2a3f 5501 093f 948e 9cbd
000000a0: f68f cbbe 692e f03d 5d4d 773e 44e4 18bf
000000b0: 6686 fa3e cd1e 87be 57cf 15bf ed18 9a3f
000000c0: 862a 1d3f 8fcb 0abe 6b21 9cbe fcc6 cb3e
000000d0: d37e aa3c 643a cf3e ff9b bbbe 9c40 103f
000000e0: 7bf6 b2be d56c c23e 560b 93be 548b 4cbf
000000f0: 83b9 413f 00a8 603f cddf fabe 5057 76be
-0.2775213 -0.61157244 0.014649494 -0.31671223 0.2668388 0.16119118 -0.32470566 0.92775106
-0.26062253 -0.4395523 -0.08647516 0.3086032 0.51721394 -0.49910852 0.0929493 -0.23998083
-0.63294053 0.008539541 -0.21812363 0.47885752 0.36377648 -1.0846593 -0.9945062 0.18899937
-0.077146955 0.74039036 0.70639366 0.1992162 -0.28897876 -0.6587824 0.35675898 -0.008566738
0.014269099 -0.54192847 0.8137387 0.3915953 -0.3088346 0.66496605 0.5351766 -0.07644382
-0.3975827 0.11727602 0.24150605 -0.59723306 0.48930663 -0.26390687 -0.585195 1.2038857
0.6139301 -0.13554214 -0.30494246 0.3980025 0.020812428 0.40474236 -0.36642453 0.56348586
-0.34953675 0.37973657 -0.28719586 -0.799001 0.75673693 0.8775635 -0.4899887 -0.24056745

critic.preprocess.model.model.2.weight f4 [64, 64]
00000000: 0fb9 1ebf db6e 893b a987 4bbd cfb7 0bbf
00000010: d9a4 d4be 83e0 123f b36c b13d 6415 abbd
00000020: 5bda 39be 6586 6fbe 5571 84be 067a 193f
00000030: db8b 063e 313b 6dbe 0e78 533d 1ad9 d7be
00000040: f88e 9a3d 2c0e 7cbe 9807 debd b5c4 b93d
00000050: ec74 3abc aef9 72bc cdcc 37bf 6329 333e
00000060: 08cc 58bd 068c 663e 509d ed3e 02de d03e
00000070: 3ced 0c3e f3a9 46be 7212 883e 471b c33e
00000080: 3c54 89bc d253 38be 8023 bb3e ef93 ad3d
00000090: 8792 323e 9bbe 2c3e bc5b 643e a3ac 48bc
000000a0: 2971 b5be 391d 113c d8cf 023f f17e 40bf
000000b0: 005b b0bd 6890 da3e 6ea1 033f 1326 953d
000000c0: c84b 633f 8c6e 153e c8dd 9cbd 6526 e93c
000000d0: d5e8 84be a441 973e 4b7e c9be 658e acbd
000000e0: e79f 6bbe a13f 293e 9617 2bbd 589e 23bf
000000f0: 714b 2cbe 98eb e23e c11f 9fbe ac61 bc3d
00000100: e945 93bd 938c 813e 1c37 ebbd 3a39 c43d
00000110: d25e ddbd f110 50be 5ccd 863d 7020 40be
00000120: 84c8 003f 0b3c fb3d 44fa c1bc 7470 c03e
00000130: 220c 61be 82e1 1bbe 2153 bc3d 20df a13e
00000140: 9b5f 963d 4557 db3c c012 223e 6651 013d
00000150: 12ac 6b3d 8c37 3b3e 08c2 c73e 9d7b 08be
00000160: bd37 1c3e 74d3 853e 771b aebe 2522 2a3e
00000170: 4cdf d6bd 3fb0 233c 85b6 4ebd 3bf0 c23e
00000180: 5bd5 3c3c 4b41 41bd d4c6 2cbe 3e24 38be
00000190: e32c a0be 8ff9 f5be e24d e93e 2b35 2abd
000001a0: e5d1 a63e ff74 22bd aa92 f63d a0a3 063f
000001b0: 9286 8dbe 5f57 553d 65ce 9abc 886c b8be
000001c0: 6852 03bf a727 71be 398b ae3e 877e 8f3e
000001d0: 7f16 233e b21c 84be ee56 acbb cb65 44be
000001e0: cb54 153e 9a59 a4bd 5ae0 cc3e 82ee 05be
000001f0: 72a4 b5be b529 103e 28e3 d43e 42ff 933e
00000200: 31e5 39be 29eb 87be 6486 0fbf c7d3 acbe
00000210: 1431 893e 1c6a 633e 67a6 88be f566 883e
00000220: be70 36bf c57c e63d 4ecc 8bbe 0ee9 21be
00000230: 1b7c f23e a7cf 033d 7d26 173e b3e9 a3bd
00000240: b40c 093f 0a22 953e 811d 1c3d e27c 423d
00000250: 68dd cc3e d7b4 35bf 617c c5bd b074 3dbe
00000260: 0f28 c53b 0675 183f d8db 213e 44b6 02bf
00000270: 4937 1cbf 84eb 983d 25e4 9c3e aa13 8c3e
00000280: e3b1 613d c3da 59be 6f4d 973d 7326 be3e
00000290: f6a5 19be 85de 20be 5d74 7e3e b9c2 813d
000002a0: ae7d ba3e f1b9 d03e 5700 a3be 2964 6bbe
000002b0: 26e8 b5be 67c2 24be 0033 3cbd 60ef dd3c
000002c0: 7003 983e ac7c 113e 234e e83e c0c1 b03e
000002d0: 061d ca3e 2f1c f4be 100b ccbd dec7 6e3e
000002e0: a98f 313d e7ab 8f3f e870 22be cdd3 ffbe
000002f0: a6f3 a43c fea8 bc3e 7ed6 1cbd 5f14 aa3c
00000300: 3100 be3e 160c aa3e d950 823e 861c 8f3e
00000310: a073 a73d 7d96 6bbd 1503 36bd 8207 f03d
00000320: 5bd2 a43e aa68 efbd 78b7 aa3e a4e8 4ebe
00000330: 5a4c 57be 4bcf 9c3e 9f40 8cbe 2d84 20bb
00000340: 0b0f b63d e680 98be 21cd b1be 6f02 7dbe
00000350: 3123 11bd c134 2cbe c3e8 bd3d 4fb6 2ebd
00000360: 7f7b f53e 54cf 023e 0d1e e7be 4d38 02bf
00000370: 4cd9 6abe 92aa 893e 0fc2 9a3e 0976 03be
00000380: 5ea3 34be 62da 163d 8ec3 12be 7b97 863e
00000390: d6cb fabd c50a efbc ca8c b33d f580 78be
000003a0: 672d 2d3e 70f5 e3bd 826a 8abd d567 b83e
000003b0: eba2 d4be 8afb 93be 192a b5be 65e4 a4be
000003c0: 72a5 c23c 27cb 153d d22d 0bbd 1a23 863e
000003d0: f2cc 353f 7162 813e 9d16 8fbe 8061 d3be
000003e0: d575 dc3e 6e20 67be 2d16 273c 7cbc 31be
000003f0: a7cf f4bd 5c8e 2ebe ad10 683e c0ef 263d
-0.62001127 0.004194123 -0.049689922 -0.54577345 -0.4153202 0.5737383 0.08663311 -0.08353689
-0.18149702 -0.23391111 -0.25867715 0.5995182 0.13139288 -0.23167111 0.051628165 -0.42157823
0.075468004 -0.24614781 -0.10841292 0.09070722 -0.011380415 -0.014830036 -0.71796876 0.17496257
-0.052928954 0.22514352 0.46409082 0.4079438 0.13762373 -0.19400768 0.26576573 0.38106748
-0.016763799 -0.18000725 0.36550522 0.08475482 0.17438708 0.16869585 0.22300619 -0.012248191
-0.35437897 0.008857065 0.51098394 -0.751937 -0.08611107 0.42688298 0.514182 0.07282653
0.8878751 0.14592952 -0.07659489 0.02846069 -0.25958887 0.29542267 -0.39354166 -0.08425597
-0.23010217 0.16528179 -0.04177054 -0.6391349 -0.16825654 0.4432037 -0.31078914 0.09198317
-0.07191069 0.25302562 -0.11485121 0.095812276 -0.10809101 -0.20318963 0.06582138 -0.18762374
0.5030596 0.12267312 -0.023678906 0.37585795 -0.21977285 -0.15222743 0.09195543 0.31615543
0.07342454 0.026775012 0.15827465 0.03157177 0.057537146 0.18282908 0.39015222 -0.13328405
0.15255637 0.26137888 -0.3400533 0.16614588 -0.10491809 0.009990751 -0.050467033 0.38073906
0.011525477 -0.04718141 -0.16872722 -0.17982575 -0.31284246 -0.4804196 0.45567232 -0.04155461
0.32582012 -0.039662357 0.12039693 0.5259342 -0.27641732 0.052085277 -0.018897245 -0.36020303
-0.51297617 -0.23550282 0.34090593 0.2802622 0.1592655 -0.25803143 -0.0052593863 -0.19179456
0.14583127 -0.08024903 0.40014917 -0.13079265 -0.35477024 0.1407841 0.41579556 0.28905684
-0.18153836 -0.265466 -0.5606444 -0.33755323 0.26795256 0.22208446 -0.26689455 0.2664105
-0.7126578 0.11254267 -0.2730431 -0.1581156 0.4736031 0.032180455 0.14760776 -0.08003559
0.5353501 0.29127532 0.038114075 0.04748238 0.4001267 -0.70979065 -0.09642864 -0.18501544
0.0060167382 0.59553564 0.1580652 -0.51059365 -0.6102186 0.07466796 0.3064281 0.27358752
0.055101287 -0.21274857 0.07387816 0.3713871 -0.15004715 -0.15709884 0.24849077 0.063359685
0.3642401 0.40766862 -0.31836197 -0.22987427 -0.35528678 -0.16089784 -0.045947075 0.027091682
0.29690123 0.14207715 0.45372114 0.3452282 0.39475268 -0.47677752 -0.099630475 0.23318431
0.043349896 1.1224335 -0.15863383 -0.4996628 0.020135712 0.3684768 -0.038290493 0.020761667
0.3710952 0.33212346 0.25452307 0.2795145 0.081763506 -0.057516564 -0.044436533 0.11720182
0.32191738 -0.11689885 0.333431 -0.20205933 -0.2102522 0.30626902 -0.27393052 -0.0024492845
0.08889588 -0.29785842 -0.34726813 -0.2470796 -0.03543395 -0.16816999 0.092729114 -0.04265433
0.47945783 0.12774402 -0.45140114 -0.5086716 -0.22934455 0.26887947 0.3022618 -0.12837996
-0.17640445 0.03682936 -0.1433241 0.26287445 -0.1224591 -0.02917994 0.08767088 -0.24267943
0.16911851 -0.11130798 -0.06758596 0.36016718 -0.41530547 -0.28902847 -0.3538368 -0.322055
0.023760531 0.036570694 -0.033979245 0.26198655 0.71015847 0.25270417 -0.2794694 -0.41285324
0.4305865 -0.22570965 0.010198158 -0.17357057 -0.11953669 -0.17046493 0.22662611 0.040755987

critic.preprocess.model.model.2.bias f4 [64]
00000000: 14d1 9c3e b7d9 c33d d33f 1d3f f56b 803e
00000010: 2d4c e93d e70a 62be 15f0 1fbe 0e56 6b3e
00000020: 6495 d8be 68ba 47bd f35e 6f3e 548b 433e
00000030: dd42 553e 578f 003e 92b4 edbd 116e 0fbe
00000040: 1c07 5b3c 4ec4 063d 629f c6be 5cc2 50be
00000050: 0831 923e 8339 a53e f62b 10be 3e2f 77be
00000060: 3ffd 2a3e 5567 903e 2f8a fcbd 37ce 893d
00000070: 45ef 87be 7b66 c43e dc7a 6e3d 81e2 94bd
00000080: 62a5 c6be fb83 913d 939d d4bd 63eb 9bbe
00000090: 43de a53d bd2a 20bf 139d 183e 60f0 ee3d
000000a0: cb6d 94be 4bca f3be 6131 2fbe 30e4 febd
000000b0: 4011 783e bab9 69be 94b9 8a3e b061 e93c
000000c0: 5d00 6dbe 8f4e 833e 8517 d3be 8009 c13e
000000d0: 4af9 c4bd 4e5d 613e 344d f7bc 3246 2e3e
000000e0: f9bb 31be d878 babe 558a 1c3e af7f 92bd
000000f0: 0032 f23d 1a25 803e 3209 07be 1574 e0bd
0.30628264 0.0956301 0.61425513 0.25082365 0.113914825 -0.22074471 -0.15618928 0.22982046
-0.42301476 -0.048761755 0.23376064 0.19096118 0.20826288 0.1255468 -0.11606707 -0.14006831
0.013368394 0.032902054 -0.38793474 -0.20386642 0.28553033 0.3227044 -0.1407927 -0.24139115
0.16698168 0.28203836 -0.12331044 0.067287855 -0.26549736 0.38359436 0.058222637 -0.07269765
-0.38798052 0.071052514 -0.103816174 -0.30453023 0.08099034 -0.62565213 0.14903669 0.11666942
-0.28990015 -0.47615275 -0.1710868 -0.12445867 0.2422533 -0.22824755 0.2709471 0.028488964
-0.2314467 0.25645873 -0.4122888 0.3770256 -0.096178606 0.22008249 -0.03018818 0.17018965
-0.17356862 -0.3642032 0.15287144 -0.0715326 0.11825943 0.25028306 -0.13187101 -0.10959641

critic.last.model.0.weight f4 [1, 64]
00000000: 84ee ae3e 2b39 113e 0fb3 213f 8d4e ea3d
00000010: adfb 3e3e 8fdb bcbd 9bd0 8ebe 214b d03d
00000020: f2c0 11be aef3 3abe 54ad 0c3e ef82 4f3e
00000030: 1426 833e d639 483e 19cd 19be c6c5 8dbe
00000040: 89b7 8e3e a139 953e e022 a0be 527c 30be
00000050: 0517 573e 160e 333e 1c75 37be 0b73 21be
00000060: 1460 dd3d 89ed 6c3e ff50 79be ee90 f53d
00000070: c447 20be c919 313e 1eea fa3d bd10 46be
00000080: 454f e5be dedc 41be 9cce 98be ca11 95be
00000090: f18c 373e 21ea 85be 66ea 083d 71ef 2d3e
000000a0: 6ec4 13be 9c91 2bbe 7f79 91bd a854 38be
000000b0: f998 233e b91b 26be 7c69 313f 2e3d 163e
000000c0: 8153 00be 4a03 cb3d 70ef acbd 6079 5d3e
000000d0: f331 47be 866b 023e e86b 973e c706 633e
000000e0: 8303 26be 897d 70be 980d 793e 59e0 dfbd
000000f0: 3db1 623e 9f98 01be da05 07be 9308 0dbe
0.34166348 0.14181964 0.63163847 0.114407636 0.18650694 -0.09221565 -0.27893528 0.1017058
-0.14233759 -0.18257019 0.13737994 0.20264791 0.2561499 0.19553313 -0.15019645 -0.27689952
0.278744 0.2914553 -0.31276608 -0.17234924 0.21004875 0.17485842 -0.17915767 -0.15766542
0.10809341 0.23137487 -0.24347304 0.11990534 -0.15652376 0.17294993 0.122516856 -0.19342323
-0.4478704 -0.1893191 -0.2984513 -0.29115134 0.17924859 -0.2615519 0.033426665 0.16985871
-0.144304 -0.16754764 -0.07103252 -0.18001044 0.15976323 -0.16221513 0.6930158 0.14671776
-0.12531854 0.09912737 -0.084441066 0.21628332 -0.19452648 0.1273633 0.29574513 0.22170554
-0.16212277 -0.23485388 0.24321592 -0.10931463 0.22137924 -0.12655877 -0.13185826 -0.13772802

_actor_critic.actor.sigma_param f4 [6, 1]
00000000: c177 13c0 435b e2bf bfc7 09c0 8ea0 06c0
00000010: fcf6 ebbf 8ca3 0ac0
-2.3041842 -1.7684101 -2.1528165 -2.1035495 -1.8434749 -2.166232

_actor_critic.actor.preprocess.model.model.0.weight f4 [64, 17]
00000000: ee9f 283e f92d 1c3e 20e6 493e 5770 0b3f
00000010: 77b5 b63e 9131 d5bd 4bd1 cebe 2f7a 083e
00000020: 526f 9c3d 290a ea3e 845d 30be cfb1 5ebe
00000030: 9e6f 9f3d db70 3ebe 648e eb3d d2cc 113e
00000040: 47d8 6abe 2649 c0be a902 a93d 617a 423e
00000050: b6d7 933d c150 98be ad01 87bd 8095 dc3d
00000060: 7a62 b63d 65a2 d33e c311 d53d 4020 e9bd
00000070: b940 723e 2637 f4bd 2cd1 c83e 1175 b8bd
00000080: 22fa dc3d ddc9 993c c158 c8be 3636 52be
00000090: fd23 b5be d562 a23d 140d ce3b ed8e 913d
000000a0: b62d 923e f22b c63e 6bb2 22be 9c70 0abe
000000b0: 0a97 9ebe 0a89 3abd 2d79 b5be d736 5b3e
000000c0: 2ad2 81be aa40 433e aef0 6bbd bf27 bd3e
000000d0: d661 05bf f623 86be 66d7 eebe 1500 92bb
000000e0: ab0a 5bbe d129 23bd da4c 08bc 1759 dbbd
000000f0: 295e 3e3e 1dc8 6d3e 2a63 813e f705 31be
00000100: be35 673e bd59 88be 0569 573e 9431 a2bb
00000110: 7894 f43d 61cc a2bd 855d 083f 652f 07bd
00000120: 2e5a 91bc a3b8 acbd 72de 4dbe f5a8 b23e
00000130: ca58 a6bb 437d 9abe 754d d83d 2cb3 6f3d
00000140: eea4 893e 0cf7 a2bd e59c a9bd d5c1 443d
00000150: 1dd9 8bbd c5ef 86be 7a08 80be 1579 a33e
00000160: a4a0 0dbf 062b 73be 2bd6 4f3c de83 a2bc
00000170: cb20 98be 1238 13bf 8016 60bc 04a0 17be
00000180: 10e9 18be 0195 99be 34b2 20be 4136 c53e
00000190: 83fb ad3e f74e 323e 316d 4abe 4e6d 913e
000001a0: 8cbf 8f3d 0350 e0be 0502 913e 58d0 b43e
000001b0: e02a 79be 8de8 98bd 9f72 3dbd 6853 e53e
000001c0: a9d1 10be 2571 79be 1d14 7ebe c335 84be
000001d0: 05e9 6e3d 10fb 22be 2813 c0be 1113 543e
000001e0: cdc0 b3be de32 973b 69e0 17be ab19 073e
000001f0: 9609 643e 61e9 5a3d 1209 883d 046b f03d
00000200: 6590 b5be 2327 0cbe d1bc 4d3f a6fc b9be
00000210: b6e7 babd 7f9a 803b aa88 ff3d 07c0 36be
00000220: e2aa 1abe 57d8 4e3f bb94 f33c 6f64 7e3d
00000230: 5bff 2c3e 43ce a93d c3d3 1d3f ec8a e83d
00000240: a510 4bbe 2ba4 3bbe ecfe 713e 55d4 113e
00000250: c5e3 9e3e 9f5e ae3d 7363 103e 34b0 3ebd
00000260: c311 3a3d db91 843e 5bc3 223e 5ff2 7ebe
00000270: 6f89 77bb 7a4e 033f 74ab 07be e3c2 1a3e
00000280: 0f0d 8f3d 44ce 91be 95b0 38be b696 643e
00000290: ea92 86be bac0 71be 9b08 d43d fe51 e6bd
000002a0: 3a8a db3e 19f6 343c c3a0 cfbd f279 0cbf
000002b0: 224e fc3b f6ea 413d 7de6 3bbe 3298 d83a
000002c0: 7301 49bf 1848 f5bc 4c79 d6be f22b 03bd
000002d0: bc5d d6be 31bc 943c 0cf8 5a3e f560 943d
000002e0: b00c 48bd 7930 64be 1609 2d3e 05e5 fb3d
000002f0: 1829 953e be42 cfbd 65f6 2b3d 4e16 2fbf
00000300: ab44 523e cdaf 3cbe 8139 a83d 422a e3ba
00000310: 2497 24be cfcb cfbe bb25 d0be f585 a93d
00000320: 41db 3bbc ff63 f13d 1424 5bbe 096f 893c
00000330: fc7e 06bf 4c4b d9bd 36e2 a0be 0270 50be
00000340: 81e0 32be fb7e 43be c036 86bd 9984 aabd
00000350: e020 cf3e 6eab f4bc 8f8b 20be 840b d1bd
00000360: 33ac 913e 79fc 473e c6ca 64bd 91db 3abe
00000370: fbaf e83e 2931 84be 3c9d 6ebe 9b5c 6c3e
00000380: ca83 953e 98b3 e8be dc7e 80be 4eeb 60be
00000390: 729f b73d fb03 f83e f3c0 613d b01c 683e
000003a0: d325 cabe 0bad 3cbe d424 febe 340d ea3c
000003b0: 614b b6be c0b0 78bd 7a17 8dbe 55c7 db3e
000003c0: 4738 c5be 3ec7 e0bd dd95 c8bd 8495 023e
000003d0: 5c75 6abd f9e0 3ebd 31e5 cabd 4f5a 9abe
000003e0: 4a2d 42be 29e7 b1bd 2913 0cbf 6c4c 62be
000003f0: ede8 e83d 64f9 16be d54e 75be 2ec8 e43d
0.16467258 0.15251912 0.19716692 0.5446829 0.35685322 -0.10409845 -0.40394053 0.1332786
0.0763842 0.45710877 -0.17223173 -0.21747516 0.07784961 -0.18597738 0.11501768 0.14238289
-0.22934066 -0.37555808 0.082524605 0.18991996 0.07218878 -0.2974911 -0.065921165 0.10770702
0.08905502 0.41334835 0.104037784 -0.11383104 0.23657502 -0.11924581 0.39222085 -0.09006704
0.107898965 0.018773014 -0.39130214 -0.20528492 -0.3537902 0.07929007 0.00628818 0.07107339
0.285505 0.38705403 -0.15888374 -0.1351952 -0.3097461 -0.045540847 -0.35444012 0.21407638
-0.25355655 0.19067636 -0.057602577 0.36944386 -0.5210241 -0.2619931 -0.4664871 -0.004455576
-0.21390788 -0.0398348 -0.008319104 -0.10710352 0.18590607 0.23220868 0.2527097 -0.17287432
0.22579095 -0.26630965 0.21036156 -0.004949758 0.11942381 -0.079491384 0.532677 -0.033004183
-0.017743196 -0.08433654 -0.20104387 0.3489453 -0.0050765024 -0.30173692 0.10561649 0.05852048
0.26883644 -0.07957277 -0.082818784 0.048036415 -0.068285204 -0.26354805 -0.25006467 0.31928316
-0.55323243 -0.23746881 0.012685339 -0.01983827 -0.2971252 -0.5750743 -0.013677239 -0.14807135
-0.14932656 -0.29996493 -0.15692979 0.38517955 0.3398095 0.17412935 -0.19768216 0.28403705
0.070189565 -0.43811044 0.28321853 0.35315204 -0.24332762 -0.074662305 -0.04625189 0.44790196
-0.14142479 -0.24359567 -0.2481236 -0.25822267 0.058327693 -0.15916085 -0.37514615 0.20710398
-0.35108033 0.004614218 -0.148317 0.13193385 0.22269282 0.053445224 0.06642355 0.117391616
-0.35461727 -0.13686804 0.80366236 -0.36325568 -0.091262266 0.0039246674 0.124772385 -0.1784669
-0.15104249 0.8079886 0.029734006 0.0621075 0.16894285 0.082912944 0.6165125 0.11354622
-0.19830568 -0.18324344 0.23632401 0.14241154 0.3103315 0.08514141 0.14100437 -0.04655476
0.045427095 0.2589253 0.15894835 -0.24897145 -0.0037771126 0.5129162 -0.13248998 0.15113406
0.069849126 -0.2847768 -0.1803611 0.22323117 -0.26283962 -0.23608676 0.10353204 -0.112461075
0.42878896 0.011045002 -0.10138085 -0.54873574 0.007699744 0.047343217 -0.18349643 0.001652485
-0.78517836 -0.029941604 -0.41889417 -0.03202433 -0.4186839 0.018156143 0.21383685 0.072450556
-0.048840225 -0.22284116 0.16897997 0.122995414 0.29132915 -0.10120152 0.041983027 -0.6839341
0.20534007 -0.18426438 0.08214093 -0.0017331319 -0.1607328 -0.4058518 -0.40653786 0.082775034
-0.011465848 0.11786651 -0.21400481 0.016776579 -0.5253751 -0.10610065 -0.31422585 -0.20355228
-0.17468454 -0.19091408 -0.065534115 -0.08326072 0.4045477 -0.0298669 -0.15678237 -0.102072746
0.2845169 0.19529904 -0.055857442 -0.1824782 0.45446762 -0.25818756 -0.23302168 0.23082201
0.2920211 -0.4544952 -0.25096786 -0.21964762 0.08965959 0.48440537 0.05511565 0.22667193
-0.39481983 -0.18425386 -0.49637473 0.028570749 -0.35604385 -0.060715437 -0.27556974 0.42925516
-0.385195 -0.109755024 -0.09794209 0.12752348 -0.05724083 -0.04660127 -0.09906996 -0.30147025
-0.18962589 -0.086866684 -0.54716736 -0.22099465 0.11372552 -0.14743572 -0.23955853 0.11170994

_actor_critic.actor.preprocess.model.model.0.bias f4 [64]
00000000: db0a bf3d 0813 1f3e 818f 783e fdb6 703e
00000010: 836a 80be dd61 cf3d 263e 293e 32a3 fd3d
00000020: 790b 80be 6f52 23be 3941 743e 4a8e 10bd
00000030: c830 623e 027f 30be 2a79 a83b 53d9 82be
00000040: 1f7f 5c3e eab5 9b3e 8251 4fbe 59bc 8ebd
00000050: a9af 4f3b 1ef3 853e f46c 683d 612c b6bd
00000060: d27a 6f3e 3dd4 7abd bacb 5a3d 285c 41be
00000070: 1a11 7dbe 4958 7a3d 948b aa3e 8330 983e
00000080: f73a 76bd bb66 26bd a0ab 14be e8a6 063e
00000090: 72a8 02bd 612e f8bd b0c5 a43c b019 273e
000000a0: 96e4 973d dc9c b63e a703 05be a200 a4bc
000000b0: 51b4 0ebe 91e9 3f3e 5626 3ebc 0e45 c6be
000000c0: 5c60 59be 163f f13c f0b9 3ebe a767 253d
000000d0: c0cb c23e 9f58 6fbe a348 f53e a550 e23d
000000e0: 2e9e 30be 1a04 e03c edbb a6be 8dbd 493e
000000f0: 61e4 803e 307b 143d 5c64 673c 8c43 49be
0.093282424 0.15534604 0.24273492 0.23507304 -0.25081262 0.10126088 0.16527614 0.12384643
-0.25008753 -0.15949415 0.23853005 -0.035291947 0.22088921 -0.1723595 0.005141397 -0.2555643
0.21532868 0.30412227 -0.20245937 -0.06969518 0.0031690395 0.26162046 0.05674453 -0.08895183
0.23386696 -0.061237562 0.053416945 -0.18882811 -0.24713555 0.06111935 0.33309615 0.29724512
-0.060114827 -0.040625315 -0.14518595 0.13149607 -0.031898923 -0.12118221 0.020113796 0.16318393
0.07416646 0.3566655 -0.12989675 -0.020019833 -0.13935973 0.18741442 -0.01160582 -0.3872456
-0.21228164 0.029449027 -0.18625617 0.040382054 0.38046074 -0.2337365 0.4790698 0.11050538
-0.17247841 0.027345706 -0.3256525 0.19701214 0.2517424 0.036250293 0.014123049 -0.19654673
