results/HalfCheetah-v3/trpo/6/220709-064427/policy.pth (torch, 53732 bytes, 24 tensors)

actor.sigma_param f4 [6, 1]
000000 4f 83 ff bf 4e d3 16 c0 12 bd f2 bf 7c 6b 1e c0
       -1.9961947 -2.356647 -1.896395 -2.4753103
000010 31 ce 08 c0 af 6b ea bf
       -2.137585 -1.8314112

actor.preprocess.model.model.0.weight f4 [64, 17]
000000 e8 c5 5e 3c 92 21 b7 bc 9c 19 6a 39 a5 67 35 3e
       0.013596989 -0.022354875 0.00022325519 0.17715319
000010 b5 80 83 be 89 92 15 bd 05 d4 3a 3e a0 e3 67 be
       -0.25684133 -0.0365167 0.18244942 -0.22645426
000020 b8 32 69 be 35 34 7d 3b 54 e3 80 3d 70 f1 f0 3d
       -0.22773254 0.0038635854 0.062933594 0.117648005
000030 bd b9 a8 bd 3e 10 5c 3e 38 33 4b be e1 ce 82 3d
       -0.08238552 0.21490571 -0.19843757 0.06387115
000040 14 bb 7a 3e 84 03 b1 3e 1a 9c d1 3d 2a ad 82 bd
       0.24485427 0.34572995 0.10234852 -0.06380685
000050 2a fd 63 3c 12 b0 4c bd 9b f4 ab 3e c2 78 a7 3e
       0.0139153395 -0.0499726 0.33585057 0.32709318
000060 b8 3e 85 3e 27 e8 3c bd 0e 72 36 3e 95 52 8f be
       0.26024413 -0.046119835 0.17816946 -0.27992693
000070 2e a9 eb bd 71 81 66 bc 7e e1 c2 bb 7e 0f 78 3e
       -0.11506878 -0.014068947 -0.005947291 0.2422466
000080 5f b9 58 3d fa 43 ac bd a2 3d d3 be 66 f9 75 be
       0.05291116 -0.08411403 -0.4125796 -0.24020919
000090 f7 e8 0e be 02 2b a1 be b2 13 a1 bc 48 cb 9f 3d
       -0.13956057 -0.31478125 -0.019662712 0.07802445
0000a0 51 78 13 be d6 53 e6 3d ae ff 75 be 56 5d 63 3e
       -0.14401366 0.11246459 -0.24023315 0.22203574
0000b0 3e 1a 95 be 92 7c af bd 93 ee b9 bc 31 56 36 bb
       -0.29121584 -0.08568682 -0.022696769 -0.002782237
0000c0 68 86 5e 3e 2d c7 9e 3e 8e 1f 42 bd a4 ed 81 3e
       0.2173096 0.31011334 -0.047393374 0.25376618
0000d0 b0 65 9e 3e 30 c0 3b be 04 6b e0 3c 24 ad e6 bd
       0.30936956 -0.18335032 0.027394779 -0.11263493
0000e0 62 6b be 3d 52 e3 21 3d 71 3f 79 3d e8 74 8a 3d
       0.092978254 0.03952343 0.060851518 0.06760579
0000f0 c5 de ce 3e 1f e6 1f 3b e0 8f 95 3e 04 18 49 bd
       0.40404335 0.0024398637 0.2921133 -0.04909517
000100 20 a0 40 bd de c3 7e 3c a6 36 b2 bd c0 88 ed 3d
       -0.047027707 0.015549628 -0.087018296 0.115983486
000110 7e 4d 56 3e ce ad 96 be f2 cc 2d 3e 3d b2 47 be
       0.20927998 -0.29429477 0.16972712 -0.19501586
000120 32 4b bc bd d7 fc 2a be 8a a8 f0 3c 93 19 af 3c
       -0.0919403 -0.16698013 0.02937724 0.0213745
000130 f1 13 2b be 39 95 8a 3e 58 dc 64 3e d3 f1 a8 3d
       -0.16706826 0.27066973 0.2234968 0.08249249
000140 71 79 4a be df 94 9e bc f1 ce 1d 3d 7a b1 25 be
       -0.19772889 -0.019358097 0.038527433 -0.16180983
000150 fe 4d ef 3d c4 d3 fe be c0 3d 2a 3f 32 4e 32 3c
       0.11684798 -0.4977094 0.66500473 0.010882901
000160 f7 41 8b bd 3b 73 39 3d 3e f8 99 be 44 a2 40 be
       -0.06799691 0.045275908 -0.30072206 -0.188119
000170 78 a6 3d bd 66 db a2 bd e3 2f 3c be 51 23 09 3e
       -0.046301335 -0.07952003 -0.18377642 0.13392378
000180 f8 d2 b4 3e 5a c9 44 bd a0 c2 86 3e 85 e0 ae be
       0.35317206 -0.048043586 0.26320362 -0.3415567
000190 de e4 71 bb 89 cc 30 3d 9f ba 1c 3f fa 39 a9 bd
       -0.0036910097 0.04316381 0.6122226 -0.08263011
0001a0 b1 79 b8 be aa db 6b 3d bf 5a b4 bc 1b 4d d1 bd
       -0.36030343 0.057582535 -0.022015927 -0.10219785
0001b0 fc d5 97 be 9c e5 98 3c 04 45 1d 3e 9d 18 da 3c
       -0.29655445 0.018664174 0.15358359 0.026623065
0001c0 36 41 b4 3e 30 e8 2e 3e a9 fe e1 3d 72 64 1b be
       0.35206002 0.1708076 0.11034901 -0.15175036
0001d0 a6 ae b4 3b 75 23 6a 3e c8 33 09 3e fe 9c 83 bd
       0.005513984 0.22865088 0.13398659 -0.06426428
0001e0 f3 5a 81 bd 40 12 c8 be 48 2f 57 be 63 8c 2c be
       -0.06316175 -0.39076424 -0.2101413 -0.16850428
0001f0 81 07 49 be 57 b7 14 3e 9c de 68 be af a4 64 3e
       -0.19631769 0.14523064 -0.22741169 0.22328447
000200 b3 56 6c 3e 54 95 de 3e 22 b3 7d be 49 cd 00 3e
       0.23079948 0.43473303 -0.24775365 0.1257831
000210 68 02 88 be ab 97 20 3c 07 ca 64 bd 30 b9 85 3d
       -0.26564336 0.009801785 -0.05585673 0.06529462
000220 d3 a8 2b be b1 79 e2 3d 60 a0 8a bd 11 41 19 3e
       -0.1676362 0.11058367 -0.0676887 0.14966227
000230 25 c6 37 be 3a 77 37 3e f6 99 25 3e 7f a7 14 3e
       -0.1794668 0.17916575 0.16172013 0.1451702
000240 51 7f fe bd f7 fe 92 be 71 e1 82 3d f5 6e 47 3e
       -0.124266274 -0.28710148 0.06390656 0.1947592
000250 2d 66 3a 3e 6f 4e 38 be b4 6d 19 3e b0 cf 01 3e
       0.1820304 -0.1799867 0.14983255 0.12676883
000260 20 01 3d 3c 18 fa 98 bd f5 89 d2 3d 04 35 e3 3c
       0.011535913 -0.074695766 0.102802195 0.02773524
000270 48 09 32 3e f9 26 1f be 1a a4 4e bd 41 e0 bc be
       0.17386353 -0.1554221 -0.05044947 -0.36889842
000280 c5 cd 52 3e 3d 02 61 bd 23 63 eb 3e af f5 1d 3e
       0.20586307 -0.054933775 0.45974073 0.15425752
000290 b7 26 b3 be 0a 85 b6 3d 99 29 70 be e8 6e 09 bc
       -0.34990475 0.08912094 -0.23453368 -0.0083882585
0002a0 81 b8 17 3e 31 83 51 bd fa 35 9d bd f7 db 5c be
       0.14816476 -0.051150504 -0.07676311 -0.21568285
0002b0 81 39 a6 3d f0 fc fb 3d 6f 23 26 3e ee c2 14 bd
       0.08116437 0.123041034 0.16224454 -0.036318712
0002c0 97 90 7c be c2 c9 53 3e 58 6d 43 be e3 a8 5d 3e
       -0.24664532 0.20682433 -0.1908468 0.21646456
0002d0 75 83 aa 3e 52 29 2d 3e e0 3c b8 bd 3e 0f 3c 3e
       0.3330342 0.16910294 -0.08995986 0.1836519
0002e0 4c 7a 80 be 3f 8b 53 3e d4 b6 d7 bd 8c ba c7 be
       -0.25093305 0.20658587 -0.105329186 -0.3900951
0002f0 f7 71 30 be 7c db c7 3d 67 33 f5 3d 92 b7 ee 3d
       -0.17230974 0.0975866 0.11972695 0.11656107
000300 29 28 6c be 74 ef ad bc 74 e2 98 be 3e be 64 3d
       -0.23062195 -0.021232344 -0.2986027 0.05584549
000310 f4 ff 94 3e 97 9f 07 3e c2 d6 80 3e 94 6c fc 3d
       0.29101527 0.13244472 0.25163847 0.12325397
000320 c6 5b ce b8 a9 ca 4e 3c 42 67 43 bd f5 71 56 3e
       -9.8399396e-05 0.01262156 -0.047705896 0.20941909
000330 71 b9 c4 3b 16 f0 34 be 3d b2 73 3e e5 5e 81 3c
       0.0060035517 -0.1766971 0.23798461 0.01579232
000340 e0 22 d5 3d 20 7e a3 be c7 c3 3f 3e 24 16 be bd
       0.104070425 -0.31932163 0.18727027 -0.09281567
000350 a3 7f 10 3e 6d 7f f9 3d 13 eb e9 bd a7 df d7 3c
       0.1411119 0.12182508 -0.1142179 0.026351763
000360 53 45 b9 bd 4e 4f 96 ba 4e 77 e5 bc d7 e6 51 be
       -0.09046426 -0.0011467726 -0.02801099 -0.20498215
000370 47 aa 62 be c4 ab 29 be 79 b7 c0 3e 3e c3 bb be
       -0.22135268 -0.1656943 0.3763998 -0.36672395
000380 aa 36 5e bc f7 c1 36 3e 54 90 88 be 25 36 3b be
       -0.013562838 0.17847429 -0.26672614 -0.18282373
000390 79 a6 24 3e ec ab e0 3d d1 ff 86 3e 05 36 33 3e
       0.1607913 0.109702915 0.26367047 0.17501076
0003a0 8e 16 22 be 7f 96 31 be fa e3 40 3e 58 40 ed 3d
       -0.15828916 -0.17342566 0.18836966 0.11584538
0003b0 be b4 7a be 43 ce 95 3c 2c 6d ef bd dd 1f f0 be
       -0.2448301 0.01828683 -0.11690745 -0.4689931
0003c0 59 8a 52 be 52 f4 6c 3e 21 cf d6 bc fc 92 da bd
       -0.20560588 0.23140076 -0.026221814 -0.10672566
0003d0 89 b3 ce 3d b1 29 0b bd c8 09 51 be ca 27 c9 bd
       0.10092837 -0.033975307 -0.20413888 -0.09822042
0003e0 6c d3 1b bd 72 75 df 3d a5 1e e0 3d 74 21 85 be
       -0.038043424 0.10911073 0.10943345 -0.26002085
0003f0 bf d9 01 bc a4 7b 82 3d 78 0c 42 3c 6e c3 a0 be
       -0.00792545 0.06371239 0.011843793 -0.313991

actor.preprocess.model.model.0.bias f4 [64]
000000 70 f1 fb bd 48 36 01 3d 26 6f 69 be 75 de 78 3d
       -0.1230191 0.031545907 -0.22796306 0.060759027
000010 ff 87 1a 3e 4f 7e 3a be 29 cc a4 3d 4b ee 98 3e
       0.15090941 -0.18212245 0.08046753 0.29869303
000020 d9 83 7b be 92 9d 00 be 1f b8 88 bd 68 a0 47 3e
       -0.24562015 -0.12560108 -0.06675743 0.19494784
000030 db 6b b4 3e 0a c2 80 3b 8e b2 ed bd 5e d7 b9 3c
       0.35238537 0.0039293813 -0.11606322 0.022685703
000040 88 45 f6 bd 3f 9b 08 3e 3f 19 b8 be a1 5b ec bc
       -0.12024981 0.13340472 -0.3595676 -0.028852286
000050 e0 01 0d bd 3a a5 2b 3d 4a d8 5b be 1b 18 22 3e
       -0.034425616 0.04190562 -0.21469226 0.15829508
000060 a9 14 cd 3c 7f 7b 12 be a0 46 52 3e af c8 3c be
       0.025034266 -0.14304923 0.20534754 -0.1843593
000070 4e 7d 14 be 34 68 87 bd 15 05 dd 3d 61 9a 5b be
       -0.14500925 -0.06611672 0.10791985 -0.2144561
000080 62 1d a1 3d 1d 16 b4 bd d8 ff f0 3c 4a 1e 1e bd
       0.078669325 -0.0879328 0.02941887 -0.038603105
000090 06 8f 16 3d 39 72 1d be 64 bc 38 bb e0 96 66 be
       0.03675749 -0.15375604 -0.0028188461 -0.22518492
0000a0 90 d1 9f 3d 94 0b 3a 3e 2b 62 91 bc ef 60 cc bd
       0.07803643 0.18168479 -0.017747005 -0.09979426
0000b0 90 69 84 3e ab 17 e3 3d 56 26 f5 bd 5c 38 10 be
       0.25861788 0.11088499 -0.119702026 -0.14084
0000c0 da 1f 95 bc af 14 87 bd 8c e0 c6 bd cc fd 9b 3d
       -0.018203665 -0.06595742 -0.09710798 0.07616767
0000d0 bb 5f e5 bd 72 21 a9 3e f2 02 a8 3d d8 4c b5 be
       -0.111999 0.3303333 0.08203687 -0.3541019
0000e0 0d b2 09 3e 8d 9d 48 bf 13 3f 8f 3d ae 2d 08 3e
       0.13446827 -0.78365403 0.06994452 0.13298675
0000f0 06 8a 08 3d 59 51 17 be 93 68 c3 3d 45 b5 76 be
       0.033334754 -0.14777125 0.0954143 -0.24092586

actor.preprocess.model.model.2.weight f4 [64, 64]
000000 5f 02 d3 3e b7 58 7d bd 6f 82 c2 bd 10 4e 04 be
       0.41212747 -0.061852183 -0.094975345 -0.12920403
000010 02 4f bc 3d 77 5d a1 3d eb 1e 7f 3e 0a 9c 78 3e
       0.09194757 0.07879155 0.24914138 0.24278274
000020 89 0f f0 3c 98 30 30 3e 03 d7 3d 3e 95 4a cc bc
       0.029304283 0.17206037 0.18539052 -0.024937907
000030 0a d5 b8 bd cc 2d 4e be 45 60 57 3d f7 54 67 3d
       -0.09025009 -0.20134658 0.052582044 0.056477513
000040 49 a2 3b 3e 44 fa bb bd 69 78 3d 3e 0f 45 59 be
       0.18323626 -0.09178594 0.18502964 -0.2121775
000050 96 0d cb bd 6f 06 29 3e 5a 09 f2 3c 74 f5 3c be
       -0.09914701 0.1650636 0.029545475 -0.18453008
000060 4b 17 21 3c e6 07 22 3d d8 f5 0e 3d 5f 7b 1d 3e
       0.009832214 0.039558314 0.034902424 0.15379094
000070 e8 de 0b bf 93 d8 92 3e f4 bb c6 3d 3f 04 f0 3d
       -0.54637 0.28680858 0.09703818 0.1171956
000080 5d 34 67 3e 71 30 c9 ba 58 93 f6 bd fd 25 22 3e
       0.22578569 -0.001534952 -0.12039822 0.15834804
000090 2a 43 59 bd d7 a9 ca 3c 05 0c 02 3d dc e4 7b be
       -0.05304257 0.02473919 0.031749744 -0.24599022
0000a0 ac 67 08 bd 3f d7 54 bd 25 6b 13 be 8a e4 2a be
       -0.033301994 -0.051963087 -0.14396341 -0.16688743
0000b0 84 9d 7e bd f4 91 bd 3e e4 0f ef 3d 92 66 b8 3c
       -0.062161937 0.37025416 0.11672953 0.022509847
0000c0 40 7b a4 3e 75 18 b4 be 72 90 9d bd e6 f0 7a be
       0.32125282 -0.3517491 -0.076935664 -0.24505958
0000d0 0e 8e 9b 3e af ad 39 be 13 ff 2d be 1f df a0 3e
       0.30381817 -0.18132661 -0.16991834 0.31420228
0000e0 9c 08 89 3d 73 6e c5 3d 9f 93 86 3d 01 57 82 3d
       0.06691095 0.09640207 0.06571125 0.06364251
0000f0 5b 3d ae be 5a 1e 49 bd c2 81 cc bd f0 06 33 bd
       -0.34031186 -0.04910121 -0.09985687 -0.043707788
000100 2e e7 33 3d b1 aa cf 3d f7 3e 19 3d 21 d4 d6 bc
       0.043921642 0.10139979 0.037413564 -0.026224198
000110 7c 2f 65 bd e9 9c 63 3c f3 6f 3e be 12 a7 24 3e
       -0.055953488 0.013892391 -0.18597393 0.16079357
000120 98 36 05 3d 1b 39 bd bc f4 6b 15 bd 8a 85 19 3d
       0.032522768 -0.02309852 -0.036479905 0.03748087
000130 d8 07 18 3d 09 ad 53 3e f8 9b 09 be c1 24 b3 3b
       0.037116855 0.20671476 -0.13438404 0.005467028
000140 ee 16 34 be 80 8f 3e 3e 89 ad b8 3d 2c 01 a4 bd
       -0.17586872 0.18609428 0.09017474 -0.08008036
000150 3d 71 7a be 32 25 e0 3c 6e 07 06 3e 81 ae 8f 3e
       -0.2445726 0.027361486 0.13088772 0.28062823
000160 9d dd 73 3e 30 29 d8 bd b9 98 16 bf fa e4 80 3e
       0.23815008 -0.10554731 -0.58826786 0.25174695
000170 35 3d 0d 3d 8b 9a 3f be 9e 4b 94 bd e5 c4 0f be
       0.0344822 -0.18711297 -0.07240985 -0.14039953
000180 c1 fc 86 3e d2 46 31 bd b2 1d 8e 3d 3f a0 11 be
       0.2636471 -0.04328043 0.06939258 -0.14221285
000190 99 81 44 be be ce 7c 3e fc f4 ef bd c5 42 a6 bd
       -0.19190063 0.24688241 -0.11716649 -0.08118204
0001a0 3a 4c 00 be 33 8d cb bd 89 a8 6f bd f4 59 65 3d
       -0.12529078 -0.09939041 -0.058510337 0.05599399
0001b0 97 c5 87 bd 9e a4 70 bc dc 58 1d 3e b9 ce 42 be
       -0.06629484 -0.014687685 0.15365928 -0.19024171
0001c0 16 2f 57 3e 7e 05 07 3e 77 e2 61 be cf d5 27 be
       0.21014056 0.13185689 -0.22059046 -0.16390155
0001d0 c8 c7 87 3e 8e ca 4c 3d f0 fd a3 bc 58 9c d7 bd
       0.26519608 0.04999786 -0.020018548 -0.10527867
0001e0 4a 79 23 3e 40 ea d5 3b 76 23 ff bd a8 a6 af 3e
       0.15964237 0.006528169 -0.124579355 0.34306836
0001f0 e7 7c 6b 3e f6 71 fa be ec b2 4d 3e 8e 63 12 3e
       0.22996865 -0.4891507 0.20087785 0.1429579
000200 6c dd d7 bc db eb 47 be 2f 61 11 be 89 1e 72 3d
       -0.0263507 -0.19523565 -0.14197229 0.05911115
000210 ff d5 c2 bd 02 5e af 3e c2 de ba bd 61 18 11 3e
       -0.09513473 0.3425141 -0.09124519 0.14169456
000220 6f 49 02 3d 26 3b 1f 3e a6 d3 e0 3d 7b e6 0a 3e
       0.031808313 0.15549907 0.10977869 0.13564484
000230 cc b5 78 3e 56 0d 90 3d 23 bb 03 bf cb ca 2d 3e
       0.242881 0.07033794 -0.5145742 0.1697189
000240 a6 8c c4 3d 06 cc b9 3d 6a 0f 6c be 2e 8a 22 bd
       0.09597139 0.090721175 -0.23052755 -0.03968256
000250 67 33 49 3e c0 a5 2a bd 3f 64 d5 3d 38 4d b6 bc
       0.19648515 -0.041661978 0.10419511 -0.022253618
000260 14 c0 9e bc 57 28 8d bd 7d e0 51 bd e5 ae a1 3e
       -0.0193787 -0.0689246 -0.05123948 0.31578746
000270 60 b6 bc 3b c2 c0 42 bd 94 a7 ae 3e e7 d9 23 be
       0.0057590455 -0.04754711 0.34112227 -0.16001092
000280 53 c5 78 be 5b 50 cb bd c6 3f 82 3e 2a 1b 6a be
       -0.24294023 -0.09927436 0.2543928 -0.22861925
000290 d2 f1 e2 3d 42 9d f4 3d 56 c2 14 3e 2e 91 0a bd
       0.1108128 0.11944057 0.14527258 -0.03382986
0002a0 54 68 47 be 5c 80 d2 3d 28 9f 0f be c7 10 c4 be
       -0.19473392 0.10278389 -0.14025557 -0.3829405
0002b0 cd 60 b6 3d df 21 4f 3e 4f 44 48 bd 3a 17 28 3e
       0.08905182 0.20227765 -0.04889327 0.1641511
0002c0 8e 4d 77 3e 52 6d f7 3d 82 26 0b be 72 25 8a 3e
       0.24150679 0.12081398 -0.13588908 0.26981694
0002d0 60 96 ba 3c 2b 24 95 be 89 2c a8 3e 40 a1 12 3e
       0.022776783 -0.29129156 0.32846478 0.14319324
0002e0 17 54 6c be 34 40 6f be e7 0f 0a be f0 16 8b bd
       -0.23078953 -0.23364335 -0.13482629 -0.06791484
0002f0 1a 95 fe 3d 37 46 43 3e ef 4a bc 3e e4 ff 09 3e
       0.124307826 0.19069754 0.3677592 0.13476521
000300 99 6d ee 3d 59 ec 82 3e be ab 02 3e 49 94 f4 bd
       0.11641998 0.25570944 0.12760827 -0.11942346
000310 1b 2f 98 bd 38 95 5e bd 10 a7 c1 3c 11 77 e0 bc
       -0.0743086 -0.054341525 0.023639232 -0.027400525
000320 b6 ea 02 bc 93 7d 48 3e b4 78 74 bd 16 14 ab bd
       -0.00799053 0.19579153 -0.059685424 -0.083534405
000330 7c 1b a6 3a ef 96 f4 3d ef c5 20 be 92 b8 d9 bd
       0.0012672986 0.11942851 -0.15700506 -0.10630907
000340 59 03 3a be 81 96 88 be 8d da 5a bd 7e fd 3e be
       -0.1816534 -0.26677325 -0.053431083 -0.18651387
000350 66 5c 61 be 5a b4 cc 3e eb 12 6e be 31 84 db bd
       -0.22007903 0.39981347 -0.23249404 -0.10718573
000360 98 19 db 3d 90 b7 8a be 7d e7 ae 3d 96 dd 5b 3e
       0.10698241 -0.27093172 0.08540247 0.21471247
000370 fe 4a cb 3b bd 56 27 3c 64 34 68 3e 47 b3 4c bd
       0.006204008 0.010213551 0.22676235 -0.04997566
000380 0a e1 a6 3e 83 4d 0c be 44 a1 4e 3e 15 02 85 3e
       0.32593566 -0.13701443 0.20178705 0.2597815
000390 5d 5a 01 be 04 f2 92 bd a8 18 96 3e 74 7b e3 bd
       -0.12632127 -0.07175067 0.29315686 -0.11107531
0003a0 80 5b 88 3d eb 60 3c 3d 70 d9 73 be f2 9d fb bd
       0.06658077 0.045990866 -0.23813415 -0.12285985
0003b0 52 7c cc 3e aa b7 c2 be 78 28 23 bd e4 db 40 bd
       0.399386 -0.3803075 -0.039833516 -0.047084704
0003c0 94 1f 1f bd dc 77 c1 3d 33 d4 97 3e ee 51 40 3e
       -0.038848475 0.094466895 0.29654083 0.18781254
0003d0 f3 13 7b be 7b c2 3c 3e ff d6 3c bc 45 7d e7 3d
       -0.24519329 0.18433563 -0.011525868 0.1130319
0003e0 a6 7a 6d be c6 aa d6 bc ac 63 57 be ac e4 86 3e
       -0.23191318 -0.026204478 -0.21034116 0.26346338
0003f0 c7 5c 12 3d 46 56 a9 3d 96 ea a4 3e e6 dc 60 be
       0.03573301 0.082684085 0.32210225 -0.21959266

actor.preprocess.model.model.2.bias f4 [64]
000000 bf b1 a4 bd ae 86 49 bd 5a c2 24 3e c1 0b 33 3d
       -0.08041715 -0.049200706 0.16089764 0.04371238
000010 c7 1e b7 bd 1f 99 9e 3d 0a 01 a4 bd 2b ee 63 bd
       -0.08941417 0.07744049 -0.08008011 -0.055647057
000020 c2 f6 18 be 9d 37 06 3e cd bb 29 3c 40 16 19 be
       -0.1493788 0.13107152 0.010359717 -0.14949894
000030 91 1c f7 bb c1 01 b6 bd 50 dd 26 3d 66 ec ec 3c
       -0.007541247 -0.08887053 0.040738404 0.028921317
000040 cb 72 0b 3d 61 9d 55 bc ea eb 08 3e 8d d0 74 3e
       0.034045022 -0.01303801 0.13371244 0.23907681
000050 0b e2 86 be 69 4d 99 3e 9d 3a b2 3d ee 2d b9 bc
       -0.26344332 0.29941872 0.08702586 -0.022604909
000060 20 86 64 3c ec a6 8a be b3 a1 e8 bb 96 7c 92 bd
       0.0139479935 -0.27080476 -0.007099354 -0.07152669
000070 9b 2b 0d 3e 83 4e 20 bd 8f cd 04 3d b6 e2 84 be
       0.13786165 -0.039137375 0.0324226 -0.25954217
000080 bc 5d ba bc a7 cc 2a 3b 6d 0f 86 bd 69 1c 57 bd
       -0.022749774 0.0026061924 -0.06545911 -0.05251733
000090 fb 41 89 3e b8 94 92 bc 1f a1 7c bd 85 4f b2 3d
       0.26808152 -0.01789318 -0.061677095 0.087065734
0000a0 0a c8 86 3d ac 20 9c be 74 21 a3 bc 5d b7 f8 3c
       0.06581123 -0.30493677 -0.019913413 0.030360872
0000b0 e8 54 a0 bd b3 c7 4e 3e 87 d8 02 3d 31 f3 29 3e
       -0.078286946 0.20193367 0.031944778 0.16596676
0000c0 77 ec 50 bd 66 fa 11 bc 32 2b 68 bd 0e 00 b4 bd
       -0.05100676 -0.008909797 -0.05668182 -0.08789073
0000d0 85 7e 5f bd ed 50 ba bd 74 cf fd 3c d8 ae 6f 3d
       -0.054564018 -0.090974666 0.03098271 0.058516353
0000e0 3b 25 46 be 88 eb bc bd f1 93 55 bc 3a b0 46 bc
       -0.1935014 -0.092246115 -0.01303576 -0.012126977
0000f0 82 e4 8b 3d e0 65 c0 3d ce a0 4e bd 81 bb 64 bc
       0.06830694 0.09394431 -0.050446324 -0.01396072

actor.mu.model.0.weight f4 [6, 64]
000000 76 4f 4c 3e 1b b2 2b bb e3 43 f8 bd d0 07 f5 bd
       0.19952187 -0.0026198688 -0.12122323 -0.11964381
000010 c6 f5 69 be 39 53 6e 3b f8 7d cd bd 75 2c 36 3d
       -0.22847661 0.0036365523 -0.10033792 0.04447599
000020 b7 9c 38 3d 61 7c a2 be bb fb 54 3e 99 2f 93 be
       0.04507133 -0.3173552 0.20799153 -0.28747252
000030 ee ee 15 3c a9 9b 34 bd 3f fe 79 bc 5e e3 a0 3e
       0.009151204 -0.04409376 -0.015258371 0.31423467
000040 0c 59 30 3e 5c d5 1a 3e 31 4e ec bd 22 6d 91 3c
       0.17221469 0.15120453 -0.11538351 0.017752234
000050 40 b4 a9 bd 6e b0 a8 be e2 e2 de 3d 77 f3 6e 3c
       -0.08286333 -0.32947105 0.10883118 0.014584414
000060 3d c0 42 3e 8a 69 a3 be 10 37 9f 3c 5f 5a 86 bd
       0.19018646 -0.31916457 0.019435436 -0.06560206
000070 25 cc b1 bc 27 92 22 3e ca fa c7 3c 4d 85 13 3e
       -0.021703789 0.15876065 0.024411578 0.14406319
000080 ce 5d cd 3e af 0a 00 3e 88 5a c3 bb c9 20 83 bd
       0.4011063 0.12504075 -0.00596172 -0.06402738
000090 cd 25 91 be f5 80 16 3d 97 dd 77 3e 2e ee 2e 3c
       -0.28349152 0.036744077 0.24205624 0.010676904
0000a0 22 d7 8d 3e 2b 53 fe be c6 08 ee ba e7 80 89 be
       0.27703196 -0.49672827 -0.0018160574 -0.26856157
0000b0 d5 55 40 be b4 67 19 be 15 05 81 be be 84 64 3e
       -0.18782742 -0.14980966 -0.2519919 0.22316262
0000c0 66 97 15 3e dc af 66 3d ae cf 8e bd cf 67 80 3e
       0.14608535 0.056320056 -0.069732055 0.250792
0000d0 32 3a c8 bd f8 e2 b7 3d 9b 59 36 be bb 23 fb 3d
       -0.09776725 0.08978838 -0.1780762 0.122626744
0000e0 62 1a e8 bd f7 a9 b2 3c 1a eb 9a 3d 9a 55 02 3d
       -0.11333157 0.021809561 0.07564373 0.031819917
0000f0 02 97 3d 3d 97 9a cb 3d 9a d4 a2 bc 04 c7 8a bd
       0.04628659 0.09941595 -0.019876767 -0.067762405
000100 d0 75 78 3d 8e e2 b2 bd ca fc 1c be 25 b5 76 3e
       0.06065923 -0.08734618 -0.15330806 0.24092539
000110 f8 62 27 bc 18 aa ab 3d 08 ca 52 bd 11 a3 b0 3e
       -0.010216467 0.08382052 -0.051462203 0.3449941
000120 2b 77 04 3e 6d 0f 42 bd 01 93 db 3e 88 00 3d bf
       0.12936084 -0.047377992 0.42885593 -0.73828936
000130 f4 60 a6 be bc f1 42 3e 92 ee 93 3e 0d 2e bb 3e
       -0.32495844 0.19037527 0.28892952 0.3655857
000140 29 e8 f5 3c d0 96 e8 3d 09 b8 d4 3d 7b ea 10 bf
       0.03001793 0.1135689 0.103866644 -0.5660779
000150 27 5f 25 3e b0 93 8f bb b4 5f 1c be 42 23 b0 3c
       0.16149579 -0.0043816194 -0.15270883 0.021501187
000160 de 1b 1d 3e 3b c4 0e be c0 eb 04 be d5 44 95 3e
       0.15342662 -0.13942043 -0.12980556 0.29154077
000170 13 dc e4 bd 9f 28 20 be 7d d4 bf be 6f 0f 5d 3e
       -0.11174788 -0.15640496 -0.37466803 0.21587919
000180 2f 39 52 bb 0b cd 00 be 05 91 2f 3d fd 81 e0 3d
       -0.003207754 -0.12578218 0.04286291 0.10962293
000190 e7 b2 70 3e be 64 4f be e1 e1 73 3a 52 e4 9d be
       0.23505746 -0.20253274 0.0009303373 -0.30838257
0001a0 33 09 75 3d a5 94 14 be 39 db 93 bd 3c 38 12 be
       0.059823226 -0.14509828 -0.07219548 -0.14279264
0001b0 44 27 1f 3e 0e 7f a5 3e 01 d0 0d be 24 c8 f4 bd
       0.15542322 0.32323498 -0.13848878 -0.11952236
0001c0 18 74 14 3e 80 d9 79 3e 78 0a ad 3e d1 c7 f8 3c
       0.14497411 0.24399376 0.3379705 0.030368717
0001d0 fa 08 46 be a9 7a 0a 3f 91 46 90 3d 60 3e 18 3d
       -0.19339362 0.54093415 0.070447095 0.03716886
0001e0 f8 1a d2 bd 87 ec 85 bd ea 3f 50 be aa 06 ba 3d
       -0.1025905 -0.06539255 -0.20336881 0.09083302
0001f0 2c f3 3b be 3f 9d b9 be 54 34 9e 3d 27 ff f4 bd
       -0.18354481 -0.36252782 0.077248245 -0.11962729
000200 7b 39 6f 3e 2a 77 fb bc 53 8a 98 be 21 3b 46 be
       0.23361771 -0.03069647 -0.29793033 -0.19358493
000210 1f 9d c0 bd c8 f1 47 bd 1a c5 46 be 4f a9 8a bd
       -0.094049685 -0.048814565 -0.19411126 -0.06770574
000220 52 53 59 be 3b 88 9a be 28 ca ba be bc fd 76 3e
       -0.2122319 -0.3018206 -0.36482358 0.2412023
000230 3a 27 c8 bc 6d d7 b1 3d bd 20 68 bd 53 01 2d bd
       -0.024432767 0.08683667 -0.056671847 -0.04223759
000240 6e c5 23 3e eb 2c d2 3d 8e 4e 9e bd 52 d7 8a 3d
       0.15993282 0.10262474 -0.07729827 0.0677935
000250 36 16 0a be 88 0f aa bb cb a8 bb bc 0e 5f e0 3d
       -0.13485035 -0.0051898398 -0.022907635 0.1095563
000260 d9 6b 41 3c dd 71 7f bd 5d 7e 3f be c5 f9 44 bd
       0.011805498 -0.062364448 -0.18700548 -0.04808976
000270 79 ae 7b 3d 8c 56 92 3d 7c 4f 7c 3e 47 6b 2d be
       0.061445687 0.07145414 0.24639696 -0.16935454
000280 77 c4 0e 3d c7 3c 47 3e 1d 02 4e bd ac 49 a5 3d
       0.034855332 0.19456778 -0.050294984 0.080706924
000290 74 f9 1d bf 9c 6b 0b 3d 71 34 9d 3e f5 ac e5 3d
       -0.6170876 0.03403817 0.30704072 0.112146296
0002a0 ea 80 12 bc e0 ca a8 bd ad b0 00 be a6 82 24 bd
       -0.008941868 -0.0824182 -0.12567396 -0.04016366
0002b0 0b 39 7a 3d 38 b4 48 3c 42 4a 18 3d d6 09 80 bc
       0.061089557 0.012249999 0.037180193 -0.01562969
0002c0 a0 80 8d 3e 9d 17 29 be 47 f2 8e bd 97 1e e5 3e
       0.27637196 -0.16512914 -0.069798045 0.447499
0002d0 65 8f 5e 3e 6c 58 08 bd aa 82 83 be 4f 9e e8 bd
       0.21734388 -0.03328745 -0.25685626 -0.1135832
0002e0 61 94 c5 bd c5 75 4e bd b0 83 5c 3e d7 f2 ac 39
       -0.09647442 -0.050405283 0.2153461 0.00032987326
0002f0 7e 0a b9 3e a9 8f 85 3d 67 73 ef bc 87 c3 b6 be
       0.36140817 0.065215416 -0.029229833 -0.3569605
000300 b4 93 ed bd a5 f3 4d 3d 21 ef bb 3e fe d0 86 3d
       -0.11600438 0.050281186 0.36705878 0.06582831
000310 5b 4f 09 3e 06 ad 6d 3e db 39 19 3e e3 5e ea 3e
       0.13409178 0.23210534 0.14963476 0.45775518
000320 d3 66 02 bd 50 61 87 3b c7 db bc be 68 dc 13 3c
       -0.031836342 0.0041314736 -0.36886427 0.009024717
000330 76 e9 e5 3e 08 ec 92 ba d6 e7 2e be 06 05 11 bc
       0.4490468 -0.0011209259 -0.17080626 -0.008851295
000340 1f 17 95 3e 70 08 bc 3c 8e 14 3b be 99 4f 33 bc
       0.29119202 0.022953242 -0.1826956 -0.0109442705
000350 d7 ca b5 be 37 7f 96 3e 8e 7c ce 3e 21 32 86 3e
       -0.35506317 0.29393932 0.40329403 0.2621012
000360 5f 86 80 3e ab e1 d7 be cc 15 cd be a2 0d 84 3d
       0.25102517 -0.42164358 -0.40055692 0.06447913
000370 70 1a b0 be 58 12 14 bf 40 be d6 bd 92 cb 48 3e
       -0.3439517 -0.5784049 -0.10485506 0.19608906
000380 04 bf 86 be 50 51 24 be 64 9e 3a be 0e 4a 01 be
       -0.26317608 -0.16046643 -0.18224484 -0.12625906
000390 66 af 16 be b2 7a 86 bd 3f 00 85 be 65 98 59 3d
       -0.14715347 -0.06566371 -0.2597675 0.05312385
0003a0 75 8c e4 3d ea 34 36 3f 67 b8 2f 3e 94 43 08 be
       0.111596026 0.7117449 0.17160188 -0.13307029
0003b0 2c cb ea 3d 59 1e 3d 3f 04 9c 0b 3e 75 b4 28 be
       0.11464533 0.7387443 0.13633734 -0.16475089
0003c0 34 b7 8a 3d ec 99 f3 3c fa c7 fe 3d 79 2b 3d bd
       0.067732245 0.029736482 0.12440486 -0.046184037
0003d0 de 70 2c 3d 89 0c f3 bd a5 ec 84 be 50 21 4e 3e
       0.042099826 -0.11867625 -0.25961795 0.20129895
0003e0 0f 5f bb 3d ad f5 f7 bc 77 2c 2b bc 06 9c 1d be
       0.0914899 -0.030268515 -0.010447613 -0.1539155
0003f0 9c 63 b7 bd 3f e9 dc bd 3d 7e 03 be 74 ca c2 bc
       -0.08954546 -0.10786676 -0.12841125 -0.023778178

actor.mu.model.0.bias f4 [6]
000000 40 d3 05 3e 95 57 c0 be ff 5f 5d 3c 3d 66 b6 3e
       0.13068867 -0.3756682 0.013511657 0.35624877
000010 2d b8 7f bc 13 36 50 be
       -0.015607876 -0.20333128

critic.preprocess.model.model.0.weight f4 [64, 17]
000000 37 76 84 3d c1 5d 0a bf ce 97 6b be d9 05 df bd
       0.0646786 -0.5404931 -0.23007128 -0.10889787
000010 81 2a f8 bd 12 0f 53 be f8 9a 8e be a9 53 5e be
       -0.12117482 -0.20611218 -0.27852607 -0.21711601
000020 0a 71 8b 3e 04 14 49 3e d7 34 00 3e ca 6f 86 bd
       0.2723468 0.19636542 0.12520157 -0.06564291
000030 bb 27 58 3d ff 9b 10 3e 4c c0 e5 bd 80 5e ff bd
       0.052772265 0.14122008 -0.11218318 -0.12469196
000040 77 eb 6d 3c a1 92 ff 3c e4 66 01 3e 83 a9 16 3e
       0.014521471 0.031197848 0.12636906 0.14713101
000050 6d 44 f4 3d 51 33 5d bd 99 b6 9a be 18 4b e3 3d
       0.11927114 -0.054004017 -0.30217436 0.11098307
000060 f5 43 2b 3e 69 1d 71 3e d1 dd 34 3e 1c 7c 5b 3e
       0.16725142 0.23546375 0.17662741 0.21434063
000070 05 00 69 3e 0e 95 e7 3d c7 04 ba bd 07 97 dc bd
       0.22753914 0.11307727 -0.090829425 -0.10770994
000080 fa b4 24 be ac d9 71 bc 24 94 1d 3e c6 db ef be
       -0.16084662 -0.01476137 0.15388542 -0.4684736
000090 c9 ee 3d bd 77 22 4c bd 4c 42 9c 3d bb 28 8e be
       -0.0463703 -0.049837556 0.076298326 -0.2776545
0000a0 5c 54 c9 bd 73 0c 92 bb df a9 58 bc 46 0f 17 3e
       -0.098305434 -0.0044570505 -0.013224094 0.1475192
0000b0 c4 f3 76 be 69 49 9a bb 80 6e 82 bd 96 8b ba bd
       -0.24116427 -0.004708458 -0.063687325 -0.09108655
0000c0 cc 3b 1a 3e 3f 6a 82 bd 03 dc 0c bd ce 23 6f 3d
       0.15061873 -0.06367921 -0.034389507 0.058383755
0000d0 ef 39 4b 3f 6c 40 b6 3e df 50 c5 3e 0c 4f 5e 3e
       0.79385275 0.35596025 0.38538262 0.21709841
0000e0 c1 67 ab be 6b 19 65 3e 6a 18 27 3e 59 a0 5c 3e
       -0.33477595 0.22372977 0.16317907 0.21545543
0000f0 51 a6 e2 be d3 56 28 3e ae a8 8f 3e e0 f8 83 bd
       -0.44267514 0.16439371 0.2805838 -0.064439535
000100 11 78 8f bc 26 b7 90 bd 2a d1 36 be d0 f7 7c 3d
       -0.017513307 -0.07066183 -0.17853227 0.06175977
000110 2d 30 0e bf ce 09 8e 3e ab 3a b1 3e ff 16 df 3c
       -0.5554226 0.27741855 0.34615073 0.027232645
000120 40 12 75 be 48 6a 9b be b9 47 a2 be da 7d 5b be
       -0.23932743 -0.30354524 -0.31695345 -0.21434727
000130 4b c9 49 3e 57 c7 b8 be 20 9d 04 3e b1 db 63 be
       0.19705693 -0.36089584 0.12950563 -0.22251774
000140 f3 c8 83 3d 22 a2 49 3d 44 20 8c be 22 f2 5d bd
       0.064348124 0.049226888 -0.27368367 -0.054185994
000150 96 9c bf 3d 27 8e 90 3d 8f 57 60 3e 66 3d 60 3e
       0.09356038 0.070583634 0.21908401 0.21898422
000160 1c ba b6 3d fc e0 a2 bd ef cb b5 bc e5 1d 2a 3e
       0.08922216 -0.079530686 -0.02219197 0.16612966
000170 e6 d0 b5 3d 1f 61 a2 be 85 d4 e9 bc 64 46 e6 3d
       0.08877735 -0.31714723 -0.02854372 0.11243895
000180 37 0b 8d 3d f4 b2 0b 3d 8d 82 16 bd ed 7f 69 3e
       0.06886905 0.03410621 -0.036745597 0.22802706
000190 67 2c 16 bd 6b cc 94 bd 93 56 0e 3f b9 15 d9 be
       -0.03666344 -0.07265552 0.5560085 -0.42399386
0001a0 e7 3a 14 be fe e7 e7 bd a9 d2 e9 bd 69 17 44 be
       -0.14475594 -0.11323546 -0.11417133 -0.19149555
0001b0 ed 84 ee 3b 8e 0c 2c 3e 8d e9 ce bd 56 17 8e 3e
       0.0072790296 0.16801664 -0.1010314 0.2775218
0001c0 ab 0c df 3d bc a6 70 3e c1 94 b1 3d c8 c2 72 3c
       0.10891088 0.23501104 0.08670951 0.014816947
0001d0 55 b5 dd bd 7b 13 4f be 1c ac e4 3c 98 c1 21 3e
       -0.10825602 -0.20222275 0.0279141 0.15796506
0001e0 e5 2f 33 be ec c3 bd 3d 85 48 09 be 34 cd ae bd
       -0.17498739 0.09265885 -0.1340657 -0.08535233
0001f0 e6 29 b3 be a5 ba 25 be 96 65 71 3d f8 04 67 be
       -0.34992903 -0.1618448 0.05893477 -0.22560489
000200 d1 2e 32 3e 05 c2 c1 bb 9d 52 3c bd 40 ae 39 3c
       0.17400672 -0.0059130215 -0.045977224 0.011333048
000210 3f d9 a1 3d bb 8a 84 3e b8 8d 0c 3e a9 bd 96 3d
       0.079027645 0.25887093 0.13725936 0.073603936
000220 2e 8f d2 bc e4 c0 99 3e 21 d3 28 bd 29 76 af bd
       -0.025703039 0.30029976 -0.041216973 -0.08567459
000230 f2 dc 2b 3e 08 77 4c 3c 5b 20 39 be c8 25 86 3d
       0.16783503 0.012479551 -0.18078749 0.06550175
000240 f0 d2 ae be b0 91 06 3e 60 1e a8 3f 3e 90 67 3e
       -0.34145308 0.13141513 1.313427 0.22613618
000250 21 d4 b5 3e 8f 8a 72 3d a2 bf 3f be 4f 10 be 3d
       0.35513404 0.05921417 -0.18725446 0.09280454
000260 ec 08 30 bd ec ad b3 be eb aa 46 be 4c b9 03 bd
       -0.04297726 -0.3509363 -0.19401138 -0.032159135
000270 e5 1c 4e bb 2d 39 13 bd 05 7b ca 3d 37 e3 fa 3d
       -0.0031450328 -0.0359432 0.09886745 0.12250369
000280 01 25 e7 3d 78 58 0c be 97 4f 26 be b2 1f 2b be
       0.11286355 -0.13705623 -0.16241299 -0.1671131
000290 73 d2 99 bd cc fd 10 be 92 47 91 bc f6 4e eb bd
       -0.07510843 -0.14159316 -0.017734323 -0.1148967
0002a0 53 5a 47 3d ee f8 fe bc 38 04 f1 3d e0 bc 2f bf
       0.048670124 -0.031124558 0.11768383 -0.68647575
0002b0 94 65 ce bd e6 50 d4 bd 39 e8 96 bc 82 94 13 3e
       -0.10077968 -0.10366993 -0.01842128 0.1441212
0002c0 a8 bb d4 bc 2e 14 28 3c e3 c8 12 3e 7a 38 ab 3d
       -0.025968388 0.010258717 0.14334445 0.083603814
0002d0 06 1d b6 3d c2 af aa be c6 3d a2 3d 2c 14 26 3d
       0.088922545 -0.33337218 0.079219386 0.04054658
0002e0 16 19 cb 3d 6f f7 dd 3b 16 e9 21 3d ae ce 60 3d
       0.09916894 0.006773881 0.03952893 0.054884605
0002f0 39 70 5b 3e 88 0d e8 3d 6f ed b5 bb db c0 36 be
       0.21429528 0.11330706 -0.005551986 -0.17847006
000300 16 4f da bd 28 05 9b 3d 2c 37 40 bd de 2f b1 be
       -0.10659616 0.07569343 -0.046927616 -0.34606832
000310 ee a6 c7 3c 68 fc cb 3d 55 9a 27 3e 79 5a 89 3b
       0.02437159 0.09960252 0.16367467 0.0041916934
000320 1d f3 85 3d 67 37 9c 3d 16 9f d1 3d 6c c7 88 bd
       0.06540511 0.07627755 0.10235421 -0.06678662
000330 55 a8 fc 3c 72 93 0c be e7 b4 34 be 99 aa ab bd
       0.030841986 -0.13728121 -0.17647134 -0.08382148
000340 ed 4d 7b 3d e8 53 3e be 0b 42 87 be dd 63 1b bd
       0.061353613 -0.18586695 -0.26417574 -0.037937034
000350 03 36 5c be 7b 42 01 bd d0 19 98 be 81 a5 0e 3e
       -0.21504979 -0.03155754 -0.29707193 0.13930322
000360 ae ee a6 bd 2e d9 c1 3c 6d a1 8b 3e 10 86 13 3e
       -0.08150993 0.02366313 0.27271596 0.1440661
000370 4f d1 3a 3d f4 b3 b7 3d f1 81 6c be 62 0c d9 bd
       0.04560977 0.0896987 -0.23096444 -0.10598065
000380 3a b4 e7 bd aa 62 64 bd a7 82 8b bd 4e e7 82 bd
       -0.11313672 -0.055758156 -0.06812029 -0.06391774
000390 6d 15 2e bd e9 b8 14 3e fb 78 40 3e 78 15 91 3d
       -0.042500902 0.14523663 0.1879615 0.07084173
0003a0 1d 06 10 bc 82 fd 45 3d 30 b5 85 bd 19 28 1d bd
       -0.00879052 0.048337467 -0.065286994 -0.03836832
0003b0 71 1d 84 bd 1f 4b 2f 3d 2d cc 75 3d 75 0b ef 3e
       -0.06450928 0.04279625 0.06000917 0.4668843
0003c0 ca 70 a4 3d a4 47 f6 3d c3 95 14 3e d5 d7 d7 3d
       0.08029325 0.12025383 0.14510255 0.105392136
0003d0 51 0e 45 bc 22 f0 4c be bd 67 c1 3c cf 55 5e 3e
       -0.012027339 -0.20013478 0.023609037 0.21712421
0003e0 9e 33 28 3f 67 40 a7 3e 09 75 59 3e 4a 5b e4 3c
       0.6570376 0.32666323 0.21236052 0.027875561
0003f0 6d 0a d5 bd dd a7 96 bc 28 6d 4b 3d 7d 2b a1 be
       -0.10402379 -0.01839059 0.049664646 -0.3147849

critic.preprocess.model.model.0.bias f4 [64]
000000 4f 37 17 3f 6c 25 44 bf 1b b0 71 3f 80 5b 3d be
       0.5906877 -0.766196 0.9440934 -0.18491936
000010 59 88 06 be 0b ef 72 be 11 a7 25 3f 26 d5 f7 3e
       -0.1313795 -0.23724 0.6470805 0.48404807
000020 65 4e da be cf d1 57 bf c5 1d 3d 3f ae 36 c0 be
       -0.42637935 -0.8430452 0.7387355 -0.37541717
000030 23 30 24 3e 12 7b 67 3f db 78 2d bf 8d e6 35 be
       0.16033988 0.90422165 -0.67762536 -0.1776373
000040 a8 5c c0 be 20 4e 48 be 38 ea 56 be 1f 5c f5 be
       -0.3757069 -0.19561052 -0.20987785 -0.47921845
000050 0c 93 08 bf 61 df c8 be 42 c3 79 bf 8f 7c 64 bf
       -0.53349376 -0.39232925 -0.97563565 -0.8925256
000060 80 8e ad 3e ef a0 6e bd c6 51 99 be 90 f1 15 bf
       0.3389778 -0.058258947 -0.299452 -0.5857172
000070 2e 4a a1 be f2 05 5a 3f f7 9c 45 3f ac 34 7d 3f
       -0.31501907 0.8516532 0.77192634 0.98908496
000080 9d 85 13 bf 8b ed a7 be 38 d7 cd be e1 28 00 be
       -0.5762575 -0.32798418 -0.4020326 -0.12515594
000090 e1 38 62 bf e0 73 a8 be 36 19 5a bf ba 56 97 3d
       -0.8836804 -0.32900906 -0.8519472 0.07389589
0000a0 bf bf ce bd 73 5d 85 3d 5d f5 2e 3e 1a b3 99 be
       -0.100951664 0.06511965 0.17085786 -0.30019456
0000b0 57 cf 87 3e 39 c1 d0 3e 73 eb a6 bd 9d 7f 5e bd
       0.26525375 0.40772417 -0.08150377 -0.05432092
0000c0 ef 70 13 3f 76 71 03 bf 65 3a 5f be b8 87 db bd
       0.575942 -0.51345 -0.2179962 -0.10719246
0000d0 30 6d 46 3f c1 bf 01 bf 9f c0 04 3f d6 ce b1 bd
       0.77510357 -0.5068322 0.51856416 -0.08682029
0000e0 cf 32 18 3e 7c ec 08 3f c7 af ea be f1 7b 05 bf
       0.14863132 0.53485847 -0.45837232 -0.52142245
0000f0 4b 2a 58 be 2a 15 2b 3f 32 98 de be 5e 8c dd bd
       -0.21109883 0.6682917 -0.4347549 -0.108177885

critic.preprocess.model.model.2.weight f4 [64, 64]
000000 a5 be bd 3e c1 8a cf bc a7 bb 22 3e b4 1e 6b bd
       0.37059513 -0.025334718 0.15891896 -0.057402328
000010 7e 2e 07 bd df 8d b5 bc 21 4e 4a 3d a9 f9 82 be
       -0.033003323 -0.022162376 0.049390916 -0.255811
000020 e0 82 32 bf bb fa 7f be 29 65 ae 3e 92 5e 94 bd
       -0.6973095 -0.2499799 0.34061554 -0.072446
000030 44 aa 02 3e 02 dc 95 bd 4f 6f 6b be 73 b4 b8 be
       0.12760264 -0.07317354 -0.2299168 -0.36075172
000040 e3 b9 82 be 09 b7 e8 be 46 c6 40 3e e2 f0 df bd
       -0.25532445 -0.45452145 0.18825635 -0.109346166
000050 43 f1 91 3e f0 47 61 bd 48 3a 81 bd e3 ed 18 3c
       0.2850438 -0.055000246 -0.063099444 0.00933406
000060 88 f4 0b be ef be c5 bd c4 d4 88 be 1d ec 2f 3e
       -0.136675 -0.09655558 -0.26724827 0.17179914
000070 d3 e0 bf 3e 85 2a 98 be f0 36 81 3e 9f 82 3a 3e
       0.37476215 -0.2971994 0.25237226 0.1821389
000080 f8 06 97 bc c1 b6 eb 3b 02 d5 30 3e 06 b0 70 bd
       -0.01843594 0.007193417 0.17268756 -0.05876162
000090 a8 db 00 bf db 06 b0 3d 7c 22 e8 be 73 4d 26 3c
       -0.5033517 0.085950576 -0.4533881 0.010150301
0000a0 a6 86 c2 3d 48 bd 47 3e 63 ca 1b be 1b db a0 be
       0.094983384 0.19505799 -0.15213923 -0.31417164
0000b0 24 32 54 be 69 cf 22 3e dc e5 e0 3c 9f 01 65 be
       -0.20722252 0.15899433 0.027453355 -0.223639
0000c0 0b 73 b3 3e c7 4e 16 bf fa 4e 22 3e 90 8c 20 be
       0.35048708 -0.58713955 0.1585044 -0.1567862
0000d0 39 ee 77 3f 4b d4 d2 be 6c a7 40 3e 4f d3 59 3e
       0.96847874 -0.41177592 0.18813866 0.21272014
0000e0 b0 fe a8 3e 5d ec bc 3d 00 f2 e4 bd 4a 5f a8 39
       0.3300681 0.0922477 -0.1117897 0.00032114453
0000f0 7a 01 8b 3e dc 58 8c 3e ca af 4a 3e b1 21 6c be
       0.27149564 0.27411544 0.1979362 -0.23059727
000100 d2 fa 2a bd 8d be 13 3d 25 a8 82 be 57 d5 ec be
       -0.041743107 0.036070395 -0.2551891 -0.46256515
000110 72 04 65 bd a9 24 90 3e 71 03 ce 3d ef 5c 81 bd
       -0.055912443 0.2815297 0.1005925 -0.06316554
000120 14 4f 47 bd 7d ff a0 bd 05 18 b0 3d c7 ef 2f be
       -0.0486594 -0.078612305 0.08598331 -0.17181312
000130 1a 13 b6 3d cc 89 05 3e 48 73 7f bb 3b c3 41 be
       0.08890362 0.13040847 -0.0038978625 -0.18922131
000140 9d 97 7c be b1 76 6e bd af 4e 57 3e 66 8a 1f be
       -0.24667211 -0.05821866 0.21026109 -0.15580139
000150 59 7d c7 3c e5 c4 df 3d 8a ce 2c 3e 30 bc 5e be
       0.024351763 0.109262265 0.16875663 -0.21751475
000160 30 3a 98 3d d0 8b b0 bc 02 95 19 3e 16 a3 74 3e
       0.074329734 -0.021551043 0.14998248 0.23890337
000170 f7 4a 1f be 10 50 85 3d 1b 75 85 be 5a 92 ce 3c
       -0.1555594 0.06509411 -0.26065907 0.02521627
000180 63 2b d2 bd b3 fa 04 be 86 95 45 be 90 be ac 3d
       -0.102621816 -0.12986259 -0.1929532 0.084347844
000190 56 e0 34 b9 87 7e f8 bd 81 cc e9 3d d3 13 08 3e
       -0.0001724971 -0.12133508 0.11415959 0.13288812
0001a0 bc a3 50 3e 4e 48 3a 3c 1f 4c 01 3e fe 81 bf 3d
       0.2037496 0.011369778 0.12626694 0.09350966
0001b0 1f 5d a9 bd ae 90 95 be 3b 57 b9 3e af 5e ba b7
       -0.082697146 -0.29211944 0.36199364 -2.2217018e-05
0001c0 2e d9 1f 3c 50 8c e8 3e dd b5 d8 3d cd 54 1d bd
       0.0097563695 0.4541955 0.10581563 -0.03841095
0001d0 6d 9a 46 3e 66 65 3f 3c d2 e1 a8 bd 66 61 b4 bb
       0.19394846 0.01168189 -0.08246197 -0.005504775
0001e0 44 d0 97 bd 17 9b a5 bd fe 9f c4 3d c0 4b 74 3e
       -0.074127704 -0.08086222 0.096008286 0.23857021
0001f0 03 3b da bd 2b 9e 33 be 63 1d 08 be ab 8e 1f be
       -0.10655787 -0.17540805 -0.1329246 -0.15581767
000200 05 f3 3b be 41 65 a6 3e b8 cb 2c 3d 4f 87 88 3e
       -0.18354423 0.32499126 0.04218647 0.26665732
000210 9f b2 26 be dc 74 19 be 9a ea 90 be 4b f0 83 be
       -0.16279076 -0.14985985 -0.28303987 -0.25769266
000220 0c 29 50 3e c4 49 9a be 37 54 9c 3d 31 9e 02 bf
       0.20328158 -0.30134404 0.0763325 -0.5102263
000230 99 d3 10 bf 01 d0 43 be 64 26 1b 3e 08 6a 7f 3e
       -0.5657287 -0.19122316 0.15151364 0.24942791
000240 73 01 72 3d 7c 11 01 be b9 d5 f2 bb 75 c3 f0 3d
       0.059083413 -0.12604326 -0.0074107316 0.117560305
000250 68 51 6c be 4f 73 a2 3e 70 3d 84 3e f8 21 0d 3e
       -0.23077929 0.31728598 0.25828123 0.1378249
000260 91 5c 15 be e3 3a 9a bc 3d fd d3 3d 0d 7d 01 3f
       -0.14586093 -0.018826908 0.10351036 0.5058144
000270 63 d9 18 3e 45 28 6a 3e 04 00 09 bd 16 1c a7 bd
       0.14926676 0.22866924 -0.03344728 -0.08159654
000280 34 2f 53 be 8c 12 3b 3e 3a 7e 2b 3c d1 52 47 bc
       -0.20623475 0.18268794 0.0104671065 -0.012165741
000290 82 fa 04 3e 10 a6 34 3d 4d da 13 be b7 05 a2 bd
       0.12986186 0.044103682 -0.14438744 -0.07911246
0002a0 73 c9 e5 bc 88 7d 34 3e 5b 1a a2 3b 24 7a 06 3e
       -0.02805016 0.17626011 0.0049469895 0.1313253
0002b0 9d fd 0f be e2 1d 24 be 4e 7a 0b 3c 8b bb a4 bd
       -0.1406159 -0.16027024 0.008513046 -0.080435835
0002c0 4c 96 e5 3e 8e cd ff bd cd 4e 2a be 0f 32 b0 3c
       0.4484123 -0.12490378 -0.16631623 0.021508245
0002d0 6e f8 84 3d e0 ce b2 3d fe f1 09 be 76 3c c0 be
       0.06492697 0.087308645 -0.13471219 -0.37546128
0002e0 10 b4 7d bd 88 fe 2e 3d 59 96 f9 3e 8a d8 a5 ba
       -0.0619393 0.04272321 0.4874752 -0.0012653035
0002f0 79 90 05 be f6 62 63 3b 12 8a a1 3d 05 75 bb 3d
       -0.13043393 0.0034696436 0.07887663 0.09153179
000300 05 ae ad 3d 8a ea 1b 3e bd f8 40 be 56 ab 09 bd
       0.08480457 0.15226188 -0.18844886 -0.033610664
000310 54 7e 8e bd 31 b1 32 3e 05 68 28 3e 7f 15 c5 3c
       -0.06957689 0.17450406 0.1644593 0.024058102
000320 c5 61 74 3e 41 d6 4e be 11 7e 81 be 4b c9 6d 3d
       0.23865421 -0.20198919 -0.25291494 0.058053296
000330 7f b8 ab bc 03 c7 f2 3d 73 04 d9 bd d7 48 2b 3e
       -0.020961998 0.11854365 -0.10596552 0.16727005
000340 d2 09 bd 3e 74 c1 07 be 3a 83 d6 bd ca 0e 12 bd
       0.36921555 -0.1325739 -0.10474248 -0.035658635
000350 35 4a 95 bd db 60 65 bd 52 02 77 bb 4d 9b bd bd
       -0.072895445 -0.05600057 -0.0037690592 -0.09258137
000360 ea 0d 8c bc f0 90 a1 3e 7f a7 cd 3d c4 3a 90 be
       -0.017096478 0.3155589 0.10041713 -0.28169835
000370 ac c1 c7 3d 25 a6 e5 b9 d6 3d 0c be fe 7a 56 3d
       0.09753737 -0.0004380207 -0.13695464 0.05236339
000380 49 91 94 bd 54 9b 56 bd bc 71 57 3d d2 7b c1 3c
       -0.072542734 -0.052394226 0.0525987 0.023618612
000390 88 04 a2 bd 7a f3 38 3e ef fe 05 3d e1 6b 1f bc
       -0.079110205 0.18061629 0.032713827 -0.00973031
0003a0 72 15 18 be 74 c5 04 3e d3 50 72 be a2 33 fe 3d
       -0.1485193 0.12965947 -0.23663644 0.12412192
0003b0 74 68 a9 3e d1 ed 83 be b2 6e 5f 3d 4b c7 83 be
       0.33087504 -0.25767377 0.054548927 -0.25737986
0003c0 46 cd dc bd 44 ef 81 be ff f1 5f 3d d0 c2 13 be
       -0.1078134 -0.25377858 0.054674145 -0.14429784
0003d0 5f 2b fe bd 7d 29 03 3e 49 bf d2 3d 3a bf 80 3e
       -0.12410616 0.12808795 0.10290391 0.25145894
0003e0 e0 dd 8b be a3 93 b5 be b5 5c f0 bc d2 36 29 3e
       -0.27317715 -0.354642 -0.029341081 0.16524819
0003f0 ca 3b 3f be 2c 54 31 3e 0b 23 1e bc e5 ed 8e 3e
       -0.18675151 0.17317265 -0.00965191 0.27915874

critic.preprocess.model.model.2.bias f4 [64]
000000 c6 7b 1f 3e 08 5b 8e ba 0e 3f 71 bc 19 44 da 3b
       0.1557456 -0.001086087 -0.014724506 0.00666095
000010 37 8f 92 be 01 3d 02 3f 94 5c 69 3d c5 86 7c bc
       -0.2862489 0.50874335 0.056973055 -0.015412991
000020 10 cd 72 3c a1 c7 16 bd 2b d4 65 3c 59 6c 76 3e
       0.0148193985 -0.036811475 0.014027636 0.24064769
000030 cb f5 d9 be 66 06 66 bd f9 b7 57 be 38 b5 33 3d
       -0.42570338 -0.056158446 -0.21066274 0.043873996
000040 97 79 38 bc 76 94 b7 be 62 78 c7 bc 00 5a 73 bd
       -0.011259458 -0.35855454 -0.024349395 -0.059412003
000050 00 2d 2b bd 43 7e ac bd c9 69 68 be 97 b0 78 3c
       -0.041790962 -0.0842252 -0.22696604 0.015178821
000060 11 1b 8c 3f 81 36 7e bd 26 bc 05 be ee fd 16 3f
       1.094576 -0.062063698 -0.13060054 0.58981216
000070 e4 d8 c9 3e 7f ac f6 3d 59 ed 73 be d3 58 3f bd
       0.39423287 0.1204462 -0.2382101 -0.04671557
000080 41 a5 33 bc 63 dc a2 3e a1 b0 49 3e 4f e7 80 3e
       -0.010964693 0.31808767 0.19696285 0.25176474
000090 d5 f7 86 3e c2 d9 e5 bd 87 4f 8e 3c 03 4b 89 be
       0.26360956 -0.11223175 0.017371906 -0.26815042
0000a0 6d 22 f9 3c ed 18 ab 3e b7 98 45 be 36 b3 55 be
       0.030411923 0.33417454 -0.19296537 -0.20869145
0000b0 33 ef 03 bf d7 0e 94 3d 2d b8 68 be cd ee bc 3d
       -0.51536864 0.07229393 -0.22726507 0.09225235
0000c0 ec 53 e8 be 7d 06 02 3f 6c 35 4f 3e ef 54 87 bd
       -0.45376527 0.5079115 0.20235223 -0.06607997
0000d0 b7 38 01 3e 13 10 98 bc c7 71 2f 3d 38 92 bc bc
       0.12619291 -0.018562352 0.042833116 -0.023018941
0000e0 f0 0b e7 3e 94 77 60 3f f3 c4 58 3d da dd c3 3e
       0.45126295 0.8768246 0.0529222 0.38255197
0000f0 21 ae 83 3d 0b 14 07 be 44 ed 0e bd f4 2f 27 bb
       0.06429697 -0.1319124 -0.034894243 -0.002551076

critic.last.model.0.weight f4 [1, 64]
000000 05 be b2 3d b5 94 75 b9 be fc 25 3d df 0b b6 bc
       0.087276496 -0.00023420418 0.040524237 -0.022222457
000010 7e 51 60 be 09 98 18 3e c5 7a 59 bd bd 17 ef bd
       -0.21906087 0.14901747 -0.053095598 -0.116744496
000020 a2 9e 39 bd 06 ab 02 3b 29 bf 07 3d 2c e7 aa 3d
       -0.0453173 0.0019938364 0.03314129 0.08344874
000030 1f 01 69 be 3f d3 4f 3d e9 f2 0d be 6e 06 a1 3a
       -0.22754334 0.05073857 -0.13862194 0.0012285241
000040 83 a1 a1 3d f0 ea 80 be 2f 87 b0 bb 88 45 24 be
       0.07892134 -0.25179243 -0.005387209 -0.16042149
000050 6e ad a3 38 c1 1e 49 3b cd 56 55 be 42 00 c8 3a
       7.8047495e-05 0.0030688497 -0.20833893 0.0015258866
000060 5c ec 7c 3e 42 6c d3 b9 98 b0 0a bd 92 bf ad 3e
       0.24699539 -0.00040325715 -0.03385982 0.3393522
000070 ad 1b 35 3e 2f f0 20 bd 83 9d 2e be 0f 14 9b bd
       0.17686339 -0.039291557 -0.17052273 -0.07572185
000080 6a f5 48 3b e8 78 a6 3d 5f 90 5b 3d ce a0 66 3c
       0.0030663856 0.0812853 0.05360448 0.014076425
000090 f2 78 7d 3e bf dc 40 be 73 fc 16 be 96 a9 e1 bd
       0.24753168 -0.18834208 -0.14744739 -0.11018674
0000a0 48 c4 49 3d 21 a9 66 3d 30 c9 7f ba 6e 21 9b bd
       0.049259454 0.056313638 -0.00097574573 -0.075747356
0000b0 f0 3e 27 be 66 ce 02 bd 84 96 8d bd 2c 66 9c 3c
       -0.16332603 -0.03193512 -0.06913474 0.019091688
0000c0 99 49 3c bd eb 73 e4 3d 79 1d a7 3d ae 62 ad 3d
       -0.045968626 0.11154922 0.08159918 0.08466087
0000d0 31 f5 62 be ac 20 bd 3c ac 02 15 bd 0b 6c 07 be
       -0.22163846 0.023086868 -0.0363795 -0.13224809
0000e0 f3 58 8e 3e cb fd 8a 3e 5e 3a 1a be 2e 0d 43 3e
       0.27802238 0.27146754 -0.15061328 0.19047996
0000f0 8f 86 13 3d 30 ab 06 be b6 47 bd bb 49 f0 60 bb
       0.036016997 -0.1315124 -0.005776371 -0.0034322909

_actor_critic.actor.sigma_param f4 [6, 1]
000000 4f 83 ff bf 4e d3 16 c0 12 bd f2 bf 7c 6b 1e c0
       -1.9961947 -2.356647 -1.896395 -2.4753103
000010 31 ce 08 c0 af 6b ea bf
       -2.137585 -1.8314112
