results/Swimmer-v3/ppo/4/220623-152516/policy.pth (torch, 47844 bytes, 24 tensors)

actor.sigma_param f4 [2, 1]
-1.6099074 -3.1122382
00000000: 7211 cebf e92e 47c0

actor.preprocess.model.model.0.weight f4 [64, 8]
-0.4106648 -0.018080851 -0.14236611 -0.22967198 0.5131367 0.08225567 -0.10248762 -0.078779615
0.2756655 -0.22991426 0.12566292 0.06392759 -0.3974275 0.2015984 -0.22035536 -0.14005943
-0.31057295 0.0027084239 -0.066710494 0.2845483 0.2138938 -0.2580491 0.394195 -0.053156752
0.13153745 0.14723349 -0.26912513 0.46398243 0.32914424 0.21640976 -0.33598292 -0.6648229
0.33494535 0.2190031 0.04726762 -0.09295903 -0.24589421 -0.14653024 -0.22595717 -0.1969378
-0.16804792 0.24335393 -0.11486728 0.43067327 0.26884145 -0.14911589 0.04602118 0.37235612
0.40874687 -0.02666094 0.2654635 0.16996545 0.07016628 0.28111717 -0.031163087 0.029252172
-0.47390592 -0.45711485 -0.10229321 -0.1042004 -0.17109515 -0.20444213 0.2720734 0.11803296
-0.45492792 -0.17644581 -0.1851631 -0.036004104 -0.7643464 -0.37466583 -0.11766727 0.00046477458
0.39392212 0.47021663 -0.06230417 0.27132455 -0.14682537 -0.21392848 0.20407298 0.30906036
-0.29225957 -0.232805 -0.052164033 -0.20395187 -0.16430873 -0.06777448 -0.20101632 -0.24611044
0.2013665 0.23182823 -0.08331439 -0.3191184 0.118513785 -0.10462416 0.20891207 0.15123463
-0.12997146 -0.24211182 -0.093022235 0.015051692 -0.21341567 -0.13044052 0.04775489 -0.40762347
0.056245856 -0.19402042 0.07264126 -0.04799125 -0.4020916 0.21896301 -0.4079534 -0.048118923
-0.4715964 -0.2494098 0.19811928 0.06448001 0.27620536 0.12282843 -0.056210157 -0.98140496
-0.009397254 -0.26773652 0.27901256 -0.053775046 -0.042650748 0.24154684 0.10519987 0.21845175
0.16436137 0.21183133 0.1839426 -0.108075224 0.060125176 0.28019294 0.23245294 0.21845454
-0.3738477 -0.26464817 -0.12508032 0.10496041 0.07449801 0.04082837 -0.18945654 -0.09885627
-0.34130356 0.25940698 0.09500598 0.076081485 0.095589265 -0.13230325 -0.23415989 -0.056971956
0.16503279 0.2028246 -0.35201946 0.00010217176 0.44511783 0.2527961 0.08354055 -0.36280438
-0.09885603 0.06818361 -0.13605268 0.36761063 0.017314617 0.3144491 0.22615173 0.062434267
0.17397486 -0.09208308 -0.1326428 0.039886553 -0.39157125 -0.16242336 -0.04939589 -0.28735957
-0.35436916 0.37303498 -0.030157965 0.17561528 0.77205074 -0.30346915 0.3232123 0.32155824
-0.10059226 -0.52385247 0.118849754 -0.18216719 -0.32252216 -0.08103921 0.038161777 -0.2919944
0.009160924 -0.14911315 -0.092638314 0.22350429 -0.16999461 0.1630114 -0.15041153 0.14573884
0.351441 0.034201548 0.30012682 0.16235994 0.29456317 -0.22731467 -0.011942685 0.34500992
-0.38760924 -0.11445421 -0.016330238 0.11801159 0.34409368 0.16169511 0.0062136254 0.19444185
0.08094352 -0.032126028 0.19251339 0.11820231 -0.13430099 -0.3190723 0.30778527 -0.53775424
0.30818006 -0.024112519 0.3861802 0.19617118 -0.124260046 -0.5006339 -0.16708653 -0.048966024
0.021490214 0.12238664 -0.25118986 0.27894583 -0.09943015 0.31114438 -0.057763427 -0.71585107
0.09923723 0.1999397 -0.20467855 -0.0565134 -0.08533874 -0.20071845 0.869302 0.114841565
-0.3258027 -0.3551843 0.22535448 0.07931065 0.09900717 -0.12904078 0.056811463 -0.34549522
00000000: a842 d2be 4b1e 94bc 6cc8 11be 222f 6bbe
00000010: ed5c 033f a975 a83d 08e5 d1bd 3557 a1bd
00000020: 0724 8d3e a56e 6bbe c8ad 003e 78ec 823d
00000030: 9e7b cbbe d06f 4e3e d6a4 61be bd6b 0fbe
00000040: 6b03 9fbe d07f 313b 839f 88bd 51b0 913e
00000050: fa06 5b3e 031f 84be edd3 c93e e5ba 59bd
00000060: c1b1 063e 60c4 163e c5ca 89be 1b8f ed3e
00000070: 9885 a83e 859a 5d3e f405 acbe d531 2abf
00000080: f57d ab3e 5942 603e b19b 413d 4e61 bebd
00000090: b1cb 7bbe 060c 16be 5161 67be 10aa 49be
000000a0: c114 2cbe c631 793e 893f ebbd 3581 dc3e
000000b0: 96a5 893e d6b1 18be b480 3c3d 76a5 be3e
000000c0: 4547 d13e 0b68 dabc d5ea 873e 6c0b 2e3e
000000d0: 57b3 8f3d 97ee 8f3e bb49 ffbc 40a2 ef3c
000000e0: cca3 f2be f50a eabe 1a7f d1bd 0567 d5bd
000000f0: 9133 2fbe 4759 51be 344d 8b3e 44bb f13d
00000100: 50ec e8be 36ae 34be 659b 3dbe 0a79 13bd
00000110: 35ac 43bf 33d4 bfbe 8afb f0bd fdac f339
00000120: 29b0 c93e 3cc0 f03e a832 7fbd 0deb 8a3e
00000130: 6459 16be 1110 5bbe 82f8 503e 293d 9e3e
00000140: 0ca3 95be 6f64 6ebe f4a9 55bd c2d8 50be
00000150: 8c40 28be 59cd 8abd 39d7 4dbe 6004 7cbe
00000160: 0533 4e3e 6164 6d3e bca0 aabd 7d63 a3be
00000170: 5bb7 f23d 3145 d6bd 0ced 553e 40dd 1a3e
00000180: 3d17 05be 29ec 77be 7182 bebd 5f9b 763c
00000190: a389 5abe 3392 05be a29a 433d 06b4 d0be
000001a0: 0e62 663d 4aad 46be f1c4 943d 7992 44bd
000001b0: f3de cdbe d737 603e 45df d0be 5918 45bd
000001c0: 1575 f1be 4865 7fbe c8df 4a3e 180e 843d
000001d0: ca6a 8d3e 798d fb3d 9f3c 66bd 5b3d 7bbf
000001e0: f1f6 19bc c314 89be bcda 8e3e 3943 5cbd
000001f0: 8db2 2ebd 0e58 773e 0873 d73d d1b1 5f3e
00000200: 594e 283e 50ea 583e 735b 3c3e 8b56 ddbd
00000210: d145 763d 7375 8f3e 2508 6e3e 8cb2 5f3e
00000220: f768 bfbe f77f 87be 0e15 00be 7cf5 d63d
00000230: 6a92 983d a63b 273d e500 42be 2875 cabd
00000240: 57bf aebe fed0 843e 7f92 c23d 9cd0 9b3d
00000250: 4ec4 c33d 817a 07be 9cc7 6fbe 6d5b 69bd
00000260: 5bfe 283e 40b1 4f3e e53b b4be 0c45 d638
00000270: 7ce6 e33e 7e6e 813e 4f17 ab3d 7fc1 b9be
00000280: 0875 cabd d9a3 8b3d 6551 0bbe 7637 bc3e
00000290: 62d7 8d3c 79ff a03e 5294 673e 13bb 7f3d
000002a0: 7726 323e 0e96 bcbd 84d3 07be 1560 233d
000002b0: 077c c8be 4f52 26be 5853 4abd cb20 93be
000002c0: e06f b5be 71fe be3e d60d f7bc 7ed4 333e
000002d0: 1ea5 453f 4f60 9bbe 157c a53e 48a3 a43e
000002e0: 5103 cebd 321b 06bf 8067 f33d 098a 3abe
000002f0: a021 a5be e3f7 a5bd 864f 1c3d 4a80 95be
00000300: b317 163c 1eb1 18be 28b9 bdbd 4fde 643e
00000310: 1113 2ebe 76ec 263e 7b05 1abe 903c 153e
00000320: 13f0 b33e ec16 0c3d 39aa 993e af41 263e
00000330: fcd0 963e 2dc5 68be 40ab 43bc 24a5 b03e
00000340: b874 c6be f866 eabd fec6 85bc 0fb0 f13d
00000350: 0c2d b03e 6793 253e ab9b cb3b c41b 473e
00000360: b7c5 a53d 9596 03bd 3b22 453e 0d14 f23d
00000370: 3386 09be 725d a3be 0896 9d3e 43aa 09bf
00000380: c7c9 9d3e 9e87 c5bc 69b9 c53e 19e1 483e
00000390: 0d7c febd 8b29 00bf bb18 2bbe 9990 48bd
000003a0: 3f0c b03c d9a5 fa3d f59b 80be fdd1 8e3e
000003b0: 09a2 cbbd 514e 9f3e 5899 6cbd 0442 37bf
000003c0: e43c cb3d febc 4c3e 4197 51be 987a 67bd
000003d0: 14c6 aebd 2389 4dbe 938a 5e3f 0e32 eb3d
000003e0: 9dcf a6be b7da b5be 53c3 663e 9f6d a23d
000003f0: 45c4 ca3d 4423 04be 23b3 683d c0e4 b0be

actor.preprocess.model.model.0.bias f4 [64]
0.18305662 -0.2589018 0.15958966 -0.093125455 -0.015597294 0.11899618 -0.14903507 -0.06158429
-0.049048956 -0.008011829 0.022056684 -0.011842241 -0.049302816 -0.16101216 0.05254918 0.11643957
0.18167104 -0.0064980653 0.2075836 -0.038227707 -0.083417 -0.1152454 0.18673296 -0.038842376
-0.09950034 -0.10731662 0.06900432 0.009317464 -0.018625177 -0.067374215 0.13856938 0.01329752
-0.04787026 0.0015046558 0.057765223 -0.17582479 -0.0854546 -0.031090094 -0.08598421 0.024635814
0.012189988 -0.08649663 0.21116833 -0.0032786224 0.02973577 -0.024943467 -0.015704636 0.047600538
-0.09618171 -0.03920995 0.014573519 -0.110407606 -0.019197978 0.0054615634 -0.0075801387 0.03057548
0.09192344 0.13334207 0.21910971 -0.14578655 -0.06458905 -0.2607979 -0.11177552 -0.108861
00000000: 3273 3b3e c78e 84be 796b 233e 8fb8 bebd
00000010: cb8b 7fbc 45b4 f33d a69c 18be cf3f 7cbd
00000020: 8fe7 48bd 0c44 03bc 38b0 b43c f505 42bc
00000030: c0f1 49bd 5fe0 24be cf3d 573d df77 ee3d
00000040: f907 3a3e b9ed d4bb cc90 543e a894 1cbd
00000050: 88d6 aabd c805 ecbd ed36 3f3e 2f19 1fbd
00000060: d6c6 cbbd d1c8 dbbd 2352 8d3d 47a8 183c
00000070: d493 98bc 7efb 89bd 22e5 0d3e d7dd 593c
00000080: 9b13 44bd df37 c53a 3a9b 6c3d 6a0b 34be
00000090: d202 afbd a7b0 febc 7d18 b0bd 0cd1 c93c
000000a0: 84b8 473c 2525 b1bd 833c 583e 28de 56bb
000000b0: 6e98 f33c 3e56 ccbc 02a7 80bc c8f8 423d
000000c0: ebfa c4bd 9d9a 20bd c5c5 6e3c 621d e2bd
000000d0: 1445 9dbc eaf6 b23b d062 f8bb 6e79 fa3c
000000e0: 5b42 bc3d d38a 083e 4c5e 603e 1249 15be
000000f0: 4447 84bd 4d87 85be 90ea e4bd 84f2 debd

actor.preprocess.model.model.2.weight f4 [64, 64]
-0.33227763 0.38807297 -0.25535038 0.3405109 0.13961612 0.46343037 0.6448907 -0.28324863
-0.28713992 0.26154178 -0.32255828 0.037294723 -0.26597962 0.09282801 0.16609712 0.10777016
-0.057316843 -0.03512182 -0.26240963 -0.02320088 0.50739986 0.32616907 -0.32585704 -0.07658193
0.41779038 0.23823874 -0.46718258 -0.06277299 -0.19745107 0.26089063 0.019840771 -0.12701586
0.19103678 -0.1956058 0.122857 0.24156907 0.38608438 0.07990532 0.120412834 -0.19266479
-0.09223209 0.34401897 0.02737189 0.273774 -0.1126888 0.29594165 -0.3952168 -0.073420554
0.31803086 0.33935618 -0.1789228 -0.026261695 0.14826348 0.1358901 0.18976352 0.11552793
-0.19749764 -0.3608177 -0.16458425 0.5072157 -0.4583015 0.16869183 0.43137863 0.24634212
-0.019035656 0.048323356 0.053015005 0.33752114 -0.09569626 -0.29606748 0.12523451 0.06518058
-0.17043436 0.19996814 0.04843338 0.1484388 0.49407214 -0.008688902 -0.39577535 0.0734674
-0.2849472 0.048154246 0.14257684 0.09862019 0.3597728 0.2643722 -0.069729224 -0.36817
0.29807502 -0.17278516 0.10979704 0.34766662 0.012353735 0.040236507 -0.045401014 -0.11205442
0.22586536 0.038678743 0.24590251 -0.3065878 -0.06319144 0.19044764 -0.16339633 0.21379925
0.045301635 0.2697511 0.17104688 0.092468485 0.114503734 0.14862357 -0.3146797 0.028131774
0.20913927 -0.33112854 0.20362829 -0.22274132 -0.15631922 0.22687908 -0.10474879 0.12448199
0.029715551 0.18283424 0.10533892 -0.3655172 0.26873413 0.0933443 -0.09411439 0.12535669
0.052668255 -0.045653813 -0.14230116 -0.6575715 -0.106308624 -0.04736431 -0.028573606 0.24416932
0.25541922 0.08473086 -0.181491 0.17648251 -0.46039444 -0.2076564 0.014112661 0.15983476
0.58323723 -0.4739681 -0.12899303 -0.6001651 0.01160719 -0.113571495 0.16172381 -0.56590086
0.16292508 0.07823007 -0.081544295 -0.2594832 0.078060724 -0.6851991 0.16366762 -0.45914602
-0.5750213 0.30423966 -0.11132619 0.1679349 0.70337147 -0.11795926 0.25169802 0.28403175
0.69991565 0.040896926 -0.17191462 -0.73522997 -0.31820685 0.0760669 -0.38363138 -0.28211465
0.38737622 -0.06285772 0.016982088 -0.4420211 -0.3632905 0.5302398 -0.014055115 0.03800306
-0.15345156 0.031396974 0.38094693 0.24421829 -0.14654069 0.17051002 0.19179413 -0.0742891
0.06417037 -0.15452349 -0.457356 -0.1917395 0.0016516958 -0.2117342 -0.0258899 0.0019229936
-0.22192624 0.19734499 0.1011098 -0.058429636 -0.2350807 -0.26622185 -0.0370877 -0.030425748
-0.14564937 -0.14968203 -0.009565353 0.15336221 0.027383508 0.046265226 0.011217483 0.06015522
0.26053202 -0.07744179 0.06548175 0.09900219 -0.013171285 -0.04163862 -0.057052393 -0.15738924
-0.060712975 -0.2338011 -0.33871287 0.047636125 0.004937965 -0.056106165 -0.14352146 0.22395764
-0.24504796 0.13499211 -0.20527838 0.088851646 -0.16161317 0.25707617 -0.17939857 0.15221252
-0.32253456 -0.09985199 0.35566092 0.061688084 0.022353701 -0.29412913 -0.1329767 -0.19679041
0.21649309 0.09001279 -0.015059663 0.115008295 0.07025669 -0.24598749 0.14164135 0.045550562
00000000: 4b20 aabe 80b1 c63e 49bd 82be 7257 ae3e
00000010: 87f7 0e3e bf46 ed3e 8f17 253f f705 91be
00000020: 0104 93be cee8 853e 5c26 a5be 5ac2 183d
00000030: 7b2e 88be 9d1c be3d 5d15 2a3e 9ab6 dc3d
00000040: 11c5 6abd e6db 0fbd 8e5a 86be c60f bebc
00000050: f5e4 013f a2ff a63e bcd6 a6be fdd6 9cbd
00000060: 9fe8 d53e dbf4 733e 8e32 efbe 208f 80bd
00000070: 9d30 4abe 7593 853e 1d89 a23c 7210 02be
00000080: 259f 433e e34c 48be 739c fb3d e25d 773e
00000090: daac c53e 67a5 a33d 019b f63d eb49 45be
000000a0: 2ee4 bcbd 4123 b03e 043b e03c 1b2c 8c3e
000000b0: 63c9 e6bd aa85 973e db59 cabe 845d 96bd
000000c0: f1d4 a23e 18c0 ad3e 8a37 37be c422 d7bc
000000d0: 62d2 173e c626 0b3e 5e51 423e e899 ec3d
000000e0: d23c 4abe 19bd b8be c688 28be e3d8 013f
000000f0: 7fa6 eabe 8dbd 2c3e a9dd dc3e 1c41 7c3e
00000100: aaf0 9bbc b6ee 453d 4326 593d 92cf ac3e
00000110: 67fc c3bd 2896 97be 7a3d 003e 657d 853d
00000120: 5886 2ebe 73c4 4c3e 1462 463d 5700 183e
00000130: 06f7 fc3e e55b 0ebc 11a3 cabe 1476 963d
00000140: 99e4 91be 633d 453d aaff 113e 62f9 c93d
00000150: 2434 b83e cb5b 873e 32ce 8ebd c780 bcbe
00000160: 4a9d 983e 98ee 30be 45dd e03d 5c01 b23e
00000170: 5267 4a3c 09cf 243d 6af6 39bd ca7c e5bd
00000180: 4049 673e 9a6d 1e3d decd 7b3e 13f9 9cbe
00000190: 846a 81bd b504 433e 5e51 27be 31ee 5a3e
000001a0: 358e 393d d11c 8a3e ea26 2f3e 1e60 bd3d
000001b0: ef80 ea3d c730 183e b31d a1be 9b74 e63c
000001c0: 9b28 563e ae89 a9be ef83 503e 4d16 64be
000001d0: 2512 20be fd52 683e 8986 d6bd 6af0 fe3d
000001e0: 076e f33c e638 3b3e efbb d73d 1225 bbbe
000001f0: 8597 893e 4c2b bf3d 0cbf c0bd 815d 003e
00000200: abba 573d 7eff 3abd 65b7 11be 9b56 28bf
00000210: 56b8 d9bd 1401 42bd 3213 eabc 8607 7a3e
00000220: 4fc6 823e 6087 ad3d c7d8 39be d5b7 343e
00000230: d2b8 ebbe e1a3 54be ca38 673c b9ab 233e
00000240: 094f 153f f2ab f2be c016 04be 6ca4 19bf
00000250: 152c 3e3c 2c98 e8bd ed9a 253e e1de 10bf
00000260: d5d5 263e 1637 a03d b200 a7bd fbda 84be
00000270: 4dde 9f3d 3569 2fbf 7c98 273e 3015 ebbe
00000280: 9934 13bf 4dc5 9b3e fcfe e3bd 20f7 2b3e
00000290: 2710 343f a094 f1bd 90de 803e 9c6c 913e
000002a0: ac2d 333f 8983 273d 630a 30be 0838 3cbf
000002b0: 02ec a2be f6c8 9b3d 556b c4be 5571 90be
000002c0: 2d56 c63e 8cbb 80bd 051e 8b3c 9750 e2be
000002d0: 3601 babe ccbd 073f 6d47 66bc 19a9 1b3d
000002e0: 6822 1dbe 1d9a 003d 7a0b c33e 5c14 7a3e
000002f0: c30e 16be 2e9a 2e3e ae65 443e e224 98bd
00000300: c16b 833d 683b 1ebe 912a eabe 5c57 44be
00000310: b77d d83a dad0 58be 0e17 d4bc f50c fc3a
00000320: a240 63be ce14 4a3e a812 cf3d ea53 6fbd
00000330: ffb8 70be 3b4e 88be 46e9 17bd 6b3f f9bc
00000340: 1c25 15be 3f46 19be 00b8 1cbc fc0a 1d3e
00000350: 6153 e03c 9b80 3d3d 89c9 373c 5265 763d
00000360: 7464 853e cd99 9ebd 4c1b 863d a9c1 ca3d
00000370: 60cc 57bc 428d 2abd c5af 69bd a52a 21be
00000380: 2bae 78bd 8e69 6fbe c66b adbe 191e 433d
00000390: a7ce a13b 94cf 65bd 4af7 12be 2755 653e
000003a0: daed 7abe 5f3b 0a3e 7f34 52be daf7 b53d
000003b0: ec7d 25be 7d9f 833e 42b4 37be 99dd 1b3e
000003c0: 4023 a5be 337f ccbd 3019 b63e a5ac 7c3d
000003d0: 1c1f b73c 1898 96be 0b2b 08be 6d83 49be
000003e0: 5db0 5d3e a058 b83d cebc 76bc 7889 eb3d
000003f0: bde2 8f3d 25e4 7bbe 6e0a 113e 3a93 3a3d

actor.preprocess.model.model.2.bias f4 [64]
-0.3812302 0.0050329594 -0.021935793 0.0269722 0.030313753 -0.032539394 0.009872542 -0.015754959
0.07943717 0.2045907 0.08177568 0.026918855 0.061482593 -0.013820245 -0.039796803 -0.008729761
0.054788437 -0.039390754 -0.04628855 -0.111813866 0.24706134 0.3758596 -0.03042067 -0.032180525
0.24827693 -0.09688732 -0.06536077 0.19313598 0.023555068 -0.04330349 0.010650699 0.09163753
0.010239482 -0.003920225 -0.0021830257 0.036035657 -0.13962115 -0.04702038 -0.013793832 0.14723347
0.14878973 0.09627419 0.022568623 -0.06735105 0.1678508 -0.33264744 0.015814291 0.026518337
-0.060734145 -0.091750346 -0.023695134 0.07033678 -0.012938823 -0.010676625 -0.025301859 -0.020008143
-0.17268759 -0.20413542 0.08306801 -0.078806244 0.24770233 0.072224826 0.031439334 -0.12732404
00000000: 9b30 c3be 86eb a43b b1b2 b3bc cef4 dc3c
00000010: 8c54 f83c 0748 05bd 71c0 213c 8b10 81bc
00000020: f4af a23d 3980 513e 027a a73d ee84 dc3c
00000030: 2cd5 7b3d 4f6e 62bc f901 23bd 4507 0fbc
00000040: d769 603d 3358 21bd 1099 3dbd abfe e4bd
00000050: a6fd 7c3e ab70 c03e c534 f9bc bacf 03bd
00000060: 4f3c 7e3e dc6c c6bd dedb 85bd 70c5 453e
00000070: 8ff6 c03c 005f 31bd 4580 2e3c 75ac bb3d
00000080: 80c3 273c 3b75 80bb 1811 0fbb 209a 133d
00000090: d9f8 0ebe 7198 40bd 86ff 61bc 5fc4 163e
000000a0: 565c 183e 672b c53d d5e1 b83c 59ef 89bd
000000b0: 15e1 2b3e c450 aabe f98c 813c fc3c d93c
000000c0: 5ec4 78bd 9be7 bbbd 4c1c c2bc bb0c 903d
000000d0: 5bfd 53bc 03ed 2ebc d845 cfbc 1ee8 a3bc
000000e0: 04d5 30be e008 51be 901f aa3d 2b65 a1bd
000000f0: aea5 7d3e 9cea 933d 88c6 003d 3c61 02be

actor.mu.model.0.weight f4 [2, 64]
-0.23609146 0.030272327 0.0045666774 -0.01231528 0.056494784 -0.022241909 -0.165387 0.014940661
0.06294681 0.05570036 -0.0965062 0.008856421 -0.021762995 0.06064329 -0.07221778 -0.00040193505
0.016896982 -0.08879363 -0.04290717 0.10945999 -0.05734871 0.16389662 0.051776826 0.014299515
0.17302185 -0.0019739433 -0.071261376 0.20704557 -0.06396034 -0.041924816 0.119999304 0.02754386
0.011236626 0.004905497 -0.0015512422 0.047716424 0.062645614 0.0011180742 0.003660604 0.031038463
0.08729802 -0.031684585 0.00105492 0.10246922 0.023089113 -0.16146462 0.06592161 0.009288182
-0.027612684 -0.11504876 0.0012204061 0.012807465 -0.010090649 0.0025914318 0.11044506 0.015738422
-0.079941824 -0.03481191 -0.055032074 0.049837362 0.11210265 0.09674757 -0.047741603 -0.08958222
-0.039539516 -0.0033495708 -0.1888519 -0.00045990825 -0.001955515 0.42779356 0.018346248 -0.00094374217
-0.102939904 0.124233 0.016228866 -0.0031170207 0.0030051616 -0.020695215 0.0010205124 0.00013995885
0.15454918 -0.15518358 0.004989741 -0.15796416 0.014287211 0.028223127 0.20025526 -0.0063248198
0.04545596 -0.029970044 0.20405382 0.056282286 0.07252492 0.038455553 0.030012129 0.023199406
0.009875727 -0.0064466223 -0.00027212978 0.0054062437 -0.25237903 -0.018460015 0.0012197599 -0.21353376
-0.038505975 0.009185872 -0.011013019 -0.06607255 0.17345169 -0.050356764 0.18552117 -0.00068083114
0.0010685936 0.27223703 -0.00056328933 -0.0053515346 0.00095124176 -0.0012297761 -0.001540789 0.00096453296
-0.04198174 -0.14458162 0.16961199 -0.0024111294 0.0027403096 0.07180265 0.043933805 0.08484288
00000000: f6c1 71be acfd f73c 11a4 953b 07c6 49bc
00000010: 1367 673d aa34 b6bc 365b 29be adc9 743c
00000020: 42ea 803d 1026 643d 0ba5 c5bd 861a 113c
00000030: 4f48 b2bc 1965 783d eae6 93bd cfba d2b9
00000040: 8a6b 8a3c 6fd9 b5bd 6ebf 2fbd 8f2c e03d
00000050: 7be6 6abd 84d4 273e f013 543d 8348 6a3c
00000060: a42c 313e 465d 01bb 7cf1 91bd c103 543e
00000070: a4fd 82bd 5bb9 2bbd 32c2 f53d a9a3 e13c
00000080: d319 383c 4bbe a03b 0d53 cbba 4c72 433d
00000090: 584c 803d 588c 923a bee6 6f3b 6044 fe3c
000000a0: 4ec9 b23d b2c7 01bd 3e45 8a3a 62db d13d
000000b0: 6125 bd3c fb56 25be e901 873d 752d 183c
000000c0: ff33 e2bc af9e ebbd 09f6 9f3a 67d6 513c
000000d0: 4053 25bc 03d5 293b 0531 e23d dded 803c
000000e0: 8ab8 a3bd ef96 0ebd 5069 61bd 4322 4c3d
000000f0: 1396 e53d 9723 c63d b38c 43bd e276 b7bd
00000100: 30f4 21bd 7984 5bbb 6462 41be d71f f1b9
00000110: 1928 00bb c207 db3e df4a 963c 7765 77ba
00000120: 28d2 d2bd df6d fe3d 66f2 843c ee46 4cbb
00000130: 3ff2 443b 0389 a9bc b7c2 853a ebc1 1239
00000140: 2442 1e3e 72e8 1ebe fb80 a33b 5bc1 21be
00000150: e814 6a3c 3034 e73c b70f 4d3e 6f40 cfbb
00000160: 0730 3a3d bd83 f5bc 7cf3 503e 4188 663d
00000170: f287 943d 9283 1d3d ffdb f53c ae0c be3c
00000180: cdcd 213c 303e d3bb a4ac 8eb9 dc26 b13b
00000190: d337 81be 7539 97bc 5ae0 9f3a 98a8 5abe
000001a0: 71b8 1dbd 5780 163c f36f 34bc 0c51 87bd
000001b0: 529d 313e e542 4ebd 43f9 3d3e ce79 32ba
000001c0: 0d10 8c3a a762 8b3e b5a9 13ba ed5b afbb
000001d0: c15c 793a 7030 a1ba 4df4 c9ba b6d8 7c3a
000001e0: 0cf5 2bbd 340d 14be c4ae 2d3e 0a04 1ebb
000001f0: c496 333b 450d 933d eff3 333d 1bc2 ad3d

actor.mu.model.0.bias f4 [2]
0.059774257 -0.02022911
00000000: dad5 743d 85b7 a5bc

critic.preprocess.model.model.0.weight f4 [64, 8]
0.39999866 -0.16885538 0.42732236 -0.17253746 -0.10452622 -0.028414123 0.008346858 -0.20339924
0.6393129 0.24145028 0.2734402 0.5088786 -0.22714351 0.2234607 -0.12907419 -0.46092418
1.1811209 -0.32406104 0.10410178 -0.021115843 -0.019778494 0.15611349 0.061369985 0.07413099
0.009463435 -0.109555595 -0.5580241 -0.29501387 0.24103607 -0.013123913 -0.20324205 -0.34817645
0.1761578 0.033590812 -0.24088117 0.45849165 0.4755766 0.4023957 -0.36302832 -0.2079086
0.72800195 -0.15102151 0.118005484 -0.16173606 -0.18509313 0.1470882 -0.083300054 -0.07676023
-0.49750566 -0.1056161 -0.09061126 -0.5992778 -0.05423828 -0.031630274 -0.9210431 0.45547727
-0.10639062 0.20080703 -0.1987315 -0.17647281 -0.17905928 -0.42811462 0.23091988 -0.3022683
0.31493896 0.3543449 0.17599879 -0.059769016 -0.19791874 -0.07582825 0.058587596 -0.08300882
0.6606856 -0.2090216 0.288014 0.39549416 -0.58032304 -0.026033824 -0.013839823 -0.14324841
-0.24590392 -0.26921502 0.026578682 0.19872287 0.117056094 -0.10037074 0.095930986 -0.02049321
0.1588615 0.62666994 0.11130547 -0.061386123 0.019084804 -0.083514966 -0.04137213 0.005938609
0.36519834 -0.15862432 0.008062076 0.09759828 -0.5165853 0.38831434 -0.027554644 -0.15445636
0.52136105 -0.24098952 0.04372847 -0.08897202 -0.017790284 -0.06890023 -0.11577398 0.025044585
0.6735168 0.12875189 -0.024029525 -0.1956387 -0.0086290175 -0.045566145 -0.1129672 -0.16953146
0.6504796 0.08646723 0.20115516 0.4953309 0.1940815 0.4177074 0.32984027 0.07388879
0.6370536 -0.18929248 0.43244964 0.037368458 -0.09255635 0.38945773 0.06313342 0.2702386
0.6278034 0.14369853 0.1335352 0.22303113 -0.43555278 0.28140602 0.015088471 0.14708939
-0.2658424 -0.18175516 -0.10495641 -0.82424366 -0.024010306 0.31472024 -0.2642113 -0.57679176
0.3868233 0.13560645 -0.35672197 0.34400564 -0.09307519 -0.042773146 0.1348958 -0.52987796
0.12179164 -0.0816614 0.37419495 0.04645915 -0.1531145 -0.07184396 -0.13978872 -0.037716314
-0.10822248 0.09452297 0.09639648 -0.041461967 0.79048103 -0.35340437 -0.14796174 0.10452566
0.4707367 -0.26142427 0.37234673 0.20910661 -0.14182055 0.51872706 0.09233122 0.14926954
0.6729075 0.2553022 0.20504744 -0.5503578 -0.07839563 0.037538774 -0.11997582 0.5173862
0.6523042 0.09397753 0.11504162 -0.0047878576 0.35424688 -0.08556798 0.20208792 0.37633002
0.5918509 -0.0017813799 0.60050637 0.044311084 0.09543934 -0.13825895 -0.04866326 -0.23812117
0.4063302 -0.28187275 0.10771845 -0.35069364 0.18128693 0.3172295 -0.25453162 0.15574734
-0.58385265 0.1557273 0.13966668 0.067186534 -0.62238675 0.064233445 -0.08483202 0.18473607
0.062589414 0.6771454 -0.21755365 -0.0016959554 -0.04696795 0.114415616 0.09727863 0.09767793
0.65056926 0.059372813 -0.063499816 0.00947397 -0.021312146 -0.06567692 -0.067715585 0.06851573
-0.038649775 -0.38009202 -0.26934114 -0.36039236 0.5702943 -0.22132911 0.19595441 0.10347845
-0.16850547 -0.07996438 -0.034274146 0.008693903 -0.36976838 -0.2506946 -0.23514272 -0.22712158
00000000: a0cc cc3e 6de8 2cbe ffc9 da3e a9ad 30be
00000010: d811 d6bd bcc4 e8bc 43c1 083c e447 50be
00000020: 03aa 233f be3e 773e 5b00 8c3e de45 023f
00000030: 4f98 68be e2d2 643e 062c 04be 41fe ebbe
00000040: f82e 973f 54eb a5be 5033 d53d 22fb acbc
00000050: 8206 a2bc 37dc 1f3e 185f 7b3d fdd1 973d
00000060: 860c 1b3c af5e e0bd abda 0ebf 0f0c 97be
00000070: 29d2 763e ae05 57bc af1e 50be 2f44 b2be
00000080: b662 343e 8596 093d 8ea9 76be 6bbf ea3e
00000090: c77e f33e cf06 ce3e d9de b9be fee5 54be
000000a0: 565e 3a3f 62a5 1abe dcac f13d 239e 25be
000000b0: 0e89 3dbe 4a9e 163e 3899 aabd 7834 9dbd
000000c0: 10b9 febe 414d d8bd 6592 b9bd 456a 19bf
000000d0: f528 5ebd bf8e 01bd 7bc9 6bbf 5134 e93e
000000e0: 53e3 d9bd 5ca0 4d3e 4580 4bbe 4ab5 34be
000000f0: 515b 37be d731 dbbe 4376 6c3e e9c2 9abe
00000100: ae3f a13e b26c b53e 0739 343e 5bd0 74bd
00000110: 36ab 4abe d74b 9bbd 8cf9 6f3d 8700 aabd
00000120: b122 293f c209 56be 9276 933e 367e ca3e
00000130: 0d90 14bf e344 d5bc 6dc0 62bc b6af 12be
00000140: 3dce 7bbe 8dd6 89be 89bb d93c 027e 4b3e
00000150: 1bbb ef3d 2d8f cdbd 7777 c43d 60e1 a7bc
00000160: 97ac 223e 716d 203f 1ff4 e33d 0470 7bbd
00000170: bc57 9c3c e509 abbd d375 29bd aa98 c23b
00000180: 47fb ba3e 6a6e 22be cc16 043c 9be1 c73d
00000190: ef3e 04bf 23d1 c63e 47ba e1bc cf29 1ebe
000001a0: eb77 053f f5c5 76be a01c 333d f636 b6bd
000001b0: eebc 91bc 901b 8dbd e91a edbd 4d2a cd3c
000001c0: 996b 2c3f 89d7 033e 91d9 c4bc 8355 48be
000001d0: b960 0dbc 91a3 3abd 595b e7bd a899 2dbe
000001e0: d585 263f bb15 b13d 9efb 4d3e 039c fd3e
000001f0: 4dbd 463e bfdd d53e d3e0 a83e 0253 973d
00000200: f215 233f e3d5 41be 0a6a dd3e ab0f 193d
00000210: 2f8e bdbd 0167 c73e 184c 813d b75c 8a3e
00000220: b9b7 203f b525 133e 74bd 083e 4662 643e
00000230: c600 dfbe 7314 903e a235 773c 9a9e 163e
00000240: 7f1c 88be 061e 3abe 63f3 d6bd a201 53bf
00000250: 43b1 c4bc 0323 a13e b446 87be a0a8 13bf
00000260: b40d c63e 6bdc 0a3e 43a4 b6be 8221 b03e
00000270: 359e bebd e532 2fbd 2022 0a3e 15a6 07bf
00000280: e56d f93d 183e a7bd 7b96 bf3e f34b 3e3d
00000290: 0cca 1cbe ed22 93bd c624 0fbe 6c7c 1abd
000002a0: bfa3 ddbd 4295 c13d 856b c53d 06d4 29bd
000002b0: f75c 4a3f 6bf1 b4be 4883 17be 8d11 d63d
000002c0: 6704 f13e 67d9 85be 3ba4 be3e 0b20 563e
000002d0: 6839 11be 4ccb 043f 2718 bd3d 1dda 183e
000002e0: aa43 2c3f f8b6 823e f5f7 513e 40e4 0cbf
000002f0: e38d a0bd 42c2 193d e2b5 f5bd 6c73 043f
00000300: 68fd 263f 4b77 c03d f19a eb3d 76e3 9cbb
00000310: d95f b53e 443e afbd 23f0 4e3e 54ae c03e
00000320: 8a83 173f 317d e9ba c9ba 193f 8a7f 353d
00000330: b375 c33d c193 0dbe 2053 47bd 09d6 73be
00000340: 830a d03e a051 90be 7e9b dc3d 1e8e b3be
00000350: 48a3 393e e86b a23e f851 82be 3b7c 1f3e
00000360: 5e77 15bf fa76 1f3e c804 0f3e 1899 893d
00000370: bd54 1fbf d38c 833d 69bc adbd 742b 3d3e
00000380: e12e 803d 6759 2d3f 62c6 5ebe d24a deba
00000390: 7761 40bd bc52 ea3d 053a c73d 5e0b c83d
000003a0: b58b 263f e830 733d 310c 82bd b638 1b3c
000003b0: cf96 aebc 9f81 86bd 78ae 8abd fa51 8c3d
000003c0: 3a4f 1ebd 6c9b c2be 15e7 89be 5985 b8be
000003d0: cffe 113f 19a4 62be 46a8 483e 82ec d33d
000003e0: b38c 2cbe 5dc4 a3bd 0c63 0cbd df70 0e3c
000003f0: 4852 bdbe 0b5b 80be 41c9 70be 8f92 68be

critic.preprocess.model.model.0.bias f4 [64]
-0.70189357 0.23473197 0.30512354 -0.44627753 0.12298656 -0.23529422 0.38261506 0.20843698
0.5507777 -0.22578263 -0.1442478 0.08170031 -0.674414 0.48289716 -0.42839935 0.03706932
0.10075395 0.24196021 -0.23602243 0.45777756 -0.58413666 0.6384369 0.1630987 -0.31720957
-0.38908476 -0.25440565 -0.29140204 -0.44115025 0.1845224 0.60300994 0.37210867 0.04943092
0.21666305 0.56144536 -0.039811216 0.36257622 -0.5577773 -0.29630134 0.24765484 -0.34323192
0.10050104 -0.0054679005 -0.100066125 0.15516989 -0.1570046 -0.1763153 -0.552325 0.1798691
-0.013933256 -0.7389856 0.20287852 -0.046194315 0.39981806 0.3583377 -0.08200652 0.018246036
0.55111086 0.19584855 0.4823582 -0.13461514 -0.33050096 0.3926773 -0.19148283 -0.31206268
00000000: 4caf 33bf 945d 703e 2739 9c3e 7d7e e4be
00000010: 61e0 fb3d f8f0 70be 1fe6 c33e 8170 553e
00000020: c4ff 0c3f 9033 67be b2b5 13be 7e52 a73d
00000030: 65a6 2cbf 4c3e f73e 2957 dbbe 00d6 173d
00000040: 1658 ce3d 6bc4 773e ddaf 71be d261 ea3e
00000050: fb89 15bf 9a70 233f 5803 273e 4b69 a2be
00000060: 1e36 c7be 7541 82be a632 95be 72de e1be
00000070: 71f3 3c3e dc5e 1a3f 0785 be3e 1478 4a3d
00000080: ebdc 5d3e e2ba 0f3f 1611 23bd 97a3 b93e
00000090: 7eca 0ebf cfb4 97be 3b99 7d3e 18bc afbe
000000a0: 7dd3 cd3d 132c b3bb 78ef ccbd dbe4 1e3e
000000b0: d0c5 20be ff8b 34be 2c65 0dbf 9b2f 383e
000000c0: 5048 64bc 292e 3dbf 63bf 4f3e 4036 3dbd
000000d0: f4b4 cc3e 0a78 b73e 09f3 a7bd b678 953c
000000e0: 9a15 0d3f 868c 483e a7f7 f63e 8dd8 09be
000000f0: 6c37 a9be 000d c93e 1314 44be aec6 9fbe

critic.preprocess.model.model.2.weight f4 [64, 64]
-0.28744987 -0.24526915 -0.30303445 -0.278137 0.40369013 -0.81520313 0.3853492 0.24755669
0.03886334 -0.45186839 0.12640099 -0.07519471 -0.19088107 0.0231148 -0.73757046 -0.3844082
-0.13091995 0.0012128557 0.32848898 0.09918634 -0.070646465 0.3105391 -0.3816494 -0.8281387
-0.75292194 -0.11877922 -0.5913183 0.06565003 0.1266748 -0.61546737 -0.010230597 0.2757802
-0.1846547 0.53379697 0.06321416 0.33412057 -0.41877696 -0.5220392 0.39335287 -0.5716952
-0.09156124 0.40779582 -0.78646684 0.03135027 -0.60963684 -1.257508 -0.6099007 0.27831483
-0.36109355 -0.61544424 -0.034399044 -0.13291523 0.6009113 0.034323927 -0.14239368 -0.17214593
0.8907627 -0.03796854 -0.1872216 0.2773577 0.47205546 0.36275336 -1.5457549 -0.62753886
-0.0024053527 0.45543438 0.35648963 0.15549414 0.053504862 0.62250835 0.14528906 -0.17514116
-0.40543804 0.8050381 -0.103675604 -0.09881932 0.371524 -0.027734766 -0.015379831 0.36409453
0.36034912 0.57513607 -0.1728569 -0.02804298 0.006833289 -0.43318182 0.25872943 0.25370666
-0.17275771 -0.2046696 0.08781515 -0.158227 -0.20314917 -0.17405573 0.17033073 -0.07116132
-0.02692264 0.3027428 0.32504237 -0.31926718 0.1576323 0.14390422 -0.053096216 0.32192206
-0.4193483 -0.40326327 0.19540927 0.034849584 0.43171707 0.554866 0.17945284 -0.056780387
-0.08520777 0.6491426 -0.29781863 -0.042939913 0.3131679 -0.08370511 -0.48581403 -0.095346846
-0.4991533 0.20939347 -0.32752493 -0.45851734 -0.29364404 0.09327571 0.1737251 0.24474776
-0.12597863 0.14139672 -0.65678686 0.16189629 -0.2657956 -0.4801214 0.045375828 0.21646386
-0.115107894 0.04447606 -0.10300998 -0.0062003704 0.09666402 -0.642683 -0.10545546 -0.37052873
-0.57952243 0.2803188 0.051333122 0.24884288 -0.33742148 0.09252673 -0.17295052 -0.28221148
-0.109814145 -0.27740213 -0.11671986 0.59910876 0.17528206 -0.24033245 -0.2918563 -0.14998397
-0.18129376 0.08692062 0.54558504 -0.22396885 0.09152992 -0.08177991 0.13506676 -0.24222372
-0.049008325 0.023620771 -0.30608147 0.0043485565 -0.06688889 -0.23522393 0.15582053 0.17730007
-0.5324022 0.030484889 -0.12511396 -0.057893638 -0.045389276 -0.30360046 -0.12765974 0.091772504
-0.052521836 -0.28159645 -0.32957226 0.11456581 0.017400034 -0.102572314 -0.30738944 -0.010074163
-0.334011 -0.14811695 -0.056401476 -0.2724271 0.18185306 -0.19660519 -0.10618044 -0.0066944123
-0.056011338 -0.42267644 0.115457006 -0.15963827 0.22408634 -0.15857935 -0.5545304 0.09796653
-0.28528854 -0.10348126 0.123488076 -0.08945146 -0.15499727 0.014803895 -0.1704731 0.37819052
-0.21906768 0.071769945 -0.34210894 -0.52922094 -0.055018403 0.14918628 -0.41476494 -0.4160852
-0.12132624 -0.23745386 0.09000825 0.110646434 0.19163951 -0.0149514135 0.47448885 -0.12519392
-0.32252625 0.1208222 -0.092777476 -0.11071348 -0.45341778 -0.38567612 -0.25926843 -0.13207534
0.25784656 -0.28799048 0.049877234 -0.003582082 0.07314518 0.18918741 0.40047666 -0.3936295
0.23579304 0.15863048 0.07031294 -0.08006349 0.066060156 -0.23703678 -0.3294819 -0.0038753576
00000000: a12c 93be d627 7bbe 5527 9bbe f967 8ebe
00000010: 79b0 ce3e 27b1 50bf 7e4c c53e 807f 7d3e
00000020: 2a2f 1f3d 4b5b e7be 436f 013e afff 99bd
00000030: 5476 43be 405b bd3c 6bd1 3cbf 27d1 c4be
00000040: e10f 06be aff8 9e3a b52f a83e 3522 cb3d
00000050: 18af 90bd fbfe 9e3e 8d67 c3be e600 54bf
00000060: 7ebf 40bf 8542 f3bd a360 17bf 8673 863d
00000070: 0ab7 013e 458f 1dbf 3c9e 27bc 1033 8d3e
00000080: 1f16 3dbe eba6 083f 6d76 813d da11 ab3e
00000090: ef69 d6be 5ca4 05bf 8c65 c93e 9e5a 12bf
000000a0: 7684 bbbd 9dca d03e e455 49bf 2469 003d
000000b0: 2911 1cbf 06f6 a0bf 7422 1cbf 487f 8e3e
000000c0: 41e1 b8be c18d 1dbf 03e6 0cbd ee1a 08be
000000d0: 53d5 193f 3f97 0c3d a6cf 11be 0647 30be
000000e0: 0609 643f e684 1bbd 05b7 3fbe d401 8e3e
000000f0: 41b1 f13e cfba b93e 4cdb c5bf 63a6 20bf
00000100: 1fa3 1dbb b22e e93e cf85 b63e db39 1f3e
00000110: ea27 5b3d b55c 1f3f a8c6 143e 3458 33be
00000120: 9395 cfbe fa16 4e3f e053 d4bd c961 cabd
00000130: 6538 be3e 0534 e3bc b0fb 7bbc 996a ba3e
00000140: ae7f b83e 1e3c 133f 6601 31be 64ba e5bc
00000150: c8e9 df3b 02ca ddbe 2f78 843e d7e5 813e
00000160: 66e7 30be e894 51be 6ed8 b33d 4206 22be
00000170: 5606 50be aa3b 32be 2e6b 2e3e 07bd 91bd
00000180: de8c dcbc 1b01 9b3e f46b a63e fd76 a3be
00000190: 5d6a 213e a15b 133e 6b7b 59bd f8d2 a43e
000001a0: d2b4 d6be 8678 cebe 5e19 483e 70be 0e3d
000001b0: 050a dd3e b30b 0e3f 7cc2 373e 8d92 68bd
000001c0: 6981 aebd 362e 263f af7b 98be c3e1 2fbd
000001d0: 8b57 a03e 966d abbd 9ebc f8be 3545 c3bd
000001e0: 0591 ffbe 3e6b 563e 59b1 a7be c9c2 eabe
000001f0: 8358 96be 5607 bf3d fee4 313e 289f 7a3e
00000200: 8b00 01be 4dca 103e 2f23 28bf 24c8 253e
00000210: 5c16 88be 79d2 f5be 01dc 393d b4a8 5d3e
00000220: b0bd ebbd 872c 363d e5f6 d2bd 7a2c cbbb
00000230: c9f7 c53d e086 24bf 08f9 d7bd f1b5 bdbe
00000240: 955b 14bf f285 8f3e ae42 523d abd0 7e3e
00000250: 82c2 acbe a77e bd3d f119 31be 067e 90be
00000260: 3de6 e0bd a707 8ebe d20a efbd 315f 193f
00000270: 247d 333e b619 76be 306e 95be 6695 19be
00000280: 12a5 39be 7003 b23d 76ab 0b3f 1758 65be
00000290: 0a74 bb3d 3a7c a7bd f14e 0a3e 7f09 78be
000002a0: f4bc 48bd 5980 c13c b6b6 9cbe 567e 8e3b
000002b0: 0bfd 88bd 8bde 70be 6b8f 1f3e 268e 353e
000002c0: 834b 08bf 72bb f93c e01d 00be e121 6dbd
000002d0: 1bea 39bd 8571 9bbe 3cb9 02be 39f3 bb3d
000002e0: 2321 57bd 692d 90be b2bd a8be 7ba1 ea3d
000002f0: 848a 8e3c 6f11 d2bd 2662 9dbe 1a0e 25bc
00000300: 7d03 abbe f8ab 17be 3c05 67bd 917b 8bbe
00000310: b037 3a3e df52 49be 2175 d9bd cd5c dbbb
00000320: 256c 65bd 0c69 d8be b974 ec3d 3778 23be
00000330: e476 653e a062 22be b4f5 0dbf ada2 c83d
00000340: 5711 92be fced d3bd 51e7 fc3d 5432 b7bd
00000350: 9bb7 1ebe 098c 723c 8090 2ebe 30a2 c13e
00000360: 4753 60be 1ffc 923d e728 afbe 067b 07bf
00000370: fa5a 61bd 4ac4 183e 125c d4be 1f09 d5be
00000380: e479 f8bd 1b27 73be 3f56 b83d 999a e23d
00000390: 263d 443e c6f6 74bc 34f0 f23e d632 00be
000003a0: 2922 a5be a171 f73d 1e02 bebd c0bd e2bd
000003b0: 6026 e8be 5777 c5be d5be 84be c23e 07be
000003c0: 7704 843e 7d73 93be 124c 4c3d 5dc1 6abb
000003d0: 24cd 953d 58ba 413e 470b cd3e ce89 c9be
000003e0: bb73 713e 0770 223e 3b00 903d 54f8 a3bd
000003f0: 8c4a 873d c5b9 72be dab1 a8be b6f9 7dbb

critic.preprocess.model.model.2.bias f4 [64]
0.34533262 -0.06152658 -0.28858024 0.06846175 -0.24040781 0.0104501555 0.030444788 -0.019261507
-0.37162143 -0.3696052 0.28932214 0.30283642 -0.06781659 0.25968492 -0.30378303 0.054035
0.07860889 -0.3107966 -0.09235394 -0.06952119 0.34796274 0.19472513 0.13651742 0.42006132
0.032694113 -0.3678447 0.016073631 -0.25310823 0.28217125 -0.07150058 0.09601253 -0.033240158
0.048060432 -0.27028573 0.06995007 0.33018535 0.23424596 0.4582267 -0.015585342 -0.04272219
-0.3531786 0.30473214 0.24108699 -0.09864035 -0.27619717 0.08884604 -0.05345541 0.4857396
0.25861686 -0.23930767 -0.29447892 0.039809506 0.18526855 -0.5267829 0.24061301 0.46128926
-0.12945533 -0.21094555 0.12863098 0.1210245 0.4948078 -0.13021694 0.030197706 -0.009732265
00000000: 70cf b03e 4c03 7cbd cac0 93be ad35 8c3d
00000010: 772d 76be 2137 2b3c 5967 f93c 4fca 9dbc
00000020: 2a45 bebe e53c bdbe 0822 943e 600d 9b3e
00000030: 6de3 8abd 6cf5 843e 7389 9bbe ce53 5d3d
00000040: b3fd a03d bb20 9fbe 1024 bdbd 2061 8ebd
00000050: 2c28 b23e 0666 473e 39cb 0b3e 4712 d73e
00000060: 43ea 053d 2456 bcbe d9ac 833c 6797 81be
00000070: c078 903e e56e 92bd 38a2 c43d d526 08bd
00000080: 04db 443d e462 8abe fb41 8f3d 0e0e a93e
00000090: 2cde 6f3e b19c ea3e aa59 7fbc 77fd 2ebd
000000a0: d3d3 b4be da05 9c3e 82df 763e f403 cabd
000000b0: b769 8dbe eaf4 b53d 0ff4 5abd dcb2 f83e
000000c0: 6e69 843e 120d 75be f1c5 96be 4b0f 233d
000000d0: 0ab7 3d3e 3edb 06bf 4263 763e 1b2e ec3e
000000e0: f08f 04be 1c02 58be d7b7 033e b1db f73d
000000f0: 7357 fd3e 9757 05be 2e61 f73c 1474 1fbc

critic.last.model.0.weight f4 [1, 64]
0.62898654 0.18402396 -0.40072942 0.38202217 -0.20409696 0.16432828 -0.15892366 -0.7261414
-0.5814567 -0.3362916 0.2489142 0.19166954 0.14509861 -0.2330944 -0.43065706 0.04427318
0.19864789 -0.22960533 0.13901338 0.19429328 0.29292005 0.15512475 -0.39797986 0.30715236
0.27291173 -0.43146214 0.14222817 -0.38466266 0.4345898 0.37453452 0.25579563 0.4966
-0.107647486 -0.37707785 0.18623315 0.34319058 -0.21015164 0.2628384 0.20929821 0.23809254
-0.4013065 0.23409864 0.20528114 -0.06359051 -0.5181444 0.27891228 0.35911047 0.6594746
0.4324635 -0.14934117 -0.51378226 0.071441196 0.14108214 -0.8250601 0.49126247 0.21927106
0.19565496 -0.29122767 0.0061519654 0.25463742 0.5383708 -1.1763232 0.22267027 0.30215138
00000000: 4305 213f c770 3c3e 682c cdbe 6998 c33e
00000010: cbfe 50be ac45 283e e2bc 22be 67e4 39bf
00000020: 59da 14bf 6a2e acbe 5de3 7e3e 0545 443e
00000030: bb94 143e 4cb0 6ebe 157f dcbe cb57 353d
00000040: 5a6a 4b3e a91d 6bbe 8659 0e3e d1f4 463e
00000050: 9ef9 953e 06d9 1e3e 04c4 cbbe 1343 9d3e
00000060: 16bb 8b3e 9be8 dcbe 43a4 113e 81f2 c4be
00000070: 8e82 de3e fdc2 bf3e a5f7 823e 5b42 fe3e
00000080: 4976 dcbd 5910 c1be e7b3 3e3e adb6 af3e
00000090: fe31 57be c192 863e 4552 563e 88ce 733e
000000a0: 0c78 cdbe 8eb7 6f3e 3835 523e be3b 82bd
000000b0: 1da5 04bf 97cd 8e3e 54dd b73e 54d3 283f
000000c0: db6b dd3e e4ec 18be 3c87 03bf c34f 923d
000000d0: d677 103e 2437 53bf c186 fb3e 9888 603e
000000e0: c659 483e cb1b 95be 6d96 c93b d65f 823e
000000f0: abd2 093f c291 96bf ad03 643e 96b3 9a3e

_actor_critic.actor.sigma_param f4 [2, 1]
-1.6099074 -3.1122382
00000000: 7211 cebf e92e 47c0

_actor_critic.actor.preprocess.model.model.0.weight f4 [64, 8]
-0.4106648 -0.018080851 -0.14236611 -0.22967198 0.5131367 0.08225567 -0.10248762 -0.078779615
0.2756655 -0.22991426 0.12566292 0.06392759 -0.3974275 0.2015984 -0.22035536 -0.14005943
-0.31057295 0.0027084239 -0.066710494 0.2845483 0.2138938 -0.2580491 0.394195 -0.053156752
0.13153745 0.14723349 -0.26912513 0.46398243 0.32914424 0.21640976 -0.33598292 -0.6648229
0.33494535 0.2190031 0.04726762 -0.09295903 -0.24589421 -0.14653024 -0.22595717 -0.1969378
-0.16804792 0.24335393 -0.11486728 0.43067327 0.26884145 -0.14911589 0.04602118 0.37235612
0.40874687 -0.02666094 0.2654635 0.16996545 0.07016628 0.28111717 -0.031163087 0.029252172
-0.47390592 -0.45711485 -0.10229321 -0.1042004 -0.17109515 -0.20444213 0.2720734 0.11803296
-0.45492792 -0.17644581 -0.1851631 -0.036004104 -0.7643464 -0.37466583 -0.11766727 0.00046477458
0.39392212 0.47021663 -0.06230417 0.27132455 -0.14682537 -0.21392848 0.20407298 0.30906036
-0.29225957 -0.232805 -0.052164033 -0.20395187 -0.16430873 -0.06777448 -0.20101632 -0.24611044
0.2013665 0.23182823 -0.08331439 -0.3191184 0.118513785 -0.10462416 0.20891207 0.15123463
-0.12997146 -0.24211182 -0.093022235 0.015051692 -0.21341567 -0.13044052 0.04775489 -0.40762347
0.056245856 -0.19402042 0.07264126 -0.04799125 -0.4020916 0.21896301 -0.4079534 -0.048118923
-0.4715964 -0.2494098 0.19811928 0.06448001 0.27620536 0.12282843 -0.056210157 -0.98140496
-0.009397254 -0.26773652 0.27901256 -0.053775046 -0.042650748 0.24154684 0.10519987 0.21845175
0.16436137 0.21183133 0.1839426 -0.108075224 0.060125176 0.28019294 0.23245294 0.21845454
-0.3738477 -0.26464817 -0.12508032 0.10496041 0.07449801 0.04082837 -0.18945654 -0.09885627
-0.34130356 0.25940698 0.09500598 0.076081485 0.095589265 -0.13230325 -0.23415989 -0.056971956
0.16503279 0.2028246 -0.35201946 0.00010217176 0.44511783 0.2527961 0.08354055 -0.36280438
-0.09885603 0.06818361 -0.13605268 0.36761063 0.017314617 0.3144491 0.22615173 0.062434267
0.17397486 -0.09208308 -0.1326428 0.039886553 -0.39157125 -0.16242336 -0.04939589 -0.28735957
-0.35436916 0.37303498 -0.030157965 0.17561528 0.77205074 -0.30346915 0.3232123 0.32155824
-0.10059226 -0.52385247 0.118849754 -0.18216719 -0.32252216 -0.08103921 0.038161777 -0.2919944
0.009160924 -0.14911315 -0.092638314 0.22350429 -0.16999461 0.1630114 -0.15041153 0.14573884
0.351441 0.034201548 0.30012682 0.16235994 0.29456317 -0.22731467 -0.011942685 0.34500992
-0.38760924 -0.11445421 -0.016330238 0.11801159 0.34409368 0.16169511 0.0062136254 0.19444185
0.08094352 -0.032126028 0.19251339 0.11820231 -0.13430099 -0.3190723 0.30778527 -0.53775424
0.30818006 -0.024112519 0.3861802 0.19617118 -0.124260046 -0.5006339 -0.16708653 -0.048966024
0.021490214 0.12238664 -0.25118986 0.27894583 -0.09943015 0.31114438 -0.057763427 -0.71585107
0.09923723 0.1999397 -0.20467855 -0.0565134 -0.08533874 -0.20071845 0.869302 0.114841565
-0.3258027 -0.3551843 0.22535448 0.07931065 0.09900717 -0.12904078 0.056811463 -0.34549522
00000000: a842 d2be 4b1e 94bc 6cc8 11be 222f 6bbe
00000010: ed5c 033f a975 a83d 08e5 d1bd 3557 a1bd
00000020: 0724 8d3e a56e 6bbe c8ad 003e 78ec 823d
00000030: 9e7b cbbe d06f 4e3e d6a4 61be bd6b 0fbe
00000040: 6b03 9fbe d07f 313b 839f 88bd 51b0 913e
00000050: fa06 5b3e 031f 84be edd3 c93e e5ba 59bd
00000060: c1b1 063e 60c4 163e c5ca 89be 1b8f ed3e
00000070: 9885 a83e 859a 5d3e f405 acbe d531 2abf
00000080: f57d ab3e 5942 603e b19b 413d 4e61 bebd
00000090: b1cb 7bbe 060c 16be 5161 67be 10aa 49be
000000a0: c114 2cbe c631 793e 893f ebbd 3581 dc3e
000000b0: 96a5 893e d6b1 18be b480 3c3d 76a5 be3e
000000c0: 4547 d13e 0b68 dabc d5ea 873e 6c0b 2e3e
000000d0: 57b3 8f3d 97ee 8f3e bb49 ffbc 40a2 ef3c
000000e0: cca3 f2be f50a eabe 1a7f d1bd 0567 d5bd
000000f0: 9133 2fbe 4759 51be 344d 8b3e 44bb f13d
00000100: 50ec e8be 36ae 34be 659b 3dbe 0a79 13bd
00000110: 35ac 43bf 33d4 bfbe 8afb f0bd fdac f339
00000120: 29b0 c93e 3cc0 f03e a832 7fbd 0deb 8a3e
00000130: 6459 16be 1110 5bbe 82f8 503e 293d 9e3e
00000140: 0ca3 95be 6f64 6ebe f4a9 55bd c2d8 50be
00000150: 8c40 28be 59cd 8abd 39d7 4dbe 6004 7cbe
00000160: 0533 4e3e 6164 6d3e bca0 aabd 7d63 a3be
00000170: 5bb7 f23d 3145 d6bd 0ced 553e 40dd 1a3e
00000180: 3d17 05be 29ec 77be 7182 bebd 5f9b 763c
00000190: a389 5abe 3392 05be a29a 433d 06b4 d0be
000001a0: 0e62 663d 4aad 46be f1c4 943d 7992 44bd
000001b0: f3de cdbe d737 603e 45df d0be 5918 45bd
000001c0: 1575 f1be 4865 7fbe c8df 4a3e 180e 843d
000001d0: ca6a 8d3e 798d fb3d 9f3c 66bd 5b3d 7bbf
000001e0: f1f6 19bc c314 89be bcda 8e3e 3943 5cbd
000001f0: 8db2 2ebd 0e58 773e 0873 d73d d1b1 5f3e
00000200: 594e 283e 50ea 583e 735b 3c3e 8b56 ddbd
00000210: d145 763d 7375 8f3e 2508 6e3e 8cb2 5f3e
00000220: f768 bfbe f77f 87be 0e15 00be 7cf5 d63d
00000230: 6a92 983d a63b 273d e500 42be 2875 cabd
00000240: 57bf aebe fed0 843e 7f92 c23d 9cd0 9b3d
00000250: 4ec4 c33d 817a 07be 9cc7 6fbe 6d5b 69bd
00000260: 5bfe 283e 40b1 4f3e e53b b4be 0c45 d638
00000270: 7ce6 e33e 7e6e 813e 4f17 ab3d 7fc1 b9be
00000280: 0875 cabd d9a3 8b3d 6551 0bbe 7637 bc3e
00000290: 62d7 8d3c 79ff a03e 5294 673e 13bb 7f3d
000002a0: 7726 323e 0e96 bcbd 84d3 07be 1560 233d
000002b0: 077c c8be 4f52 26be 5853 4abd cb20 93be
000002c0: e06f b5be 71fe be3e d60d f7bc 7ed4 333e
000002d0: 1ea5 453f 4f60 9bbe 157c a53e 48a3 a43e
000002e0: 5103 cebd 321b 06bf 8067 f33d 098a 3abe
000002f0: a021 a5be e3f7 a5bd 864f 1c3d 4a80 95be
00000300: b317 163c 1eb1 18be 28b9 bdbd 4fde 643e
00000310: 1113 2ebe 76ec 263e 7b05 1abe 903c 153e
00000320: 13f0 b33e ec16 0c3d 39aa 993e af41 263e
00000330: fcd0 963e 2dc5 68be 40ab 43bc 24a5 b03e
00000340: b874 c6be f866 eabd fec6 85bc 0fb0 f13d
00000350: 0c2d b03e 6793 253e ab9b cb3b c41b 473e
00000360: b7c5 a53d 9596 03bd 3b22 453e 0d14 f23d
00000370: 3386 09be 725d a3be 0896 9d3e 43aa 09bf
00000380: c7c9 9d3e 9e87 c5bc 69b9 c53e 19e1 483e
00000390: 0d7c febd 8b29 00bf bb18 2bbe 9990 48bd
000003a0: 3f0c b03c d9a5 fa3d f59b 80be fdd1 8e3e
000003b0: 09a2 cbbd 514e 9f3e 5899 6cbd 0442 37bf
000003c0: e43c cb3d febc 4c3e 4197 51be 987a 67bd
000003d0: 14c6 aebd 2389 4dbe 938a 5e3f 0e32 eb3d
000003e0: 9dcf a6be b7da b5be 53c3 663e 9f6d a23d
000003f0: 45c4 ca3d 4423 04be 23b3 683d c0e4 b0be

_actor_critic.actor.preprocess.model.model.0.bias f4 [64]
0.18305662 -0.2589018 0.15958966 -0.093125455 -0.015597294 0.11899618 -0.14903507 -0.06158429
-0.049048956 -0.008011829 0.022056684 -0.011842241 -0.049302816 -0.16101216 0.05254918 0.11643957
0.18167104 -0.0064980653 0.2075836 -0.038227707 -0.083417 -0.1152454 0.18673296 -0.038842376
-0.09950034 -0.10731662 0.06900432 0.009317464 -0.018625177 -0.067374215 0.13856938 0.01329752
-0.04787026 0.0015046558 0.057765223 -0.17582479 -0.0854546 -0.031090094 -0.08598421 0.024635814
0.012189988 -0.08649663 0.21116833 -0.0032786224 0.02973577 -0.024943467 -0.015704636 0.047600538
-0.09618171 -0.03920995 0.014573519 -0.110407606 -0.019197978 0.0054615634 -0.0075801387 0.03057548
0.09192344 0.13334207 0.21910971 -0.14578655 -0.06458905 -0.2607979 -0.11177552 -0.108861
00000000: 3273 3b3e c78e 84be 796b 233e 8fb8 bebd
00000010: cb8b 7fbc 45b4 f33d a69c 18be cf3f 7cbd
00000020: 8fe7 48bd 0c44 03bc 38b0 b43c f505 42bc
00000030: c0f1 49bd 5fe0 24be cf3d 573d df77 ee3d
00000040: f907 3a3e b9ed d4bb cc90 543e a894 1cbd
00000050: 88d6 aabd c805 ecbd ed36 3f3e 2f19 1fbd
00000060: d6c6 cbbd d1c8 dbbd 2352 8d3d 47a8 183c
00000070: d493 98bc 7efb 89bd 22e5 0d3e d7dd 593c
00000080: 9b13 44bd df37 c53a 3a9b 6c3d 6a0b 34be
00000090: d202 afbd a7b0 febc 7d18 b0bd 0cd1 c93c
000000a0: 84b8 473c 2525 b1bd 833c 583e 28de 56bb
000000b0: 6e98 f33c 3e56 ccbc 02a7 80bc c8f8 423d
000000c0: ebfa c4bd 9d9a 20bd c5c5 6e3c 621d e2bd
000000d0: 1445 9dbc eaf6 b23b d062 f8bb 6e79 fa3c
000000e0: 5b42 bc3d d38a 083e 4c5e 603e 1249 15be
000000f0: 4447 84bd 4d87 85be 90ea e4bd 84f2 debd

_actor_critic.actor.preprocess.model.model.2.weight f4 [64, 64]
-0.33227763 0.38807297 -0.25535038 0.3405109 0.13961612 0.46343037 0.6448907 -0.28324863
-0.28713992 0.26154178 -0.32255828 0.037294723 -0.26597962 0.09282801 0.16609712 0.10777016
-0.057316843 -0.03512182 -0.26240963 -0.02320088 0.50739986 0.32616907 -0.32585704 -0.07658193
0.41779038 0.23823874 -0.46718258 -0.06277299 -0.19745107 0.26089063 0.019840771 -0.12701586
0.19103678 -0.1956058 0.122857 0.24156907 0.38608438 0.07990532 0.120412834 -0.19266479
-0.09223209 0.34401897 0.02737189 0.273774 -0.1126888 0.29594165 -0.3952168 -0.073420554
0.31803086 0.33935618 -0.1789228 -0.026261695 0.14826348 0.1358901 0.18976352 0.11552793
-0.19749764 -0.3608177 -0.16458425 0.5072157 -0.4583015 0.16869183 0.43137863 0.24634212
-0.019035656 0.048323356 0.053015005 0.33752114 -0.09569626 -0.29606748 0.12523451 0.06518058
-0.17043436 0.19996814 0.04843338 0.1484388 0.49407214 -0.008688902 -0.39577535 0.0734674
-0.2849472 0.048154246 0.14257684 0.09862019 0.3597728 0.2643722 -0.069729224 -0.36817
0.29807502 -0.17278516 0.10979704 0.34766662 0.012353735 0.040236507 -0.045401014 -0.11205442
0.22586536 0.038678743 0.24590251 -0.3065878 -0.06319144 0.19044764 -0.16339633 0.21379925
0.045301635 0.2697511 0.17104688 0.092468485 0.114503734 0.14862357 -0.3146797 0.028131774
0.20913927 -0.33112854 0.20362829 -0.22274132 -0.15631922 0.22687908 -0.10474879 0.12448199
0.029715551 0.18283424 0.10533892 -0.3655172 0.26873413 0.0933443 -0.09411439 0.12535669
0.052668255 -0.045653813 -0.14230116 -0.6575715 -0.106308624 -0.04736431 -0.028573606 0.24416932
0.25541922 0.08473086 -0.181491 0.17648251 -0.46039444 -0.2076564 0.014112661 0.15983476
0.58323723 -0.4739681 -0.12899303 -0.6001651 0.01160719 -0.113571495 0.16172381 -0.56590086
0.16292508 0.07823007 -0.081544295 -0.2594832 0.078060724 -0.6851991 0.16366762 -0.45914602
-0.5750213 0.30423966 -0.11132619 0.1679349 0.70337147 -0.11795926 0.25169802 0.28403175
0.69991565 0.040896926 -0.17191462 -0.73522997 -0.31820685 0.0760669 -0.38363138 -0.28211465
0.38737622 -0.06285772 0.016982088 -0.4420211 -0.3632905 0.5302398 -0.014055115 0.03800306
-0.15345156 0.031396974 0.38094693 0.24421829 -0.14654069 0.17051002 0.19179413 -0.0742891
0.06417037 -0.15452349 -0.457356 -0.1917395 0.0016516958 -0.2117342 -0.0258899 0.0019229936
-0.22192624 0.19734499 0.1011098 -0.058429636 -0.2350807 -0.26622185 -0.0370877 -0.030425748
-0.14564937 -0.14968203 -0.009565353 0.15336221 0.027383508 0.046265226 0.011217483 0.06015522
0.26053202 -0.07744179 0.06548175 0.09900219 -0.013171285 -0.04163862 -0.057052393 -0.15738924
-0.060712975 -0.2338011 -0.33871287 0.047636125 0.004937965 -0.056106165 -0.14352146 0.22395764
-0.24504796 0.13499211 -0.20527838 0.088851646 -0.16161317 0.25707617 -0.17939857 0.15221252
-0.32253456 -0.09985199 0.35566092 0.061688084 0.022353701 -0.29412913 -0.1329767 -0.19679041
0.21649309 0.09001279 -0.015059663 0.115008295 0.07025669 -0.24598749 0.14164135 0.045550562
00000000: 4b20 aabe 80b1 c63e 49bd 82be 7257 ae3e
00000010: 87f7 0e3e bf46 ed3e 8f17 253f f705 91be
00000020: 0104 93be cee8 853e 5c26 a5be 5ac2 183d
00000030: 7b2e 88be 9d1c be3d 5d15 2a3e 9ab6 dc3d
00000040: 11c5 6abd e6db 0fbd 8e5a 86be c60f bebc
00000050: f5e4 013f a2ff a63e bcd6 a6be fdd6 9cbd
00000060: 9fe8 d53e dbf4 733e 8e32 efbe 208f 80bd
00000070: 9d30 4abe 7593 853e 1d89 a23c 7210 02be
00000080: 259f 433e e34c 48be 739c fb3d e25d 773e
00000090: daac c53e 67a5 a33d 019b f63d eb49 45be
000000a0: 2ee4 bcbd 4123 b03e 043b e03c 1b2c 8c3e
000000b0: 63c9 e6bd aa85 973e db59 cabe 845d 96bd
000000c0: f1d4 a23e 18c0 ad3e 8a37 37be c422 d7bc
000000d0: 62d2 173e c626 0b3e 5e51 423e e899 ec3d
000000e0: d23c 4abe 19bd b8be c688 28be e3d8 013f
000000f0: 7fa6 eabe 8dbd 2c3e a9dd dc3e 1c41 7c3e
00000100: aaf0 9bbc b6ee 453d 4326 593d 92cf ac3e
00000110: 67fc c3bd 2896 97be 7a3d 003e 657d 853d
00000120: 5886 2ebe 73c4 4c3e 1462 463d 5700 183e
00000130: 06f7 fc3e e55b 0ebc 11a3 cabe 1476 963d
00000140: 99e4 91be 633d 453d aaff 113e 62f9 c93d
00000150: 2434 b83e cb5b 873e 32ce 8ebd c780 bcbe
00000160: 4a9d 983e 98ee 30be 45dd e03d 5c01 b23e
00000170: 5267 4a3c 09cf 243d 6af6 39bd ca7c e5bd
00000180: 4049 673e 9a6d 1e3d decd 7b3e 13f9 9cbe
00000190: 846a 81bd b504 433e 5e51 27be 31ee 5a3e
000001a0: 358e 393d d11c 8a3e ea26 2f3e 1e60 bd3d
000001b0: ef80 ea3d c730 183e b31d a1be 9b74 e63c
000001c0: 9b28 563e ae89 a9be ef83 503e 4d16 64be
000001d0: 2512 20be fd52 683e 8986 d6bd 6af0 fe3d
000001e0: 076e f33c e638 3b3e efbb d73d 1225 bbbe
000001f0: 8597 893e 4c2b bf3d 0cbf c0bd 815d 003e
00000200: abba 573d 7eff 3abd 65b7 11be 9b56 28bf
00000210: 56b8 d9bd 1401 42bd 3213 eabc 8607 7a3e
00000220: 4fc6 823e 6087 ad3d c7d8 39be d5b7 343e
00000230: d2b8 ebbe e1a3 54be ca38 673c b9ab 233e
00000240: 094f 153f f2ab f2be c016 04be 6ca4 19bf
00000250: 152c 3e3c 2c98 e8bd ed9a 253e e1de 10bf
00000260: d5d5 263e 1637 a03d b200 a7bd fbda 84be
00000270: 4dde 9f3d 3569 2fbf 7c98 273e 3015 ebbe
00000280: 9934 13bf 4dc5 9b3e fcfe e3bd 20f7 2b3e
00000290: 2710 343f a094 f1bd 90de 803e 9c6c 913e
000002a0: ac2d 333f 8983 273d 630a 30be 0838 3cbf
000002b0: 02ec a2be f6c8 9b3d 556b c4be 5571 90be
000002c0: 2d56 c63e 8cbb 80bd 051e 8b3c 9750 e2be
000002d0: 3601 babe ccbd 073f 6d47 66bc 19a9 1b3d
000002e0: 6822 1dbe 1d9a 003d 7a0b c33e 5c14 7a3e
000002f0: c30e 16be 2e9a 2e3e ae65 443e e224 98bd
00000300: c16b 833d 683b 1ebe 912a eabe 5c57 44be
00000310: b77d d83a dad0 58be 0e17 d4bc f50c fc3a
00000320: a240 63be ce14 4a3e a812 cf3d ea53 6fbd
00000330: ffb8 70be 3b4e 88be 46e9 17bd 6b3f f9bc
00000340: 1c25 15be 3f46 19be 00b8 1cbc fc0a 1d3e
00000350: 6153 e03c 9b80 3d3d 89c9 373c 5265 763d
00000360: 7464 853e cd99 9ebd 4c1b 863d a9c1 ca3d
00000370: 60cc 57bc 428d 2abd c5af 69bd a52a 21be
00000380: 2bae 78bd 8e69 6fbe c66b adbe 191e 433d
00000390: a7ce a13b 94cf 65bd 4af7 12be 2755 653e
000003a0: daed 7abe 5f3b 0a3e 7f34 52be daf7 b53d
000003b0: ec7d 25be 7d9f 833e 42b4 37be 99dd 1b3e
000003c0: 4023 a5be 337f ccbd 3019 b63e a5ac 7c3d
000003d0: 1c1f b73c 1898 96be 0b2b 08be 6d83 49be
000003e0: 5db0 5d3e a058 b83d cebc 76bc 7889 eb3d
000003f0: bde2 8f3d 25e4 7bbe 6e0a 113e 3a93 3a3d
