results/Ant-v3/ppo/7/220623-152203/policy.pth (torch, 103972 bytes, 24 tensors)

actor.sigma_param f4 [8, 1]
00000000: 7f54 4cc0 5fba 50c0 e703 4dc0 4bb4 42c0
00000010: 7a9e 4ac0 7f18 46c0 3a05 4dc0 00c0 43c0
-3.1926572 -3.2613752 -3.2033632 -3.0422542 -3.1659226 -3.0952451 -3.203444 -3.0585938

actor.preprocess.model.model.0.weight f4 [64, 111]
00000000: ae04 58be e47d 3f3e b13f 123e a344 f6bd
00000010: c6d7 8dbe 882a 51bd 585c 9bbe a3d0 bf3e
00000020: 2ae9 0c3e 8652 81bd f8fb cebc 3141 47bc
00000030: 95c5 45bd 4a81 be3e 35ba 2c3e 9235 fc3d
00000040: eeab 90bd d36b 303c b295 d8bd 6431 96bd
00000050: febc 07be d2e4 d03c 673c 93be 0306 35bc
00000060: c4c7 863e 173a d9be f0ae b1be af32 203d
00000070: efdd 98bd 3210 dc3b a4d1 943d 0291 36bd
00000080: 9090 e73d 1ce5 d03c 959d 233e 04fe 1539
00000090: a77b 1cbe 23ef 7b3d 6e5a 3f3e 7aed af3d
000000a0: 8966 ccbd 7548 07be ea3e 593e 6fc5 74be
000000b0: b669 573e 99b2 1f3d 990a fcbd b1d1 32be
000000c0: deb0 56bd d9dc 2338 2a9c 7c3c a20d f23c
000000d0: 1a22 02bd 79a7 d53d 9f09 94be 8ad0 a03d
000000e0: 2a89 2fbe e74c ba3c 6202 2dbe 7069 d03c
000000f0: bda3 d73d c689 ab3d f5c3 b33d 14ad 9f3c
00000100: 0525 9f3e 8d8e 82bd bedb c33c c355 d73c
00000110: 097c d43d 5800 963d f171 40be 309f 6fbe
00000120: 364e 0fbd e261 69be 3099 743c e3a1 4abe
00000130: f872 16be fbd8 92be cfa3 c53d 55b3 dc3b
00000140: 0b4b 5e3e 59ca 853e 2e41 c63d 8dec e2bc
00000150: b774 81bd 8e7b 123d bb18 68be 2d77 81bd
00000160: 0254 75be 1b87 99bc 45f0 5a3e e864 9c3d
00000170: 7017 e63c 7444 893e b4ab 943d 4e9b 0bbe
00000180: b0bb f3bc b0c4 2d3e af59 2fbd 3bbd fa3d
00000190: 9075 03bc 2ddf 09be 9bde 4abd 9d79 9d3e
000001a0: b78d 833d 9d2a c43d 9e4c 56bd ce61 0abe
000001b0: dd66 3d3e 7937 01bc 86f9 14be cab9 333e
000001c0: 29d1 38bd fc3a 8ebd bced 8b3e 5c44 d4be
000001d0: aa03 803e 0cdd 9ebe ad7f bc3c 9ac8 30be
000001e0: 4dbe a53d 2353 44bb 9992 70bd 872d 75be
000001f0: 2eba 1b3e 0a38 c03d 5fa2 893e ae1b bd3e
00000200: 8b09 49be 1945 013f 5a5b c2bd 3699 1dbe
00000210: 813e b43c c6f6 293c b99e 17be 1e2f 38be
00000220: 3354 d0be 313d 91be 94d2 04be 5992 723e
00000230: 8aaf cdbe 69ef c6bd 5e91 12be 48d9 3abe
00000240: a0f8 16be 35f1 8b3d c50a 70b8 0643 31be
00000250: 9a9c 2f3e a1a6 cabd df1c cabc e764 153d
00000260: 4cd7 783d 2450 74be 1fbb aa3e ffb6 8dbd
00000270: c9ad 8dbc 7392 a7bd 52bb ed3a eff1 7bbd
00000280: 9bf0 10be 0e45 3ebd fc66 4ebe f046 0ebe
00000290: ae26 8e3e a29c bc3d e736 fe3c 8a38 5cbe
000002a0: bc8a 423d 942d fa3c 1842 6abe fb65 92bd
000002b0: 2303 c3bd 7496 ba3d 5994 82bd 59de 12be
000002c0: b2d7 ddbb 175f 123e a2f6 c03d 4b88 743e
000002d0: 6646 d23d 0b5e 01bc 2ee7 c93a 141b 69bd
000002e0: b0d0 11bc f959 e0bd 21b7 46bd 6c5c a8bb
000002f0: 2964 cabd 8d4f e13d 6fe8 053e 6bcb 6f3e
00000300: 7f35 d8bd 92ec 263e df95 b43c 327e febc
00000310: c184 793d 176b fbbd a04d 97bd d6c6 9f3d
00000320: 2194 ab3d 72e6 483e f903 b9bd f47c 0f3e
00000330: c59e 853d c8f2 cdbd 1dbc 0bbd fd7f e5bc
00000340: cf46 453d b389 063c 4797 343d 887f eabd
00000350: 55cd b8bd a0cf 0d3d 2b4a 933d 0efa 2ebe
00000360: e707 e33d 3db8 0b3c 317c fa3d 3189 85be
00000370: 9ae0 bcbd e26a dc3c 4525 80bd 1d83 6abd
00000380: 6d8b e43d 05eb a23e 2080 0abe d655 0e3e
00000390: fd70 f23d d8d4 9cbc dc6e 91be e0f8 cb3e
000003a0: c479 0d3e 48d4 c83b 7b12 113f a0d1 3f3e
000003b0: 8cfd 053d 5b8b 74bd a427 693d b39d 69be
000003c0: a7b1 dcbd 7850 653e d466 5ebe 3ff2 18be
000003d0: 537a 87bc 9663 65bb 24a2 49bd 0a59 eabd
000003e0: da50 80be 22fe 4e3e 9314 1ebd cea1 6dbc
000003f0: 1665 503e 9fa5 80be db90 003e 9008 bbbd
-0.21095535 0.18700367 0.14282109 -0.1202481 -0.27703685 -0.05106595 -0.3034389 0.37463865
0.1376082 -0.06314568 -0.025266632 -0.012161539 -0.048284132 0.37208015 0.16867907 0.12314905
-0.07064043 0.010767895 -0.10575427 -0.07333639 -0.13255689 0.025499735 -0.2875702 -0.011048797
0.26324284 -0.42427132 -0.3470378 0.039110836 -0.074642055 0.006715798 0.07266548 -0.044571884
0.1130687 0.025499873 0.15978082 0.00014304376 -0.15281545 0.061507355 0.1868684 0.08590217
-0.099804945 -0.13211234 0.21215406 -0.2390344 0.2103642 0.038988683 -0.12306709 -0.17462803
-0.052414767 3.906791e-05 0.015418092 0.029547516 -0.031770803 0.104323335 -0.2891359 0.07852276
-0.17142168 0.022741748 -0.1689544 0.025440902 0.105292775 0.083758876 0.0877761 0.01949171
0.3108293 -0.06374846 0.023908492 0.026286012 0.1037522 0.07324284 -0.18793465 -0.23400569
-0.034986697 -0.22791246 0.014929101 -0.19788317 -0.14692295 -0.28681168 0.09650385 0.006735245
0.21708314 0.26130942 0.09680401 -0.027700687 -0.0632109 0.035762362 -0.22665684 -0.06321559
-0.23957828 -0.018741181 0.21380718 0.07636434 0.028087348 0.26810038 0.07259312 -0.13633463
-0.029752582 0.16969562 -0.04281014 0.12243124 -0.008023635 -0.13464041 -0.0495287 0.30756846
0.06423514 0.0957844 -0.05231916 -0.13513872 0.1849627 -0.007886761 -0.1454831 0.17551342
-0.045121346 -0.06944844 0.27329814 -0.41458404 0.25002795 -0.3102802 0.0230101 -0.17264023
0.080929376 -0.002995678 -0.058733556 -0.23943149 0.1520774 0.093856886 0.26881692 0.3693518
-0.19632547 0.5049606 -0.0949008 -0.15390477 0.02200246 0.010373777 -0.14806642 -0.17986724
-0.4068924 -0.28366998 -0.12970954 0.2368864 -0.40172988 -0.097136326 -0.14313266 -0.18246949
-0.1474328 0.06833116 -5.723049e-05 -0.17310724 0.17149583 -0.09895063 -0.02467197 0.03647318
0.060752198 -0.23858696 0.33345887 -0.06919669 -0.017294781 -0.0818223 0.0018137491 -0.061510023
-0.14154284 -0.046452574 -0.20156473 -0.13894248 0.27763885 0.09209563 0.031032039 -0.21505943
0.04749559 0.030539311 -0.22876775 -0.071483575 -0.09522083 0.09110728 -0.06375951 -0.14342631
-0.0067700977 0.14294086 0.094220415 0.23880117 0.10267334 -0.007895957 0.001540398 -0.05691059
-0.008899853 -0.10954661 -0.04851449 -0.0051379707 -0.09882385 0.11001501 0.13076948 0.23417442
-0.105570786 0.16301182 0.02204412 -0.031066034 0.06091762 -0.12276285 -0.07387853 0.07801597
0.08377863 0.19619158 -0.09033961 0.1401251 0.065244235 -0.100560725 -0.034114946 -0.028015131
0.04816323 0.008211541 0.04408958 -0.11450106 -0.09023539 0.034621835 0.07191881 -0.17087576
0.110854916 0.008527813 0.12230719 -0.2608123 -0.09222527 0.026906434 -0.062571086 -0.057253946
0.11159406 0.3181993 -0.13525438 0.13899931 0.11837957 -0.01914446 -0.28404891 0.39838314
0.13815981 0.0061288215 0.56668824 0.1873231 0.032712504 -0.059703212 0.05692257 -0.22814064
-0.10776072 0.22393978 -0.21718913 -0.1493616 -0.01653782 -0.0035001985 -0.049226895 -0.11442764
-0.25061685 0.20214131 -0.03859384 -0.014503909 0.20351061 -0.2512636 0.12555258 -0.091324925

actor.preprocess.model.model.0.bias f4 [64]
00000000: 3573 b2bd 2cab 8fbd beec d9bd 4a13 db3d
00000010: ca33 e1bd 6bfb 94bd 72a3 103d f659 823d
00000020: 4a47 4abe 9286 613e 2b75 283c cdd3 2f3c
00000030: a3ee d23d 62b0 293e 311e e53c ed01 3bbe
00000040: a7a7 bdbd c654 e4bc 5507 7ebe 65dc 1ebd
00000050: cc0b b83d 9f77 3f3d f073 f93d 8279 873b
00000060: 8237 973d 8a6f 983e 689f 673e bdaf d03c
00000070: 0866 91be 13cf 08be b4ee 00be 28b5 4abd
00000080: 687d a73d b60c 903c 5fa4 e5bc 1ddb 8d3d
00000090: 7592 16bd 7fcd ad3d ce0d e83d 39f3 9e3d
000000a0: ec28 87bd 7e73 d4bc e99b 7e3d 6981 173e
000000b0: c21c 703d 8653 803b 17d6 413d 08ed 053e
000000c0: 0589 0c3e a58f cf3d 920b ecbd 6e89 adbc
000000d0: 9dcf 61bd 6456 213e 1364 343d e77a 03bc
000000e0: 57c9 ba3d 19a9 c9bd 5246 203e cf95 ac3c
000000f0: 5675 c6bc c084 0f3e 8f23 4a3d 80fb 1f3e
-0.0871338 -0.0701507 -0.10640858 0.106970385 -0.10996206 -0.07274517 0.035312124 0.06364815
-0.19753757 0.22023991 0.010281841 0.01073165 0.102994226 0.16571191 0.027968498 -0.18262453
-0.09260493 -0.027872454 -0.24807484 -0.038784403 0.08986625 0.04674494 0.121803164 0.004134358
0.07383634 0.29772598 0.22619402 0.025474424 -0.28398156 -0.13360243 -0.12591058 -0.04948917
0.08178216 0.017584186 -0.02803248 0.06926558 -0.036760766 0.08486461 0.11330758 0.07761235
-0.06599602 -0.025933977 0.062160406 0.1479546 0.058621176 0.003916207 0.047323313 0.13078701
0.13724144 0.1013482 -0.11525644 -0.021183696 -0.055129636 0.15755612 0.04404075 -0.008024908
0.09120434 -0.09846706 0.15651825 0.021067528 -0.024225872 0.14015484 0.049350318 0.15623283

actor.preprocess.model.model.2.weight f4 [64, 64]
00000000: fcc2 9bbe 2f16 3bbe e0bd 2b3e 35c8 ba3d
00000010: 32de 093f f544 223e fa5d 193d 6a8d 343e
00000020: 20bd 26bd 3ae4 c3be fb25 06be 318d 2fbd
00000030: e2b1 31be 2262 7b3d a722 4fbe 98c0 3e3e
00000040: a861 953e 9310 0dbd 349b 93be aa50 dd3e
00000050: 24d5 d9be fc09 a5be 63c7 bbbb f58a 3d3e
00000060: 3c73 9dbe 81dd eabe 8c40 10bf cb43 ae3c
00000070: 62fc 193e 27e2 abbc 49f8 b53d 6f7f 10be
00000080: 0596 c8bd ee81 cf3e e5f7 0bbd 7975 863d
00000090: 3a74 103f 8181 8ebe 7988 2ebe f157 f63d
000000a0: 4235 7a3d 31b6 a3be 1a2c 07bd 7003 1f3c
000000b0: 6ddf c3ba 265d 3fbe 1e08 88be 431a 2a3d
000000c0: ec92 4dbd 5e92 56be 65da 9bbc 4eb4 8bbb
000000d0: cceb edbe 73c2 84be 376c 693e 3957 1a3c
000000e0: c03f 47bd b15f d9be 51b5 41be d0b4 31bd
000000f0: 87d5 17bf d525 77bd 772b d8ba fd7e 12be
00000100: 249a 933c e257 a13d 1799 f3bd 9d83 7ebe
00000110: 1717 213e 61b5 7bbd 5157 d53c 810d 123e
00000120: e8a0 47bb c804 223e 7c2f 4abe 1440 c2be
00000130: 534a 8abe 29ad f0be 21b2 363d 3139 043d
00000140: b810 41bd f0bb 5cbd ffde dcbc eca2 6d3d
00000150: e0c4 75bd c672 3ebe 3714 25bb 4140 83bd
00000160: 82d0 08bc 6082 d5be 8cce ae3e 7336 eb3e
00000170: 7164 743d d7b3 b0be 8ac7 e73e e51b 323e
00000180: 7da8 e1bd fe67 f3be 580f 12be be3f d93d
00000190: 3c74 cf3e 707f 1abf 63af 98be 3641 7a3d
000001a0: a660 fdbd 1bf5 c1bd 62f6 edbd 7598 dfbe
000001b0: c56e dcbe a443 863e 4f90 353e eec9 21be
000001c0: c0fc 1dbe 7eb0 f13d 5bf6 883b d558 85be
000001d0: 25cf 6bbe 6ca7 2dbe fc5a c5be dc00 943e
000001e0: 07d3 61be 6dbc 2e3d db4d 0ebe d993 0fbd
000001f0: 7eb5 2a3e a7bf 353e 8e46 743e 8ebf 303e
00000200: 17be 41bd f1c8 4bbe 1fb6 9dbd 97e1 273e
00000210: 3fc5 42bd 9e32 04be 6045 5c3e 6092 d3be
00000220: e6f0 b73e 33e8 ec3b 74e7 b73d 6336 4b3e
00000230: b81d a23d 0da0 b9be 7ae8 813e 4013 04be
00000240: 03bf 77bc 52d4 823e a911 893e fcf3 b93d
00000250: a884 2b3e 0441 c53e 444e 74be fe11 9ebe
00000260: 786d 133c 903c 3ebd d327 22be a41b 9a3d
00000270: 94cb b13d 971e a5bc 4005 853e 574d 8c3e
00000280: 5252 a2be 8e58 0cbe 2757 04be 888d eb3d
00000290: 7a58 d23e 3640 093f 2a61 343e 9662 f23c
000002a0: 4630 c0be 9003 48be 7199 96be bcf5 3dbc
000002b0: ca24 c1be 8360 9d3e 93a0 76be 8b63 45be
000002c0: 3799 bdbd 660f 083e 656d 433e 5797 cbbd
000002d0: 6691 9dbe ecb7 1a3e 107e 9dbe ac3c 9fbe
000002e0: eab2 933b 0f25 173d b1a6 cebd 1658 64bd
000002f0: 48bb 2d3d 87c6 86be fc34 c8be a0ea 523c
00000300: bd05 93bd 28e0 bdbd df2c ce3e baba a5be
00000310: bc1a a6bb 49f2 05bf e7f7 b6bc a03b 283e
00000320: 0595 643c f8b6 b33e 789a 683d 1c9a d03b
00000330: 2ebe dfbc 6fdd eb3b c67b 37be 2f68 783d
00000340: aaf0 213e 023f 08bd ba7b cb3e 2968 ab3e
00000350: 349a adbe 1675 973e 4ee6 ba3d afed 8a3d
00000360: ac98 3bbe 1ff2 003e 0866 d2be 24da 40bd
00000370: 7ea9 7b3e 6f31 82be 51c8 b5be 4d80 943e
00000380: 6cc8 b53e b7f9 6ebe 890e 97be f14d 4f3e
00000390: a7b0 b1be be74 3a3e 369d aebd c80e 62bc
000003a0: 93b8 033e 0161 ff3e 52e7 53be d7fd 103e
000003b0: 6592 59bd 67f5 953e d0b8 28be 6590 1ebc
000003c0: b6ab 54be 4e9e 573e 5acb e93e f67c 2fbe
000003d0: fbdd a23d 6015 83be ae53 76bc 764a 8a3e
000003e0: e1a5 b93e 5881 133e 32a2 cdbd cdef baba
000003f0: 1785 8b3e 29b5 8f3d 070f 8d3d 8cdf ff3e
-0.304222 -0.18270181 0.1677165 0.09120218 0.5385467 0.15846618 0.03744314 0.1763207
-0.040707707 -0.3826006 -0.13100426 -0.04285926 -0.17353013 0.061372884 -0.20228063 0.18628156
0.29176068 -0.034439635 -0.28829348 0.43225604 -0.42545426 -0.3223418 -0.005730556 0.18510039
-0.3075198 -0.4587212 -0.5634849 0.02127256 0.15037683 -0.020981861 0.08885247 -0.14111112
-0.09794239 0.40528816 -0.034171958 0.06565375 0.5642735 -0.2783318 -0.17044248 0.12028492
0.061085947 -0.3197494 -0.033001043 0.009705409 -0.0014943905 -0.18687877 -0.26568693 0.04152895
-0.050188944 -0.20954272 -0.019025037 -0.0042634374 -0.4646896 -0.25929603 0.22795187 0.00942021
-0.04864478 -0.4245582 -0.18916823 -0.043385327 -0.5931019 -0.060338814 -0.0016492446 -0.14306255
0.018017836 0.078780904 -0.11894434 -0.24854894 0.15731464 -0.061452273 0.026042612 0.14262964
-0.0030460898 0.15822136 -0.19744676 -0.37939513 -0.2700983 -0.4700711 0.04460347 0.032281104
-0.047135085 -0.05389017 -0.026961802 0.058016703 -0.060002208 -0.1859847 -0.002518905 -0.0640874
-0.008350493 -0.4170103 0.34141958 0.4593998 0.0596661 -0.34512207 0.45269424 0.17393453
-0.11018465 -0.47540277 -0.14263666 0.10607861 0.40518367 -0.60350704 -0.2982131 0.061097346
-0.1237195 -0.09470578 -0.116192594 -0.43671003 -0.4305326 0.2622348 0.1773083 -0.15799686
-0.15428448 0.11801241 0.0041797585 -0.26044336 -0.23028238 -0.16958398 -0.38545978 0.28906906
-0.22053157 0.042660166 -0.13896887 -0.035053108 0.16670796 0.17748891 0.2385504 0.17260572
-0.047300424 -0.19900872 -0.077007525 0.1639465 -0.04755139 -0.12909934 0.2151084 -0.41322613
0.35925978 0.0072298287 0.08979693 0.19844966 0.07915825 -0.36254922 0.25372678 -0.12897968
-0.015121224 0.25552613 0.26771286 0.090797395 0.16749823 0.38526165 -0.23857981 -0.30873102
0.008998267 -0.046444476 -0.15835504 0.07524803 0.086814076 -0.020156188 0.25980568 0.27402756
-0.3170343 -0.13705656 -0.12923871 0.11501604 0.41083127 0.53613603 0.1761519 0.029588025
-0.3753683 -0.19532609 -0.29413942 -0.011594232 -0.3772338 0.30737695 -0.24084692 -0.19276254
-0.09257739 0.13287124 0.190847 -0.09940975 -0.30774993 0.15109223 -0.3076024 -0.31100976
0.004507412 0.036900576 -0.100903876 -0.055748068 0.042414933 -0.2632334 -0.39102924 0.012873322
-0.07178829 -0.0927127 0.4026861 -0.32369024 -0.005069105 -0.5232282 -0.022335006 0.16428995
0.013951545 0.35100532 0.056787938 0.0063660275 -0.027312364 0.007198028 -0.1791831 0.060646232
0.15814462 -0.033263214 0.39742833 0.33477905 -0.3390671 0.29581517 0.091259584 0.06783616
-0.18319958 0.12592362 -0.4109347 -0.047083035 0.24576375 -0.2542834 -0.35504392 0.29004136
0.35504472 -0.23337446 -0.29503277 0.20244576 -0.34705088 0.18208596 -0.08526079 -0.013797469
0.12863378 0.49878696 -0.2069371 0.14159332 -0.05311813 0.2928879 -0.1647675 -0.009677981
-0.20768628 0.21056482 0.45662957 -0.17137513 0.07952496 -0.25602245 -0.015034599 0.27009934
0.36259368 0.1440481 -0.10040702 -0.001426214 0.27249977 0.070169754 0.06887632 0.4997524

actor.preprocess.model.model.2.bias f4 [64]
00000000: 05aa 15be 3090 4cbd a5d7 6bbb 18d4 41bd
00000010: 8537 023e bcb5 68bd 86ba 743d 9e89 a7bd
00000020: 04da 8f3e 4931 33bd 5933 233d 49bf b2bd
00000030: e995 ac3d 7c2e 4cbe dadf 6bbd 53cc e7bc
00000040: 7327 f2bd 8b70 80be 68e5 3cbd df7c 093d
00000050: 4b55 083e 26af 3a3c fea0 ddbd 872b 58bd
00000060: 3f76 243e 448e 88be df42 e03d bcc2 0dbc
00000070: 7790 783d 1f1e 5abd cad1 e33a d3ce 8a3d
00000080: 97c2 46bd 70ed fa3d ec05 05be 8042 7dbe
00000090: 1dfc 73bd f6ba 05bd 299b 5f3d 16a2 8bbb
000000a0: 5f87 e93d 3079 c83c 3712 de3d c666 c6bd
000000b0: 0c81 6b3d de58 ea3d 0f93 80bd 3694 09bd
000000c0: 6e28 59bd a911 e0bd 2e06 34be 0037 68be
000000d0: d0e5 213d 9d45 cd3d 4b2f 0c3e 1668 ecbb
000000e0: 4834 9a3d 5b00 dcbd 9e55 6b3d 6475 e93b
000000f0: 2d99 2fbd 6e5e b3bd 72f4 dfbd 6779 c7bd
-0.14615639 -0.049942195 -0.0035986688 -0.04732141 0.12716492 -0.05681394 0.059748195 -0.08180545
0.2809602 -0.043748174 0.03984389 -0.08727891 0.084270306 -0.19939607 -0.05758653 -0.028295672
-0.118239306 -0.25085863 -0.046117216 0.033566352 0.13313787 0.011394298 -0.108217224 -0.052775886
0.16060732 -0.2667104 0.10950255 -0.008652385 0.060684647 -0.053251382 0.0017381248 0.0677773
-0.04852542 0.12252319 -0.1299054 -0.24732399 -0.059566606 -0.032649003 0.05459133 -0.0042612655
0.11402773 0.02447185 0.10843318 -0.09687571 0.057496116 0.11442731 -0.06278049 -0.03358861
-0.053017072 -0.109408684 -0.17580482 -0.22677231 0.039525807 0.10023043 0.13689916 -0.0072145564
0.07529503 -0.10742255 0.057454698 0.0071245898 -0.04287069 -0.087582454 -0.10935296 -0.097399525

actor.mu.model.0.weight f4 [8, 64]
00000000: a2fe 903d b849 d8bd 859c 16bd 9e22 2c3d
00000010: 79ab 053d 6da8 d13d af06 a8bd 49a0 523d
00000020: 569e 52bd 7a31 94bd 78cf 0f3a 0531 403c
00000030: 88b0 84bc c270 383d c853 733c cb74 26bc
00000040: 0b88 1c3c 426d 673d 31f9 703d 66d9 07bd
00000050: 3e46 8cbd 0532 a73c 60ff a2bc 7a89 b3bc
00000060: a161 143e 036d 1c3e bd9b 913c e5f6 403d
00000070: a0e3 c0bc 5d90 763c d17b 97ba c28c c63d
00000080: a29f 763d 659d cdbc 15ea d33c f699 813c
00000090: 5610 35bd 44a4 fdbc 1d99 013e a56b f7bd
000000a0: 9b90 d3bd 6608 4abd 4860 f43b 34fb 27bc
000000b0: 0960 9a3d 3a5e c4bd 5a6b 463e f531 fa3c
000000c0: 95db b6bd 3300 673d 0630 253d 7c2f 9ebc
000000d0: f971 8e3b f0db f33d 808e 17bc b343 1ebe
000000e0: af2b dbbc 893c 11ba 57a6 9539 445a 8a3d
000000f0: 478b 133e facd 143d 3ce2 a9bd 34ce a6bc
00000100: 06b0 51bd 9cc6 c63d bfd0 28bd 8331 ba3c
00000110: ee3a 52bc 471d 3c3e ef22 de3d 6b0d a0bb
00000120: 5d69 f9bc 4bde 90bd 070b 98bd 8670 803d
00000130: a8a7 21be 8848 91bc 15cb b7bd 4688 d4bc
00000140: 770d 32bc 6056 0dbe 64d4 87bc f63c 97bc
00000150: 8a57 be3b 0559 18bd d00e ff3d f21c bd3b
00000160: 92aa 843d 40a5 b43d b6ea 90bb 96ae a8bd
00000170: 5ee2 d33c bd12 0f3d fa88 52bd b5be cdbc
00000180: ad78 ed3c aff0 6a3d 385a cebd 84a6 343d
00000190: 34f1 09bd 2a24 8cbd 3711 013a 6474 013e
000001a0: 4f5c 10be affb 263d c14f f0bc f942 51bb
000001b0: faac 523d b784 f03c dfc2 abbc 09a9 29bd
000001c0: 51c0 bcbc 34e6 a1bd 4e73 1cbd f675 283e
000001d0: 1be3 cabc 0f0b 2fbd 6188 8ebd b445 b4bd
000001e0: ec70 c5bc b1f2 103d d59d 463d 86c8 943d
000001f0: f5a7 f1bb 90fe 03be d508 69bc ea68 8c3d
00000200: 3b68 c93c 2da1 beba d1be 123d 6ff9 07be
00000210: 323f 3f3c c609 653d 357b 88bd 2d0c d0bd
00000220: a18a 34be b391 97bc 68eb b73d b425 0dbd
00000230: 9cce 8e3d 4eeb 22bc c3bc b6bd 6ca8 06be
00000240: 1460 843d 67a0 24bd 6780 b73c 0641 a23c
00000250: 5d50 16be ef5e bfbb bd6e 873d 396d d8bd
00000260: 63d6 4a3d 256d 573c a34c 9fbb ff26 45bd
00000270: 382e 07bd caad 133d d6a3 d53c e62c ffbd
00000280: 3360 84bd 67c6 3a3c 987d 2bbd 2da8 e3bd
00000290: 44dc bfbd a6ef 93bb c173 b03d 10b1 99bd
000002a0: 2d37 37bd 4cd5 153e 7919 17bc 3555 273e
000002b0: 4b44 803d 95f3 ac3d e077 523d 2219 d93c
000002c0: 7a16 34bd 57e1 a8bc 5c42 8b3d 8a96 eebd
000002d0: 9be2 50bd 11fa 2f3c 72ea 843d c32d 313d
000002e0: 594e f2bd 477c 083a 8c2e c63d 031e a23d
000002f0: c3c5 c3bd 9db0 4ebd 9b70 30bd 3eef 013e
00000300: ca1a 12be 85bc 6a3d b7cf ac3d c960 27bd
00000310: 2f57 a9bc 55c9 033e c449 bd3d abac 743c
00000320: 0801 f33c cc5c 723d f215 5bbd d0b1 debc
00000330: ad05 03be 8546 4f3d 37c8 12be 86a5 023d
00000340: 5ca6 5abc bf9e 02be 161c a8bd 5a64 f1bc
00000350: e8da bb3b 03f4 203c 4260 4ebd 3b25 6c3d
00000360: 2eaf d53d de11 6cbd 32b9 73bc 82ed 7bbd
00000370: 1bf4 b33d 7424 903d 3279 1c3e f9fd 32bd
00000380: d086 a3bc 0a6f 13bd f192 9abc db2e 693c
00000390: 50f3 81bd d826 6f3c 9ad3 0cbe 4c37 cdbc
000003a0: ae70 8abd 0dd8 02bd 0399 b03d 8db9 ef3d
000003b0: f7ad 90bd 3af6 403d 5101 42bd fdfb 133d
000003c0: 88ec b538 233b 1b3d d751 1c3e 7974 293c
000003d0: f74d 113e 458d 39bb 8c94 8f3d 9d77 c73d
000003e0: 07e4 d6bc d6e6 b53c 2f2a a53d b865 f53d
000003f0: 59c0 a53c 1097 ccbd d071 3ebd 753f b5bc
0.07079817 -0.10560936 -0.036770362 0.0420252 0.032634232 0.10237203 -0.082044 0.05142239
-0.051420532 -0.072359994 0.00054859323 0.011730437 -0.016197458 0.04502941 0.014851518 -0.010159682
0.00955392 0.05650068 0.058831397 -0.03316631 -0.06849335 0.020409593 -0.019897163 -0.02191614
0.14490367 0.1527596 0.017774457 0.047110457 -0.02354604 0.015049067 -0.0011557286 0.09694816
0.06021083 -0.025099466 0.025868455 0.015820485 -0.044205032 -0.030962117 0.12656064 -0.120810784
-0.10330316 -0.049324416 0.0074577667 -0.010252763 0.075378485 -0.09588285 0.19376889 0.0305414
-0.08928601 0.056396674 0.040329 -0.019309752 0.0043470827 0.11907184 -0.009250283 -0.15455513
-0.026754228 -0.00055403315 0.00028543427 0.06755498 0.14408599 0.036329247 -0.08295104 -0.020361997
-0.05119326 0.097058505 -0.0412147 0.022728687 -0.012831433 0.18370543 0.10846507 -0.004884412
-0.030445749 -0.07073649 -0.07423978 0.06271462 -0.15786612 -0.01773478 -0.08974282 -0.025943886
-0.010867468 -0.1380248 -0.016580768 -0.018461686 0.0058087753 -0.03719427 0.12453997 0.005771273
0.06477846 0.088205814 -0.004422511 -0.082364246 0.025864776 0.03492998 -0.051400162 -0.02511535
0.028988207 0.05735844 -0.100758016 0.044104114 -0.033677295 -0.06842835 0.00049235247 0.12642056
-0.14097713 0.040767368 -0.029334905 -0.0031930788 0.051434495 0.029360158 -0.020966945 -0.04142097
-0.023040922 -0.07905236 -0.0381959 0.16451249 -0.024766495 -0.042735156 -0.06959606 -0.08802357
-0.024101697 0.0353877 0.048490364 0.07264809 -0.0073747584 -0.12890077 -0.014223297 0.06855948
0.024585834 -0.0014543884 0.035826508 -0.13278745 0.011672782 0.055917524 -0.06664125 -0.10158572
-0.17631008 -0.018502092 0.08980447 -0.034459785 0.06973001 -0.009943796 -0.08922722 -0.13150185
0.06463638 -0.040192034 0.022400094 0.019806396 -0.14679094 -0.0058401744 0.066129185 -0.105677076
0.04952086 0.013148581 -0.0048614307 -0.048132893 -0.033003062 0.03605441 0.0260791 -0.124597356
-0.06463661 0.011399842 -0.041867822 -0.11116061 -0.09368184 -0.0045146523 0.08615828 -0.07504475
-0.044730354 0.14632148 -0.009222382 0.16341098 0.06263026 0.08444897 0.051383853 0.026501242
-0.043966748 -0.020615263 0.067997664 -0.11649807 -0.050997358 0.010740773 0.064900294 0.043256532
-0.1183135 0.0005206507 0.09676847 0.079158805 -0.095592044 -0.0504614 -0.04307614 0.1268892
-0.14268032 0.057308692 0.08438056 -0.040863786 -0.020671455 0.12869771 0.09242585 0.014933745
0.029663578 0.05917053 -0.053487726 -0.027184397 -0.12795134 0.050604362 -0.14334188 0.031896137
-0.013345327 -0.1275587 -0.08208482 -0.029466797 0.005732883 0.009823802 -0.050384767 0.057652693
0.104338035 -0.057634227 -0.014875697 -0.061505802 0.08786794 0.07038203 0.15280607 -0.04369924
-0.019961745 -0.035994567 -0.018868895 0.014232363 -0.06345236 0.014596663 -0.13752595 -0.025050782
-0.06759773 -0.031944323 0.08622935 0.11705313 -0.07064431 0.04710982 -0.047364537 0.036128987
8.67481e-05 0.037898194 0.15265594 0.010342711 0.14189897 -0.0028312963 0.07010755 0.09739611
-0.026231779 0.022204798 0.080646865 0.11982292 0.02023332 -0.099897504 -0.04649526 -0.022124985

actor.mu.model.0.bias f4 [8]
00000000: 5145 6abd 4346 0c3c 0901 d73c 2781 85bc
00000010: 9fbf 4abd daa8 3f3d 24d3 263c 760d 953d
-0.05719501 0.008561674 0.02624561 -0.016296936 -0.04949915 0.04679189 0.010182176 0.07277958

critic.preprocess.model.model.0.weight f4 [64, 111]
00000000: 183e 2f3d 4aea c0be b444 2b3e 7375 9cbe
00000010: 9530 b03d cf6c 2cbe 0534 bb3c ab81 0f3a
00000020: c563 c93d 8b25 123e c7bf 22bd 19e9 92bd
00000030: 98dd 38bd 3c82 e73c c829 973c de75 5cbe
00000040: eb40 8f3d c4ec a7bd fb3b 4e3c 827e b03d
00000050: 09b4 f1bd a312 c53d 591d 3c3c 919d 463d
00000060: a039 06bd e9ba d33c 13c9 0f3d 4ad8 adbc
00000070: fbd5 1d3e 84cc fbbd e61f 2d3d e504 debd
00000080: 8d64 663d 7b60 b23c 0ee0 27bc d2c3 f6bd
00000090: c34f bcbd dc3d 84bd a0e3 c0bd 431a 773e
000000a0: 160e 433e 690f 52be 3e36 133d 6ba1 cd3d
000000b0: 9603 2bbd 37b8 08bd eba8 bcbe e118 5d3e
000000c0: faf6 873d c2ac e43d 4c27 bebd 4f05 333c
000000d0: 5bbd 8abd fca1 363e c842 41bd 6bf8 88bd
000000e0: ca3d ba3d c0aa 64be 34cc 8dbd cec9 0a3e
000000f0: 02cd 5abe 1640 943b c894 23bd f4e8 a1bc
00000100: 337b 8a3d e16b 223e 4de2 28be 875e 4c3e
00000110: 7a7a 16be 1d5e 75bd b000 e33d ecec f93d
00000120: 3ff4 813d 4727 b9bb 138e ce3c 0515 b23d
00000130: b208 91bc 8bd7 47be 28e2 723d caef 703d
00000140: c781 4dbe 43fc 943c 011a fcbd 701a 47bd
00000150: b510 66be 1cd2 b63d f075 633e b55c 4dbd
00000160: 1434 813d bf4a 63bd c63d 41bd c8de c1bc
00000170: bcbd 89bd 8f54 7ebd 7a35 54be 4450 1abe
00000180: 7c83 cfbd 3194 17bb e85c 16be 39aa 7b3e
00000190: 46e6 f13c 80e5 9e3d 2160 413e e032 2c3e
000001a0: 2e1c 793e f8dc 593e df39 913d 59d7 ccbd
000001b0: 7bda 0a3c 52fd f0bd d7df fdbd 3bb8 f4be
000001c0: 5e7c 813e b89e 8c3e 53eb b0bf 857c 4b3e
000001d0: a434 90bd e8f3 c2bd da10 d93d 8598 f1bd
000001e0: 48b7 ca3b 70cc 25bd ed39 ab3d 8da5 7a3d
000001f0: f339 2abd 1e67 80be 6f96 69be 2a62 423e
00000200: 4b6d 8ebe da89 083d a336 d53b e312 3e3d
00000210: 1106 abbb af38 cd3b 77ac ec3c e2ec 5abd
00000220: 1ebf c0bd fe0a 1bbc d853 323e 989b e8bd
00000230: 11cc 1dbd 0b65 80bd 707c 9f3d 516a 40bd
00000240: cbfd e3bd 754c 54bd adaf da3d 3859 cebd
00000250: 4b90 923e aded 8cbb 5699 2c3e e3da 35bc
00000260: 23a2 d7bc 9624 453e d3b6 99bc 0abf 903e
00000270: a4ac 233d 4c38 9abd 20cf 2dbe ef51 313d
00000280: d3fd 36bd f09f 8a3d 7d62 8e3c d952 df3d
00000290: 1a6b e2bb 0244 c6bc 4389 51be a7df 933d
000002a0: 0a61 f8bd f244 45be 2ba0 2a3e 220f 3a3e
000002b0: 9f4c 4dbe d484 cebc 7f81 56be 5a25 6d3d
000002c0: fcca abbb 835c 1b3e 9a6c 10be ba40 e0bd
000002d0: 8e36 c33d ab9d 143e 883f 803e fac8 43be
000002e0: 0a3e 09be 4962 d9bd 4719 0fbe 39e6 22be
000002f0: 297a 563d 8847 07bd c215 91bd b036 e6bd
00000300: 8521 01bd 1d78 f1bd 0a8d 07be 4fe6 4fbd
00000310: 14ba 983b f3a1 64be ca02 72bd f165 e83c
00000320: 6964 3a3d c99d 55bd eb39 063e 05be 423e
00000330: 5387 e03d be28 1fbe 3134 81bd dac5 1dbd
00000340: f10c 033e ff42 f93d 19f9 6bbe 0fc6 87be
00000350: e50f f63c 3f57 f6bd e22d 2abe 767a 8e3e
00000360: 0d09 94bd a0d9 9cbc de6a 4e3d f9f6 cdbd
00000370: 4ddb 8cbd 961b 093d 6159 e3be fea6 533f
00000380: c6d1 bcbd 402c 5b3f fbc5 463e dcbe e43d
00000390: 03b2 afbc b3da b1bb 20d3 433e 1362 ea3d
000003a0: 4079 c23d 7599 babd 14c3 32bd 96fe 30bd
000003b0: 79ab 0abd 1042 2cbe 010e adbb 4053 2cbd
000003c0: f2c7 0e3e c21c e8bb 274d 83bc 3c34 983d
000003d0: 8c23 533d 3460 a13d 7cab 58bd 98a4 c03d
000003e0: b298 d6bc 7909 40bd 38e8 66bd 68ff 1f3e
000003f0: 3afe 4abe b3ac 59be 05f0 63bd c799 29be
0.042783827 -0.37678748 0.16725427 -0.30558357 0.08603016 -0.16838382 0.022851953 0.0005474339
0.09833483 0.14272134 -0.039733674 -0.07173366 -0.045133203 0.028260343 0.01845254 -0.21529338
0.06994804 -0.08199456 0.012587543 0.086178795 -0.11801917 0.09622695 0.011481606 0.04849011
-0.0327698 0.025845962 0.03510387 -0.021221299 0.15413658 -0.12294868 0.04226675 -0.10840777
0.056248236 0.021774521 -0.01024629 -0.120490685 -0.09194901 -0.06457111 -0.09418416 0.24131112
0.19048342 -0.20513691 0.0359404 0.10040554 -0.041751467 -0.033378806 -0.36847624 0.21591522
0.06638904 0.111657634 -0.09284839 0.010926559 -0.06774398 0.1783523 -0.04718283 -0.06688007
0.090938166 -0.22330761 -0.06923714 0.13553545 -0.21367267 0.004524241 -0.03993681 -0.019764401
0.0676178 0.15861465 -0.16492577 0.19957934 -0.14695159 -0.059904207 0.110841155 0.122033924
0.06345414 -0.005650434 0.02521423 0.086954154 -0.017704342 -0.19515817 0.05929771 0.05882243
-0.20069037 0.018186694 -0.12309647 -0.048609197 -0.2246731 0.08926794 0.22212958 -0.05013724
0.06308761 -0.055491205 -0.047178052 -0.0236658 -0.06725642 -0.06209236 -0.20723525 -0.15069681
-0.101325005 -0.00231291 -0.14683878 0.24576654 0.029528748 0.077586174 0.18884327 0.16816282
0.24327156 0.21275699 0.07091116 -0.10002012 0.008474941 -0.11767067 -0.1239621 -0.47796807
0.25290197 0.27464843 -1.3821815 0.19871719 -0.070412904 -0.09519178 0.10598917 -0.11796669
0.0061863996 -0.04047817 0.08360658 0.061193038 -0.04155917 -0.25078672 -0.22811292 0.18982759
-0.2781776 0.03333459 0.0065067573 0.04640473 -0.005219229 0.0062628607 0.028890831 -0.053448565
-0.09411453 -0.00946307 0.17414796 -0.11357802 -0.03852469 -0.062692724 0.077874064 -0.04697639
-0.111323915 -0.051830728 0.10678039 -0.10075611 0.28625712 -0.004300794 0.16855368 -0.01109955
-0.02632243 0.19252238 -0.018763935 0.2827075 0.039959565 -0.07530269 -0.16973543 0.04329103
-0.04467566 0.06768787 0.017380947 0.10904474 -0.00690974 -0.02420235 -0.20462517 0.07220393
-0.12127884 -0.19264582 0.16662662 0.18169835 -0.2004876 -0.025209822 -0.20947836 0.05789695
-0.0052427035 0.15172009 -0.14103928 -0.109498456 0.0953189 0.1451327 0.2504847 -0.19119635
-0.13402572 -0.106144495 -0.13974486 -0.15908135 0.052362595 -0.033027202 -0.07084228 -0.112408996
-0.031526107 -0.11790488 -0.13237396 -0.05075675 0.004660854 -0.22327404 -0.05908469 0.028368922
0.045505915 -0.05215243 0.13108031 0.19017799 0.10963311 -0.15542886 -0.06308783 -0.038518764
0.12797906 0.121709816 -0.23044242 -0.26518294 0.030036876 -0.120283596 -0.16619065 0.27827805
-0.07228289 -0.01914674 0.050394885 -0.10056872 -0.06877766 0.033473574 -0.44404128 0.82676685
-0.092196986 0.85614395 0.19411461 0.11169216 -0.021447187 -0.0054276823 0.19123507 0.114444874
0.09495783 -0.09111301 -0.043643072 -0.043211542 -0.033854935 -0.16822076 -0.0052812104 -0.04207158
0.1394346 -0.0070835063 -0.016028 0.07431838 0.051547572 0.078796774 -0.052897915 0.09406394
-0.026195858 -0.046884034 -0.056373805 0.15624774 -0.19823542 -0.21257286 -0.055648822 -0.16562568

critic.preprocess.model.model.0.bias f4 [64]
00000000: 9410 bcbf 61e6 3c3f d08c 263f be31 533e
00000010: 4296 ae3d d951 5abe 6b1a c53e bb10 e9be
00000020: 9900 45be a0f1 293f 5c1f aa3f cad2 2e3f
00000030: 311d 31bf ed72 25bf d44c 13bf 7a7f 873e
00000040: 7a59 67bf afbe 49bf f049 ecbe 2015 a1be
00000050: a1ee 8c39 249c 183e 2b6c 313f 3f1f a43f
00000060: 3263 b1bf 4796 9bbf da41 08bf 5f3e 78bd
00000070: 28c6 b93d 33fc 4c3f e731 54be 627c 72be
00000080: f7e6 a7be 454f 76bf 10ff 883f 7785 2bbe
00000090: 8c9a 163e 6fcc 9ebf 714b 0b3f 990d 8c3e
000000a0: a7ee 623e 4c94 1f3f 94c7 4f3f f0ba 023f
000000b0: 2b59 7dbf 170a 89bd 85f7 74bf a762 823f
000000c0: b800 82bf 34fb 323f 9533 f8be e280 86bf
000000d0: c271 88bd 501b eebe de5d 13bf 6455 a53c
000000e0: fbf4 8a3f dcbc 8f3f 8d60 51bf afaf 1ebe
000000f0: 9970 3d3e b24b 9a3e 298f 573f 4a6d dc3e
-1.4692559 0.7378903 0.6505861 0.20624444 0.08524753 -0.21320285 0.38496718 -0.45520577
-0.19238509 0.66384315 1.329082 0.6829039 -0.6918517 -0.6462849 -0.57539105 0.26464444
-0.90370905 -0.78806585 -0.4615016 -0.3146143 0.00026880673 0.14903313 0.69305676 1.2822036
-1.3858397 -1.2155236 -0.5322548 -0.060606357 0.090709984 0.80072325 -0.20722161 -0.23680261
-0.327934 -0.96214706 1.0702839 -0.16750132 0.14707392 -1.2406138 0.5441199 0.27354124
0.22161351 0.6233566 0.8116391 0.51066494 -0.98964185 -0.066913776 -0.95690185 1.0186356
-1.0156469 0.69914556 -0.48476854 -1.0508082 -0.066623226 -0.46505213 -0.57565105 0.020182319
1.0856012 1.122951 -0.8178795 -0.15496705 0.18499984 0.30135876 0.8420282 0.4305213

critic.preprocess.model.model.2.weight f4 [64, 64]
00000000: 9230 51bd 38d0 00be 813b b23e 050a 4e3e
00000010: dd47 573e edc7 ab3e fd29 60be cbf9 1cbe
00000020: 9e05 d13e 3748 743d 829b 5c3e c9fa 85be
00000030: 8c9c a4bd 9113 38ba 867b aa3c 7def fb3c
00000040: bbdb 443d 3b73 6f3d 67e9 cfbd c195 53be
00000050: 1db6 90be 1328 41be 339f a23e 5fc4 873e
00000060: 6048 773e 661e 063d 27a3 75be df31 77be
00000070: 5b47 8cbd 3f0e c33d d0b9 92be c0c3 34be
00000080: 93c8 1bbe d733 523d 4fbb d5bd dee9 e3be
00000090: 63b4 9f3e bb2a 5d3b 3b27 b73e 97bb 5cbe
000000a0: 119b 7fbe 593c 523e 1dc0 9a3e e2d5 aa3d
000000b0: 63c9 173d da18 f9be be0a b0be f0f1 1bbc
000000c0: 00e7 c73d f768 1cbd d30f 52be 5412 82be
000000d0: 6fbd 383e 6ae8 f8bd fe8e 5c3d a91b 503d
000000e0: 52f9 b13e de55 403e a3ae a4be 444c ab3d
000000f0: 2cb6 e63d 94d7 82be c4d6 863c 5474 afbd
00000100: 1732 8cbd 7917 bb3e 7374 1e3e e213 19bd
00000110: 0478 15bf d1a1 38be 959f 6e3d 60ba 15bf
00000120: 75ef 8abe e697 1c3f b713 85be 39cd 0d3f
00000130: 28c5 65bd 9ae1 4dbe 2cf8 b13c 9efc 20ba
00000140: a51c e4be 3112 9abe bee4 303f c88b 013e
00000150: 15cb 993e 2032 623e f5f8 b7be efd9 db3e
00000160: 433a a83d fceb 4cbe 0187 38be 661e 013e
00000170: f0b6 d33e 9996 9a3e 1885 933c 57f3 b5bc
00000180: 5581 803e efdd 0cbf a803 0dbf 7581 00bf
00000190: 3e80 3c3e 802a 10be 1422 b6be 92dc 403f
000001a0: af07 a13e f503 083f 1b19 f0bd 62eb ea3d
000001b0: f41d 25bf f491 c33e 4394 cd3a bca2 74be
000001c0: a319 54be 241e 663d 5def 833d 5c62 9abe
000001d0: 5662 ed3e 5d06 ccbe c5f2 ccbe 8ab6 16bf
000001e0: e7ba 1abf e904 afbe ffda da3e a9c6 24be
000001f0: 5d04 a93c e6c0 bf3e c68c d53e fc08 c1be
00000200: 6e6f 81be 0c1f d63e 210c 7dbe eefc e13e
00000210: 774c 50be 74c7 acbe 94d9 e03e 088f aabe
00000220: 17b4 1dbd 305b b93b 1e81 aebd 94f4 a8bd
00000230: 40b6 5dbe 0353 623e e038 d8be 4a94 1dbe
00000240: 9d7a b33d d711 b1be 9ec9 df3d 131f 843e
00000250: cee7 c8bd 8a3b c2bb 9c60 90bc 82a1 503f
00000260: de21 9abe 9b2f a7be 2a8f c5bc bf95 47be
00000270: b024 193e a780 9f3e 8aa1 ebbd cdb1 233c
00000280: a572 b03d 7cd6 bcbe 1821 d53d 00df e6be
00000290: f592 8b3e 2aad fcbe 0007 2a3d f76b f73e
000002a0: f310 0cbd 114c 1e3f e5a0 493e ead2 a33e
000002b0: 7184 be3d f9ef 813d ffb6 223a a44a 043e
000002c0: 84c6 363c ab47 813e 20e6 363e 00cb 93be
000002d0: 1f83 b93d 177f a6be db06 3f3e 1772 eebe
000002e0: 97ad e5bd 3947 5b3e 3d61 c2be bb36 80bd
000002f0: bf49 173f 995b 923d 15a2 aabd 61d0 acbe
00000300: 1a94 2dbf 79d9 abbe b7ff 193f b90e 013c
00000310: 5fd1 dd3e ee89 763d 6834 36be be59 a13d
00000320: 8891 cbbd a26d d03e 01a7 343f f60a 61bd
00000330: 8e46 63be 2c58 8fbe ed59 fdbd cd2e ca3e
00000340: 1359 bebe 2a82 833e f37d 2bbf fd1f 16be
00000350: 228b dbbe 217b 4abe dcbf c6bd 7fe0 863c
00000360: 57fe 9ebe 11b6 b1be c5a3 3ebe 2ac8 cfbc
00000370: 4ae9 c13b f5b7 573e 7beb f23d d67f b43c
00000380: 2787 05bf 0ba9 43be bba3 293e e2ed cd3e
00000390: 7107 cebe caea 96bd 9d7a d43e 4805 b1bc
000003a0: 8b05 21be 9560 7cbe 43ad 0f3f 25c3 4f3d
000003b0: 0d85 2bbf 865a abbe 94ac 12bf 18c1 073e
000003c0: d0e1 ac3d f3d0 193f f765 1fbe 7b4c e3be
000003d0: dce3 863e 5cf2 703d 8f3b 06bf a0a2 f43e
000003e0: 76e2 063f e481 0e3f 4234 96be e4f0 0ebf
000003f0: 4cef a5be c04c a93e 1f10 413f ca97 143e
-0.05107171 -0.12579429 0.34811023 0.2012101 0.21023507 0.3355097 -0.21891017 -0.15329663
0.40824598 0.059639182 0.21543697 -0.26167896 -0.080376714 -0.00070219586 0.020810854 0.030753845
0.048061114 0.0584595 -0.1015194 -0.20662595 -0.2826394 -0.18862943 0.31762084 0.26517007
0.24148703 0.032743834 -0.23988019 -0.24140118 -0.068495475 0.095242016 -0.2865739 -0.17652798
-0.15213232 0.05131897 -0.10436117 -0.44514364 0.31192312 0.0033747393 0.35772118 -0.21555935
-0.24961497 0.20530833 0.30224696 0.08341576 0.03705729 -0.48651773 -0.34383196 -0.009518132
0.09760857 -0.03818604 -0.20513849 -0.25404608 0.18041013 -0.121537045 0.053847305 0.05080763
0.3476053 0.18782756 -0.32164487 0.08364156 0.11265215 -0.25555098 0.01645983 -0.0856711
-0.068454914 0.36541346 0.1547411 -0.037372477 -0.58386254 -0.18030478 0.058257658 -0.5848751
-0.27135816 0.6116928 -0.25991604 0.5539127 -0.056096226 -0.20105591 0.021724783 -0.00061411585
-0.44553104 -0.30092004 0.6909903 0.12650979 0.30037752 0.22089434 -0.35932127 0.42939708
0.082142375 -0.20011896 -0.1802025 0.12609252 0.41350508 0.30193022 0.0180078 -0.02221076
0.25098673 -0.55026144 -0.55083704 -0.50197536 0.18408296 -0.14078712 -0.35572875 0.75336564
0.31451175 0.5313104 -0.117235385 0.11470677 -0.6449883 0.3819729 0.0015684444 -0.23890203
-0.20712905 0.056181088 0.06442139 -0.30153167 0.46364087 -0.39848605 -0.40028968 -0.5887228
-0.6044144 -0.34183434 0.42745206 -0.16091408 0.020631963 0.37451857 0.41708964 -0.37702167
-0.25280327 0.41820562 -0.24711658 0.44138283 -0.20341669 -0.3374592 0.43916 -0.3331225
-0.038501825 0.0056566224 -0.08520721 -0.082497746 -0.21651554 0.22101979 -0.42230892 -0.15388599
0.08763621 -0.34583923 0.10927127 0.25804958 -0.09809838 -0.0059275078 -0.017624192 0.8149644
-0.30103964 -0.32653508 -0.024116118 -0.19490717 0.14955401 0.3115284 -0.115054205 0.0099911215
0.08615617 -0.3688239 0.10406703 -0.4509201 0.27260557 -0.49350864 0.041510582 0.48324558
-0.03419585 0.6183482 0.19690283 0.31996852 0.09302605 0.06344599 0.0006207078 0.12919098
0.011155728 0.2524999 0.17861223 -0.28865814 0.090582125 -0.32518837 0.18654959 -0.4657142
-0.1121475 0.21413888 -0.37964812 -0.06260439 0.590969 0.07146377 -0.08331696 -0.3375273
-0.6780411 -0.33564356 0.60155815 0.007877045 0.433238 0.060190134 -0.17793429 0.07878445
-0.09939867 0.40708643 0.7056733 -0.054942094 -0.22194883 -0.27996957 -0.123706676 0.3948883
-0.37177333 0.25685245 -0.6698906 -0.1466064 -0.42879587 -0.19773532 -0.09704563 0.01646447
-0.3105342 -0.34709218 -0.1861716 -0.025364 0.005917703 0.21066268 0.118613206 0.022033613
-0.5215935 -0.19107454 0.16566364 0.40220553 -0.40240052 -0.07369001 0.41499797 -0.021608964
-0.1572477 -0.24646218 0.5612375 0.050723214 -0.66999894 -0.334675 -0.57294583 0.13257253
0.08441508 0.60084456 -0.1556624 -0.44394287 0.26345718 0.058824882 -0.5243463 0.47780323
0.526893 0.5566695 -0.29336745 -0.5583632 -0.32409132 0.33066368 0.75415224 0.14511028

critic.preprocess.model.model.2.bias f4 [64]
00000000: ce3f 2e3e 4d26 86bd 35f0 cd3d 6317 9a3e
00000010: e047 cf3e ab23 da3e 6456 a63e 52c5 9e3d
00000020: 3a5c 06be 3ef3 2a3e 48fa 0e3d b4a7 0cbe
00000030: 124e 673e ad72 9cbe 8c90 743d 26ac 8ebe
00000040: 50ad 8fba e47e 40bc a950 6a3d 8566 44be
00000050: 73d3 eebd 5b53 afbd 91b4 be3c 0e15 25be
00000060: 90a8 bdbc 68b8 9bbe f9cb e33e 91be 9bbe
00000070: a31b aa3d 3100 6c3d 92dd ffbd aaa3 6fbe
00000080: 8967 77be 29c0 c33e 1fe1 373e 0392 45bd
00000090: 02be 4b3e 256d 673d ac1e dbbe 587e 1dbe
000000a0: 5b14 cfbc 3498 183e 99d4 273e fe58 afbd
000000b0: d3dd 98be 2b55 d93d 7a13 013d 10d1 853e
000000c0: b14c 473e f1db 1bbd 95f4 273e fb40 bebc
000000d0: 8131 f23e 5fdc 943d 4dfb 34be 5030 2fbc
000000e0: 5468 0dbe 5d81 76be b7f5 0abd a5c6 4d3d
000000f0: 2b38 213e dce9 cd3e 88e3 33be 5763 a03c
0.17016527 -0.06550274 0.100555815 0.30095968 0.40484524 0.42605338 0.32487786 0.077524796
-0.13121119 0.16694352 0.034906656 -0.13735849 0.22588375 -0.3055624 0.059708163 -0.27865714
-0.0010961685 -0.011749003 0.05720583 -0.19179733 -0.116614245 -0.08560821 0.02327946 -0.16121313
-0.023151666 -0.30414128 0.44491556 -0.30418828 0.083060525 0.05761737 -0.12493433 -0.23402277
-0.2416059 0.38232544 0.1795697 -0.04823495 0.19896701 0.056500573 -0.42796838 -0.15380228
-0.025278261 0.14901811 0.16389693 -0.08561896 -0.29856738 0.106119476 0.031512715 0.26136065
0.19462849 -0.03805155 0.16401894 -0.023224344 0.47303393 0.07268595 -0.17673989 -0.010692671
-0.1380933 -0.24072786 -0.03392574 0.05023827 0.15744083 0.40217483 -0.17567265 0.019578619

critic.last.model.0.weight f4 [1, 64]
00000000: 8868 063d 5c10 8a3e 8eb2 73be 9ed1 6d3e
00000010: cace 7b3e 8d60 da3d 281f fb3d 771f 4a3e
00000020: 76ec 81bd a533 23be af7d 7f3d 39ec 19be
00000030: 1e02 103e a561 b9be c374 b73d eb0c 28be
00000040: eae6 483d d4fd cfbd 8c17 823d 05d3 39be
00000050: 0051 65be 071b 21bd e627 a6bd c29f aabe
00000060: 2687 0e3e 5a23 45be ae13 a33d ffbd adbd
00000070: 9df5 d13d 0f30 61bd ce13 94bd cb6f 86bd
00000080: 7fc3 34bd 947f 1e3e 8f9e f03d 012d f7bd
00000090: f03e a03d de0b 053d b0b3 24bf c80e 67be
000000a0: 17a6 fbbd fc95 e83d 41fa 11be 02ba 013e
000000b0: 98e9 84be e5b4 adbe 44db aebd e07e 233e
000000c0: 8560 cc3d 743c 37be a65b 65bd 4310 0fbe
000000d0: 26cd fc3e d1c5 7c3c 9ef8 32bd ab40 76be
000000e0: 64b4 5cbd 3209 2dbe 6069 793e f1d6 f23d
000000f0: bc64 13be 70dd c33e 7ab4 8ebd ecc5 8cbe
0.032814533 0.26965606 -0.23798582 0.23224494 0.24590603 0.10662947 0.12261802 0.19738565
-0.063439295 -0.1593767 0.06237572 -0.15031518 0.14063308 -0.3620731 0.089578174 -0.16411178
0.04904834 -0.10155836 0.063521475 -0.18146904 -0.2239418 -0.039332416 -0.08113079 -0.3332501
0.13918743 -0.19251767 0.07962738 -0.084835045 0.10251925 -0.054977473 -0.0723034 -0.065642916
-0.044131752 0.15478355 0.11748993 -0.12069131 0.078245044 0.03248202 -0.6433668 -0.22564232
-0.122875385 0.11356732 -0.1425562 0.12668613 -0.25959468 -0.33927074 -0.08537915 0.15966368
0.09979347 -0.17894155 -0.055995606 -0.13971047 0.49375266 0.0154280225 -0.04369413 -0.24048106
-0.05388297 -0.16898039 0.24356604 0.11857403 -0.14393896 0.3825488 -0.06968017 -0.27494752

_actor_critic.actor.sigma_param f4 [8, 1]
00000000: 7f54 4cc0 5fba 50c0 e703 4dc0 4bb4 42c0
00000010: 7a9e 4ac0 7f18 46c0 3a05 4dc0 00c0 43c0
-3.1926572 -3.2613752 -3.2033632 -3.0422542 -3.1659226 -3.0952451 -3.203444 -3.0585938

_actor_critic.actor.preprocess.model.model.0.weight f4 [64, 111]
00000000: ae04 58be e47d 3f3e b13f 123e a344 f6bd
00000010: c6d7 8dbe 882a 51bd 585c 9bbe a3d0 bf3e
00000020: 2ae9 0c3e 8652 81bd f8fb cebc 3141 47bc
00000030: 95c5 45bd 4a81 be3e 35ba 2c3e 9235 fc3d
00000040: eeab 90bd d36b 303c b295 d8bd 6431 96bd
00000050: febc 07be d2e4 d03c 673c 93be 0306 35bc
00000060: c4c7 863e 173a d9be f0ae b1be af32 203d
00000070: efdd 98bd 3210 dc3b a4d1 943d 0291 36bd
00000080: 9090 e73d 1ce5 d03c 959d 233e 04fe 1539
00000090: a77b 1cbe 23ef 7b3d 6e5a 3f3e 7aed af3d
000000a0: 8966 ccbd 7548 07be ea3e 593e 6fc5 74be
000000b0: b669 573e 99b2 1f3d 990a fcbd b1d1 32be
000000c0: deb0 56bd d9dc 2338 2a9c 7c3c a20d f23c
000000d0: 1a22 02bd 79a7 d53d 9f09 94be 8ad0 a03d
000000e0: 2a89 2fbe e74c ba3c 6202 2dbe 7069 d03c
000000f0: bda3 d73d c689 ab3d f5c3 b33d 14ad 9f3c
00000100: 0525 9f3e 8d8e 82bd bedb c33c c355 d73c
00000110: 097c d43d 5800 963d f171 40be 309f 6fbe
00000120: 364e 0fbd e261 69be 3099 743c e3a1 4abe
00000130: f872 16be fbd8 92be cfa3 c53d 55b3 dc3b
00000140: 0b4b 5e3e 59ca 853e 2e41 c63d 8dec e2bc
00000150: b774 81bd 8e7b 123d bb18 68be 2d77 81bd
00000160: 0254 75be 1b87 99bc 45f0 5a3e e864 9c3d
00000170: 7017 e63c 7444 893e b4ab 943d 4e9b 0bbe
00000180: b0bb f3bc b0c4 2d3e af59 2fbd 3bbd fa3d
00000190: 9075 03bc 2ddf 09be 9bde 4abd 9d79 9d3e
000001a0: b78d 833d 9d2a c43d 9e4c 56bd ce61 0abe
000001b0: dd66 3d3e 7937 01bc 86f9 14be cab9 333e
000001c0: 29d1 38bd fc3a 8ebd bced 8b3e 5c44 d4be
000001d0: aa03 803e 0cdd 9ebe ad7f bc3c 9ac8 30be
000001e0: 4dbe a53d 2353 44bb 9992 70bd 872d 75be
000001f0: 2eba 1b3e 0a38 c03d 5fa2 893e ae1b bd3e
00000200: 8b09 49be 1945 013f 5a5b c2bd 3699 1dbe
00000210: 813e b43c c6f6 293c b99e 17be 1e2f 38be
00000220: 3354 d0be 313d 91be 94d2 04be 5992 723e
00000230: 8aaf cdbe 69ef c6bd 5e91 12be 48d9 3abe
00000240: a0f8 16be 35f1 8b3d c50a 70b8 0643 31be
00000250: 9a9c 2f3e a1a6 cabd df1c cabc e764 153d
00000260: 4cd7 783d 2450 74be 1fbb aa3e ffb6 8dbd
00000270: c9ad 8dbc 7392 a7bd 52bb ed3a eff1 7bbd
00000280: 9bf0 10be 0e45 3ebd fc66 4ebe f046 0ebe
00000290: ae26 8e3e a29c bc3d e736 fe3c 8a38 5cbe
000002a0: bc8a 423d 942d fa3c 1842 6abe fb65 92bd
000002b0: 2303 c3bd 7496 ba3d 5994 82bd 59de 12be
000002c0: b2d7 ddbb 175f 123e a2f6 c03d 4b88 743e
000002d0: 6646 d23d 0b5e 01bc 2ee7 c93a 141b 69bd
000002e0: b0d0 11bc f959 e0bd 21b7 46bd 6c5c a8bb
000002f0: 2964 cabd 8d4f e13d 6fe8 053e 6bcb 6f3e
00000300: 7f35 d8bd 92ec 263e df95 b43c 327e febc
00000310: c184 793d 176b fbbd a04d 97bd d6c6 9f3d
00000320: 2194 ab3d 72e6 483e f903 b9bd f47c 0f3e
00000330: c59e 853d c8f2 cdbd 1dbc 0bbd fd7f e5bc
00000340: cf46 453d b389 063c 4797 343d 887f eabd
00000350: 55cd b8bd a0cf 0d3d 2b4a 933d 0efa 2ebe
00000360: e707 e33d 3db8 0b3c 317c fa3d 3189 85be
00000370: 9ae0 bcbd e26a dc3c 4525 80bd 1d83 6abd
00000380: 6d8b e43d 05eb a23e 2080 0abe d655 0e3e
00000390: fd70 f23d d8d4 9cbc dc6e 91be e0f8 cb3e
000003a0: c479 0d3e 48d4 c83b 7b12 113f a0d1 3f3e
000003b0: 8cfd 053d 5b8b 74bd a427 693d b39d 69be
000003c0: a7b1 dcbd 7850 653e d466 5ebe 3ff2 18be
000003d0: 537a 87bc 9663 65bb 24a2 49bd 0a59 eabd
000003e0: da50 80be 22fe 4e3e 9314 1ebd cea1 6dbc
000003f0: 1665 503e 9fa5 80be db90 003e 9008 bbbd
-0.21095535 0.18700367 0.14282109 -0.1202481 -0.27703685 -0.05106595 -0.3034389 0.37463865
0.1376082 -0.06314568 -0.025266632 -0.012161539 -0.048284132 0.37208015 0.16867907 0.12314905
-0.07064043 0.010767895 -0.10575427 -0.07333639 -0.13255689 0.025499735 -0.2875702 -0.011048797
0.26324284 -0.42427132 -0.3470378 0.039110836 -0.074642055 0.006715798 0.07266548 -0.044571884
0.1130687 0.025499873 0.15978082 0.00014304376 -0.15281545 0.061507355 0.1868684 0.08590217
-0.099804945 -0.13211234 0.21215406 -0.2390344 0.2103642 0.038988683 -0.12306709 -0.17462803
-0.052414767 3.906791e-05 0.015418092 0.029547516 -0.031770803 0.104323335 -0.2891359 0.07852276
-0.17142168 0.022741748 -0.1689544 0.025440902 0.105292775 0.083758876 0.0877761 0.01949171
0.3108293 -0.06374846 0.023908492 0.026286012 0.1037522 0.07324284 -0.18793465 -0.23400569
-0.034986697 -0.22791246 0.014929101 -0.19788317 -0.14692295 -0.28681168 0.09650385 0.006735245
0.21708314 0.26130942 0.09680401 -0.027700687 -0.0632109 0.035762362 -0.22665684 -0.06321559
-0.23957828 -0.018741181 0.21380718 0.07636434 0.028087348 0.26810038 0.07259312 -0.13633463
-0.029752582 0.16969562 -0.04281014 0.12243124 -0.008023635 -0.13464041 -0.0495287 0.30756846
0.06423514 0.0957844 -0.05231916 -0.13513872 0.1849627 -0.007886761 -0.1454831 0.17551342
-0.045121346 -0.06944844 0.27329814 -0.41458404 0.25002795 -0.3102802 0.0230101 -0.17264023
0.080929376 -0.002995678 -0.058733556 -0.23943149 0.1520774 0.093856886 0.26881692 0.3693518
-0.19632547 0.5049606 -0.0949008 -0.15390477 0.02200246 0.010373777 -0.14806642 -0.17986724
-0.4068924 -0.28366998 -0.12970954 0.2368864 -0.40172988 -0.097136326 -0.14313266 -0.18246949
-0.1474328 0.06833116 -5.723049e-05 -0.17310724 0.17149583 -0.09895063 -0.02467197 0.03647318
0.060752198 -0.23858696 0.33345887 -0.06919669 -0.017294781 -0.0818223 0.0018137491 -0.061510023
-0.14154284 -0.046452574 -0.20156473 -0.13894248 0.27763885 0.09209563 0.031032039 -0.21505943
0.04749559 0.030539311 -0.22876775 -0.071483575 -0.09522083 0.09110728 -0.06375951 -0.14342631
-0.0067700977 0.14294086 0.094220415 0.23880117 0.10267334 -0.007895957 0.001540398 -0.05691059
-0.008899853 -0.10954661 -0.04851449 -0.0051379707 -0.09882385 0.11001501 0.13076948 0.23417442
-0.105570786 0.16301182 0.02204412 -0.031066034 0.06091762 -0.12276285 -0.07387853 0.07801597
0.08377863 0.19619158 -0.09033961 0.1401251 0.065244235 -0.100560725 -0.034114946 -0.028015131
0.04816323 0.008211541 0.04408958 -0.11450106 -0.09023539 0.034621835 0.07191881 -0.17087576
0.110854916 0.008527813 0.12230719 -0.2608123 -0.09222527 0.026906434 -0.062571086 -0.057253946
0.11159406 0.3181993 -0.13525438 0.13899931 0.11837957 -0.01914446 -0.28404891 0.39838314
0.13815981 0.0061288215 0.56668824 0.1873231 0.032712504 -0.059703212 0.05692257 -0.22814064
-0.10776072 0.22393978 -0.21718913 -0.1493616 -0.01653782 -0.0035001985 -0.049226895 -0.11442764
-0.25061685 0.20214131 -0.03859384 -0.014503909 0.20351061 -0.2512636 0.12555258 -0.091324925

_actor_critic.actor.preprocess.model.model.0.bias f4 [64]
00000000: 3573 b2bd 2cab 8fbd beec d9bd 4a13 db3d
00000010: ca33 e1bd 6bfb 94bd 72a3 103d f659 823d
00000020: 4a47 4abe 9286 613e 2b75 283c cdd3 2f3c
00000030: a3ee d23d 62b0 293e 311e e53c ed01 3bbe
00000040: a7a7 bdbd c654 e4bc 5507 7ebe 65dc 1ebd
00000050: cc0b b83d 9f77 3f3d f073 f93d 8279 873b
00000060: 8237 973d 8a6f 983e 689f 673e bdaf d03c
00000070: 0866 91be 13cf 08be b4ee 00be 28b5 4abd
00000080: 687d a73d b60c 903c 5fa4 e5bc 1ddb 8d3d
00000090: 7592 16bd 7fcd ad3d ce0d e83d 39f3 9e3d
000000a0: ec28 87bd 7e73 d4bc e99b 7e3d 6981 173e
000000b0: c21c 703d 8653 803b 17d6 413d 08ed 053e
000000c0: 0589 0c3e a58f cf3d 920b ecbd 6e89 adbc
000000d0: 9dcf 61bd 6456 213e 1364 343d e77a 03bc
000000e0: 57c9 ba3d 19a9 c9bd 5246 203e cf95 ac3c
000000f0: 5675 c6bc c084 0f3e 8f23 4a3d 80fb 1f3e
-0.0871338 -0.0701507 -0.10640858 0.106970385 -0.10996206 -0.07274517 0.035312124 0.06364815
-0.19753757 0.22023991 0.010281841 0.01073165 0.102994226 0.16571191 0.027968498 -0.18262453
-0.09260493 -0.027872454 -0.24807484 -0.038784403 0.08986625 0.04674494 0.121803164 0.004134358
0.07383634 0.29772598 0.22619402 0.025474424 -0.28398156 -0.13360243 -0.12591058 -0.04948917
0.08178216 0.017584186 -0.02803248 0.06926558 -0.036760766 0.08486461 0.11330758 0.07761235
-0.06599602 -0.025933977 0.062160406 0.1479546 0.058621176 0.003916207 0.047323313 0.13078701
0.13724144 0.1013482 -0.11525644 -0.021183696 -0.055129636 0.15755612 0.04404075 -0.008024908
0.09120434 -0.09846706 0.15651825 0.021067528 -0.024225872 0.14015484 0.049350318 0.15623283
