results/Swimmer-v3/a2c/0/220624-142732/policy.pth (torch, 47844 bytes, 24 tensors)

actor.sigma_param f4 [2, 1]
0	0x403c8b71	2.9460108
1	0x405465c0	3.3187103

actor.preprocess.model.model.0.weight f4 [64, 8]
0	0xbe78b522	-0.24287847
1	0xbdea7937	-0.11448901
2	0xbebe7a6e	-0.3720278
3	0x3cd04fb0	0.025428623
4	0x3e36317d	0.17792316
5	0xbe17fbdf	-0.14842175
6	0x3b0e2aad	0.0021692917
7	0xbe14d57a	-0.1453456
8	0x3e35d688	0.17757618
9	0x3ca96760	0.020679176
10	0xbeea9e84	-0.45824063
11	0x3ee8db2a	0.4547971
12	0x3e56f0a0	0.20990229
13	0xbcf869a5	-0.030323813
14	0x3ece3733	0.4027649
15	0x3f1de569	0.6167818
16	0xbe9f300e	-0.3109135
17	0x3f0abae3	0.54191417
18	0x3ee68793	0.4502531
19	0x3df4c73c	0.119520634
20	0xbe63c88b	-0.2224447
21	0xbef1d227	-0.47230646
22	0xbda54072	-0.080689326
23	0xbdd00726	-0.101576135
24	0xbe65be05	-0.22435768
25	0xbe9f6308	-0.31130242
26	0x3eab5296	0.33461446
27	0x3de02067	0.1094368
28	0xbbc058ce	-0.0058699613
29	0xbdf31768	-0.11869699
30	0x3d9d3310	0.07675755
31	0x3d0f99e7	0.035058882
32	0x3e9b6a65	0.3035461
33	0xbe285f2d	-0.16442557
34	0xbef2e4bd	-0.47440138
35	0xbe6e2bc1	-0.23258878
36	0xbe3abcd7	-0.18236099
37	0xbdd2c286	-0.10291009
38	0x3e430736	0.1904572
39	0x3f3ed108	0.74537706
40	0xbe762c2f	-0.24040292
41	0xbe5723fe	-0.21009824
42	0x3eb01a62	0.34395128
43	0x3e39a610	0.18129754
44	0xbe55fae5	-0.2089649
45	0x3e5ee4f3	0.21767025
46	0xbe94b20a	-0.29042083
47	0xbe9def09	-0.30846432
48	0xbe9a474a	-0.30132514
49	0x3cf16237	0.029465778
50	0x3d7121df	0.058870193
51	0xbdcdd596	-0.10050504
52	0x3e33298b	0.17496316
53	0xbe102c9b	-0.14079516
54	0xbdbf876a	-0.09352
55	0x3e86431b	0.26223072
56	0x3e68f2d4	0.22748882
57	0x3e1310a5	0.14361818
58	0xbe063a5b	-0.13108198
59	0x3dac9a28	0.084278405
60	0x3e94d0f3	0.29065666
61	0x3de26eff	0.11056327
62	0x3e3ae14f	0.18250011
63	0xbeba8624	-0.36430466
64	0xbe76d607	-0.24105082
65	0xbf051164	-0.5197966
66	0x3e6f7b4f	0.23386882
67	0xbe765ec8	-0.24059594
68	0xbe97ce3c	-0.29649532
69	0xbc948313	-0.018128907
70	0x3c2b5ea9	0.01045958
71	0xbe360725	-0.17776163
72	0xbefa6359	-0.4890392
73	0xbe973ba6	-0.29537696
74	0x3e7c7a19	0.24655952
75	0xbef7c98a	-0.4839595
76	0x3e23b95b	0.15988676
77	0x3d93c514	0.07215324
78	0xbd22bf23	-0.039733063
79	0xbeaa5d31	-0.33274224
80	0x3e15a2c4	0.14612871
81	0x3ef963a9	0.48708847
82	0xbf08a759	-0.5338035
83	0x3c99a79a	0.018756676
84	0x3cdd5387	0.027017368
85	0x3e5b2f7e	0.21404836
86	0x3e2ce102	0.16882709
87	0xbe348379	-0.17628278
88	0xbe93ffca	-0.2890609
89	0xbe88bbfa	-0.26705915
90	0x3e68e937	0.22745214
91	0x3ed26d6e	0.41099113
92	0xba3e5572	-0.0007260657
93	0x3d490277	0.049074616
94	0x3e347355	0.1762212
95	0xbe72fa24	-0.23728234
96	0xbdb05b8e	-0.08611213
97	0xbf10ba78	-0.5653453
98	0xbead3b3c	-0.33834255
99	0xbe70b9d3	-0.23508386
100	0x3e398806	0.18118295
101	0x3d0e44ff	0.03473377
102	0x3d993f2c	0.07482752
103	0x3c445e34	0.01198535
104	0xbf3d7ffd	-0.7402342
105	0x3f36eb41	0.7145272
106	0x3f1f1638	0.6214328
107	0xbe76e8a3	-0.24112181
108	0x3e981237	0.29701397
109	0xbd8cd98b	-0.068774305
110	0xbe51e655	-0.20498021
111	0x3e350430	0.17677379
112	0x3f121e17	0.57077163
113	0x3ec7d07a	0.39026242
114	0x3e38dd91	0.18053271
115	0xbe587b24	-0.21140724
116	0xbe8f132f	-0.27944323
117	0xbe8abb64	-0.27096093
118	0x3d90f7c6	0.07078509
119	0x3c19f540	0.009396851
120	0x3f158769	0.58409745
121	0xbeac45f3	-0.33647117
122	0x3df41035	0.11917154
123	0x3de66fb0	0.112517715
124	0xbe80e39f	-0.2517366
125	0xbe0b1fcd	-0.1358635
126	0xbe1174ba	-0.14204684
127	0xbe49fd9e	-0.19725654
128	0xbef75be2	-0.4831229
129	0xbed235a2	-0.41056544
130	0x3bf489af	0.007462702
131	0x3ec8d333	0.39223632
132	0xbee14db1	-0.44004586
133	0x3e6af9d8	0.2294687
134	0xbe9d0bca	-0.30673057
135	0xbeb10527	-0.34574243
136	0x3e52c9c0	0.20584774
137	0xbe06afc7	-0.13152991
138	0xba876db5	-0.0010332378
139	0xbd03a2a5	-0.03213753
140	0xbc90e9bb	-0.017689576
141	0x3d2634a8	0.04057756
142	0xbc5ce94d	-0.013483358
143	0xbef1a97e	-0.47199625
144	0xbe9cecde	-0.30649465
145	0xbe56dbef	-0.20982336
146	0xbd0dec68	-0.034649283
147	0x3e2beb9c	0.16789097
148	0xbdf30a56	-0.11867206
149	0xbe3ecac3	-0.18632035
150	0x3d0af257	0.03392252
151	0x3de52867	0.11189347
152	0xbc8c6746	-0.017139088
153	0xbe8e4c87	-0.2779276
154	0x3df5c8e0	0.120012045
155	0xbd4e5003	-0.050369274
156	0x3ea99693	0.33122692
157	0x3e15e8df	0.14639615
158	0x3e87bf67	0.26513216
159	0xbd9d3e3f	-0.07677888
160	0xbcb5e1fd	-0.022202486
161	0xbeda6efe	-0.42662805
162	0xbe78dc79	-0.24302854
163	0x3e2cf158	0.1688894
164	0xbc8fddf8	-0.017561898
165	0xbd73a800	-0.05948639
166	0xbec13017	-0.37732002
167	0xbd9e54c1	-0.07731009
168	0xbf0cc136	-0.54982316
169	0xbd8e25b4	-0.06940785
170	0x3d32d07d	0.04365586
171	0xbd2e9e68	-0.042631537
172	0xbf629b2b	-0.8851802
173	0xbc194e0f	-0.0093569895
174	0xbea12872	-0.3147617
175	0x3f640fac	0.89086413
176	0xbe6a30b3	-0.2287014
177	0xbec4af9f	-0.38415238
178	0x3e0666c0	0.13125134
179	0x3c948462	0.018129531
180	0xbf02f296	-0.51151407
181	0x3e9adf02	0.30248266
182	0xbe4a31f6	-0.19745621
183	0xbb7cc48a	-0.0038569295
184	0xbe188f3b	-0.14898388
185	0x3f05a7ec	0.52209353
186	0xbd2390b1	-0.03993291
187	0xbd44821f	-0.047975656
188	0x3e1b34f8	0.15156925
189	0x3ce0c741	0.027438762
190	0xbbef2413	-0.0072980016
191	0x3db7a912	0.089677945
192	0xbe0e8694	-0.13918525
193	0xbf15dcd3	-0.58540076
194	0xbe2bf6df	-0.16793393
195	0xbe03e035	-0.12878497
196	0xbdbad896	-0.09123342
197	0xbce5f8d3	-0.02807275
198	0xbe95caff	-0.29256436
199	0xbdcf6077	-0.10125821
200	0xbed1cb8c	-0.40975606
201	0xbefd1962	-0.49433428
202	0xbe06d7d5	-0.13168271
203	0xbda675c0	-0.08127928
204	0xbd20d02e	-0.039261036
205	0xbef008b9	-0.46881655
206	0xbe61bc5b	-0.22044508
207	0xbe436344	-0.19080836
208	0x3ee77e8b	0.45213732
209	0x3ebb2feb	0.36559996
210	0xbd63c63f	-0.055608984
211	0x3db3bc3f	0.087761395
212	0xbe3f69af	-0.18692659
213	0x3e85833c	0.26076686
214	0x3e672856	0.2257398
215	0xbea564a6	-0.3230335
216	0xbf145d39	-0.57954746
217	0x3f2d24a4	0.67634034
218	0x3ed2d74f	0.41179892
219	0xbe5c50e8	-0.21515238
220	0x3e0cbf8d	0.13744946
221	0x3d80df61	0.06292606
222	0x3ecbc843	0.39801225
223	0x3e235fac	0.15954465
224	0x3eaecc48	0.3414023
225	0x3eedef3d	0.46471587
226	0xbee43437	-0.44571087
227	0x3da056dd	0.07829068
228	0x3e82a7b8	0.25518584
229	0x3c7f37fc	0.015577313
230	0x3e657cec	0.22410935
231	0x3e93398e	0.28754848
232	0xbe30bfc9	-0.1726066
233	0xbf2e1763	-0.68004435
234	0x3dc0fbd6	0.09423034
235	0xbbd415e2	-0.006472335
236	0x3dbeb7aa	0.09312375
237	0x3d86add6	0.06576125
238	0xbe675863	-0.2259231
239	0x3d3dedba	0.04636929
240	0xbf2d8e4e	-0.67795265
241	0xbe3f80e5	-0.18701513
242	0x3e93d1ec	0.28871095
243	0xbdc13c51	-0.094353326
244	0x3e86e5ce	0.26347202
245	0xbe85ea3c	-0.2615527
246	0xbdf5e7fa	-0.12007137
247	0xbf31ba5c	-0.69424987
248	0x3d4d50cd	0.050125886
249	0xbed79756	-0.42107648
250	0x3e4a91cd	0.19782181
251	0xbec85a1f	-0.39131257
252	0xbeecffa1	-0.4628878
253	0x3e1a4568	0.15065539
254	0x3ee0b8a8	0.43890882
255	0xbe55e8bb	-0.20889561

actor.preprocess.model.model.0.bias f4 [64]
0	0x3c1ff3ea	0.0097627435
1	0x3cee16e9	0.029063659
2	0x3e6b2096	0.2296165
3	0x3c51ea5d	0.012812224
4	0xbcc8c284	-0.024506815
5	0xbc82e3b9	-0.015977727
6	0x3d4d7fac	0.050170586
7	0xbd27c77a	-0.04096172
8	0x39befae8	0.00036426564
9	0xbc18f67e	-0.009336112
10	0xbc00d753	-0.007863837
11	0x3c852d7f	0.016257046
12	0xbe26d6d8	-0.16292894
13	0x3e8e8b48	0.27840638
14	0xbd3100d4	-0.04321368
15	0xbda36863	-0.079788946
16	0x3c8d8acd	0.0172781
17	0xbd1b1cc4	-0.03786923
18	0x3c94d347	0.018167151
19	0xbd4dfa88	-0.050287753
20	0xbe2bcf69	-0.1677834
21	0x3dbb1ff4	0.09136954
22	0xbcb0178f	-0.021495609
23	0x3dbb142c	0.09134707
24	0xbd98cdee	-0.07461153
25	0xbab54587	-0.0013829925
26	0xbd6a10ab	-0.057144802
27	0x3e9585d7	0.29203674
28	0x3d84802d	0.0646976
29	0xbd0b1158	-0.033952087
30	0x3cfc6e45	0.0308143
31	0x3d2da724	0.042395726
32	0xbbe3a20a	-0.006946807
33	0xbe06ea88	-0.13175404
34	0x3cd74bd3	0.026281273
35	0xbdd531f7	-0.10409921
36	0xbd0f4b02	-0.034983642
37	0x3dccfeda	0.100095466
38	0x3dd75777	0.105147295
39	0xbdfd5b8d	-0.123709776
40	0xbcf788e4	-0.030216642
41	0xbd3a3fff	-0.045471188
42	0x3dbfd59d	0.093669154
43	0x3cc99b0a	0.024610061
44	0xbc619239	-0.013767772
45	0x3c093666	0.008374786
46	0x3dd44e9b	0.10366555
47	0xbddcf3e4	-0.10788706
48	0xbd09e398	-0.033664316
49	0xbc037939	-0.008024507
50	0xbd3dfbe4	-0.0463828
51	0x3cb5194a	0.022106785
52	0x3c5be1cf	0.013420536
53	0xbe258a69	-0.1616608
54	0x3d8b51c6	0.068027064
55	0xbd40868a	-0.047003306
56	0xbe536e19	-0.20647468
57	0xbdb66890	-0.089066625
58	0xbbbad08e	-0.005701131
59	0x3c34e495	0.011040826
60	0xbd1773f7	-0.036975827
61	0x3989da74	0.00026293437
62	0xbe88c05b	-0.26709256
63	0x3d580bed	0.05274575

actor.preprocess.model.model.2.weight f4 [64, 64]
0	0x3da01b97	0.07817762
1	0x3aed86c6	0.0018121831
2	0xbbbe98f4	-0.0058165733
3	0xbe36d9e9	-0.17856564
4	0x3e9aa0c9	0.30200794
5	0x3dffa3ed	0.12482438
6	0xbdf4cd33	-0.11953201
7	0xbe22577d	-0.15853687
8	0x3d0e7ad5	0.03478511
9	0x3bad8144	0.0052949507
10	0xbda4fccb	-0.08056029
11	0x3d66db75	0.056361634
12	0x3e351a06	0.17685708
13	0xbe545291	-0.20734622
14	0xbd7b6860	-0.061378837
15	0x3e97e197	0.296643
16	0x3dad51e1	0.08462883
17	0x3eb8b345	0.36074272
18	0xbddec7ee	-0.10877977
19	0x3e8ca84c	0.2747215
20	0x3e244988	0.16043675
21	0x3d8c107c	0.06839082
22	0x3deaa54f	0.11457311
23	0xbe265e94	-0.16247016
24	0x3deb88d2	0.11500706
25	0xbe73b053	-0.23797731
26	0x3e8e99de	0.27851766
27	0xbed309be	-0.4121837
28	0x3ee5f58d	0.44913903
29	0x3e901b8b	0.28146014
30	0x3d59133e	0.052996866
31	0x3dd59d5d	0.10430405
32	0x3c723b50	0.014784649
33	0xbdf9daf2	-0.12199964
34	0x3f1120fb	0.5669095
35	0x3ebd8e0b	0.37022433
36	0x3eb4592e	0.3522429
37	0xbcf2c5c0	-0.02963531
38	0xbe24fcf4	-0.16112119
39	0x3eda9cbe	0.4269771
40	0x3d9f142c	0.07767519
41	0x3e4f6045	0.20251568
42	0xbe8a56b0	-0.27019262
43	0xbe7ba5bf	-0.24574946
44	0xbd3a0843	-0.045418035
45	0xbd947b92	-0.07250132
46	0xbe0ec854	-0.13943607
47	0x3eda0c97	0.4258773
48	0x3c833b30	0.016019434
49	0x3e4b8846	0.19876203
50	0x3da9d623	0.082927965
51	0x3d7bb975	0.061456162
52	0xbe95961b	-0.29216084
53	0x3f072d7b	0.5280377
54	0x3d3c5541	0.045979742
55	0xbbc160fe	-0.005901455
56	0x3efb5fe6	0.49096602
57	0x3e2f000f	0.17089866
58	0x3e913c8f	0.28366515
59	0x3e70eaa2	0.23527005
60	0x3d0c539f	0.034259435
61	0x3e494c03	0.19657902
62	0x3d4b7ad4	0.049677685
63	0xbe75cba4	-0.24003464
64	0x3ee0d5a6	0.43913
65	0xbeec5a69	-0.46162727
66	0xbe3fe731	-0.18740536
67	0x3e3f2af3	0.18668728
68	0xbc41f4ce	-0.011838151
69	0x3de317b5	0.11088506
70	0xbde62aa7	-0.11238604
71	0x3e30752d	0.17232199
72	0x3f1efba9	0.6210275
73	0x3f05e5e9	0.5230394
74	0xbef671d6	-0.48133725
75	0x3edd37c5	0.4320661
76	0x3edbf0c4	0.42957127
77	0xbeb525b9	-0.35380343
78	0xbec28247	-0.3799002
79	0x3c06ba92	0.008223193
80	0x3f53fa26	0.8280357
81	0xbd4da3df	-0.050205108
82	0x3ebb42df	0.36574456
83	0x3e0d67e9	0.1380917
84	0x3e55eb67	0.2089058
85	0x3f0ecde3	0.5578291
86	0x3f090429	0.5352197
87	0xbe3cdd06	-0.18443689
88	0x3e6b725c	0.22992843
89	0x3f3f9b44	0.7484629
90	0xbecfeaa2	-0.40608698
91	0xbe573f29	-0.21020187
92	0xbf257216	-0.64627206
93	0x3f062533	0.5240051
94	0x3f2a5f4f	0.6655168
95	0x3d58eb03	0.0529585
96	0xbf7c0c33	-0.98456115
97	0xbeaa7b74	-0.33297312
98	0xbe3d3720	-0.1847806
99	0x3ebf4097	0.37353966
100	0x3ed30d38	0.41221023
101	0xbeeeaa9f	-0.4661455
102	0x3e774b0e	0.24149725
103	0xbe016699	-0.12636794
104	0xbf1f77fc	-0.62292457
105	0x3bb391d8	0.0054800324
106	0x3dab6faa	0.083709076
107	0xbea5a03f	-0.3234882
108	0xbed7936f	-0.4210467
109	0xbeabf9df	-0.33589074
110	0xbd87fa9a	-0.06639595
111	0xbd60a7ba	-0.054847457
112	0x3e96098c	0.2930416
113	0xbee77ca1	-0.45212272
114	0xbe7212d0	-0.23639989
115	0xbf61a181	-0.8813706
116	0x3e1be0f3	0.1522253
117	0x3d62bc77	0.055355515
118	0x3efe0c43	0.4961873
119	0xbf70f2d3	-0.9412052
120	0x3d902a69	0.07039339
121	0xbea4b1b0	-0.32166815
122	0x3e65e4d0	0.22450566
123	0x3f1140a2	0.56739247
124	0xbe974228	-0.2954266
125	0x3f8f6b01	1.120453
126	0x3e66f700	0.2255516
127	0x3ef5f5c4	0.48039067
128	0x3e449fbc	0.19201559
129	0xbd943ddc	-0.07238361
130	0xbe9ba543	-0.30399522
131	0x3eae5b68	0.34054112
132	0xbf01e801	-0.50744635
133	0x3ec1959e	0.3780946
134	0x3ccc0960	0.024906814
135	0xbe3b2781	-0.18276788
136	0x3f7b98ac	0.98279834
137	0x3f1607a6	0.5860542
138	0xbe66298d	-0.22476788
139	0x3eb833ab	0.3597692
140	0x3b7c9567	0.00385412
141	0x3dba5250	0.09097731
142	0xbd52e163	-0.051484477
143	0x3e5036b5	0.20333369
144	0x3f41e2e3	0.75736827
145	0xbe29b0df	-0.16571377
146	0xbcb742d9	-0.022370743
147	0xbde5a5f0	-0.11213291
148	0x3e3ffb78	0.18748271
149	0x3f292df0	0.6608572
150	0x3f4cf66d	0.80063516
151	0xbe71488f	-0.23562835
152	0x3dfbd448	0.12296349
153	0x3f4e03d9	0.8047462
154	0xbe402c41	-0.18766882
155	0xbecbc33f	-0.39797398
156	0xbe8ae8f5	-0.27130857
157	0x3eaef9d6	0.34174985
158	0x3ea35d12	0.31906945
159	0x3da1315b	0.07870742
160	0xbf31b691	-0.694192
161	0xbe3ab744	-0.18233973
162	0xbdc23610	-0.09482968
163	0x3f23046f	0.6367864
164	0x3f0544c0	0.5205803
165	0xbe2487e2	-0.1606746
166	0x3df8195d	0.12114213
167	0x3d467fd4	0.04846175
168	0xbf1fdfd2	-0.624509
169	0x3df5c739	0.12000889
170	0x3d445ae1	0.04793823
171	0xbe7157e8	-0.2356869
172	0xbe9c2fb4	-0.30505145
173	0xbea2d973	-0.31806526
174	0x3dd54060	0.10412669
175	0x3d8d3ae5	0.06895999
176	0x3ee5656e	0.44803947
177	0xbebab025	-0.36462513
178	0xbf04d82b	-0.51892346
179	0xbf5bedd2	-0.8590976
180	0x3e2cc9c3	0.16873841
181	0x3f2b3b93	0.6688778
182	0x3f5bf6c5	0.85923415
183	0xbf85c788	-1.0451517
184	0xbe939d04	-0.2883073
185	0xbe962e80	-0.29332352
186	0x3d17388c	0.03691916
187	0x3f1cea82	0.6129533
188	0xbea03ac7	-0.31294844
189	0x3f36b153	0.71364325
190	0x3e699516	0.22810778
191	0xb8b78203	-8.7503366e-05
192	0x3e143168	0.14471972
193	0xbe54316a	-0.20721975
194	0x3e6c4466	0.23072967
195	0x3ce3fe62	0.02783126
196	0x3d5b810d	0.05358987
197	0x3daa0096	0.08300893
198	0x3f01a0a7	0.5063576
199	0x3d7fbf52	0.062438317
200	0x3e017b73	0.12644748
201	0x3f10837b	0.56450623
202	0xbea98927	-0.3311245
203	0x3ea4789a	0.32123262
204	0xbccfdb84	-0.025373228
205	0x3e86a6a5	0.26299015
206	0xbe93ff17	-0.28905556
207	0xbeb0f237	-0.34559795
208	0x3db2d3cf	0.087318055
209	0x3d95e439	0.07318921
210	0xbde5a55d	-0.11213181
211	0x3c589eb5	0.013221432
212	0xbe81bac7	-0.25337812
213	0xbcf8b9b3	-0.030361986
214	0xbe8a98de	-0.27069753
215	0x3cdf5ea9	0.027266817
216	0x3d4500c2	0.048096426
217	0x3eb06043	0.34448442
218	0xbea2e0ef	-0.31812236
219	0x3e8e84fd	0.27835837
220	0xbe85a50b	-0.2610248
221	0xbe701400	-0.2344513
222	0x3d556772	0.052100606
223	0xbe77c199	-0.24194945
224	0xbe1caf2a	-0.15301195
225	0xbd51b167	-0.051194575
226	0x3d40c1d5	0.047059853
227	0x3e16aa04	0.14713293
228	0xbda6a5af	-0.081370704
229	0x3e1c6630	0.15273356
230	0xbe10345c	-0.14082474
231	0xbee4022d	-0.4453291
232	0x3e4d5db2	0.20055273
233	0xbcf19831	-0.029491516
234	0x3e759a8c	0.23984736
235	0x3cc7eac1	0.024403932
236	0xbe3d6f15	-0.18499406
237	0x3e0a5468	0.13508761
238	0x3ec96ae6	0.3933937
239	0xbead7a0d	-0.3388218
240	0xbd2cc851	-0.042183224
241	0x3e84582e	0.25848526
242	0xbea44ba3	-0.32088956
243	0xbe977afd	-0.2958602
244	0x3d6fc7ef	0.05854028
245	0xbeaed301	-0.34145358
246	0x3ec087a4	0.37603486
247	0x3d87e4a7	0.06635409
248	0xbe8585f7	-0.2607877
249	0xbdcc7fd8	-0.09985322
250	0xbd65d857	-0.05611452
251	0xbdf2e510	-0.118600965
252	0xbd928c36	-0.07155649
253	0x3e6ce3b0	0.23133731
254	0xbe9ba50b	-0.30399355
255	0xbd020eb0	-0.03175229

actor.preprocess.model.model.2.bias f4 [64]
0	0xbe08b88a	-0.13351646
1	0x3c827836	0.015926462
2	0x3c3ecc77	0.011645428
3	0x3c85b9f3	0.016324019
4	0xbcdb5ada	-0.02677672
5	0x3ddeab7a	0.1087255
6	0xbce0fd3a	-0.027464498
7	0x3dbb7fb4	0.09155217
8	0x3e0d3597	0.13789974
9	0x3d8afdd5	0.06786696
10	0xbe0b1d01	-0.13585283
11	0xbd089ce7	-0.03335276
12	0xbcbe39d8	-0.023220941
13	0x3b43e3b2	0.0029890356
14	0x3e06fd46	0.13182554
15	0xbd9aab8e	-0.07552253
16	0xbbb00f5c	-0.0053729247
17	0x3d33723e	0.04381012
18	0xbb9476d8	-0.004530769
19	0x3d440ea0	0.04786551
20	0x3c61d696	0.013784071
21	0x3c9a3537	0.018824203
22	0xbd69a07d	-0.05703782
23	0x3c52ae62	0.012858959
24	0x3d5ff30f	0.054675158
25	0x3dc05c84	0.09392646
26	0x3d0192f7	0.031634297
27	0x3d378dea	0.044813074
28	0xbd25e81c	-0.04050456
29	0xbdf1b4fd	-0.11802099
30	0x3d0041b8	0.031312674
31	0xbc818d40	-0.015814424
32	0x3ce4307f	0.027855156
33	0xbdb5dcc1	-0.08879996
34	0x3d968fcd	0.073516466
35	0xbcd1854c	-0.025576256
36	0xbde93632	-0.1138729
37	0xbe0b855c	-0.13625091
38	0xbd928f32	-0.071562186
39	0x3d89731a	0.06711407
40	0x3e0da103	0.13830952
41	0x3ca3412f	0.019928543
42	0xbe22b251	-0.15888335
43	0xbdf323a2	-0.11872031
44	0x3d926af4	0.07149306
45	0xbe0fe3dd	-0.14051767
46	0xbb8549b9	-0.0040676263
47	0x3ddb9cbd	0.10723255
48	0xbd30c69c	-0.04315816
49	0x3e197514	0.14986068
50	0x3d952884	0.07283118
51	0x3ca5e857	0.02025239
52	0x3d9f7b94	0.077872425
53	0x3e07139f	0.13191079
54	0xbe058fbe	-0.13043115
55	0x3cf2a4e3	0.02961964
56	0x3dd1d74b	0.10246142
57	0x3dbbfe19	0.09179325
58	0xbcfdb39b	-0.030969432
59	0x3e258025	0.16162165
60	0xbda41a72	-0.080128565
61	0x3d095515	0.033528406
62	0xbd6cf0c8	-0.057846814
63	0x3ce32d63	0.027731603

actor.mu.model.0.weight f4 [2, 64]
0	0xbf812e80	-1.0092316
1	0xbec713d8	-0.38882327
2	0xbf02eb13	-0.51139945
3	0x3f7d3aef	0.9891805
4	0xbea6401d	-0.3247079
5	0x3f82fc0b	1.0233167
6	0xbca905e5	-0.020632694
7	0x3f8091d1	1.00445
8	0x3f7f684e	0.9976853
9	0x3f7d5620	0.9895954
10	0xbf82975f	-1.0202445
11	0xbe98ae95	-0.29820696
12	0xbe8cfd18	-0.27536845
13	0xbe853a6d	-0.26021138
14	0x3f821915	1.0163904
15	0xbf849ed1	-1.0360967
16	0x3ea3d50c	0.3199848
17	0x3f84046d	1.0313851
18	0xbe86cff1	-0.26330522
19	0x3e0c5ced	0.13707323
20	0x3eac34d4	0.33634055
21	0x3ed6c4a8	0.41946912
22	0xbf8332aa	-1.0249836
23	0x3ebeaade	0.37239736
24	0x3f812e0f	1.0092181
25	0x3f804e32	1.0023863
26	0x3ebf3f20	0.37352848
27	0x3f8463ca	1.0342953
28	0xbe19da0c	-0.15024585
29	0xbf7bd907	-0.9837803
30	0x3f2d8725	0.6778434
31	0x3de396a2	0.11112715
32	0x3ecc6bf6	0.39926118
33	0xbf832b2f	-1.0247554
34	0xbf34328c	-0.7038963
35	0xbf6a7e14	-0.9159863
36	0xbf808ab1	-1.0042325
37	0xbf82f0fe	-1.0229795
38	0xbf7d9a8b	-0.9906394
39	0x3f84236c	1.032331
40	0x3f80909d	1.0044132
41	0x3ec1944e	0.3780846
42	0xbf7ac487	-0.97956127
43	0xbf7db5c6	-0.9910549
44	0x3f819a25	1.0125166
45	0xbf7e41f7	-0.99319404
46	0x3e831380	0.25600815
47	0x3f81f3d0	1.0152531
48	0xbf77fcc0	-0.9687004
49	0x3f8157aa	1.0104878
50	0x3f158dbc	0.58419394
51	0x3f77c8a1	0.9679051
52	0x3f737926	0.9510673
53	0x3f823886	1.01735
54	0xbf82199e	-1.0164068
55	0xbf0f7e43	-0.56052035
56	0x3f82d3af	1.0220851
57	0x3f826326	1.0186508
58	0xbd37ba89	-0.04485563
59	0x3f80e75a	1.0070603
60	0xbf7d55a5	-0.9895881
61	0x3f7a2078	0.97705793
62	0xbe9ddb3f	-0.30831334
63	0x3d2d40a8	0.04229799
64	0xbd36a1ce	-0.044587903
65	0xc016c333	-2.355664
66	0xc00f5995	-2.2398427
67	0xbda138ab	-0.07872137
68	0x3f9270d7	1.1440686
69	0x3d0589ae	0.032602005
70	0x3f923730	1.1423092
71	0x3d51e977	0.05124804
72	0x3d605ba2	0.054774888
73	0xbd3a3a49	-0.04546574
74	0xbd822fcd	-0.063567735
75	0x3f83347f	1.0250396
76	0xc00914d9	-2.1418974
77	0xc01e6651	-2.474995
78	0x3d4dadd3	0.0502146
79	0xbd886e3c	-0.066616505
80	0x40084536	2.1292243
81	0x3d4f2af4	0.050578073
82	0x3f98e9ff	1.194641
83	0xbfa351c6	-1.275933
84	0x40158d2f	2.3367422
85	0x4022b40f	2.54224
86	0xbca39ed7	-0.019973202
87	0x40053bb1	2.0817683
88	0xbc46f0ab	-0.012142341
89	0x3d62847d	0.055302132
90	0x40254cae	2.5828052
91	0x3d214539	0.039372656
92	0x3fa1f32c	1.2652335
93	0xbd9e1a71	-0.07719887
94	0xbf5ad403	-0.85479754
95	0xc000d3fb	-2.0129383
96	0x40030963	2.047448
97	0xbc731bea	-0.014838198
98	0x3f80be2f	1.005804
99	0xbf5078e6	-0.81434476
100	0xbc9b7d9c	-0.018980794
101	0xbd84138d	-0.064490415
102	0xbcabb5c9	-0.020960705
103	0x3d5a292e	0.05326193
104	0x3d37984b	0.044822972
105	0x4012e5de	2.29528
106	0xbd8ee98d	-0.0697814
107	0xbd9d0817	-0.07667559
108	0x3d546600	0.051855087
109	0xbd6a689d	-0.057228673
110	0x400fd559	2.2473967
111	0x3c20281e	0.00977519
112	0x3e2acccd	0.16679688
113	0x3d790c0c	0.060802504
114	0x3fec61b5	1.8467318
115	0xbd5de35e	-0.054171912
116	0x3c0244ec	0.007951003
117	0x3d6a888e	0.057259135
118	0xbd7aec1f	-0.06126034
119	0xc008c89b	-2.137244
120	0x3d03c870	0.032173574
121	0x3d66c8b8	0.056343764
122	0x3f999e50	1.2001438
123	0x3d9c8c48	0.07643944
124	0xbdc7289b	-0.09724542
125	0xbca1ad57	-0.019735975
126	0x3f8aae5b	1.0834459
127	0x3fe43f2d	1.783178

actor.mu.model.0.bias f4 [2]
0	0x3e3f7c5d	0.18699785
1	0x3ddcb245	0.1077619

critic.preprocess.model.model.0.weight f4 [64, 8]
0	0x3df6b07e	0.12045382
1	0xbe44b6fc	-0.19210428
2	0xbdd62d0d	-0.104578115
3	0xbd1a9135	-0.037736136
4	0xbe13a1fc	-0.14417261
5	0x3d6d4b36	0.057933055
6	0xbcf18d89	-0.029486435
7	0x3d08216b	0.033234995
8	0x3d74313e	0.059617274
9	0xbe50ec8f	-0.2040274
10	0xbe819905	-0.25312057
11	0x3c9b5617	0.01896195
12	0xbd930ceb	-0.07180198
13	0xbd43a97c	-0.047769055
14	0xbba46259	-0.0050166068
15	0x3c332821	0.01093486
16	0x3e46704d	0.19378777
17	0x3ea4dd0b	0.32199892
18	0xbce92009	-0.028457658
19	0xbed8c845	-0.42340294
20	0x3ce520ae	0.027969684
21	0x3e16aa37	0.1471337
22	0xbd5c3c1e	-0.05376827
23	0x3d9b78c9	0.07591397
24	0xbf2a458a	-0.6651236
25	0x3d91b477	0.07114499
26	0xbf51c757	-0.81944793
27	0xbdf990bc	-0.12185809
28	0x3e1f56aa	0.15560403
29	0xbc7ec6fd	-0.015550372
30	0xbe1276d5	-0.14303143
31	0x3d1cbb7f	0.038264748
32	0x3cd78734	0.026309587
33	0x3e1a9fe3	0.15100054
34	0x3ee89d95	0.45432726
35	0xbe4c75dc	-0.19966835
36	0x3e406dff	0.1879196
37	0xbe94df26	-0.290765
38	0xbe0d3d3c	-0.1379289
39	0x3d406b00	0.046977043
40	0xbe5135f1	-0.20430733
41	0x3e5cdca5	0.21568544
42	0xbe0d485f	-0.13797139
43	0xbeae6996	-0.3406493
44	0xbe7783bc	-0.24171346
45	0xbe48c516	-0.19606432
46	0xbe229efb	-0.15880959
47	0xbd859b97	-0.06523817
48	0x3e76a179	0.24085034
49	0x3e350c1f	0.17680405
50	0x3ddbc829	0.10731537
51	0x3e9bf021	0.3045664
52	0x3ee71ea4	0.45140564
53	0xbed918a4	-0.42401612
54	0xbe1a5915	-0.15073045
55	0x3dc9343e	0.098244175
56	0xbef5b535	-0.47989812
57	0xbe5aa7c8	-0.21353066
58	0xbeaa8239	-0.33302477
59	0x3f065b51	0.5248309
60	0xbb7c20b9	-0.0038471653
61	0xbda1581b	-0.07878133
62	0xbdc6f045	-0.097137965
63	0x3db9ba34	0.090687186
64	0x3f0b00ae	0.5429791
65	0xbcbbe621	-0.022936882
66	0xbe731aef	-0.23740743
67	0xbdad204d	-0.084534265
68	0x3e141ee9	0.14464916
69	0xbdd4b763	-0.10386541
70	0xbe61aef4	-0.22039396
71	0xbdae72a2	-0.08517958
72	0x3e20ed1c	0.1571545
73	0xbe310162	-0.17285684
74	0xbd91bc53	-0.07115998
75	0x3d97538b	0.073889814
76	0x3dde8821	0.10865808
77	0x3e4f179e	0.20223853
78	0x3d6d1e1f	0.057890054
79	0x3e944a04	0.2896272
80	0x3e17ebf7	0.14836107
81	0x3ea79d15	0.32737032
82	0x3eaf7264	0.3426696
83	0x3d097787	0.033561256
84	0x3d50919e	0.05092012
85	0x3e247ff5	0.16064437
86	0x3dc05fa6	0.093932435
87	0x3d930b1e	0.07179855
88	0x3e1c95a5	0.1529146
89	0x3e2b82dd	0.16749139
90	0xbd5ebec3	-0.054381143
91	0x3dbb89f9	0.091571756
92	0xbe128381	-0.14307977
93	0x3d8be912	0.06831564
94	0x3e54a9d6	0.20767912
95	0x3e56ff06	0.20995721
96	0xbed24194	-0.41065657
97	0x3e129f7a	0.14318648
98	0xbe40ee33	-0.18840866
99	0xbe97c28c	-0.29640615
100	0xbd84f4fb	-0.06492039
101	0xbbbf1027	-0.005830783
102	0x3e5d509d	0.21612783
103	0xbd1019fa	-0.035181023
104	0xbe905551	-0.2819009
105	0x3ec5a4e5	0.38602367
106	0x3e49a75d	0.1969275
107	0x3cb441b7	0.022003992
108	0x3d0c29bc	0.03421949
109	0x3e8c5045	0.2740499
110	0x3e11d42a	0.1424109
111	0x3e0e25cb	0.13881604
112	0x3f0783f3	0.52935714
113	0x3df61df3	0.12017431
114	0x3e3d3c5c	0.18480057
115	0x3dcde437	0.10053294
116	0x3e26b6b2	0.1628063
117	0x3eaf5813	0.34246883
118	0x3d8675c7	0.06565433
119	0x3e119882	0.14218333
120	0xbdbe15df	-0.09281515
121	0xbe1ac905	-0.15115745
122	0x3d8105ce	0.06299935
123	0x3e0c3327	0.13691388
124	0xbe0d3aa1	-0.13791896
125	0x3e6defe5	0.23236044
126	0x3d173e1f	0.036924478
127	0xbd5a9793	-0.05336721
128	0xbe0bbe72	-0.13646868
129	0x3d98d4fc	0.074624985
130	0x3d372239	0.04471037
131	0xbe765f8d	-0.24059887
132	0x3d88b580	0.066752434
133	0x3e0e9b78	0.13926494
134	0xbeeba0ea	-0.46021205
135	0x3e883fbf	0.26611134
136	0xbe8628a6	-0.26202887
137	0x3ef00ca3	0.4688464
138	0x3f327e91	0.69724375
139	0x3c5371bc	0.012905534
140	0xbdbca5d5	-0.092113174
141	0x3e8afbf0	0.27145338
142	0x3e0aabc1	0.13542081
143	0x3e76ff47	0.24120818
144	0x3f045ceb	0.5170428
145	0xbe7d2890	-0.24722505
146	0xbdf3ac73	-0.118981265
147	0xbe77ff51	-0.24218489
148	0x3e32792a	0.17429033
149	0x3da1fb87	0.07909303
150	0xbe97fd3a	-0.29685384
151	0x3d1d787b	0.038444977
152	0xbf2d35ca	-0.676602
153	0x3ee9c26d	0.45656148
154	0x3ebba1c7	0.36646864
155	0xbc003a71	-0.0078264335
156	0x3e1444fe	0.14479443
157	0x3d4d2e63	0.050093066
158	0xbd3ac694	-0.045599535
159	0x3d4181ff	0.047243115
160	0xbeb1617e	-0.34644693
161	0x3eaf594e	0.34247822
162	0x3c81750b	0.01580288
163	0xbc9f48b0	-0.01944384
164	0xbd27d1a6	-0.04097142
165	0xbc897c1a	-0.016782809
166	0x3d475138	0.04866144
167	0x3d93d3c5	0.07218126
168	0xbe8bc0d5	-0.27295557
169	0x3e15e71a	0.1463894
170	0xbd1a64f6	-0.03769394
171	0xbe241be0	-0.16026258
172	0x3e169b35	0.14707644
173	0xbdb26f07	-0.08712583
174	0x3dd24600	0.10267258
175	0xbd8839b7	-0.06651633
176	0x3d89b2cd	0.06723557
177	0xbe649a27	-0.2232443
178	0x3df99155	0.12185923
179	0xbd19505b	-0.03743015
180	0x3db9c9f9	0.09071726
181	0x3d902fb8	0.07040352
182	0xbaee9869	-0.0018203381
183	0x3d9318f5	0.071824946
184	0xbd99d516	-0.07511346
185	0xbee27632	-0.442308
186	0x3d8da5c3	0.06916382
187	0x3dae8390	0.08521187
188	0x3e647c62	0.22313073
189	0xbe0e30cb	-0.138858
190	0xbe880ea9	-0.26573685
191	0xbe7cc647	-0.24685012
192	0x3dab5335	0.0836548
193	0xbe12b6c4	-0.14327532
194	0xbce2e226	-0.027695727
195	0x3da54f7c	0.08071801
196	0x3db11407	0.08646398
197	0x3d82dcde	0.06389783
198	0x3ddf10e6	0.10891895
199	0x3c5fa60b	0.013650428
200	0x3e833abd	0.2563075
201	0xbec84d22	-0.39121348
202	0xbde045a4	-0.10950783
203	0xbe7af146	-0.24506101
204	0x3e1ad009	0.15118422
205	0xbb9b6557	-0.0047423053
206	0xbdd5913b	-0.10428091
207	0x3dc996ac	0.098431915
208	0x3eee2ab2	0.4651695
209	0x3c123f93	0.00892629
210	0xbef671c5	-0.48133674
211	0xbd262a66	-0.040567778
212	0xbd225b37	-0.03963777
213	0xbd31edb0	-0.043439567
214	0x3cc1a497	0.023638053
215	0xbbb38577	-0.0054785567
216	0xbe635a8c	-0.2220251
217	0xbe59ad85	-0.21257599
218	0xbe956cc3	-0.2918454
219	0xbe951eeb	-0.2912515
220	0x3e9b20e8	0.30298543
221	0x3decfd4a	0.115717486
222	0xbdc65fa2	-0.09686209
223	0x3caad9c6	0.020855796
224	0xbd92020d	-0.071292974
225	0xbe30cc75	-0.17265494
226	0xbe0a5910	-0.13510537
227	0xbe56bc3b	-0.20970242
228	0x3e42fbed	0.19041415
229	0xbe7ed855	-0.24887212
230	0xbdfcd0b1	-0.12344492
231	0x3dd59a40	0.104298115
232	0x3c0b0910	0.008486047
233	0x3bdcd9d3	0.006739834
234	0x3e88f43b	0.26748833
235	0xbe3e59e1	-0.18588974
236	0x3e7200e4	0.23633152
237	0xbe658085	-0.22412308
238	0xbcb65b96	-0.022260468
239	0x3de832a2	0.113377824
240	0x3e51cd33	0.20488434
241	0x3db3dd88	0.08782488
242	0xbe06255c	-0.13100189
243	0xbd4a5b00	-0.04940319
244	0xbe8feebf	-0.28111836
245	0xbe073e60	-0.13207388
246	0x3e5d72a4	0.21625763
247	0x3ddec703	0.10877802
248	0x3ecca1ad	0.399671
249	0xbf004e9a	-0.50119936
250	0xbcc55a76	-0.024090987
251	0xbea8e100	-0.3298416
252	0xbea414fd	-0.32047263
253	0xb98bf356	-0.00026693445
254	0xbeafd8ea	-0.3434518
255	0xbd9c3b19	-0.076284595

critic.preprocess.model.model.0.bias f4 [64]
0	0xbe52cd36	-0.20586094
1	0x3e318b28	0.1733824
2	0xbe564eb8	-0.20928466
3	0x3e7562f3	0.23963527
4	0xbdc29d32	-0.09502639
5	0xbec75412	-0.38931328
6	0x3eab79ac	0.33491266
7	0x3efeffac	0.49804437
8	0xbeaf9a2b	-0.34297308
9	0x3e37d837	0.17953573
10	0x3eaa4937	0.33258983
11	0x3e8687b0	0.26275396
12	0xbd17253b	-0.03690074
13	0xbea694c5	-0.32535377
14	0x3e83877f	0.25689313
15	0x3da653b5	0.081214346
16	0xbb1a2a73	-0.0023523837
17	0x3e2c50de	0.16827723
18	0xbd4938c1	-0.04912639
19	0xbedd57ba	-0.43230993
20	0xbe41843c	-0.188981
21	0x3d3ed085	0.04658558
22	0xbe9133fc	-0.28359973
23	0x3ea41d5b	0.32053646
24	0xbecff811	-0.40618947
25	0xbeaf0312	-0.3418203
26	0x3efd5045	0.49475303
27	0xbe832263	-0.25612172
28	0xbdb87fdb	-0.090087615
29	0xbdf13492	-0.11777605
30	0x3ea05899	0.31317595
31	0xbd89f577	-0.06736272
32	0x3e773d4d	0.24144478
33	0x3e3f4fd7	0.186828
34	0x3e8ef9c6	0.27924937
35	0xbeec42ba	-0.46144658
36	0xbe32302e	-0.17401192
37	0x3de397b6	0.11112921
38	0x3df558e6	0.11979847
39	0xbe2c3753	-0.1681798
40	0x3e98ca6d	0.2984194
41	0xbe8a0847	-0.2695944
42	0x3e1094a6	0.14119205
43	0x3ef96e1a	0.48716813
44	0xbd9dfbac	-0.07714018
45	0x3e03b630	0.12862468
46	0xbe2b4939	-0.16727151
47	0x3dd8b0f5	0.10580627
48	0xbdd08a5a	-0.101826385
49	0xbee8a468	-0.45437932
50	0xbe674dc6	-0.22588262
51	0x3e99dddc	0.30052078
52	0xbd010a9a	-0.03150425
53	0xbee2e2d2	-0.44313675
54	0xbe89c3cf	-0.26907203
55	0xbd85c1f2	-0.06531133
56	0x3e09a45e	0.13441607
57	0xbf126b4b	-0.57194966
58	0x3e92e210	0.28688097
59	0x3cddb408	0.027063385
60	0x3a80282e	0.00097776
61	0xbd3e18fb	-0.046410542
62	0xbec125c4	-0.37724125
63	0x3d84b343	0.06479504

critic.preprocess.model.model.2.weight f4 [64, 64]
0	0x3c9b42cf	0.018952755
1	0x3dca3ed6	0.09875266
2	0x3decee0e	0.11568843
3	0xbd4296f0	-0.047507226
4	0x3d66371a	0.056204893
5	0xbe62eb75	-0.22160132
6	0x3ddd98ab	0.10820135
7	0x3e14470d	0.14480229
8	0xbc84518b	-0.016152164
9	0x3ebb176c	0.36541307
10	0x3dfa02de	0.12207578
11	0x3d4a6157	0.049409237
12	0xbef7b124	-0.48377335
13	0x3ce6e83a	0.028186906
14	0x3eb3276e	0.3499102
15	0x3bdae9ac	0.006680688
16	0x3dace177	0.084414415
17	0x3e3860ae	0.1800563
18	0xbd231537	-0.039815154
19	0x3dd83b4c	0.10558185
20	0x3ece4d14	0.4029318
21	0xbef65168	-0.48108983
22	0xbe51eab0	-0.20499682
23	0x3d9f5963	0.07780721
24	0xbdc878ce	-0.09788667
25	0x3de96486	0.113961264
26	0xbe5bbdb2	-0.21459082
27	0xbb042347	-0.0020162628
28	0xbdf7150e	-0.12064563
29	0xbcdfa1d6	-0.02729885
30	0x3d9d4d73	0.07680788
31	0x3defe0cf	0.11712801
32	0x3ea4c9af	0.32185122
33	0xbe249cdc	-0.16075462
34	0x3dc557e5	0.09635905
35	0x3cbb0848	0.022831097
36	0xbe3c1bd9	-0.18369998
37	0xbeaea300	-0.34108734
38	0x3e6f1741	0.23348714
39	0x3c4220a7	0.011848605
40	0xbd7064cf	-0.05868989
41	0xbce8ed4e	-0.028433468
42	0x3ed3fd48	0.41404176
43	0x3ded91f6	0.116001055
44	0xbe97a783	-0.2961999
45	0x3d811c59	0.06304235
46	0xbe442dba	-0.19158068
47	0x3e99b7fe	0.30023187
48	0x3e51e124	0.2049604
49	0x3ebe0cd1	0.37119153
50	0xbeb2123b	-0.34779534
51	0xbe7289be	-0.23685357
52	0xbe08b312	-0.1334956
53	0x3e9974e7	0.29972002
54	0xbe84b604	-0.25920117
55	0xbec25919	-0.379586
56	0x3eb024dd	0.34403124
57	0x3ed9f5a3	0.42570218
58	0x3e095562	0.13411477
59	0xbe8f68dd	-0.28009692
60	0xbe1ce618	-0.15322149
61	0x3e7d82ba	0.247569
62	0x3d247cbb	0.040158015
63	0x3dba724d	0.091038324
64	0xbc5e0cbf	-0.013552844
65	0xbd994294	-0.07483402
66	0xbe8c8f34	-0.27453005
67	0x3dc40325	0.09570912
68	0x3e328c28	0.17436278
69	0xbd26cc26	-0.040722035
70	0xbdad9127	-0.08474951
71	0xbd731ce0	-0.05935371
72	0x3e1d248b	0.15345971
73	0xbe4f206d	-0.20227213
74	0x3e85ffdc	0.26171768
75	0x3e2a61ea	0.16638914
76	0xbe9620d8	-0.29321933
77	0x3e4d7913	0.20065717
78	0xbea4e037	-0.32202312
79	0xbb86ec11	-0.004117497
80	0xbe574002	-0.21020511
81	0x3db77a4a	0.08958872
82	0xbe72f96f	-0.23727964
83	0x3e7494df	0.23884915
84	0xbdd784bc	-0.10523364
85	0xbe758e48	-0.23980057
86	0xbd9b28e6	-0.0757616
87	0x3e9c7497	0.305577
88	0x3d378179	0.04480121
89	0xbefad6c4	-0.48991978
90	0xbeea9b87	-0.45821783
91	0x3e28d8a4	0.16488892
92	0xbea0fe77	-0.3144414
93	0x3c56b88c	0.013105523
94	0x3e354b38	0.17704475
95	0xbe8f7007	-0.28015158
96	0x3e2fcb44	0.17167383
97	0x3d49fce5	0.049313445
98	0x3e4f9bc8	0.2027427
99	0xbe071e6f	-0.13195203
100	0x3cd04037	0.025421245
101	0xbedd970f	-0.4327931
102	0x3e542669	0.20717777
103	0xbd4f6a0e	-0.05063825
104	0xbe592381	-0.2120495
105	0xbdaacb22	-0.08339526
106	0xbe45b59f	-0.19307564
107	0x3e14f5a2	0.14546826
108	0x3d9f5240	0.0777936
109	0x3e8d618c	0.27613485
110	0xbd8484c2	-0.06470634
111	0xbdd04bea	-0.101707295
112	0x3d0c9283	0.034319412
113	0x3dcb9d28	0.099420846
114	0x3d7b9d77	0.061429467
115	0xbeae1ac0	-0.34004784
116	0x3dec9a21	0.11552835
117	0xbeedf279	-0.46474054
118	0xbea1770c	-0.31536138
119	0xbd6a7dcc	-0.057248875
120	0xbdf97d73	-0.12182131
121	0xbe14845f	-0.1450362
122	0x3e92d9e1	0.28681853
123	0x3d9051da	0.07046862
124	0x3e7bb2ba	0.24579898
125	0x3e0f6270	0.14002395
126	0xbe3ecd58	-0.1863302
127	0xbe2f723d	-0.17133422
128	0xbd9a50e7	-0.07534962
129	0xbe2a7a9f	-0.16648339
130	0xbe020ca7	-0.12700139
131	0xbf066ba2	-0.52507985
132	0x3edd33d4	0.43203604
133	0x3df381c8	0.11889988
134	0x3cf263d6	0.029588621
135	0xbd8b9474	-0.068154246
136	0x3de4e08d	0.11175642
137	0x3e2dc3df	0.1696925
138	0xbe87b19b	-0.2650269
139	0x3e58e66a	0.21181646
140	0x3d9d0b4d	0.07668171
141	0xbde3a60d	-0.11115656
142	0xbdd84d15	-0.10561577
143	0xbe26226c	-0.16224068
144	0x3eb9d28d	0.3629345
145	0xbdf57323	-0.11984851
146	0x3e20b742	0.15694907
147	0x3e3da3a3	0.18519454
148	0xbb211cc4	-0.0024583796
149	0x3e21eb86	0.15812501
150	0x3e2f0842	0.17092994
151	0x3e1952b1	0.1497295
152	0xbe4c1a2c	-0.19931859
153	0xbc78ddc2	-0.01518959
154	0x3dc5bf8b	0.096556745
155	0xbcf5a2d5	-0.02998487
156	0x3e864330	0.26223135
157	0x3eeb90ec	0.46009004
158	0xbed490a8	-0.41516614
159	0xbec6aeb2	-0.38805157
160	0x3da2c92d	0.079485275
161	0xbd98be8c	-0.07458219
162	0x3e1d162b	0.15340488
163	0x3a55cbe0	0.0008155685
164	0xbb301a67	-0.0026871206
165	0x3eba6db8	0.36411834
166	0x3e1edbc9	0.15513529
167	0x3e08f2fe	0.13373944
168	0xbedbd77b	-0.42937836
169	0x3e2770e1	0.16351654
170	0xbe3ad4c4	-0.18245226
171	0x3e0cfdbe	0.1376867
172	0x3dc0e4bc	0.094186276
173	0x3e3349b1	0.1750858
174	0x3d93666c	0.0719727
175	0x3dc24410	0.09485638
176	0x3e1dd917	0.15414844
177	0x3e91e714	0.2849661
178	0xbe3a3585	-0.18184479
179	0xbe14ef6f	-0.14544462
180	0x3e5acdca	0.21367565
181	0xbde9e939	-0.11421437
182	0x3dbe7673	0.09299936
183	0xbdc9795d	-0.09837601
184	0x3dda7080	0.10665989
185	0x3da5c402	0.08094026
186	0xbf0600f4	-0.52345204
187	0x3d2c3839	0.042045806
188	0xbdb10ef6	-0.08645432
189	0x3e5f5684	0.21810347
190	0x3d95f1da	0.0732152
191	0x3dc9d26e	0.098545894
192	0xbb3f8f2d	-0.0029229627
193	0x3df41bf1	0.11919392
194	0xbd7bf294	-0.061510637
195	0x3e0676ff	0.13131331
196	0xbe4271ca	-0.1898872
197	0x3c4d1fe4	0.01251981
198	0x3ec3e60f	0.38261458
199	0x3da39c2f	0.07988774
200	0xbd85af95	-0.0652763
201	0x3d4f759d	0.050649274
202	0x3e848369	0.25881508
203	0x3ed228b5	0.41046682
204	0x3ca0ab6b	0.019612988
205	0xbdb8e6be	-0.090283856
206	0x3ea9f378	0.33193564
207	0x3d6f5be6	0.05843725
208	0xbdb5714b	-0.088594995
209	0xbe04679d	-0.1293015
210	0x3dc2e1d3	0.09515729
211	0xbdf45e3d	-0.11932037
212	0x3e786d9b	0.24260561
213	0xbdc936de	-0.09824918
214	0xbe9be4d8	-0.3044803
215	0xbdc50b7b	-0.0962133
216	0xbe4c4aac	-0.1995036
217	0x3d789c04	0.060695663
218	0x3cf54382	0.029939417
219	0xbe888e32	-0.26670986
220	0xbda407d1	-0.08009303
221	0x3b8b5c45	0.0042529427
222	0x3f0dba17	0.55362076
223	0xbd9d630c	-0.07684907
224	0x3dcffcbe	0.101556286
225	0x3dee0e84	0.116238624
226	0x3e0762e7	0.13221322
227	0x3e3eb16f	0.18622373
228	0xbe961329	-0.29311493
229	0xbed7cff2	-0.42150837
230	0xbcdeb5a4	-0.027186222
231	0x3d1aa39b	0.037753683
232	0xbec0a5cd	-0.37626496
233	0xbe09c60a	-0.13454452
234	0xbe3fefb6	-0.18743786
235	0xbdf29f97	-0.118468456
236	0x3d8ec1c6	0.06970553
237	0xbe9dcb04	-0.3081895
238	0x3e900ece	0.28136295
239	0x3e7701ce	0.24121782
240	0x3b85b303	0.0040801778
241	0x3dcb6d8f	0.09933006
242	0xbea0247c	-0.31277835
243	0xbe32f2cd	-0.17475434
244	0xbdb491b5	-0.08816854
245	0xbec34ed3	-0.38146076
246	0xbe8f840d	-0.28030434
247	0x3e1340c2	0.14380172
248	0xbb9e4824	-0.004830377
249	0x3d82df31	0.06390227
250	0xbe5a802f	-0.2133796
251	0x3da796d9	0.08183069
252	0x3d1d40ef	0.038392004
253	0xbe807eaa	-0.25096637
254	0xbcf74468	-0.030183986
255	0xbde95638	-0.11393398

critic.preprocess.model.model.2.bias f4 [64]
0	0x3d99ffac	0.07519469
1	0x3d75ec2d	0.060039688
2	0x3c903acc	0.017606162
3	0x3d9055c1	0.07047606
4	0xbd7aba44	-0.061212793
5	0x3db58c3b	0.088646375
6	0xbe33a22a	-0.1754233
7	0xbe29b2ff	-0.16572188
8	0x3d691a40	0.0569098
9	0x3e4b29af	0.1984012
10	0xbe83fa49	-0.2577689
11	0xbe75701e	-0.2396855
12	0x3e868e1c	0.26280296
13	0x3e66e271	0.22547318
14	0x3d73fd74	0.059567884
15	0x3d9304d4	0.07178655
16	0x3e93df5d	0.2888135
17	0xbe88b7a7	-0.26702616
18	0x3e531c94	0.2061637
19	0x3e7d2f0d	0.2472498
20	0xbe6ce318	-0.23133504
21	0xbded5e02	-0.11590196
22	0x3df2031f	0.118170016
23	0x3e663d70	0.22484374
24	0x3d13ae7d	0.036055077
25	0xbc417410	-0.011807457
26	0x3e346b88	0.17619145
27	0xbe8ae92a	-0.27131015
28	0x3e27c788	0.16384709
29	0x3e6a9ef9	0.22912206
30	0x3e283d41	0.16429617
31	0x3da883db	0.082282744
32	0x3d992935	0.07478563
33	0xbea78602	-0.32719427
34	0x3dcb5c8c	0.09929761
35	0x3e050fd8	0.12994325
36	0x3de051bf	0.10953092
37	0x3ba8f6ad	0.005156359
38	0x3e1cd45a	0.1531538
39	0xbe032466	-0.12806854
40	0x3deade14	0.11468139
41	0xbe2eeb0f	-0.17081855
42	0xbe86fc94	-0.26364577
43	0xbcdb113f	-0.026741622
44	0xbd3387a8	-0.043830544
45	0x3dfba1d2	0.12286724
46	0x3e193129	0.1496016
47	0x3e4aa6da	0.19790211
48	0xbe527eb4	-0.20556146
49	0x3d925a34	0.07146111
50	0x3e613bca	0.21995464
51	0xbe7197e9	-0.23593105
52	0x3e0b7206	0.13617715
53	0x3da49dea	0.08037932
54	0xbe3c597d	-0.18393512
55	0x3e3d0e42	0.1846247
56	0x3e8623b6	0.2619912
57	0x3e7e7133	0.2484787
58	0x3e009994	0.12558585
59	0x3dc0a2b5	0.09406034
60	0xbe1da1dd	-0.15393777
61	0x3e1c8e52	0.15288666
62	0x3d5434b0	0.05180806
63	0xbe626a28	-0.22110808

critic.last.model.0.weight f4 [1, 64]
0	0x3e3eaaee	0.18619892
1	0x3e74a17c	0.23889726
2	0x3cdb0431	0.026735397
3	0x3e80c89d	0.25153056
4	0xbe31ff30	-0.17382503
5	0x3e39d747	0.18148528
6	0xbe4298ea	-0.19003645
7	0xbf0e14c9	-0.55500466
8	0xbecef314	-0.4041983
9	0x3df4fb0e	0.119619474
10	0xbef31be2	-0.4748221
11	0xbe39e936	-0.18155369
12	0x3eb0a841	0.34503368
13	0x3edd7efd	0.43260947
14	0x3e14df91	0.14538409
15	0x3e70ec05	0.23527534
16	0x3ea8b3fc	0.32949817
17	0xbf066eeb	-0.52513
18	0x3ec6005b	0.38672146
19	0xbefac531	-0.4897857
20	0x3e00b0c9	0.12567438
21	0xbe57b447	-0.21064864
22	0x3e8a474f	0.2700753
23	0x3edf0665	0.43559566
24	0x3edf3e85	0.43602386
25	0xbe50b222	-0.20380452
26	0x3e741ecf	0.23839878
27	0xbed39b45	-0.413294
28	0x3eac5654	0.33659613
29	0x3e77454b	0.24147527
30	0x3e629c0b	0.22129838
31	0xbe9ef5ad	-0.3104681
32	0x3eb6d77e	0.35711282
33	0xbe7686b3	-0.24074821
34	0x3f1a44e1	0.6026135
35	0x3e11493d	0.14188094
36	0xbe7a5cb9	-0.24449433
37	0xbe879905	-0.26483932
38	0x3e7071e0	0.2348094
39	0x3eab927d	0.335102
40	0x3dbc4d19	0.09194393
41	0xbecc78b4	-0.3993584
42	0xbed3bab8	-0.41353393
43	0xbecfb3a3	-0.4056674
44	0xbe8e1e09	-0.2775729
45	0x3ea57a54	0.3231989
46	0x3e24ae38	0.16082084
47	0x3e2a1f0b	0.16613404
48	0xbe50c716	-0.20388445
49	0x3e2c5ff9	0.16833486
50	0x3ebb49f3	0.36579856
51	0xbe2dc523	-0.16969733
52	0x3ebf7c7e	0.37399668
53	0x3ed8c20a	0.4233554
54	0xbe60fb33	-0.21970825
55	0x3e442aee	0.19157001
56	0x3ec2e6bd	0.38066664
57	0x3e9d6e8d	0.30748406
58	0x3e81636b	0.25271162
59	0x3ea8e0ff	0.32984158
60	0xbe28ce99	-0.16485061
61	0xbe6da073	-0.23205738
62	0x3e58f58e	0.21187422
63	0xbed7adba	-0.4212473

_actor_critic.actor.sigma_param f4 [2, 1]
0	0x403c8b71	2.9460108
1	0x405465c0	3.3187103

_actor_critic.actor.preprocess.model.model.0.weight f4 [64, 8]
0	0xbe78b522	-0.24287847
1	0xbdea7937	-0.11448901
2	0xbebe7a6e	-0.3720278
3	0x3cd04fb0	0.025428623
4	0x3e36317d	0.17792316
5	0xbe17fbdf	-0.14842175
6	0x3b0e2aad	0.0021692917
7	0xbe14d57a	-0.1453456
8	0x3e35d688	0.17757618
9	0x3ca96760	0.020679176
10	0xbeea9e84	-0.45824063
11	0x3ee8db2a	0.4547971
12	0x3e56f0a0	0.20990229
13	0xbcf869a5	-0.030323813
14	0x3ece3733	0.4027649
15	0x3f1de569	0.6167818
16	0xbe9f300e	-0.3109135
17	0x3f0abae3	0.54191417
18	0x3ee68793	0.4502531
19	0x3df4c73c	0.119520634
20	0xbe63c88b	-0.2224447
21	0xbef1d227	-0.47230646
22	0xbda54072	-0.080689326
23	0xbdd00726	-0.101576135
24	0xbe65be05	-0.22435768
25	0xbe9f6308	-0.31130242
26	0x3eab5296	0.33461446
27	0x3de02067	0.1094368
28	0xbbc058ce	-0.0058699613
29	0xbdf31768	-0.11869699
30	0x3d9d3310	0.07675755
31	0x3d0f99e7	0.035058882
32	0x3e9b6a65	0.3035461
33	0xbe285f2d	-0.16442557
34	0xbef2e4bd	-0.47440138
35	0xbe6e2bc1	-0.23258878
36	0xbe3abcd7	-0.18236099
37	0xbdd2c286	-0.10291009
38	0x3e430736	0.1904572
39	0x3f3ed108	0.74537706
40	0xbe762c2f	-0.24040292
41	0xbe5723fe	-0.21009824
42	0x3eb01a62	0.34395128
43	0x3e39a610	0.18129754
44	0xbe55fae5	-0.2089649
45	0x3e5ee4f3	0.21767025
46	0xbe94b20a	-0.29042083
47	0xbe9def09	-0.30846432
48	0xbe9a474a	-0.30132514
49	0x3cf16237	0.029465778
50	0x3d7121df	0.058870193
51	0xbdcdd596	-0.10050504
52	0x3e33298b	0.17496316
53	0xbe102c9b	-0.14079516
54	0xbdbf876a	-0.09352
55	0x3e86431b	0.26223072
56	0x3e68f2d4	0.22748882
57	0x3e1310a5	0.14361818
58	0xbe063a5b	-0.13108198
59	0x3dac9a28	0.084278405
60	0x3e94d0f3	0.29065666
61	0x3de26eff	0.11056327
62	0x3e3ae14f	0.18250011
63	0xbeba8624	-0.36430466
64	0xbe76d607	-0.24105082
65	0xbf051164	-0.5197966
66	0x3e6f7b4f	0.23386882
67	0xbe765ec8	-0.24059594
68	0xbe97ce3c	-0.29649532
69	0xbc948313	-0.018128907
70	0x3c2b5ea9	0.01045958
71	0xbe360725	-0.17776163
72	0xbefa6359	-0.4890392
73	0xbe973ba6	-0.29537696
74	0x3e7c7a19	0.24655952
75	0xbef7c98a	-0.4839595
76	0x3e23b95b	0.15988676
77	0x3d93c514	0.07215324
78	0xbd22bf23	-0.039733063
79	0xbeaa5d31	-0.33274224
80	0x3e15a2c4	0.14612871
81	0x3ef963a9	0.48708847
82	0xbf08a759	-0.5338035
83	0x3c99a79a	0.018756676
84	0x3cdd5387	0.027017368
85	0x3e5b2f7e	0.21404836
86	0x3e2ce102	0.16882709
87	0xbe348379	-0.17628278
88	0xbe93ffca	-0.2890609
89	0xbe88bbfa	-0.26705915
90	0x3e68e937	0.22745214
91	0x3ed26d6e	0.41099113
92	0xba3e5572	-0.0007260657
93	0x3d490277	0.049074616
94	0x3e347355	0.1762212
95	0xbe72fa24	-0.23728234
96	0xbdb05b8e	-0.08611213
97	0xbf10ba78	-0.5653453
98	0xbead3b3c	-0.33834255
99	0xbe70b9d3	-0.23508386
100	0x3e398806	0.18118295
101	0x3d0e44ff	0.03473377
102	0x3d993f2c	0.07482752
103	0x3c445e34	0.01198535
104	0xbf3d7ffd	-0.7402342
105	0x3f36eb41	0.7145272
106	0x3f1f1638	0.6214328
107	0xbe76e8a3	-0.24112181
108	0x3e981237	0.29701397
109	0xbd8cd98b	-0.068774305
110	0xbe51e655	-0.20498021
111	0x3e350430	0.17677379
112	0x3f121e17	0.57077163
113	0x3ec7d07a	0.39026242
114	0x3e38dd91	0.18053271
115	0xbe587b24	-0.21140724
116	0xbe8f132f	-0.27944323
117	0xbe8abb64	-0.27096093
118	0x3d90f7c6	0.07078509
119	0x3c19f540	0.009396851
120	0x3f158769	0.58409745
121	0xbeac45f3	-0.33647117
122	0x3df41035	0.11917154
123	0x3de66fb0	0.112517715
124	0xbe80e39f	-0.2517366
125	0xbe0b1fcd	-0.1358635
126	0xbe1174ba	-0.14204684
127	0xbe49fd9e	-0.19725654
128	0xbef75be2	-0.4831229
129	0xbed235a2	-0.41056544
130	0x3bf489af	0.007462702
131	0x3ec8d333	0.39223632
132	0xbee14db1	-0.44004586
133	0x3e6af9d8	0.2294687
134	0xbe9d0bca	-0.30673057
135	0xbeb10527	-0.34574243
136	0x3e52c9c0	0.20584774
137	0xbe06afc7	-0.13152991
138	0xba876db5	-0.0010332378
139	0xbd03a2a5	-0.03213753
140	0xbc90e9bb	-0.017689576
141	0x3d2634a8	0.04057756
142	0xbc5ce94d	-0.013483358
143	0xbef1a97e	-0.47199625
144	0xbe9cecde	-0.30649465
145	0xbe56dbef	-0.20982336
146	0xbd0dec68	-0.034649283
147	0x3e2beb9c	0.16789097
148	0xbdf30a56	-0.11867206
149	0xbe3ecac3	-0.18632035
150	0x3d0af257	0.03392252
151	0x3de52867	0.11189347
152	0xbc8c6746	-0.017139088
153	0xbe8e4c87	-0.2779276
154	0x3df5c8e0	0.120012045
155	0xbd4e5003	-0.050369274
156	0x3ea99693	0.33122692
157	0x3e15e8df	0.14639615
158	0x3e87bf67	0.26513216
159	0xbd9d3e3f	-0.07677888
160	0xbcb5e1fd	-0.022202486
161	0xbeda6efe	-0.42662805
162	0xbe78dc79	-0.24302854
163	0x3e2cf158	0.1688894
164	0xbc8fddf8	-0.017561898
165	0xbd73a800	-0.05948639
166	0xbec13017	-0.37732002
167	0xbd9e54c1	-0.07731009
168	0xbf0cc136	-0.54982316
169	0xbd8e25b4	-0.06940785
170	0x3d32d07d	0.04365586
171	0xbd2e9e68	-0.042631537
172	0xbf629b2b	-0.8851802
173	0xbc194e0f	-0.0093569895
174	0xbea12872	-0.3147617
175	0x3f640fac	0.89086413
176	0xbe6a30b3	-0.2287014
177	0xbec4af9f	-0.38415238
178	0x3e0666c0	0.13125134
179	0x3c948462	0.018129531
180	0xbf02f296	-0.51151407
181	0x3e9adf02	0.30248266
182	0xbe4a31f6	-0.19745621
183	0xbb7cc48a	-0.0038569295
184	0xbe188f3b	-0.14898388
185	0x3f05a7ec	0.52209353
186	0xbd2390b1	-0.03993291
187	0xbd44821f	-0.047975656
188	0x3e1b34f8	0.15156925
189	0x3ce0c741	0.027438762
190	0xbbef2413	-0.0072980016
191	0x3db7a912	0.089677945
192	0xbe0e8694	-0.13918525
193	0xbf15dcd3	-0.58540076
194	0xbe2bf6df	-0.16793393
195	0xbe03e035	-0.12878497
196	0xbdbad896	-0.09123342
197	0xbce5f8d3	-0.02807275
198	0xbe95caff	-0.29256436
199	0xbdcf6077	-0.10125821
200	0xbed1cb8c	-0.40975606
201	0xbefd1962	-0.49433428
202	0xbe06d7d5	-0.13168271
203	0xbda675c0	-0.08127928
204	0xbd20d02e	-0.039261036
205	0xbef008b9	-0.46881655
206	0xbe61bc5b	-0.22044508
207	0xbe436344	-0.19080836
208	0x3ee77e8b	0.45213732
209	0x3ebb2feb	0.36559996
210	0xbd63c63f	-0.055608984
211	0x3db3bc3f	0.087761395
212	0xbe3f69af	-0.18692659
213	0x3e85833c	0.26076686
214	0x3e672856	0.2257398
215	0xbea564a6	-0.3230335
216	0xbf145d39	-0.57954746
217	0x3f2d24a4	0.67634034
218	0x3ed2d74f	0.41179892
219	0xbe5c50e8	-0.21515238
220	0x3e0cbf8d	0.13744946
221	0x3d80df61	0.06292606
222	0x3ecbc843	0.39801225
223	0x3e235fac	0.15954465
224	0x3eaecc48	0.3414023
225	0x3eedef3d	0.46471587
226	0xbee43437	-0.44571087
227	0x3da056dd	0.07829068
228	0x3e82a7b8	0.25518584
229	0x3c7f37fc	0.015577313
230	0x3e657cec	0.22410935
231	0x3e93398e	0.28754848
232	0xbe30bfc9	-0.1726066
233	0xbf2e1763	-0.68004435
234	0x3dc0fbd6	0.09423034
235	0xbbd415e2	-0.006472335
236	0x3dbeb7aa	0.09312375
237	0x3d86add6	0.06576125
238	0xbe675863	-0.2259231
239	0x3d3dedba	0.04636929
240	0xbf2d8e4e	-0.67795265
241	0xbe3f80e5	-0.18701513
242	0x3e93d1ec	0.28871095
243	0xbdc13c51	-0.094353326
244	0x3e86e5ce	0.26347202
245	0xbe85ea3c	-0.2615527
246	0xbdf5e7fa	-0.12007137
247	0xbf31ba5c	-0.69424987
248	0x3d4d50cd	0.050125886
249	0xbed79756	-0.42107648
250	0x3e4a91cd	0.19782181
251	0xbec85a1f	-0.39131257
252	0xbeecffa1	-0.4628878
253	0x3e1a4568	0.15065539
254	0x3ee0b8a8	0.43890882
255	0xbe55e8bb	-0.20889561

_actor_critic.actor.preprocess.model.model.0.bias f4 [64]
0	0x3c1ff3ea	0.0097627435
1	0x3cee16e9	0.029063659
2	0x3e6b2096	0.2296165
3	0x3c51ea5d	0.012812224
4	0xbcc8c284	-0.024506815
5	0xbc82e3b9	-0.015977727
6	0x3d4d7fac	0.050170586
7	0xbd27c77a	-0.04096172
8	0x39befae8	0.00036426564
9	0xbc18f67e	-0.009336112
10	0xbc00d753	-0.007863837
11	0x3c852d7f	0.016257046
12	0xbe26d6d8	-0.16292894
13	0x3e8e8b48	0.27840638
14	0xbd3100d4	-0.04321368
15	0xbda36863	-0.079788946
16	0x3c8d8acd	0.0172781
17	0xbd1b1cc4	-0.03786923
18	0x3c94d347	0.018167151
19	0xbd4dfa88	-0.050287753
20	0xbe2bcf69	-0.1677834
21	0x3dbb1ff4	0.09136954
22	0xbcb0178f	-0.021495609
23	0x3dbb142c	0.09134707
24	0xbd98cdee	-0.07461153
25	0xbab54587	-0.0013829925
26	0xbd6a10ab	-0.057144802
27	0x3e9585d7	0.29203674
28	0x3d84802d	0.0646976
29	0xbd0b1158	-0.033952087
30	0x3cfc6e45	0.0308143
31	0x3d2da724	0.042395726
32	0xbbe3a20a	-0.006946807
33	0xbe06ea88	-0.13175404
34	0x3cd74bd3	0.026281273
35	0xbdd531f7	-0.10409921
36	0xbd0f4b02	-0.034983642
37	0x3dccfeda	0.100095466
38	0x3dd75777	0.105147295
39	0xbdfd5b8d	-0.123709776
40	0xbcf788e4	-0.030216642
41	0xbd3a3fff	-0.045471188
42	0x3dbfd59d	0.093669154
43	0x3cc99b0a	0.024610061
44	0xbc619239	-0.013767772
45	0x3c093666	0.008374786
46	0x3dd44e9b	0.10366555
47	0xbddcf3e4	-0.10788706
48	0xbd09e398	-0.033664316
49	0xbc037939	-0.008024507
50	0xbd3dfbe4	-0.0463828
51	0x3cb5194a	0.022106785
52	0x3c5be1cf	0.013420536
53	0xbe258a69	-0.1616608
54	0x3d8b51c6	0.068027064
55	0xbd40868a	-0.047003306
56	0xbe536e19	-0.20647468
57	0xbdb66890	-0.089066625
58	0xbbbad08e	-0.005701131
59	0x3c34e495	0.011040826
60	0xbd1773f7	-0.036975827
61	0x3989da74	0.00026293437
62	0xbe88c05b	-0.26709256
63	0x3d580bed	0.05274575
