results/HalfCheetah-v3/trpo/4/220709-064426/policy.pth (torch, 53732 bytes, 24 tensors)

actor.sigma_param f4 [6, 1]
0	0xc0025c75	-2.0368931
1	0xc0011954	-2.017171
2	0xbfe536bc	-1.7907329
3	0xc00ef171	-2.2334864
4	0xc020e47f	-2.5139463
5	0xbff41f73	-1.9072098

actor.preprocess.model.model.0.weight f4 [64, 17]
0	0xbed7f794	-0.42181075
1	0x3d2fdf43	0.04293753
2	0x3d2209b3	0.03956003
3	0x3d01d79d	0.031699765
4	0x3e74874d	0.23879738
5	0x3daf7bb5	0.08568517
6	0xbe464363	-0.19361643
7	0xbdedf03e	-0.11618088
8	0x3cc22b1f	0.023702202
9	0xbe895408	-0.26821923
10	0x3d958469	0.07300646
11	0xbe344145	-0.17603023
12	0xbc7b0d25	-0.015322958
13	0x3eaa0ebc	0.33214366
14	0x3e219f4a	0.1578342
15	0x3e15ed0a	0.14641204
16	0xbe16e045	-0.1473399
17	0xbe297b32	-0.16550902
18	0x3edba768	0.42901158
19	0x3df33478	0.11875242
20	0x3d2ccd41	0.042187933
21	0xbcecfaa5	-0.02892811
22	0x3da4863f	0.08033418
23	0xbe9179f5	-0.28413358
24	0xbb73e06d	-0.0037212626
25	0x3e0a713b	0.13519756
26	0xbe27d460	-0.16389608
27	0x3ee5c4ef	0.4487681
28	0x3e2e8d6a	0.17046133
29	0x3dee905f	0.1164863
30	0x3d62c54e	0.055363946
31	0xbe84312e	-0.2581877
32	0x3e062e4b	0.13103597
33	0x3dc12aec	0.09432015
34	0x3e8d9e25	0.27659717
35	0xbf040449	-0.5156904
36	0xbdb058d3	-0.08610692
37	0xbcff4b90	-0.03116396
38	0xbe9223d4	-0.2854296
39	0xbe4954fa	-0.19661322
40	0xbcb07b52	-0.021543179
41	0xbd8158d0	-0.06315768
42	0xbb928e70	-0.0044725463
43	0x3f04766a	0.51743186
44	0x3e952099	0.29126433
45	0x3eb117e8	0.34588552
46	0xbd7f4370	-0.062320173
47	0x3e7d0233	0.2470787
48	0x3ebf85a9	0.37406662
49	0xbd8fa60e	-0.07014094
50	0xbd80c08c	-0.062867254
51	0xbea8fb18	-0.3300407
52	0xbcceb6c1	-0.025233628
53	0x3e950d85	0.29111877
54	0x3e92073c	0.28521144
55	0xbe662f07	-0.22478877
56	0xbeea5719	-0.45769575
57	0xbf222a34	-0.63345647
58	0xbeaf3246	-0.34218043
59	0x3e4c828f	0.19971679
60	0xbe8331ce	-0.25623935
61	0xbd3d1c8d	-0.046169806
62	0x3e85a406	0.26101702
63	0x3d8c6dfe	0.06856917
64	0xbe617642	-0.22017768
65	0xbe27c351	-0.16383101
66	0x3e73a13e	0.23791978
67	0xbd067970	-0.032830656
68	0xbf120fe6	-0.5705551
69	0xbdeeb714	-0.11656013
70	0x3e97e082	0.29663473
71	0x3d80898b	0.06276234
72	0x3d842e01	0.06454087
73	0x3e95401a	0.29150468
74	0x3e1313ec	0.14363068
75	0x3e03762f	0.12838052
76	0x3d86320a	0.06552513
77	0xbe99348f	-0.29922912
78	0x3e373d2a	0.17894426
79	0x3e4bd033	0.1990364
80	0xbc809ccc	-0.015699767
81	0x3dc483ca	0.09595449
82	0x3d92402a	0.071411446
83	0xbdd150c9	-0.10220487
84	0xbba11772	-0.004916125
85	0xbdfa127b	-0.12210556
86	0xbe28fa7e	-0.16501805
87	0xbd6cf2e0	-0.05784881
88	0x3e09a8ad	0.13443251
89	0xbe19eccf	-0.15031742
90	0xbe89e90b	-0.2693561
91	0xbe9c1f8d	-0.3049282
92	0x3cf2646b	0.029588899
93	0xbe67e5f7	-0.22646318
94	0xbe4d0430	-0.20021129
95	0xbe8692b1	-0.26283792
96	0x3d9898eb	0.07451042
97	0xbdfa4473	-0.12220087
98	0xbe3c24ed	-0.18373461
99	0x3e5c2cb1	0.21501423
100	0x3d52e81f	0.0514909
101	0x3d790468	0.060795218
102	0x3e3c66e2	0.18398622
103	0xbeff3ccc	-0.49851072
104	0x3da755d3	0.081706665
105	0xbe9f4f17	-0.31115028
106	0x3c0a5f76	0.008445611
107	0xbe231d66	-0.15929183
108	0xbde7b1b6	-0.113131925
109	0x3cf97cde	0.03045505
110	0xbdad67d9	-0.08467073
111	0x3ec05e3e	0.375719
112	0xbea8424e	-0.32863086
113	0xbeb111bc	-0.34583843
114	0x3e077f5c	0.13232177
115	0xbdc36917	-0.09541529
116	0xbd2e04a8	-0.04248491
117	0xbcc4c905	-0.024021635
118	0x3ce8f00c	0.028434776
119	0xbeda257f	-0.42606732
120	0xbea2783f	-0.31732365
121	0x3c92bf14	0.017913379
122	0x3ec806e3	0.39067754
123	0x3ce76a09	0.028248804
124	0xbe851478	-0.2599218
125	0x3e4c06ae	0.19924423
126	0x3e1e67e0	0.15469313
127	0x3e9eab2f	0.30989978
128	0x3c96ac3c	0.018392675
129	0x3ecd3978	0.40082908
130	0x3dff825c	0.12476036
131	0x3d185ff3	0.03720088
132	0x3d09d707	0.03365233
133	0x3e7f1496	0.24910197
134	0x3e004824	0.1252752
135	0x3d583bab	0.05279128
136	0xbd3c446c	-0.04596369
137	0xbec40519	-0.3828514
138	0xbd430e1d	-0.04762088
139	0x3d93df27	0.07220297
140	0x3e498f37	0.19683538
141	0x3ea9f5c7	0.33195326
142	0x3d9521af	0.07281815
143	0xbd853976	-0.065051004
144	0xbe43b460	-0.19111776
145	0x3f085ff7	0.5327143
146	0xbd9e18be	-0.07719563
147	0xbe094a5d	-0.13407274
148	0x3decbc44	0.11559346
149	0xbe7c0825	-0.24612482
150	0xbdbd9add	-0.092580535
151	0x3c11c85a	0.008897865
152	0xbdf826e8	-0.12116796
153	0x3e2158d2	0.15756539
154	0xbe151903	-0.14560322
155	0xbd7f12d6	-0.062273823
156	0x3ec36f4d	0.38170853
157	0x3e918726	0.28423423
158	0xbdcf4555	-0.10120646
159	0xbe158561	-0.14601661
160	0xbe33234a	-0.1749393
161	0xbe696df1	-0.22795846
162	0xbe551510	-0.20808816
163	0xbdc028af	-0.0938276
164	0xbbb864bf	-0.0056272442
165	0x3e9dfaa2	0.3085528
166	0x3d5c0c1e	0.053722493
167	0x3e973e49	0.29539707
168	0x3e8edc0f	0.27902266
169	0xbdd4e844	-0.10395864
170	0xbde736e2	-0.11289765
171	0x3e06185a	0.13095227
172	0xbebf362c	-0.37346017
173	0xbda2245a	-0.0791709
174	0x3e7385d1	0.23781516
175	0xbe69729b	-0.22797625
176	0xbe5e374f	-0.21700786
177	0xbcb4aedb	-0.022056034
178	0x3dea5ed6	0.1144387
179	0x3d9ba2f4	0.0759944
180	0x3e8c8b79	0.2745016
181	0xbe82ef82	-0.25573355
182	0x3dfdd31f	0.12393784
183	0x3e920a8d	0.28523675
184	0x3d938d0d	0.07204638
185	0xbecaf0fc	-0.3963698
186	0x3d0fa91c	0.035073385
187	0xbda155ba	-0.07877679
188	0xbc6de134	-0.014519025
189	0x3e2158bd	0.15756507
190	0x3e2dbd80	0.1696682
191	0xbe18090a	-0.14847198
192	0x3d273309	0.040820155
193	0xbece7b14	-0.40328276
194	0xbce8d14e	-0.028420117
195	0xbe354956	-0.17703757
196	0xbe8be3ff	-0.27322385
197	0x3e071fc5	0.13195713
198	0x3dbd8c61	0.09255291
199	0xbc15b10a	-0.009136448
200	0x3ea1a4ca	0.31571037
201	0x3e1a1ff7	0.15051256
202	0x3e170c57	0.14750801
203	0x3de19698	0.110150516
204	0x3efa1f66	0.4885208
205	0xbee96bf0	-0.45590162
206	0x3c4eaee8	0.012614943
207	0x3ea6f1eb	0.32606444
208	0xbe5f3cff	-0.21800612
209	0xbddddb28	-0.10832816
210	0xbea3a480	-0.3196144
211	0x3d857960	0.06517291
212	0x3ec52c25	0.38510242
213	0x3f014a5a	0.50504076
214	0x3e1d77a6	0.15377674
215	0x3e12bc01	0.1432953
216	0x3e4986b1	0.19680287
217	0xbd37235b	-0.044711452
218	0x3da7111d	0.08157561
219	0xbcd009f3	-0.02539537
220	0xbdb5380a	-0.08848579
221	0xbea7e93f	-0.3279514
222	0x3e337036	0.17523274
223	0xbeee16b6	-0.46501702
224	0x3cf392ca	0.02973308
225	0xbc986e10	-0.01860717
226	0x3dfb4dbc	0.12270686
227	0x3ea0e092	0.31421334
228	0xbd3b5809	-0.045738254
229	0xbee4c318	-0.44680095
230	0xbe183df8	-0.14867389
231	0xbe825169	-0.25452736
232	0x3dfb4129	0.12268288
233	0xbdbe915f	-0.09305071
234	0xbc2b31ea	-0.010448912
235	0x3dd7868b	0.10523709
236	0xbdaadc22	-0.08342768
237	0x3e3944a8	0.18092597
238	0x3e27f596	0.16402277
239	0xbf15e7d9	-0.58556896
240	0x3d9296ab	0.07157644
241	0xbd2c18ca	-0.04201583
242	0xbe621091	-0.22076632
243	0x3bcef81e	0.006316199
244	0xbe5236d7	-0.20528732
245	0xbe5b6816	-0.21426424
246	0x3e9a3255	0.30116525
247	0xbe9a0717	-0.30083534
248	0xbebb8940	-0.3662815
249	0xbe812bc8	-0.25228715
250	0x3d88d4a9	0.06681187
251	0xbcc84235	-0.024445632
252	0x3e45fc85	0.1933461
253	0xbe57f74d	-0.21090432
254	0x3d8a1633	0.067425154
255	0xbe5f3e6f	-0.2180116

actor.preprocess.model.model.0.bias f4 [64]
0	0x3d7f5ff9	0.062347386
1	0x3db7e6b7	0.08979552
2	0x3ddfe9fe	0.10933302
3	0x3f18a2d2	0.59623444
4	0xbeb0c0df	-0.3452215
5	0x3cc2bbed	0.02377125
6	0x3e59e7ec	0.21279877
7	0xbd8266db	-0.063672744
8	0x3e031823	0.12802176
9	0xbe4c5d34	-0.19957429
10	0x3dd6e447	0.10492759
11	0xbdbeab5f	-0.0931003
12	0x3e6cd568	0.23128283
13	0x3e07e878	0.13272274
14	0x3d842498	0.06452292
15	0xbdc3ed40	-0.09566736
16	0xbc496b07	-0.012293584
17	0xbd1b139b	-0.037860494
18	0x3e175a7e	0.14780614
19	0xbc53a394	-0.012917418
20	0xbdfbfc5f	-0.12303995
21	0xbe672409	-0.2257234
22	0x3db006b6	0.0859503
23	0x3e2f4e24	0.17119652
24	0x3dd08134	0.101808935
25	0x3db7c58f	0.08973228
26	0xbbeb5ccb	-0.0071826926
27	0xbdba7309	-0.091039725
28	0xbdef7e1a	-0.11693974
29	0x3d1408cf	0.036141213
30	0x3e03a467	0.12855683
31	0xbd431df1	-0.047635976
32	0x3dbd33a5	0.09238366
33	0xbd6938cd	-0.056938935
34	0xbd6a958f	-0.057271536
35	0xbd66c54d	-0.056340504
36	0x3e1497e2	0.14511064
37	0x3e6fbd7f	0.23412131
38	0xbdce6a5a	-0.10078879
39	0x3e63eacf	0.22257541
40	0x3e552d1e	0.20817992
41	0x3d51e874	0.051247075
42	0x3cc490cf	0.023994831
43	0xbe1ea3c1	-0.15492155
44	0xbe85f39f	-0.2616243
45	0x3dc1a0d2	0.09454502
46	0x3e53e5dd	0.20693155
47	0xbd63bf03	-0.055602085
48	0xbe3281c4	-0.17432314
49	0xba1e015d	-0.0006027425
50	0x3d621d84	0.05520393
51	0xbd5d9037	-0.054092612
52	0xbe28ac6e	-0.16472027
53	0xbe4f0718	-0.2021755
54	0xbe7c0e36	-0.24614796
55	0xbd90acf6	-0.0706424
56	0x3d0db009	0.03459171
57	0xbe5d10d0	-0.21588445
58	0x3ea84357	0.32863876
59	0xbc2cb24b	-0.010540555
60	0xbd9de045	-0.07708792
61	0x3e31a8a7	0.17349492
62	0x3e8bf3e8	0.27334523
63	0x3b89818d	0.004196352

actor.preprocess.model.model.2.weight f4 [64, 64]
0	0xbbf18e0f	-0.007371671
1	0x3e15140a	0.14558426
2	0xbe725b5f	-0.23667668
3	0x3e6f3e5b	0.2336363
4	0x3cfaf363	0.030633634
5	0x3eaeeef3	0.3416668
6	0x3e0c175c	0.13680786
7	0xbda4eeef	-0.080533855
8	0xbdd4b3dd	-0.10385869
9	0xbc15d1e2	-0.009144278
10	0x3e032eaa	0.1281077
11	0x3d65ce65	0.056105036
12	0xbe854c76	-0.26034898
13	0x3d871bde	0.06597112
14	0x3e5b7477	0.21431147
15	0x3dcf9009	0.101348944
16	0xbdadbd25	-0.08483342
17	0x3cbc92e1	0.023019256
18	0xbe4c1f02	-0.19933704
19	0xbd8fd167	-0.07022362
20	0x3e187b92	0.14890888
21	0x3e027cde	0.12742946
22	0xbe7cbe6c	-0.24682015
23	0x3e1db4d7	0.15401016
24	0x3ea01f02	0.31273657
25	0x3bae64d3	0.005322078
26	0xbec465c5	-0.38358894
27	0x3d906740	0.070509434
28	0xbe94391c	-0.2894982
29	0x3e34ddc5	0.17662723
30	0x3d28daea	0.041224398
31	0x3bceafb8	0.0063075684
32	0x3e01ada7	0.126639
33	0xbe05fce6	-0.13084754
34	0x3e2010ec	0.15631455
35	0x3d80af84	0.06283477
36	0x3eb8633c	0.3601321
37	0x3ebef03a	0.37292653
38	0xbe355bd3	-0.1771081
39	0xbec19e03	-0.37815866
40	0x3d791d35	0.06081887
41	0x3e0a3f0e	0.13500616
42	0x3e0c0de5	0.13677175
43	0xba28f10f	-0.0006444612
44	0xbd0e4da6	-0.03474202
45	0x3d924a7a	0.071431115
46	0xbe8e3bfd	-0.27780142
47	0xbca8e77a	-0.02061819
48	0x3e044bae	0.12919495
49	0x3ed2d267	0.4117615
50	0xbd84c6c9	-0.06483228
51	0x3d90a6cd	0.07063065
52	0x3e34e523	0.17665534
53	0x3d2d070a	0.04224304
54	0x3de674ed	0.112527706
55	0xbbba31c1	-0.0056822007
56	0xbe0d0d27	-0.13774548
57	0x3e3e7f9a	0.18603364
58	0xbe15f94d	-0.14645882
59	0x3e10e5c1	0.14150144
60	0xbef505e0	-0.47856045
61	0x3dc3f7d1	0.095687516
62	0x3d941936	0.07231371
63	0x3e278d98	0.16362607
64	0x3e076767	0.13223039
65	0x3df89ba1	0.12139059
66	0x3b87673b	0.004132179
67	0x3e3e5198	0.18585813
68	0xbd98a34b	-0.07453021
69	0xbe68047d	-0.22657962
70	0xbd1b63d8	-0.037937015
71	0x3e7db18b	0.24774759
72	0xbdb10413	-0.08643355
73	0x3ca23f30	0.01980552
74	0x3d015f06	0.031584762
75	0x3e04fee4	0.12987858
76	0x3ee931c6	0.45545787
77	0xbd22cbf1	-0.039745275
78	0xbe7eb860	-0.24875021
79	0x3dd47b01	0.10375024
80	0xbe89f1c3	-0.26942262
81	0x3e075683	0.13216595
82	0x3d94357c	0.07236764
83	0x3ca35a74	0.019940592
84	0x3ebc5521	0.36783698
85	0x3e61952c	0.22029561
86	0xbd49163a	-0.049093463
87	0xbe6d8cdb	-0.23198263
88	0x3e77b04c	0.24188346
89	0xbe30889c	-0.17239612
90	0x3e270a93	0.16312627
91	0x3eac7575	0.33683363
92	0x3e0a5d11	0.13512065
93	0xbdf6eeb1	-0.120572455
94	0xbc139e9a	-0.0090099815
95	0xbce41994	-0.027844228
96	0x3d9a3eaa	0.075314835
97	0x3d9ca151	0.07647956
98	0x3e1ed788	0.15511906
99	0xbe88f946	-0.2675268
100	0xbe2b6be2	-0.16740373
101	0x3e4a8f45	0.19781215
102	0x3d63d193	0.055619787
103	0x3db28674	0.08717051
104	0x3e128925	0.14310129
105	0x3e886c07	0.26644918
106	0x3e152f12	0.14568737
107	0x3e3fd950	0.18735242
108	0x3e14cf8a	0.14532295
109	0x3e15cb19	0.14628257
110	0xbea815bf	-0.3282909
111	0x3e33c7e3	0.1755672
112	0x3ea5985a	0.32342798
113	0xbea7bfcf	-0.32763526
114	0x3dd548ef	0.104143016
115	0xbe4701c2	-0.19434264
116	0xbd6941e1	-0.056947593
117	0x3e46acc6	0.19401845
118	0xbd069e42	-0.03286577
119	0x3e0e1a4a	0.13877216
120	0x3d45aac7	0.04825857
121	0x3dd5565f	0.104168646
122	0xbca6543d	-0.02030384
123	0xbea3675e	-0.319148
124	0x3e6bb2a4	0.23017365
125	0x3c2196e7	0.009862638
126	0xbe2ceb6e	-0.16886684
127	0x3d2ad5d2	0.04170782
128	0x3e1a61ba	0.15076342
129	0xbdc35eb1	-0.09539545
130	0xbdde2ee6	-0.10848789
131	0xbe0692c8	-0.1314193
132	0x3dc557b6	0.0963587
133	0xbe0e45bc	-0.13893789
134	0xbd5b5774	-0.0535502
135	0x3e7df1b0	0.24799228
136	0x3e99a281	0.30006793
137	0xbe1c49a6	-0.1526247
138	0x3db71dd9	0.0894124
139	0x3d5a5388	0.053302318
140	0xbd185fff	-0.037200924
141	0xbe86cd74	-0.26328623
142	0x3ea21251	0.316546
143	0xbd29afc9	-0.041427407
144	0x3eb3b8f0	0.35102034
145	0xbe29cf2e	-0.16582939
146	0xbd04794f	-0.03234225
147	0xbe8fe50b	-0.28104433
148	0x3e363866	0.17794952
149	0xbd863ecc	-0.06554946
150	0x3d4c63d3	0.049899887
151	0xbe96d66e	-0.29460472
152	0x3c4b6879	0.012415045
153	0xbe6cca60	-0.23124075
154	0xbe0f9e78	-0.14025295
155	0xbcd830ca	-0.026390452
156	0xbce08893	-0.027408874
157	0xbe242426	-0.16029415
158	0x3df1b1e9	0.11801512
159	0xbe80ba9e	-0.25142378
160	0xbe37cbcc	-0.17948836
161	0x3e53830a	0.20655456
162	0xbe442767	-0.19155656
163	0x3cc5341b	0.024072697
164	0x3e8947b9	0.26812533
165	0x3ddc226c	0.10748753
166	0xbd2a700e	-0.04161077
167	0xbc72d2ae	-0.014820738
168	0x3e679b42	0.2261782
169	0xbbb8d94f	-0.0056411396
170	0xbdbdb5ee	-0.09263216
171	0xbe9776d1	-0.29582837
172	0xbe6a769a	-0.22896805
173	0xbdee2bd9	-0.11629457
174	0xbe638d5d	-0.22221895
175	0x3e660c45	0.22465618
176	0xbacc4375	-0.0015584069
177	0xbe63df82	-0.2225323
178	0x3a67869a	0.0008832008
179	0xbe76758f	-0.24068283
180	0xbd624d51	-0.055249516
181	0x3e8592a8	0.26088452
182	0x3d87e177	0.06634801
183	0x3da3d7ef	0.080001704
184	0xbd934506	-0.071908996
185	0x3e157470	0.14595199
186	0x3eb42012	0.35180718
187	0x3e1e8ce2	0.1548343
188	0x3db47cc3	0.08812859
189	0x3d4cb521	0.049977425
190	0x3e3c1311	0.18366648
191	0xbe1e148e	-0.15437528
192	0x3e232323	0.15931372
193	0xbde823b9	-0.113349386
194	0xbeec05c8	-0.4609816
195	0xbe3aec01	-0.18254091
196	0x3d014252	0.03155739
197	0xbea48431	-0.32132104
198	0xbdc2676b	-0.09492382
199	0x3e554d22	0.20830205
200	0xbe80eaf1	-0.25179246
201	0x3bb385b1	0.0054785837
202	0x3e9baa94	0.30403578
203	0x3d67419e	0.05645906
204	0xbdd24ab5	-0.102681555
205	0xbe8b6683	-0.27226648
206	0xbdce78d1	-0.10081638
207	0xbddf46b7	-0.1090216
208	0xbe9b0df7	-0.30284092
209	0xbdef817c	-0.11694619
210	0xbdaca5ba	-0.08430047
211	0x3e99fef9	0.3007734
212	0x3d5efcbc	0.054440245
213	0xbcb171d9	-0.021660732
214	0x3d602511	0.05472285
215	0x3ea9e961	0.33185866
216	0x3e3cee7c	0.1845035
217	0xbc75b7ca	-0.014997432
218	0x3db057aa	0.086104706
219	0x3d23e112	0.040009566
220	0xbdb405bf	-0.087901585
221	0xbe246fc3	-0.16058259
222	0x3d4597ee	0.048240595
223	0xbc809696	-0.015696805
224	0xbd732742	-0.05936361
225	0xbe5ec040	-0.21753025
226	0xbe8cd62d	-0.27507153
227	0xbbdb9ff3	-0.006702417
228	0xbcf171e0	-0.029473245
229	0xbd1cf84c	-0.03832273
230	0xbc6c0b1b	-0.014406945
231	0x3e5bfcaa	0.21483102
232	0xbdcb3c69	-0.09923632
233	0x3e82f79d	0.2557954
234	0xbe994e40	-0.29942513
235	0x3d9aabeb	0.07552322
236	0xbe16208c	-0.14660853
237	0x3e914a20	0.28376865
238	0xbe09f0a3	-0.13470702
239	0x3e1d6958	0.15372217
240	0xbecbda5a	-0.39815027
241	0xba4758c6	-0.0007604476
242	0x3ec1f786	0.37884158
243	0x3e0808e8	0.13284647
244	0x3e0a5241	0.1350794
245	0xbe6bc3fc	-0.23023981
246	0xbe8cb243	-0.27479753
247	0xbdeafb8a	-0.114737585
248	0x3e0e46c8	0.13894188
249	0x3dc3f6f7	0.09568589
250	0xbdb2e54a	-0.0873514
251	0x3d136a08	0.03598979
252	0x3e679c78	0.22618282
253	0xbe89aefd	-0.26891318
254	0x3deeca3f	0.11659669
255	0x3d76a3e1	0.06021488

actor.preprocess.model.model.2.bias f4 [64]
0	0x3cafc3dd	0.0214557
1	0xbd540903	-0.051766407
2	0xbd1a351a	-0.037648298
3	0xbd9d8340	-0.076910496
4	0xbd8a9de2	-0.06768395
5	0x3d0b3783	0.033988487
6	0xbd3c3395	-0.04594763
7	0xbdabdfba	-0.08392282
8	0x3dacac39	0.08431286
9	0x3ce9296b	0.028462132
10	0xbdd4e837	-0.10395854
11	0xbc4c61a2	-0.012474449
12	0xbdabdd30	-0.083917975
13	0x3e08050c	0.13283175
14	0xbbe81ea1	-0.0070837294
15	0x3c019aef	0.007910474
16	0xbda555e2	-0.080730215
17	0xbde1c447	-0.11023765
18	0x3da0d054	0.078522354
19	0xbd4f21bc	-0.05056928
20	0x3da09211	0.0784036
21	0x3db5cdae	0.08877121
22	0x3dbca5ef	0.09211337
23	0xbae30a7f	-0.0017321854
24	0x3dce3651	0.10068954
25	0xbdc206c7	-0.09473949
26	0xbde6a006	-0.11260991
27	0xbe4c10b6	-0.1992825
28	0x3e14be1d	0.14525647
29	0xbe8080ae	-0.25098175
30	0x3c969cee	0.018385377
31	0xbd3b8f1a	-0.04579077
32	0x3b59a1a2	0.0033207913
33	0xbc9b4160	-0.018952072
34	0x3d3a1981	0.04543448
35	0xbe1829ad	-0.14859648
36	0x3e5f5c3f	0.21812533
37	0x3d21399a	0.039361574
38	0xbd8ba1cb	-0.06817969
39	0xbe64722c	-0.22309178
40	0x3de47eac	0.11156973
41	0xbd3a1969	-0.04543439
42	0xbdcdede7	-0.10055142
43	0x3e2df5c3	0.16988282
44	0x3da6cff2	0.08145131
45	0x3cfc3046	0.030784737
46	0xbdfdd8e4	-0.12394884
47	0x3c509166	0.012729978
48	0xbe08bd93	-0.13353567
49	0x3e04fd36	0.12987217
50	0x3952b38e	0.0002009405
51	0xbd8b405e	-0.067993864
52	0xbd46c060	-0.048523307
53	0x3d117a4b	0.03551702
54	0xbe5ab311	-0.21357371
55	0x3c9acf25	0.018897602
56	0x3e2789f4	0.16361219
57	0xbdc57b6a	-0.0964268
58	0x3e439c48	0.19102585
59	0xbdbefa0e	-0.09325038
60	0xbd5bff55	-0.0537103
61	0xbe1074b0	-0.14107013
62	0xbab13e21	-0.0013522544
63	0xbd88d6a6	-0.06681566

actor.mu.model.0.weight f4 [6, 64]
0	0xbd7b2a43	-0.0613196
1	0x3e85689d	0.26056376
2	0xbd01cd79	-0.031690095
3	0x3ea6a7bd	0.3254985
4	0x3dfca1b3	0.12335529
5	0x3e9a68a1	0.3015795
6	0x3d59a080	0.05313158
7	0x3e5daad7	0.21647201
8	0xbd6d54a3	-0.057942044
9	0xbd3f93e4	-0.0467719
10	0xbe94f764	-0.29094994
11	0xbd3d0929	-0.046151314
12	0x3e707d48	0.23485291
13	0xbe6b3268	-0.22968447
14	0xbca03419	-0.019556092
15	0x3e1ae57a	0.15126601
16	0x3e6a639d	0.22889562
17	0x3d99ceea	0.07510169
18	0x3e83342f	0.2562575
19	0x3e66efb2	0.22552374
20	0xbdcb63e6	-0.099311635
21	0xbe4cd123	-0.20001654
22	0x3e0d9bd8	0.13828981
23	0x3eb07cb3	0.34470138
24	0x3e88a2ca	0.26686698
25	0x3e8b9fd0	0.27270365
26	0xbd5baef9	-0.053633664
27	0xbd79bc7b	-0.060970765
28	0x3dcc14f4	0.09964934
29	0xbe685bc6	-0.22691259
30	0xbd6596d6	-0.05605205
31	0x3e14533c	0.14484876
32	0xbd66c486	-0.056339763
33	0x3e0ee089	0.13952841
34	0xbe519652	-0.20467499
35	0xbcdb95fe	-0.02680492
36	0xbda1bc3b	-0.0789723
37	0x3dfbe06a	0.12298663
38	0x3d4e1ba3	0.050319325
39	0x3ee07b09	0.43843868
40	0xbe13a373	-0.1441782
41	0xbe9deda2	-0.30845362
42	0xbe124875	-0.14285453
43	0xbd543b7f	-0.051814552
44	0xbcb79edf	-0.022414623
45	0x3b4a1830	0.003083717
46	0x3e49c75a	0.19704953
47	0xbda46f45	-0.080290355
48	0x3e8a150d	0.26969185
49	0xbd124385	-0.035708923
50	0x3ddcb592	0.10776819
51	0xbed0435f	-0.406764
52	0xbeaca1d3	-0.33717212
53	0x3de09c4d	0.10967312
54	0xbd22b7f2	-0.039726205
55	0xbe9ea27d	-0.30983344
56	0xbb80fe8b	-0.003936594
57	0xbd62dfe0	-0.055389285
58	0xbe9493ee	-0.2901911
59	0xbe28c7c1	-0.1648245
60	0x3e556851	0.20840575
61	0x3eca39d7	0.39497253
62	0xbea939e3	-0.33051977
63	0x3d7677f7	0.060173
64	0xbda31c14	-0.0796434
65	0xbe91a1d9	-0.28443792
66	0xbda15b66	-0.07878761
67	0x3df9d7ea	0.121993855
68	0x3cca6fe8	0.024711564
69	0x3e124a33	0.14286117
70	0xbe47e822	-0.19522145
71	0x3e6fbe98	0.2341255
72	0x3d94f2a8	0.072728455
73	0x3d35c50d	0.044377375
74	0x3e0aa338	0.13538826
75	0xbe50111c	-0.20319027
76	0x3e756b85	0.23966797
77	0x3d82b24a	0.06381662
78	0xbdcb7f81	-0.09936429
79	0xbd89ae91	-0.06722749
80	0xbe1833f1	-0.14863564
81	0x3de31a87	0.11089044
82	0x3e836443	0.2566243
83	0x3e2dabbe	0.16960046
84	0xbe20f736	-0.15719303
85	0xbe346d35	-0.17619784
86	0xbc5f22a5	-0.0136191
87	0xbe405736	-0.18783268
88	0x3cc8aca4	0.024496384
89	0xbd84a8e2	-0.06477524
90	0xbcc6bf2c	-0.02426108
91	0x3e221800	0.15829468
92	0x3e34f8ea	0.17673078
93	0x3e30c770	0.1726358
94	0x3de4616d	0.11151395
95	0x3bd6129e	0.006532981
96	0xbd5cac8b	-0.053875487
97	0xbd9950d7	-0.07486122
98	0xbe162d86	-0.14665803
99	0xbd9663eb	-0.073432766
100	0x3eda766d	0.42668477
101	0xbde17dee	-0.11010347
102	0xbc99f432	-0.0187932
103	0xbe88dbaa	-0.2673009
104	0xbcaa50e6	-0.020790529
105	0x3d9ddacd	0.077077486
106	0xbdb2b027	-0.08725005
107	0x3e12a55e	0.14320895
108	0xbc687845	-0.014188831
109	0xbba8e5ae	-0.005154333
110	0x3e200e67	0.15630494
111	0x3dd288a1	0.10279966
112	0x3e8afc06	0.27145404
113	0x3e6d92d8	0.23200548
114	0x3d3c1d89	0.045926604
115	0xbd03f0c4	-0.032212034
116	0xbe7ca5f0	-0.24672675
117	0x3d01adb6	0.031659804
118	0x3daa89a9	0.08327038
119	0x3c353653	0.011060315
120	0x3dab6651	0.08369125
121	0xbe2db267	-0.16962586
122	0x3e9e153f	0.30875584
123	0xbd870b8c	-0.06593999
124	0x3e350896	0.17679057
125	0x3dc0b27f	0.094090454
126	0x3e9a795b	0.30170712
127	0x3c8dc0f4	0.017303921
128	0xbb63862e	-0.0034717428
129	0x3df85b47	0.12126785
130	0xbcd85106	-0.026405822
131	0xbd06a799	-0.032874677
132	0x3cd82133	0.026383018
133	0x3a742cf4	0.000931456
134	0x3e985acc	0.29756773
135	0xbe5a69ad	-0.21329375
136	0x3dd1550a	0.10221298
137	0xbe454a53	-0.19266634
138	0xbe0dfbd8	-0.13865602
139	0x3e251549	0.16121401
140	0xbe38be8e	-0.18041441
141	0x3e6b5d7d	0.22984882
142	0xbcb73cd2	-0.022367869
143	0x3db09603	0.086223625
144	0xbc14ead2	-0.009089189
145	0xbe08fa11	-0.13376643
146	0xbcbc0797	-0.022952838
147	0xbd01cd2e	-0.031689815
148	0xbdefd427	-0.11710387
149	0x3cdfc9c5	0.02731789
150	0x3e695401	0.22785951
151	0x3eeed077	0.4664342
152	0xbe1ecd5e	-0.15508029
153	0x3d5322e4	0.051546946
154	0x3e198158	0.14990747
155	0xbdd38451	-0.10327972
156	0x3d497f3b	0.049193602
157	0xbed7555e	-0.42057317
158	0xbc2ab3eb	-0.010418872
159	0xbe15631f	-0.14588593
160	0xbe015f89	-0.126341
161	0x3dcdefa0	0.100554705
162	0xbd0f32e1	-0.03496063
163	0x3d4c474c	0.04987268
164	0xbd33ad35	-0.043866355
165	0x3b076195	0.0020657529
166	0x3e5f73d5	0.2182153
167	0x3db74b93	0.089499615
168	0xbe5d08a9	-0.21585335
169	0xbdc2f6bb	-0.09519716
170	0xbd27eac6	-0.04099538
171	0x3db7a686	0.08967309
172	0xbe1ffe8a	-0.15624443
173	0x3e8876f4	0.26653254
174	0x3cc71ea2	0.024306599
175	0xbd7abd4a	-0.061215676
176	0xbd812dde	-0.063075766
177	0xbdccb1eb	-0.09994873
178	0xbedc03f5	-0.4297177
179	0x3e413d47	0.18871032
180	0xbca5347b	-0.020166626
181	0xbdb3f03a	-0.08786054
182	0x3d021a63	0.031763446
183	0x3eabb739	0.33538225
184	0xbe3d5839	-0.18490686
185	0x3e080e89	0.13286795
186	0xbe36a6a0	-0.17837
187	0xbd026858	-0.03183779
188	0xbe298bee	-0.16557285
189	0xbe1761a9	-0.14783348
190	0xbe7c9299	-0.24665298
191	0x3e451d22	0.19249395
192	0xbed71e63	-0.4201537
193	0xbc8b2f85	-0.016990433
194	0xbe4a9236	-0.19782338
195	0xbd865b0f	-0.06560337
196	0xbe56c82b	-0.20974796
197	0x3dee299c	0.1162903
198	0xbe41a03e	-0.18908784
199	0xbd5c038f	-0.05371433
200	0xbd883f4f	-0.066527
201	0x3dcf93ca	0.101356104
202	0xbc8eb269	-0.017419057
203	0x3c66ef56	0.014095148
204	0xbbf547b5	-0.007485355
205	0xbde74628	-0.11292678
206	0xbe017974	-0.12643987
207	0x3f1193ad	0.5686596
208	0xbd8e481f	-0.0694735
209	0xbe6833d9	-0.22676028
210	0x3e703b11	0.23460032
211	0xbeb92441	-0.36160472
212	0x3e754bed	0.23954745
213	0xbe44965c	-0.19197983
214	0x3f374d37	0.71602196
215	0x3f203f67	0.62596744
216	0x3e04c436	0.12965474
217	0x3e1164b4	0.14198571
218	0x3e9b7daf	0.30369326
219	0x3eabf709	0.3358691
220	0x3e16ec3b	0.14738552
221	0xbd84b1b1	-0.064792044
222	0xbe9cb4ee	-0.30606788
223	0xbe8b2c98	-0.2718246
224	0x3e1d52c0	0.15363598
225	0x3e5dd7d2	0.2166436
226	0xbe4dea88	-0.20108998
227	0xbe79de9b	-0.24401323
228	0xbd42d4a8	-0.047566086
229	0x3e15ceae	0.14629623
230	0xbd226f20	-0.03965676
231	0x3ed7c5a1	0.42142966
232	0x3d9257f1	0.0714568
233	0xbd482a5d	-0.048868526
234	0xbef1fe99	-0.47264555
235	0x3d052351	0.032504383
236	0x3c8b87d9	0.01703255
237	0x3ea90fe6	0.33019942
238	0x3e7d93ec	0.24763459
239	0xbe700f30	-0.23443294
240	0xbd19ec20	-0.037578702
241	0x3cc02cf9	0.023458945
242	0x3eab033a	0.334009
243	0xbe0f8686	-0.1401616
244	0x3e9b19f6	0.30293244
245	0x3dc0de18	0.09417361
246	0xbe710f1a	-0.23540917
247	0xbd9019f0	-0.07036197
248	0x3f0eaf9b	0.557367
249	0x3d5b7940	0.05358243
250	0xbd9fa20c	-0.0779458
251	0x3e24b2d7	0.16083847
252	0x3e31571e	0.17318389
253	0x3e503bf2	0.20335367
254	0x3d96d5d6	0.07365005
255	0xbd3b114e	-0.0456708

actor.mu.model.0.bias f4 [6]
0	0xbdfde382	-0.12396909
1	0xbe110c21	-0.14164783
2	0xbe22b1d8	-0.15888155
3	0x3ea04988	0.313061
4	0x3e082f3f	0.13299273
5	0xbdd1d879	-0.10246367

critic.preprocess.model.model.0.weight f4 [64, 17]
0	0xbc971e66	-0.018447112
1	0xbee2540a	-0.44204742
2	0x3cf72028	0.0301667
3	0x3d870354	0.06592432
4	0xbdd164eb	-0.10224327
5	0xbe557af1	-0.2084768
6	0x3e4367fd	0.19082637
7	0x3dd330da	0.10312052
8	0x3ebd9d00	0.37033844
9	0x3eeff960	0.46869946
10	0xbdca5300	-0.09879112
11	0x3dcfb68e	0.101422414
12	0x3e00550d	0.12532444
13	0x3d855fdc	0.06512424
14	0xbe218d53	-0.15776567
15	0xbe2dc7be	-0.16970727
16	0x3ca2582e	0.019817438
17	0xbec287a7	-0.3799412
18	0x3ec81eba	0.39085943
19	0x3dbc549b	0.09195825
20	0xbe13927b	-0.14411347
21	0xbd71ddae	-0.0590493
22	0x3f20b17f	0.6277084
23	0x3cb075c7	0.021540536
24	0xbd89c900	-0.06727791
25	0xbe1da28d	-0.1539404
26	0x3e38a15a	0.180303
27	0x3dd4c94d	0.103899576
28	0x3ed3d9f4	0.41377223
29	0x3d500c07	0.05079272
30	0x3d640b59	0.055674884
31	0xbf1f1a25	-0.6214927
32	0x3c86239f	0.016374407
33	0x3df0869d	0.117444254
34	0xbeaffaec	-0.34371126
35	0x3f194877	0.598762
36	0xbd91a538	-0.07111591
37	0x3def7722	0.11692645
38	0xbe04fa29	-0.12986054
39	0x3c3ba9f9	0.011454099
40	0x3be81a81	0.0070832376
41	0xbdc99e3b	-0.09844633
42	0x3f16c024	0.58886933
43	0xbde67be8	-0.11254102
44	0x3f276c9a	0.6540009
45	0x3e7a4365	0.24439771
46	0x3ead470b	0.33843264
47	0x3dfea76f	0.12434279
48	0xbd3f4940	-0.046700716
49	0x3d97f452	0.07419647
50	0xbba6d7ba	-0.0050916346
51	0x3e9d5ad5	0.30733362
52	0xbf0566f4	-0.5211022
53	0x3c819cda	0.015821863
54	0xbd358cb9	-0.044323657
55	0x3e2c24e5	0.16810949
56	0x3b8faafe	0.0043843975
57	0x3db5b22d	0.08871875
58	0xbccc2918	-0.024921939
59	0xbe599347	-0.21247588
60	0xbdc59dbd	-0.09649227
61	0xbf1e81e9	-0.6191698
62	0xbea23fb9	-0.31689242
63	0xbe96266b	-0.29326186
64	0x3c36172e	0.011113925
65	0xbd77319d	-0.06035005
66	0xbea5d529	-0.3238919
67	0x3d384784	0.044990078
68	0xbedbfa36	-0.42964333
69	0x3f013beb	0.5048205
70	0xbed5103f	-0.41613957
71	0x3e07b2b5	0.13251765
72	0xbbe80d0e	-0.0070816344
73	0x3bdac031	0.006675743
74	0x3cc160f2	0.023605797
75	0xbd252036	-0.040313922
76	0xbdb2bbf9	-0.08727259
77	0xbdb2cf92	-0.08730997
78	0x3ef132b1	0.47108987
79	0xbdd8f1c2	-0.10592987
80	0xbde125b3	-0.10993519
81	0x3d914462	0.07093121
82	0x3ee7fb27	0.45308802
83	0x3e3ac2d6	0.18238387
84	0x3e0f701e	0.14007613
85	0xbd2df0ef	-0.0424661
86	0x3ea817f9	0.3283079
87	0x3ddc0d7e	0.10744761
88	0xbd69cf9d	-0.05708276
89	0x3d587d02	0.05285359
90	0x3e55bdf1	0.20873238
91	0xbc84c8e2	-0.01620907
92	0x3d7ce173	0.061738443
93	0xbdaf5e32	-0.08562888
94	0xbe8051a9	-0.25062302
95	0x3c1db642	0.009625973
96	0x3a7cfbcb	0.0009650557
97	0x3d8c32f1	0.06845654
98	0x3e4ad387	0.19807254
99	0xbd89660e	-0.067089185
100	0xbead9374	-0.3390156
101	0xbc3f6373	-0.011681425
102	0x3dd4ab8d	0.10384283
103	0x3f44ba22	0.76846516
104	0xbda639f8	-0.081165254
105	0x3c85f2f0	0.016351193
106	0x3d5d11df	0.05397212
107	0x3e0cbb6b	0.1374337
108	0xbd92b667	-0.07163697
109	0xbd432af9	-0.047648404
110	0x3e977590	0.2958188
111	0x3cba6481	0.022753002
112	0x3ec34b9c	0.38143623
113	0xbe4d54ef	-0.20051931
114	0x3cb98701	0.022647383
115	0xbb8d7c35	-0.004317785
116	0xbe9bf525	-0.30460468
117	0x3bae2308	0.0053142346
118	0xbdce94b9	-0.1008696
119	0xbd6f1e2c	-0.058378384
120	0xbe01c2ad	-0.12671919
121	0x3ea4e59e	0.32206434
122	0xbdf2e8df	-0.11860823
123	0x3e77d574	0.2420252
124	0x3ee9e6d2	0.45683914
125	0x3c44798e	0.0119918715
126	0xbd244020	-0.040100217
127	0x3e850a87	0.25984594
128	0x3dfde746	0.123976275
129	0x3e7e4fd3	0.24835138
130	0x3e860d89	0.26182202
131	0x3e68a052	0.22717407
132	0xbe375105	-0.17902
133	0x3d9a0372	0.075201884
134	0xbd07ddfd	-0.03317069
135	0x3d702690	0.058630526
136	0x3e8cc3c1	0.27493098
137	0xbe9dfe2a	-0.30857974
138	0xbebf5da5	-0.37376133
139	0xbd1297b3	-0.035789203
140	0xbcf17f01	-0.029479505
141	0x3d2a18e0	0.04152763
142	0x3e02dbcc	0.12779158
143	0xbdae35fa	-0.08506389
144	0xbe02cf45	-0.1277438
145	0x3ddd7646	0.108135745
146	0xbc721953	-0.014776546
147	0x3d5aecf7	0.053448644
148	0xbdb0a342	-0.08624889
149	0xbc4a9e2e	-0.012366815
150	0xbd8fd8ae	-0.0702375
151	0xbe5d9f0e	-0.21642706
152	0xbd7016a9	-0.05861536
153	0xbda6ef95	-0.081511654
154	0xbebe6e13	-0.37193355
155	0xbdb83f66	-0.08996467
156	0xbd0a40f1	-0.03375334
157	0x3d533123	0.051560532
158	0x3ee2e5eb	0.44316038
159	0x3abf7c1e	0.0014609133
160	0x3d715792	0.058921404
161	0xbc142e59	-0.009044253
162	0x3ec1fbbe	0.37887377
163	0xbdeec5bd	-0.11658809
164	0x3e475f9b	0.19470064
165	0x3dcdda06	0.1005135
166	0xbc4e9ed7	-0.012611113
167	0xbd3239cb	-0.043512147
168	0xbea5856e	-0.3232836
169	0xbe09337e	-0.13398549
170	0xbe3bff6b	-0.18359153
171	0x3f2b0373	0.6680214
172	0xbd9a6de0	-0.07540488
173	0x3e960f54	0.2930857
174	0x3deb5a88	0.11491877
175	0x3e4a237d	0.197401
176	0xbf214bf3	-0.63006514
177	0xbe5bcd15	-0.21464951
178	0x3eabe1d8	0.33570743
179	0x3e23b70a	0.15987793
180	0x3f06337c	0.5242231
181	0x3d6e707e	0.05821275
182	0x3dd4c3fa	0.10388942
183	0xbe4b1725	-0.19833048
184	0x3f0034bb	0.5008046
185	0xbe1f15ed	-0.15535708
186	0x3baaafb3	0.0052089333
187	0xbe4e595b	-0.20151274
188	0xbe8beb1a	-0.27327806
189	0x3e06a666	0.13149413
190	0xbdbefc92	-0.09325518
191	0x3caccc3e	0.021093484
192	0xbd068c6a	-0.032848753
193	0x3d83ec95	0.06441609
194	0x3d4dbf87	0.050231483
195	0xbe531928	-0.20615065
196	0x3d8e6e1f	0.06954598
197	0x3b027e6f	0.0019911786
198	0x3e69cdc6	0.22832403
199	0x3e85318c	0.26014364
200	0xbd0bbe86	-0.034117244
201	0xbdc7f459	-0.097634025
202	0xbdd940d1	-0.10608066
203	0xbdd13755	-0.10215632
204	0xbd14b7b1	-0.036307994
205	0xbf8d9f2b	-1.1064199
206	0xbc10e9be	-0.008844791
207	0x3df6925c	0.120396346
208	0xbcc8f034	-0.0245286
209	0xbd2f20e8	-0.04275599
210	0xbd74d7aa	-0.059775986
211	0xbd6d088e	-0.057869487
212	0xbe6c2bd9	-0.23063602
213	0x3f0519e5	0.51992637
214	0xbcb8d3b9	-0.022561895
215	0x3de58637	0.1120724
216	0x3d0845f8	0.033269852
217	0x3e2089ad	0.15677519
218	0x3e808006	0.25097674
219	0xbcb21c0d	-0.021741891
220	0x3b9a714f	0.0047132145
221	0x3e6c6bc1	0.2308798
222	0xbf0ea428	-0.5571923
223	0x3cedd266	0.02903099
224	0x3dfe2552	0.12409462
225	0x3db33c36	0.08751719
226	0xbe5eb96c	-0.2175042
227	0xbe0df633	-0.13863449
228	0xbd89d5c2	-0.06730224
229	0x3c3c6fbc	0.011501249
230	0x3e977978	0.2958486
231	0x3e04069d	0.12893148
232	0x3e2cc77c	0.16872972
233	0x3df55dff	0.11980819
234	0xbe4a4482	-0.19752696
235	0x3e08fdf5	0.13378127
236	0x3c25df17	0.01012399
237	0x3d23192f	0.03981894
238	0xbdb122e4	-0.08649233
239	0xbcf301f3	-0.029664015
240	0x3da9ec68	0.08297044
241	0xbe98e338	-0.29860854
242	0x3e1854f4	0.14876157
243	0x3ededc0d	0.4352726
244	0xbd4c116a	-0.049821295
245	0xbd93f5db	-0.072246276
246	0x3eb1cb27	0.34725305
247	0xbe8e7225	-0.2782146
248	0xbe6eca2e	-0.23319313
249	0x3e4c7a77	0.19968592
250	0x3e2dcde5	0.16973074
251	0xbe224297	-0.15845715
252	0xbf6ef8ec	-0.93348575
253	0xbec4a6fb	-0.38408646
254	0xbdae1cd8	-0.08501595
255	0xbe2c4143	-0.1682177

critic.preprocess.model.model.0.bias f4 [64]
0	0x3e4b1c40	0.19834995
1	0xbee710ab	-0.45129904
2	0xbed789d7	-0.4209735
3	0x3f09150c	0.5354774
4	0xbef7845d	-0.48343173
5	0x3efc4fab	0.49279532
6	0x3f5c5874	0.8607247
7	0x3f009930	0.50233746
8	0xbb6b0b52	-0.0035864902
9	0x3eda6b95	0.42660204
10	0xbc03a00a	-0.008033762
11	0xbf9ca6a6	-1.2238357
12	0xbf35878a	-0.7090994
13	0xbd8cc0c9	-0.06872708
14	0x3f2e660d	0.6812447
15	0xbe1c5b3a	-0.15269175
16	0x3eead397	0.45864555
17	0xbd93ee1d	-0.07223151
18	0x3f2fe19c	0.6870363
19	0x3f5e2987	0.86782116
20	0x3f017e6e	0.5058354
21	0xbf042845	-0.51623946
22	0x3e4c973b	0.19979565
23	0xbf4b5651	-0.79428583
24	0x3e338037	0.17529379
25	0x3e5fe384	0.21864134
26	0xbf04b95f	-0.51845354
27	0xbf05337c	-0.52031684
28	0x3ec57501	0.3856583
29	0x3f820c20	1.015995
30	0xbdc83d50	-0.097773194
31	0xbdbf0eeb	-0.09329017
32	0xbe32f1b4	-0.17475015
33	0x3e2f02af	0.17090867
34	0xbe08ade4	-0.13347584
35	0xbf280c40	-0.6564369
36	0x3ea093dd	0.3136281
37	0xbea93706	-0.33049792
38	0xbe66c098	-0.22534406
39	0x3ea39b33	0.31954345
40	0x3f0806e6	0.53135526
41	0xbef52f3b	-0.47887596
42	0x3f5e04a0	0.8672581
43	0xbda88e62	-0.08230282
44	0xbf0de1d4	-0.5542271
45	0x3e0498d7	0.12948929
46	0x3eb2fb33	0.34957275
47	0xbef0a4d9	-0.4700077
48	0xbecf2829	-0.40460327
49	0x3f575ce1	0.84126097
50	0xbe8d2c60	-0.27572918
51	0x3f1c7ee7	0.6113114
52	0xbee7510b	-0.45179018
53	0xbc247775	-0.010038246
54	0x3e127df5	0.14305861
55	0xbebe791d	-0.37201777
56	0x3e40784f	0.18795894
57	0x3f1ef354	0.6209004
58	0xbf02f423	-0.51153773
59	0x3eb50a3e	0.35359377
60	0xbc2e39a9	-0.010633864
61	0xbe90ab64	-0.2825576
62	0xbbda9037	-0.006670024
63	0xbd7258c1	-0.059166674

critic.preprocess.model.model.2.weight f4 [64, 64]
0	0x3eae2066	0.34009093
1	0x3e02f2e3	0.12787966
2	0x3dfaa557	0.12238567
3	0xbf22eec0	-0.63645554
4	0x3f4f973e	0.8109015
5	0xbf52cc98	-0.82343435
6	0x3dd69569	0.104777165
7	0x3ca431bf	0.020043252
8	0x3e67f6e9	0.22652782
9	0x3ba55221	0.005045191
10	0x3cdb6898	0.026783273
11	0x3e2d45b2	0.16921118
12	0x3f181a24	0.5941489
13	0x3dbfa3c2	0.09357406
14	0xbde5dbba	-0.1122355
15	0xbe441fc1	-0.19152738
16	0xbe0791a2	-0.13239148
17	0x3e4d0880	0.20022774
18	0x3de04a87	0.10951715
19	0x3e7cd5a9	0.2469088
20	0x3e5a15fb	0.21297447
21	0x3e25eb80	0.16203117
22	0x3d45e609	0.04831508
23	0x3e856a06	0.26057452
24	0x3eb9ebfb	0.3631285
25	0xbdd6c56f	-0.10486876
26	0x3e37a809	0.17935194
27	0x3e7e5db0	0.24840426
28	0x3db7c9e7	0.08974057
29	0xbf1f7b81	-0.62297827
30	0x3e6f5ec0	0.23375988
31	0xbeda0e23	-0.4258891
32	0x3d915eb8	0.07098144
33	0x3f1bebca	0.6090666
34	0xbdd2218d	-0.102603056
35	0x3e94a694	0.2903334
36	0xbe87c6c6	-0.2651884
37	0xbeb71eb2	-0.35765606
38	0xbe457553	-0.19283037
39	0x3e28cd49	0.1648456
40	0xbe552934	-0.20816499
41	0x3e2581ee	0.16162845
42	0xbdfc2ea5	-0.12313584
43	0x3e9df9df	0.308547
44	0x3e9dae9e	0.30797285
45	0xbe10bed2	-0.14135292
46	0xbed6116c	-0.41810167
47	0x3df4c427	0.119514756
48	0x3ee0c9c7	0.43903944
49	0xbdd04781	-0.10169888
50	0xbe7d4554	-0.24733478
51	0x3d9ef069	0.07760698
52	0x3f0eece1	0.558302
53	0x3dbcd51e	0.092203364
54	0x3d894f52	0.06704582
55	0x3f18bd69	0.59664017
56	0xbec53556	-0.38517255
57	0xbdde667b	-0.1085939
58	0x3db5a579	0.08869452
59	0x3e8248c8	0.25446153
60	0x3f363548	0.7117505
61	0x3ebfe8d5	0.37482324
62	0x3e9776ac	0.29582727
63	0x3e7bfb61	0.24607612
64	0xbd9fb619	-0.07798404
65	0x3eb64ad5	0.35603967
66	0x3e1da6d7	0.15395676
67	0x3e7d0763	0.24709849
68	0xbdf2b8e6	-0.11851673
69	0x3e6dcd75	0.23222907
70	0x3f343004	0.70385766
71	0x3d79ef1b	0.061019044
72	0xbe10b29d	-0.14130636
73	0x3ec11239	0.37709215
74	0xbdb8fcf7	-0.09032624
75	0xbe42540e	-0.18977377
76	0xbe69e68e	-0.22841856
77	0xbe2c7f8e	-0.16845533
78	0x3e7f8b80	0.24955559
79	0x3eea0e00	0.45713806
80	0x3e0b5fc6	0.13610753
81	0x3ef10a21	0.4707804
82	0x3d261f55	0.040557224
83	0x3e330d71	0.17485596
84	0x3d99facf	0.07518541
85	0xbe9cd153	-0.30628452
86	0xbe911ebb	-0.28343758
87	0x3d2a0111	0.041504923
88	0xbe7d17ab	-0.2471606
89	0xbf04521c	-0.5168779
90	0x3e598048	0.21240342
91	0xbe7f8164	-0.24951702
92	0xbdef8e65	-0.116970815
93	0x3cffd380	0.03122878
94	0x3bd11ba7	0.0063814702
95	0xbe432ff5	-0.19061263
96	0xbe9405b3	-0.28910598
97	0x3ce5e222	0.02806193
98	0xbe1750c9	-0.14776911
99	0x3dfb2622	0.12263133
100	0x3c421b00	0.011847258
101	0x3c7c2f24	0.015392099
102	0x3e90afe1	0.28259185
103	0x3d8fc7d0	0.07020533
104	0xbc587898	-0.013212346
105	0xbdec648b	-0.115426145
106	0xbd5c8acd	-0.05384331
107	0xbe9cfcbe	-0.30661577
108	0x3e2ae2ae	0.16688034
109	0x3e42908f	0.19000457
110	0x3d0c5bf4	0.03426738
111	0xbcb9fccc	-0.02270355
112	0xbb88540c	-0.00416041
113	0x3ed4756b	0.41495833
114	0x3e43dfa1	0.19128276
115	0x3dcfaa00	0.10139847
116	0x3d0ed1d0	0.03486806
117	0xbd354be3	-0.044261824
118	0xbd55b985	-0.05217888
119	0x3d082388	0.03323701
120	0xbe13c8ff	-0.14432143
121	0x3c44d354	0.012013275
122	0xbe812690	-0.25224733
123	0xbe2e3741	-0.17013265
124	0xbd6f3378	-0.058398694
125	0x3dda03af	0.10645234
126	0xbeb16415	-0.3464667
127	0x3e3a45a2	0.18190625
128	0xbe0391ae	-0.12848541
129	0xbe9ec620	-0.31010532
130	0xbf176d49	-0.5915113
131	0x3ed4de67	0.4157593
132	0xbf1bff89	-0.6093679
133	0xbdfe8eb2	-0.12429561
134	0xbe0e2579	-0.13881482
135	0x3e4b242c	0.19838017
136	0x3e1af720	0.15133333
137	0x3ec9ec5e	0.39438146
138	0xbe925c25	-0.28585926
139	0xbd1ad934	-0.037804797
140	0x3e1b592f	0.1517074
141	0x3d58e531	0.05295295
142	0xbe3a60e1	-0.18201019
143	0xbf14b66b	-0.5809085
144	0xbc2c9d65	-0.010535573
145	0x3dcdc221	0.10046793
146	0xbbc4d966	-0.006007361
147	0xbdf65634	-0.12028161
148	0xbe06c847	-0.13162337
149	0x3e9c0cd5	0.3047854
150	0x3f0307f8	0.51184034
151	0xbe88d279	-0.26723078
152	0x3e830dfd	0.2559661
153	0x3cb8d513	0.02256254
154	0xbe4a1f3b	-0.19738476
155	0xbe455762	-0.19271615
156	0x3ca6f35f	0.02037972
157	0x3d8b3d0c	0.06798753
158	0xbe5e724f	-0.21723293
159	0xbe1487ee	-0.14504978
160	0x3dc81b75	0.09770862
161	0x3dfb2dc3	0.12264588
162	0xbeaee532	-0.34159237
163	0xbee70366	-0.4511978
164	0x3e4e10ad	0.20123549
165	0x3cd927a9	0.02650817
166	0x3e492db3	0.19646339
167	0x3c6b0f4f	0.014346912
168	0x3e919594	0.28434432
169	0xbf66019c	-0.89846206
170	0x3ec0d587	0.37662908
171	0xbe892587	-0.26786444
172	0xbdd437f1	-0.103622325
173	0x3e899432	0.26870877
174	0x3e3cc0b3	0.18432884
175	0xbee71c8b	-0.45138964
176	0xbeac0f51	-0.33605435
177	0x3eb49e80	0.35277176
178	0xbecd8555	-0.40140787
179	0xbea59865	-0.3234283
180	0xbeec52bc	-0.4615687
181	0x3dba9fab	0.091124855
182	0x3e2c391b	0.16818659
183	0xbec0c7e9	-0.3765252
184	0x3e690953	0.22757463
185	0x3edbbb64	0.42916405
186	0xbddb6f5c	-0.107145995
187	0x3ed18c84	0.40927517
188	0x3d9fe360	0.0780704
189	0xbf21e67c	-0.63242316
190	0xbe195b75	-0.14976294
191	0xbd1108a8	-0.035408646
192	0xbb4f0509	-0.0031588695
193	0xbe6e946a	-0.23298803
194	0xbe65a83a	-0.22427455
195	0x3ed99bcf	0.42501685
196	0x3d080dbf	0.033216234
197	0x3dcc0206	0.099613234
198	0x3b583cc6	0.0032995208
199	0x3e2b8e0b	0.16753404
200	0x3e216890	0.15762544
201	0xbe2b28fc	-0.16714853
202	0xbec03f0e	-0.37548107
203	0xbeab5766	-0.33465117
204	0x3c93d379	0.018045174
205	0xbdf8a8ee	-0.12141596
206	0x3e945ed8	0.2897861
207	0xbca34f9d	-0.019935424
208	0xbed4e308	-0.4157946
209	0xbbde26be	-0.006779521
210	0x3e8f2665	0.2795898
211	0x3e961e45	0.2931997
212	0xbe8290f3	-0.25501212
213	0x3d58c641	0.052923445
214	0xbe3fc97c	-0.18729204
215	0xbefaf14b	-0.49012217
216	0xbf06f5bc	-0.5271871
217	0xbca62314	-0.020280398
218	0xbf2130f9	-0.6296535
219	0xbe7010bd	-0.23443885
220	0x3e10fafa	0.1415824
221	0x3edef41f	0.43545625
222	0xbedfe394	-0.43728316
223	0xbc72d924	-0.014822278
224	0xbe02a65b	-0.12758772
225	0xbed71e74	-0.4201542
226	0x3beb529c	0.0071814787
227	0xbe281b44	-0.16416651
228	0x3e68d620	0.22737932
229	0xbe8661e8	-0.26246572
230	0x3e8e8d11	0.27842
231	0x3e517e91	0.20458438
232	0xbe0ceddf	-0.13762616
233	0xbe0fb2c6	-0.1403304
234	0x3ee93b2f	0.45552966
235	0x3cfc0b03	0.03076697
236	0xbea1d731	-0.3160949
237	0x3e8dd3f7	0.2770078
238	0x3e3a709b	0.18207018
239	0xbe1990f3	-0.149967
240	0xbccc72b8	-0.024957046
241	0xbd094c30	-0.033519924
242	0xbc90aa59	-0.017659353
243	0xbe073fa1	-0.13207866
244	0xbeb72b41	-0.35775188
245	0x3ee09a28	0.43867612
246	0x3d5f95ec	0.054586336
247	0xbf0b82a5	-0.5449622
248	0x3e30bd02	0.17259601
249	0x3de6e0e1	0.11273361
250	0xbed81b27	-0.42208216
251	0xbd9e6bac	-0.077353805
252	0x3e8b7eb9	0.2724512
253	0xbe84d0b2	-0.25940472
254	0x3cf842f6	0.030305367
255	0x3eb051d8	0.34437442

critic.preprocess.model.model.2.bias f4 [64]
0	0xbe0290e3	-0.12750582
1	0x3dc2bc66	0.095085904
2	0x3c2c10ee	0.010502083
3	0x3e2bb55f	0.16768406
4	0xbcd275f4	-0.02569101
5	0x3dc7c44b	0.09754237
6	0x3ce57e4f	0.02801433
7	0x3e3c89e2	0.18411973
8	0x3d66bb3b	0.0563309
9	0xbe81e6d7	-0.2537143
10	0x3eb9ec04	0.36312878
11	0xbd0d9119	-0.034562204
12	0x3e85db97	0.26144096
13	0x3c1a7efe	0.009429691
14	0xbc4ab158	-0.012371384
15	0xbc93ba50	-0.018033177
16	0xbc9b7b8d	-0.018979812
17	0x3d653dd9	0.055967186
18	0xbcff2f1a	-0.03115039
19	0xbf6faa32	-0.9361907
20	0x3e01af7a	0.12664595
21	0xbdbe5e17	-0.0929529
22	0xbec7eb7a	-0.39046842
23	0x3d1bc28d	0.038027335
24	0x3e25668e	0.16152403
25	0x3c82b01b	0.015953114
26	0x3e238ffa	0.15972891
27	0x3e1bd5f4	0.15218335
28	0xbbed55bd	-0.007242887
29	0x3ce6e827	0.02818687
30	0xbd1f9245	-0.038957853
31	0x3d96f046	0.07370047
32	0x3c31bf72	0.010848867
33	0x3cae1827	0.021251751
34	0x3ce0d6e0	0.02744621
35	0x3e4f9159	0.2027029
36	0x3ba32d58	0.0049797706
37	0xbe47894e	-0.19485971
38	0xbc9720e3	-0.018448299
39	0xbe0e04e3	-0.13869052
40	0xbe58977d	-0.21151538
41	0x3eb2ce57	0.3492305
42	0x3edea5aa	0.43485767
43	0xbcaab726	-0.020839285
44	0x3d75964a	0.05995778
45	0x3eb50904	0.3535844
46	0x3ebba276	0.36647385
47	0xbcf206e7	-0.029544307
48	0x3d8eb49c	0.06968042
49	0x3d5587b1	0.05213136
50	0x3e6c84c3	0.2309752
51	0x3f210547	0.6289868
52	0xbe1f6cab	-0.15568797
53	0x3e052d9a	0.13005677
54	0x3cbf53e3	0.02335543
55	0x3f57a6d9	0.84238964
56	0xbc6065f7	-0.013696185
57	0x3df4da05	0.119556464
58	0xbd22532c	-0.0396301
59	0xbd8d6e59	-0.06905813
60	0xbd829859	-0.06376714
61	0xbe072021	-0.1319585
62	0x3bad617a	0.005291161
63	0x3ec32e03	0.38121042

critic.last.model.0.weight f4 [1, 64]
0	0x3caa3abf	0.020779965
1	0x3d428397	0.047488775
2	0xbd19ca70	-0.037546575
3	0x3d166129	0.036713753
4	0xba3da85c	-0.00072348653
5	0xbbdc969c	-0.006731821
6	0xba3eb318	-0.0007274612
7	0xbe0172fa	-0.12641516
8	0xbd148deb	-0.036268156
9	0xbda493c9	-0.08036
10	0x3df45f30	0.11932218
11	0xbcd07141	-0.025444629
12	0x3c8ef37d	0.017450089
13	0x3ae96c09	0.0017808686
14	0xbd4cba4a	-0.049982347
15	0x3aadbfd5	0.0013256023
16	0xba54b9d3	-0.0008114848
17	0x3ce1b98d	0.027554298
18	0xbafdac30	-0.0019353684
19	0xbee9509a	-0.45569307
20	0xbc9ce4f2	-0.019152138
21	0xba893570	-0.0010468196
22	0xbef6312a	-0.48084384
23	0xbca9abe9	-0.020711856
24	0x3ccbc2a0	0.024873078
25	0xbb877810	-0.0041341856
26	0x3d5b6606	0.053564094
27	0xbd1f3edd	-0.03887831
28	0x3b1deacb	0.0024096246
29	0x3d388b47	0.0450547
30	0x3d04f61d	0.032461274
31	0x3e3f075b	0.1865515
32	0x3b45a9af	0.0030160954
33	0xbd8295bf	-0.06376218
34	0xbab77474	-0.0013996498
35	0x3da32a77	0.07967084
36	0x3b476212	0.0030423445
37	0x3ccf4863	0.025303071
38	0x3ac30c90	0.0014881063
39	0x3da1edf3	0.07906713
40	0xbde81042	-0.11331226
41	0x3df9eb9c	0.12203142
42	0x3e181090	0.14850068
43	0xbcfa2ee2	-0.030539934
44	0xba9fd5d2	-0.0012194461
45	0x3e00cf71	0.12579133
46	0x3e92e687	0.28691503
47	0x3d11431e	0.0354644
48	0x3d76fce1	0.060299758
49	0xbcac2340	-0.021012902
50	0xbe3bc27e	-0.18335912
51	0x3ebbe7a1	0.36700156
52	0x3ca569e2	0.02019209
53	0xbda0e8ee	-0.07856928
54	0x3d1ffecf	0.039061364
55	0x3ef9c148	0.48780274
56	0x3b871923	0.0041228696
57	0xbd00447d	-0.031315316
58	0x3cc9e12f	0.024643509
59	0x3d09eb14	0.033671454
60	0x3d0cb1c2	0.03434921
61	0xbdc4f12c	-0.096163124
62	0x3c9a6fa9	0.018852072
63	0x3ef1c463	0.47220144

_actor_critic.actor.sigma_param f4 [6, 1]
0	0xc0025c75	-2.0368931
1	0xc0011954	-2.017171
2	0xbfe536bc	-1.7907329
3	0xc00ef171	-2.2334864
4	0xc020e47f	-2.5139463
5	0xbff41f73	-1.9072098

_actor_critic.actor.preprocess.model.model.0.weight f4 [64, 17]
0	0xbed7f794	-0.42181075
1	0x3d2fdf43	0.04293753
2	0x3d2209b3	0.03956003
3	0x3d01d79d	0.031699765
4	0x3e74874d	0.23879738
5	0x3daf7bb5	0.08568517
6	0xbe464363	-0.19361643
7	0xbdedf03e	-0.11618088
8	0x3cc22b1f	0.023702202
9	0xbe895408	-0.26821923
10	0x3d958469	0.07300646
11	0xbe344145	-0.17603023
12	0xbc7b0d25	-0.015322958
13	0x3eaa0ebc	0.33214366
14	0x3e219f4a	0.1578342
15	0x3e15ed0a	0.14641204
16	0xbe16e045	-0.1473399
17	0xbe297b32	-0.16550902
18	0x3edba768	0.42901158
19	0x3df33478	0.11875242
20	0x3d2ccd41	0.042187933
21	0xbcecfaa5	-0.02892811
22	0x3da4863f	0.08033418
23	0xbe9179f5	-0.28413358
24	0xbb73e06d	-0.0037212626
25	0x3e0a713b	0.13519756
26	0xbe27d460	-0.16389608
27	0x3ee5c4ef	0.4487681
28	0x3e2e8d6a	0.17046133
29	0x3dee905f	0.1164863
30	0x3d62c54e	0.055363946
31	0xbe84312e	-0.2581877
32	0x3e062e4b	0.13103597
33	0x3dc12aec	0.09432015
34	0x3e8d9e25	0.27659717
35	0xbf040449	-0.5156904
36	0xbdb058d3	-0.08610692
37	0xbcff4b90	-0.03116396
38	0xbe9223d4	-0.2854296
39	0xbe4954fa	-0.19661322
40	0xbcb07b52	-0.021543179
41	0xbd8158d0	-0.06315768
42	0xbb928e70	-0.0044725463
43	0x3f04766a	0.51743186
44	0x3e952099	0.29126433
45	0x3eb117e8	0.34588552
46	0xbd7f4370	-0.062320173
47	0x3e7d0233	0.2470787
48	0x3ebf85a9	0.37406662
49	0xbd8fa60e	-0.07014094
50	0xbd80c08c	-0.062867254
51	0xbea8fb18	-0.3300407
52	0xbcceb6c1	-0.025233628
53	0x3e950d85	0.29111877
54	0x3e92073c	0.28521144
55	0xbe662f07	-0.22478877
56	0xbeea5719	-0.45769575
57	0xbf222a34	-0.63345647
58	0xbeaf3246	-0.34218043
59	0x3e4c828f	0.19971679
60	0xbe8331ce	-0.25623935
61	0xbd3d1c8d	-0.046169806
62	0x3e85a406	0.26101702
63	0x3d8c6dfe	0.06856917
64	0xbe617642	-0.22017768
65	0xbe27c351	-0.16383101
66	0x3e73a13e	0.23791978
67	0xbd067970	-0.032830656
68	0xbf120fe6	-0.5705551
69	0xbdeeb714	-0.11656013
70	0x3e97e082	0.29663473
71	0x3d80898b	0.06276234
72	0x3d842e01	0.06454087
73	0x3e95401a	0.29150468
74	0x3e1313ec	0.14363068
75	0x3e03762f	0.12838052
76	0x3d86320a	0.06552513
77	0xbe99348f	-0.29922912
78	0x3e373d2a	0.17894426
79	0x3e4bd033	0.1990364
80	0xbc809ccc	-0.015699767
81	0x3dc483ca	0.09595449
82	0x3d92402a	0.071411446
83	0xbdd150c9	-0.10220487
84	0xbba11772	-0.004916125
85	0xbdfa127b	-0.12210556
86	0xbe28fa7e	-0.16501805
87	0xbd6cf2e0	-0.05784881
88	0x3e09a8ad	0.13443251
89	0xbe19eccf	-0.15031742
90	0xbe89e90b	-0.2693561
91	0xbe9c1f8d	-0.3049282
92	0x3cf2646b	0.029588899
93	0xbe67e5f7	-0.22646318
94	0xbe4d0430	-0.20021129
95	0xbe8692b1	-0.26283792
96	0x3d9898eb	0.07451042
97	0xbdfa4473	-0.12220087
98	0xbe3c24ed	-0.18373461
99	0x3e5c2cb1	0.21501423
100	0x3d52e81f	0.0514909
101	0x3d790468	0.060795218
102	0x3e3c66e2	0.18398622
103	0xbeff3ccc	-0.49851072
104	0x3da755d3	0.081706665
105	0xbe9f4f17	-0.31115028
106	0x3c0a5f76	0.008445611
107	0xbe231d66	-0.15929183
108	0xbde7b1b6	-0.113131925
109	0x3cf97cde	0.03045505
110	0xbdad67d9	-0.08467073
111	0x3ec05e3e	0.375719
112	0xbea8424e	-0.32863086
113	0xbeb111bc	-0.34583843
114	0x3e077f5c	0.13232177
115	0xbdc36917	-0.09541529
116	0xbd2e04a8	-0.04248491
117	0xbcc4c905	-0.024021635
118	0x3ce8f00c	0.028434776
119	0xbeda257f	-0.42606732
120	0xbea2783f	-0.31732365
121	0x3c92bf14	0.017913379
122	0x3ec806e3	0.39067754
123	0x3ce76a09	0.028248804
124	0xbe851478	-0.2599218
125	0x3e4c06ae	0.19924423
126	0x3e1e67e0	0.15469313
127	0x3e9eab2f	0.30989978
128	0x3c96ac3c	0.018392675
129	0x3ecd3978	0.40082908
130	0x3dff825c	0.12476036
131	0x3d185ff3	0.03720088
132	0x3d09d707	0.03365233
133	0x3e7f1496	0.24910197
134	0x3e004824	0.1252752
135	0x3d583bab	0.05279128
136	0xbd3c446c	-0.04596369
137	0xbec40519	-0.3828514
138	0xbd430e1d	-0.04762088
139	0x3d93df27	0.07220297
140	0x3e498f37	0.19683538
141	0x3ea9f5c7	0.33195326
142	0x3d9521af	0.07281815
143	0xbd853976	-0.065051004
144	0xbe43b460	-0.19111776
145	0x3f085ff7	0.5327143
146	0xbd9e18be	-0.07719563
147	0xbe094a5d	-0.13407274
148	0x3decbc44	0.11559346
149	0xbe7c0825	-0.24612482
150	0xbdbd9add	-0.092580535
151	0x3c11c85a	0.008897865
152	0xbdf826e8	-0.12116796
153	0x3e2158d2	0.15756539
154	0xbe151903	-0.14560322
155	0xbd7f12d6	-0.062273823
156	0x3ec36f4d	0.38170853
157	0x3e918726	0.28423423
158	0xbdcf4555	-0.10120646
159	0xbe158561	-0.14601661
160	0xbe33234a	-0.1749393
161	0xbe696df1	-0.22795846
162	0xbe551510	-0.20808816
163	0xbdc028af	-0.0938276
164	0xbbb864bf	-0.0056272442
165	0x3e9dfaa2	0.3085528
166	0x3d5c0c1e	0.053722493
167	0x3e973e49	0.29539707
168	0x3e8edc0f	0.27902266
169	0xbdd4e844	-0.10395864
170	0xbde736e2	-0.11289765
171	0x3e06185a	0.13095227
172	0xbebf362c	-0.37346017
173	0xbda2245a	-0.0791709
174	0x3e7385d1	0.23781516
175	0xbe69729b	-0.22797625
176	0xbe5e374f	-0.21700786
177	0xbcb4aedb	-0.022056034
178	0x3dea5ed6	0.1144387
179	0x3d9ba2f4	0.0759944
180	0x3e8c8b79	0.2745016
181	0xbe82ef82	-0.25573355
182	0x3dfdd31f	0.12393784
183	0x3e920a8d	0.28523675
184	0x3d938d0d	0.07204638
185	0xbecaf0fc	-0.3963698
186	0x3d0fa91c	0.035073385
187	0xbda155ba	-0.07877679
188	0xbc6de134	-0.014519025
189	0x3e2158bd	0.15756507
190	0x3e2dbd80	0.1696682
191	0xbe18090a	-0.14847198
192	0x3d273309	0.040820155
193	0xbece7b14	-0.40328276
194	0xbce8d14e	-0.028420117
195	0xbe354956	-0.17703757
196	0xbe8be3ff	-0.27322385
197	0x3e071fc5	0.13195713
198	0x3dbd8c61	0.09255291
199	0xbc15b10a	-0.009136448
200	0x3ea1a4ca	0.31571037
201	0x3e1a1ff7	0.15051256
202	0x3e170c57	0.14750801
203	0x3de19698	0.110150516
204	0x3efa1f66	0.4885208
205	0xbee96bf0	-0.45590162
206	0x3c4eaee8	0.012614943
207	0x3ea6f1eb	0.32606444
208	0xbe5f3cff	-0.21800612
209	0xbddddb28	-0.10832816
210	0xbea3a480	-0.3196144
211	0x3d857960	0.06517291
212	0x3ec52c25	0.38510242
213	0x3f014a5a	0.50504076
214	0x3e1d77a6	0.15377674
215	0x3e12bc01	0.1432953
216	0x3e4986b1	0.19680287
217	0xbd37235b	-0.044711452
218	0x3da7111d	0.08157561
219	0xbcd009f3	-0.02539537
220	0xbdb5380a	-0.08848579
221	0xbea7e93f	-0.3279514
222	0x3e337036	0.17523274
223	0xbeee16b6	-0.46501702
224	0x3cf392ca	0.02973308
225	0xbc986e10	-0.01860717
226	0x3dfb4dbc	0.12270686
227	0x3ea0e092	0.31421334
228	0xbd3b5809	-0.045738254
229	0xbee4c318	-0.44680095
230	0xbe183df8	-0.14867389
231	0xbe825169	-0.25452736
232	0x3dfb4129	0.12268288
233	0xbdbe915f	-0.09305071
234	0xbc2b31ea	-0.010448912
235	0x3dd7868b	0.10523709
236	0xbdaadc22	-0.08342768
237	0x3e3944a8	0.18092597
238	0x3e27f596	0.16402277
239	0xbf15e7d9	-0.58556896
240	0x3d9296ab	0.07157644
241	0xbd2c18ca	-0.04201583
242	0xbe621091	-0.22076632
243	0x3bcef81e	0.006316199
244	0xbe5236d7	-0.20528732
245	0xbe5b6816	-0.21426424
246	0x3e9a3255	0.30116525
247	0xbe9a0717	-0.30083534
248	0xbebb8940	-0.3662815
249	0xbe812bc8	-0.25228715
250	0x3d88d4a9	0.06681187
251	0xbcc84235	-0.024445632
252	0x3e45fc85	0.1933461
253	0xbe57f74d	-0.21090432
254	0x3d8a1633	0.067425154
255	0xbe5f3e6f	-0.2180116
