results/Swimmer-v3/ppo/6/220623-152516/policy.pth (torch, 47844 bytes, 24 tensors)

actor.sigma_param f4 [2, 1]
0	0xc02612a3	-2.5948875
1	0xc057e510	-3.3733559

actor.preprocess.model.model.0.weight f4 [64, 8]
0	0x3ea30966	0.31843108
1	0xbe020907	-0.12698756
2	0xbd745776	-0.05965372
3	0x3e77c66a	0.24196783
4	0xbebc815f	-0.36817452
5	0xbd094016	-0.033508383
6	0x3e95f902	0.2929154
7	0xbe28c8d6	-0.16482863
8	0xbeab4eab	-0.33458456
9	0x3bd13bef	0.0063853185
10	0x3dded9d1	0.10881389
11	0xbe63a56f	-0.22231077
12	0x3e460ad1	0.19340064
13	0x3e9e5510	0.30924273
14	0xbdc67e6f	-0.09692084
15	0xbed4fb41	-0.41597942
16	0x3f066fae	0.5251416
17	0x3e733bcf	0.23753284
18	0xbdae1a5e	-0.08501123
19	0x3e7098b0	0.23495746
20	0x3ddb97be	0.10722302
21	0x3e045721	0.12923862
22	0x3c7c6aa4	0.0154062845
23	0x3f3492c8	0.7053647
24	0x3ec2e42a	0.380647
25	0x3e831af7	0.2560651
26	0xbe649853	-0.22323732
27	0xbd953e17	-0.07287233
28	0x3d498b48	0.049205095
29	0x3e35d3d6	0.1775659
30	0x3ddea18b	0.108706556
31	0x3e53e5fa	0.20693198
32	0x3ced16d0	0.028941542
33	0x3d67a633	0.056554984
34	0xbf02f64f	-0.5115709
35	0xbe466c8a	-0.19377342
36	0xbe8e979c	-0.27850044
37	0xbd9e86e4	-0.07740572
38	0x3c3508c0	0.011049449
39	0xbe0d70d1	-0.13812567
40	0xbd5810d2	-0.052750416
41	0xbdefe64a	-0.11713846
42	0xbe75624f	-0.23963283
43	0x3d92826b	0.071537815
44	0xbf0e6389	-0.5562063
45	0xbe266deb	-0.16252868
46	0x3d8698df	0.065721266
47	0xbe7855c2	-0.24251464
48	0x3e0c1504	0.13679892
49	0x3e1ac705	0.15114982
50	0xbe9054e2	-0.2818976
51	0x3e2c0445	0.16798504
52	0x3efd22e8	0.49440694
53	0x3d969b83	0.0735388
54	0xbdfc02e5	-0.123052396
55	0xbed87ae2	-0.42281252
56	0x3edd89a5	0.43269077
57	0x3e473ec6	0.1945754
58	0xbd4522c8	-0.048128873
59	0x3d537c1a	0.051632024
60	0x3ed05f39	0.4069765
61	0x3cd59412	0.026071582
62	0x3e737f65	0.23779066
63	0xbedbf83b	-0.42962822
64	0xbbbc443c	-0.005745439
65	0x3dbe8023	0.09301784
66	0xbd6169f7	-0.055032697
67	0x3ec84232	0.39113003
68	0x3eb77dea	0.35838252
69	0x3e072a68	0.1319977
70	0x3e4526af	0.19253038
71	0xbf0ca09a	-0.5493256
72	0xbe001560	-0.12508154
73	0xbe97522b	-0.29554877
74	0x3de11e26	0.109920785
75	0xbd1f8826	-0.0389482
76	0xbecc16f3	-0.3986126
77	0x3dab770a	0.08372314
78	0x3e70ad94	0.23503715
79	0xbdf9dc57	-0.122002296
80	0x3de61a6b	0.112355076
81	0xbee6a9d8	-0.45051455
82	0x3d357038	0.044296473
83	0xbdd320d4	-0.10308996
84	0xbe1578c7	-0.14596854
85	0xbe206fa3	-0.15667586
86	0x3e83a345	0.25710502
87	0xbe89f4f6	-0.26944703
88	0xbedcb22f	-0.43104693
89	0x3ee993be	0.4562053
90	0xbdd87a81	-0.10570241
91	0xbee1ca0b	-0.4409946
92	0x3ea1b3d5	0.31582513
93	0x3cda97ef	0.026683776
94	0xbdf9a30e	-0.12189303
95	0x3d801228	0.06253463
96	0x3eb13cd1	0.34616712
97	0xbddce87d	-0.10786531
98	0x3e5ba606	0.21450052
99	0xbeac48cd	-0.33649293
100	0x3ebea6da	0.37236673
101	0x3ed75fc3	0.42065248
102	0x3ea6a423	0.325471
103	0xbf47b0b1	-0.78003985
104	0xbf17f58d	-0.59359056
105	0x3e1ab1a4	0.15106827
106	0xbe284d36	-0.16435704
107	0x3d1d7f3d	0.038451422
108	0xbe39c86a	-0.18142858
109	0xbee8df7b	-0.45483002
110	0x3de69e88	0.11260706
111	0x3f43056a	0.76180136
112	0x3f02f121	0.51149184
113	0x3d45c890	0.048286974
114	0xbd95c890	-0.07313645
115	0xbe663fa1	-0.2248521
116	0x3d8f3f68	0.06994516
117	0x3e352f66	0.17693862
118	0x3d85c522	0.06531741
119	0xbd8b64b4	-0.06806317
120	0xbe830478	-0.25589347
121	0xbedf910b	-0.43665347
122	0x3d9c3ca1	0.076287515
123	0xbddeca09	-0.10878379
124	0xbef436b1	-0.47697976
125	0xbae2b620	-0.0017296709
126	0x3d10d392	0.03535802
127	0xbe274061	-0.16333152
128	0x3ee27eb4	0.44237292
129	0x3f131f7e	0.5746993
130	0xbea95ab7	-0.33077022
131	0x3e917a4f	0.28413627
132	0xbcc88342	-0.024476651
133	0xbe831526	-0.25602072
134	0xbd45c411	-0.048282687
135	0x3e7ad0f0	0.24493766
136	0xbe966787	-0.2937586
137	0x3e015e5f	0.12633656
138	0x3e0be39f	0.1366105
139	0x3d98531f	0.07437729
140	0x3e65aee1	0.22429992
141	0x3ec5801c	0.38574302
142	0x3e23e79c	0.1600632
143	0x3ed26b6b	0.41097578
144	0xbe981fe2	-0.29711825
145	0xbe8ef6d5	-0.27922693
146	0x3e113313	0.1417964
147	0x3e73894c	0.23782843
148	0x3d2d6ce6	0.04234018
149	0xbe03f3cb	-0.12885968
150	0x3e7f34f0	0.24922538
151	0xbd6afd50	-0.057370484
152	0xbec55b60	-0.38546276
153	0xbe86bfd4	-0.26318228
154	0x3e8295b5	0.25504842
155	0x3da135de	0.078716025
156	0xbc81181c	-0.015758567
157	0xbcbb46f3	-0.02286098
158	0x3d3027c3	0.04300667
159	0xbead9ebf	-0.33910176
160	0x3f00d1a2	0.50319874
161	0x3bf21515	0.007387767
162	0x3e96769d	0.2938737
163	0xbd6a7359	-0.05723891
164	0xbdd3955a	-0.10331221
165	0x3e2d7846	0.16940412
166	0xbcf98cfe	-0.030462738
167	0x3b805881	0.0039168005
168	0x3ea8f3c8	0.3299849
169	0x3d1e5550	0.03865558
170	0xbdbdb821	-0.092636354
171	0xbcf540ce	-0.029938128
172	0xbd1ca968	-0.038247496
173	0x3e93ce0a	0.28868133
174	0xbdbd0b25	-0.09230641
175	0x3e139194	0.14411002
176	0xbec8a245	-0.39186302
177	0xbc31e90d	-0.010858786
178	0xbea1be04	-0.31590283
179	0x3e4e7582	0.20162013
180	0x3e5ee965	0.2176872
181	0xbcb2f361	-0.021844568
182	0x3db829f2	0.089923754
183	0x3ea225a0	0.3166933
184	0xbe1b2576	-0.15151009
185	0x3e75e49d	0.2401299
186	0xbf1ba5b4	-0.6079972
187	0xbe434958	-0.19070947
188	0xbe3fa7e1	-0.18716384
189	0xbd74f54e	-0.059804253
190	0xbd6664bd	-0.056248415
191	0x3e0c4a87	0.13700305
192	0x3e28a746	0.1647006
193	0x3e93d891	0.28876165
194	0xbe98d31a	-0.29848558
195	0x3dc128e9	0.09431631
196	0x3f0075de	0.5017985
197	0xbe067327	-0.13129865
198	0xbded9097	-0.11599844
199	0x3ea0dc97	0.31418297
200	0xbd92ce21	-0.07168222
201	0x3ce88744	0.028384812
202	0xbe75656b	-0.23964469
203	0x3c7f36fe	0.015577076
204	0x3e327f39	0.17431344
205	0x3ea266a4	0.31718934
206	0x3e702d83	0.23454861
207	0xbf42f990	-0.7616205
208	0xbe31c51f	-0.17360352
209	0xbe94c1bd	-0.2905406
210	0x3ed3478d	0.41265526
211	0xbe0e03b0	-0.13868594
212	0x3e4e13c7	0.20124732
213	0x3e191655	0.14949925
214	0xbe4d230e	-0.20032904
215	0x3e2ae407	0.16688548
216	0xbe4622ce	-0.19349214
217	0xbe92a7a1	-0.28643516
218	0xbde8ad28	-0.11361152
219	0xbd8d3bfa	-0.06896205
220	0xbea37536	-0.31925362
221	0xbea00e52	-0.31260926
222	0x3f0b3cf4	0.5438988
223	0xbecbfbac	-0.39840448
224	0xbce1bb65	-0.027555177
225	0x3e9080c1	0.2822323
226	0xbe8649b4	-0.26228106
227	0x3c575e47	0.013145036
228	0x3e9d2b27	0.30696985
229	0xbc0f5783	-0.008748892
230	0xbd8e4b97	-0.06948011
231	0x3d88e004	0.066833526
232	0xbe8a6957	-0.27033493
233	0xbefad521	-0.4899073
234	0x3ec6e518	0.3884666
235	0x3e3065cc	0.17226332
236	0xbe71b5c1	-0.2360449
237	0xbdfcb01e	-0.12338279
238	0x3e3618a3	0.17782836
239	0xbed057d0	-0.40691996
240	0xbe3eb16e	-0.18622372
241	0x3ecb5b51	0.39718106
242	0x3cfa4523	0.030550545
243	0xbe2f8770	-0.17141509
244	0x3e9ef802	0.3104859
245	0xbe05a757	-0.13052116
246	0xbe489bf4	-0.19590741
247	0xbc54bdd9	-0.012984716
248	0xbdfc1daf	-0.12310349
249	0xbd706e7e	-0.058699124
250	0x3d289b98	0.04116401
251	0xbeac151d	-0.33609858
252	0xbe6af43f	-0.22944735
253	0xbe95171e	-0.291192
254	0x3e4c4176	0.19946846
255	0x3f1c589d	0.61072713

actor.preprocess.model.model.0.bias f4 [64]
0	0x3cecb54e	0.028895047
1	0xbc8c1a2c	-0.017102323
2	0x3cf2d770	0.029643744
3	0xbe4008d1	-0.18753363
4	0x3d7ab910	0.061211646
5	0xbe22106d	-0.15826578
6	0x3dd3e79c	0.1034691
7	0xbe2ba3a5	-0.16761644
8	0xbdadeaaf	-0.08492028
9	0xbdd2c4f6	-0.102914736
10	0xbdac5ae2	-0.08415772
11	0xbd833a00	-0.06407547
12	0x3b0a0b83	0.002106399
13	0xbd7511c2	-0.05983139
14	0x3e2199f5	0.15781386
15	0xbd1343e9	-0.035953436
16	0xbd0835f2	-0.03325457
17	0x3d7cc80b	0.061714213
18	0xbd146163	-0.036225688
19	0x3cfc8930	0.030827135
20	0x3dbfc19f	0.09363102
21	0xbe5c70dc	-0.21527427
22	0x3cab1146	0.02088226
23	0xbddac564	-0.106821805
24	0x3d81d4b4	0.06339398
25	0x3cbd2249	0.023087637
26	0x3dd6d946	0.1049066
27	0xbd99d78e	-0.07511817
28	0xbcb56f0e	-0.022147682
29	0x3d887dfa	0.06664653
30	0xbd495910	-0.049157202
31	0xbe11ce47	-0.14238845
32	0xbd91b98f	-0.071154706
33	0xbd82c2dd	-0.063848235
34	0xbe2480b4	-0.16064721
35	0x3e10f16a	0.14154592
36	0xbba91cf8	-0.005160924
37	0xbcdd8496	-0.027040761
38	0x3cba8619	0.02276902
39	0x3e4d5fee	0.20056126
40	0xbc0bea02	-0.0085396785
41	0x3d09219e	0.033479325
42	0xbd96f581	-0.07371045
43	0xbe482ee5	-0.19549139
44	0xbdccb0cc	-0.09994659
45	0x3e16d801	0.14730836
46	0x3cce06bb	0.025149694
47	0xbd21c87d	-0.03949784
48	0x3c249fe9	0.010047891
49	0xbdf103a7	-0.11768275
50	0xbd7c5b60	-0.06161058
51	0x3d81d152	0.06338753
52	0xbe73203c	-0.23742765
53	0xbdad76d4	-0.0846993
54	0x3cee1c52	0.029066239
55	0xbd413fe9	-0.04718009
56	0x3d65d8d9	0.056115005
57	0xbd80d7e2	-0.062911764
58	0x3e2f38d0	0.17111516
59	0xbe778120	-0.24170351
60	0xbe1ea55c	-0.15492767
61	0x3dbe7ae6	0.09300785
62	0xbceb0330	-0.028688043
63	0xbd06f478	-0.032947987

actor.preprocess.model.model.2.weight f4 [64, 64]
0	0x3f21602c	0.6303737
1	0xbdef4845	-0.11683706
2	0x3e278fa4	0.16363388
3	0x3c0d02ed	0.008606655
4	0xbdebcf5b	-0.11514159
5	0xbd2905e1	-0.041265372
6	0x3e6b87e3	0.23001055
7	0x3e83a766	0.25713652
8	0x3c6be05b	0.014396752
9	0x3e5598d8	0.20859087
10	0x3e340316	0.17579302
11	0xbefcfcbc	-0.4941157
12	0xbd8d6513	-0.06904044
13	0xbeaa3058	-0.33240008
14	0x3e1543bc	0.1457662
15	0xbd96699c	-0.07344362
16	0x3e8a8713	0.27056178
17	0x3d1a13d2	0.03761656
18	0x3e2fec45	0.17179973
19	0xbebdfe4a	-0.3710807
20	0x3e651e67	0.22374879
21	0x3ecdb5d5	0.4017779
22	0xbdf158d1	-0.117845185
23	0xbe92962a	-0.2863019
24	0x3c9731b5	0.01845632
25	0xbd93fb1b	-0.07225629
26	0x3dd32087	0.103089385
27	0xbd725bba	-0.05916951
28	0xbf259e9c	-0.64695144
29	0x3ecf8354	0.40529883
30	0xbe87b1b0	-0.26502752
31	0x3c045dd6	0.008079013
32	0x3e803abb	0.25044808
33	0xbd537a1d	-0.05163013
34	0xbe936db0	-0.28794622
35	0x3e5ab3ee	0.213577
36	0xbea48815	-0.32135072
37	0xbe9358b6	-0.2877862
38	0x3ced667e	0.028979536
39	0xbe87a95a	-0.26496392
40	0x3e11f28e	0.14252684
41	0xbe0f8389	-0.1401502
42	0xbece48cf	-0.40289924
43	0xbf10cb7a	-0.5656048
44	0xbd18503e	-0.0371859
45	0x3ec2586c	0.37958086
46	0x3eb6ea7c	0.35725772
47	0x3d72775e	0.05919587
48	0x3f18ad35	0.5963929
49	0xbe9d0cf6	-0.3067395
50	0xbe4613c4	-0.19343477
51	0xbe8ca20f	-0.2746739
52	0x3db8de26	0.090267465
53	0xbe205f8f	-0.15661453
54	0xbe3627f6	-0.17788681
55	0x3e3be191	0.18347766
56	0x3e991c75	0.29904523
57	0xbce06c76	-0.027395468
58	0x3da24dd1	0.079249986
59	0xbcb58eb9	-0.022162782
60	0xbe9e6be2	-0.30941683
61	0xbeb77b45	-0.35836235
62	0xbe46243a	-0.19349757
63	0x3de1fd9f	0.110347025
64	0x3e067866	0.13131866
65	0xbe747c8e	-0.23875639
66	0x3f0740ae	0.5283307
67	0x3ed698dd	0.419135
68	0x3e2103db	0.15724127
69	0x3e951ab9	0.2912195
70	0xbea65c89	-0.32492474
71	0x3e549e0b	0.20763414
72	0xbcf8b073	-0.030357575
73	0xbce6eb75	-0.028188447
74	0xbc6ea496	-0.0145656075
75	0x3c6b5b2a	0.014364997
76	0xbe91a67f	-0.2844734
77	0x3ea823c3	0.32839784
78	0xbde4bed3	-0.11169209
79	0xbe17a76a	-0.14809957
80	0x3f9035c2	1.1266406
81	0x3d658723	0.05603708
82	0xbdfd08a0	-0.12355161
83	0xbeebc953	-0.46052036
84	0xbe48757c	-0.19576067
85	0x3e6d8da2	0.2319856
86	0x3cc8fedb	0.024535587
87	0x3f1ff89d	0.6248873
88	0x3eb10097	0.34570763
89	0xbee6cbcd	-0.45077363
90	0xbfa27685	-1.2692419
91	0x3e8b33d4	0.2718798
92	0x3e4771b0	0.19476962
93	0xbf3ae439	-0.7300449
94	0xbe2825d8	-0.16420686
95	0x3d797670	0.060903966
96	0x3f6d7bde	0.9276713
97	0xbe0e570c	-0.13900393
98	0x3dbe8bd0	0.09304011
99	0x3e531839	0.20614709
100	0xbe62e66a	-0.22158208
101	0x3e49990a	0.19687286
102	0xbe83ff1d	-0.25780573
103	0xbece22e7	-0.40261003
104	0xbda8f67a	-0.08250137
105	0xbe90c81d	-0.28277674
106	0xbeb57eff	-0.35448453
107	0xbc90aa86	-0.017659437
108	0x3e8b0d9d	0.27158824
109	0x3ae25dad	0.0017270349
110	0x3e12ca1c	0.14334911
111	0xbe12161c	-0.14266247
112	0x3e8e7482	0.27823263
113	0x3e9a95e8	0.30192494
114	0xbf08b7fe	-0.5340575
115	0xbe9fac40	-0.31186104
116	0x3e2b3cd5	0.16722424
117	0x3ed44191	0.41456273
118	0xbe64978c	-0.22323436
119	0x3bbdd798	0.005793523
120	0x3e2279ff	0.1586685
121	0xbedf811a	-0.43653184
122	0xbe83dfc1	-0.25756648
123	0x3f0bc63e	0.5459937
124	0x3ed79253	0.42103824
125	0xbf27de89	-0.65573937
126	0xbd9aa31b	-0.07550641
127	0x3e0066a0	0.12539148
128	0x3dc8af4b	0.097990595
129	0xbe435af0	-0.19077659
130	0x3dc10966	0.09425621
131	0x3e31a73c	0.17348951
132	0xbdcb5f2f	-0.09930264
133	0x3e91bc76	0.28464097
134	0x3d87f7f2	0.06639089
135	0x3eec5749	0.46160343
136	0x3eb329ee	0.34992927
137	0x3d8e79ef	0.06956851
138	0x3e9f87bc	0.31158245
139	0xbd30aa50	-0.043131173
140	0x3ec9adc8	0.39390397
141	0xbe4be842	-0.19912818
142	0xbe968eaa	-0.2940572
143	0x3d94f9b7	0.07274192
144	0x3eb7f3e5	0.35928264
145	0xbe3ac340	-0.18238544
146	0xbe4e01a9	-0.20117821
147	0xbe0355e5	-0.12825735
148	0x3f0eae0e	0.55734336
149	0x3d0506e9	0.032477293
150	0xbe84c85c	-0.25934112
151	0xbde086d3	-0.10963216
152	0x3c6a8c06	0.014315611
153	0x3cbf662e	0.023364153
154	0xbe4bd9bd	-0.1990728
155	0x3ea63e57	0.32469437
156	0x3d68dcd1	0.056851212
157	0xbe1bd727	-0.15218793
158	0x3e85f933	0.26166686
159	0xbe8bddeb	-0.27317747
160	0xbe71a011	-0.23596217
161	0xbd0a4999	-0.033761594
162	0x3e360d7c	0.17778581
163	0xbea2dccb	-0.31809077
164	0x3cf877fb	0.030330649
165	0xbdabd438	-0.08390087
166	0xbe074127	-0.13208447
167	0xbe85bf1b	-0.26122364
168	0xbc9666f0	-0.018359631
169	0x3db9fa8f	0.090809934
170	0xbe76b088	-0.24090779
171	0xbedfbbd4	-0.4369799
172	0xbd71d912	-0.059044905
173	0x3ed370a3	0.41296872
174	0x3d70c0e3	0.0587777
175	0x3dd522dd	0.1040704
176	0x3eb3c208	0.35108972
177	0xbd104408	-0.03522113
178	0xbe48e9b6	-0.19620404
179	0x3c2c43c3	0.0105142025
180	0xbb9d6985	-0.0048038387
181	0xbedf1c6f	-0.4357638
182	0x3ed4189b	0.41425022
183	0x3e32fc04	0.17478949
184	0xbe13ba71	-0.1442659
185	0xbe4f5db5	-0.2025059
186	0x3c85259f	0.01625329
187	0xbe4f4574	-0.20241338
188	0xbd971d0b	-0.073785864
189	0x3d2d359f	0.042287465
190	0x3ea8eee6	0.32994765
191	0x3e918d0a	0.28427917
192	0xbdd287dc	-0.10279819
193	0x3e82edc2	0.2557202
194	0x3dfeeda5	0.12447671
195	0xbe9c04a3	-0.30472288
196	0xbe8b546b	-0.27212843
197	0xbe1384f3	-0.14406185
198	0xbe75408a	-0.23950401
199	0xbf04e24c	-0.519078
200	0xbe2efd5d	-0.17088838
201	0x3e132558	0.14369714
202	0xbec6c394	-0.3882109
203	0x3e095b63	0.13413768
204	0xbf14d804	-0.58142114
205	0x3f841d37	1.0321416
206	0xbefdc846	-0.4956686
207	0xbd63298b	-0.05545954
208	0xbe4fd7f0	-0.20297217
209	0xbcd0dda4	-0.025496311
210	0x3df7b38c	0.12094793
211	0xbc859ed9	-0.016311096
212	0xbef10b87	-0.47079107
213	0x3e3d2be1	0.1847377
214	0x3dbf7ed4	0.093503624
215	0x3e4bb9d5	0.19895108
216	0xbcd21987	-0.025646938
217	0xbf16f5c8	-0.5896878
218	0x3e82041a	0.25393754
219	0xbc8c052a	-0.017092306
220	0x3cd0b33e	0.025476094
221	0x3d0333e4	0.03203191
222	0x3ed13776	0.40862626
223	0x3ecf29fe	0.40461725
224	0x3f100070	0.5625067
225	0x3d8f97c0	0.07011366
226	0x3eeb67a7	0.45977518
227	0x3e98a00a	0.298096
228	0x3de67b9a	0.11254044
229	0x3e0ec733	0.13943176
230	0x3f41c213	0.7568676
231	0x3d98e2b5	0.07465116
232	0xbe203b40	-0.15647602
233	0xbda71b26	-0.08159475
234	0xbe83dc83	-0.25754175
235	0x3dfff243	0.1249738
236	0x3f251c4f	0.6449632
237	0xbf444eb1	-0.76682574
238	0xbe81630a	-0.25270873
239	0xbd019a91	-0.031641547
240	0xbcb58ec8	-0.02216281
241	0x3f28917b	0.65846986
242	0x3e2b539a	0.1673111
243	0x3ea18e28	0.3155377
244	0xbe630a02	-0.22171786
245	0x3f4dfd23	0.8046438
246	0xbf74e9eb	-0.9566943
247	0x3ece5b13	0.4030386
248	0xbedb7d26	-0.42868918
249	0xbec5d78f	-0.3864102
250	0xbf14f967	-0.5819306
251	0x3f3d608c	0.73975444
252	0x3eef65b3	0.46757278
253	0x3ea71a11	0.32637075
254	0x3e7a1918	0.24423635
255	0xbeddefb3	-0.43346938

actor.preprocess.model.model.2.bias f4 [64]
0	0x3c2e3a08	0.010633953
1	0xbeac3202	-0.33631903
2	0xbde1847d	-0.11011598
3	0xbe021c06	-0.12706003
4	0x3ce30f99	0.027717398
5	0x3db2735e	0.08713411
6	0x3b320a4f	0.002716679
7	0xbeb7625d	-0.35817233
8	0x3de6123b	0.11233946
9	0x3a850e5f	0.0010151378
10	0x3de9df49	0.114195414
11	0xbd923a00	-0.07139969
12	0x3db4b6d2	0.08823933
13	0x3d3f22ec	0.046664163
14	0xbd0c0698	-0.034185976
15	0x3d378ccd	0.044812012
16	0x3d46f04a	0.048569
17	0xbcc5d4f7	-0.024149401
18	0xbc22a0f2	-0.009926068
19	0x3e461702	0.19344714
20	0xbdaf028a	-0.08545406
21	0xbbbb9025	-0.0057239705
22	0xbddbec48	-0.107384264
23	0x3e2fdd15	0.1717418
24	0x3e1590e7	0.14606057
25	0xbe28d8ee	-0.16489002
26	0xbc577406	-0.013150221
27	0x3dd7460f	0.105114095
28	0x3d5ef7a8	0.054435402
29	0x3d5c1548	0.053731233
30	0xbe20199b	-0.15634768
31	0xbdbff8d2	-0.093736306
32	0x3be7407f	0.007057249
33	0xbde7bbc2	-0.11315109
34	0xbd2abff2	-0.04168696
35	0xbc24ff21	-0.010070593
36	0x3d1682f2	0.036745973
37	0xbdb78487	-0.089608245
38	0xbdd1250f	-0.102121465
39	0xbd5f3a53	-0.05449898
40	0x3cb11e67	0.021620942
41	0xbd2520ca	-0.040314473
42	0x3d7c07bc	0.061530814
43	0xbb43d7ed	-0.002988334
44	0x3ec6a9a6	0.38801306
45	0x3e6987ea	0.22805753
46	0xbe0ffd92	-0.14061573
47	0xbda361fa	-0.07977672
48	0xbdab5313	-0.083654545
49	0xbcd178ff	-0.02557039
50	0x3db27d5b	0.08715316
51	0xbd44543a	-0.047931887
52	0xbc1d7e79	-0.009612673
53	0x3cdf3afa	0.027249802
54	0xbcdbd574	-0.02683518
55	0x3d876579	0.06611151
56	0x3e258403	0.1616364
57	0xbd05c127	-0.032654908
58	0x3c444e6c	0.011981588
59	0x3d1597f4	0.036521867
60	0x3d26f7f8	0.040763825
61	0x3d0079e9	0.031366263
62	0xbde48161	-0.111574896
63	0x3e12992e	0.14316246

actor.mu.model.0.weight f4 [2, 64]
0	0xbe17b0a8	-0.14813483
1	0xbdb24941	-0.08705378
2	0xbca357b1	-0.019939275
3	0x3dd8a177	0.10577672
4	0x3b41106c	0.002945925
5	0xbba844f4	-0.005135173
6	0x3e14d240	0.14533329
7	0xbe373cbd	-0.17894264
8	0xbdeb66fb	-0.11494251
9	0x3c309e68	0.0107799545
10	0xbd36242f	-0.0444681
11	0x3b8c8fd5	0.004289607
12	0xbde32389	-0.11090762
13	0x3d920f1e	0.071317896
14	0x3de8b4c8	0.11362606
15	0xbd3c9cac	-0.04604785
16	0x3b322507	0.0027182715
17	0x3d58d1f5	0.052934606
18	0x3c11605d	0.008873072
19	0x3ded75cf	0.11594736
20	0x3d018ced	0.031628538
21	0x3e378524	0.17921883
22	0x3ba6bfde	0.0050887903
23	0xbdf9f414	-0.12204757
24	0xbc27e7f1	-0.01024817
25	0xbcabca21	-0.020970406
26	0x3e549501	0.20759965
27	0x3c530555	0.012879689
28	0xbcdf29f5	-0.027241686
29	0x3b7dc7c3	0.0038723804
30	0xbbe5a664	-0.0070083607
31	0xbcf7bc33	-0.030241108
32	0xb91782c4	-0.00014449196
33	0xbdfcc0cd	-0.12341461
34	0x3da13f05	0.07873348
35	0x3de13a05	0.109973945
36	0x3da1448a	0.07874401
37	0xbb67b65d	-0.00353565
38	0x3b43da83	0.0029884882
39	0x3b5cdbd4	0.0033700364
40	0x3e160f20	0.14654207
41	0x3bfca72c	0.007710358
42	0xbb9fd595	-0.004877756
43	0xbb945816	-0.004527102
44	0x3e0f7fba	0.14013568
45	0xbdfa6419	-0.12226123
46	0x3dba217a	0.090884164
47	0x3d86e0b5	0.06585828
48	0xbcade6d0	-0.021228224
49	0xbcb67950	-0.022274643
50	0x3d769e3c	0.060209498
51	0x3bfac173	0.0076524555
52	0x3c50889c	0.012727883
53	0xbc8a6cf7	-0.016897662
54	0x3b15e637	0.0022872814
55	0x3c6b000e	0.014343275
56	0xbdc65c7f	-0.09685611
57	0xb9060a96	-0.0001278318
58	0x3c67f0dc	0.014156546
59	0x3acdc8c3	0.001570009
60	0x3c140910	0.009035364
61	0xbe14a345	-0.14515407
62	0x3cef34ff	0.029200075
63	0xbd8d6f20	-0.06905961
64	0xbc3ada32	-0.011404561
65	0x3e861b14	0.26192534
66	0xbdf58c09	-0.119896
67	0xbeb27954	-0.3485819
68	0xbc0112e8	-0.007878043
69	0xbe25beea	-0.16186109
70	0x3cf898ea	0.030346353
71	0x3de80c18	0.11330432
72	0x3edb271f	0.42803285
73	0x3ad0d59b	0.00159328
74	0x3ba03037	0.00488856
75	0xbd32473b	-0.043524962
76	0x3c72a838	0.014810614
77	0x3d487e26	0.04894843
78	0xbc51131f	-0.0127609065
79	0xbd876454	-0.06610933
80	0xbc03a3e2	-0.008034678
81	0x3d09a5db	0.033605438
82	0x3ef577f6	0.47943085
83	0x3ccb19fb	0.024792662
84	0xbea1d674	-0.31608927
85	0xbdf1e28d	-0.11810789
86	0xbc06d359	-0.0082291
87	0xbc053006	-0.008129125
88	0xbd331ab2	-0.04372663
89	0xbe8c0912	-0.2735067
90	0x3d8acd31	0.067774184
91	0x3d26c410	0.040714324
92	0x3ceee82a	0.029163439
93	0x3b9e88ba	0.0048380764
94	0xbe92abf5	-0.28646818
95	0x3b0c4af7	0.0021406987
96	0xbd2ae749	-0.041724477
97	0xbcecb47b	-0.028894654
98	0x3c8e5a50	0.017377049
99	0x3c0b38c1	0.008497418
100	0x3d524867	0.05133858
101	0xbdb761b4	-0.08954182
102	0xbb85db55	-0.0040849843
103	0x3a8a42c7	0.0010548466
104	0xbe3e1bb8	-0.18565261
105	0x3cb4e958	0.022083923
106	0x3aad0b05	0.0013202137
107	0xbb42ff8a	-0.0029754364
108	0xbe652e9f	-0.22381066
109	0x3e2de7d1	0.16982962
110	0xbe9c062c	-0.3047346
111	0xbcf4beb8	-0.029876098
112	0xbdc4ff3b	-0.09618994
113	0xbb0abf82	-0.0021171276
114	0x3df33e5f	0.11877131
115	0x3a9c223c	0.0011912058
116	0x3ab4c7d5	0.0013792465
117	0x3d1972f3	0.03746314
118	0xbc0d2c4f	-0.008616521
119	0xbd9f8dca	-0.07790716
120	0xbb8b1a0c	-0.0042450484
121	0xbe013918	-0.12619436
122	0x3e18fce9	0.14940228
123	0x3c881ae7	0.01661439
124	0x3c0f4b94	0.008746047
125	0xbb434d90	-0.002980087
126	0x3ba0e068	0.004909564
127	0xbe325986	-0.17416963

actor.mu.model.0.bias f4 [2]
0	0x3cde2dd8	0.02712147
1	0xbda35f62	-0.07977177

critic.preprocess.model.model.0.weight f4 [64, 8]
0	0xbea78a68	-0.32722783
1	0xbe091412	-0.13386562
2	0xbed36a91	-0.4129224
3	0x3e9960a7	0.29956552
4	0xbe286006	-0.1644288
5	0xbe4f6f92	-0.20257404
6	0xbe08417a	-0.13306227
7	0xbdbb2454	-0.091377884
8	0xbe7ce7c9	-0.24697794
9	0x3f069f87	0.5258717
10	0x3c859d4f	0.016310362
11	0xbdba6053	-0.09100404
12	0xbedfd892	-0.43719918
13	0xbe8cb28e	-0.27479976
14	0xbe3269f2	-0.17423227
15	0xbe0a7c5a	-0.13523999
16	0x3e6958db	0.22787802
17	0xbc2f003d	-0.010681209
18	0x3ed724b1	0.4202018
19	0x3c61efbf	0.01379007
20	0xbdc9f09a	-0.09860344
21	0xbe1f6f24	-0.1556974
22	0xbd6a1d08	-0.057156593
23	0xbec4eb8c	-0.38460958
24	0x3e87e61a	0.2654274
25	0x3cc9a205	0.02461339
26	0xbe9b8103	-0.30371866
27	0xbee0cbb9	-0.43905428
28	0x3ee0f93c	0.4394015
29	0x3e6c1967	0.23056565
30	0xbe93021d	-0.2871255
31	0xbdf29f21	-0.11846758
32	0xbdfadf62	-0.12249638
33	0x3d962da1	0.07332922
34	0x3ee0dbf6	0.43917817
35	0xbe65293d	-0.22379012
36	0xbeb0a471	-0.3450046
37	0xbea7acf1	-0.3274913
38	0x3e8275de	0.2548055
39	0x3c1e778a	0.009672055
40	0xbc336a63	-0.010950658
41	0x3e3de700	0.18545151
42	0x3d41577e	0.04720258
43	0x3eb2f7b4	0.34954607
44	0xbe99f8d2	-0.30072647
45	0x3de7d6a4	0.11320236
46	0x3d9faf50	0.0779711
47	0xbe87138d	-0.26382104
48	0x3f07da22	0.5306722
49	0x3df38502	0.118906036
50	0x3d1574d0	0.036488354
51	0xbd4e3005	-0.050338764
52	0x3f143265	0.57889396
53	0x3e7f84ed	0.24953051
54	0x3ecce498	0.40018153
55	0xbcd35e10	-0.025801688
56	0xbec328a6	-0.3811695
57	0x3e451128	0.19244826
58	0x3e88ec22	0.26742655
59	0x3e570f04	0.21001822
60	0xbc20ad28	-0.009806909
61	0x3ecdb5ff	0.40177915
62	0x3e28cb6d	0.16483851
63	0x3d9580aa	0.07299931
64	0xbdce3049	-0.100678034
65	0xbd5ad972	-0.05343003
66	0xbe15a0d9	-0.1461214
67	0xbe67fd85	-0.22655304
68	0xbf76c507	-0.9639439
69	0xbe4805c0	-0.19533443
70	0x3e8657c0	0.26238823
71	0xbe6dee0d	-0.2323534
72	0xbea1e105	-0.3161699
73	0xbf12cd61	-0.57344633
74	0xbe36909e	-0.17828605
75	0x3db793d5	0.089637436
76	0x3e8f289e	0.27960676
77	0x3e767676	0.24068627
78	0xbd02a309	-0.031893764
79	0x3e6d6180	0.23181725
80	0x3e8e1e1c	0.27757347
81	0xbdb7e0d1	-0.08978427
82	0x3ea08894	0.313542
83	0x3f0e4df6	0.5558771
84	0x3d04e121	0.032441262
85	0x3cc824a0	0.024431527
86	0x3e095b74	0.13413793
87	0x3e9dd083	0.30823144
88	0xbe12bc6e	-0.14329693
89	0xbeaf5694	-0.3424574
90	0xbe9eaf9e	-0.3099336
91	0x3ba826de	0.0051315865
92	0x3cb32814	0.021869697
93	0xbd839b27	-0.06426077
94	0xbd7df610	-0.06200224
95	0xbd9bc09e	-0.07605098
96	0xbb2527d2	-0.0025200737
97	0xbe26a1bd	-0.16272636
98	0xbe91a9e0	-0.28449917
99	0x3f099cf3	0.5375511
100	0xbf04918e	-0.517846
101	0x3f016be1	0.50555235
102	0x3cd2f78f	0.02575281
103	0xbf42d680	-0.7610855
104	0xbef4584b	-0.47723612
105	0x3ed333a3	0.41250333
106	0x3dfc7e22	0.123287454
107	0x3cb75b95	0.022382537
108	0x3e5a2658	0.2130369
109	0x3dd5640c	0.10419473
110	0xb92ab37b	-0.00016279325
111	0x3d057def	0.032590803
112	0x3ee27123	0.4422694
113	0xbf123f34	-0.5712769
114	0x3e159335	0.14606936
115	0x3e8a2dae	0.26987976
116	0x3e30d6c0	0.1726942
117	0x3e287d63	0.16454081
118	0xbdde5309	-0.108556814
119	0x3e86b22a	0.26307803
120	0x3cadb491	0.021204265
121	0xbe3b09dd	-0.18265481
122	0xbf07ebcb	-0.53094167
123	0x3d4fd6e5	0.05074205
124	0xbe4c551c	-0.19954342
125	0xbe82b4a9	-0.25528458
126	0xbcc508d1	-0.024052056
127	0xbda1c1d6	-0.078982994
128	0xbec3c318	-0.38234782
129	0x3f000da7	0.5002083
130	0xbed6628a	-0.41872054
131	0xbececb7c	-0.4038962
132	0x3ef595e2	0.47965914
133	0x3f0fb3f8	0.56133986
134	0xbc7aae6c	-0.0153003745
135	0xbee092a6	-0.43861884
136	0xbe93004d	-0.28711167
137	0x3f3bd68d	0.73374254
138	0x3e8abef9	0.27098826
139	0x3da7afbb	0.08187815
140	0xbe92dbd6	-0.28683347
141	0x3e0c196b	0.13681571
142	0xbec35d59	-0.38157156
143	0x3dab88a2	0.0837567
144	0xbe370184	-0.17871672
145	0x3ccb54cd	0.02482071
146	0x3f03c77d	0.5147627
147	0x3e1877a2	0.14889386
148	0xbe1c0a3e	-0.15238282
149	0xbc94807d	-0.018127674
150	0xbc031779	-0.008001202
151	0x3e040bf2	0.12895182
152	0xbf66611b	-0.8999192
153	0xbec70516	-0.38871068
154	0xbeea048c	-0.45706594
155	0x3e8ac30f	0.27101943
156	0xbd6119b0	-0.054956138
157	0x3e5c8c08	0.21537793
158	0xbd1ac015	-0.03778084
159	0xbd4d14ba	-0.050068595
160	0x3e8a78b6	0.2704522
161	0xbe6ea8a6	-0.23306522
162	0xbed8740e	-0.42276043
163	0xbd885f16	-0.06658761
164	0xbc7f4f76	-0.01558291
165	0xbe610dc0	-0.21977901
166	0xbd134961	-0.03595865
167	0xbeb677c2	-0.35638243
168	0x3e843a8e	0.25825924
169	0xbed59b5a	-0.41720086
170	0x3efea5ff	0.4973602
171	0xbe89b4c7	-0.26895735
172	0xbe23425d	-0.15943284
173	0x3d9b00a0	0.075684786
174	0x3d9fe238	0.0780682
175	0x3dced15b	0.10098525
176	0xbe443773	-0.19161777
177	0x3e055cdf	0.13023709
178	0xbdf4bde8	-0.11950284
179	0x3e255854	0.16146976
180	0x3b9db943	0.0048133447
181	0xbf4b128d	-0.7932518
182	0x3f1ff90c	0.6248939
183	0x3d5e41da	0.05426202
184	0xbeb63b84	-0.35592282
185	0x3d864044	0.065552264
186	0x3ecff2c3	0.406149
187	0xbece4b36	-0.40291756
188	0xbea0652e	-0.31327194
189	0x3da487a4	0.08033684
190	0xbe401e94	-0.18761665
191	0x3e0391e9	0.12848629
192	0xbcd01280	-0.025399446
193	0x3ef2d932	0.47431332
194	0xbe4da3e8	-0.20082057
195	0xbe61031e	-0.21973845
196	0x3eb8a1c9	0.36060932
197	0xbd28b515	-0.04118832
198	0xbe8bd9b6	-0.27314538
199	0x3e59cac7	0.2126876
200	0xbd725b8c	-0.059169337
201	0x3e576be6	0.21037254
202	0x3f298d81	0.6623154
203	0x3e26d131	0.16290738
204	0xbc1733b8	-0.009228639
205	0x3d1e0da1	0.038587216
206	0x3e124414	0.14283782
207	0x3debe913	0.11519065
208	0x3e976516	0.2956931
209	0xbc7c0791	-0.015382663
210	0xbe3d4b3c	-0.18485731
211	0xbd704fa6	-0.05866971
212	0xbe809258	-0.2511165
213	0x3e264386	0.16236696
214	0xbdc2637b	-0.09491631
215	0x3c55de67	0.013053513
216	0x3dc5611e	0.09637664
217	0xbeb1536b	-0.34633955
218	0x3e79fdee	0.24413273
219	0x3f1c8598	0.6114135
220	0xbe4b2cea	-0.19841352
221	0x3e9e2a15	0.3089148
222	0xbedc1d38	-0.42991042
223	0xbdbbfb3e	-0.0917878
224	0x3e1c1366	0.15241775
225	0xbe84035e	-0.2578382
226	0x3ef9252a	0.48661166
227	0xbba18539	-0.0049292115
228	0xbd03d6e2	-0.03218735
229	0xbd129de4	-0.035795107
230	0x3d9ea2db	0.07745906
231	0x3e45a82a	0.19302431
232	0x3e6ae93a	0.22940531
233	0x3f368db4	0.7130997
234	0x3e044b29	0.12919296
235	0x3e69987d	0.22812076
236	0x3e038f8e	0.1284773
237	0xbe949639	-0.2902086
238	0xbe1e2863	-0.15445094
239	0x3e988696	0.2979018
240	0x3e3c4008	0.18383801
241	0xbdb7ad64	-0.089686185
242	0x3f29cd39	0.6632877
243	0xbda3f97c	-0.0800657
244	0x3ed86541	0.4226475
245	0xbdf52852	-0.11970581
246	0x3caa8af1	0.020818206
247	0x3f0d6ff9	0.5524898
248	0x3f22a220	0.63528633
249	0xbded13fa	-0.11576076
250	0x3e5a8f18	0.21343648
251	0x3cdd0322	0.026979033
252	0x39fb0b36	0.00047882803
253	0xbca6a1b9	-0.020340787
254	0xbcd0823d	-0.025452727
255	0x3d6cf9bc	0.057855353

critic.preprocess.model.model.0.bias f4 [64]
0	0xbef02e25	-0.46910205
1	0x3f059ae5	0.52189475
2	0x3ee9f5a1	0.45695212
3	0xbe59960e	-0.21248648
4	0xbe0b5d6a	-0.13609853
5	0x3e630cbe	0.2217283
6	0xbe7ad3d8	-0.24494874
7	0xbe60567a	-0.21907988
8	0xbe192935	-0.14957125
9	0x3e7d4009	0.24731459
10	0x3e1a6b2c	0.15079945
11	0xbf069416	-0.5256971
12	0xbe7989c3	-0.24368958
13	0xbede086e	-0.43365806
14	0x3e9bf14b	0.3045753
15	0xbf4738bf	-0.7782096
16	0xbe39595d	-0.18100496
17	0xbeb69f04	-0.35668194
18	0x3eb48c14	0.3526312
19	0xbeb7a43a	-0.35867482
20	0xbdf315fa	-0.11869426
21	0xbe197cd5	-0.14989026
22	0xbdc697f3	-0.09696951
23	0xbd031c9b	-0.032009702
24	0xbde5f67f	-0.11228656
25	0x3e8680b9	0.26270083
26	0xbe1b3f76	-0.15160927
27	0x3df38d9b	0.118922435
28	0x3f2de02e	0.67920196
29	0xbebfc0c1	-0.37451747
30	0xbcb65bfc	-0.022260658
31	0xbf32ee97	-0.6989531
32	0x3e12fc67	0.14354096
33	0xbe448af0	-0.19193625
34	0x3d4220ac	0.04739444
35	0xbe13dd68	-0.14439929
36	0xbd8b19ec	-0.067920536
37	0xbdf89054	-0.121369034
38	0x3ea5eaf1	0.3240581
39	0xbd36b440	-0.044605494
40	0xbe338f74	-0.17535192
41	0x3d6958fe	0.056969635
42	0xbe2cd876	-0.16879448
43	0x3f243b51	0.6415301
44	0x3f1f2fa8	0.6218209
45	0x3df67d46	0.12035613
46	0x3e358ce3	0.17729525
47	0x3e2f5f09	0.17126097
48	0x3db40095	0.087891735
49	0xbd624c58	-0.05524859
50	0xbe3edeed	-0.18639727
51	0x3e200026	0.15625057
52	0xbe197e3b	-0.1498956
53	0x3f0b6093	0.54444236
54	0xbf3199a1	-0.69375044
55	0x3e9fb5c8	0.31193376
56	0xbe029cad	-0.1275508
57	0x3f1508a5	0.58216316
58	0xbe33c3ec	-0.17555207
59	0xbe446c0e	-0.19181845
60	0x3d63ae7e	0.05558633
61	0x3e820b5d	0.25399294
62	0xbe1c38d8	-0.15256059
63	0x3ec850aa	0.39124042

critic.preprocess.model.model.2.weight f4 [64, 64]
0	0x3dec8e71	0.11550606
1	0x3d8d9047	0.06912284
2	0xbe02d6b2	-0.12777212
3	0xbd91413b	-0.0709252
4	0xbef3e44f	-0.47635123
5	0xbe096718	-0.13418233
6	0x3daead83	0.085291885
7	0xbf1cb968	-0.6122041
8	0xbf00cf8d	-0.503167
9	0xbe3b8099	-0.18310775
10	0x3dbd3f7b	0.092406236
11	0x3d996e16	0.074917
12	0x3e680f40	0.22662067
13	0xbf26479e	-0.6495303
14	0x3ec189ff	0.37800595
15	0xbe655f61	-0.22399665
16	0x3ec7e6e7	0.39043352
17	0xbe6e0a80	-0.23246193
18	0x3c24219f	0.0100177815
19	0xbec68d83	-0.3877984
20	0x3f0b5aab	0.54435223
21	0xbe2b8481	-0.16749765
22	0x3dc4338d	0.09580145
23	0x3c8e6d08	0.017385975
24	0xbcfe9989	-0.03107907
25	0xbe4d2335	-0.20032962
26	0xbd9b16a6	-0.07572679
27	0x3df76f62	0.120817915
28	0x3eb42819	0.35186842
29	0xbefb874a	-0.49126655
30	0xbc75e2ad	-0.015007657
31	0xbe051f27	-0.13000165
32	0x3f12c416	0.57330453
33	0x3e8c04e3	0.27347478
34	0x3f05dc50	0.52289295
35	0xbe7f7445	-0.24946697
36	0xbdd41cd1	-0.10357059
37	0xbd39f9df	-0.04540431
38	0x3ecd9a2b	0.40156683
39	0x3ab65134	0.0013909698
40	0xbe7c6b60	-0.24650335
41	0x3ec1af6b	0.37829146
42	0xbea6fe40	-0.32615852
43	0x3f1f910a	0.6233069
44	0xbb7dd6c5	-0.003873275
45	0x3d2e525b	0.04255901
46	0xbe073382	-0.13203242
47	0x3cce27a2	0.025165383
48	0x3d8e9c1d	0.0696337
49	0xbd1e3c51	-0.03863174
50	0x3e730279	0.23731412
51	0xbe3a415f	-0.18189
52	0x3cf59462	0.029977981
53	0x3ebdb4e7	0.3705208
54	0xbd4d2197	-0.050080862
55	0x3eec2315	0.46120515
56	0xbe505fa0	-0.20348978
57	0x3f847dbe	1.0350873
58	0x3c6f7c6e	0.014617069
59	0x3dff17aa	0.124556854
60	0x3e15bd58	0.1462301
61	0x3f4550d5	0.77076465
62	0x3f0cb501	0.5496369
63	0x3dccebd8	0.10005921
64	0xbdb1c12c	-0.08679423
65	0xbd6bea76	-0.057596646
66	0xbda4d78d	-0.080489255
67	0xbf3401a5	-0.7031501
68	0x3de26589	0.110545225
69	0x3f0bd19e	0.54616725
70	0x3d64f204	0.055894867
71	0xbdb15f5c	-0.086607665
72	0x3e78c4ff	0.24293898
73	0x3e820a10	0.25398302
74	0xbc9c1d7a	-0.019057024
75	0xbef20b0b	-0.4727405
76	0x3f0f4c37	0.5597567
77	0xbd78f9bc	-0.06078504
78	0x3d342b6a	0.043986715
79	0xbf0871d9	-0.5329872
80	0xbef40bfb	-0.4766539
81	0xbe7d6eea	-0.24749342
82	0x3ec1e0a3	0.37866697
83	0xbdfc3116	-0.1231405
84	0x3c01b160	0.007915825
85	0x3e44152e	0.19148704
86	0x3e889e4d	0.26683274
87	0xbe954faa	-0.2916234
88	0x3e1ce332	0.15321043
89	0xbd04112d	-0.032242943
90	0xbd866146	-0.06561522
91	0x3e7357d0	0.23763967
92	0xbcb162b8	-0.021653518
93	0x3bcbc0f3	0.0062180697
94	0xbeea616f	-0.4577746
95	0xbeaef1bd	-0.34168807
96	0xbcda9a11	-0.026684793
97	0xbe212de2	-0.15740159
98	0xbe99ef79	-0.30065516
99	0xbdd295e3	-0.10282495
100	0xbce86154	-0.028366722
101	0xbea786a9	-0.32719925
102	0x3e2a96bc	0.16659063
103	0x3e823f70	0.25439024
104	0x3f049393	0.5178768
105	0xbe85e6af	-0.2615256
106	0x3ef59822	0.4796763
107	0x3e02939f	0.12751625
108	0x3e9dbe90	0.3080945
109	0xbe05a674	-0.13051778
110	0x3edb4426	0.4282543
111	0x3cd08e47	0.025458468
112	0x3d23bf8c	0.039977595
113	0x3f034409	0.5127569
114	0x3e247eb1	0.16063954
115	0xbe12db36	-0.14341435
116	0x3e2999a6	0.16562518
117	0x3d188b2f	0.03724211
118	0xbeb38c9c	-0.35068214
119	0x3ec26364	0.37966454
120	0xbe242e0c	-0.1603319
121	0x3e35907b	0.17730896
122	0x3e098a74	0.13431722
123	0xbe1ef4b2	-0.15523031
124	0xbe0320ba	-0.12805453
125	0xbe623af2	-0.22092798
126	0xbf02a1f1	-0.5102835
127	0x3ced2e79	0.028952824
128	0xbdf4792d	-0.11937175
129	0x3d8c1853	0.06840577
130	0x3e3fdf3e	0.18737504
131	0x3dc9cda1	0.09853674
132	0xbe70f563	-0.23531108
133	0xbdd63f2e	-0.10461269
134	0xbd8c7a24	-0.06859234
135	0xbee3e03f	-0.44507024
136	0x3e83ca85	0.25740448
137	0xbeb7dc02	-0.3591004
138	0xbf07b3c3	-0.5300867
139	0xbec94f31	-0.3931823
140	0xbe4f172d	-0.20223685
141	0xbeec95cb	-0.46208033
142	0xbd9f9e08	-0.07793814
143	0x3e6cae17	0.23113285
144	0x3e3fa20e	0.18714163
145	0xbe8801b7	-0.26563808
146	0xbe903340	-0.281641
147	0xbe2e5d1f	-0.1702771
148	0x3d0267b3	0.031837177
149	0x3dee8b96	0.11647718
150	0x3e5f7eab	0.21825664
151	0x3ce292c7	0.02765788
152	0xbeb094c5	-0.34488502
153	0xbdee4b27	-0.11635428
154	0x3e5fac1b	0.21842997
155	0x3ee3761f	0.44426057
156	0x3e3156cf	0.17318271
157	0x3bb841c4	0.0056230742
158	0xbe81f646	-0.25383204
159	0xbd026e07	-0.03184321
160	0xbbeada52	-0.007167139
161	0x3f145cb2	0.5795394
162	0x3ed67494	0.41885817
163	0xbe8c28b7	-0.27374813
164	0x3ed63598	0.41837764
165	0xbe8728e8	-0.26398396
166	0x3d67c9ac	0.056588814
167	0xbe8be43e	-0.27322572
168	0xbd0055f5	-0.031331975
169	0x3dd549a1	0.10414434
170	0x3e2ad1e2	0.16681626
171	0x3f1ba182	0.60793316
172	0xbc14059f	-0.009034543
173	0xbe0162b7	-0.12635313
174	0xbb92e3aa	-0.004482706
175	0xbe458562	-0.19289163
176	0x3ed4a818	0.41534495
177	0x3e5f965e	0.21834704
178	0x3da3d66d	0.07999883
179	0xbea1e431	-0.3161941
180	0xbe48a20e	-0.19593069
181	0x3e90e6ab	0.28300986
182	0xbd2f6ecd	-0.042830277
183	0xbea2a9aa	-0.31770068
184	0xbd977083	-0.07394507
185	0x3e6d1b1d	0.23154874
186	0x3f02e1d3	0.5112583
187	0xbdcb587c	-0.099289864
188	0xbe7ba8af	-0.24576066
189	0x3def5b7e	0.116873726
190	0x3d28d525	0.041218895
191	0x3eaa1e79	0.33226374
192	0x3ec72f52	0.3890329
193	0x3e974944	0.29548085
194	0xbecf22ce	-0.4045624
195	0x3db7cdad	0.089747764
196	0xbde1555f	-0.11002611
197	0x3e89bd23	0.26902112
198	0x3e3260d4	0.1741975
199	0x3e5761a0	0.21033335
200	0x3e3fafdc	0.18719429
201	0x3d6220a0	0.055206895
202	0xbe6713c5	-0.22566135
203	0x3e99c16d	0.30030385
204	0xbdc8c474	-0.098030955
205	0x3e881adb	0.2658299
206	0xbe177547	-0.14790832
207	0x3e8fc88f	0.28082702
208	0x3e28105c	0.1641249
209	0xbde19b42	-0.11015941
210	0x3e20eb03	0.1571465
211	0x3e842707	0.25811026
212	0x3d5eee74	0.054426625
213	0xbe49c858	-0.19705331
214	0xbc34415f	-0.011001914
215	0xbe45c66b	-0.19313972
216	0xbe84277a	-0.25811368
217	0x3e5669b9	0.20938767
218	0x3dfad202	0.12247087
219	0xbe935bb8	-0.28780913
220	0xbe72c913	-0.23709516
221	0x3dee7e04	0.11645129
222	0xbe8b365f	-0.2718992
223	0xbd232431	-0.039829437
224	0xbdcfdce2	-0.10149552
225	0xbd33a0b4	-0.04385443
226	0xbe4b654e	-0.19862863
227	0xbd610fc6	-0.054946683
228	0xbddae146	-0.10687499
229	0x3e381c07	0.17979442
230	0xbccf6f4f	-0.02532163
231	0x3e58de68	0.21178591
232	0xbce1bb2b	-0.027555069
233	0x3dd73cc3	0.10509636
234	0xbe36b9df	-0.17844342
235	0x3ded39a7	0.11583262
236	0x3f085559	0.5325523
237	0xbee53322	-0.44765574
238	0x3e20a779	0.15688886
239	0xbea43d0f	-0.32077834
240	0xbe1818a5	-0.14853151
241	0xbebb8ae3	-0.366294
242	0x3e5d6dbd	0.21623893
243	0xbe5d9fa7	-0.21642934
244	0xbd8d076b	-0.068861805
245	0x3dda32dc	0.10654232
246	0x3e98437d	0.2973899
247	0x3ded253d	0.11579368
248	0xbe8524f6	-0.2600476
249	0xbf0199b2	-0.50625145
250	0xbdae8ff2	-0.08523549
251	0x3e27a08b	0.16369836
252	0x3c0f19bc	0.008734163
253	0x3e01d408	0.1267854
254	0xbcfaa2c8	-0.030595198
255	0x3e763ad0	0.24045873

critic.preprocess.model.model.2.bias f4 [64]
0	0x3eb1cd6d	0.3472704
1	0x3e3b5b76	0.18296608
2	0x3e180af4	0.14847928
3	0xbebea645	-0.3723623
4	0xbe29ba05	-0.16574867
5	0x3e4bb120	0.19891787
6	0xbeafb212	-0.34315544
7	0xbe166a3e	-0.14688966
8	0x3e3e4acc	0.1858322
9	0xbe16e77d	-0.14736743
10	0x3e4ea374	0.2017954
11	0x3e361991	0.1778319
12	0xbe1849e0	-0.14871931
13	0x3ea2ac3a	0.31772023
14	0xbdd9141a	-0.10599537
15	0xbdf056d9	-0.11735315
16	0x3e79874c	0.24368018
17	0xbea81b98	-0.32833552
18	0xbeaf0cdc	-0.34189498
19	0x3e32a34a	0.17445102
20	0x3cd41823	0.025890416
21	0xbe8ccff9	-0.2750242
22	0xbe245413	-0.16047697
23	0x3e2e1f2b	0.17004077
24	0xbd523930	-0.05132407
25	0x3e969a02	0.29414374
26	0xbd766476	-0.0601544
27	0x3e7d9cd9	0.24766864
28	0x3eb017c6	0.34393138
29	0xbea5c5b8	-0.3237741
30	0x3d9d62a5	0.076848306
31	0xbeab1d41	-0.33420756
32	0x3ea4b51c	0.32169425
33	0x3e6b1743	0.22958092
34	0xbe3689e6	-0.17826042
35	0xbe048707	-0.12942134
36	0xbd787531	-0.060658637
37	0xbe36d4d9	-0.17854632
38	0xbeca7b74	-0.39547312
39	0xbd66f8cb	-0.05638961
40	0xbd89ed8d	-0.06734762
41	0x3e666103	0.22497945
42	0xbe9d48ea	-0.30719692
43	0xbd89bf80	-0.06725979
44	0x3e965a86	0.2936594
45	0x3decbab8	0.11559051
46	0x3e391efc	0.18078226
47	0xbcf64e46	-0.03006662
48	0xbe9dd68a	-0.30827743
49	0xbeb0ed71	-0.34556153
50	0x3e535931	0.20639493
51	0xbd9f1f8f	-0.07769691
52	0xbe43827c	-0.19092745
53	0x3ea8534c	0.3287605
54	0xbbf869a3	-0.0075809523
55	0xbefa228b	-0.4885448
56	0x3ca23ab7	0.019803388
57	0xbedb4b12	-0.42830712
58	0x3e463f41	0.19360067
59	0xbe5d468b	-0.21608941
60	0x3e952c84	0.29135525
61	0xbe7ec80e	-0.24881002
62	0x3e989225	0.29799
63	0x3c977cb4	0.01849208

critic.last.model.0.weight f4 [1, 64]
0	0x3ef2cf86	0.47423953
1	0x3eaef1c7	0.34168836
2	0x3e89fa58	0.2694881
3	0xbe1695e3	-0.14705615
4	0xbf0a5265	-0.54031974
5	0x3e6353e1	0.22199966
6	0xbec1eb7f	-0.37874982
7	0xbedad9dd	-0.42744341
8	0xbe172521	-0.14760257
9	0x3edc0b59	0.42977408
10	0xbe5b2c5e	-0.21403643
11	0x3e310568	0.17287219
12	0xbe91702d	-0.28405896
13	0xbe891516	-0.267739
14	0xbe4c5c2b	-0.19957034
15	0xbe264b17	-0.16239582
16	0x3f007b4f	0.50188154
17	0xbf0282cb	-0.50980824
18	0xbecad0ed	-0.39612523
19	0xbef8460b	-0.4849094
20	0xbe942c64	-0.28940117
21	0xbe712010	-0.23547387
22	0xbe92ef88	-0.28698373
23	0xbe34f186	-0.17670259
24	0x3e2b2322	0.16712621
25	0x3ed86776	0.42266434
26	0xbe49b72e	-0.19698784
27	0x3eb58ddc	0.35459793
28	0x3e848c46	0.2588827
29	0xbe58faad	-0.21189375
30	0xbeeb9aab	-0.4601644
31	0xbeb9c9df	-0.36286828
32	0x3e9b6b2a	0.30355197
33	0x3e6c710c	0.23089999
34	0x3e50e3c8	0.20399392
35	0x3e737a41	0.23777105
36	0x3ef2188f	0.47284362
37	0xbf1f995a	-0.6234337
38	0xbf30d056	-0.69067895
39	0xbe5fc2c7	-0.21851645
40	0x3e82ff75	0.25585523
41	0x3e8d819c	0.27637947
42	0xbee27ec1	-0.4423733
43	0xbee647dd	-0.44976702
44	0x3e9a0f41	0.30089763
45	0xbe808c57	-0.2510707
46	0xbe4e4e67	-0.20147096
47	0x3e1c8c5a	0.15287915
48	0xbe966e44	-0.29381
49	0x3e369ccf	0.17833255
50	0x3e1ff13b	0.15619366
51	0x3ec21af1	0.3791118
52	0xbee47601	-0.4462128
53	0x3e8e132f	0.2774901
54	0xbe38f528	-0.1806227
55	0xbe881736	-0.2658021
56	0x3f01a6a3	0.5064489
57	0xbeec0ab5	-0.4610192
58	0xbf219d1d	-0.6313036
59	0x3f3fe67c	0.74961066
60	0x3e400d79	0.1875514
61	0xbebf94e3	-0.3741828
62	0x3ec6e1f0	0.38844252
63	0x3e077a1f	0.13230179

_actor_critic.actor.sigma_param f4 [2, 1]
0	0xc02612a3	-2.5948875
1	0xc057e510	-3.3733559

_actor_critic.actor.preprocess.model.model.0.weight f4 [64, 8]
0	0x3ea30966	0.31843108
1	0xbe020907	-0.12698756
2	0xbd745776	-0.05965372
3	0x3e77c66a	0.24196783
4	0xbebc815f	-0.36817452
5	0xbd094016	-0.033508383
6	0x3e95f902	0.2929154
7	0xbe28c8d6	-0.16482863
8	0xbeab4eab	-0.33458456
9	0x3bd13bef	0.0063853185
10	0x3dded9d1	0.10881389
11	0xbe63a56f	-0.22231077
12	0x3e460ad1	0.19340064
13	0x3e9e5510	0.30924273
14	0xbdc67e6f	-0.09692084
15	0xbed4fb41	-0.41597942
16	0x3f066fae	0.5251416
17	0x3e733bcf	0.23753284
18	0xbdae1a5e	-0.08501123
19	0x3e7098b0	0.23495746
20	0x3ddb97be	0.10722302
21	0x3e045721	0.12923862
22	0x3c7c6aa4	0.0154062845
23	0x3f3492c8	0.7053647
24	0x3ec2e42a	0.380647
25	0x3e831af7	0.2560651
26	0xbe649853	-0.22323732
27	0xbd953e17	-0.07287233
28	0x3d498b48	0.049205095
29	0x3e35d3d6	0.1775659
30	0x3ddea18b	0.108706556
31	0x3e53e5fa	0.20693198
32	0x3ced16d0	0.028941542
33	0x3d67a633	0.056554984
34	0xbf02f64f	-0.5115709
35	0xbe466c8a	-0.19377342
36	0xbe8e979c	-0.27850044
37	0xbd9e86e4	-0.07740572
38	0x3c3508c0	0.011049449
39	0xbe0d70d1	-0.13812567
40	0xbd5810d2	-0.052750416
41	0xbdefe64a	-0.11713846
42	0xbe75624f	-0.23963283
43	0x3d92826b	0.071537815
44	0xbf0e6389	-0.5562063
45	0xbe266deb	-0.16252868
46	0x3d8698df	0.065721266
47	0xbe7855c2	-0.24251464
48	0x3e0c1504	0.13679892
49	0x3e1ac705	0.15114982
50	0xbe9054e2	-0.2818976
51	0x3e2c0445	0.16798504
52	0x3efd22e8	0.49440694
53	0x3d969b83	0.0735388
54	0xbdfc02e5	-0.123052396
55	0xbed87ae2	-0.42281252
56	0x3edd89a5	0.43269077
57	0x3e473ec6	0.1945754
58	0xbd4522c8	-0.048128873
59	0x3d537c1a	0.051632024
60	0x3ed05f39	0.4069765
61	0x3cd59412	0.026071582
62	0x3e737f65	0.23779066
63	0xbedbf83b	-0.42962822
64	0xbbbc443c	-0.005745439
65	0x3dbe8023	0.09301784
66	0xbd6169f7	-0.055032697
67	0x3ec84232	0.39113003
68	0x3eb77dea	0.35838252
69	0x3e072a68	0.1319977
70	0x3e4526af	0.19253038
71	0xbf0ca09a	-0.5493256
72	0xbe001560	-0.12508154
73	0xbe97522b	-0.29554877
74	0x3de11e26	0.109920785
75	0xbd1f8826	-0.0389482
76	0xbecc16f3	-0.3986126
77	0x3dab770a	0.08372314
78	0x3e70ad94	0.23503715
79	0xbdf9dc57	-0.122002296
80	0x3de61a6b	0.112355076
81	0xbee6a9d8	-0.45051455
82	0x3d357038	0.044296473
83	0xbdd320d4	-0.10308996
84	0xbe1578c7	-0.14596854
85	0xbe206fa3	-0.15667586
86	0x3e83a345	0.25710502
87	0xbe89f4f6	-0.26944703
88	0xbedcb22f	-0.43104693
89	0x3ee993be	0.4562053
90	0xbdd87a81	-0.10570241
91	0xbee1ca0b	-0.4409946
92	0x3ea1b3d5	0.31582513
93	0x3cda97ef	0.026683776
94	0xbdf9a30e	-0.12189303
95	0x3d801228	0.06253463
96	0x3eb13cd1	0.34616712
97	0xbddce87d	-0.10786531
98	0x3e5ba606	0.21450052
99	0xbeac48cd	-0.33649293
100	0x3ebea6da	0.37236673
101	0x3ed75fc3	0.42065248
102	0x3ea6a423	0.325471
103	0xbf47b0b1	-0.78003985
104	0xbf17f58d	-0.59359056
105	0x3e1ab1a4	0.15106827
106	0xbe284d36	-0.16435704
107	0x3d1d7f3d	0.038451422
108	0xbe39c86a	-0.18142858
109	0xbee8df7b	-0.45483002
110	0x3de69e88	0.11260706
111	0x3f43056a	0.76180136
112	0x3f02f121	0.51149184
113	0x3d45c890	0.048286974
114	0xbd95c890	-0.07313645
115	0xbe663fa1	-0.2248521
116	0x3d8f3f68	0.06994516
117	0x3e352f66	0.17693862
118	0x3d85c522	0.06531741
119	0xbd8b64b4	-0.06806317
120	0xbe830478	-0.25589347
121	0xbedf910b	-0.43665347
122	0x3d9c3ca1	0.076287515
123	0xbddeca09	-0.10878379
124	0xbef436b1	-0.47697976
125	0xbae2b620	-0.0017296709
126	0x3d10d392	0.03535802
127	0xbe274061	-0.16333152
128	0x3ee27eb4	0.44237292
129	0x3f131f7e	0.5746993
130	0xbea95ab7	-0.33077022
131	0x3e917a4f	0.28413627
132	0xbcc88342	-0.024476651
133	0xbe831526	-0.25602072
134	0xbd45c411	-0.048282687
135	0x3e7ad0f0	0.24493766
136	0xbe966787	-0.2937586
137	0x3e015e5f	0.12633656
138	0x3e0be39f	0.1366105
139	0x3d98531f	0.07437729
140	0x3e65aee1	0.22429992
141	0x3ec5801c	0.38574302
142	0x3e23e79c	0.1600632
143	0x3ed26b6b	0.41097578
144	0xbe981fe2	-0.29711825
145	0xbe8ef6d5	-0.27922693
146	0x3e113313	0.1417964
147	0x3e73894c	0.23782843
148	0x3d2d6ce6	0.04234018
149	0xbe03f3cb	-0.12885968
150	0x3e7f34f0	0.24922538
151	0xbd6afd50	-0.057370484
152	0xbec55b60	-0.38546276
153	0xbe86bfd4	-0.26318228
154	0x3e8295b5	0.25504842
155	0x3da135de	0.078716025
156	0xbc81181c	-0.015758567
157	0xbcbb46f3	-0.02286098
158	0x3d3027c3	0.04300667
159	0xbead9ebf	-0.33910176
160	0x3f00d1a2	0.50319874
161	0x3bf21515	0.007387767
162	0x3e96769d	0.2938737
163	0xbd6a7359	-0.05723891
164	0xbdd3955a	-0.10331221
165	0x3e2d7846	0.16940412
166	0xbcf98cfe	-0.030462738
167	0x3b805881	0.0039168005
168	0x3ea8f3c8	0.3299849
169	0x3d1e5550	0.03865558
170	0xbdbdb821	-0.092636354
171	0xbcf540ce	-0.029938128
172	0xbd1ca968	-0.038247496
173	0x3e93ce0a	0.28868133
174	0xbdbd0b25	-0.09230641
175	0x3e139194	0.14411002
176	0xbec8a245	-0.39186302
177	0xbc31e90d	-0.010858786
178	0xbea1be04	-0.31590283
179	0x3e4e7582	0.20162013
180	0x3e5ee965	0.2176872
181	0xbcb2f361	-0.021844568
182	0x3db829f2	0.089923754
183	0x3ea225a0	0.3166933
184	0xbe1b2576	-0.15151009
185	0x3e75e49d	0.2401299
186	0xbf1ba5b4	-0.6079972
187	0xbe434958	-0.19070947
188	0xbe3fa7e1	-0.18716384
189	0xbd74f54e	-0.059804253
190	0xbd6664bd	-0.056248415
191	0x3e0c4a87	0.13700305
192	0x3e28a746	0.1647006
193	0x3e93d891	0.28876165
194	0xbe98d31a	-0.29848558
195	0x3dc128e9	0.09431631
196	0x3f0075de	0.5017985
197	0xbe067327	-0.13129865
198	0xbded9097	-0.11599844
199	0x3ea0dc97	0.31418297
200	0xbd92ce21	-0.07168222
201	0x3ce88744	0.028384812
202	0xbe75656b	-0.23964469
203	0x3c7f36fe	0.015577076
204	0x3e327f39	0.17431344
205	0x3ea266a4	0.31718934
206	0x3e702d83	0.23454861
207	0xbf42f990	-0.7616205
208	0xbe31c51f	-0.17360352
209	0xbe94c1bd	-0.2905406
210	0x3ed3478d	0.41265526
211	0xbe0e03b0	-0.13868594
212	0x3e4e13c7	0.20124732
213	0x3e191655	0.14949925
214	0xbe4d230e	-0.20032904
215	0x3e2ae407	0.16688548
216	0xbe4622ce	-0.19349214
217	0xbe92a7a1	-0.28643516
218	0xbde8ad28	-0.11361152
219	0xbd8d3bfa	-0.06896205
220	0xbea37536	-0.31925362
221	0xbea00e52	-0.31260926
222	0x3f0b3cf4	0.5438988
223	0xbecbfbac	-0.39840448
224	0xbce1bb65	-0.027555177
225	0x3e9080c1	0.2822323
226	0xbe8649b4	-0.26228106
227	0x3c575e47	0.013145036
228	0x3e9d2b27	0.30696985
229	0xbc0f5783	-0.008748892
230	0xbd8e4b97	-0.06948011
231	0x3d88e004	0.066833526
232	0xbe8a6957	-0.27033493
233	0xbefad521	-0.4899073
234	0x3ec6e518	0.3884666
235	0x3e3065cc	0.17226332
236	0xbe71b5c1	-0.2360449
237	0xbdfcb01e	-0.12338279
238	0x3e3618a3	0.17782836
239	0xbed057d0	-0.40691996
240	0xbe3eb16e	-0.18622372
241	0x3ecb5b51	0.39718106
242	0x3cfa4523	0.030550545
243	0xbe2f8770	-0.17141509
244	0x3e9ef802	0.3104859
245	0xbe05a757	-0.13052116
246	0xbe489bf4	-0.19590741
247	0xbc54bdd9	-0.012984716
248	0xbdfc1daf	-0.12310349
249	0xbd706e7e	-0.058699124
250	0x3d289b98	0.04116401
251	0xbeac151d	-0.33609858
252	0xbe6af43f	-0.22944735
253	0xbe95171e	-0.291192
254	0x3e4c4176	0.19946846
255	0x3f1c589d	0.61072713

_actor_critic.actor.preprocess.model.model.0.bias f4 [64]
0	0x3cecb54e	0.028895047
1	0xbc8c1a2c	-0.017102323
2	0x3cf2d770	0.029643744
3	0xbe4008d1	-0.18753363
4	0x3d7ab910	0.061211646
5	0xbe22106d	-0.15826578
6	0x3dd3e79c	0.1034691
7	0xbe2ba3a5	-0.16761644
8	0xbdadeaaf	-0.08492028
9	0xbdd2c4f6	-0.102914736
10	0xbdac5ae2	-0.08415772
11	0xbd833a00	-0.06407547
12	0x3b0a0b83	0.002106399
13	0xbd7511c2	-0.05983139
14	0x3e2199f5	0.15781386
15	0xbd1343e9	-0.035953436
16	0xbd0835f2	-0.03325457
17	0x3d7cc80b	0.061714213
18	0xbd146163	-0.036225688
19	0x3cfc8930	0.030827135
20	0x3dbfc19f	0.09363102
21	0xbe5c70dc	-0.21527427
22	0x3cab1146	0.02088226
23	0xbddac564	-0.106821805
24	0x3d81d4b4	0.06339398
25	0x3cbd2249	0.023087637
26	0x3dd6d946	0.1049066
27	0xbd99d78e	-0.07511817
28	0xbcb56f0e	-0.022147682
29	0x3d887dfa	0.06664653
30	0xbd495910	-0.049157202
31	0xbe11ce47	-0.14238845
32	0xbd91b98f	-0.071154706
33	0xbd82c2dd	-0.063848235
34	0xbe2480b4	-0.16064721
35	0x3e10f16a	0.14154592
36	0xbba91cf8	-0.005160924
37	0xbcdd8496	-0.027040761
38	0x3cba8619	0.02276902
39	0x3e4d5fee	0.20056126
40	0xbc0bea02	-0.0085396785
41	0x3d09219e	0.033479325
42	0xbd96f581	-0.07371045
43	0xbe482ee5	-0.19549139
44	0xbdccb0cc	-0.09994659
45	0x3e16d801	0.14730836
46	0x3cce06bb	0.025149694
47	0xbd21c87d	-0.03949784
48	0x3c249fe9	0.010047891
49	0xbdf103a7	-0.11768275
50	0xbd7c5b60	-0.06161058
51	0x3d81d152	0.06338753
52	0xbe73203c	-0.23742765
53	0xbdad76d4	-0.0846993
54	0x3cee1c52	0.029066239
55	0xbd413fe9	-0.04718009
56	0x3d65d8d9	0.056115005
57	0xbd80d7e2	-0.062911764
58	0x3e2f38d0	0.17111516
59	0xbe778120	-0.24170351
60	0xbe1ea55c	-0.15492767
61	0x3dbe7ae6	0.09300785
62	0xbceb0330	-0.028688043
63	0xbd06f478	-0.032947987
